FinalisedVodka/Models/epoch1_valpr0.38.pth (torch, 577833 bytes, 23 tensors)

read_encoder.0.weight f4 [128, 31]
00000000: 0271 503e 4b86 493e fa04 2fbd d17a ea3e
00000010: add4 3b3e 7b9d 023d 01b1 31bd f0f0 933e
00000020: 80a0 343e 8627 1cbe 19c2 b93e dc19 8f3d
00000030: 18f2 223d 9009 053f b44c a7be 539a 773e
00000040: d51e b03e 5c46 1bbf 3f85 2c3f 58c7 8f3f
00000050: 7993 71bf ea04 1e3f ee7e 9cbe edd7 c3be
00000060: e47d 863e 6ddd e83e 85c7 66bf 40dc a13c
00000070: 55a8 46be 43e3 51be 5a96 943e 256c 07be
00000080: a78a 6e3e 84e1 1e3d 8ff5 21be af92 303e
00000090: b1b0 e43c dd9f b63d 3573 e13d 3279 90bd
000000a0: 5b78 ba3d 24e5 cfbe 60c3 58bd eab6 f73e
000000b0: 6e11 1d3c 9612 fd3e 9987 17bf a5c0 b5bd
000000c0: 944a fe3d 2b6d 52be f81e 0ebf 3823 c43d
000000d0: c4b8 0b3e 71ef 493e 7211 bebd 5dea dabd
000000e0: dbf4 5dbe bf85 173e 0fb0 da3d 50ef 13be
000000f0: b607 8cbd b8df 21be 6d7b 203e e725 6abc
00000100: 0a01 6e3d 8c21 813e 5694 b43e 1283 d9bd
00000110: d478 37bd c43e b93d c5c2 333e c48a c13d
00000120: 5f67 b03e e6f0 41be cdde 6cbe f44c 3e3e
00000130: 3f99 e1be 9232 d83e 315d 473e 863f 89bd
00000140: 7c9b 213f 0724 743f 381a 47bf af1a fa3e
00000150: 14aa edbd ce56 f2be e90f f73e 9b84 963e
00000160: 9adc 6dbf d264 363e 8362 debd f327 88bd
00000170: 28d1 403e c2e8 6e3e d91c c9bd 95f6 a4bc
00000180: 2d77 af3d f908 20be 60ed d839 2c20 cebd
00000190: 50db 3abe 7340 d63d 0439 0dbc aac8 c3be
000001a0: e254 493e b3a3 0e3d 6477 f0be 35c4 b13e
000001b0: 678c 6bbe 375f 87be 07f5 d33e 3751 63bd
000001c0: 1ccc 85be f942 213e 5d09 ff3b eea7 57bd
000001d0: ae21 ee3e 0ca7 16bf 45ca cbbe a7fc 553e
000001e0: 8411 5fbe c518 ce3a abe1 ffbd 80dc 4dbe
000001f0: ed31 213d c115 343c 7d08 fe3c b9e1 f3bd
00000200: 51f1 6e3e 47c9 733d 28ce 873e 280e 9c3d
00000210: b0fc 57bd e0a1 933e 33ef 90bd f30d 99be
00000220: b0c0 4d3e 4d50 24bf 94bd 1b3f cc1d 59be
00000230: 2142 16be 477c 2b3e 0346 b73d 09bb 7dbe
00000240: aa34 823e 78b9 0a3e 3f62 a63d 3b62 383e
00000250: d9d3 af3e 4d9e f8be 80c0 883e a67c 6dbe
00000260: 4c80 13be 69a6 1dbe 35fd ac3d 1650 31be
00000270: 4d74 bd3d f7e0 8c3d 3048 d1bd dbc1 64be
00000280: 1625 243e 0675 93bc e776 cdbd 1216 27be
00000290: b2ce 913d 6cf6 1dbe 1145 0abd c0b5 3b3e
000002a0: 617f afbe 6358 a93e d172 1fbe cc65 fcbd
000002b0: 5d62 7f3e f813 ebbe ba4d 3cbf 8756 d53e
000002c0: 24e7 f3be fbd2 d13d 9b7c 1a3f e012 1dbf
000002d0: 8370 80be 06df e33e c2b1 41be 6b42 033d
000002e0: 8f8f c13b 42be be3d 3458 463d a8e7 ffbd
000002f0: 1e09 c33c 7114 efbc db34 63be 2656 6d3c
00000300: ac48 543e 4bd5 dcbc 5515 b83d ddfe c9bc
00000310: 3338 233e 6dc3 9c3e d7f7 99be 0f6f 96be
00000320: cc40 13bf 119e 0d3f d6f9 51bc 6be3 9c3e
00000330: 82c5 58bf 12df 4cbf ee5d 413f 8a9e acbf
00000340: af73 1ebc b86f 7c3f d711 e8bd 4f8e 1abd
00000350: ce11 973e 5588 c1be 249c c83d 7c7a 4d3e
00000360: c7b4 923d 211f 21be 3dfe 9b3d a2d7 04bd
00000370: f0e2 63be ee6c 093d f5fb dfbc f187 3dbc
00000380: a5e0 5abe fd0d 413e 279a 4cbb 7b4f 613e
00000390: 30b9 b43c 5220 53be fc9b f9be 67bd d8bd
000003a0: 39f5 1a3f 3c79 05bd 5ef4 c13e be1f 37bf
000003b0: c500 2dbf 8dc9 1c3f 279d 77bf 49b0 17be
000003c0: 9756 4b3f b5c1 bbbe bc8a fabc 02a7 933e
000003d0: 40f8 81be 16c5 ea3c a397 063d bf01 653d
000003e0: 174b 14bc 5de9 063e 5109 1abc f1ba 3a3c
000003f0: 7bbd 92bc ede1 d9bc 1788 023d 72df f8bd
0.20355609 0.19680135 -0.042729355 0.45796826 0.18342848 0.031888466 -0.043381695 0.28894758
0.17639351 -0.15249452 0.36280897 0.06987354 0.03978166 0.51967716 -0.32675707 0.24179964
0.34398523 -0.60654235 0.6739082 1.123271 -0.9436565 0.6172625 -0.3056559 -0.38250676
0.26267922 0.45481434 -0.9014819 0.019758344 -0.19400151 -0.2049685 0.2902096 -0.13224848
0.23295079 0.038789287 -0.1581633 0.17243455 0.027916284 0.0891721 0.11008302 -0.07054366
0.09104987 -0.40604508 -0.0529207 0.4838174 0.009586675 0.49428242 -0.5919128 -0.08874635
0.124165684 -0.20549457 -0.55516005 0.0957703 0.13644701 0.19720246 -0.09280671 -0.106892325
-0.21675436 0.14797114 0.10678112 -0.14446759 -0.06837408 -0.15807998 0.15672083 -0.014291263
0.05810646 0.25220907 0.3526942 -0.10620703 -0.044792965 0.09045175 0.17554767 0.094502956
0.34453866 -0.18939552 -0.23131867 0.18584043 -0.4406223 0.42226082 0.19469143 -0.06701569
0.63127875 0.95367473 -0.7777438 0.48848483 -0.116047055 -0.47331852 0.48254326 0.29398045
-0.92914736 0.17811897 -0.10858633 -0.06648245 0.18829787 0.23330978 -0.098199554 -0.02013711
0.08567653 -0.15628423 0.0004137559 -0.1006473 -0.18247724 0.104615115 -0.008619551 -0.38239032
0.19661286 0.034824084 -0.46966088 0.34720007 -0.23002778 -0.2643983 0.4139788 -0.055497374
-0.26132286 0.15748204 0.0077830986 -0.052650385 0.4651007 -0.58848643 -0.39802757 0.2089716
-0.21784025 0.0015723935 -0.124942146 -0.20103645 0.039354254 0.010991515 0.031009907 -0.119082876
0.23334242 0.059518125 0.26524472 0.076198876 -0.052731216 0.28834438 -0.07076874 -0.29893455
0.20093036 -0.6418503 0.6083615 -0.21202773 -0.14673664 0.16746627 0.089489006 -0.2477838
0.25430804 0.13547313 0.08124208 0.18006222 0.34341314 -0.48558274 0.26709366 -0.23192081
-0.1440441 -0.15395512 0.08446733 -0.17315707 0.09250698 0.06878846 -0.10218847 -0.22339575
0.16029772 -0.018000137 -0.100324444 -0.16317013 0.07119502 -0.15426034 -0.033757273 0.18331051
-0.3427687 0.33075246 -0.15571143 -0.12324104 0.24939866 -0.45913672 -0.735561 0.41667578
-0.47637284 0.102453195 0.6034638 -0.61356926 -0.2508584 0.4450609 -0.18915465 0.032045763
0.005907006 0.093136325 0.04842396 -0.12495357 0.023808058 -0.029184552 -0.22188132 0.014485871
0.20730847 -0.026957175 0.08988444 -0.024657661 0.15939407 0.30617848 -0.300719 -0.29381606
-0.5752075 0.55319315 -0.012815913 0.30642256 -0.84676373 -0.8002788 0.7553395 -1.3485882
-0.009671136 0.9860797 -0.11331528 -0.037733372 0.2950577 -0.37799326 0.097954065 0.20066255
0.07163387 -0.15734531 0.076168515 -0.032432206 -0.22254539 0.03355115 -0.027341822 -0.0115680555
-0.21374758 0.18852992 -0.0031219812 0.22002976 0.02206096 -0.20617798 -0.4875182 -0.10583001
0.6053043 -0.03258632 0.3788175 -0.7153281 -0.675793 0.6124504 -0.9672417 -0.14813341
0.79429 -0.36671224 -0.030583732 0.28838354 -0.25384712 0.028658431 0.032859456 0.05590987
-0.009051106 0.13174959 -0.009401635 0.011397109 -0.017912617 -0.026596988 0.031868067 -0.12151994

read_encoder.0.bias f4 [128]
00000000: 5764 f0bd 44ab e7bc c497 703d 7d43 3b3e
00000010: 118b 923d db60 11bd 326c 55bc 9b86 3e3e
00000020: 1aa1 543e b520 193e 0049 713d d9c4 1c3e
00000030: 9889 3e3e aa66 593e 45c5 a43d d389 b5bc
00000040: 29e0 63bd 27d4 ff3d c61c 433e c68b 86bb
00000050: d237 1c3e 2c16 23be 6344 103c 76cc 1f3e
00000060: 7bff f63d 538b b53c f073 543d 91be 983d
00000070: 1271 e73c d5ff a1ba 6824 4dbc 8766 02bd
00000080: dbd6 373e 053c e53c 06d0 f4bc 91cd 8a3d
00000090: 7ded 1bbe 4783 22bd cee9 943e ee0d ba3d
000000a0: 534f f63d fbd1 2ebe 6f83 5d3d 8b19 313e
000000b0: 6c6c 1cbe b9f0 003c 0e09 233e 4ce1 063e
000000c0: be25 753e 5da8 14be eee0 f23d f565 a6bd
000000d0: 30b9 843d 2245 883e e1b0 1fbe a140 c4bb
000000e0: 8c1f aabd 845e 383e 6aa0 383e 07ef 813d
000000f0: da1d 39bd a6e3 a53d 094b 3839 0a9d ebbc
00000100: 5ed2 4a3e 818a 3bbe 761e 163c 34d1 d83c
00000110: 7774 9d3d 7cf3 a6bd 4784 923e c2ba fbbd
00000120: c44a b03c cf31 b23d c034 9c3d 195d 3f3e
00000130: 5eb7 2b3e 06ce 793e 7e44 503c 9ddf 423e
00000140: 07bf 5fbd b34a a43d 3c93 ad3d 3d57 913e
00000150: e85d 4fbe 7c6c 87bd 88a1 95bc c0a5 493e
00000160: b53d bf3d 5e23 93bd 4efc 583a 394d fc3d
00000170: 259b 113e 0ecc 8a3e f545 893d f617 4abd
00000180: d85b 743b 4f65 2bbd ff4d 3b3e 369f c53d
00000190: 05ab eb3b f5cb 9b3d 387e 5e3d c70e e83d
000001a0: 9744 3cbe 7e56 423e 03d9 f23d 9866 9c3d
000001b0: d02a 8bbb e83d ebbd 3045 d9bc 1b1f 9dbc
000001c0: 7654 003e 8bec a6bd 2212 093e 41dc ed3d
000001d0: 2de0 923e 6a1b 2dbe b270 91bd 70fd 393b
000001e0: d474 52be aa42 023c 4015 17be 2ade 383e
000001f0: d761 73bc 8452 b63b d656 2abe 6699 03bc
-0.11737888 -0.028279908 0.058738485 0.18287463 0.07155431 -0.03549276 -0.013026284 0.18606035
0.2076458 0.14953883 0.05890751 0.15309466 0.18607175 0.2123057 0.08045439 -0.022160446
-0.055633698 0.12491637 0.19053945 -0.0041060178 0.15255669 -0.15926427 0.008805367 0.1560534
0.12060448 0.022161162 0.05186838 0.07458223 0.028252158 -0.0012359569 -0.012520887 -0.03183606
0.17953055 0.027982721 -0.02988435 0.0677749 -0.15227313 -0.039675977 0.2908463 0.09084688
0.12026849 -0.17072289 0.054080423 0.172949 -0.15275735 0.007869893 0.15921423 0.13171881
0.23940179 -0.1451735 0.11859308 -0.081249155 0.06480634 0.26615244 -0.15594818 -0.0059891497
-0.08306798 0.18004805 0.18029943 0.06344419 -0.045194484 0.08100061 0.0001757556 -0.028761405
0.19806811 -0.18314554 0.009162536 0.026466943 0.076882295 -0.0815191 0.28616545 -0.122914806
0.021520026 0.087009065 0.07627249 0.18687858 0.16769168 0.24394998 0.012711642 0.19030614
-0.054625537 0.0802206 0.08475348 0.2838687 -0.20250666 -0.066124886 -0.0182655 0.19692135
0.093379416 -0.0718448 0.00082773424 0.123194166 0.14219339 0.27108806 0.06702796 -0.049339257
0.0037286188 -0.041844662 0.18291472 0.09649508 0.007192018 0.07607261 0.05431959 0.113309436
-0.1838554 0.18978307 0.11857798 0.07636756 -0.004247047 -0.11486417 -0.026522249 -0.019179871
0.1253222 -0.08150586 0.13385823 0.11614276 0.28686658 -0.16904989 -0.07101573 0.002837982
-0.20552379 0.007950464 -0.147542 0.18053499 -0.01485487 0.005564036 -0.16634688 -0.0080321785

read_encoder.1.weight f4 [128]
00000000: 0faa 8a3f 45ce 3c3f 79e8 883f 5d71 093f
00000010: 30e1 823f bd2f 333f e951 973f 8898 6c3f
00000020: 9bc0 683f d73a 8f3f 9cf9 903f e92b 5c3f
00000030: 7945 7d3f e51f 833f bb83 1c3f 6fc1 853f
00000040: 3b03 7f3f fcde 9a3f e2ba 8e3f b3e8 6d3f
00000050: f21b 843f 8b90 833f 25fb 9a3f 3ee1 7d3f
00000060: 95f0 463f 7295 743f 1eeb 743f 05ca 763f
00000070: f359 8a3f 3215 783f cc3b 733f 7b18 ec3e
00000080: 8750 7a3f f8f6 4f3f 1069 dd3e 43b1 7b3f
00000090: 07da 7a3f 51ff 7e3f 22c7 853f 0d22 9b3f
000000a0: 2420 4e3f 33f2 443f 605d 8d3f d652 733f
000000b0: 7b2d 6b3f 0297 9b3f 2604 123f 673c 753f
000000c0: d73e 6f3f 2a82 2f3f 2497 693f d846 6b3f
000000d0: 0a1a 813f 819b 4b3f 78c7 923f fac2 4a3f
000000e0: 6ee6 883f dd17 503f e326 483f 5839 863f
000000f0: 6644 743f 1967 8e3f 3457 393f 8f92 3a3f
00000100: d489 443f 6187 793f 52e3 883f 6663 7a3f
00000110: b036 5f3f a10c a23f d3f0 a13f 3b74 993f
00000120: 9298 813f 4d4e 6d3f 48af 573f 79c2 703f
00000130: ac13 9f3f 1bf7 833f 6939 853f af48 6e3f
00000140: 2acd 813f f922 823f dc13 8d3f abb2 8e3f
00000150: 53c6 383f 6276 853f 0e68 933f 703b 803f
00000160: 0aef 813f 2759 773f 351d 713f c0e3 873f
00000170: e4e0 373f f72d 8b3f 6e57 903f 4af7 593f
00000180: d53f 543f a291 533f e038 7f3f 83f9 7d3f
00000190: 2735 a73f 81a2 723f c9b0 8c3f 8c49 703f
000001a0: 9544 7e3f 3a77 723f e6cb 803f d1e2 8a3f
000001b0: ef5b 2a3f 5f9e 613f 6837 823f 0a46 a43f
000001c0: 3e2a 4f3f a66f 993f 7a0a 633f 257c 8b3f
000001d0: 871e 603f a4a8 773f 8ed4 313f cdb6 763f
000001e0: 809a 743f 9548 933f 0362 783f bf66 7f3f
000001f0: 26dc 8e3f 5a89 5c3f 3160 7a3f 1ee9 873f
1.0833148 0.7375224 1.0695945 0.53688604 1.0224972 0.6999472 1.1821872 0.92420244
0.9091889 1.1189831 1.1326175 0.860045 0.9893413 1.0244108 0.61138505 1.0449656
0.99614304 1.20993 1.1150782 0.92933196 1.0321028 1.0278486 1.2107893 0.9917182
0.7771085 0.95540535 0.9567126 0.9640201 1.08087 0.9690734 0.9501312 0.46112427
0.97779125 0.8123622 0.4324422 0.98317355 0.97988933 0.9960833 1.0451396 1.2119766
0.8051779 0.76932067 1.1044121 0.9504827 0.9186627 1.2155459 0.5703758 0.9579529
0.9345526 0.6855799 0.9124625 0.91904974 1.0086071 0.79534155 1.1467123 0.7920376
1.0695322 0.8128641 0.78184336 1.048625 0.9541687 1.1125213 0.72398686 0.7287988
0.7677281 0.97472197 1.0694373 0.9780792 0.8719282 1.2660104 1.2651619 1.1988596
1.0124686 0.926976 0.8425183 0.9404674 1.2427878 1.0309786 1.0408145 0.93079656
1.0140736 1.0166923 1.1021686 1.1148275 0.7217762 1.0426753 1.151613 1.0018139
1.0151074 0.9662041 0.9418519 1.0616379 0.7182753 1.0873402 1.1276681 0.8514296
0.829099 0.82644093 0.9969616 0.9920885 1.3063096 0.9477921 1.099145 0.93862224
0.993234 0.94713175 1.0062225 1.0850469 0.6654653 0.8813228 1.0173159 1.2833874
0.8092383 1.1987197 0.8868786 1.0897261 0.8754658 0.967417 0.6946496 0.9637268
0.9554825 1.1506525 0.97024554 0.99766153 1.1160934 0.8614708 0.97803026 1.0618017

read_encoder.1.bias f4 [128]
00000000: 0843 62bb b874 cebd 9fa0 ea39 229c 11be
00000010: 3c94 b0be 75bb 5fbd 3231 04bb cbf7 9fbb
00000020: e063 81bc 0d7e 4c3d 8b0c 5f3d 9448 25bd
00000030: d1f6 a0ba 3142 7bbe f512 41be 745f 06bc
00000040: f4a9 b1bc 9693 dd3c 8bf3 0dbe 3b80 98bd
00000050: 4f62 87be 3bc7 1d3c 8136 673d 0bc9 e2bc
00000060: 87ce 07be 0a49 6abd 0ddd 9abd c602 99be
00000070: d4ea da3b 222b 5abd 2ca4 90be 6eb6 5dbe
00000080: c926 4dbd 6b24 3cbd c00c 52be dabe 5ebd
00000090: 8170 39bd 55dc ab39 ec54 10be c679 8ebe
000000a0: 24cd a6bd 25a9 2cbe 4157 3fbe 4614 88bd
000000b0: ef83 bb3c 0d7a c13c 98d1 41be 081c 8dbe
000000c0: 0244 9cbe ca8a 71be 4258 3dbd e5ad 46bd
000000d0: c89a 2fbd 4a56 edbd ddc7 013c e9a8 eebd
000000e0: bff8 a0bc b37b 61bd e6b8 efbc 484d 94bc
000000f0: fbb8 89bd f07d d2bc 4184 e3bd 3a29 2fbe
00000100: 0f7f 67bd 70c8 14bd 56fb 0bbc 764f 58bd
00000110: e24d c2bd a4a5 1f3d 9f06 bcbe 698a 083d
00000120: 07ab c1bc b33e 8cbd 1661 8ebe a699 46bd
00000130: 479a 473d dc55 71be bfb3 7c3b 8780 86bd
00000140: ad52 e2bc 2f11 2f3c 08a1 4ebd ab76 57be
00000150: 6bbc 39be 2b6b e7b8 e96a 873c 63f1 5ebe
00000160: ab89 4ebd 27e9 34bd 9c85 383c 4ff4 e6bd
00000170: 4fd7 2fbd f67d 143c 356b 2e3d f674 15be
00000180: 8b38 c3bd 3ecb b1be 2da2 17bd d21b cebc
00000190: 398b cb3c 5641 92bc 2aeb caba 864b a6bd
000001a0: 1503 643a f7ff 8dbe 3ac8 48bd 1567 50be
000001b0: 0843 63be 6844 59be f2e6 45be 4984 793c
000001c0: e590 15be 9eb4 eabc defe ebbd 26ac 9cbc
000001d0: cfdd afbe ce7e 06bd a59f 6bbd 5cde d4ba
000001e0: 8f44 3ebd 2a96 89be bf1f 40bd afcf 173d
000001f0: 119c a1be 3faf 21be 884e 98bc 58fe 25bd
-0.0034524817 -0.10080856 0.0004475163 -0.14219716 -0.34488094 -0.054622132 -0.0020170924 -0.004881834
-0.015794694 0.0499249 0.05445532 -0.04035242 -0.0012280588 -0.24536969 -0.18854888 -0.008201469
-0.021687485 0.027047914 -0.13862436 -0.07446333 -0.2644219 0.00963002 0.056448463 -0.027683755
-0.13262378 -0.05719856 -0.07561693 -0.29884928 0.0066808257 -0.05326379 -0.28250253 -0.21651623
-0.050085817 -0.04593317 -0.20512676 -0.05438123 -0.045273308 0.00032779822 -0.14094895 -0.2782728
-0.08144596 -0.16861399 -0.18685628 -0.06644492 0.02289006 0.023617769 -0.1892761 -0.2756045
-0.30520636 -0.235881 -0.046226747 -0.048505682 -0.04287222 -0.11588724 0.007921186 -0.11653311
-0.019649861 -0.05504961 -0.029262971 -0.018103257 -0.06724735 -0.025694817 -0.1110921 -0.1710557
-0.056517657 -0.036323965 -0.00854381 -0.052810155 -0.09487511 0.038976327 -0.36723801 0.033335123
-0.023641123 -0.068478964 -0.27808446 -0.048486374 0.048731115 -0.23567909 0.0038559285 -0.065674834
-0.027627314 0.010685249 -0.05044654 -0.21041362 -0.18138282 -0.000110349 0.01653047 -0.21771769
-0.05042426 -0.044167664 0.011262324 -0.11277067 -0.042929944 0.009063235 0.04258271 -0.14595398
-0.09532269 -0.34725374 -0.037019897 -0.02515975 0.02484666 -0.01785342 -0.0015481461 -0.08119874
0.0008697969 -0.27734348 -0.049019076 -0.20351823 -0.22193539 -0.21217501 -0.1932638 0.015229293
-0.14606054 -0.028650578 -0.115232214 -0.019125056 -0.34348914 -0.032835774 -0.057525296 -0.0016240585
-0.0464521 -0.2687238 -0.046905275 0.037063297 -0.31564382 -0.15789507 -0.018592134 -0.040525764

read_encoder.3.weight f4 [128, 128]
00000000: 2566 0cbe 9991 0c3d f858 9d3d a34c 4d3d
00000010: e435 78bc dc15 ac3d 0aaf 37be b1a7 a8bd
00000020: 5dfc c2bd 1280 2fbd 56be c0bc c925 a1bd
00000030: c06e c1bc 6259 69bd ed1a babd 6821 443d
00000040: 57e9 39bd a1fc 9b3c ae1d 53bd c827 5dbd
00000050: c025 273d dc4e 1c3d f37d 1cbe e115 f1bd
00000060: 0b6b b83d 82a1 44bc c99e 45bd d6b5 903d
00000070: d392 b5bd 226f a9bd 5e43 06bb 9126 3d3c
00000080: fd42 e9bc 4658 b4bd 031c 023c 9b56 5fbd
00000090: 3e56 9dbd 53f9 643d 47b9 87bd ef25 e0bc
000000a0: 0c3f c8bd 43f2 ff39 a873 49bd 2bac 88bd
000000b0: 6825 4cbd 8264 b7bc edca 2e3d 7d03 2fbc
000000c0: 8a48 05bd 564e 14bd 3907 7a3d 681e 273c
000000d0: f27a 323b 7772 b3bd 817c 083b 95c8 d2bc
000000e0: 080a 0cbe ddfa 85bd d558 173c cc9a f6bd
000000f0: 5b50 fbbd 2e11 73bc d703 833b fd72 b23d
00000100: e392 383d b6dd f73c 764b 023d ef92 00be
00000110: d100 e2bc 3ed3 403e a038 e93c 6810 4ebd
00000120: bbb3 293d 3958 c0bd 82be 0bbd 0b8e 1ebd
00000130: a03c 16be 4e9f 15bd 656d 59bd b936 56bb
00000140: 8fba 5bbd a230 aabd c891 e2bd 9861 c93d
00000150: 8578 333d 04c1 073e c0ef a13d 3512 babd
00000160: 2c90 0abe 15c3 13bc 325b a13d c8bb 09be
00000170: a7c2 49bd bb8a a2bc 52c1 053d 22c7 aa3d
00000180: 0ccf 7e3d d3aa c63c 59df cebd ded0 90bc
00000190: e9ee 1d3d 1b39 fdbd 4a83 41bd e067 68bd
000001a0: 872c 1ebd 0a8f 9dbc 8b38 bebd bf9e d3bd
000001b0: 1741 f4bc 49db 283d ee2c 0ebd e574 ff3d
000001c0: e956 84bd abaf 00be e9f7 bbbd b659 14be
000001d0: 3f0f 85bd e4e7 fc3d e9aa 8f3c a0cc 16bb
000001e0: 52c2 763d be26 f0bd 138f ac3d 5a99 5f3d
000001f0: 0ed1 0ebd 79b3 9abd 0e86 bdbb 1ca3 f1bc
00000200: 9207 f2bd d813 22bd 91ba 093b e820 753d
00000210: aa57 85bb 0f4a d8bd dd7b db3d db69 4bbd
00000220: dfaa b13d cc05 3ebd d862 6cbd 602e e43d
00000230: 8e43 6d3d 60ab 33bd 138c 4b3d 1d06 dcbc
00000240: e0ae e33c efd9 bcbc 3710 333d e3de bc3d
00000250: 96ab 483b e5e1 c1bd 0450 063e 1ca9 6cbd
00000260: f3ad d03d 522b 7cbd f75a 823d 6474 1f3d
00000270: d021 6f3d 3e5a 753c 04e5 bf3c b497 dabc
00000280: e5f7 493d 5d03 c03d 5a61 06bb 0a64 803d
00000290: ffc3 6d3c 6008 25bd 5021 81bd 75ef 963d
000002a0: cb03 65bc c20d 553d 19d5 bdbd f6a8 b4bc
000002b0: 62ac 8fbc 04fa a83d a76b 9c3d df8b ad3c
000002c0: d44a 02bd 52f6 bbbd 6f24 89bc 641d 8cbc
000002d0: 5dd4 613d a46b 56bd 8e5d 39bd 1fbd b03d
000002e0: e82e 9c3d ae7e 24bd 4558 f13b eae5 38bd
000002f0: e3a7 513d 9b7b 06bd 13f5 84bc 5429 7d3d
00000300: 8e13 a53d b929 853d 2f04 35bd 2d32 cc3c
00000310: f8e2 f8bb 4e86 403c bcee 2c3d de96 49bd
00000320: ce7a eaba e7de 1e3d a609 98bd 99f8 963c
00000330: 8045 7fbd cf59 c8bc 95ff 28bb d783 f3bc
00000340: 9023 77bd 4afd 2b3e c46a 3f3c 6048 0abc
00000350: b9c0 843d ddf1 a4bd 89a8 c9bc ceca 293d
00000360: a59e cebc d60e 0a3d 1703 46bd 647f fd3c
00000370: 5763 483c 83e1 bb3d f1ae b6bc 14e7 92bd
00000380: 019a 1c3d 8532 43bc 20a8 403d e99e c03c
00000390: 51da 13bd 9865 163e aee3 243d 0812 08bd
000003a0: b2e5 a43c 99f8 9e3d 41d7 a13c e08b aabd
000003b0: 9d4e 63bd 9d32 7d3d 1abb 44bc 3365 8a3c
000003c0: eaa2 99bd 8595 253d efe7 9dbc 9c62 753d
000003d0: a0b7 283d e6e1 473d aa57 fa3d 39ca f5bb
000003e0: ae90 903d 64f6 013e d178 bebd 5515 9a3d
000003f0: 8772 2bbd 21ef 3c3d 9f63 aebc 1120 3c3d
-0.1371084 0.03431854 0.07682985 0.050121915 -0.015149567 0.08402607 -0.17937866 -0.082351096
-0.09520791 -0.042846747 -0.02352826 -0.07868535 -0.02361238 -0.056970008 -0.09087167 0.04788342
-0.045388546 0.019041361 -0.051541977 -0.053993016 0.040807486 0.038161144 -0.15282421 -0.11771751
0.09004792 -0.012001397 -0.048247132 0.070659325 -0.08865895 -0.0827315 -0.0020486931 0.0115448395
-0.028474325 -0.08805899 0.007941249 -0.054525953 -0.07682465 0.055901837 -0.06627136 -0.027361838
-0.0977765 0.0004881789 -0.049182564 -0.066734634 -0.04984036 -0.022386793 0.042673994 -0.010681984
-0.03253988 -0.03620752 0.061042044 0.0102001205 0.0027233926 -0.08762067 0.0020826163 -0.02573041
-0.13675702 -0.06541989 0.009237488 -0.12041244 -0.12271186 -0.014835639 0.0039982605 0.087133385
0.045061957 0.030257087 0.031810246 -0.1255605 -0.02758828 0.18830582 0.028469384 -0.050308615
0.04143117 -0.09391827 -0.03411723 -0.03870968 -0.14671564 -0.036528878 -0.053082842 -0.0032686426
-0.053644713 -0.08310057 -0.11062962 0.09833068 0.04381611 0.13257223 0.07907057 -0.09085504
-0.1353156 -0.009018679 0.07878722 -0.13450539 -0.0492579 -0.019841542 0.032655068 0.08338763
0.062209174 0.024251377 -0.10101194 -0.01767772 0.03855792 -0.12364408 -0.047244348 -0.056739688
-0.038616683 -0.019233245 -0.092881285 -0.10333013 -0.029816194 0.04122475 -0.034710817 0.12473468
-0.06461889 -0.12567012 -0.091781445 -0.14487347 -0.064970486 0.12348917 0.017537551 -0.002301015
0.060243912 -0.117261395 0.08425727 0.054589607 -0.03486734 -0.07553763 -0.005783803 -0.029496722
-0.1181785 -0.039569706 0.0021015743 0.059845835 -0.0040692883 -0.105610006 0.107169844 -0.0496615
0.08675169 -0.046392247 -0.057711452 0.11141658 0.057925753 -0.043864608 0.049694132 -0.026858384
0.027793348 -0.023053138 0.043716636 0.092222 0.0030619851 -0.09466914 0.13116461 -0.057778463
0.10189428 -0.06156475 0.063650064 0.038929358 0.058381855 0.014975129 0.023424633 -0.026683666
0.049308676 0.093756415 -0.0020504803 0.06269081 0.014512061 -0.04029119 -0.06305182 0.073698916
-0.013977955 0.052015074 -0.09269161 -0.022053223 -0.017538253 0.08250812 0.076377206 0.02118486
-0.031809643 -0.09177841 -0.016741006 -0.017103858 0.055134166 -0.052348748 -0.045255236 0.08629822
0.07626134 -0.040159874 0.007365259 -0.045141138 0.0511855 -0.032832723 -0.016230142 0.06180699
0.080603704 0.065020986 -0.044193443 0.02492627 -0.007595416 0.011750771 0.042219862 -0.049216144
-0.0017889382 0.038786795 -0.07423715 0.018429087 -0.06232214 -0.024456887 -0.0025787104 -0.029725952
-0.06033665 0.16795841 0.01168317 -0.008440107 0.064820714 -0.08053944 -0.024616497 0.041453175
-0.025222132 0.033705555 -0.04834279 0.030944534 0.012230716 0.09173872 -0.022300215 -0.07172981
0.038232807 -0.0119139 0.047035336 0.023513274 -0.036096875 0.14687192 0.040256195 -0.03322032
0.020129059 0.0776226 0.019755961 -0.0832746 -0.055494893 0.061815847 -0.012007499 0.016893959
-0.075017765 0.040425796 -0.019275634 0.059908494 0.041190743 0.048799418 0.12223752 -0.0075009135
0.070588455 0.12691647 -0.09300388 0.075236 -0.04185727 0.04612649 -0.021287737 0.04592902

read_encoder.3.bias f4 [128]
00000000: 5f61 173d f5cc b5bd c43a a73d 0079 56bd
00000010: 568a 803c 60aa abbd d6bb 203b 0429 d53d
00000020: 46e1 86bd 5262 ef3b f45e 183d 6ca6 87bd
00000030: 457c 6f3d 6ba3 babd 93c1 2e3c 1e39 5c3a
00000040: d5d5 923d c6e3 7d3d a825 b6bd b326 993b
00000050: e6d4 943d 5b44 9f39 c7d6 8e3d 5eaa 08bd
00000060: 0a34 01bd 7bd1 2abd d7bf 74bd 8f8d a6bd
00000070: c583 9cbd 0234 e8bb 4254 d5bd e0b9 45bd
00000080: 83ec 323d f08b fe3c 5e8e 17bd 04a8 b5bd
00000090: f0d1 0c3c 87b4 123d 4674 51bd 375a d0bc
000000a0: f91c 91bd 3a4a fc3d 6151 80bd 6f8c 8d3d
000000b0: 2479 a7bd 634e 633d 37c7 e3bc 263c 7dbd
000000c0: b829 ba3d 237a 043d 6940 f63c 445f d5bb
000000d0: 4a6d c3bc de15 ab3d cfe8 923d 2820 233d
000000e0: 1b94 5cbd 6157 a7bd d048 823c 1bc8 a4bd
000000f0: 4919 cbbb e709 9b3c 1cc4 793d f5da e03c
00000100: 7a14 033d 41aa 1ebd 5f12 743b 7480 3dbd
00000110: fde1 abbd 066b 343d 1334 f13c 9eaf 9e3c
00000120: f017 923c f98c 0dbc 30fd efbb b8ab 363c
00000130: a00a 03bd a048 e13d c3ac 00bd 5701 443c
00000140: f11f 0a3d 4d09 f8bc 1c5c 543d 1cfe ba3d
00000150: 22bc e53d a56f 0f3d 58f1 8dbd 8a01 a43d
00000160: 2d0f a83d 1fbd f73c 94c3 62bb 32e7 563c
00000170: 1276 7a3a d9d2 ac3d 83ac 0ebd c046 483c
00000180: 4eea 82bb f3f7 9b3d 0535 3e3d b7b7 98bd
00000190: 612e a43d 0ece 38bd 4e63 213d f532 80bd
000001a0: 5dc1 a3bd 7eb3 adbb 9940 6bbd 6803 663c
000001b0: 5067 6b3d 5d0a acbd 7a40 16bc 6fa5 3fbd
000001c0: 8a82 703d 9a76 06bc 6184 ce3d 5312 e53c
000001d0: 9e5c 3d3c 398f 9fbd 8909 11bd 4059 f5bd
000001e0: 1ae6 f2bc 9e21 25bd 7c77 4abd b3a9 f0bc
000001f0: 260a 2d3d 6d72 e9bc 434b 853c 7c57 273d
0.036958095 -0.08876983 0.081655055 -0.05236149 0.015690964 -0.08382106 0.0024526021 0.10408214
-0.06585936 0.007305422 0.03719993 -0.06623539 0.058468122 -0.09113201 0.010666269 0.0008400845
0.071696915 0.0619848 -0.08893901 0.0046738028 0.0726717 0.00030377772 0.06974559 -0.0333656
-0.03154377 -0.041703682 -0.059753265 -0.08132469 -0.076423205 -0.007086278 -0.104164615 -0.048272967
0.043682586 0.031072587 -0.037001006 -0.08869937 0.008594975 0.035816696 -0.051136278 -0.025433643
-0.07085604 0.12318845 -0.06265522 0.06911551 -0.081774026 0.055494677 -0.027804954 -0.06182494
0.090899885 0.03234304 0.03006001 -0.0065116007 -0.023855824 0.0835378 0.07173311 0.03982559
-0.053852182 -0.08170963 0.01590386 -0.080459796 -0.0061980826 0.01892562 0.06097804 0.027448157
0.03200195 -0.038736586 0.0037242395 -0.04626508 -0.08392713 0.044047378 0.029443776 0.01937085
0.01783368 -0.0086395675 -0.0073238835 0.011149339 -0.031992555 0.1100018 -0.03141476 0.01196321
0.033721868 -0.030277872 0.051845655 0.09130499 0.11217524 0.035018582 -0.06930798 0.08008106
0.082060196 0.030241547 -0.0034601437 0.013116645 0.0009554337 0.084386535 -0.03483249 0.012223899
-0.0039952165 0.07615652 0.046437282 -0.07456916 0.080166586 -0.045118384 0.039401345 -0.06259719
-0.079958655 -0.005300938 -0.057434652 0.014038898 0.057471573 -0.08400414 -0.009170646 -0.04678863
0.05871824 -0.008206988 0.10083843 0.02796284 0.011557726 -0.077909894 -0.035409484 -0.11979914
-0.029650737 -0.040315263 -0.049430355 -0.029377794 0.042246006 -0.028496945 0.01627124 0.040854916

read_encoder.4.weight f4 [128]
00000000: a068 613f 7422 573f 91b5 7f3f 810a 763f
00000010: 6ad6 403f 01d6 753f 2fdf 823f aebb 6a3f
00000020: a0a0 763f 0e3d 843f 76bf 633f 6c8b 513f
00000030: f637 583f ecb2 713f eeae 2e3f 8577 943f
00000040: 0b02 863f b1d7 483f 596d 493f 5f89 803f
00000050: 8bb4 5c3f 0782 553f 2275 113f b5e4 773f
00000060: 2813 7e3f 4ea7 863f d83f 643f 768f 893f
00000070: d701 9f3f 5bf3 603f 2f00 843f 99a5 713f
00000080: f922 6e3f 5fc5 783f e8c5 323f 3567 8c3f
00000090: c52d 763f 59ff 0c3f a020 5e3f c824 4c3f
000000a0: cdee 8b3f 5af8 543f bf12 653f 2c33 333f
000000b0: 82fb 753f 5f28 863f 37cd 463f 435f 813f
000000c0: 0c4d 133f c42d 603f bbe7 6a3f 7dd5 893f
000000d0: 81bf 813f 041a 803f 27ec 243f 4ac5 103f
000000e0: 35c6 873f 6a96 833f 5643 7e3f 1d2f 903f
000000f0: 4655 0c3f 6b96 543f 2f5c 843f c7ec 323f
00000100: 1a7e 6b3f 672f 873f 9e55 803f 5816 503f
00000110: cde2 563f 3e96 5b3f a9ca 733f 8141 3d3f
00000120: 0a37 8c3f 8f66 873f 1276 843f 652f 1a3f
00000130: 6006 383f dd5c 683f 19ce 083f 4226 3a3f
00000140: 0901 5c3f 19e1 893f 6bcd 373f 556b 3c3f
00000150: f774 273f b84c 2c3f 8407 883f db1c 453f
00000160: 9aa9 8d3f ef10 553f 54dd 3a3f 5754 613f
00000170: ea4a 293f ce35 4d3f 81c3 843f 2cb4 613f
00000180: 4c6a 7b3f b5ed 7a3f 26a0 813f 34dd 803f
00000190: 0232 8a3f de3b 6e3f 2fa4 463f a655 443f
000001a0: c56f 5a3f 3b0f 493f 8bf4 663f c48c 3b3f
000001b0: abb2 103f c617 333f 5a69 503f 22d6 943f
000001c0: 6c6a 133f 1bdc 893f 215d 2b3f cbf5 e23e
000001d0: 95a3 1e3f 411c 783f a5cb 603f 8967 9f3f
000001e0: 147c 873f 07aa a83f 8b94 253f 430b 5a3f
000001f0: e679 823f 6350 8c3f 2a47 843f f471 573f
0.8805027 0.84036946 0.99886423 0.9610978 0.7532717 0.9602967 1.022436 0.91692626
0.96338844 1.0331132 0.8896402 0.81853366 0.8446039 0.9441364 0.6823567 1.1598974
1.0469373 0.7845412 0.78682476 1.0041922 0.86212987 0.8340153 0.56819355 0.96833354
0.9924798 1.0519807 0.8915992 1.0746906 1.2422436 0.8787133 1.0312556 0.94393307
0.93022114 0.97176164 0.6983323 1.0968996 0.9616359 0.5507713 0.8676853 0.79743624
1.0932251 0.83191454 0.8948173 0.6999996 0.96086895 1.048107 0.77656883 1.0107197
0.5753944 0.8756983 0.9175984 1.0768276 1.0136567 1.0007939 0.6442284 0.5655104
1.0607363 1.0280278 0.99321496 1.1264378 0.54817617 0.8304202 1.0340632 0.69892544
0.9198929 1.0561341 1.0026128 0.81284094 0.8393982 0.85776126 0.9523111 0.73928076
1.0954297 1.0578173 1.0348532 0.6022857 0.7188473 0.907667 0.5343948 0.72714627
0.8593908 1.0771819 0.7179782 0.73601276 0.6541285 0.67304564 1.0627294 0.76997155
1.1067383 0.83228964 0.7299397 0.8801932 0.66129935 0.80160224 1.0372163 0.88165545
0.9820907 0.9801896 1.0126998 1.0067506 1.0796511 0.930601 0.77594274 0.7669319
0.85326797 0.78538865 0.9021689 0.73261666 0.56522626 0.6995815 0.81410754 1.1627848
0.5758426 1.0770296 0.6693898 0.4432815 0.61968356 0.9691811 0.87810737 1.2453471
1.0584741 1.3176888 0.64679784 0.85173434 1.019345 1.0962032 1.0334218 0.84158254

read_encoder.4.bias f4 [128]
00000000: 4d4a 5cbe f84c 08be 4376 b6bd 492c 6dbe
00000010: 21e0 42be bbc5 86bd 1954 cfbc df92 aabd
00000020: 909c babd 351c f5bc 0931 d3bd 8bb7 c9bd
00000030: 4490 f5bd f2a8 59bd 6507 1bbe d964 07be
00000040: 85cd 1cbd a858 26be f49b 2ebe 6159 923b
00000050: 24c1 8fbd cebd 1ebe deff a1be 5635 26bd
00000060: 2daa 00bd aa43 cd3c c1ab aabd b94c 25bd
00000070: b9f6 84be df7d afbd 79c3 13bd 7cb4 91bd
00000080: 75ce 9cbd 5624 29be 26e6 4abe 56a0 a3bd
00000090: 8e64 34bd a49b 9fbe cde3 d8bd a875 32be
000000a0: b336 cdbd 8765 1ebe 5a9c 96bd cc0d 42be
000000b0: a5b5 04be c5b1 ef3c 4caa 1ebe 816e 243c
000000c0: 3313 8bbe de40 90bd 3a4b d0bd 3f4a 4c3c
000000d0: 141a d7bd e51b ce3b c410 2cbe 0fff 93be
000000e0: 7953 dbbd f1da 0bbe fd51 94bc ba73 73bd
000000f0: 5548 9cbe 53c4 06be 97a3 c73b 513a a8be
00000100: ff59 e2bd 24e9 153d 132f 2dbe 7aa2 c7bd
00000110: 0a57 69be b99c 0bbe 10ba 1bbe 29f7 dfbd
00000120: 9e94 2ebd 0974 ce3b 49aa 88bd ffc8 95be
00000130: 3c8b 47be fd64 acbd 16e0 c7be 3ad0 6fbe
00000140: ee3c bcbd e1fd 26be 384b 55be 901e 5ebe
00000150: 2976 42be a47b 6cbe 94f4 91bd 3af7 17be
00000160: b930 f33b e850 cfbd 29a3 4bbe 7ee5 9ebd
00000170: bbb4 91be dff4 27be 9b75 f3bd eb67 babd
00000180: cfb6 d0bb 6637 9cbc ac48 f0bc 33d4 1dbe
00000190: 00a9 d53c f89d a6bd 12be 2bbe 8cc6 74be
000001a0: 7313 5bbe a5fa 52be 6647 f2bd 2be4 5abe
000001b0: eeab 95be 419c 3abe faac 05be 214a 33be
000001c0: 0c79 97be 56f9 263b d09f 3bbe 5574 9dbe
000001d0: 42a7 8abe 55a4 07be eb01 b7bd 785a 9ebe
000001e0: f8b8 7abd 1900 a6bd f04c abbe ad61 eebd
000001f0: 240d 12bc 2e92 053a 7654 72bd c928 dabd
-0.21512718 -0.13310611 -0.089092754 -0.23161425 -0.19030811 -0.06580683 -0.025308656 -0.08328795
-0.09111893 -0.029920677 -0.10312087 -0.09849461 -0.11990407 -0.053139634 -0.1513954 -0.13222064
-0.038281936 -0.16244757 -0.17051679 0.004466221 -0.070192605 -0.15502092 -0.31640524 -0.04057821
-0.031412292 0.025056679 -0.08333541 -0.04035637 -0.25969484 -0.0856893 -0.03607509 -0.07114503
-0.07656566 -0.16517767 -0.19814357 -0.07989566 -0.04404121 -0.31173432 -0.105903246 -0.17427695
-0.10020199 -0.15468417 -0.073540404 -0.18950576 -0.12959917 0.029259572 -0.1549465 0.010036112
-0.27163085 -0.070436224 -0.10170598 0.0124688735 -0.10503021 0.0062899464 -0.1680327 -0.28905532
-0.107092805 -0.13657738 -0.018105501 -0.059436537 -0.30523935 -0.13160829 0.0060924995 -0.32856992
-0.11052322 0.036599293 -0.16912489 -0.09747787 -0.22787109 -0.13634004 -0.15207696 -0.10935814
-0.0426222 0.0063004536 -0.06673104 -0.2925491 -0.19486707 -0.084176995 -0.39038152 -0.23419276
-0.09191309 -0.16307785 -0.20829475 -0.21691346 -0.18990387 -0.2309404 -0.07126728 -0.14840403
0.0074215797 -0.101228535 -0.1988646 -0.07758616 -0.284582 -0.16402005 -0.11887666 -0.09101852
-0.0063694487 -0.019069385 -0.029331528 -0.15412979 0.026081562 -0.08135599 -0.16771725 -0.23903865
-0.21394138 -0.20603426 -0.118300244 -0.21376102 -0.29232734 -0.18223669 -0.13054267 -0.17508747
-0.2958454 0.0025478206 -0.18322682 -0.30752817 -0.27080733 -0.13246281 -0.08935913 -0.30928397
-0.061211556 -0.081054874 -0.33457136 -0.11639724 -0.008914266 0.000509533 -0.05916258 -0.106523104

site_encoder.0.weight f4 [128, 37]
00000000: ae7b ccbd a237 7cbb 8fd7 2abd 74fb 043e
00000010: ed65 c1bc adc3 113e 6f7c babd b119 01be
00000020: 12c9 ff3b e2bf d0bd 8040 b8bd a01d 593d
00000030: ff0d 0d3e 8f1e 00be 9dfd 31be cd0e 09bc
00000040: fa73 0abe a1ef 26bd a187 023d 29e5 013d
00000050: 8e61 1abc 9121 033e 635f 2fbe 900f 00be
00000060: 9e60 19bd 31b6 c33d 3634 9abe 81f8 063d
00000070: 5286 573d 9b62 eabd 5a4a e13e 0f3a 663c
00000080: 3fdf 99be f5db eb3e 1da1 95bc 036a 2d3e
00000090: b9bb 00be 562c 13be 7ef4 c1bc 2fb7 4dbd
000000a0: 166a e3bd 67c1 84bd cf44 8ebe 95f1 abbd
000000b0: e877 93be 53cb c4bc b861 b3bd e96a dd3d
000000c0: 5115 0f3e bf93 113e 6b74 c2bd 67ea b3bd
000000d0: 9601 debd e833 b1be 4fc2 c5bd 614c 103c
000000e0: 22c5 903d 8fe7 57bd a3bb 4f3e 5ddc 13be
000000f0: 1af3 c33d 51b5 75bc 9e2f e9be c4de bf3e
00000100: 3dcb 03be c7df 39be 42a4 8a3e 052f b4be
00000110: 6b1b 41be cec7 da3e 3cbe 97be 48b1 bdbd
00000120: 7e3a b53e 5027 5bbe a3f4 9a3d 74d0 093e
00000130: 1dff a1bd fc7e 923b 7922 85bd 0eb6 87bd
00000140: 7b5f 893d 43ab 293c 55ae cdbd 02e6 e73b
00000150: 74e3 073e f95d fdbd e6f1 74bd aaf6 2bbe
00000160: 157a aabd b79b 6c3e 75dc 773d b201 6abe
00000170: 59b9 19be f0bb aabc 7365 c1bc d2b0 0f3e
00000180: 509b 033e ec6d cb3d cbc4 a0be 0390 7fbe
00000190: 7dcf 0d3e 65ea 79be 3042 5a3d 50df 05be
000001a0: 66f7 c6be aaf5 b0be 8b27 963e fac1 6abe
000001b0: 37fa 4c3e a83f 1cbe b213 043c b353 f03d
000001c0: 652d a9bd f957 80bc a6d9 b2bd a286 ac3d
000001d0: 49d4 16bd 5573 09be e417 26bd 77ae eebc
000001e0: f2b0 b53d 90f1 203d 039d c3bd 8bf7 823d
000001f0: f399 b93c 1eed 003d 58a4 9d3d 527d 1a3e
00000200: 4565 623e f794 fa3d c2c4 afbd 42fa fa3d
00000210: a359 9fbd 0fdf 123e 89f8 b0bd 3d34 e3bd
00000220: 10db e33e 18f2 6ebd b689 c63d be97 113e
00000230: 7201 16be c7aa c83e 8f2e 233e 85a7 17bf
00000240: b795 d43e f3e8 bcbc 307b a1be 156a 2ebd
00000250: 76be 5bbd 22d9 953d a3f8 e63d f00f 463d
00000260: dc87 ec3d 61e6 e13d b9c8 8fbd 751f 8dbc
00000270: 3f1d 22be c5d3 dabd bbca 313d 8396 603d
00000280: e5ac 643d 8bce 003e d9db 493d 021a 14be
00000290: fea4 27bd 33cf e7bc 27cd 293d c390 fbbd
000002a0: 2039 d6bd 8254 1ebd 90ab 823c bdb1 683e
000002b0: 4ffb da3d cdbd aabd fc5e 623b 50df 94bd
000002c0: b1d9 4ebc 6c43 68bd 1318 86bc a842 1f3e
000002d0: c117 29be 76d5 1a3e 3be2 e53d 6efd 39be
000002e0: 7ad1 b6bc 3b14 1fbd e288 083e f06e 0dbd
000002f0: 1891 8f3d f4ab 6ebd d1f0 b93d 4345 3cbc
00000300: e247 f33d b93a 3ebe b49d acbd 969f c93d
00000310: 9d54 f63d bef1 93bd 2854 0dbe 5f0b e3bd
00000320: a864 01be 6fa6 1bbe 0db7 f0bd d00f 1cbd
00000330: 4d14 163e 4180 15bd 83db 01bd 0e07 053e
00000340: fa49 d8bd 8f43 04be 8b2c 2ebe de2a 3a3d
00000350: f789 32bc 5b5b 42be 63c9 bdbd 2d96 56be
00000360: ece5 e93c cc36 283e b814 fbbb c622 703a
00000370: 53ec 283d 54d7 023b 5206 f5bc 4a71 e33d
00000380: 088a 623d 28c8 433e dd90 11be ddea bdbd
00000390: 8790 11be 1be1 3cbc d802 19be bf9e acbd
000003a0: 652d 283e 361b 8fbc 4c20 cd3d 0d53 e33d
000003b0: c0ff 0e3e ce0a 363e 0a4f 983d 2c89 71bb
000003c0: 0e8a 313e 37de 393e 987f babd 1886 6f3d
000003d0: 4739 703d 22e8 c7bd 3761 9e3d d216 04be
000003e0: 4a27 6b3e 998a a2bd 35e6 12be f8a2 8c3e
000003f0: de0e bebe 7bb7 99be a7a8 803e c00f 92be
-0.099845275 -0.0038485308 -0.04170948 0.12986547 -0.023608172 0.142348 -0.09105765 -0.12607457
0.007805952 -0.10192849 -0.089966774 0.05300677 0.1377487 -0.12511657 -0.17381902 -0.008365345
-0.13520804 -0.04075587 0.031867627 0.031712685 -0.009422673 0.12805773 -0.17126231 -0.12505937
-0.037445657 0.09556235 -0.3011796 0.032951836 0.052618332 -0.11444589 0.44002038 0.014051928
-0.30053136 0.4606625 -0.018265301 0.16934972 -0.1257161 -0.14372382 -0.023676153 -0.050223526
-0.11104219 -0.06482201 -0.27786872 -0.083956875 -0.2880242 -0.024022734 -0.08758873 0.10811407
0.13972975 0.14216517 -0.09494861 -0.08784943 -0.10840146 -0.34609914 -0.09656202 0.008807273
0.0706885 -0.052711066 0.20286421 -0.1443953 0.09567852 -0.0149968425 -0.45544142 0.37474644
-0.12870498 -0.1815177 0.27078444 -0.35192123 -0.18858115 0.42730564 -0.29637325 -0.09262329
0.35396188 -0.21401715 0.07566192 0.13458425 -0.07909987 0.004470704 -0.06500716 -0.06626521
0.067076646 0.010355773 -0.10043017 0.0070769796 0.1327036 -0.123714395 -0.059801005 -0.16793314
-0.083240665 0.23106275 0.06051298 -0.22852209 -0.15012111 -0.020841569 -0.023607945 0.14032295
0.12852216 0.09933075 -0.3140014 -0.2495728 0.13848682 -0.2440582 0.053285778 -0.13073468
-0.38860625 -0.34562427 0.29327044 -0.22925559 0.20017324 -0.15258658 0.008061336 0.11734714
-0.082606114 -0.015666949 -0.087329194 0.08424117 -0.036823545 -0.13422902 -0.040550128 -0.029135926
0.0887164 0.039292872 -0.09551432 0.06394871 0.022656417 0.031476133 0.07697362 0.15086868
0.22108944 0.12235444 -0.085824504 0.12254764 -0.07780769 0.14342903 -0.08641154 -0.11093948
0.4450307 -0.058336347 0.09694235 0.14218041 -0.14648989 0.39192793 0.1593573 -0.5923999
0.41520473 -0.023060298 -0.31539297 -0.042581636 -0.053648435 0.073168054 0.112778924 0.048355043
0.115493506 0.110302694 -0.07020707 -0.017226914 -0.15831469 -0.10684923 0.04340623 0.05483104
0.055828948 0.1257879 0.04928193 -0.14463046 -0.040928833 -0.028297042 0.041455414 -0.122834705
-0.104601145 -0.03865481 0.015950948 0.22724052 0.106924646 -0.08336983 0.0034541478 -0.07269156
-0.012625144 -0.056704924 -0.016368901 0.15552771 -0.16512968 0.15120491 0.11224791 -0.18163082
-0.022316683 -0.038837653 0.13333467 -0.034529626 0.07010096 -0.058269456 0.09079135 -0.011491123
0.11878945 -0.18577088 -0.08428517 0.09844892 0.120278575 -0.07223843 -0.13801634 -0.11086153
-0.12636054 -0.15200208 -0.11753664 -0.038101017 0.14656182 -0.036499266 -0.031703483 0.12990972
-0.10560985 -0.12916397 -0.1700918 0.045451038 -0.010897151 -0.18980162 -0.09266927 -0.20955725
0.028552018 0.16427153 -0.007662382 0.0009160455 0.041241 0.0019964771 -0.02991024 0.111055925
0.055307418 0.19119322 -0.14215417 -0.09273312 -0.14215289 -0.011528279 -0.14942491 -0.08428716
0.16423567 -0.01746903 0.10015926 0.11099825 0.13964748 0.17777559 0.074369505 -0.0036855442
0.1733782 0.18151174 -0.09106368 0.05847749 0.058648374 -0.09761073 0.07733386 -0.1289933
0.22964206 -0.07936592 -0.1434563 0.27468085 -0.37120718 -0.30022797 0.25128672 -0.2852764

site_encoder.0.bias f4 [128]
00000000: 5322 f7bd 6207 7cbd b108 f9bd 7294 30be
00000010: 0bbf f4bd d1ca 273e dbe8 ff3d 3a31 493b
00000020: a493 8ebd 8f90 7e3c 0508 053d c5e2 31be
00000030: 3d3f 233e 9978 c53d 6f43 383e 5a27 55be
00000040: ef50 19bb 8e39 b93d 84af 6d3a 1482 473d
00000050: 6ba4 5c3d 90aa bcbd cd27 c53d 121d 0dbc
00000060: 12c5 63bc e975 883c 5aac 0d3e e276 4f3c
00000070: 11a7 0a3e 09ba d9bd 592f 00be 756c 15bd
00000080: f572 923d e56c 043e f5e8 26bd 1253 c4bb
00000090: 03dd f23a ba9f 85bd 3757 343e b7f2 463d
000000a0: 2800 b53d 31ff b2bd 89da dfbc d274 27be
000000b0: f732 ae3d 413c 95bd 0007 34bd 3e52 cabd
000000c0: 81fc 4f3d 13cb 9f3d 1053 5cbe 2270 3a3e
000000d0: 060f 8bbc 20c1 773d 7bcd 3cbe 024b 2f3d
000000e0: 968e 253e d1fa 033e 4a36 8fbd 0b26 25bd
000000f0: 5bf8 f3bd ed24 ce3d c7e2 823d 4d2b 703d
00000100: 0229 05be f326 8f3d 7e9a 61bd 7f88 a5bd
00000110: 16b2 d0bd 81ce 2f3e 1f8a 28be bc0f 5a3d
00000120: 2cb2 113e 6cba b2bd 0d9a 22be b083 ebbd
00000130: 3520 1cbc 63d7 ebbd c4f0 df3d af4a 353e
00000140: 9eae 22bd 98bb 1e3d 3280 143e f97e 8a3c
00000150: 99c5 c6bd 05ee 5fbd 3411 3a3d bace 9abd
00000160: d590 633d 306d a8bc 33db e0bc c466 5fbd
00000170: ec3f efbd 0cdd 3dbd ba6e 1c3e 78fa 3cbc
00000180: aef9 1dbd 9ea2 073e b63b ad3d 854c 0cbe
00000190: 5024 b6bc 3fd0 d3bd 9ffa ccbd a63c 59be
000001a0: b4e0 603d d9fd 2f3e afaf 95bd bff4 163e
000001b0: 0829 9a3d f882 043e 792c 38be 9a00 2a3d
000001c0: ccde 8a3d 6597 903d 8112 86bd a421 953d
000001d0: 3e4a 043e a420 aabd f1f6 253d fcda c7bd
000001e0: 0127 013e fd36 acbd 1241 34be 77ba 023e
000001f0: 992e 97bd 1a32 f1bd 010e 813d 439f 023e
-0.12067094 -0.06153048 -0.12159861 -0.17244127 -0.11950501 0.16385962 0.124955855 0.0030699507
-0.06961754 0.015537395 0.03247835 -0.17371662 0.15942092 0.09642143 0.17994474 -0.20815793
-0.0023394187 0.09044181 0.00090669864 0.048708037 0.05386774 -0.0921222 0.09626732 -0.008612888
-0.013901966 0.016657786 0.13835278 0.012662621 0.13540293 -0.106311865 -0.12518062 -0.036480386
0.071508326 0.12932165 -0.04074951 -0.005991348 0.0018529001 -0.06524606 0.17611395 0.048571315
0.088379204 -0.0874008 -0.027325885 -0.16353157 0.085058145 -0.07286883 -0.04395199 -0.09878968
0.050777916 0.07802405 -0.21516061 0.18206838 -0.016974937 0.060486913 -0.1843776 0.042796142
0.16167673 0.12888648 -0.06992777 -0.040319484 -0.119126044 0.10065637 0.063909106 0.058635045
-0.13003924 0.06989851 -0.055078976 -0.08082675 -0.10190217 0.17168619 -0.16458939 0.05323766
0.14228123 -0.087269634 -0.15879078 -0.11499727 -0.009529163 -0.11515691 0.10934594 0.17704271
-0.03971731 0.038753122 0.14502028 0.016906248 -0.097056575 -0.054670352 0.045426562 -0.07558961
0.055558044 -0.020559877 -0.027448272 -0.054541364 -0.11682114 -0.046353385 0.15276614 -0.011534326
-0.03856819 0.13245627 0.084586546 -0.13701065 -0.022234112 -0.10342454 -0.1000874 -0.21214542
0.054901794 0.17186679 -0.073088996 0.147418 0.07527357 0.12940586 -0.17985715 0.04150448
0.067807764 0.07060126 -0.06546498 0.07281807 0.12918946 -0.08307007 0.040518705 -0.09758565
0.12612535 -0.08408926 -0.17602947 0.12766443 -0.07381935 -0.11777134 0.06301499 0.12756066

site_encoder.1.weight f4 [128]
00000000: 612e 823f 522a 853f e40f 7d3f 0338 873f
00000010: caf8 6d3f 85fd 7f3f 4ee9 8b3f 77d0 753f
00000020: baf5 6c3f 7553 783f 6fe9 8b3f 307f 813f
00000030: 54f7 873f 020a 883f 816d 8a3f a84a 7c3f
00000040: 0d76 6f3f 7d73 713f 33a9 6f3f 173a 863f
00000050: 0aa3 833f a295 813f 8125 523f b1e1 863f
00000060: 2f62 8b3f b142 703f 7be9 6c3f 2458 5e3f
00000070: 9b4d 6c3f 4b92 773f ad35 793f c461 803f
00000080: 9f34 723f 274f 733f 000e 863f 4bad 713f
00000090: 6002 863f 2d10 7f3f e38c 933f 2721 943f
000000a0: f7e4 843f 9e16 623f dc33 893f 578b 853f
000000b0: 514a 803f a2c5 873f a839 733f 5c43 843f
000000c0: 63e1 893f 7984 823f 5a6e 733f 0820 923f
000000d0: ec20 773f 69f4 733f 6d32 803f d758 7e3f
000000e0: 4397 843f 9589 883f 11c9 703f 9213 6a3f
000000f0: 4e2f 8a3f b410 883f 125e 853f 0f5e 6e3f
00000100: ec1f 783f e1e6 873f 73d6 7a3f ad1e 8b3f
00000110: bd09 6b3f 3279 653f 2deb 853f 6066 823f
00000120: bc5c 773f 31bf 723f 6e1c 883f 8437 863f
00000130: 26f8 853f 3ed0 893f 73af 753f 9f00 873f
00000140: fadd 8a3f e1e7 753f d173 6c3f 2dd0 5b3f
00000150: f03b 693f 3f55 7b3f a0f3 773f 2ead 633f
00000160: dbcf 723f 930d 863f 9026 843f 3264 833f
00000170: f9c4 813f f147 863f 197c 853f 63dc 8c3f
00000180: d68d 853f 61eb 783f 3590 883f 6ada 723f
00000190: b3a6 783f 2fad 833f 2bba 843f bf3b 563f
000001a0: b5e8 833f 40ff 8e3f 09d7 943f 39f6 7e3f
000001b0: c541 8b3f 26db 863f bc66 753f c777 863f
000001c0: 99bb 703f dfd7 773f 3dff 613f 0370 793f
000001d0: 64bc 943f e152 883f bb37 863f 8606 6c3f
000001e0: 5496 703f ba1a 6f3f 53dc 683f e9f5 8b3f
000001f0: fbc3 923f 570a 823f 18cb 633f dc3a 803f
1.0170404 1.040354 0.9885237 1.0563968 0.92957747 0.99996215 1.0930574 0.9602122
0.9256245 0.97002345 1.0930613 1.011694 1.0622354 1.0628054 1.0814668 0.98551416
0.93539506 0.94316846 0.9361755 1.0486478 1.028413 1.0123789 0.82088476 1.0537626
1.0889338 0.93851763 0.9254376 0.8685324 0.92305917 0.967076 0.9734753 1.0029836
0.94611543 0.9504265 1.0473022 0.9440505 1.0469475 0.9963406 1.152737 1.1572617
1.0382375 0.8831576 1.0718951 1.0433148 1.002268 1.0607188 0.9500985 1.0333056
1.0771908 1.0196677 0.9509026 1.1416025 0.9653461 0.95294815 1.0015389 0.9935431
1.0358661 1.0666987 0.94056803 0.9143611 1.0795686 1.0630097 1.0419333 0.9311227
0.9692371 1.0617334 0.97983474 1.0868737 0.91811734 0.89638054 1.0462395 1.0187492
0.96625876 0.94822985 1.0633676 1.0485692 1.0466354 1.0766675 0.9597084 1.0547065
1.0848992 0.96056944 0.9236422 0.85864526 0.9110708 0.9817695 0.9685612 0.88936126
0.9484841 1.0472893 1.0324268 1.0264952 1.0138236 1.0490705 1.0428497 1.1004757
1.043391 0.9723416 1.0669008 0.94864523 0.9712936 1.0287226 1.0369314 0.83684915
1.0305392 1.1171646 1.1628124 0.99594456 1.0879446 1.0535629 0.95859885 1.0505303
0.9403625 0.9681377 0.8828009 0.9743654 1.1619992 1.0650293 1.0485758 0.92197454
0.9397938 0.93400156 0.9096119 1.0934421 1.1466058 1.0159405 0.8898177 1.0017962

site_encoder.1.bias f4 [128]
00000000: dbba 383d e71b 103d 7201 fa3b 4a0d 583d
00000010: 56ac 043d ad66 633d 6a53 bb3d d0e8 ed3c
00000020: 32e9 753d 4b12 e23c 918d bb3d 0d02 103d
00000030: 5329 813d a99e 7c3d e94c 9e3d ca79 0f3c
00000040: 3144 143d cc69 7c3d 174f 813d c0d8 a7bc
00000050: fa04 a7ba 64ea a43d 50e3 de3d 6067 7b3d
00000060: be40 0e3d 61cf febb 4e63 813d 9b68 c63d
00000070: 336f b93d 3a19 203d 799c 9b3b 29bc 7f3b
00000080: 49e6 663d 84cc 6a3d 7784 633d 8eaf 863d
00000090: fcfd 783d 9a8d d03c 8b82 4d3d 03a5 063b
000000a0: fa69 373d 5135 c53d 8a69 8f3d e1b8 573d
000000b0: b6b9 893c 903f 363d 6be8 273c 8e12 0e3d
000000c0: 8376 973d 64ea 753b f7b3 113c 4604 b33d
000000d0: 9f97 1a3a da1c e83c 9e32 3dbc ce9d 033c
000000e0: 10ea 2e3d c97c 683d 5f31 5f3d 13e2 1b3d
000000f0: c9bb b43d d50e d73d 12da 483d 24d8 863d
00000100: 89a8 993c eedf 403d 8dd1 083c 1aff ae3d
00000110: b818 5b3d b60c dd3d e84d ba3c 3499 8f3c
00000120: 6d30 ba3c 3d96 7b3d b9e8 6b3d b15b 453d
00000130: 9342 e33c 0808 b33d 2011 d43c 683d 9c3d
00000140: 291f 1d3d 0c24 c7bb 7967 843d e0e8 883d
00000150: ff2a a83d 2a81 9f3c a280 493c 624c 983d
00000160: 5118 833d cb20 263d bddd 113d 99c3 693d
00000170: d394 773c ef7e b53b 946b 193d 3afb 9f3d
00000180: be5e 4a3d dab6 cf3c 4479 2b3d fbd9 313d
00000190: 8547 033d 85e2 303d 98ca 253d 6f4a 3a3d
000001a0: 7421 e53c 1dbf 253d 02eb 583d d3e8 463d
000001b0: 46dc b23d 0500 6a3d 761d 9d3c 841c 573d
000001c0: 5023 213d 6f9f f33c c0a6 bd3d eb5b e43c
000001d0: 7af4 383d 950f 933d 0f57 543d 3598 8f3c
000001e0: 0bdc 5b3d 469e 803d 216e bb3c e096 ad3d
000001f0: 9d07 413d 9269 a3bc 358e 1f3d 0d28 f23b
0.045100074 0.03518286 0.007629567 0.05274705 0.032390915 0.05551784 0.09146769 0.029041678
0.060036846 0.027596613 0.09157861 0.035158206 0.0630671 0.061674748 0.07729513 0.008757064
0.036197845 0.061624333 0.06313913 -0.020489097 -0.0012742572 0.08052519 0.108832 0.061377883
0.03472971 -0.0077761863 0.06317769 0.09687921 0.09054413 0.039086558 0.0047488776 0.0039022064
0.05637196 0.057323948 0.05554625 0.06576453 0.060789093 0.025458146 0.050173324 0.0020545132
0.0447788 0.0962931 0.07002552 0.05266655 0.016812187 0.04449421 0.010248284 0.034685664
0.07395651 0.003752374 0.008893005 0.087410495 0.0005897227 0.02833407 -0.011547713 0.008033229
0.04270369 0.05675963 0.054490443 0.038057398 0.0882488 0.10500876 0.049036093 0.06584194
0.018757122 0.047088556 0.008350742 0.085447505 0.05349037 0.1079344 0.022742227 0.017529108
0.02272817 0.061422575 0.05759499 0.048183147 0.027741706 0.08741766 0.025887072 0.076289
0.038359795 -0.006077295 0.06465048 0.066850424 0.08211326 0.01947077 0.012298735 0.07436444
0.06401122 0.040558618 0.035611857 0.057071302 0.015111166 0.0055388133 0.03745611 0.078115895
0.04940676 0.025355745 0.041863695 0.043420773 0.03205063 0.043184776 0.04047641 0.04548114
0.027970053 0.040465463 0.052958496 0.048561882 0.0873342 0.057128925 0.019179087 0.05251743
0.039340317 0.02973911 0.09260321 0.027875861 0.045155026 0.071807064 0.051840838 0.017528633
0.053676646 0.06280188 0.022879662 0.08476043 0.0471264 -0.0199478 0.03895398 0.0073900283
