m6aReplica/2d_432/Models/epoch10_rocauc0.877_valpr0.390_valscore1.268.pth (torch, 150685 bytes, 13 tensors)

read_encoder.block1.0.weight f4 [128, 15]
00000000: 09c5 893e 2643 ae3e 29f1 d6bd 7407 ec3e
00000010: 949c 543e 001c b83c 7448 86be 7a8c 223e
00000020: 3eb7 753e b0e7 5cbe ebc6 243e f1d4 02bd
00000030: 3935 443e 0ccb 113e a092 2a3e 89e2 9a3d
00000040: 340f ab3e e182 473d a99d f23e 6962 553e
00000050: 1999 0cbe 16d9 41bc 59ec a4bd dbe4 623e
00000060: 5d10 4bbe 8a69 77be 7aed d0bd 75ec 7bbe
00000070: a1aa 75bd 5432 87be c703 afbc fa3f b4be
00000080: 3508 1e3e c1c3 9cbe d58f f6be 1f99 083e
00000090: e1ef d93c 0947 de3d f677 12bd 6b7f 44bd
000000a0: 32fc 593c 5a77 53bd 84fa 203d f993 af3d
000000b0: b38b b73d dca5 6f3e 3ed4 3d3e 2975 713d
000000c0: d3fb 383f eda5 a7be 5943 97be 6f8e 843d
000000d0: 6d0b 25bd 8b19 9a3e 287e 8dbc 3659 403e
000000e0: 75d3 723d afce 90bd bb2e 403e c71b 95bd
000000f0: fa74 cfbc c812 44be fcad ae3d ca4d 3dbf
00000100: bd87 8cbe 5229 9dbd e68c 8d3e b117 8cbe
00000110: b4ed 5ebe f905 26bd 82bd c93e 7c82 3f3e
00000120: 4580 e13c 4ff9 a2be 45de b8be bd3f 2abe
00000130: 8674 5dbe 6844 383e b5b0 11be 689f 323f
00000140: 2ccf b2bd f6bb 42be 2c3c 823e 51a1 cbbd
00000150: cbcd 5a3d 7ab1 75bc fc2a 2b3e 8a5b 03be
00000160: 2082 d1bd 5cfd 773d c068 c83d 5d78 45be
00000170: 6752 6e3e 1640 df3e a1a4 eebe 86f0 d7bd
00000180: 7870 303f 385b ad3d b2f6 86bd 5513 11be
00000190: 32a2 3bbe 2a03 cc3d 6011 8fbe fe07 27bd
000001a0: bc86 573c a62a adbe 2fee 8bbd 0852 04be
000001b0: 10d1 f9be b04c 103f f439 b73e 711a b6be
000001c0: 13ff 7b3e 0048 81be f656 9fbd f7f0 74bd
000001d0: f309 3b3c e042 ebbd 8da2 e8bc dda8 91bd
000001e0: a2d6 073e 01d1 2ebe a111 d5bc a8db b93e
000001f0: 6b88 c3be 2b03 1fbe f8b5 4b3e 40d0 34be
00000200: 8038 8b3e 3dd1 64bd 833a 973e a5f0 843d
00000210: c552 66be 5888 9f3e 064e 13bb 6b6d 743c
00000220: 425a 0cbe 6fea 2dbe 4a58 09be ab84 243f
00000230: b65e 813e ab9f cabe 72f0 bd3e fe47 0cbe
00000240: f1e9 073e 2620 e13d 4b24 113e c5ab 8b3d
00000250: 24e5 d23e 4971 5dbd 4ab1 3a3e fee5 88be
00000260: 8350 79bc 9a3b 523c 01c5 19be 0a28 1dbe
00000270: 228d c93e 3d08 e13d 2413 083e f9ca 12bd
00000280: a9b6 9c3e a128 053e e939 90bd d5b6 a4be
00000290: c152 3d3d e4f5 b3bd 1708 2c3e 9279 8e3e
000002a0: 6776 813e 89a6 d2be 0ed7 18be 5558 423e
000002b0: edb5 323e 9d5b 12bd 0e55 3ebe 156c 083d
000002c0: 6da5 0abe ab92 a13e 0c3f 093e 1167 99be
000002d0: 4e0d 2fbe c987 8e3d e46a 043d 890d 3fbf
000002e0: f311 35be 35b3 2a3e bc87 6dbb 5be8 26be
000002f0: 842e d8bd 0905 0a3d 2849 1dbd d376 09bd
00000300: 6477 9b3d 7d84 ac3d 3d6f dcbd e313 a13d
00000310: 0012 efbc ddbf 483d 91b4 553f b3ba d33e
00000320: a48e 1fbe 963f 013e 00a8 c83e c8b1 6b3e
00000330: e013 ce3b 2ea5 c1bd b3f9 0cbe 7a52 9fbe
00000340: 61ef 9cbe 5337 163d e66b 8b3c 6305 183e
00000350: 5031 84be dcd3 71be 5651 273d f58b 8d3e
00000360: f747 47be 232c 03be cd2e 033e 7bff 4fbd
00000370: b70c 5bbe 4cd9 b83d 5fdd d9bd 0c31 23bd
00000380: 8d07 35be fb2e aa3e b76e 8e3e 9554 9e3d
00000390: 080c 44be 905b 33bf bc1e 77be 1c46 bc3e
000003a0: 8e8f 693d e2a7 553e 9c19 cf3d 8ece 9b3d
000003b0: 951a 363c 7ae4 55be 3b9d 0fbe 26f2 96be
000003c0: fb66 843e 97e4 c23d 0ea8 a93d a135 193e
000003d0: 4393 35be 993c 3abd 6349 873e 3b39 8c3e
000003e0: 9474 a03b 8256 5b3e 2130 e4bb c2fa c9bd
000003f0: 39b1 27be f132 5dbb abdc 5cbd 54e2 c6be
0.26908138 0.34035605 -0.104952164 0.46099436 0.20762855 0.022474289 -0.26227152 0.158739
0.23995683 -0.21572757 0.16091506 -0.031941358 0.19160928 0.14237612 0.16657495 0.075627394
0.33410037 0.0487088 0.4738591 0.20838322 -0.13730277 -0.0118315425 -0.08052892 0.22157614
-0.19830461 -0.24161354 -0.10201545 -0.2460192 -0.059977178 -0.26405585 -0.021364106 -0.3520506
0.15432818 -0.30618098 -0.4815661 0.13339661 0.026603641 0.10853393 -0.035758935 -0.047973078
0.013304757 -0.051627494 0.03930141 0.085731454 0.089621924 0.23403114 0.18537995 0.058949623
0.72259253 -0.3274378 -0.2954357 0.064724796 -0.0402941 0.30097613 -0.01727207 0.18784031
0.059283692 -0.07070672 0.18767826 -0.07280689 -0.025324333 -0.1914779 0.08529279 -0.7394682
-0.2744731 -0.07673897 0.2764656 -0.27361825 -0.21770364 -0.04053304 0.39402395 0.1870212
0.027526984 -0.31830832 -0.36107078 -0.16625877 -0.21626481 0.17994845 -0.14227565 0.69774485
-0.08730921 -0.19017014 0.25436532 -0.09942878 0.053418916 -0.014995927 0.16715616 -0.12827888
-0.102298975 0.060544357 0.097856045 -0.19284196 0.23273621 0.4360358 -0.46609977 -0.10543923
0.68921614 0.08464664 -0.06590022 -0.14167531 -0.18323591 0.09961541 -0.27942944 -0.040779106
0.013154682 -0.338216 -0.06832539 -0.12921917 -0.48792315 0.56367016 0.35786402 -0.35567048
0.24609022 -0.25250244 -0.07780258 -0.059800114 0.011415946 -0.11487365 -0.028397823 -0.07112286
0.1326547 -0.17071916 -0.026009383 0.36300397 -0.38190016 -0.15528552 0.19893634 -0.17657566
0.27191544 -0.055863608 0.29536828 0.06491212 -0.22492512 0.3115871 -0.0022476926 0.014918665
-0.13706306 -0.1698396 -0.13412586 0.64264935 0.2526757 -0.39574942 0.37097508 -0.13699338
0.13272835 0.1099246 0.14174001 0.06819872 0.41190445 -0.054063115 0.18231693 -0.2673797
-0.015216949 0.012831593 -0.15016557 -0.15347305 0.39365488 0.109878995 0.13288552 -0.0358381
0.3060811 0.1300378 -0.070422955 -0.3217074 0.0462215 -0.08787134 0.16799961 0.27827126
0.25285646 -0.4114268 -0.14925787 0.18979008 0.17452212 -0.0357319 -0.18587133 0.0333062
-0.13539667 0.3155721 0.13402957 -0.29961446 -0.17094919 0.06959493 0.0323285 -0.7463003
-0.17682628 0.16669925 -0.0036244234 -0.16299574 -0.10555747 0.03369621 -0.038399845 -0.033560585
0.07591131 0.08423708 -0.107634045 0.07865121 -0.029183388 0.0490111 0.8347865 0.41353378
-0.15581757 0.12621912 0.39190674 0.23017037 0.0062889904 -0.09455334 -0.13767128 -0.31117612
-0.30651382 0.036673855 0.017019223 0.14845805 -0.25818872 -0.23615974 0.040849052 0.2764584
-0.19461046 -0.12809806 0.12810822 -0.050780755 -0.21391569 0.09025821 -0.10637926 -0.039841697
-0.17678662 0.33238968 0.27818844 0.077309765 -0.19145215 -0.7006159 -0.24132818 0.3677224
0.05702167 0.20864823 0.101123065 0.076077566 0.011114736 -0.20887938 -0.14024822 -0.2948162
0.25859818 0.09516256 0.08284007 0.14961864 -0.17731957 -0.045467947 0.26423177 0.27387413
0.0048967097 0.21419719 -0.006963745 -0.098622814 -0.16376199 -0.0033752287 -0.053921383 -0.3884455

read_encoder.block1.0.bias f4 [128]
00000000: 8eb9 4fbe a29a 81be 5cd4 c6bd 5f3c ad3b
00000010: 2d2c 3c3e 427b 833d 9de3 9b3e 374e 83be
00000020: 84bb ae3e dc0c 2f3e f86b 84bd 7ac4 ba3d
00000030: be3f 87be 9f0f 853e 574b bdbe 06cd 9bbd
00000040: 6e21 f73e 9620 c6be 7dcd 713e 7441 3a3e
00000050: 7810 1c3e ea8c 9fbc 2253 9e3e 4c7f 8cbd
00000060: bb41 1b3e f34f 683d bfce d1bd a330 f8bd
00000070: 3c6c 253e 58aa 14be 198e 4abe ceec 27be
00000080: 28ec 633d cd2f 37bd 3a49 03be d9bf 05bd
00000090: 110b b0be cc20 18be 63e3 ac3e ed3a 28bd
000000a0: 71d7 bc3d 3db4 f23d dcd4 c53d e7c9 6cbe
000000b0: 6a3c dcbd 3984 bebe 5005 8bbe bb22 9b3e
000000c0: c477 df3c d440 39bd d575 af3e c7cd debd
000000d0: 1734 893d 5fed 76be 720e 79bd e401 8e3d
000000e0: b3d4 26bd 96a6 efbc 093a 283e 6ded a13e
000000f0: f727 0dbc cc25 693e e24c 883e 72a4 a43e
00000100: 507a a9bd 9cda 66be 854c 27be f7ef b5bc
00000110: 6327 f23d 68c2 523e 50e1 85bd 2951 1ebe
00000120: e195 133e 5935 e4bd 8f86 9abe 1e3e 8f3c
00000130: f2a0 59bc 5cf7 97bb 5c42 bebe 47ec 733e
00000140: b501 a13d bac1 903d 6d84 fe3d 32b1 0cbd
00000150: cc92 39be 52e2 03bd bba4 6dbe 5508 bbbc
00000160: cdca 3f3e 08d8 f4bd b5f7 ab3d e717 f83c
00000170: a626 6abe ed34 50be 48cc 013d 487a e3be
00000180: b608 f63e 2593 ef3d e61f 3ebd 50a6 583e
00000190: 934c 6a3e 2f09 43be 890b bf3e c2fb a0bd
000001a0: c677 373e f2ff 453e abff 79bc c5f3 2a3d
000001b0: 2557 973c cb17 d53d ad36 493e e830 773e
000001c0: 58c1 99bd 852b 933d 9c40 2b3d b19a a63c
000001d0: 82ee 5ebe 20a3 d5bd db0b 553e f515 673e
000001e0: f23a 173e 08fb c3bd e311 45be 9cdf 62be
000001f0: db0d 93bd de92 ed3d 2e77 463e 495d ed3e
-0.20285627 -0.25313288 -0.09708473 0.005286738 0.18376227 0.06419994 0.30447093 -0.2564561
0.34127438 0.17094749 -0.06465906 0.09119506 -0.2641582 0.2598848 -0.36971542 -0.076074645
0.48267692 -0.38696736 0.23613544 0.18189031 0.15240657 -0.019476373 0.309228 -0.068602175
0.15161793 0.05671687 -0.10244512 -0.12118652 0.1615457 -0.14518106 -0.19780768 -0.16398928
0.055645138 -0.04472332 -0.12820902 -0.032653663 -0.34383443 -0.14856261 0.33767232 -0.04107182
0.0922078 0.11850784 0.0965974 -0.23123895 -0.107537106 -0.37210253 -0.2715249 0.30299935
0.027278788 -0.04522784 0.34269586 -0.10879093 0.066993885 -0.24113987 -0.06080479 0.06933954
-0.04073019 -0.029254239 0.16428389 0.31626454 -0.008615485 0.22768325 0.26621157 0.32156712
-0.082752824 -0.2254433 -0.16337784 -0.02220915 0.11823919 0.20581973 -0.065371156 -0.15460648
0.14412643 -0.11142988 -0.30180785 0.017485674 -0.013283001 -0.004637642 -0.37160003 0.23820601
0.07861654 0.070682004 0.12427602 -0.034348674 -0.18122405 -0.032198258 -0.23207371 -0.022831121
0.18729706 -0.11955267 0.08396856 0.030284835 -0.22866306 -0.2033269 0.03168896 -0.4442923
0.4805352 0.116979875 -0.04641714 0.21157193 0.22880773 -0.19046472 0.37313488 -0.07860519
0.17916784 0.19335917 -0.01525871 0.041736383 0.018474171 0.10404929 0.19649763 0.2413975
-0.075075805 0.07186035 0.041809663 0.020337434 -0.21770671 -0.10431504 0.20805304 0.2256697
0.1476858 -0.09569365 -0.19245104 -0.22155613 -0.07180377 0.11600278 0.19381401 0.46360233

read_encoder.block1.1.weight f4 [128]
00000000: 2a00 703f de64 a13f 887e 1c3f 9429 ba3f
00000010: c851 ac3f b456 6f3f 9ad4 8f3f fd79 bd3f
00000020: 37c1 a03f 7043 813f ccb4 943f 4b8d 8b3f
00000030: dadd 5d3f b1a9 873f 2152 783f a304 843f
00000040: b6eb 7d3f b138 a23f 486e 643f 78a9 963f
00000050: a353 643f 2065 8f3f 7682 913f 2f6b 6d3f
00000060: 3fb3 ae3f 4744 393f ddbb 7c3f 2f04 9d3f
00000070: 665b 933f 4491 5e3f acd7 553f 7797 8d3f
00000080: 8a0a cb3f f9c4 503f a209 9c3f a43c 563f
00000090: 27af 723f 06f6 833f 4e52 5c3f caff 433f
000000a0: df0a 5e3f 3f08 a03f 28ec 6d3f 821d 643f
000000b0: c450 713f 0f5f 453f b1e6 5d3f 2cbf 603f
000000c0: fb05 983f 31b7 7f3f b19b 8b3f 9330 873f
000000d0: 4936 973f 8e06 683f cdd9 843f f22b 873f
000000e0: ffae b23f 3eab 673f 3c45 6b3f 519d 753f
000000f0: e0e3 1a3f e5dc ae3f f26f 9a3f ea16 733f
00000100: 3bed 903f c1ac 4a3f 21a6 823f 8a25 ba3f
00000110: 335b 9f3f c49b 7b3f 719d 633f bb42 313f
00000120: d74f 2f3f eb7a 783f 231e 683f 8a8a c23f
00000130: a4d3 583f 7a6c 573f 4650 6f3f 81dd 9d3f
00000140: dbf9 c83f 2ca7 593f a1ba 7c3f bbe9 963f
00000150: c89b 903f 68b3 533f ff0c 343f 7f14 863f
00000160: 4156 943f 010f c93f 698f 4a3f 3a99 233f
00000170: 7abd 3a3f 61c5 903f fd03 593f 2d77 463f
00000180: 8bf8 563f 84f6 8e3f ce5a 823f d29a 823f
00000190: 6831 5f3f 7ccd 2f3f 1cc3 8a3f 860d 7a3f
000001a0: c6d9 773f ba91 973f 015a 5a3f 1d0d 923f
000001b0: ed44 283f 566c 223f 0a76 b03f 4790 773f
000001c0: b9f5 763f 5620 763f 7557 963f bf82 993f
000001d0: 4dff 7e3f c606 433f f00d 473f 5416 5a3f
000001e0: 533a 713f fd2c 403f 1909 523f 2f1f 483f
000001f0: 54f8 243f f04e 933f b39b 9e3f 9a24 7d3f
0.9375025 1.2608907 0.6113057 1.4543939 1.3462458 0.93491673 1.1236756 1.4802853
1.2558964 1.0098705 1.1617675 1.0902494 0.86666644 1.0598661 0.9700032 1.0313915
0.9918779 1.2673551 0.89230776 1.1770468 0.8919012 1.1202736 1.1367939 0.92741674
1.3648452 0.7236981 0.98724157 1.2266902 1.1512268 0.8694041 0.83532214 1.1061848
1.5862591 0.81550556 1.219044 0.8368628 0.9479851 1.0309455 0.86063087 0.7656218
0.8673534 1.2502517 0.9293847 0.89107525 0.94263864 0.7709817 0.8668013 0.87791705
1.1876825 0.998889 1.0906888 1.0561699 1.1813442 0.90635 1.0378968 1.0560286
1.3959655 0.9049567 0.9190252 0.9594317 0.6050396 1.3661162 1.2065413 0.9495684
1.1322397 0.7916985 1.0206949 1.4542706 1.2449707 0.98284554 0.8891211 0.6924245
0.684812 0.9706256 0.90670985 1.5198529 0.8469794 0.841499 0.9348186 1.2333223
1.570125 0.8502071 0.98722273 1.1790079 1.1297541 0.8269563 0.7033233 1.0475005
1.1588823 1.5707704 0.79125077 0.6390568 0.7294537 1.1310235 0.8477171 0.775256
0.83972996 1.1168981 1.0183961 1.0203497 0.8718476 0.6867292 1.0840793 0.97676885
0.9681667 1.1841347 0.85293585 1.1410252 0.6573017 0.6344656 1.3786023 0.96704525
0.96468693 0.9614309 1.174544 1.1993026 0.9960831 0.7618221 0.7775564 0.8519032
0.9422962 0.75068647 0.8204513 0.7817258 0.6444142 1.1508465 1.2391266 0.98883975

read_encoder.block1.1.bias f4 [128]
00000000: bcd5 13be a795 4ebd 0393 c8be dd40 e7bc
00000010: 76e1 84bc de5e ccbd 27fe dcbc d10c 62bd
00000020: 0c3f a63c 8750 4ebc e88f b4bd 4b08 c1bd
00000030: eeca 14be 2882 583d 8c26 ecbd 7090 c5bc
00000040: 2862 46be 1ec7 30bd dd38 30be 5994 343c
00000050: f245 05be 4d44 90bd 1497 a2be 0a4e 09be
00000060: 7b41 1b3d cfed a5be cec0 65bd 1681 333d
00000070: 2af0 c6bc b844 ebbd 3e25 d6be 9ce6 7fbd
00000080: f7cc 293c 8a07 56be 3961 55bd 2d0b 14be
00000090: 94e6 bbbd cedb b9bd 63c9 9ebe b118 25be
000000a0: e081 d5be da25 7dbe c173 a7be cde1 1cbe
000000b0: 8051 aabd 0936 61be 511b 36be 081f a5bd
000000c0: a496 28bd 4bdc 95bd da8a 6abe e6b6 14bd
000000d0: 2264 2b3d a5d4 3abd 16c8 86bd 3956 99bd
000000e0: 0454 003c 9888 18be d728 c5bd 193b 1dbe
000000f0: 5a06 a1be eb05 ab3b 5d77 fabe 1120 c3bd
00000100: a9f6 a1bd 97ad 39be 22c2 76be 6866 e9bd
00000110: 0f1c c8bd 09d9 ccbd 75ec 7abd b653 a8be
00000120: b443 80be 4d46 cfbd cd74 cfbd 957f 4c3d
00000130: f008 c5bd 023c 3cbe bb37 05be db45 203c
00000140: cfe5 d33c d9ba 41bd 6db6 a6bd 8504 aabc
00000150: 9f0a 40bd a0ce 07be eb28 9cbe f237 67bd
00000160: 9a23 74be 7e29 ccbc c29e 78be 0994 d3be
00000170: 5d1d 41be 81e6 c9bd 27dc 1fbe 190c 88be
00000180: d154 acbe 6dee 91bd 6b63 38bd 7f40 e7bc
00000190: 221a b0bd 2500 b3be 65d5 bcbd 4121 afbd
000001a0: d10d 8ebd 2470 7639 93bd 92bd b26f 88bc
000001b0: 4e2e a9be 5ff8 9abe f049 7fbc fcfc 87bd
000001c0: 3527 ddbd ebb4 d3b9 95aa c8bc e4b0 7cbe
000001d0: 420a 97bd d9d6 c7be 4bf6 b2be 7528 49be
000001e0: 2e7b 0bbe db61 11bf 1e8c 37be 4030 80be
000001f0: 6b7b d8be 85c7 0ebd 1137 733d 9d93 2bbe
-0.14437002 -0.05043569 -0.3917466 -0.028229171 -0.01622079 -0.09979032 -0.026976658 -0.055188004
0.020293735 -0.012592441 -0.088165104 -0.0942541 -0.14530537 0.0528585 -0.1153079 -0.024116725
-0.19373381 -0.043158643 -0.17209192 0.011021697 -0.13014963 -0.07044277 -0.31755888 -0.13408676
0.037904244 -0.32407996 -0.056092076 0.043824278 -0.024284441 -0.114877164 -0.4182529 -0.062475786
0.010363809 -0.20901313 -0.052094672 -0.14457388 -0.09174839 -0.090751275 -0.3101302 -0.161227
-0.4170065 -0.2472147 -0.327055 -0.15320511 -0.08316326 -0.21993269 -0.17783858 -0.08062559
-0.041159287 -0.07317408 -0.2290453 -0.036307238 0.04184354 -0.04561295 -0.06581132 -0.07487149
0.007832531 -0.14895856 -0.0962693 -0.15354575 -0.31450158 0.0052192113 -0.48919192 -0.095276006
-0.07908375 -0.18132626 -0.24097493 -0.113964856 -0.09770977 -0.10002334 -0.06126066 -0.32876366
-0.25051653 -0.10120831 -0.101297 0.04992636 -0.09620845 -0.18382266 -0.1300954 0.00978228
0.025866417 -0.047297332 -0.08140264 -0.020754108 -0.04688513 -0.13262415 -0.30499968 -0.056449838
-0.23841706 -0.024922129 -0.24279311 -0.4132388 -0.18858857 -0.09858418 -0.15611325 -0.2657173
-0.3365846 -0.07125554 -0.045016687 -0.028228996 -0.085987344 -0.34961048 -0.09220389 -0.085512646
-0.06936229 0.00023502164 -0.07165065 -0.016654823 -0.3304314 -0.30267617 -0.015581593 -0.0664005
-0.10798494 -0.0004037985 -0.024495402 -0.24676853 -0.073750034 -0.39031103 -0.34953532 -0.1964434
-0.13621208 -0.5678994 -0.17924544 -0.25036812 -0.4228166 -0.034858245 0.059378687 -0.16755529

read_encoder.block2.0.weight f4 [128, 128]
00000000: b165 41bd 65e7 9cbb 2c1a a5bc fa29 403e
00000010: 2dc0 5dbe bbea 67bd ec61 18be 5b18 6b3e
00000020: 4abd 22be 884b 113c 67f3 12be ada8 36be
00000030: bf3c 2e3d 6add 67bd c97b 873d d049 c13a
00000040: ae92 ed3d 6600 833e 6a5b d43d 1504 15be
00000050: 58b8 563c 7c25 35bd 316b 0cbe 80a3 823d
00000060: d494 adbe 1c4f a43d ce71 0f3d fc4c 9d3d
00000070: 8188 c33d 6507 fd3d 514b 4e3d c6ca 183e
00000080: 8c45 c4bd bcac c03d e142 a3bd 808f 763c
00000090: c4d8 073d 0de6 4b3e 7718 19bd e83a 25bd
000000a0: d67a a03d 8c19 2abd 5a5b 593d 6c34 efbc
000000b0: 684d 143d dff1 c23d bec4 a7bc bb8a 96bd
000000c0: 4526 1ebe c644 4a3d 49f6 273c beab d83c
000000d0: 5048 513d 857a 21bd ccab aebd 58c3 dbbc
000000e0: cd94 81be 8691 a03c a89a a3bd aa20 cb3d
000000f0: c04e 493c 2a0c 223d b6df d03c 2e94 73bd
00000100: d934 933d 3e4e 083d 4026 ef3c 1fdf 57bd
00000110: 1f9a 6e3d e048 a03d 2c1a 81bd 9790 823d
00000120: 0c41 843d 3feb 023c 43ec 203e 3191 813d
00000130: 817c 113e b174 013c 37be d73d a719 8ebe
00000140: 3620 623e 6356 973d fd7e 0d3e 13e2 1dbe
00000150: 8757 8b3d 138f 8f3c 3188 65bc 4ace f73d
00000160: f6db 5d3c b971 28be 76c2 5f3c 39d7 8ebd
00000170: 24e6 553d efa3 f1bd 4dbb 693d e3b4 963d
00000180: d487 543d 41fb 0dbb d777 6b3d c812 46be
00000190: 4bee ce3d 8f4c 093d 9f2c 01bd f7bc c2bc
000001a0: 0b8d 513c 94f7 76be b603 023e 2aa8 bebd
000001b0: 25bf d33d 1469 a33d e731 473e 4af9 19bd
000001c0: 450a 083d 5422 d4bd e166 323d 580e 8abb
000001d0: ede9 30bc fb34 1cbc bb3f 8abd 5d7d 8f3c
000001e0: 05da 353d 678a 983d 98ee 563d 84d1 adbb
000001f0: 4dcb 56bd 90f2 05be 6d5a 6ebc 6783 e1bd
00000200: 5678 23bc b29e a3bd f339 67ba 9441 923e
00000210: be35 20bf 7532 e9bd 7fa4 84be 3ac3 953e
00000220: 3901 0ebe 6fe7 133e b9aa 06be 2d39 7b3c
00000230: 4b63 9a3c 1633 15be 9e0c 433d 4922 62be
00000240: 3661 7fbd 400a 723e 7b1c 5ebd b5b3 7dbe
00000250: b6af bb3d 1b05 05be c64e 39bd e3e4 ea3d
00000260: 5dd8 d2bd 0338 2ebd 0924 b5be 563e d23c
00000270: 9cef 053e dbbb 60bd 31d3 963d d8ca 8d3e
00000280: 1cd3 0d3e b357 37be d810 8fbe e4e4 94bc
00000290: 52ff e33c 47fb 1c3e fcb2 abbd f1db f73d
000002a0: 0609 b1bd 9ebb 843d 32a8 b4bd b867 623d
000002b0: a8ad 863e d2db aeba 962a d7bd b0d7 38be
000002c0: 23dc 0e3e c4f2 c73d c99d 16bd 7683 7a3e
000002d0: eb0e afbd 81ea a83b f8d5 d6bd 56b9 903d
000002e0: 9c23 813c 76a0 aebe 69e3 b1bd 4b0b 56bd
000002f0: d091 693d 3560 bdbd 8133 a23b 45df 65bd
00000300: 54a0 583e 8eb0 3dbd 9e4b 84bd 83e2 15bc
00000310: 1ab6 afbc be05 37be 1ec5 403d 3e3d aebd
00000320: 0b47 b93d 5df5 3dbe 0ff1 88bd a50e b5be
00000330: e23a 5fbd 6596 4cbe 73ef ce3c 58bb 783c
00000340: 703f 663e b251 83bd d931 74bd d603 b0be
00000350: c9a2 293e 433b b4be 91aa f23b b0cd 143d
00000360: f8b3 de3d 628c 723d c58c dbbc 152d 683d
00000370: e54a 883c 7d81 e8bd e6db 52be 5fe8 a33d
00000380: adca 63b9 810a 43bc 337b 3ebe 80eb 92bd
00000390: 7159 5bbe ec1a 63bd f21d bdbc cc08 4dbe
000003a0: 98a9 eabe 8ccc 75be 0b67 a3bc c91f f6bd
000003b0: 74e9 88be 1130 3ebd 03bc 643d e1f1 64be
000003c0: 30b4 ed3a 5314 7cbe 9127 f73b 3971 f53d
000003d0: 186b be3c da90 20bd 40a2 85bd ee53 853c
000003e0: 590d c6bc 0a15 c43c 9971 09be eea6 f7bd
000003f0: 3886 4cbd 3618 63be c2db 01be f9bb 59be
-0.04721612 -0.0047883266 -0.020154081 0.18766013 -0.2165534 -0.05662034 -0.14881104 0.2295851
-0.1589252 0.008868106 -0.14350663 -0.17837782 0.0425384 -0.05660764 0.06615407 0.0014746729
0.116002426 0.2558624 0.10368998 -0.14552338 0.013105474 -0.0442252 -0.13712765 0.063788414
-0.3390261 0.080229014 0.035020642 0.07680699 0.095475204 0.12354926 0.050364796 0.14921102
-0.095835775 0.094079465 -0.079717405 0.0150488615 0.03316571 0.19911976 -0.037376847 -0.04033938
0.07835929 -0.04152827 0.053065635 -0.029199801 0.036206633 0.095187895 -0.020479556 -0.073506795
-0.15444286 0.049381994 0.01025159 0.02644908 0.051094353 -0.039423484 -0.085288614 -0.026826546
-0.25308838 0.019600641 -0.07988483 0.099183396 0.012286842 0.03956238 0.025497299 -0.059467487
0.07187814 0.033277743 0.029193044 -0.05270302 0.05825245 0.078264 -0.0630382 0.063752346
0.06457719 0.007990657 0.15715127 0.06326521 0.1420765 0.007901357 0.105343275 -0.27753946
0.220826 0.07389524 0.13817973 -0.15418272 0.06803804 0.017524278 -0.014009521 0.120998934
0.013541212 -0.16449632 0.013657203 -0.06974644 0.052221432 -0.11798846 0.05706339 0.0735872
0.05188735 -0.0021664652 0.057487335 -0.19343102 0.101040445 0.033520278 -0.031536695 -0.023771746
0.012789975 -0.24117881 0.12696728 -0.093094185 0.10339192 0.079790264 0.1945263 -0.037591256
0.03321292 -0.1035811 0.043555144 -0.0042131357 -0.01079796 -0.009534116 -0.06750437 0.017515833
0.044397373 0.07448273 0.052473634 -0.005304517 -0.052439976 -0.13080812 -0.014547926 -0.11011391
-0.009977421 -0.07989253 -0.0008820586 0.28565657 -0.62582004 -0.11386577 -0.2590675 0.2925051
-0.13867654 0.14443754 -0.13151063 0.015333456 0.018846175 -0.14570269 0.047619455 -0.22083391
-0.062348567 0.23636723 -0.05422638 -0.24775584 0.091643736 -0.12990229 -0.04524114 0.11469438
-0.10295174 -0.042533886 -0.35379055 0.02566449 0.13079685 -0.054866653 0.073645 0.2769382
0.13850063 -0.17904548 -0.27942538 -0.01817555 0.027831707 0.1533023 -0.08383748 0.12102497
-0.08644299 0.06481098 -0.08821143 0.055274695 0.26304364 -0.0013340658 -0.105061695 -0.18051028
0.13951163 0.09763101 -0.03677157 0.24464211 -0.08547767 0.005154908 -0.1049003 0.070666
0.01576405 -0.34106797 -0.08685953 -0.052256864 0.057023823 -0.09246866 0.0049499874 -0.05612113
0.2115491 -0.046310954 -0.06459735 -0.009148243 -0.021449137 -0.17873284 0.047062986 -0.08507775
0.090467535 -0.1855063 -0.06686603 -0.35362735 -0.054499514 -0.19979246 0.025260663 0.015181385
0.22485137 -0.064120665 -0.05961785 -0.34377927 0.16566004 -0.35201463 0.007405587 0.03632897
0.1087417 0.05921591 -0.026800523 0.05668362 0.016637275 -0.11352823 -0.20591697 0.08003306
-0.0002172391 -0.01190436 -0.18601684 -0.07173824 -0.21420838 -0.055445597 -0.023085568 -0.20022887
-0.45832515 -0.2400381 -0.019946596 -0.12017781 -0.2674061 -0.04643256 0.055843364 -0.22357894
0.0018135365 -0.24617128 0.0075425585 0.11984486 0.023244426 -0.03920064 -0.06525087 0.016275372
-0.024176287 0.023935813 -0.1342224 -0.12092386 -0.04993269 -0.22177204 -0.12681487 -0.21263112

read_encoder.block2.0.bias f4 [128]
00000000: 7d4f b93c fcae 83bd 395b 0dbd 3707 58bd
00000010: 104e 82bc e6cc bbbc eff0 6f3d ec0c 06bc
00000020: 8cc8 1f3d b804 29bb b953 8e3d 23b2 4c3d
00000030: 994f 63bd 9a31 c23c ce3d 9b3b e806 813c
00000040: b05d 6fbd 8128 873c f449 24bb d021 33bd
00000050: 5042 a9bd d211 e6bc c920 d53d af62 ca3c
00000060: f23c 5bbd 9fa1 01bc feda da3c d21a 863d
00000070: 1bb3 bb3d 3be0 33bc 5e73 c8ba 9a4f a03d
00000080: e876 e23c b198 67bd a4e1 92bd dab0 dabc
00000090: 7b76 65bd be56 85bd 14a3 0b3e e630 f03c
000000a0: e225 8c3d ae07 a3bd ec89 843d 765d 4e3d
000000b0: f6c9 93bd 7f4c e53c 362a 6a3d e442 93bc
000000c0: 38bb 9b3d cafe a83d 4ccf a8bd afa4 75bc
000000d0: f22a a03d f0bb d0bd dd31 62bd 5362 903d
000000e0: ff8c adbd f31e 7e3d b5e8 87bc 1504 853d
000000f0: 0fc0 303c d85f 8cbc 7c3b 2fbb f003 003c
00000100: baf1 76bd 3196 ce3d 05cf bc3c 479e abbd
00000110: 8ae0 de3d abd9 613d d2f8 8abd 107f 8d3c
00000120: 2e2c 8e3c 557b 543c 6b39 7b3d 54bc 43bd
00000130: e083 0cbd 6a32 753d 8b1a 083e 6d9c 113d
00000140: e4d9 41be 68b0 bcbc 4032 bebc d9e4 1bbd
00000150: 0f44 a93a 5d0d 8ebb 9f3c 43bc ce76 2f3c
00000160: c317 95bd d15f 7e3d 0ef9 d13d 46c2 90bc
00000170: b3ce bd3d c71c 3b3d 1855 8dbc 944c 9f3d
00000180: 3edd 233d 7182 9c3d a9a1 8fbc 69c0 923c
00000190: 6836 6e3d 9f98 99bd 7752 6e3d 3fd6 1cbd
000001a0: 433b f6bc f5c1 973c b494 15bb 8ec1 a0bc
000001b0: 703b 1dbd 41af 903c c9ef 8dbc efe4 87bd
000001c0: 2bd7 643d 4000 483d c2d4 853b 78c3 2a3d
000001d0: 797f 31bd 8b34 a93c 9d43 e2ba de38 c13d
000001e0: 5a89 25bc 1d52 a4bd 4956 db3c 5bd1 28bd
000001f0: ec85 6abd 24fc 3fbd 1919 46bc 90cd 943d
0.02262091 -0.0642986 -0.034510825 -0.052741256 -0.015906364 -0.022924852 0.05857938 -0.008181792
0.039009616 -0.0025790166 0.069495626 0.049974572 -0.055495832 0.023705292 0.0047375923 0.015750363
-0.058438957 0.016498806 -0.0025068494 -0.043733418 -0.08264601 -0.02808467 0.10406644 0.02470526
-0.05352492 -0.007912069 0.026715752 0.06548084 0.09165021 -0.010978754 -0.0015293171 0.07827683
0.02764459 -0.056542102 -0.07171944 -0.026695658 -0.056021195 -0.065106854 0.13636428 0.029320192
0.06843163 -0.07960449 0.06471619 0.0503821 -0.07216255 0.027990578 0.05716916 -0.017976232
0.076040685 0.08251722 -0.08242664 -0.014992877 0.07820691 -0.10192096 -0.055223335 0.07050004
-0.084741585 0.062041234 -0.016590456 0.06494919 0.010787978 -0.017135546 -0.0026738336 0.007813439
-0.060289122 0.100872405 0.023047933 -0.083797984 0.10882671 0.055139225 -0.0678574 0.017272502
0.01735505 0.012968858 0.061334055 -0.047787026 -0.034305453 0.05986253 0.13291375 0.03554957
-0.18930775 -0.023033336 -0.02321732 -0.038060043 0.001291396 -0.004335089 -0.011916309 0.010709478
-0.07279923 0.062103096 0.102525815 -0.017670762 0.0926794 0.04568174 -0.01725249 0.07778278
0.040005915 0.07642067 -0.01753314 0.017914014 0.058157355 -0.07499813 0.058184113 -0.03829026
-0.030057555 0.018525103 -0.002282423 -0.019623544 -0.038386762 0.017661693 -0.017326253 -0.066354625
0.055869263 0.048828363 0.0040842006 0.04169032 -0.043334458 0.020654937 -0.0017262582 0.09434675
-0.010103548 -0.08023474 0.026774542 -0.041215282 -0.057256624 -0.04687132 -0.012090945 0.072657704

read_encoder.block2.1.weight f4 [128]
00000000: 2360 813f 75c2 953f 3b96 533f 7ffd 8d3f
00000010: 1b81 7f3f 8b28 493f 2116 573f d41c 713f
00000020: 295b 753f cb10 843f 80b3 413f 9d82 603f
00000030: f592 7d3f af42 973f 10c0 723f 3d51 903f
00000040: 24cf 843f 5a35 623f ff4f 6c3f e348 843f
00000050: 054d 5d3f ea88 6a3f 5a43 443f d865 733f
00000060: 61af 803f 028d 793f c75d 653f 1620 783f
00000070: 94ec 693f bd37 783f 3df5 3b3f 427a 803f
00000080: f923 543f 1193 843f c8c7 773f 4b76 753f
00000090: 481a 523f 95bf 8e3f 50d2 553f d173 803f
000000a0: 9af0 493f b8f3 8c3f 5693 6f3f 9dfc 8d3f
000000b0: b189 813f f7ff 793f 4d83 393f 9770 5b3f
000000c0: 7bc3 763f ffa8 743f 4bab 883f a039 733f
000000d0: 2d69 4b3f ed05 c53f d543 653f 1748 773f
000000e0: c08f 893f f4bf 6e3f fbd0 703f 9669 423f
000000f0: 1884 4c3f 8cb3 653f a6c9 7c3f 599f 9a3f
00000100: e1a2 7f3f 40b8 853f 4717 6b3f 396d 9d3f
00000110: a01f 803f d8a0 683f e35a 9f3f 8695 713f
00000120: f2a9 5f3f 3e94 813f 3320 713f 5097 793f
00000130: 5c98 893f 9dd8 783f e0bd 363f 21a1 833f
00000140: 07a3 9e3f 1436 783f 511c 6c3f bbab 813f
00000150: ae49 8d3f b507 6f3f 0259 823f 971e 353f
00000160: 179f bd3f 7a14 6f3f c6d0 263f 64a2 413f
00000170: 6b1a 733f 6f5e 993f 1286 6c3f cb98 4c3f
00000180: ce0f 6d3f 822a 853f cb2a 7f3f 4f67 813f
00000190: 0a08 703f 8060 603f e37c 943f 4775 5a3f
000001a0: 0a05 733f 1425 573f 0701 7e3f da6d 573f
000001b0: 3fb0 623f f8da 753f 5548 9c3f dee1 883f
000001c0: 2452 803f 676c 763f 274f 553f 9560 8b3f
000001d0: 6036 8f3f 8921 753f 76e0 6e3f a5ef 5e3f
000001e0: 14c0 4d3f 62d8 643f 318e 4f3f 307f 623f
000001f0: e00c 513f cd7c 9f3f 7859 5d3f a662 2a3f
1.0107464 1.1699969 0.8265111 1.1092986 0.99806374 0.7857749 0.8401814 0.94184613
0.95842224 1.0317625 0.7566452 0.876993 0.99052364 1.1817225 0.94824314 1.1274792
1.0375714 0.8836266 0.92309564 1.0334743 0.8644565 0.91615164 0.7666527 0.95077276
1.0053521 0.97480786 0.8959622 0.9692396 0.91376615 0.9696005 0.7342108 1.003731
0.8286739 1.0357381 0.96789217 0.95883626 0.8207135 1.1152216 0.83524036 1.0035344
0.78882754 1.1011877 0.9358419 1.1092716 1.0120145 0.97656196 0.72465974 0.85718673
0.9639203 0.9557037 1.0677274 0.95009804 0.7945736 1.5392433 0.8955663 0.96594375
1.0746994 0.9326165 0.9406888 0.7594236 0.7988906 0.8972709 0.9874519 1.2079879
0.9985791 1.0446854 0.91832393 1.2298957 1.0009651 0.9087043 1.2449611 0.9436878
0.8736869 1.0123365 0.9418976 0.9749651 1.0749621 0.97205526 0.71383476 1.0283548
1.2393502 0.96957517 0.9223071 1.0130533 1.103811 0.93371135 1.0183413 0.707498
1.4814175 0.9339062 0.65162313 0.75638413 0.94962186 1.1981944 0.92392075 0.79920644
0.9260224 1.0403597 0.9967467 1.0109652 0.93762267 0.8764725 1.1600612 0.853352
0.94929564 0.8404095 0.9922032 0.84151995 0.8855018 0.96037245 1.2209574 1.0693929
1.0025067 0.9625916 0.833239 1.088885 1.1188469 0.95754296 0.9331125 0.8708442
0.8037121 0.89392674 0.8107634 0.8847532 0.8166027 1.2459961 0.86464643 0.66556776

read_encoder.block2.1.bias f4 [128]
00000000: af83 cabc 9599 0dbe 4666 7dbe ed0b bbbd
00000010: 6da5 d3bd fc8f 33be b961 93be d23d aabd
00000020: 489a c6bd 12b8 0bbd d71f 5fbe e910 e9bd
00000030: bc1a 70bd 65c3 20bd fe11 88bd 8984 d3bd
00000040: bef3 1abe 968b 31be f8f1 19be 5e6a c5bd
00000050: 50e4 00be c6bc ddbd b061 20be 8bc6 efbd
00000060: 9f7b bdbd aaa1 e4bd 1e1d f9bd eaf4 73bd
00000070: 19c0 95bd 0a54 8abc 48a1 6dbe 7ce3 00bd
00000080: 26b1 20be c133 8cbe 7242 b2bd dfd1 77bd
00000090: 7f1e 48be 56f8 b6bd 1981 0abe 0de8 2dbd
000000a0: 87e2 1dbe ee0c b1bd bc80 86bd d831 1abd
000000b0: 264c 1cbd 6b22 83bd 9d44 84be 50e4 c6bd
000000c0: 738c f7bc 236a 7fbd 3a21 b7bd 3d06 0ebd
000000d0: 7837 55be bb90 25be bace 1bbe c86c 0fbd
000000e0: 3b9a 92bd 692b 62be c1ee 4cbd 296b 0fbe
000000f0: 7a92 3fbe 4ba2 16be 341f 36bd f693 a9bd
00000100: 9fe2 dbbd 8bf3 08bd c26e 05be 5bfe 0ebd
00000110: fae8 88bd 44a3 febd e277 46bd 76d2 35be
00000120: 3c7d 64be 97ad e9bc 8235 c8bd 24a2 a6bd
00000130: 06f9 debd 07f4 30bd 5883 3bbe 3b74 83bd
00000140: 7fac 20be 9f91 63bd 6776 b9bd f6ea 85bd
00000150: 927e 21bd 4d4c c3bd 839f 17bd efa8 26be
00000160: 6a18 42be a404 1cbd 8845 bebe 26a4 72be
00000170: e9f3 30bd 9fb8 5cbd aee1 19be 02ff 44be
00000180: 3eaf 81bd 9e87 0ebe 04d0 ccbd 7d66 01bd
00000190: e2bd bdbd d34b a3be c898 48bd c365 f1bd
000001a0: f98e cdbd c777 3fbe 1923 d1bd b9a6 d0bd
000001b0: 171d 67be 0392 67bd a2e2 38bd 76bb 2fbe
000001c0: e112 bfbd 082f 7fbd 01e2 65be 8795 a6bc
000001d0: a063 f4bd ff5f 5abd 734d 8abd 77ca 53be
000001e0: b51d 50be 1b0c fabd a352 afbe e7cf 34be
000001f0: 2182 a2be f790 9ebd d5d3 17be f8ac 68be
-0.024720995 -0.13828118 -0.24746045 -0.09133134 -0.10334287 -0.17535394 -0.28785494 -0.083125725
-0.096973956 -0.03411109 -0.2178949 -0.113801785 -0.058619246 -0.039248843 -0.06644057 -0.103280134
-0.15132043 -0.17338404 -0.1503371 -0.096394286 -0.12587094 -0.10827021 -0.15662265 -0.11707791
-0.092520945 -0.111636475 -0.12163757 -0.05955974 -0.0731203 -0.016885776 -0.23206055 -0.031466946
-0.15692577 -0.27383235 -0.0870408 -0.060502883 -0.19542883 -0.08934085 -0.1352581 -0.04245763
-0.15418445 -0.08645044 -0.06567523 -0.03764519 -0.03815856 -0.06403049 -0.25833598 -0.09711516
-0.030218339 -0.06235708 -0.08941884 -0.034673918 -0.20821941 -0.16168492 -0.15215579 -0.03501585
-0.071583234 -0.22086872 -0.05003238 -0.14005722 -0.1870822 -0.14710347 -0.04446335 -0.082801744
-0.10736584 -0.033435386 -0.13030532 -0.03491054 -0.06685062 -0.12433484 -0.048454173 -0.17756066
-0.22313398 -0.028525157 -0.09775831 -0.081363946 -0.10887341 -0.043201473 -0.18311822 -0.064186536
-0.15690802 -0.055558797 -0.090557866 -0.06538956 -0.039427347 -0.095360376 -0.037017357 -0.1627538
-0.18954626 -0.038090363 -0.37162423 -0.2369543 -0.04320136 -0.053887006 -0.15027496 -0.19237903
-0.06332253 -0.13918921 -0.10000613 -0.03159188 -0.09264733 -0.31893787 -0.04897383 -0.11786988
-0.100370355 -0.18698035 -0.102117725 -0.1018805 -0.2256969 -0.056535732 -0.04513801 -0.17161354
-0.09329773 -0.062300712 -0.22449495 -0.020334972 -0.119330645 -0.053314205 -0.067530535 -0.20682703
-0.20323832 -0.1220934 -0.34242734 -0.17657433 -0.31739905 -0.077424936 -0.14826901 -0.22722232

read_encoder.block3.0.weight f4 [128, 128]
00000000: eeb1 f8bd ff12 78bd a722 823c 8927 44be
00000010: cc21 633e d1ad 063d 320a 9aba 3efb 98bd
00000020: edcf 513d 0bcd 3dbd 9e1a 243d a1bb 8d3d
00000030: 7d31 1a3e 6fca 103c 1dba 153e 5e8d ad3d
00000040: 2cb4 753d 0998 8c3c 0df4 b73d 64af 483e
00000050: 1354 fd3c 32d6 8fbd 4377 0a3d df70 e03b
00000060: 0925 543e 3263 af3d dcfa 943d f224 863d
00000070: 8260 153e b8ae 1ebc 61fb 933d 55bd 9abd
00000080: 6cdc 66be a63f 8a3c 7c8a f6bd 3363 a3ba
00000090: 069d a9bd c618 04bc 5491 df3c 507e 123d
000000a0: a6f3 763d 0f29 253e be5f 673d c230 33bd
000000b0: 1ec1 a63d b0ba 96bd 2546 9b3d caf8 fa3c
000000c0: af02 c63c cade 853d 1518 a13d 6148 013e
000000d0: 67a2 0f3d e734 b4be caf2 fe3c 39c8 8a3d
000000e0: 14d4 893b b6a9 913d 6659 c43d e5ab 253d
000000f0: 9213 db3d 28e4 453e b560 d13c d156 843e
00000100: cbca 16bd bd12 3ebd b3f9 86bc 33cc 86be
00000110: a16e 6cbd 813d 47bd 11f8 a6bd 1550 da3a
00000120: 625a 84bd 43ac 93bd 820f bc3c 53cf 4c3c
00000130: 1a2f 603d 96a9 fcbc efa3 c33c 8a83 8e3e
00000140: 15b7 5dbe 0a89 443d da56 cebc 40f2 093e
00000150: 3ce8 ba3c c63f 7cbc 16ca 9b3d 8821 95bd
00000160: 2e4f 18be 35dc 03be 37b2 e5bc 785f ecbb
00000170: 6b8b 19bc f6ad 433c 6cdc 9d3d 7c74 5a3d
00000180: 589d 7a3d 8589 1b3d 57a3 1e3e f5f5 00bd
00000190: 950f f3bd ddda 0abb 7ed1 15be 266e 0cbd
000001a0: 8d99 103e 0d6a 063e 0c2d 96bc d9a3 a93c
000001b0: 7e4c d23d af06 873c 5957 51be 1967 0a3e
000001c0: f2f0 823e aede b13c 8b55 d2bc d8bc f3bd
000001d0: c398 46bd 5276 b73d 100b 273d ce30 f8bd
000001e0: 3e31 363c 4e23 243d 4b51 2a3d aa69 c73c
000001f0: 8d08 b73d 5a99 c3bd 6e13 f3bc e978 433d
00000200: a9bb 7a3d c152 04be efd7 eb3c 8788 9ebd
00000210: 9eb5 4a3e ab7a 1f3c deef a43d b5cb dbbd
00000220: d4b4 42bb 36f0 1a3c 303f 0d3d 74ae a5bd
00000230: 5d24 103e fd69 c1bd 50cb 87bd 6e18 02bb
00000240: d699 953d 7629 44bd 8874 b43d 2673 133e
00000250: 8985 22bd 1109 bd3c 2d25 bf3b 25c3 d7bc
00000260: 9b78 773e 038f d63d 8f2d 1b3d adaf a13d
00000270: 0ec2 ce3c 23b6 45bd 03c1 2c3e 4b94 59bd
00000280: a8e0 ffbd 0c61 abbd 7a9b 87bc c2f5 ac3d
00000290: 2be3 95bd 0f87 403e 3b7d a73d 18b8 813d
000002a0: c85b c03d 0eff 503d 3b15 82bc f297 98b9
000002b0: b484 8bbd ed04 03bd cac5 de3c 9046 3f3d
000002c0: 569e 6d3d 7df3 c4bb 90bb de3d c0b9 883c
000002d0: f162 583e f70e 9cbd 5d51 4ebd 790d 003e
000002e0: ebbc 043e 25c1 00bd 8e43 7c3c 8a8e 8a3c
000002f0: 9412 a9bb 1a39 8d3d b74e 50bc 3249 123d
00000300: ad77 f6bd a33d c73c 8f32 cd3d 89b6 03be
00000310: 183c 74bd e37e 5a3c a4df e4bd dd33 b43c
00000320: 410c 383d 87d6 e53b 6e91 e13d f328 203d
00000330: d719 383e d660 4bbd e473 14bd b441 fe3d
00000340: 5736 9bbc 322a 253a 38e5 f0bc 9c6d c23d
00000350: 8b16 35be 162f a0bd 498e 4dbd 6b45 83bd
00000360: 11f7 dcbd ce75 813d 3ec2 353d f6e0 46bc
00000370: cd49 bb3d d901 f2bd c4b8 bc3d 0f83 0bbb
00000380: 7c53 61ba cc52 a2bd 314b a43c f1f9 6b3b
00000390: a1e1 dc3d 99a6 b7bc 03d2 36be 865c 293d
000003a0: 2676 9dbc 5eda db3c 7a17 993c 042f 21bd
000003b0: be1d 45bd eb91 4c3d df2b 7ebd 6993 ffbc
000003c0: a286 063e 07cd a0bd 2718 5bbd 3e80 f6bc
000003d0: 14d8 12be 5b93 3b3d 8f4f 9ebd 82f3 733d
000003e0: 5a98 b13d b3e7 b7bd e14c d0bd 6bc5 353d
000003f0: 07ff edbb 78a0 14be 6879 bc3d cd02 fa3d
-0.121433124 -0.06056499 0.015885664 -0.19155706 0.22180861 0.032880608 -0.0011752306 -0.07469796
0.051223684 -0.046338122 0.040064447 0.06920553 0.15057941 0.008837326 0.14621778 0.08474229
0.05998628 0.01716234 0.08982096 0.19598156 0.030923879 -0.070232764 0.033805143 0.006849393
0.20717253 0.08563842 0.0727441 0.065500155 0.14587596 -0.009685211 0.07225681 -0.075556435
-0.22545022 0.016876053 -0.120381325 -0.0012465477 -0.08281903 -0.008062547 0.027290978 0.035764992
0.060290955 0.16128944 0.05648779 -0.04374767 0.08142303 -0.073598266 0.075817384 0.03063621
0.024171202 0.06536634 0.078659214 0.12625267 0.03506699 -0.3519661 0.03112163 0.06776471
0.00420619 0.07112448 0.09587364 0.040447135 0.10697092 0.19325316 0.025558809 0.25847486
-0.036814492 -0.04640459 -0.016476488 -0.26327667 -0.05772269 -0.04864264 -0.08152784 0.0016655946
-0.06462552 -0.07210591 0.022956613 0.012500602 0.05473242 -0.030842584 0.02388188 0.2783473
-0.21651872 0.047982253 -0.025187898 0.13471317 0.022815816 -0.015396064 0.07606904 -0.07281786
-0.14873955 -0.12876971 -0.028039081 -0.007213529 -0.009371619 0.011943331 0.07708058 0.053333744
0.06118521 0.037972946 0.15491997 -0.031484563 -0.118682064 -0.0021187582 -0.14630696 -0.034284733
0.14121075 0.13126393 -0.018332027 0.020708011 0.10268496 0.01648268 -0.20443477 0.13515891
0.25574452 0.021712627 -0.025675556 -0.119012535 -0.04848553 0.08958115 0.040782034 -0.12118684
0.011120139 0.04007273 0.041581433 0.024342377 0.08937178 -0.09550734 -0.02967235 0.04772273
0.061214123 -0.12922193 0.028789489 -0.07740884 0.19795844 0.009733836 0.080535635 -0.107322134
-0.0029709833 0.009456685 0.03448409 -0.08089915 0.14076371 -0.09444044 -0.06630576 -0.0019850987
0.073047325 -0.047891103 0.08811289 0.14399394 -0.03967813 0.023075612 0.005833289 -0.02633817
0.24167101 0.10476496 0.037885245 0.078948356 0.025239017 -0.048269402 0.16870503 -0.05311994
-0.12494022 -0.083681196 -0.01655363 0.08445312 -0.073187195 0.18801521 0.08178183 0.06333941
0.09392506 0.05102449 -0.015879264 -0.00029104907 -0.068124205 -0.03198712 0.027193923 0.046698153
0.05801233 -0.0060104714 0.108756185 0.016690135 0.21131493 -0.07620042 -0.050370563 0.1250514
0.12962691 -0.031434197 0.015396966 0.016913671 -0.0051596854 0.06895657 -0.01271408 0.035714336
-0.12034545 0.024321383 0.10019409 -0.128626 -0.059627622 0.013335916 -0.111754686 0.021997387
0.04493356 0.007014099 0.11014067 0.039101552 0.17978607 -0.049652897 -0.036243334 0.124148756
-0.01894681 0.0006300538 -0.029406175 0.094935626 -0.1768438 -0.07821481 -0.05018452 -0.06409725
-0.10789312 0.063212976 0.044374697 -0.012138596 0.09144936 -0.11816759 0.09214929 -0.0021287834
-0.0008595509 -0.079259485 0.020055385 0.003600713 0.10785223 -0.022418307 -0.1785355 0.041348003
-0.019221377 0.026837524 0.018687952 -0.03935148 -0.048124067 0.049943846 -0.062053557 -0.03119822
0.13137296 -0.07851606 -0.05348983 -0.030090448 -0.1434024 0.045794826 -0.07730018 0.0595584
0.08671637 -0.0897974 -0.101709135 0.044377726 -0.0072630676 -0.14514339 0.09202844 0.122075655

read_encoder.block3.0.bias f4 [128]
00000000: 20e2 193d 5289 563d a379 d6bc 9285 edbc
00000010: d590 1e39 f1ac 6d3d b9ec e13c a1f6 b83d
00000020: b75a b5bd fb81 a73d ba79 703d 4b00 8abd
00000030: b7df a83c 8536 3ebd d51c bbbc 983c 70bd
00000040: 799e 8fbd a6e5 8f3d 6db3 30bd cbdb 2bbb
00000050: 012e 47bd 4b3f 8fbd dde4 a4bd 724e d83b
00000060: 0693 4ebd b48e d2bd aebd aebd 0e28 d7bc
00000070: 4d20 2cbc f01b 873d cfbe ee3c 876d 1fbb
00000080: 701f 583c 4964 2bb9 9b11 10bd f6f3 c13d
00000090: 121c 8e3d 829d 023e 11e7 73bd ce55 8d3d
000000a0: 117d ccbd c04d bdbd d080 c33d 4e72 1b3d
000000b0: cbc1 f6bd 7ca5 8cbc 06cb dc3c 2708 2dbd
000000c0: 6736 bd3d 5384 5abc 6f0a 393d d279 313d
000000d0: 3018 ee3b 26c3 ec3d df5c 9abd 096e d13d
000000e0: 2344 f4bb e8c2 07bd ee9f d7bc d44e b4bc
000000f0: 401a a13d 2412 aa3d 8eda 9a3d 4f91 c53c
00000100: c3f6 c8bd e54e 69bd 3a2c f2bc de15 a3bd
00000110: e9c2 b43b e35c abbd b4c7 d83d df5d 9fbd
00000120: 3274 97bd 0090 9e3d 0de2 63bd 6a8e 84bd
00000130: e748 fd3c aa6f 403d d3aa 163c 8544 37bd
00000140: 4fb8 5fbc 2bb3 9bbd 03c6 723a 8bdf 5c3c
00000150: b407 b93c be7e 87bc f778 ed3d 71c3 aabd
00000160: 13c2 0fbc de67 f03d 84b5 d83c 14b2 c8bc
00000170: 399d a13d b457 893d a36c 0d3b 1bbc f83c
00000180: bd94 8a3d 17b1 42bd a694 c33b e187 35bc
00000190: d0e2 543d 31e7 77bb 9371 6b3d 766b c73d
000001a0: 7600 4fbd 279b 853d 2cfb 5abd bfd7 803d
000001b0: 8e08 ca3d e8df 423c be55 3c3d 7d06 29bc
000001c0: 0692 9bbd de5b 73bc 7b77 50bd 251f 15bd
000001d0: 32e6 093d 6197 d33a 57c7 b03d 1546 23bd
000001e0: e580 0d3d 6ee8 6ebd e923 f8bd 2395 be3c
000001f0: 0614 55bd bd47 1abd 01e5 a7bd 36c8 debc
0.037569165 0.052377053 -0.026181048 -0.028994355 0.00015122008 0.058026258 0.027578698 0.09031416
-0.08855193 0.08179089 0.058709837 -0.06738337 0.020614488 -0.046438713 -0.022840897 -0.058651537
-0.07012648 0.07026224 -0.043139864 -0.0026223536 -0.048627857 -0.06994494 -0.08051465 0.0066011483
-0.05043318 -0.10281125 -0.08532272 -0.026264217 -0.010505748 0.065971255 0.029143719 -0.0024326758
0.013191089 -0.0001634519 -0.03517304 0.0947036 0.06938948 0.12755397 -0.059546534 0.069011316
-0.09984792 -0.09243345 0.095460534 0.037950806 -0.12048682 -0.017168753 0.026952278 -0.042244103
0.09238892 -0.013337213 0.045175966 0.043329068 0.007266067 0.11560659 -0.07537245 0.10226066
-0.0074544116 -0.03314486 -0.026321378 -0.022010244 0.07866335 0.08304241 0.07561217 0.02411714
-0.09812691 -0.056960005 -0.029562104 -0.07963155 0.005516399 -0.08367326 0.10584965 -0.07781576
-0.07395209 0.077423096 -0.0556355 -0.06472476 0.030918552 0.04698149 0.009196001 -0.04474308
-0.013654782 -0.07602533 0.00092610734 0.013481031 0.022586681 -0.016539928 0.11595338 -0.08338059
-0.008774298 0.11738561 0.02645374 -0.024498977 0.07891316 0.06706181 0.0021579645 0.030363133
0.06766651 -0.047532167 0.005968648 -0.011079759 0.051974118 -0.003782701 0.05748136 0.097372934
-0.05053755 0.065237336 -0.053462192 0.0629115 0.09864913 0.011894204 0.045980208 -0.010316488
-0.07596211 -0.014853446 -0.050895195 -0.036406655 0.033666797 0.0016143137 0.08631771 -0.039861757
0.03454675 -0.05832713 -0.12116224 0.023264473 -0.05202105 -0.03766607 -0.08197976 -0.027195077

read_encoder.block3.1.weight f4 [128]
00000000: 1620 723f ac83 673f cbb1 6e3f 24b4 803f
00000010: 2fd9 773f 8a04 6c3f e3f8 1f3f 9b57 863f
00000020: ecd8 723f d02b 963f 2bbd 713f b20b 6b3f
00000030: a714 823f 7e8a 863f 44a1 803f d955 5b3f
00000040: 6cd9 893f 05c6 703f 6ed3 8a3f 8350 7c3f
00000050: a6b3 743f 501a 813f eba4 673f 95e7 823f
00000060: 352c 723f 2971 753f 1c5a 7c3f b3b6 763f
00000070: d727 7d3f 7d04 803f 0fc2 7a3f 4cc1 8f3f
00000080: 221c 7c3f 7fb7 8a3f 3493 7f3f dbf9 933f
00000090: 369d 6c3f b36e 7b3f e7d4 723f d9f6 863f
000000a0: 4c0a 583f f042 733f 33c0 753f f985 7e3f
000000b0: 30c0 823f eeed 6b3f 372c 833f 36c9 923f
000000c0: 088e 813f e542 7a3f f2e4 663f 431f 823f
000000d0: a9cd 833f 03e1 6c3f ceb1 733f 348f 803f
000000e0: ff43 803f 8aa1 603f a3ca 823f 9b04 7f3f
000000f0: 65bc 883f dac0 6f3f 9cf6 933f 81a6 6b3f
00000100: 2af3 893f 61ca 813f df0d 813f 9ff6 813f
00000110: 23fb 773f 1a93 843f ad16 713f 49dd 413f
00000120: 3d16 853f 091a 823f a930 823f 8e97 703f
00000130: d526 833f ddeb 893f 5925 5b3f c918 753f
00000140: 1b7b 803f 16bc 833f 116d 773f 8dcd 6e3f
00000150: 6712 7f3f 368b 813f ff7a 833f cefc 723f
00000160: b9ba 7a3f 64de 823f 62ac 6d3f fbd6 773f
00000170: fe4d 833f 600c 7e3f 1204 733f ed4b 0e3f
00000180: e1c7 7e3f db41 733f d324 723f 5fe3 7e3f
00000190: 4d01 893f 3352 733f 7bf0 833f 3379 883f
000001a0: aa86 823f 30cb 2b3f a19a 823f 2ae5 833f
000001b0: af5e 6a3f bf82 8b3f 17aa 713f 0f39 863f
000001c0: e54c 863f eb15 733f b6a6 743f ae82 843f
000001d0: 3bbc 893f 4974 813f b70e 7d3f e112 023f
000001e0: 99db 713f f484 803f d9e8 833f 0341 6f3f
000001f0: 86f1 6a3f 5552 803f 5c41 853f 3cf4 933f
0.9458021 0.9043529 0.9324004 1.0054975 0.9681577 0.92194426 0.62489146 1.0495485
0.94862247 1.173212 0.9442927 0.9181472 1.0162553 1.0511014 1.0049214 0.8567787
1.0769477 0.94052154 1.0845773 0.9856035 0.9558662 1.0086155 0.9048602 1.0226923
0.94598705 0.95875794 0.98574996 0.96372527 0.98888916 1.000137 0.9795236 1.1230865
0.9848043 1.0837249 0.9983399 1.1560625 0.92427385 0.9821579 0.94856113 1.0544082
0.8439071 0.95024014 0.959964 0.99423176 1.0214901 0.92159927 1.0247868 1.1467655
1.012147 0.9775832 0.9019309 1.016579 1.0297137 0.9253084 0.95193183 1.0043702
1.0020751 0.8774649 1.021809 0.996164 1.0682493 0.93653643 1.1559634 0.9205094
1.0777333 1.0139886 1.0082358 1.0153388 0.9686758 1.0357392 0.94175225 0.7572828
1.0397412 1.0164195 1.01711 0.93981254 1.0246226 1.0775105 0.85603863 0.95740944
1.0037569 1.0291774 0.966508 0.93282396 0.99637455 1.0120609 1.027191 0.94917
0.97941166 1.0224118 0.9284116 0.9681241 1.0258176 0.9923763 0.94928086 0.55584604
0.9952374 0.9502236 0.9458744 0.9956569 1.0703522 0.950473 1.0307764 1.0661987
1.0197346 0.67106915 1.0203439 1.030431 0.91550726 1.0899276 0.9440016 1.0486163
1.0492216 0.9495532 0.9556688 1.035238 1.0760568 1.0113612 0.9885058 0.50810057
0.94475704 1.0040574 1.0305434 0.93458575 0.91774786 1.0025126 1.0410571 1.155891

read_encoder.block3.1.bias f4 [128]
00000000: 543a 32bd 7f05 2abd ca22 5fbe 6401 ddbd
00000010: d9a9 5cbd 0094 91bd fafe aebe db8e 07bc
00000020: 2fa5 90bd 42cb 30bd 44d0 e5bc 9c1e adbd
00000030: 6ed5 47bd d4bf 74bc a3c0 85bc 74e9 84bd
00000040: 3219 34bd 826e cfbc c1d7 5fbd 2829 71bd
00000050: 5da7 a7bc 6be7 43bd 73a3 87bd 0c74 47bd
00000060: 5670 41bd b56c 0fbd 99fd d6bd c13a 87bc
00000070: b9fb 20bc ae4d 6cbc ac47 9fbc ffae 163a
00000080: e1b9 9ebd ed73 a6bd fe1b 34bd 337e 7ebd
00000090: 3425 83bd 300f cbbd 0e16 1abd 38ef 1a3b
000000a0: 7a78 97bd ddc2 6ebd 605a 9cbc f1e8 d3ba
000000b0: 72b4 2ebd 3dec 8cbd 335e 5cbd 50d8 e5bb
000000c0: a06c b3bb 450c 09bc 2a5d edbc e83c 8abb
000000d0: 837f 7abd 4ea0 f5bc 05bd a3bd 677b 16bc
000000e0: 0f0e 92bd bfbb edbd dbab c4bb ed35 4cbd
000000f0: 59ac 17bb f741 36bd 1496 a0bc efc1 80bd
00000100: e76e dfbd f091 0fbc 57f1 6bbd aeb9 cabd
00000110: 9fd2 8fbc 706c 77bd 5c9e b6bc aeb8 3cbe
00000120: 6667 2cbd fda9 90bc f586 6dbd 624e c8bc
00000130: 7c53 bdbd fe5c 94bd ebad 10be fdc4 23bd
00000140: 06c3 8fbc 36d9 fbbc 454b 18bd 4bbf e5bd
00000150: 1f23 ffbb 7618 c0bb 7487 feb9 0d0b bebd
00000160: 200b 47bc 9e9e fabb 1275 95bd c9b9 67bd
00000170: d1f0 2bbc b94a 5d3b 9908 64bd b6b1 b1be
00000180: 22dd 00bc d442 0bbd 398d cebc 048f 06bc
00000190: 632d 4abd 2b09 39bd 3d0a 1bbc d4d0 4a3c
000001a0: 6983 71bd 6d00 9abe 6463 8dbc 0c7a 91bc
000001b0: 5536 1fbd e468 fcbd cb64 4dbc 06d5 1e3c
000001c0: 6c2f 4cbd cdc8 2d3d 4f23 3abd a4c6 a8ba
000001d0: ad53 89bd cdeb adbb 71fb 5cbc a60e babe
000001e0: a1b3 cbbd 8f75 24bd 2634 9abd 58da 40bd
000001f0: e4ca c3bd 7b3e 8ebc 7324 78bd b7e9 87bd
-0.043512657 -0.041509148 -0.21790615 -0.10791281 -0.053872917 -0.07108307 -0.34178907 -0.0082738055
-0.07062756 -0.04316259 -0.02805341 -0.08453104 -0.048787527 -0.0149383135 -0.016327208 -0.0648984
-0.04396934 -0.025321249 -0.05464912 -0.05887714 -0.020465547 -0.04782812 -0.06622972 -0.048694655
-0.047226273 -0.03501578 -0.10497589 -0.016507508 -0.00982564 -0.014422817 -0.019443356 0.00057481223
-0.07750297 -0.0812758 -0.043972008 -0.06213207 -0.0640358 -0.09915006 -0.03761869 0.002364112
-0.07396026 -0.058291305 -0.019086063 -0.0016167444 -0.042652555 -0.068809964 -0.053800773 -0.007014312
-0.0054755956 -0.008364742 -0.028975088 -0.0042186864 -0.06115676 -0.029983666 -0.07995037 -0.009184695
-0.07131588 -0.11608075 -0.006001932 -0.049856115 -0.0023143499 -0.044496503 -0.019602813 -0.0628699
-0.10909825 -0.008762822 -0.057603206 -0.09898697 -0.017556487 -0.06040615 -0.022292309 -0.18429825
-0.042090796 -0.017659182 -0.057990033 -0.024451438 -0.09244439 -0.07244299 -0.14128844 -0.039982785
-0.01754905 -0.030743223 -0.037181158 -0.11218127 -0.007786169 -0.005862291 -0.00048547576 -0.092794515
-0.0121486485 -0.007648303 -0.0729772 -0.056573663 -0.010494427 0.0033766462 -0.055672262 -0.34705895
-0.007865222 -0.03399928 -0.025213825 -0.0082128085 -0.04935969 -0.04517476 -0.00946289 0.01237889
-0.058963213 -0.3007845 -0.017259307 -0.017758392 -0.038870174 -0.12324694 -0.012536238 0.009694343
-0.049849913 0.042427827 -0.04544383 -0.0012876582 -0.06705413 -0.0053076507 -0.013487683 -0.363393
-0.09946371 -0.040151175 -0.07529478 -0.04708323 -0.09560183 -0.017363777 -0.060581636 -0.066363744

bag_predictor.weight f4 [1, 128]
00000000: 686a acbc 82a9 7ebc 6c25 3e3b c63f db3c
00000010: 93f4 213e 2858 26bd d171 38bc 9de1 d9bd
00000020: c70a 2b3d 4d0d 12be dc27 dfbc df00 72bc
00000030: d22a 873d a68e 13be 8e6f fbbc 31db d33c
00000040: fa99 ab3d 3e21 f0bc 70d5 1a3d 3e8c 673d
00000050: 8418 b63c c72c 2d3d 109f babc c3e4 803d
00000060: 6aa2 ccbc 9e11 243d 61a0 803c 9516 06bd
00000070: 8458 2dbd e7b1 a2bd dc3e e5bc cf0a 94bd
00000080: 3d66 d13c 4af6 1e3d 6ad7 813d 8331 84bd
00000090: 3c03 843c 181f 22bd 5d64 c9bc 0f6f 99bd
000000a0: 329a 7d3c e3a6 b33d bb84 a5bc 3deb 99bd
000000b0: 5bc5 a43d 1961 96bc 5c47 a13c 49d7 bfbd
000000c0: 40a1 9dbd 24ae eabc bc4e 2f3d 2fbf a8bd
000000d0: 8348 c53c 239a efbd 0994 1ebc d0a8 79bd
000000e0: b0d2 6b3d ca65 fb3a 3be7 92bd ec4a 583d
000000f0: 0c79 49bd e9cd dbbc 1f3a d7bd 7ad6 613c
00000100: 3c67 993c 9a3e 8fbd 984a 823d 89ca d6bd
00000110: c5d4 24bd 35cb 463d 443e 14bd 6464 b8bb
00000120: 430e 1b3d 5d29 cfbd e205 1e3d 2177 cc3c
00000130: 4ae6 a33c 0d94 97bd 2fc8 1739 5333 6d3d
00000140: 5e36 03be ab15 ac3d cf02 c9bc d26a 95bc
00000150: 1b04 80bd 26d2 a4bd ca3c 96bd 1092 cb3c
00000160: 683d aabd b794 8fbd 7e23 01bd 70ff c63c
00000170: 32b7 b3bd a657 51bd 784b c9bc b738 cabb
00000180: af99 88bd 0dac fdbc fb09 4b3d 7be6 8cbd
00000190: c459 823d af36 0b3d f2ce e7bd 00fa debc
000001a0: e916 183d 218d 79bc acea 8ebd 26ee 85bd
000001b0: a50c 74bc 5205 96bd e1b5 26bd 4552 753d
000001c0: 0430 833d 6e4c 08bd 6572 78bb 776e 7abd
000001d0: d2ba c4bd fd88 89bd 43a7 67bd 40f8 7cbb
000001e0: 135f f53c c5bf 333d f3ca 183d fcc1 8b3c
000001f0: 67d4 9f3b 8c31 83bd e397 fd3c 0fe6 a4bd
-0.021046832 -0.0155433435 0.0029014004 0.026763808 0.15815954 -0.040611416 -0.011257605 -0.106387354
0.041758325 -0.14262886 -0.027240686 -0.0147707155 0.06599964 -0.14409885 -0.030692842 0.025861355
0.08378978 -0.029312726 0.037801206 0.05653023 0.022228487 0.04227903 -0.022780925 0.06293633
-0.024979789 0.040055864 0.015701475 -0.03273638 -0.042320743 -0.079440884 -0.027984075 -0.07228624
0.025561446 0.0388091 0.06339915 -0.06454756 0.016114824 -0.039580435 -0.02458399 -0.07491886
0.015478658 0.087720655 -0.020204892 -0.07515571 0.08045455 -0.018356847 0.019687347 -0.09367234
-0.076967716 -0.02864749 0.042799696 -0.082395904 0.024082428 -0.11699321 -0.009678849 -0.060952008
0.057573974 0.0019180116 -0.0717301 0.052805826 -0.049187705 -0.026831584 -0.105091326 0.013784045
0.018725984 -0.06994362 0.06361884 -0.10487849 -0.040241975 0.048533637 -0.036192194 -0.005627202
0.037855398 -0.10115311 0.03857983 0.024959149 0.020007271 -0.07401285 0.00014475056 0.057910275
-0.12813708 0.0840257 -0.024537472 -0.018239412 -0.06250783 -0.08047895 -0.07335813 0.024849921
-0.083124936 -0.07010787 -0.03152799 0.024291724 -0.08775176 -0.05110898 -0.02457212 -0.0061713117
-0.06669938 -0.03096583 0.049570065 -0.06879898 0.06364778 0.033987697 -0.113187686 -0.027218819
0.037131224 -0.015231402 -0.06978354 -0.06539564 -0.014895593 -0.073252335 -0.040700797 0.05989291
0.06405643 -0.033276014 -0.0037909981 -0.061140504 -0.09605946 -0.067155816 -0.056555998 -0.0038600117
0.029952561 0.043884058 0.037302922 0.017060272 0.0048776153 -0.06405935 0.030956214 -0.08051693
