Vodka Environment/Models/epoch5_valpr0.37.pth (torch, 45077 bytes, 8 tensors)

instance_encoder.0.weight f4 [64, 25]
0	0xbe554014	-0.20825225
1	0xbe13b836	-0.1442574
2	0xbe5f93ef	-0.21833776
3	0xbe1a10be	-0.15045449
4	0x3e2229da	0.15836278
5	0xbda3c11a	-0.079958156
6	0xbedef6ab	-0.43547568
7	0x3eacb732	0.33733517
8	0x3da274fd	0.0793247
9	0x3f2327c8	0.63732576
10	0x3f7272da	0.947065
11	0xbea22a4e	-0.316729
12	0x3e89be3d	0.26902953
13	0x3f40a9e1	0.75259215
14	0xbf82bd7d	-1.0214077
15	0x3fb47ae9	1.4100009
16	0x3f4c28d2	0.79749787
17	0xbe9f6857	-0.31134292
18	0x3fc32e8c	1.524858
19	0x3fbdcf64	1.4828916
20	0xbfd35933	-1.6511596
21	0x3fab6669	1.3390628
22	0x3d68c87c	0.05683182
23	0x3e183cf0	0.14866996
24	0xbe023096	-0.12713847
25	0xbebc81c5	-0.36817756
26	0xbd9cff9d	-0.07665942
27	0xbe8a538c	-0.27016866
28	0xbe6860e6	-0.22693214
29	0x3e2eb586	0.17061433
30	0x3dc83bea	0.09777053
31	0xbf2812bc	-0.65653586
32	0x3e8d469c	0.27592933
33	0xbddaac39	-0.1067738
34	0xbe5d69c4	-0.21622378
35	0x3f4342b5	0.7627366
36	0xbf033bd8	-0.5126319
37	0x3efe41cb	0.4965957
38	0x3f97cddd	1.18597
39	0xbfde5078	-1.7368307
40	0x3eb7c224	0.35890305
41	0x3f7c67a7	0.9859566
42	0xbf2f764a	-0.6853987
43	0x3f501c4a	0.81293166
44	0x3f94c83c	1.1623607
45	0xbfc3d384	-1.5298924
46	0x3f63846e	0.88873947
47	0xbe7a4c5b	-0.2444319
48	0xbea676c4	-0.32512486
49	0xbe13aa14	-0.14420348
50	0x3fce267d	1.6105496
51	0xbf707ca9	-0.93940216
52	0xbef67ecc	-0.48143613
53	0x40095724	2.1459436
54	0xbe9a15bb	-0.30094704
55	0xbe5dfe01	-0.21678926
56	0x3fc260fe	1.518585
57	0x3ea3168d	0.31853142
58	0x3e9245b1	0.28568795
59	0x4100742c	8.028362
60	0x411084f3	9.032458
61	0x40fe3f30	7.9452133
62	0x413bf676	11.747671
63	0x40c9eeec	6.3104153
64	0xc01600fb	-2.3438098
65	0x40f5d953	7.682779
66	0x409e01f4	4.9377384
67	0x3e96cf08	0.29454827
68	0x4138f474	11.559681
69	0x4143e976	12.244497
70	0xbda325e3	-0.07966211
71	0x414725f2	12.446764
72	0x40c1636e	6.0433874
73	0x40ca081c	6.31349
74	0x411abced	9.671124
75	0xbe3ad3d6	-0.18244871
76	0xbe344ecb	-0.17608182
77	0x3d0a7bf4	0.033809617
78	0x3d06f182	0.032945164
79	0x3ded92c2	0.116002575
80	0xbe1ac3a3	-0.15113692
81	0xbe2e30a9	-0.1701075
82	0x3dadb7f1	0.0848235
83	0xbe0254e3	-0.12727694
84	0x3df89892	0.121384755
85	0xbd42658c	-0.047460124
86	0x3d8a782a	0.06761201
87	0xbe1f1f80	-0.1553936
88	0xbe079f3b	-0.13244335
89	0x3d2e2be7	0.042522337
90	0x3d2d2f60	0.04228151
91	0xbd8e3904	-0.069444686
92	0x3db39c58	0.087700546
93	0x3dd5e91a	0.10444851
94	0xbe1483f8	-0.14503467
95	0xbe003b68	-0.12522662
96	0x3e1b4204	0.15161902
97	0xbd8a365c	-0.067486495
98	0xbd9135bc	-0.07090327
99	0xbe590f2a	-0.21197191
100	0xbdea90d3	-0.11453404
101	0x3d4ca3a0	0.049960732
102	0xbcd841f0	-0.026398629
103	0xbe14a955	-0.1451772
104	0x3b99b9c0	0.0046913326
105	0xbe0be525	-0.1366163
106	0xbe2dc06b	-0.16967933
107	0xbde18d2a	-0.11013253
108	0xbe333e52	-0.17504242
109	0xbe02676a	-0.12734762
110	0x3e4cb84b	0.19992177
111	0x3d1ab9f4	0.037774995
112	0x3d7c71c4	0.061631933
113	0xbe3f0385	-0.18653686
114	0xbe0681dd	-0.13135476
115	0xbd885676	-0.06657116
116	0x3d001968	0.03127423
117	0xbe343538	-0.17598426
118	0xbdb07c50	-0.08617461
119	0xbdf536f3	-0.11973371
120	0x3a114b00	0.0005542487
121	0xbd9869da	-0.074420646
122	0xbc631180	-0.013859153
123	0xbe0ac750	-0.13552594
124	0xbe0c92e0	-0.13727903
125	0xbe6fa08a	-0.23401085
126	0xbe844755	-0.25835672
127	0xbec2f7b6	-0.38079613
128	0x3dcaa37c	0.098944634
129	0x3e288793	0.16457967
130	0x3c4ad78e	0.012380494
131	0xbe100d47	-0.14067565
132	0xbdcd2481	-0.10016728
133	0xbd5a47f7	-0.053291287
134	0xbd427434	-0.0474741
135	0x3ed862e5	0.4226295
136	0xbf12ece9	-0.57392746
137	0x3dff50f9	0.12466616
138	0x3f746954	0.9547322
139	0xbfc24551	-1.5177404
140	0x3f2c3f61	0.6728421
141	0x3f226ad1	0.6344424
142	0xbedc5817	-0.43035957
143	0x3f327ffb	0.6972653
144	0x3f8bd81d	1.0925328
145	0xbfaab9e7	-1.3337983
146	0x3f693601	0.9109803
147	0xbcb4a2aa	-0.02205022
148	0xbed956e7	-0.42449114
149	0x3e0e00be	0.1386747
150	0x3ccd25bc	0.025042407
151	0xbe062d74	-0.13103276
152	0xbd97fc43	-0.07421162
153	0xbe50452d	-0.20338888
154	0x3e0a94e5	0.13533361
155	0xbe4dc217	-0.2009357
156	0x3d8888b7	0.06666701
157	0x3bfd12fd	0.007723211
158	0x3c4b9ef9	0.012428039
159	0xbddd1062	-0.107941404
160	0x3e3a273d	0.1817903
161	0xbc9e6e27	-0.019339634
162	0x3ceeaea5	0.029136011
163	0xbe549cb8	-0.20762908
164	0x3dabdcd6	0.083917305
165	0xbd7c4cf3	-0.061596822
166	0xbdbb5883	-0.09147742
167	0x3dde79b6	0.10863058
168	0xbc958d23	-0.018255776
169	0xbe11eca3	-0.14250426
170	0xbd8e6d5a	-0.06954451
171	0xbd27a58c	-0.040929362
172	0x3daab6cc	0.08335647
173	0xbd515554	-0.051106766
174	0xbde9b51d	-0.11411498
175	0xbdb0561e	-0.086101755
176	0xbe23f6be	-0.16012093
177	0x3d2385cb	0.039922517
178	0x3e0213ee	0.12702915
179	0xbe5f8529	-0.2182814
180	0x3c89fe6f	0.016844956
181	0x3da78332	0.081793204
182	0x3b83ebd1	0.0040259142
183	0xbdd1f6d4	-0.10252157
184	0x3dcac05d	0.09899972
185	0x3dc0e35f	0.094183676
186	0x3d86db5e	0.0658481
187	0xbd985f03	-0.07439997
188	0xbda314b1	-0.07962931
189	0x3cb99b1b	0.022656968
190	0xbdab3080	-0.0835886
191	0xbdbf203a	-0.093323186
192	0x3de4d362	0.111731306
193	0x3e0a1682	0.13485149
194	0xbd3a3089	-0.045456443
195	0xbd382785	-0.044959564
196	0xbd1a7b00	-0.03771496
197	0x3ba62434	0.0050702337
198	0x3d5b24a4	0.05350174
199	0x3cb3c43d	0.02194416
200	0xbe73a082	-0.23791698
201	0xbde74e8b	-0.11294278
202	0x3e0d485c	0.13797134
203	0x3d9a78a5	0.07542542
204	0xbd44d253	-0.048052143
205	0xbe337db1	-0.17528416
206	0xbe2bda86	-0.16782579
207	0xbe642be0	-0.22282362
208	0xbddf7da4	-0.10912636
209	0x3e25c1db	0.16187231
210	0x3d4619d4	0.048364475
211	0x3cd6e923	0.026234215
212	0xbe8c190d	-0.27362862
213	0xbb13f78a	-0.0022577965
214	0xbde8419a	-0.113406375
215	0x3e51dfbf	0.20495509
216	0x3da4ca2f	0.08046376
217	0xbe58353b	-0.21114056
218	0x3e482f68	0.19549334
219	0xbb9ac964	-0.0047237147
220	0xbeb116c8	-0.34587693
221	0x3e896d56	0.2684123
222	0xbe299e41	-0.16564275
223	0xbe32ed2a	-0.17473283
224	0xbe2cf54f	-0.16890453
225	0x3d349fb8	0.044097632
226	0x3d8042d9	0.0626275
227	0x3c890b35	0.016728977
228	0xbe6c5163	-0.23077922
229	0xbe8c0172	-0.27344853
230	0xbe57d53a	-0.21077433
231	0x3db77266	0.08957367
232	0xba044fdf	-0.0005047302
233	0x3dd4f010	0.10397351
234	0x3c2af277	0.010433785
235	0xbd6162d9	-0.05502591
236	0x3b2248cc	0.0024762629
237	0xbd9e5244	-0.07730535
238	0xbedd63c1	-0.4324017
239	0x3c6e354c	0.014539074
240	0xbd965277	-0.07339948
241	0xbec86cf8	-0.39145637
242	0x3dee4928	0.11635047
243	0xbed7ba89	-0.42134503
244	0xbea4be57	-0.32176468
245	0x3e4129cb	0.18863599
246	0xbeb611c3	-0.35560426
247	0x3cd1d464	0.025613971
248	0x3e1e471c	0.15456814
249	0x3c91c6cc	0.017794989
250	0xbd83673c	-0.06416175
251	0xbe163c0d	-0.14671345
252	0xbd1089ec	-0.035287783
253	0xbdc68d73	-0.09694948
254	0xbd7aa098	-0.06118831
255	0xbe42f7fd	-0.19039913

instance_encoder.0.bias f4 [64]
0	0xbe94255f	-0.28934762
1	0xbdd7d35b	-0.1053836
2	0xbe0c3c0a	-0.13694778
3	0xbd91b105	-0.07113842
4	0x3c436f80	0.011928439
5	0xbd0556bc	-0.03255342
6	0xbe073e06	-0.13207254
7	0x3cd82fd0	0.026389986
8	0xbc60c4ad	-0.013718766
9	0x3d417b0a	0.04723648
10	0x3c42cfa0	0.011890322
11	0x3d995f5e	0.07488893
12	0xbe35533f	-0.17707537
13	0xbe0e515a	-0.1389822
14	0x40432485	3.049104
15	0xbe8e0c12	-0.27743584
16	0xbd0b75d8	-0.03404793
17	0xbd83431c	-0.064092845
18	0x3d3e6b07	0.046488788
19	0xbd883ae6	-0.06651859
20	0xbe682748	-0.22671235
21	0xbe1e9661	-0.15487053
22	0x3d65bf73	0.056090783
23	0xbd148797	-0.03626212
24	0x3e296def	0.16545843
25	0xbe0c7828	-0.13717711
26	0xbd1794c3	-0.037007105
27	0xbe9e937c	-0.30971897
28	0x3d9e7d92	0.077387944
29	0x3d33ba43	0.043878805
30	0x3e041d23	0.1290174
31	0xbe10765a	-0.14107648
32	0xbd5ab56c	-0.053395674
33	0xbc0bfcc0	-0.008544147
34	0xbf864617	-1.049014
35	0xbe6f59fd	-0.23374172
36	0xbe8b1ebb	-0.27171883
37	0xbdaf0a23	-0.08546855
38	0x3d33142e	0.043720417
39	0xbe859c86	-0.2609598
40	0x3c47c520	0.012192994
41	0x3d38a281	0.04507685
42	0xbe1d1a07	-0.1534196
43	0x3cacbad8	0.021085188
44	0xbda6d539	-0.08146138
45	0xbdd820f7	-0.105531625
46	0x3de1738c	0.11008367
47	0xbe438253	-0.19092683
48	0x3cf01ad0	0.02930966
49	0xbeacbf33	-0.33739623
50	0x3d826c87	0.06368356
51	0xbe087ad8	-0.13328111
52	0x3c699e35	0.014258911
53	0xbfedd675	-1.8581072
54	0x3c8a3745	0.016872058
55	0xc0ac9c48	-5.3940773
56	0x3df60536	0.12012713
57	0xbe96a0af	-0.29419467
58	0x3d154d22	0.036450513
59	0xbded5aac	-0.1158956
60	0xbd08000b	-0.033203166
61	0xbe167fe0	-0.14697218
62	0x3e196425	0.14979608
63	0x3d29340f	0.041309413

instance_encoder.2.weight f4 [64, 64]
0	0xbe418f08	-0.18902218
1	0xbe2c04df	-0.16798733
2	0xbe840610	-0.25785875
3	0x3dbf6030	0.09344518
4	0x3ca83e30	0.020537466
5	0xbda073b2	-0.07834567
6	0xbd829a76	-0.06377117
7	0x3d0f75d3	0.035024475
8	0xbdf59f79	-0.119933076
9	0x3d5347c8	0.051582128
10	0x3d8bb160	0.06820941
11	0x3d9d2238	0.07672542
12	0x3cc95fe4	0.024581857
13	0xbde0182c	-0.109421104
14	0xbdbe0cb0	-0.09279764
15	0xbd3ff817	-0.046867456
16	0xbd175d94	-0.036954477
17	0xbc97e743	-0.018542891
18	0x3e152b9b	0.14567415
19	0x3dbf4af8	0.09340471
20	0xbb5af000	-0.0033407211
21	0x3d534ee1	0.051588897
22	0xbd6ca58d	-0.05777507
23	0xbc812fd2	-0.015769873
24	0xbde27aa0	-0.11058545
25	0x3dde0deb	0.108424984
26	0xbdc9c561	-0.098521
27	0xbd673cf8	-0.05645463
28	0x3db2f3b6	0.087378904
29	0x3de401e7	0.11133175
30	0xbd99b288	-0.07504755
31	0xbe26f8e8	-0.16305888
32	0x3c7da300	0.015480757
33	0x3d494518	0.04913816
34	0xbe31639e	-0.17323157
35	0xbd40efb4	-0.0471036
36	0xbe135d8f	-0.14391159
37	0x3d02d1f3	0.031938504
38	0x3e00074a	0.1250278
39	0xbe33eb68	-0.17570269
40	0x3d717de8	0.058957964
41	0x3d7a0edc	0.061049327
42	0x3e8ed46d	0.27896443
43	0xbc692c30	-0.0142317265
44	0x3b8103e0	0.0039372295
45	0x3d8bbb36	0.06822817
46	0x3d905cfb	0.070489846
47	0x3df258af	0.11833321
48	0xbd12b950	-0.03582126
49	0x3d29624c	0.04135351
50	0xb9b8d899	-0.00035256593
51	0xbdee5eda	-0.11639185
52	0x3c894021	0.016754212
53	0xbe45797a	-0.19284621
54	0x3e028dbb	0.12749378
55	0xbdc21e7e	-0.09478472
56	0x3c0fa4d0	0.008767322
57	0x3da0c61b	0.078502856
58	0xbdfaed41	-0.12252284
59	0xbdd8281e	-0.10554527
60	0xbd04268f	-0.032263335
61	0x3e49bb26	0.19700298
62	0xbd76070f	-0.060065325
63	0xbdf2319a	-0.11825867
64	0xbcf38d90	-0.029730588
65	0xbd9bf2a3	-0.07614639
66	0xbd9ea1b6	-0.07745688
67	0x3ddcc764	0.10780218
68	0x3d774cf8	0.060376137
69	0x3d37ee3f	0.044904944
70	0x3c96bc00	0.018400192
71	0x3c8b19a1	0.016979994
72	0x3bcee4ed	0.006313911
73	0xbd86d8ea	-0.06584342
74	0xbd96c134	-0.07361069
75	0x3da97d04	0.08275798
76	0x3c211342	0.009831252
77	0x3d564c24	0.052318707
78	0xbe2122cf	-0.15735935
79	0x3d536d36	0.051617824
80	0x3dba4eda	0.09097071
81	0x3d9eb04c	0.0774847
82	0x3d0b35ec	0.03398697
83	0x3e0529f3	0.13004284
84	0x3c2eecd5	0.010676582
85	0x3c9094b6	0.017649036
86	0x3d0a2711	0.033728663
87	0x3dd62e68	0.1045807
88	0xbd582d3c	-0.052777514
89	0x3d34db59	0.0441545
90	0x3d0d121d	0.034441102
91	0xbcde8425	-0.02716262
92	0x3ddf8680	0.10914326
93	0xbd924147	-0.07141357
94	0x3da655ec	0.08121857
95	0x3db51835	0.08842508
96	0xbdb09052	-0.08621277
97	0xbd971054	-0.07376161
98	0xbdd41e69	-0.10357363
99	0xbcf3d986	-0.02976681
100	0xbe6c97be	-0.2310476
101	0xbd91d9a4	-0.0712159
102	0x3cf4d5fb	0.02988719
103	0xbd5f0672	-0.054449506
104	0x3d8e99dc	0.0696294
105	0x3d8e19c8	0.06938511
106	0xbd84c09f	-0.06482052
107	0xbd9ec79c	-0.07752916
108	0xbe061e89	-0.13097586
109	0x3ba9cb60	0.005181715
110	0x3da19d6c	0.07891354
111	0x3af9fbc5	0.0019072226
112	0xbc3025f0	-0.0107512325
113	0xbdc08f57	-0.0940234
114	0xbdf37e2f	-0.11889302
115	0xbe06cf70	-0.13165069
116	0x3dbe770d	0.09300051
117	0xbe3e6251	-0.18592192
118	0xbe0525ff	-0.13002776
119	0xbd14d976	-0.0363402
120	0x3c149ea0	0.009071022
121	0xbcf04821	-0.029331269
122	0x3d19e467	0.037571337
123	0x3d89abe6	0.0672224
124	0xbdf0beb8	-0.11755127
125	0xbdd7da83	-0.10539725
126	0xbd5e0d1f	-0.054211732
127	0xbdfebd14	-0.124384075
128	0xbe26975e	-0.1626868
129	0x3de4d2cb	0.11173018
130	0xbe476e02	-0.19475558
131	0xbd319ac8	-0.0433605
132	0xbd2f9fe8	-0.042877108
133	0xbcc822e8	-0.024430707
134	0x3dc7c60c	0.09754571
135	0xbcdc5a45	-0.026898513
136	0xbd2ad1b4	-0.041703895
137	0xbe1e0c17	-0.154343
138	0x3d95a124	0.07306126
139	0xbc8d8c88	-0.017278925
140	0xbc0b0b43	-0.008486572
141	0xbd0571b8	-0.032579154
142	0xbe1f69b7	-0.15567671
143	0x3cc3a46c	0.023882113
144	0x3dc4f576	0.096171305
145	0xbda3d03f	-0.07998704
146	0x3cc843b3	0.024446344
147	0xbddb4f8b	-0.10708531
148	0xbd9002f1	-0.07031811
149	0x3dde4feb	0.10855087
150	0x3e0f3467	0.13984834
151	0x3dd8991b	0.105760776
152	0xbcb368b8	-0.02190052
153	0x3e1e514c	0.154607
154	0xbd9e8f45	-0.0774217
155	0x3e4b2ef3	0.19842128
156	0xbdc4dc54	-0.09612337
157	0x3d01257e	0.031529896
158	0x3cfe8c58	0.03107278
159	0xbc934f70	-0.017982215
160	0x3d907208	0.07053
161	0xbd05f370	-0.032702863
162	0xbe12d7b6	-0.143401
163	0xbdbf3884	-0.093369514
164	0xbd88290e	-0.066484556
165	0x3dcaff2d	0.09911952
166	0xbd7204d8	-0.05908665
167	0xbe058787	-0.13039981
168	0xbcef22a8	-0.02919133
169	0xbddd5b7b	-0.10808464
170	0xbd8dc3c1	-0.06922103
171	0xbb8240e0	-0.003975019
172	0xbd187565	-0.03722133
173	0xbcb1c6bb	-0.021701207
174	0x3dc68851	0.09693969
175	0xbd70329e	-0.058642022
176	0xbd3054dc	-0.04304968
177	0x3dc0d11a	0.09414883
178	0xbd6380f0	-0.055542886
179	0xbdbc8c8d	-0.092064954
180	0xbdeaf42b	-0.114723526
181	0xbe86129f	-0.26186082
182	0x3e189de4	0.1490398
183	0xbf8eb426	-1.1148727
184	0x3db595a0	0.08866429
185	0xbdd1eb45	-0.10249952
186	0x3d586c7b	0.05283783
187	0xbde014d0	-0.1094147
188	0x3dd11fab	0.10211118
189	0x3d78ca18	0.060739607
190	0x3b3cb8fb	0.002879678
191	0x3dc3da19	0.09563083
192	0xbde9b4d9	-0.11411447
193	0xbce76d20	-0.028250277
194	0xbd61dab8	-0.055140227
195	0x3da0b990	0.07847893
196	0x3d335bd4	0.043788746
197	0xbddf631a	-0.10907574
198	0x3d77f3a8	0.060535103
199	0x3de993da	0.114051536
200	0xbdfc6ffa	-0.12326045
201	0x3db9b532	0.090677634
202	0x3c9d0dc8	0.01917161
203	0x3c3e81c0	0.0116276145
204	0x3de658d8	0.11247414
205	0x3de7d4c2	0.11319877
206	0xbe23c8cd	-0.15994568
207	0x3dca4648	0.09876686
208	0x3d550128	0.052003056
209	0x3ca6da28	0.020367697
210	0xbde106de	-0.10987638
211	0x3cbf43f8	0.02334784
212	0xbdf5fffc	-0.12011716
213	0x3d1da0a4	0.038483277
214	0xbc12eaaa	-0.008967081
215	0x3b380a00	0.0028082132
216	0xbdaf08b6	-0.08546583
217	0xbddc2ea6	-0.10751085
218	0x3dbd3820	0.092392206
219	0x3d795a90	0.060877383
220	0x3d86f930	0.065904975
221	0xbd18906c	-0.037247106
222	0xbcb05438	-0.021524534
223	0xbd7d03dc	-0.06177126
224	0x3db00cac	0.08596167
225	0xbd5d0630	-0.05396098
226	0xbd4c0894	-0.04981287
227	0x3db082aa	0.08618672
228	0xbe64df51	-0.22350813
229	0x3cd597c3	0.026073342
230	0xbcc30640	-0.023806691
231	0xbe2fbcfd	-0.17161937
232	0x3d5d0a14	0.05396469
233	0xbc78d260	-0.015186876
234	0x3d006839	0.031349394
235	0xbda03b3e	-0.078237996
236	0x3d6de42c	0.05807893
237	0xbdda9228	-0.10672408
238	0xbd805010	-0.06265271
239	0x3c0bb340	0.008526623
240	0x3dca438c	0.09876165
241	0x3dc2a9a5	0.095050134
242	0xbe2bef13	-0.16790418
243	0x3c62d900	0.013845682
244	0xbd96e8ce	-0.07368623
245	0xbe325a9d	-0.17417379
246	0xbdd5444a	-0.10413416
247	0xbdf2428d	-0.118291
248	0x3daf94f2	0.08573331
249	0xbdeae3a6	-0.11469202
250	0xbdf41382	-0.11917783
251	0x3cba8408	0.022768036
252	0x3c8c5fd8	0.017135546
253	0xbd5ef863	-0.0544361
254	0x3cae7404	0.021295555
255	0xbd9a2280	-0.075261116

instance_encoder.2.bias f4 [64]
0	0xbb92b40a	-0.0044770287
1	0xbe81e9ad	-0.25373593
2	0xbdd93720	-0.106062174
3	0xbe9db915	-0.3080527
4	0xbe9fc4c8	-0.3120482
5	0xbd9cb8db	-0.07652446
6	0xbe4ff3a8	-0.20307791
7	0x40720e91	3.782139
8	0xbe23304a	-0.1593639
9	0xbee9ff34	-0.45702517
10	0xbe007cdb	-0.12547629
11	0xbebca6aa	-0.36845905
12	0xbe4541f7	-0.19263445
13	0xbd907495	-0.07053486
14	0x3e7f0374	0.24903661
15	0xbe3bf855	-0.1835645
16	0xbe3350ec	-0.17511338
17	0xbe0b701c	-0.13616985
18	0xbdc04035	-0.093872465
19	0xbe882cf6	-0.26596802
20	0xbed0ed9a	-0.40806276
21	0xbeb6eb11	-0.35726216
22	0xbe1b10b8	-0.15143096
23	0xbe91c2a2	-0.28468806
24	0xbe633443	-0.22187905
25	0xbe8dafcb	-0.27673182
26	0xbf78e0f7	-0.9721827
27	0xbfd0d3cf	-1.6314639
28	0xbe0b6bf7	-0.13615404
29	0xbf140f5a	-0.57835925
30	0xbf93d062	-1.1547968
31	0xbecfcf0e	-0.40587658
32	0xbe771cef	-0.24132131
33	0xbeea5578	-0.45768332
34	0xbe246634	-0.16054612
35	0xc092b5e8	-4.5847054
36	0xbf0d9911	-0.55311686
37	0x3e7ac891	0.24490573
38	0xbdc3cd37	-0.09560626
39	0xbe9e6d02	-0.3094254
40	0xbdda4cb3	-0.106591605
41	0xbf0040bc	-0.50098777
42	0xbe77fdd0	-0.24217916
43	0xbe85700a	-0.26062042
44	0xbeb98c1f	-0.36239716
45	0xbf1501d5	-0.5820592
46	0xbec41ff4	-0.38305628
47	0xbee710d5	-0.4513003
48	0xbda4710b	-0.08029374
49	0xbe4be717	-0.19912373
50	0xbf48c885	-0.7843097
51	0xbf1c1fed	-0.60986215
52	0xbf4776d9	-0.7791572
53	0xbeed1902	-0.46308142
54	0x40342ea9	2.815348
55	0xbe8f32ca	-0.27968436
56	0xbf3b3b36	-0.73137224
57	0xbee6f3f9	-0.4510801
58	0xbe2fcb1c	-0.17167324
59	0xb842611b	-4.634364e-05
60	0xbf73bc8f	-0.9520959
61	0x3fbd0eea	1.4770176
62	0xbef3f76c	-0.47649705
63	0xc027ce6f	-2.6219747

attention.0.weight f4 [64, 64]
0	0x3d25098f	0.04029232
1	0x3e89d0ef	0.26917216
2	0x3ed3c6cd	0.4136261
3	0xbd71a5af	-0.0589959
4	0x3d885a4e	0.06657849
5	0x3e25c2fe	0.16187665
6	0xbdf2bda6	-0.11852579
7	0x3fe17919	1.7615081
8	0x3e29dab8	0.16587341
9	0x3d6eeea9	0.058333073
10	0xbd10eaf6	-0.035380326
11	0xbda74433	-0.08167305
12	0x3e2c5754	0.16830188
13	0xbd91afb6	-0.07113592
14	0xbf573d01	-0.8407746
15	0x3d861ed3	0.06548848
16	0x3e009621	0.1255727
17	0x3de7fb74	0.11327258
18	0x3f441ad6	0.7660345
19	0xbce1350e	-0.027491119
20	0xbca0a134	-0.019608118
21	0x3e0d3def	0.13793157
22	0x3d8cc4a9	0.068734474
23	0xbe482514	-0.19545394
24	0x3e99c9b8	0.30036712
25	0x3e7c9b79	0.24668683
26	0x3e959d5d	0.2922162
27	0xbe12379e	-0.14279029
28	0x3d4cc680	0.04999399
29	0x3dad20d7	0.08453529
30	0x3f21e0b2	0.6323348
31	0x3ecadffe	0.39624017
32	0xbdc16c13	-0.09444442
33	0xbdeb400f	-0.114868276
34	0xbb0ea3d9	-0.0021765141
35	0x3f2a99fc	0.6664121
36	0x3dd734a0	0.10508084
37	0x3fbdf966	1.4841735
38	0x3db02ab5	0.08601896
39	0xbd391ddc	-0.04519449
40	0xbc872e2b	-0.016501507
41	0x3e0f4a0d	0.13993092
42	0x3d1dbc32	0.038509555
43	0xbca5d014	-0.020240821
44	0x3eac3456	0.3363368
45	0x3e7a3b85	0.24436767
46	0x3e484803	0.1955872
47	0x3e065f31	0.1312225
48	0x3e8874b9	0.26651552
49	0x3f0b9d50	0.54536915
50	0xbe5b487c	-0.2141437
51	0xbe3c6e01	-0.18401338
52	0xbc53094f	-0.012880637
53	0x3d606424	0.054783
54	0x404d4646	3.2074142
55	0x3df54be4	0.119773656
56	0x3eb585d1	0.35453656
57	0xbd94df5d	-0.07269166
58	0xbdedd1e1	-0.11612297
59	0x3d28318a	0.04106287
60	0xbe096ca5	-0.13420351
61	0x3ef5563b	0.4791735
62	0x3e838601	0.25688174
63	0x3de112f7	0.109899454
64	0x3c8c3863	0.017116731
65	0xbe1dc479	-0.1540698
66	0xbd3cd728	-0.046103626
67	0x3e1ab7a6	0.15109119
68	0xbd241887	-0.040062454
69	0x3d991b28	0.07475883
70	0x3d8e7d7b	0.06957527
71	0xbff21ca3	-1.8914989
72	0x3e2b4739	0.16726388
73	0xbeb789a9	-0.35847214
74	0x3da9c289	0.08289058
75	0x3e12abfe	0.14323422
76	0xbdd098d0	-0.10185397
77	0x3df27c73	0.11840143
78	0x3f4a51d2	0.790311
79	0xbe2420a2	-0.16028073
80	0x3e3a447e	0.1819019
81	0xbe0c241b	-0.13685648
82	0x3e872a4e	0.26399463
83	0x3caa37dc	0.020778589
84	0x3db188aa	0.08668645
85	0x3da3d0b7	0.079987936
86	0x3e0d7853	0.13815431
87	0xbdc5d281	-0.09659291
88	0x3d7f8af8	0.06238839
89	0xbdb0909a	-0.086213306
90	0xbda8bba1	-0.082389124
91	0xbe83f917	-0.25775978
92	0xbe3248db	-0.17410605
93	0xbe83cc68	-0.25741887
94	0xbcd14736	-0.025546651
95	0xbee8affc	-0.45446765
96	0x3d72db92	0.05929143
97	0xbddaeb70	-0.106894374
98	0x3d6a17d5	0.057151634
99	0xbf213d44	-0.6298411
100	0xbdbe8f44	-0.093046695
101	0xbfa9ebad	-1.3275048
102	0xbe35022b	-0.17676608
103	0xbdcdf4a9	-0.10056431
104	0x3c5110fe	0.012760399
105	0xbdf432f7	-0.11923783
106	0xbe3f4e0a	-0.18682113
107	0x3dabd8ef	0.08390986
108	0xbe7cc31d	-0.24683805
109	0x3dccd1d9	0.10000963
110	0x3e0eaf88	0.13934147
111	0xbf117f3e	-0.5683478
112	0xbde79b93	-0.1130897
113	0xbeea80e8	-0.45801473
114	0x3ecbfa2f	0.39839312
115	0xbe6f2043	-0.2335215
116	0xbe9dd56a	-0.30826885
117	0xbdb72b85	-0.089438476
118	0xc04fbbfd	-3.245849
119	0x3d6018e2	0.05471123
120	0x3f23c465	0.6397155
121	0x3b9add7f	0.0047261114
122	0xbd45332e	-0.048144512
123	0xbd3ff722	-0.046866544
124	0xbef41237	-0.47670147
125	0x3e08fd70	0.13377929
126	0xbd16ea7a	-0.036844708
127	0xbdbad354	-0.09122339
128	0xbd9fe0d3	-0.07806554
129	0x3e79b3bc	0.2438497
130	0xbde3838a	-0.111090735
131	0xbdb6b22e	-0.08920704
132	0xbccd86d3	-0.025088703
133	0xbe055b20	-0.13023043
134	0xbd91f56e	-0.0712689
135	0xbf820e96	-1.0160701
136	0xbe43910e	-0.19098303
137	0x3de60008	0.11230475
138	0xbd6a846c	-0.057255194
139	0x3c3d39ff	0.011549472
140	0x3d03692a	0.032082714
141	0xbe6f00e3	-0.23340182
142	0xbf9ee9e2	-1.2415125
143	0x3dfe299a	0.124102786
144	0x3e5430f3	0.20721798
145	0x3df37749	0.11887986
146	0xbee4cd50	-0.4468789
147	0x3d59044c	0.052982613
148	0xbe83f52b	-0.25772986
149	0x3daaabf5	0.083335795
150	0xbf25a44c	-0.6470382
151	0xbe357741	-0.17721273
152	0x3e1955a7	0.1497408
153	0x3d0d123b	0.034441214
154	0x3e59cebd	0.2127027
155	0xbe9ea5d2	-0.30985886
156	0x3dfb088f	0.12257492
157	0xbd42f6f2	-0.047598787
158	0x3f6bf41f	0.92169374
159	0xbf243bbe	-0.6415366
160	0xbc61ebf3	-0.013789165
161	0x3e7663ce	0.2406151
162	0xbcd478a7	-0.025936438
163	0x3efd5994	0.49482405
164	0xbe52b097	-0.20575176
165	0xc03c4a0c	-2.9420195
166	0xbe6f9f43	-0.23400597
167	0xbe513f36	-0.2043427
168	0xba56221d	-0.00081685354
169	0xbf45f6b9	-0.77329594
170	0x3e6125bb	0.2198705
171	0xbe2b1eb2	-0.16710928
172	0xbdbd8d6d	-0.092554905
173	0x3ed17a9d	0.4091386
174	0x399b50d6	0.0002962413
175	0xbf185fc0	-0.595211
176	0xbbed6278	-0.0072444044
177	0xbf27aa67	-0.6549439
178	0x3f1b8c59	0.6076103
179	0xbf3033d5	-0.6882909
180	0xbf19b33a	-0.60039103
181	0xbd793f2d	-0.060851265
182	0xbf778f31	-0.9670287
183	0xbb8ffddf	-0.0043942775
184	0x3e413ab0	0.18870044
185	0xbd3bfca3	-0.04589523
186	0xbc7db07a	-0.01548397
187	0xbe043fd8	-0.1291498
188	0xbe882c9f	-0.26596543
189	0xc00cdc09	-2.2009299
190	0xbedde39a	-0.4333771
191	0xbf6d0791	-0.9258967
192	0x3ceee835	0.02916346
193	0x3d0369e9	0.032083426
194	0x3ef0694a	0.4695533
195	0x3dba9ea5	0.0911229
196	0x3d9876d7	0.07444542
197	0x3df8ec9a	0.12154503
198	0xbd30d7f7	-0.04317471
199	0x3fd9443c	1.6973948
200	0x3d3f91f8	0.046770066
201	0xbc8139b9	-0.015774595
202	0x3cfd3dbc	0.030913226
203	0xbc3731c3	-0.011181298
204	0x3dea70da	0.11447306
205	0xbd14d041	-0.03633142
206	0xbf2866b4	-0.6578171
207	0x3ccd9ad4	0.025098242
208	0x3e272313	0.16321974
209	0x3e4dd23a	0.20099726
210	0x3f616576	0.8804544
211	0xbdd99ca4	-0.1062558
212	0x3e012b57	0.12614189
213	0xbd8fd633	-0.07023277
214	0x3e2920c0	0.165164
215	0xbe5e9861	-0.21737815
216	0x3dc42373	0.09577074
217	0x3e8351ca	0.25648338
218	0xbe161ebd	-0.14660163
219	0xbe69ceff	-0.22832869
220	0x3cf60c71	0.03003523
221	0xbd9ff781	-0.078108795
222	0x3f3d1dbc	0.73873496
223	0x3ec5f855	0.38666025
224	0x3c5c665c	0.013452139
225	0x3e4e4c8b	0.20146386
226	0x3dda62b5	0.10663358
227	0x3f25e92d	0.64808923
228	0x3e82587d	0.25458136
229	0x3fc36a12	1.5266745
230	0x3e158d28	0.14604628
231	0x3e1620f5	0.1466101
232	0x3dcf50e0	0.101228476
233	0x3f16392e	0.58681
234	0x3e23f3c8	0.16010964
235	0x3dca2696	0.09870641
236	0x3ee1775f	0.44036385
237	0x3f0b1c23	0.5433981
238	0x3dd3560b	0.10319146
239	0x3d959f69	0.07305796
240	0x3df82dda	0.121181205
241	0x3f07465a	0.5284172
242	0xbe9fd4de	-0.31217092
243	0xbe67c36a	-0.22633138
244	0xbce29490	-0.02765873
245	0x3d8c38a5	0.068467416
246	0x404ad374	3.169156
247	0x3e864220	0.26222324
248	0x3ee4ba2c	0.44673288
249	0xbd79d659	-0.060995433
250	0xbe460a40	-0.19339848
251	0x3defd14f	0.11709844
252	0xbdfce8f0	-0.12349117
253	0x3f012580	0.50447845
254	0x3e8989f3	0.2686306
255	0x3dca38aa	0.09874089

attention.0.bias f4 [64]
0	0xbe08bf86	-0.1335431
1	0xbf8c98ee	-1.098417
2	0xbfbb0288	-1.4610147
3	0xbeaf6bdc	-0.34261978
4	0x409695b9	4.7057767
5	0xbfc38ee8	-1.5277987
6	0xbfcc0d79	-1.5941612
7	0xbf99d3d7	-1.2017773
8	0xbfbd83c2	-1.4805834
9	0x3f3cc70a	0.7374121
10	0x4025c8c9	2.59038
11	0x4005e128	2.0918674
12	0x408f5e5e	4.4802694
13	0xbf993a58	-1.197093
14	0xc08369e9	-4.1066785
15	0xbfdca114	-1.7236657
16	0xbf9c3881	-1.2204744
17	0x3f57c567	0.8428559
18	0xbf683bd8	-0.90716314
19	0xbfaf59c0	-1.3699265
20	0xbf92c5c3	-1.1466602
21	0xbf190ea2	-0.5978795
22	0xbfb283aa	-1.3946431
23	0xbf839b9b	-1.0281862
24	0xbf7e18de	-0.99256694
25	0x3fad4e62	1.3539546
26	0x3f86cbec	1.0530982
27	0x3fa3e21f	1.2803382
28	0xbfbc23f7	-1.4698476
29	0xbfe072cd	-1.7535034
30	0x4036be0f	2.8553503
31	0x3fce5dd8	1.6122389
32	0x3ffecf4a	1.990701
33	0x3ffe72ed	1.9878823
34	0xbfb5e139	-1.4209358
35	0x40418b40	3.0241241
36	0xbffe3c3f	-1.9862136
37	0x3f8f28dc	1.1184344
38	0x3ed38b4f	0.41317222
39	0x403ec89c	2.9809942
40	0x3f89268d	1.071489
41	0xc091a889	-4.551823
42	0xbfd9b460	-1.7008171
43	0x3ed8546e	0.42251915
44	0xc084a79b	-4.1454597
45	0xbfcd7961	-1.6052667
46	0x3f65de16	0.89792
47	0x3fe8909b	1.816913
48	0xbfb67eaf	-1.4257411
49	0x3fdd0a5f	1.726879
50	0x3fdfe014	1.7490258
51	0xbf7ff6d1	-0.99985987
52	0x3fba9414	1.457644
53	0xbfc02a6d	-1.5012947
54	0x3fab7182	1.3394015
55	0x3f3685af	0.71297735
56	0x3f91d23b	1.1392282
57	0xc002b102	-2.0420537
58	0xbf888d1d	-1.0668064
59	0xc001b258	-2.0265102
60	0x3fd5d9c2	1.670708
61	0x3f59416d	0.84865457
62	0xc017e1c3	-2.3731544
63	0x401525ae	2.3304248

attention.2.weight f4 [1, 64]
0	0x3ee41e9f	0.44554612
1	0xbe54d25c	-0.2078337
2	0xbf097f97	-0.5371031
3	0x3f0b3096	0.5437101
4	0x3f2e0b64	0.6798613
5	0xbcf3d3ec	-0.029764138
6	0x3ed152ae	0.40883392
7	0xbed7d02f	-0.4215102
8	0x3ece05e3	0.40238866
9	0xbecf76d1	-0.40520337
10	0xbebd0a35	-0.3692185
11	0xbe6bd48c	-0.23030299
12	0x3fc54f15	1.5414759
13	0x3ec6c1f7	0.38819858
14	0x3dba2748	0.090895236
15	0x3f24f48b	0.6443564
16	0x3ed01fbb	0.40649208
17	0x3e7af093	0.24505834
18	0xbf2c2ec7	-0.67258877
19	0x3da5365f	0.08067011
20	0x3d25105d	0.04029881
21	0xbf02a0e2	-0.5102674
22	0x3e5db3c0	0.216506
23	0x3f2397af	0.63903326
24	0x3e70cbbe	0.23515221
25	0xbf0e9962	-0.55702794
26	0x3e3aa499	0.18226852
27	0xbe4c43ef	-0.1994779
28	0x3f30b370	0.690238
29	0x3ed4e1ef	0.41578624
30	0xbed3aabb	-0.41341195
31	0xbed1d2f9	-0.40981272
32	0x3c80d671	0.015727254
33	0xbe1decd3	-0.15422373
34	0xbeb6f2ac	-0.3573202
35	0x3f3159b5	0.6927751
36	0xbdd5b6b6	-0.1043524
37	0x3e68090a	0.22659698
38	0x3ee4d1fa	0.4469145
39	0x3e708226	0.23487148
40	0x3e07e194	0.13269645
41	0xbe804666	-0.2505371
42	0x3eda41da	0.42628366
43	0x3e689540	0.22713184
44	0xbe8a9375	-0.27065626
45	0xbf0e43ea	-0.5557238
46	0x3e8ed0d7	0.27893707
47	0x3c955a67	0.018231584
48	0x3ede9c33	0.43478546
49	0xbed5fa98	-0.4179275
50	0xbf3d9c7f	-0.7406692
51	0xbeb6980f	-0.35662887
52	0xbed08e03	-0.40733346
53	0x3ef42e95	0.4769179
54	0x3e9dbef8	0.3080976
55	0x3f40ef5a	0.7536522
56	0xbeb650d5	-0.35608545
57	0xbe1b4292	-0.15162113
58	0x3f2d0f35	0.6760133
59	0x3eab8dcb	0.33506617
60	0x3ee3d7e5	0.44500652
61	0x3ed49062	0.41516405
62	0xbf0cefc0	-0.5505333
63	0xbe1bee71	-0.15227677

classifier.weight f4 [1, 64]
0	0x3dfe4c5f	0.124169104
1	0xbc4cd86a	-0.012502769
2	0x3dacf1f3	0.08444586
3	0x3d022087	0.0317693
4	0x3d9a973a	0.075483754
5	0x3da9c09f	0.08288693
6	0x3cbbc6f4	0.022922017
7	0x3eb1c542	0.34720808
8	0x3da11815	0.078659214
9	0xbdcc1d4c	-0.099665254
10	0x3d8451c3	0.06460907
11	0x3d106b5a	0.03525863
12	0xbcc52685	-0.02406622
13	0x3d0fc3c8	0.03509882
14	0x3e782cae	0.24235794
15	0x3d67d72d	0.056601692
16	0xbdd98f4f	-0.10623037
17	0xbbbfdb73	-0.005855018
18	0x3cc5180a	0.024059314
19	0x3c18e264	0.0093313195
20	0xbc2195b1	-0.009862349
21	0xbbdc0cff	-0.0067154164
22	0x3e0142ae	0.12623093
23	0xbc6e63d8	-0.014550172
24	0x3cba9d9c	0.022780232
25	0x3dbf71b6	0.093478605
26	0xbe358a3b	-0.17728512
27	0x3afcb742	0.0019280689
28	0x3daf9fb3	0.08575382
29	0x3d2c0fe7	0.042007353
30	0x3e9ddf55	0.3083445
31	0xbe91a638	-0.28447127
32	0x3d3b172f	0.045676406
33	0x3d9cce26	0.07656507
34	0x3b7e38cb	0.0038791175
35	0xbf856c94	-1.042376
36	0x3da3e446	0.08002524
37	0xbe99a8cd	-0.30011597
38	0x3d24e04f	0.04025298
39	0x3cd319fe	0.02576923
40	0x3ce6efc5	0.028190503
41	0xbdc61633	-0.09672203
42	0x3d67c64b	0.05658559
43	0x3cd6b77b	0.026210537
44	0xbc7e11f5	-0.015507211
45	0xbacbb04b	-0.001554021
46	0xbd730c67	-0.059338
47	0x3db31039	0.087433286
48	0x3d90372f	0.070417754
49	0x3df4cc1d	0.11952994
50	0x3ecb2518	0.39676738
51	0x3e43f771	0.1913736
52	0x3cf839c9	0.030300992
53	0xbc7de979	-0.015497559
54	0x3ec79c1f	0.38986298
55	0xbc2899cc	-0.010290574
56	0x3c725c02	0.014792444
57	0x3e52afc1	0.20574857
58	0xbc7c995f	-0.015417426
59	0x3d456c8e	0.04819923
60	0x3d38ab30	0.045085132
61	0x3f560e22	0.83615315
62	0x3d7bee54	0.061506584
63	0xbe180826	-0.14846858
