m6aReplica/3d_66_with_delta/Models/epoch38_rocauc0.894_valpr0.383_valscore1.277.pth (torch, 155293 bytes, 13 tensors)

read_encoder.block1.0.weight f4 [128, 24]
0	0x3dfbfdf3	0.12304296
1	0x3f548b83	0.8302538
2	0xbd79d288	-0.060991794
3	0x3f0cd2cc	0.5500915
4	0x3f59fef0	0.8515463
5	0x3cc4a952	0.02400652
6	0xbec49cc0	-0.3840084
7	0x3f9b4e56	1.2133281
8	0x3e6b9c06	0.23008737
9	0x3f9a69dc	1.2063556
10	0xc001adf6	-2.0262427
11	0x3f1406d9	0.5782295
12	0xbdfe885c	-0.12428352
13	0x3bea6a03	0.007153751
14	0x3eb34c24	0.35019028
15	0xbce92396	-0.028459352
16	0xbd1ec8d5	-0.038765747
17	0x3cf46deb	0.02983757
18	0xbd59191d	-0.053002466
19	0xbca3fdff	-0.020018576
20	0xbd25b363	-0.04045428
21	0xbbe1a381	-0.0068859463
22	0x3c8ca9b2	0.01717076
23	0xbbf7ca69	-0.007561971
24	0xbdac268e	-0.08405791
25	0xbe894cfe	-0.26816553
26	0xbd7c63d1	-0.06161863
27	0xbf0f1193	-0.5588619
28	0xbdb85b3f	-0.09001779
29	0xbe486f6c	-0.19573754
30	0x3f6dd832	0.9290801
31	0xbe9051e0	-0.28187466
32	0x3e4ef37e	0.20210072
33	0xbfa052f4	-1.2525315
34	0x402a63b1	2.6623347
35	0x3e9d45e7	0.30717394
36	0x3cecbe99	0.028899478
37	0x3e76876c	0.24075097
38	0x3e141f86	0.1446515
39	0x3e4d342a	0.2003943
40	0x3ebf9be2	0.37423617
41	0x3e09881b	0.13430826
42	0x3cc5b291	0.024132999
43	0x3eb511a7	0.3536503
44	0x3e55221b	0.20813791
45	0xbe0eac31	-0.13932873
46	0x3f17f61d	0.59359914
47	0x3d9d2b14	0.07674232
48	0x3ebca740	0.36846352
49	0x3ec35c17	0.38156196
50	0xbe5aee93	-0.21380071
51	0xbdc50159	-0.09619398
52	0xbc5f8f6a	-0.013645032
53	0x3e2535b1	0.16133763
54	0x3f4d90d2	0.80299103
55	0x3e10d48b	0.14143579
56	0x3de176c4	0.11008981
57	0xbf0ba205	-0.545441
58	0x3fd7262a	1.6808522
59	0xbf4d1da8	-0.80123377
60	0xbe7beb21	-0.24601413
61	0xbd843e5e	-0.06457208
62	0x3e732274	0.23743612
63	0xbd269316	-0.040667616
64	0x3e4c19a2	0.19931653
65	0xbd71bb1c	-0.059016332
66	0xbd5d1ab5	-0.053980548
67	0xbdb45b92	-0.08806528
68	0xbf0a8a4f	-0.5411729
69	0xbe69f67a	-0.2284793
70	0x3e9a4004	0.30126965
71	0x3cf9eaf9	0.030507552
72	0x3f28b78b	0.65905064
73	0xbf0d1f56	-0.5512594
74	0xbdf8caa3	-0.12148025
75	0x3f3335b7	0.7000384
76	0xbf170635	-0.58993846
77	0x3e262299	0.16224135
78	0x3ee69eb5	0.4504296
79	0xbd35efb6	-0.04441806
80	0xbd371361	-0.044696216
81	0x3f38a212	0.721223
82	0xbfa68b3a	-1.3011239
83	0xbd6c3b03	-0.057673465
84	0x3f45b7f0	0.7723379
85	0xbe5b27b1	-0.2140186
86	0xbbadc263	-0.0053027137
87	0xbe0b025c	-0.13575119
88	0xbd462710	-0.048377097
89	0x3e6f1dad	0.23351164
90	0xbe4c7c90	-0.19969392
91	0xbdfc07b9	-0.123061605
92	0x3f1bf70e	0.6092385
93	0x3ea1ba70	0.31587553
94	0xbdd80d47	-0.105494075
95	0xbe898be2	-0.26864535
96	0x3f64dfa6	0.8940376
97	0xbe485792	-0.19564655
98	0xbdbc92d4	-0.09207693
99	0x3dd1f540	0.10251856
100	0xbf1f9140	-0.6233101
101	0x3d24232b	0.0400726
102	0x3fa2423e	1.2676466
103	0xbf1a9ef1	-0.60398775
104	0x3d50224f	0.05081397
105	0xbf767241	-0.9626809
106	0x3fe6ae00	1.802185
107	0xbf31fe50	-0.69528675
108	0x3db6471b	0.08900281
109	0xbd9ea439	-0.07746167
110	0x3ec6c1a3	0.38819608
111	0x3e9188ba	0.28424627
112	0x3e4ee450	0.20204282
113	0xbdfcb86f	-0.123398654
114	0xbe0c7dea	-0.13719907
115	0x3e9f9f35	0.31176153
116	0xbe56aa18	-0.20963323
117	0xbed80f0b	-0.42198977
118	0xbe52bc33	-0.20579605
119	0xbe6b7d90	-0.22997117
120	0xbd411e5d	-0.047148097
121	0xbf3f3486	-0.7468952
122	0x3cae0683	0.02124334
123	0xbf88db5d	-1.0691944
124	0xbf5a98fa	-0.85389674
125	0xbdb3cc15	-0.0877916
126	0xbe4cf56d	-0.20015498
127	0xbf3c32f8	-0.7351527
128	0x3e495fef	0.19665502
129	0xc055cedd	-3.340751
130	0x40448314	3.0705004
131	0xbe56e5d4	-0.2098611
132	0x3f0e5cd5	0.556104
133	0x3daf3fe8	0.08557111
134	0xbdd30cc7	-0.103051715
135	0x3cba28f7	0.022724612
136	0xbe0fd9a1	-0.14047863
137	0xbf18a240	-0.59622574
138	0xbd878442	-0.06617023
139	0x3e3e08af	0.18558
140	0x3d3957f3	0.04524989
141	0xbda0084d	-0.07814083
142	0xba471164	-0.0007593839
143	0xbd4beb9f	-0.049785253
144	0x3f1ecdc5	0.6203273
145	0x3ec20be1	0.37899688
146	0x3dfff197	0.124972515
147	0x3fa89d03	1.3172916
148	0x3f0d1aa7	0.55118793
149	0xbe1962cc	-0.14979094
150	0x3ebb0444	0.36526692
151	0x3e425599	0.18977965
152	0x3ca7c545	0.020479808
153	0x3f5aef81	0.85521704
154	0xc0072e39	-2.1121962
155	0xbe0b4a69	-0.13602604
156	0xbe8efd6c	-0.2792772
157	0xbd1f94bb	-0.0389602
158	0x3e30c03c	0.17260832
159	0x3e3d3db1	0.18480565
160	0x3ef42691	0.47685674
161	0xb9f8ba29	-0.00047440946
162	0x3d6f5094	0.058426455
163	0xbec1b9ce	-0.3783707
164	0xbe587a21	-0.21140338
165	0xbe8271dd	-0.25477496
166	0xbe10665c	-0.14101547
167	0x3ea7ee30	0.3279891
168	0x3f691d84	0.9106066
169	0xbe20d9f9	-0.1570815
170	0xbd09922b	-0.033586662
171	0x3ec9ee29	0.39439514
172	0xbe65fe50	-0.22460294
173	0xbc0e04a8	-0.008668102
174	0xbe858348	-0.26076722
175	0xbea292c7	-0.31752607
176	0xbe264ea6	-0.1624094
177	0xbfa57be1	-1.292843
178	0xbf8ce2bb	-1.1006693
179	0xbf7b24d4	-0.9810307
180	0x3ec8f3be	0.3924846
181	0xbed4b0d4	-0.4154116
182	0xbe10c250	-0.14136624
183	0xbe245c4e	-0.16050836
184	0x3eb450c7	0.35217878
185	0x3eb9c42a	0.36282474
186	0x3ca25314	0.019815005
187	0x3dd10e63	0.10207822
188	0x3e0e61cd	0.13904496
189	0x3e2efb3b	0.17088024
190	0x3ea65695	0.32487932
191	0xbe9a08f0	-0.30084944
192	0xbed8df2c	-0.42357767
193	0x3ece03d4	0.40237296
194	0x3d0d4b20	0.034495473
195	0xbedb6c10	-0.42855883
196	0x3f0ee8fe	0.5582427
197	0x3c77136a	0.015080312
198	0xbf8aea38	-1.0852728
199	0x3f20ffa2	0.62890065
200	0xbe70b456	-0.23506293
201	0x3edab861	0.42718795
202	0xbfb123bc	-1.383903
203	0x3f34bfcf	0.70605177
204	0xbeb6a4da	-0.35672647
205	0xbe9f946a	-0.31167918
206	0xbeafbba5	-0.3432285
207	0xbd8fb55e	-0.07017015
208	0xbde98c40	-0.11403704
209	0x3ac19a39	0.0014770693
210	0xbd622b39	-0.055217
211	0x3e96ba29	0.29438904
212	0xbe13e717	-0.14443623
213	0xbe0854ca	-0.13313594
214	0xbef853f7	-0.4850156
215	0x3e8a2849	0.2698386
216	0xba7dcc2e	-0.0009681609
217	0xbedbc815	-0.42926088
218	0x3da47cee	0.08031641
219	0xbf87bcc7	-1.0604485
220	0xbf8cbc85	-1.0995032
221	0x3e1aa876	0.15103325
222	0xbb162c18	-0.0022914466
223	0xbf6948ba	-0.91126597
224	0xbe77a536	-0.24184117
225	0xc0275d5f	-2.615074
226	0x406e7145	3.7256634
227	0xbf3914c7	-0.7229733
228	0x3f3db415	0.7410291
229	0xbe50cf14	-0.20391494
230	0xbeaa6e6e	-0.33287376
231	0x3e055c4a	0.13023487
232	0xbd87c172	-0.06628694
233	0x3df3bcf1	0.11901272
234	0xbde8fd91	-0.11376489
235	0x3d7c1e35	0.061552245
236	0x3de6d1fe	0.112705216
237	0xbddc4d07	-0.10756879
238	0xbd4a89ff	-0.04944801
239	0xbd0299a6	-0.03188481
240	0x3ee78c5d	0.45224276
241	0xbdabd802	-0.083908096
242	0x3d52a15b	0.05142341
243	0xbf58f8d1	-0.84754664
244	0x3ef0b0d0	0.47009897
245	0xbcfd9c31	-0.030958267
246	0xbf825971	-1.0183545
247	0x3f273698	0.6531768
248	0xbb5a0b7d	-0.0033271008
249	0xc0009c1f	-2.0095289
250	0xbec4b61f	-0.38420197
251	0x3f85b191	1.0444814
252	0xbe782175	-0.24231513
253	0x3e563817	0.20919834
254	0xbeaa0620	-0.33207798
255	0xbee286ba	-0.44243413

read_encoder.block1.0.bias f4 [128]
0	0xbf0bf01d	-0.5466326
1	0x3ea08735	0.31353155
2	0xbd87c01d	-0.066284396
3	0x3e3c2862	0.1837478
4	0x3ea3eea1	0.32017997
5	0x3ed12981	0.40851977
6	0xbc2d71e4	-0.010586236
7	0x3ee9b583	0.45646295
8	0xbdf84084	-0.121216804
9	0x3ea5a65c	0.32353485
10	0xbdc619a4	-0.09672859
11	0xbdeb0fa6	-0.11477594
12	0x3da836e8	0.082135975
13	0xbf01e8f1	-0.50746065
14	0x3e816aa1	0.25276664
15	0xbea9bd6b	-0.33152327
16	0xbecafd90	-0.39646578
17	0xbeeba8e7	-0.460273
18	0x3f0d70b8	0.5525012
19	0x3e751e12	0.23937252
20	0xbe042b60	-0.12907171
21	0x3ec9f081	0.39441302
22	0x3ed01d35	0.40647283
23	0x3e841882	0.25799948
24	0x3df9740a	0.12180336
25	0xbd386ecb	-0.045027535
26	0x3e968f27	0.29406092
27	0xbeee52c6	-0.46547526
28	0x3db7d56b	0.08976253
29	0x3ee1e975	0.44123426
30	0x3d61c80a	0.055122413
31	0xbefbe32d	-0.4919676
32	0x3ebad1f5	0.3648831
33	0x3ef22289	0.47291973
34	0x3e46a319	0.19398154
35	0x3ef6e12c	0.48218668
36	0x3ec8370c	0.39104497
37	0xbf11ab3c	-0.5690191
38	0x3e081ae2	0.13291505
39	0xbeff3e3a	-0.49852163
40	0x3e03400d	0.12817402
41	0x3f049cae	0.51801574
42	0xbf05f29f	-0.52323335
43	0x3f082c3f	0.53192514
44	0x3e5e9625	0.21736963
45	0x3e474aa2	0.19462064
46	0x3dd4eb73	0.10396471
47	0xbed823e1	-0.42214873
48	0xbf15cf45	-0.58519393
49	0xbed1806a	-0.40918285
50	0xbe70ebf6	-0.23527512
51	0xbe6241d1	-0.2209542
52	0xbc4275bf	-0.011868893
53	0xbefb2440	-0.49051094
54	0x3ea01fad	0.31274167
55	0x3f0b9b8e	0.5453423
56	0x3d5b47fd	0.05353545
57	0x3db12fb5	0.086516775
58	0xbe0f5893	-0.13998632
59	0xbe251ecf	-0.16125034
60	0x3f2c1adf	0.672285
61	0xbf2823c7	-0.6567959
62	0x3e0b4a2d	0.13602515
63	0xbf161ef6	-0.5864099
64	0xbe96a948	-0.29426026
65	0xbe211724	-0.15731484
66	0xbe81ab20	-0.2532587
67	0x3e1574d3	0.14595346
68	0x3de53fd0	0.11193812
69	0x3e4a1fb7	0.19738661
70	0xbe0d9d80	-0.13829613
71	0xbe801bcc	-0.25021207
72	0x3e4b7906	0.19870386
73	0xbd23d7ed	-0.040000845
74	0x3ed77690	0.42082644
75	0xbf20b5da	-0.62777483
76	0xbe8e2f32	-0.27770382
77	0xbf165fc0	-0.5873985
78	0xbf084df3	-0.5324394
79	0xbe577390	-0.21040177
80	0xbefc7bda	-0.4931324
81	0xbd41182a	-0.047142185
82	0x3eb67bb2	0.35641247
83	0xbdbf236c	-0.09332928
84	0xbeac79f5	-0.33686796
85	0xbe772400	-0.24134827
86	0x3f0673dc	0.5252054
87	0xbd4e29c2	-0.050332792
88	0xbea0d2a4	-0.31410706
89	0x3eedc657	0.46440384
90	0xbf05a8e4	-0.5221083
91	0x3ea48819	0.32135084
92	0xbe84155c	-0.25797546
93	0x3edbd81a	0.4293831
94	0x3e48f2ed	0.19623919
95	0x3e8d1103	0.2755204
96	0x3ebd3a1d	0.369584
97	0x3e0456c2	0.1292372
98	0xbed221e4	-0.41041481
99	0x3f055490	0.5208216
100	0x3f1b55a9	0.6067758
101	0xbd02c316	-0.03192433
102	0xbecde61e	-0.40214628
103	0xbf116849	-0.5679975
104	0x3ee06f13	0.43834743
105	0xbec77581	-0.38956836
106	0x3dd82ee4	0.10555819
107	0xbe51ff7c	-0.20507616
108	0xbf294ff4	-0.66137624
109	0x3e658ab2	0.2241619
110	0x3efb0947	0.49030516
111	0x3eb5410d	0.35401192
112	0xbdcbda5f	-0.0995376
113	0xbeaecbe6	-0.34139937
114	0xbe7cba5b	-0.24680464
115	0x3f012f82	0.50463116
116	0x3f018007	0.5058598
117	0xbec07232	-0.37587124
118	0xbe70eab6	-0.23527035
119	0x3f1eb09e	0.61988246
120	0x3ec2e5f8	0.38066077
121	0xbec5cd3e	-0.3863315
122	0xbf1ae7d9	-0.6051002
123	0x3ebbccb1	0.36679605
124	0x3efda872	0.49542576
125	0x3e1ade2e	0.15123817
126	0x3d97a532	0.074045554
127	0xbf0e843b	-0.5567052

read_encoder.block1.1.weight f4 [128]
0	0x3f8de416	1.1085231
1	0x3fbb0627	1.4611253
2	0x3fb99002	1.4497073
3	0x3f929ef2	1.1454756
4	0x3fbd5641	1.4791948
5	0x3f9472a2	1.1597483
6	0x3f95523b	1.166572
7	0x3fa8b3ab	1.317983
8	0x3fa93fb0	1.3222561
9	0x3f857926	1.0427597
10	0x3f99f22e	1.2027032
11	0x3f63562f	0.8880338
12	0x3f810ccb	1.0082029
13	0x3ef3fd2b	0.4765409
14	0x3fb85e76	1.4403827
15	0x3f8f1cd1	1.1180669
16	0x3f4beb62	0.7965604
17	0x3f83a95c	1.0286059
18	0x3fba4b19	1.4554168
19	0x3f94e30e	1.1631792
20	0x3fca3621	1.5797769
21	0x3f97aa98	1.1848936
22	0x3f3825a6	0.71932447
23	0x3f60ee30	0.87863445
24	0x3fb246dd	1.3927876
25	0x3f95da4e	1.1707246
26	0x3f798b71	0.97478396
27	0x3f27bc07	0.6552128
28	0x3fa0e3d6	1.256953
29	0x3fa907cb	1.3205503
30	0x3faab0f7	1.3335255
31	0x3eac4562	0.33646685
32	0x3f347991	0.70497996
33	0x3f20bc97	0.62787765
34	0x3f8cb6f1	1.0993329
35	0x3f9c2aa9	1.2200519
36	0x3f8f963a	1.121772
37	0x3f0d9d60	0.5531826
38	0x3f888e6a	1.0668461
39	0x3fa200c5	1.2656485
40	0x3f606530	0.876544
41	0x3f86b330	1.0523434
42	0x3f9c4061	1.2207147
43	0x3f96da00	1.1785278
44	0x3feaeee4	1.8354154
45	0x3f54135b	0.82842034
46	0x3f9af0a9	1.2104694
47	0x3ed3bd31	0.4135528
48	0x3f87a25f	1.0596427
49	0x3edff55e	0.43741888
50	0x3f9db84b	1.2321867
51	0x3f0d887d	0.5528639
52	0x3f98cac6	1.1936882
53	0x3faa4bb4	1.3304353
54	0x3fc3796c	1.527143
55	0x3fc5ce0e	1.5453508
56	0x3f80a421	1.0050088
57	0x3fd6ccd1	1.6781255
58	0x3f0273c1	0.50957876
59	0x3f249e26	0.64303815
60	0x3f7b5110	0.98170567
61	0x3efa0d5e	0.48838323
62	0x3f9663df	1.1749228
63	0x3f1f2d17	0.62178177
64	0x3ed7de99	0.42162016
65	0x3f4e84c8	0.8067136
66	0x3f04e4de	0.51911724
67	0x3ff80994	1.9377923
68	0x3f9deb86	1.2337501
69	0x3fa1cd6e	1.2640817
70	0x3f3a9c42	0.7289468
71	0x3f04e538	0.5191226
72	0x3faaed44	1.3353658
73	0x3fa3cf20	1.2797585
74	0x3fa24753	1.2678016
75	0x3f003651	0.5008288
76	0x3ed7ab57	0.4212291
77	0x3ec46dcd	0.3836502
78	0x3f9aa04a	1.2080166
79	0x3f1c2c26	0.61004865
80	0x3ee264eb	0.4421762
81	0x3f3209b2	0.69546044
82	0x3fce1adc	1.6101947
83	0x3f372071	0.71533877
84	0x3f3ecaf3	0.74528426
85	0x3f76d5eb	0.9642016
86	0x3f590be2	0.84783757
87	0x3f344edf	0.7043285
88	0x3f08c836	0.534305
89	0x3f84e3e1	1.0382043
90	0x3f3e9619	0.7444778
91	0x3f8df68d	1.1090866
92	0x3f669c41	0.90082175
93	0x3f557f01	0.8339692
94	0x3f82d9c7	1.022271
95	0x3fe2285c	1.7668567
96	0x3f85fbff	1.0467528
97	0x3ef539ac	0.47895563
98	0x3f45a4b9	0.7720447
99	0x3f8cc065	1.0996214
100	0x3fa60fdc	1.297359
101	0x3f293aad	0.6610516
102	0x3f77d110	0.9680338
103	0x3f9f64b4	1.2452607
104	0x3fc6d46e	1.5533578
105	0x3f4e5704	0.80601525
106	0x3f522b20	0.82097054
107	0x3f371911	0.71522623
108	0x3f7634ae	0.9617413
109	0x3fa91a19	1.3211089
110	0x3f5127db	0.8170144
111	0x3fa5bee6	1.2948883
112	0x3ed1e71f	0.40996644
113	0x3f017093	0.505624
114	0x3f75afaf	0.95971197
115	0x3fc223e3	1.5167202
116	0x3ff0307c	1.8764796
117	0x3f2c39eb	0.67275876
118	0x3fd6c4f4	1.6778855
119	0x3fa5730f	1.2925738
120	0x3f9fbc07	1.2479256
121	0x3f887477	1.0660542
122	0x3f34d75e	0.70641124
123	0x3fa61b6d	1.297712
124	0x3f903ff6	1.1269519
125	0x3f9560e2	1.1670191
126	0x3f10b37b	0.56523865
127	0x3f48f4f6	0.7849878

read_encoder.block1.1.bias f4 [128]
0	0xbe91045a	-0.28323632
1	0xbe41f5d0	-0.18941426
2	0xbe53bb4e	-0.2067692
3	0xbe1eab75	-0.15495093
4	0xbdeb0b7f	-0.11476802
5	0xba2243d3	-0.0006189916
6	0xbe8dea88	-0.27717996
7	0xbc0821c5	-0.0083088325
8	0xbe39dc67	-0.18150483
9	0xbd486296	-0.048922144
10	0xbeae8373	-0.34084663
11	0xbe65ba3e	-0.22434327
12	0xbe9cbce2	-0.30612856
13	0xbf0d2b2b	-0.55143994
14	0xbe199300	-0.14997482
15	0xbe945156	-0.28968304
16	0xbe948db4	-0.2901436
17	0xbe8ee6ef	-0.27910563
18	0xbe0e88b9	-0.13919343
19	0xbe660c52	-0.22465637
20	0xbe047b13	-0.12937574
21	0xbe2ece7d	-0.17070957
22	0xbe9becc6	-0.3045408
23	0xbe7d0a9d	-0.2471108
24	0xbd915c9a	-0.070977405
25	0xbdf23620	-0.1182673
26	0xbe1feda4	-0.15617996
27	0xbedd72d9	-0.43251684
28	0xbe2eed47	-0.17082702
29	0xbabf5c1b	-0.0014599593
30	0x3bf5c8f8	0.007500764
31	0xbf2f07b0	-0.68371105
32	0xbe99ba14	-0.3002478
33	0xbecd49c9	-0.40095356
34	0xbea0c50c	-0.31400335
35	0xbe67ffbc	-0.22656149
36	0xbd9bb0dd	-0.07602093
37	0xbf11e6e0	-0.5699291
38	0xbe441f7b	-0.19152634
39	0xbe81624d	-0.2527031
40	0xbe949120	-0.29016972
41	0xbe977374	-0.2958027
42	0xbe6a1255	-0.22858556
43	0xbdc1bfc0	-0.094604015
44	0x3d864931	0.06556929
45	0xbe5b1f05	-0.21398552
46	0xbe335101	-0.1751137
47	0xbf396e8b	-0.724343
48	0xbea23323	-0.3167964
49	0xbf0991ed	-0.5373829
50	0xbe1db61c	-0.154015
51	0xbefe9f37	-0.49730846
52	0xbe8ff8fb	-0.28119645
53	0xbe4e4c24	-0.20146233
54	0xbccb9b01	-0.024854185
55	0x3c5a07cf	0.013307526
56	0xbecdaa93	-0.401692
57	0xbda98471	-0.08277214
58	0xbee673b0	-0.45010138
59	0xbee32970	-0.44367552
60	0xbef3e106	-0.47632617
61	0xbf0dfb8f	-0.5546197
62	0xbef2d11b	-0.4742516
63	0xbebf49c3	-0.37360963
64	0xbf10f56a	-0.5662447
65	0xbe81564e	-0.25261158
66	0xbef584a9	-0.47952774
67	0xbe2f7281	-0.17133524
68	0xbe91edaa	-0.28501636
69	0x3d1014a4	0.035175934
70	0xbe9e25be	-0.3088817
71	0xbeee7fbf	-0.46581838
72	0xbe3c499b	-0.18387453
73	0xbe8ed966	-0.27900237
74	0xbd8dbe47	-0.06921058
75	0xbee5cb0b	-0.44881472
76	0xbf14944d	-0.5803879
77	0xbf1a3589	-0.6023794
78	0xbe9ce8c1	-0.30646327
79	0xbed59848	-0.41717744
80	0xbf11d1d4	-0.569608
81	0xbf1a7fab	-0.60351056
82	0xbe337cb6	-0.17528042
83	0xbee3471d	-0.44390193
84	0xbee86e46	-0.45396632
85	0xbe6d894b	-0.23196904
86	0xbe45e728	-0.1932646
87	0xbecfecc0	-0.40610313
88	0xbed50974	-0.41608775
89	0xbe029037	-0.12750326
90	0xbeb55994	-0.35419905
91	0xbeef2177	-0.4670522
92	0xbebe4d8e	-0.37168545
93	0xbed5c794	-0.4175383
94	0xbe1ad973	-0.15122013
95	0xbe508e9c	-0.20366901
96	0xbdc7c063	-0.09753492
97	0xbeda0e82	-0.42589194
98	0xbec4a284	-0.3840524
99	0xbcc0b45c	-0.023523502
100	0x3d982cbf	0.0743041
101	0xbf145d9b	-0.5795533
102	0xbe8e680b	-0.27813753
103	0xbe972d5a	-0.29526788
104	0x3d04bcd4	0.032406643
105	0xbe72a2f1	-0.2369497
106	0xbe9e433f	-0.3091068
107	0xbef76f77	-0.48327228
108	0xbebfc4cf	-0.3745484
109	0xbddf766c	-0.10911259
110	0xbe78f40b	-0.24311845
111	0xbdf5ae86	-0.11996178
112	0xbf10fb65	-0.566336
113	0xbee2d644	-0.44304097
114	0xbe836a72	-0.2566715
115	0xbecaa62d	-0.39579907
116	0xbc4d6691	-0.012536661
117	0xbebd169a	-0.36931306
118	0xbd2b0002	-0.041748054
119	0xbcf801f0	-0.030274361
120	0xbc112835	-0.008859684
121	0xbe66613d	-0.22498031
122	0xbed09825	-0.40741077
123	0xbdb4ad1f	-0.08822083
124	0xbe403443	-0.18769936
125	0xbd8e5f93	-0.06951823
126	0xbf11303d	-0.5671423
127	0xbeb032b6	-0.3441369

read_encoder.block2.0.weight f4 [128, 128]
0	0xbb5de6ee	-0.0033859569
1	0x3dbf4138	0.09338611
2	0x3e368beb	0.17826812
3	0xbbc6e48e	-0.0060697263
4	0x3d648ce3	0.055798423
5	0xbe08a22a	-0.1334311
6	0x3e003591	0.12520434
7	0x3df4c8ec	0.11952385
8	0x3c87cf00	0.016578197
9	0xbd0d9bfc	-0.034572586
10	0x3e78ea37	0.24308096
11	0x3d897e03	0.06713488
12	0xbe3f1f74	-0.18664342
13	0x3e973f8b	0.29540667
14	0x3d409eb6	0.04702636
15	0xbd93b72b	-0.07212671
16	0x3df0c75c	0.11756775
17	0x3e120ee2	0.1426349
18	0x3c4efd97	0.012633703
19	0x3db1135b	0.0864627
20	0x3d4af382	0.049548633
21	0x3da27d95	0.07934109
22	0x3d2aeafb	0.041728
23	0xbe434036	-0.19067463
24	0xbd531cc7	-0.051541116
25	0x3d73c71b	0.059516054
26	0x3d08d668	0.0334076
27	0x3e117565	0.14204939
28	0xbc80fed8	-0.015746519
29	0x3e55dc63	0.20884852
30	0xbd2f697c	-0.042825207
31	0x3e3efd1a	0.18651238
32	0x3e83bf9c	0.25732124
33	0x3e69144c	0.22761649
34	0x3c1c77d8	0.009550057
35	0xbb88c02f	-0.0041733007
36	0xbd833822	-0.06407191
37	0x3e01e378	0.12684429
38	0x3e5a96fe	0.21346661
39	0x3d8c3f32	0.06847991
40	0x3d26f9f8	0.040765733
41	0xbdfc67b2	-0.12324466
42	0x3e64fbf8	0.22361743
43	0xbbe25ee0	-0.0069082826
44	0x3ec20cdc	0.37900436
45	0x3b40d055	0.002942105
46	0x3d3afa0e	0.045648627
47	0x3e29c2c1	0.16578199
48	0x3e575f52	0.21032456
49	0x3e555e62	0.20836785
50	0x3e3f6d6f	0.1869409
51	0x3ca3bab7	0.019986494
52	0x3e7ee12d	0.24890585
53	0xbe0a28a3	-0.13492064
54	0xbe35068c	-0.17678279
55	0x3dd4af34	0.1038498
56	0xbd6e26bb	-0.058142405
57	0xbe96caa4	-0.29451478
58	0x3ceed226	0.029152941
59	0x3d6998eb	0.0570306
60	0xbda9fcd9	-0.0830018
61	0x3e5a4f09	0.21319212
62	0x3cad7556	0.021174114
63	0x3e233e89	0.15941824
64	0x3ce4076f	0.027835576
65	0xbd381ec1	-0.044951204
66	0x3d4cc20c	0.049989745
67	0x3e1d95d4	0.15389186
68	0x3d1821ce	0.037141614
69	0xb96ef603	-0.00022789095
70	0x3e472b94	0.19450217
71	0x3d629d6c	0.05532591
72	0x3e7db29d	0.24775167
73	0x3dda4d3a	0.10659261
74	0xbda31bbd	-0.07964275
75	0x3ddff2c7	0.10934978
76	0x3e63810a	0.22217193
77	0x3e53ec77	0.20695673
78	0x3ca75451	0.020425947
79	0x3e49c43f	0.19703768
80	0x3e6b6adb	0.22989981
81	0x3e0e8602	0.13918307
82	0x3e4b4b14	0.19852859
83	0x3db81929	0.08989174
84	0xbe010a36	-0.12601551
85	0x3d902fcc	0.070403665
86	0xbdf6823b	-0.12036558
87	0x3e0a5ae4	0.13511235
88	0x3e31d768	0.17367327
89	0xbe04ed53	-0.12981157
90	0x3e3be3a4	0.18348557
91	0x3d7dc3e9	0.061954413
92	0x3e072acb	0.13199918
93	0x3dcf6d6c	0.101282924
94	0x3e537c0d	0.2065279
95	0x3e8f2d73	0.27964363
96	0xbe69bf57	-0.22826897
97	0x3e5df63b	0.2167596
98	0x3dcf6bb3	0.10127964
99	0xbe66fc77	-0.22557245
100	0xbe6202e2	-0.22071412
101	0x3df3b0ce	0.11898957
102	0x3c0e6b66	0.008692598
103	0xbe1f0783	-0.15530209
104	0xbd800eda	-0.06252833
105	0x3b5afad0	0.0033413656
106	0x3da9ea00	0.08296585
107	0xbe085f4e	-0.13317606
108	0x3e3c15a2	0.18367627
109	0xbd90023c	-0.07031676
110	0x3d03d0cd	0.03218155
111	0x3dd6616d	0.10467801
112	0x3e7db486	0.24775895
113	0x3e676e8a	0.22600761
114	0xbd92988d	-0.07158003
115	0xbd9cb2f8	-0.07651323
116	0x3da88ffa	0.08230586
117	0x3dd13962	0.10216023
118	0xbe893665	-0.26799312
119	0xbdb38481	-0.087655075
120	0x3ca0fad1	0.019650849
121	0x3bc5c5af	0.0060355286
122	0xbd88b211	-0.066745885
123	0xbe787b40	-0.24265766
124	0x3ccfd81a	0.0253716
125	0x3e05cd96	0.13066706
126	0x3e534a75	0.20633872
127	0x3db6b68a	0.08921535
128	0x3d9ce8c6	0.076615855
129	0xbe859e14	-0.26097167
130	0x3e2474fe	0.16060254
131	0x3ef32c43	0.47494707
132	0xbe47c530	-0.19508815
133	0x3c891420	0.01673323
134	0x3e2a029b	0.16602556
135	0x3e564654	0.20925266
136	0x3e9a3ee4	0.30126107
137	0xbd8e96df	-0.0696237
138	0x3ccf0302	0.025269989
139	0x3e4d279d	0.20034643
140	0x3c2066cb	0.009790133
141	0x3ea45152	0.32093292
142	0x3dc644df	0.09681105
143	0x3e546211	0.20740534
144	0xbc46ce4d	-0.012134147
145	0x3e147572	0.14497927
146	0xbe927a22	-0.28608805
147	0xbe7bad30	-0.24577785
148	0xbe23e7de	-0.16006419
149	0xbe41e7e5	-0.18936117
150	0x3e9a82dd	0.30177966
151	0xbd697cf0	-0.057003915
152	0x3e0a08ec	0.13479966
153	0x3e05a1ab	0.13049953
154	0x3e4cc385	0.1999646
155	0x3e24b4b3	0.16084556
156	0xbdb613a7	-0.08890467
157	0x3d2b0aff	0.041758534
158	0x3e583ec2	0.2111769
159	0xbd28abd7	-0.041179504
160	0x3e93ea14	0.28889525
161	0x3cf1da23	0.029522961
162	0xbc9a185a	-0.01881044
163	0xbdafa7be	-0.08576916
164	0x3dd99ef5	0.10626022
165	0x3db7b9b1	0.08970965
166	0x3df23011	0.11825574
167	0x3e9a8ed0	0.30187082
168	0x3d8c8be2	0.06862618
169	0x3e0bef8e	0.13665602
170	0x3e922287	0.28541967
171	0x3e4f7de6	0.2026287
172	0x3e59294e	0.21207163
173	0x3de2589e	0.11052059
174	0x3e2fcdfd	0.17168422
175	0x3e859692	0.2609144
176	0xbc9d723c	-0.01921951
177	0x3e691653	0.22762422
178	0x3e06cd0d	0.13164158
179	0x3e339116	0.17535815
180	0x3dcc0ba2	0.09963156
181	0x3df8e3c4	0.12152818
182	0x3ddd0a9f	0.107930414
183	0x3da0f375	0.07858936
184	0xbc505663	-0.012715909
185	0x3c8ba515	0.01704649
186	0x3ea47dde	0.3212728
187	0x3e15a151	0.14612319
188	0xbc50f671	-0.012754069
189	0xbc116f03	-0.008876565
190	0x3e10819f	0.14111947
191	0x3e5ead87	0.21745883
192	0x3df4f082	0.11959936
193	0x3e8b6579	0.27225855
194	0xbdb0e07c	-0.08636567
195	0xbe8718cb	-0.26386103
196	0xbce190ed	-0.027534926
197	0xbd36196b	-0.044457834
198	0x3d04f40c	0.032459304
199	0x3dbae8b9	0.091264196
200	0xbdc70ebc	-0.09719607
201	0x3e529585	0.2056485
202	0x3e92480b	0.2857059
203	0xbdf80a99	-0.12111396
204	0x3cf0f79a	0.02941494
205	0x3e169610	0.14705682
206	0x3e5b6cee	0.21428272
207	0x3e85c6a9	0.26128128
208	0x3e324ae0	0.17411375
209	0x3e32ac4a	0.17448536
210	0x3d37b886	0.04485371
211	0x3e9a4f68	0.30138707
212	0x3e106b35	0.14103396
213	0xbe161e8b	-0.14660089
214	0x3d82b274	0.063816935
215	0x3e7e2ffc	0.24822992
216	0x3de0e3a2	0.109809175
217	0x3d5d4047	0.054016378
218	0x3e46f854	0.19430667
219	0x3c8dc321	0.017304959
220	0x3dbde009	0.09271247
221	0x3e54dd59	0.20787562
222	0x3dc97ade	0.09837888
223	0x3cb0332b	0.021508774
224	0xbd9027ea	-0.07038863
225	0x3e545364	0.20734936
226	0x3d38c1f8	0.045106858
227	0xbccfa6b2	-0.025348041
228	0x3d38669d	0.045019735
229	0x3dc5f0f6	0.096651
230	0x3c8395e7	0.01606269
231	0x3b762ee3	0.0037564568
232	0x3edd27ea	0.43194515
233	0x3df4b3d5	0.11948363
234	0x3e4db507	0.20088588
235	0x3e0c8eaf	0.13726304
236	0x3e16eea8	0.14739478
237	0xbbb75f1c	-0.0055960547
238	0x3e311414	0.17292815
239	0x3dd57bd6	0.104240105
240	0x3e30a228	0.17249358
241	0x3dea3d7b	0.11437508
242	0xbd928da3	-0.07155921
243	0xbeaa4d75	-0.3326222
244	0x3e2ac5de	0.16677043
245	0x3d586da8	0.05283895
246	0x3c886d36	0.016653638
247	0x3d1600c8	0.03662184
248	0x3d12197b	0.03566883
249	0x3e3ad1d9	0.18244113
250	0x3db83472	0.08994378
251	0xba43066b	-0.0007439616
252	0xbe05d29d	-0.13068624
253	0xbe073084	-0.13202101
254	0x3d9a2e1f	0.07528328
255	0x3d67fe45	0.056638975

read_encoder.block2.0.bias f4 [128]
0	0x3eb33279	0.34999445
1	0x3f0c7426	0.5486473
2	0x3d692cb5	0.0569274
3	0x3e96b638	0.29435897
4	0x3ed777b4	0.42083514
5	0xbe0ca151	-0.13733412
6	0xbd686f70	-0.0567469
7	0xbdc237cf	-0.09483301
8	0x3d9f5c8f	0.07781326
9	0xbdaa42f1	-0.08313549
10	0x3e31ce23	0.17363791
11	0x3eae26f1	0.34014085
12	0xbb828bbc	-0.003983943
13	0x3c1e3789	0.009656795
14	0xbdb3b87c	-0.08775422
15	0xbd7b169d	-0.061300863
16	0x3d2bb91a	0.041924573
17	0x3ca5076f	0.020145146
18	0xbdd52b4e	-0.1040865
19	0x3e8ba007	0.2727053
20	0x3e166bcb	0.14689557
21	0x3e71a348	0.23597443
22	0xbd41e5f3	-0.047338437
23	0xbe1ff878	-0.15622127
24	0xbd0b8090	-0.034058154
25	0x3e397d2e	0.18114159
26	0x3da77292	0.081761494
27	0xbda966bc	-0.08271548
28	0xbe1d16b5	-0.15340693
29	0x399a5b88	0.00029441365
30	0xbe877adf	-0.2646093
31	0xbe204eb7	-0.15655027
32	0xbd7d2613	-0.06180389
33	0x3e9842e2	0.29738528
34	0x3e90d891	0.28290227
35	0xbbd31d69	-0.006442715
36	0x3e0377c2	0.12838653
37	0x3d733372	0.059375234
38	0x3d571179	0.052506898
39	0xbd873b26	-0.066030785
40	0x3e27a674	0.1637209
41	0xbe6785c9	-0.22609629
42	0x3e0c50c2	0.13702682
43	0x3ea824b0	0.3284049
44	0xbea53485	-0.32266632
45	0x3db51a0a	0.08842857
46	0x3e1d78a1	0.15378048
47	0x3ded2fbf	0.115813725
48	0x3def6e84	0.11691001
49	0x3db2a620	0.08723092
50	0xbcffb612	-0.031214748
51	0x3cfbbb8f	0.030729083
52	0x3d941012	0.07229628
53	0xbe07ccc2	-0.13261703
54	0x3ed5db1c	0.4176873
55	0x3dbd352b	0.092386566
56	0x3e021acc	0.12705535
57	0xbbce49fe	-0.0062954416
58	0x3d74593f	0.059655424
59	0x3dadf6c9	0.08494336
60	0x3ea49a78	0.321491
61	0x3edb6926	0.4285366
62	0x3edd4a81	0.43220904
63	0xbca35b55	-0.019941011
64	0x3f166a20	0.58755684
65	0x3bc88214	0.006119022
66	0x3efb1fba	0.49047643
67	0x3d0c6e9b	0.03428517
68	0x3da01543	0.07816555
69	0xbca211b1	-0.019783827
70	0xbceebfa2	-0.029144112
71	0x3ebdacdb	0.3704594
72	0xbdf3d15c	-0.119051665
73	0x3e33763e	0.17525575
74	0xbcf44aa0	-0.02982074
75	0x3ec22ae7	0.37923357
76	0x3edf364c	0.43596113
77	0x3d28fa6e	0.041254453
78	0xbca4b969	-0.020107942
79	0xbe463094	-0.19354469
80	0x3e53d18f	0.20685409
81	0x3e820c6b	0.254001
82	0xbd0d3288	-0.03447202
83	0x3e084cb4	0.1331051
84	0x3e4250de	0.18976161
85	0x3d970d3e	0.073755726
86	0x3f0ab85c	0.5418756
87	0x3d82f04f	0.063934915
88	0x3eb7ef51	0.3592477
89	0xbc3fa6f8	-0.011697523
90	0x3d54056b	0.05176298
91	0x3edda00b	0.43286166
92	0x3e2008ed	0.15628405
93	0x3e319bec	0.17344636
94	0x3ea892af	0.3292441
95	0xbdd5d371	-0.1044072
96	0x3ed9a3b1	0.425077
97	0x3efb2cfd	0.4905776
98	0xbd1a24e6	-0.037632845
99	0xbab4d0ca	-0.0013795134
100	0xbd8d3ce1	-0.06896377
101	0x3ec21fb3	0.3791481
102	0x3d830c22	0.063987985
103	0x3b47b520	0.003047295
104	0xbd54cc1d	-0.05195247
105	0xbdc50d30	-0.09621656
106	0x3c29bc10	0.010359779
107	0x3e321516	0.17390856
108	0xbc9e74f4	-0.019342877
109	0x3e55e2ae	0.20887253
110	0x3db40e92	0.087918416
111	0xbd84dff1	-0.06488026
112	0xbd54161d	-0.0517789
113	0x3d9ab726	0.07554464
114	0x3e72e73a	0.23721018
115	0xbde2fe14	-0.11083618
116	0x3c37f2c8	0.011227317
117	0xbcbdebf3	-0.023183798
118	0xbdc4181d	-0.09574912
119	0xbca49915	-0.020092526
120	0x3eac66ab	0.3367208
121	0xbe109700	-0.14120102
122	0x3e074d97	0.13213192
123	0xbc061e81	-0.008185984
124	0x3ed6c55b	0.41947445
125	0xbdbbbe43	-0.09167149
126	0xbd8ed832	-0.0697483
127	0x3ea38932	0.3194061

read_encoder.block2.1.weight f4 [128]
0	0x3f136a29	0.5758386
1	0x3f12029d	0.5703524
2	0x3f843d4d	1.0331208
3	0x3f456012	0.77099717
4	0x3f3c231f	0.7349109
5	0x3fab14ff	1.3365782
6	0x3f9a590c	1.2058425
7	0x3f9165be	1.1359174
8	0x3f8dbfad	1.107412
9	0x3f8c0485	1.0938879
10	0x3f3f0d37	0.7462954
11	0x3f6dd954	0.9290974
12	0x3f72720a	0.9470526
13	0x3f88ed80	1.0697479
14	0x3fa0a8d8	1.2551527
15	0x3fc74257	1.556712
16	0x3f8e3ac9	1.111169
17	0x3f764098	0.9619231
18	0x3f8221cf	1.0166568
19	0x3f4947bf	0.786251
20	0x3f11a985	0.5689929
21	0x3f594381	0.8486863
22	0x3f8da6ae	1.1066492
23	0x3fab2ecb	1.3373655
24	0x3fa87a2d	1.3162285
25	0x3f280bbc	0.65642905
26	0x3f6ee395	0.9331601
27	0x3f5639f6	0.8368219
28	0x3fa0cd6e	1.2562692
29	0x3f998ba5	1.1995741
30	0x3fa8c9a0	1.3186531
31	0x3f88e9b3	1.0696319
32	0x3fa4135d	1.2818409
33	0x3f19546c	0.5989444
34	0x3f4e3655	0.80551654
35	0x3f993cd0	1.1971684
36	0x3f934b53	1.1507362
37	0x3f85076a	1.0392888
38	0x3f4ea31a	0.80717623
39	0x3f92ff19	1.14841
40	0x3f37d179	0.71804005
41	0x3faca23c	1.348701
42	0x3f7c9d36	0.98677385
43	0x3f1b7e9d	0.6074007
44	0x3fb3b941	1.404091
45	0x3f8e0fb5	1.1098543
46	0x3f54583b	0.8294713
47	0x3f805090	1.0024586
48	0x3f89117f	1.0708464
49	0x3f64f3f1	0.89434725
50	0x3f9589dc	1.1682696
51	0x3f63301d	0.8874529
52	0x3f96c1c5	1.1777884
53	0x3fd7feb1	1.6874601
54	0x3f6fecef	0.93720907
55	0x3f6739c1	0.903225
56	0x3f71b66e	0.9441899
57	0x3fa6ddf9	1.3036491
58	0x3f74e2ba	0.9565846
59	0x3f3ede34	0.74557805
60	0x3f3962d7	0.7241644
61	0x3f0ac439	0.5420566
62	0x3f3590ef	0.70924276
63	0x3f8bc3c4	1.0919118
64	0x3f176355	0.59135944
65	0x3f82029d	1.0157048
66	0x3f19a240	0.600132
67	0x3f7dfd47	0.99214596
68	0x3f584518	0.8448043
69	0x3f8b14ed	1.0865761
70	0x3f8120ed	1.0088173
71	0x3f0cc2f9	0.54985005
72	0x3fd541d3	1.6660713
73	0x3f48764c	0.78305507
74	0x3f7971b0	0.974391
75	0x3f201bcb	0.6254241
76	0x3f2258d3	0.63416785
77	0x3f42cda0	0.7609501
78	0x3f978943	1.1838764
79	0x3f8537ae	1.0407617
80	0x3f37d1fb	0.7180478
81	0x3f795bf8	0.9740596
82	0x3f91fe04	1.1405644
83	0x3f54fec4	0.8320124
84	0x3f1fd935	0.62440807
85	0x3f3e8bea	0.7443224
86	0x3f22d5df	0.6360759
87	0x3f86bd8f	1.0526599
88	0x3ede91c8	0.43470597
89	0x3f890aa9	1.0706378
90	0x3f8730d3	1.0561775
91	0x3f3569b3	0.7086441
92	0x3f7df660	0.99204063
93	0x3f6526cc	0.89512324
94	0x3f3b3654	0.73129773
95	0x3f9e02b9	1.2344581
96	0x3f24bbc2	0.64348996
97	0x3f3a8366	0.7285675
98	0x3faa311c	1.3296237
99	0x3f8eccd3	1.1156257
100	0x3f7251e5	0.9465621
101	0x3f2d4d2d	0.67695886
102	0x3f57d7d6	0.84313715
103	0x3f866011	1.0498067
104	0x3f962c7c	1.1732326
105	0x3f9e4a7a	1.2366478
106	0x3f85275c	1.0402637
107	0x3f1ab188	0.6042714
108	0x3f5b28f7	0.8560938
109	0x3f33d198	0.7024169
110	0x3f9abcb3	1.2088836
111	0x3fa91149	1.32084
112	0x3f96fd13	1.1795982
113	0x3f68e8de	0.9098033
114	0x3f770ca8	0.96503687
115	0x3fa1d8d3	1.2644295
116	0x3f4150e8	0.7551408
117	0x3f54ebd9	0.83172375
118	0x3fa72bd0	1.3060246
119	0x3f75e9bb	0.9605977
120	0x3f3dfd0d	0.7421425
121	0x3f9dd748	1.2331324
122	0x3f5bfb3c	0.8593023
123	0x3f980672	1.1876967
124	0x3f43f2eb	0.7654254
125	0x3f859412	1.0435812
126	0x3f6cd464	0.9251158
127	0x3f32c706	0.69834936

read_encoder.block2.1.bias f4 [128]
0	0xbf0913c5	-0.5354579
1	0xbecfc0cb	-0.40576777
2	0xbe5fc742	-0.21853355
3	0xbeea2365	-0.4573013
4	0xbe9f5b9a	-0.31124574
5	0xbe82d9fa	-0.25556928
6	0xbe5d0eea	-0.2158772
7	0xbec13d56	-0.37742108
8	0xbe523215	-0.20526917
9	0xbea26f0b	-0.31725344
10	0xbe972188	-0.2951777
11	0xbebb0a60	-0.36531353
12	0xbefac8c2	-0.4898129
13	0xbe6ddabe	-0.23227975
14	0xbe870caf	-0.26376864
15	0xbea9646f	-0.33084437
16	0xbe9c92bf	-0.30580708
17	0xbe879337	-0.26479504
18	0xbe915d25	-0.28391376
19	0xbedcfeea	-0.43163234
20	0xbe9441b0	-0.28956366
21	0xbee75d5e	-0.4518842
22	0xbed07964	-0.40717614
23	0xbe95f903	-0.29291543
24	0xbeb20f80	-0.3477745
25	0xbe987399	-0.29775694
26	0xbee6198d	-0.4494137
27	0xbe945ba1	-0.28976157
28	0xbeadc6cf	-0.3394074
29	0xbeaa1abb	-0.3322352
30	0xbe864b1a	-0.26229173
31	0xbea540d6	-0.32276028
32	0xbea11a2b	-0.31465277
33	0xbec2429a	-0.37941438
34	0xbe99c5eb	-0.30033812
35	0xbe9ae48d	-0.30252495
36	0xbeaaff57	-0.33397934
37	0xbeebb551	-0.4603677
38	0xbef93d4c	-0.48679578
39	0xbe544ab9	-0.2073163
40	0xbe6deaae	-0.23234054
41	0xbe9a2758	-0.30108142
42	0xbe94a591	-0.29032567
43	0xbecd7559	-0.40128592
44	0xbec8ffd3	-0.39257678
45	0xbe22d5a9	-0.15901817
46	0xbeb6446c	-0.35599077
47	0xbea01823	-0.31268415
48	0xbf19db5b	-0.60100335
49	0xbe511ad5	-0.20420392
50	0xbe9e3933	-0.30903015
51	0xbe6d8f3f	-0.23199175
52	0xbea4382e	-0.32074112
53	0xbec22206	-0.37916583
54	0xbeb03313	-0.34413967
55	0xbeafc9c2	-0.34333616
56	0xbeef7034	-0.46765292
57	0xbea3fd7c	-0.3202933
58	0xbe7a6b1a	-0.24454919
59	0xbe97f76a	-0.2968095
60	0xbe4c1ed2	-0.19933632
61	0xbed81912	-0.42206627
62	0xbe3ccfa3	-0.18438582
63	0xbe3dee84	-0.18548018
64	0xbece61e5	-0.40309063
65	0xbe7259f1	-0.23667122
66	0xbf0ceb6b	-0.5504672
67	0xbe5f2a5d	-0.21793504
68	0xbec2b287	-0.3802683
69	0xbea006e4	-0.31255257
70	0xbe9223e1	-0.28542998
71	0xbebaf61c	-0.36515892
72	0xbea0d380	-0.31411362
73	0xbebbd172	-0.36683232
74	0xbea13aec	-0.31490266
75	0xbedf5edc	-0.4362706
76	0xbeca940a	-0.3956607
77	0xbe7a1518	-0.24422109
78	0xbed9882e	-0.4248671
79	0xbeb1ee0c	-0.34751928
80	0xbedef789	-0.4354823
81	0xbea8c8e7	-0.32965776
82	0xbe568253	-0.20948152
83	0xbe83da12	-0.25752312
84	0xbf15037f	-0.5820846
85	0xbe79b44c	-0.24385184
86	0xbec4d025	-0.38440052
87	0xbebd9a82	-0.37031943
88	0xbee3d0b9	-0.4449518
89	0xbebb46aa	-0.3657735
90	0xbe91b4dd	-0.284583
91	0xbe9b0b08	-0.30281854
92	0xbebbdc72	-0.36691624
93	0xbed3c2d4	-0.4135958
94	0xbed9d3c5	-0.4254438
95	0xbe1b58e3	-0.15170626
96	0xbeb9c2a8	-0.36281323
97	0xbeb6a10c	-0.35669744
98	0xbec5e1e8	-0.38648915
99	0xbe929dae	-0.28635925
100	0xbea5729e	-0.32314008
101	0xbe8c160b	-0.27360567
102	0xbee58c31	-0.4483352
103	0xbe38cfa3	-0.18047957
104	0xbe99e9f2	-0.300613
105	0xbe219def	-0.15782903
106	0xbec770ff	-0.38953397
107	0xbedc3b63	-0.43014058
108	0xbf08878f	-0.53331846
109	0xbee1c10f	-0.44092605
110	0xbed29e24	-0.41136277
111	0xbe85b21b	-0.26112446
112	0xbeafa653	-0.34306583
113	0xbf122c54	-0.5709889
114	0xbeed7a8d	-0.4638256
115	0xbdc9f974	-0.098620325
116	0xbeeda5d2	-0.46415573
117	0xbe821c27	-0.25412104
118	0xbed3fd48	-0.41404176
119	0xbe9cf224	-0.3065349
120	0xbe9a5b24	-0.3014766
121	0xbe6cc030	-0.23120189
122	0xbe67ee3e	-0.22649476
123	0xbe5ae480	-0.21376228
124	0xbec84315	-0.3911368
125	0xbe77b9f2	-0.24192026
126	0xbea6e3f3	-0.32595786
127	0xbeaed169	-0.34144142

read_encoder.block3.0.weight f4 [128, 128]
0	0xbea7d0db	-0.32776532
1	0x3d99b033	0.075043105
2	0x3e303dae	0.17211029
3	0x3d815727	0.06315451
4	0x3dda2b03	0.10652735
5	0xbd3fd886	-0.046837352
6	0x3c96ab9e	0.01839238
7	0x3c4d2f2e	0.012523456
8	0xbe55d13c	-0.20880598
9	0x3daa486f	0.08314597
10	0xbd12954f	-0.035786923
11	0xbcb8b7e4	-0.022548623
12	0x3db5b236	0.08871882
13	0xbe26c747	-0.16286956
14	0xbd3b4edd	-0.045729507
15	0xbd9c5a78	-0.07634443
16	0xbe2c0cb6	-0.16801724
17	0xbd61865d	-0.05505978
18	0x3a118aae	0.0005551976
19	0x3e8978dd	0.26850024
20	0x3bdd8c36	0.006761099
21	0x3e1ebf4f	0.15502666
22	0xbc6bd462	-0.014393898
23	0xbdf65e58	-0.120297134
24	0x3e0486b5	0.12942012
25	0xbe2203b2	-0.15821722
26	0x3e5033c8	0.20332253
27	0xbd8070e6	-0.06271534
28	0x3d3e3738	0.04643938
29	0xbdb4b6cb	-0.088239275
30	0xbe2662d6	-0.1624864
31	0xbddbf3e8	-0.10739881
32	0x3d9117a9	0.07084591
33	0x3e00f357	0.12592827
34	0x3d65802f	0.05603045
35	0x3b02688e	0.0019898745
36	0xbe2a868b	-0.16652887
37	0x3ca9c4a5	0.02072365
38	0x3cbd55fb	0.023112288
39	0x3d7cd996	0.061730944
40	0x3d542e32	0.051801868
41	0xbe33f261	-0.17572929
42	0xbd020153	-0.031739544
43	0x3dbf4cd3	0.09340825
44	0x3ee81753	0.45330295
45	0xbe6c5c27	-0.23082028
46	0xbdc97cb5	-0.09838239
47	0xbe32598e	-0.17416975
48	0xbdd7a1a4	-0.105288774
49	0xbddbc48f	-0.1073085
50	0x3d672e1f	0.05644047
51	0xbd9e48e2	-0.07728745
52	0xbdc41a96	-0.09575383
53	0x3e026a19	0.12735786
54	0x3e1071b6	0.14105877
55	0xbc5e12a4	-0.013554249
56	0xbce5bef5	-0.028045157
57	0xbe9054da	-0.28189737
58	0xbc848b6f	-0.016179768
59	0xbe73f758	-0.23824823
60	0xbd23e6ac	-0.040014908
61	0xbc825426	-0.015909266
62	0x3e339e59	0.17540874
63	0xbe3f3d98	-0.1867584
64	0xbd00bed0	-0.031431973
65	0xbaedb1aa	-0.0018134613
66	0x3d85e5c9	0.06537969
67	0xbe10873d	-0.1411409
68	0x3e958c24	0.2920848
69	0x3e27de7d	0.16393466
70	0xbbae4487	-0.0053182277
71	0x3a26fc89	0.0006370028
72	0x3e3129a7	0.17301045
73	0x3e1b8a4e	0.15189478
74	0xbe9e9455	-0.30972543
75	0x3d05a869	0.03263131
76	0x3d61a8df	0.05509269
77	0xbcd383fa	-0.025819767
78	0x3d06f333	0.032946777
79	0xbeddd4ae	-0.43326324
80	0x3d492483	0.049107086
81	0x3d2e80d3	0.042603325
82	0xbf14d611	-0.5813914
83	0xbde7cb0d	-0.11318026
84	0xbe048ed5	-0.12945111
85	0xbbe2786b	-0.0069113276
86	0x3e068b00	0.13138962
87	0xbd41a9be	-0.04728102
88	0x3dea08f7	0.11427491
89	0xbd9b471e	-0.07581924
90	0xbea4abe4	-0.32162392
91	0xbd980ddc	-0.074245185
92	0xbd80de9a	-0.06292458
93	0xbbd290a9	-0.0064259362
94	0x3e4cf4ec	0.20015305
95	0xbdb2c7d8	-0.087295234
96	0x3e13dc33	0.14439468
97	0x3da49354	0.08035913
98	0xbe5dc0cc	-0.21655577
99	0xbdbb0bac	-0.091330856
100	0xbe86e798	-0.26348567
101	0x3c4bf363	0.012448165
102	0xbe392b05	-0.18082817
103	0xbe37d15d	-0.1795096
104	0xbd2fd88f	-0.042931136
105	0xbec40520	-0.3828516
106	0x3da9f015	0.08297745
107	0x3dde8821	0.10865808
108	0xbccf24f8	-0.025286183
109	0x3df04b4f	0.11733114
110	0xbea931bf	-0.33045766
111	0x3e90812b	0.28223547
112	0x3c66e025	0.014091526
113	0xbe43e246	-0.19129285
114	0xbe90534f	-0.2818856
115	0x3dee695b	0.11641189
116	0x3d645c38	0.05575201
117	0xbc483b0a	-0.012221107
118	0xbe5eb7e1	-0.21749832
119	0xb9d2c81d	-0.00040203417
120	0x3e1cc51f	0.1530957
121	0xbcf78210	-0.030213386
122	0xbe0d6f1a	-0.13811913
123	0xbbb45699	-0.0055034873
124	0x3d95938f	0.07303535
125	0xbc84d207	-0.01621343
126	0xbe0c8eae	-0.13726303
127	0x3def5ea0	0.1168797
128	0x3de15b07	0.1100369
129	0xbd58e30b	-0.0529509
130	0xbd898baf	-0.06716096
131	0xbe4cf5d6	-0.20015654
132	0x3e238b43	0.15971093
133	0x3e934659	0.28764609
134	0xbec10c27	-0.37704584
135	0x3d600e6b	0.05470125
136	0xbdd89393	-0.105750225
137	0x3e1afcf1	0.15135552
138	0x3c129c4e	0.008948399
139	0x3d81dfb7	0.06341498
140	0x3e832f61	0.25622085
141	0x3e185ced	0.14879198
142	0x3eacdf87	0.33764288
143	0xbeca5786	-0.395199
144	0x3ddc6ac5	0.10762552
145	0x3d213c49	0.039364133
146	0xbcda4bab	-0.02664741
147	0x3ceb26a1	0.028704943
148	0xbc195cc1	-0.009360493
149	0x3de819dc	0.11333057
150	0xbe851864	-0.2599517
151	0x3e62904e	0.2212536
152	0xbc9a9cbf	-0.01887357
153	0x3df4ae44	0.11947301
154	0x3e2e01d6	0.16992888
155	0x3b77bc12	0.0037801308
156	0xbda415c4	-0.08011964
157	0x3e937011	0.28796437
158	0xbc30cf84	-0.010791663
159	0xbd09fbcc	-0.033687398
160	0xbd7f56e3	-0.06233872
161	0x3d95cb3b	0.07314154
162	0x3d19d7aa	0.03755919
163	0xbd058cd8	-0.032605022
164	0x3da63f15	0.08117501
165	0x3e88354e	0.26603168
166	0x3d2bd35d	0.04194962
167	0xbe7b081c	-0.24514812
168	0x3c840514	0.016115703
169	0x3eae0fb5	0.3399636
170	0x3e7b7ba8	0.2455889
171	0x3d8d3c0d	0.068962194
172	0x3ec2bfbb	0.38036904
173	0xbceba30a	-0.028764267
174	0xbcc555c1	-0.024088742
175	0x3dde9580	0.108683586
176	0xbe51389d	-0.20431753
177	0xbd6ad3e0	-0.057330966
178	0xbe577ee7	-0.21044503
179	0x3dac5df1	0.084163554
180	0xbdf4b04b	-0.11947688
181	0xbedcf555	-0.43155923
182	0x3d3beb6b	0.04587881
183	0x3e4bff8f	0.19921707
184	0x3d39878e	0.04529529
185	0xbe748e6c	-0.23882455
186	0x3e3d5e0f	0.18492912
187	0x3dcab6e1	0.09898163
188	0xbc0735d9	-0.008252584
189	0x3de65375	0.11246387
190	0x3e05a4c4	0.13051134
191	0xbb7dcab6	-0.0038725561
192	0x3cfe9f7c	0.031081907
193	0x3d3b96ab	0.045797985
194	0x3d21bdc3	0.03948761
195	0xbe40d1f2	-0.18830088
196	0x3d86ea8a	0.065877035
197	0x3d96a284	0.07355216
198	0x3e4c4b9b	0.19950716
199	0x3e043fc7	0.12914954
200	0xbe9eb5ab	-0.30997977
201	0xbdd6b744	-0.10484174
202	0x3e29a13a	0.1656541
203	0xbd13b97a	-0.036065556
204	0x3dc4aeb6	0.09603636
205	0x3e0e386a	0.13888708
206	0x3e516020	0.20446825
207	0x3cebf0b6	0.028801303
208	0x3c3f1300	0.011662245
209	0x3de303f0	0.110847354
210	0xbd8e4de9	-0.06948454
211	0xbd9ef67e	-0.077618584
212	0x3dbd6c39	0.092491575
213	0x3da42d4c	0.08016452
214	0x3dcbdff5	0.09954826
215	0x3c3ba049	0.011451789
216	0x3e1aaf6b	0.15105979
217	0x3dfe046a	0.12403186
218	0xbd56ef5e	-0.052474372
219	0x3dd3605f	0.10321116
220	0x3d2f1d51	0.042752568
221	0x3dc2a1c7	0.09503513
222	0xbc23996a	-0.009985307
223	0xbed47eee	-0.4150309
224	0x3e8f57f3	0.27996787
225	0x3df4d30a	0.11954315
226	0xbcbde0db	-0.023178509
227	0x3d802ff7	0.062591486
228	0x3d5a6b00	0.0533247
229	0xbc609082	-0.013706328
230	0xbdb12c1e	-0.08650993
231	0x3d1ad55c	0.03780113
232	0x3ea7a237	0.32740948
233	0x3e316f9f	0.17327736
234	0x3e1dac2e	0.15397713
235	0xbc5f7618	-0.013638996
236	0x3dcbf129	0.09958107
237	0x3e17e725	0.14834268
238	0x3d950af1	0.072774775
239	0x3e80f554	0.2518717
240	0x3d2216dd	0.039572585
241	0x3e2985d6	0.1655496
242	0xbc4152fc	-0.01179957
243	0xbd551a73	-0.052027177
244	0x3db62483	0.08893683
245	0x3dbea995	0.09309689
246	0xbe4dfa57	-0.20115028
247	0xbc112cf0	-0.008860812
248	0xbd21806a	-0.039429106
249	0xbddc1483	-0.107461
250	0xbdb60e06	-0.088893935
251	0xbe23e7c1	-0.16006376
252	0x3dd1ec77	0.1025018
253	0x3ddd95d3	0.10819592
254	0x3e5787a2	0.21047834
255	0x3d1b3467	0.03789177

read_encoder.block3.0.bias f4 [128]
0	0xbbe2abf1	-0.0069174697
1	0x3e54637a	0.20741072
2	0x3c918bcf	0.017766861
3	0xbe1b364f	-0.15157436
4	0x3e8e1d3a	0.27756673
5	0xbe0c4a03	-0.13700108
6	0x3cc62b78	0.02419065
7	0xbdda1887	-0.106492095
8	0x3e9d423b	0.30714592
9	0xbe231547	-0.15926085
10	0x3e1f2972	0.15543154
11	0x3e00438e	0.1252577
12	0x3d4da7d8	0.050208896
13	0x3e32d781	0.1746502
14	0xbcb3ad57	-0.02193324
15	0x3d8b7b68	0.06810647
16	0x3e3cfe24	0.18456322
17	0x3e5939ce	0.21213457
18	0xbe868fbf	-0.26281545
19	0xbdbb652d	-0.09150157
20	0x3e403c62	0.18773034
21	0x3e39e473	0.18153553
22	0xbd5d12fc	-0.053973183
23	0xbe4e14c1	-0.20125104
24	0x3d331e2f	0.043729957
25	0x3e263e20	0.16234636
26	0x3dce1825	0.10063199
27	0x3d8759d2	0.06608929
28	0xbda81022	-0.08206202
29	0xbdb3c2b6	-0.087773725
30	0xbe34d2a3	-0.17658477
31	0x3dd9cf9c	0.106353015
32	0x3e5c5954	0.21518451
33	0x3e417b56	0.18894705
34	0x3e2d3a3a	0.16916743
35	0xbe0d1a67	-0.13779603
36	0x3dca9aa2	0.09892775
37	0x3d9741a1	0.073855646
38	0xbd9ab72e	-0.0755447
39	0x3e02a70a	0.12759033
40	0x3de6e9d9	0.11275072
41	0xbe8253a0	-0.25454426
42	0x3e21dd78	0.1580714
43	0x3e30a771	0.17251374
44	0xbe3a112b	-0.18170612
45	0x3e1f8754	0.15578967
46	0xbe46458b	-0.19362466
47	0xbd9777c0	-0.073958874
48	0xbe200bd4	-0.15629512
49	0x3d9963c3	0.07489731
50	0x3c6bd87f	0.014394878
51	0x3e807139	0.25086382
52	0x3e464d95	0.19365533
53	0x3db4d6e2	0.08830048
54	0x3e379885	0.17929275
55	0x3e8946fa	0.26811963
56	0x3dca4e47	0.098782115
57	0xbc2c5cb9	-0.010520154
58	0x3e1f9899	0.15585555
59	0x3e5b8787	0.21438418
60	0x3e00d8cd	0.12582703
61	0x3de9c06b	0.11413654
62	0x3ceb7efa	0.02874707
63	0x3e29a78c	0.1656782
64	0x3d80afcd	0.06283531
65	0xbd73ca0a	-0.05951885
66	0x3df7dda7	0.12102824
67	0x3d9b1a60	0.0757339
68	0x3c8ad98a	0.016949434
69	0xbc722a4e	-0.014780594
70	0xbdbb0c03	-0.091331504
71	0xbd610e22	-0.05494512
72	0x3dedc583	0.11609938
73	0x3e6226cd	0.22085114
74	0xbe6a70d0	-0.22894597
75	0x3e3bd7f0	0.18344092
76	0xbdc4b40d	-0.096046545
77	0x3e111917	0.14169727
78	0xbe0e47de	-0.13894603
79	0x3df6b373	0.12045946
80	0xbe11be00	-0.14232635
81	0x3e716e56	0.23577246
82	0x3d851ad7	0.0649926
83	0x3c84c026	0.016204905
84	0xbdf366cc	-0.11884841
85	0x3e1eec41	0.15519811
86	0x3e8b5f3f	0.27221105
87	0xbd623c01	-0.055233005
88	0x3df6063a	0.120129064
89	0x3d0d3caa	0.034481682
90	0x3e7e8a27	0.24857388
91	0x3e0e8313	0.13917188
92	0xbe597efc	-0.21239847
93	0x3e220e65	0.15825804
94	0xbdb54212	-0.088504925
95	0x3d7d1777	0.061789956
96	0xbd87ae2f	-0.0662502
97	0x3e342c85	0.17595108
98	0x3e425a1b	0.18979685
99	0xbe73333f	-0.23750018
100	0xbe5377d1	-0.20651175
101	0x3e154427	0.1457678
102	0xbe7c1a1d	-0.24619336
103	0x3d06c02d	0.032898117
104	0xbe07620b	-0.13220994
105	0xbc8e52fb	-0.017373553
106	0xbd2a951d	-0.04164611
107	0x3c901ade	0.017590936
108	0xbd9dcd0d	-0.07705126
109	0x3d496d53	0.049176525
110	0x3bd9ab09	0.0066427034
111	0x3e8240bd	0.25440016
112	0xbe43ff39	-0.19140328
113	0xbdcb7b10	-0.09935582
114	0xbe0b0842	-0.13577369
115	0x3dfc9fd7	0.123351745
116	0x3d9ac3d7	0.07556885
117	0x3dff51cd	0.12466774
118	0x3d09923a	0.03358672
119	0xbe182366	-0.14857253
120	0x3da1b3f2	0.0789565
121	0xbdc8b28b	-0.09799679
122	0x3e68624c	0.22693747
123	0x3e2be896	0.16787943
124	0xbe06fb6a	-0.13181844
125	0xbe229dba	-0.1588048
126	0x3e640184	0.22266203
127	0x3d7d98aa	0.06191317

read_encoder.block3.1.weight f4 [128]
0	0x3f5c00bb	0.85938615
1	0x3f52ce43	0.8234598
2	0x3fa5e4ba	1.2960427
3	0x3f823bed	1.0174538
4	0x3f52269b	0.8209016
5	0x3f86ce51	1.0531713
6	0x3f495fea	0.7866198
7	0x3f9324b0	1.1495571
8	0x3f4637a9	0.7742868
9	0x3f88eb62	1.0696833
10	0x3f6436b3	0.89145964
11	0x3ee0ae43	0.4388295
12	0x3f4563fd	0.77105695
13	0x3f8e95fb	1.113952
14	0x3f4c78a1	0.79871565
15	0x3f801305	1.0005804
16	0x3f76b44d	0.9636887
17	0x3f6b92af	0.92020696
18	0x3faca29c	1.3487124
19	0x3f892ed0	1.0717411
20	0x3f56b0c2	0.8386346
21	0x3f5e86e9	0.86924607
22	0x3f2eba51	0.68253046
23	0x3f8f0730	1.1174068
24	0x3f604a6c	0.8761356
25	0x3f72ca68	0.948401
26	0x3f594edc	0.84885955
27	0x3f3c6440	0.7359047
28	0x3f5a4e4b	0.85275716
29	0x3f075617	0.5286574
30	0x3f938c69	1.1527225
31	0x3f16a910	0.5885172
32	0x3f3777da	0.71667254
33	0x3f5c0262	0.85941136
34	0x3f782c1f	0.96942323
35	0x3f9b598d	1.2136704
36	0x3f467a08	0.77529955
37	0x3f51a99b	0.8189942
38	0x3f7b7037	0.982181
39	0x3f70faa8	0.9413247
40	0x3f702ea6	0.9382118
41	0x3f87f2f4	1.0621018
42	0x3f815491	1.0103933
43	0x3f45577c	0.77086616
44	0x3f87b927	1.0603379
45	0x3f90fdf5	1.1327502
46	0x3f77dc78	0.96820784
47	0x3f44f030	0.76929
48	0x3f6f1092	0.9338466
49	0x3f8cf781	1.1013032
50	0x3fa3b310	1.278902
51	0x3f6dabd0	0.9284029
52	0x3f60884b	0.87707967
53	0x3f983e5e	1.1894033
54	0x3f4b02d8	0.79301214
55	0x3f5b658e	0.85701835
56	0x3f51f38d	0.82012254
57	0x3f3deeec	0.7419269
58	0x3f726950	0.94691944
59	0x3f5e11ec	0.86746097
60	0x3fa20e6f	1.2660655
61	0x3f194efb	0.5988614
62	0x3fc7a447	1.5597008
63	0x3f90b05a	1.1303818
64	0x3f46782b	0.7752711
65	0x3fc66d15	1.5502039
66	0x3ef91cfb	0.48654923
67	0x3f9f3a5b	1.2439684
68	0x3f60ef95	0.87865573
69	0x3f24b4c9	0.64338356
70	0x3f5deb8c	0.8668754
71	0x3efb425e	0.49074072
72	0x3f7c4caa	0.9855448
73	0x3f516e44	0.81808877
74	0x3fa00e4e	1.2504365
75	0x3f500649	0.8125959
76	0x3f13f7dd	0.57800084
77	0x3f892e31	1.0717221
78	0x3f7f1d41	0.9965401
79	0x3f456328	0.77104425
80	0x3f83e29b	1.030353
81	0x3f748582	0.95516217
82	0x3f544530	0.8291807
83	0x3f89eaa4	1.0774732
84	0x3f55beeb	0.8349444
85	0x3f609f28	0.87742853
86	0x3f63009b	0.886728
87	0x3f8d900a	1.1059582
88	0x3f8af256	1.0855205
89	0x3f479f81	0.7797776
90	0x3f4e1eb0	0.80515575
91	0x3f63bfea	0.8896471
92	0x3f9ac94c	1.2092681
93	0x3f45666a	0.77109396
94	0x3f3180cb	0.6933715
95	0x3f95766d	1.1676766
96	0x3ed1d890	0.40985537
97	0x3f637e94	0.8886502
98	0x3f5ec2b3	0.8701584
99	0x3f948bc5	1.1605154
100	0x3fa56c9e	1.2923772
101	0x3f61d680	0.88217926
102	0x3f0dc3ef	0.55377096
103	0x3f94459c	1.1583743
104	0x3f7d0247	0.988316
105	0x3faf3475	1.3687884
106	0x3ed8b75f	0.423274
107	0x3f74557b	0.9544293
108	0x3f26ac0d	0.6510628
109	0x3f3fcb3f	0.74919504
110	0x3f28b5dc	0.65902495
111	0x3f6a98b6	0.9163927
112	0x3f99cc40	1.2015457
113	0x3f784f53	0.9699604
114	0x3f7913b3	0.97295684
115	0x3f87611b	1.0576509
116	0x3e99aeec	0.30016267
117	0x3f8e8a82	1.1136019
118	0x3f46a1f2	0.7759086
119	0x3f8603d0	1.0469913
120	0x3f98062b	1.1876882
121	0x3fc4b505	1.5367743
122	0x3f70fea7	0.9413857
123	0x3f520ec7	0.820538
124	0x3f8b5ea3	1.0888256
125	0x3f750bb7	0.95721
126	0x3f58d4aa	0.846995
127	0x3f489e78	0.78366804

read_encoder.block3.1.bias f4 [128]
0	0xbeb1a97f	-0.34699628
1	0xbe85747e	-0.2606544
2	0xbe3bbfd8	-0.18334901
3	0xbe02208c	-0.12707728
4	0xbe3112f0	-0.1729238
5	0xbd6d6052	-0.057953186
6	0xbe4be07f	-0.19909857
7	0xbe365a2a	-0.17807832
8	0xbe30d407	-0.17268382
9	0xbe467f45	-0.19384487
10	0xbdbba8bf	-0.09163045
11	0xbf00d925	-0.50331336
12	0xbe4dd1ae	-0.20099518
13	0xbddd7ca2	-0.108147874
14	0xbea707b2	-0.3262306
15	0xbdba59f6	-0.0909919
16	0xbdbedcbd	-0.09319446
17	0xbd8f7ca3	-0.070061944
18	0xbd3dfab3	-0.046381664
19	0xbeaed7ff	-0.34149167
20	0xbe1b9caf	-0.15196489
21	0xbd95f561	-0.07322193
22	0xbec39ae8	-0.38204122
23	0xbe5210a1	-0.20514156
24	0xbdf6bacd	-0.12047348
25	0xbdb6271f	-0.088941805
26	0xbe3f9504	-0.18709189
27	0xbe88d79e	-0.26727003
28	0xbe66a559	-0.22524013
29	0xbe99f522	-0.30069834
30	0xbe1040ac	-0.1408717
31	0xbeb871bd	-0.36024275
32	0xbe433134	-0.19061738
33	0xbe33c321	-0.17554905
34	0xbe117b6e	-0.14207241
35	0xbe0c8c79	-0.13725461
36	0xbe08203c	-0.13293546
37	0xbe4e985b	-0.20175306
38	0xbeade983	-0.33967218
39	0xbd9b8afd	-0.07594869
40	0xbdaf1565	-0.085490026
41	0xbc15ffcc	-0.009155225
42	0xbdc61dc8	-0.09673649
43	0xbec62282	-0.38698202
44	0xbd955250	-0.072910905
45	0xbdd9eeab	-0.106412254
46	0xbe889d7c	-0.2668265
47	0xbee10a76	-0.43953294
48	0xbec9a617	-0.3938453
49	0xbddc49b3	-0.107562445
50	0xbe4a951d	-0.19783445
51	0xbe17fca0	-0.14842463
52	0xbde1ed2e	-0.110315666
53	0xbe86b6d5	-0.26311365
54	0xbe0fac26	-0.14030513
55	0xbe0cf715	-0.1376613
56	0xbe32ade7	-0.17449151
57	0xbea57887	-0.32318518
58	0xbd9dbaed	-0.07701669
59	0xbdac3966	-0.084093854
60	0xbe1f1baa	-0.15537897
61	0xbed26b22	-0.4109736
62	0xbe98425e	-0.29738134
63	0xbe03f0c8	-0.1288482
64	0xbe8def85	-0.277218
65	0xbe82a51d	-0.25516596
66	0xbecb6f65	-0.39733425
67	0xbe2e3645	-0.1701289
68	0xbe400995	-0.18753655
69	0xbe7a077c	-0.24416918
70	0xbe93a021	-0.28833106
71	0xbf00eac9	-0.50358254
72	0xbdc4a2db	-0.09601375
73	0xbe012a53	-0.12613802
74	0x3d64a503	0.05582143
75	0xbe2ec2ff	-0.17066573
76	0xbf0ea4e9	-0.5572038
77	0xbd817d9d	-0.06322787
78	0xbec0b70e	-0.3763966
79	0xbe4b2d28	-0.19841444
80	0xbe62a319	-0.2213253
81	0xbda818a2	-0.08207823
82	0xbe8f3ab9	-0.2797449
83	0xbdbfc381	-0.09363461
84	0xbebb4a7f	-0.36580274
85	0xbd750fe3	-0.059829604
86	0xbe2daf10	-0.16961312
87	0xbe98754e	-0.29776996
88	0xbe05aff0	-0.13055396
89	0xbe9d9191	-0.3077512
90	0xbdd2ff36	-0.10302584
91	0xbdbe3943	-0.092882656
92	0xbe61284d	-0.2198803
93	0xbe60f16c	-0.21967095
94	0xbf129bc3	-0.57268924
95	0xbdf0b4c4	-0.11753228
96	0xbed51855	-0.41620126
97	0xbe389e39	-0.18029107
98	0xbde59e83	-0.11211874
99	0x3cc7d9e2	0.024395887
100	0xbe441a61	-0.19150688
101	0xbdb2db16	-0.087331936
102	0xbe9e60ad	-0.30933133
103	0xbde254a4	-0.110513
104	0xbe0b62d7	-0.13611923
105	0xbe5c3be4	-0.21507221
106	0xbf1b5c4c	-0.6068771
107	0xbe75b2b6	-0.23993954
108	0xbeb04e79	-0.3443487
109	0xbe61efcf	-0.22064136
110	0xbf0888af	-0.5333356
111	0xbdcdd2ab	-0.10049947
112	0xbeb469c1	-0.35236934
113	0xbe6f7709	-0.23385252
114	0xbea84749	-0.32866886
115	0xbdc722fd	-0.0972347
116	0xbf33276f	-0.69982046
117	0xbddfb92a	-0.10923989
118	0xbe6602a0	-0.22461939
119	0xbe78516a	-0.24249807
120	0xbe8c49f8	-0.27400184
121	0xbea1a040	-0.31567574
122	0xbd949d3d	-0.07256553
123	0xbddc8182	-0.10766889
124	0xbe7b5bea	-0.24546781
125	0xbe37e4f0	-0.17958426
126	0xbde6e13b	-0.11273428
127	0xbe4a30e7	-0.19745217
