m6aReplica/3d_66_with_delta/Models/epoch7_rocauc0.884_valpr0.370_valscore1.254.pth (torch, 155273 bytes, 13 tensors)

read_encoder.block1.0.weight f4 [128, 24]
00000000: e732 463e 1f37 bc3e b292 60bd 9a5f b83e
00000010: e261 8c3e 3497 013d fdd2 b8bd 56c7 d33e
00000020: 5b34 473e f53f c73e 9d4d fabe 78db b43e
00000030: 5f96 0abe adc9 c83c 3dca 423e 827d 13bd
00000040: df57 723d 23ef 1a3d 3d27 77bd c9c9 ffba
00000050: 5d25 713c bf16 f7bc eb8d d1bd 0862 953c
00000060: 9083 afba 6e40 b5bd a715 f8bc 9a65 9a3d
00000070: a358 b13d 5482 24be a3f4 cc3e ff8b c5bd
00000080: 14cb 703e e363 3e3e 3c81 24be 70ff 923e
00000090: 0847 fd39 0d0b 9b3e 7976 de3d cae5 0e3e
000000a0: f879 723e 224b dc3d f985 2dbc ab9b e13d
000000b0: a55b 6c3e 054d 87bd a45c d23e a271 e33d
000000c0: a329 693e 2c5e 53bc 2657 50be 2c11 c63d
000000d0: 13b9 0bbd 603d 2d3e 2216 273e 4f53 5c3e
000000e0: 99c2 c43d 705c 723e 170f 5fbe 57e6 28bd
000000f0: 9408 82bd 73b0 aabd 3e07 243e 74b0 dfbb
00000100: b867 1f3e 6af4 98bd 0ee8 0b3d e391 1fbe
00000110: 0523 9ebe 556f f6bd b1d0 9c3e e370 bd3c
00000120: b6d9 e13e b938 81be 9761 f4bd ba65 5c3e
00000130: 4cb0 29be e3f3 273e c761 603e 1af5 403e
00000140: 5533 13bd 87d9 183e db8f 18bf 631e af3c
00000150: 7957 853e 1bae 42be 1e6e 243c be50 b0bd
00000160: 7795 a0bd 875f 513e de6a 99bd c6a0 0b3d
00000170: 6e77 953e 1129 403e fc1b 2ebe b472 31be
00000180: b1a0 bc3e 8f0c 2abe 5cd7 41bd 88a3 043e
00000190: 3c52 81be b721 933d ac4d 5a3e d286 99be
000001a0: 52f4 823d 6d23 9e3e fb1b 1fbf 90a1 06be
000001b0: 4e5e 0abe acae 3dbe d923 9f3e 8f82 173e
000001c0: 7f14 113e c9a2 f0bd fcbf 95bd b8bc df3d
000001d0: 1074 28be a6d7 45be 53af 1bbe f469 7fbe
000001e0: 2949 763c deed a5be 82bf 8c3c 0ded adbe
000001f0: 16db debe 42a6 bbbd 3f63 96bd 473f c1be
00000200: b62a 4f3e c03d 85bf cdc0 823f 24c9 33be
00000210: 76a6 2f3e 5a0d bd3d 28c6 90bd 15db 0b3d
00000220: 0f24 50be 5958 eebe 2b78 5dbd 75b0 c43d
00000230: 914c e0bc 81aa 00be de7b 0b3e f955 afbd
00000240: 0dd9 6a3e 134f 303e 4b9a 043e 6422 043f
00000250: fdb2 e53e abb2 06be fec2 c23d 1740 2c3e
00000260: 30e7 003d 480f ac3d 7158 64bf e313 9b3d
00000270: c2ae e8bd 552d c43d 9c83 083e c888 973d
00000280: f18b ac3e 831d 103a 0ca7 593d 0763 bbbd
00000290: b094 08be 05cc 13be beae c2bd 0d71 6c3e
000002a0: 9c41 8c3e 371f 34be 003c b539 e0f2 023e
000002b0: 0c8a cebd 2e56 a03c d3f9 cabb d086 4dbe
000002c0: 890e c3bd ba50 9dbe 17ca c33d b890 26bf
000002d0: 435f b43e 14ac f8be 2a8b 92bd 1a06 05be
000002e0: 963b 883e 6ed0 823e b744 183e 3d01 09bb
000002f0: faa5 363c 236f 873d 5fa6 e53d 99f3 00be
00000300: e2f1 193d dcd0 b93e f6cd d03c 017c b0bd
00000310: feec 8b3e 16d0 fe3c 83e2 fabd 6df2 dd3e
00000320: 0129 2fbe 14c0 443e 29a6 a7be e1f8 8b3e
00000330: 9f39 b1bc 9ca7 f2bd 0ba7 73be 1af3 5d3c
00000340: 7c1e ebbd 5e16 103d 33d2 abbd 8709 a63e
00000350: ddde 13be 1f7b 92bd e81e c2be 9895 463e
00000360: 7284 e6bc 23ab 3cbe 2571 843d dc95 7cbe
00000370: 41cc d4be 7447 003e e0da c9bd 2c4a 96be
00000380: 7615 76be dcc3 b8be 3216 6e3f 4717 99be
00000390: 6255 183e 4389 8dbe f561 43be 2436 0d3e
000003a0: 0bc0 8a3d 71bf 333e 852f 2f3d ca18 743d
000003b0: f352 6e3d 81e2 4fbd 6f12 1ebd 72e5 c8bd
000003c0: 3190 1f3e b84c bf3d 739d 9f3c 0142 99bd
000003d0: ec62 8d3e 91f8 78bd 208c f4bd b702 c73e
000003e0: f6f5 97bc 1f8c 0b3e f345 36be 9d9b 553e
000003f0: 8949 43be bcaa 623e 150b 84be ccfb 48be
0.19355355 0.36760804 -0.0548274 0.36010438 0.2741843 0.03163834 -0.09024618 0.4136302
0.19453566 0.38915983 -0.4888734 0.3532369 -0.13533925 0.024510229 0.1902246 -0.036008365
0.05916583 0.037825715 -0.060340155 -0.0019515093 0.014718381 -0.030162213 -0.10232147 0.018235222
-0.0013390649 -0.088501796 -0.030283762 0.0753891 0.08659484 -0.16065341 0.40030393 -0.09645843
0.23514968 0.18592791 -0.16064924 0.28710508 0.00048308843 0.3028187 0.108624406 0.13954845
0.2367934 0.10756518 -0.010591024 0.110160194 0.23081835 -0.06606487 0.41086304 0.11105658
0.2276979 -0.01290087 -0.20345744 0.09671244 -0.034112047 0.16917944 0.16317037 0.21516155
0.09607429 0.23668075 -0.217831 -0.041235294 -0.063492924 -0.08334436 0.16018388 -0.006826455
0.1556691 -0.07468493 0.03415685 -0.15582995 -0.30886093 -0.12032954 0.3062797 0.023125118
0.44111413 -0.25238588 -0.11932676 0.2152318 -0.16571158 0.16401629 0.21912299 0.18843499
-0.035937626 0.1492673 -0.59594506 0.021376794 0.260433 -0.19011728 0.01003602 -0.0860915
-0.07841008 0.20446597 -0.074910864 0.034088872 0.2919268 0.18765666 -0.17002863 -0.17328912
0.36841348 -0.16606353 -0.047324523 0.12953007 -0.25258052 0.07184165 0.21318692 -0.29985672
0.06394257 0.30886403 -0.6215207 -0.13147569 -0.13512537 -0.18523663 0.31082037 0.14795898
0.14167975 -0.11749799 -0.07312009 0.10924667 -0.16450524 -0.19320545 -0.152036 -0.24942762
0.015032091 -0.3240804 0.017181162 -0.33969918 -0.43526524 -0.091625705 -0.073431484 -0.3774359
0.20231137 -1.040947 1.0215088 -0.17557198 0.17153344 0.09231062 -0.07069045 0.03414448
-0.20326255 -0.4655178 -0.05406968 0.09603969 -0.02738026 -0.12565042 0.1362147 -0.0856132
0.22934361 0.17217664 0.12949483 0.51614976 0.4486312 -0.13154094 0.09509848 0.16821323
0.031470478 0.08401352 -0.8919745 0.075721525 -0.113614574 0.09578959 0.13331455 0.07399136
0.33700517 0.00054975617 0.053137824 -0.09149747 -0.1333797 -0.14433296 -0.09505986 0.2309
0.27393806 -0.17590033 0.00034567714 0.12787962 -0.10084924 0.019572344 -0.006194332 -0.20070958
-0.09524257 -0.30725652 0.0956003 -0.65064573 0.3522893 -0.48568785 -0.0715545 -0.12990609
0.2660796 0.25549644 0.14869963 -0.002090528 0.01114797 0.066129945 0.112133734 -0.12592925
0.037584193 0.3629216 0.025488835 -0.08617402 0.27329248 0.031105082 -0.12250235 0.4334902
-0.17105485 0.19213897 -0.32743958 0.27338317 -0.021633921 -0.11848375 -0.2379419 0.013546729
-0.11480424 0.03517758 -0.08389702 0.32429144 -0.14440484 -0.0715239 -0.37914205 0.19393003
-0.028139327 -0.18424658 0.06466893 -0.24666542 -0.41562083 0.12527257 -0.098562 -0.29353464
-0.24031624 -0.3608693 0.9300262 -0.29900572 0.14876321 -0.27643785 -0.19080336 0.13790184
0.067749105 0.17553498 0.042769928 0.059593953 0.058184575 -0.05075312 -0.0385918 -0.09809388
0.15582348 0.09340805 0.019484257 -0.07483292 0.27614534 -0.060783926 -0.11940789 0.3886926
-0.0185499 0.1362767 -0.17800121 0.20860143 -0.1907102 0.22135442 -0.25789705 -0.19627303

read_encoder.block1.0.bias f4 [128]
00000000: 9127 19be efc8 f23d a75a 63bd 62fc 7abd
00000010: d7ad d03d ba8f 493e 683d bebb 03c4 e23d
00000020: 51ef 3bbd 8530 b03d 29c8 8abd 91b8 b0bd
00000030: 939d dd3c 55d6 ebbd cbed 2b3e 8b95 bb3d
00000040: e9c0 3bbd 43a7 1cbd 53e0 883e 4141 21bd
00000050: ad04 1fbd fee5 793e 2554 433e c069 c13d
00000060: e2e9 ecbc a01f 223e dbcf 89bd 18df 0bbd
00000070: 899f a93d af0b 4d3e 3845 02be 1a4b 00be
00000080: 1aa8 643e a6ea 6d3e 7918 db3b cc0b 883e
00000090: 672a 8c3d 509f eebd 9198 53bd ba0a cbbd
000000a0: 4358 ea3c 0f7c 713e 35c9 6dbe f492 2b3e
000000b0: 2acc c5bd 9e58 463e 5112 d83c 642f 3bbd
000000c0: 139c 1dbe 66cc babd db4a d13b a5b6 a2bb
000000d0: 3607 823d 21fd d8bd e7c1 2f3d 3f92 2f3e
000000e0: 3153 9e3c ec79 483e 752a 13bd d919 033e
000000f0: 315c a03e a6d1 5fbe d5d8 193e b2aa 53be
00000100: 1095 ea3b 9484 a8bd 2685 dbba bdcb 223d
00000110: ebb2 14bd 21a8 64bc 73a6 3cbe f900 b3bd
00000120: b1a2 d03d 394b f73b e657 7d3e 2d9a 86be
00000130: a8b7 803c d24f 34be 0de4 c9bd 61bc 883d
00000140: 4f63 48be 58a9 8f3e 1bdd 303d ba31 f63d
00000150: 9339 c13c 9df1 473d fe62 8c3e 7f6c aabd
00000160: 4872 82bd 9817 593e 0f98 6dbe 31a9 4a3e
00000170: 395a 25be be8c 5f3e 4955 c1bd e0d7 1a3d
00000180: 2693 6d3e 3022 143d 03f4 143d b42b 813e
00000190: a31e ad3e 13fc 34bd 6151 8cbd 3bba 39be
000001a0: 10ee 0e3e df9b 56be 1a43 163e 0f24 213d
000001b0: a8de 59be 3ea3 cdbc 81f1 163e d9f9 b93d
000001c0: 67c2 273e 50a1 f6bc d4e8 1a3d 56dc 103e
000001d0: 0ba2 1e3e 301e afbd 09dd cbbd b021 b03e
000001e0: 3045 c73c 3cd9 e03b d3c5 55be 416b a43e
000001f0: a313 623e 3b8c 4fbd 2c15 4a3e f4a7 10be
-0.149565 0.11854731 -0.055506375 -0.061275847 0.10189407 0.19683734 -0.00580566 0.110725425
-0.045882527 0.08603004 -0.06776459 -0.08628953 0.027052676 -0.1151549 0.1678993 0.091593824
-0.04583827 -0.03824545 0.26733646 -0.03936887 -0.03882282 0.24404141 0.19075067 0.09443998
-0.028920118 0.15832376 -0.067290984 -0.034148306 0.08282382 0.20023988 -0.12721717 -0.12528649
0.2232975 0.23234043 0.006686267 0.265715 0.06844025 -0.1165148 -0.05165917 -0.09914155
0.02860654 0.23582481 -0.23221286 0.16755277 -0.09658082 0.19369742 0.026375921 -0.045699492
-0.15391569 -0.09121017 0.0063870973 -0.0049656206 0.063490316 -0.105951555 0.04290953 0.17145632
0.019326778 0.1957776 -0.035929162 0.12802829 0.31320336 -0.21857318 0.15024121 -0.20670584
0.007158883 -0.08228412 -0.0016748055 0.03974508 -0.036303442 -0.013956101 -0.1842287 -0.0874042
0.10187281 0.007546809 0.24740562 -0.26289502 0.015712574 -0.17608574 -0.0985795 0.066765554
-0.19569133 0.28058887 0.043179613 0.12021203 0.023587024 0.048814405 0.27419275 -0.08321475
-0.06369454 0.21200407 -0.23202537 0.19791104 -0.16147698 0.21831033 -0.09440095 0.03780353
0.23200664 0.036165416 0.03636552 0.25228655 0.33812436 -0.04418571 -0.06851459 -0.18137448
0.13958001 -0.20957898 0.14674035 0.03934103 -0.21276343 -0.025102254 0.14740564 0.09080858
0.16382752 -0.030106217 0.0378197 0.14146551 0.15491502 -0.0855068 -0.099542685 0.34400702
0.024324983 0.006861834 -0.20876245 0.32113078 0.22077803 -0.050670844 0.19734639 -0.14126569

read_encoder.block1.1.weight f4 [128]
00000000: 6088 753f 6230 a43f 58a7 993f 8c06 803f
00000010: d265 913f 6169 943f b12c 8d3f 5255 913f
00000020: 0915 993f 9058 763f ec44 813f 84bf 983f
00000030: 7792 853f ca0e 513f b1d0 903f 7deb 933f
00000040: df0f 8b3f b380 833f fbb1 9b3f e66f 7c3f
00000050: 5186 9b3f c564 8c3f 46a1 693f fd4a 7a3f
00000060: ad47 8c3f 7e16 803f eed4 7c3f 506c 6d3f
00000070: c4c2 913f a5a7 953f b1ba 923f 6444 3b3f
00000080: 6062 663f d2e6 6c3f c657 7d3f 47a8 823f
00000090: a303 8f3f c606 543f 35e2 673f b8c6 a33f
000000a0: e523 893f a2db 743f f6d0 903f ab44 853f
000000b0: a2bb a03f f0bd 873f 291d 893f e0fd 313f
000000c0: 0e43 893f 26be 4f3f 9df1 8b3f 9e26 663f
000000d0: bf31 7e3f dafa 983f adef 983f ebab 8a3f
000000e0: 806f 7b3f 76be 9a3f d223 5c3f 991b 6e3f
000000f0: 8dbe 803f 6f00 513f e1d4 8e3f 5d64 653f
00000100: 1012 583f b181 843f 13cf 583f 008e b63f
00000110: afc5 873f ffb9 853f 212d 613f 636f 6b3f
00000120: 788c 8b3f 77cf 973f b956 943f 22ca 553f
00000130: 1cb5 613f 9c6b 493f 1436 923f 9c97 683f
00000140: 661b 363f 7f14 5f3f 0c5a af3f cb30 673f
00000150: b805 763f 1c41 823f eef4 713f 43ce 683f
00000160: e6d6 6a3f 99af 813f 6020 733f 8ea5 823f
00000170: ae18 653f 78ad 6b3f 3ea7 813f 57fa 933f
00000180: d844 883f 0a5b 583f 0f64 683f 77f8 843f
00000190: 8128 8e3f b387 7b3f acdb 713f ebdd 883f
000001a0: 7ca0 993f 53f6 7f3f 2a54 743f 4043 743f
000001b0: f61c 7c3f 9e44 853f 2f37 723f 53c2 8f3f
000001c0: 7803 6a3f faeb 683f 383d 7a3f 6b4d 8b3f
000001d0: 7abf 9e3f c8ce 6e3f 9242 a73f f542 863f
000001e0: eada 753f e921 863f 7ec0 5f3f d5d2 953f
000001f0: ea7f 813f d0e1 873f 15a3 6d3f 7eb6 723f
0.95911217 1.2827265 1.2004194 1.0001998 1.1359198 1.1594659 1.1029264 1.1354163
1.1959544 0.96228886 1.0099158 1.1933446 1.0435323 0.8166319 1.1313688 1.155624
1.0864218 1.0273651 1.216369 0.98608243 1.2150365 1.0968252 0.9126171 0.97770673
1.0959374 1.0006864 0.98762405 0.92743397 1.1387563 1.1691786 1.1463224 0.7315123
0.8999386 0.92539704 0.98962057 1.0207604 1.1172985 0.82822835 0.9057954 1.2795019
1.0714079 0.95647633 1.131377 1.0411581 1.2557261 1.0604839 1.0712024 0.6952801
1.0723588 0.8114952 1.093311 0.89902675 0.99294657 1.1951554 1.1948143 1.0833715
0.9821701 1.2089374 0.8599216 0.9301086 1.0058151 0.81641287 1.1158715 0.8960627
0.8440256 1.0352079 0.8469097 1.4262085 1.0607203 1.0447387 0.87959486 0.9196684
1.0902243 1.1860188 1.1588966 0.83511555 0.88166976 0.78679824 1.1422753 0.9085634
0.71135557 0.8714065 1.3699355 0.9030883 0.96102476 1.017612 0.9451436 0.9093973
0.9173416 1.0131713 0.94971275 1.0206773 0.89490783 0.9206157 1.0129163 1.1560773
1.064601 0.84513915 0.9077768 1.0388325 1.1106111 0.98253936 0.9447582 1.0692724
1.2002101 0.99985236 0.95440924 0.95415115 0.9848169 1.0411565 0.94615453 1.1231178
0.9141154 0.9098507 0.9774966 1.0883001 1.2402184 0.93284273 1.3067191 1.0489184
0.9603716 1.0479099 0.87403095 1.1704966 1.0117161 1.0615788 0.9282697 0.9480971

read_encoder.block1.1.bias f4 [128]
00000000: 3a3e bdbd d0ea a3bd 6ce7 d9bc 7ed3 46bd
00000010: c1d0 ccbb 7222 623c b07b 75bd 8f41 3d3b
00000020: f4b3 98bc f303 45bd 8a06 f7bd 4f90 973b
00000030: f0d6 03be 6ec4 1bbe a71c b1bd 4570 b8bd
00000040: 1197 15bd bf68 5abd fb44 11be bd92 a5bd
00000050: 68c7 f5bb 7a15 4ebd 02f9 09be 931c 49bd
00000060: 23ff 82bc 40eb 273d dad5 f8bc 682d ecbd
00000070: 8154 99bc a51f 063c 57cf 093c ede4 79be
00000080: 96d7 cdbd 5de8 6fbd 1490 d1bd 4808 8abd
00000090: ad28 afbb ddac 34be 39d1 f8bd b7dd 73bd
000000a0: 138f a0bd 52d4 17be 2570 5ebd b570 99bd
000000b0: 30c2 71bc b39a a4bc 8076 21bd a38a cabe
000000c0: 9e9e b2bd 12f9 2bbe 33aa 41bc e184 f8bd
000000d0: ca1f a2bd 5c19 5f3a 88ab 15bc d9b1 f1bb
000000e0: 6777 c9bd 13db d23b 349c f9bd 8167 11be
000000f0: 48ad 71be aec6 40be f93b 40be 7358 bdbd
00000100: 3417 23be ae38 42bd 5ab8 2bbe 8f21 04bc
00000110: cce5 27be 8f12 cb3c 9dc2 02be d316 efbd
00000120: 8f0e 80bc afc0 18bd 6cc1 0c3c 9b3f 0bbe
00000130: 35bb 07be fa3c 2ebe 353a e3bd 8a1e ebbd
00000140: 3790 80be 4895 78be a1aa a0bc 886c bdbd
00000150: 0a8d 16be dcd2 14bd f5ce b2bd d105 fabd
00000160: 1d70 bdbd 4b19 67bb 6c82 8ebd 2bce 3ebe
00000170: 7abc 0bbe 46d6 fbbd 3f7e 76bd 7bf5 adbd
00000180: 61d2 5ebb 78ed 0abe 1de0 05be 09cd 80bb
00000190: 24e8 653d 685f 3bbe e751 adbd 392f 5abd
000001a0: 8b69 673c dcca 44bd 0758 b7bd 2360 28be
000001b0: 1f87 b0bd 36ce 90bd c43c c3bd ca04 61bd
000001c0: 2bdd cdbd 99ec c2bd 11ed 85bd 879d dabd
000001d0: 52ca 82bd 3539 91bd 9cb3 cf3c a813 083c
000001e0: a2e4 e7bc 7cb4 27bd ec6d 03be 0b89 dfbc
000001f0: 0fa1 c0bd 9592 d53a d114 18be 03d9 cfbd
-0.092403844 -0.08003771 -0.026599608 -0.04854154 -0.0062504713 0.013802158 -0.05993241 0.0028878187
-0.018640496 -0.04809947 -0.12061794 0.004625357 -0.12874961 -0.1521165 -0.08648043 -0.09005789
-0.03652102 -0.05332255 -0.1418647 -0.08084629 -0.0075005777 -0.05031345 -0.13473895 -0.049099516
-0.0159908 0.040995836 -0.03037541 -0.11532098 -0.018717052 0.008186256 0.00841125 -0.24403735
-0.100508854 -0.05857121 -0.10232559 -0.06739861 -0.005345425 -0.17644067 -0.12149281 -0.059537616
-0.07839789 -0.14827088 -0.054306168 -0.074922 -0.014755771 -0.020093298 -0.03941965 -0.39558896
-0.0872166 -0.16794232 -0.011820364 -0.1213472 -0.079162195 0.0008510554 -0.0091351345 -0.0073759374
-0.09837227 0.006434807 -0.121879965 -0.1419964 -0.23601258 -0.1882579 -0.18772878 -0.09245386
-0.1592682 -0.047417335 -0.16769543 -0.008064642 -0.16396254 0.024789123 -0.12769552 -0.11674275
-0.015631942 -0.037293132 0.008591037 -0.13598482 -0.13255008 -0.17015448 -0.110950865 -0.11480434
-0.25110027 -0.24275696 -0.019612612 -0.09249216 -0.1470224 -0.036333904 -0.0873088 -0.12208141
-0.092498995 -0.0035262879 -0.0695847 -0.18633334 -0.13646117 -0.12296729 -0.06017899 -0.08494087
-0.0033999907 -0.1356715 -0.13073774 -0.003930692 0.05612959 -0.18298113 -0.08462887 -0.05326769
0.0141242845 -0.048045024 -0.08952337 -0.16442923 -0.08619522 -0.070705816 -0.095330745 -0.054936208
-0.1005195 -0.09517784 -0.065393575 -0.10674577 -0.06386246 -0.070909895 0.0253542 0.008305468
-0.028307263 -0.040943608 -0.128349 -0.027287027 -0.094057195 0.0016294295 -0.14851691 -0.101488136

read_encoder.block2.0.weight f4 [128, 128]
00000000: fbda 8fbd 7236 34be 8e99 ec3d 3aed 093e
00000010: 899d e0bd f399 37bd 2b3e 623d be0c a73d
00000020: ef9f 613e b2a1 11bd 03af b23d 399a 043e
00000030: c402 953d db8c 1c3d daf7 bc3d b5d7 a03d
00000040: 7497 263d e111 d83d 2ffc a53d 0049 79bd
00000050: 37bd 4ebd 9be3 65bd 2317 cc3c ccdc cdbd
00000060: 2d2e 7f3d 06e5 6dbd 5beb 83bd 4829 e93d
00000070: 1928 7e3c ca10 013d 87ea 92bc 4d9e bd3c
00000080: df4d 213e a38c af3d 561c 98bc 0151 dd3d
00000090: 2c65 e2bc 9233 a83d 7c9a 8f3c 0864 5bbc
000000a0: cbba cabd 1cb7 50bd b8b3 753d 8ba1 123c
000000b0: 17eb 6b3d 1cb9 333e 8c0f cfbd faed 5cbd
000000c0: 65ab b23d e843 193d 2193 9a3d cf3b c2bd
000000d0: 45a3 013d 6f5a cebc ca20 0dbd 0bd8 ad3d
000000e0: a7d8 4d3d a776 0dbe bd72 45bc b0dc 29bd
000000f0: 82f6 73bd 6aea 53bc 4738 b23d 4b71 c5bc
00000100: cab3 78bd 2ff7 59bd b93f 3d3d ab34 25be
00000110: 98fe 8abc e77d 3abd 2077 adbc d5d9 9c3c
00000120: 640f 8cbd 085d 723d b623 6ebc f5e0 2dbd
00000130: bec9 90bd 74c9 7c3d 4845 64bd 048f 883d
00000140: 93ef 03bd 737c 92bd b28e cc3d 089f 2c3e
00000150: 407d a3bd 701f 353e 677a 70bc d5b8 4d3d
00000160: 55a6 163d 92f9 1a3c 5fb1 b3bc efdb 67bc
00000170: 9cf9 8e3d 8e23 833d 00ae 823d d220 a03c
00000180: 6598 fbbd 727b 5a3c 2b29 1e3d e24d 45be
00000190: 3c09 0f3c 3a29 0cbe 7ec7 29bd cf6d bebd
000001a0: 450c a9bd 7806 2cbd 440c 3bbd b9b0 bcbd
000001b0: ab73 ba3c 51dc e03c 6814 1a3d d91f efbc
000001c0: 0219 003d 2c76 91bb e9c0 f7bd 25dd 78bd
000001d0: 2794 523c e640 1fbc 9376 cdbd 8939 81bd
000001e0: c686 143c 3a4f 58bd 6392 78bd 93aa 6fbd
000001f0: 3e70 c1bc 9161 f4bd 9898 42bc c86f 38bd
00000200: 46d8 973d 163d d7bd 9acd b13d 0b93 4f3d
00000210: b9a7 75bd f0a4 3d3d d736 49bd 0e43 913d
00000220: e8e3 153e cf41 0cbd 2aa7 07be 9af3 ce3d
00000230: cdf0 793d 7d48 323d 2799 4a3d 03a5 07bd
00000240: 76dd 27bd 14f4 07bc a930 bfbd 68af b2bd
00000250: e2fa e7bd 7f1f 3bbd 4476 cd3d 58f0 1abd
00000260: edc5 f13d f6ee 313d 83fa c6bb 702f 943d
00000270: 3179 be3d cb26 e63c 3ba1 353e 2cca 53bd
00000280: 479a 653d 2511 abbd 8219 863d 8162 693c
00000290: d140 f8bc 1d9f 333d 5d33 a23c 845d 1cbd
000002a0: 25c4 ef3d ffd0 3bbc b602 a93d 3c9a e3bc
000002b0: b53f 8d3c 0f54 e23c 3721 e63d 8958 373d
000002c0: e61f 39bd 09d6 463d 3e24 bf3c 3edc 92bc
000002d0: 993b 503d f151 abbc 2792 0f3d dd7b bc3d
000002e0: 3706 7bbd c864 b4bd b58a e53c aa9f d63c
000002f0: db1f 8abd a630 59bd cba4 c8bc bbc4 8fbb
00000300: 52dd a63c ed60 523d 3620 943c 3d34 8cbd
00000310: d378 2ebd d6e0 2d3d f0f1 073d d2d1 8b3d
00000320: ad82 82bc 1d70 cdbc 6939 d03d 8521 8ebd
00000330: f12e 923d 3544 923d 4cd2 23bd 4ee0 18bd
00000340: 42db b1bb 693f 28bd 8cd1 8dbd b923 c23d
00000350: f806 3bbd b64f a3bd 352a ea3c 3e6c 583c
00000360: 839b a23c abdb 22bd 0e06 5e3c 12c7 8fbd
00000370: f8dc a63d ab5f a73d e926 ce3c aea3 77bd
00000380: b27e d63c 2461 73bd ff37 433d 7135 94bd
00000390: 45ba 243e 6f12 bbbd 2f84 6f3c 40a1 febd
000003a0: 0743 4e3e faf3 043d 05d6 9e3d d437 68bd
000003b0: 870f 913d 0dfc bd3a 25d5 37bd dc7a 7c3d
000003c0: b464 b9bc 79b9 76bd cb33 a1bd 5619 89bd
000003d0: 672b 4a3d 3961 d23d a211 b13c e85c ab3d
000003e0: 072d a9bd c171 92bd 2fe8 a63d 57b6 0fbd
000003f0: 54fc 15bc 86c7 b4bd 5520 5dbd cff6 a5b8
-0.07024189 -0.17598894 0.11552726 0.13469401 -0.109675474 -0.04482455 0.05523507 0.08156727
0.22033666 -0.035554595 0.08724787 0.12949456 0.07275918 0.038220268 0.092269614 0.07853643
0.04067178 0.10550285 0.08104741 -0.060860634 -0.050473418 -0.056125265 0.024913376 -0.10051879
0.062299896 -0.058079742 -0.06441375 0.11384827 0.01551249 0.031510152 -0.017934097 0.023146773
0.15752362 0.08571746 -0.0185682 0.10806466 -0.027636133 0.08212961 0.017529719 -0.0133905485
-0.09898909 -0.050955877 0.059985846 0.008949648 0.057597246 0.17551082 -0.10110387 -0.05393789
0.08724097 0.037418276 0.07547594 -0.09484064 0.031649847 -0.025189606 -0.0344551 0.084884726
0.050255444 -0.13814794 -0.0120512815 -0.04147023 -0.05956126 -0.012934307 0.0870214 -0.024101874
-0.060718335 -0.05321425 0.04620335 -0.16133372 -0.016967103 -0.045530226 -0.021174967 0.01914684
-0.06838873 0.059170753 -0.014534881 -0.042450864 -0.07069729 0.06171556 -0.055730134 0.06667903
-0.032210898 -0.07152643 0.099881545 0.1685754 -0.07982874 0.17687774 -0.0146776205 0.050225098
0.03677972 0.009458916 -0.021935163 -0.014151557 0.06981203 0.06403266 0.06380844 0.0195469
-0.12284926 0.013335096 0.03861348 -0.19267991 0.008730229 -0.13687602 -0.041450016 -0.09298288
-0.08254293 -0.041998357 -0.045665994 -0.09213395 0.022760233 0.027448805 0.037617117 -0.02918999
0.03127385 -0.004439136 -0.120973416 -0.060757775 0.012852705 -0.009720063 -0.10032382 -0.06309802
0.009065336 -0.05280993 -0.06068648 -0.05851228 -0.023613092 -0.11932672 -0.0118772015 -0.045028478
0.07414298 -0.10509698 0.086817935 0.05067734 -0.059974406 0.046299875 -0.049124565 0.07092868
0.1463772 -0.034242447 -0.13247362 0.10105057 0.06102066 0.04352616 0.049462464 -0.03311635
-0.040982686 -0.008297939 -0.09335453 -0.08724862 -0.11327149 -0.045684334 0.10032323 -0.037826866
0.118053295 0.04344078 -0.006072344 0.072356105 0.09300459 0.02809467 0.17737286 -0.051706478
0.056055333 -0.083528794 0.06547834 0.014244677 -0.030304344 0.043852914 0.019799883 -0.03817512
0.117073335 -0.011463403 0.0825247 -0.027783506 0.017242292 0.027627973 0.11236804 0.044762168
-0.045196436 0.048543964 0.023332711 -0.017927285 0.050838087 -0.020913096 0.03505149 0.092033125
-0.061285224 -0.08808285 0.028020242 0.02619918 -0.06744357 -0.05302491 -0.024492642 -0.004387466
0.020369206 0.051361967 0.018081766 -0.06845901 -0.042595696 0.04245075 0.033189714 0.068271294
-0.015931452 -0.025077874 0.101672 -0.06939987 0.071378596 0.07141916 -0.039995477 -0.03732329
-0.005427749 -0.041076098 -0.069247335 0.0947947 -0.045660943 -0.07974188 0.028584579 0.013209401
0.019849544 -0.039760273 0.013551248 -0.070203915 0.08147615 0.08172544 0.025165038 -0.06045883
0.02618346 -0.059418812 0.047660824 -0.07236756 0.16086681 -0.09134375 0.014618917 -0.124331
0.20142756 0.032459237 0.07755665 -0.056693867 0.0708304 0.0014494673 -0.044881005 0.061640605
-0.022631027 -0.060235474 -0.07871207 -0.066942856 0.049357798 0.1027245 0.021614853 0.0836733
-0.082605414 -0.07150603 0.08149754 -0.035086002 -0.009154398 -0.088271186 -0.053985912 -7.913785e-05

read_encoder.block2.0.bias f4 [128]
00000000: edf4 9f3d 3831 7d3d e112 103d ff6e ab3d
00000010: 5057 033d e7c9 4ebd 6302 a23c 7a22 3dbd
00000020: e52c f83d 36cc 18bd 3ce0 11bd 92e0 5a3d
00000030: 4f14 dfbc 997a 5e3d b392 a8bd 95a8 c33c
00000040: 8444 9b3d 6121 263d 4a96 80bd 16c6 093d
00000050: 53fc 273c bd6e 8cbb 500d bfbd 21e3 96bd
00000060: 200e 12bd 822f 903d 9600 68bd 1108 96bd
00000070: 8376 afbd 89e0 af3c 4708 02be 55ad 99bd
00000080: 611d a7bb 32ee 8abd 57c2 063d 3259 e43b
00000090: 0e4b c83d 0fb1 70bd ced7 8ebd 8f7f 5bbd
000000a0: 0f46 9fbb 7455 68bd 21bb c83d 58ae 47bd
000000b0: 1e0a ebbd bdbc 2f3d fdd9 b4bc dcd1 8e3d
000000c0: cda2 66bb 5ed3 073d 63d8 383d 56fe 55bc
000000d0: 3947 cbbc e6dd 0cbd 61e4 a93c c0ab 5fbd
000000e0: e1c2 773d b15f ef3c d5b2 86bc 31d1 ac3d
000000f0: 5e06 253d f2b0 613d aab5 923d fbbc fb3c
00000100: bfff 223d fc0f 803d f178 6d3d e121 8b3d
00000110: ceb2 493d 5929 72bd d53c fcbc 27b4 ae3d
00000120: e617 bfbc 789c 45bc f89a 14bd 4749 00bd
00000130: d504 793d 8624 743d 5efb 4bbd 1818 93bd
00000140: c154 1c3d 59b2 103d e845 463d cba4 263c
00000150: 78c6 45bc 3121 743d fd48 913d 9beb 163d
00000160: 7e78 bc3d 2cf2 7dbd f2b3 7f3d f6d7 673d
00000170: 1f71 153d c353 3b3b 4e42 6e3c e551 83bd
00000180: 753c 943d 8610 133d 3208 6b3d b469 003d
00000190: 5a51 4fbd 0c9d 6c3d 14b9 803d e127 70bc
000001a0: 9cb4 a43c 7e6c 46bd 0c17 5bbd f945 203d
000001b0: 5aa8 a7bd 8803 173d 173f 75bd 1867 003c
000001c0: ac33 c6bc 92fc 1d3d 6544 963d 7570 80bd
000001d0: b47e 6fbc 9663 36bc eede 95bd e768 9dbd
000001e0: 5f17 23bd d4f8 26bd 0afd b93d 3c48 9f3c
000001f0: 6d44 dc3d ffd2 b8bd 42c3 05bd 701d 593d
0.07810388 0.061814517 0.035174254 0.0837078 0.03206569 -0.050485518 0.019776529 -0.046175458
0.12117938 -0.037304126 -0.035614237 0.053436823 -0.027231364 0.054316137 -0.08231106 0.023884097
0.07581428 0.040559176 -0.06278665 0.033636175 0.01025303 -0.004285662 -0.09328711 -0.0736754
-0.035658002 0.070403114 -0.056641184 -0.07325757 -0.08567526 0.021469371 -0.1269847 -0.075037636
-0.005099938 -0.067837134 0.03290018 0.0069686407 0.097799405 -0.058762606 -0.06974755 -0.053588446
-0.0048606466 -0.05672212 0.09801317 -0.04875025 -0.11476539 0.042904604 -0.022076601 0.06973621
-0.0035192252 0.03316056 0.045128237 -0.013061127 -0.024814235 -0.034391306 0.020738782 -0.054607153
0.060488585 0.029220434 -0.016442696 0.084383376 0.040289275 0.05510039 0.07163556 0.030729761
0.03979468 0.06253049 0.057976667 0.06793571 0.049242787 -0.059121463 -0.030790726 0.08530455
-0.023326825 -0.012061231 -0.036280602 -0.031319883 0.060795624 0.059605144 -0.04980027 -0.0718233
0.038166765 0.035326336 0.04840651 0.010171126 -0.012071244 0.059601966 0.070939995 0.036845785
0.092026696 -0.06199853 0.06242747 0.05660244 0.036484834 0.0028583861 0.014542175 -0.064121045
0.07238094 0.03590443 0.057380863 0.031350806 -0.050614692 0.05776696 0.06285301 -0.014657945
0.020105653 -0.04844331 -0.053488776 0.03912923 -0.081864074 0.036868602 -0.05987462 0.007837079
-0.024194561 0.038570948 0.07337264 -0.062714495 -0.014617611 -0.011132142 -0.07317911 -0.07686024
-0.03981721 -0.040764645 0.090814665 0.019443624 0.10755239 -0.09024619 -0.032656915 0.05300659

read_encoder.block2.1.weight f4 [128]
00000000: 4e78 5d3f 1c85 483f 6b7e 833f 16a5 6d3f
00000010: 5ec2 683f d437 813f ad8a 923f 6b53 833f
00000020: d455 8c3f ae44 753f e6d7 7a3f 9bb9 783f
00000030: 6537 543f a5fa 743f d37c 813f 3b24 8c3f
00000040: dc19 7e3f 9046 6d3f 95ea 763f 6d03 7a3f
00000050: 1363 713f 13f1 6b3f 6b7f 823f 9dd1 893f
00000060: 4bfb 823f 7b14 773f 62a4 6c3f a345 743f
00000070: d77c 803f c495 743f 140d 893f bbda 783f
00000080: 1bd9 803f 4302 4e3f 7b29 793f 9dcc 7e3f
00000090: b80e 823f 87aa 823f 574a 6c3f 78d2 973f
000000a0: 5dd8 773f 0cd2 913f 03ae 7c3f b30d 723f
000000b0: 5a29 883f 4295 8c3f 9617 7a3f b678 813f
000000c0: 95d0 813f bde1 753f 908e 853f 12c1 773f
000000d0: 9349 813f 1d34 a13f a6d6 693f 5fb9 6c3f
000000e0: e19f 6d3f fdf9 883f 84d8 783f cac7 673f
000000f0: f985 7c3f cc80 513f e1b3 733f 46aa 893f
00000100: a3ff 333f 5dc3 803f bef3 5d3f ee14 833f
00000110: 345f 7a3f b4a6 733f 3a4d 813f 1986 5c3f
00000120: 6ed6 9e3f e0da 673f 018b 723f f7e7 653f
00000130: 034e 763f b073 713f 8245 843f b61d 6a3f
00000140: 5aa5 6e3f 3d48 773f 70f7 853f 5bc5 7c3f
00000150: f284 753f b4c3 793f 767b 693f b46e 853f
00000160: f7a4 653f eeef 7a3f 056b 873f 657f 733f
00000170: 40d4 743f 3999 753f e87d 7a3f f5d0 903f
00000180: f376 6c3f cef3 513f f8aa 8c3f 1c69 803f
00000190: 34f2 773f a315 713f a080 743f d3bb 893f
000001a0: 1e2d 733f d7bd 913f 1486 7d3f 8482 753f
000001b0: 8f75 6a3f 1abb 723f 114a 823f 0d1e 813f
000001c0: 753e 843f 37bd 7b3f 4fe5 783f 34aa 933f
000001d0: 52a1 613f 7a0b 7c3f 9020 843f c71b 783f
000001e0: b719 7b3f 0e3d 9e3f 0150 7c3f 7d22 893f
000001f0: dfeb 6c3f 3950 823f 0d6e 743f ac62 693f
0.86511695 0.7832811 1.0272955 0.92830026 0.9092158 1.0095162 1.144857 1.0259832
1.0963693 0.9580792 0.97985685 0.9715821 0.82897025 0.95694953 1.0116218 1.0948557
0.9925821 0.92685795 0.96451694 0.9766148 0.942918 0.92164725 1.0195135 1.0767094
1.0232939 0.96515626 0.9243833 0.9541876 1.0038098 0.95541024 1.0707116 0.97208756
1.0066255 0.804722 0.9732892 0.99530965 1.0160742 1.0208291 0.92300934 1.1861105
0.9681452 1.1392226 0.9870302 0.94552153 1.063762 1.098305 0.9769224 1.0114963
1.0141779 0.96047574 1.0434132 0.96778977 1.0100578 1.2594029 0.9134315 0.92470354
0.9282208 1.070129 0.97205377 0.9053923 0.98641926 0.81837153 0.9519635 1.0755088
0.70311946 1.005962 0.86700046 1.0240762 0.9780152 0.95176244 1.0101693 0.86142117
1.2409189 0.9056835 0.94743353 0.89807075 0.96212786 0.9431715 1.0333712 0.91451585
0.93221056 0.965946 1.0466137 0.9873864 0.95905983 0.97564244 0.9120401 1.0424409
0.8970484 0.98022354 1.0579535 0.95116264 0.9563637 0.95936924 0.9784837 1.1313769
0.92369 0.8201264 1.0989676 1.0032077 0.9685395 0.9417364 0.95508766 1.0760444
0.9499072 1.138606 0.9903271 0.95902276 0.9158563 0.94816744 1.0178853 1.0087296
1.033156 0.98335594 0.972249 1.1536317 0.8813678 0.9845501 1.0322437 0.96917385
0.9808611 1.2362382 0.98559576 1.071365 0.9254741 1.0180732 0.95480424 0.91166186

read_encoder.block2.1.bias f4 [128]
00000000: c81b 69be 67d2 52be 3046 e5bc fd6c cabd
00000010: 6157 85bd dea0 febc 184c 29bd 9f89 20be
00000020: 0477 05bd e0ec d3bc 0878 d9bc 4371 71bd
00000030: 2db8 86be 88c2 e4bc f850 9cbd 5ed4 54bd
00000040: 8bf4 11bd 448e 2ebd 4415 46bd 758c 50bd
00000050: 62d0 49bd 9875 aabd 9590 01be 19c7 0cbe
00000060: 662d d3bd f496 e4bc e21d acbd 50a8 09bd
00000070: a00d c1bd 49fc 89bd f3a3 adbd 1eae 43bd
00000080: 2cf0 97bd d778 debd 4ceb e6bc d094 1abd
00000090: 8a86 bdbd 8794 ddbd 3c47 fdbd ba31 18bc
000000a0: a96c 8cbc 845c c3bd 6d19 1dbc 4dc3 66bd
000000b0: 156a dfbd 3142 51bc 5b0e 47bd 5a66 09bd
000000c0: 8524 7dbe 6dec babc 2c27 71bd a56b f2bc
000000d0: bf02 19bd 2763 cbbd 473b 51bd 7a50 94bd
000000e0: 4ea6 6dbd 0ae6 92bd a7a6 98bc 4f57 77bd
000000f0: e735 29bc 0589 50be 44c2 8ebc c07e dcba
00000100: c8d9 75be 70fe cdbc 3fe3 48be 2416 7bbc
00000110: 5bb5 86bd 604e 6dbd 6177 f2bd 0b0d f1bd
00000120: 4d88 a8bd 249c bfbd 7536 14bd 9d52 ffbd
00000130: 0c3e 59bd 0537 e3bc 6fae dbbd 0634 bfbd
00000140: 333d ecbd dd82 5dbd 52f9 59bd 7f3d 42bd
00000150: a360 cbbd 7d1a 32bc d9f6 e0bd ed5b 54bd
00000160: eedd a3bd ef30 3bbd 0bdc 4ebd 69c7 71bd
00000170: 2464 f5bd 1826 92bd c2c7 5fbd 119e 6cbb
00000180: 8cbe c8bd 6942 0bbe 0ae6 cfbd f5b0 b9bc
00000190: a8ae 73bd d907 e3bc 114a 2dbd 9aa0 d53b
000001a0: 7892 d3bc 3f01 d2bc 7e3f 13be 3509 5abd
000001b0: c52f b1bd d21b 73bd 98cd 0abe bc23 70bd
000001c0: 546e aebd e84d 18bd 032c 8fbd 833f 0f3d
000001d0: 6bb2 f0bd 6249 57bc a4dc 29be 27f7 1bbd
000001e0: cdc5 09bd c33e 8abd e519 b1bc ce4a 1cbd
000001f0: 8931 a1bd a692 4cbd 3a56 15bd 985f 6abd
-0.22764504 -0.20588075 -0.02798757 -0.09884069 -0.06510807 -0.031082567 -0.041332334 -0.15677498
-0.032584205 -0.025869787 -0.026546493 -0.058945905 -0.2631239 -0.027924791 -0.07632631 -0.05196034
-0.035633605 -0.042616144 -0.048360124 -0.0509152 -0.049270995 -0.083232105 -0.1265281 -0.13747825
-0.103113934 -0.027904011 -0.08404137 -0.03360778 -0.09426427 -0.06737573 -0.084785365 -0.047773473
-0.07418856 -0.10862892 -0.02818837 -0.037739575 -0.09254177 -0.10819345 -0.123671025 -0.0092891995
-0.017141657 -0.0953913 -0.0095885815 -0.056338597 -0.109089054 -0.012772129 -0.048597675 -0.033544876
-0.24720962 -0.022817815 -0.058875248 -0.029592345 -0.037356135 -0.09931021 -0.051081922 -0.07241912
-0.05801993 -0.07172783 -0.018634154 -0.060386 -0.010327793 -0.20364769 -0.017426617 -0.0016822442
-0.24008858 -0.02514574 -0.19617938 -0.015325103 -0.065775596 -0.057936072 -0.11839176 -0.11770066
-0.08229122 -0.09355953 -0.036184747 -0.12466929 -0.053037688 -0.027736196 -0.1072663 -0.093360946
-0.1153511 -0.05407988 -0.053216286 -0.04742193 -0.09930541 -0.010870573 -0.109845825 -0.05184548
-0.08001314 -0.045700964 -0.050502818 -0.059028063 -0.11981991 -0.07136172 -0.054633863 -0.0036104957
-0.09801969 -0.13599552 -0.10151298 -0.022667388 -0.059492737 -0.027713703 -0.042306963 0.0065193893
-0.025826678 -0.02563536 -0.14379689 -0.053231437 -0.086516894 -0.059352703 -0.1355499 -0.05862783
-0.08517137 -0.037183672 -0.069908164 0.03497268 -0.117527805 -0.013140054 -0.16588074 -0.0380775
-0.033635903 -0.06750252 -0.021618793 -0.038157277 -0.07870776 -0.049944542 -0.036459185 -0.05722007

read_encoder.block3.0.weight f4 [128, 128]
00000000: f163 d0bd 3572 283d f60d 903d f1e3 71bd
00000010: 68ef 6bbd ed3b 633d 38ac de3d 217b 973c
00000020: 529f acbd 1ba4 213d d8ed 0abc e9a6 6bbd
00000030: 03d4 e93c 5e88 03bd bfa9 f3bc e770 5b3c
00000040: 5cee 80bd 1ca4 4fbc a29f 7ebd 8fe0 5b3d
00000050: a1a0 f3bc cd3f 663d 072f 233c facc 973a
00000060: 2f31 6cbb 95b0 1e3d ea78 733d c439 743c
00000070: 18ad f6bc 3a3c eb3d a966 c7bc df68 34bd
00000080: 300b d3bb 6fe8 c6bc 8adb 523d e87e 843d
00000090: c1eb c2bd ac1a f23c 02da f03c a596 dcbc
000000a0: 5119 8a3d 0bd3 a3bd e651 7fbd 63c2 5cbd
000000b0: 7181 e83d e311 57be 09c9 a5bd f284 03be
000000c0: 13bc 2cbd 129f a4bc 31c7 b73d ee81 b7bd
000000d0: f965 293b 9ba7 0d3e d2f4 19bb a69c 7d3c
000000e0: f115 fbbd dd57 c03b eb83 ecbc 78f2 c43b
000000f0: a613 a1bd 4505 adbc cfd3 f63c ebfb a7bd
00000100: 40f9 97bd d93b 19bd 4f69 b13c 9886 d1bd
00000110: 0297 7c3d 3879 033d 2108 103d 61d9 43bc
00000120: c880 603e 00bd 403c e7bb d7bd a22d 283c
00000130: 5fa3 223d 502a 74bd 665d 3e3d 1ca9 e8bd
00000140: 152b ed3c 8386 5a3d 5513 21be 518d a5bd
00000150: f9de c63c f768 943c 96fc 703c 6fa1 90bd
00000160: e5fc 7c3d 2fe4 15be 2e42 88bd 4fae 98bd
00000170: 34e1 bdbd ac30 0dbd 2536 933d 2783 cd3c
00000180: dcbb 383d 442b 303d 14ef adbd c4dd 153d
00000190: 8e87 e1bc 58ec cbbc 1cdb b0bd 08de 1ebe
000001a0: a5e4 f8bc 260b afbd 57c3 b83d 2d32 903c
000001b0: b444 a0bd 6d3c a73c 3d0a efbc 67f0 ea3d
000001c0: 7743 663d 5887 b5bd 5b28 a0bd ad01 243e
000001d0: 5723 b8bc cfcf fbbc 005b babd 6909 a13a
000001e0: d646 babc 5e8e 1f3c b81e 74bd 45c9 183e
000001f0: 55d7 73bc b2bb 75bd 3207 c7bd 4406 533d
00000200: 717c 94bd 3ad3 bdbd 0727 813c a853 8fbd
00000210: f649 913d a005 a13c 4468 41be ff1a b0bc
00000220: 00dd fdbd cba1 af3d cc42 073d 6549 8cbd
00000230: 6174 a33d 83fc f73c 6b86 fb3d d2c8 203c
00000240: af8d 713d 3730 4b3d f9b2 063d a012 7a3c
00000250: a709 453d ebd4 4fbc 1e52 0cbd 9239 3fbc
00000260: e15f 07bd 8738 ad3d f828 413d a14e 873d
00000270: a17f 493d 3f74 8f3c 8b42 343d c472 38bc
00000280: d94b a2bd 7808 333d a933 d2bc 9edc 0abd
00000290: 32b0 ac3d a01b b83d 3b0c 4c3d e68c fabd
000002a0: 7d25 36bd 080a e53d 0bca 973d 4d69 323b
000002b0: dbbe 43bd 0c26 cbbd 27c3 56bd b54f 03bd
000002c0: 658b f9bd 74ad 89bc ab74 393d cc17 54bc
000002d0: af0b 4b3d 1964 aebd 6476 64bd 2705 c13d
000002e0: 5a6d e33d 3e08 dabd 7172 233d 67c3 173d
000002f0: da78 0cbd 5c7f 313c 4557 68bc 4d20 ff3c
00000300: f530 95bd 9228 803b 2698 06bd 4cd1 c1bd
00000310: 0a53 983b d11f 96bd 9afb 933c 3be6 e3ba
00000320: 65a9 dcbd 7ce0 42bd 2461 f43c dad7 92bd
00000330: cfbe f33c a6c2 333d e7b4 c13d 317a 16bd
00000340: 96bd 7d3b 9e9f 98bb 258b 07be 0618 6abd
00000350: 6be8 8f3d 55c3 633c f3ac 363d 5e49 cdbd
00000360: b14e 563d 8928 ae3d ff4f 223d d326 9f3d
00000370: d283 6abd 4a85 8c3c b565 b3bd 9c35 b4bd
00000380: f5d2 833d de83 4a3d 764d 703c 8128 eabc
00000390: dbee afbd d6b6 8cbc 48af 873d 1ec6 2f3d
000003a0: b25c 1e3e 92c4 033d 852d d8bc ec46 bebd
000003b0: 8c04 93bc a4b2 4b3d 8270 0b3d 4d34 fcbc
000003c0: 6c9d 54bd ae97 023d c1aa afba 1a8b d4bd
000003d0: e17d a1bc a9f1 263d c978 9dbd 5555 5b3d
000003e0: 600a 003c dfc8 11be 5b79 1ebc ea0e 83bd
000003f0: 4272 933d 19b3 fe3c 6ccd 993d 923c a3bd
-0.10175312 0.04112454 0.07033913 -0.059055272 -0.057601362 0.05547707 0.10872692 0.01849133
-0.084288254 0.039463144 -0.008479558 -0.057532225 0.028543478 -0.03211247 -0.029744027 0.013393617
-0.062954634 -0.012673404 -0.062163956 0.053680953 -0.02973968 0.05621319 0.009959943 0.0011581474
-0.0036040058 0.03874262 0.059441485 0.0149063505 -0.030111834 0.11486097 -0.024340944 -0.044045325
-0.0064405426 -0.024280755 0.0514789 0.06469518 -0.09517623 0.029553734 0.02940083 -0.026927302
0.0674311 -0.079992376 -0.062333964 -0.05389632 0.11352814 -0.21002917 -0.08094985 -0.12843683
-0.04217155 -0.020095382 0.089735396 -0.08960329 0.0025848134 0.13833468 -0.0023491872 0.015479242
-0.12260044 0.005869849 -0.028871497 0.00601035 -0.07865076 -0.021120677 0.030130295 -0.082023464
-0.074205875 -0.03741059 0.02165666 -0.1023075 0.06166745 0.032098025 0.035164002 -0.011953683
0.21924126 0.011763811 -0.105338864 0.010264786 0.039706584 -0.059610665 0.04647579 -0.1136038
0.028951207 0.053350937 -0.15730031 -0.080835946 0.024276244 0.018116457 0.014708659 -0.07062041
0.061764617 -0.14637826 -0.06653248 -0.07455122 -0.0927147 -0.034470245 0.071880616 0.025086952
0.04510103 0.04301001 -0.08492866 0.036588445 -0.027530458 -0.02489297 -0.08635542 -0.15514386
-0.030382464 -0.08547048 0.09021633 0.01760205 -0.07825604 0.020414555 -0.029179687 0.11471634
0.056216683 -0.088637054 -0.07820197 0.16016264 -0.022477789 -0.03073874 -0.09099388 0.001228613
-0.022738855 0.009738533 -0.05959961 0.14920528 -0.014882882 -0.059993453 -0.09718169 0.051519647
-0.07250298 -0.09268804 0.01576568 -0.06998378 0.07094185 0.019656003 -0.1888743 -0.021497248
-0.12395668 0.085757814 0.033022687 -0.068499364 0.07981182 0.030271774 0.122814976 0.009813504
0.05897301 0.049606528 0.032885525 0.01526323 0.04810491 -0.012685041 -0.034258 -0.011671441
-0.03305042 0.08458047 0.04715821 0.06606794 0.049193982 0.017511485 0.044008773 -0.011257831
-0.07924623 0.04370925 -0.0256594 -0.033901803 0.08432044 0.08989644 0.04981635 -0.122339055
-0.044469345 0.11183554 0.074115835 0.0027223409 -0.047789436 -0.09919366 -0.052432206 -0.032058436
-0.121847905 -0.016806342 0.04527728 -0.012945127 0.04957169 -0.08515186 -0.05577697 0.09424811
0.111048415 -0.10646103 0.03990406 0.037051585 -0.03429494 0.0108335875 -0.014180963 0.031143332
-0.072847284 0.0039110864 -0.032859944 -0.09463748 0.004648571 -0.07330287 0.018064309 -0.001738734
-0.10774497 -0.047577366 0.029831477 -0.07170077 0.02975407 0.043886803 0.094583325 -0.036737625
0.0038717738 -0.0046576997 -0.13236673 -0.057151817 0.07026752 0.013901551 0.04459853 -0.10023759
0.05232114 0.08503825 0.03962707 0.07771077 -0.05725462 0.0171534 -0.087596335 -0.08799288
0.06436721 0.049442165 0.014666906 -0.028583767 -0.0859048 -0.017177027 0.06625229 0.04291355
0.15465048 0.032169886 -0.026388893 -0.09290871 -0.017946504 0.04973091 0.034042843 -0.030786658
-0.05190794 0.031882934 -0.0013402329 -0.10378094 -0.019713344 0.04075781 -0.076890536 0.053548176
0.007814974 -0.14236782 -0.009672488 -0.06399329 0.07199527 0.03109126 0.07509884 -0.07970537

read_encoder.block3.0.bias f4 [128]
00000000: 9626 403d ffd5 963d 40b6 45bd aed2 85bd
00000010: 590a ae3d 40c4 62bc a1a5 9cb9 4823 543d
00000020: 920d a73d 8b79 81bd fd0a 543c 87bf c13d
00000030: 8e0e 2b3d a34c 5f3d 0801 323d 5db4 84bd
00000040: 9183 093d 7ab2 0a3d 0fdb 4a3d 0260 c23b
00000050: 5dbf c33d 2060 c9bc 7572 fcbb a030 7abd
00000060: d88a a8bd 58ad 373d 675d 2dbc 230b 5a3d
00000070: c977 883c d7e5 32bd 6b45 25bd 4967 d23d
00000080: 15cb 5b3d 155b 0ebd 8bf7 44bb b836 893c
00000090: 57cd 3b3d d6e3 4ebd 4dd7 2a3d c1b6 e4bc
000000a0: 7561 69bc 678a 38bd bbe5 473d 2c28 99bc
000000b0: 108c d73b c87f 773d b480 95bd d97a 7f3b
000000c0: 823b f6bc 2e34 03bc 6582 6bbc be07 623d
000000d0: 422b 9d3c 15c9 b43d 23c1 483d b99c f83d
000000e0: e5a6 223d eef5 0fbd de96 3abc 1548 d9bc
000000f0: 2a62 a23b 145b a03d 7355 4a3a e0c4 a13d
00000100: 6881 a5bd bc1f 4bbc 01e7 5f3d 2614 193d
00000110: 06d0 fcbb f408 2fbd 0fad c3bc e58c 1cbd
00000120: 9e20 60bc 2bf6 393c 86d6 4bbd 1c61 c7bc
00000130: c7a4 75bd 454c 3d3b 235d 38bd 41c1 8c3d
00000140: 6b1f 76bd 6355 3e3d 0a92 22bd 2872 86bd
00000150: 5bae dfbc b90d 47bd 504e 8c3d 5162 5cbd
00000160: 7064 a73c 4d00 683c 4714 a4bb e4cb 87bd
00000170: d55c c6bd 3ffd c93d 7aab 10bd 69a9 8bbd
00000180: 3d1e bcbd 497d d0bc 1e31 ea3c 5db9 45bb
00000190: 1999 0dbc f2df 9e3a 8c45 dabd 779f 8ebd
000001a0: 41aa acbc dadc a7bc 8782 cbbc 39e8 b0bd
000001b0: decc 46bd a3fe 9d3c e477 9c3c 636e 743d
000001c0: 5d7e 91bd 31ad bdbc b2ab b8bc a89e c93c
000001d0: 29a1 363d 5d96 633b 0530 0bbd a5da 96bd
000001e0: 9f6a 523d 95fd 0fbc 972f 8a3d 3133 28bd
000001f0: 5540 6fbc a1aa 85bd fdcb 9e3d 2a18 0bbd
0.0469118 0.07365035 -0.04826951 -0.065343246 0.084980674 -0.013840735 -0.00029878042 0.05179146
0.08156885 -0.063220106 0.012942073 0.09460359 0.041761927 0.054516446 0.043458015 -0.06479714
0.033572737 0.033861615 0.049525317 0.005931855 0.09557984 -0.024581969 -0.007704074 -0.06108153
-0.08229607 0.044843048 -0.010581351 0.053233277 0.01665868 -0.043676224 -0.040349405 0.10273606
0.05366047 -0.03475483 -0.0030054774 0.016749725 0.045850124 -0.05051025 0.041709233 -0.027919175
-0.014244427 -0.045053866 0.048803072 -0.018695913 0.006577976 0.060424596 -0.07299939 0.0038983135
-0.030057672 -0.008008046 -0.01437435 0.055183165 0.019185666 0.08827416 0.049012315 0.121392675
0.039709944 -0.035146646 -0.011388509 -0.02652363 0.0049555497 0.07829872 0.00077184214 0.07898879
-0.08081323 -0.012397703 0.054663662 0.03737273 -0.007715228 -0.042733148 -0.023886232 -0.038220305
-0.013679652 0.011350195 -0.049765132 -0.024338298 -0.059971597 0.0028884572 -0.045010697 0.06872798
-0.060088556 0.04646815 -0.039690055 -0.06564742 -0.027304819 -0.04859707 0.068508744 -0.0538047
0.020433635 0.014160228 -0.0050073 -0.06630686 -0.09685675 0.09862756 -0.035319783 -0.06819422
-0.09185455 -0.025450366 0.028587874 -0.00301703 -0.008642458 0.0012121184 -0.10657796 -0.06964009
-0.021077277 -0.020491052 -0.024842514 -0.08638043 -0.04853522 0.01928646 0.019100137 0.059675585
-0.0710418 -0.023153873 -0.022542808 0.024611786 0.044587288 0.0034727075 -0.033981342 -0.07365922
0.051371213 -0.008788486 0.06747358 -0.041064445 -0.01460274 -0.065266855 0.077537514 -0.03395859

read_encoder.block3.1.weight f4 [128]
00000000: cf40 7f3f 229c 7c3f cc99 8d3f 3435 7c3f
00000010: 62de 7c3f 0876 7d3f 9621 723f ab39 863f
00000020: 6ef6 693f c2c8 803f bc45 7d3f 01c5 693f
00000030: 4b5c 743f de0b 803f f945 763f 4914 7b3f
00000040: 5dec 703f 8c08 7d3f e8fb 813f 2880 803f
00000050: c0bd 773f 4a20 793f d646 7b3f 49f2 7a3f
00000060: a825 733f 7696 793f 65fa 863f 236b 743f
00000070: e4fc 763f b007 7c3f e04e 833f 602b 703f
00000080: 2ea8 703f 1546 7e3f f3a6 873f f6d0 7c3f
00000090: bd64 7c3f dee1 763f e063 803f b7b3 783f
000000a0: 44b5 7b3f 4668 7b3f 43ec 7e3f 2522 7a3f
000000b0: 66b3 803f bd6d 803f 9f70 803f 9b93 7e3f
000000c0: 28c6 7b3f 1743 7b3f a5c5 8c3f 8b29 7f3f
000000d0: 7a1a 763f 3145 803f 9bdd 763f 4018 793f
000000e0: 7d43 773f 40f4 7c3f 0379 7d3f 6c95 793f
000000f0: ec65 853f d3a4 613f fe19 8d3f c1fa 7a3f
00000100: 9ced 713f bdc9 973f 6e8e 5a3f 6fb4 873f
00000110: a0ba 7b3f 291e 723f be7a 6c3f 3d49 833f
00000120: 3e60 6f3f 1b39 783f 2336 803f 7fb6 713f
00000130: bd24 803f 1131 813f 2719 803f 9f9c 723f
00000140: 07e0 853f 11b5 793f d960 633f ae64 793f
00000150: 6d4d 813f 3a31 763f f9ce 7b3f e6db 7e3f
00000160: aae6 7d3f 3db4 733f 8fee 753f 63e6 7a3f
00000170: 2e9f 783f 55a1 763f dd8a 873f 4645 823f
00000180: 64cf 7c3f b8d7 7c3f 44ef 713f dd0b 7c3f
00000190: 2db0 813f 4995 7d3f a635 673f 5c0c 803f
000001a0: d15f 7e3f f6ee 8b3f 5a8c 773f 2fdd 7a3f
000001b0: b804 773f 4c19 703f 4e4d 7d3f 3f33 7b3f
000001c0: c617 7d3f 7dc3 7a3f 7299 7c3f ecb2 793f
000001d0: c0a8 2d3f 1d9f 803f f05c 793f 1415 783f
000001e0: 2e90 813f 47bf 5f3f 3aa9 783f 6fe7 733f
000001f0: 443b 843f 05db 713f c381 753f 6873 713f
0.99708265 0.9867574 1.106256 0.9851868 0.9877683 0.99008226 0.945825 1.0486349
0.91391647 1.0061266 0.9893453 0.9131623 0.9545333 1.0003622 0.9620052 0.9807783
0.9411066 0.98841166 1.0155001 1.003911 0.9677391 0.97314894 0.9815496 0.9802595
0.94979334 0.9749521 1.0545164 0.9547598 0.9647963 0.9844923 1.0258446 0.93816185
0.9400662 0.99325687 1.0597824 0.9875635 0.98591214 0.96438396 1.003048 0.97149223
0.98323464 0.98205984 0.99579257 0.9770835 1.0054748 1.003349 1.0034369 0.9944398
0.9834924 0.98149246 1.0997816 0.99672765 0.9613415 1.0021116 0.96431893 0.9730263
0.96587354 0.98810196 0.99012774 0.97493625 1.0421729 0.88142127 1.1023557 0.9803887
0.9450319 1.1858441 0.8537358 1.0601939 0.9833164 0.9457727 0.9237479 1.0256726
0.9350623 0.96962136 1.0016521 0.9441909 1.0011212 1.0093099 1.0007676 0.94770235
1.0458993 0.9754191 0.8881965 0.9741925 1.0101753 0.96168864 0.9836269 0.9955429
0.9918009 0.95196897 0.96067137 0.9800779 0.9711789 0.96339923 1.0589253 1.017739
0.9875395 0.9876666 0.94505715 0.984556 1.013189 0.99055916 0.90316236 1.0003772
0.99364954 1.09323 0.96698534 0.9799375 0.96491575 0.937886 0.9894608 0.9812507
0.988644 0.9795454 0.9867164 0.9753864 0.6783562 1.0048558 0.97407436 0.9690716
1.0122125 0.8740124 0.9713322 0.95275015 1.0330586 0.9447482 0.95901126 0.9431672

read_encoder.block3.1.bias f4 [128]
00000000: ebaf 14bd 0b0f 16bd 4e80 c6bc 6ae3 4cbd
00000010: d7ec 10bd fa27 07bd 160d 1ebd 249c e8bd
00000020: 2e5b 80bd 1889 0fbd 2d43 0abc 5a57 61bd
00000030: 50ce 0abd dde2 29bc 27bc 33bd 512c 8fbc
00000040: 9f21 abbc e9b8 b8bb 2a1a 2abd 34e8 16bd
00000050: 2491 fdbc 3be4 e0bb 7b1f b4bc a539 00bd
00000060: 6fa8 50bd d90a 19bc eaf6 493c 2f2e 5cbd
00000070: c421 07bc 17ba 06bd ae91 01bd 2190 56bd
00000080: dbd5 19bd bd4b 5cbd 704c 27bd 2775 febc
00000090: add9 03bd cd5e 25bd 83cc 50bd a846 77bc
000000a0: 9b68 ebbb 241c 14bd 8543 f6bb f8fa cbbd
000000b0: 0e21 14bd 53ae 52bc e8ca 78bd 7bcd 66bd
000000c0: 2164 12bd 7545 53bc 8afa 0fbc 47a9 1dbd
000000d0: 860f 36bd 3223 0fbd 5a0e c8bc 85bd 9abc
000000e0: 46a6 17bd 7382 8bbc 51b1 74bc 5325 8bbc
000000f0: 6112 eabc 2ef5 25be eb0b 1fbd 0ba2 50bc
00000100: 8f3d c9bd 5517 69bd 92f0 efbd a6be 93bc
00000110: d34c 0cbd 5d7e 14bd 1c8c 62bd f56b 55bd
00000120: 07e2 79bc 77e5 95bc f665 11bd d3c5 95bd
00000130: 6b1f 48bd 10e9 5e3b 72bc 6ebd 8cb1 3bbd
00000140: 792d f6bc 7ff1 ddbb cbb3 dcbd 8aab 94bc
00000150: fbe2 c3bc 6ed6 22bc 534b 3cbd 47b1 0ebd
00000160: 3326 10bd 5c03 ddbd 8b09 b1bc 9ce5 fabb
00000170: a7e0 68bd 0e0c 14bd 0c02 86bd 32fc 3cbc
00000180: 230e 27bd 6c59 76bd 6963 25bd 0d83 25bd
00000190: 0d2b a0bd 0393 eabb 9662 8ebd 1330 91bc
000001a0: 6092 0ebd 0f6f 42bc 283c c6bd 3624 24bd
000001b0: b471 0fbd 9980 69bd 9949 1ebd a4be 07bd
000001c0: 2b00 c3bc a78a 11bd b8d8 53bd 334c 51bc
000001d0: dadb 9ebe 228f 20bc f333 05bd c220 33bd
000001e0: 5a8a 52bd 518b 77bd 4ab7 60bc 1c55 b8bc
000001f0: c2ef 68bd 2381 e3bc 9cde eebc d2da 6fbd
-0.03630058 -0.03663544 -0.024231102 -0.050021566 -0.035382118 -0.03299711 -0.0385867 -0.113579065
-0.06267391 -0.035042852 -0.0084388675 -0.055014946 -0.03388816 -0.01036903 -0.043880608 -0.017477186
-0.020890055 -0.0056372774 -0.04152886 -0.03684254 -0.030952998 -0.0068631447 -0.021987667 -0.031304974
-0.05094188 -0.009340965 0.012326935 -0.05375498 -0.008247796 -0.032892313 -0.03163307 -0.052383546
-0.037557464 -0.053783167 -0.04084438 -0.031061722 -0.032190014 -0.040373612 -0.050976288 -0.015092529
-0.007184101 -0.03615965 -0.007515373 -0.09959978 -0.036164336 -0.012858945 -0.06074038 -0.056348305
-0.03574002 -0.012894978 -0.0087877605 -0.038491514 -0.044448398 -0.034945674 -0.024420906 -0.018889198
-0.037023805 -0.017029976 -0.014934854 -0.016985571 -0.028573217 -0.1620681 -0.038829725 -0.012733947
-0.098261945 -0.056907017 -0.11715807 -0.018035244 -0.034252953 -0.036253322 -0.0553094 -0.05210491
-0.015251643 -0.018297894 -0.03549763 -0.073131226 -0.048858088 0.0034013428 -0.058285184 -0.04582362
-0.03005098 -0.0067731733 -0.1077648 -0.018148202 -0.023911944 -0.009938819 -0.045970272 -0.034837034
-0.03519268 -0.107916564 -0.021610996 -0.007656766 -0.05685487 -0.03614431 -0.06543359 -0.011534737
-0.040784966 -0.060143873 -0.040378008 -0.040408183 -0.07820711 -0.0071586384 -0.069523975 -0.017723119
-0.034807563 -0.011867299 -0.09679443 -0.040073596 -0.035020545 -0.057007406 -0.038644407 -0.033140793
-0.023803791 -0.03553262 -0.05172035 -0.012774515 -0.31027108 -0.0097997505 -0.032520246 -0.043732412
-0.051401474 -0.060435597 -0.0137155745 -0.02250152 -0.056869276 -0.027771538 -0.029158883 -0.058558293

bag_predictor.weight f4 [1, 128]
00000000: 22dc cf3c 8fdd 7b3c 5968 ffbd 416c 123d
00000010: 6ade b3bc f3ab f53d 4b4c f3bc c7ca 563d
00000020: 0074 04bd 11dc 893d be0d 21bd 62c9 c63b
00000030: 4e17 a8bc a39e 86bd e9c8 443d 767e b6bd
00000040: 1d58 53bd 2771 74bd 3063 a03d 5bd3 e33c
00000050: 1b42 c1bc 14dc 40bd ff73 143d 80f3 813d
00000060: fe00 6fbc 2004 82bd 28ac a8bc fd0e d3bc
00000070: 5014 683d 96eb 163d 70b4 c83d 45c7 aebc
00000080: 99da 2e3c 7f85 9bbc 242e 2abd 6a25 b03d
00000090: 4e85 c13c a4e5 2e3c 3b6a 163b 2f19 b4bd
000000a0: eb2d 9bbd 5a7a 973d 89ee 50bd 0fa0 833b
000000b0: 6382 d03d 4471 dbbd 412e 963c 8438 aa3c
000000c0: 1c8f 2c3d 680a 85bd a4d9 20be ee7c 1fbd
000000d0: c696 fcbc bf9c 1dbe e332 f2bc 5d4d 04bd
000000e0: d489 c7bc 1f81 0a3c 8936 4cbd 0a32 15bd
000000f0: ac75 74bd 6356 12bc f13a 85bd 9434 c0bd
00000100: d76c 18bc e108 f8bd b03d 893b abb4 d1bd
00000110: 66d2 643c 8c6e be3c 8a71 213d 9548 3f3c
00000120: 36fa 8dbd 55a8 03bd e8fc b73d 0fec 91bc
00000130: fe7c f13c 7823 8dbd e9b3 d33c fdbe dfbc
00000140: 00f3 093d a216 69bd c978 04bd d13c 71bd
00000150: 7bc7 653c 9e06 72bd d2d8 3d3a 1e35 693d
00000160: e9d8 1e3c 5a71 a8bc e12d 14bd 595a 26bd
00000170: 7e07 513d 7e7c a8bc 7899 263c 34e9 debd
00000180: ccf8 483c 05f7 6fbc 7224 21bd b255 993d
00000190: 6a07 573d 6f6e 1dbd 1c66 b73a a52a ccbd
000001a0: b4f6 843d ef83 f7bd 59fe 0c3c 0772 383c
000001b0: 4ce3 063d 2f0c d5bc ad53 643c 3691 38bb
000001c0: df42 593d c0e3 363d 7721 313d e038 b7bd
000001d0: c6ac dfbb 36ff b4bd ab2b 403b 7b2e 403d
000001e0: 5bf1 fd3c 70ea cebd d54d 97bd 7ee7 f4bc
000001f0: 6ff5 c83c 1a7d 0b3e 2584 febc a133 8dbc
0.025373522 0.015372648 -0.124710746 0.03574777 -0.021956641 0.11995687 -0.029699465 0.052439477
-0.03233719 0.067314275 -0.039319746 0.006066487 -0.020518925 -0.06573226 0.048043165 -0.08910839
-0.051597703 -0.059678223 0.078314185 0.027810743 -0.023591092 -0.047084883 0.036243435 0.06345272
-0.014587639 -0.06348443 -0.020589903 -0.025763983 0.056659997 0.036845766 0.09800041 -0.021335253
0.010672235 -0.018984554 -0.04154791 0.08600886 0.023623135 0.010674868 0.0022951502 -0.08793866
-0.075771175 0.073963836 -0.051008735 0.004016883 0.10181119 -0.10714963 0.018332602 0.020778902
0.042128667 -0.064961255 -0.15708023 -0.0389375 -0.030833613 -0.15391825 -0.02956528 -0.032300342
-0.024357714 0.008453636 -0.049856696 -0.036424674 -0.059682533 -0.008931729 -0.06505383 -0.093850285
-0.009303293 -0.121110685 0.004188262 -0.10239538 0.0139661785 0.023246072 0.03941492 0.01167502
-0.069324896 -0.032142956 0.08983785 -0.017812757 0.029478546 -0.06891531 0.025842624 -0.02731275
0.03367901 -0.05690635 -0.032341752 -0.05889589 0.014024611 -0.059088342 0.00072420866 0.056935422
0.00969527 -0.020561863 -0.036176566 -0.040613506 0.051032536 -0.020567175 0.010168426 -0.10884324
0.012266349 -0.014646296 -0.039341398 0.07487048 0.052497305 -0.038435396 0.0013992223 -0.09969071
0.064923674 -0.12085711 0.008605563 0.011257655 0.03293161 -0.026006786 0.0139359655 -0.0028162724
0.05304229 0.044650793 0.043244805 -0.08946395 -0.006826016 -0.0883774 0.0029322903 0.046919327
0.030998876 -0.10103309 -0.07387892 -0.02989554 0.024531094 0.13621941 -0.03106887 -0.017236533
