m6aReplica/3d_66_with_delta/Models/epoch80_rocauc0.906_valpr0.406_valscore1.312.pth (torch, 155293 bytes, 13 tensors)

read_encoder.block1.0.weight f4 [128, 24]
0	0xbe6b4191	-0.2297423
1	0x3f895beb	1.0731176
2	0xbd69209e	-0.05691587
3	0x3de0ea61	0.10982204
4	0x3f9e5473	1.2369522
5	0x3cd6f3c3	0.026239282
6	0xbf6622ad	-0.8989666
7	0x3fe69a6d	1.8015877
8	0x3e8351b2	0.25648266
9	0x3f8c608f	1.0966967
10	0xc00ec656	-2.2308555
11	0x3f3075d2	0.6892978
12	0xbce23828	-0.027614668
13	0xbc458cee	-0.012057526
14	0x3eec6c85	0.46176544
15	0xbc544e8f	-0.012958183
16	0xbdc23118	-0.0948202
17	0xbb918f87	-0.0044421586
18	0xbd5d2d25	-0.05399813
19	0xbcf16b89	-0.029470222
20	0xbc7c3b8f	-0.015395059
21	0xbcd84bee	-0.026403394
22	0x3bb9dab9	0.0056718257
23	0x3cdccf53	0.026954329
24	0x3d784815	0.060615618
25	0xbef2f96c	-0.4745592
26	0xbdbedef2	-0.09319867
27	0xbfa31127	-1.273961
28	0xbe33ab3c	-0.1754579
29	0xbe6749b3	-0.22586708
30	0x3fced06b	1.6157354
31	0xbeba05cc	-0.36332548
32	0x3e25021e	0.16114089
33	0xc0565545	-3.3489544
34	0x40c0c569	6.024098
35	0x3f176647	0.5914044
36	0x3dab3328	0.08359367
37	0x3e7bae4b	0.24578206
38	0x3e10b92d	0.14133139
39	0x3e7d4c8d	0.24736233
40	0x3f0488ce	0.5177125
41	0xbba78a30	-0.005112909
42	0x3c8c7089	0.017143505
43	0x3f2b1676	0.6683115
44	0x3df61e95	0.12017552
45	0xbe7dc173	-0.24780826
46	0x3f2ebf95	0.6826108
47	0x3dbfd2e6	0.093663976
48	0xbd4cbd18	-0.04998502
49	0x3eb5e75c	0.35528076
50	0xbe5d3ed5	-0.21606
51	0xbf492e82	-0.7858659
52	0xbdc0dcb5	-0.094170965
53	0x3e29111b	0.16510431
54	0x3fcc2fc3	1.5952076
55	0xbc59e34b	-0.01329882
56	0x3e147a0b	0.1449968
57	0xbf86f850	-1.0544529
58	0x409021dc	4.504133
59	0xbf5b79e1	-0.8573285
60	0xbeafa3ce	-0.3430466
61	0xbcae771f	-0.021297036
62	0x3ea77500	0.3270645
63	0xbe378fba	-0.17925921
64	0x3e2fa431	0.17152478
65	0xbd9c2401	-0.07624055
66	0xbd4cbefe	-0.04998683
67	0xbdfec4bf	-0.1243987
68	0xbf32f6ce	-0.69907844
69	0xbe9d32c2	-0.30702788
70	0x3e90a114	0.28247893
71	0x3e3203b8	0.17384231
72	0x3ee30c85	0.4434549
73	0xbf1a359b	-0.60238045
74	0xbdf6f50f	-0.1205846
75	0x3f91aee2	1.1381495
76	0xbf70f73b	-0.94127244
77	0x3e22087e	0.15823552
78	0x3f673bee	0.9032582
79	0xbf0afa3b	-0.5428807
80	0xbd25aa5d	-0.040445674
81	0x4002928e	2.040195
82	0xbfa727fe	-1.305908
83	0xbea9d2be	-0.33168596
84	0x3f286f0a	0.6579443
85	0xbe80a23a	-0.2512377
86	0x3d0712fb	0.032977086
87	0xbe698f61	-0.22808601
88	0x3ce1e08f	0.027572898
89	0x3e992c0a	0.29916412
90	0xbe99ead1	-0.30061963
91	0xbde7e971	-0.11323822
92	0x3f60b7f5	0.87780696
93	0x3ecac64b	0.3960441
94	0xbcac7bb4	-0.02105508
95	0xbea5b1ec	-0.32362306
96	0x3fa8d412	1.3189719
97	0xbdb1c7b9	-0.08680672
98	0xbdccbb2d	-0.099966384
99	0x3f1b0d54	0.6056721
100	0xbf1a3193	-0.60231894
101	0x3c97c203	0.01852513
102	0x403be1ba	2.9356523
103	0xbf2f7d6e	-0.68550766
104	0x3d3451d5	0.044023354
105	0xbf4b668c	-0.7945335
106	0x4085ec8d	4.185126
107	0xbf63464e	-0.8877915
108	0xbddc97d6	-0.10771148
109	0xbe5ee383	-0.21766476
110	0x3ee4b643	0.44670305
111	0x3edceee8	0.4315102
112	0x3e503ba0	0.20335245
113	0xbe65ef02	-0.22454455
114	0xbe4eb003	-0.2018433
115	0x3efa1596	0.48844594
116	0xbe842050	-0.25805902
117	0xbf167d28	-0.58784723
118	0xbe431dee	-0.19054386
119	0xbe65ac5b	-0.2242903
120	0xbe1691b8	-0.14704025
121	0xbf83a7ac	-1.0285544
122	0x3d0cd166	0.034379385
123	0xbfc9895e	-1.5745046
124	0xbf91c046	-1.1386802
125	0xbd8c7038	-0.068573415
126	0xbf47dad6	-0.7806829
127	0xbf73d035	-0.95239574
128	0x3e52e853	0.20596437
129	0xc08ec0d0	-4.4610367
130	0x4037d9d8	2.8726711
131	0xbe721da5	-0.23644121
132	0x3f5468dc	0.829725
133	0x3e228055	0.15869267
134	0xbe1944ea	-0.14967695
135	0x3bb70bd4	0.005586127
136	0xbe0d5240	-0.13800907
137	0xbf5f5af8	-0.8724818
138	0xbd5c65e0	-0.053808093
139	0x3ea6bc76	0.3256566
140	0x3dc2f999	0.09520263
141	0xbd68bc7c	-0.056820378
142	0xbdbb4d16	-0.09145562
143	0x3c721a56	0.014776787
144	0x3f7ab52f	0.97932714
145	0x3ec53ef2	0.38524586
146	0x3e04e232	0.12976912
147	0x3fd83539	1.6891242
148	0x3f216d8e	0.6305779
149	0xbe1a2f14	-0.15057021
150	0x3e9673c4	0.29385197
151	0x3e191d05	0.14952476
152	0x3d100f24	0.03517069
153	0x3f631e21	0.8871785
154	0xc03cd282	-2.9503484
155	0x3c0cfd20	0.008605272
156	0xbef567b8	-0.47930694
157	0xbde8e2cf	-0.11371385
158	0x3e58e1b2	0.21179846
159	0x3e2e8aaf	0.17045091
160	0x3f2b11e6	0.66824186
161	0x3cb79214	0.022408523
162	0x3db55996	0.08854978
163	0xbf11eabf	-0.5699882
164	0xbe009e68	-0.12560427
165	0xbe8c7622	-0.27433878
166	0xbe7a5063	-0.24444728
167	0x3f071c0a	0.5277716
168	0x3fa327fd	1.2746578
169	0xbc20ffd0	-0.009826615
170	0xbd807ea0	-0.06274152
171	0x3f841d91	1.0321523
172	0xbd9642dd	-0.07336972
173	0xbcf7c9dd	-0.030247623
174	0xbf3549f5	-0.70815974
175	0xbe1122c8	-0.14173424
176	0xbe489488	-0.1958791
177	0xbf51f49e	-0.8201388
178	0xc056a4c9	-3.3538077
179	0xbf86bc45	-1.0526205
180	0x3ecc837e	0.3994407
181	0xbea9be89	-0.3315318
182	0xbe1d59dd	-0.15366311
183	0xbe68acc4	-0.22722155
184	0x3edef309	0.43544796
185	0x3f1e0f44	0.61742043
186	0xba303914	-0.00067223725
187	0x3e0aa1aa	0.13538232
188	0x3e4595b5	0.1929539
189	0x3e49d869	0.1971146
190	0x3f005c76	0.50141084
191	0xbebeec1e	-0.37289518
192	0xbed196ca	-0.40935355
193	0x3f0e1cab	0.55512494
194	0x3d11a759	0.035559986
195	0xbe7301ec	-0.23731202
196	0x3f4d1994	0.80117154
197	0x3bae5579	0.0053202477
198	0xbfae8902	-1.3635561
199	0x3f8f2297	1.1182431
200	0xbe919da9	-0.28440598
201	0x3f3e55bb	0.74349564
202	0xc00b9c76	-2.1814246
203	0x3f5c3f75	0.8603433
204	0xbe8829a0	-0.26594257
205	0xbec87003	-0.39147958
206	0xbedece1b	-0.4351662
207	0xbe2f3dbc	-0.17113394
208	0xbdda2ced	-0.106531
209	0x3a9f4be8	0.0012153359
210	0x3db04383	0.08606627
211	0x3ebf4aa8	0.37361646
212	0xbdefceb2	-0.11709346
213	0xbe6a5a1a	-0.22885934
214	0xbf2c48f8	-0.6729884
215	0x3ec7db96	0.39034718
216	0xbe15695d	-0.14590974
217	0xbf262c6d	-0.6491154
218	0x3de06f30	0.10958707
219	0xbf9e2619	-1.2355376
220	0xbfd39553	-1.6529945
221	0x3e2fbc23	0.17161612
222	0x3edc673b	0.4304751
223	0xbfc00850	-1.5002537
224	0xbe76cf08	-0.24102414
225	0xc02b7db1	-2.6795466
226	0x40a4e713	5.1532073
227	0xbf670be6	-0.9025253
228	0x3f66dda3	0.9018194
229	0xbe8f10bc	-0.27942455
230	0xbedab545	-0.42716423
231	0x3e2543d3	0.16139154
232	0xbe229602	-0.15877536
233	0x3dc6b84e	0.09703122
234	0xbe3e2734	-0.18569642
235	0x3d064e9e	0.03278982
236	0x3def7ada	0.11693354
237	0xbd884778	-0.066542566
238	0xbd1be79c	-0.038062677
239	0x3cf4fcf5	0.029905776
240	0x3f4cbeb4	0.7997849
241	0x3dd2e40f	0.10297405
242	0x3d657ffd	0.056030262
243	0xbfbf58f5	-1.4949023
244	0x3f22cfdf	0.63598436
245	0xbcddfe7d	-0.027098889
246	0xbfbbcfce	-1.4672792
247	0x3f33965f	0.70151323
248	0xbd011777	-0.03151652
249	0xc06e5cd6	-3.7244163
250	0x3d80230b	0.06256684
251	0x3f8ac0e7	1.0840119
252	0xbef4bfe1	-0.47802642
253	0x3e4871d4	0.19574672
254	0xbed78903	-0.4209672
255	0xbeffa7fc	-0.4993285

read_encoder.block1.0.bias f4 [128]
0	0xbf61ee28	-0.8825402
1	0x3f0f20cc	0.5590942
2	0xbd45437c	-0.04816006
3	0x3eb804fb	0.359413
4	0x3f134cab	0.5753886
5	0x3f0fa2d9	0.5610786
6	0x3c97a54e	0.01851144
7	0x3f29c1d9	0.66311413
8	0xbe04ff8f	-0.12988113
9	0x3ef76fee	0.48327583
10	0xbd5f6eb6	-0.05454894
11	0xbe2f28b2	-0.17105368
12	0x3e6384b8	0.22218597
13	0xbf6d2294	-0.9263089
14	0x3ed6952d	0.41910687
15	0xbf44cd16	-0.76875436
16	0xbf3a2c1b	-0.7272355
17	0xbf626fb5	-0.884517
18	0x3f576b54	0.84148145
19	0x3ef5405f	0.47900674
20	0xbe1e0fd3	-0.15435724
21	0x3ee6ef40	0.45104408
22	0x3f0a5c00	0.5404663
23	0x3ea174e0	0.3153448
24	0x3e3625d8	0.17787874
25	0xbe9002a5	-0.28127018
26	0x3f02fabf	0.5116386
27	0xbf673b50	-0.9032488
28	0x3cf36c65	0.029714772
29	0x3f34b07a	0.7058178
30	0x3e4d9aa9	0.2007853
31	0xbf7220a5	-0.9458106
32	0x3ebb1f05	0.36547104
33	0x3f1561b0	0.58352184
34	0x3eb8049d	0.3594102
35	0x3f29d776	0.6634439
36	0x3f3f6e13	0.74777335
37	0xbf833973	-1.0251907
38	0x3eabac1c	0.33529747
39	0xbf695623	-0.9114706
40	0x3da35631	0.07975424
41	0x3f455dca	0.77096236
42	0xbf502939	-0.813129
43	0x3f3527db	0.7076394
44	0x3ef141a2	0.47120386
45	0x3e2baac6	0.16764364
46	0x3d12fadf	0.03588378
47	0xbf5a2510	-0.852128
48	0xbf87f37e	-1.0621183
49	0xbf2f75d7	-0.68539184
50	0xbec23c66	-0.37936705
51	0xbf076430	-0.5288725
52	0xbe06993c	-0.13144392
53	0xbf5e12c1	-0.86747366
54	0x3f172fc7	0.5905728
55	0x3f51f8c0	0.8202019
56	0x3d787d46	0.060666345
57	0xb612c498	-2.1870128e-06
58	0xbecab10f	-0.3958821
59	0xbeeda191	-0.46412328
60	0x3f82804f	1.0195407
61	0xbf8fad22	-1.1224711
62	0x3e371f17	0.17882954
63	0xbf73a477	-0.9517283
64	0xbf1eb48f	-0.6199426
65	0xbeb03a2c	-0.34419382
66	0xbf0c0774	-0.5469887
67	0x3e6a56a1	0.22884609
68	0x3e429e06	0.19005594
69	0x3e3adcd9	0.18248309
70	0xbe51be66	-0.20482787
71	0xbf130328	-0.5742669
72	0x3e9003dc	0.28127944
73	0xbcf6326c	-0.03005334
74	0x3f06cb67	0.5265412
75	0xbf816a04	-1.0110478
76	0xbf345ac4	-0.70451
77	0xbf88b660	-1.0680656
78	0xbf7bb7c5	-0.98327285
79	0xbf1135e3	-0.5672285
80	0xbf54119c	-0.8283937
81	0xbed10a29	-0.40828064
82	0x3f27c1e2	0.65530217
83	0xbead2260	-0.3381529
84	0xbf37dc49	-0.71820503
85	0xbee6f852	-0.45111328
86	0x3f2b6aca	0.6695982
87	0xbe34c8f9	-0.1765479
88	0xbf345332	-0.70439446
89	0x3f1682f4	0.5879357
90	0xbf4dfe0b	-0.80465764
91	0x3f0d384c	0.5516403
92	0xbecb9470	-0.39761686
93	0x3f1542dd	0.5830515
94	0x3edd4ba5	0.43221775
95	0x3ee7c2d9	0.45265844
96	0x3ef36c2f	0.47543475
97	0xbc389940	-0.011267006
98	0xbf565937	-0.8372988
99	0x3f50ff7d	0.81639844
100	0x3f5092fb	0.81474274
101	0xbdf20a69	-0.11818392
102	0xbf3e0d6e	-0.7423924
103	0xbf544021	-0.8291035
104	0x3f43a03a	0.7641636
105	0xbf2204fa	-0.63288844
106	0xbd5321b4	-0.051545814
107	0xbf1154a6	-0.5676979
108	0xbf9500bc	-1.1640849
109	0x3f01e098	0.5073333
110	0x3f1b11d4	0.6057408
111	0x3f18a1fb	0.5962216
112	0xbef19226	-0.47181815
113	0xbf3f6228	-0.7475915
114	0xbf079862	-0.5296689
115	0x3f2e3fec	0.6806629
116	0x3f577ce7	0.8417496
117	0xbf3aa62e	-0.7290982
118	0xbeca75d4	-0.3954302
119	0x3f4f1ff5	0.8090814
120	0x3f1c2d94	0.61007047
121	0xbf418804	-0.7559817
122	0xbf793651	-0.97348505
123	0x3e9f37df	0.31097314
124	0x3f2cc2bb	0.67484635
125	0x3e8b9e84	0.27269375
126	0xbe9b3647	-0.30314848
127	0xbf730694	-0.9493191

read_encoder.block1.1.weight f4 [128]
0	0x3f976808	1.1828623
1	0x3fd9bb14	1.7010217
2	0x3fb6ae13	1.4271873
3	0x3faec2eb	1.3653234
4	0x3fd2c6cd	1.6466919
5	0x3fa683b4	1.3008943
6	0x3fa7ab1b	1.3099092
7	0x3fcf4c82	1.6195223
8	0x3fd39dd8	1.6532545
9	0x3f950562	1.1642268
10	0x3f9a88bf	1.2072982
11	0x3f6b5314	0.9192364
12	0x3f92604b	1.1435636
13	0x3f00a21f	0.5024738
14	0x3fda8288	1.7071085
15	0x3f8dbcf6	1.1073291
16	0x3f322b5b	0.69597405
17	0x3f8f4310	1.1192341
18	0x3fd7a0be	1.684593
19	0x3fad8d9d	1.3558842
20	0x3fefb523	1.8727154
21	0x3fab3bf6	1.3377674
22	0x3f48266e	0.7818364
23	0x3f515268	0.81766367
24	0x3fc27a73	1.5193619
25	0x3fb3e483	1.4054111
26	0x3f94c4c7	1.1622552
27	0x3f214c7a	0.6300732
28	0x3fa63f29	1.2988025
29	0x3fc7ca03	1.5608524
30	0x3fc9a614	1.5753808
31	0x3ec906c8	0.39262986
32	0x3f22023f	0.6328468
33	0x3f27380b	0.6531989
34	0x3fb12a1a	1.3840973
35	0x3faf896e	1.3713815
36	0x3fa844cb	1.3145994
37	0x3f0fcfb1	0.56176287
38	0x3fac2382	1.3448336
39	0x3f9b7fc0	1.2148361
40	0x3f650d60	0.89473534
41	0x3f9ea51a	1.2394135
42	0x3f97e9ac	1.1868186
43	0x3fac7474	1.3473039
44	0x400a2659	2.1585906
45	0x3f4c9bd4	0.79925275
46	0x3fa47cbb	1.2850565
47	0x3eee8088	0.46582437
48	0x3f870fd5	1.0551707
49	0x3ee73da1	0.45164207
50	0x3fa07cc3	1.2538074
51	0x3eff712b	0.49891028
52	0x3fb252b4	1.3931489
53	0x3fab1df2	1.3368514
54	0x3ff42465	1.9073607
55	0x400d507c	2.2080374
56	0x3fb334fa	1.4000542
57	0x3fda5d81	1.7059785
58	0x3f0f6b20	0.56022835
59	0x3f10c758	0.56554174
60	0x3fa1b922	1.2634623
61	0x3f01bdee	0.50680435
62	0x3fab888f	1.3401049
63	0x3f0ad189	0.54225975
64	0x3eecc892	0.46246773
65	0x3f28d239	0.65945774
66	0x3eebbedf	0.4604406
67	0x4015eebf	2.342697
68	0x3fbce6a3	1.4757885
69	0x3fd908ad	1.6955773
70	0x3f30be31	0.6904021
71	0x3efa89d8	0.4893329
72	0x3fbc2343	1.4698261
73	0x3faf5018	1.3696318
74	0x3fab4268	1.337964
75	0x3f0085fe	0.50204456
76	0x3ee770ba	0.4520319
77	0x3eda37ec	0.4262079
78	0x3f9a2385	1.204209
79	0x3f16a57b	0.58846253
80	0x3ef57906	0.47943896
81	0x3f395f69	0.7241121
82	0x3fe815ca	1.813165
83	0x3f3a2ace	0.72721565
84	0x3f24ec1d	0.6442278
85	0x3f83342b	1.0250295
86	0x3f49a082	0.7876054
87	0x3f3b9493	0.7327358
88	0x3eff57e0	0.4987173
89	0x3f83aed9	1.0287734
90	0x3f2c3054	0.6726124
91	0x3fb962f1	1.448332
92	0x3f99c04a	1.2011807
93	0x3f6d00ba	0.92579234
94	0x3fab1a06	1.3367317
95	0x400b3af0	2.1754723
96	0x3f98cd0a	1.1937573
97	0x3efbdef4	0.49193537
98	0x3f3f66e1	0.74766356
99	0x3f990d5b	1.1957201
100	0x3fbb1e86	1.461869
101	0x3f263631	0.6492644
102	0x3f8307cb	1.0236753
103	0x3fc1625d	1.5108143
104	0x3fd36a1e	1.6516759
105	0x3f35a52e	0.7095517
106	0x3f4e8085	0.80664855
107	0x3f3d4857	0.73938507
108	0x3f7f8698	0.9981475
109	0x3fc220e3	1.5166286
110	0x3f4633d1	0.77422816
111	0x3fb8495d	1.4397389
112	0x3edc4cd3	0.43027362
113	0x3ef5636e	0.4792742
114	0x3f762f07	0.9616551
115	0x400ad1ec	2.1690626
116	0x4041ce54	3.0282183
117	0x3f18c342	0.5967294
118	0x3fdf7505	1.7457587
119	0x3fc83e4b	1.564401
120	0x3fe26df3	1.7689804
121	0x3f77ae8f	0.9675073
122	0x3f30918b	0.6897208
123	0x3fa915b8	1.3209753
124	0x3fb59bb4	1.4188142
125	0x3fa8680e	1.3156755
126	0x3f194385	0.5986865
127	0x3f365a53	0.71231574

read_encoder.block1.1.bias f4 [128]
0	0xbebd1ad4	-0.3693453
1	0xbe6ee499	-0.2332939
2	0xbeaa7d21	-0.3329859
3	0xbe5b13ab	-0.21394221
4	0xbe0ebaf4	-0.13938504
5	0xbd26a68b	-0.04068617
6	0xbed32284	-0.4123727
7	0xbd4713a6	-0.048602723
8	0xbe74e545	-0.23915584
9	0xbcd2c9ea	-0.025731046
10	0xbed9f2ab	-0.42567953
11	0xbeac7d69	-0.3368943
12	0xbeb971b3	-0.36219558
13	0xbf154c58	-0.58319616
14	0xbe24d7d1	-0.16097952
15	0xbedb318c	-0.4281124
16	0xbec00a46	-0.37507838
17	0xbed6f1eb	-0.41981444
18	0xbe426b04	-0.18986136
19	0xbe8b98ab	-0.27264914
20	0xbe52d0d4	-0.20587474
21	0xbe9be7d1	-0.304503
22	0xbe9aff35	-0.30272833
23	0xbeae5c75	-0.34054914
24	0xbe0ebc3c	-0.13938993
25	0xbe52be70	-0.20580459
26	0xbea51d44	-0.3224889
27	0xbefc66d2	-0.49297196
28	0xbe8d26c8	-0.2756865
29	0x3c651794	0.013982672
30	0xbd2cd46b	-0.042194765
31	0xbf2d31e8	-0.67654276
32	0xbec5b6f2	-0.3861614
33	0xbf028652	-0.50986207
34	0xbebd56f5	-0.36980405
35	0xbe9d258e	-0.30692714
36	0xbe023ffb	-0.12719719
37	0xbf21a027	-0.63135
38	0xbe33623a	-0.17517939
39	0xbec6cf98	-0.38830256
40	0xbef267ce	-0.47344822
41	0xbebacb1d	-0.36483088
42	0xbeb6cdf8	-0.35704017
43	0xbe1a0867	-0.15042268
44	0x3e0910b5	0.1338528
45	0xbe9ca0a4	-0.3059131
46	0xbea5cc4e	-0.32382435
47	0xbf37f021	-0.7185078
48	0xbef08f65	-0.469844
49	0xbf104add	-0.5636423
50	0xbe70c66b	-0.2351319
51	0xbf1260ed	-0.57179147
52	0xbec86482	-0.3913918
53	0xbeb110cc	-0.34583127
54	0xbc970754	-0.018436112
55	0x3d2d1205	0.042253513
56	0xbf1bcf25	-0.6086295
57	0xbe140bc5	-0.14457615
58	0xbf009e77	-0.502418
59	0xbf0555b4	-0.520839
60	0xbf112300	-0.5669403
61	0xbf1c4729	-0.6104608
62	0xbf020b64	-0.5079863
63	0xbee492ca	-0.4464324
64	0xbf0ef37a	-0.55840266
65	0xbebde695	-0.37089983
66	0xbef70e95	-0.48253313
67	0xbe93a10b	-0.28833804
68	0xbecbc74c	-0.3980049
69	0xbce2aa13	-0.027668988
70	0xbeb8bece	-0.36083072
71	0xbf098579	-0.5371929
72	0xbea3dfd1	-0.32006696
73	0xbee58522	-0.44828135
74	0xbe548aa4	-0.20756012
75	0xbf033bf1	-0.5126334
76	0xbf2340dd	-0.6377085
77	0xbf20ae11	-0.62765604
78	0xbedc8e2d	-0.43077222
79	0xbef50a19	-0.47859266
80	0xbf10764a	-0.56430495
81	0xbf1f150f	-0.6214151
82	0xbe92e3bc	-0.28689373
83	0xbf0a8c6b	-0.5412051
84	0xbf109933	-0.56483763
85	0xbe9b8d10	-0.3038106
86	0xbe86fe09	-0.26365688
87	0xbef3f34e	-0.47646564
88	0xbeff6218	-0.49879527
89	0xbe833fbd	-0.25634566
90	0xbede6b04	-0.4344102
91	0xbf02132c	-0.50810504
92	0xbed8804b	-0.4228538
93	0xbf0b6264	-0.5444701
94	0xbe6e95ee	-0.23299381
95	0xbe8ca2d5	-0.2746798
96	0xbe72fcb9	-0.23729219
97	0xbedecd77	-0.43516132
98	0xbefdcab9	-0.49568728
99	0xbceada6b	-0.028668603
100	0x3d8e263d	0.06940887
101	0xbf193d2b	-0.5985896
102	0xbebd2953	-0.3694559
103	0xbecbfa00	-0.39839172
104	0x3db83b88	0.0899573
105	0xbe96a3a8	-0.29421735
106	0xbed17ce3	-0.40915594
107	0xbf16358a	-0.58675444
108	0xbf0a4e2f	-0.5402555
109	0xbdbeab40	-0.09310007
110	0xbeada8f2	-0.33917958
111	0xbe433e47	-0.19066726
112	0xbf189e13	-0.596162
113	0xbf018446	-0.5059246
114	0xbea504d9	-0.3223026
115	0xbf2176b6	-0.63071764
116	0x3d433711	0.047659937
117	0xbef60886	-0.48053378
118	0xbdc5e8bb	-0.096635304
119	0xbde5d9b9	-0.11223168
120	0x3d2b4f39	0.0418236
121	0xbeb18ac2	-0.34676176
122	0xbf02600d	-0.5092781
123	0xbe23cbd7	-0.15995727
124	0xbe9911d0	-0.29896402
125	0xbe23f3b3	-0.16010933
126	0xbf268bc1	-0.65057
127	0xbedc02da	-0.42970926

read_encoder.block2.0.weight f4 [128, 128]
0	0xbe823c36	-0.25436562
1	0x3d1bcf45	0.038039465
2	0x3e713b49	0.23557772
3	0xbe6be047	-0.23034774
4	0x3e0eae46	0.13933668
5	0xbed24e1e	-0.41075224
6	0x3e0f5852	0.13998535
7	0x3dd59449	0.10428674
8	0xbc5b814d	-0.013397527
9	0xbda17ef5	-0.07885543
10	0x3ef1ec00	0.47250366
11	0x3d373fda	0.044738628
12	0xbe8320f2	-0.25611073
13	0x3ea7d409	0.32778957
14	0xbe13316a	-0.14374319
15	0xbc47b2b1	-0.012188599
16	0x3e3e287e	0.18570134
17	0x3e831e02	0.25608832
18	0xbe917baa	-0.2841466
19	0x3eba57b0	0.36395025
20	0x3e47c525	0.19508798
21	0x3e806728	0.25078702
22	0x3dfeb3cb	0.124366365
23	0xbea7dce8	-0.32785726
24	0x3aa91cef	0.00129023
25	0xbce832e0	-0.028344572
26	0x3dd757a6	0.105147645
27	0x3e8d6fd2	0.27624375
28	0xbe5088e6	-0.20364723
29	0x3ec74895	0.38922563
30	0xbd216303	-0.039401066
31	0xbd0ab55b	-0.03386436
32	0x3e0deaea	0.13859144
33	0x3e9c732f	0.30556628
34	0xbd412658	-0.047155708
35	0xbcaf2fa8	-0.021385029
36	0x3e0189e0	0.12650251
37	0x3e9b4d3c	0.30332363
38	0x3df4a0bb	0.119447194
39	0x3e4bd9a9	0.1990725
40	0x3de6b94c	0.11265811
41	0x3c96f9d1	0.018429669
42	0x3e630e71	0.22173478
43	0x3e29b8bd	0.16574378
44	0x3f333fbe	0.7001914
45	0xbe04d54c	-0.12971991
46	0x3d91f3b0	0.07126558
47	0x3e34e053	0.17663698
48	0x3eb427db	0.35186657
49	0x3ea79e10	0.3273778
50	0x3e908760	0.28228283
51	0x3d86ccd1	0.065820344
52	0x3ea33969	0.31879738
53	0x3ca58737	0.020206077
54	0xbe3aec56	-0.18254218
55	0x3df23e43	0.11828282
56	0xbeaa8f05	-0.3331224
57	0xbe8b028f	-0.2715039
58	0xbd08a8bb	-0.03336404
59	0x3d93875b	0.072035514
60	0xbe34e691	-0.17666079
61	0x3ec08e13	0.37608394
62	0xbd44c5a7	-0.04804006
63	0x3e863337	0.2621095
64	0x3e039a4b	0.12851827
65	0xbe0f1e9b	-0.13976519
66	0xbd3c3b86	-0.045955203
67	0x3f1be285	0.60892516
68	0xbced4104	-0.028961666
69	0x3df02c6c	0.11727223
70	0x3e1fe6f3	0.15615444
71	0xbe165a87	-0.14682971
72	0x3e81c41b	0.2534493
73	0x3d9899d0	0.074512124
74	0xbea15a28	-0.31514096
75	0x3e6daa65	0.23209532
76	0x3e2b1f50	0.16711164
77	0x3e64edac	0.2235629
78	0x3cd3b6a5	0.025843928
79	0x3e989f91	0.2980924
80	0x3eaf62a6	0.3425495
81	0x3e6122f7	0.21985994
82	0x3ec3edc5	0.3826734
83	0xbe05e6d1	-0.1307633
84	0xbe4d767b	-0.20064728
85	0x3e0511c2	0.12995055
86	0xbd35607e	-0.044281475
87	0x3c888d65	0.016668985
88	0x3ea5a373	0.32351264
89	0xbdddeec8	-0.108365595
90	0x3e614e35	0.2200249
91	0x3e268920	0.16263247
92	0x3d3bda21	0.04586232
93	0x3d378c83	0.044811737
94	0x3e862b16	0.26204747
95	0x3f4f27e8	0.8092027
96	0xbe4fc9db	-0.20291846
97	0x3de40138	0.11133045
98	0x3d35586e	0.044273786
99	0xbf1dd79e	-0.6165713
100	0xbee405a4	-0.44535553
101	0x3ea65fc5	0.3249494
102	0xbe50923a	-0.20368281
103	0xbeabb265	-0.33534542
104	0xbea12112	-0.31470543
105	0xbd5733aa	-0.052539505
106	0x3e135b2d	0.1439025
107	0xbd887a95	-0.06664006
108	0x3ebb8e7c	0.36632144
109	0x3d8020a1	0.062562235
110	0xbe7ba585	-0.2457486
111	0x3d59548d	0.05305915
112	0xbc64270d	-0.013925326
113	0x3e5acb01	0.21366502
114	0xbe172900	-0.14761734
115	0xbe37c5dd	-0.17946573
116	0x3db835e6	0.08994655
117	0xbd0ff6a8	-0.03514734
118	0xbeffd0a2	-0.49963862
119	0xbdc9d1f1	-0.09854496
120	0xbc909525	-0.017649243
121	0xbc1d142d	-0.00958733
122	0xbd8461f6	-0.06463997
123	0xbeee2b39	-0.4651735
124	0x3c5646ef	0.013078435
125	0x3cd0c0e4	0.025482602
126	0x3ec8d1ff	0.39222714
127	0x3e8d659e	0.2761659
128	0x3d86e0e9	0.06585867
129	0xbf3d4605	-0.73934966
130	0x3e6503ab	0.2236468
131	0x3f10aea9	0.5651651
132	0xbe33fdc7	-0.17577277
133	0x3d316f5e	0.0433191
134	0x3e50a259	0.2037443
135	0x3dfb8424	0.12281063
136	0x3e8b4da4	0.27207673
137	0xbe3c87d6	-0.18411192
138	0xbc789362	-0.015171858
139	0x3e8cbf33	0.27489623
140	0x3ccb8d74	0.024847724
141	0x3e93024c	0.2871269
142	0x3e5e782a	0.21725526
143	0x3e1c21d1	0.15247275
144	0x3de12599	0.10993499
145	0x3e0462a5	0.12928255
146	0xbe3c0741	-0.18362142
147	0xbe4489a6	-0.19193134
148	0xbf24a3c1	-0.6431237
149	0xbe52bfc0	-0.2058096
150	0x3ef561fc	0.4792632
151	0xbe8b9c86	-0.27267855
152	0x3e7a76e7	0.2445942
153	0x3e46f5bc	0.19429678
154	0x3e71542f	0.2356727
155	0x3d218a8b	0.039438765
156	0xbe07a5a7	-0.13246785
157	0x3dbc5733	0.091963194
158	0x3df1a556	0.117991135
159	0xbcc0187c	-0.023449175
160	0x3f083479	0.53205067
161	0xbbaf27e6	-0.0053453324
162	0x3e50f33e	0.2040529
163	0xbed832be	-0.42226213
164	0x3e4703f7	0.19435106
165	0xbd33216a	-0.043733038
166	0x3de73d45	0.11290983
167	0x3e9aa196	0.30201405
168	0xbd5cb76c	-0.053885862
169	0x3acfb1d4	0.0015845844
170	0x3e6f99ef	0.23398565
171	0x3e696d49	0.22795595
172	0x3e811193	0.2520872
173	0x3e964529	0.2934964
174	0x3db483b7	0.08814185
175	0x3d4b5339	0.049639914
176	0x3c5b92f3	0.013401735
177	0x3e8189c0	0.25300407
178	0x3e2d8882	0.16946605
179	0x3e5f727f	0.2182102
180	0x3c5dfbf5	0.013548841
181	0x3d974b7c	0.073874444
182	0xbd1e918c	-0.038713023
183	0x3dd6542f	0.104652755
184	0x3e7b6804	0.24551398
185	0x3cc96cd6	0.02458803
186	0x3efddade	0.49581045
187	0x3e4032e9	0.1876942
188	0x3dfee3e1	0.12445808
189	0xbe648188	-0.22315037
190	0x3e7f4220	0.24927568
191	0x3e7c2aca	0.24625698
192	0x3e63058a	0.22170082
193	0x3ed172a4	0.40907776
194	0xbe9ac08f	-0.30225036
195	0xbe8d27db	-0.2756947
196	0xbd3ed423	-0.046589028
197	0x3af59f74	0.0018739537
198	0xbbdd8343	-0.0067600324
199	0xbe593def	-0.21215032
200	0xbe9a1478	-0.3009374
201	0xbda106fc	-0.0786266
202	0x3ecdda57	0.40205643
203	0xbe0b4197	-0.1359924
204	0xbd8a3a94	-0.06749454
205	0xbdb380e4	-0.08764818
206	0x3ef25fcd	0.47338715
207	0x3de1d067	0.11026078
208	0x3d4f5edb	0.05062757
209	0x3e4d873f	0.20071124
210	0x3dd635de	0.10459493
211	0x3e742414	0.23841888
212	0x3e596a21	0.21231891
213	0xbe21644e	-0.1576092
214	0xbd4d8b54	-0.0501817
215	0x3eb3ff3a	0.3515566
216	0xbdc6ba12	-0.09703459
217	0x3e50c092	0.2038596
218	0x3ea58f3d	0.32335845
219	0x3d0cb476	0.03435179
220	0x3de05777	0.109541826
221	0x3eabba69	0.33540657
222	0x3eafbf22	0.3432551
223	0x3e0dafd0	0.13836598
224	0x3ca61278	0.020272478
225	0x3df1f2e9	0.118139096
226	0xbd0e13a1	-0.03468669
227	0x3e5176b9	0.20455445
228	0x3db52b43	0.08846142
229	0x3e5434d2	0.20723274
230	0x3c8f76d5	0.017512718
231	0xbda6a806	-0.08137517
232	0x3f1f063d	0.62118894
233	0x3e7ada0b	0.2449724
234	0x3e9a5921	0.30146125
235	0x3d62cf3f	0.055373427
236	0x3e5b084b	0.21389882
237	0x3d4041cb	0.046937745
238	0x3e43da18	0.19126165
239	0x3ebcf736	0.36907357
240	0x3df4682d	0.119339325
241	0x3db36c8a	0.087609366
242	0xbdcab0b7	-0.09896987
243	0xbed42fa5	-0.414426
244	0x3dca3fd7	0.09875458
245	0xbdd511e8	-0.10403806
246	0xbb04c4f7	-0.0020259002
247	0x3d8d923a	0.06912656
248	0xbd001457	-0.031269398
249	0x3e192743	0.14956383
250	0x3d953465	0.07285384
251	0x3e09c85a	0.13455334
252	0xbe8ce7a8	-0.2752049
253	0x3d2753f2	0.04085154
254	0x3ca035b4	0.019556858
255	0x3b5d67fb	0.00337839

read_encoder.block2.0.bias f4 [128]
0	0x3f1b2254	0.60599256
1	0x3f668b27	0.9005608
2	0x3ccc7bd1	0.024961384
3	0x3edbf111	0.42957357
4	0x3f3b8f1e	0.73265254
5	0xbe8f358d	-0.27970544
6	0xbd50db92	-0.05099065
7	0xbdecc61d	-0.115612246
8	0x3d9847ef	0.07435595
9	0xbe252a35	-0.16129382
10	0x3eaa89a1	0.33308128
11	0x3f074c23	0.5285055
12	0xbca6c192	-0.020355973
13	0xbb54b3d0	-0.003245581
14	0xbdc9f82e	-0.0986179
15	0xbe6f7259	-0.23383464
16	0xbcdd96cc	-0.027049445
17	0x3e0096cf	0.12557529
18	0xbda990b3	-0.08279552
19	0x3e962fba	0.29333287
20	0x3f0ffbe8	0.56243753
21	0x3ec16123	0.37769422
22	0xbdd02bef	-0.1016463
23	0xbe6fbac4	-0.23411089
24	0xbe098743	-0.13430505
25	0x3ed016d3	0.40642413
26	0x3e665012	0.22491482
27	0x3d0772ba	0.033068396
28	0xbe42cd7a	-0.19023696
29	0xbd480520	-0.048833013
30	0xbee6bc1a	-0.45065385
31	0xbd2285fd	-0.039678562
32	0xbe1765aa	-0.14784876
33	0x3f1f6e8d	0.6227806
34	0x3ead22c1	0.33815578
35	0xbd6ea02f	-0.05825823
36	0x3d490c93	0.049084257
37	0xbc4ba622	-0.012429746
38	0x3d8b2fcc	0.06796226
39	0xbdad2115	-0.084535755
40	0x3f0de390	0.5542536
41	0xbeaf274e	-0.34209675
42	0x3e732835	0.23745807
43	0x3f2de2e2	0.6792432
44	0xbee94473	-0.45560035
45	0x3d8e9a02	0.069629684
46	0x3e456f45	0.19280727
47	0x3e7adbb3	0.24497871
48	0x3da404f8	0.0800876
49	0x3df9297a	0.12166114
50	0xbd9d0066	-0.076660916
51	0x3d2b9030	0.041885555
52	0x3e0941c6	0.13403997
53	0xbe8dab72	-0.27669865
54	0x3f0c0cf2	0.5470725
55	0x3e3038af	0.17209123
56	0x3e26cf0e	0.16289923
57	0xbd3ebc85	-0.046566505
58	0x3d836688	0.06416041
59	0x3e9117aa	0.28338367
60	0x3f0c5b65	0.54826957
61	0x3f4fccaf	0.811717
62	0x3f2d52f6	0.67704713
63	0xbe0f6cde	-0.14006373
64	0x3f520e4c	0.82053065
65	0xbd6d6214	-0.057954863
66	0x3f33d4d1	0.7024661
67	0x3cf08bce	0.02936354
68	0x3e26f7da	0.16305485
69	0xb945516f	-0.0001881772
70	0xbaba709f	-0.0014224238
71	0x3f34ead1	0.706708
72	0xbe892a22	-0.26789957
73	0x3e90e617	0.28300545
74	0xbd70d508	-0.058796912
75	0x3f3545ae	0.7080945
76	0x3f48747b	0.78302735
77	0x3e8ca85e	0.27472204
78	0x3d4903c7	0.049075868
79	0xbe687876	-0.22702202
80	0x3ece7a22	0.40327555
81	0x3ec2e9da	0.3806904
82	0xbd37695b	-0.04477821
83	0x3e9a3f31	0.30126336
84	0x3eb79ae9	0.35860375
85	0x3ebc4c15	0.36776796
86	0x3f59d53b	0.8509099
87	0x3dfb6d16	0.12276666
88	0x3f6602de	0.89848125
89	0xba93f6a6	-0.0011288717
90	0x3b2d3437	0.0026428828
91	0x3f3e0719	0.7422958
92	0x3e62c0a4	0.22143799
93	0x3e5da71b	0.21645777
94	0x3efb0f93	0.4903532
95	0xbd9bb11d	-0.07602141
96	0x3f35eacc	0.71061397
97	0x3f16c24c	0.58890224
98	0xbd71ae1d	-0.059003938
99	0xb9d3a246	-0.0004036596
100	0xbd9d74e8	-0.07688314
101	0x3f17680b	0.5914313
102	0x3dfbb4e5	0.12290362
103	0x3c5c340c	0.013440143
104	0xbe218335	-0.15772708
105	0xbdbbd714	-0.09171882
106	0x3dd43bd0	0.10362971
107	0x3ea500cf	0.3222718
108	0x3d0415f6	0.032247506
109	0x3ee50311	0.44728902
110	0x3dabcbaf	0.08388459
111	0xbe0571a6	-0.13031635
112	0xbe49d0ef	-0.19708608
113	0x3e24c59b	0.16091006
114	0x3e53b31c	0.20673794
115	0xbe3c66a5	-0.18398531
116	0xbd4ce30b	-0.050021213
117	0x3d4d46df	0.050116416
118	0xbe32e879	-0.17471494
119	0xbcb8752a	-0.022516806
120	0x3f040252	0.5156604
121	0xbe20fde8	-0.15721858
122	0x3e4caef8	0.1998862
123	0x3d72a7a1	0.059241895
124	0x3f0dd951	0.55409724
125	0xbda7103b	-0.081573926
126	0xbe26964f	-0.16268276
127	0x3f2c4359	0.67290264

read_encoder.block2.1.weight f4 [128]
0	0x3f25175b	0.6448876
1	0x3f0c7306	0.5486301
2	0x3f978a9d	1.1839176
3	0x3f5a1631	0.8519011
4	0x3f3e3c73	0.7431099
5	0x3fc982f8	1.5743093
6	0x3f946b1f	1.1595191
7	0x3f9bd868	1.2175417
8	0x3f9394ef	1.1529826
9	0x3fa25dfc	1.2684932
10	0x3f5214c6	0.8206295
11	0x3f847039	1.0346748
12	0x3f93e3fe	1.1553953
13	0x3fb3e26c	1.4053473
14	0x3fa67fb7	1.3007725
15	0x3fe8b485	1.818009
16	0x3fb5ef8b	1.4213728
17	0x3f6f85ae	0.93563354
18	0x3f8506d1	1.0392705
19	0x3f72d1bc	0.9485128
20	0x3edec90e	0.43512768
21	0x3f89bde4	1.0761075
22	0x3f9c9cb8	1.2235327
23	0x3fbe3457	1.4859723
24	0x3fb424d3	1.4073738
25	0x3f1988d1	0.5997439
26	0x3f7df7b3	0.99206084
27	0x3f6014e5	0.8753188
28	0x3fa9edf7	1.3275746
29	0x3fa1b3be	1.2632978
30	0x3fc7ec21	1.5618936
31	0x3f9121ad	1.1338402
32	0x3fb38c38	1.4027166
33	0x3f3212da	0.69560015
34	0x3f694af2	0.9112998
35	0x3fad8c7a	1.3558495
36	0x3f9ffdf2	1.2499373
37	0x3fa72333	1.3057617
38	0x3f79b9bc	0.97549033
39	0x3f9e8ad0	1.2386112
40	0x3f1dfa78	0.6171031
41	0x3fbc86f6	1.4728687
42	0x3f8baf7c	1.0912929
43	0x3f25cc06	0.6476444
44	0x3fcd748e	1.6051195
45	0x3f94d8f4	1.1628709
46	0x3f6529c1	0.89516836
47	0x3f947d39	1.1600715
48	0x3f8437e7	1.032956
49	0x3fa321b3	1.2744659
50	0x3faf370e	1.3688676
51	0x3f729e8a	0.9477316
52	0x3fa580ee	1.2929971
53	0x3ff0016d	1.8750435
54	0x3f9174a4	1.1363721
55	0x3f70dc18	0.94085836
56	0x3f870512	1.0548422
57	0x3fa8d62d	1.3190361
58	0x3f867519	1.0504485
59	0x3f2eb2a3	0.6824133
60	0x3f30f1ed	0.6911915
61	0x3ef3de57	0.4763057
62	0x3f2cfdfb	0.67575043
63	0x3f9758bd	1.1823956
64	0x3f27f29b	0.6560456
65	0x3fa0e8df	1.2571067
66	0x3f333dc7	0.7001614
67	0x3f7da4fa	0.9907986
68	0x3f5ea2f6	0.8696741
69	0x3f949272	1.1607192
70	0x3f96ba70	1.1775646
71	0x3eeb1c15	0.45919862
72	0x3ffa1fa2	1.9540904
73	0x3f6e3012	0.930421
74	0x3f8ebf97	1.1152219
75	0x3f432336	0.762256
76	0x3f114918	0.5675216
77	0x3f302316	0.68803537
78	0x3f9fcf9f	1.2485236
79	0x3fa3d6ae	1.279989
80	0x3f345b9f	0.704523
81	0x3f8ed40f	1.1158465
82	0x3fab2efb	1.3373712
83	0x3f565b5f	0.8373317
84	0x3f35b868	0.70984507
85	0x3f14f41d	0.5818499
86	0x3f1a239a	0.60210574
87	0x3f8dca2a	1.107732
88	0x3ecc6e45	0.3992788
89	0x3fa6a0d6	1.3017833
90	0x3f94a75d	1.1613575
91	0x3f2cc476	0.67487276
92	0x3f853a1a	1.0408356
93	0x3f927bde	1.1444051
94	0x3f4abdb8	0.7919574
95	0x3fa9e2da	1.3272355
96	0x3f191b28	0.5980706
97	0x3f4edeae	0.8080853
98	0x3fc04edc	1.5024066
99	0x3f9eba63	1.2400631
100	0x3f84e299	1.0381652
101	0x3f367158	0.712667
102	0x3f4e3216	0.80545175
103	0x3f90f289	1.1324016
104	0x3fb1f2f3	1.3902267
105	0x3fb58e60	1.4184074
106	0x3f971b07	1.1805123
107	0x3f303ed9	0.688459
108	0x3f7a915a	0.9787804
109	0x3f30c7c7	0.69054836
110	0x3fb14d76	1.3851764
111	0x3fc4f143	1.5386127
112	0x3f9f9444	1.2467122
113	0x3f8126db	1.0089983
114	0x3f91c250	1.1387424
115	0x3fae47ce	1.3615663
116	0x3f823ea8	1.0175371
117	0x3f76ca07	0.9640202
118	0x3fb2e8a8	1.3977251
119	0x3f8af928	1.0857286
120	0x3f67dbcd	0.90569764
121	0x3fab5a64	1.338696
122	0x3f662a76	0.8990854
123	0x3fa1c323	1.2637676
124	0x3f518347	0.8184094
125	0x3f8c0ee9	1.094205
126	0x3f909a92	1.1297171
127	0x3f1a9b92	0.6039363

read_encoder.block2.1.bias f4 [128]
0	0xbf2960ca	-0.66163313
1	0xbf027d2e	-0.5097226
2	0xbee1218b	-0.43970904
3	0xbf2dde55	-0.67917377
4	0xbedd394d	-0.4320778
5	0xbed1d80a	-0.40985137
6	0xbeb4143c	-0.35171688
7	0xbf206a11	-0.62661844
8	0xbee5a95a	-0.44855767
9	0xbf18d14a	-0.5969435
10	0xbeeed706	-0.46648425
11	0xbf051f64	-0.52001023
12	0xbf1f9235	-0.6233247
13	0xbed9e4fd	-0.42557517
14	0xbee5a9c0	-0.4485607
15	0xbf1cc43d	-0.61236936
16	0xbf05720f	-0.52127165
17	0xbed8c66f	-0.42338893
18	0xbf0a8446	-0.54108083
19	0xbf2ec829	-0.6827417
20	0xbec0ee38	-0.37681746
21	0xbf38dc94	-0.72211576
22	0xbf1b4535	-0.60652477
23	0xbed0098f	-0.40632293
24	0xbf048166	-0.51759946
25	0xbeeebc1f	-0.466279
26	0xbf23a719	-0.63926846
27	0xbeea67bd	-0.4578227
28	0xbf100d62	-0.5627042
29	0xbf109412	-0.5647594
30	0xbee2811b	-0.44239125
31	0xbeec574f	-0.4616036
32	0xbf012511	-0.50447184
33	0xbefcb3bb	-0.49355873
34	0xbf00373e	-0.5008429
35	0xbf0b54b0	-0.544261
36	0xbf2c364e	-0.6727036
37	0xbf379aeb	-0.7172076
38	0xbf4aeb70	-0.792655
39	0xbeea4fea	-0.45764095
40	0xbeb5fe61	-0.35545638
41	0xbf0131f1	-0.5046683
42	0xbf189298	-0.59598684
43	0xbeffa372	-0.49929386
44	0xbf2a7ceb	-0.6659686
45	0xbed03cc0	-0.4067135
46	0xbf113be7	-0.5673203
47	0xbf0ace56	-0.54221094
48	0xbf490b58	-0.78532934
49	0xbed05b01	-0.4069443
50	0xbf094178	-0.5361552
51	0xbef38e85	-0.4756967
52	0xbef2ccf2	-0.47421986
53	0xbf18d9bf	-0.59707254
54	0xbf1d14dd	-0.6135996
55	0xbf0a3d47	-0.5399975
56	0xbf2fb9be	-0.68642795
57	0xbf04e264	-0.51907945
58	0xbedfea3f	-0.43733403
59	0xbed84339	-0.42238787
60	0xbea64a7b	-0.324787
61	0xbee830f0	-0.45349836
62	0xbe8fda1c	-0.28096092
63	0xbef108e3	-0.47077093
64	0xbf0ec3e0	-0.5576763
65	0xbf004576	-0.5010599
66	0xbf2f6e18	-0.68527365
67	0xbedd9a30	-0.43281698
68	0xbf04f611	-0.5193797
69	0xbeffe3ce	-0.4997849
70	0xbef20ea4	-0.47276795
71	0xbed9d054	-0.42541754
72	0xbf1375ac	-0.5760143
73	0xbf1c0a38	-0.6095309
74	0xbf1977dc	-0.59948516
75	0xbf1d0ced	-0.6134785
76	0xbeefc7c2	-0.4683209
77	0xbea4c330	-0.32180166
78	0xbf19856d	-0.59969217
79	0xbf1d3dcf	-0.6142244
80	0xbf1e986c	-0.6195133
81	0xbf1464d9	-0.5796638
82	0xbea3ce2a	-0.31993228
83	0xbee48305	-0.4463121
84	0xbf3fd98d	-0.7494133
85	0xbeb9b783	-0.3627282
86	0xbefba4d0	-0.4914918
87	0xbf1fb82e	-0.6239041
88	0xbecaf601	-0.3964081
89	0xbf11b227	-0.56912464
90	0xbf0d5493	-0.55207175
91	0xbedcfabe	-0.4316005
92	0xbef473bc	-0.47744548
93	0xbf236ff9	-0.6384273
94	0xbf1332f7	-0.5749964
95	0xbe98040e	-0.29690593
96	0xbed95f4e	-0.42455524
97	0xbf042f24	-0.5163443
98	0xbf0c2b4a	-0.54753554
99	0xbefd63a6	-0.49490088
100	0xbf0474e4	-0.5174086
101	0xbeff5986	-0.49872988
102	0xbf2e7b66	-0.6815704
103	0xbedb6b28	-0.4285519
104	0xbf1c402f	-0.61035436
105	0xbe8ae708	-0.27129388
106	0xbf15da7c	-0.58536506
107	0xbf204751	-0.6260882
108	0xbf3456ef	-0.7044515
109	0xbf26d8a2	-0.65174305
110	0xbf2f3fd7	-0.68456787
111	0xbef169e2	-0.47151095
112	0xbf10885d	-0.56458074
113	0xbf676569	-0.90389115
114	0xbf55a51b	-0.83455056
115	0xbea1f358	-0.3163097
116	0xbf2f3fab	-0.68456525
117	0xbef7b686	-0.48381442
118	0xbf0db3ae	-0.55352294
119	0xbf03ac87	-0.5143513
120	0xbeee0f44	-0.46496022
121	0xbeb9ac14	-0.36264098
122	0xbee38b54	-0.44442236
123	0xbe864ee5	-0.26232067
124	0xbf20ed40	-0.62862015
125	0xbeddad1e	-0.4329614
126	0xbf03bd66	-0.51460874
127	0xbed29f64	-0.4113723

read_encoder.block3.0.weight f4 [128, 128]
0	0xbf1c70fa	-0.6110989
1	0xbbb28824	-0.005448358
2	0x3e55e4a2	0.20887998
3	0x3d44aed7	0.048018303
4	0x3e25201b	0.16125529
5	0xbdf01f1c	-0.11724684
6	0xbe39ebb1	-0.18156315
7	0x3e17adf7	0.14812456
8	0xbeafe002	-0.34350592
9	0x3d86fc90	0.06591141
10	0x3e4228db	0.18960898
11	0x3d01848a	0.03162054
12	0x3e598097	0.2124046
13	0xbe92e94c	-0.28693616
14	0x3e4c382c	0.19943303
15	0xbc808f9b	-0.015693476
16	0x3cfe7724	0.03106267
17	0x3d8dd101	0.0692463
18	0xbd3107bf	-0.043220278
19	0x3e935d48	0.28782105
20	0x3d86fa4b	0.06590708
21	0x3e29cfd4	0.16583186
22	0x3e1bf2cc	0.15229338
23	0xbe0ab891	-0.13546969
24	0x3d33da15	0.04390915
25	0xbe5db18c	-0.2164976
26	0x3e46a7c1	0.1939993
27	0xbe08db4d	-0.13364907
28	0x3d64ddff	0.055875774
29	0xbeb449e2	-0.35212618
30	0xbed3a63c	-0.41337764
31	0xbdd1713c	-0.10226676
32	0x3e0bc0f0	0.13647819
33	0x3df881cc	0.12134132
34	0x3e576959	0.2103628
35	0xbd3aab5c	-0.045573577
36	0xbeadc399	-0.33938292
37	0x3aa063e8	0.0012236806
38	0x3e23044d	0.1591961
39	0x3ea8ff39	0.3300722
40	0xbdc65e37	-0.09685939
41	0xbe2e9a08	-0.17050946
42	0x3d1dc3a7	0.038516667
43	0x3e70057a	0.23439589
44	0x3f04e641	0.5191384
45	0xbeb4231c	-0.35183036
46	0xbe2ce34c	-0.16883582
47	0xbe13d4e5	-0.14436682
48	0xbd58aa63	-0.05289687
49	0xbf1ed28e	-0.6204003
50	0x3e715837	0.23568808
51	0xbd259914	-0.04042919
52	0xbe614bb7	-0.22001539
53	0x3e806333	0.25075683
54	0x3e83eab4	0.25765002
55	0xbd22d6fb	-0.039755803
56	0x3e50d7b4	0.20394784
57	0xbec0f55c	-0.37687194
58	0xbe2ec978	-0.17069042
59	0xbe8174e2	-0.25284487
60	0x3d95d904	0.07316783
61	0x3d696184	0.056977764
62	0x3e869d31	0.26291803
63	0xbec341e8	-0.3813622
64	0xbe2c2b44	-0.1681338
65	0x3dd7beb0	0.10534418
66	0x3e5d87e4	0.2163387
67	0x3e42b20e	0.19013235
68	0x3eb52d2b	0.35386023
69	0x3dfe9aa0	0.12431836
70	0x3d12f2e2	0.035876162
71	0xbd909255	-0.070591606
72	0x3e032c7c	0.12809938
73	0x3e112fe5	0.14178427
74	0xbea4b90e	-0.32172436
75	0x3dde7f61	0.10864139
76	0x3e344ade	0.17606685
77	0x3e14578d	0.14486523
78	0x3d529420	0.051410794
79	0xbf00b35b	-0.50273675
80	0x3d9c2735	0.07624666
81	0x3d3697de	0.044578426
82	0xbf7a92f2	-0.9788047
83	0xbdb6d03e	-0.08926438
84	0xbebe0281	-0.37111285
85	0x3dede762	0.116163984
86	0x3e0d0823	0.13772635
87	0x3d158746	0.03650596
88	0x3e8a3424	0.26992905
89	0xbea8193e	-0.32831758
90	0xbf2119c3	-0.62929934
91	0xbd5750d2	-0.05256731
92	0xbd848861	-0.06471325
93	0xbe3d608c	-0.18493861
94	0x3e8fdd9f	0.2809877
95	0xbde0084c	-0.109390825
96	0x3e529461	0.20564415
97	0xbb1be20b	-0.0023785855
98	0xbe91a851	-0.28448728
99	0xbd2e4193	-0.042543005
100	0xbe7d4cf3	-0.24736385
101	0x3d05cf7d	0.03266858
102	0xbea41e11	-0.3205419
103	0xbe556ca3	-0.20842223
104	0xbd02e28d	-0.031954337
105	0xbf4424f9	-0.76618916
106	0x3d9a5b73	0.07536974
107	0x3cb8337a	0.022485483
108	0xbe0cffdd	-0.13769479
109	0xbcecea37	-0.028920276
110	0xbeb9b1ac	-0.36268365
111	0x3e39b8fa	0.18136969
112	0x3c96e95e	0.018421825
113	0xbea432b8	-0.32069945
114	0xbf0dc002	-0.55371106
115	0x3e7817f9	0.24227895
116	0x3d98c65a	0.074597076
117	0xbded99e2	-0.116016164
118	0xbdd94d88	-0.10610491
119	0x3cbf4ad1	0.023351105
120	0x3e9ac7d0	0.3023057
121	0xbdaebe1c	-0.08532354
122	0xbd40083a	-0.046882845
123	0xbd4e1735	-0.0503151
124	0x3e21fa1f	0.1581807
125	0x3dde3e78	0.10851759
126	0x3d9d364c	0.07676372
127	0x3e336645	0.17519481
128	0x3e4aa083	0.19787793
129	0xbe18ec3f	-0.1493387
130	0xbe3b0685	-0.18264206
131	0xbd05b8e3	-0.032647025
132	0x3e2d1362	0.16901925
133	0x3edc048f	0.42972228
134	0xbeef71ee	-0.4676661
135	0xbd99fc1a	-0.07518788
136	0xbe283745	-0.16427334
137	0x3e5ec087	0.21753131
138	0x3e3ba01d	0.18322797
139	0x3d883b10	0.0665189
140	0x3e481ea0	0.19542933
141	0x3f1da7f1	0.61584383
142	0x3e89c394	0.26907027
143	0xbf3cd553	-0.73763007
144	0xbd128cb5	-0.03577872
145	0x3d6478d4	0.055779293
146	0xbd9e29f8	-0.07722849
147	0x3da4d715	0.08048836
148	0x3da72c5f	0.0816276
149	0x3e1e146f	0.15437482
150	0xbe988404	-0.2978822
151	0x3e92e1f7	0.28688022
152	0xbccde065	-0.025131414
153	0x3e31662b	0.1732413
154	0x3e2584fc	0.16164011
155	0xbd1f4f9a	-0.038894273
156	0x3d11d294	0.035601214
157	0x3eb4b6c6	0.35295695
158	0xbdc8a4c5	-0.09797052
159	0x3e0de57a	0.1385707
160	0xbe28c4af	-0.16481279
161	0xbdef27fd	-0.11677549
162	0xbd8a78e8	-0.06761342
163	0x3d8603bb	0.0654368
164	0xbcd92cc9	-0.026510613
165	0x3ebf1e5f	0.3732786
166	0xbda67222	-0.08127238
167	0xbee41a02	-0.44551092
168	0xbdbb7a02	-0.091541305
169	0x3ee6280e	0.44952434
170	0x3e3e4b72	0.18583468
171	0xbd290366	-0.041263007
172	0x3ec678e5	0.3876411
173	0x3cad7ca7	0.021177603
174	0x3d712399	0.05887184
175	0x3e482824	0.19546562
176	0xbedabfea	-0.42724544
177	0x3dc4bdb4	0.096064955
178	0xbeb08d2b	-0.34482703
179	0x3e12c218	0.14331853
180	0xbe27a047	-0.16369735
181	0xbf016278	-0.50540876
182	0xbd8dc346	-0.06922011
183	0x3e7a9589	0.24471106
184	0x3dff4f3f	0.12466287
185	0xbe7f4bb6	-0.24931225
186	0x3e876bbb	0.2644938
187	0x3dee6667	0.116406254
188	0x3db6de64	0.089291364
189	0x3e383ed9	0.17992724
190	0xbe02f1b7	-0.1278752
191	0x3cce3d98	0.025175855
192	0x3e1ece4f	0.15508388
193	0x3dce2be6	0.10066967
194	0x3e196826	0.14981136
195	0xbea83028	-0.3284924
196	0x3ea96ca3	0.33090696
197	0x3dede9b9	0.11616845
198	0x3e1e5000	0.15460205
199	0x3dd45798	0.1036827
200	0xbef39365	-0.4757339
201	0xbee5c543	-0.4487706
202	0x3d8d44de	0.06897901
203	0xbe2c8500	-0.1684761
204	0x3e1c8dfb	0.15288536
205	0x3dab2ecc	0.08358535
206	0x3ec333ba	0.38125402
207	0xbe938810	-0.28814745
208	0xbc0fb576	-0.008771291
209	0x3d5b36ef	0.053519186
210	0x3d0ca5ba	0.034337737
211	0x3ca255c6	0.01981629
212	0x3efbf3bb	0.4920939
213	0x3d030490	0.031986773
214	0x3e3b8acd	0.18314667
215	0xbe8af2c9	-0.27138355
216	0xbc8d124e	-0.017220642
217	0x3e2b9dbc	0.1675939
218	0xbe417b8c	-0.18894786
219	0xbd916d61	-0.071009405
220	0x3e08cc62	0.13359216
221	0x3de88365	0.113531865
222	0x3dc2e068	0.09515458
223	0xbf5f0631	-0.8711882
224	0x3ed3e778	0.41387534
225	0xbc459b10	-0.012060896
226	0x3d8a7b84	0.0676184
227	0xbbfeb8c5	-0.007773491
228	0x3dd661d6	0.104678795
229	0x3d8dddf4	0.069271
230	0xbde95ffc	-0.11395261
231	0x38eb2d2f	0.00011214089
232	0x3efe0ac2	0.49617583
233	0x3ece9738	0.40349746
234	0x3e47c281	0.19507791
235	0xbe0e1178	-0.13873851
236	0xbd1fbd03	-0.038998615
237	0xbc00f14b	-0.007870029
238	0xbe0ce8e7	-0.1376072
239	0x3e52e50d	0.20595188
240	0x3e74259f	0.23842476
241	0x3d2d0c91	0.042248312
242	0xbd6fd5a7	-0.058553364
243	0xbd871268	-0.065953076
244	0x3e2b770b	0.1674463
245	0x3d571931	0.05251426
246	0xbea1a3e3	-0.31570348
247	0x3d77a1d1	0.060457055
248	0xbda07950	-0.078356385
249	0xbd27d3ae	-0.040973358
250	0xbd81bc3f	-0.06334733
251	0xbd8e8f1f	-0.06960892
252	0x3de25640	0.11051607
253	0x3e5a7c80	0.21336555
254	0x3e4d609b	0.20056383
255	0xbd810102	-0.0629902

read_encoder.block3.0.bias f4 [128]
0	0xbd9a75a8	-0.075419724
1	0x3f0eef2f	0.55833715
2	0x3ded24bd	0.11579273
3	0xbe91ae19	-0.28453138
4	0x3f1c5117	0.61061233
5	0xbe9f9ee6	-0.31175917
6	0x3dff85f2	0.1247672
7	0xbe954f50	-0.29162073
8	0x3f359f50	0.70946217
9	0xbe95a84b	-0.2922996
10	0x3efe3893	0.49652538
11	0x3e5c8ecc	0.21538848
12	0x3e823a8a	0.25435287
13	0x3e8b0e7b	0.27159485
14	0xbd90fd8e	-0.07079612
15	0x3e61839e	0.22022864
16	0x3eabd191	0.33558324
17	0x3f15535c	0.5833032
18	0xbf2069eb	-0.6266162
19	0xbe34b2f7	-0.17646395
20	0x3f0466d2	0.5171939
21	0x3ef24b4d	0.47323075
22	0xbd6ae7da	-0.057350017
23	0xbeb67ad2	-0.3564058
24	0x3e8d5040	0.27600288
25	0x3ec8ddac	0.39231622
26	0x3edc966b	0.4308351
27	0x3df911a5	0.121615686
28	0xbe41d1a7	-0.18927632
29	0xbd000b9c	-0.03126107
30	0xbeb4d9d8	-0.35322452
31	0x3e20ff19	0.15722312
32	0x3f14f8fc	0.5819242
33	0x3f02abef	0.510436
34	0x3f0753f8	0.528625
35	0xbebdabbc	-0.37045085
36	0x3ee0c55a	0.43900567
37	0x3eeba815	0.46026674
38	0xbe5fb1b3	-0.2184513
39	0x3eafad9f	0.3431215
40	0x3eb1ff26	0.34764975
41	0xbf07d3f9	-0.5305782
42	0x3e8f38c2	0.2797299
43	0x3edcbd73	0.43113288
44	0xbeab774a	-0.33489448
45	0x3e90661c	0.28202903
46	0xbe8a5d3f	-0.27024266
47	0xbc635666	-0.013875579
48	0xbe7ebca9	-0.24876656
49	0x3df6b3a2	0.12045981
50	0x3d0f93f0	0.035053194
51	0x3f088de5	0.53341514
52	0x3f056c4f	0.5211839
53	0x3c3a70ad	0.011379403
54	0x3f10f170	0.56618404
55	0x3f098035	0.53711253
56	0x3eae2fee	0.34020942
57	0x3e03f112	0.1288493
58	0x3ec6fb81	0.38863757
59	0x3edcee32	0.4315048
60	0x3e5394f6	0.20662293
61	0x3e4f2f64	0.20232922
62	0xbb126cc8	-0.002234267
63	0x3e34e762	0.1766639
64	0x3ecee0e1	0.40405944
65	0xbe52bc25	-0.20579584
66	0x3e538c84	0.20659071
67	0x3dc93d60	0.098261595
68	0x3e85f364	0.26162255
69	0x3db41d4a	0.08794649
70	0xbe21bd75	-0.15794928
71	0xbceb2ca9	-0.028707819
72	0x3e7ebeef	0.24877523
73	0x3f0be948	0.54652834
74	0xbeefb8e4	-0.46820748
75	0x3f195240	0.5989113
76	0xbd083963	-0.033257853
77	0x3e6f3185	0.23358734
78	0xbe5ac35f	-0.2136359
79	0x3ebb4e3e	0.36583132
80	0xbe82e8c8	-0.25568223
81	0x3ef5f8e8	0.48041463
82	0x3e88e27e	0.267353
83	0x3ddd5237	0.10806697
84	0xbe0a30cc	-0.13495177
85	0x3ef1b36c	0.472072
86	0x3f10c77f	0.56554407
87	0x3d014ca8	0.031567246
88	0x3e534d9c	0.20635074
89	0x3e2794f6	0.16365418
90	0x3f1b0a5f	0.605627
91	0x3ed81639	0.42204455
92	0xbe9df2a7	-0.30849192
93	0x3ee3e35b	0.44509396
94	0x3d01e4ce	0.031712346
95	0x3e49b5af	0.19698213
96	0x3d8bc0c6	0.06823878
97	0x3f0a0c4d	0.5392502
98	0x3ed0f48a	0.40811568
99	0xbee01bee	-0.4377131
100	0xbef3c489	-0.47610882
101	0x3f062950	0.5240679
102	0xbea91462	-0.33023363
103	0x3e2b054e	0.16701242
104	0xbe813e4b	-0.25242838
105	0xbda020fa	-0.0781879
106	0x3dad3908	0.084581435
107	0x3eac9efa	0.3371504
108	0xbd95ad1b	-0.07308408
109	0x3e26e164	0.16296917
110	0x3d636a85	0.055521507
111	0x3f1fcbbf	0.62420267
112	0xbeb6f159	-0.3573101
113	0xbe1c6c53	-0.15275697
114	0xbe361b69	-0.17783894
115	0x3e6dbd8b	0.23216836
116	0x3e127e40	0.14305973
117	0x3e50fa1b	0.20407908
118	0x3e4efa20	0.20212603
119	0xbe59d0de	-0.21271083
120	0x3dd69440	0.10477495
121	0xbe9b1e32	-0.30296475
122	0x3ef91a28	0.48652768
123	0x3f0b921e	0.5451983
124	0xbe83c350	-0.2573495
125	0xbea1c8cf	-0.31598517
126	0x3f149377	0.58037513
127	0x3e8727a1	0.26397422

read_encoder.block3.1.weight f4 [128]
0	0x3f54a3ff	0.8306274
1	0x3f33676f	0.700797
2	0x3fba8c8d	1.4574143
3	0x3f8c63db	1.0967973
4	0x3f37f801	0.718628
5	0x3f91c957	1.1389569
6	0x3f280fa6	0.6564888
7	0x3f9175dc	1.1364093
8	0x3f2df212	0.67947495
9	0x3f8b8d30	1.0902462
10	0x3f61a2b2	0.8813888
11	0x3eaeeb64	0.34163964
12	0x3f1e68e5	0.61878806
13	0x3fa80c00	1.3128662
14	0x3f53a7da	0.82677996
15	0x3f8ec696	1.1154354
16	0x3f8a40bd	1.0801007
17	0x3f70a85d	0.940069
18	0x3fbada31	1.4597837
19	0x3f8b1d34	1.0868287
20	0x3f3f62da	0.7476021
21	0x3f60c49e	0.87800014
22	0x3f076840	0.5289345
23	0x3f92ebed	1.1478249
24	0x3f54604d	0.82959443
25	0x3f85e3aa	1.0460103
26	0x3f434781	0.7628098
27	0x3eec389b	0.46136937
28	0x3f655021	0.8957539
29	0x3e511e0f	0.20421623
30	0x3f996d5f	1.1986502
31	0x3e8920b3	0.2678276
32	0x3f23f012	0.64038193
33	0x3f5a3aa3	0.8524572
34	0x3f7b84b5	0.9824937
35	0x3f9ec357	1.2403363
36	0x3f2a85da	0.6661049
37	0x3f3a4f76	0.727775
38	0x3f7d95e1	0.9905682
39	0x3f77a88e	0.9674157
40	0x3f84c580	1.0372772
41	0x3f9314f5	1.149077
42	0x3f9d3368	1.2281313
43	0x3f4f524e	0.8098496
44	0x3f8bf323	1.0933574
45	0x3fa419d5	1.2820383
46	0x3f8940f0	1.0722942
47	0x3f24462c	0.64169574
48	0x3f732169	0.94972855
49	0x3f9f2157	1.243205
50	0x3fba1806	1.4538581
51	0x3f760a32	0.96109307
52	0x3f5a8800	0.8536377
53	0x3fb8b8a3	1.4431347
54	0x3f2b213d	0.6684759
55	0x3f602bba	0.8756672
56	0x3f38e912	0.7223064
57	0x3f0d7b44	0.55266213
58	0x3f85c53f	1.045082
59	0x3f4f421d	0.80960256
60	0x3fb4b849	1.4118739
61	0x3e944a63	0.28963003
62	0x3fe3a206	1.7783821
63	0x3fac91d8	1.3482008
64	0x3f34be17	0.70602554
65	0x3fe0b4a6	1.755513
66	0x3e9bb6a4	0.3041278
67	0x3faf5751	1.3698522
68	0x3f451f16	0.7700056
69	0x3ea5e945	0.32404533
70	0x3f5c7a05	0.8612369
71	0x3ef47eaf	0.47752902
72	0x3f8c347f	1.095352
73	0x3f3f43d7	0.7471289
74	0x3f9c66e8	1.2218904
75	0x3f3e88f6	0.74427736
76	0x3edab8eb	0.42719206
77	0x3f9bf8f7	1.2185353
78	0x3f814499	1.0099059
79	0x3f33bd5c	0.70210814
80	0x3f73db79	0.95256764
81	0x3f816150	1.0107822
82	0x3f519150	0.81862354
83	0x3f9cda2e	1.2254083
84	0x3f2b1fa5	0.6684516
85	0x3f61ebd7	0.8825049
86	0x3f582eae	0.8444623
87	0x3f9e7ced	1.2381874
88	0x3fb2d36b	1.397077
89	0x3f32fd55	0.69917804
90	0x3f371d42	0.7152902
91	0x3f5bbf75	0.85839015
92	0x3f9d2eae	1.227987
93	0x3f2ca9f8	0.6744685
94	0x3eda34c9	0.42618397
95	0x3fb00d7b	1.3754114
96	0x3e817367	0.25283358
97	0x3f6fb0d3	0.9362919
98	0x3f5d8406	0.86529577
99	0x3f8d81f5	1.1055285
100	0x3fa5ad06	1.2943428
101	0x3f57bb04	0.8426974
102	0x3f1aa82c	0.6041286
103	0x3f9e134e	1.2349641
104	0x3f843e6b	1.0331548
105	0x3fca434b	1.5801786
106	0x3eb040cd	0.3442444
107	0x3f67c14f	0.9052934
108	0x3f0c6c0d	0.5485237
109	0x3f1da694	0.61582303
110	0x3f034431	0.51275927
111	0x3f5a3f7b	0.85253114
112	0x3fb60d2c	1.422277
113	0x3f686fcc	0.9079559
114	0x3f838795	1.0275751
115	0x3f905a6c	1.1277595
116	0x3e05d839	0.13070764
117	0x3fa10972	1.2581007
118	0x3f2a34be	0.6648673
119	0x3f781c82	0.969185
120	0x3faf12db	1.3677629
121	0x3ff3bfc4	1.9042897
122	0x3f8221c0	1.016655
123	0x3f4098eb	0.75233334
124	0x3f8a316d	1.0796334
125	0x3f790d97	0.9728636
126	0x3f4982dd	0.78715307
127	0x3f337810	0.70105076

read_encoder.block3.1.bias f4 [128]
0	0xbf1c0d83	-0.6095812
1	0xbea7b0dd	-0.32752123
2	0xbec922e0	-0.3928442
3	0xbe9ab0cf	-0.3021302
4	0xbe75c61f	-0.24001358
5	0xbe6c0a0a	-0.23050705
6	0xbea6c989	-0.32575634
7	0xbed1bde4	-0.40965188
8	0xbe4aa733	-0.19790344
9	0xbede82f1	-0.43459275
10	0xbe26f0e0	-0.16302824
11	0xbf0d7f2a	-0.5527216
12	0xbe96d93e	-0.29462618
13	0xbe863010	-0.26208544
14	0xbf10b9dd	-0.56533605
15	0xbe4eef55	-0.20208485
16	0xbe58c39a	-0.21168366
17	0xbde4d756	-0.111738846
18	0xbe3b9250	-0.18317533
19	0xbf119b05	-0.56877166
20	0xbe3d06d4	-0.18459636
21	0xbe0fa254	-0.14026767
22	0xbf2e4440	-0.6807289
23	0xbe9c8181	-0.30567554
24	0xbe1cefa8	-0.15325797
25	0xbe21ccc4	-0.15800768
26	0xbe7d3161	-0.24725868
27	0xbf0bd9bc	-0.5462911
28	0xbedacbec	-0.42733705
29	0xbede8aca	-0.43465263
30	0xbe8530e9	-0.26013878
31	0xbf3756cd	-0.7161682
32	0xbe6e65e8	-0.23281062
33	0xbe8451e2	-0.25843722
34	0xbe70607c	-0.23474306
35	0xbe8eba04	-0.27876294
36	0xbe1b722e	-0.15180275
37	0xbe7adf03	-0.24499135
38	0xbf28633e	-0.6577643
39	0xbe182002	-0.1485596
40	0xbe2b497d	-0.16727252
41	0xbe292714	-0.16518813
42	0xbe7fb848	-0.24972641
43	0xbef18701	-0.47173312
44	0xbe35369b	-0.17696612
45	0xbe84bb9f	-0.25924394
46	0xbee79e88	-0.45238137
47	0xbf309f2c	-0.68992877
48	0xbf364d3d	-0.71211606
49	0xbe89e3f7	-0.26931736
50	0xbeda610b	-0.42652163
51	0xbe5eca9c	-0.21756977
52	0xbe24aecc	-0.16082305
53	0xbf10ed14	-0.5661175
54	0xbe316225	-0.17322595
55	0xbe5b38cb	-0.21408384
56	0xbe726f32	-0.2367523
57	0xbedb8e7f	-0.42882153
58	0xbe24823c	-0.16065305
59	0xbdeb622c	-0.11493334
60	0xbeb40df5	-0.35166898
61	0xbf3da45a	-0.74078906
62	0xbf12fcac	-0.57416797
63	0xbeba8042	-0.36425978
64	0xbebc668a	-0.3679698
65	0xbf13f4e4	-0.5779555
66	0xbf055b57	-0.520925
67	0xbecca9d8	-0.3997333
68	0xbe7e31d5	-0.24823697
69	0xbf0af295	-0.542764
70	0xbf0475cd	-0.5174225
71	0xbf2bf437	-0.6716952
72	0xbe4c5bd0	-0.19956899
73	0xbe2d1b13	-0.16904859
74	0xbdd98e38	-0.10622829
75	0xbe544aee	-0.20731708
76	0xbf65675c	-0.8961084
77	0xbe3878f6	-0.18014893
78	0xbf299ec0	-0.6625786
79	0xbe8513c9	-0.25991657
80	0xbebe694a	-0.37189704
81	0xbe0f19f8	-0.1397475
82	0xbf07ee45	-0.53097945
83	0xbe589ae7	-0.2115284
84	0xbf0d01de	-0.55080974
85	0xbdd65962	-0.10466267
86	0xbe7f984f	-0.24960445
87	0xbf0d7018	-0.55249166
88	0xbea8f9e0	-0.3300314
89	0xbedff785	-0.4374353
90	0xbe083905	-0.13303001
91	0xbe304b49	-0.17216219
92	0xbec7e8b1	-0.39044717
93	0xbe9d0099	-0.30664518
94	0xbf620d39	-0.88301426
95	0xbe950951	-0.2910867
96	0xbf325196	-0.6965574
97	0xbe7830c8	-0.24237359
98	0xbe3fcd4f	-0.18730663
99	0xbdb8c012	-0.090210095
100	0xbec53201	-0.38514712
101	0xbe1ffb02	-0.15623096
102	0xbeca73d1	-0.39541486
103	0xbe84142e	-0.25796646
104	0xbe9ecded	-0.31016484
105	0xbf047a56	-0.5174917
106	0xbf6906be	-0.9102591
107	0xbe8c0792	-0.27349526
108	0xbf19e769	-0.6011873
109	0xbeb99ce7	-0.3625252
110	0xbf44db71	-0.7689734
111	0xbe02ac37	-0.12761007
112	0xbf1dc273	-0.6162483
113	0xbee05502	-0.43814856
114	0xbf13ed3d	-0.5778387
115	0xbe6ad26d	-0.22931834
116	0xbf67bf63	-0.9052641
117	0xbe825c48	-0.2546103
118	0xbeab046b	-0.33401808
119	0xbefda5f6	-0.4954068
120	0xbeeecf38	-0.4664247
121	0xbf1cc63c	-0.6123998
122	0xbdeaf926	-0.114733025
123	0xbe01f9a8	-0.12692893
124	0xbf0e4ebb	-0.55588883
125	0xbed660b8	-0.41870666
126	0xbe150858	-0.14553964
127	0xbe922abe	-0.28548235
