m6aReplica/3d_66_with_delta/Models/epoch45_rocauc0.900_valpr0.405_valscore1.305.pth (torch, 155293 bytes, 13 tensors)

read_encoder.block1.0.weight f4 [128, 24]
0	0x3d5641ad	0.052308727
1	0x3f61e583	0.8824083
2	0xbd7da0cd	-0.06192093
3	0x3f05c269	0.5224977
4	0x3f6d6a91	0.9274073
5	0x3cb9adec	0.02266594
6	0xbef35534	-0.47525942
7	0x3fa9e5ee	1.3273294
8	0x3e6f2d0e	0.23357031
9	0x3fab927f	1.3404082
10	0xc00d6224	-2.209115
11	0x3f17af38	0.5925174
12	0xbdd6893c	-0.10475394
13	0x3b2c5e3c	0.0026301285
14	0x3ebf8b27	0.37410852
15	0xbcfc6cf4	-0.030813672
16	0xbd5d0305	-0.053957958
17	0x3c437462	0.011929603
18	0xbd5efdbd	-0.054441202
19	0xbcebdef2	-0.028792832
20	0xbd160f22	-0.036635526
21	0xbc55c8e0	-0.013048381
22	0x3c8147ce	0.01578131
23	0xbbd04d44	-0.006356867
24	0xbdc6a98e	-0.09700309
25	0xbea045c5	-0.3130323
26	0xbd8d459b	-0.06898042
27	0xbf383957	-0.71962494
28	0xbdd05d82	-0.10174085
29	0xbe50919b	-0.20368044
30	0x3f841633	1.0319275
31	0xbe8d2f36	-0.27575082
32	0x3e44d4ca	0.19221798
33	0xbfd0201c	-1.6259799
34	0x4052c167	3.2930543
35	0x3ec84918	0.39118266
36	0x3d9c142d	0.07621036
37	0x3e6b0f3f	0.22955035
38	0x3e163639	0.14669122
39	0x3e5bd45a	0.21467724
40	0x3ec88e46	0.39171046
41	0x3df254e0	0.11832595
42	0x3ce03a9b	0.027371695
43	0x3ed4255e	0.4143476
44	0x3e5887b5	0.21145518
45	0xbe19c792	-0.15017536
46	0x3f1e6e7e	0.6188735
47	0x3dab765b	0.08372184
48	0x3eabed32	0.33579403
49	0x3ec4568e	0.38347286
50	0xbe5db5b2	-0.21651343
51	0xbe42d6e8	-0.19027293
52	0xbc99a2f0	-0.018754452
53	0x3e224ffe	0.15850827
54	0x3f72919a	0.9475342
55	0x3da013aa	0.078162506
56	0x3dea0f10	0.11428654
57	0xbf28d6c1	-0.6595269
58	0x4009aaa1	2.1510394
59	0xbf4f61ba	-0.81008494
60	0xbeb1acf9	-0.3470228
61	0xbd86a7f9	-0.06575007
62	0x3e86893f	0.26276585
63	0xbd4eb542	-0.05046583
64	0x3e3793b0	0.17927432
65	0xbd7e33d7	-0.062061157
66	0xbd3096de	-0.04311263
67	0xbd9f34b8	-0.07773727
68	0xbf13cd72	-0.5773536
69	0xbe77ef99	-0.24212493
70	0x3e8d152f	0.27555224
71	0x3d968295	0.07349125
72	0x3f275e21	0.65378004
73	0xbf0ebe33	-0.5575897
74	0xbdff0217	-0.124515705
75	0x3f51bd96	0.8192991
76	0xbf28f866	-0.66004026
77	0x3e1fb9a4	0.1559816
78	0x3f0ecd7a	0.5578228
79	0xbe0bada7	-0.13640462
80	0xbd3c08b9	-0.045906756
81	0x3f756266	0.9585327
82	0xbfab0100	-1.335968
83	0xbe02efec	-0.12786835
84	0x3f439c82	0.76410687
85	0xbe73524f	-0.23761867
86	0x3c9f02e9	0.019410567
87	0xbe0fc9c0	-0.14041805
88	0xbd45c4e5	-0.048283476
89	0x3e7ab41a	0.24482766
90	0xbe62a90c	-0.22134799
91	0xbe1d07ba	-0.15334979
92	0x3f22a1ff	0.63528436
93	0x3eb2cbc9	0.349211
94	0xbdaa8426	-0.083259866
95	0xbe8db376	-0.2767598
96	0x3f80f610	1.0075092
97	0xbe21b7fd	-0.15792842
98	0xbdaaff5c	-0.08349487
99	0x3e298b68	0.16557086
100	0xbf2293bc	-0.63506675
101	0x3d328c2c	0.04359071
102	0x3fc5d863	1.5456661
103	0xbf261db4	-0.64889073
104	0x3d7b00de	0.061280124
105	0xbf887a77	-1.0662373
106	0x400fc3b8	2.2463207
107	0xbf4a813f	-0.79103464
108	0x3ce6176a	0.028087337
109	0xbe00816f	-0.12549375
110	0x3ece3ae5	0.40279308
111	0x3ea85f1a	0.32885057
112	0x3e35c66c	0.17751473
113	0xbe055824	-0.13021904
114	0xbe1983aa	-0.14991632
115	0x3eb73510	0.3578267
116	0xbe6c4f53	-0.23077135
117	0xbee8ed76	-0.45493668
118	0xbe59b681	-0.21261026
119	0xbe52dad7	-0.20591293
120	0xbda77e84	-0.08178428
121	0xbf4e7f2d	-0.80662805
122	0x3cd55623	0.02604205
123	0xbf9ae986	-1.2102516
124	0xbf694847	-0.9112591
125	0xbda4c17d	-0.080447175
126	0xbe9276ea	-0.2860635
127	0xbf46e8b4	-0.77698827
128	0x3e4f3576	0.20235237
129	0xc0697f07	-3.6483781
130	0x404ee45b	3.2326877
131	0xbe508bba	-0.20365801
132	0x3f1eb521	0.6199513
133	0x3dec91ab	0.115512215
134	0xbdeb337f	-0.114844315
135	0x3cc4a85d	0.024006063
136	0xbe1b6e01	-0.15178682
137	0xbf25ce42	-0.6476785
138	0xbd789f5c	-0.060698852
139	0x3e591f5f	0.21203373
140	0x3d5e5f39	0.05429003
141	0xbd99fcf3	-0.07518949
142	0xbd25e24c	-0.040499017
143	0xbd731de4	-0.059354678
144	0x3f349d31	0.70552355
145	0x3eb7f376	0.35927933
146	0x3df19726	0.117964074
147	0x3fb5c8b6	1.4201877
148	0x3f0e30c4	0.5554316
149	0xbe20b6f3	-0.1569479
150	0x3eb4d6c1	0.35320094
151	0x3e036128	0.12830031
152	0x3c63ff6b	0.013915877
153	0x3f64043b	0.89068955
154	0xc015a830	-2.3383904
155	0xbdc1be86	-0.094601676
156	0xbeba21e5	-0.36353984
157	0xbd273b12	-0.04082782
158	0x3e38c132	0.18042448
159	0x3e3c31a0	0.18378305
160	0x3f015f84	0.5053637
161	0x3bf755c4	0.007548066
162	0x3d82f662	0.0639465
163	0xbecafe87	-0.39647314
164	0xbe4231a2	-0.18964246
165	0xbe8943a9	-0.26809433
166	0xbe3f76ba	-0.18697634
167	0x3eb58d7c	0.35459507
168	0x3f85a0d6	1.0439708
169	0xbe03ac64	-0.1285873
170	0xbd1750b8	-0.036942214
171	0x3f044e18	0.5168166
172	0xbe541b95	-0.20713647
173	0xbc4fb9ba	-0.012678558
174	0xbeb4374c	-0.35198438
175	0xbe99c61a	-0.30033952
176	0xbe2c604f	-0.16833614
177	0xbfabb1f7	-1.3413686
178	0xbfc97bb2	-1.5740874
179	0xbf81993d	-1.012489
180	0x3ec71185	0.38880554
181	0xbed7d486	-0.4215433
182	0xbe1242ba	-0.14283267
183	0xbe3a2105	-0.18176658
184	0x3eb438b4	0.3519951
185	0x3ed7ffe3	0.42187414
186	0x3c928d83	0.017889744
187	0x3df0fda6	0.117671296
188	0x3e2ac5b6	0.16676983
189	0x3e384142	0.17993644
190	0x3eb5536c	0.35415208
191	0xbea7b98a	-0.32758743
192	0xbec5708d	-0.38562432
193	0x3ed52969	0.41633156
194	0x3cfcec77	0.030874474
195	0xbecb422b	-0.3969892
196	0x3f186660	0.5953121
197	0x3c31445e	0.010819523
198	0xbf9882d2	-1.1914923
199	0x3f2d978c	0.6780937
200	0xbe7d5eb0	-0.24743152
201	0x3ed26dbe	0.41099352
202	0xbfce1138	-1.6099005
203	0x3f3e5f26	0.74363935
204	0xbebe0db0	-0.37119818
205	0xbea0f028	-0.31433225
206	0xbeb85c32	-0.3600784
207	0xbd896b77	-0.067099504
208	0xbdbaecf2	-0.09127225
209	0x3b2a5abf	0.002599403
210	0x3c49aecf	0.012309744
211	0x3e9c5d83	0.30540094
212	0xbe1bdbf7	-0.15220629
213	0xbe182795	-0.1485885
214	0xbf0b1d15	-0.5434125
215	0x3e99dce9	0.30051354
216	0x3c9e7b4c	0.019345902
217	0xbeebb70c	-0.4603809
218	0x3da94fb8	0.08267158
219	0xbf926a06	-1.1438606
220	0xbf9d6f0e	-1.2299516
221	0x3e1ceb3e	0.15324113
222	0x3dab2b46	0.08357863
223	0xbf847097	-1.034686
224	0xbe736691	-0.23769595
225	0xc035e6f2	-2.8422208
226	0x4084a94f	4.1456676
227	0xbf4c74eb	-0.798659
228	0x3f504bd7	0.8136572
229	0xbe5320cf	-0.20617984
230	0xbea71586	-0.3263361
231	0x3e08af07	0.13348018
232	0xbdcd37f2	-0.10020436
233	0x3dd62af3	0.10457411
234	0xbe0e6d47	-0.13908873
235	0x3d55f4a3	0.052235257
236	0x3e0cda45	0.13755138
237	0xbddcc273	-0.10779276
238	0xbd40d731	-0.047080223
239	0xbac476a0	-0.0014988966
240	0x3f02efe0	0.5114727
241	0xbd98d81a	-0.07463093
242	0x3d4cfb7e	0.05004453
243	0xbf8258e4	-1.0183377
244	0x3efb78cc	0.49115598
245	0xbcf0aa10	-0.029377967
246	0xbf928763	-1.1447567
247	0x3f29e217	0.6636061
248	0xbbc77439	-0.006086853
249	0xc01b1d46	-2.4236617
250	0xbe8e7217	-0.2782142
251	0x3f897524	1.0738873
252	0xbe8901a1	-0.26759055
253	0x3e6a2085	0.22863968
254	0xbeb16f59	-0.34655264
255	0xbee78c28	-0.45224118

read_encoder.block1.0.bias f4 [128]
0	0xbf1c73d9	-0.6111427
1	0x3eb7016c	0.35743272
2	0xbd8372a8	-0.06418353
3	0x3e5b3871	0.2140825
4	0x3ec30c3b	0.3809527
5	0x3ee46832	0.44610745
6	0xbc413dba	-0.011794502
7	0x3f02538d	0.5090874
8	0xbdfc5423	-0.12320735
9	0x3eb5647f	0.35428235
10	0xbdbed3a1	-0.09317709
11	0xbdf83e3e	-0.12121247
12	0x3dd3a438	0.103340566
13	0xbf15a879	-0.58460194
14	0x3e8d9b0f	0.27657363
15	0xbed72e85	-0.4202768
16	0xbeecae62	-0.46226794
17	0xbf09e282	-0.5386125
18	0x3f1b5c5b	0.606878
19	0x3e90b0b5	0.28259817
20	0xbdeaa158	-0.11456555
21	0x3ed86e78	0.4227178
22	0x3ee2edf3	0.44322166
23	0x3e88920b	0.26673922
24	0x3e0c4c38	0.1370095
25	0xbdbc045b	-0.09180518
26	0x3eaf8f66	0.34289092
27	0xbf0d147e	-0.55109394
28	0x3da3c023	0.079956315
29	0x3efa4239	0.4887865
30	0x3daec95c	0.085345
31	0xbf15c66b	-0.58505887
32	0x3ec1bc81	0.3783913
33	0x3efc4c38	0.492769
34	0x3e6f698f	0.23380111
35	0x3f05e549	0.52302986
36	0x3eeddad4	0.46456015
37	0xbf267cc8	-0.6503415
38	0x3e2fdc34	0.17173845
39	0xbf1567b7	-0.5836138
40	0x3e0d85ed	0.1382062
41	0x3f12f876	0.5741037
42	0xbf1327b2	-0.57482445
43	0x3f14a5ee	0.5806569
44	0x3e88a743	0.2669011
45	0x3e469443	0.19392495
46	0x3dbb27ca	0.091384485
47	0xbf0198c0	-0.50623703
48	0xbf2d2e3d	-0.6764868
49	0xbeefedcb	-0.4686111
50	0xbe90b7b3	-0.2826515
51	0xbe913fe9	-0.28369072
52	0xbcf990b4	-0.030464508
53	0xbf109d0e	-0.56489646
54	0x3ebabad1	0.36470655
55	0x3f18d4ce	0.59699714
56	0x3d4cb3dc	0.049976215
57	0x3d89670c	0.06709108
58	0xbe3fde26	-0.18737087
59	0xbe5d7659	-0.21627177
60	0x3f3d12ff	0.7385711
61	0xbf3d8890	-0.740365
62	0x3e0f37e0	0.13986158
63	0xbf2620e4	-0.6489394
64	0xbeb7638f	-0.35818145
65	0xbe42c4ed	-0.19020434
66	0xbe9beebf	-0.30455586
67	0x3e302013	0.17199735
68	0x3dff095b	0.12452956
69	0x3e4dbf1b	0.20092432
70	0xbe00837c	-0.12550157
71	0xbe9d1e53	-0.30687198
72	0x3e5152e4	0.20441777
73	0xbd02b5d7	-0.031911697
74	0x3ee5f9aa	0.4491704
75	0xbf30daf9	-0.69084126
76	0xbeb3ee4d	-0.35142747
77	0xbf2dfd04	-0.67964196
78	0xbf1e93b2	-0.61944115
79	0xbe8dfa76	-0.2773015
80	0xbf0ffbc7	-0.56243557
81	0xbde82ad1	-0.113362916
82	0x3ed54b4f	0.41659018
83	0xbe1243f4	-0.14283735
84	0xbed41350	-0.41420984
85	0xbe970aa1	-0.29500297
86	0x3f0cfc26	0.5507225
87	0xbd6a8dbc	-0.057264075
88	0xbebff01a	-0.3748787
89	0x3effed96	0.4998595
90	0xbf12b670	-0.5730963
91	0x3eb4092d	0.3516325
92	0xbe93927b	-0.28822693
93	0x3eee4dbe	0.46543688
94	0x3e6f935f	0.23396061
95	0x3ea3efb8	0.32018828
96	0x3ec4822d	0.38380566
97	0x3ddf9650	0.10917342
98	0xbefeee8e	-0.49791378
99	0x3f12e25a	0.57376635
100	0x3f27a8d9	0.65492016
101	0xbd58b01b	-0.052902322
102	0xbef02096	-0.4689986
103	0xbf20fbb6	-0.6288408
104	0x3f000615	0.5000928
105	0xbedc789f	-0.43060777
106	0x3dade985	0.08491806
107	0xbe868c28	-0.26278806
108	0xbf41cdae	-0.7570447
109	0x3e8ed268	0.27894902
110	0x3f0771df	0.5290813
111	0x3ecbf156	0.39832562
112	0xbe2fb114	-0.17157394
113	0xbed4d437	-0.41568157
114	0xbe989d8f	-0.29807708
115	0x3f0df54b	0.5545241
116	0x3f132f53	0.57494086
117	0xbeddab5e	-0.43294805
118	0xbe84d48e	-0.25943416
119	0x3f2a4aae	0.665202
120	0x3edb3786	0.428158
121	0xbeedd681	-0.46452716
122	0xbf2e7a83	-0.6815569
123	0x3eb5fa04	0.3554231
124	0x3f0913c1	0.5354577
125	0x3e40c74a	0.18826023
126	0x3c769839	0.015050941
127	0xbf231d2e	-0.637164

read_encoder.block1.1.weight f4 [128]
0	0x3f902d81	1.1263887
1	0x3fbfe088	1.4990396
2	0x3fb89d97	1.4423093
3	0x3f962805	1.1730963
4	0x3fc30802	1.5236819
5	0x3f994aea	1.1975987
6	0x3f955849	1.1667567
7	0x3fb1057a	1.3829796
8	0x3faf7b9a	1.3709595
9	0x3f8726cb	1.0558714
10	0x3f9883eb	1.1915258
11	0x3f625fd1	0.88427454
12	0x3f80e314	1.0069299
13	0x3ef9988d	0.487492
14	0x3fbeb6ed	1.4899575
15	0x3f8efdb8	1.1171179
16	0x3f4238b4	0.7586777
17	0x3f86eef2	1.054167
18	0x3fbd07bc	1.4767985
19	0x3f987421	1.191044
20	0x3fd06686	1.6281288
21	0x3f9d6c75	1.2298723
22	0x3f3d5ac4	0.7396662
23	0x3f5857e0	0.84509087
24	0x3fb35f38	1.4013433
25	0x3f9a2614	1.204287
26	0x3f8040ec	1.0019813
27	0x3f24d35e	0.6438502
28	0x3fa18d4b	1.2621244
29	0x3fad9ffa	1.3564446
30	0x3fb141cb	1.3848203
31	0x3eb26fb5	0.3485085
32	0x3f2edaaf	0.68302435
33	0x3f232979	0.6373516
34	0x3f98d36b	1.193952
35	0x3fa19197	1.2622555
36	0x3f95ef24	1.1713605
37	0x3f0fe5dc	0.5621011
38	0x3f9089a4	1.1292005
39	0x3fa07856	1.2536724
40	0x3f5ac605	0.85458404
41	0x3f8b22cf	1.0869998
42	0x3f99a5ee	1.2003763
43	0x3f9b3b30	1.2127438
44	0x3ff14483	1.8849033
45	0x3f519f54	0.8188374
46	0x3f9e5181	1.2368623
47	0x3ed96c6a	0.42465526
48	0x3f87e7c9	1.061761
49	0x3ee2ba3c	0.4428271
50	0x3f9fe39c	1.2491336
51	0x3f0ad895	0.5423673
52	0x3f9e69d8	1.2376051
53	0x3fab7c61	1.3397332
54	0x3fc9be11	1.5761129
55	0x3fd56d78	1.6674032
56	0x3f8889a3	1.0667003
57	0x3fd8d847	1.6941003
58	0x3f068fee	0.5256337
59	0x3f1eb7ec	0.6199939
60	0x3f8353a8	1.0259905
61	0x3efd1c75	0.49435773
62	0x3f9b260f	1.212099
63	0x3f1a0145	0.6015819
64	0x3ede194b	0.43378672
65	0x3f479112	0.77955735
66	0x3f05477a	0.5206219
67	0x40019e21	2.0252764
68	0x3fa0bdd1	1.2557927
69	0x3faea864	1.3645139
70	0x3f3a2460	0.72711754
71	0x3f016fce	0.50561225
72	0x3fae7216	1.3628566
73	0x3fa50c7a	1.2894433
74	0x3fa38ec0	1.2777939
75	0x3f01ab5c	0.506521
76	0x3edd49e5	0.4322044
77	0x3ec9a26f	0.3938174
78	0x3f998066	1.1992309
79	0x3f1abccf	0.6044435
80	0x3ee1dae5	0.44112316
81	0x3f34386d	0.703986
82	0x3fd11e24	1.6337323
83	0x3f34d78f	0.70641416
84	0x3f384265	0.7197631
85	0x3f782a59	0.9693962
86	0x3f565736	0.83726823
87	0x3f378278	0.71683455
88	0x3f04af3c	0.51829886
89	0x3f84e0df	1.0381125
90	0x3f3b1b83	0.73088855
91	0x3f952683	1.1652378
92	0x3f739fbf	0.9516563
93	0x3f5a865e	0.8536128
94	0x3f896dec	1.073667
95	0x3ff110bd	1.8833233
96	0x3f881681	1.0631868
97	0x3ef6784f	0.48138663
98	0x3f423114	0.7585614
99	0x3f906244	1.1279988
100	0x3fab4170	1.3379345
101	0x3f257db8	0.64644957
102	0x3f7929d3	0.97329444
103	0x3fa7863c	1.308784
104	0x3fd06b02	1.6282656
105	0x3f497319	0.7869125
106	0x3f5087bb	0.8145711
107	0x3f37a7e9	0.71740586
108	0x3f76e5e0	0.9644451
109	0x3fae01fa	1.3594353
110	0x3f4a775d	0.79088384
111	0x3fa9fd76	1.3280475
112	0x3ecf25a0	0.40458393
113	0x3efb843c	0.49124324
114	0x3f7586ee	0.9590901
115	0x3fcfa13e	1.6221082
116	0x4002b3de	2.0422282
117	0x3f295e22	0.6615926
118	0x3fd70f1f	1.680149
119	0x3fad89c0	1.3557663
120	0x3fa6d657	1.3034161
121	0x3f869faa	1.0517476
122	0x3f3342dd	0.700239
123	0x3faa0233	1.3281921
124	0x3f9611d4	1.1724191
125	0x3f991f2b	1.1962637
126	0x3f0ff294	0.5622952
127	0x3f400763	0.7501127

read_encoder.block1.1.bias f4 [128]
0	0xbe9a2ab0	-0.30110693
1	0xbe4b91d6	-0.19879851
2	0xbe6d4ac5	-0.23173054
3	0xbe2946c2	-0.16530898
4	0xbdd18032	-0.102295294
5	0xb9a5d807	-0.00031632205
6	0xbe9eed73	-0.31040534
7	0xbc06d724	-0.008230004
8	0xbe4ebe10	-0.2018969
9	0xbd184d80	-0.037183285
10	0xbeb1bbcb	-0.34713587
11	0xbe7d603d	-0.24743743
12	0xbea31278	-0.31850028
13	0xbf0d7bd9	-0.552671
14	0xbe1f3481	-0.15547372
15	0xbea458b0	-0.32098913
16	0xbe9f1186	-0.31068057
17	0xbe9abd3d	-0.30222502
18	0xbe15f98e	-0.14645979
19	0xbe69eafe	-0.22843549
20	0xbe0332dd	-0.12812372
21	0xbe367362	-0.17817453
22	0xbe98487c	-0.297428
23	0xbe90577a	-0.2819174
24	0xbdac399a	-0.08409424
25	0xbe082db7	-0.13298689
26	0xbe3d9684	-0.18514448
27	0xbee33787	-0.44378302
28	0xbe45da29	-0.19321503
29	0x3a4ac9ab	0.00077357393
30	0x3b77f771	0.0037836696
31	0xbf2dd4f3	-0.6790306
32	0xbea04931	-0.3130584
33	0xbeda652c	-0.42655313
34	0xbea4b613	-0.32170162
35	0xbe724197	-0.23657833
36	0xbdb07833	-0.08616676
37	0xbf13627b	-0.57572144
38	0xbe35584a	-0.17709461
39	0xbe91f10c	-0.28504217
40	0xbea120cf	-0.31470343
41	0xbe9b833a	-0.30373555
42	0xbe841cdc	-0.25803268
43	0xbdd0a1e4	-0.10187128
44	0x3da223f3	0.07917013
45	0xbe6cf7c4	-0.2314139
46	0xbe502786	-0.20327577
47	0xbf383bc4	-0.71966195
48	0xbeb3bccd	-0.3510498
49	0xbf094199	-0.5361572
50	0xbe440b6e	-0.19144985
51	0xbf0497bc	-0.5179403
52	0xbe97e1d9	-0.29664496
53	0xbe6ba7c2	-0.23013213
54	0xbca61d5a	-0.020277668
55	0x3c750751	0.014955358
56	0xbedf1f03	-0.43578348
57	0xbdc1602e	-0.09442173
58	0xbee81061	-0.45324996
59	0xbeea53a0	-0.45766926
60	0xbefc77f1	-0.49310258
61	0xbf104b41	-0.5636483
62	0xbef31ff0	-0.47485304
63	0xbec6117e	-0.3868522
64	0xbf1003ce	-0.56255805
65	0xbe8cb440	-0.2748127
66	0xbef1708b	-0.47156176
67	0xbe3c242d	-0.18373175
68	0xbe9c855d	-0.30570498
69	0x3cd5ba00	0.026089668
70	0xbe99961f	-0.29997346
71	0xbef63c8e	-0.48093075
72	0xbe61f5ec	-0.22066468
73	0xbe9e58e6	-0.309272
74	0xbdb4a21c	-0.088199824
75	0xbee72cea	-0.45151454
76	0xbf156d8b	-0.58370274
77	0xbf1b4f31	-0.6066771
78	0xbea8d6f3	-0.32976493
79	0xbeddff3f	-0.433588
80	0xbf12961c	-0.572603
81	0xbf1bbdcb	-0.60836476
82	0xbe46f231	-0.19428326
83	0xbeef0cae	-0.4668936
84	0xbef610c2	-0.4805966
85	0xbe8255a9	-0.2545598
86	0xbe4c7bff	-0.19969176
87	0xbed15b00	-0.4088974
88	0xbedb9f63	-0.4289504
89	0xbe16bc07	-0.14720164
90	0xbebcd583	-0.36881647
91	0xbefde7ad	-0.49590817
92	0xbec2d865	-0.3805572
93	0xbede71b1	-0.43446115
94	0xbe2997af	-0.16561769
95	0xbe593734	-0.21212465
96	0xbe030b24	-0.12797219
97	0xbeda5003	-0.4263917
98	0xbed3c8f2	-0.41364247
99	0xbcaf7ea9	-0.021422701
100	0x3da3425e	0.07971643
101	0xbf140cb5	-0.5783189
102	0xbe990806	-0.29888934
103	0xbea3696e	-0.31916374
104	0x3d1ff6fd	0.039053906
105	0xbe7c1f9c	-0.24621433
106	0xbeabb46e	-0.33536094
107	0xbefd7cc5	-0.49509254
108	0xbed2a1d1	-0.4113908
109	0xbdce0e7f	-0.10061359
110	0xbe83679f	-0.25664994
111	0xbe0a63e4	-0.13514668
112	0xbf11ba34	-0.5692475
113	0xbeea0e76	-0.45714158
114	0xbe882e4d	-0.26597825
115	0xbede987c	-0.4347571
116	0x3b84f87b	0.0040579415
117	0xbec70b61	-0.3887587
118	0xbd54308b	-0.051804107
119	0xbd211c1f	-0.03933346
120	0xb9c136eb	-0.00036852746
121	0xbe846add	-0.2586278
122	0xbedcfb98	-0.431607
123	0xbdd48c55	-0.10378329
124	0xbe4fd3e0	-0.20295668
125	0xbd9d00e0	-0.076661825
126	0xbf1549d1	-0.5831576
127	0xbebed8c5	-0.37274757

read_encoder.block2.0.weight f4 [128, 128]
0	0xbc2aaeee	-0.010417683
1	0x3dda3061	0.10653759
2	0x3e41f597	0.18941341
3	0xbd771bac	-0.060329124
4	0x3dbd30d5	0.092378296
5	0xbe4f62d8	-0.2025255
6	0x3df70672	0.12061776
7	0x3e106fd0	0.14105153
8	0x3cd1bfa3	0.025604075
9	0xbd1d3c85	-0.038387794
10	0x3e977e1b	0.29588398
11	0x3cb16a15	0.02165703
12	0xbe8779a0	-0.2645998
13	0x3eb9f5c1	0.36320308
14	0xbc9c86e0	-0.019107282
15	0xbdaf0e31	-0.08547629
16	0x3e23a44c	0.15980643
17	0x3e38adf6	0.18035111
18	0xbd909321	-0.070593126
19	0x3e04c86a	0.12967077
20	0x3cdacd1a	0.026709128
21	0x3dda96ed	0.10673318
22	0x3d89387b	0.06700226
23	0xbe6226e1	-0.22085144
24	0x3bc5d02a	0.006036778
25	0x3da9cdbb	0.08291193
26	0x3d22ed70	0.03977722
27	0x3e3df64b	0.18550985
28	0xbd50f28d	-0.051012564
29	0x3e663811	0.22482325
30	0xbd2701a6	-0.040773056
31	0x3e043c16	0.12913546
32	0x3e7226ea	0.23647657
33	0x3e83aa9d	0.25716105
34	0xbcda9436	-0.026682
35	0xbc6822d1	-0.014168457
36	0x3c828e23	0.015936917
37	0x3e165bdc	0.14683479
38	0x3e7c7e2f	0.2465751
39	0x3dcd75ec	0.100322574
40	0x3d5e9039	0.05433676
41	0xbd9688d8	-0.073503196
42	0x3e4cd806	0.20004281
43	0x3d1fc8e3	0.03900994
44	0x3eebcf09	0.46056393
45	0xbd50f784	-0.0510173
46	0x3d4edc8a	0.05050329
47	0x3e388727	0.18020307
48	0x3e8790b1	0.26477578
49	0x3e8674ad	0.26260892
50	0x3e4e3cdc	0.20140404
51	0x3d0fb699	0.035086248
52	0x3e9ee32a	0.31032687
53	0xbd99f1bd	-0.07516811
54	0xbe3c8d90	-0.18413377
55	0x3dda83b0	0.10669649
56	0xbe06dec1	-0.13170911
57	0xbe9b2bb5	-0.30306783
58	0x3d216e59	0.039411876
59	0x3d551064	0.052017584
60	0xbdb242ad	-0.08704124
61	0x3e971d8f	0.2951474
62	0x3cff777b	0.031184902
63	0x3e6c1879	0.2305621
64	0x3dbd02cd	0.0922905
65	0xbd8ab471	-0.06772698
66	0xbc2930aa	-0.010326544
67	0x3e984354	0.29738867
68	0x3c946656	0.018115204
69	0xbb9f849d	-0.0048681037
70	0x3e585d9e	0.21129462
71	0x3cf1d147	0.029518737
72	0x3e8588e7	0.2608101
73	0x3dc88c6c	0.09792408
74	0xbdc174eb	-0.094461285
75	0x3e25b2fd	0.1618156
76	0x3e5df91f	0.21677063
77	0x3e66f4cb	0.22554319
78	0xbd14808f	-0.036255416
79	0x3e8e8a6c	0.27839983
80	0x3e970bb9	0.2950113
81	0x3e1fa29f	0.15589379
82	0x3e83e432	0.25760037
83	0x3d3f4744	0.046698824
84	0xbe05dcce	-0.13072512
85	0x3d9b5555	0.07584635
86	0xbe1b83f4	-0.15187055
87	0x3df45909	0.119310446
88	0x3e79d944	0.24399287
89	0xbde8add4	-0.1136128
90	0x3e643f18	0.22289693
91	0x3d59746e	0.05308955
92	0x3e0fc72f	0.14040826
93	0x3db1c2be	0.08679722
94	0x3e558f93	0.2085555
95	0x3eba2faf	0.36364505
96	0xbe2c771d	-0.16842313
97	0x3e6edd6d	0.23326655
98	0x3d904c9b	0.07045861
99	0xbe6b8fe1	-0.23004104
100	0xbe8e9201	-0.27845767
101	0x3e04c1bd	0.1296453
102	0xbcdfa142	-0.027298573
103	0xbe4c6536	-0.19960484
104	0xbd588cb7	-0.05286857
105	0xbcc001ee	-0.02343842
106	0x3ddbaa73	0.1072587
107	0xbe203677	-0.15645777
108	0x3e5489e8	0.20755732
109	0xbdb709b9	-0.08937401
110	0x3c6c5dda	0.014426673
111	0x3d82f9d1	0.06395305
112	0x3e494cd5	0.19658215
113	0x3e8ab932	0.27094418
114	0xbdaedfb1	-0.085387595
115	0xbdc4499e	-0.09584354
116	0x3e402240	0.18763065
117	0x3dad1991	0.08452142
118	0xbe9beee0	-0.30455685
119	0xbdefcd19	-0.11709041
120	0x3ceb09ff	0.02869129
121	0x3d001ff9	0.03128049
122	0xbd722882	-0.059120663
123	0xbe934b55	-0.2876841
124	0x3d334705	0.0437689
125	0x3e34378f	0.17599319
126	0x3e6b1843	0.22958474
127	0x3e192c00	0.14958191
128	0x3d0f7ab3	0.035029124
129	0xbea60b8c	-0.32430685
130	0x3e4911a8	0.19635642
131	0x3efc289b	0.4924973
132	0xbe473d3e	-0.19456956
133	0x3d04b54b	0.032399457
134	0x3e2dcb16	0.16972002
135	0x3e4aa14e	0.19788095
136	0x3e90a717	0.2825248
137	0xbc799ff6	-0.015235892
138	0x3c72253b	0.014779384
139	0x3e78d2c0	0.24299145
140	0x3d6c8de0	0.05775249
141	0x3e9b5495	0.30337968
142	0x3e216349	0.1576053
143	0x3e44e808	0.19229138
144	0xbcaa6b4a	-0.020803113
145	0x3e0829de	0.13297221
146	0xbe498658	-0.19680154
147	0xbe8630c2	-0.26209074
148	0xbe62f08f	-0.22162078
149	0xbe0d399f	-0.13791512
150	0x3eb4ba0c	0.35298193
151	0xbd9c5898	-0.076340854
152	0x3e38b6de	0.18038508
153	0x3db82470	0.08991325
154	0x3e635927	0.22201978
155	0x3e0ac9f8	0.13553607
156	0xbdc6e6b4	-0.09711972
157	0x3d5ee32b	0.054415863
158	0x3e55e306	0.20887384
159	0xbd4727f8	-0.0486221
160	0x3ea05ff7	0.31323215
161	0x3ca47327	0.02007444
162	0x3c26b9f7	0.010176173
163	0xbdc7f4b9	-0.09763474
164	0x3dfc24c1	0.12311698
165	0x3dc17663	0.094464086
166	0x3e12c2eb	0.14332168
167	0x3e9cbe98	0.30614161
168	0x3d20bb46	0.039241098
169	0x3e3b7e7c	0.18309969
170	0x3e79c541	0.24391653
171	0x3e433b17	0.1906551
172	0x3e680876	0.22659478
173	0x3e1038db	0.14084189
174	0x3e15300c	0.1456911
175	0x3e947fa6	0.29003638
176	0xbcb9edf1	-0.022696467
177	0x3e88e42a	0.26736575
178	0x3e0ac917	0.13553272
179	0x3e53c820	0.2068181
180	0x3dbac9f9	0.091205545
181	0x3df1caa6	0.1180623
182	0x3d9fe34f	0.078070275
183	0x3dc90159	0.0981471
184	0x3cee8951	0.029118212
185	0x3d117eca	0.035521306
186	0x3eb358e5	0.3502876
187	0x3e09ae0a	0.13445297
188	0x3cfd9dbd	0.030959005
189	0xbd6e0fe7	-0.058120634
190	0x3e4aaffe	0.19793698
191	0x3e2710d1	0.16315009
192	0x3e0ffa0e	0.14060232
193	0x3e9327c1	0.28741267
194	0xbdc4a313	-0.096014164
195	0xbe691b2f	-0.22764276
196	0xbd850321	-0.064947374
197	0xbd95f356	-0.07321803
198	0x3d10ada1	0.035321835
199	0x3d10092a	0.03516499
200	0xbe00c8dc	-0.12576622
201	0x3e11584d	0.1419384
202	0x3e8db79b	0.27679142
203	0xbe058bef	-0.13041662
204	0xbaa87c69	-0.001285446
205	0x3dabfacc	0.08397445
206	0x3e79f110	0.24408364
207	0x3e253f94	0.16137534
208	0x3e14efd7	0.14544617
209	0x3e3b1617	0.18270145
210	0x3cbac926	0.022800993
211	0x3e924787	0.28570196
212	0x3e1ca78f	0.15298294
213	0xbe585bef	-0.2112882
214	0x3db6e6f8	0.089307725
215	0x3e9aea60	0.3025694
216	0x3d882113	0.066469334
217	0x3d82c943	0.06386044
218	0x3e089ed9	0.13341846
219	0x3ca80a3b	0.02051269
220	0x3d80b8ae	0.06285225
221	0x3e679cb3	0.2261837
222	0x3e3ce030	0.18444896
223	0x3d849f42	0.064756885
224	0xbd4332d4	-0.047655895
225	0x3e52db8f	0.20591567
226	0x3d8721c1	0.06598235
227	0x3d23ea06	0.040018104
228	0x3d854f3a	0.06509252
229	0x3de02dd9	0.10946245
230	0xbd100ab8	-0.035166472
231	0x3af65a8c	0.0018795296
232	0x3eeafd5b	0.4589642
233	0x3e0533ba	0.13008013
234	0x3e685525	0.2268873
235	0x3df383d8	0.118903816
236	0x3e43c7b9	0.19119157
237	0xbc09fac4	-0.008421604
238	0x3e2fd6dd	0.17171808
239	0x3e23c22f	0.15992044
240	0x3e5acf5b	0.21368162
241	0x3dc3493d	0.095354535
242	0xbdf9423a	-0.12170835
243	0xbebbbc35	-0.36667028
244	0x3e39b262	0.18134454
245	0x3d31f502	0.04344655
246	0x3c87b206	0.01656438
247	0xba2118aa	-0.0006145338
248	0x3cd9ee83	0.026602989
249	0x3e34e016	0.17663607
250	0x3e0a9a22	0.1353536
251	0x3d4d3d58	0.05010733
252	0xbe19d488	-0.1502248
253	0xbdf90b69	-0.121603794
254	0x3d31efbf	0.04344153
255	0x3d3669fe	0.044534676

read_encoder.block2.0.bias f4 [128]
0	0x3ed52d65	0.41636196
1	0x3f1bfcbc	0.6093252
2	0x3d449459	0.047993038
3	0x3ea75a88	0.32686257
4	0x3efb4354	0.49074805
5	0xbe2709d7	-0.16312347
6	0xbd80b10e	-0.062837705
7	0xbdc3289c	-0.0952923
8	0x3da2f5f0	0.07957065
9	0xbdb95dde	-0.09051107
10	0x3e4af6e6	0.19820747
11	0x3ecd8e72	0.4014774
12	0x3c59ecf4	0.013301123
13	0xbc42aa3e	-0.011881409
14	0xbdbafad7	-0.09129875
15	0xbddcdc05	-0.10784153
16	0x3d07d7a9	0.033164654
17	0x3d01cd05	0.031689662
18	0xbdf50422	-0.11963679
19	0x3e8608b5	0.26178518
20	0x3e6b4a90	0.22977662
21	0x3e89cbd4	0.2691332
22	0xbd6cf22f	-0.05784815
23	0xbe340fd1	-0.17584158
24	0xbd716629	-0.05893532
25	0x3e616b07	0.22013484
26	0x3df59cc3	0.119927905
27	0xbd94b3a2	-0.07260825
28	0xbe2ea8e4	-0.17056614
29	0xbc8a833e	-0.016908284
30	0xbe994c89	-0.29941204
31	0xbe153c74	-0.14573842
32	0xbda7ebd6	-0.08199279
33	0x3eb9563c	0.36198604
34	0x3e9b777f	0.30364606
35	0xbc100bc8	-0.008791871
36	0x3de83806	0.113388106
37	0x3d605aaa	0.054773964
38	0x3d3f6b51	0.046733204
39	0xbd9d42f0	-0.07678783
40	0x3e847510	0.25870562
41	0xbe808706	-0.25103015
42	0x3e2763f0	0.16346717
43	0x3ed3edb1	0.41392282
44	0xbeb4e1fc	-0.35328662
45	0x3dc50bab	0.09621366
46	0x3e2ce03b	0.16882412
47	0x3e126859	0.14297618
48	0x3dc03949	0.09385926
49	0x3db85e85	0.09002403
50	0xbd01e3ac	-0.031711265
51	0x3da6821a	0.08130284
52	0x3dc6360c	0.096782774
53	0xbe365ba5	-0.17808397
54	0x3ee4013c	0.44532192
55	0x3dc2dcd9	0.095147796
56	0x3e0cefbe	0.1376333
57	0xbc24bd5a	-0.010054911
58	0x3d9983a5	0.07495812
59	0x3ddd6a5a	0.108113006
60	0x3eb65f43	0.35619554
61	0x3f094329	0.53618103
62	0x3efdbe44	0.49559224
63	0xbd158e63	-0.036512744
64	0x3f25f6ef	0.64829916
65	0xbbd45c4f	-0.0064807306
66	0x3f0f2dd3	0.559293
67	0x3d0ccb7a	0.034373738
68	0x3da94664	0.08265379
69	0xbc8281eb	-0.01593109
70	0xbccebe36	-0.025237184
71	0x3eead1c5	0.45863166
72	0xbe0a656d	-0.13515253
73	0x3e557e7d	0.20849033
74	0xbcb36342	-0.021897916
75	0x3ef9a7b0	0.48760748
76	0x3f0ad783	0.54235095
77	0x3db8f1c6	0.090304896
78	0x3800ba36	3.0691e-05
79	0xbe7417b3	-0.23837166
80	0x3e8c9a32	0.27461392
81	0x3ea04f8e	0.31310695
82	0xbd4a97a4	-0.049461022
83	0x3e2dfa75	0.16990073
84	0x3e72a9dd	0.2369761
85	0x3de9789a	0.11399956
86	0x3f1ebb70	0.62004757
87	0x3dbf6b02	0.09346582
88	0x3ef4e891	0.47833684
89	0xbbc0383d	-0.005866079
90	0x3d7d4f51	0.06184322
91	0x3f03d823	0.51501673
92	0x3e3dc78e	0.18533155
93	0x3e417a68	0.1889435
94	0x3ec8afda	0.39196664
95	0xbdda46aa	-0.10658009
96	0x3efcfde2	0.49412447
97	0x3f07a6f8	0.5298915
98	0xbd781aed	-0.060572553
99	0x3c686667	0.014184571
100	0xbd871fb3	-0.06597843
101	0x3ee38336	0.44436044
102	0x3d9fbebf	0.07800054
103	0x3c54fa22	0.012999089
104	0xbd83c3c4	-0.06433824
105	0xbdd1cdec	-0.102443546
106	0x3d2491c6	0.040178083
107	0x3e6ef2e6	0.23334846
108	0xbb9bf0f1	-0.004758947
109	0x3e7581a4	0.23975235
110	0x3db6010f	0.08886921
111	0xbdb19be3	-0.08672311
112	0xbdb6af48	-0.08920151
113	0x3dbc3fc3	0.09191849
114	0x3e5e4590	0.21706223
115	0xbe05772a	-0.13033739
116	0xbbbf8f4c	-0.0058459397
117	0xbc5f9456	-0.013646206
118	0xbddcd6f6	-0.10783188
119	0xbce920d9	-0.028458046
120	0x3ebf4594	0.3735777
121	0xbe1cdb77	-0.15318094
122	0x3e1c09a1	0.15238048
123	0x3c07ba6a	0.008284191
124	0x3ee16fa2	0.44030482
125	0xbdc6ceb7	-0.097073965
126	0xbdc1f7ad	-0.094710685
127	0x3ecbba14	0.39790404

read_encoder.block2.1.weight f4 [128]
0	0x3f15db05	0.5853732
1	0x3f0ac4ce	0.5420655
2	0x3f85c542	1.0450823
3	0x3f406fa9	0.7517038
4	0x3f38f1cf	0.7224397
5	0x3fb04ecf	1.377405
6	0x3f99e58c	1.2023177
7	0x3f8faca2	1.1224558
8	0x3f8d0e04	1.1019902
9	0x3f8d2b25	1.1028792
10	0x3f3c045b	0.73444146
11	0x3f709f1c	0.9399278
12	0x3f81c8ae	1.0139368
13	0x3f91b460	1.1383171
14	0x3fa389c5	1.2776419
15	0x3fd19fbe	1.6376874
16	0x3f962c5c	1.1732287
17	0x3f71d07f	0.94458765
18	0x3f7b85b9	0.9825092
19	0x3f4bd2c8	0.796185
20	0x3f03b596	0.51448953
21	0x3f6288c6	0.8848995
22	0x3f90f121	1.1323587
23	0x3faf4484	1.3692784
24	0x3fad5cf3	1.3543991
25	0x3f1fa703	0.62364215
26	0x3f72b442	0.948063
27	0x3f52d2e5	0.8235305
28	0x3fa57862	1.2927363
29	0x3f9673a4	1.1754041
30	0x3fb0acd1	1.3802739
31	0x3f895e3b	1.0731882
32	0x3fa7bc24	1.3104291
33	0x3f196fc1	0.5993615
34	0x3f4c1dc9	0.7973295
35	0x3f9c6fc7	1.2221612
36	0x3f97943b	1.1842111
37	0x3f8a94ed	1.0826699
38	0x3f59569f	0.848978
39	0x3f935966	1.1511657
40	0x3f350360	0.70708275
41	0x3fb07772	1.3786452
42	0x3f7f7fde	0.99804485
43	0x3f202479	0.6255565
44	0x3fbbcf50	1.4672642
45	0x3f8d58ac	1.1042686
46	0x3f573e73	0.84079665
47	0x3f7e4c6f	0.9933538
48	0x3f84a826	1.0363815
49	0x3f683e62	0.9072019
50	0x3f9acfce	1.2094667
51	0x3f62f097	0.8864836
52	0x3f994339	1.197364
53	0x3fdefffb	1.7421869
54	0x3f7e2ab2	0.992839
55	0x3f655d78	0.89595747
56	0x3f7794d3	0.9671146
57	0x3faa41cc	1.330133
58	0x3f8228a7	1.0168656
59	0x3f3a471c	0.72764754
60	0x3f35fd1f	0.7108936
61	0x3f06b7df	0.52624315
62	0x3f325b1c	0.6967027
63	0x3f8d80ac	1.1054893
64	0x3f1b5d1b	0.6068894
65	0x3f8a7d45	1.0819479
66	0x3f1a69df	0.60317796
67	0x3f7cbf12	0.9872905
68	0x3f5a34ca	0.852368
69	0x3f911348	1.1334009
70	0x3f869229	1.0513355
71	0x3f0a52fb	0.5403287
72	0x3fd94a3a	1.6975777
73	0x3f4b1d3a	0.7934147
74	0x3f818054	1.0117288
75	0x3f20a0b8	0.6274524
76	0x3f1ed127	0.6203789
77	0x3f38795b	0.72060174
78	0x3f98bf62	1.1933405
79	0x3f86798d	1.0505844
80	0x3f358639	0.7090793
81	0x3f7b422a	0.98147833
82	0x3f93ca33	1.1546081
83	0x3f51b3c3	0.8191492
84	0x3f1c88b9	0.6114612
85	0x3f2f79d6	0.6854528
86	0x3f1fc1c1	0.6240502
87	0x3f8d66ad	1.1046959
88	0x3ee292b1	0.44252542
89	0x3f90c281	1.1309358
90	0x3f89ae87	1.0756387
91	0x3f2fc6fd	0.6866301
92	0x3f810ac7	1.0081414
93	0x3f779aec	0.9672077
94	0x3f376508	0.71638536
95	0x3f9e7b14	1.238131
96	0x3f22edfc	0.63644385
97	0x3f413a9e	0.7548007
98	0x3fae58ce	1.3620851
99	0x3f91f36a	1.1402409
100	0x3f74850f	0.9551553
101	0x3f2ae426	0.66754377
102	0x3f5c337a	0.86016047
103	0x3f877b76	1.0584552
104	0x3f9995de	1.1998861
105	0x3f9f8a1e	1.2464025
106	0x3f86884a	1.0510342
107	0x3f1eee4a	0.6208235
108	0x3f5e7927	0.86903614
109	0x3f34d6da	0.7064034
110	0x3fa01aae	1.2508142
111	0x3fafa941	1.3723527
112	0x3f981686	1.1881874
113	0x3f7330e4	0.94996476
114	0x3f7c9161	0.9865933
115	0x3fa35c44	1.2762532
116	0x3f4b0f15	0.7931989
117	0x3f5758f9	0.84120136
118	0x3fa8925f	1.3169669
119	0x3f75b2ff	0.9597625
120	0x3f3e78e0	0.7440319
121	0x3fa000f1	1.2500287
122	0x3f5a7bc8	0.85345125
123	0x3f9ba133	1.2158569
124	0x3f42d208	0.7610173
125	0x3f85cda0	1.0453377
126	0x3f76d5c9	0.9641996
127	0x3f2db6c6	0.67857015

read_encoder.block2.1.bias f4 [128]
0	0xbf0b5a9c	-0.54435134
1	0xbedfa952	-0.4368387
2	0xbe84f454	-0.25967658
3	0xbf01382e	-0.5047635
4	0xbeab682a	-0.33477908
5	0xbe9504d0	-0.29105234
6	0xbe795523	-0.24348883
7	0xbed9aae1	-0.42513183
8	0xbe77dd13	-0.24205427
9	0xbebeabdc	-0.37240493
10	0xbead6f7f	-0.33874127
11	0xbec8fff6	-0.39257783
12	0xbeff6e3e	-0.49888796
13	0xbe8f8e11	-0.28038076
14	0xbe9e3f4a	-0.3090766
15	0xbecfb23d	-0.40565673
16	0xbeb61ada	-0.3556736
17	0xbe96a399	-0.2942169
18	0xbeaf9711	-0.34294942
19	0xbf00a2ff	-0.5024871
20	0xbea2a6e1	-0.31767944
21	0xbf007664	-0.5018065
22	0xbee2ba97	-0.44282982
23	0xbea3b914	-0.3197714
24	0xbec3ee4a	-0.38267738
25	0xbeaaec84	-0.33383572
26	0xbeef11af	-0.4669318
27	0xbeac647e	-0.3367042
28	0xbeccc619	-0.39994887
29	0xbec56ed1	-0.3856111
30	0xbe986c4f	-0.29770133
31	0xbeb5ed32	-0.35532528
32	0xbeb7d2f4	-0.35903132
33	0xbed477b7	-0.41497585
34	0xbeb01845	-0.34393516
35	0xbeb17271	-0.34657624
36	0xbecfba8f	-0.4057202
37	0xbf05580d	-0.5208748
38	0xbf0dfff2	-0.55468667
39	0xbe8237f6	-0.2543332
40	0xbe83f064	-0.2576934
41	0xbeaf268e	-0.34209102
42	0xbeac6b91	-0.33675817
43	0xbed67c0e	-0.4189152
44	0xbee29c3c	-0.44259822
45	0xbe47570c	-0.194668
46	0xbecd6992	-0.40119606
47	0xbeb53e07	-0.35398886
48	0xbf2aec35	-0.66766673
49	0xbe7222dd	-0.23646112
50	0xbeb16db6	-0.34654015
51	0xbe726450	-0.23671079
52	0xbeb5fc93	-0.3554426
53	0xbedf4631	-0.4360824
54	0xbec990fe	-0.39368433
55	0xbecae7ee	-0.39630073
56	0xbf048b93	-0.51775473
57	0xbeb8dee7	-0.3610756
58	0xbe805f12	-0.25072533
59	0xbea06902	-0.31330115
60	0xbe6d4f8e	-0.23174879
61	0xbed63c0d	-0.4184269
62	0xbe437e69	-0.1909119
63	0xbe6ad349	-0.22932161
64	0xbede04e1	-0.43363097
65	0xbe8f4766	-0.2798416
66	0xbf12271a	-0.57090914
67	0xbe7df303	-0.24799733
68	0xbed41b92	-0.41427284
69	0xbeb5ad64	-0.3548385
70	0xbea4a05d	-0.32153597
71	0xbebd4db4	-0.36973345
72	0xbebae838	-0.36505294
73	0xbed3531f	-0.41274354
74	0xbebb45f3	-0.36576805
75	0xbeec137a	-0.4610861
76	0xbed09ae5	-0.40743175
77	0xbe82d1a4	-0.25550568
78	0xbeefe420	-0.46853733
79	0xbeda91c6	-0.4268934
80	0xbef13299	-0.47108915
81	0xbeb8958f	-0.36051604
82	0xbe73bb7f	-0.23801993
83	0xbe9897fd	-0.29803458
84	0xbf1daac1	-0.61588675
85	0xbe8f7326	-0.2801754
86	0xbecb9469	-0.39761665
87	0xbecfc2ee	-0.40578407
88	0xbedb2fec	-0.4281
89	0xbecfdfde	-0.40600485
90	0xbea594c7	-0.3234007
91	0xbe9f6dd9	-0.31138495
92	0xbec236d9	-0.3793247
93	0xbee9bd1d	-0.45652094
94	0xbee5d9c9	-0.4489272
95	0xbe38b034	-0.18035966
96	0xbebf2487	-0.37332556
97	0xbec557fe	-0.38543695
98	0xbed869cb	-0.42268214
99	0xbea5c67f	-0.32378003
100	0xbeb5a436	-0.35476846
101	0xbe9b83a9	-0.30373886
102	0xbefa273d	-0.4885806
103	0xbe5fb4bd	-0.2184629
104	0xbeb018ea	-0.34394008
105	0xbe32d300	-0.17463303
106	0xbed5a177	-0.4172475
107	0xbee83d24	-0.45359147
108	0xbf10ae53	-0.56516
109	0xbeff3af4	-0.49849665
110	0xbeec3d34	-0.46140444
111	0xbe9d07ba	-0.30669957
112	0xbec51b2e	-0.384973
113	0xbf237dcd	-0.6386383
114	0xbf0b0a1f	-0.5431232
115	0xbe109cca	-0.1412231
116	0xbf045bc8	-0.5170255
117	0xbe9a973e	-0.30193514
118	0xbee08094	-0.43848097
119	0xbebc0582	-0.36722952
120	0xbeb3c0c1	-0.35107997
121	0xbe83bf1e	-0.25731748
122	0xbe85d59a	-0.26139528
123	0xbe610d08	-0.21977627
124	0xbee34e50	-0.44395685
125	0xbe90fcbd	-0.28317824
126	0xbebb46c0	-0.36577415
127	0xbeba9388	-0.36440682

read_encoder.block3.0.weight f4 [128, 128]
0	0xbea4def4	-0.3220135
1	0x3cc34008	0.023834243
2	0x3e27a7ed	0.16372652
3	0x3d9d0eae	0.076688156
4	0x3dddf1a9	0.10837109
5	0xbdb37798	-0.08763045
6	0x3a7186b1	0.0009213491
7	0x3d8114dc	0.06302807
8	0xbe7d1c4e	-0.24717829
9	0x3de3307d	0.11093233
10	0xbcc470b2	-0.023979519
11	0xbd5f0fe0	-0.0544585
12	0x3dbcec83	0.092247985
13	0xbe441b1e	-0.1915097
14	0xbbab640d	-0.005230433
15	0xbdbef0da	-0.093232825
16	0xbe396bca	-0.18107525
17	0xbcf0b7f9	-0.0293846
18	0x3c143c52	0.009047585
19	0x3e94bf8a	0.29052383
20	0x3d02e954	0.0319608
21	0x3e2c60a8	0.16833746
22	0xba488e07	-0.0007650558
23	0xbde3a3e5	-0.11115245
24	0x3e00c51d	0.12575193
25	0xbe248704	-0.1606713
26	0x3e4ff252	0.20307282
27	0xbd920372	-0.071295634
28	0x3d9dc116	0.07702844
29	0xbe2e67b5	-0.17031749
30	0xbe3bbe07	-0.18334208
31	0xbe30fa09	-0.17282881
32	0x3d3a6018	0.0455018
33	0x3e01a399	0.12660064
34	0x3d559c4e	0.052151017
35	0x3ca1b418	0.019739196
36	0xbe344108	-0.17602932
37	0x3d2decb6	0.042462073
38	0xb980f43a	-0.00024596025
39	0x3dd5143f	0.10404252
40	0x3d34558d	0.0440269
41	0xbe5a9a68	-0.21347964
42	0xbd29ab45	-0.0414231
43	0x3dc64aca	0.09682234
44	0x3effa815	0.49932924
45	0xbe7e65f7	-0.24843584
46	0xbdcebf0b	-0.10095032
47	0xbe3e79a1	-0.18601085
48	0xbd8e4e6b	-0.06948551
49	0xbe1e47d7	-0.15457092
50	0x3da188d4	0.07887426
51	0xbdb7d537	-0.089762144
52	0xbe139bd1	-0.14414908
53	0x3e0c0226	0.13672695
54	0x3e2ed7cb	0.17074506
55	0xbc3b2a26	-0.011423623
56	0xbc9abe2c	-0.01888951
57	0xbeaa4878	-0.33258414
58	0xbd120511	-0.035649363
59	0xbe698e86	-0.22808275
60	0xbc6cf54b	-0.014462779
61	0xbc28b712	-0.010297554
62	0x3e5ebac5	0.21750934
63	0xbe7467bd	-0.23867698
64	0xbd79f56f	-0.06102508
65	0x3a0085d3	0.0004902754
66	0x3dc6dc95	0.097100414
67	0xbd8d04ef	-0.06885707
68	0x3ea2379f	0.3168306
69	0x3e1505f6	0.14553055
70	0xbb4c2d67	-0.0031154992
71	0xbbfef8e4	-0.007781135
72	0x3e431b12	0.19053295
73	0x3e1f3fee	0.15551731
74	0xbebac15a	-0.3647564
75	0x3cea587c	0.028606646
76	0x3d73d282	0.059526928
77	0xbab61c03	-0.0013893846
78	0x3ca18703	0.019717699
79	0xbefa2606	-0.48857135
80	0x3d2f1572	0.04274506
81	0x3c9e166c	0.019297801
82	0xbf30d9be	-0.6908225
83	0xbde2bc09	-0.11071021
84	0xbe3c1ae2	-0.1836963
85	0x3d8a325f	0.06747889
86	0x3df641f1	0.12024296
87	0xbd8f7c36	-0.07006113
88	0x3e1a3596	0.15059504
89	0xbdd6b8d6	-0.104844734
90	0xbec65ce8	-0.38742757
91	0xbd6bb19d	-0.057542432
92	0xbda363b8	-0.07978004
93	0xbc979d41	-0.018507602
94	0x3e3259a3	0.17417006
95	0xbdb468c3	-0.08809044
96	0x3e13f456	0.14448676
97	0x3dae6e9b	0.0851719
98	0xbe65d71b	-0.22445337
99	0xbdeb3dda	-0.114864066
100	0xbe8c9c1f	-0.2746286
101	0x3c12e6fd	0.008966205
102	0xbdf64035	-0.12023965
103	0xbe40739a	-0.18794098
104	0xbd822531	-0.0635475
105	0xbed04194	-0.40675032
106	0x3d88ce29	0.06679947
107	0x3decb15d	0.11557267
108	0xbd2efec8	-0.042723447
109	0x3e01e0c2	0.12683395
110	0xbea0ae21	-0.3138285
111	0x3e7ad7b8	0.24496353
112	0x3bd4a35c	0.0064892005
113	0xbe54623e	-0.20740601
114	0xbeba1baa	-0.3634923
115	0x3e17647f	0.1478443
116	0x3d38080f	0.04492956
117	0xbcd72ff9	-0.026267992
118	0xbe5489ae	-0.20755646
119	0x3b2d0cfe	0.002640545
120	0x3e305971	0.17221619
121	0xbd32820b	-0.04358105
122	0xbdae0f8c	-0.08499059
123	0xbd611d17	-0.054959383
124	0x3db482f5	0.088140406
125	0x3c878235	0.01654158
126	0xbd9d8c0a	-0.07692726
127	0x3e1de079	0.15417661
128	0x3e0fecc2	0.1405516
129	0xbcd1aaf9	-0.025594221
130	0xbda96af6	-0.08272354
131	0xbe4a1333	-0.19733886
132	0x3e3fa3f2	0.18714884
133	0x3ed25e58	0.41087604
134	0xbec2130a	-0.3790515
135	0x3dcbb973	0.09947481
136	0xbe0afd15	-0.13573106
137	0x3e1afba7	0.1513506
138	0x3bf860e6	0.0075799106
139	0x3d46be31	0.048521224
140	0x3ead1d3d	0.3381137
141	0x3e87554b	0.2643226
142	0x3ea2d2af	0.31801364
143	0xbeea1ab7	-0.45723507
144	0x3e19e205	0.15027626
145	0x3d41bc2b	0.04729859
146	0xbd30f006	-0.043197654
147	0x3d23c20e	0.039979987
148	0xbc2b3dd2	-0.010451751
149	0x3e329abf	0.17441843
150	0xbe831b3b	-0.25606713
151	0x3e949a02	0.2902375
152	0xbda03f8b	-0.0782462
153	0x3e053aae	0.13010666
154	0x3e3cc1bf	0.18433283
155	0xbb6ab981	-0.0035816135
156	0xbd5628a9	-0.05228487
157	0x3ea5e4ed	0.3240122
158	0xbd0e67f6	-0.034767114
159	0xbca68389	-0.020326393
160	0xbdd0f0bf	-0.10202169
161	0x3cc27d59	0.023741411
162	0x3dd99e35	0.10625879
163	0xbdaaaddb	-0.083339415
164	0x3d901b86	0.070365
165	0x3e87f590	0.26554537
166	0xbbdc270c	-0.006718522
167	0xbe7d8fd0	-0.24761891
168	0xbc0b3ad5	-0.008497913
169	0x3ec009f9	0.3750761
170	0x3ea23a38	0.31685042
171	0x3cbb77bc	0.022884242
172	0x3ec02fb3	0.37536392
173	0xbca19f9f	-0.019729434
174	0xbd86001d	-0.0654299
175	0x3e04388a	0.12912193
176	0xbe6abbe5	-0.22923239
177	0x3d080b02	0.033213623
178	0xbe3babb5	-0.1832722
179	0x3dc539ac	0.09630141
180	0xbd8fc62b	-0.070202194
181	0xbee0349b	-0.43790135
182	0x3c614297	0.013748786
183	0x3e487fc2	0.19579986
184	0x3d92f84c	0.07176265
185	0xbe6a09a8	-0.22855246
186	0x3e8b3f9c	0.27196968
187	0x3d7ed375	0.06221338
188	0x3cb25779	0.021770226
189	0x3dcab3e0	0.0989759
190	0x3db48624	0.08814648
191	0xbbbe49b5	-0.0058071264
192	0x3d1c52c3	0.038164865
193	0x3dae4795	0.08509747
194	0x3cc1f05d	0.023674184
195	0xbe538bbc	-0.20658773
196	0x3e5430de	0.20721766
197	0x3e28cfd8	0.16485536
198	0x3e46cb6c	0.19413537
199	0x3e3b53f8	0.1829375
200	0xbe8d183f	-0.2755756
201	0xbe60c887	-0.21951495
202	0x3e0f6e9d	0.1400704
203	0xbd48c383	-0.04901458
204	0x3e0267d5	0.12734921
205	0x3e350ced	0.17680712
206	0x3e8b1c02	0.27169806
207	0xbbd12f71	-0.0063838293
208	0xbc862fa4	-0.016380139
209	0x3d6e1e07	0.058134105
210	0xbcc79a00	-0.024365425
211	0x3b52177f	0.0032057462
212	0x3e14d9d9	0.14536227
213	0x3d72f7d2	0.05931837
214	0x3de2084d	0.110367395
215	0x3b4d7bb1	0.0031354243
216	0x3df854c9	0.121255465
217	0x3e2db2f3	0.16962795
218	0xbda243b3	-0.07923069
219	0x3cd5c088	0.026092783
220	0x3de38d61	0.1111095
221	0x3daee146	0.08539061
222	0xbd3eb60a	-0.046560325
223	0xbf069e45	-0.5258525
224	0x3eae96f2	0.34099537
225	0x3de4bedf	0.11169218
226	0x3d819c72	0.06328668
227	0x3de2fb96	0.110831425
228	0x3d0f151a	0.034932233
229	0xbcbe2f92	-0.023216043
230	0xbe017217	-0.12641178
231	0x3d340157	0.04394659
232	0x3e9832e9	0.2972634
233	0x3e665aba	0.22495547
234	0x3e322aa1	0.17399074
235	0xbcd84e2f	-0.026404468
236	0x3dd890cc	0.10574493
237	0x3d9f8ae5	0.07790164
238	0xb8a26369	-7.7432785e-05
239	0x3ea3347c	0.3187598
240	0x3dae1ac4	0.08501199
241	0x3dd3d597	0.103434734
242	0xbc4c2a2d	-0.012461227
243	0xbc87029e	-0.01648074
244	0x3e19de6d	0.15026255
245	0x3e12ec88	0.14348042
246	0xbe6cf913	-0.2314189
247	0xbd0b324c	-0.033983514
248	0xbda65c18	-0.08123034
249	0xbd0b4813	-0.034004282
250	0xbdc80af2	-0.09767713
251	0xbe18187b	-0.14853089
252	0x3d8df16f	0.069308154
253	0xbb126275	-0.0022336517
254	0x3e841022	0.25793558
255	0x3d96737f	0.07346248

read_encoder.block3.0.bias f4 [128]
0	0xbccb6d94	-0.024832524
1	0x3e89ef3f	0.26940343
2	0x3d087bf0	0.03332132
3	0xbe4c0e3d	-0.19927306
4	0x3eb1deff	0.34740445
5	0xbe36698c	-0.178137
6	0x3d3be47d	0.0458722
7	0xbe0dba7c	-0.1384067
8	0x3ed2aaf1	0.41146043
9	0xbe297b69	-0.16550983
10	0x3e819d24	0.253152
11	0x3e0b9ed6	0.1363481
12	0x3daa5900	0.08317757
13	0x3e49eaae	0.1971843
14	0xbd19fa7c	-0.037592396
15	0x3dcb699e	0.09932254
16	0x3e73cbb6	0.23808178
17	0x3ea36ff9	0.31921366
18	0xbea8ce37	-0.3296983
19	0xbdeb2d45	-0.11483244
20	0x3e7425b5	0.23842509
21	0x3e86f0ef	0.26355693
22	0xbd5af9da	-0.053460933
23	0xbe5a7ccd	-0.2133667
24	0x3d84d248	0.064854205
25	0x3e57e7fd	0.2108459
26	0x3e214cc3	0.15751939
27	0x3d8f9dc4	0.07012513
28	0xbde65f4d	-0.11248646
29	0xbda663ca	-0.08124502
30	0xbe491086	-0.1963521
31	0x3ddd0065	0.10791091
32	0x3ea5774f	0.32317588
33	0x3e82155a	0.25406915
34	0x3e7ceb9b	0.24699251
35	0xbe35b75b	-0.17745726
36	0x3e25b9e8	0.16184199
37	0x3e104aae	0.14090988
38	0xbdbbef0c	-0.09176454
39	0x3e2bc2e2	0.1677356
40	0x3e2b022f	0.16700052
41	0xbe9d0f2e	-0.30675644
42	0x3e40f3e1	0.18843032
43	0x3e77dec2	0.24206069
44	0xbe5e161a	-0.21688119
45	0x3e2cd2c2	0.16877273
46	0xbe4f90b0	-0.20270038
47	0xbd90eee3	-0.07076814
48	0xbe3084d8	-0.17238176
49	0x3db90d18	0.090357006
50	0x3cf174db	0.029474666
51	0x3ea7bfbc	0.3276347
52	0x3e6f2e4e	0.23357508
53	0x3da40af7	0.08009904
54	0x3e8ce4cb	0.27518305
55	0x3ea73bbd	0.32662764
56	0x3e0c9fc8	0.13732827
57	0x3ce03f4c	0.027373932
58	0x3e65c33e	0.2243776
59	0x3e58f402	0.21186832
60	0x3e067dfb	0.13133995
61	0x3df6ef0f	0.120573156
62	0x3d1c5469	0.038166437
63	0x3e233129	0.15936722
64	0x3e0dcc18	0.13847387
65	0xbdaad07e	-0.08340548
66	0x3e04661c	0.12929577
67	0x3da0fee7	0.07861119
68	0x3dc2a606	0.09504323
69	0x3ca61dab	0.020277819
70	0xbdd96f19	-0.10616893
71	0xbd618b64	-0.055064574
72	0x3e24bdda	0.16088048
73	0x3e95c80a	0.2925418
74	0xbe903e25	-0.28172413
75	0x3e76ceb7	0.24102293
76	0xbdc2214d	-0.09479008
77	0x3e34c47a	0.17653075
78	0xbe22deb5	-0.15905268
79	0x3e3ef192	0.1864684
80	0xbe1e9042	-0.15484717
81	0x3e895177	0.26819965
82	0x3dc623a2	0.09674765
83	0x3c87eefe	0.016593453
84	0xbe06035f	-0.13087223
85	0x3e5a3748	0.2131015
86	0x3e9ddd15	0.30832735
87	0xbd85213a	-0.06500478
88	0x3e368fb7	0.1782826
89	0x3d8a72a1	0.06760145
90	0x3e940fe7	0.28918383
91	0x3e649627	0.22322904
92	0xbe7a3e88	-0.24437916
93	0x3e539651	0.2066281
94	0xbd9dbc6f	-0.077019565
95	0x3da85583	0.08219435
96	0xbd55f0fd	-0.052231777
97	0x3e7918ba	0.24325839
98	0x3e650c03	0.22367863
99	0xbe99bb8b	-0.30025896
100	0xbe82e743	-0.25567064
101	0x3e5ff336	0.21870121
102	0xbe8a9779	-0.2706869
103	0x3d5ce68c	0.053930804
104	0xbe16f1f1	-0.14740731
105	0xbcfeb9d5	-0.031094471
106	0xbd01b826	-0.03166976
107	0x3db6213a	0.08893056
108	0xbda40a6f	-0.080098026
109	0x3d910021	0.07080103
110	0x3c2475bb	0.010037835
111	0x3ebc7d70	0.3681445
112	0xbe63d40c	-0.22248858
113	0xbe009ad7	-0.12559067
114	0xbe162cee	-0.14665577
115	0x3e12edee	0.14348575
116	0x3da74a37	0.08168452
117	0x3e06ea1a	0.1317524
118	0x3d519920	0.051171422
119	0xbe2f096c	-0.17093438
120	0x3d86d806	0.06584172
121	0xbe052bb6	-0.13004956
122	0x3e86f465	0.26358333
123	0x3e73c443	0.23805337
124	0xbe206708	-0.15664303
125	0xbe391f9d	-0.18078466
126	0x3ec21ebb	0.3791407
127	0x3dcc615b	0.099795066

read_encoder.block3.1.weight f4 [128]
0	0x3f555ed6	0.83347833
1	0x3f4bd250	0.79617786
2	0x3fa9f202	1.327698
3	0x3f834cf4	1.0257859
4	0x3f4a79fd	0.7909239
5	0x3f8b5d70	1.088789
6	0x3f449458	0.76788855
7	0x3f92b8cd	1.1462647
8	0x3f42581c	0.75915694
9	0x3f889af3	1.0672287
10	0x3f64c197	0.89357895
11	0x3ed9bdf5	0.42527738
12	0x3f3fe743	0.7496225
13	0x3f93d9bf	1.1550826
14	0x3f4a03c1	0.7891198
15	0x3f813116	1.0093105
16	0x3f7b6369	0.9819856
17	0x3f6cc654	0.92490125
18	0x3fb09dca	1.3798153
19	0x3f87b600	1.0602417
20	0x3f5179cd	0.8182648
21	0x3f5dc02b	0.8662135
22	0x3f24c5a5	0.6436408
23	0x3f9156c2	1.1354601
24	0x3f5de18b	0.86672276
25	0x3f77e7da	0.9683815
26	0x3f52f9b4	0.82412267
27	0x3f31ccc0	0.6945305
28	0x3f5570c3	0.83375186
29	0x3ee6a52a	0.45047885
30	0x3f94a50c	1.1612868
31	0x3ef4f634	0.47844088
32	0x3f302c7b	0.6881787
33	0x3f5aff73	0.85546035
34	0x3f7dddb4	0.9916642
35	0x3f9aed0b	1.210359
36	0x3f4144aa	0.754954
37	0x3f4d6c1d	0.8024309
38	0x3f7d693e	0.9898871
39	0x3f71e1f6	0.94485414
40	0x3f730705	0.94932586
41	0x3f8a0217	1.0781888
42	0x3f83cf9b	1.0297731
43	0x3f41ce2e	0.7570523
44	0x3f88ae33	1.0678161
45	0x3f950808	1.1643076
46	0x3f788a69	0.970862
47	0x3f3cebd4	0.73797345
48	0x3f6a28d2	0.91468537
49	0x3f907ac8	1.128747
50	0x3fa712c3	1.3052601
51	0x3f6e7db8	0.9316058
52	0x3f5d5c52	0.86468995
53	0x3f9e5a37	1.2371281
54	0x3f454d58	0.7707114
55	0x3f591ea5	0.84812385
56	0x3f4f05eb	0.80868405
57	0x3f369320	0.71318245
58	0x3f7520f0	0.95753384
59	0x3f58608b	0.8452231
60	0x3fa6893f	1.3010634
61	0x3f05c9c8	0.5226102
62	0x3fcf2bd7	1.6185254
63	0x3f973226	1.1812179
64	0x3f40cbac	0.7531078
65	0x3fca8cd0	1.5824223
66	0x3ee4f5c3	0.4471875
67	0x3fa391a8	1.2778826
68	0x3f5c3b67	0.8602814
69	0x3f1fb1a7	0.6238045
70	0x3f5d8b59	0.8654075
71	0x3ee1eb72	0.44124943
72	0x3f80aafe	1.0052183
73	0x3f4da71a	0.803331
74	0x3fa17058	1.261241
75	0x3f4dc95a	0.80385363
76	0x3f07baf5	0.5301965
77	0x3f8fb4e9	1.1227084
78	0x3f7a4486	0.9776081
79	0x3f4171e4	0.7556441
80	0x3f826f68	1.0190248
81	0x3f73054a	0.94929945
82	0x3f55163c	0.8323705
83	0x3f8b63f3	1.0889877
84	0x3f4d26d9	0.801374
85	0x3f629b8d	0.885186
86	0x3f5d6d9d	0.8649538
87	0x3f8c5ba4	1.0965466
88	0x3f8dd94b	1.1081938
89	0x3f4206fc	0.7579191
90	0x3f476b73	0.7789833
91	0x3f6030e0	0.8757458
92	0x3f9b44d9	1.2130386
93	0x3f406e00	0.75167847
94	0x3f109200	0.5647278
95	0x3f9af1ed	1.210508
96	0x3e9fd67c	0.31218326
97	0x3f65db4a	0.89787734
98	0x3f5f0fb8	0.8713336
99	0x3f9191c6	1.1372612
100	0x3fa5b4e4	1.2945828
101	0x3f5eb5dc	0.86996245
102	0x3f111c5b	0.5668389
103	0x3f9646d4	1.1740365
104	0x3f7b269a	0.98105776
105	0x3fb24b7c	1.3929286
106	0x3eb05ae9	0.3444436
107	0x3f6fc784	0.9366381
108	0x3f1caf0e	0.6120461
109	0x3f39c696	0.72568643
110	0x3f1b60af	0.606944
111	0x3f66d562	0.90169346
112	0x3f9e3b2d	1.2361809
113	0x3f6fd9a6	0.9369148
114	0x3f79294e	0.9732865
115	0x3f880ee9	1.062955
116	0x3e82eb65	0.25570217
117	0x3f906c71	1.1283094
118	0x3f3e7134	0.74391484
119	0x3f846b66	1.0345275
120	0x3f9cb445	1.2242514
121	0x3fcf9058	1.6215925
122	0x3f70fdc9	0.94137245
123	0x3f4daee9	0.80345017
124	0x3f8bfbf8	1.093627
125	0x3f7a4798	0.97765493
126	0x3f58ed48	0.8473706
127	0x3f4758d1	0.778699

read_encoder.block3.1.bias f4 [128]
0	0xbed29082	-0.41125876
1	0xbe8e3d85	-0.2778131
2	0xbe5a6b16	-0.21329913
3	0xbe3c9caf	-0.18419145
4	0xbe3e4532	-0.18581083
5	0xbdbaf1c0	-0.091281414
6	0xbe61958b	-0.22029702
7	0xbe4f0ea7	-0.20220433
8	0xbe353c86	-0.17698869
9	0xbe4eaadf	-0.2018237
10	0xbdcc43e1	-0.099738844
11	0xbf025e8c	-0.5092552
12	0xbe5d1cf2	-0.21593073
13	0xbe0b5dc5	-0.13609989
14	0xbec7af6f	-0.39001033
15	0xbddfddca	-0.10930975
16	0xbddaffbf	-0.10693311
17	0xbd911a9b	-0.07085153
18	0xbd813b08	-0.063100874
19	0xbec95dd4	-0.39329398
20	0xbe2a3264	-0.16620785
21	0xbdb10d35	-0.08645097
22	0xbee35f64	-0.44408715
23	0xbe627725	-0.22115763
24	0xbe0748b6	-0.13211331
25	0xbdcf6b2b	-0.101278625
26	0xbe50c113	-0.20386152
27	0xbe9d0043	-0.30664262
28	0xbe8e42fe	-0.27785486
29	0xbe9dc836	-0.3081681
30	0xbe1f4e47	-0.15557204
31	0xbee9e58d	-0.45682946
32	0xbe4bcb28	-0.19901717
33	0xbe48b2f8	-0.19599521
34	0xbe1f246f	-0.15541242
35	0xbe252931	-0.16128995
36	0xbe00b44e	-0.12568781
37	0xbe55e37a	-0.20887557
38	0xbebdb110	-0.3704915
39	0xbdba5b3f	-0.09099435
40	0xbdca618a	-0.09881885
41	0xbcaa87d8	-0.020816728
42	0xbdf08799	-0.11744613
43	0xbecec0e2	-0.40381533
44	0xbda96ec0	-0.08273077
45	0xbe0b1592	-0.13582447
46	0xbe9d1709	-0.30681637
47	0xbefed5f5	-0.4977261
48	0xbee54eaa	-0.44786578
49	0xbe092878	-0.13394344
50	0xbe72675e	-0.23672244
51	0xbe1f0ffc	-0.15533441
52	0xbdfdec58	-0.123985946
53	0xbea1e687	-0.3162119
54	0xbe17c121	-0.14819767
55	0xbe1ab029	-0.15106262
56	0xbe401d11	-0.18761088
57	0xbea7c0db	-0.32764325
58	0xbdb219aa	-0.08696301
59	0xbdcbbd84	-0.099482566
60	0xbe48a320	-0.19593477
61	0xbef2d913	-0.4743124
62	0xbeabfd32	-0.3359161
63	0xbe334676	-0.17507347
64	0xbe964087	-0.29346105
65	0xbe9c81aa	-0.30567676
66	0xbed89f85	-0.42309204
67	0xbe51edb2	-0.2050083
68	0xbe3982ee	-0.18116352
69	0xbe7d953b	-0.24763958
70	0xbea9fda0	-0.33201313
71	0xbf0fbf37	-0.56151146
72	0xbdd952f8	-0.10611528
73	0xbe0b3ff7	-0.1359862
74	0x3cf429ab	0.029805025
75	0xbe35f0f6	-0.177677
76	0xbf24f993	-0.6444332
77	0xbd96cf41	-0.07363749
78	0xbee30334	-0.4433838
79	0xbe5774cf	-0.21040653
80	0xbe73ecb6	-0.23820767
81	0xbdc20160	-0.094729185
82	0xbea5e6b9	-0.3240259
83	0xbdf924cf	-0.12165224
84	0xbecded39	-0.4022005
85	0xbd850b81	-0.06496335
86	0xbe41e798	-0.18936002
87	0xbebb585d	-0.36590853
88	0xbe234880	-0.15945625
89	0xbea828c7	-0.3284361
90	0xbde871e6	-0.113498494
91	0xbdcfed62	-0.10152699
92	0xbe8a6b7c	-0.2703513
93	0xbe75a06e	-0.2398698
94	0xbf2c7bbd	-0.6737631
95	0xbe16fa57	-0.14743935
96	0xbefd33da	-0.49453622
97	0xbe445bf3	-0.19175701
98	0xbdfebc30	-0.12438238
99	0xb933fce1	-0.00017164975
100	0xbe666d0f	-0.2250254
101	0xbddf5908	-0.10905653
102	0xbea9fa52	-0.33198792
103	0xbe0980c9	-0.13428034
104	0xbe255139	-0.16144265
105	0xbe894b83	-0.26815423
106	0xbf430803	-0.761841
107	0xbe802506	-0.25028247
108	0xbed30bf4	-0.41220057
109	0xbe79a303	-0.2437859
110	0xbf193c81	-0.59857947
111	0xbdcf6a1a	-0.10127659
112	0xbed14a11	-0.4087682
113	0xbe997450	-0.29971552
114	0xbec9717a	-0.39344388
115	0xbdfbe3b8	-0.12299293
116	0xbf42df67	-0.76122135
117	0xbe10d292	-0.14142826
118	0xbe7bc382	-0.24586299
119	0xbe9c79cc	-0.30561674
120	0xbead8eb0	-0.33897924
121	0xbebd19c3	-0.36933717
122	0xbdb64bf9	-0.089012094
123	0xbde4df69	-0.111754246
124	0xbe926641	-0.2859364
125	0xbe551bf6	-0.20811448
126	0xbdd0b4f4	-0.10190764
127	0xbe55a7d4	-0.20864803
