m6aReplica/3d_66_with_delta/Models/epoch8_rocauc0.879_valpr0.352_valscore1.231.pth (torch, 155273 bytes, 13 tensors)

read_encoder.block1.0.weight f4 [128, 24]
000000 1e 2e 52 3e 19 8b cc 3e 25 b8 53 bd 3b 84 c1 3e
       0.20525405 0.39949873 -0.051689286 0.37796196
000010 2a 5d 9f 3e b9 c3 0f 3d f0 e5 a6 bd a3 ba ee 3e
       0.31125766 0.035098765 -0.08149326 0.46626768
000020 31 be 4c 3e 8e 10 d1 3e 02 1c 06 bf 18 f7 bd 3e
       0.19994427 0.40832943 -0.52386487 0.3710258
000030 c3 a2 08 be c5 01 ec 3c b2 52 45 3e 6d 3d 12 bd
       -0.13343339 0.028809438 0.19269827 -0.03570311
000040 bb a0 46 3d a1 eb 02 3d f1 66 42 bd a4 63 ce bb
       0.04849313 0.031962994 -0.047461454 -0.006298499
000050 22 e3 14 3c 3c 3b ea bc aa 75 d2 bd 2d 68 00 3c
       0.009087356 -0.028592698 -0.10276349 0.007837337
000060 1f ac 2c 39 a2 e3 d9 bd 8b a9 23 bd 94 4e 86 3d
       0.00016467318 -0.10639121 -0.03995661 0.06557956
000070 e4 6e 8e 3d d6 62 2d be 55 a7 d6 3e 01 ac f6 bd
       0.069547445 -0.16932234 0.4192454 -0.12044526
000080 bd d0 6a 3e e8 7a 1f 3e ef 9b b6 bd 7f 4f 95 3e
       0.2293119 0.15574229 -0.08916461 0.29162213
000090 2c 78 9b bc 2e 49 9d 3e 83 9b fd 3d 56 62 0e 3e
       -0.0189782 0.30719894 0.12383177 0.139047
0000a0 df 77 77 3e e2 ed be 3d b4 fa 51 bc 18 a7 df 3d
       0.24166821 0.09322716 -0.01281612 0.109205425
0000b0 74 71 6a 3e 20 d5 8b bd d7 55 d3 3e 2d c2 f3 3d
       0.22894841 -0.0682776 0.41276428 0.119022705
0000c0 b7 f5 7c 3e 92 94 5b 3a 51 41 4c be b2 22 ea 3d
       0.24703108 0.0008376326 -0.19946791 0.11432399
0000d0 58 06 0b bd c9 28 31 3e d7 16 47 3e 1b af 61 3e
       -0.033941597 0.17300715 0.19442306 0.22039454
0000e0 56 28 d4 3d 2b df 69 3e 39 fa 3f be 68 74 90 bd
       0.10359256 0.22839038 -0.18747796 -0.07053453
0000f0 b3 1d 5f bd 2d 60 b0 bd 9a ac 2e 3e d4 b1 17 bb
       -0.054471683 -0.08612094 0.1705803 -0.0023146765
000100 ba e9 2d 3e 52 7b 87 bd e1 67 a8 3c 93 bb 1e be
       0.16983691 -0.06615318 0.020557346 -0.15501241
000110 45 e6 a0 be 66 74 00 be 42 42 a1 3e 12 a5 bb 3c
       -0.31425682 -0.12544402 0.31495863 0.02290586
000120 5d 75 ed 3e 09 b4 85 be 39 9d f1 bd a5 3c 7a 3e
       0.46378604 -0.26113918 -0.11797566 0.24437197
000130 8c ef 2f be 06 93 28 3e 66 7e 5f 3e 75 f7 45 3e
       -0.17181224 0.16462335 0.21825561 0.19332679
000140 fa 3a 10 bd 64 6a 24 3e c6 16 2d bf f6 54 d2 3c
       -0.035212494 0.1605621 -0.67612875 0.025675278
000150 b7 dc 93 3e 5b fd 4e be 66 fa 1e 3c 53 c8 b4 bd
       0.2887933 -0.20213835 0.009703254 -0.08827271
000160 2a 2e 7c bd ca 31 55 3e cf 3b a4 bd a6 c9 33 3d
       -0.061567463 0.20819774 -0.0801922 0.04389348
000170 7c 01 9e 3e b7 dd 3f 3e 98 07 2d be 05 b7 2f be
       0.30860507 0.18736921 -0.16897428 -0.1715966
000180 99 70 c2 3e 9e 5d 35 be 9f ac 4a bd a5 f6 12 3e
       0.3797653 -0.17711493 -0.04948103 0.143519
000190 1d ef 8e be 63 ea 8e 3d 04 c0 82 3e d1 a1 a4 be
       -0.27916804 0.069782995 0.2553712 -0.32154706
0001a0 74 65 83 3d c0 e8 a1 3e 53 f2 0c bf 90 f8 22 be
       0.06415835 0.31622887 -0.5505726 -0.15915132
0001b0 59 40 eb bd cf db 3c be e9 0a a3 3e a5 c4 1a 3e
       -0.11486883 -0.18443225 0.3184426 0.15114076
0001c0 32 75 15 3e 11 e5 ed bd 1d c9 a6 bd d3 5c e5 3d
       0.14595488 -0.116159566 -0.08143828 0.111993454
0001d0 5d a5 29 be 2b aa 4b be 2a be 20 be 51 45 7c be
       -0.16566987 -0.19889133 -0.15697542 -0.24635817
0001e0 20 a9 4e 3c 3e 44 af be 1c c9 7b 3c 6b e0 b7 be
       0.012613565 -0.34231752 0.015367772 -0.35913405
0001f0 51 c3 e9 be 29 46 c2 bd 8d 82 a0 bd 8d 11 cd be
       -0.45656827 -0.09486038 -0.078374006 -0.40052453
000200 20 ff 4a 3e 82 d8 8d bf c1 ce 89 3f 92 f5 43 be
       0.19823885 -1.1081698 1.0766221 -0.19136646
000210 e2 41 38 3e 73 c9 93 3d 5f 04 8f bd b4 52 f3 3c
       0.17993882 0.07216158 -0.069832556 0.029702522
000220 e4 7a 43 be 90 61 f5 be d1 55 53 bd 0f 2b c9 3d
       -0.19089848 -0.47925997 -0.051595513 0.09822666
000230 08 9c ad bc 6f f2 ff bd c0 1b 08 3e 3e a8 9a bd
       -0.021192566 -0.124974124 0.13291836 -0.07551621
000240 ba ab 80 3e 75 ab 42 3e ef de 01 3e 5a 55 0a 3f
       0.25131017 0.19010718 0.12682699 0.54036486
000250 cb a1 e8 3e 03 84 0a be 51 45 d0 3d 0c ac 32 3e
       0.45435938 -0.13526921 0.10169471 0.17448443
000260 98 cc f3 3c 58 ac b0 3d db 57 70 bf 00 19 4a 3d
       0.029760644 0.08626622 -0.93884057 0.049340248
000270 ee d0 ee bd 28 5b b2 3d 48 d4 13 3e 9a 06 89 3d
       -0.11660944 0.08708793 0.14436448 0.06690712
000280 bd 70 ab 3e e0 44 54 bb 56 f0 5b 3d fd c8 c6 bd
       0.3348445 -0.0032389686 0.053696 -0.09706304
000290 93 52 0e be 38 ff 1c be 4f e8 ac bd 91 09 6a 3e
       -0.13898687 -0.15331733 -0.08442747 0.22855212
0002a0 8e 3a 95 3e 81 c3 35 be 9a 68 92 39 0d b2 03 3e
       0.29146236 -0.1775036 0.00027925224 0.1286089
0002b0 4a 61 df bd b6 ba 9f 3c aa 7f a9 bb f1 cb 4f be
       -0.10907228 0.01949821 -0.0051726894 -0.20292641
0002c0 63 19 c7 bd 1e cd b5 be 13 02 c5 3d 1c ce 2a bf
       -0.09721639 -0.35508054 0.09619536 -0.6672075
0002d0 54 6d bd 3e be c9 f8 be 0e fa 9b bd e3 d1 02 be
       0.36997473 -0.48591417 -0.076160535 -0.12775378
0002e0 da ee 8b 3e 04 68 81 3e c2 ea 10 3e 59 a7 14 3a
       0.27330667 0.2527467 0.14152053 0.00056706887
0002f0 d5 39 3b 3b 2f 22 8b 3d 04 b8 ef 3d 1b d8 08 be
       0.0028568406 0.067936294 0.1170502 -0.13363688
000300 e0 d0 3e 3c 59 3a ba 3e e3 d0 9e 3c ad 3a e9 bd
       0.011646479 0.3637264 0.019386714 -0.11388145
000310 30 16 95 3e a1 f7 c2 3c b8 94 2d be 13 13 e0 3e
       0.2911849 0.02379972 -0.16951263 0.43764552
000320 a3 93 39 be a6 63 40 3e d9 df bd be 89 a2 9e 3e
       -0.18122725 0.18788013 -0.37084845 0.3098338
000330 e6 d1 68 bd 11 5a 04 be 33 d5 73 be 4f 05 2d 3b
       -0.0568408 -0.12924983 -0.23811798 0.002640087
000340 ac 52 09 be 7d 59 09 3d ac 71 b0 bd 2e bb a5 3e
       -0.13410443 0.03353261 -0.08615431 0.3236937
000350 20 95 0c be 92 6c 8f bd 6c 3a c4 be 02 45 43 3e
       -0.13728762 -0.0700313 -0.38325822 0.19069293
000360 e0 e8 18 bd 3d 3b 45 be cf a1 84 3d 31 80 8f be
       -0.037331462 -0.19260879 0.06476175 -0.2802749
000370 86 ad e2 be 6a e0 01 3e cd 5f d1 bd 45 4e a4 be
       -0.44273013 0.12683263 -0.10223351 -0.32090965
000380 6a 3b 76 be 31 0f df be 1a b2 85 3f cf 12 a7 be
       -0.24046102 -0.43566278 1.0444977 -0.32631537
000390 bd 80 2e 3e db 63 87 be e1 06 4c be ed 80 13 3e
       0.17041297 -0.2644337 -0.19924499 0.1440465
0003a0 24 48 83 3d 67 5b 32 3e aa fc d7 3c 47 a3 7d 3d
       0.06410244 0.1741768 0.026365597 0.06192329
0003b0 db 6c 95 3d 61 4a 58 bd 1e 8c 24 bd 56 39 be bd
       0.07296153 -0.05280531 -0.04017269 -0.0928828
0003c0 b4 53 38 3e f1 32 d3 3d df b5 c1 3c dd 8b bf bd
       0.1800068 0.10312451 0.023646293 -0.09352849
0003d0 66 d4 99 3e 1a 8d 69 bd 40 85 0f be 43 71 d6 3e
       0.3004486 -0.05701933 -0.14015675 0.41883287
0003e0 8e 8d 71 bc 3e f9 0b 3d be cd 39 be 11 49 7f 3e
       -0.014743222 0.034173243 -0.1814489 0.24930216
0003f0 b3 53 44 be 84 0a 62 3e ea dc 85 be e1 85 55 be
       -0.19172554 0.22074324 -0.26145107 -0.20851852

read_encoder.block1.0.bias f4 [128]
000000 cf f2 25 be d3 27 f3 3d 4a e0 4e bd 20 14 54 bd
       -0.16205905 0.1187283 -0.050506867 -0.051777005
000010 19 f8 e5 3d 0b 8d 4f 3e 0f d6 1d bc ee 21 00 3e
       0.112289615 0.20268647 -0.009633555 0.12512943
000020 ca 48 7a bd bd b2 c7 3d ec 97 89 bd cf 14 bf bd
       -0.061104573 0.097508885 -0.0671843 -0.09330141
000030 c1 17 e1 3c be 5a fc bd 06 5a 37 3e 14 0c 9c 3d
       0.027477147 -0.12321995 0.17905435 0.07619491
000040 6c f1 65 bd df d4 5e bd 98 7c 8e 3e f9 54 cb bc
       -0.05613844 -0.05440223 0.27829432 -0.024820792
000050 71 45 20 bd 5b 67 82 3e f6 7f 4e 3e 03 3c db 3d
       -0.039128724 0.2546948 0.20166 0.10704806
000060 c6 72 9a bc b7 1d 1d 3e ba 41 62 bd 82 61 53 bd
       -0.018853556 0.15343367 -0.055238463 -0.051606663
000070 89 6a b8 3d 7f 98 54 3e 1b d1 f7 bd bf ba 04 be
       0.09004695 0.20761298 -0.121004306 -0.12961863
000080 f0 f5 75 3e 4e d6 7a 3e 09 e6 73 3c bb c6 8d 3e
       0.24019599 0.24495813 0.014886388 0.27690682
000090 b1 20 a6 3d 35 07 06 be 35 35 48 bd 0a 1a ef bd
       0.08111704 -0.13088687 -0.048878867 -0.116748884
0000a0 1b 14 d6 3c 47 04 7f 3e 27 aa 78 be 72 28 3b 3e
       0.026132634 0.24903975 -0.24283658 0.18277147
0000b0 d0 64 a9 bd 8a 07 46 3e a9 31 13 3d b7 33 57 bd
       -0.082711816 0.19338813 0.03593603 -0.052539553
0000c0 d1 91 29 be 6d 61 ce bd 3d 87 33 bb bd b0 fc bb
       -0.16559531 -0.10077176 -0.002739384 -0.0077114985
0000d0 30 52 8f 3d 60 79 f7 bd ba 18 67 3d 60 9f 3d 3e
       0.06998098 -0.12083697 0.056420065 0.18517828
0000e0 53 8b a7 3c dc 94 48 3e 92 c5 01 bd cb a8 01 3e
       0.020452177 0.19588035 -0.03168256 0.12662046
0000f0 0c 45 a4 3e b1 b4 75 be fb f7 15 3e c7 32 64 be
       0.3208393 -0.2399471 0.14645378 -0.22284995
000100 69 27 c5 bb 8f 11 b3 bd 19 ac 13 bc f5 ac 2b 3d
       -0.006016661 -0.087435834 -0.009013199 0.04191299
000110 06 59 e6 bc 87 8d 26 bb d7 3d 3a be 42 42 ae bd
       -0.028118622 -0.0025413947 -0.18187653 -0.085087314
000120 5c f5 df 3d 23 83 67 bb f8 ed 80 3e 15 2f 8d be
       0.109354705 -0.0035325966 0.25181556 -0.27574983
000130 01 05 4f 3c cd 65 3a be 1b f8 e2 bd 6e a6 7d 3d
       0.01263547 -0.18202896 -0.110824786 0.061926298
000140 85 56 4a be 95 81 8c 3e 86 b8 44 3d 92 3b d8 3d
       -0.19759567 0.27442613 0.048027538 0.10558237
000150 97 8c 98 3c 99 f9 12 3d 94 76 93 3e 28 9f aa bd
       0.018621726 0.035882566 0.28801405 -0.08331138
000160 e1 c6 79 bd 32 17 63 3e 27 a9 76 be cf 67 50 3e
       -0.06098068 0.22176817 -0.24087964 0.203521
000170 b1 7a 24 be a5 1d 63 3e 65 31 af bd bc 15 46 3d
       -0.16062428 0.22179277 -0.08554343 0.04836057
000180 e6 87 74 3e f1 a7 4c 3d 0b 98 ad 3c 34 a6 87 3e
       0.23879966 0.04996485 0.021190664 0.2649399
000190 3a 2d b3 3e 16 37 30 bd 3e 71 9d bd 59 99 48 be
       0.34995443 -0.043021284 -0.07687615 -0.19589747
0001a0 6c 14 16 3e 88 4c 5e be 07 e9 11 3e f6 7f 0b 3d
       0.14656228 -0.21708882 0.14249049 0.03405758
0001b0 6f c1 65 be 7f e7 a6 bc 14 ab 1f 3e 6f 76 da 3d
       -0.2243707 -0.020374058 0.15592605 0.10667121
0001c0 0c 87 2d 3e 43 06 0b bd 50 36 03 3d d7 dd 24 3e
       0.16946048 -0.03394152 0.03203422 0.1610025
0001d0 b4 2c 31 3e 9b d6 be bd 86 f3 ca bd 24 68 b2 3e
       0.17302209 -0.093182765 -0.0990973 0.34845078
0001e0 6a 1a 29 3d 66 d5 f8 bb 9b fc 65 be c6 a4 a5 3e
       0.041284956 -0.0075937985 -0.22459643 0.32352275
0001f0 34 1a 6c 3e 19 d1 28 bd 56 5b 56 3e 0a 90 23 be
       0.2305687 -0.041215036 0.2093328 -0.15972915

read_encoder.block1.1.weight f4 [128]
000000 4e 24 76 3f 12 c9 a5 3f e6 36 9c 3f a2 c7 7f 3f
       0.96149147 1.2951987 1.2204254 0.9991399
000010 b1 c7 91 3f e2 e0 93 3f 10 55 8c 3f ca eb 90 3f
       1.1389066 1.1553004 1.0963459 1.1321957
000020 c4 60 9a 3f a7 19 74 3f 66 d3 80 3f f2 b6 96 3f
       1.206078 0.9535164 1.0064514 1.177458
000030 46 91 85 3f b8 9f 4a 3f e2 1d 92 3f 28 47 93 3f
       1.0434959 0.7914996 1.141537 1.150609
000040 f7 d9 89 3f 8c 8b 83 3f b3 64 9e 3f 34 99 7f 3f
       1.0769643 1.0276961 1.2374481 0.99843144
000050 3e b3 9d 3f cd 6e 8e 3f f1 02 66 3f 1f 9e 79 3f
       1.2320325 1.1127564 0.8984824 0.975069
000060 16 7e 8c 3f b3 45 7e 3f 06 12 7d 3f 9a f2 69 3f
       1.0975978 0.993251 0.98855627 0.91385806
000070 02 4b 90 3f 4b 38 96 3f f8 96 93 3f a7 d2 2c 3f
       1.127289 1.1735929 1.1530447 0.6750893
000080 d4 4e 67 3f 4b a4 6a 3f 39 74 7f 3f 87 ff 82 3f
       0.9035466 0.9165694 0.99786717 1.0234231
000090 28 c5 8d 3f fb f1 48 3f 41 4e 66 3f 83 d4 a3 3f
       1.1075792 0.7849423 0.89963156 1.2799228
0000a0 fd f6 86 3f 71 48 75 3f 07 76 91 3f 87 7e 86 3f
       1.0544125 0.9581366 1.1364144 1.0507363
0000b0 8d a8 a2 3f c5 91 86 3f 00 67 8a 3f be 9f 26 3f
       1.2707688 1.0513235 1.0812683 0.650875
0000c0 ab 8b 89 3f fb 40 47 3f 73 f0 8c 3f 7d cf 62 3f
       1.0745748 0.7783353 1.1010879 0.8859785
0000d0 35 7b 80 3f a5 77 99 3f 6d d7 9c 3f a8 ba 8b 3f
       1.00376 1.1989638 1.2253243 1.0916338
0000e0 ad f4 76 3f ff f4 9c 3f 54 9c 56 3f 25 55 68 3f
       0.96467096 1.2262267 0.8383229 0.9075492
0000f0 03 dc 7c 3f 32 84 48 3f ed b9 90 3f 27 1b 61 3f
       0.9877321 0.78326714 1.130674 0.87932056
000100 d3 7e 4e 3f b2 00 84 3f 2b 97 53 3f e7 e3 b7 3f
       0.8066227 1.0312712 0.8265254 1.4366425
000110 4f 01 89 3f 98 43 87 3f 2f 00 5b 3f 50 bb 65 3f
       1.0703524 1.0567503 0.85547155 0.8973894
000120 11 49 8d 3f 39 a0 97 3f 5a b1 95 3f 5f a7 4d 3f
       1.1037923 1.1845771 1.1694748 0.80333513
000130 0c a0 56 3f c7 08 3e 3f 24 c3 92 3f d9 65 63 3f
       0.8383796 0.74232143 1.1465802 0.8882728
000140 0e f1 2f 3f f3 b2 59 3f 4a 01 b1 3f 67 29 5f 3f
       0.68727195 0.8503868 1.3828518 0.8717255
000150 ba f7 71 3f dd 28 81 3f 4c 3a 71 3f 1c 17 64 3f
       0.94518626 1.0090595 0.9422958 0.8909776
000160 e9 f6 64 3f 68 ea 82 3f 99 d6 6f 3f ad e5 80 3f
       0.89439255 1.0227785 0.93686825 1.0070091
000170 9f 56 63 3f a4 66 66 3f 63 83 82 3f 6e dd 96 3f
       0.8880405 0.9000037 1.0196346 1.1786325
000180 60 b1 87 3f 3c 11 52 3f c8 73 67 3f bd 2a 86 3f
       1.0601006 0.8205755 0.90411043 1.0481793
000190 b8 e6 8e 3f f0 bb 77 3f bd dc 70 3f 75 ae 88 3f
       1.116416 0.96771145 0.9408682 1.067824
0001a0 d2 d3 9b 3f df a5 7f 3f 5b d2 70 3f e1 53 6d 3f
       1.2174017 0.99862474 0.94070977 0.92706114
0001b0 87 fb 7c 3f a9 ec 84 3f c7 17 70 3f 59 3b 92 3f
       0.988213 1.0384723 0.9378628 1.1424361
0001c0 08 68 64 3f cb a2 65 3f 37 f7 79 3f 07 1b 8d 3f
       0.8922124 0.8970153 0.97642845 1.1023873
0001d0 a0 bf a0 3f 1e e3 6a 3f 6d 54 a9 3f fa ee 83 3f
       1.2558479 0.91752803 1.322889 1.0307305
0001e0 b0 3e 76 3f 0a 34 86 3f 4f a8 5c 3f e7 e2 95 3f
       0.96189404 1.0484631 0.8619432 1.170987
0001f0 8b ee 80 3f 97 63 87 3f f5 a1 66 3f 8f fe 70 3f
       1.0072798 1.0577267 0.90090877 0.94138426

read_encoder.block1.1.bias f4 [128]
000000 07 8c ce bd 15 be bc bd 4e af e1 bc e0 02 70 bd
       -0.10085302 -0.09215943 -0.027549412 -0.05859649
000010 53 68 2d bc 1e 9f 35 3c ef f0 95 bd a6 94 9b 3a
       -0.010583955 0.0110853 -0.07321345 0.0011869862
000020 48 8e 0b bd 99 1d 58 bd fa 71 05 be d3 0a 47 bc
       -0.034071237 -0.0527626 -0.1303176 -0.012148577
000030 ec e7 15 be f9 20 38 be ac b6 af bd 7d ce ce bd
       -0.14639252 -0.17981328 -0.08579764 -0.10097978
000040 4a b8 34 bd 05 99 82 bd f4 c4 17 be 62 50 b6 bd
       -0.044121064 -0.063768424 -0.14821225 -0.089020506
000050 12 2d 00 bc 78 a8 63 bd 27 df 1e be 1b 09 67 bd
       -0.007823246 -0.055580586 -0.15514813 -0.056405168
000060 3f d9 9b bc ea 7a 02 3d 29 c9 0f bd fb 28 08 be
       -0.01902449 0.0318555 -0.03510395 -0.13296883
000070 76 a6 b9 bc e5 e4 a8 3b 4a 40 cf 3b 30 48 97 be
       -0.022662383 0.0051542395 0.0063248025 -0.29547262
000080 28 fc d4 bd 46 c6 92 bd f8 b0 f6 bd 15 6e 9e bd
       -0.103996575 -0.07166724 -0.12045473 -0.0773584
000090 46 61 fd bb 17 09 56 be 2a 24 0a be 95 f3 90 bd
       -0.007732543 -0.20901905 -0.13490358 -0.070777096
0000a0 81 d2 c2 bd 1b f2 23 be a8 ae 75 bd 98 3f 98 bd
       -0.09512807 -0.16010325 -0.05998102 -0.074340045
0000b0 49 29 53 bc d6 60 f0 bc 97 bc 30 bd e6 1c e1 be
       -0.012888261 -0.02934305 -0.043148603 -0.4396736
0000c0 d5 1d c2 bd bc 36 49 be 7a 71 8c bc 1b 9f 13 be
       -0.09478346 -0.19649786 -0.017143954 -0.14416163
0000d0 e6 45 a6 bd eb 67 10 bc ec 80 32 bc db 7d 2d bc
       -0.08118801 -0.0088138385 -0.010894995 -0.010589088
0000e0 62 37 ef bd 33 7a 03 3c aa 76 13 be 7d 80 26 be
       -0.11680485 0.00802474 -0.14400735 -0.16259952
0000f0 50 d6 8b be 1e 2f 66 be 0e 24 67 be 9e bb df bd
       -0.27311945 -0.22478911 -0.22572348 -0.10924457
000100 39 4e 48 be da 9b 7f bd ed 4e 44 be 54 a9 46 bc
       -0.1956109 -0.06240449 -0.19170733 -0.012125332
000110 f4 d0 2d be 03 ee c7 3c 36 61 15 be 10 92 12 be
       -0.1697424 0.024405485 -0.14587864 -0.14313531
000120 55 5a 85 bc bc 83 55 bd 20 9d 4e 3b d1 56 24 be
       -0.016278425 -0.052127585 0.003152676 -0.16048743
000130 20 b7 27 be 29 e9 55 be f5 3c f3 bd c0 0c 0e be
       -0.1637845 -0.20889725 -0.11876861 -0.13872051
000140 5b 4c 8e be a4 fd 8b be 76 4e 02 bd 34 a3 fa bd
       -0.2779263 -0.2734195 -0.031813107 -0.1223816
000150 e5 b4 2b be c4 7f 42 bd c0 6c bc bd 1a 76 12 be
       -0.16768225 -0.047485128 -0.0920043 -0.14302865
000160 96 fd e6 bd f3 f9 09 bc 85 59 b2 bd bb e2 53 be
       -0.112788364 -0.008421409 -0.08708481 -0.2069196
000170 2a 8c 1c be 3d ff 19 be 7a 08 8d bd ae 2e bc bd
       -0.15287843 -0.15038772 -0.068863824 -0.09188591
000180 bc 30 be bb d2 9d 1f be 24 75 13 be 4f 38 92 bb
       -0.0058041494 -0.15587547 -0.14400154 -0.004462279
000190 83 61 6c 3d a9 d2 66 be 17 a7 c8 bd 8b 36 80 bd
       0.057710182 -0.22541298 -0.09797495 -0.06260403
0001a0 6c 6e 1f 3c 02 ac 69 bd 56 f2 dc bd 80 db 41 be
       0.0097309165 -0.057048805 -0.107884094 -0.18931389
0001b0 57 46 c4 bd 07 c4 ab bd ec 8a de bd f6 d0 59 bd
       -0.09583729 -0.083869986 -0.10866341 -0.053177796
0001c0 fe 20 fe bd 14 e0 ea bd fb 4c a5 bd 2a bb fe bd
       -0.124086365 -0.11468521 -0.080713235 -0.124380425
0001d0 76 7f 72 bd 9e f2 ad bd 28 9e d8 3c 0b 2d 23 ba
       -0.059203587 -0.08493541 0.026442602 -0.00062246685
0001e0 3c 50 00 bd 6f 1d 45 bd 10 0e 14 be 23 04 0f bd
       -0.031326517 -0.048123773 -0.1445849 -0.034916054
0001f0 2a f4 d2 bd 02 ef 47 3a 4f 44 32 be 51 84 ee bd
       -0.10300477 0.00076268625 -0.1740887 -0.11646331

read_encoder.block2.0.weight f4 [128, 128]
000000 3f ac 85 bd f8 98 54 be e6 06 01 3e 0a c3 0e 3e
       -0.06526994 -0.20761478 0.12600288 0.13941589
000010 70 32 e8 bd 43 c1 5a bc d1 c5 1e 3d 27 de a9 3d
       -0.11337745 -0.013351741 0.03876287 0.08294325
000020 9a 8a 64 3e 70 de 20 bd 33 c4 d0 3d 4b ff 0b 3e
       0.22318497 -0.039274633 0.10193672 0.13671605
000030 ae 7d 9b 3d 0b c0 95 3d 11 f4 9a 3d 2e ff 82 3d
       0.07592331 0.0731202 0.07566083 0.06396328
000040 98 93 29 3d 81 48 d3 3d 64 38 9e 3d 89 b3 c5 bd
       0.041400522 0.103165634 0.077255994 -0.09653384
000050 a0 b7 76 bd 89 02 b7 bd e6 65 cb 3c 92 1a 9f bd
       -0.060233712 -0.089360304 0.024828862 -0.0776874
000060 67 61 2b 3d 2c 3b 78 bd 16 d1 29 bd eb a2 dc 3d
       0.041840937 -0.060603306 -0.041459166 0.10773262
000070 ef 30 45 3d 36 5a 53 3d 39 18 84 bc 98 20 26 3d
       0.04814237 0.051599704 -0.016124832 0.040558428
000080 86 b9 20 3e 2b d0 b4 3d e0 11 de bc bf 05 e5 3d
       0.15695772 0.088287674 -0.027108133 0.111827366
000090 fb 87 d0 bc c7 a6 a0 3d 0d a4 2c 3d f2 3e 9b bc
       -0.025455466 0.0784431 0.04214864 -0.018950913
0000a0 1d 60 c4 bd a4 6c 28 bd 12 e3 7d 3d 74 00 e3 3c
       -0.09588645 -0.041119233 0.06198413 0.027710177
0000b0 c9 bf ce 3c 5a 6f 3b 3e 36 dd a4 bd a2 56 84 bd
       0.025237935 0.18304196 -0.08050005 -0.064618364
0000c0 28 e5 f5 3d 2a 75 11 3d c3 55 9e 3d ec 28 ae bd
       0.12006599 0.035512127 0.077312015 -0.08503899
0000d0 7e 14 2b 3d 87 c0 1f bd 73 76 55 bd 72 18 95 3d
       0.04176759 -0.039001968 -0.052114915 0.07280053
0000e0 2c 3a e8 3c c4 9d 19 be 73 4d 09 bc 3e 08 43 bd
       0.028348051 -0.15001589 -0.008380282 -0.047615282
0000f0 98 91 74 bd 32 4f dd bb d7 6f c7 3d fe 3b 17 bc
       -0.05970916 -0.0067538256 0.09738129 -0.009230612
000100 b7 56 80 bd ae aa 56 bd 6e e9 2e 3d cc 01 47 be
       -0.062665395 -0.052408867 0.042703085 -0.19434279
000110 85 58 2c bb 58 7c 1b bd 5d cc 61 bb 00 51 bb 3c
       -0.002629788 -0.03796038 -0.0034454085 0.022865772
000120 ff 7b 98 bd e8 39 59 3d 06 de 9f bc ab cf ae bc
       -0.074455254 0.05303374 -0.019515049 -0.021339258
000130 48 f9 39 bd d6 f5 91 3d e9 eb 39 bd b8 f4 a4 3d
       -0.04540375 0.071269676 -0.045390997 0.08054489
000140 49 81 08 b9 cc 7e b5 bd c9 ac cc 3d 07 bf 3b 3e
       -0.00013018133 -0.08862075 0.09993894 0.1833459
000150 2f a0 9c bd 36 ec 1b 3e b2 51 09 bd fa 01 7a 3d
       -0.0764774 0.15226826 -0.033525176 0.06103704
000160 c4 46 3b 3d ff e4 65 3c 73 b0 20 bc 89 c1 8d bc
       0.045721784 0.014031648 -0.009807694 -0.017304199
000170 af f8 93 3d 64 9f 8b 3d 6a 4e 85 3d 4d 01 08 3d
       0.07225167 0.06817511 0.06509097 0.033204366
000180 3d 02 fa bd 6a ff de 3c 9c 86 5c 3d fe f2 45 be
       -0.12207458 0.0272214 0.05383931 -0.19330975
000190 ca d9 3b 3c b4 61 05 be 86 8d 12 bd c2 d6 fc bd
       0.011465499 -0.13025552 -0.0357795 -0.12345649
0001a0 cd b7 9c bd 28 7f ef bc bb 33 c4 bb 5f e4 be bd
       -0.07652245 -0.029235438 -0.005987612 -0.09320902
0001b0 4f 1d 7e 3d 0b c7 90 3c dc ff 3a 3d 32 9d 00 bd
       0.06203967 0.017673036 0.045654163 -0.031399913
0001c0 2d 3e 2e 3d 5a cb 78 3c 7c ef 03 be b3 39 4e bd
       0.042539764 0.015185202 -0.12884325 -0.050347995
0001d0 e5 1d 79 bc 7f 9b 0a bc d4 55 e6 bd 4b fa b1 bd
       -0.015204881 -0.008459925 -0.11246839 -0.08690318
0001e0 77 9d 89 3b d2 33 4d bd 4b 93 3f bd 37 fd 48 bd
       0.0041996795 -0.050098248 -0.04677133 -0.04906961
0001f0 d1 b1 85 bc c3 e6 b0 bd 85 f8 d4 3c e3 b8 d4 bc
       -0.016320141 -0.08637764 0.02599741 -0.025967067
000200 07 d2 a3 3d 87 56 f6 bd e9 7b 89 3d fa f4 70 3d
       0.07999044 -0.120282225 0.06713087 0.058827378
000210 15 bf 87 bd f9 de 21 3d 05 f3 78 bd 1e ea 84 3d
       -0.06628243 0.039519284 -0.060778636 0.06489967
000220 8b dc 14 3e 33 48 cd bc e3 f4 01 be 45 86 e6 3d
       0.14537255 -0.025058841 -0.12691073 0.11256079
000230 99 42 6f 3d 42 b7 93 3d e7 7d 15 3d bf be 96 bc
       0.05841312 0.07212688 0.036497023 -0.018401502
000240 63 cd 07 bd e2 b4 cc bb 02 e4 cf bd ec 3e c3 bd
       -0.033154856 -0.006247149 -0.10150911 -0.09533486
000250 ea 4a 14 be b4 fd 52 bd 6b 22 db 3d a6 f2 67 bc
       -0.14481702 -0.05151148 0.10699924 -0.014156973
000260 62 aa f6 3d ec ca 84 3d 1f f3 be 3c 57 b2 9c 3d
       0.12044217 0.06484017 0.023309289 0.07651203
000270 25 dc bf 3d 55 51 e2 3c 8e 48 38 3e 3d 12 1d bd
       0.09368161 0.027626673 0.17996427 -0.03834747
000280 e4 7a 86 3d 38 c0 ba bd 06 4f a6 3d 61 e0 58 bb
       0.06566408 -0.09118694 0.08120541 -0.0033092725
000290 12 bd e3 bc 0c 5c 4c 3d 80 58 09 3d d4 1b b4 bc
       -0.027800117 0.04989247 0.033531666 -0.021985926
0002a0 12 cb ef 3d 12 44 a8 bb 9b dc d4 3d 7b 81 ac bc
       0.117086545 -0.0051350677 0.1039364 -0.021057835
0002b0 1c e0 30 3d 87 59 25 3d 1e da cf 3d e8 3e 3f 3d
       0.043182477 0.040368583 0.101490244 0.04669085
0002c0 e6 86 8b bc 96 f8 43 3d a5 b5 1b 3d 35 26 4d bc
       -0.017032098 0.047844492 0.038015027 -0.012521316
0002d0 4a 31 60 3d e7 14 b8 bc 7d 94 2f 3d 41 6d 9f 3d
       0.054734506 -0.022470905 0.04286622 0.077845104
0002e0 3d 8d 8d bd 3c f5 b8 bd 51 0f 32 3d 71 48 ee 3c
       -0.06911705 -0.0903115 0.043471638 0.029087277
0002f0 60 d2 96 bd 17 25 48 bd f0 d5 df bc 01 8d 08 3c
       -0.073643446 -0.048863497 -0.027323693 0.008334399
000300 bc 85 c0 3c 45 f4 7c 3d ed 83 cb 3c 09 83 ab bd
       0.02350127 0.06175639 0.02484318 -0.08374602
000310 30 b9 11 bd e2 e7 41 3d ec a2 49 3d 3e cd a0 3d
       -0.035577 0.04734028 0.04922764 0.07851647
000320 fa 5c 29 bd b7 47 be bc 63 ba d1 3d e5 ac 69 bd
       -0.041348435 -0.023227556 0.102406286 -0.05704965
000330 df b1 a9 3d a2 ce 92 3d e2 bb 8e bc 38 5d 00 bd
       0.08285879 0.07168318 -0.017423574 -0.0313389
000340 12 b1 35 3c 10 30 2a bd 6f 98 80 bd dc 41 e3 3d
       0.01108958 -0.041549742 -0.062790744 0.11096546
000350 1d d5 23 bd da 37 bf bd 39 24 12 3d 7c f0 9b 3c
       -0.039998163 -0.09336825 0.035679076 0.01903557
000360 40 09 e7 3c 71 65 d4 bc 24 85 b7 3c 87 4f b1 bd
       0.028202653 -0.025927277 0.022402354 -0.08657747
000370 03 a6 ba 3d b0 7e a2 3d 67 63 c2 3c ab 78 90 bd
       0.091136955 0.0793432 0.02372904 -0.070542656
000380 12 4f 2b 3d 9f 19 2b bd c4 20 87 3d 2e 2f 8e bd
       0.041823454 -0.04177248 0.065980464 -0.069425926
000390 5a d7 1b 3e 3e 01 b5 bd 5d 45 cc 3c 8d ba 07 be
       0.15218869 -0.088381276 0.024935419 -0.13254757
0003a0 32 e8 49 3e 22 e8 23 3d 57 c4 da 3d 00 eb 4c bd
       0.19717482 0.0400163 0.1068198 -0.0500288
0003b0 91 50 bc 3d 21 80 c5 3a c1 9f fa bc b1 3d 8b 3d
       0.09195054 0.0015068093 -0.030593755 0.06798876
0003c0 17 41 2c bc ea de 44 bd eb ef a6 bd 02 28 a3 bd
       -0.0105135655 -0.04806415 -0.081512295 -0.07966615
0003d0 9e f7 31 3d f4 eb d1 3d 74 29 a5 3c 4c 1e 8e 3d
       0.043449037 0.102500826 0.020161368 0.069393724
0003e0 75 79 a6 bd b6 51 73 bd 5b e9 ae 3d 2d c8 ce bc
       -0.08128635 -0.059404097 0.08540603 -0.025241936
0003f0 ea cd 71 bb 4e 2e 71 bd ee 13 c7 bc 33 d0 05 3c
       -0.0036896416 -0.05888205 -0.024301495 0.008167314

read_encoder.block2.0.bias f4 [128]
000000 5e fa bb 3d 26 2a 97 3d f6 93 1e 3d 17 94 ae 3d
       0.09178613 0.07381086 0.038715325 0.0852434
000010 ef 0d fc 3c 2c e1 6e bd 3b 57 b3 3c 0e a0 4f bd
       0.030768363 -0.05832021 0.02189218 -0.05068975
000020 32 81 fd 3d 6b e8 27 bd 15 4b 15 bd 65 69 66 3d
       0.12378158 -0.040993135 -0.036448557 0.056252856
000030 95 cb f3 bc 31 8b 63 3d 7d c1 a7 bd 44 0e c9 3c
       -0.029760161 0.055552665 -0.08191202 0.024542935
000040 52 bf a1 3d d7 11 2d 3d dc a2 86 bd 4d 23 10 3d
       0.078978196 0.04225334 -0.06574032 0.035189915
000050 c6 9d 73 3c 85 a7 ee 3a 6b 89 ba bd ac 37 9a bd
       0.014869159 0.0018207884 -0.09108242 -0.0753015
000060 c3 31 0a bd 18 4d 8e 3d e4 8a 64 bd c2 92 91 bd
       -0.033738863 0.06948298 -0.05579652 -0.0710807
000070 04 e8 b7 bd d1 c1 99 3c 55 21 09 be 2c 67 96 bd
       -0.089798 0.018769177 -0.13391621 -0.07343897
000080 27 50 de bb be a9 79 bd b7 44 13 3d 06 77 de 3b
       -0.0067844572 -0.060952894 0.035954203 0.006789091
000090 08 e4 d6 3d 47 b5 74 bd 8e db 8b bd 66 9e 68 bd
       0.10492712 -0.059743192 -0.06828986 -0.056791686
0000a0 65 11 a2 3a c3 0d 64 bd d8 92 cb 3d 57 c3 31 bd
       0.0012364803 -0.055677187 0.099401176 -0.04339918
0000b0 fa 57 ed bd a7 f7 1a 3d 47 fd bb bc a8 29 97 3d
       -0.11589046 0.037833836 -0.02294792 0.07380992
0000c0 7a dc ea b9 a1 f2 03 3d ca d4 35 3d e5 d6 02 bc
       -0.00044796226 0.03221381 0.044392385 -0.007985805
0000d0 6e 15 d7 bc 47 89 37 bd 54 f6 b0 3c 07 6e 66 bd
       -0.026255336 -0.044808652 0.021601833 -0.056257274
0000e0 29 f5 63 3d 1d 97 dc 3c 7b a5 31 bc 6d 7e c3 3d
       0.055653725 0.026927525 -0.010842676 0.09545598
0000f0 2d ff 35 3d f5 53 81 3d 82 31 a2 3d 98 de fc 3c
       0.044432808 0.06314842 0.07919599 0.03086786
000100 18 c0 5d 3d e1 7a 81 3d fa 53 73 3d fd fd 87 3d
       0.054138273 0.063222654 0.05940626 0.06640241
000110 e1 46 49 3d 27 b4 75 bd b1 80 12 bd b6 e5 c4 3d
       0.04913986 -0.05998626 -0.03576726 0.096141264
000120 de 31 9d bc a1 ae 66 bc 62 02 1a bd 38 a5 b2 bc
       -0.019188818 -0.014079721 -0.03759993 -0.021807298
000130 31 b5 79 3d 08 5f 89 3d de 34 3e bd 46 ee 8b bd
       0.060963813 0.06707579 -0.046437137 -0.068325564
000140 f7 47 2e 3d 86 46 18 3d 89 14 48 3d 93 59 2f 3c
       0.0425491 0.03717663 0.04884771 0.0107025085
000150 d6 9b db bb b3 6f 8b 3d d5 54 9a 3d a2 f7 0f 3d
       -0.0067019267 0.06808414 0.07535712 0.03514827
000160 7e dd c5 3d 2f 7f 77 bd ce 27 72 3d 63 57 8e 3d
       0.09661387 -0.060424026 0.059119992 0.069502614
000170 34 ae 12 3d e6 d5 f3 3b 6b c1 89 3c 3a f9 85 bd
       0.035810664 0.00744127 0.016815862 -0.06541677
000180 27 0b 98 3d ff 85 39 3d 66 09 77 3d 4c 19 e7 3c
       0.07424002 0.045293804 0.060311697 0.028210305
000190 43 f2 5a bd 4b 91 7e 3d 49 39 8f 3d af d8 83 bc
       -0.053453695 0.06215028 0.06993348 -0.016094534
0001a0 00 fe a6 3c 3b c0 40 bd 14 3c 5b bd af fa 35 3d
       0.020384789 -0.047058325 -0.05352409 0.044428524
0001b0 1b 1f a3 bd 87 58 34 3d a3 54 56 bd 7e 55 21 bb
       -0.07964917 0.04402974 -0.05232681 -0.0024617608
0001c0 14 d2 08 bd 4a 29 1f 3d 97 49 98 3d df ef 6c bd
       -0.03340347 0.038857736 0.07435911 -0.057845946
0001d0 75 48 1d bc 17 02 5f bc 41 49 b3 bd ca a8 9c bd
       -0.009599795 -0.013611338 -0.087542064 -0.076493815
0001e0 ca 8a 2c bd fd 74 2d bd 21 f0 bf 3d 48 a8 4a 3c
       -0.042124547 -0.042347897 0.09371973 0.012369223
0001f0 cb cb dc 3d f6 1d c8 bd 51 a2 ea bc 24 f5 85 3d
       0.10781058 -0.097713396 -0.028641852 0.065408975

read_encoder.block2.1.weight f4 [128]
000000 ee ce 58 3f f0 65 41 3f 12 c7 84 3f 33 25 67 3f
       0.8469075 0.7554617 1.0373251 0.90291137
000010 35 b1 64 3f fc 2b 7f 3f d2 6d 93 3f 05 fd 82 3f
       0.89332896 0.9967649 1.151789 1.0233465
000020 6f 12 8d 3f 04 ee 74 3f c8 80 78 3f 0d be 76 3f
       1.102125 0.95675683 0.97071505 0.96383744
000030 f1 7a 4f 3f 6b 81 73 3f c7 b9 81 3f 8d 31 8d 3f
       0.8104697 0.9511935 1.013482 1.1030747
000040 cd a1 7e 3f 5d 79 6a 3f 1d 37 74 3f a0 ed 76 3f
       0.9946564 0.91591436 0.95396596 0.96456337
000050 87 49 6e 3f a2 55 69 3f 3b a0 82 3f c7 25 8c 3f
       0.93080944 0.9114629 1.0205148 1.0949029
000060 0a 50 83 3f 9d 22 75 3f fb 37 67 3f 27 cc 71 3f
       1.0258801 0.9575594 0.90319794 0.94452137
000070 8f c0 7f 3f 8b d4 73 3f 24 ce 89 3f 8d 5e 78 3f
       0.99903196 0.9524619 1.0766034 0.97019273
000080 6e 41 81 3f a1 17 48 3f 7d bb 78 3f 32 31 81 3f
       1.0098093 0.78161055 0.97161084 1.0093138
000090 5a 7c 82 3f 73 ca 81 3f a3 08 64 3f e6 f3 97 3f
       1.0194199 1.0139908 0.8907568 1.1871307
0000a0 01 47 78 3f 44 3f 92 3f 84 a3 7c 3f ff b8 6f 3f
       0.96983343 1.1425557 0.98687005 0.93641657
0000b0 7a bb 89 3f af de 8c 3f 7a 5d 78 3f 83 86 81 3f
       1.0760338 1.1005458 0.97017634 1.0119175
0000c0 06 f9 82 3f ba b3 73 3f df 48 86 3f bf 87 77 3f
       1.0232246 0.95196116 1.0490988 0.9669151
0000d0 c3 a0 7f 3f 4a 4d a5 3f 68 01 66 3f 7f bc 6a 3f
       0.9985468 1.2914212 0.89845896 0.9169387
0000e0 40 d8 6d 3f 92 28 89 3f af a7 77 3f 9f 78 64 3f
       0.92908096 1.0715506 0.9674024 0.89246553
0000f0 99 79 7c 3f 1e ee 4b 3f 6f f9 71 3f 00 67 8a 3f
       0.98623043 0.79660213 0.9452123 1.0812683
000100 5c 2a 2c 3f d9 15 81 3f f2 6b 57 3f eb e5 82 3f
       0.67252135 1.0084792 0.84149086 1.0226415
000110 1f d3 76 3f 4c 57 75 3f cc 7a 80 3f 83 76 55 3f
       0.96415895 0.9583633 1.0037475 0.8338396
000120 39 ce a1 3f a4 4e 62 3f b1 e5 6e 3f 55 83 61 3f
       1.2641059 0.88401246 0.9331923 0.8809102
000130 25 e7 71 3f 0b e8 71 3f 1f 58 85 3f 6d 1e 6a 3f
       0.94493324 0.94494694 1.0417517 0.91452676
000140 8b 01 6d 3f ff fc 77 3f a4 78 86 3f 02 98 7b 3f
       0.9258048 0.96870416 1.0505567 0.9827882
000150 8e e0 72 3f e0 e2 79 3f 31 e7 61 3f 94 ee 84 3f
       0.94873893 0.9761181 0.88243395 1.0385308
000160 04 59 5d 3f cd 06 78 3f 4e 8d 86 3f 1c 20 73 3f
       0.8646395 0.9688538 1.0511873 0.9497087
000170 6d b3 72 3f f8 6f 71 3f 45 9c 78 3f de ef 8f 3f
       0.9480503 0.94311476 0.9711345 1.1245077
000180 41 ff 66 3f 98 71 4d 3f 26 be 8d 3f 89 7a 7f 3f
       0.90233237 0.80251455 1.1073654 0.9979635
000190 cd 36 75 3f d0 e8 6e 3f 2d 37 72 3f b0 6b 8a 3f
       0.95786744 0.93323994 0.9461544 1.0814114
0001a0 3e 88 71 3f c7 05 93 3f 22 38 7e 3f 81 b4 70 3f
       0.94348514 1.1486138 0.993044 0.9402543
0001b0 35 53 69 3f ff a7 6f 3f 96 0c 84 3f 8f 8e 80 3f
       0.9114259 0.93615717 1.0316341 1.0043505
0001c0 97 a7 83 3f 99 7e 7a 3f 99 8e 77 3f 2a 41 94 3f
       1.0285519 0.9784942 0.9670196 1.1582386
0001d0 e4 09 5c 3f db c2 7a 3f ee e3 83 3f b7 31 76 3f
       0.8595259 0.97953576 1.0303934 0.9616961
0001e0 7e 73 77 3f 0c 49 9e 3f 6c aa 7c 3f 93 93 88 3f
       0.966606 1.2366042 0.98697543 1.0670036
0001f0 e5 02 68 3f 46 bb 80 3f 21 78 72 3f 06 7f 67 3f
       0.90629417 1.0057151 0.9471455 0.904282

read_encoder.block2.1.bias f4 [128]
000000 64 ae 7e be c4 06 67 be 8b 3c ea bc 75 ed 03 be
       -0.24871212 -0.22561175 -0.028593322 -0.12883551
000010 81 fd ab bd 1a 90 24 bd 75 7f 33 bd 32 a5 2b be
       -0.083979614 -0.04017649 -0.043822724 -0.16762236
000020 7d 16 08 bd c1 c8 16 bd b6 dd 1c bd 71 3e 94 bd
       -0.03322457 -0.036812548 -0.038297378 -0.07238472
000030 51 9f 94 be f8 8a 07 bd 30 54 ab bd e9 c9 6d bd
       -0.290278 -0.033091515 -0.08365667 -0.058053885
000040 22 a7 27 bd 77 c5 51 bd 6c 39 6f bd f6 e6 8e bd
       -0.040930875 -0.051213708 -0.05840437 -0.06977646
000050 00 79 73 bd 04 84 c4 bd ff 81 0f be 25 c1 16 be
       -0.059441566 -0.095954925 -0.14014433 -0.14722116
000060 0c 7f e0 bd 35 42 14 bd 7c 34 e1 bd 13 ff 26 bd
       -0.10961732 -0.036195952 -0.10996339 -0.0407706
000070 a9 c6 d9 bd 4c f8 a8 bd f8 42 b8 bd 3f a0 70 bd
       -0.106335945 -0.08250484 -0.08997148 -0.058746573
000080 41 15 ae bd f9 3b 03 be 29 43 1e bd a6 6e 39 bd
       -0.085001476 -0.12815847 -0.038638268 -0.04527154
000090 f6 74 c7 bd 3e d0 02 be c0 29 1b be 6e 02 67 bc
       -0.097391054 -0.1277475 -0.15152645 -0.0140997
0000a0 63 54 93 bc fb 71 cf bd 44 87 5b bc 63 03 8b bd
       -0.017984575 -0.10129162 -0.013398949 -0.06787755
0000b0 79 ed db bd 9d eb 9c bc 8b 39 7e bd cf e5 2b bd
       -0.10738654 -0.019155318 -0.062066596 -0.04196721
0000c0 0f 16 8e be ee 03 fd bc 74 70 86 bd aa 6f 08 bd
       -0.27751204 -0.030885663 -0.065644175 -0.033309616
0000d0 b1 bf 4e bd 48 ee ec bd e1 ab 94 bd 65 7d b7 bd
       -0.05047578 -0.11568886 -0.07259346 -0.08959464
0000e0 08 b6 93 bd f3 fb ac bd ca 27 c2 bc aa d1 8e bd
       -0.07212454 -0.08446493 -0.023700614 -0.06973584
0000f0 b7 d3 47 bc 20 6c 67 be eb 32 af bc 8e a3 5d bb
       -0.012196473 -0.2259984 -0.021386584 -0.003381941
000100 11 9a 86 be d8 39 e6 bc 9d 6c 74 be fc c9 ac bc
       -0.26289418 -0.028103754 -0.23869558 -0.021092407
000110 17 88 a9 bd a7 d0 95 bd 99 d0 04 be c2 57 09 be
       -0.0827791 -0.07315188 -0.12970199 -0.13412383
000120 11 9f a7 bd 3e c7 ef bd f2 26 36 bd 36 e7 0f be
       -0.081846364 -0.11707924 -0.044470735 -0.14053044
000130 fb a9 96 bd 58 bd 01 bd 43 59 ea bd b6 92 d5 bd
       -0.0735664 -0.031674713 -0.114428066 -0.104283735
000140 db de 02 be ad 35 74 bd 07 59 6b bd f3 31 60 bd
       -0.12780325 -0.0596215 -0.05745795 -0.054735135
000150 47 92 03 be 1e 06 22 bc 37 9e 13 be 7e 3c 78 bd
       -0.12848769 -0.009889154 -0.14415823 -0.060604565
000160 47 fe e1 bd 3e d1 80 bd 99 db 76 bd dc 59 89 bd
       -0.11034828 -0.0628991 -0.06026802 -0.067065924
000170 ee 5c 0b be 9e 42 c4 bd 5c 73 93 bd db dc f4 bb
       -0.13609669 -0.09583019 -0.071997374 -0.007472617
000180 71 ab ff bd 12 a2 1e be 88 d9 e2 bd 13 db ec bc
       -0.12483872 -0.15491512 -0.11076647 -0.028913056
000190 9e 30 93 bd ba 10 15 bd e5 36 53 bd 10 7a 6f 3b
       -0.07187007 -0.036392905 -0.051566023 0.003654126
0001a0 fe a2 08 bd 31 b5 f2 bc 0a a9 1d be 74 1b 8c bd
       -0.033358566 -0.029627414 -0.15396515 -0.06841174
0001b0 cf 5d d0 bd b1 24 92 bd 3b 4b 14 be 23 75 a1 bd
       -0.101741426 -0.071359046 -0.14481823 -0.0788367
0001c0 ff 10 d9 bd 39 b7 43 bd 29 29 ad bd ec 52 20 3d
       -0.10598945 -0.047782157 -0.08455116 0.03914158
0001d0 c3 75 10 be c4 9a a0 bc fc 85 43 be 2a b1 3b bd
       -0.14107423 -0.019605048 -0.1909408 -0.045823254
0001e0 ee 04 49 bd 51 91 95 bd 7c 0c d0 bc e2 ab 51 bd
       -0.049076967 -0.073031075 -0.025396578 -0.05118931
0001f0 24 af c6 bd fc 03 82 bd bb 50 42 bd da 42 88 bd
       -0.09701374 -0.06348416 -0.04744027 -0.06653376

read_encoder.block3.0.weight f4 [128, 128]
000000 4f cc df bd 82 1b 35 3d 11 bb 8e 3d df 64 8d bd
       -0.10927641 0.044215687 0.06969274 -0.06904005
000010 02 b9 65 bd 94 84 23 3d 74 74 d8 3d a8 ff 29 3c
       -0.05608464 0.03992136 0.10569087 0.010375895
000020 5d bf e6 bd a4 f1 17 3d 4e 3b 6d bc 35 39 71 bd
       -0.112669684 0.03709568 -0.014479471 -0.058892448
000030 cb 3f f8 3c f3 fb 06 bd 16 be 05 bd 6b 00 1d 3c
       0.030303856 -0.03295512 -0.032651983 0.009582619
000040 71 d1 a8 bd 00 ac 58 bc b7 04 84 bd ac 8a 6c 3d
       -0.08243073 -0.013224602 -0.06446212 0.057749435
000050 b7 22 0c bd 24 de 84 3d 92 ee 0d 3c 4c 6e ba bb
       -0.034212794 0.064876825 0.008662837 -0.005689418
000060 50 a9 a1 3b c6 9f 17 3d f0 88 8b 3d 76 de c3 3b
       0.0049335137 0.037017606 0.06813228 0.005977447
000070 b3 1f 36 bd a7 a1 e2 3d 56 44 80 bc e9 76 3f bd
       -0.044463824 0.11065989 -0.015657585 -0.04674426
000080 95 af 9f bb 8a 12 b4 bc 06 ed 5a 3d ef 89 4a 3d
       -0.004873226 -0.021981496 0.0534487 0.04944795
000090 5d 86 f1 bd e4 95 ec 3c 15 14 d6 3c 93 4c d0 bc
       -0.11793206 0.028880067 0.026132623 -0.025427138
0000a0 72 08 97 3d 87 b2 97 bd 77 6e 93 bd 10 c2 6e bd
       0.07374658 -0.07407098 -0.07198804 -0.05829054
0000b0 a0 9a 0b 3e 38 45 5b be 3f 46 aa bd a6 78 11 be
       0.13633204 -0.21413124 -0.0831418 -0.1420618
0000c0 c8 04 3b bd a3 b4 ab bc ae 5b b4 3d 50 d9 b1 bd
       -0.045658857 -0.020960158 0.08806549 -0.08684027
0000d0 56 8f 95 bb 93 e1 14 3e 7d b8 f1 bb cc b5 b0 3c
       -0.004564206 0.14539175 -0.007376729 0.021571063
0000e0 4c 72 01 be fd d5 4e ba 71 1c 04 bd 61 98 23 3b
       -0.12641257 -0.0007890163 -0.032253686 0.002496265
0000f0 7e 59 a3 bd 01 87 b4 bc b1 58 11 3d ec fb b8 bd
       -0.07976054 -0.022037031 0.035484973 -0.09032425
000100 ca a4 a7 bd 49 aa 40 bd 69 dd cb 3c 63 49 d7 bd
       -0.08185728 -0.047037397 0.02488585 -0.10512044
000110 36 da 9c 3d 6a 15 30 3d c9 7b 10 3d 3b 5c 3b bc
       0.07658808 0.042989172 0.0352743 -0.011435564
000120 cf b5 64 3e 8c 1b ab 3c d6 25 e8 bd 5d e3 84 3c
       0.2233498 0.020887159 -0.11335342 0.016221697
000130 72 d4 22 3d 08 94 79 bd 7f 15 4a 3d 5c de ed bd
       0.039753385 -0.06093219 0.049336907 -0.11614677
000140 41 c5 cb 3c a7 09 3c 3d a0 cd 31 be 0c d4 ac bd
       0.024874331 0.045907643 -0.17363596 -0.08438882
000150 cf c4 9d 3c 79 27 89 3c e1 71 a2 3c c3 33 97 bd
       0.019258885 0.016742455 0.019829692 -0.0738292
000160 01 8d 75 3d aa 18 13 be 40 32 9f bd d9 32 a7 bd
       0.059948925 -0.14364877 -0.07773256 -0.08163995
000170 6e 9d b8 bd 94 28 0a bd a6 e0 97 3d b7 3b b4 3c
       -0.09014402 -0.033730105 0.07415895 0.02200113
000180 a8 80 32 3d 65 d2 29 3d fe a3 b3 bd c5 59 e5 3c
       0.043579727 0.041460413 -0.087715134 0.027996907
000190 70 e3 f8 bc 7f 87 f6 bc 82 72 c1 bd d4 4c 30 be
       -0.030381888 -0.030093906 -0.09445669 -0.17216808
0001a0 94 1c 8c bc 8a b9 cb bd bb fe c9 3d 05 95 50 3c
       -0.01710347 -0.09947498 0.09863039 0.0127308415
0001b0 c7 34 b0 bd bc 51 c2 3c c8 c8 25 bd 34 5b 02 3e
       -0.086038165 0.023720615 -0.040474683 0.12730104
0001c0 d4 3a 61 3d fb 27 be bd 0c 4d ad bd 5d d5 27 3e
       0.054987743 -0.092849694 -0.08461961 0.16389985
0001d0 61 f6 a0 bc e9 55 f8 bc 1b eb d6 bd e5 4f ea bb
       -0.019648733 -0.030314403 -0.104940616 -0.0071506375
0001e0 52 a8 06 bd a9 77 b6 3b df 9c 85 bd cc b8 14 3e
       -0.032875367 0.005568464 -0.065240614 0.1452362
0001f0 33 a7 b2 bc 2c 99 64 bd db f2 c8 bd 4d 95 3c 3d
       -0.021808242 -0.05581014 -0.09811946 0.04604082
000200 82 80 94 bd 13 cb cf bd 13 83 7f 3c e3 75 90 bd
       -0.072510734 -0.10146155 0.015595215 -0.07053735
000210 be 36 8c 3d 4e e9 94 3c b9 55 52 be a3 11 97 bc
       0.06846379 0.018177655 -0.20540513 -0.018441027
000220 19 cb 03 be 30 0c ae 3d ee 5b 08 3d c8 a8 89 bd
       -0.12870444 0.08498418 0.033290796 -0.067216456
000230 17 64 a0 3d 73 74 f9 3c 9e c8 09 3e 23 3e 43 bb
       0.078315906 0.030451035 0.13455436 -0.0029791675
000240 71 ed 7d 3d 76 d7 55 3d a7 7a 02 3d 1a 83 61 3c
       0.06199402 0.052207433 0.03185525 0.013764167
000250 ad 1b 41 3d 33 09 9f bc 26 96 03 bd c2 92 e2 bb
       0.047145534 -0.019413566 -0.032125615 -0.0069144676
000260 b7 3a 13 bd e3 ed af 3d 3f 0d 42 3d a1 a1 86 3d
       -0.035944667 0.08590295 0.047375914 0.06573797
000270 3a 1e 3e 3d 16 db 9e 3c 2b 1e 21 3d c1 fb 26 bc
       0.046415545 0.019391578 0.03933541 -0.010191859
000280 7c 51 91 bd dc 56 27 3d 2f eb d5 bc 87 46 0e bd
       -0.0709562 0.04085432 -0.02611312 -0.03473523
000290 b6 d9 b2 3d 08 5b b9 3d ee 24 53 3d 35 e0 01 be
       0.08732931 0.09050566 0.05154889 -0.12683184
0002a0 fb f6 3e bd d9 50 ec 3d 2b 6b 9d 3d 07 55 0b 3c
       -0.046622258 0.11538858 0.07686456 0.008504159
0002b0 9d ba 1c bd 7e 81 ca bd 18 60 4c bd 04 36 bf bc
       -0.038263906 -0.0988798 -0.04989633 -0.023341186
0002c0 53 28 02 be c7 b0 86 bc fd 52 3b 3d 0d 82 6b bc
       -0.12710695 -0.016441716 0.04573344 -0.014374268
0002d0 9b 23 4d 3d ab b8 d5 bd 2e 19 56 bd 0d c9 c2 3d
       0.050082784 -0.10435613 -0.052270107 0.09511004
0002e0 da 1e e5 3d 16 e4 e8 bd b5 ef 20 3d c7 6c 1d 3d
       0.11187525 -0.11371629 0.039291102 0.038433816
0002f0 7f 66 04 bd bb cd 4f 3c 52 f9 54 bc 58 00 03 3d
       -0.03232431 0.012683327 -0.012998896 0.03198275
000300 53 f6 94 bd 3a 90 00 3c 86 33 06 bd 1a 69 b6 bd
       -0.07273545 0.007846886 -0.03276398 -0.08906765
000310 73 2d 48 3b 06 b5 98 bd 29 53 8a 3c 1f 48 5b ba
       0.0030544668 -0.074564025 0.016885357 -0.0008364934
000320 ec 31 03 be 77 ec 3b bd b6 13 02 3d b1 64 99 bd
       -0.12812012 -0.045879807 0.03175708 -0.074899085
000330 57 a7 f8 3c 26 a3 31 3d 87 49 ba 3d 26 43 20 bd
       0.030353231 0.04336848 0.090960555 -0.039126538
000340 76 13 1a 3c be a5 b0 bb 59 be 0b be 07 e1 68 bd
       0.009404054 -0.0053908518 -0.1364683 -0.056855228
000350 ee f0 8c 3d 90 2f 73 3c cd c3 44 3d f5 b5 cd bd
       0.06881891 0.014842883 0.048038293 -0.10044471
000360 dd 5b 5d 3d 5e f5 bb 3d af 96 23 3d 6e c3 9f 3d
       0.054042686 0.091776595 0.039938625 0.07800947
000370 90 5c 79 bd 9d a1 ab 3c f3 64 b3 bd 1f 8d bb bd
       -0.06087929 0.020951087 -0.08759489 -0.09157776
000380 f3 77 81 3d b3 9e 52 3d 6e 1e 6a 3b f3 ce e4 bc
       0.063217066 0.05142088 0.0035723704 -0.027930712
000390 f3 9b ac bd 34 42 b5 bc 97 39 8a 3d fc 3f 1e 3d
       -0.084281825 -0.022126295 0.06749266 0.03863524
0003a0 7a 08 26 3e b8 db 06 3d fd 7e f1 bc 0f d4 ba bd
       0.16214171 0.032924384 -0.029479498 -0.09122478
0003b0 ef b9 9f bc c2 2e 3f 3d f9 aa 12 3d 03 84 fe bc
       -0.01949784 0.04667545 0.035807583 -0.031068807
0003c0 4f 74 5f bd 95 ae 00 3d be 3d 30 ba d7 13 e7 bd
       -0.05455428 0.031416494 -0.00067230675 -0.11283081
0003d0 d3 9c 5d bc a3 d8 29 3d c2 6b a7 bd ba ad 4a 3d
       -0.013526159 0.041466366 -0.0817485 0.049482085
0003e0 2b 36 02 3c b0 22 19 be a4 86 1f bc d6 27 a2 bd
       0.007947485 -0.14954638 -0.009736691 -0.07917754
0003f0 18 b5 8f 3d 2c 9b 09 3d 46 df 9b 3d 85 25 9e bd
       0.07016963 0.03359525 0.076109454 -0.07722

read_encoder.block3.0.bias f4 [128]
000000 65 5b 2f 3d 91 df 95 3d 78 ce 4e bd 5f 4d 8d bd
       0.04281177 0.073180325 -0.050489873 -0.06899523
000010 08 24 b7 3d 03 7c 71 bc 2d 40 ee 3b 8f 44 31 3d
       0.08942419 -0.014739039 0.007270834 0.043278273
000020 48 0c 93 3d 08 a6 8d bd ef 3e ae 3c 0c 69 c1 3d
       0.07180077 -0.069164336 0.021270243 0.09443864
000030 bc 6e 19 3d 35 a4 72 3d e5 a5 25 3d 73 7e 69 bd
       0.03745912 0.05923863 0.040441412 -0.057005357
000040 9b 25 25 3d 72 5e 39 3d fd 6e 37 3d a6 aa 4c 3b
       0.040319066 0.045256086 0.04478358 0.0031229644
000050 2a d7 d0 3d f5 17 d1 bc a6 5e 56 bc e4 01 86 bd
       0.10197289 -0.025524119 -0.013084089 -0.06543329
000060 de 91 a6 bd 5d 4f 38 3d 23 01 2f bc 8b a3 77 3d
       -0.08133291 0.04499756 -0.010681423 0.0604587
000070 25 b6 5c 3c 0c a6 42 bd 30 10 2f bd be 2c e3 3d
       0.013471161 -0.047521636 -0.042740047 0.11092518
000080 a0 f8 57 3d 0c be 0a bd 26 6d 82 bb 9e 83 48 3c
       0.05272734 -0.03387265 -0.0039802967 0.012238411
000090 5e fc 38 3d 9e 78 54 bd 7c 89 0a 3d 06 39 c6 bc
       0.04516255 -0.051872842 0.03382252 -0.024197113
0000a0 86 07 88 bc c3 fd 39 bd 61 cd 62 3d 0e 3c ac bc
       -0.01660515 -0.04540802 0.055371646 -0.02102473
0000b0 e4 0b a5 3b fe e4 8b 3d 9d 16 a2 bd 02 66 a1 ba
       0.005036818 0.06830786 -0.079144694 -0.0012313726
0000c0 78 3b 0b bd dd a8 a1 bb 66 f1 85 bc 66 4a 83 3d
       -0.03399226 -0.00493346 -0.01635046 0.06410675
0000d0 03 93 c1 3c 04 7d bd 3d 5d 74 2d 3d 22 9e df 3d
       0.023629671 0.092523605 0.0423473 0.10918833
0000e0 40 14 5a 3d be d9 0d bd d5 5e 3a bc 08 b9 cc bc
       0.05324197 -0.034631483 -0.011375149 -0.024990574
0000f0 13 8b 00 3c 98 da a0 3d 07 50 2f ba 55 9c 9c 3d
       0.007845658 0.078541934 -0.0006687645 0.076470055
000100 f3 b6 a0 bd 74 6f 7f bc 2d cb 5e 3d e6 68 2b 3d
       -0.07847395 -0.015590537 0.054392982 0.041848086
000110 ab 77 23 bc 99 01 32 bd 3b a9 da bc 53 48 20 bd
       -0.009977262 -0.043458555 -0.026692024 -0.039131474
000120 21 a3 26 bc 9b ed ab 3c 8c 2f 5a bd a1 02 ac bc
       -0.010170729 0.020987323 -0.053268 -0.020997347
000130 95 90 7a bd 0b 09 f4 3a 3a 8c 54 bd f4 78 9a 3d
       -0.06117304 0.0018618418 -0.051891543 0.07542601
000140 f8 f2 7a bd 89 0d 2f 3d 2c ac 63 bd 88 70 83 bd
       -0.06126687 0.042737518 -0.055584118 -0.06417948
000150 d2 b4 04 bd d4 77 3b bd 5c 74 89 3d ac 18 6e bd
       -0.032399006 -0.045768574 0.06711647 -0.058128998
000160 ff 63 90 3c 12 71 af 3c 93 4a aa 3a 72 ff 72 bd
       0.017625807 0.02141622 0.0012992196 -0.059325643
000170 1d be ca bd af 5c df 3d 05 8b 35 bd c8 fe 84 bd
       -0.098995425 0.1090635 -0.044322032 -0.06493908
000180 d7 ff b8 bd d2 94 c6 bc 62 73 2f 3d 5f 46 f7 bb
       -0.090331726 -0.024240885 0.042834647 -0.0075462307
000190 a0 25 c3 bb 82 77 f7 3b 46 b8 f1 bd ba b4 85 bd
       -0.005955413 0.0075520882 -0.118027255 -0.065286115
0001a0 fd 89 cc bc 05 58 da bc 9e de e8 bc da e9 b4 bd
       -0.024968142 -0.0266533 -0.028426465 -0.08833666
0001b0 b5 07 4b bd 5f e3 e9 3c a4 c3 84 3c b4 61 76 3d
       -0.049567897 0.028550802 0.01620657 0.06015177
0001c0 ee 2f 98 bd 49 d1 e6 bc f7 e9 f7 bc 8b 0f ec 3c
       -0.07431017 -0.028175967 -0.03026293 0.028816005
0001d0 db aa 43 3d 97 a5 a7 3b 77 24 03 bd 64 a1 a1 bd
       0.047770362 0.0051161754 -0.032017197 -0.07892111
0001e0 aa 4f 32 3d 7b cf 77 bc c1 d5 8e 3d dd a5 3e bd
       0.043533005 -0.015125151 0.06974364 -0.0465449
0001f0 66 a2 cf bc a4 cf 94 bd d8 15 c5 3d 77 1e ec bc
       -0.025345992 -0.07266167 0.09623307 -0.02882312

read_encoder.block3.1.weight f4 [128]
000000 5f 46 7f 3f e9 95 7b 3f 8a 4f 8d 3f bb 66 7c 3f
       0.9971675 0.9827562 1.1039898 0.98594254
000010 b8 00 7a 3f 9b dd 7d 3f 4b d7 6f 3f c3 35 85 3f
       0.97657347 0.9916627 0.93687886 1.0407032
000020 b8 30 67 3f 3c 0e 81 3f 65 a6 7c 3f 1f 35 62 3f
       0.90308714 1.0082469 0.986914 0.88362306
000030 0b bd 71 3f ae ac 7f 3f b4 37 74 3f 0c f1 79 3f
       0.9442908 0.99872863 0.95397496 0.97633433
000040 df d4 6f 3f 52 11 7d 3f af 30 83 3f 1f 71 7f 3f
       0.9368419 0.98854554 1.0249232 0.99781984
000050 e2 16 76 3f 6d 6d 77 3f e0 f4 75 3f ad d9 7b 3f
       0.96128666 0.96651345 0.96076775 0.9837902
000060 e3 68 70 3f 86 33 78 3f 47 75 85 3f f7 bb 71 3f
       0.93910044 0.9695362 1.0426415 0.94427437
000070 ae d6 73 3f 4b e7 7c 3f a4 57 83 3f e5 70 6e 3f
       0.9524945 0.98790425 1.0261121 0.93141013
000080 26 4f 6c 3f 69 cc 7b 3f c2 c5 86 3f 76 25 7c 3f
       0.9230827 0.9835878 1.0529101 0.9849466
000090 e1 45 7c 3f ef 15 75 3f 59 98 7d 3f 0c 27 77 3f
       0.98544127 0.95736593 0.9906059 0.96543956
0000a0 8e e7 79 3f 41 0f 7b 3f c5 36 7e 3f 8b e6 79 3f
       0.9761895 0.9807015 0.9930232 0.97617406
0000b0 a4 47 81 3f 22 d7 80 3f 95 75 7f 3f df d3 7e 3f
       1.0099988 1.0065653 0.9978879 0.9954204
0000c0 1b 12 7b 3f 3e c5 7b 3f 88 27 8d 3f e1 13 7e 3f
       0.980745 0.9834784 1.1027689 0.9924908
0000d0 2d 63 74 3f c3 4d 80 3f 74 27 74 3f ac 2a 76 3f
       0.9546383 1.0023731 0.953727 0.9615886
0000e0 15 a3 75 3f 6f ba 7c 3f 8a c2 7b 3f 05 c8 77 3f
       0.9595197 0.98721975 0.9834372 0.9678958
0000f0 df 6a 85 3f a4 61 59 3f 50 00 8f 3f d4 d1 79 3f
       1.042324 0.8491461 1.117197 0.975858
000100 3d 40 6f 3f bd cd 98 3f 8c 9f 51 3f 21 d6 88 3f
       0.93457395 1.1937786 0.81884074 1.0690347
000110 33 f9 7a 3f 3b 4b 71 3f 9f 17 6e 3f b5 42 82 3f
       0.980365 0.9425542 0.9300479 1.0176607
000120 3f b1 6c 3f 6c 45 76 3f e7 16 81 3f f3 6f 70 3f
       0.92457956 0.9619968 1.0085114 0.9392082
000130 24 25 7f 3f 51 69 80 3f ad 39 81 3f 24 3e 70 3f
       0.9966605 1.003214 1.0095726 0.9384482
000140 80 57 86 3f e0 94 77 3f 81 c2 60 3f 2e 82 78 3f
       1.0495453 0.9671154 0.8779679 0.9707364
000150 99 d3 80 3f 34 44 74 3f 10 52 7b 3f 4e d4 80 3f
       1.0064574 0.9541657 0.9817209 1.006479
000160 1d fb 7d 3f b0 08 72 3f 68 fd 72 3f 2c 75 7a 3f
       0.99211293 0.94544506 0.9491792 0.9783504
000170 b9 b9 75 3f d6 d6 74 3f 3d 15 88 3f bf 14 82 3f
       0.95986515 0.95640314 1.0631481 1.0162581
000180 ed fd 7c 3f 9a ac 7c 3f 72 20 70 3f 57 37 7b 3f
       0.9882496 0.9870087 0.9379951 0.98131317
000190 ce 26 82 3f a4 76 7c 3f 61 9d 57 3f 19 14 80 3f
       1.0168092 0.9861853 0.84224516 1.0006133
0001a0 54 43 80 3f f5 8c 8c 3f ef 6a 74 3f 14 f0 79 3f
       1.0020547 1.0980517 0.9547567 0.97631955
0001b0 83 57 74 3f dd 72 6e 3f 35 12 7d 3f ec 42 7c 3f
       0.9544603 0.9314402 0.98855907 0.98539615
0001c0 d8 53 7c 3f 55 0d 7b 3f 5a 09 7c 3f c5 62 79 3f
       0.98565435 0.9806722 0.9845177 0.97416335
0001d0 66 86 27 3f f2 30 80 3f b9 c1 77 3f c5 b3 76 3f
       0.6543945 1.0014937 0.9677997 0.96368057
0001e0 08 f6 81 3f fc c0 60 3f 1f ec 76 3f d9 a3 70 3f
       1.0153208 0.8779447 0.9645404 0.9400001
0001f0 27 c2 85 3f d3 a3 70 3f 90 dc 73 3f a8 ed 6d 3f
       1.0449876 0.93999976 0.95258427 0.9294076
