m6aReplica/2d_432_with_delta/Models/epoch9_rocauc0.862_valpr0.350_valscore1.212.pth (torch, 153737 bytes, 13 tensors)

read_encoder.block1.0.weight f4 [128, 21]
00000000: 1f62 b13e f61e 353e 241d 83bd fb27 6b3f
00000010: 63c4 503c 2ba5 2a3d 5c6a 87bc c5dc e13d
00000020: 033c 583e 75cc bb3f 7278 f0bf b96f 373e
00000030: e3d0 36bb d111 103e 5221 453e b119 9bbc
00000040: 7e3d b73d 06ab 37bc 695e c7bd 1645 073e
00000050: ca8d 32bd 33d8 483d 56cc 4ebe 8c08 433e
00000060: 3344 efbe 63ff afbe 735a b1bc 546f 393d
00000070: 2a0a 6cbe c546 41be 9e03 9cbf bda2 d83f
00000080: e022 07be 9cde 363e cc1d 22be 85aa 4f3d
00000090: b795 903d 4573 903e 9055 a33d e2ef 70bd
000000a0: 6b70 9f3d d76a a0bd f556 b6bb 30e4 8f3e
000000b0: 53fb 1b3e 8536 4abe 5fc2 c13e fa87 943d
000000c0: 090b 85bd a089 783e a57b 4abe 5545 8d3c
000000d0: 517e dbbe 27da 3c3f 7a23 9c3d e0d1 893e
000000e0: 6792 5dbb ea14 afbb 91c2 b93d f30a 37be
000000f0: 2ad7 863c 76c3 51be abaa 103e 5944 513e
00000100: 302f 3cbd b792 acbc 2458 0b3f 10a8 fdbd
00000110: c409 cabd b1a8 f03d 42b7 de3e 1e3d dc3d
00000120: 00f8 9f3e 63be 21bf 2fce 8cbc 9174 693e
00000130: 4cef 08be c5a0 d73d b23c 81bc e0cb cb3e
00000140: 0f5d 6cbe 8a54 4abe 24a5 b23e 507c 623e
00000150: 2e30 d73d ed71 5fbe bd1e c73d 171d 51be
00000160: d270 bcbe 363c a33c 16c6 103e 7d4e 98be
00000170: bda2 963d 7546 b63c 44c4 ac3e ccef d2be
00000180: 3f3d df3e 3795 c3be d859 76bd 8c74 01be
00000190: b6be dfbd 4734 d83c 1265 f6bd 8910 dfbd
000001a0: 1c77 cd3d b004 a4be 971c 593d 06f9 e0bd
000001b0: c59e 09bf d060 723e c582 803e 2706 90be
000001c0: ba83 ec3e 3440 5bbe 6081 32bf 9727 d43d
000001d0: f16c 1f3f 06a7 dcbe 7913 7c3e 7bd2 8bbe
000001e0: 0250 44bd f0f4 80bd 4d85 07bd b8a3 16be
000001f0: 75b9 5dbd 130b 6ebd d07c adbd b8cb 85be
00000200: a2e1 2e3e e02d fbbd e4e7 b2bc a6ee 4c3d
00000210: a589 95bd 7f04 d4bd a771 9cbd 532d efbe
00000220: 9bde 1d3f 9f19 29bf f127 103e 3a21 1cbe
00000230: c17b d83d b52b d4bd 12ab 503e 7961 26be
00000240: f99e ebbd 9166 4c3d 0ed0 2e3e 5058 9f3d
00000250: 2983 b53e 2147 89bc 45fe 383d f21b 02be
00000260: c4b5 003e 9c26 37bd d95b 553e 1204 a9bc
00000270: 98fc 863e fda4 e33e 4a55 aebe b0bf fcbc
00000280: c6fb 563d 050e fdbd dee9 d53d 6828 a3bd
00000290: 26e3 773d 8529 65bc ad92 5bbd 779c 643e
000002a0: c350 b73d d4fc b33d 4040 92bb c772 37be
000002b0: 8f16 963e 5a4d 483d cf29 79bd b627 4abe
000002c0: 1edb 8cbd 50a8 46bf 6e98 873f ea7e d3be
000002d0: 0304 07bf 6efc ed3c 8dfd c1bd c69f f5bc
000002e0: c2a8 0b3e 59b8 e73d 7c09 f03d d814 bc3d
000002f0: 03ec 80bd 2991 28be 62c1 4a3e 521e edbc
00000300: 2b00 083d 7baf f73e 0fe8 553d b762 69be
00000310: 14bc 8e3e caee 633d 702b f13e 132d 4fbe
00000320: 0f79 8b3c 67da b6be 6bc2 943f 0776 753a
00000330: ab94 9d3b ed09 d9bd d030 b4bd 0f3c fbbd
00000340: bec6 8dbd 7afe 06bd 2e96 95bd 7fac 193e
00000350: 33b4 5fbe 4785 bfbe dbfd 943d a50e 4b3e
00000360: bd47 45be 6482 703d fce7 9b3d 3521 63be
00000370: 24c3 b13c 5d20 c83e 52d0 0cbe 675c a43e
00000380: 906c 58be dd77 073e b6ba 52bc 5556 ccbc
00000390: 44fe 97bd d9cf fabc 6126 d5bd 89bb ed3d
000003a0: 180a b53d 8c52 4d3e a8ef 6cbe cdca 03be
000003b0: dc73 40bc 2ec7 6bbd fc52 e1be 3b7a 64be
000003c0: d939 52bf 3b4c b53f 7b19 d7be 03b8 b8bd
000003d0: 24ef 9fbe 56e9 37be 8d43 873d 7e6f 103e
000003e0: df44 dcbc bff6 443e f695 283d 5986 18be
000003f0: 632d dfbd 80f9 703d 56cc 73bc 3140 4a3e
0.34645173 0.17687592 -0.064020425 0.9185788 0.012742135 0.041661423 -0.016530208 0.110284366
0.21116643 1.467177 -1.8786757 0.17913713 -0.0027895502 0.14069296 0.19250992 -0.018933149
0.089472756 -0.011210209 -0.09734804 0.13209948 -0.04359225 0.04903431 -0.20195135 0.19046229
-0.4673172 -0.34374532 -0.021649575 0.045272186 -0.23050752 -0.18874653 -1.2188604 1.6924664
-0.13196898 0.17858356 -0.15831679 0.05069973 0.07059806 0.28212944 0.07975304 -0.05882252
0.07785114 -0.07832878 -0.0055645653 0.2810378 0.15232591 -0.1974736 0.37843606 0.07252498
-0.064962454 0.2427125 -0.19773729 0.017244974 -0.4286981 0.73770374 0.07623954 0.26917934
-0.0033809186 -0.0053430693 0.09070314 -0.1787527 0.01646002 -0.20484719 0.14127605 0.20436229
-0.04594344 -0.021066053 0.54431367 -0.12385571 -0.09865144 0.11750925 0.4349919 0.10753845
0.31243896 -0.6318113 -0.01718816 0.22798373 -0.13372535 0.10528711 -0.015776012 0.39803982
-0.23082374 -0.19758812 0.34891617 0.22117734 0.105072364 -0.21820803 0.0972266 -0.20421253
-0.36804825 0.019926172 0.14138064 -0.29747382 0.073552586 0.022250393 0.3374349 -0.41198575
0.43601415 -0.3819978 -0.060144275 -0.12642115 -0.10925047 0.026392115 -0.120309964 -0.10891826
0.10032484 -0.32034826 0.05300578 -0.109849975 -0.5375789 0.23669744 0.2509977 -0.28129694
0.4619425 -0.2141121 -0.6972866 0.10359114 0.62275606 -0.4309618 0.24616803 -0.2730902
-0.047927864 -0.06296718 -0.03308611 -0.14710891 -0.054131944 -0.05811603 -0.08471072 -0.26131988
0.1707826 -0.12264609 -0.02183909 0.05003228 -0.07301644 -0.1035242 -0.07638865 -0.46714267
0.61667794 -0.6605472 0.14077736 -0.1524705 0.10570479 -0.10359899 0.20377758 -0.1624812
-0.11504931 0.049902502 0.17071554 0.07780516 0.3545163 -0.01675755 0.045164365 -0.12705973
0.12569338 -0.044714555 0.20835818 -0.020631824 0.2636459 0.44461814 -0.34049445 -0.030853122
0.052486204 -0.1235619 0.10444997 -0.07966691 0.06051936 -0.01398695 -0.053606678 0.22325312
0.08950951 0.087884575 -0.0044632256 -0.17914878 0.29314086 0.048901893 -0.060830887 -0.19741711
-0.06877731 -0.77600574 1.0593393 -0.41307765 -0.52740496 0.029051032 -0.09472189 -0.029983412
0.13638595 0.113144584 0.11720559 0.09183663 -0.06295016 -0.16461624 0.19800332 -0.028945122
0.033203285 0.48376068 0.05222326 -0.22791563 0.27877867 0.05564765 0.47103453 -0.20232038
0.017025499 -0.35713503 1.1621832 0.0009363596 0.0048089824 -0.10597596 -0.08798373 -0.12267315
-0.06922673 -0.03295753 -0.07304035 0.15007208 -0.21846084 -0.3740637 0.072749816 0.19829805
-0.19265647 0.0587181 0.07612607 -0.22180636 0.021699496 0.3908719 -0.13751343 0.32101747
-0.21135163 0.13229318 -0.012861898 -0.02494351 -0.07421544 -0.030616688 -0.10407711 0.11608035
0.08839816 0.2005102 -0.23138297 -0.12870331 -0.011746373 -0.057563 -0.44008625 -0.22312252
-0.8211952 1.4163889 -0.42011628 -0.090194725 -0.31237137 -0.17960104 0.06604681 0.14105031
-0.026888309 0.19234751 0.04115864 -0.14895 -0.10897329 0.05883169 -0.01488026 0.1975105

read_encoder.block1.0.bias f4 [128]
00000000: 6a63 05be 0feb 7c3e d4a9 8d3d c449 803e
00000010: 4085 de3d f839 a0be d56a a03e def7 1f3e
00000020: 423b 983e daf5 5dbe cc11 90be ef85 2fbd
00000030: abdd 093e a716 263e ce6b 093d 86b2 e03d
00000040: efbc a23d 0f1a 76bb 3bb5 373e a51e 053c
00000050: e3dd 05be a5d6 1cbd 0545 f73c 72af 72be
00000060: 377b 833d 6359 7d3e 9f03 613e b848 653e
00000070: 40bc ffbb fb1d b43e d405 2e3e 5fe5 183e
00000080: d1a1 69bc 46f7 f03d 9c89 2d3e b65b edbd
00000090: b209 103e e53c d23d 1c36 373e df11 d5bc
000000a0: 27e5 ab3d 149e 17be 6a71 fd3b 6cf0 f13d
000000b0: e955 c63d bd8a 7e3e 3aa2 83bd 3bfe 0bbe
000000c0: 6652 8b3e e16e d13e 1cc9 c1bc e104 e33d
000000d0: 2291 9cbd 634d 06be 3d66 e53d 1c42 333e
000000e0: f74c e33d 256e 8d3e fb2e c8bd bc9d a73e
000000f0: b5dd a0be 3265 9f3d 8444 8a3e eb8d 963e
00000100: 1683 d33e 0736 9f3e ee62 c63d 13df 303d
00000110: 6d42 1b3e 5081 a5bd 4d79 3d3e 1c63 693d
00000120: b261 e63d 2c4e c23e b0f6 98bd 8e62 aa3e
00000130: da37 4fbe e35b b6be e9c6 4abd effd 693e
00000140: c8d5 58be f999 96be 1313 f83d 6e42 93bd
00000150: fda4 97be 5eba b0bd 38da 833c 747c 1a3e
00000160: d9d8 24be ef80 683e 0875 5abe ba9d ddbc
00000170: b7ba b73d 405a 28bd 25c8 393e 7034 81be
00000180: 7e1c bb3d 8230 973d 346e cabe edbe a93e
00000190: 2c8f dcbc 63d7 69be 4ce1 0dbd 3c70 6ebe
000001a0: 9c96 163e 0a57 4cbe 5de2 553e f847 db3d
000001b0: 1d7d 2c3e f06b 983e 8a37 af3e 4326 de3d
000001c0: fc7b 57bc 4835 863e 0d07 ac3e 621a 56be
000001d0: 5a77 31be 4c8c c2be f1c6 2b3e 2533 1c3e
000001e0: 8072 6a3e 1b40 1e3e 1ce5 f6bd 6229 92be
000001f0: cd07 8fbe e283 d13d 5b05 2c3d 22a2 183d
-0.13026205 0.24699043 0.06917158 0.2505628 0.10865259 -0.31294227 0.31331506 0.15621898
0.2973271 -0.21675816 -0.28138578 -0.04285234 0.13463466 0.16219579 0.033550076 0.10971551
0.079461925 -0.0037552153 0.17940228 0.008124982 -0.13072924 -0.03829064 0.030184278 -0.2369974
0.06419986 0.2474113 0.21974038 0.22391021 -0.0078044236 0.35179123 0.16994411 0.14931248
-0.014259771 0.11765914 0.16947025 -0.11589758 0.14066198 0.10265521 0.17891735 -0.026009498
0.08393317 -0.14806396 0.0077344673 0.11813435 0.09684355 0.24857612 -0.06427427 -0.136712
0.27211303 0.40904906 -0.023655467 0.11084915 -0.076448694 -0.13115458 0.11201141 0.17505687
0.11098664 0.27623096 -0.09774586 0.3273753 -0.3141915 0.07782973 0.27005398 0.2940515
0.41310948 0.31095907 0.09686838 0.04318149 0.15162058 -0.08081305 0.18503304 0.056979284
0.11249103 0.37950265 -0.07468927 0.33278316 -0.2023615 -0.3561698 -0.0495061 0.22850774
-0.21175301 -0.29414347 0.12113013 -0.07190405 -0.29618064 -0.08629297 0.016095266 0.15086538
-0.16098346 0.22705434 -0.21333706 -0.027052749 0.0897116 -0.041101694 0.18142755 -0.2523532
0.09136294 0.07382299 -0.39537203 0.33153477 -0.026923738 -0.2283607 -0.034638688 -0.23285002
0.1470589 -0.19955078 0.20887132 0.10707086 0.16844602 0.2976985 0.3422206 0.108471416
-0.013152119 0.26212525 0.3359913 -0.20908502 -0.17330685 -0.37997663 0.16775109 0.15253885
0.22895241 0.15454142 -0.12055418 -0.28547198 -0.2793564 0.10230233 0.041997295 0.037263997

read_encoder.block1.1.weight f4 [128]
00000000: 446e 623f d6aa 843f 43fd 883f fee2 b23f
00000010: c116 583f fa41 963f 9c05 663f b1b5 443f
00000020: 453c 833f 47ee 9c3f bfa8 5e3f 2b3e 803f
00000030: aaec 883f 5890 713f 186a 963f 2e6e 5c3f
00000040: 77f5 9a3f bb90 bc3f ce73 833f ca3f 6d3f
00000050: c3f9 923f 1bb2 a63f 3264 3d3f b4fd 823f
00000060: 927b 9b3f e854 713f 1a51 4d3f ebe2 9d3f
00000070: 944e 653f 2e4b 5f3f 1676 9d3f 296e 613f
00000080: 6a2c 733f 1dc7 953f 9bb4 4f3f 5359 8e3f
00000090: 4af8 6d3f 3324 803f 059b 7c3f eddf 7e3f
000000a0: c744 9f3f 7abb 7f3f 2668 2b3f df24 833f
000000b0: d7bd 913f bf1b 753f 46cc 443f ff9b 9e3f
000000c0: c075 a03f 06ee 753f b4e8 943f 981e ad3f
000000d0: 8351 683f d0ad 9e3f 4cca 753f 5bb3 413f
000000e0: a10b 5e3f 507a 613f 93f8 843f 53be 733f
000000f0: 20b8 753f edb7 813f 6bf3 803f e94c a33f
00000100: 546c a73f 60f9 3b3f 1db3 973f 254f a63f
00000110: ba44 393f 16ac 993f faae 503f a2cd a23f
00000120: 6290 483f ff7c a53f 05ad 8d3f 5239 923f
00000130: 253c 8f3f 320b 8a3f 264e 963f f906 7a3f
00000140: e892 6c3f 07e3 6c3f 4c29 2f3f 9bc7 483f
00000150: fdba 833f 3324 633f 8f0d 5c3f 41d3 903f
00000160: 4dae 683f 2487 733f 668a b33f ac62 8f3f
00000170: e7e8 3d3f 0820 5b3f 1e47 6d3f bca3 4a3f
00000180: 9f76 a53f d55a ad3f 6e92 6a3f a2f8 7f3f
00000190: 9833 a13f 3b2e 483f 2e29 283f c9ca 5f3f
000001a0: 78dd ae3f 42c8 5e3f 95d9 603f 2288 8a3f
000001b0: a39d 7e3f d1f8 af3f 1cb5 903f dce7 4c3f
000001c0: a580 6a3f dfea 323f c79d 963f 98c3 983f
000001d0: 13e9 4a3f 6181 b13f 8ab2 853f ecd3 953f
000001e0: 023e 7b3f 7996 733f 51fd 553f cc18 6a3f
000001f0: 52ce 873f 2d1c 613f db98 7b3f 1a75 463f
0.884495 1.0364635 1.0702289 1.3975523 0.8440972 1.1738884 0.8985231 0.7683974
1.0252768 1.2260216 0.86976236 1.0018972 1.0697224 0.94360876 1.1751127 0.8610562
1.210616 1.4731668 1.0269716 0.9267546 1.1482471 1.3023103 0.7398101 1.0233674
1.2147086 0.9427018 0.80201876 1.2334875 0.89573026 0.8722409 1.2301662 0.88058716
0.94989645 1.170139 0.8113496 1.112101 0.92956984 1.0011047 0.9867404 0.99560434
1.2442864 0.9989544 0.6695579 1.0245627 1.138606 0.9574546 0.76874197 1.2391356
1.2535934 0.9606632 1.1633515 1.3524961 0.90749377 1.2396793 0.96011806 0.756643
0.86736494 0.8807726 1.0388359 0.95212287 0.9598408 1.0134255 1.0074285 1.2757846
1.3079934 0.7342739 1.1851536 1.2992903 0.72370493 1.2005641 0.81516993 1.2719004
0.7834531 1.2928771 1.1068426 1.1423743 1.119023 1.0784667 1.1742599 0.9766689
0.9241166 0.92533916 0.6842239 0.78429574 1.0291439 0.8872711 0.8595819 1.131447
0.9089096 0.95128083 1.4026611 1.1201987 0.74183506 0.8559575 0.9268664 0.7915609
1.2926825 1.3543345 0.91629684 0.9998876 1.259387 0.7819554 0.65687835 0.874188
1.3661337 0.8702432 0.87832004 1.0822794 0.99459285 1.3747808 1.130527 0.8004129
0.91602546 0.69889635 1.17669 1.193469 0.79261893 1.3867608 1.0445111 1.1705298
0.9814149 0.9515148 0.83589655 0.9144409 1.0609839 0.8793362 0.98280114 0.7752243

read_encoder.block1.1.bias f4 [128]
00000000: 79c8 fdbd a4c2 56bc ca79 35bd 6d5c 79bc
00000010: 2fa6 5bbe 4092 5ebd 562b e3bd 3a6d c5be
00000020: 9c56 8fbe c1f0 90ba c99c fabd 8f9a f6bd
00000030: ada0 d5bc f5eb c23b 3f8b e1bd 2e52 ffbd
00000040: 6e93 a7bd 01af 84bc 4387 fabd 476f 0cbe
00000050: 21a8 0abd 4456 8c3b c544 4abe 4bb9 f6ba
00000060: d1b3 113d 2941 a5bd b2f0 3abe cf1a 79be
00000070: 8065 dbbd 692d 48be 917a 4d3d 88bd 08be
00000080: ec84 0cbe e315 60bd a8ab 19be b6fa 8abb
00000090: ec49 acbe 4c9a 493d 913a a9bd fcc2 1dbd
000000a0: 2bcc 8abd 4371 8dbd e111 43be 9cd5 50bd
000000b0: b3f0 b1bd d0d1 86be 21de 56be cdf0 40be
000000c0: c711 00bd 6e34 8ebd 672e e53c 29b8 03bd
000000d0: 8e00 ffbd 273c 94bb 3264 2bbd b800 70be
000000e0: 7a4d 1fbe 49ef aebe 8171 cabe 5821 12be
000000f0: 2746 d2bd e740 febc 3bda 6dbe ae67 afbe
00000100: d038 b4bd 9d9c e0be 28e2 7cbd 4197 76bc
00000110: a1fe 70be 69a9 02bc 1420 22be 95a4 adbd
00000120: 7437 6abe afc1 183d 07d0 41bc de7c 0b3d
00000130: 5246 b5bc 2a00 b5bd 775a 8bbc 8494 2c3c
00000140: 3683 d8bd 082a 06be 0511 cdbe a344 5abe
00000150: c1ef f1bd 2ec8 2cbe 6436 09be 9cc8 c6bc
00000160: 795f 98bd 3188 27bc ba9b 92be dae9 4a3b
00000170: cd59 acbe bb5a 0dbe 4ba6 21be a3d5 20be
00000180: d653 2c3d 9e0a 033d 0581 fbbd 85ca 74bd
00000190: ba77 0abd 6d26 48be 3906 50be cf4c cfbd
000001a0: 85d4 25be 2d04 0dbe 04df 89bd 1be6 87bc
000001b0: a733 85bd ff7a 78ba ed32 2cbe 9dc4 41be
000001c0: 5358 86bd a319 a3be ef20 3a3b d76c b3bc
000001d0: 5fb9 2dbe a01c 1abd a6a2 00be 14e7 9bbe
000001e0: 2c3a b5bd a676 b8bd 88c7 5dbd b068 c6bd
000001f0: 8114 a5bb 4489 0cbe 822e 87bd 1684 c6be
-0.12391753 -0.013107929 -0.0443056 -0.01521979 -0.21450113 -0.054338694 -0.1109225 -0.38559896
-0.27995765 -0.0011058078 -0.12236936 -0.120411985 -0.026077593 0.0059485384 -0.11012887 -0.124668464
-0.08182417 -0.01619673 -0.122328304 -0.13714324 -0.033851746 0.0042827446 -0.19752796 -0.0018823532
0.035571877 -0.08069069 -0.1825588 -0.24326633 -0.10712719 -0.19548573 0.050165717 -0.1335355
-0.1372258 -0.054708373 -0.15006888 -0.004241313 -0.33650148 0.049219415 -0.08263124 -0.03851603
-0.06777223 -0.069063686 -0.19049789 -0.050984964 -0.08688488 -0.2633195 -0.20983173 -0.18841858
-0.031266954 -0.06943594 0.027976228 -0.03215805 -0.12451278 -0.0045237723 -0.0418436 -0.23437774
-0.15556899 -0.34166935 -0.39539722 -0.14270532 -0.10267287 -0.031036807 -0.2322778 -0.3425879
-0.087998986 -0.43869486 -0.061739117 -0.01505071 -0.23534633 -0.007974961 -0.1583255 -0.08478657
-0.22872716 0.037294086 -0.011829383 0.03405463 -0.022128258 -0.08837922 -0.01701091 0.010533456
-0.105719015 -0.13101971 -0.40052047 -0.21315245 -0.118133076 -0.16873237 -0.13399655 -0.02426558
-0.07440085 -0.010225342 -0.28634435 0.003096214 -0.33662263 -0.13804142 -0.15786092 -0.15706496
0.04207214 0.031992547 -0.12280468 -0.05976345 -0.033805586 -0.19545908 -0.20314874 -0.10122072
-0.16194351 -0.13771124 -0.0673199 -0.016589215 -0.065039925 -0.0009478777 -0.16816302 -0.18922658
-0.06559815 -0.31855497 0.0028400978 -0.021902485 -0.16965245 -0.037624955 -0.12562045 -0.30449736
-0.08848986 -0.090070054 -0.054145366 -0.09687936 -0.0050378446 -0.13724238 -0.066006675 -0.3877265

read_encoder.block2.0.weight f4 [128, 128]
00000000: 8cd3 513d b8c8 b4bd 1fc2 cb3d 7711 103e
00000010: 7928 bc3c 8414 9d3c a7f2 aa3b d4e9 a13d
00000020: 3cf1 9fbd 3d57 0c3e 92c1 f93c 9ff5 e2bc
00000030: 2541 1c3e bab7 bdbd 4a92 973d 7e70 4ebd
00000040: e611 b8bd 82d7 423d b18c 42bd 93b0 343d
00000050: 2ea1 143e ddfc 38be 9946 b0bd 77e4 ae3d
00000060: a2b7 c93d c3de 00bd d585 833d 1901 df3c
00000070: 4678 6e3d 132f 10bd 2f50 cb3c b65a 123d
00000080: cdd5 d83c 2e4b b23c 8ecb a7bd 4315 053d
00000090: 0386 de3a 1ec8 93bb fd0d 4c3c 737b aabc
000000a0: 9c39 603c 1f9e 8abd b0e7 09bd 49ff f43c
000000b0: 099b 99bd cb55 85bd 1401 ae3d 3c08 0f3d
000000c0: 8bdd 03be 6a34 d23c 89ca a73d 1b1a 12bd
000000d0: 0a9a 553d 74bf 9dbd 6c44 3a3d 0d80 903d
000000e0: 445c 6d3d c528 643d 9639 3abc 98c0 8f3a
000000f0: 35c6 8c3d bf37 cf3d 2138 9cbc 343b 55bd
00000100: 5f3d adbd d7f7 2ebd 5bc6 d1bd 6760 d3bd
00000110: c800 3bbd 74cf c03d 30b0 c1bb feba 1dbe
00000120: daaf 3abd 52b9 74bd e9b1 99bd c294 15be
00000130: a923 9c3d 1b02 d73d 3824 80bc 1fcf b7bb
00000140: 8ed6 4d3d 7574 a93d 4492 ba3d ff47 223b
00000150: 0f05 51bd edb0 c23b 22e6 78bd e090 583b
00000160: 77c3 2e3b eb73 66bd fd65 d1bd cd8e 523a
00000170: ea04 543d 4fd3 893d 78b6 56bc 1721 7a3d
00000180: e7cd 113c e6c3 373d 1e57 3eba 7b09 853c
00000190: 15f0 1dbd 49d7 863d 9e28 0d3d bcb0 483d
000001a0: 744d 713d 6ab6 173d b918 1f3d b314 d33b
000001b0: 4571 8cbd bb69 70be 3f6f 5bbd 916e 3b3d
000001c0: 8b06 cf3d 00c4 c13d 6111 f4bd b187 553d
000001d0: 0d28 62bd 2a8a fe3d 8edf 92bd 6c40 2dbd
000001e0: 8b01 a43d a088 d03b 5db4 2dbd 0482 bc3a
000001f0: 8239 81bd b81f 7b3d 3cc6 c5bd e392 c13d
00000200: 9c98 543d d4e1 9c3d a0f7 813e 30a1 fd3c
00000210: d802 483d 9149 0e3e 0874 803d 4aa8 42bd
00000220: dceb 9abb 88ec 253e c7ca 0fbc 84b2 173c
00000230: fc98 e53c 681f 88bc 575c 273e 43f2 c63b
00000240: 5c60 b03d 2060 17be 968c f23d 9042 993d
00000250: e0a0 3ebd 2f6f c8bc 34dc cbbc 4411 1ebd
00000260: 2687 f7bd ff53 16bd 925a 983d 1cd3 e3bd
00000270: 23e6 583d 620e 1dbd 498b 0e3d 5b14 cebc
00000280: 25e6 3abe 0561 b63c 50b2 8c3d bfbb efbc
00000290: 47a6 87bd a0cf ad3d 6e98 7cbd 6477 eb3c
000002a0: 3adc e0bd 42d3 1f3e 8160 6e3d c816 e5bc
000002b0: 84e9 c5bd b185 65bd 606d 82bd 15d9 943d
000002c0: 97c2 dc3d e128 bd3c bb0c cfbd 25a5 123e
000002d0: 0152 c9bc 4f8b 8b3d cbbf bbbd 8ff8 96bb
000002e0: 30a0 b73d 7614 4e3d 5ec8 1abd 6a47 cfbd
000002f0: 8c7c c93c 942f dfb9 e04f 203d 1397 efbd
00000300: f6bf bfbd af50 19bd 4eed 05bd fe3e 053e
00000310: 7fd3 3ebc 7e59 1fbd e7b4 8fbc cbd8 29bc
00000320: 1d6a d93b 8417 1f3d 9b53 bc3c 0ff9 1cbe
00000330: 89fa bebb 7d86 bf3d 918d 993d 338e 0ebd
00000340: 6b40 ab3d 8353 b43a 433a b83d e0cf 053d
00000350: d4c9 f0bc e54c f6bc c0e2 9f3d 1637 5a3c
00000360: 9105 233d a3d0 47bd cbd3 f03c e26e 233c
00000370: d123 babd 5d18 e9bb 89f6 6cbd e482 873c
00000380: 24e1 e5bd ed83 b1bd 1b5d 1cbd efd2 223d
00000390: 862c 97bd d980 683d b98d 663d 64ae 9d3b
000003a0: b8eb 00be cbe0 b3bd e742 7e3b aa55 0e3e
000003b0: 0ca3 ee3d 244f 76be 2fc7 e83d c0fc cf3d
000003c0: 0019 9a3c 2636 73bd 7281 c93a db04 113d
000003d0: cfdb 893d bca4 1e3e a681 b1bd a013 853b
000003e0: 7749 9abc 3c3d 063c 4e6a 553d 9ab0 83bc
000003f0: 29b1 c43d 678b aa3c 1060 d1bd 9cee 403d
0.051227137 -0.088273466 0.09949135 0.14069162 0.022968518 0.019174822 0.0052169147 0.07905927
-0.07809684 0.13705154 0.03048781 -0.027705012 0.15259226 -0.09263559 0.07400949 -0.05040025
-0.08987789 0.047568806 -0.047497455 0.044113707 0.1451461 -0.1806521 -0.086072154 0.0853967
0.09849478 -0.031462442 0.06422011 0.027222203 0.05822017 -0.035201143 0.024818508 0.03573104
0.026469136 0.021764364 -0.08193122 0.03249098 0.0016977194 -0.00450994 0.012454507 -0.020810818
0.01368561 -0.067684405 -0.03366822 0.029906886 -0.07500274 -0.06510504 0.084962994 0.034919962
-0.1287748 0.025659759 0.081929274 -0.035669427 0.052148856 -0.077025324 0.04547541 0.07055674
0.05794932 0.055702943 -0.011366269 0.0010967432 0.068737425 0.101180546 -0.019069733 -0.052058414
-0.08458971 -0.042716827 -0.102429114 -0.10321122 -0.045655042 0.094145685 -0.0059108958 -0.15403363
-0.04557786 -0.059747048 -0.07504637 -0.14607528 0.07623989 0.104984485 -0.01564227 -0.0056094076
0.050253443 0.082741655 0.09109929 0.0024762151 -0.051030215 0.0059415014 -0.060766347 0.0033045337
0.00266668 -0.05626289 -0.10224531 0.0008032143 0.0517625 0.06729757 -0.013105027 0.061066713
0.008899189 0.044864558 -0.0007260906 0.016239872 -0.03855904 0.06584031 0.034462564 0.048996672
0.058911756 0.037039198 0.038841937 0.0064416765 -0.06857542 -0.23477833 -0.05357289 0.04575974
0.1010867 0.09461212 -0.11917377 0.05213136 -0.055213977 0.124286965 -0.07171546 -0.042297766
0.08008107 0.006363943 -0.042408336 0.0014382009 -0.06309797 0.061309546 -0.09656951 0.094518445
0.051903352 0.07660261 0.25384235 0.03096065 0.048830837 0.13895251 0.06272131 -0.047523774
-0.0047278237 0.16203511 -0.008776373 0.00925887 0.02802705 -0.016616538 0.16343819 0.0060713603
0.08612129 -0.14782763 0.11843221 0.07483399 -0.04654014 -0.024467079 -0.024885274 -0.038590685
-0.120863244 -0.0367012 0.0743915 -0.1112425 0.05295385 -0.038343795 0.0348008 -0.02515619
-0.18251856 0.02226306 0.06869948 -0.029264329 -0.06623512 0.08486867 -0.061668806 0.028743453
-0.10979505 0.15607932 0.058197502 -0.027964965 -0.0966368 -0.0560357 -0.06368518 0.072679676
0.107793026 0.023090782 -0.1010985 0.1432081 -0.024575235 0.068136804 -0.09167441 -0.004607267
0.089661 0.05031248 -0.03778874 -0.10121043 0.024595521 -0.00042569323 0.039138675 -0.11698737
-0.093627855 -0.03743046 -0.032697015 0.13012311 -0.011647104 -0.038903706 -0.017542316 -0.010366629
0.006634964 0.038840786 0.022989085 -0.15329383 -0.005828206 0.093518235 0.07497705 -0.03480358
0.08361896 0.0013757799 0.089954875 0.03266895 -0.029393114 -0.030065963 0.07806921 0.013318798
0.03980023 -0.048782956 0.029397866 0.009975167 -0.09088863 -0.0071135 -0.0578523 0.016541906
-0.11224583 -0.08667741 -0.03817473 0.039751943 -0.07381539 0.056763504 0.0562875 0.0048120487
-0.1258992 -0.0878311 0.00387972 0.13899866 0.116521925 -0.24053627 0.11366116 0.1015563
0.018810749 -0.05937781 0.0015373661 0.03540502 0.06731378 0.15492529 -0.086673066 0.0040611774
-0.018833859 0.00819331 0.052103333 -0.016075421 0.09604103 0.020818425 -0.102234006 0.047102556

read_encoder.block2.0.bias f4 [128]
00000000: 999a b63d dafc 12bd cab4 5f3d 0841 8c3d
00000010: 78fe f33d 8dbc e5ba 3c33 9dbc 0cd9 a23c
00000020: c759 243c 5260 2e3d 9e3a 4cbd 98f4 e23d
00000030: b4b0 f13c c522 363d 03a1 6bbc d397 bdbb
00000040: 2cf2 0b3d 33f3 81bd 880e 593d 4b7e eb3d
00000050: f693 60bd 3e70 bbbb c67f 51bd 0521 0ebc
00000060: d0f7 913b bba6 7fbd 5b59 e93d 32fd b33d
00000070: a057 fb3c 25b2 3a3d f826 82bd 7d1f b53d
00000080: 47bf 37bd 761c 38bc fc8e 423b 3389 f9bc
00000090: f618 463d 3cde d23d 2fa4 943d f599 2abd
000000a0: fa83 09bd c6c8 2fbc 753f bbbc dc9d c23c
000000b0: 6cee 133d 20d4 d93d 68e3 af3d 4008 4abd
000000c0: 97f7 223d 1d1f c5bd 2cf6 233d 5885 5f3d
000000d0: d28b 203c 1b2b 8ebd 0f52 03bc 5219 873d
000000e0: df6f 2dbd 7f09 793d 1b76 183c 519b a23d
000000f0: 44c3 ff3c 2d1b bc3d bb47 30bd 4ff2 03bd
00000100: a45f a4bc 53a3 a73d b795 19bc 242c 133d
00000110: b6bb d2bc fea0 42bb be1c d43d 4f4a e3bd
00000120: 7a25 2a3d d73b 8cbd 052a 673d fd27 75bc
00000130: 094e c6bc 5cd4 ce3c a688 0d3d 0e86 86bb
00000140: 6264 103d 42f2 3b3d 7899 04bd 501b a33d
00000150: 99fb 61bd 3857 4c3d b39a 2c3d 1891 a2bd
00000160: 5cda bfbc 748f 903c 465a bebd 7240 37bb
00000170: 085d 20bd 4c71 a43c 542a 9b3d ed89 5d3d
00000180: d955 063e 3ade 2cbc 22ef 54bc b412 1fbd
00000190: ee09 0b3d 7efe c03d 6023 bcb9 e1a4 02bd
000001a0: 4ec8 953d d569 c03c 5fb0 a23b 8860 663d
000001b0: e531 cc3d 93df 293d b6ed 9ebd 2a74 773d
000001c0: afd6 be3d 1686 ca3d 5d8d e2bd 5ca5 c83d
000001d0: 85bc b1bc ec12 4dbd e2f2 f0bc 028b 50bd
000001e0: 0528 993b bb4e acba 48eb 133b ee51 af3d
000001f0: 4dbf 05bd 6cd3 923d c297 95bd 7e0c 8d3d
0.08916206 -0.03588567 0.054615773 0.06848341 0.119137704 -0.0017527506 -0.01918947 0.019878887
0.01003117 0.042572327 -0.04986059 0.11081809 0.029503204 0.044466753 -0.01438165 -0.005785921
0.0341665 -0.06345215 0.052992374 0.11498698 -0.054828607 -0.0057201674 -0.051147245 -0.008674865
0.0044545904 -0.062414866 0.11393996 0.087885275 0.030681431 0.045580048 -0.06355089 0.088438965
-0.04486015 -0.011237254 0.0029687276 -0.03046093 0.04836365 0.10296294 0.07257878 -0.04165073
-0.03357313 -0.01072902 -0.022857407 0.023756914 0.03611605 0.10636163 0.08588296 -0.049324274
0.0397869 -0.09625075 0.04002969 0.054570526 0.009798961 -0.069418155 -0.00801517 0.06596626
-0.042343017 0.06080007 0.009305502 0.079397805 0.03122104 0.09184871 -0.043037158 -0.032213505
-0.020065136 0.081854485 -0.009374074 0.035930768 -0.025724273 -0.002969801 0.10357045 -0.110981576
0.041539647 -0.06847351 0.056436557 -0.014963147 -0.024207132 0.025247745 0.034554146 -0.004105336
0.035251983 0.045885332 -0.03237292 0.07964194 -0.055171583 0.049887866 0.04213972 -0.07937831
-0.023419552 0.017646529 -0.09294562 -0.0027961996 -0.03915122 0.020073555 0.07576433 0.054086614
0.13118686 -0.01055103 -0.012996467 -0.038836196 0.033945017 0.094235405 -0.0003588451 -0.031895522
0.07313596 0.023487965 0.0049648727 0.056244403 0.09970454 0.041472983 -0.077601835 0.060413517
0.093182914 0.09888856 -0.11062119 0.09797165 -0.021696338 -0.050066873 -0.02941269 -0.05091382
0.00467396 -0.0013146022 0.0022570658 0.08560549 -0.03265314 0.07169232 -0.07304336 0.06887148

read_encoder.block2.1.weight f4 [128]
00000000: ff67 753f 8d6b 743f d998 7f3f d2c7 863f
00000010: 186b 5c3f a09a 6a3f 04c1 6d3f 8378 653f
00000020: 6788 763f b6db 7c3f dbb4 8b3f f2a6 5d3f
00000030: 387b 583f 9146 903f 0aee 6c3f 7693 763f
00000040: d822 6f3f a166 7c3f 64be 5d3f 3f44 763f
00000050: cd6e 873f 55b3 673f 901c 923f 5db4 823f
00000060: af40 573f 123b 873f b4e1 7a3f 9de5 6a3f
00000070: ab77 773f 74de 663f 250d 793f 9fd6 573f
00000080: 523f 773f c4d8 813f ff7e 6b3f fe3f 823f
00000090: 75ff 6f3f f3c3 6f3f bc72 6f3f 7d37 823f
000000a0: 9d51 6c3f bbd8 803f 59ba 843f f651 603f
000000b0: df0f 833f 31c9 773f 4b1c 793f 8d67 5d3f
000000c0: 7b32 7a3f f293 763f 1a5d 6e3f 3e7c 793f
000000d0: 0397 8b3f e0fe 9a3f b029 4c3f b3f2 693f
000000e0: 2d18 663f be98 4b3f c5b0 853f 7673 7e3f
000000f0: e946 6b3f adbd 683f 7fd1 583f 69fc 833f
00000100: 81e4 6b3f 171f 6a3f 00ca 923f 17ea 843f
00000110: b2d3 763f acc5 8f3f 903e 733f 85c5 813f
00000120: 4784 713f b5f3 713f 6925 8c3f 817c 7d3f
00000130: cf5e 553f 7d29 753f 86b5 803f 825f 873f
00000140: 6e27 843f e546 373f 5794 753f 997b 843f
00000150: baca 973f 44f5 813f ae04 723f ac71 763f
00000160: 7f8a 773f 1ba4 7f3f 9270 7f3f 5a1b 853f
00000170: 8886 6f3f 229d 7f3f 3bdd 603f 08a3 763f
00000180: 46db 7f3f 18de 8f3f df38 703f 374a 813f
00000190: f6a9 9d3f a074 673f 30be 863f 75f3 883f
000001a0: 42a0 863f 90d3 6c3f 7f24 753f 259c 7f3f
000001b0: ffeb 773f 854d 8e3f cf3e 813f fc60 6b3f
000001c0: 6668 813f f211 5e3f f506 8b3f 5ba2 683f
000001d0: 4992 8e3f d901 8b3f bf2a 5f3f de0e 823f
000001e0: 522b 8d3f 4014 6d3f bbe4 963f a605 773f
000001f0: 63a4 933f 4861 823f 7baf 7b3f 2df6 673f
0.9586181 0.9547661 0.998426 1.052973 0.8610091 0.9164219 0.92872643 0.8963701
0.96301883 0.9877275 1.0914568 0.86582863 0.84563017 1.1271535 0.9255072 0.9631876
0.9341254 0.985941 0.8661864 0.96197885 1.0580689 0.90508014 1.1414967 1.0211293
0.84083074 1.0564902 0.98000646 0.9175661 0.96666974 0.90183187 0.9728568 0.8431186
0.96580994 1.0144277 0.91990656 1.0175779 0.9374917 0.9365837 0.93534446 1.0173184
0.9231203 1.0066141 1.0369369 0.8762506 1.0239218 0.9679137 0.97308797 0.8648613
0.9773328 0.96319497 0.9311081 0.97455204 1.090546 1.2109032 0.7975111 0.91385955
0.8988064 0.7952994 1.0444571 0.9939493 0.91905075 0.9091442 0.84694666 1.0311404
0.92145544 0.9145369 1.1467896 1.0383939 0.9641677 1.12322 0.9501734 1.0138403
0.94342464 0.9451249 1.0948917 0.990181 0.8334779 0.9576643 1.0055397 1.0576022
1.0324533 0.7159255 0.95929474 1.0350219 1.1858742 1.0152974 0.9453839 0.962672
0.96695703 0.9985978 0.99781144 1.0398972 0.93564653 0.9984914 0.8783757 0.96342516
0.9994396 1.1239653 0.9383678 1.0100774 1.2317493 0.9041233 1.0526791 1.0699297
1.0517657 0.9251032 0.95758814 0.9984763 0.96844476 1.1117407 1.0097293 0.9194486
1.0109985 0.8674613 1.0861498 0.90872735 1.1138393 1.0859939 0.871746 1.0160787
1.1028845 0.92609024 1.1788553 0.96492994 1.1534542 1.0185938 0.98314637 0.9061001

read_encoder.block2.1.bias f4 [128]
00000000: dc13 f4bc 949b a4bd 4744 22be 91f2 5abd
00000010: 10d0 21be 7064 09be 21ee 5fbe e771 fdbd
00000020: c833 39bd 586c 23bd ba87 82bd 77c0 f8bd
00000030: 6d59 49be 8668 e9bd 7ec9 debd a986 c3bd
00000040: e0c5 29be ef98 51bd b180 86be 420a 7dbd
00000050: 20e8 25bd ccbd c2bd d549 a7bd 22b0 92bd
00000060: 8d5d e5bd 9a64 debd 4135 b7bd ab8f bbbd
00000070: aa4d 2bbd c033 fbbd 4a51 9ebd 1195 4cbe
00000080: 0781 22bd af6c 51be ac36 91bd 0d62 98bd
00000090: 9056 cbbd 13fc f7bd 7abc 8bbd 187e 14be
000000a0: 05e1 adbd 718f 60bd 09d7 4fbd 7323 00be
000000b0: e4a1 95bd e7fd aabd 31ef 8bbd 8769 babd
000000c0: 4a40 bcbd bd82 ddbd 2399 cdbd d1ce b6bd
000000d0: 4d4a 87bd 84dc 54bd 5fce 2dbe ec4c 68be
000000e0: f3da 20be 9fd4 86be bb74 c6bd 11cf 86bd
000000f0: 1cf7 ebbd 8c64 fabd 44d1 e3bd 7210 babd
00000100: 4e21 36be 8131 31be f6af c2bd 2097 6dbd
00000110: f5f7 f0bd 1693 55bd 8c46 84bd 263b 98bd
00000120: d533 eebd f462 2cbe f191 69bc 590d ddbd
00000130: 614a 6ebe 514f 47bd 8c0b 0ebd 7ce3 bdbd
00000140: c9d1 37bd 52e9 51be a533 02be 9fd4 44be
00000150: 578d 80bd c85b e8bd 669f afbd e1ea b2bd
00000160: d74a 13bd 6154 dabd b6d7 18be 5fbc 8ebd
00000170: 0ec1 d3bd 92eb 25be 661f 2bbe 22dc 5cbd
00000180: 8aff 0ebd cea7 0cbd 6fa7 d2bd 1700 3fbd
00000190: f34e b6bc ce72 a2bd 5249 57bd a07a 1cbd
000001a0: 8020 7fbd 6b21 10bd d4fc c3bd 9b2c c3bd
000001b0: 1db1 2bbd 8c3d 60bd 3ea5 21bd 4b70 85bd
000001c0: 7fe8 39bd 1cdf 3fbe 44cf d7bd 7ef4 87bd
000001d0: 1ee5 6fbd 3aec e0bc c618 d6bd c197 55bd
000001e0: ca82 8ebd 27ee 3bbe d363 25bc 0154 15bd
000001f0: a5f9 57bd f8aa ffbd 0322 2fbe f3fe 00be
-0.029794626 -0.08037487 -0.15846358 -0.053453986 -0.15802026 -0.1341722 -0.21868183 -0.12375241
-0.045215398 -0.039898247 -0.06373544 -0.12146085 -0.1966302 -0.113968894 -0.10878275 -0.09547169
-0.1657939 -0.05117124 -0.2627006 -0.06177736 -0.040504575 -0.09508857 -0.08168379 -0.07162501
-0.11199484 -0.10859032 -0.08945704 -0.09158262 -0.041822113 -0.1226573 -0.077303484 -0.1997874
-0.03967383 -0.20451616 -0.07090506 -0.07440577 -0.0992862 -0.12108626 -0.068230584 -0.14501226
-0.08490185 -0.054824296 -0.050742183 -0.12513523 -0.07306269 -0.08349209 -0.068327315 -0.09102159
-0.0919195 -0.10815952 -0.10038974 -0.08926166 -0.066059686 -0.051968113 -0.16973256 -0.22685593
-0.15708522 -0.26334092 -0.09690233 -0.065824635 -0.11521742 -0.12226209 -0.111238986 -0.09085168
-0.17786142 -0.1730404 -0.09506218 -0.058005452 -0.11766044 -0.052142225 -0.06458768 -0.07433157
-0.1163098 -0.16834623 -0.014255987 -0.107935615 -0.23270561 -0.048659626 -0.03467898 -0.09271905
-0.0448778 -0.20499161 -0.12715013 -0.19221734 -0.062769584 -0.11345631 -0.08575325 -0.08736206
-0.035960045 -0.10660625 -0.14926037 -0.06969523 -0.10339557 -0.16203144 -0.16711196 -0.053920873
-0.03491167 -0.03433972 -0.10285842 -0.046630945 -0.022254443 -0.079320535 -0.052560158 -0.03820288
-0.062286854 -0.03518812 -0.095697075 -0.09529992 -0.041916955 -0.054746196 -0.039464228 -0.06515559
-0.04538774 -0.18737453 -0.1053758 -0.0663843 -0.058568113 -0.027456392 -0.10453944 -0.052146677
-0.0695854 -0.18352567 -0.010094601 -0.036457065 -0.052728314 -0.124837816 -0.17102818 -0.12597255

read_encoder.block3.0.weight f4 [128, 128]
00000000: c91c 9fbd d10c 1e3d e9e4 143d 0802 4d3d
00000010: 504c 97bc e177 acbd 3cb5 963c 6daa 7ebd
00000020: 5ea9 063d 0319 f33c 71f5 63bd 601d 923d
00000030: 65f7 763c f553 523e 6ace ae3d 838a 603d
00000040: 66c8 cf3d cfe3 d8bc 92ff 1a3e da76 f73c
00000050: 3ef5 1f3e d79f 043e 7ae2 d73d ab33 d3bd
00000060: 4dd3 9a3d 96be 363d 1e40 993d 74df 07bc
00000070: aa60 5d3c 5621 083e 55dc 46bd e73c 583d
00000080: ca22 76be 4c8f 313e ce0f 49bd 9022 8ebd
00000090: a756 57bd be2e 97bd 6184 0e3d 34e1 623d
000000a0: 4ae2 0d3e 74f0 d63c 181f 2cbc d3ec 9037
000000b0: c738 7abd 872d 933c 35ff a3bd a357 903d
000000c0: 6dea b5bd e44c 403d 62ec 0f3d a63a 843c
000000d0: 45fd 223c f071 5bbd 071b 553d 8b7d c93d
000000e0: 73aa 8e3d f84f 653d f3c7 f33c 8ba2 27bd
000000f0: 23c7 d5bd b043 eb3d 8ac5 883c 12c2 f1bc
00000100: d41a 2cbe 96bd 953c e08e ca3c 3c62 863d
00000110: 199b 31bd daa7 22bc e03c 2fbd 766a 013e
00000120: a1b4 c23d c1db 483d 6576 e2bc 09f2 673d
00000130: e156 22be bf97 f4bd 12ae 083e d8e7 da3d
00000140: 5bd7 62bc ae00 9dbb 064f d3bd c94b 5fbd
00000150: 10e5 90bc 153d e8bc 4d39 c93c 052e 293d
00000160: 7837 98bd 84a2 243e e4dd fbbd 06ac e93c
00000170: 4b1f 01bd ecc6 403d b376 20bd 2ad7 c0b9
00000180: af7f 343e e298 073e e11a af3d cbee 683d
00000190: 3046 133c c32e 9b3c 475c d73d f175 11be
000001a0: da1f c93d d674 743d 0fa5 8e3d 0ec8 303e
000001b0: 43fa 2dbd 7394 3fbe 95d2 313e 6b76 d6bd
000001c0: ffde bbbd c5a2 4c3d beb2 3a3d ee1f b5bb
000001d0: 88ec 4e3d 3e81 9e3d 17b0 81bd 409a 983d
000001e0: 93d8 a43c 718f da3d 72d6 523d eefc 9dbd
000001f0: 7093 163e 9129 08bd 6b9f 47bd 78da 9cb9
00000200: c874 a63c 6469 f13b 1118 79b9 fad1 13be
00000210: 50fa b2ba a653 ca3d 7602 6abc 50c5 263c
00000220: 3641 0dbe 7d4b 0dbd 7dc9 733b baa5 023d
00000230: e79e 0f3d 2e5f e73c a776 ef3b 644b 7ebd
00000240: 4acc 2d3d 76fa 46bc 2f17 b13d e1b0 83bd
00000250: 982b 813d 0971 76bc f0ec b63c 292f 923d
00000260: cb32 54bd 41ab db3d 8242 22bb b5f9 a13c
00000270: b8b6 a9bd d55c 053d 0e51 853b c209 d73d
00000280: f646 5b3d ccd5 cf3d 98bb 5abd 055c 28bc
00000290: 61ef af3d fd55 f2bc c1d9 6a3c b982 0f3d
000002a0: 4a47 a3bd 3dda 173d 186d 2f3d c774 d1bb
000002b0: a2a7 dcbc ea5e 9cbb efaa 5dbd 3d15 443c
000002c0: 692f d13d 82a8 a6bb b728 363d 8931 22bd
000002d0: e961 043d 1ea1 6c3d 2ec7 99bb d6f3 cb3a
000002e0: b23a 38bd a0c6 82bc eb97 b43d 9423 c73d
000002f0: 0dac 263c d22f 803d 7629 bebc 6264 bcbd
00000300: 3245 b13c 71b0 89bc cb46 d5bd 2b5a 903c
00000310: ba23 8b3c c9dd ac3b 7956 afbc f0c3 3e3d
00000320: b55c 02bb 7cc6 cc3d a2ed c93d 5c6a 5abd
00000330: fad3 0f3d 7593 063d 674a 4d3d c6ec ee3c
00000340: 081b 133c d403 b93a 4490 f6bd ec35 5cbd
00000350: fc94 31bd 9d3c 613d 780d 683d 9b05 103d
00000360: 15b8 883d 064c 273d 988f cd3d bc6b 0a3d
00000370: 8669 46bd 0205 e2bc 245d 97bd c64a 163b
00000380: f7eb 11bd 4141 b43d 4541 783d 6cb3 d53c
00000390: f46d 83bc 59db 8cbd 5427 993c 62aa 19bd
000003a0: 0c07 1a3d fa93 903d 8369 a63c 3d3c 673d
000003b0: cfcd 92bd 8d14 2bbe 5e73 b43a 12fb fbbc
000003c0: 49fc 373d 1e53 473d 0674 bc3d 4e75 103a
000003d0: 90e1 c33d 3d7f 003e af0c e0bd 5d65 163c
000003e0: 3351 86bc 7221 10b9 afd3 a0bc 6c9d 7dbd
000003f0: 7874 b1bc 725d 3bbd 163f 823c f00e f33c
-0.07769162 0.03858644 0.03635112 0.050050765 -0.018469006 -0.084213026 0.018396966 -0.06217425
0.032876365 0.029675012 -0.055653993 0.07134509 0.015073632 0.2053984 0.08535464 0.054819595
0.10145645 -0.026475815 0.15136555 0.03020804 0.15620896 0.12951599 0.10541244 -0.10312589
0.07559834 0.04461535 0.074829325 -0.0082930215 0.013511816 0.13293967 -0.04854997 0.052792456
-0.24036708 0.1733982 -0.04908734 -0.06940186 -0.052572872 -0.07381962 0.034794215 0.05539055
0.13855854 0.026237704 -0.01050546 1.7276418e-05 -0.061089303 0.017966045 -0.08007661 0.070479654
-0.08882604 0.04694833 0.03513754 0.016141247 0.0099480795 -0.053575456 0.05202773 0.098383985
0.06966104 0.055984467 0.02975843 -0.040926497 -0.10438373 0.1148752 0.016695756 -0.029511485
-0.16807109 0.018278878 0.024726331 0.065617055 -0.043360803 -0.009927714 -0.042782664 0.12638268
0.095071085 0.0490377 -0.027644346 0.056627307 -0.15853454 -0.11943006 0.13347653 0.10688752
-0.01384529 -0.004791341 -0.10317807 -0.054515634 -0.01768735 -0.028349439 0.024563456 0.041303653
-0.07432455 0.1607762 -0.12298182 0.02852441 -0.031523984 0.047064707 -0.0391757 -0.00036781403
0.17626832 0.13241914 0.085500486 0.056868356 0.008988902 0.018943196 0.105156474 -0.14205147
0.09820528 0.059681736 0.06965076 0.17263815 -0.042474996 -0.18708973 0.17365487 -0.10471805
-0.091733925 0.049959917 0.045580618 -0.005527488 0.050518543 0.07739495 -0.063324146 0.07451296
0.020122802 0.106718905 0.051474042 -0.07714258 0.1470468 -0.033242766 -0.048736017 -0.0002991741
0.020319358 0.0073673 -0.00023755456 -0.14435568 -0.0013654921 0.09879236 -0.014282813 0.010178879
-0.13794407 -0.03449582 0.0037198954 0.03189633 0.03506365 0.028243627 0.0073078456 -0.062083617
0.042431153 -0.0121446755 0.08647 -0.06430221 0.06307143 -0.015041598 0.022329777 0.07137901
-0.051806252 0.107260235 -0.002475888 0.01977239 -0.08286804 0.032559235 0.0040685004 0.10499908
0.05353447 0.101482004 -0.05340156 -0.010275845 0.0859058 -0.029582018 0.014334143 0.035036776
-0.07972582 0.037073363 0.04282865 -0.006392095 -0.026935402 -0.004772057 -0.054118093 0.011967954
0.10214121 -0.0050860057 0.044472422 -0.03959802 0.032319937 0.05777084 -0.0046929335 0.001556034
-0.04497785 -0.015963852 0.088180386 0.09723583 0.010172856 0.06259121 -0.02321313 -0.09198834
0.02163944 -0.016807767 -0.10413893 0.01762112 0.01698481 0.0052754623 -0.021403538 0.04657358
-0.0019891683 0.099987954 0.09859778 -0.05332409 0.035114266 0.03285547 0.050119784 0.029165637
0.008978613 0.0014115521 -0.12039235 -0.05376236 -0.043354973 0.054989446 0.05665347 0.035161596
0.06675736 0.040843986 0.10037154 0.03379415 -0.04844048 -0.027590279 -0.07390812 0.0022932752
-0.035625424 0.08801509 0.06060912 0.026086532 -0.01604364 -0.06877775 0.01869551 -0.037516005
0.037604377 0.07059474 0.020313984 0.056453932 -0.07168161 -0.16707058 0.0013767292 -0.030759368
0.044918332 0.04866325 0.09201817 0.0005510644 0.09564507 0.12548538 -0.10939919 0.00917944
-0.01639614 -0.0001374537 -0.019632189 -0.061917707 -0.021661982 -0.045743413 0.015899222 0.029670209

read_encoder.block3.0.bias f4 [128]
00000000: 8ebe a7bc 9b91 283d 47ef 2cbd edcd 2bbc
00000010: 0d4e 79bd 3b61 82bd 20fd 6ebd f557 7dbd
00000020: 57b9 1bbc 9147 c1bc 4718 813d e37c 683d
00000030: aa09 8c3d f1ad 98bc 6af3 d63d b629 923c
00000040: 643c 9c3d 79a2 7f3d 4d7a ac3d a90b 6fbd
00000050: c2e2 a53d 189a 47bd dcb2 e73b f967 be3d
00000060: 43b4 5e3d b0fb f03b 5399 acbd 9e11 993d
00000070: cc31 a23b 7a99 3fbd 5981 7fbd 95e4 a1bd
00000080: 7bc6 c03d 718f e1bc 7d58 6f3c 2a60 b93d
00000090: 6447 8abd 2fe9 92bd cf31 4cbd 5601 5fbd
000000a0: eb83 b53c f15a 853d e7b2 60bd d390 f6bc
000000b0: 9c65 6f3d ba4c c73d a27f a4bb 15c0 c4bd
000000c0: 12b7 8abc 1e99 b1bd f48c a13c 06d1 07bd
000000d0: c577 35bd 319f a73d 333f 0f3c 0484 0fbd
000000e0: 0a4e 4f3c c35d 683d ef64 9c3c 93ff 64bc
000000f0: 4a43 22bd e517 7cbd b45c 6c3d 9b03 153d
00000100: c89f a33d 0a6f c73d e231 b83d fe25 2cbd
00000110: 213f cd3c e74d 843d e222 5b3d ec70 923c
00000120: 49aa 773d ac8d 773d db9a 67bd ce1d d1bd
00000130: 12a2 a93d 58e1 a03d 170f 75bd 2c7d cabc
00000140: ad02 153d 1c14 0f3d 4477 01bd bde0 c2bd
00000150: 9d12 b1bc 7c9a 3f3d 1397 8bbc 20c6 b4bc
00000160: 2281 143d 619b 24bd de4e a6bc 3e85 5abd
00000170: af70 9fbd ad45 9e3d 5d3d 10bd b5ec 183d
00000180: 0901 8f3c ab08 03bc 5713 21bd a176 a93d
00000190: c855 64bd 5c20 c13d 2533 1f3d b901 1a3d
000001a0: b382 4dbd 16e3 953d 4637 dfbc 1314 91bc
000001b0: 4792 85bd fbd3 58bd 944f d63c 2379 553d
000001c0: c940 65bd f16c 8a3d 2f5d cd3c cdc3 6ebc
000001d0: 63e3 12bd 5bab 6d3d b0ce 9bbd 9139 98bc
000001e0: 3f64 9d3d 75ab cdbd 0bb0 87bd 431a 3bbc
000001f0: 01e4 d23d 0b10 1e3c ca8f 233d f587 913c
-0.020476606 0.041154485 -0.04222038 -0.010486108 -0.06086545 -0.063662015 -0.058346868 -0.06185146
-0.009504638 -0.023593696 0.06303459 0.056759726 0.06837781 -0.01863763 0.10495646 0.017842155
0.07628706 0.062410805 0.084217645 -0.05836073 0.08099891 -0.04873094 0.0070708822 0.09297175
0.05437113 0.0073542222 -0.08427682 0.07474063 0.004949784 -0.046777226 -0.062379215 -0.07904927
0.09412857 -0.027534219 0.0146085 0.09051545 -0.06751898 -0.071733825 -0.04985219 -0.054444633
0.02215763 0.06511486 -0.054858115 -0.030098354 0.05844651 0.09731431 -0.005020098 -0.09606949
-0.016932998 -0.08671783 0.019720532 -0.033158325 -0.044303674 0.0818466 0.008743095 -0.03503801
0.012652883 0.056730043 0.019091098 -0.013976949 -0.039614953 -0.061546225 0.057705596 0.03638039
0.0798946 0.09737976 0.089938894 -0.04202842 0.025054516 0.06460171 0.053500064 0.017876111
0.06046513 0.060437843 -0.056544166 -0.10210763 0.082828656 0.07855481 -0.059828844 -0.02471789
0.036379505 0.034931287 -0.03160788 -0.09515522 -0.02161532 0.046778187 -0.017039811 -0.02206713
0.036255963 -0.040187243 -0.020301279 -0.053349726 -0.077851646 0.07728133 -0.03521477 0.037335116
0.017456548 -0.007997672 -0.039325085 0.0827458 -0.05574587 0.0943 0.038867135 0.0375993
-0.050173473 0.07318704 -0.027248036 -0.017709767 -0.06522041 -0.052936535 0.026160993 0.052117478
-0.055969987 0.0675906 0.025068847 -0.01457305 -0.035861384 0.058024745 -0.07607782 -0.018582137
0.07685136 -0.100424685 -0.066253744 -0.0114198355 0.102973945 0.00964738 0.03993205 0.017765025

read_encoder.block3.1.weight f4 [128]
00000000: 8d70 803f 5ae5 773f 6786 7b3f 30b0 823f
00000010: 2d41 5c3f 78fd 753f 8e7e 713f 8f13 4f3f
00000020: 7536 863f 7510 823f e617 723f a30d 713f
00000030: 030d 543f 99a9 783f bc9f 603f 4b9b 813f
00000040: bdbe 7a3f 97ef 733f 1c60 443f 2200 7d3f
00000050: cbff 733f 15af 913f 6529 773f 08c9 743f
00000060: 4185 733f 7703 7c3f 9510 883f 95b1 703f
00000070: 1482 7a3f db4a 6d3f 21f3 383f 289f 703f
00000080: 8c55 763f e5ee 853f 5c6e 7b3f 5b22 673f
00000090: aa5f 743f 9db9 6f3f 79eb 7a3f 1b41 703f
000000a0: f11c 7e3f 59b5 5c3f 4b03 773f 1d59 773f
000000b0: f0a1 743f 9c7b 823f 5eb5 773f 5d0f 7a3f
000000c0: 254b 7a3f 10f4 733f b271 3d3f db74 6b3f
000000d0: 327d 843f a9ee 883f a8ed 7b3f 1497 7e3f
000000e0: 0f28 5a3f 940b 653f ba79 573f 7b40 833f
000000f0: 713b 7a3f 4a6c 763f 25e7 793f 7f1c 713f
00000100: f52f 803f 4344 6e3f 4af3 713f 3b31 7f3f
00000110: 7f86 503f 3743 7a3f 9d7a 6f3f 9a26 793f
00000120: 5eb3 813f 3904 923f e399 883f a008 6d3f
00000130: f2da 603f 3857 763f f73d 763f c630 823f
00000140: 8f7c 823f 2a28 773f 5472 793f 929d 7d3f
00000150: 22b1 7e3f 0e2c 6d3f 3647 813f 9737 7e3f
00000160: bd4f 713f dbba 783f 4291 733f 552d 7f3f
00000170: be18 813f e133 743f f298 753f 11f2 8b3f
00000180: bcf8 723f ccb5 843f 7fa3 733f 6dfe 7d3f
00000190: 28d5 693f 310f 783f 048b 8b3f 40b7 983f
000001a0: dca0 743f e058 8f3f 42ad 893f b6c4 663f
000001b0: 9a43 8b3f 8348 813f ee1a 743f 42d3 7b3f
000001c0: 678a 7b3f beab 753f 1012 6f3f 237b 7f3f
000001d0: 118e 6f3f 0f7e 793f f496 503f 652b 5c3f
000001e0: dc34 7e3f c03b 8c3f f4b2 873f afb0 7a3f
000001f0: 091d 883f 1b3a 863f 2c26 763f 4bc6 183f
1.0034348 0.9683434 0.98251957 1.0210018 0.8603695 0.9608989 0.9433373 0.8088922
1.0485369 1.0161272 0.94567716 0.94161433 0.82832354 0.97133785 0.87743735 1.0125517
0.97947294 0.9528746 0.7670915 0.9882833 0.95312184 1.1381556 0.9654754 0.9561925
0.95125204 0.98442787 1.063006 0.9402097 0.97854733 0.92692345 0.72245985 0.93992853
0.96224284 1.046353 0.9821527 0.902868 0.9545847 0.936426 0.9801555 0.93849343
0.9926291 0.86214215 0.964894 0.9662035 0.95559597 1.0193973 0.9676112 0.9767969
0.9777091 0.95294285 0.7400161 0.9197518 1.0350707 1.0697833 0.9840951 0.99449277
0.85217375 0.8947079 0.84170115 1.0254053 0.9774695 0.96258986 0.97618324 0.94184107
1.0014635 0.9307291 0.94511855 0.99684495 0.81455225 0.9775881 0.9354647 0.97324526
1.0132864 1.1407539 1.0671962 0.92591286 0.87834084 0.96226835 0.961883 1.0171134
1.0194262 0.9654566 0.97440076 0.9906856 0.99489033 0.9264535 1.0099857 0.99303573
0.94262296 0.9716012 0.9514352 0.99678546 1.0085676 0.9539166 0.959365 1.0933248
0.9491079 1.036798 0.9517135 0.9921635 0.91340876 0.9689818 1.0901799 1.1930923
0.9555795 1.1198997 1.0755999 0.9014391 1.0880005 1.0100254 0.9535359 0.9836923
0.9825806 0.9596518 0.93386936 0.99797267 0.9357615 0.97457975 0.81480336 0.86003715
0.99299407 1.0955734 1.0601487 0.9792585 1.0633861 1.0486482 0.96151996 0.5967757

read_encoder.block3.1.bias f4 [128]
00000000: dc1c 45bd 2221 14bd d3a2 80bd 98dc b8bc
00000010: e1cd 47be bdf0 16bd 4710 b3bd faeb 77be
00000020: 3af7 91bc 60ad 23bd ec79 f0bc 3398 74bd
00000030: 856c 24be 5919 96bd 0890 efbd 1602 e6bd
00000040: b51f 0fbd b8f3 d2bc 35ff 42be f58b 4fbc
00000050: b5cd 09bd eba0 61bd 9b96 20bd da2d 40bd
00000060: f818 12bd af38 acbc aab8 01be ac71 f3bc
00000070: 5f48 cbbc 5f36 b4bd 136f 92be da4b 5cbd
00000080: dde6 45bd 2c74 1dbd 205b 9abd 74ea bcbd
00000090: 3e60 7ebd 53ec a9bd 1630 79bd 6b8e 7abd
000000a0: ff94 42bd 811d 17be 4f50 dabc 5157 71bd
000000b0: 2b9d 2dbd 3643 86bd ab56 c9bc bc2f 85bd
000000c0: 2041 71bd e197 39bd 03f7 99bd 602c 71bd
000000d0: 6b8c f3bd 4462 01bd aa8b 95bd b3d3 e7bd
000000e0: 948a 11be d7e0 febd f0cd f7bd 0939 e4bc
000000f0: f46a 82bd 0fd2 8ebd 1c13 f4bc 8692 2abd
00000100: 7235 f0bc 32ad 89bd db94 04bd 8da6 7fbd
00000110: 4448 0cbe 21ee 5fbd 6781 4fbd 5dd0 75bd
00000120: f3c8 e9bd b66d 37be 6473 2dbd 197d e9bd
00000130: c61e 1ebe d3af 33bd 8b9e 8abc 91ae 86bd
00000140: 9dc1 b6bd 8561 75bd 56c7 07bd 22ba d3bc
00000150: e0c0 0abd 553f 7abd 6a67 92bd cb61 52bd
00000160: 7602 01bd 10f4 55bd fb55 3abd 97df a9bd
00000170: d210 06be be6d a9bc 74df 26bd ecaf 73bd
00000180: b448 15bd 2b61 05bd 1619 79bd 47ff 85bc
00000190: 12d6 09bd 6c76 b2bc 4e9c 82bc 37f7 c2bd
000001a0: ebdf 81bd e929 41be 08e8 c2bd 499e 6fbd
000001b0: defb 0abd 6060 c6bd 08cb 10bd fa4e 66bc
000001c0: 210e f0bc 415c 9fbd 40f8 1bbd 129e e339
000001d0: dda2 40bd 8cb7 80bd 2cb7 24be 2d33 72bd
000001e0: 099a 86bc ba5f abbd 22b7 a8bc 122d c0bc
000001f0: 1c19 dcbc 40a4 1cbe e960 9ebd 6e36 a4be
-0.048123226 -0.03616441 -0.06281056 -0.022566125 -0.1951213 -0.03685068 -0.08743339 -0.24211112
-0.017818082 -0.039960265 -0.029355012 -0.05971546 -0.16057022 -0.073290534 -0.11697394 -0.112308666
-0.034942348 -0.02575098 -0.19042666 -0.012667646 -0.033643443 -0.055085104 -0.03920613 -0.046918727
-0.035668343 -0.021023123 -0.126681 -0.029717289 -0.024814783 -0.08799433 -0.28600368 -0.053783275
-0.04831587 -0.03844087 -0.07536912 -0.09224406 -0.062103502 -0.082970284 -0.060836874 -0.061170977
-0.047505375 -0.14757349 -0.026649622 -0.058921162 -0.042386215 -0.06555788 -0.02457746 -0.06503245
-0.0589 -0.04531086 -0.07517817 -0.05888021 -0.11892017 -0.031587854 -0.073020294 -0.11319675
-0.1421302 -0.124452285 -0.12099826 -0.027859228 -0.06368056 -0.06973659 -0.029794268 -0.041643642
-0.02932236 -0.067224875 -0.032368522 -0.062414695 -0.13699442 -0.054670457 -0.050660517 -0.060013164
-0.11415281 -0.17912945 -0.042346373 -0.114008136 -0.15441427 -0.04386885 -0.016921302 -0.06576265
-0.089236476 -0.059907455 -0.033149086 -0.025845591 -0.033875346 -0.061095554 -0.07148631 -0.051362794
-0.031496488 -0.05223471 -0.045492154 -0.082945995 -0.13092354 -0.020682212 -0.040740445 -0.059493944
-0.03644629 -0.03256337 -0.06081494 -0.016357077 -0.03365142 -0.021784984 -0.015943673 -0.09519809
-0.06341537 -0.18863644 -0.09516913 -0.058500562 -0.033931606 -0.09686351 -0.035349876 -0.014056915
-0.029303612 -0.07781268 -0.038078547 0.00043414586 -0.04703032 -0.06285009 -0.160855 -0.059130836
-0.016430872 -0.08367868 -0.020595137 -0.023458991 -0.026867442 -0.15297031 -0.07733328 -0.32072777

bag_predictor.weight f4 [1, 128]
00000000: 218b 7fbd f5de efbc 1c30 e13c 3a50 a9bd
00000010: edcd 2cbc a510 e0bc 0f5f cc3b 083f 7abc
00000020: 22a9 9cbd 0aef cebd b5a5 87bd f946 97bc
00000030: 6dba 053c ca58 093d 6610 9dbc 949c a53b
00000040: 360e 5ebd f5e2 24bd b7d6 2bbc c3f9 20bd
00000050: 81ec 2cbd e911 ab3d 9729 0bbd 5a7d 15bd
00000060: 19a2 c9bc 8179 89bd 267a 44bd 2dc0 0bbd
00000070: 0365 06bd 7c59 fd3c 9dbe 1d3c 27f7 a63c
00000080: cfbe 3abd 5130 aebc 2ffa 02bd eddb c33a
00000090: ab48 553d f341 5b3b 38ce 01bd 0bb9 bb3c
000000a0: 70e7 403d 78e1 6bbc a3a4 4bbd 00cd bbbc
000000b0: dbc0 e3bc a9fb 37bd 82c7 05bd e446 063d
000000c0: 04eb af3d bd5b 9e3c 2b0f a0bb b377 90bc
000000d0: d268 80bd 7dcb 46be b7ad 133c 6098 3d3c
000000e0: a730 21bc 46dd a0bc f599 383c 1a9f aabd
000000f0: 3d49 453c 1903 033d 3be6 87bd cf4b 41bd
00000100: 3d58 19bd c1a0 c5bc ed22 8abd fdd9 903d
00000110: 49f5 f9bb 1b7e 15be c5a8 c5bc 0879 e93d
00000120: d56c 913c 7698 543d 317d d4bd 63b4 32bc
00000130: 5fcd 1cbb ccfd 02bd fa2a 57bd 04fe bb3d
00000140: 2152 8d3d b0c2 b7bc 983c 11bd 1488 323d
00000150: 8bb8 a6bd 2cef cb3c 9ee0 1d3d 3db2 fe3c
00000160: b26f afbd e3b2 823d 8e8a 8d3d a8bc 553d
00000170: 9fbf 873c e536 71bd ddd0 ca3c 49a7 a3bd
00000180: 3071 a0bd 2a51 e4bd e3fa ee3c ab88 95bd
00000190: a2c9 a5bd ee37 53bd d930 e7bd 61b6 edbd
000001a0: 6bc0 e0bc dfcb 8ebd eb81 293d a6bf 9d3d
000001b0: 915d 91bd 5a9b 063e b495 8b3d f1ac 3abd
000001c0: 8d21 a1bd 98dd 8ebc 2689 303d f704 16bd
000001d0: 8d6c 53bd 5399 84bd 65f4 f3bb a2f2 533c
000001e0: de00 62bd b257 383d 5ffd e4bd 937c 5bbd
000001f0: 01f8 e8bd 5b48 df3c fc00 943c d5e7 32bb
-0.062388543 -0.029281119 0.02748876 -0.08267255 -0.010547143 -0.027351687 0.006236918 -0.015273817
-0.07649447 -0.10104187 -0.06623403 -0.01846646 0.008162123 0.03353194 -0.019172858 0.005054066
-0.05421277 -0.040255506 -0.010488204 -0.03930069 -0.042217735 0.083530255 -0.03397521 -0.036496498
-0.024613427 -0.06712628 -0.047968052 -0.03411882 -0.032811176 0.030926459 0.009627965 0.020381523
-0.045592126 -0.021263273 -0.031976875 0.0014942862 0.052071255 0.0033456057 -0.031690806 0.022915384
0.047095716 -0.014397018 -0.049717557 -0.0229249 -0.027801922 -0.044917736 -0.03266097 0.03278245
0.085897475 0.019330854 -0.0048846207 -0.017635202 -0.06269993 -0.19413562 0.009013585 0.011571974
-0.00983826 -0.019636761 0.011267175 -0.083311275 0.012041387 0.031985376 -0.0663571 -0.047191437
-0.037437666 -0.024124505 -0.06744943 0.07072828 -0.007628117 -0.14598887 -0.024128327 0.11400038
0.01775209 0.05190321 -0.10375441 -0.010907265 -0.0023926122 -0.03198032 -0.05253122 0.09179309
0.069004305 -0.022431701 -0.035458177 0.043586805 -0.081406675 0.02489432 0.03854429 0.03109085
-0.08566226 0.06381776 0.06911193 0.05218187 0.016570864 -0.058890242 0.024757797 -0.079908915
-0.07834089 -0.11148293 0.029172366 -0.07301458 -0.08095099 -0.05156701 -0.11288614 -0.11607052
-0.027435502 -0.06972479 0.041383665 0.0770257 -0.070979245 0.131452 0.06815663 -0.045575086
-0.078677274 -0.017439649 0.043099545 -0.03662583 -0.051617194 -0.06474557 -0.0074449056 0.012936266
-0.05517661 0.045005508 -0.11181139 -0.0535856 -0.11375428 0.027256181 0.018066876 -0.0027298827
