m6aReplica/2d_432_with_delta/Models/epoch37_rocauc0.898_valpr0.407_valscore1.305.pth (torch, 153757 bytes, 13 tensors)

read_encoder.block1.0.weight f4 [128, 21]
000000 15 8e 36 3f 90 98 de 3e ee db 2b bd 1f f6 e5 3f
       0.7131055 0.4347577 -0.04195779 1.7965735
000010 b6 45 15 3f df f8 80 3d db 33 0e bf bb 64 52 3f
       0.58309495 0.062974684 -0.55547875 0.8218495
000020 4c 6d 86 3e 08 8b 29 40 62 d2 b9 c0 33 a1 a9 3e
       0.26255262 2.6491108 -5.8069315 0.33130798
000030 24 a3 15 3e 5d 99 f1 3d 94 98 a5 3e 15 d9 d4 bc
       0.14613014 0.1179683 0.3234297 -0.025982419
000040 bb ef ca 3c 88 a0 ea bd 61 8f 43 bd 62 5d 26 3e
       0.024772516 -0.114564 -0.04774416 0.1624656
000050 19 a3 c0 3c a8 4b 6a 3d 06 0a d6 be a2 be 31 3e
       0.023515271 0.057201058 -0.41804522 0.17357877
000060 ad 3a d3 be b6 15 f9 be a2 c2 05 bd 65 7e 45 3f
       -0.41255704 -0.48649377 -0.03265632 0.7714599
000070 49 56 b4 be 86 12 67 be 08 76 95 bf d0 4e 65 40
       -0.3522208 -0.2256566 -1.1676645 3.5829353
000080 ba 9a 3b 3d 92 dc 9b 3e 0d a6 95 bd a6 50 d3 bc
       0.045801856 0.3044172 -0.07307062 -0.025795292
000090 f6 4e da 3d 99 bb be 3e 43 f6 33 3e 49 4f c8 bd
       0.10659592 0.372525 0.1757441 -0.097807474
0000a0 cd 65 0f 3e 28 09 25 be 76 d9 e8 be 19 92 8c 3e
       0.14003678 -0.16116774 -0.4547841 0.27455214
0000b0 f9 b4 2e 3e c7 fe 49 bf 5e 73 ec 3e b1 da a8 3d
       0.17061223 -0.78904384 0.46181768 0.08244837
0000c0 59 17 86 bf 98 bc e9 3e dc 4d 4a be c3 19 ae be
       -1.0475875 0.45651698 -0.19756263 -0.3400403
0000d0 e8 6e a6 bf 62 a2 7e 3f 2d 5b 88 3e 60 56 3b 3e
       -1.3002596 0.99466527 0.26632062 0.18294668
0000e0 e9 47 1e bd c4 c7 91 bd 5d f8 43 3d d0 f3 4e be
       -0.038642798 -0.071181804 0.04784428 -0.20210195
0000f0 73 58 cd 3d 47 c8 97 be 38 3c 92 3e f7 43 40 3f
       0.10026636 -0.29644987 0.28561568 0.75103706
000100 ec b9 27 ba 04 c7 9c bc 1a 0a c0 3f 90 88 2e be
       -0.0006398249 -0.019137867 1.5003083 -0.17044282
000110 86 1f db bd 26 6c bb 3e 61 5a 54 3f 12 f0 10 3e
       -0.10699372 0.36605948 0.8295041 0.1415408
000120 f7 1c 93 3f 35 72 27 c0 97 88 09 be f2 35 95 3f
       1.1493214 -2.6163456 -0.13431011 1.1657088
000130 ac cb 39 be d5 8e b6 3e 4b 23 b0 bd 78 e5 09 3f
       -0.18144101 0.35655847 -0.086004816 0.53865767
000140 0d af ab be b6 d9 4d be 94 38 bc 3e b7 07 ed 3e
       -0.3353199 -0.20102581 0.36761916 0.46294948
000150 16 e9 07 bc f8 e7 15 bf 66 63 0c 3e 4f 7c c6 bd
       -0.008295318 -0.5855708 0.13709792 -0.09691679
000160 82 50 4c bf 5e 30 b0 3d 7d 46 c4 3c a2 be 4b bf
       -0.79810345 0.08602975 0.023959393 -0.7958776
000170 96 da 17 3e ad 39 f1 3e 7d aa 24 be 6e 7d bc be
       0.14829478 0.47114316 -0.16080661 -0.36814445
000180 a0 37 02 3f d3 ca 1e be e8 ca b4 bd b6 69 6a bd
       0.50866127 -0.15507059 -0.08827764 -0.05722972
000190 65 35 12 be 28 24 8d bd 14 12 ff bd da 23 d7 bd
       -0.14278181 -0.06891662 -0.1245462 -0.10504885
0001a0 29 e8 8a 3e 97 e0 1d bf ef 69 80 3d b2 59 c6 bd
       0.2713025 -0.6167082 0.06270205 -0.09685077
0001b0 d3 1f c6 bf dd bc a7 3e 91 6d 88 3e 9b ad 9e bf
       -1.5478462 0.3276128 0.26646093 -1.239673
0001c0 59 0f 3b 3f ff cf 61 be 9d b4 31 c0 17 b9 00 3f
       0.73070294 -0.22052 -2.7766488 0.50282425
0001d0 99 bd 60 3f eb e5 2a be 0f 49 9a 3e 2a f5 ae be
       0.87789303 -0.16689269 0.30133864 -0.3417142
0001e0 da 80 ab bd ba 67 9c bd 29 0e 67 bd 5b b5 3c be
       -0.08374186 -0.07636972 -0.05640999 -0.18428557
0001f0 1c 02 92 bc 3e d1 84 3a eb 99 7f be 40 a4 d2 be
       -0.017823271 0.001013316 -0.24961059 -0.41140938
000200 fd d7 55 3e 7d 84 10 bf 3f b0 91 be 1a 84 bf 3d
       0.20883174 -0.5645216 -0.28454778 0.09351368
000210 f3 89 2e be 92 34 c8 be 53 38 f1 bc a8 f0 86 bf
       -0.17044811 -0.39102608 -0.029445803 -1.0542192
000220 a3 60 b5 3f d3 71 46 bf 87 46 44 3e 1b 73 92 bd
       1.4170116 -0.7751743 0.19167529 -0.07150861
000230 da ef 98 3d a0 2c d0 bd 86 f7 4c 3e 3c ad 5c be
       0.07467623 -0.101647615 0.20016298 -0.21550459
000240 c2 19 e0 bd bb 13 ac 3d 00 f8 ab 3e ec 48 87 be
       -0.10942413 0.08402201 0.33587646 -0.26422822
000250 cf eb 0c 3f 9e 46 3e 3d 2d 66 32 bf 51 00 b4 bd
       0.55047315 0.046454065 -0.6968716 -0.08789123
000260 63 da 37 3e eb 7f 80 bf 74 a5 6e 3e 50 fa 52 3d
       0.17954402 -1.0039037 0.23305303 0.051508248
000270 3e a9 42 bf 0f c8 c4 bd cc 54 38 bf e5 d5 a7 bd
       -0.76039493 -0.09608471 -0.7200439 -0.08195094
000280 fa a3 12 bd d1 eb 00 be 30 0f 00 3d 14 9f b3 bd
       -0.03580091 -0.12589957 0.031264484 -0.08770576
000290 37 ed 50 bc bd 5e ad bc 4b d4 2d bc 69 02 a1 3e
       -0.012751869 -0.021163339 -0.010609697 0.3144715
0002a0 cd 31 26 be 95 f6 b9 3e 32 53 f2 bb 5f a1 c4 be
       -0.16229935 0.3632094 -0.0073951716 -0.38404366
0002b0 80 f1 aa 3e 87 e0 10 3d ee 6c f6 3e 0b ba 06 bf
       0.33387375 0.035370376 0.48129982 -0.5262763
0002c0 69 70 ba bd 91 3e 29 bf c4 c0 1d 40 4c 31 58 bf
       -0.09103472 -0.66111094 2.4648905 -0.8445022
0002d0 2a 0b 71 bf d4 2c a8 bd 94 33 e1 bd df 7b f7 bd
       -0.9415766 -0.08211675 -0.10996166 -0.120841734
0002e0 0e 46 2a 3e 3c 74 98 3e 91 29 4e bd 30 cb 2b 3e
       0.16628286 0.2977618 -0.05033261 0.16776729
0002f0 b5 96 83 be b6 9f 3d bf b3 a8 6d 3e 0a 49 bd bc
       -0.25700918 -0.74071825 0.23208885 -0.023106117
000300 54 4b 31 bf ee 9c 0d 3f d1 55 89 3d e6 69 20 bf
       -0.69255567 0.5531758 0.06705821 -0.6266159
000310 5c 03 b6 3e b6 42 89 3d d1 79 88 3e 9b 77 50 3f
       0.35549438 0.06702177 0.2665544 0.81432503
000320 c4 ea 09 3e 1e ca c4 be f1 21 c7 3f 8e 15 b5 bc
       0.13468462 -0.38435453 1.5557233 -0.022105005
000330 ce b8 0a 3b 8e 8f bb bd eb 22 fd bd c1 aa 01 be
       0.002116728 -0.0915824 -0.12360176 -0.12662794
000340 f8 e9 45 3c 75 97 05 3b 48 8f e0 be 97 76 77 3e
       0.012079708 0.0020384465 -0.43859315 0.24166332
000350 e1 f2 42 be 5b 15 66 bf 8b 05 22 3e 6f 87 66 3e
       -0.19037963 -0.89876336 0.15822427 0.22512601
000360 00 b0 46 bf 41 35 8e 3d c1 b7 ec 3d 04 64 18 bf
       -0.77612305 0.06943751 0.11558486 -0.5952761
000370 a2 ae 95 bd 79 80 bd 3e 9f 0b b8 be 70 ed 9f 3e
       -0.07308699 0.3701208 -0.35946366 0.31235838
000380 6e 07 54 be f7 ea d8 3d 92 63 b6 bd 74 5d 14 be
       -0.20705959 0.10591691 -0.0890571 -0.14488775
000390 6e 9f 06 bd ff 40 39 3d 2e 24 22 3d ee 93 50 3b
       -0.032866888 0.045228 0.039585285 0.0031826454
0003a0 80 02 21 3e 31 61 65 3e 91 05 45 3e e2 88 73 be
       0.1572361 0.22400357 0.19240405 -0.23782685
0003b0 c0 27 a5 3b b1 5d 5c be eb 73 2a bf fe 16 89 be
       0.005040139 -0.21520115 -0.66583127 -0.26775354
0003c0 35 cb 2c 3e 21 4c 6e 3e cc 0f 3e bf 5c f4 50 be
       0.16874392 0.23271228 -0.74242854 -0.20405716
0003d0 a0 e6 c4 be 43 fc c0 be f6 75 ee bb 36 93 2c 3d
       -0.38457203 -0.3769246 -0.0072772456 0.04213258
0003e0 ab d2 29 be 54 ec 99 3e 97 34 5c 3d db 2f d5 bd
       -0.1658427 0.30063117 0.05376109 -0.10409518
0003f0 4c 9e 7b be e3 b8 6f 3e 3a ed ff 3b ad da 7f 3e
       -0.24572104 0.23410372 0.007810262 0.24985762

read_encoder.block1.0.bias f4 [128]
000000 60 9c 6a be b2 72 cf 3e d8 3e 47 be 75 97 85 3e
       -0.22911215 0.40517193 -0.19457567 0.26092115
000010 f1 7e 36 3e f0 70 2e bf e9 09 cd 3e ef f5 07 bb
       0.17821862 -0.6814108 0.40046623 -0.0020745953
000020 3d 09 e4 3e 65 a9 0e bf 42 65 0e bf 74 f9 1b 3e
       0.44538298 -0.55727226 -0.5562326 0.15231878
000030 46 a7 8d bd 74 09 79 3e fd cd 39 3e fe 45 6d 3d
       -0.069166705 0.24320012 0.18144985 0.057928078
000040 d7 bc 83 3e b4 de bd bd 37 06 14 3e a0 33 d7 3d
       0.2573001 -0.09270993 0.14455496 0.105078936
000050 62 89 f8 be 74 bc c5 3d 3d 8e 43 be 55 2d db be
       -0.48542315 0.09655085 -0.19097228 -0.42808023
000060 6d 23 d8 3c 54 91 5b 3e b7 5a 65 3d 55 5f ca 3e
       0.02638408 0.21442157 0.055994716 0.39525858
000070 b3 97 ab be 2f 22 bb 3e 01 28 90 3e 8c 4e d3 3d
       -0.33514175 0.36549518 0.2815552 0.10317716
000080 e9 40 4a be 8a 41 a7 bd f6 e7 8e 3c de ea 66 be
       -0.19751324 -0.081667975 0.017444592 -0.22550532
000090 25 8c 8f 3d 62 41 9b 3e bb 88 b8 3e 78 eb 32 3e
       0.07009152 0.3032332 0.36041817 0.17472637
0000a0 6a f1 90 3d f5 87 7b be 54 b9 42 be e3 27 62 bc
       0.07077296 -0.24563582 -0.1901601 -0.013803455
0000b0 33 14 cb 3e 5b a7 c4 3d 4e 47 6e be 08 52 71 be
       0.39663848 0.09602233 -0.23269388 -0.23566449
0000c0 5d 64 c9 3e 5b b5 1c 3f 0f 9f 9a be bd 99 7d 3e
       0.39334384 0.61214226 -0.30199477 0.24765678
0000d0 21 1a 98 be 5a 77 47 be 10 a3 75 3e 2b 82 c5 3d
       -0.29707435 -0.19479123 0.23987985 0.09643968
0000e0 48 fa 19 3e e6 d6 e8 3e 7e f9 49 bb 07 78 14 3f
       0.15036881 0.45476454 -0.0030818875 0.5799565
0000f0 92 7e 20 bf 15 58 13 be ab b1 b6 3d 07 27 ff 3e
       -0.6269313 -0.1438907 0.08920606 0.49834463
000100 45 ab 38 3f 4b 35 6e 3e da d3 74 3a b3 3f 8c 3e
       0.72136337 0.23262517 0.00093394297 0.2739235
000110 69 2d 35 bd b4 be 86 be 7a 87 54 3e 4a 33 21 3e
       -0.04423276 -0.2631737 0.20754805 0.15742221
000120 5d df 70 bd c7 98 eb 3e 43 b4 60 bd 66 b8 0d 3f
       -0.058806766 0.46014997 -0.05485941 0.55359495
000130 5a dd f2 be 0b 10 43 bf 7b 41 71 ba 84 cf ac 3e
       -0.47434503 -0.76196355 -0.0009203178 0.33752072
000140 b5 eb 84 be 69 a1 1b bf b3 7e ca 3d cf 91 8a be
       -0.2596108 -0.6079317 0.09887447 -0.27064368
000150 db 96 f4 be db dc ca 3c 56 93 74 3d e7 26 59 3e
       -0.47771344 0.024763515 0.059710823 0.21206246
000160 a9 ec a5 be b9 75 9a 3e 65 1d 9f be 3c 8a 18 3e
       -0.3240712 0.3016794 -0.31077114 0.14896482
000170 34 a9 22 3d f7 6f c3 bd 4b ab 5a 3e 5f b4 d3 be
       0.039712146 -0.0954284 0.21354406 -0.4134855
000180 8b 53 cd 3d 6e 18 32 3c 86 7f 22 bf a4 34 03 3f
       0.100257 0.010870082 -0.63475835 0.512522
000190 f8 63 84 3d 09 84 e6 be a7 77 58 be 0a d4 ff be
       0.0646438 -0.4502261 -0.21139394 -0.4996646
0001a0 c3 4d c7 3e 2e 9a 92 be 5b fc f3 3d 1b ed 9d 3e
       0.38926515 -0.28633255 0.11913367 0.3084496
0001b0 f7 2d 92 3d cf 21 2d 3f 00 3f e8 3e f3 94 80 3c
       0.07137673 0.6762971 0.45360565 0.015696025
0001c0 ce f8 83 be d1 8a 48 3e 85 02 14 3f 3a f5 ad be
       -0.2577576 0.19584204 0.57816344 -0.33976156
0001d0 ef 17 bb be ce 21 27 bf 47 d6 9b 3e 9e d4 9e 3e
       -0.36541697 -0.65285957 0.30436918 0.3102159
0001e0 66 55 84 3e e4 63 ad 3e ba 4e a9 be 3e 9d 0f bf
       0.25846404 0.33865273 -0.33067876 -0.5609931
0001f0 93 7a 0a bf 28 cf 28 3e f0 7e a2 3e 87 b3 f8 bd
       -0.54093283 0.16485274 0.3173747 -0.12143617

read_encoder.block1.1.weight f4 [128]
000000 20 51 3d 3f 6f 03 80 3f d5 dd 88 3f 15 e6 df 3f
       0.7395191 1.0001048 1.0692698 1.749209
000010 98 9e 18 3f 9b 63 a0 3f e6 d3 20 3f 98 79 01 3f
       0.59616995 1.2530397 0.6282333 0.5057616
000020 1e db 87 3f 8c f5 8e 3f 88 ec 28 3f 5d 9a 9c 3f
       1.0613744 1.1168685 0.6598592 1.2234608
000030 db bb 77 3f ed 52 39 3f 30 ec cc 3f be b0 ec 3e
       0.9677102 0.7239216 1.6009579 0.46228594
000040 25 39 b8 3f 31 54 d2 3f 25 55 97 3f 15 8d 30 3f
       1.4392439 1.6431943 1.1822859 0.68965274
000050 ca 6e 98 3f 75 a3 1a 40 43 b6 e4 3e a3 9e 56 3f
       1.190881 2.4162266 0.44670305 0.8383581
000060 3d 30 cf 3f d0 87 29 3f 7d cb fe 3e 8c 94 c1 3f
       1.6186596 0.6622286 0.49764624 1.5123458
000070 f1 85 4c 3f ab 31 48 3f 7b 13 a7 3f 8e a5 f0 3e
       0.7989188 0.7820079 1.305282 0.47001308
000080 f0 5a 6f 3f fc 85 a8 3f 20 9d 06 3f 77 42 c7 3f
       0.93498135 1.3165889 0.52583504 1.5567158
000090 08 14 6c 3f f3 59 b1 3f 35 ae 2d 3f e6 00 56 3f
       0.92218065 1.3855575 0.67843944 0.8359512
0000a0 a8 95 94 3f 14 a9 84 3f e6 b4 00 3f 41 b5 5f 3f
       1.1608171 1.0364099 0.5027603 0.87385947
0000b0 eb f1 a7 3f 2a a0 3f 3f 21 25 00 3f bd b3 d5 3f
       1.3120703 0.74853766 0.50056654 1.6695477
0000c0 b5 83 b2 3f ae f8 30 3f d8 4e a3 3f 41 d4 c0 3f
       1.3946444 0.69129455 1.2758436 1.5064775
0000d0 b4 33 1a 3f 45 93 b2 3f ff 36 1a 3f 3e 80 d0 3e
       0.6023514 1.3951193 0.6024017 0.4072284
0000e0 a4 a0 21 3f c7 2a 33 3f f7 2a a4 3f c4 79 92 3f
       0.63135743 0.6998715 1.2825612 1.144341
0000f0 21 20 76 3f 8a 92 5c 3f 57 4c 83 3f c6 4f c1 3f
       0.96142775 0.861611 1.0257672 1.510247
000100 6d 4a ce 3f cb 68 eb 3e 54 a3 d7 3f ae ec fc 3f
       1.6116463 0.45978388 1.6846719 1.9759729
000110 8c 14 ce 3e cb fa aa 3f 2b 79 e7 3e fb dd c3 3f
       0.4025005 1.3357786 0.4520963 1.5302118
000120 75 10 fd 3e d0 c1 b2 3f 52 76 87 3f 80 26 96 3f
       0.49426618 1.3965397 1.0582983 1.1730499
000130 d6 37 8c 3f b0 ea 82 3f 23 f1 95 3f 2b f4 2e 3f
       1.095454 1.0227871 1.1714214 0.6834132
000140 5b e0 51 3f bb 94 38 3f ca 42 cc 3e b3 c9 f2 3e
       0.81982964 0.72101945 0.39894706 0.4741951
000150 20 d5 8f 3f 51 4e 6c 3f c0 80 0f 3f 9a a1 7a 3f
       1.1236916 0.92307 0.5605583 0.97902834
000160 b1 5b 31 3f 7d 8b fb 3e 26 09 ef 3f 16 67 a3 3f
       0.69280535 0.4912986 1.8674667 1.2765834
000170 43 8e 06 3f 81 5f f4 3e 5f 83 46 3f a2 65 07 3f
       0.52560824 0.47729114 0.77544206 0.52889454
000180 71 97 ba 3f d9 79 d1 3f e4 70 66 3f 09 f2 1d 3f
       1.4577466 1.636531 0.9001601 0.6169744
000190 17 7d a2 3f 38 a5 09 3f 3d 6c ef 3e 21 ea 3c 3f
       1.2694424 0.5376773 0.46762267 0.7379475
0001a0 b1 73 d4 3f 33 df 12 3f 7c 11 d8 3e 67 15 d9 3f
       1.6597806 0.57371825 0.4220084 1.6959656
0001b0 87 45 93 3f 64 df f5 3f 4f 13 97 3f 49 a3 0b 3f
       1.1505593 1.9208798 1.1802768 0.5454603
0001c0 95 42 20 3f 13 36 09 3f b3 13 9d 3f c3 aa 8e 3f
       0.62601596 0.53598136 1.2271637 1.1145862
0001d0 d7 c6 06 3f e6 5a d0 3f c1 fb 88 3f 5f 90 a3 3f
       0.52647156 1.627774 1.0701829 1.2778434
0001e0 71 02 66 3f 2a 84 65 3f b7 52 1b 3f 2e c6 34 3f
       0.89847475 0.8965479 0.6067309 0.706149
0001f0 62 5d 9b 3f c9 62 0c 3f c5 83 77 3f 8a 4e 0a 3f
       1.2137873 0.54838234 0.9668544 0.5402609

read_encoder.block1.1.bias f4 [128]
000000 69 ad a4 be 28 dc b1 bd 8c 41 69 be 51 9f 8e bd
       -0.3216355 -0.086845696 -0.2277891 -0.06963981
000010 c7 8b de be af df 33 be 30 a3 c4 be aa df 23 bf
       -0.43466017 -0.17565797 -0.38405752 -0.6401316
000020 eb 84 f8 be 20 12 f8 bd 34 3f a3 be 68 c0 5a be
       -0.48538908 -0.12112832 -0.31884158 -0.2136246
000030 10 57 44 be 3c 99 9f bd 79 db 15 be 7f ba c2 be
       -0.19173837 -0.07792899 -0.14634503 -0.3803291
000040 4a 87 09 be c1 e3 c1 bd 40 37 a1 be 3b 85 c9 be
       -0.13430515 -0.09467269 -0.31487465 -0.3935946
000050 14 30 1e be e7 f8 3f 3c 91 10 fc be 7f 98 c4 bd
       -0.15448028 0.011717058 -0.4923139 -0.09599399
000060 fc 8f ba 3c 34 ad 8f be cf d5 ea be 75 89 0c bf
       0.022773735 -0.2806183 -0.45866248 -0.5489724
000070 2d b4 9c be 9a d0 a9 be 67 03 1a 3e a6 0d d7 be
       -0.30606213 -0.33166963 0.1504036 -0.420026
000080 d7 33 ca be c7 f7 3c be 4c ea cf be 51 84 b5 bc
       -0.39492676 -0.18453895 -0.40608442 -0.02215782
000090 e3 bb 05 bf 5f fb 2c be c8 94 8b be a8 03 23 be
       -0.5223982 -0.16892765 -0.2726195 -0.15919363
0000a0 ce e3 80 be 11 b8 0a be 82 cf c2 be 01 3b 6e be
       -0.251738 -0.13546778 -0.3804894 -0.23264696
0000b0 cc 81 e0 bd 61 2d 04 bf f2 74 05 bf 93 a3 94 be
       -0.10962257 -0.5163174 -0.5213157 -0.29031047
0000c0 aa 3c c3 bc 68 c8 2f be 51 42 a4 bd 85 44 0b be
       -0.023832638 -0.17166293 -0.08020461 -0.13600357
0000d0 e5 f9 96 be dc eb 29 be e1 f0 51 be e1 d9 da be
       -0.2948753 -0.1659388 -0.20502044 -0.42744353
0000e0 21 45 d0 be 6f bd 16 bf c5 e1 10 bf f1 52 59 be
       -0.4067774 -0.588828 -0.56594497 -0.21223046
0000f0 16 c7 6b be 24 a4 14 be ee 14 02 bf ab 6d 03 bf
       -0.23025164 -0.1451574 -0.50813186 -0.51339215
000100 10 bd bc bd 77 a9 27 bf 65 00 38 be 03 42 49 3c
       -0.09215748 -0.6549296 -0.179689 0.012283805
000110 5e 58 01 bf bd 78 48 bd a5 0c eb be c2 f4 51 bd
       -0.5052546 -0.04894327 -0.45908085 -0.05125881
000120 e0 c9 06 bf d6 4b 61 3c 59 b2 26 be 5a f1 d1 3b
       -0.52651787 0.013750991 -0.16278972 0.006406945
000130 10 58 23 be 25 6e 73 be fe 75 15 be 5b e8 9d bc
       -0.15951562 -0.23772486 -0.14595792 -0.019275835
000140 03 0a 1c be 76 86 bb be d6 c9 20 bf ff 34 f2 be
       -0.15238194 -0.36626023 -0.6280798 -0.47306058
000150 90 2d 50 be 95 a2 b4 be 23 c5 b2 be 19 e9 23 be
       -0.2032988 -0.3528029 -0.34916028 -0.16006888
000160 32 9c 5c be df 70 24 be 72 b4 c0 be 18 85 25 3c
       -0.21543959 -0.16058682 -0.3763767 0.010102533
000170 e1 c5 1c bf 34 9b cd be 17 7b b1 be 7c d3 b4 be
       -0.6123944 -0.40157473 -0.34664223 -0.353176
000180 d5 b1 54 bc 5e 0d 58 3c 4b 23 a8 be 38 5b 39 be
       -0.012981852 0.013186781 -0.32839426 -0.18101203
000190 59 40 0e be d2 3f e0 be 71 76 cf be a5 53 83 be
       -0.13891734 -0.4379869 -0.4052005 -0.25649753
0001a0 ea 21 82 be 45 4a ce be 9d f2 87 be a0 bd ed bc
       -0.254165 -0.40291038 -0.26552287 -0.029021084
0001b0 14 70 0a be 1e 45 de 3b 25 aa 10 be d6 50 07 bf
       -0.13519317 0.0067831418 -0.14127405 -0.5285772
0001c0 36 06 62 be 6c f5 02 bf 0a ef bf ba db 21 35 be
       -0.22072682 -0.51155734 -0.0014643383 -0.17688696
0001d0 69 62 c0 be 7c 87 e2 bd e9 a3 97 be 97 e9 37 bf
       -0.3757508 -0.11060998 -0.2961724 -0.71840805
0001e0 9c 51 8b be 13 16 1c be 17 6c 58 be f1 42 86 be
       -0.272107 -0.15242796 -0.21134983 -0.26222947
0001f0 fc 0f e3 bd f6 59 99 be 19 67 12 be b4 63 23 bf
       -0.11087033 -0.29951447 -0.14297141 -0.6382401

read_encoder.block2.0.weight f4 [128, 128]
000000 03 07 39 3e 53 f8 80 bd 90 de 89 3e 62 47 c6 bc
       0.18069081 -0.06297364 0.26927614 -0.02420396
000010 cb f4 93 3d 92 ce 21 3c 3b 41 2b ba 0e ff c8 bc
       0.07224425 0.00987591 -0.00065328524 -0.024535682
000020 0b 8c f9 bd 32 bc 0d 3d 6e be fe bd 1a 3e c0 bd
       -0.12184914 0.034603305 -0.12438665 -0.09386845
000030 91 05 20 3e 49 93 96 bd fe 54 94 3d 7d 64 e5 bd
       0.15627123 -0.07352311 0.072427735 -0.11200807
000040 76 b7 55 be e6 c4 f5 bd 12 ab 5a bd f5 fa e8 3d
       -0.20870766 -0.12000446 -0.0533858 0.11375991
000050 0e e4 b9 3c 9b 3d 33 bf 2f 18 88 3d 9d c5 d5 3d
       0.022691753 -0.7001588 0.06645238 0.10438082
000060 b0 63 3d 3e 55 8a 21 bc 16 d9 c0 3c 8c 64 11 be
       0.18495059 -0.009859641 0.023541015 -0.14198512
000070 86 09 2f 3d ee b3 f2 bb b3 45 58 be 15 fa dc 3d
       0.04273369 -0.007406703 -0.21120338 0.10789887
000080 d6 bc 0a 3e d6 e4 8c 3c 94 bc 04 be e9 da de 3d
       0.13548598 0.017198961 -0.12962562 0.108815975
000090 50 4a 32 3d c1 fb b4 bd aa 51 b3 3d 6b 87 e0 bd
       0.0435279 -0.08837081 0.087558106 -0.10963329
0000a0 d7 95 7c bd 6e 2c 3d be 99 c2 b6 bb e1 7b e3 3d
       -0.061666336 -0.1847398 -0.005577397 0.111076124
0000b0 91 19 bf be 34 df 91 bd 2e 3d 37 3e 57 29 ca 3d
       -0.37324193 -0.07122651 0.17894432 0.09871166
0000c0 f5 2c 66 be 56 19 92 3d ea 7e 87 bd 2b 2d d7 3d
       -0.22478087 0.07133739 -0.06616004 0.10506662
0000d0 62 06 fa 3d 39 f0 6e be cb 86 13 3e b0 24 e5 3d
       0.12208249 -0.23333825 0.14406888 0.11188638
0000e0 1d e1 27 3d da b4 c8 3d 27 9e de bd f1 1e d1 bc
       0.04098617 0.0980012 -0.10870009 -0.02552745
0000f0 3e a9 d0 bd 05 e6 e5 3d 04 15 75 be 80 7a 06 be
       -0.101885304 0.11225513 -0.23933798 -0.13132668
000100 cf 61 72 be 00 37 25 3e e4 3a 98 be 22 26 eb bc
       -0.23670124 0.16134262 -0.2973243 -0.028704707
000110 e6 a8 a8 bb 23 78 f8 bd bc 83 df 3d 37 31 85 be
       -0.0051470874 -0.12132289 0.10913798 -0.2601411
000120 0a f5 2a 3e 52 59 1b 3e 74 0c 48 bd 66 bf 0c be
       0.16695037 0.15170792 -0.04884 -0.13744888
000130 79 86 3d 3c 88 39 aa 3d b6 33 5e 3d c9 c9 3c 3d
       0.011567705 0.083117545 0.054248534 0.046090875
000140 c7 7d ec 3d 80 73 05 3d e4 6f 01 3e 10 f4 20 3d
       0.115474276 0.032580853 0.12640339 0.039295256
000150 4c 31 da bd f9 20 13 3e 26 14 79 bc 7c 7b f9 bd
       -0.10653934 0.14368047 -0.015202558 -0.12181756
000160 02 f6 9a 3d 02 6f 73 bd 27 f2 96 3d 16 d1 03 be
       0.075664535 -0.059432037 0.07370406 -0.12872729
000170 b9 55 e2 bc 68 72 34 3e b0 70 21 3d 03 48 9e bb
       -0.027628766 0.17621768 0.039414108 -0.004830362
000180 44 bf 54 be b1 55 64 3c 95 78 4f 3d 21 58 f2 3d
       -0.20776087 0.013936446 0.050652105 0.118332155
000190 23 f8 82 bc 29 30 1d 3e e1 07 ba 3d 7a cf 8a bd
       -0.015987461 0.15350403 0.09083534 -0.06777854
0001a0 2e 3e b2 3d f4 28 f8 3d 07 60 e1 3d 08 a1 56 3b
       0.08703266 0.12117186 0.11004644 0.003274979
0001b0 02 14 05 be e6 2d 58 bf bb 4e 65 be 1b 8c 71 3e
       -0.12995914 -0.84445035 -0.22393315 0.23588602
0001c0 e3 ce af bb f8 17 28 3d 98 7e b6 3d 28 10 0b bc
       -0.005365239 0.041038483 0.089108646 -0.008487739
0001d0 cd 18 ca 3d 7c 4a d9 bd 0e 55 71 bd 3f ae 20 be
       0.098680116 -0.1060991 -0.058919005 -0.1569147
0001e0 2a ca be 3e 96 03 21 3e b3 c8 91 3d a9 ee 8c bd
       0.37263614 0.15724024 0.071183585 -0.06881458
0001f0 19 ae 36 be 95 c6 52 3e 54 61 ab bd 05 e4 a3 3d
       -0.1783985 0.20583566 -0.08368173 0.08002476
000200 c7 7a de 3c 6e 7c d3 bc b7 c4 3b 3e 37 b0 05 be
       0.027158154 -0.025816169 0.1833676 -0.13055502
000210 16 5a 93 3d 27 13 49 3e ee 3d 47 3e 90 63 7e bc
       0.07194917 0.19636212 0.19457218 -0.015526667
000220 59 3e 96 3c 48 84 53 3e 49 ad 6c bd 42 a4 07 3d
       0.018340277 0.2065593 -0.057782445 0.033115633
000230 ed 6a ca bc 30 6c 80 bc 9b 9a 70 3e 6f 8c c6 3d
       -0.02470919 -0.015676588 0.23496477 0.09694754
000240 42 fd d8 3e d4 1a 2a be d7 0b 99 3e 41 dd 4d 3d
       0.4238072 -0.16611797 0.29891846 0.050259832
000250 d6 dd fb 3d 77 cc 14 be 93 a8 c5 bd 61 4b 8a bd
       0.12298171 -0.14531122 -0.096512936 -0.06752659
000260 d1 94 12 bf 9e 67 90 3b 24 04 17 3d d8 d9 4c be
       -0.57258326 0.0044068834 0.036869183 -0.20004976
000270 f6 67 b8 3d 95 1d c2 3d 3c 72 6b 3d 5f c3 aa bd
       0.09004204 0.094782986 0.05748199 -0.08338045
000280 43 14 ad be 9f 71 a5 3d aa 50 19 3e 6f 8e 23 be
       -0.3380452 0.08078312 0.14972177 -0.15972303
000290 cf 94 68 be 06 58 83 be 97 e6 81 bd 58 84 14 3e
       -0.22713016 -0.25653094 -0.0634281 0.1450361
0002a0 c6 ee 13 3c 6a 01 3d 3e 1e a2 14 3e 7b 8c 10 3e
       0.009029096 0.1845757 0.14514968 0.14116089
0002b0 08 32 4c be 36 f2 da 3d 83 b4 ca bd 3f 8a 8f 3d
       -0.1994096 0.10690729 -0.09897711 0.0700879
0002c0 df da 53 3d 85 c3 92 3a 57 62 3d be 82 ef 1c 3e
       0.051722404 0.0011197185 -0.18494545 0.1532574
0002d0 d4 45 32 bd c9 f0 ab bd 15 1e 30 be a4 6e a0 3d
       -0.043523625 -0.083955355 -0.17198975 0.07833603
0002e0 4a ea 46 3e da 29 82 bc 43 b3 2a be 23 80 8b 3d
       0.19425312 -0.015889097 -0.16669945 0.068115495
0002f0 b3 21 a1 bc e8 1e e2 bd c8 ad 1b 3e 25 11 16 be
       -0.01966939 -0.11041051 0.15203011 -0.14654978
000300 76 4f aa be 20 d7 a1 bd 83 20 fa bd 0c 3c 60 3e
       -0.3326375 -0.0790236 -0.12213232 0.21897906
000310 60 72 03 3e 9a 27 03 be 2e f4 a9 bd 0c 4f 95 3d
       0.128366 -0.12808076 -0.08298527 0.072904676
000320 de 5d 8a 3d 75 bb 25 3d 72 0a 36 bd 60 07 36 be
       0.06756185 0.040461976 -0.044443555 -0.17776251
000330 93 98 96 bd 78 34 d2 3d fb d3 96 3e e4 4f f2 bd
       -0.0735332 0.10263914 0.29458603 -0.11831644
000340 af d5 c4 b9 7f 1d 76 3d d9 63 2a 3d 5b 65 fb 3d
       -0.0003754324 0.060086723 0.04159913 0.122751914
000350 01 7b 55 bc 89 23 cd bd b1 c3 1c 3e e2 8b da 3d
       -0.013029815 -0.100165434 0.15309025 0.10671212
000360 05 13 a6 3d c6 53 77 3c 7b 01 81 3e 37 10 ef 3d
       0.081090964 0.015095657 0.25196442 0.116730146
000370 1e d6 12 bc 34 87 70 bd 51 58 3c bd 0f 95 ea bd
       -0.008962182 -0.05872269 -0.045982663 -0.11454212
000380 7d 2d 7a bd 7c 12 06 bf 14 b5 2f be 66 db e4 bc
       -0.061078537 -0.52371955 -0.1715892 -0.027936649
000390 91 7c 17 3d fe 45 16 bc 5b 29 84 3a e9 ab 2a bc
       0.03698403 -0.009171961 0.0010083126 -0.010416963
0003a0 8d b2 7d be 8a d8 35 be 9d 6a 98 3d 4b a0 c9 3e
       -0.24775143 -0.17758384 0.0744221 0.39380106
0003b0 b3 24 78 3e f5 f5 0a bf 57 c4 02 3c 2d b1 65 3e
       0.2423275 -0.5428155 0.007981381 0.22430868
0003c0 e0 04 97 bd 58 db d0 bd 13 28 b5 3d 48 e1 31 3d
       -0.07373977 -0.101980865 0.08845534 0.043427736
0003d0 ad 96 e8 3d f7 0b 73 3e 6e 47 13 be 2f a5 9f ba
       0.11356864 0.23735033 -0.14382717 -0.0012179966
0003e0 65 b9 f1 3d ef 11 1d 3d 39 1f a5 3d 3e 8b 90 39
       0.11802939 0.03834718 0.08062596 0.00027569564
0003f0 09 e3 01 3c 0c 47 3f bd 28 54 d4 bb af 78 12 3e
       0.007927665 -0.046698615 -0.006479759 0.1430385

read_encoder.block2.0.bias f4 [128]
000000 f9 56 36 3e 16 fa aa 3d 2d 87 6b 3e b7 18 4a be
       0.17806615 0.08348481 0.23000784 -0.1973599
000010 79 8f b4 3e 34 5c 18 3d 3d e0 58 3e 61 33 87 3e
       0.3526571 0.037197307 0.2117929 0.26406386
000020 48 2c 20 3e 2d c1 ca 3d f9 f0 aa bd e9 4c a4 3e
       0.15641892 0.099001266 -0.08346743 0.32089928
000030 9a 45 53 3e 27 de 98 bc 14 b9 bc 3b fc d1 a0 3e
       0.2063202 -0.018660618 0.0057593677 0.31410205
000040 bc 78 29 3c 84 d0 a9 3d 2d c5 4c 3e a6 7d 67 3e
       0.010343727 0.08291724 0.19997092 0.22606525
000050 9f f6 bf bc 04 15 c0 bd 19 7e d8 bd 1b 22 81 bd
       -0.023433028 -0.093790084 -0.10570926 -0.06305333
000060 28 4c ac 3d 00 9e 23 3c 0c 20 ca 3d bc 7d 9e 3d
       0.08412963 0.009986401 0.09869394 0.07738826
000070 69 e0 96 3e c3 14 85 3e f9 fe 0c be 70 dd bc 3e
       0.29468086 0.25992402 -0.1376914 0.36887693
000080 e0 fc 6b 3d f1 14 da bc 24 42 78 3e 18 a6 4b bd
       0.057614207 -0.026621314 0.2424398 -0.049718946
000090 c3 c2 03 3d 97 c8 b2 3e e3 21 9e 3e f2 94 34 3e
       0.03216816 0.34918663 0.3088523 0.17634943
0000a0 ea 7d 35 3e 81 74 0a 3d 27 f9 28 3d b4 69 01 3d
       0.17723814 0.033802513 0.041253235 0.031594947
0000b0 c5 4b b2 3d c8 4d 56 3e bd 01 92 3e e4 dd 6d 3c
       0.08705858 0.20928109 0.2851695 0.014518235
0000c0 7f dc 38 bd 2d 40 c4 3d 41 4a 86 3e dd 71 59 3e
       -0.045132156 0.09582553 0.26228526 0.21234842
0000d0 3f 67 a7 3c b7 ae 2c be 29 93 6c 3e 28 3f ae 3e
       0.020434974 -0.16863523 0.23103012 0.3403256
0000e0 20 f4 58 3e 5f 94 a4 3e 07 7a 77 bd 6b 3a 51 3d
       0.21186876 0.32144448 -0.06041911 0.051081102
0000f0 de 15 66 3e fd f7 22 3e 90 02 48 3e 43 80 47 bd
       0.22469279 0.15914913 0.19532228 -0.048706304
000100 22 36 e4 3d cf 2b 5c 3e 46 34 64 bd 1a 0d 08 bd
       0.111431375 0.21501087 -0.055713914 -0.03321562
000110 c9 3c a7 3e d5 d2 e0 bd b7 a1 52 3e a5 6a 30 be
       0.32663563 -0.10977713 0.20569502 -0.17228182
000120 1f a2 97 3e 24 99 9c bd f7 d2 20 bb 9c 64 9d bc
       0.29615876 -0.07646397 -0.0024539807 -0.019213013
000130 d2 a6 01 3e ac 03 bb 3d f0 06 28 3e 75 bc e0 bc
       0.12661293 0.0913156 0.16408896 -0.027433613
000140 aa 15 93 bd 82 37 bd 3e 71 0d 88 3d 07 55 e2 3d
       -0.071818665 0.36956412 0.06643189 0.11051374
000150 98 c0 8e bd 4d 27 56 3d 3b 08 97 3e a4 eb b5 bc
       -0.06970328 0.052283574 0.29498467 -0.022207089
000160 12 fd 0c bc 58 0a 99 3d 01 64 f3 bd 1b 8d 4d bd
       -0.008605259 0.07472676 -0.118843086 -0.050183397
000170 f6 e2 f4 3d 68 88 3b 3d 36 52 aa 3e 0d 27 d7 3d
       0.11957352 0.045784384 0.33265847 0.10505495
000180 42 72 7f 3e 31 5a 1f bd 0f c7 55 3e 18 1c ae 3b
       0.2494593 -0.038904373 0.20876716 0.0053134076
000190 fb 4c 0f bd a4 66 47 3e 3a 56 54 bd 6e 3b ef 3c
       -0.034985524 0.19472748 -0.051840045 0.029203143
0001a0 17 31 e3 3d f3 5d a9 3d dd 9f d1 3d df b1 84 bc
       0.110933475 0.082698725 0.102355696 -0.016198097
0001b0 a5 77 0a 3e 63 66 b4 bd b7 99 77 bd 7a 61 94 3e
       0.13522203 -0.08808591 -0.06044933 0.2898062
0001c0 ea d4 a0 3d 8b 9d bd 3e 1a f9 52 be 33 cb b2 3e
       0.0785311 0.37034258 -0.20602837 0.34920654
0001d0 22 44 8b bd 5c 57 81 3b a5 c5 74 3e 9f 47 25 bd
       -0.06800105 0.0039471816 0.2390352 -0.040351506
0001e0 e3 19 bc bd 11 bc a9 3c f5 70 13 bc 7d 22 82 3e
       -0.09184625 0.02071956 -0.008999099 0.25416937
0001f0 d3 3c 9e bd 86 f0 8d 3d 4b ff 68 bd 3d f4 58 3e
       -0.07726445 0.06930642 -0.05688409 0.2118692

read_encoder.block2.1.weight f4 [128]
000000 89 32 4b 3f 13 f6 73 3f c7 1c 53 3f fe c1 e2 3f
       0.79373986 0.95297354 0.82465786 1.7715452
000010 30 c2 2b 3f 19 f6 70 3f 63 f0 45 3f 4b c0 22 3f
       0.6709318 0.94125515 0.77319926 0.63574666
000020 ef 3b 81 3f 20 6f 79 3f 35 90 9d 3f 39 2b 28 3f
       1.0096415 0.9743519 1.2309633 0.6569095
000030 fb a9 23 3f 6a 27 ad 3f f9 74 88 3f 02 7f 2e 3f
       0.63931245 1.3527653 1.0660697 0.6816255
000040 c6 be 88 3f 1d 2f 89 3f c0 22 55 3f e0 ca 80 3f
       1.068322 1.0717503 0.8325615 1.0061913
000050 03 1b 95 3f c0 3f 83 3f 07 84 a5 3f eb 31 90 3f
       1.1648868 1.025383 1.2930917 1.1265234
000060 b9 da 30 3f 02 d3 8b 3f f7 1a 6e 3f cc c9 84 3f
       0.69083744 1.092377 0.93009895 1.0374084
000070 ae be 39 3f f5 78 29 3f f7 7d a2 3f ae 9a 1e 3f
       0.7255658 0.6620019 1.2694691 0.6195477
000080 c5 e8 56 3f 28 ef 85 3f 2d ac 48 3f e9 25 94 3f
       0.8394893 1.046361 0.7838772 1.1574069
000090 91 67 8a 3f b7 73 32 3f 17 53 2c 3f ed 0c 3a 3f
       1.0812856 0.69707817 0.67314285 0.72675973
0000a0 76 67 4b 3f 30 17 5d 3f 31 59 b6 3f 46 9f 77 3f
       0.79454744 0.86363506 1.4245969 0.96727407
0000b0 b5 fc 67 3f 0d 34 73 3f 02 ff 49 3f 5e 7a 47 3f
       0.90619975 0.950013 0.78904736 0.7792109
0000c0 18 4e 97 3f e8 1a 3d 3f 05 47 22 3f c0 ad 6a 3f
       1.1820707 0.7386918 0.6338962 0.9167137
0000d0 7c a9 bd 3f 35 ea a4 3f 74 60 09 3f 11 bb 2c 3f
       1.4817348 1.2883974 0.536628 0.6747294
0000e0 f3 a8 3c 3f 7c a4 41 3f 09 c3 91 3f 07 13 80 3f
       0.73695296 0.7564161 1.1387645 1.0005807
0000f0 30 61 2a 3f 6c b5 5a 3f dd 20 18 3f 52 5f 87 3f
       0.66554546 0.8543308 0.59425145 1.0575964
000100 e0 ab 5c 3f 7f 8a 63 3f 5e f4 92 3f d1 96 9d 3f
       0.8619976 0.88883203 1.1480825 1.231165
000110 27 f6 13 3f 7d 4b 9a 3f 01 93 54 3f cf 61 90 3f
       0.57797474 1.2054287 0.8303681 1.1279849
000120 78 4f 29 3f 3e 23 98 3f 2c 11 8e 3f 47 7a 94 3f
       0.66136885 1.1885755 1.109899 1.1599816
000130 80 e4 2a 3f f4 33 7b 3f 77 b6 7a 3f 59 c1 9b 3f
       0.66754913 0.9812615 0.9793467 1.216838
000140 9b 6a a1 3f fe 46 0f 3f da e7 84 3f 92 94 85 3f
       1.2610658 0.559677 1.0383255 1.0435965
000150 5c 74 a1 3f 02 aa 7a 3f 14 32 3b 3f 4e 77 8a 3f
       1.2613635 0.9791566 0.7312329 1.0817659
000160 4c 92 96 3f 0a 82 80 3f cb ac 8a 3f 76 40 8e 3f
       1.1763396 1.0039685 1.0833982 1.1113422
000170 06 f9 6e 3f b3 95 a3 3f ce 52 24 3f 95 b9 90 3f
       0.9334873 1.278006 0.6418885 1.1306635
000180 dd 67 64 3f 9f 8e 87 3f 49 59 35 3f c1 df 94 3f
       0.8922098 1.05904 0.70839363 1.1630784
000190 f0 24 a4 3f ef f9 4b 3f 75 f9 9d 3f 59 85 9e 3f
       1.2823772 0.79678243 1.2341753 1.2384444
0001a0 1c 2f 8a 3f c6 0d 57 3f 80 41 59 3f 7e 2d 86 3f
       1.0795627 0.8400539 0.8486557 1.0482633
0001b0 86 b6 6e 3f 72 6f 94 3f 90 0c 6b 3f 01 9e 2b 3f
       0.9324726 1.159651 0.91816044 0.6703797
0001c0 92 3a 5f 3f df 25 37 3f 7f db a2 3f 04 48 25 3f
       0.87198746 0.7154216 1.2723235 0.6456301
0001d0 bd 93 8d 3f 77 fd a3 3f cc 73 30 3f 1c 1c 81 3f
       1.1060711 1.2811726 0.6892669 1.0086703
0001e0 03 50 aa 3f 50 76 6a 3f 43 d0 96 3f 58 df 57 3f
       1.3305668 0.9158678 1.1782306 0.8432517
0001f0 8b d9 9f 3f c4 f7 91 3f 4b 95 93 3f 10 f0 28 3f
       1.2488264 1.1403737 1.1529936 0.65991306

read_encoder.block2.1.bias f4 [128]
000000 cf e7 84 be 5c 2f 9f be 7f 03 d8 be 76 d0 8a be
       -0.25958106 -0.3109082 -0.42190167 -0.27112168
000010 b0 79 bc be 88 91 d1 be a8 09 04 bf 08 20 93 be
       -0.3681159 -0.40931344 -0.51577234 -0.28735375
000020 6b 7b 45 be b5 e5 4f be f1 64 5f be 74 d0 a0 be
       -0.19285361 -0.2030247 -0.2181585 -0.31409037
000030 a8 5d e4 be 01 ae 64 be 42 2b 9e be 25 78 c3 be
       -0.44602704 -0.22332002 -0.30892378 -0.381776
000040 6e ab f6 be d8 bd 86 be 2c a1 a9 be 00 ab 5b be
       -0.48177665 -0.26316714 -0.33130777 -0.2145195
000050 ac ee 5b be 2c 3e 9b be cf ab a8 be a3 3a 67 be
       -0.21477765 -0.3032087 -0.3294358 -0.22580962
000060 f2 b3 b8 be 53 f5 87 be 90 a4 a0 be ac 96 83 be
       -0.36074787 -0.26554355 -0.3137555 -0.2570089
000070 63 37 73 be ca 0e ba be 30 b5 34 be d1 d8 e3 be
       -0.23751597 -0.36339408 -0.17647243 -0.44501355
000080 4c bb 9f be 0c 3c 01 bf f0 1e 78 be ed 30 62 be
       -0.31197584 -0.5048225 -0.24230552 -0.22088976
000090 09 25 a1 be 26 a7 8e be 73 04 a0 be f9 1e c2 be
       -0.31473568 -0.278619 -0.31253394 -0.37914255
0000a0 af cb bd be a2 c2 a7 be 72 62 91 be 1c a8 e7 be
       -0.3706946 -0.3276568 -0.2839542 -0.45245445
0000b0 43 e7 a0 be 17 52 8d be 0b 17 88 be 04 24 bb be
       -0.3142644 -0.27601692 -0.2658008 -0.36550915
0000c0 6b ab 71 be 26 13 c3 be 5f 9a 8b be fd 68 8b be
       -0.23600547 -0.38100547 -0.27266213 -0.27228537
0000d0 3a 4f 55 be af fb 11 be 0b c9 e8 be f9 67 f2 be
       -0.20831004 -0.14256166 -0.45465884 -0.4734495
0000e0 c9 ba f3 be 5c e3 bd be 2a 6a b4 be 67 48 60 be
       -0.47603443 -0.37087524 -0.35237247 -0.2190262
0000f0 fe df a6 be 06 64 e1 be cc e9 9a be 79 a6 b5 be
       -0.32592767 -0.44021624 -0.30256498 -0.3547857
000100 d3 e0 ea be 03 15 b0 be 74 c3 a1 be 74 ec 57 be
       -0.45874652 -0.3439103 -0.3159443 -0.21086293
000110 7f eb b0 be 1a 73 33 be dc 2f b6 be ef ea aa be
       -0.3455467 -0.17524377 -0.3558339 -0.33382365
000120 07 d8 d0 be ae 28 b4 be 60 69 75 be 61 6b d1 be
       -0.40789816 -0.35187286 -0.23965979 -0.40902236
000130 fa 8f f3 be f0 a7 68 be 7b 7a 7f be 11 2e b9 be
       -0.47570783 -0.22720313 -0.24949066 -0.36167958
000140 92 ce 6a be ae f5 bb be 93 30 cf be 72 a5 f1 be
       -0.22930363 -0.36710876 -0.40466747 -0.47196537
000150 c2 44 1c be 72 bd c9 be 1d 6b ba be c5 3d c3 be
       -0.15260604 -0.39402348 -0.36409846 -0.38133064
000160 09 ce 15 be 8f a5 ed be e9 39 7c be 36 3b 84 be
       -0.14629377 -0.46415374 -0.24631466 -0.25826424
000170 da e0 da be ce 9c cc be 45 1d f1 be 68 14 83 be
       -0.42749673 -0.39963382 -0.47092643 -0.25601506
000180 c3 7e 6d be aa c6 60 be 68 2c b3 be 64 28 91 be
       -0.23192887 -0.21950784 -0.34994817 -0.28351128
000190 bb f4 88 be 02 a7 80 be cf ed 1d be 9b 3e 17 be
       -0.26749215 -0.25127417 -0.15422748 -0.14769976
0001a0 6e 4b 17 be 8a f4 85 be a5 a0 03 bf b5 3e a9 be
       -0.14774868 -0.2616313 -0.51417 -0.33055654
0001b0 72 3b 85 be a8 cf 21 be c0 58 70 be e4 52 8e be
       -0.26021916 -0.15801871 -0.23471355 -0.27797616
0001c0 30 ed 97 be da e1 d9 be b3 d6 ac be ad 23 a5 be
       -0.29673147 -0.42555124 -0.33757553 -0.3225378
0001d0 e6 4f 4f be 92 f4 f5 bd 4d d8 99 be 75 39 90 be
       -0.20245323 -0.12009539 -0.30047837 -0.28168836
0001e0 3f f0 aa be cd cd c7 be 9d d8 4c be 3c 09 5b be
       -0.33386418 -0.390242 -0.20004506 -0.21390241
0001f0 f6 32 5a be ed c0 16 bf 81 2f a9 be a1 d7 bb be
       -0.21308503 -0.5888813 -0.33044055 -0.3668795

read_encoder.block3.0.weight f4 [128, 128]
000000 04 f4 1d 3d e3 5c 08 bd b3 dc e4 3d 70 3f ff 3e
       0.03856279 -0.03329171 0.111749075 0.49853086
000010 e1 ce 3a bd 04 ef e1 be cc fa 82 3d 6c 81 0c bd
       -0.04560745 -0.44127667 0.06395492 -0.034303114
000020 f5 65 49 bc ba c0 f7 bd cf 90 7c be 61 2e 00 3b
       -0.012292375 -0.120973065 -0.24664615 0.0019558894
000030 c4 73 06 3d ae 72 2a 3e dd 49 31 3e 66 1f b6 3d
       0.032825246 0.1664531 0.17313333 0.088927075
000040 ab ae d2 3e c5 de 26 be 5d 79 19 3e 1f e1 09 bd
       0.41148886 -0.16295917 0.14987703 -0.033661958
000050 55 e9 05 3d 06 5d f8 3e 1f 55 5c 3e 97 d8 b5 3b
       0.032693226 0.4850847 0.21516846 0.005549501
000060 71 ac ef 3d fb 4f d7 3c 45 46 4f 3e 0f 06 9f 3d
       0.117028125 0.026283255 0.2024165 0.077648275
000070 bb d0 09 bd 9f 01 72 3e 0e 2a 95 bd 47 9c 0e 3d
       -0.033646327 0.23633431 -0.07283412 0.034817006
000080 64 c7 bc be 4f 07 8c 3e bc 63 a5 bd 8d 01 52 3d
       -0.36870873 0.27349326 -0.080756634 0.05127101
000090 e3 10 8d 3d c4 fe 89 bd 38 91 15 bd 5e 48 ee bc
       0.068879865 -0.06738046 -0.036515445 -0.029087242
0000a0 fa e4 72 3e 6b 53 2b bc 03 25 25 3e 06 01 8e bc
       0.2372016 -0.0104569 0.161274 -0.017334472
0000b0 4b 52 52 3d 53 d7 98 3d 3f e5 04 be 26 97 7d 3e
       0.051348012 0.07462945 -0.12978075 0.2476469
0000c0 64 ee 88 be 0d 62 c1 3d cb 78 81 3d df 33 f7 bc
       -0.26744378 0.0944253 0.063218676 -0.030176101
0000d0 7f 4c 06 be 2a f7 64 bd 91 71 c6 3d 5a 47 1f 3e
       -0.13115118 -0.055899777 0.0968963 0.15554562
0000e0 b5 1c 03 3e ad af 6d 3d da 77 34 be 35 ca 99 be
       0.1280392 0.058028866 -0.17623845 -0.30037084
0000f0 65 67 1c be 6a 77 4d 3e e7 ae 19 3d ff d8 5c bd
       -0.15273817 0.20065084 0.037520315 -0.05391788
000100 fa 8c 66 be fb 55 48 bd 77 48 7c be 92 d7 1e 3e
       -0.22514716 -0.048910122 -0.24637018 0.15511921
000110 aa e0 98 bc f6 a8 f1 bd 7b df d8 bd fa 2b 24 3e
       -0.018661816 -0.11799805 -0.105895005 0.160324
000120 cb d7 06 3e 0f aa 9b 3d 85 6e 9d bd de 53 29 3e
       0.13168256 0.076007955 -0.076870956 0.16535899
000130 84 d7 8c be a6 40 0a bf 88 e1 23 3e fe ed ba 3d
       -0.27508175 -0.54004896 0.16004002 0.09127425
000140 09 00 45 be 7e ce a3 bc a9 a2 be 3d 6f d5 e1 be
       -0.19238295 -0.019995924 0.09308369 -0.4410815
000150 11 88 8f be f3 48 9a be 07 11 08 3e 8e 1e 32 3e
       -0.28033498 -0.3013378 0.13287745 0.17394468
000160 86 b3 8f 3d 93 ee b8 3e f4 ba 57 be 2d 4a 49 3e
       0.07016663 0.36119518 -0.2106741 0.19657202
000170 3b 75 90 bd 01 23 3b 3e f8 8d b4 bc 46 e3 cd bd
       -0.0705361 0.18275072 -0.022040352 -0.100531146
000180 b7 10 c8 3d 58 99 67 3d 22 87 20 3e 43 51 5e 3d
       0.09768813 0.056542724 0.15676549 0.054276716
000190 17 6e a8 bd 0b 08 02 3d 10 53 24 bd 47 8a 58 3d
       -0.08224123 0.03174595 -0.040118277 0.052866247
0001a0 3b 0f 02 bd e7 0e ba 3d 21 a2 1d bd 65 de 72 3e
       -0.031752806 0.09084874 -0.038484696 0.2371765
0001b0 4b 6a d3 be ca ab 95 3e 38 0c ba 3e a7 a0 52 be
       -0.41292033 0.29232627 0.36337447 -0.20569097
0001c0 b1 7c 49 be 2b fa af 3d 68 d6 4d 3b 4e ed a1 3b
       -0.19676472 0.08592638 0.0031408314 0.004941619
0001d0 47 d6 bd 3d db f4 88 3e f9 8f 37 3d 92 5b ee 3d
       0.09269386 0.2674931 0.044815037 0.116385594
0001e0 48 ba 20 be 84 4e 45 3e b5 21 3e be 0e e7 50 be
       -0.1569606 0.19268233 -0.18567546 -0.2040064
0001f0 98 40 d0 3d 18 62 0d 3d 9e c8 16 3d ca ff a4 3d
       0.1016857 0.034517378 0.036812417 0.080566004
000200 20 01 c9 3c e6 da 84 bd 01 76 8f bd 37 7a c4 be
       0.02453667 -0.06487064 -0.07004929 -0.38374493
000210 4e 2a ea bc ac 2e 89 3e c8 f8 f2 3a be 2f 86 3d
       -0.028584626 0.2679342 0.0018537277 0.06552075
000220 60 03 81 be ec 37 8f bc f2 4d 32 3e 1a 59 32 3e
       -0.25197887 -0.01748272 0.17412546 0.17416802
000230 36 67 57 bd 22 32 3c 3e 18 b0 3d be 8e 06 1b be
       -0.052588664 0.18378499 -0.18524206 -0.15139219
000240 73 d2 7b 3c e4 59 4d bd 69 d6 94 3e 6f 75 2e be
       0.015369999 -0.050134555 0.29069832 -0.17036985
000250 3b f2 50 3e f4 d8 6c bd 6c 82 ca 3d 4b 25 56 3e
       0.20404904 -0.05782409 0.09888157 0.20912664
000260 fa ea b3 bd e7 5e 98 3e 03 33 66 bd 2b 6d 54 3e
       -0.087850526 0.29759905 -0.056200992 0.2074477
000270 36 2d 5f be 0d cc 94 bc 5a 64 5e 3e 4c 61 a7 3d
       -0.2179459 -0.018163705 0.21717969 0.08172855
000280 bd 62 f6 3d 4f a5 14 3e 90 37 88 bc 91 e4 7a 3c
       0.120305516 0.14516185 -0.016628057 0.015313284
000290 ed 59 b9 3e c9 f6 45 bd 67 e5 9d 3c 8d 1d 1e 3e
       0.3620142 -0.048331056 0.019274427 0.1544096
0002a0 d2 c6 58 be 65 11 33 3e ce 7f 5c bb 65 82 ec 3d
       -0.21169594 0.17487104 -0.0033645513 0.11548308
0002b0 b5 78 17 3e fb cd ad bc ee 85 1d 3d 65 58 4f bd
       0.1479214 -0.021216383 0.038457803 -0.05062141
0002c0 e7 39 d5 3c 8d fb e5 ba 3d 25 e6 3d 01 f1 62 bc
       0.026028587 -0.0017546281 0.112375714 -0.013851405
0002d0 88 76 80 3e bb 35 2e bc f5 92 8c bc 9d 77 f0 bc
       0.25090432 -0.0106329275 -0.017159918 -0.029353911
0002e0 db d9 91 be 33 10 01 3d 03 83 0d 3e b4 04 7a 3e
       -0.28486523 0.03150959 0.13819508 0.24415857
0002f0 0b e8 d8 3c 33 1b a4 bd e5 0e 37 be 23 52 fb bd
       0.026477834 -0.08013 -0.17876776 -0.12271526
000300 32 4a bf 3d 0c bd c7 3d 8c f3 74 bd 32 25 82 3d
       0.093403235 0.09752855 -0.059802577 0.06354751
000310 6d a3 72 3d 3f c5 c7 3c 48 5d e8 bd 44 01 5c 3e
       0.059237886 0.024386046 -0.11345917 0.21484858
000320 7c 36 90 bd bd 99 1d 3e 8d 20 45 3e 90 95 b9 3c
       -0.07041642 0.15390678 0.19250698 0.022654325
000330 48 ea dd 3d 9e de 2f 3e 3b 08 04 3d 6c e6 67 bc
       0.10835701 0.17174765 0.03223441 -0.014154058
000340 c5 9a 66 3e 69 b1 aa 3c 7b 46 a0 be ae 69 49 3c
       0.22519977 0.020836549 -0.31303772 0.012293262
000350 1a 3f 28 3d cb ba 19 3e c1 c0 e0 bd 24 23 25 3e
       0.041075803 0.15012662 -0.10974265 0.16126686
000360 94 0d bf 3d 00 eb 11 be 8d f7 0c 3e 06 96 28 bd
       0.09328762 -0.14249802 0.13766308 -0.0411587
000370 6d c9 8c bd 14 89 4f 3d 8f 17 8e 3c 1d cc f2 3d
       -0.068743564 0.050667837 0.017345218 0.11855338
000380 04 14 c2 bd 1a 8b 29 bc e4 5c 30 3e 4f d8 99 3d
       -0.09476474 -0.010348106 0.17222935 0.07511961
000390 fd 57 70 3d 8c 4a b6 3d 3d c3 41 3d d5 7a 9f 3d
       0.058677662 0.089009374 0.047305334 0.077871
0003a0 df 90 9e 3d 91 e8 22 bd f6 c5 bf 3d 3f 2e 2c 3d
       0.07742476 -0.039772574 0.0936393 0.04203629
0003b0 c8 14 02 3d 6f d8 09 bb 2e c9 2d 3e 1a ae fd bd
       0.0317581 -0.0021033545 0.16971275 -0.12386723
0003c0 80 09 7e 3d 8a c3 ae bd f5 7d 2a be d6 5d 2b be
       0.06202078 -0.0853339 -0.16649611 -0.16735014
0003d0 76 ec 0f 3e f7 c3 f1 3d 1e 6d 18 be 02 09 4e 3e
       0.14055046 0.118049555 -0.14885375 0.20120624
0003e0 cd c2 f8 bd a4 7c 28 bd 50 29 50 3d 16 0a 3a bd
       -0.1214653 -0.04113449 0.05082065 -0.045419775
0003f0 a4 16 38 be df 30 88 3e 2c 87 b8 bd 1e 58 db bd
       -0.17977387 0.26599786 -0.09010157 -0.107101664

read_encoder.block3.0.bias f4 [128]
000000 82 b9 3e 3d eb 4d 52 3e 05 5a f8 bd 38 93 87 3d
       0.046563633 0.20537536 -0.12126545 0.066198766
000010 d8 3b 2f 3d 75 6c 52 3d 3a e8 92 bd 84 82 09 bd
       0.04278168 0.051372964 -0.071732 -0.033571735
000020 75 66 ad 3d 68 db 25 3d 53 ac 31 3e 9d bd 1f 3e
       0.08466808 0.040492445 0.17350893 0.15599675
000030 0e fb a4 3d ba c8 0c bd 39 02 59 3e a5 a9 2d 3c
       0.080556974 -0.034371115 0.21192254 0.010599528
000040 ea 32 46 3e 16 fd 36 3e d6 c2 fc 3d eb 6e 97 3d
       0.1935536 0.17869982 0.123418495 0.07394203
000050 47 5d 68 3e 61 6c 5c be 21 2e ee 3d bb d0 10 3e
       0.22691832 -0.21525718 0.11629892 0.14142124
000060 55 b5 11 3d ff 7a 0e 3e 34 40 b6 bc db cb f4 3d
       0.035573322 0.13914107 -0.022247411 0.11952945
000070 bf 8b 42 3e 95 07 0b be 1e c3 80 bd 38 66 8a bd
       0.18998621 -0.13577111 -0.06287216 -0.06757778
000080 49 8d 3d 3e 2c c8 a4 3d 34 f8 a3 3d 36 9c b3 3d
       0.18510927 0.08045992 0.08006325 0.08770029
000090 23 ad 3e be 41 df 88 bd 3f 1b 0a 3e 51 fb b6 3d
       -0.18620734 -0.06683207 0.13486956 0.089346536
0000a0 12 e0 8f bd 7b ce f0 3b 61 c6 b0 3d d3 94 55 3d
       -0.0702516 0.007348833 0.08631588 0.052143883
0000b0 03 02 6a 3e 20 1a 2b 3e 60 25 30 3b c9 ca 02 be
       0.2285233 0.16709185 0.0026877746 -0.12772669
0000c0 86 8c ee bd da d8 1f be 04 1b 08 bd 2d 13 44 3c
       -0.116478965 -0.15610066 -0.03322889 0.0119674625
0000d0 04 0d 32 bd c0 00 ab 3d 54 96 2c 3d c0 d1 65 bd
       -0.043469444 0.083497524 0.04213555 -0.056108236
0000e0 ce 49 9e 3d 39 a0 03 3e f3 61 33 3d 47 97 ab 3d
       0.07728921 0.12854089 0.043794584 0.08378463
0000f0 57 84 a5 bd 6a 9a 2d be 27 d4 1d 3e 0e c4 29 3e
       -0.080818824 -0.16953436 0.15412961 0.16578695
000100 5c 30 23 3e a7 c5 4f 3e c1 64 49 3e f5 75 00 be
       0.15936416 0.20290242 0.19667341 -0.12544997
000110 c1 59 e9 bc 10 79 15 3e f0 5e 3e 3e 8d a1 b5 bd
       -0.02848518 0.14596963 0.18590903 -0.08868704
000120 d8 52 10 bc f4 c0 8e bd ea f4 ab 3c ef 74 7f bd
       -0.008808814 -0.06970397 0.020990808 -0.062367376
000130 11 dc d3 3d 0f b5 05 3e ad 73 9f 3d 31 f9 29 be
       0.10344709 0.1305735 0.07785735 -0.16598965
000140 20 94 2b be 70 23 bd 3d 6c 27 8f 3d 2c c5 61 be
       -0.16755724 0.09235275 0.06989941 -0.22047871
000150 a0 2a 8c 3d 94 72 9a 39 ab 06 34 be 53 5c 6e 3b
       0.068440676 0.00029458536 -0.17580669 0.0036370947
000160 d8 1b f0 3d eb 40 17 be ec 47 1a be 21 c0 26 be
       0.11724061 -0.14770858 -0.15066499 -0.16284229
000170 51 58 2e be 70 57 4e 3e 2c 8b d8 bd 89 c8 52 3d
       -0.17025878 0.20150542 -0.1057342 0.051460776
000180 3b 4f e8 3d 0e 1d 57 3d d2 1f 08 be e4 db 22 3e
       0.11343237 0.052517943 -0.13293388 0.15904194
000190 f0 92 fe 3d d4 9b 4c 3e 28 c9 bf 3d df ac 6d 3d
       0.1243037 0.19981319 0.093645394 0.05802619
0001a0 00 ec 8b 3c bc 1d a2 bd 63 d1 1b be 34 83 cc bd
       0.017080307 -0.07915828 -0.15216593 -0.099859625
0001b0 a4 79 1c bd ca 9c 83 be 8c 15 a0 bd 48 ee 2d 3e
       -0.038201943 -0.25705558 -0.0781661 0.16985428
0001c0 6d bf 5f 3d a0 50 67 3e b3 d6 75 bd 38 c7 80 bb
       0.054625917 0.2258935 -0.060019206 -0.0039299987
0001d0 78 fb 11 3e 67 11 2c 3e 8d b6 04 bd c7 ab b1 bd
       0.14256084 0.16803513 -0.032400656 -0.08675342
0001e0 be d5 88 3e ac 02 65 be 32 69 c0 3c f1 06 e3 3d
       0.26725572 -0.223643 0.023487661 0.11085308
0001f0 b9 1c 2b 3e e4 19 cf bd ba fe 0c 3e ac d6 87 3d
       0.16710176 -0.1011236 0.13769045 0.06632742

read_encoder.block3.1.weight f4 [128]
000000 03 ec 96 3f 2e 5c 5f 3f f7 c1 7d 3f c4 83 8c 3f
       1.1790775 0.8725003 0.9912409 1.0977712
000010 48 c8 3e 3f 68 a8 72 3f 95 cf c3 3e da 44 22 3f
       0.74524355 0.9478822 0.3824431 0.6338631
000020 45 a4 93 3f 30 c5 a8 3f f8 51 76 3f 80 5b 53 3f
       1.1534506 1.3185177 0.96218824 0.8256149
000030 9c cd a9 3e 3b 79 6b 3f c5 e8 45 3f 17 e2 57 3f
       0.3316468 0.9198186 0.77308303 0.8432936
000040 0a d4 70 3f ee e4 69 3f ac 4f 1e 3f 21 56 76 3f
       0.94073546 0.91364944 0.6184032 0.9622517
000050 5c b6 64 3f ab a1 a9 3f 4b d5 61 3f b2 a7 5a 3f
       0.8934076 1.3252462 0.88216084 0.8541213
000060 92 8d 43 3f e7 08 73 3f 30 a8 87 3f 21 75 5b 3f
       0.76387894 0.9493546 1.0598202 0.857256
000070 34 90 6e 3f 39 58 5c 3f 0c cd f7 3e 9a 02 3a 3f
       0.93188787 0.8607212 0.48398626 0.7266022
000080 23 b0 74 3f 99 9c 81 3f 24 36 72 3f 48 7d cf 3e
       0.95581263 1.0125915 0.9461386 0.4052527
000090 9a 65 8b 3f 57 ec 17 3f de a6 68 3f 6c 72 50 3f
       1.0890381 0.59345 0.9087962 0.81424594
0000a0 44 27 68 3f 5d 0a 62 3f 2e 04 64 3f 58 2f 6a 3f
       0.90684915 0.88297063 0.8906888 0.9147849
0000b0 8a b9 5c 3f 17 16 8a 3f cf de 70 3f f2 9b 3c 3f
       0.8622061 1.0787991 0.9408998 0.73675454
0000c0 16 a9 80 3f 95 72 32 3f e6 60 97 3d 74 c0 3b 3f
       1.0051601 0.6970609 0.07391529 0.73340535
0000d0 44 7f 90 3f 20 b3 a0 3f 9f f3 3b 3f 60 69 07 3f
       1.1288838 1.2554665 0.7341861 0.52895164
0000e0 99 ec 3a 3f 58 01 40 3f c9 9f 00 3f eb 75 94 3f
       0.7301727 0.7500205 0.5024381 1.1598486
0000f0 03 b7 17 3f 82 0f 65 3f 21 6d 87 3f ab 04 6a 3f
       0.5926363 0.8947679 1.0580178 0.9141337
000100 7e f9 81 3f 5b 94 5b 3f d7 90 6f 3f 31 0a 90 3f
       1.0154264 0.8577325 0.93580383 1.125311
000110 44 15 8d 3e b8 5b 9e 3f 03 47 54 3f 02 92 74 3f
       0.27555287 1.237174 0.82920855 0.9553529
000120 ea 65 39 3f 56 51 95 3f 6c c3 9c 3f e3 83 6f 3f
       0.72421134 1.1665447 1.2247138 0.9356062
000130 5f 76 19 3f ae bc 64 3f 6f 4b 6e 3f 43 9c ae 3f
       0.59946245 0.893504 0.9308385 1.3641437
000140 95 4c 9d 3f 33 5d 58 3f c5 c4 6c 3f 07 ca 74 3f
       1.2288996 0.8451721 0.92487746 0.9562077
000150 2b 54 9a 3f e1 71 30 3f eb b6 8e 3f ff 32 74 3f
       1.2056936 0.68923765 1.1149572 0.95390314
000160 ac 7d 90 3f 1f a5 8c 3f 41 c6 6c 3f 07 3e 86 3f
       1.1288352 1.0987891 0.9249001 1.0487679
000170 da 4e 88 3f 88 1f 5e 3f c6 3d 1d 3f 48 0d b5 3f
       1.0649064 0.8676686 0.61422384 1.4144678
000180 69 36 8e 3f 7a 45 9f 3f 90 00 4c 3f 2c 2e 83 3f
       1.1110355 1.2443078 0.7968836 1.0248466
000190 c7 66 69 3f 0c 23 6e 3f 19 59 9d 3f 2e 3b a8 3f
       0.9117245 0.9302223 1.2292815 1.314306
0001a0 b5 7e 52 3f 21 60 f3 3f 3f 14 a7 3f 3d a9 7f 3f
       0.8222459 1.9013711 1.3053054 0.9986761
0001b0 bd ed a2 3f 1a 8f 86 3f 93 c8 55 3f 3d 43 76 3f
       1.2728802 1.0512421 0.83509177 0.9619635
0001c0 6f 8b 8a 3f 47 9d 53 3f 9a 43 5e 3f 39 02 4d 3f
       1.0823802 0.8266186 0.868219 0.80081517
0001d0 c0 00 77 3f ae cd 8c 3f 93 2f 30 3f 79 60 0f 3f
       0.9648552 1.1000268 0.6882259 0.5600658
0001e0 f0 e2 6d 3f 7e c9 94 3f b5 f1 9e 3f 50 6c 7c 3f
       0.92924404 1.162399 1.2417513 0.9860277
0001f0 fa 48 9a 3f 08 39 91 3f 23 25 4d 3f 03 9d 44 3e
       1.2053521 1.134553 0.8013479 0.1920052
