m6aReplica/2d_432_with_delta/Models/epoch38_rocauc0.892_valpr0.385_valscore1.277.pth (torch, 153757 bytes, 13 tensors)

read_encoder.block1.0.weight f4 [128, 21]
00000000: 922e 393f 8d91 e13e fffb 2bbd 23ec e83f
00000010: c374 183f 2eeb 813d 562f 13bf 453c 583f
00000020: f987 863e 0f42 2b40 eb4b bdc0 70a9 aa3e
00000030: 7da6 263e 35a6 f93d e6af a43e 880c dfbc
00000040: 060f dd3c edec f0bd 39ba 53bd 958e 1c3e
00000050: 3bb3 e63c 7ed0 0d3d 2216 ddbe 393b 2c3e
00000060: 9df2 e0be df18 fabe 4b78 20bd a315 463f
00000070: 49fb b7be e4dc 6cbe f068 96bf 30a9 6940
00000080: 9cb1 8e3d 1c33 983e 7471 a3bd 3182 8bbc
00000090: 7410 bd3d 83c6 bd3e 94de 2b3e a1ef a9bd
000000a0: d5f8 1c3e 39a8 1ebe ab38 efbe ef0e 913e
000000b0: f9da 313e 380b 4dbf f0d6 ef3e e5b7 b03d
000000c0: b68e 8abf c018 f23e fa50 47be 89b0 adbe
000000d0: da07 acbf c7d6 7d3f 0400 8e3e 9dcc 443e
000000e0: 6eab 37bd 5e6e 53bd 3352 703d b1ed 4cbe
000000f0: 983b be3d 5d91 99be 37f2 923e e451 443f
00000100: 5bfe 10bb 7fec a8bc 5f84 c33f e6fd 2bbe
00000110: 17ae dfbd a051 b93e 3c38 553f 3be1 0f3e
00000120: fbd1 953f 704c 2cc0 3d9b 05be ee57 953f
00000130: 841a 3cbe 3b67 bb3e 251f babd 84c2 0c3f
00000140: 46ca a9be a144 4cbe 2f01 b83e 1cc0 eb3e
00000150: 5224 20bc c786 1abf aee5 093e 558a e6bd
00000160: fda9 51bf 7ec4 af3d d2b5 b13c 7c02 52bf
00000170: 18d4 183e d129 e53e 2fa6 09be ba78 b9be
00000180: 643d 023f 2b7e 0dbe c879 acbd 8890 7dbd
00000190: e4b7 0fbe 3678 98bd 43b4 fdbd d6f6 f1bd
000001a0: 622d 8c3e 5ea1 21bf aab1 7d3d 010a c5bd
000001b0: 736b c9bf ecd3 a73e 7624 883e ef19 a2bf
000001c0: de36 3c3f 1827 63be 069c 33c0 4e6f 013f
000001d0: 5c5f 613f aecf 21be 2272 8f3e 2ba0 afbe
000001e0: 8a11 acbd 947a b4bd 8f60 78bd b853 3abe
000001f0: 5ca7 07ba 7850 a63b 9ee5 8ebe efd7 d6be
00000200: dba3 523e d72e 19bf 6aa6 96be 9270 b93d
00000210: a0f2 3cbe 58b4 d0be f447 01bd d29d 87bf
00000220: 6285 ba3f 7ffa 45bf 1ea3 3b3e f79f 8dbd
00000230: 28b5 a33d 2df0 cdbd 390c 4f3e 6ab7 61be
00000240: 6b3a ebbd 3c93 a93d 36a8 b23e 7337 90be
00000250: 36bc 0d3f d185 433d dcad 37bf e729 b5bd
00000260: 7350 3a3e 2b87 83bf 83cf 6f3e 48d7 603d
00000270: dff4 44bf d86b d0bd 2a4b 3abf 9405 9fbd
00000280: 20cb b1bc 3181 00be bb88 203d f637 a9bd
00000290: 6e3e 2ebc c25a e9bc 2231 7dbc f541 a03e
000002a0: 397d 48be 8603 b93e 6cfe 4cbc a125 cebe
000002b0: db6d a83e 3797 f73c ed4c fc3e dac4 09bf
000002c0: 8eba c4bd a808 22bf 8022 2140 b301 59bf
000002d0: c6f0 71bf 1efd a3bd fcdc d6bd 7b8a efbd
000002e0: 906a 1f3e 6d00 983e a03a 61bd b5ce 433e
000002f0: f142 83be 7c09 43bf e9ec 713e 02ce c0bc
00000300: bf1b 37bf d424 0e3f c528 883d 8d96 22bf
00000310: 6b69 b73e d397 863d ea8a 883e e2e0 5a3f
00000320: 26ec 033e aec6 c4be 5a7f c63f 5e98 bebc
00000330: 5425 5fba db29 d9bd 74e3 0cbe f96b 03be
00000340: d7e1 223d 730f 783c 6a39 ebbe ede9 773e
00000350: e4a1 41be 0874 6dbf 5fc1 1f3e 618c 673e
00000360: f3c7 4abf f1b6 883d c545 f03d 6795 1dbf
00000370: 8d43 01bd 8f71 b93e 5e00 b8be 21ca 9d3e
00000380: c428 53be 8d26 d43d 6a6d bebd c4f0 18be
00000390: 33db d6bc 1e5d 5c3d 9321 3b3d 3103 36bc
000003a0: befc 203e 4fba 643e 02f8 5f3e f000 73be
000003b0: 5f6f 773b 8aa3 69be b3b0 2abf 42d6 8abe
000003c0: f007 783e 3b42 1e3e 21e8 3dbf 61cc 53be
000003d0: d917 c7be cabf c3be 4099 3ebc 67da 203d
000003e0: cd92 32be 9d58 9c3e 1a71 823d f9ff cebd
000003f0: c91a 7bbe 68cd 7d3e 8a2c 4a3c 7510 823e
0.72336686 0.4405636 -0.04198837 1.8197063 0.59553164 0.06343685 -0.57494104 0.84466964
0.26275614 2.675907 -5.9155173 0.33332396 0.16274448 0.121899046 0.3216545 -0.027227655
0.026984703 -0.1176394 -0.051691268 0.15288766 0.028161636 0.03462266 -0.43180948 0.16819467
-0.439351 -0.488471 -0.03917722 0.77376765 -0.35933903 -0.23131138 -1.1750774 3.6509514
0.0696747 0.29726493 -0.07980624 -0.017029854 0.09231654 0.37065515 0.16784126 -0.08297659
0.15329297 -0.1549386 -0.46722922 0.28331706 0.17368688 -0.80095243 0.46843672 0.08628825
-1.0824802 0.47284508 -0.19464484 -0.33923748 -1.3439896 0.9915585 0.27734387 0.19218679
-0.044841222 -0.051618926 0.05867214 -0.20012547 0.0928871 -0.29993716 0.2870042 0.76687455
-0.0022124264 -0.020620583 1.5274771 -0.16796073 -0.10921877 0.36195087 0.8328893 0.14050762
1.1704706 -2.6921654 -0.130475 1.1667459 -0.1836949 0.36602196 -0.090879716 0.5498431
-0.33162135 -0.19948055 0.35938403 0.46045005 -0.009774284 -0.60361904 0.13466522 -0.112568535
-0.81900007 0.085824 0.021693144 -0.8203504 0.14924657 0.44758466 -0.134423 -0.3622492
0.50874925 -0.1381766 -0.084216654 -0.061905414 -0.14034992 -0.074448034 -0.12387898 -0.11814658
0.27378374 -0.6313685 0.06193701 -0.09621049 -1.5735916 0.3277887 0.26590317 -1.2664164
0.7352122 -0.22182882 -2.806398 0.5056046 0.8803613 -0.1580188 0.28016764 -0.34301886
-0.08401783 -0.088124424 -0.06063896 -0.18195999 -0.000517478 0.0050755106 -0.2790956 -0.4196162
0.20570318 -0.59837097 -0.2942384 0.09054674 -0.18451929 -0.4076259 -0.03156276 -1.0595038
1.4571955 -0.7733535 0.18323943 -0.069152765 0.07993537 -0.100555755 0.20219506 -0.22042623
-0.11485752 0.08280036 0.3489396 -0.28167304 0.5536531 0.04773504 -0.71749663 -0.08845883
0.18194751 -1.0275625 0.23419003 0.05489281 -0.76936144 -0.101768196 -0.7277094 -0.07764736
-0.021703303 -0.12549283 0.039192896 -0.08262627 -0.010635002 -0.02848566 -0.015453609 0.3130032
-0.19579019 0.361355 -0.012511831 -0.40263084 0.32896313 0.030223472 0.4927744 -0.53815997
-0.09605895 -0.6329446 2.5177307 -0.8476822 -0.94508016 -0.08007263 -0.10491368 -0.11696335
0.15567994 0.29687825 -0.05498755 0.19121821 -0.2563701 -0.76186347 0.2362553 -0.023535732
-0.7152671 0.55524945 0.06648401 -0.6351097 0.35822615 0.06571927 0.26668483 0.85499394
0.12883052 -0.3843283 1.5507615 -0.023266014 -0.0008512337 -0.106036864 -0.13758641 -0.12834157
0.03976616 0.015140402 -0.4594224 0.2421033 -0.18909413 -0.92755175 0.15601109 0.22612144
-0.7921135 0.06675518 0.117320575 -0.61556095 -0.031558562 0.3621945 -0.3593778 0.30818275
-0.2062102 0.103589155 -0.09298213 -0.14935595 -0.02622757 0.05379974 0.045686316 -0.011109159
0.15721413 0.22336696 0.21871951 -0.23730826 0.0037755591 -0.22816291 -0.6667587 -0.2711659
0.24221778 0.15454952 -0.74182326 -0.20683433 -0.38885382 -0.3823226 -0.011633217 0.039270785
-0.17438813 0.30536357 0.06369229 -0.10107417 -0.24521936 0.24785388 0.0123397205 0.2540318

read_encoder.block1.0.bias f4 [128]
00000000: f158 6fbe ac3c ce3e 2097 4cbe 15ec 833e
00000010: ac06 363e aa19 31bf 3706 cb3e 5f4f d4bb
00000020: 3ca5 e23e ee4c 11bf 5d4e 10bf f454 1c3e
00000030: ba97 90bd c250 7d3e 1893 3b3e 36f2 6a3d
00000040: 6b8f 853e 2b73 ccbd 01de 073e ae74 e53d
00000050: 7ebc fbbe edf0 ca3d 9203 4ebe 2958 debe
00000060: 2ea7 aa3c e09c 5c3e a512 523d b37c cb3e
00000070: 1959 b2be e030 bb3e fd6c 913e d617 d13d
00000080: db8a 4bbe 4118 b0bd 94e5 853c f33b 67be
00000090: e832 9a3d 3ffa a13e b5d1 bd3e e1bc 2f3e
000000a0: 3557 8f3d 17e2 82be e454 4abe 50ac 80bc
000000b0: 5739 cf3e 626a b83d e022 71be 3e7c 6dbe
000000c0: c489 ca3e 6ffb 1e3f e958 9bbe 4da3 823e
000000d0: ebab 9bbe 54db 4abe ec5e 833e 3fdd bc3d
000000e0: 7cce 1c3e 8bd0 ed3e 46b0 1f3b e94d 163f
000000f0: 94a2 21bf f706 14be 7219 9d3d 4701 023f
00000100: f4c5 3a3f a63c 6b3e 6e15 d13b 3ab7 8e3e
00000110: 4fb6 40bd edb6 89be 24e3 583e 2f56 203e
00000120: a245 84bd 0c3e ec3e bc44 6cbd a379 0d3f
00000130: 665e f3be 71ad 45bf 90d0 bf37 186e aa3e
00000140: 9f7f 84be 257a 1cbf 25f4 c43d f9e5 8ebe
00000150: 1bcc f6be a24c 0e3d a792 9b3d b160 583e
00000160: fa8e a6be 6243 993e 09c3 a0be 4f05 1a3e
00000170: 0e20 123d 4365 ccbd d15d 5c3e e1bf d4be
00000180: 91e1 cf3d 3dc9 a73b c07a 23bf 4bd6 033f
00000190: 980b 813d 07d6 e9be 6a2b 63be c48d 01bf
000001a0: ae0d cd3e c622 97be 1037 f63d 536e a03e
000001b0: 656e 7b3d dc36 2f3f a3ff e83e d29b 623c
000001c0: e037 87be 7585 4b3e adb4 133f 2b08 acbe
000001d0: ae3c bebe b051 29bf f457 9e3e 4eb5 9c3e
000001e0: 8e1f 843e 33b2 b13e 84b3 adbe 6e25 12bf
000001f0: 86a8 0abf 2807 2f3e ecd1 aa3e 7920 02be
-0.23373772 0.40280664 -0.19979525 0.25766054 0.17775983 -0.69179785 0.3965318 -0.0064791883
0.4426669 -0.5675801 -0.5636957 0.15266782 -0.070601895 0.24737838 0.1831783 0.057359897
0.26085982 -0.09982904 0.13268282 0.112038955 -0.49167246 0.09909234 -0.2011855 -0.43426636
0.02083167 0.21544218 0.051287312 0.39743575 -0.348336 0.36560726 0.28403464 0.102096245
-0.19877188 -0.08598376 0.016344823 -0.22581463 0.07529241 0.31636235 0.37074056 0.17161895
0.06999055 -0.25563118 -0.19758946 -0.015707165 0.40473434 0.09004666 -0.2354846 -0.23191926
0.39558232 0.6210241 -0.3034127 0.25515214 -0.304046 -0.1981023 0.25658357 0.09221887
0.15313143 0.46448168 0.0024366542 0.5871263 -0.631387 -0.14455782 0.07670869 0.507832
0.729583 0.22972354 0.0063807284 0.27874166 -0.047048863 -0.26897374 0.21180397 0.15657876
-0.06458594 0.46141088 -0.057682738 0.5526373 -0.47532958 -0.77217776 2.2866094e-05 0.3328712
-0.25878617 -0.6112388 0.096168794 -0.2790983 -0.48202595 0.03474105 0.07596331 0.21130635
-0.32530957 0.29934222 -0.313988 0.15041088 0.0356751 -0.09980252 0.21520163 -0.41552642
0.10150445 0.005120425 -0.63859177 0.5149886 0.063010395 -0.45671102 -0.2218453 -0.5060694
0.400495 -0.29518718 0.12022221 0.3133417 0.061384577 0.68443084 0.45507535 0.013831096
-0.26409817 0.19875129 0.57697564 -0.33599982 -0.3715567 -0.6614027 0.30926478 0.30607074
0.25805324 0.34706268 -0.33926022 -0.57088363 -0.54163396 0.17092574 0.33363283 -0.127077

read_encoder.block1.1.weight f4 [128]
00000000: 0576 3c3f d9c5 7c3f 6574 883f e896 df3f
00000010: 56e0 163f 79d7 9e3f 917e 1e3f e544 013f
00000020: 7396 883f 3fbb 8e3f dd8b 273f 37e3 9f3f
00000030: a67d 7b3f db8b 3c3f 57ed cd3f bc65 eb3e
00000040: f056 b73f a6be d03f d612 973f 029c 303f
00000050: d13b 983f 54d1 1c40 0cfa e13e 6172 583f
00000060: 9aa9 cf3f 3718 283f 5734 fe3e 7128 c23f
00000070: aea1 4a3f 31f2 463f 6897 a53f 8b35 ef3e
00000080: 556a 6e3f bd33 a93f e30e 083f 4702 c63f
00000090: 7d85 6f3f 7715 b33f 36aa 2c3f 8903 563f
000000a0: 4ef0 933f 0dd2 833f 0e0b ff3e c7d1 603f
000000b0: 8acf a83f 846e 3d3f be5b 003f 88ca d73f
000000c0: 65f1 b23f 298a 2e3f 79ee a23f 17c1 c13f
000000d0: d4ec 193f 0aa9 b53f 33e8 1b3f 6ed1 cb3e
000000e0: d9e8 203f f010 353f 648d a43f 9760 943f
000000f0: 60a4 793f dab0 5f3f 0c60 833f 88cb c13f
00000100: ae3c cf3f 986e ed3e ec12 d73f 07fd fe3f
00000110: a63e cf3e 2fc6 ab3f 9ad2 e93e 67d4 c53f
00000120: b771 fc3e 910f b33f f555 873f 3f36 973f
00000130: 9b96 8d3f 8c07 823f 42d0 953f ea46 2e3f
00000140: cbd7 4f3f ea5b 393f 511a cd3e 357c f03e
00000150: 8453 903f cd1f 703f a7f9 133f 71c9 793f
00000160: 44e5 303f 74b2 f33e dda8 f03f dc7f a63f
00000170: 7a77 053f 3a02 f03e f8e9 443f ad19 083f
00000180: d2e2 bc3f f462 d23f 6acb 6a3f 428c 1a3f
00000190: 413b a33f 9703 093f c01b ec3e 4973 3d3f
000001a0: c94c d63f a03c 103f 6360 d63e e9f7 df3f
000001b0: 5e5e 933f 409f fa3f 9629 973f 3767 0d3f
000001c0: 43a8 203f 2b83 0b3f c07a 9d3f 8fcf 8f3f
000001d0: ab86 053f 05ef d13f c9d0 8a3f 3212 a33f
000001e0: ad86 673f 530e 673f 7462 193f 8e50 343f
000001f0: b6eb 9b3f aea9 0a3f 3729 7c3f 52e3 0b3f
0.73617584 0.9873939 1.0660521 1.7467928 0.5893606 1.2409507 0.61911875 0.5049575
1.0670913 1.1150893 0.6544779 1.2491215 0.982386 0.736509 1.6088055 0.45976055
1.4323406 1.6308181 1.1802623 0.6898805 1.1893255 2.4502764 0.44136083 0.8454953
1.6223633 0.6566195 0.49649307 1.5168592 0.79152954 0.77713305 1.293683 0.46720538
0.93131 1.3218914 0.53147715 1.5469445 0.9356306 1.3990926 0.6744722 0.83599144
1.155771 1.0298477 0.49813122 0.87820095 1.3188336 0.7399676 0.5013999 1.6858683
1.3979918 0.68179566 1.2729026 1.5137051 0.60126996 1.4192212 0.6090118 0.3980822
0.628553 0.7072897 1.2855649 1.1591977 0.9751644 0.8737923 1.0263686 1.5140238
1.6190393 0.4637344 1.680265 1.9920968 0.40477484 1.3419856 0.4566849 1.5455445
0.49305508 1.3989125 1.0573107 1.181343 1.1061586 1.0158553 1.170418 0.68076956
0.8118865 0.72405875 0.4005914 0.46969762 1.1275487 0.93798524 0.57802814 0.97573
0.6909983 0.47597086 1.8801533 1.300777 0.5213543 0.468767 0.7691951 0.5316418
1.475672 1.6436448 0.91716635 0.60370266 1.2752458 0.535211 0.46114922 0.74004036
1.6742183 0.56342506 0.41870412 1.7497531 1.1513174 1.9579849 1.1809566 0.5523562
0.62756747 0.5449702 1.2303085 1.1235217 0.5215861 1.6401068 1.0844966 1.2739928
0.90439874 0.9025623 0.5991585 0.70435417 1.2181308 0.5416516 0.9850039 0.5464374

read_encoder.block1.1.bias f4 [128]
00000000: 5c17 a6be 3012 c1bd 751c 6ebe 1ddd 96bd
00000010: 97e1 e0be 8669 37be 61ec c9be ab07 24bf
00000020: 8c13 fdbe 01da f9bd bada a4be 88f1 60be
00000030: 4114 42be f719 a3bd c878 18be d97f c3be
00000040: 955d 0bbe 3d22 d7bd 0e84 a8be b892 c7be
00000050: d51d 1fbe 4240 4a3c 042d ffbe fc8d c9bd
00000060: f8d4 763c d018 8fbe 62bb eabe cec8 0ebf
00000070: c124 a2be e101 abbe 9eae 1a3e 4e5e d7be
00000080: d064 cdbe d994 43be 30fa ccbe 5a2e bbbc
00000090: 236e 04bf f75b 2bbe 77c9 8abe 6a39 2fbe
000000a0: c083 84be 37eb 11be 6f4d c4be 0932 6abe
000000b0: 2e8b e0bd 29c1 05bf b823 05bf d7fb 91be
000000c0: bc9e c5bc 6248 30be c0ef 9dbd b455 0dbe
000000d0: 8ad8 99be 9736 2fbe 6d25 4dbe 2e82 dcbe
000000e0: 6b1c d1be f432 16bf 5fd9 11bf 738b 57be
000000f0: 720e 68be 2265 10be c29e 05bf f909 04bf
00000100: 566b bdbd a633 27bf 9cca 31be d5b0 193c
00000110: 5399 00bf 257c 5dbd 4b21 eabe 211c 5ebd
00000120: ee5c 07bf b2e7 373c 34db 2dbe f6a5 02bb
00000130: 667c 22be fec9 75be f721 16be 5e22 e3bc
00000140: a9b4 1bbe 6a0c babe 07c9 20bf fed5 f5be
00000150: fb25 52be 3193 b2be 249b aabe 658d 29be
00000160: 054a 5abe 12c2 29be 5727 c3be 2c4d f13b
00000170: e47c 1ebf 75c7 cfbe 5894 b2be a46e b4be
00000180: 22fb 77bc 3eeb 043c 66bc aabe 987c 3ebe
00000190: 96b8 13be edc6 e1be 3605 d3be 7694 83be
000001a0: 6dcb 80be ecff d2be ac88 87be 1bcf 01bd
000001b0: b640 11be f071 9b3b 8ac8 12be d0a1 06bf
000001c0: 72ac 65be 7c05 01bf ba4e 35bc 783f 2ebe
000001d0: 03ae c2be daa2 e2bd c1d8 97be a7eb 3bbf
000001e0: 9c08 8cbe 600c 18be 7bbb 5cbe 5d42 8abe
000001f0: 9050 e3bd be86 99be 3e75 0bbe 1ceb 22bf
-0.32439697 -0.09427297 -0.23253043 -0.07366393 -0.4392211 -0.17911348 -0.39438155 -0.640742
-0.49428976 -0.12199784 -0.32198125 -0.21967137 -0.18953039 -0.07963937 -0.14889824 -0.38183478
-0.13609917 -0.10504577 -0.3291325 -0.38979125 -0.15538724 0.012344422 -0.49839032 -0.098415345
0.015065424 -0.27948618 -0.45846087 -0.55775154 -0.31668666 -0.3339987 0.15105674 -0.42064136
-0.40115976 -0.1909975 -0.40034628 -0.02284925 -0.51730555 -0.167343 -0.2710683 -0.17111745
-0.25881767 -0.14249884 -0.38340327 -0.2287065 -0.109640464 -0.52247864 -0.5200763 -0.2851245
-0.024123542 -0.17215112 -0.07711744 -0.13802224 -0.3004802 -0.17110668 -0.20033808 -0.4306807
-0.40841994 -0.586715 -0.56972307 -0.2104929 -0.2266176 -0.14101079 -0.5219537 -0.5157772
-0.09248988 -0.65313184 -0.17362446 0.009380539 -0.50233954 -0.05407347 -0.45728526 -0.054226045
-0.52876174 0.011224674 -0.1697815 -0.0019935346 -0.15867767 -0.24002835 -0.14661394 -0.027726348
-0.15205635 -0.36337596 -0.62806743 -0.48014826 -0.20522301 -0.34877923 -0.33321488 -0.16557844
-0.21317299 -0.16577938 -0.3811595 0.007363936 -0.6190932 -0.4058186 -0.34878802 -0.35240662
-0.015135558 0.008112727 -0.33346862 -0.18602216 -0.14425883 -0.4409708 -0.41214913 -0.25699204
-0.25155202 -0.41210878 -0.2647146 -0.03169165 -0.14184842 0.004743807 -0.14334312 -0.52590656
-0.22429064 -0.50398993 -0.011066133 -0.17016399 -0.38023385 -0.11066218 -0.29657558 -0.7340645
-0.27350318 -0.1484847 -0.21555893 -0.27003756 -0.110993505 -0.29985613 -0.13618943 -0.6364

read_encoder.block2.0.weight f4 [128, 128]
00000000: f250 393e 5937 8dbd cc33 8c3e 9daf f1bc
00000010: fff6 723d 1752 103c f6f8 00bc cb67 31bd
00000020: 95ed 05be a9d5 603d f7cf d0bd 941d dcbd
00000030: 988c 2d3e 60a7 a5bd b697 ab3d 503f 05be
00000040: 6ab4 3fbe d8cd dabd fe54 8dbd bbc1 dc3d
00000050: 3e1e 723d e655 36bf 45a9 893d 4cca e43d
00000060: 896f 223e 258c 79bc df11 ad3b 9766 21be
00000070: bc33 5d3d a232 5abc 7fee 50be b819 d73d
00000080: 8434 103e 91f5 913c 21c0 00be 8c5e c03d
00000090: c2d2 5b3d bf22 c2bd 0c79 913d fd69 06be
000000a0: 0095 2dbd cc48 44be 34e7 bcbb d1b5 d93d
000000b0: 4593 c9be 17a8 a0bd c725 3c3e ef0a b93d
000000c0: 3f0b 74be e2a8 9b3d e133 51bd eae6 df3d
000000d0: 6a44 1a3e 151e 71be a89a 053e 2c82 cb3d
000000e0: 3629 f73c 7e8b c73d 20ce d7bd 01e7 1bbd
000000f0: 2eae c1bd 9dcb 0d3e de47 78be fcb2 0dbe
00000100: 26f6 76be ba0e 533e 346a 92be a493 0ebd
00000110: 8afe 12bb 8de5 e3bd 6c48 053e 4af6 86be
00000120: 14cb 393e 18ba 193e bfaa 22bd 38d6 13be
00000130: 03c4 863c b534 ca3d 8d19 603d 5881 403d
00000140: 631e e53d 030c 2e3d d19f 223e 4add 123d
00000150: 0ac9 84bd d8b0 023e e577 b4bc a727 08be
00000160: cdbd 913d eaa6 90bd fa86 d83d be19 0fbe
00000170: 670e 50bd 47dd 383e 2a14 1a3d f739 afba
00000180: 7146 62be 807c 003d 3b71 713d 0f77 e63d
00000190: a08a e33b d8b0 283e b313 ad3d 827b 56bd
000001a0: 0c70 a13d 186d ff3d 2112 d93d f696 9cbb
000001b0: c0b3 0fbe 7421 5cbf 7875 64be 60f5 6a3e
000001c0: 06b8 f33b 1cda 153d 98c8 983d 9d3a 8ebc
000001d0: fc46 e53d 6fde d0bd 4028 63bd 5d33 1fbe
000001e0: ff46 c43e e350 2a3e fac0 943d c7f4 54bd
000001f0: b2cf 35be 65b9 4f3e c955 aebd 746f 9e3d
00000200: 21a0 7abb f352 e3bc 432e 393e e741 fcbd
00000210: b50a b23d 9877 433e acf9 533e d7c2 3fbc
00000220: d401 693b 1114 4a3e dcd7 57bd 5fbc 663d
00000230: 2097 00bd fbc2 a0bc ebb9 623e e44b c03d
00000240: 090f d13e c9e7 15be 023d 913e 48de 783d
00000250: 8586 f73d e193 03be ec29 d3bd c6bd 85bd
00000260: 6a2c 17bf b103 0a3c c3e0 7c3c 2894 5bbe
00000270: 046d d33d bc87 f33d 611e 733d 47b9 8dbd
00000280: 8f7c b1be aaa6 b13d 4b2e 163e f9c7 3abe
00000290: 824f 69be d714 84be a127 2fbd 2d59 1c3e
000002a0: 73cd 163c 342c 353e de81 273e 6405 013e
000002b0: e904 67be 3ab3 c53d 3bbb c5bd 003b 993d
000002c0: 25be 603d 2cf0 153c 960a 43be 8c94 053e
000002d0: 12d2 48bd e730 dbbd 0faf 36be 1791 c83d
000002e0: 2c85 313e c295 b4bc 6263 23be aa76 923d
000002f0: 5321 babc 630b f3bd 4211 303e 983c 49be
00000300: 2b4d adbe 6a4d b2bd 03d0 efbd 2dba 843e
00000310: ce1b 103e d329 05be 8987 a2bd eda4 973d
00000320: 3f33 553d 97bd 7e3d 22f8 95bd 2334 1bbe
00000330: a6ae a5bd d4e5 cc3d 3314 8d3e 7b7e cdbd
00000340: 06be 843c 4f57 723d f255 333d 0aeb d33d
00000350: 7b53 3dbc 6a15 aebd 8fc0 2e3e 737d bf3d
00000360: de3d c43d f477 1639 a344 7b3e 25f7 073e
00000370: ea31 41bc 5289 2ebd 1b4b aabc 40b8 ffbd
00000380: ee0a a4bd 80b6 0cbf eeef 3fbe 8a37 86bc
00000390: 6cc2 2c3d 58f6 e638 a09c 0d3c 56a8 a3bc
000003a0: 7378 76be cc67 3ebe ff50 b83d ef8c dc3e
000003b0: 87c6 783e 16dd 08bf f011 ca3c 6ec0 6d3e
000003c0: f9ec 92bd c83f cebd 2f5f ba3d abfb 993d
000003d0: 4922 f13d e225 6d3e 3bf9 ffbd 4ba7 743a
000003e0: 9bbf 013e 0189 6e3d 5228 ac3d e6a4 e3ba
000003f0: 6597 9abb 3537 eabc d304 7e3b c21d 103e
0.18097284 -0.06895322 0.27383268 -0.029502684 0.059317585 0.008808634 -0.007871857 -0.043311875
-0.13078912 0.054891262 -0.10195916 -0.10747829 0.16948164 -0.08088565 0.08378546 -0.13012433
-0.18721166 -0.10683793 -0.069009766 0.10779139 0.059110872 -0.7122482 0.06721739 0.111713976
0.1586286 -0.015231167 0.0052816714 -0.15761791 0.054004416 -0.013317736 -0.20403479 0.10502952
0.14082533 0.01781729 -0.12573291 0.093930334 0.05366779 -0.094792835 0.07103166 -0.13126369
-0.042378426 -0.19168395 -0.0057648662 0.10630382 -0.3937017 -0.078445606 0.18373786 0.090352885
-0.23832415 0.07600571 -0.051074866 0.10932715 0.1506516 -0.23546632 0.13047278 0.09936938
0.030171018 0.09743403 -0.10537362 -0.0380621 -0.0945705 0.13847204 -0.24246165 -0.13837808
-0.24117336 0.20611086 -0.28596652 -0.03480877 -0.002242955 -0.11127768 0.13015908 -0.2635978
0.18143874 0.15012395 -0.039713617 -0.14437187 0.016450888 0.09873334 0.054711867 0.04699835
0.111874364 0.042491924 0.15881278 0.03585557 -0.06483658 0.12762773 -0.022029826 -0.13296376
0.0711628 -0.07063086 0.1057262 -0.13974664 -0.050794985 0.1805316 0.037616886 -0.0013368715
-0.22097184 0.031368732 0.058945876 0.112531774 0.0069440156 0.1647371 0.08451023 -0.05236388
0.07882699 0.1247198 0.10599161 -0.004778738 -0.14033413 -0.85988545 -0.22310436 0.22945166
0.007437709 0.03658496 0.07460135 -0.017361933 0.1119518 -0.10198676 -0.055458307 -0.15546937
0.38335416 0.16632418 0.0726337 -0.05199125 -0.1775501 0.20285566 -0.08512456 0.07736102
-0.0038242417 -0.027749514 0.18084054 -0.123172574 0.086934485 0.1908859 0.20700711 -0.011704168
0.0035554068 0.19734217 -0.052696094 0.05633199 -0.031394124 -0.019624224 0.22141235 0.09389475
0.40831783 -0.146392 0.28366858 0.06075886 0.120862044 -0.1284938 -0.1031073 -0.06530337
-0.59052145 0.008423732 0.015434447 -0.21443236 0.103235275 0.11891124 0.059355143 -0.069201045
-0.34665343 0.08674367 0.14666097 -0.18240346 -0.22784236 -0.2579715 -0.042762402 0.15268393
0.009204256 0.17692643 0.16358134 0.12599713 -0.22560467 0.096533254 -0.09654852 0.074819565
0.054868836 0.0091515 -0.19047007 0.13044947 -0.049028464 -0.10702687 -0.17840217 0.09793299
0.17335957 -0.022044066 -0.1595588 0.071515396 -0.022720968 -0.11867406 0.17194083 -0.19652021
-0.33847937 -0.08706172 -0.11709597 0.2592329 0.14073107 -0.13004236 -0.079360075 0.07404504
0.052050825 0.062192526 -0.07322718 -0.15156607 -0.08089952 0.10004774 0.27554473 -0.1003389
0.016203891 0.059165295 0.043783136 0.103475645 -0.011555548 -0.08500178 0.17065643 0.093500994
0.09582113 0.00014349801 0.24537902 0.13277872 -0.011791686 -0.042611428 -0.020787766 -0.12486315
-0.08009897 -0.5496597 -0.1874387 -0.016383905 0.042177603 0.0001101314 0.008643299 -0.01997773
-0.24069385 -0.18594283 0.08999824 0.43076274 0.24294482 -0.5346235 0.024666756 0.23217937
-0.07174105 -0.10070759 0.09100186 0.07518705 0.117741175 0.23158982 -0.12498709 0.000933279
0.12670748 0.058236126 0.08406128 -0.0017367869 -0.0047177547 -0.028590778 0.00387602 0.14073852

read_encoder.block2.0.bias f4 [128]
00000000: 7160 2c3e 4b98 bc3d 40d4 713e 4f94 5bbe
00000010: 41cf c03e ad67 0e3d df23 643e 7b27 8d3e
00000020: 781f 123e 50b7 ca3d afed a4bd 05ca ae3e
00000030: 4af9 503e b3f6 a5bc 93a4 0b3c 12ce 973e
00000040: 8558 733c de2e 813d a5e5 583e 1488 6d3e
00000050: 50c0 b0bc 01d3 b8bd addc abbd b911 7dbd
00000060: 3f73 9a3d 0e63 9a3c 5030 b83d 51c7 a03d
00000070: 84cc 933e f29d 8e3e df54 10be 35ab bc3e
00000080: 47a2 743d 913c 87bc 7650 6e3e 4460 68bd
00000090: 6dbc e43c 5f5d b63e 3cf3 a03e b74c 3d3e
000000a0: b295 313e 2a9b e13c 88f8 2c3d d18a 0a3d
000000b0: da50 b73d e939 563e 2829 8f3e 5164 f13b
000000c0: e83c 4dbd 9c4d de3d 934e 873e ee4f 563e
000000d0: 2b29 cf3c b50d 31be 1243 703e 88b9 b23e
000000e0: 7748 523e 0e91 a73e 1460 85bd 0434 5d3d
000000f0: 32cd 673e 21ce 263e 34a6 443e c5f2 64bd
00000100: fe29 ed3d 8890 5f3e c4f3 42bd ebfd ccbc
00000110: 5393 aa3e f973 dcbd f186 5f3e 6d36 30be
00000120: 128b 9a3e 1bbd 87bd 9d96 9a3b 6216 f2bc
00000130: d4c9 e43d 9c93 b23d a194 363e aab5 22bd
00000140: f63f 95bd bed3 bb3e b81c 643d 02a2 e13d
00000150: d20d 8abd 113c 473d 6eea 9d3e c7c2 c1bc
00000160: a4ff fcbb 4571 9d3d c575 01be 8a87 39bd
00000170: 305d fe3d cd51 523d 72f4 b03e 7144 ea3d
00000180: 3e18 7c3e 4e5a 15bd 8a8d 5f3e f9a6 2d3c
00000190: 7104 0abd 24e3 543e 76f2 43bd 9fb0 fc3c
000001a0: 9d7d db3d c0de b93d 55da d63d 2872 d5bc
000001b0: 74ff 093e 7aa8 b0bd aed9 81bd 4a26 993e
000001c0: 816e 9e3d 4f99 c03e d44f 57be ce7d ba3e
000001d0: 92a5 8fbd 9d60 ff3b 0c12 713e 94df 39bd
000001e0: 4dcc c5bd 411f c23c 017f f5bb a923 7e3e
000001f0: fb2d c7bd 0125 9f3d 4817 82bd b2d8 583e
0.16833664 0.09208735 0.23616123 -0.21443294 0.37658122 0.03476684 0.22279309 0.27569184
0.14269817 0.09898245 -0.08053147 0.34138504 0.20407596 -0.020259237 0.008523124 0.29649407
0.014852648 0.06307767 0.21181352 0.23196441 -0.021576077 -0.09024621 -0.083917 -0.06178448
0.07541513 0.018846061 0.0899359 0.078505166 0.2886697 0.27854878 -0.14094876 0.3684937
0.059725072 -0.016508373 0.23272881 -0.05673243 0.02792188 0.35618111 0.31435573 0.18486296
0.1734226 0.027539808 0.042229205 0.033823792 0.08950968 0.20920528 0.27961087 0.007366695
-0.050106913 0.108546466 0.26427135 0.20928928 0.025288185 -0.17290385 0.23463085 0.34907174
0.20535456 0.32727855 -0.06512466 0.054004684 0.2263687 0.1628957 0.19204026 -0.055895586
0.11580275 0.21832478 -0.047595754 -0.025023421 0.33315524 -0.107643075 0.2182882 -0.17208262
0.30184227 -0.06627866 0.0047176615 -0.029551689 0.11171308 0.087195605 0.17830135 -0.03972403
-0.0728759 0.36684984 0.05569145 0.11017229 -0.06740917 0.04864127 0.30842918 -0.023652447
-0.0077209044 0.0768762 -0.12642582 -0.045295276 0.12420118 0.051347543 0.34561497 0.114388354
0.24618623 -0.036463074 0.21831337 0.010598891 -0.033695642 0.20789772 -0.04783865 0.030845938
0.10717318 0.09075689 0.10490862 -0.02605541 0.13476354 -0.08625884 -0.06340347 0.29912025
0.07735921 0.37616965 -0.21026546 0.36424106 -0.07014002 0.0077934996 0.2354204 -0.045379236
-0.09658108 0.023696544 -0.0074919467 0.24818291 -0.09725567 0.0777073 -0.06352097 0.21176413

read_encoder.block2.1.weight f4 [128]
00000000: 82b8 4a3f d825 733f 294e 533f b1be e23f
00000010: 491b 2c3f 75ad 703f a50c 473f 9a75 223f
00000020: f82c 813f cbcb 793f 9586 9e3f ccaa 283f
00000030: 0cf1 223f 9796 ad3f 9a37 8a3f 444a 2b3f
00000040: 9791 893f c460 883f c880 553f ef50 7e3f
00000050: 03a7 953f 1ce7 843f bcf1 a53f 6de7 8f3f
00000060: 6850 2f3f c4f9 8c3f af3c 6c3f 47f9 833f
00000070: 70f9 373f 84af 2a3f deda a33f 9a52 1d3f
00000080: 4a04 593f 9d0d 883f e27e 433f e53e 963f
00000090: 31e9 8a3f 316c 2e3f 5a9d 2d3f 13ff 3a3f
000000a0: 915b 4a3f 32cb 593f e5d9 b73f 102c 7a3f
000000b0: 67dd 683f bf7c 723f 2615 473f 94d1 463f
000000c0: c478 983f 5325 3c3f f1c5 203f f802 663f
000000d0: d3a1 bf3f d700 a43f c054 073f bf3d 2c3f
000000e0: c67e 3b3f 7d98 403f 9f3c 923f 5c00 813f
000000f0: 8540 2a3f b7ab 5c3f 8b49 153f 0dd4 863f
00000100: 6116 613f d516 653f 3624 923f cef6 9e3f
00000110: ad91 123f 597f 9b3f 4eb1 563f 4130 913f
00000120: fdce 273f bf2a 993f fef6 8d3f a0c1 943f
00000130: 0667 263f d19a 7c3f 373c 7a3f ae01 9d3f
00000140: 58b6 a13f a11b 0d3f 09e6 873f 2aac 873f
00000150: 2d20 a33f 6987 793f 1396 3b3f b0c4 8c3f
00000160: 15bb 973f 20fa 803f 4687 8a3f 0bf2 903f
00000170: 5350 6e3f c875 a33f 6fd1 263f 7e98 913f
00000180: 5171 623f c4fa 873f f309 363f 8f48 973f
00000190: 186e a33f c11c 4e3f f3d7 9e3f dc1a 9f3f
000001a0: 18e4 893f a2c2 5b3f 5100 5c3f 16f0 853f
000001b0: 93da 723f eb5b 943f fe1d 673f 009a 2c3f
000001c0: 05bf 5f3f 0e58 373f a6fc a33f d1aa 243f
000001d0: 2003 8d3f 5cc7 a43f c014 303f af16 803f
000001e0: d92d ab3f 5c16 6d3f c912 973f d4d0 543f
000001f0: a9be 9f3f 796d 933f 6ba9 943f 1c1e 283f
0.79187787 0.9497962 0.8254114 1.7714444 0.67229134 0.94014674 0.7775367 0.63460696
1.0091848 0.9757659 1.2384821 0.65885615 0.6364906 1.3561581 1.0798218 0.66910195
1.0747555 1.065453 0.8339963 0.99342245 1.1691593 1.0383029 1.2964396 1.12425
0.68482065 1.1013722 0.92280096 1.0310448 0.71864986 0.66674066 1.2801168 0.61454165
0.8477217 1.0629154 0.7636548 1.1737944 1.0852414 0.68133837 0.67818224 0.7304546
0.7904597 0.85075676 1.4363371 0.97723484 0.90962833 0.947216 0.77766645 0.7766354
1.1911855 0.7349445 0.62802035 0.8984828 1.497126 1.2812756 0.52863693 0.6728172
0.73240316 0.7523268 1.142475 1.0078235 0.665047 0.86199516 0.5831534 1.0533463
0.8792477 0.89487964 1.1417301 1.2419069 0.57253534 1.2148238 0.83864295 1.1342851
0.65550214 1.196617 1.1091001 1.162159 0.6500095 0.9867373 0.9774813 1.2266138
1.2633772 0.55120283 1.0617076 1.0599415 1.2744194 0.97472245 0.7327587 1.0997524
1.1853968 1.0076332 1.0822532 1.1323866 0.93091315 1.2770319 0.6516332 1.1374662
0.8845416 1.0623403 0.7110893 1.1819018 1.2767973 0.80512625 1.2409652 1.2430072
1.0772734 0.8584386 0.8593798 1.0463893 0.9486477 1.1590551 0.9028014 0.67422485
0.8740085 0.71618736 1.2811477 0.64323145 1.1016579 1.287334 0.6878166 1.0006922
1.3373367 0.9261224 1.1802608 0.83131146 1.248006 1.1517783 1.1614202 0.65670943

read_encoder.block2.1.bias f4 [128]
00000000: d5cc 89be 38c1 a0be 634e dabe 8505 92be
00000010: e985 babe 5230 d6be 8ea9 03bf 20ee 94be
00000020: f0d1 5dbe b0f2 53be d6fa 60be b235 9ebe
00000030: 582c e7be 5bb1 68be 742e a0be c030 c9be
00000040: 549e f7be 0ee1 8ebe 1e10 aabe cb0a 62be
00000050: 22ac 61be ca5a 9cbe bf53 a3be 9a5b 6cbe
00000060: 80ff bdbe 2f7c 87be 22fd a6be c45b 83be
00000070: 624d 7cbe e824 b8be e164 3abe 2cde e5be
00000080: 0fce 9bbe ec62 01bf b878 81be f523 6bbe
00000090: 5020 a5be 1849 91be 22b0 a1be b10d c4be
000000a0: f672 c6be 3649 b0be 9f47 94be 8c06 e9be
000000b0: 1d21 a6be 54c4 91be 9425 8dbe d738 c2be
000000c0: 90d7 7bbe 994d c2be bed4 8cbe 0185 90be
000000d0: e9f2 4dbe d279 1abe 6ae2 ecbe 121f f2be
000000e0: 40cc f9be f223 c1be d7bc b7be 9bbf 63be
000000f0: 0957 a9be 6c67 e5be c329 a0be d711 bcbe
00000100: ea63 ecbe f676 b1be fd2b a1be f098 52be
00000110: b946 b3be a716 35be 6161 b7be 44e8 aebe
00000120: 7c96 d2be 1738 b0be 256f 77be 5b10 dbbe
00000130: 6a93 fdbe c833 70be 7e55 80be 2807 c5be
00000140: 6184 6cbe 0654 bfbe 8409 d7be 27ab f1be
00000150: 11ca 1dbe ba57 cdbe 91e2 bbbe 7b0f c5be
00000160: d6e6 1bbe 4985 efbe 90d8 82be f827 84be
00000170: ef5e dcbe a68d d0be 9192 efbe 156e 84be
00000180: 7af3 77be 0c4f 64be b869 b1be 81c0 92be
00000190: c3a1 8dbe e163 7dbe d930 1fbe c706 1abe
000001a0: 2b64 19be fc6f 85be 9551 05bf 7488 b1be
000001b0: ff07 87be 411b 26be 88e8 79be 4b84 8fbe
000001c0: 1e00 9bbe 0494 dbbe a315 b1be 07cb a5be
000001d0: 3f93 56be 9649 febd 1e7c 9ebe 0894 98be
000001e0: 42ad abbe c202 c7be ae80 52be 95cc 66be
000001f0: 74e7 6dbe 23f5 14bf 005d b1be e2b2 bebe
-0.26914087 -0.31397414 -0.4263793 -0.28519836 -0.3643029 -0.4183374 -0.51430595 -0.29087925
-0.21662116 -0.20698047 -0.21970686 -0.3090034 -0.4515102 -0.22723906 -0.3128544 -0.39295006
-0.48362982 -0.27906078 -0.3321542 -0.2207443 -0.2203832 -0.30538017 -0.3189983 -0.23081818
-0.37108994 -0.26461932 -0.32615 -0.2565595 -0.24638894 -0.35965657 -0.18202545 -0.44896066
-0.30430648 -0.5054157 -0.25287414 -0.22962935 -0.32251215 -0.2837608 -0.3157969 -0.38291696
-0.38759583 -0.34430856 -0.28960893 -0.45512807 -0.32447138 -0.284701 -0.27567732 -0.3793399
-0.2459395 -0.37949827 -0.2750606 -0.28226474 -0.20112194 -0.15085533 -0.4626649 -0.4728933
-0.48788643 -0.37722737 -0.3588626 -0.2224106 -0.33074215 -0.44805467 -0.31281862 -0.3673236
-0.46169978 -0.34661072 -0.31478873 -0.20566154 -0.35014895 -0.17684422 -0.35816482 -0.3416158
-0.41130435 -0.34417793 -0.24163492 -0.42785916 -0.4952653 -0.23457253 -0.25065225 -0.38482022
-0.23097374 -0.37368792 -0.41999447 -0.4720089 -0.15409113 -0.40105993 -0.36696294 -0.38488373
-0.15224776 -0.46781376 -0.2555585 -0.25811744 -0.4304118 -0.4073307 -0.4679151 -0.25865236
-0.24213973 -0.22295779 -0.3465097 -0.28662494 -0.27662477 -0.24745132 -0.15545978 -0.15041648
-0.14979617 -0.26062 -0.5207761 -0.34674418 -0.26373288 -0.16221334 -0.2440511 -0.2803062
-0.30273527 -0.42886364 -0.3458682 -0.3238146 -0.20954607 -0.12416379 -0.3095407 -0.2980044
-0.33530623 -0.38869292 -0.205569 -0.2253898 -0.23232824 -0.5818655 -0.34641266 -0.37245852

read_encoder.block3.0.weight f4 [128, 128]
00000000: a84e 483c c7a1 46bd 3fa9 e23d 1797 003f
00000010: 1da3 41bd 44c8 dbbe d4b4 a43d 1598 51bd
00000020: 82da e2bb 3b8e 11be 4a1c 78be 88cd 1a3c
00000030: 1d23 173d baaa 2f3e e0d4 2a3e c936 af3d
00000040: e2a1 cb3e 4d68 14be 36bd 123e add5 e4bc
00000050: fd47 053d caf7 033f 4f0c 4a3e f887 333c
00000060: cf24 d33d 96b8 143d 7e01 453e 4cea 9c3d
00000070: a91d 32bd 7fcf 673e 6bbf 83bd 026c 083d
00000080: 26ec b8be b84e 893e 1722 b1bd 0cd6 2d3d
00000090: fdf2 483d 8263 7abd b186 3bbd 61cc 05bd
000000a0: 7e01 7c3e a973 28bd 910b 233e 5f06 d5bc
000000b0: 1c53 3d3d a679 5b3d 978e f0bd 7711 803e
000000c0: 5937 89be 3990 d93d 4b96 233d 9ff4 bbbc
000000d0: 3ea2 04be aab5 47bd 8640 d43d 30ff 103e
000000e0: 5cdc ee3d f1aa 473d 578e 39be 02d5 97be
000000f0: 1905 2cbe 9bcd 553e fa02 dc3c 1ca4 4bbd
00000100: 9e5c 55be d470 5ebd 2542 6ebe 7878 263e
00000110: 4416 84bc cb41 f2bd 9e34 cbbd be9c 113e
00000120: cea1 df3d 8cdf 903d b710 afbd e849 273e
00000130: cabd 93be 4b46 08bf aca8 2a3e 80fe ce3d
00000140: 44fb 4dbe 5af6 15bd 6b40 a33d 08fe eebe
00000150: 9f2b 92be af79 a4be c879 063e 3075 303e
00000160: 518b 953d 3bfe b83e bf5d 65be 2eb5 4f3e
00000170: 015a 98bd 4971 413e fa70 f0bc ed92 c8bd
00000180: 4382 f43d d7a3 7e3d 4a11 033e 89dc 673d
00000190: f238 a8bd 1349 be3c 46f0 23bd 7cba b83d
000001a0: 9948 48bd 1f6f d23d 176d f6bc 0f0e 733e
000001b0: 5fb3 e0be 4ea5 913e dd12 b53e 68dc 51be
000001c0: 17d1 46be e309 a83d 09d4 9d3c aa47 0f3c
000001d0: 5236 b63d 898d 903e 0be5 3b3d ce46 c83d
000001e0: af6b 20be f738 473e a773 42be 675a 65be
000001f0: 8116 e43d 79c8 ea3b 8673 7b3d e1b2 933d
00000200: a89c 2d3d 1856 8fbd 163b 63bd d1c5 cabe
00000210: bf06 c5bc c1b7 843e c809 9fbb b3c3 853d
00000220: 6944 84be 7888 15bc 68cb 3f3e d66b 283e
00000230: 15d5 05bd e95c 3e3e 41ed 4abe bddb 37be
00000240: d498 013d 1c39 93bd c200 9b3e 99fb 41be
00000250: 270c 4c3e 5a93 a5bd 7af4 de3d c403 5a3e
00000260: af36 afbd 6ef8 9b3e 3522 2ebd 4915 733e
00000270: 5273 47be baf1 afbc d41c 5c3e fd7d b93d
00000280: 7408 223e 2899 103e c8cb 10bb 5dfc 4b3c
00000290: f4eb b13e 8aa1 44bd f3ac bbbb e1ad 293e
000002a0: e0b2 68be 07a5 223e 4409 f9bc 7bc0 0a3e
000002b0: 959f 223e 4f62 04bd 8df5 c13c 767b c2bc
000002c0: aa57 973c e344 fd3c 1af5 e83d d4b8 e9bc
000002d0: 2002 843e 26b8 38bd 18cc e5bc a623 d6bc
000002e0: d159 a0be 2c67 2c3c b5ee 1c3e 5b55 6a3e
000002f0: c70c 933c 3d2a c6bd 5739 43be e72e b6bd
00000300: bfef cf3d 2879 c43d 3aaa 91bd 9565 a93d
00000310: 965b 723d 0e1d 853b c38b d1bd 7de6 663e
00000320: 3111 74bd 4913 263e 7141 613e 2f37 473d
00000330: b765 0e3e a628 3d3e 9f8d ca3a 6db4 86bc
00000340: b632 5c3e 6dff 953c 9a14 b1be 5954 2c3d
00000350: 7198 8d3d 0ef4 0d3e ec69 c2bd 43bd 233e
00000360: b7ad cb3d 3e94 15be f54e 0d3e 89aa 62bd
00000370: f872 cfbd 600e 3d3d 92f6 dd3c b239 043e
00000380: 8e40 e8bd 49f2 7a3b 88d9 443e 20dd cc3d
00000390: e6b3 9e3d 3227 cc3d f437 1e3d 0c1a c63d
000003a0: 27d3 8a3d 9e38 0ebb daf4 813d c4e2 cf3c
000003b0: 215e 833c f865 b4bc 1a94 403e a39b e9bd
000003c0: 0094 b93d 689e abbd abbf 13be ab8b 2dbe
000003d0: 402b 203e 93ea e13d 9293 1cbe 9183 4b3e
000003e0: cdb7 06be d343 76bd 07c7 153d e8e6 52bd
000003f0: 5aec 41be 32a2 883e 7bcf a0bd 1bd5 c6bd
0.012225784 -0.048494127 0.110674374 0.50230545 -0.047274698 -0.42926228 0.08042303 -0.051170427
-0.006923021 -0.14214413 -0.24229541 0.0094484165 0.03689872 0.17154971 0.16682768 0.08555371
0.39771944 -0.14492913 0.1432999 -0.02793392 0.032539356 0.5154997 0.19731258 0.01095771
0.10309755 0.036308847 0.1923885 0.07661876 -0.043485317 0.22637747 -0.064329945 0.03330613
-0.36117667 0.2681787 -0.0864908 0.04244046 0.049059857 -0.061130054 -0.04578275 -0.032665614
0.24609944 -0.041125927 0.15922381 -0.026004015 0.046221837 0.05358281 -0.11745947 0.25013325
-0.2680004 0.106232114 0.039938252 -0.022943793 -0.12952515 -0.048757233 0.10363869 0.14159846
0.11663124 0.048747007 -0.18120705 -0.296547 -0.1679882 0.20879214 0.026856888 -0.049717054
-0.20836112 -0.05430682 -0.2326742 0.16256893 -0.016123898 -0.11828955 -0.09922145 0.14219949
0.10919534 0.07073888 -0.0854811 0.16336787 -0.28855735 -0.5323226 0.16665906 0.10107136
-0.20115381 -0.036611892 0.07971271 -0.46678185 -0.28548905 -0.32124087 0.13132393 0.17232203
0.07301963 0.36131462 -0.22399043 0.20283958 -0.07439042 0.18890871 -0.029350746 -0.09793649
0.11938908 0.06216797 0.12799564 0.056606803 -0.082139865 0.023228204 -0.040024064 0.09019944
-0.04889736 0.10275101 -0.030081315 0.23735832 -0.4388685 0.2844643 0.35365954 -0.20494235
-0.19415699 0.08205011 0.019266145 0.008745113 0.088970795 0.28232983 0.04587273 0.0977913
-0.15666078 0.19455324 -0.1898943 -0.22397767 0.11137105 0.0071650115 0.06138947 0.07211853
0.042385727 -0.06998843 -0.05547627 -0.39604047 -0.024051068 0.25921443 -0.004853461 0.06531467
-0.25833443 -0.009126775 0.18729937 0.16447386 -0.032673914 0.1859013 -0.19817068 -0.17954917
0.03163989 -0.07188627 0.30274016 -0.18943633 0.19926511 -0.08084746 0.10886474 0.21290499
-0.08555352 0.30462974 -0.04251309 0.23738588 -0.19477585 -0.021477569 0.21495372 0.090572335
0.15823537 0.14120924 -0.002209412 0.012450305 0.3475033 -0.04800562 -0.0057274043 0.16570236
-0.22724485 0.15883265 -0.030399926 0.13549988 0.15881188 -0.032320317 0.023676658 -0.023740511
0.018474419 0.030916637 0.113748744 -0.028530516 0.2578287 -0.045097493 -0.028051421 -0.026140045
-0.31318524 0.010522645 0.15325435 0.22884123 0.017950429 -0.09676025 -0.19064842 -0.08895665
0.1015315 0.09593421 -0.07112546 0.08271328 0.059169374 0.0040623015 -0.102317356 0.22548862
-0.059586708 0.16218294 0.2199762 0.04863661 0.13905989 0.18472537 0.0015453583 -0.016443456
0.2150372 0.018310273 -0.3458603 0.042072628 0.069138415 0.1386263 -0.09492859 0.15990166
0.09945243 -0.14607331 0.13799651 -0.055338416 -0.101293504 0.046156287 0.027095113 0.12912634
-0.11340438 0.0038291386 0.19223607 0.10003114 0.07749157 0.099684134 0.03862758 0.09672937
0.06778555 -0.0021701227 0.0634553 0.025376685 0.016036095 -0.022021279 0.18806496 -0.114066385
0.09061432 -0.08379823 -0.14428584 -0.1694781 0.15641499 0.110310696 -0.15290669 0.19874407
-0.13156052 -0.060123276 0.03656676 -0.05148974 -0.18937817 0.26686245 -0.07852074 -0.097086154

read_encoder.block3.0.bias f4 [128]
00000000: e6cd 203d 9d1b 623e 1800 01be 2cde 7f3d
00000010: 7903 3b3d ca80 8f3d 53da 92bd 81e7 f9bc
00000020: 006b b53d 09f7 523d e9df 2d3e 5dd0 213e
00000030: 3174 a53d 00ff 04bd 9e92 633e f3fa c13c
00000040: 7869 473e eca1 513e e511 023e ee34 a13d
00000050: 350a 7e3e d0e3 64be f97f 143e 91da 153e
00000060: deba 113d 3d45 153e ac82 1abc 171d 073e
00000070: c1f7 2d3e 8604 12be 6e6a 75bd fd4a 80bd
00000080: 1755 503e fdaf 8b3d f313 bf3d f09c ab3d
00000090: d5be 45be fcf7 84bd b8d3 063e 2046 cb3d
000000a0: c4a0 90bd c049 573c ec42 bc3d 71ab 5f3d
000000b0: 9a8a 7a3e 87ce 2a3e ca25 a03c daf5 04be
000000c0: b7de f6bd 8089 21be 27c9 08bd 8405 5e3c
000000d0: 5316 17bd d670 ae3d 5379 533d edbc 53bd
000000e0: f0e9 a43d 0af7 133e 6944 3a3d 5fce af3d
000000f0: f0ad abbd ada4 39be 9e28 2d3e cb71 363e
00000100: 17f0 393e 260d 723e fdb6 4e3e 9a1f 08be
00000110: f35a ecbc f985 1b3e b435 433e b61f c1bd
00000120: 176f 32bc add1 8abd 7b4b f03c 8bee 6ebd
00000130: 1308 da3d 450e 0b3e 5ec8 b53d baf4 37be
00000140: 7121 3dbe 21a8 d63d 6f7e 913d 0ef9 68be
00000150: 0a7e 9c3d 91f7 ef3a bc6e 3bbe a197 2e3c
00000160: 9347 fa3d afcb 21be 1464 1dbe af86 31be
00000170: aa9a 36be 3796 523e 8b65 ddbd c511 2d3d
00000180: 790b dd3d fc7d 523d 33c1 0cbe 0aeb 2d3e
00000190: 523d f23d e483 563e ed1d bc3d 8e9c 843d
000001a0: 13eb e93c 97d2 82bd c7d9 25be c04e d2bd
000001b0: 632c 4fbd 5295 87be 2ff2 a8bd 5e1d 423e
000001c0: b76a 5d3d 8a0e 783e de2c 86bd f631 7cb9
000001d0: 7fcb 103e e69e 383e 0a12 5abc 21dd bbbd
000001e0: 2664 8f3e 21dd 60be 9b3d b73c 9399 cf3d
000001f0: aebe 2d3e cd23 dfbd 2f60 2f3e 482b 8c3d
0.03925886 0.22080846 -0.12597692 0.06246774 0.04565761 0.070069864 -0.07170548 -0.030505897
0.08858299 0.051505122 0.16979946 0.1580214 0.080788024 -0.03246975 0.22223899 0.023679232
0.19473827 0.20471925 0.12702139 0.07871424 0.24808581 -0.22352529 0.14501943 0.14634158
0.0355786 0.14577194 -0.009430569 0.1319469 0.16989042 -0.14259538 -0.059915952 -0.06264303
0.20344959 0.068206765 0.09329977 0.08379543 -0.19311078 -0.06492612 0.13166702 0.09925485
-0.070619136 0.013140142 0.09192452 0.05460686 0.24466935 0.16680346 0.01954927 -0.1298441
-0.12054198 -0.15775108 -0.03339496 0.01355112 -0.036886524 0.085176155 0.051629376 -0.051693846
0.080524325 0.14449707 0.045475397 0.08584284 -0.08382785 -0.18129225 0.16910025 0.17816846
0.18157993 0.23637828 0.20186992 -0.13293305 -0.028851962 0.15187825 0.19063455 -0.094298765
-0.010890744 -0.06778274 0.029332867 -0.05833296 0.10646071 0.13579662 0.08876108 -0.1796445
-0.18469788 0.10481287 0.071041934 -0.22751257 0.076412275 0.0018308033 -0.1830396 0.010656268
0.12220683 -0.15800355 -0.15370208 -0.17336534 -0.17832437 0.20565115 -0.108103834 0.042253274
0.10793204 0.05138968 -0.13745575 0.16984192 0.11828102 0.2094875 0.091853954 0.06475173
0.028554475 -0.06387823 -0.16196357 -0.102689266 -0.05057944 -0.2648111 -0.08249318 0.18956515
0.05405685 0.24224296 -0.065515265 -0.00024051205 0.14140128 0.18029365 -0.013309965 -0.09173036
0.28006095 -0.21959354 0.022368243 0.10136714 0.1696727 -0.108955 0.17126535 0.06844193

read_encoder.block3.1.weight f4 [128]
00000000: 664e 973f 1928 603f 35c7 7e3f 9cdb 8c3f
00000010: c320 3d3f c059 733f e9a8 bf3e ac78 1f3f
00000020: 865a 943f 0120 aa3f 218c 743f 9f77 523f
00000030: e2f6 ab3e e92d 693f c673 453f f678 563f
00000040: c853 6f3f 77c7 6a3f 29c4 1c3f b6c1 763f
00000050: 1807 653f 706f a93f d5c8 623f 798f 583f
00000060: d82d 413f 9a87 733f de7d 883f f7c2 593f
00000070: 3cc9 6c3f dfac 5d3f 7542 f83e 3acd 383f
00000080: 5c8a 743f ad81 813f 2c1e 713f 616f cc3e
00000090: aaaf 8b3f 96a2 173f d941 683f b9bd 4f3f
000000a0: 285e 6a3f 0e4e 633f 84b5 643f cf97 693f
000000b0: 7afd 5b3f b900 8b3f d3b7 723f daca 3a3f
000000c0: df46 823f 3cfe 303f 4ece 903d 6c02 373f
000000d0: d3fa 903f f7f9 a03f 55b0 3a3f 49d7 023f
000000e0: db3d 393f 1800 413f 238c f73e ff17 953f
000000f0: c41d 183f 79ca 643f 6a02 883f 6fab 693f
00000100: 1f09 823f 89b1 5d3f 6982 6e3f d740 903f
00000110: ea98 873e 88d3 9e3f f8f1 533f a609 753f
00000120: 1349 393f caca 953f 00a5 9d3f cc63 6e3f
00000130: 8309 173f b197 633f e776 6e3f ef49 ae3f
00000140: bb74 9d3f 346d 553f 16ba 6c3f ac16 753f
00000150: 931e 9c3f 2b23 2c3f fa37 8f3f 08fd 703f
00000160: 7548 913f a168 8c3f e992 6d3f abaa 853f
00000170: 8c4e 873f 3db8 5d3f 19c3 183f 84d0 b53f
00000180: 1c21 8e3f 12c0 9f3f 852a 4c3f 8887 833f
00000190: 37ca 673f c8dd 6d3f 240c 9d3f 9e45 a93f
000001a0: ea54 513f 2579 f33f b39a a53f be2a 7f3f
000001b0: 8b4a a33f ccc0 863f 98c5 563f be15 773f
000001c0: cc13 8b3f 9ad3 523f 6f0c 5e3f ae41 4a3f
000001d0: 84e8 763f a889 8d3f 946c 313f b7d8 0d3f
000001e0: cbd9 6d3f c2f1 943f 664c 9f3f d742 7b3f
000001f0: 61c3 9a3f ffb3 913f be13 513f fe10 493e
1.18208 0.87561184 0.99522716 1.100452 0.73878115 0.9505882 0.37433556 0.62293506
1.1590126 1.3291017 0.9552632 0.8221378 0.33586794 0.9108568 0.7712978 0.8377832
0.93487215 0.9171061 0.61236817 0.9638933 0.8946395 1.3237133 0.88587695 0.8459392
0.75460577 0.95128787 1.0663412 0.8506312 0.9249456 0.86591905 0.48488203 0.7218815
0.9552362 1.0117699 0.94186664 0.39928725 1.0912983 0.5923246 0.90725476 0.8114887
0.9154992 0.88790977 0.8933947 0.91247267 0.8593365 1.0859596 0.94811743 0.72965777
1.0177878 0.6913793 0.070705995 0.7148807 1.1326545 1.2576283 0.7292531 0.5110975
0.7236001 0.7539077 0.48349103 1.1647948 0.5942042 0.8937145 1.0625737 0.9127721
1.0159034 0.8659902 0.9316774 1.1269788 0.26483852 1.2408304 0.8279109 0.9571785
0.7237713 1.1702511 1.2315979 0.9312103 0.5899889 0.8890334 0.9315018 1.3616313
1.2301248 0.83369756 0.92471445 0.9573772 1.219683 0.6724116 1.1188958 0.94136095
1.1350237 1.096943 0.9280229 1.0442709 1.0570846 0.8660925 0.59672695 1.4204259
1.1103854 1.248049 0.7975238 1.0275736 0.9054293 0.92916536 1.226933 1.322437
0.81770194 1.9021345 1.2937835 0.99674594 1.2757124 1.0527587 0.83895254 0.9651755
1.0865417 0.8235413 0.8673772 0.7900647 0.9644854 1.1057634 0.693063 0.55408806
0.9291045 1.1636279 1.244519 0.98148865 1.2090875 1.1383055 0.8167075 0.19635388

read_encoder.block3.1.bias f4 [128]
00000000: 4f75 06be 635d cebd 5514 a8be 5676 2bbe
00000010: 1591 a0be b3a1 a5bd 3713 0fbf 15c5 cdbe
00000020: fdef fbbd e126 08be d9ad cdbd 39be 00be
00000030: c9e5 28bf 7105 7ebe fb29 45be dbcf b5be
00000040: fef1 ddbd a207 6fbd 52f0 9ebe d6b0 4dbd
00000050: 6d52 d5bd 9bc1 babd 4b70 d2bd 7b1c c2bd
00000060: c942 60be e959 90bd 34dc 8bbe 28f3 a5bd
00000070: 6b9b afbd 077a c4be 5567 05bf bb41 78be
00000080: 5d72 c0bd 2d8f 14be 2dff 31be d33d 03bf
00000090: 07b3 ccbe 9727 bebe a062 05be acb4 c3bd
000000a0: e55b a8be 3b30 92be bae2 aabd 4129 0cbe
000000b0: 039c f3bd a1fd 27be 96d5 9fbd 6f1f 91be
000000c0: e1a4 57be 2fd0 adbe 9954 17bf 6c97 99be
000000d0: 24b2 a1be 41ad 42be 02e4 66be 7ca7 40bf
000000e0: 9bfb 92be 8831 7bbe 4ff8 dbbe 9e3f 03be
000000f0: 085b f9be 350d 89be c301 c4bd e0e0 dcbd
00000100: aa7f a1bd 8334 09be 8427 9fbd 4f58 ccbe
00000110: 43ad 0dbf 41d2 5fbe acea f8bd 6300 a8be
00000120: 1f15 06bf 9e89 48be 6036 15be 6a40 a7be
00000130: 7319 f1be b7f4 c3bd 0011 acbd 68ac 18be
00000140: a4e9 32be f6bc 54be 2a72 ebbd e7ed 2fbe
00000150: 8040 c1bd 7b33 7dbe 4cbb 2cbe 386f 2dbe
00000160: ec1c 01be ae70 89be 7645 3bbe a6e2 95be
00000170: 58a8 80be 281c b4bd 063c b4be c773 3abe
00000180: 654a 07be 561c debd 8b27 dcbe ede2 b4bd
00000190: d584 4cbd e024 9ebd f92a 1cbe e778 9abe
000001a0: 8242 38be 4259 b0be 7db4 73be e7a5 6abe
000001b0: b435 50be 1f66 5dbe d249 6fbe dcb7 34bd
000001c0: db4a a4bd 3578 16be bb4b 9abe b545 dbbd
000001d0: f427 98bd 1da2 e6bd 9340 56be 4c56 9ebe
000001e0: d159 63bd 13fe 9ebe 4c43 f2bd 47da b7bd
000001f0: add2 c3bd 36f5 dabe 2f20 b6bd 7875 31bf
-0.13130687 -0.10076406 -0.32828012 -0.1674436 -0.3136069 -0.08087482 -0.55888695 -0.40189424
-0.123016335 -0.13296081 -0.100429244 -0.12572564 -0.65975624 -0.24806763 -0.19254296 -0.35510144
-0.10837172 -0.05835689 -0.31042725 -0.050217472 -0.10416112 -0.091189586 -0.102753244 -0.094780885
-0.21900477 -0.07048399 -0.2731644 -0.08103019 -0.085745655 -0.3837435 -0.521108 -0.24243824
-0.09396813 -0.14507742 -0.17382498 -0.5126621 -0.39980337 -0.3713958 -0.13025904 -0.09555945
-0.3288261 -0.28552422 -0.08344026 -0.13687612 -0.11894991 -0.16405345 -0.0780441 -0.28344294
-0.2105899 -0.33947894 -0.5911346 -0.29998338 -0.31581223 -0.19011404 -0.22547916 -0.7525556
-0.28707585 -0.24530613 -0.42962882 -0.12817237 -0.48702264 -0.2676789 -0.095706485 -0.10785079
-0.07885678 -0.13398938 -0.07771209 -0.39911124 -0.553425 -0.21857549 -0.12154135 -0.32812795
-0.5237598 -0.19583747 -0.14571524 -0.32666332 -0.4708973 -0.0956816 -0.0840168 -0.14909518
-0.1747194 -0.20775208 -0.114963844 -0.17180596 -0.094361305 -0.2472667 -0.16868323 -0.16936958
-0.12608689 -0.2684378 -0.18288216 -0.29274482 -0.25128436 -0.08794433 -0.35202044 -0.18208228
-0.13211973 -0.108452484 -0.4299892 -0.08832345 -0.049931366 -0.07721877 -0.15250768 -0.30170366
-0.1799412 -0.34443098 -0.2379932 -0.22914849 -0.20332986 -0.21620987 -0.23368004 -0.044120654
-0.0802209 -0.14694293 -0.30135903 -0.10706655 -0.074294955 -0.112613894 -0.2092307 -0.30925214
-0.055505577 -0.31053218 -0.11829242 -0.0897718 -0.095616676 -0.42765206 -0.08892857 -0.6931987

bag_predictor.weight f4 [1, 128]
00000000: fa39 19be 6138 6abd 453e c73d ed2f 91be
00000010: b21c 44bd 10bd 4ebd 8357 ae3c 2bf1 e9bc
00000020: 3649 35be b23d 3cbe 4a7b b1bd 3b20 64bd
00000030: 6823 933d f8c1 d7bc 7c65 68bd b226 21bd
00000040: 0de7 babd 6af8 26bd aa80 f4bc 8e85 94bd
00000050: 80e7 71bd 067d 1b3e 5d6e 6cbd 2f9a 20bd
00000060: 7e3b 9dbc 3f8b 87bd b2c7 a8bd 354e 21bd
00000070: 25b9 3ebd 9947 e83d 6490 27bd e44c 2cbd
00000080: 2759 49bd d789 80bd 8c6f 44bd 658d f53d
00000090: 2260 193e 881c afbc 2a49 5cbd a6ec 6fbd
000000a0: 7066 8b3d d0ea 46bd a6fb 98bd 8f9c 2abd
000000b0: 3598 60bd 2a97 b4bd e2ce 6dbd 6815 7b3c
000000c0: 6b98 0c3e 124b eb3c 1c8e 263d 2f85 f3bc
000000d0: f1ec 30be 2181 84be e83d 1abd 4e28 f13c
000000e0: bb42 52bd f2c3 58bd ce9a 413b 3ec6 1dbe
000000f0: fae3 b73d e02f 443e e67e 00be cd5d 89bd
00000100: c859 83bd 32c6 6fbd ad08 63bd f200 053d
00000110: d617 2a3c 0f07 89be c846 53bd cb0b 253e
00000120: 0698 473d 5b8c b53d 56a2 16be 9e86 87bd
00000130: aed8 1dbc 6e9b 1cbd 348b b3bd c64c 653e
00000140: a804 3a3e 2b79 18bd 7739 85bd ef24 ed3d
00000150: fe98 10be b41c cd3a 1096 1c3e 0c2c f7bc
00000160: aa97 2fbe fb3d 3e3e d178 813e 6728 893d
00000170: 7ac3 e93d 2a26 f2bd 849b 4b3b 144e 74be
00000180: 3aca f4bd 55df 47be b3af c63d fac1 e4bd
00000190: f726 53bd f06b 6fbd 3677 83be fb5a 2cbe
000001a0: f92f e5bc 7fe3 e5be fb0e 553e c6c3 5d3d
000001b0: f05d 03be a3f5 4f3e 55f0 903d 0d79 87bd
000001c0: dd08 e3bd 626b 8bbd cfa1 533d aca6 7bbc
000001d0: c248 b0bd 32f0 03be 6676 65bd 9d11 593d
000001e0: e941 6abd 15e9 ae3d 0642 2bbe 8b06 7dbd
000001f0: 4ad0 3fbe 08e3 143e ba50 8cbd e927 a33d
-0.14963523 -0.057182673 0.09728674 -0.28356877 -0.04787893 -0.050473273 0.021281963 -0.02855738
-0.17703709 -0.1838291 -0.08666094 -0.0556948 0.071844876 -0.026337609 -0.056737408 -0.039343543
-0.09126101 -0.04076425 -0.029846508 -0.07252036 -0.059058666 0.15184411 -0.057722438 -0.03920954
-0.019193407 -0.06618356 -0.08241214 -0.039381225 -0.046563286 0.11341781 -0.040909186 -0.042065516
-0.049157288 -0.06276291 -0.047957942 0.119898595 0.14978078 -0.02137591 -0.053780712 -0.058575295
0.06806648 -0.04856378 -0.07469873 -0.041653212 -0.054832656 -0.08817895 -0.058058627 0.015324928
0.13730018 0.02872232 0.04066287 -0.029726593 -0.17277886 -0.25879768 -0.037656695 0.029438164
-0.05133317 -0.052921243 0.0029541734 -0.15407655 0.0897903 0.19158888 -0.12548408 -0.06707344
-0.06413609 -0.058538623 -0.055428196 0.032471605 0.0103816595 -0.26763198 -0.051581174 0.1611778
0.048728965 0.08864661 -0.14710364 -0.06617473 -0.00963418 -0.038234167 -0.08766785 0.22392568
0.18165839 -0.03722493 -0.06505101 0.1157931 -0.14120862 0.0015648813 0.1529162 -0.03017237
-0.17147699 0.18578331 0.25287488 0.06697159 0.11414237 -0.118236855 0.0031068036 -0.2385791
-0.11952634 -0.19518788 0.09701481 -0.111698106 -0.05155083 -0.058452547 -0.25676888 -0.16831581
-0.027976977 -0.44900128 0.20806496 0.054141782 -0.12828803 0.20308547 0.0707709 -0.066148855
-0.11085675 -0.06807591 0.051667985 -0.015359562 -0.086076275 -0.12884596 -0.056021117 0.052995313
-0.057191763 0.085405506 -0.16724405 -0.061773818 -0.187318 0.1453973 -0.06851335 0.07966597
