m6aReplica/2d_66/Models/epoch1_rocauc0.819_valpr0.151_valscore0.970.pth (torch, 150665 bytes, 13 tensors)

read_encoder.block1.0.weight f4 [128, 15]
0.13530692 0.19023293 -0.10025917 0.22985646 0.028304955 0.022735173 -0.15514079 0.17551306
0.20212631 -0.16007179 0.22778104 0.07556744 0.19500972 0.04664226 0.07917784 -0.0479702
0.18259625 0.02833386 -0.101723865 0.06809563 -0.12592436 -0.02979152 -0.0948578 0.16463377
-0.15724494 -0.1073402 -0.08780617 -0.1534001 0.053751566 -0.3416285 0.21517907 -0.2302579
0.18138307 -0.012739367 -0.22574712 0.124899246 0.008830235 0.13420731 -0.014661053 -0.103669025
0.11388719 -0.060526855 0.09813996 0.1866322 0.10560262 -0.09757976 0.16662146 0.060102545
0.12352083 -0.20852701 -0.25055513 -0.09230073 -0.22231688 0.21652794 0.06871638 0.09874372
0.1121259 -0.035947006 0.18569697 -0.18824773 0.0030306613 -0.12729284 0.097991414 -0.10822537
-0.012414338 -0.059297893 0.22873423 -0.18842688 -0.16398166 -0.1449127 0.31308204 0.14811814
0.24511337 -0.17773786 -0.22002041 -0.18979979 -0.16478723 0.11512314 0.0853615 0.17092831
-0.12977648 -0.17220275 0.123306565 -0.10339363 0.13885573 -0.065630384 0.10027054 -0.20021021
-0.10350612 0.06594977 0.070213415 -0.030704051 0.17276451 0.16594058 -0.19765604 -0.12345558
0.24578883 -0.085093014 -0.090705425 -0.22693464 -0.14607105 0.054066863 -0.05104333 -0.17885454
0.020698888 -0.15542954 -0.35087737 -0.15372711 -0.1785552 -0.054085992 0.28237274 0.069105975
0.1430784 -0.20659718 -0.08558547 -0.07197724 0.0068288157 -0.29375365 -0.25760987 -0.22721647
6.357873e-05 -0.10331686 -0.018933823 -0.1720562 -0.18277808 -0.15275197 -0.090431474 -0.20442729
0.21526226 -0.058756158 0.1585034 0.07211854 -0.21923888 0.17256989 -0.07206317 -0.041194413
-0.15777004 -0.20226844 0.0818622 -0.116896205 0.13897392 -0.17904234 0.19404922 -0.1636328
-0.08981757 0.11571329 0.07913944 0.22658047 0.26513365 -0.1833904 0.09538882 -0.17629194
-0.029494382 -0.17359611 0.33337083 -0.16088375 0.16417633 0.07588475 0.15612324 -0.100920215
0.18724203 -0.1177281 -0.0155439535 -0.43456998 0.1863318 -0.05319801 -0.14584899 0.20084344
0.07679707 -0.13848414 -0.14915888 -0.019699678 0.15718345 -0.08092265 -0.14307292 -0.11276351
-0.20980139 0.11847148 0.24146463 -0.30878457 0.053984832 0.124879815 0.038854048 -0.11152729
0.093332306 0.12369313 0.084368296 -0.07150741 -0.081625365 0.015586824 -0.03524247 -0.071255915
0.14198387 0.185761 -0.03555023 -0.056988165 -0.064172 -0.020553531 0.100380495 0.08781044
-0.2352766 -0.06692998 0.21393369 0.14642616 -0.011694842 -0.17947608 -0.15217252 -0.28936076
-0.24662356 0.1928663 0.16498943 0.10720682 -0.22532304 -0.11287778 0.053832695 0.2669589
0.051108167 -0.01747521 0.12764357 -0.075078964 -0.17395586 0.18056735 -0.117001764 -0.08055294
-0.34123158 0.18701513 0.24165797 0.10321326 -0.18209697 -0.2843633 -0.2117612 0.19000524
0.08395935 0.21641527 0.07138968 0.117293656 0.042832863 -0.18896629 -0.18213572 -0.31960848
0.13674921 -0.14740802 0.0009045053 -0.17522497 -0.17235926 -0.14668685 -0.1480916 0.06551703
-0.05570566 0.23832065 0.0101475 -0.21562716 -0.00404625 -0.02900681 -0.07652774 -0.20420769
00000000: e68d 0a3e 6ccc 423e ae54 cdbd 7e5f 6b3e
00000010: cbdf e73c 1d3f ba3c 3add 1ebe b2b9 333e
00000020: 33fa 4e3e dce9 23be 6f3f 693e 1ac3 9a3d
00000030: a1b0 473e f40b 3f3d fe27 a23d 677c 44bd
00000040: 83fa 3a3e 691c e83c 9a54 d0bd b975 8b3d
00000050: 51f2 00be 590d f4bc ce44 c2bd c195 283e
00000060: d104 21be 2ed5 dbbd b9d3 b3bd ea14 1dbe
00000070: 9a2a 5c3d eee9 aebe e757 5c3e bac8 6bbe
00000080: 7cbc 393e c7b8 50bc 412a 67be 2dcb ff3d
00000090: b1ac 103c a46d 093e ea34 70bc 6d50 d4bd
000000a0: b03d e93d 02eb 77bd 9afd c83d 831c 3f3e
000000b0: 3046 d83d e6d7 c7bd d19e 2a3e 162e 763d
000000c0: 7df8 fc3d 1b88 55be c348 80be 2a08 bdbd
000000d0: 09a7 63be 80b9 5d3e 2cbb 8c3d 263a ca3d
000000e0: 44a2 e53d 2b3d 13bd 5927 3e3e 03c4 40be
000000f0: 0f9e 463b 0e59 02be b9af c83d 43a5 ddbd
00000100: 8265 4bbc 59e2 72bd 4e39 6a3e faf2 40be
00000110: cfea 27be ff63 14be 4a4c a03e 48ac 173e
00000120: 00ff 7a3e ea00 36be 084d 61be e05a 42be
00000130: fcbd 28be aec5 eb3d 03d2 ae3d d507 2f3e
00000140: 20e4 04be eb55 30be 2788 fc3d 0ac0 d3bd
00000150: 3230 0e3e 3969 86bd a45a cd3d e803 4dbe
00000160: 04fb d3bd ac10 873d 0dcc 8f3d 1087 fbbc
00000170: 2ee9 303e 54ec 293e 5866 4abe 47d6 fcbd
00000180: 11b0 7b3e 3f45 aebd c4c3 b9bd 8e61 68be
00000190: a693 15be 3775 5d3d d012 51bd a525 37be
000001a0: b790 a93c ec28 1fbe 33a6 b3be a46a 1dbe
000001b0: 2dd7 36be 4689 5dbd 2993 903e 6f87 8d3d
000001c0: 2583 123e 368e 53be 6f47 afbd ce68 93bd
000001d0: 42c4 df3b e166 96be 71e5 83be 6fab 68be
000001e0: 9255 8538 ca97 d3bd 1b1b 9bbc 802f 30be
000001f0: 2d2a 3bbe 036b 1cbe 2334 b9bd 6355 51be
00000200: b66d 5c3e 4caa 70bd b74e 223e e3b2 933d
00000210: 2880 60be 29b6 303e db95 93bd 79bb 28bd
00000220: 788e 21be 751f 4fbe 5ea7 a73d 4767 efbd
00000230: 2e4f 0e3e e056 37be d7b4 463e 5b8f 27be
00000240: 46f2 b7bd 17fb ec3d dc13 a23d b604 683e
00000250: 99bf 873e b1ca 3bbe 375b c33d e085 34be
00000260: 349e f1bc 2ec3 31be 95af aa3e b6be 24be
00000270: d71d 283e 7769 9b3d c5de 1f3e 42af cebd
00000280: 60bc 3f3e 6e1b f1bd 11ac 7ebc f57f debe
00000290: c3cd 3e3e 28e6 59bd 7059 15be e7a9 4d3e
000002a0: c847 9d3d c9ce 0dbe 1bbd 18be 3861 a1bc
000002b0: b3f4 203e c6ba a5bd b581 12be 8ef0 e6bd
000002c0: 2dd6 56be 2da1 f23d 8142 773e 0319 9ebe
000002d0: 331f 5d3d fdc0 ff3d 6c25 1f3d 6b68 e4bd
000002e0: 0225 bf3d d352 fd3d 49c9 ac3d 7a72 92bd
000002f0: 332b a7bd e15f 7f3c 695a 10bd 9fee 91bd
00000300: 3864 113e 2238 3e3e 1e9d 11bd 6c6c 69bd
00000310: 9c6c 83bd e15f a8bc 4a94 cd3d f6d5 b33d
00000320: 59ec 70be 9612 89bd 6f11 5b3e bdf0 153e
00000330: b99b 3fbc 94c8 37be 1dd3 1bbe 1827 94be
00000340: e38a 7cbe be7e 453e fdf2 283e 408f db3d
00000350: 15bb 66be 772c e7bd ac7f 5c3d d6ae 883e
00000360: cc56 513d 2c28 8fbc ffb4 023e 00c3 99bd
00000370: 7c21 32be a6e6 383e 9f9e efbd f1f8 a4bd
00000380: e8b5 aebe e580 3f3e 3075 773e 7961 d33d
00000390: a177 3abe 1198 91be eed7 58be bc90 423e
000003a0: e1f2 ab3d f79b 5d3e c134 923d a837 f03d
000003b0: 8371 2f3d 6180 41be c981 3abe b9a3 a3be
000003c0: fc07 0c3e 21f2 16be 531c 6d3a 2d6e 33be
000003d0: f27e 30be 1435 16be 53a5 17be cb2d 863d
000003e0: 9e2b 64bd 540a 743e b341 263c 5ecd 5cbe
000003f0: 6896 84bb b19f edbc 93ba 9cbd d21b 51be

read_encoder.block1.0.bias f4 [128]
-0.18808357 -0.20081481 -0.08488501 -0.058047503 0.16235958 -0.0109276315 0.09198575 -0.07722624
0.20831926 0.2512661 -0.18893825 -0.08116738 -0.23103349 0.14371844 -0.20958325 -0.119835086
0.27767587 -0.23002057 0.1798442 0.036723226 0.19722047 -0.14309466 0.24651888 0.023569604
0.10260469 0.15567717 -0.2527108 -0.1593173 0.29924706 -0.14635374 -0.1311948 -0.0068230666
-0.07277458 -0.057392042 -0.18285331 0.06252311 -0.23291495 0.027602453 0.1765694 0.047910277
0.054680854 0.07365436 -0.04559227 -0.063953 -0.06816813 -0.17709036 -0.13705677 0.27102122
-0.04014342 0.09118029 0.21286558 0.054808155 -0.105671205 -0.15552023 -0.089600086 0.1067489
-0.21800512 -0.025501573 0.09711741 0.2055966 0.06471006 0.08098799 0.29287076 0.16023704
0.08454899 -0.07976503 -0.21180664 -0.048335556 0.01574448 0.06871172 0.028464824 0.07954757
0.17961776 -0.10471809 -0.2556334 -0.13313848 -0.13271882 0.1470425 -0.2039913 -0.0005248586
-0.0029880826 -0.08414055 0.103831686 -0.09750183 0.00042948293 -0.1533457 -0.04262471 0.05948942
0.012154525 -0.092537075 0.067304775 -0.009975706 -0.14745036 -0.18859419 -0.05227242 -0.28339294
0.24109043 -0.084391885 -0.115816675 0.019981826 0.066640526 -0.052286644 0.18976088 -0.15240797
0.08840208 0.0028787905 -0.17248653 -0.087715864 0.033323206 0.06630294 0.19564688 0.15815349
-0.15887144 -0.099707186 -0.023641326 -0.14425114 -0.07820675 -0.13236648 0.18053544 0.14988357
-0.014699767 -0.18742916 -0.17103763 -0.12716852 0.041409828 0.021239676 0.07550147 0.2920687
00000000: fb98 40be 66a2 4dbe 31d8 adbd 38c3 6dbd
00000010: 9741 263e cf09 33bc 0663 bc3d ca28 9ebd
00000020: a551 553e f3a5 803e 0779 41be 153b a6bd
00000030: 0b94 6cbe ed2a 133e fe9c 56be 196c f5bd
00000040: 882b 8e3e 838a 6bbe 1429 383e 186b 163d
00000050: 2af4 493e 6887 12be 726f 7c3e 0b15 c13c
00000060: 6822 d23d d669 1f3e 4f63 81be 1324 23be
00000070: e936 993e c1dd 15be ee57 06be 0894 dfbb
00000080: d70a 95bd eb13 6bbd e63d 3bbe 1e0c 803d
00000090: 4281 6ebe 8a1e e23c 9cce 343e 913d 443d
000000a0: 08f9 5f3d 19d8 963d f6be 3abd caf9 82bd
000000b0: bc9b 8bbd 2d57 35be 9c58 0cbe 4bc3 8a3e
000000c0: 6d6d 24bd bbbc ba3d 6ff9 593e 847e 603d
000000d0: 256a d8bd b240 1fbe 4080 b7bd 2b9f da3d
000000e0: bc3c 5fbe ade8 d0bc 7ee5 c63d ea87 523e
000000f0: b586 843d 08dd a53d 28f3 953e 2e15 243e
00000100: 0528 ad3d d95b a3bd d7e3 58be 81fb 45bd
00000110: 91fa 803c bbb8 8c3d 102f e93c d6e9 a23d
00000120: b8ed 373e 7076 d6bd 62e2 82be 7455 08be
00000130: 71e7 07be 4f92 163e 18e3 50be aa96 09ba
00000140: b5d3 43bb e151 acbd b5a5 d43d 0aaf c7bd
00000150: 392c e139 a806 1dbe 3f97 2ebd 2eab 733d
00000160: c623 473c 1484 bdbd 16d7 893d 2571 23bc
00000170: 3afd 16be d61e 41be 9b1b 56bd e118 91be
00000180: 69e0 763e a7d5 acbd 4b31 edbd edb0 a33c
00000190: d47a 883d 852a 56bd ad50 423e d610 1cbe
000001a0: 260c b53d 17aa 3c3b 4fa0 30be 60a4 b3bd
000001b0: ea7d 083d d6c9 873d a857 483e fdf2 213e
000001c0: 32af 22be 4833 ccbd 74ab c1bc 92b6 13be
000001d0: dc2a a0bd 148b 07be 48de 383e 147b 193e
000001e0: 4bd7 70bc 6eed 3fbe 7d24 2fbe 7738 02be
000001f0: 5a9d 293d d4fe ad3c 84a0 9a3d 078a 953e

read_encoder.block1.1.weight f4 [128]
0.9787351 0.9922481 0.97012997 1.0192254 1.0491433 0.9875699 0.9810055 1.1338263
0.98602206 1.0212207 1.16633 1.009091 0.98433685 1.1811723 1.0460231 1.0053607
1.0570464 1.1059813 0.97423816 1.0646826 0.9965356 0.9879748 1.035364 0.98272836
1.0337197 0.9847459 1.0297284 1.170502 1.1041087 1.010456 1.1146202 1.0126761
1.1154584 0.9850991 1.0005662 0.9682459 0.99327105 1.0157412 1.1258005 1.0072026
1.048421 1.0119262 1.0576221 0.9776915 1.0382849 1.0133001 0.9900398 1.0321566
1.0047745 1.021358 1.0020671 0.9814743 1.0006336 1.1167889 1.0109919 1.0483358
1.1115483 1.0466657 1.000648 0.98785144 0.982502 1.1001605 1.0838678 1.1215788
0.9992153 0.99995065 1.0431753 1.0041806 1.1593685 0.9967201 1.0363503 0.98190516
0.97157305 0.9946699 0.9861655 1.0241238 0.99632436 1.0015417 0.9705309 1.066863
1.1347164 0.99077 1.0335221 0.9971657 1.0097725 1.0031865 0.9827472 1.2380067
1.0143745 1.0266261 0.997853 1.0176841 0.98055 1.0146952 1.030155 0.96908
1.2016922 1.1505231 0.99247974 1.0076389 1.0102491 0.9760883 1.0079273 1.0088184
1.0065618 0.99475116 1.1357719 1.0560026 0.97738206 1.0889201 1.0465398 0.994626
0.9921741 1.043804 1.1025531 0.9947092 1.020263 1.0381529 1.0359621 0.9704345
0.9687128 1.0145401 1.0599144 0.9778421 0.97315216 1.1005533 1.1493902 1.0133226
00000000: 628e 7a3f f903 7e3f 705a 783f fa75 823f
00000010: 544a 863f 62d1 7c3f 2d23 7b3f 3821 913f
00000020: f16b 7c3f 5cb7 823f 4d4a 953f e529 813f
00000030: 80fd 7b3f a730 973f 16e4 853f a9af 803f
00000040: 4c4d 873f cc90 8d3f ac67 793f 8547 883f
00000050: f51c 7f3f ebeb 7c3f cf86 843f 1694 7b3f
00000060: ed50 843f 4f18 7c3f 24ce 833f 02d3 953f
00000070: 6f53 8d3f 9f56 813f e0ab 8e3f 5f9f 813f
00000080: 57c7 8e3f 742f 7c3f 8e12 803f f7de 773f
00000090: 0347 7e3f cf03 823f 3b1a 903f 04ec 803f
000000a0: a932 863f cc86 813f 2960 873f fd49 7a3f
000000b0: 85e6 843f d1b3 813f 4073 7d3f b51d 843f
000000c0: 739c 803f dcbb 823f bc43 803f e641 7b3f
000000d0: c314 803f f0f2 8e3f 2f68 813f de2f 863f
000000e0: 3747 8e3f 24f9 853f 3c15 803f d5e3 7c3f
000000f0: 4085 7b3f 0fd2 8c3f 2ebc 8a3f e58f 8f3f
00000100: 93cc 7f3f c4fc 7f3f c586 853f fd88 803f
00000110: 3066 943f 0c29 7f3f 20a7 843f 235e 7b3f
00000120: 03b9 783f b0a2 7e3f 5875 7c3f 7d16 833f
00000130: 1d0f 7f3f 8532 803f b774 783f f78e 883f
00000140: 633e 913f 1aa3 7d3f 744a 843f 4046 7f3f
00000150: 3a40 813f 6a68 803f 5295 7b3f 0177 9e3f
00000160: 06d7 813f 7c68 833f 4b73 7f3f 7943 823f
00000170: 5305 7b3f 88e1 813f 1edc 833f a015 783f
00000180: 0dd1 993f 5744 933f 2713 7e3f 50fa 803f
00000190: d84f 813f ece0 793f c303 813f f620 813f
000001a0: 04d7 803f 03a8 7e3f f960 913f 182b 873f
000001b0: b635 7a3f bc61 8b3f 04f5 853f cf9f 7e3f
000001c0: 1fff 7d3f 5f9b 853f 7620 8d3f 43a5 7e3f
000001d0: fa97 823f 32e2 843f 689a 843f 656e 783f
000001e0: 90fd 773f 73dc 813f 46ab 873f dc53 7a3f
000001f0: 8020 793f eede 8c3f 381f 933f 8eb4 813f

read_encoder.block1.1.bias f4 [128]
-0.029763034 -0.017995423 -0.035199612 0.0013010263 -0.008321236 -0.0067324303 -0.0018669639 0.014546978
-0.008597818 -0.005281424 0.014751868 -0.019386565 -0.011849478 0.02026849 0.014134402 -0.02427865
-0.008559565 2.464482e-05 -0.026099484 0.012727838 -0.013643048 -0.012975824 -0.0300505 -0.01343584
0.008508883 -0.017859612 -0.013892997 0.027087959 0.005470226 0.0074796625 0.024784883 0.0037348615
0.00016897773 -0.020293662 -0.012125221 -0.025307985 -0.011832704 -0.014025653 0.006792695 -0.00034416968
0.0034823061 -0.042499166 0.010670775 -0.018980296 0.0067018904 -0.003202923 -0.004832472 0.007525149
0.0011962337 0.003012996 -0.020060953 0.03798334 -0.03448118 0.008852735 -0.0026960897 0.010722276
-0.01548445 0.004190591 -0.00031128683 -0.010038477 -0.009244689 0.019625096 0.07467582 0.010803291
-0.01634836 0.0024283782 -0.013571108 0.0066941306 0.032985266 0.013948896 0.02964729 -0.02188417
-0.0025915916 -0.00034031158 -0.013476825 -0.023919573 -0.011741944 0.0027844892 -0.033172056 -0.005566127
0.017730694 0.017414803 -0.020054797 0.008268085 0.008987015 0.005776843 -0.008926922 0.009501863
-0.012129191 -0.0017861408 -0.0068359054 -0.02605676 -0.0081374915 -0.003446785 -3.8529644e-05 -0.039700553
0.03758487 0.031263433 -0.011785141 -0.0035856296 -0.008866864 -0.022999583 -0.018952776 -0.004555141
-0.007461412 -0.0040509785 0.032711774 0.010861543 -0.035261422 0.012186997 -0.020860327 -0.018806554
-0.01639323 -0.0012628933 0.0038407198 0.016609263 -0.0073029087 0.05458297 0.03560758 -0.031066006
-0.042431448 -0.047188535 0.0007841665 -0.02340898 -0.028056482 -0.0022476518 0.012659843 0.0095361695
00000000: 9bd1 f3bc 236b 93bc 782d 10bd 3387 aa3a
00000010: cb55 08bc b89b dcbb eab4 f4ba 7356 6e3c
00000020: dddd 0cbc cc0f adbb d2b1 713c 93d0 9ebc
00000030: 5024 42bc 1b0a a63c fb93 673c 05e4 c6bc
00000040: 6b3d 0cbc 59bc ce37 96ce d5bc 6c88 503c
00000050: 1787 5fbc 8d98 54bc 772c f6bc ff21 5cbc
00000060: d868 0b3c 524e 92bc 749f 63bc 91e7 dd3c
00000070: 953f b33b f517 f53b ab09 cb3c 94c4 743b
00000080: 9d2f 3139 e53e a6bc dda8 46bc b152 cfbc
00000090: f5dd 41bc dacb 65bc 4195 de3b ac71 b4b9
000000a0: 6737 643b 9b13 2ebd 79d4 2e3c 917c 9bbc
000000b0: 889b db3b 22e8 51bb b759 9ebb 8695 f63b
000000c0: f1ca 9c3a af75 453b de56 a4bc 6b94 1b3d
000000d0: 233c 0dbd 100b 113c e1b0 30bb 7cac 2f3c
000000e0: 7eb2 7dbc 3a51 893b 3634 a3b9 6d78 24bc
000000f0: 0977 17bc cfc4 a03c a3ef 983d 4900 313c
00000100: ffec 85bc 6d25 1f3b 5a59 5ebc 705a db3b
00000110: 8f1b 073d e989 643c e0de f23c 6e46 b3bc
00000120: b1d7 29bb d96b b2b9 e7cd 5cbc fbf2 c3bc
00000130: 4861 40bc fa7b 363b 6cdf 07bd 0f64 b6bb
00000140: f63f 913c 7da9 8e3c f549 a4bc dd76 073c
00000150: 463e 133c ac4b bd3b 3a42 12bc b4ad 1b3c
00000160: 84b9 46bc f11c eaba bbff dfbb fd74 d5bc
00000170: 1d53 05bc 75e3 61bb e49a 21b8 0c9d 22bd
00000180: 98f2 193d 160e 003d 7716 41bc e2fc 6abb
00000190: 5346 11bc 9f69 bcbc da42 9bbc 4b43 95bb
000001a0: dc7e f4bb 12be 84bb c8fc 053d 9df4 313c
000001b0: 486e 10bd f8ab 473c 47e3 aabc 3410 9abc
000001c0: 184b 86bc ab87 a5ba 96b4 7b3b 2610 883c
000001d0: 3d4d efbb 6492 5f3d 41d9 113d 237e febc
000001e0: 99cc 2dbd c448 41bd 8690 4d3a 30c4 bfbc
000001f0: b5d6 e5bc 574d 13bb 3b6b 4f3c 983d 1c3c

read_encoder.block2.0.weight f4 [128, 128]
0.049260326 0.032979976 -0.012541545 0.035103302 0.06439495 -0.083184324 -0.06121144 0.0029945436
0.0530471 0.028789403 -0.07151484 -0.074543156 0.0038059682 -0.032896783 0.031558808 -0.009935575
0.057465363 0.057234276 0.07048267 -0.060511116 0.04417948 0.01759251 -0.04996156 0.041554283
-0.08626456 0.08071936 0.013372722 -0.046839397 0.0515593 0.0049290643 -6.605148e-05 0.064446725
-0.08676997 0.067552194 -0.036826555 -0.014366657 0.025393337 0.07705649 -0.056250468 -0.05658877
0.034721088 -0.04716392 0.03132246 -0.005968586 0.008116246 0.0787018 -0.03239184 -0.029875876
0.05932392 0.0019928697 -0.017022913 -0.08228249 0.07382878 -0.025687495 0.024571588 -0.017591318
-0.03738267 0.08774501 -0.003136955 0.088778205 -0.009320456 -0.071697555 0.03363654 0.0146592
-0.022129126 0.03456204 0.0663264 0.03483606 0.025727475 0.0500333 -0.004217361 0.036593363
0.016124874 0.014704148 0.07595967 0.06578511 0.023947606 0.0037721237 0.08641732 -0.07718125
0.033828475 0.04303035 0.048489194 0.018144492 -0.051343467 0.066465706 -0.03370053 -0.020821668
0.042258613 -0.08900009 0.008117365 -0.04145274 0.0613145 -0.06659787 0.050340388 0.058204602
0.050486483 0.05333941 0.019640535 -0.07678696 0.052696742 0.014375517 -0.0017763722 -0.07715117
-0.013541353 -0.034108207 0.06967097 0.03273043 0.082829 0.06876661 -0.03677816 -0.028350744
-0.03674216 -0.03516924 0.05271278 0.02164055 0.07970801 -0.027605189 -0.08928848 -0.019595757
0.06997507 0.04892977 0.03807496 -0.016426617 -0.074971534 -0.061704542 0.022114601 -0.05177138
0.031965468 0.020580098 -0.03507103 0.056442417 -0.049013767 -0.0050709406 -0.046316676 -0.07643764
0.0047195293 0.031315893 -0.069231346 0.053916886 -0.07519407 -0.0211915 -0.05370186 -0.017688528
-0.007531094 -0.01330876 0.037746932 -0.006178936 0.0041805925 0.00043628886 0.023413394 0.0750135
0.04611545 -0.045229804 -0.08359437 0.01003773 -0.030277753 0.05402359 -0.02417836 0.06929844
0.036806475 -0.007987504 -0.02484665 0.019611392 -0.018163646 0.070710026 -0.058425363 0.042840574
-0.04898108 -0.07788333 0.009809292 0.040469512 0.035761733 0.023988267 0.018051846 -0.018806204
-0.026037602 -0.01548043 -0.0042219483 0.086187184 0.05403865 -0.06542257 -0.006386683 -0.04625102
-0.0073558846 -0.07464067 0.017176425 -0.05965475 0.08139665 0.07371131 -0.025708932 -0.070560075
-0.010229372 -0.023953896 0.008577095 -0.0631429 0.024975443 -0.0737708 -0.041939367 -0.04639112
0.028458893 -0.008613427 -0.08888702 -0.051055502 -0.05432917 -0.08061677 0.0061021703 0.025558675
-0.012471486 -0.033219542 -0.027736243 -0.06139635 -0.05578675 -0.035511073 0.08105074 -0.01262042
0.04556585 -0.038474593 -0.02462722 -0.08416006 0.06644944 0.07661841 -0.021301756 0.046510577
0.082683 0.0577458 0.034654014 -0.08846023 -0.0806451 -0.06635421 0.03657394 -0.04793074
-0.07222003 -0.056908123 -0.072623596 0.016245332 0.021101953 -0.03498576 0.052708376 -0.021226754
-0.0084649455 0.06643372 0.03907469 -0.004888563 -0.06205266 -0.04959088 0.020841489 0.051724378
0.04152418 -0.033651214 -0.092219464 -0.07722883 -0.025549168 0.028997263 -0.044286422 -0.06620475
00000000: 32c5 493d 0316 073d 0d7b 4dbc 7bc8 0f3d
00000010: 80e1 833d 8b5c aabd d9b8 7abd 1b40 443b
00000020: ea47 593d c1d7 eb3c 5f76 92bd 15aa 98bd
00000030: 8d6d 793b c7be 06bd cf43 013d d2c8 22bc
00000040: cd60 6b3d 7d6e 6a3d 3859 903d 81da 77bd
00000050: 8bf5 343d 2b1e 903c 7ea4 4cbd d334 2a3d
00000060: 79ab b0bd 3150 a53d 4319 5b3c abda 3fbd
00000070: d82f 533d fd83 a13b 1e85 8ab8 a5fc 833d
00000080: 74b4 b1bd ce58 8a3d 71d7 16bd 2062 6bbc
00000090: b005 d03c cbcf 9d3d e466 66bd a0c9 67bd
000000a0: b337 0e3d f42e 41bd fb4b 003d 2194 c3bb
000000b0: 01fa 043c 692e a13d 4ead 04bd 41be f4bc
000000c0: a4fd 723d ce9a 023b a373 8bbc b983 a8bd
000000d0: 8b33 973d 956e d2bc 5b4a c93c ab1b 90bc
000000e0: 921e 19bd a8b3 b33d 5f95 4dbb 59d1 b53d
000000f0: d3b4 18bc 2bd6 92bd 78c6 093d 242d 703c
00000100: 2448 b5bc ed90 0d3d 23d6 873d 42b0 0e3d
00000110: 6dc2 d23c b8ef 4c3d ca31 8abb ece2 153d
00000120: 5018 843c abe9 703c be90 9b3d 58ba 863d
00000130: c52d c43c bc35 773b 90fb b03d 3411 9ebd
00000140: ba8f 0a3d 9840 303d 9b9c 463d c2a3 943c
00000150: 874d 52bd 2c1f 883d 9109 0abd 3492 aabc
00000160: 5e17 2d3d ae45 b6bd b2fe 043c 59ca 29bd
00000170: ea24 7b3d 7764 88bd b931 4e3d f367 6e3d
00000180: eaca 4e3d 6d7a 5a3d 30e5 a03c 7b42 9dbd
00000190: 8ad8 573d 4a87 6b3c 29d5 e8ba 6f01 9ebd
000001a0: 8ddc 5dbc 0cb5 0bbd a7af 8e3d 5810 063d
000001b0: 40a2 a93d 82d5 8c3d b2a4 16bd d23f e8bc
000001c0: f27e 16bd 9f0d 10bd 5be9 573d 8647 b13c
000001d0: f43d a33d 4724 e2bc e1dc b6bd 4887 a0bc
000001e0: 174f 8f3d 956a 483d 7df4 1b3d 1d91 86bc
000001f0: ad8a 99bd e7bd 7cbd ae29 b53c 3a0e 54bd
00000200: 39ee 023d 9897 a83c a4a6 0fbd 2a30 673d
00000210: a9c2 48bd 222a a6bb 8eb6 3dbd 568b 9cbd
00000220: 48a6 9a3b 1845 003d 2ac9 8dbd f4d7 5c3d
00000230: 59ff 99bd cc99 adbc 7bf6 5bbd 88e7 90bc
00000240: 65c7 f6bb fc0c 5abc 879c 1a3d ac78 cabb
00000250: 5afd 883b b3bd e439 72cd bf3c aea0 993d
00000260: 8ee3 3c3d e342 39bd 8633 abbd 4b75 243c
00000270: 0d09 f8bc d747 5d3d b211 c6bc 57ec 8d3d
00000280: 63c2 163d 05de 02bc 348b cbbc 12a8 a03c
00000290: edcb 94bc 6bd0 903d 6f4f 6fbd 9979 2f3d
000002a0: 63a0 48bd 4c81 9fbd 27b7 203c 5cc3 253d
000002b0: e57a 123d 0b83 c43c 77e1 933c 780f 9abc
000002c0: cf4c d5bc a1a1 7dbc 4558 8abb e882 b03d
000002d0: a257 5d3d 45fc 85bd 6147 d1bb b671 3dbd
000002e0: a209 f1bb 35dd 98bd 93b5 8c3c 8a58 74bd
000002f0: 49b3 a63d f5f5 963d 8a9b d2bc cd81 90bd
00000300: 1999 27bc f63a c4bc f286 0c3c 1151 81bd
00000310: 4d99 cc3c 2515 97bd 9dc8 2bbd 9d04 3ebd
00000320: a022 e93c 551f 0dbc 660a b6bd 931f 51bd
00000330: 4488 5ebd 681a a5bd b7f4 c73b 6d60 d13c
00000340: 3455 4cbc 3711 08bd 1e37 e3bc bd7a 7bbd
00000350: a680 64bd 0f74 11bd eefd a53d e1c5 4ebc
00000360: 42a3 3a3d 8997 1dbd 06bf c9bc 1c5c acbd
00000370: a516 883d 1dea 9c3d 0581 aebc e081 3e3d
00000380: b455 a93d dc86 6c3d 5ef1 0d3d a32a b5bd
00000390: 4229 a5bd b7e4 87bd 8ece 153d 0653 44bd
000003a0: 18e8 93bd 7e18 69bd aebb 94bd ee14 853c
000003b0: 01de ac3c 3a4d 0fbd bde4 573d bbe3 adbc
000003c0: 8eb0 0abc 670e 883d c80c 203d 3d30 a0bb
000003d0: ee2a 7ebd ce1f 4bbd c5bb aa3c f1dc 533d
000003e0: 4215 2a3d dbd5 09bd 8fdd bcbd 262a 9ebd
000003f0: 7d4c d1bc ab8b ed3c ae65 35bd 5b96 87bd

read_encoder.block2.0.bias f4 [128]
-0.00479933 0.0094924895 -0.05924672 -0.053444743 0.032143395 -0.05223696 0.02227159 -0.0055936417
0.04719896 -0.011603086 0.058421377 -0.008912765 -0.030999556 0.028743774 -0.04475402 0.019239329
-0.048898216 0.0088531915 -0.005905299 -0.02611725 -0.0865159 -0.039807998 0.07820407 0.03656129
-0.027806297 -0.0020967298 0.016475054 0.063173525 0.06740351 -0.038533792 -0.018064687 0.08055324
0.0055397535 -0.05026519 -0.055961207 -0.035178483 -0.09020645 -0.05589625 0.091225915 -0.003123858
0.050065186 -0.08245814 0.042901095 0.042425442 -0.062032208 -0.017343933 0.019640723 -0.06304107
0.043263156 0.055530857 -0.078310534 -0.025385683 0.062306836 -0.014029472 -0.059733123 0.03172663
-0.0788152 0.025519947 -0.04103676 0.028753242 -0.046724476 -0.022870788 -0.03295875 0.04844257
-0.088063754 0.062625594 0.037998278 -0.054525692 0.06830663 0.05405987 -0.045258865 0.007874976
0.015199065 -0.0031335633 0.054605618 -0.031919103 -0.035631772 0.034011528 0.057095952 0.063411675
-0.091392756 -0.02167727 -0.048714876 -0.0311983 -0.017295506 -0.026836473 -0.04420293 -0.050149053
-0.078998424 0.04570922 0.0480743 -0.04791879 0.09301622 0.03755464 -0.07044022 0.044289637
0.013565147 0.07912768 -0.016186882 -0.025012111 0.060142823 -0.082192436 0.05646744 -0.07535443
-0.026853168 -0.00068659685 -0.079203196 -0.03898358 -0.04495143 -0.006547411 0.012537042 -0.069799155
0.06236512 0.019106325 0.0056941044 0.022766192 -0.056299783 0.0071191406 -0.07104953 0.08381973
-0.039805688 -0.09062977 0.011570426 -0.07397562 -0.07690116 -0.0640377 -0.021392409 0.04197233
00000000: b343 9dbb 6386 1b3c b0ac 72bd e0e8 5abd
00000010: cba8 033d 6cf6 55bd e972 b63c de4a b7bb
00000020: b253 413d df1a 3ebc 414b 6f3d d906 12bc
00000030: c8f2 fdbc 1078 eb3c fe4f 37bd cc9b 9d3c
00000040: 7f49 48bd fa0c 113c 3d81 c1bb d8f3 d5bc
00000050: 402f b1bd b60d 23bd 7529 a03d 4bc1 153d
00000060: 08ca e3bc 4a69 09bb b1f6 863c 1f61 813d
00000070: da0a 8a3d 9cd5 1dbd 65fc 93bc 19f9 a43d
00000080: d286 b53b dfe2 4dbd 9437 65bd 5017 10bd
00000090: 29be b8bd 77f3 64bd a7d4 ba3d a4b9 4cbb
000000a0: 2711 4d3d d0df a8bd 0fb9 2f3d 4dc6 2d3d
000000b0: 7c15 7ebd dd14 8ebc 95e5 a03c ad1b 81bd
000000c0: b534 313d 5374 633d 4661 a0bd a3f5 cfbc
000000d0: 7435 7f3d dfdb 65bc b8aa 74bd c8f3 013d
000000e0: dd69 a1bd 350f d13c 2916 28bd eb8b eb3c
000000f0: 2a62 3fbd 855b bbbc c1ff 06bd b76b 463d
00000100: c55a b4bd d941 803d 15a4 1b3d 5556 5fbd
00000110: 59e4 8b3d e26d 5d3d 5c61 39bd 0b06 013c
00000120: 8005 793c 785c 4dbb 24aa 5f3d 9bbd 02bd
00000130: 9ff2 11bd ac4f 0b3d 72dd 693d fbdd 813d
00000140: 202c bbbd 8894 b1bc 4089 47bd 9493 ffbc
00000150: 4eaf 8dbc 2ad8 dbbc 220e 35bd 1869 4dbd
00000160: edc9 a1bd 9739 3b3d 8fe9 443d 7e46 44bd
00000170: 4a7f be3d e5d2 193d f642 90bd 0d69 353d
00000180: 5a40 5e3c b10d a23d 5a9a 84bc 33e6 ccbc
00000190: 5258 763d 8254 a8bd 674a 673d 6c53 9abd
000001a0: 2dfb dbbc bcfc 33ba 4935 a2bd 3fad 1fbd
000001b0: fe1e 38bd aa8b d6bb 2a68 4d3c dcf2 8ebd
000001c0: 9172 7f3d de84 9c3c 9c95 ba3b 2a80 ba3c
000001d0: 9a9a 66bd ae47 e93b 6a82 91bd aea9 ab3d
000001e0: 4a0b 23bd 1a9c b9bd e291 3d3c 8880 97bd
000001f0: 5b7e 9dbd 3326 83bd 223f afbc 2eeb 2b3d

read_encoder.block2.1.weight f4 [128]
1.0103856 0.9901339 0.97694945 0.98442274 0.993618 0.9848842 0.98541063 1.0426258
0.9897027 1.0077802 0.9959401 0.9820662 1.012626 1.1079171 1.0049256 0.9876373
0.9972889 0.9584886 1.0417985 1.0426588 0.98790765 0.99076736 1.0026743 0.9888054
1.0308044 0.9885659 1.0479913 1.0076367 1.0030284 1.0103488 0.9033 1.0160286
0.9887051 0.952521 0.9893508 1.006972 0.9907714 1.0122637 1.0026698 1.0088079
1.0027689 0.99897265 1.0047526 1.0136756 1.0067925 1.0041937 0.99712104 1.0027076
1.0069888 1.0022423 1.0087852 1.0048925 1.0160924 1.0526984 0.9885514 1.0058687
0.9892986 1.0265609 1.0103768 0.991193 1.1362572 0.9849345 1.0040298 1.0084386
0.9874262 1.0033419 0.9871507 1.0336758 1.0082579 0.98911333 1.0223266 1.0718974
0.9891844 1.0057455 0.9902278 0.9886522 1.0152692 1.0050431 0.987272 1.005443
1.020722 1.0211052 0.9896931 0.9984415 1.0089413 1.0580175 0.9927001 1.0475353
1.1471925 1.015399 1.014844 0.9930287 1.0160592 0.9919491 1.0076615 0.997935
1.01254 1.0070547 0.9899894 1.1131592 0.9889783 0.9839933 1.1682944 0.9978916
0.9901975 1.005837 0.99739736 0.9998202 0.9890272 1.003641 0.9824913 1.0096608
0.99004674 1.0013207 0.99488795 0.9871261 1.0119288 1.0045775 0.9944725 0.9944217
0.9901553 0.9908939 1.0054449 0.98627776 0.99780613 1.011841 0.9878902 1.0234791
00000000: 5154 813f 6a79 7d3f 5c19 7a3f 2103 7c3f
00000010: c05d 7e3f 5f21 7c3f df43 7c3f c374 853f
00000020: 285d 7d3f f1fe 803f eef5 7e3f b168 7b3f
00000030: bb9d 813f 3ad0 8d3f 67a1 803f ccd5 7c3f
00000040: 534e 7f3f 825f 753f a759 853f d875 853f
00000050: 84e7 7c3f eea2 7d3f a257 803f 5a22 7d3f
00000060: 66f1 833f a812 7d3f 9424 863f 3dfa 803f
00000070: 3c63 803f 1c53 813f ab3e 673f 3a0d 823f
00000080: c71b 7d3f 6bd8 733f 1846 7d3f 75e4 803f
00000090: 32a3 7d3f db91 813f 7c57 803f 9e20 813f
000000a0: bb5a 803f acbc 7f3f bc9b 803f 1fc0 813f
000000b0: 94de 803f 6b89 803f 5343 7f3f b958 803f
000000c0: 02e5 803f 7a49 803f e01f 813f 51a0 803f
000000d0: 510f 823f d2be 863f b411 7d3f 4ec0 803f
000000e0: ac42 7d3f 5966 833f 0754 813f d3be 7d3f
000000f0: e070 913f ab24 7c3f 0c84 803f 8414 813f
00000100: f7c7 7c3f 826d 803f e9b5 7c3f 7d4f 843f
00000110: 980e 813f 8836 7d3f 99db 823f ef33 893f
00000120: 303b 7d3f 45bc 803f 927f 7d3f 5018 7d3f
00000130: 57f4 813f 41a5 803f dcbd 7c3f 5bb2 803f
00000140: 05a7 823f 93b3 823f 875c 7d3f dd99 7f3f
00000150: fd24 813f 1e6d 873f 9821 7e3f a315 863f
00000160: 34d7 923f 98f8 813f 68e6 813f 2137 7e3f
00000170: 3a0e 823f 60f0 7d3f 0dfb 803f ab78 7f3f
00000180: e99a 813f 2be7 803f f26f 7d3f 007c 8e3f
00000190: af2d 7d3f fce6 7b3f ac8a 953f d375 7f3f
000001a0: 957d 7d3f 44bf 803f 6f55 7f3f 37f4 7f3f
000001b0: e330 7d3f 4f77 803f 8d84 7b3f 913c 813f
000001c0: b473 7d3f 472b 803f fab0 7e3f 4cb4 7c3f
000001d0: e286 813f ff95 803f c095 7e3f 6c92 7e3f
000001e0: d17a 7d3f 39ab 7d3f 6bb2 803f b37c 7c3f
000001f0: 3970 7f3f 0284 813f 5fe6 7c3f 5d01 833f

read_encoder.block2.1.bias f4 [128]
0.0073377774 -0.011466154 -0.015655544 -0.014332573 -0.008306183 -0.01059035 -0.015520672 -0.005046397
-0.009245503 0.0073632584 -0.011914342 -0.02248724 0.018731285 0.005847087 0.0047759553 -0.011327168
-0.019120509 -0.032092012 0.014712788 0.0025215785 -0.011175104 -0.009730928 0.0006431072 -0.011674419
0.0048424457 -0.0118523445 -0.00021192513 0.0070716776 0.0051362417 0.006924971 -0.025591213 0.0022816162
-0.021636112 -0.008827318 -0.010495092 0.004991992 -0.012063498 0.010282302 -0.00092243176 0.0042578117
-0.009715365 0.010777563 0.0015744116 0.0064982804 0.019525489 0.0037229657 -0.007977761 0.004142692
0.0076982207 0.0028464827 0.014466041 0.0061647967 -0.0012563638 -0.00058279606 -0.012957746 0.0077386517
-0.0119639225 0.005285097 0.00773328 -0.010292238 0.018272731 -0.00850115 0.0025709819 0.0026638014
-0.00963229 0.006601812 -0.009843044 0.0072995923 0.004659856 -0.011690663 -0.0071979463 -0.00031470179
-0.008974263 0.005744058 -0.010565046 -0.009985757 -0.01796654 0.0067050094 -0.0027799602 -0.0062499456
-0.027442437 0.007908726 -0.010905354 -0.0054296684 0.0016346711 0.02011719 0.0019628473 -0.053187676
-0.048301533 0.0076701753 0.005479534 -0.0090559535 0.0080762245 -0.004095212 -0.030203046 -0.009212043
0.0031841428 0.009598458 -0.010342458 0.0018704557 -0.009922991 -0.00704709 0.02000455 0.00035233854
-0.0065959576 0.00679557 -0.004573764 0.003778133 -0.011391259 0.0021610784 -0.015897775 -0.03749545
-0.010140799 0.0029774883 -0.013157794 -0.0057344106 -0.017647153 0.0065277675 0.002156223 -0.018998604
-0.011236715 -0.009132187 -0.02365959 -0.01095911 -0.009019634 -0.03541378 -0.0110150175 0.006199139
00000000: bd71 f03b 89dc 3bbc 0e40 80bc 2bd3 6abc
00000010: a816 08bc 2683 2dbc 6b4a 7ebc 3f5c a5bb
00000020: 737a 17bc 7d47 f13b 5f34 43bc 2937 b8bc
00000030: 5a72 993c ec98 bf3b 9e7f 9c3b 9695 39bc
00000040: 9da2 9cbc ea72 03bd e80d 713c 1141 253b
00000050: c917 37bc 786e 1fbc 3296 283a 1046 3fbc
00000060: 61ad 9e3b 5630 42bc 3838 5eb9 88b9 e73b
00000070: eb4d a83b deea e23b aaa4 d1bc 2b87 153b
00000080: 373e b1bc 75a0 10bc 9bf3 2bbc dd93 a33b
00000090: faa5 45bc 1a77 283c 59cf 71ba 1d85 8b3b
000000a0: 322d 1fbc 6094 303c 7d5c ce3a 87ef d43b
000000b0: ebf3 9f3c 00fd 733b 28b5 02bc 6bbf 873b
000000c0: 5b41 fc3b 0e8c 3a3b f902 6d3c 1002 ca3b
000000d0: 93ac a4ba c8c6 18ba ba4c 54bc 8494 fd3b
000000e0: 5404 44bc 9b2e ad3b 7467 fd3b c6a0 28bc
000000f0: b2b0 953c 6848 0bbc eb7d 283b 2c93 2e3b
00000100: c1d0 1dbc 0354 d83b b844 21bc 6b31 ef3b
00000110: b5b1 983b 328a 3fbc c0dc ebbb 8ffe a4b9
00000120: ca08 13bc a738 bc3b 0419 2dbc 4d9b 23bc
00000130: 912e 93bc b2b5 db3b fe2f 36bb 58cc ccbb
00000140: f6ce e0bc 9a93 013c 5fac 32bc 5ceb b1bb
00000150: 7642 d63a cecc a43c 1da3 003b 52db 59bd
00000160: d4d7 45bd 1856 fb3b aa8d b33b 6c5f 14bc
00000170: 2452 043c 2131 86bb 616c f7bc 1cee 16bc
00000180: 0dad 503b da42 1d3c 6a73 29bc 142a f53a
00000190: 0a94 22bc 47eb e6bb 95e0 a33c 14ba b839
000001a0: e722 d8bb 5fad de3b 83df 95bb 8e9a 773b
000001b0: 67a2 3abc e1a0 0d3b 0d3c 82bc d494 19bd
000001c0: 9825 26bc f721 433b ca93 57bc b9e7 bbbb
000001d0: c390 90bc e2e6 d53b 6b4f 0d3b f6a2 9bbc
000001e0: 331a 38bc 2b9f 15bc c2d1 c1bc d78d 33bc
000001f0: 16c7 13bc 0a0e 11bd 5578 34bc 2622 cb3b

read_encoder.block3.0.weight f4 [128, 128]
-0.06846474 -0.0076707173 0.0037433463 -0.023622809 0.047698878 0.054143377 0.024543423 -0.015070559
0.035793386 -0.052166104 -0.036041714 0.07207424 0.0073491577 0.025710804 0.11434198 0.06723778
-0.034657687 0.0017733244 0.09514971 0.11033724 -0.06518633 -0.04822789 0.051653404 0.03524802
0.12386084 0.077458486 0.11299548 0.066826254 0.09146439 -0.04733628 0.06060689 -0.037499353
-0.07068096 0.031555504 -0.04424892 0.019302763 0.01973918 0.03657857 -0.015657669 0.0648581
0.073900454 0.00558648 0.05583297 -0.035384856 0.034359828 -0.03967653 -0.021992724 0.029893903
0.014784956 0.096382804 0.02162851 0.101222366 0.014935096 -0.009276983 -0.002436846 0.012732075
-0.113739796 0.12000379 0.1001694 -0.002551939 0.087199055 0.11663172 0.023030195 0.0007374094
-0.027751364 -0.052893754 -0.10635872 0.050326552 -0.059836425 -0.059536546 0.01057771 -0.025417259
-0.06716036 -0.034653746 0.044190463 0.014191589 0.022180071 -0.051036973 0.04923154 0.12013031
-0.0035121415 0.09757334 0.008934553 0.06241874 0.07279651 -0.069638126 0.06558432 -0.11795932
0.0038727678 -0.066263 0.0025335264 -0.03948002 -0.018472524 0.111184254 -0.037708428 0.043268092
0.014521178 0.058253273 0.0019821886 -0.041925527 -0.04643176 0.028488452 -0.2034842 -0.06567622
0.118076764 0.07033371 0.039570108 -0.01739703 0.091554984 0.018116962 -0.05672441 0.09322122
0.10690104 0.0344261 0.026489424 -0.070500664 0.027104115 0.109055564 -0.05536121 -0.06570528
0.02378378 0.036726955 0.05335777 -0.01595584 0.09616638 0.09361016 -0.12208228 -0.09201943
0.0665237 -0.047514215 0.00947888 0.03408276 0.01741048 -0.06834124 -0.05552555 -0.08780092
0.025982924 0.048079867 -0.05198122 -0.08038615 0.042016745 0.02803022 -0.09101398 -0.012061515
-0.017365394 -0.02461288 0.018278139 0.10249096 -0.093472086 0.0060688863 0.04706689 -0.030266652
0.091183394 0.07879327 0.022335967 0.07938286 0.03526738 -0.06871152 0.066023976 -0.046027668
-0.05399087 -0.08585758 -0.0030487317 0.07249879 -0.046500392 0.01705597 0.021784358 0.047411185
0.075539015 0.055722136 -0.03886184 -0.0069029694 -0.0765438 -0.073039 -0.05373076 0.044892807
0.00942223 -0.0071727834 0.06737729 -0.007286441 0.07581654 0.046847064 -0.08499171 0.06374967
0.0613722 -0.020358553 0.020111525 -0.064425014 -0.034605358 -0.04712239 -0.051325455 -0.0025604717
-0.09999677 -0.021764817 0.045857906 -0.04988112 -0.03249015 -0.006985419 -0.03678427 0.004147253
-0.09507803 0.018883353 0.07449109 -0.010774301 0.078604095 -0.08225254 -0.05082418 -0.019639105
0.06222479 -0.07019695 -0.025246225 -0.057173762 0.005526616 -0.06312502 -0.07661932 -0.050572775
-0.031930022 0.048541255 0.009360382 -0.09093059 0.076214336 -0.007621727 0.012247234 -0.055359446
-0.04916686 -0.060468942 -0.07934949 -0.043766707 0.04619525 -0.04149194 -0.060850125 0.019558782
-0.027276104 -0.066246636 0.074572794 -0.08635721 -0.09548935 0.043000698 0.041689932 -0.040250685
0.053876564 -0.06473793 -0.055618893 -0.020321447 -0.046757 0.052477244 -0.08143846 0.06438843
0.042504635 -0.057530835 -0.06812172 0.0066777337 -0.01464332 -0.09497975 0.060378235 0.11147487
00000000: 3e37 8cbd a45a fbbb ee52 753b 9f84 c1bc
00000010: e65f 433d 72c5 5d3d 4a0f c93c 82ea 76bc
00000020: 169c 123d 20ac 55bd 7aa0 13bd a99b 933d
00000030: 34d1 f03b 779f d23c 212c ea3d f6b3 893d
00000040: 38f5 0dbd e56e e83a dadd c23d 7ef8 e13d
00000050: 6980 85bd 9c8a 45bd 8592 533d 3a60 103d
00000060: c1aa fd3d 8ea2 9e3d 2d6a e73d 34dc 883d
00000070: af51 bb3d b0e3 41bd ee3e 783d ec98 19bd
00000080: 2ec1 90bd 5840 013d 5b3e 35bd d420 9e3c
00000090: 10b4 a13c 69d3 153d 8344 80bc 53d4 843d
000000a0: 1f59 973d ca0e b73b 1db1 643d b6ef 10bd
000000b0: e4bc 0c3d db83 22bd 162a b4bc 0fe4 f43c
000000c0: 9a3c 723c 5964 c53d 462e b13c ac4d cf3d
000000d0: 55b2 743c 7dfe 17bc 7eb3 1fbb 319a 503c
000000e0: 69f0 e8bd 8cc4 f53d 9d25 cd3d 6f3e 27bb
000000f0: 6b95 b23d 9cdc ee3d d2a9 bc3c b54e 413a
00000100: d456 e3bc 1fa7 58bd 9ad2 d9bd 3723 4e3d
00000110: 0a17 75bd 98dc 73bd 224e 2d3c db37 d0bc
00000120: 5f8b 89bd 16f1 0dbd 0f01 353d d783 683c
00000130: fbb2 b53c 250c 51bd 03a7 493d e106 f63d
00000140: f52b 66bb 88d4 c73d 3b62 123c cbaa 7f3d
00000150: 5616 953d 6f9e 8ebd 1251 863d a894 f1bd
00000160: 43ce 7d3b e5b4 87bd 8509 263b cdb5 21bd
00000170: b153 97bc 92b4 e33d 2774 1abd e239 313d
00000180: 3cea 6d3c fc9a 6e3d 9be7 013b 1aba 2bbd
00000190: 3b2f 3ebd 9d60 e93c 2a5e 50be 4181 86bd
000001a0: 3bd2 f13d 1f0b 903d 4414 223d 3784 8ebc
000001b0: 2e81 bb3d 066a 943c db57 68bd c4ea be3d
000001c0: efee da3d 6202 0d3d 5900 d93c a762 90bd
000001d0: 7309 de3c 8658 df3d 70c2 62bd 7d90 86bd
000001e0: 34d6 c23c 016f 163d ad8d 5a3d d2b5 82bc
000001f0: e1f2 c43d afb6 bf3d 4606 fabd af74 bcbd
00000200: 943d 883d 449e 42bd 4e4d 1b3c 5d9a 0b3d
00000210: 6ca0 8e3c 7ef6 8bbd c26e 63bd f8d0 b3bd
00000220: 24da d43c 65ef 443d 42ea 54bd 7ea1 a4bd
00000230: c019 2c3d a29f e53c 8a65 babd a99d 45bc
00000240: df41 8ebc f3a0 c9bc 09bc 953c c8e6 d13d
00000250: 4b6e bfbd 82dd c63b 36c9 403d c5f1 f7bc
00000260: 5cbe ba3d 5e5e a13d ebf9 b63c 7b93 a23d
00000270: 8774 103d a0b8 8cbd 9437 873d 8287 3cbd
00000280: 8825 5dbd 19d6 afbd 3bcd 47bb 3f7a 943d
00000290: 3277 3ebd f6b8 8b3c 1c75 b23c 3b32 423d
000002a0: 33b4 9a3d e53c 643d 982d 1fbd 4e32 e2bb
000002b0: ffc2 9cbd 7995 95bd c914 5cbd 85e1 373d
000002c0: b25f 1a3c ab09 ebbb 1bfd 893d 19c3 eebb
000002d0: b445 9b3d b5e2 3f3d 2210 aebd 308f 823d
000002e0: 6a61 7b3d fbc6 a6bc edc0 a43c 43f1 83bd
000002f0: 59be 0dbd 6803 41bd a43a 52bd 96cd 27bb
00000300: 1bcb ccbd 214c b2bc 80d5 3b3d 2550 4cbd
00000310: 6414 05bd f1e5 e4bb 1aab 16bd aee5 873b
00000320: 45b8 c2bd 43b1 9a3c c98e 983d b286 30bc
00000330: 2ffb a03d 0574 a8bd 042d 50bd 30e2 a0bc
00000340: 6cdf 7e3d 6bc3 8fbd 2cd1 cebc 092f 6abd
00000350: 9d18 b53b b147 81bd 97ea 9cbd 6625 4fbd
00000360: 0ec9 02bd 32d3 463d 4a5c 193c d139 babd
00000370: 4316 9c3d aebf f9bb 9fa8 483c 96c0 62bd
00000380: 3063 49bd 48ae 77bd fc81 a2bd b844 33bd
00000390: 3b37 3d3d 74f3 29bd fb3d 79bd bd39 a03c
000003a0: 2372 dfbc 51ac 87bd 9fb9 983d 0ddc b0bd
000003b0: ec8f c3bd 8021 303d 10c3 2a3d e7dd 24bd
000003c0: acad 5c3d 5295 84bd a3d0 63bd 2a79 a6bc
000003d0: 4584 3fbd 61f2 563d 35c9 a6bd 15de 833d
000003e0: 5719 2e3d 74a5 6bbd 6683 8bbd e4d0 da3b
000003f0: 89ea 6fbc be84 c2bd 2b4f 773d f04c e43d

read_encoder.block3.0.bias f4 [128]
0.039781634 0.029893171 0.00624168 0.0050198073 0.020017473 0.033119835 0.028034614 0.06928886
-0.07098996 0.045289084 0.052438587 -0.0667985 0.024904672 -0.062622115 -0.04311745 -0.033583224
-0.03834422 0.037952032 -0.025768178 0.02452604 -0.030123988 -0.055833455 -0.086179696 0.03837731
-0.048485477 -0.090315126 -0.064889185 -0.07326249 -0.032537855 0.05018768 0.023470623 -0.04915181
0.031195482 0.02306026 -0.009461591 0.08260814 0.099722855 0.07238212 -0.066856265 0.039618324
-0.074237436 -0.06472518 0.091555364 0.00028187546 -0.09495757 -0.028344108 0.051698223 -0.049917605
0.0728291 -0.026270228 0.0659652 0.015905136 0.031169524 0.085280105 -0.0620734 0.07461017
-0.0021797533 -0.029666133 -0.053136896 -0.004849079 0.04828183 0.088774726 0.03454514 0.037770826
-0.08878462 -0.07256074 -0.00855252 -0.09360529 -0.00022881532 -0.06989491 0.05259087 -0.08278065
-0.059976913 0.0664683 -0.05060819 -0.04160105 0.053193457 0.058530953 0.009785865 -0.014629745
-0.031575345 -0.07344101 0.004580557 0.013760691 0.00034054738 -0.04237816 0.091768995 -0.067204475
-0.028987309 0.09070516 0.026442362 -0.005791493 0.054276116 0.014194258 0.0099063385 0.027368218
0.038194545 -0.064226665 0.037736252 -0.026232159 0.06902763 0.013136257 0.037408907 0.07800807
-0.02580527 0.07064223 -0.07431022 0.04341407 0.09361676 -0.04990601 -0.011748309 0.013013723
-0.04990755 -0.056358024 -0.058150996 -0.0631012 0.03726911 -0.017551014 0.0855201 -0.066616036
0.049986824 -0.052960508 -0.09881572 0.050089963 -0.050272427 -0.04900171 -0.059848614 -0.03882422
00000000: 11f2 223d 86e2 f43c 0287 cc3b 327d a43b
00000010: affb a33c aaa8 073d d9a8 e53c 51e7 8d3d
00000020: 2f63 91bd 0c81 393d d8c9 563d a7cd 88bd
00000030: e204 cc3c 0640 80bd ec9b 30bd 908e 09bd
00000040: d40e 1dbd 9773 1b3d c917 d3bc d5ea c83c
00000050: 95c6 f6bc 9fb1 64bd fb7e b0bd 8731 1d3d
00000060: b598 46bd 23f7 b8bd 9fe4 84bd a50a 96bd
00000070: 6a46 05bd 9991 4d3d 7745 c03c 6953 49bd
00000080: ab8d ff3c dfe8 bc3c ca04 1bbc 752e a93d
00000090: 7f3b cc3d 143d 943d f0eb 88bd d346 223d
000000a0: cc09 98bd a38e 84bd 6181 bb3d afc8 9339
000000b0: 1d79 c2bd e731 e8bc 84c1 533d 6776 4cbd
000000c0: 6c27 953d a934 d7bc c318 873d 7d4b 823c
000000d0: 3b57 ff3c 56a7 ae3d ad40 7ebd 38cd 983d
000000e0: 31da 0ebb 6406 f3bc 13a6 59bd 06e5 9ebb
000000f0: 2bc3 453d 86cf b53d 347f 0d3d 95b5 1a3d
00000100: b6d4 b5bd ba9a 94bd de1f 0cbc 21b4 bfbd
00000110: 25ee 6fb9 1025 8fbd 8669 573d e788 a9bd
00000120: 5aaa 75bd 8820 883d 894a 4fbd dd65 2abd
00000130: 62e1 593d 27be 6f3d e554 203c 99b1 6fbc
00000140: 2655 01bd 3e68 96bd 7f18 963b 8574 613c
00000150: 7f8b b239 b994 2dbd 62f1 bb3d 80a2 89bd
00000160: cb76 edbc a0c3 b93d a79d d83c 91c6 bdbb
00000170: a250 5e3d 088f 683c 324e 223c 5033 e03c
00000180: e271 1c3d 4589 83bd 5491 1a3d d3e4 d6bc
00000190: 5c5e 8d3d 7539 573c 153a 193d b2c2 9f3d
000001a0: 9365 d3bc e0ac 903d f52f 98bd f4d2 313d
000001b0: 25ba bf3d 3f6a 4cbd fb7b 40bc 8337 553c
000001c0: dc6b 4cbd acd7 66bd bd2f 6ebd 343b 81bd
000001d0: 7fa7 183d 25c7 8fbc 2a25 af3d fd6d 88bd
000001e0: fcbe 4c3d 1eed 58bd e55f cabd 222b 4d3d
000001f0: 76ea 4dbd 04b6 48bd d223 75bd 2506 1fbd

read_encoder.block3.1.weight f4 [128]
1.0001369 0.98704016 0.99461246 0.9901078 0.9957524 0.98967814 0.9686751 1.0076216
0.9885341 1.0175427 0.9990701 0.99521536 0.9907936 1.0101693 0.99368435 0.9711616
0.9898691 0.98995537 0.9886618 0.98985237 0.99115115 0.9896409 1.0087712 0.9899491
0.99568677 0.9886907 0.98892206 1.0143744 1.0064859 1.0041724 0.989062 1.0042069
0.9888454 0.99050903 0.9897619 1.0185937 0.9800223 1.0065968 0.9972836 1.0190011
0.9743846 1.0076746 1.0064757 1.0012093 0.9920349 1.0105219 0.9908059 1.0086355
1.0085431 1.0042033 0.970957 1.0032513 0.9902155 0.99585915 0.98847085 1.0106819
0.997995 0.98847735 1.0068969 0.98824614 1.0403727 0.9833188 1.0213699 0.988882
0.9853507 1.0083147 0.99405855 0.9888769 1.0002177 0.98786944 1.0065293 0.9889535
0.9916404 1.0031091 0.9913502 0.9858853 0.9870428 1.0135003 0.9892242 0.9973131
1.005346 0.9953161 0.9889828 1.0120009 1.0053593 1.0069146 1.0095373 0.9904733
1.0060868 1.0153123 0.975841 0.9921133 1.0110883 0.9991259 0.9975859 0.98433405
0.99617994 1.0094373 0.9964821 1.0065917 0.9916949 0.99139297 1.0110576 1.0104449
0.9894921 0.9578003 0.99490654 1.0174963 0.99608725 1.0104966 1.0099871 0.9801464
0.98961586 0.9926887 0.98971105 1.0058026 1.012478 1.0073507 1.0043578 0.9892207
0.9941192 0.9998359 0.98983514 0.99182916 0.9885627 1.0034963 0.9888922 1.0247476
00000000: 7c04 803f aaae 7c3f ec9e 7e3f b477 7d3f
00000010: a1e9 7e3f 8c5b 7d3f 17fb 773f bff9 803f
00000020: 9210 7d3f d73e 823f 0fc3 7f3f 6fc6 7e3f
00000030: a6a4 7d3f 3a4d 813f 1962 7e3f 0c9e 783f
00000040: 1068 7d3f b76d 7d3f f118 7d3f f766 7d3f
00000050: 15bc 7d3f 1b59 7d3f 6a1f 813f 4e6d 7d3f
00000060: 54e5 7e3f d51a 7d3f ff29 7d3f 05d7 813f
00000070: 88d4 803f b988 803f 2b33 7d3f da89 803f
00000080: f924 7d3f 0092 7d3f 0961 7d3f 4761 823f
00000090: bee2 7a3f 2ad8 803f fa4d 7f3f a16e 823f
000000a0: 4571 793f 7bfb 803f 32d4 803f a027 803f
000000b0: 00f6 7d3f c858 813f 75a5 7d3f f81a 813f
000000c0: f117 813f bc89 803f a390 783f 8a6a 803f
000000d0: c37e 7d3f a0f0 7e3f 6d0c 7d3f 065e 813f
000000e0: 9a7c 7f3f da0c 7d3f ffe1 803f b3fd 7c3f
000000f0: ef2a 853f c8ba 7b3f 40bc 823f 5f27 7d3f
00000100: f23f 7c3f 7510 813f 9f7a 7e3f 0927 7d3f
00000110: 2207 803f 03e5 7c3f f4d5 803f 0e2c 7d3f
00000120: 25dc 7d3f e165 803f 20c9 7d3f fb62 7c3f
00000130: d6ae 7c3f 61ba 813f cc3d 7d3f e94f 7f3f
00000140: 2daf 803f 09cd 7e3f fa2d 7d3f 3f89 813f
00000150: 9daf 803f 94e2 803f 8538 813f a88f 7d3f
00000160: 74c7 803f c1f5 813f b7d0 793f 23fb 7d3f
00000170: 576b 813f b7c6 7f3f ca61 7f3f 51fd 7b3f
00000180: a605 7f3f 3e35 813f 7319 7f3f ffd7 803f
00000190: b8df 7d3f eecb 7d3f 566a 813f 4256 813f
000001a0: 5b4f 7d3f 6732 753f 32b2 7e3f 523d 823f
000001b0: 93ff 7e3f f457 813f 4247 813f e0ea 7a3f
000001c0: 7757 7d3f d920 7e3f b45d 7d3f 24be 803f
000001d0: e198 813f def0 803f cc8e 803f 913d 7d3f
000001e0: 997e 7e3f 3ff5 7f3f d665 7d3f 84e8 7d3f
000001f0: 7212 7d3f 9172 803f 0a28 7d3f ee2a 833f

read_encoder.block3.1.bias f4 [128]
0.0037036 -0.008888873 0.008797477 -0.01239787 -0.01505819 -0.010129814 -0.019360285 0.0072660474
-0.011412949 0.017979324 0.0039216373 0.0017831611 -0.014845145 0.008306205 -0.0041529383 0.0030958278
-0.010919409 -0.010952013 -0.009979878 -0.011220498 0.019144403 -0.0115464805 0.006549061 -0.012025439
0.0026047942 -0.010758062 -0.012220434 0.002972992 0.0070902463 0.008602275 -0.010625579 0.0046039545
-0.009708745 -0.010917969 -0.007875166 -0.0063627562 0.010873699 -0.0035906662 0.0010920586 0.0068440954
0.011665842 -0.03120748 0.007613571 0.0055570006 -0.013025162 0.0016230749 -0.008653945 0.009963287
0.0075468104 0.0073109837 0.010220955 0.0069118785 -0.011842745 0.003580038 -0.010676033 0.008402342
-0.011093391 -0.011233264 0.0064132074 -0.010728995 0.0124653075 -0.0040095826 0.008101501 -0.0113450065
-0.009497146 0.008314049 -0.013345088 -0.011927224 0.0065079834 -0.008804224 0.0073513538 -0.010741569
-0.010759579 0.00633674 -0.010561736 0.017134607 -0.01011085 -0.013459404 -0.011107194 0.011067475
0.0076514636 -0.010475315 -0.010860295 0.0011065066 0.0059739016 0.006799528 0.009932666 -0.010572616
0.008272766 0.003211491 -0.0068154545 -0.011417902 0.008831 0.0038685654 -0.0005928296 -0.01772695
0.003923674 0.0067201434 0.015789138 0.007941826 -0.01168993 -0.013332139 0.009435861 0.0043745553
-0.00914946 -0.023629902 0.0001417227 0.0053676926 0.0025877964 -0.012858213 0.007318425 -0.01453929
-0.011240375 0.0064322157 -0.0112173455 0.0075657824 0.0068097045 0.0057938136 0.007570991 -0.011658242
-0.013290856 -0.012151087 -0.011374665 0.014564915 -0.011288688 0.007516844 -0.012173794 0.0051816185
00000000: 19b8 723b a3a2 11bc 4b23 103c 7020 4bbc
00000010: a0b6 76bc 85f7 25bc 7699 9ebc 0618 ee3b
00000020: 61fd 3abc 6049 933c 1481 803b f5b8 e93a
00000030: 0d39 73bc c016 083c 5f15 88bb 5fe3 4a3b
00000040: 52e7 32bc 1270 33bc a482 23bc 2ed6 37bc
00000050: b9d4 9c3c 732d 3dbc 8199 d63b 5906 45bc
00000060: 32b5 2a3b 9542 30bc 3738 48bc 87d6 423b
00000070: 4c55 e83b 8ef0 0c3c e916 2ebc c5dc 963b
00000080: 6e11 1fbc 48e1 32bc d706 01bc ab7e d0bb
00000090: 9927 323c 6251 6bbb 6823 8f3a 6f44 e03b
000000a0: 1622 3f3c d4a6 ffbc 437b f93b 8017 b63b
000000b0: 7d67 55bc 5bbd d43a 47c9 0dbc 0e3d 233c
000000c0: 3c4b f73b fa90 ef3b cb75 273c 0a7d e23b
000000d0: 1308 42bc 129f 6a3b 87ea 2ebc faa9 093c
000000e0: 0ec1 35bc b90b 38bc e225 d23b abc8 2fbc
000000f0: 4a3b 4c3c d162 83bb 28bc 043c 68e0 39bc
00000100: eb99 1bbc a637 083c 5ba5 5abc 676a 43bc
00000110: ec40 d53b 983f 10bc a0e3 f03b 68fd 2fbc
00000120: f248 30bc 6ea4 cf3b 220b 2dbc e05d 8c3c
00000130: fba7 25bc d584 5cbc f3fa 35bc 5b54 353c
00000140: 21b9 fa3b a8a0 2bbc 61ef 31bc 3308 913a
00000150: b8c0 c33b 93ce de3b 9fbc 223c c438 2dbc
00000160: 7f8a 073c e177 523b 2d54 dfbb 2712 3bbc
00000170: e6af 103c c287 7d3b 1f68 1bba 1c38 91bc
00000180: 2a92 803b a634 dc3b 3958 813c 6f1e 023c
00000190: 1f87 3fbc 0b6f 5abc df98 1a3c 6e58 8f3b
000001a0: 9ee7 15bc 7f93 c1bc 669b 1439 78e3 af3b
000001b0: 0598 293b 41ab 52bc 66cf ef3b 3436 6ebc
000001c0: 8d29 38bc 56c5 d23b f5c8 37bc 62ea f73b
000001d0: f123 df3b 08da bd3b 1316 f83b 3602 3fbc
000001e0: e4c1 59bc 5a15 47bc ce5c 3abc aea1 6e3c
000001f0: 30f4 38bc dc4f f63b 9874 47bc 91ca a93b

bag_predictor.weight f4 [1, 128]
-0.023658773 0.014918716 0.016646514 0.04849036 0.061962493 0.0049423473 -0.0021521181 -0.09374338
0.039249256 -0.07053113 -0.025115969 -0.01131532 0.061733615 -0.09530639 -0.046614796 0.026633758
0.039149065 -0.00030064356 0.04344631 0.06013305 0.058805782 0.07226703 0.0025947285 0.07351368
-0.0105484575 0.05346769 0.057297647 -0.038668238 -0.030050242 -0.08228826 -0.0022052622 -0.026778746
0.032779094 0.04913673 0.05817858 -0.03287592 0.036776453 -0.046516743 -0.021751285 -0.055458706
0.0974524 0.012211641 -0.025620595 -0.04389052 0.05419584 -0.011237287 0.044195756 -0.075147025
-0.08022583 -0.03217735 0.08708494 -0.086991735 0.043507766 -0.05193749 0.014325185 -0.078104086
0.058274508 0.0045922445 -0.0756691 0.06295969 -0.038697142 -0.008820849 -0.10074671 0.017837584
0.015783895 -0.06314112 0.06820264 0.011948184 -0.034844972 0.03347204 -0.029785397 0.014125224
0.0422472 -0.09055248 0.053813744 0.050918803 0.006529179 -0.07795288 0.010845234 0.06216222
-0.08073782 0.10403615 0.0011509828 -0.017098973 -0.06492602 -0.09378492 -0.06662057 0.010906291
-0.047689106 -0.071803555 -0.009172838 0.062844455 -0.09269108 -0.023551213 -0.018992094 0.0039595054
-0.0707218 -0.018109512 0.072798036 -0.071917646 0.07797703 0.04336966 -0.10060661 -0.012423478
0.04426102 -0.005330641 -0.03288606 -0.06538028 -0.02043297 -0.067098945 -0.0153052565 0.037117254
0.025977295 -0.026358183 0.005963881 -0.044052064 -0.04922853 -0.06308495 -0.053514097 0.0073780944
0.038357157 0.06771601 0.024228169 0.046852883 0.016089883 -0.031699754 0.039436143 -0.019673632
00000000: 0bd0 c1bc a16d 743c 455e 883c d49d 463d
00000010: 62cc 7d3d 6af3 a13b 8d0a 0dbb 87fc bfbd
00000020: d4c3 203d a072 90bd 01c0 cdbc e463 39bc
00000030: 63dc 7c3d ff2f c3bd 28ef 3ebd 0a2f da3c
00000040: c55a 203d b29f 9db9 c2f4 313d 134e 763d
00000050: 55de 703d bd00 943d 520c 2a3b 578e 963d
00000060: 70d3 2cbc f000 5b3d f0b0 6a3d 9662 1ebd
00000070: ed2b f6bc bf86 a8bd 2986 10bb 1a5f dbbc
00000080: 5f43 063d 9943 493d aa4c 6e3d e7a8 06bd
00000090: e8a2 163d 5788 3ebd c02f b2bc ab28 63bd
000000a0: 2095 c73d 5613 483c 48e2 d1bc 8cc6 33bd
000000b0: 75fc 5d3d 991c 38bc 9c06 353d afe6 99bd
000000c0: 714d a4bd 66cc 03bd 9759 b23d b928 b2bd
000000d0: 3335 323d 68bc 54bd 2eb4 6a3c 09f5 9fbd
000000e0: 40b1 6e3d 8a7a 963b 67f8 9abd 03f1 803d
000000f0: e580 1ebd 5285 10bc 4b54 cebd 2020 923c
00000100: 3a4d 813c 2250 81bd d3ad 8b3d 51c2 433c
00000110: 9ab9 0ebd fa19 093d 8100 f4bc 7c6d 673c
00000120: 660b 2d3d 9473 b9bd cd6b 5c3d 3c90 503d
00000130: b9f2 d53b c2a5 9fbd 35b0 313c d09d 7e3d
00000140: df59 a5bd e810 d53d 93dc 963a 2513 8cbc
00000150: eff7 84bd 4f12 c0bd 5e70 88bd 4db0 323c
00000160: a755 43bd be0d 93bd ac49 16bc 98b4 803d
00000170: d2d4 bdbd 79ee c0bc 4f95 9bbc bdbe 813b
00000180: 97d6 90bd 665a 94bc 2317 953d 8f49 93bd
00000190: 6cb2 9f3d 62a4 313d d70a cebd d88b 4bbc
000001a0: 0b4b 353d a8ac aebb 89b3 06bd 19e6 85bd
000001b0: 0b63 a7bc 2c6b 89bd e6c2 7abc 4308 183d
000001c0: 56ce d43c 1eed d7bc a96c c33b f06f 34bd
000001d0: dba3 49bd af32 81bd 9931 5bbd f1c3 f13b
000001e0: 651c 1d3d b1ae 8a3d 277a c63c cfe8 3f3d
000001f0: eece 833c 9ad7 01bd cb87 213d 992a a1bc
