m6aReplica/2d_66/Models/epoch107_rocauc0.902_valpr0.429_valscore1.331.pth (torch, 150705 bytes, 13 tensors)

read_encoder.block1.0.weight f4 [128, 15]
000000 8f a8 9a bf 7a e1 a2 3f 25 3a 45 be 11 49 29 bd
       -1.208269 1.272506 -0.19260462 -0.041329447
000010 74 46 d2 3f d0 e7 a0 3c f2 88 b6 bf da 1a 2b 3f
       1.642775 0.019641787 -1.4260542 0.6683785
000020 ec 66 d1 3e c6 34 ae bd 9c 2c 84 bd 1e 05 c9 ba
       0.40898836 -0.085061595 -0.06453821 -0.0015336608
000030 d8 f8 70 bc e3 81 93 3c 83 f5 0e bd 67 e1 c4 3d
       -0.0147077665 0.01800627 -0.034902107 0.096133046
000040 71 d5 89 3e 4c cb 07 bd 53 a7 47 40 e0 5c 46 3b
       0.26920655 -0.033152863 3.1195877 0.003026776
000050 38 25 62 be 74 ae 70 3f 36 87 7a 3f 49 f4 02 3f
       -0.2208451 0.94016194 0.97862566 0.51154
000060 50 d3 60 be 87 94 c7 bd c9 91 60 bd f3 2c 46 be
       -0.2195561 -0.09745126 -0.05482653 -0.19353084
000070 0b cc df bd 3b a6 e8 be 0f 30 42 be 6e 00 e4 bf
       -0.1092759 -0.45439324 -0.18963645 -1.7812631
000080 92 bd aa 3e 13 8b b0 bf 88 8e bf bf 93 ea 3e 3e
       0.33347756 -1.3792442 -1.4965372 0.1864417
000090 17 b7 d4 3e 0f c1 7d be d9 26 29 be 79 f4 ac bd
       0.41545936 -0.24780677 -0.16518725 -0.08445067
0000a0 dc 17 62 3d c9 e0 fb bc d4 49 02 be 35 3c a3 3c
       0.055198535 -0.030746834 -0.12723476 0.01992617
0000b0 73 a4 8f bd f3 c6 be 3f f0 17 99 3e 6c ff 42 3e
       -0.07013788 1.4904464 0.29901075 0.19042748
0000c0 71 3e 72 40 46 06 f6 bf 9a 95 d7 be a7 0f c5 3e
       3.7850611 -1.9220665 -0.42106324 0.38488504
0000d0 56 1e 21 bf 3e 59 a5 3e 8d 5e 6d bd 70 ba 06 3f
       -0.62936914 0.3229465 -0.0579515 0.5262823
0000e0 9c b2 6b bc ad 7b 84 bd a5 49 c9 3e bf 56 ee bd
       -0.0143858455 -0.06468902 0.39314 -0.11637639
0000f0 70 b5 98 3f bc e4 03 bf 4c 73 9b bc b6 1e 06 3d
       1.193037 -0.51520896 -0.018975876 0.032744132
000100 a2 4e 1b bf fb 62 56 be 7c 9c 9e 3e 19 ec 36 be
       -0.6066686 -0.20936196 0.30978763 -0.17863502
000110 db 88 92 be 40 b9 e8 be 49 07 5e 3f 0b ad 47 bc
       -0.28620037 -0.45453835 0.86729866 -0.012187253
000120 b7 a8 e6 3e 32 4e 08 be 68 86 7c bc 8c 48 d0 3f
       0.45050594 -0.13311079 -0.015412904 1.627214
000130 c2 1b 3a bc 0b 40 09 3e 09 99 b0 40 25 0a 1d bd
       -0.011359157 0.13403337 5.518681 -0.038339753
000140 51 3f 7c be e9 d4 b6 3f be 22 76 bc 12 2a 4f be
       -0.24633528 1.4283725 -0.015022932 -0.20230892
000150 ed e5 a3 3e 1e de 85 3b 08 ae 08 bd f7 d7 73 bf
       0.32011357 0.0040853163 -0.033369094 -0.9525141
000160 95 a7 1e bd b2 7f 44 bc 2b 99 30 40 8a ce 83 3d
       -0.038734037 -0.011993336 2.7593486 0.064358786
000170 3d f9 e8 3e 85 00 f7 3e e8 c7 d3 be f1 60 38 be
       0.45502654 0.48242584 -0.41363454 -0.1800573
000180 2d 96 92 3f c5 7c f9 3e df fb 1d be 6a 40 3d be
       1.145208 0.48728004 -0.15428112 -0.18481603
000190 93 d9 87 be 39 b6 5a bd dd 47 16 bd 26 02 d5 be
       -0.26533183 -0.053396437 -0.036689628 -0.41603202
0001a0 e1 aa 41 bc b1 7b 39 c0 5b c3 52 bf b7 1b 8a be
       -0.011820526 -2.8981745 -0.8232934 -0.2697427
0001b0 b1 08 1b c0 f4 c5 e0 3e 78 13 0c 3f ca 14 bd be
       -2.4224055 0.43901026 0.54717207 -0.36929923
0001c0 35 05 aa bc b4 84 16 be 2c df 2c bd 9c d9 47 bd
       -0.020754436 -0.1469906 -0.04220502 -0.048791513
0001d0 b3 e5 9f bb bf 4c 43 bd 2d 0c 89 bd 3d 85 3d bd
       -0.004879677 -0.047680613 -0.066917755 -0.046269644
0001e0 a9 fb cc 3f 77 73 6a bf f7 30 b2 3d 58 b3 ed 3f
       1.60143 -0.91582435 0.087007456 1.8570356
0001f0 a0 7d 21 c0 3c 4e 8a be 81 7a 00 40 3b f4 53 be
       -2.5232925 -0.27012813 2.007477 -0.20698635
000200 66 4e 08 3f 13 b3 9b bd a7 6f a9 bd 16 aa fa bc
       0.53244627 -0.07602515 -0.08273249 -0.030598681
000210 47 18 d0 bd ee 7f 35 3b 09 56 17 bd 29 61 78 be
       -0.101608805 0.002769466 -0.036947284 -0.24255814
000220 3f 0e b8 bf f7 c2 93 bd 90 a6 de bf 0e 24 fd 3e
       -1.4379348 -0.07214921 -1.7394581 0.4944157
000230 75 2a c0 3e a4 1e 8c bf b3 44 8c be 37 5f b8 be
       0.37532392 -1.0946851 -0.27396163 -0.36010143
000240 1c e6 6f be 2a de 42 3e a4 73 ac 3d 4b 51 ab 3e
       -0.23427624 0.19030061 0.08420494 0.3346046
000250 87 8b 46 3e e0 c8 86 3e f0 fc c3 3f b3 78 b3 bd
       0.19389163 0.2632513 1.5311565 -0.08763256
000260 c2 27 98 bc 1c 46 34 40 cb ac ae 3f 6a 6e d1 be
       -0.018573646 2.8167791 1.3646482 -0.40904552
000270 68 93 74 bf b0 65 84 bd 60 27 21 3f fc bb b2 bd
       -0.95537424 -0.06464708 0.62950706 -0.087272614
000280 ea b1 90 3c cb a7 f0 bc 5a 28 7d bd a1 21 4c be
       0.017662961 -0.029376885 -0.06180606 -0.19934703
000290 85 2b 4a bc fb aa b5 3f e6 01 13 be ed e2 a1 3e
       -0.012339477 1.4192804 -0.14356193 0.31618443
0002a0 52 d4 d6 3f ec 73 bb bf f6 3f 9e be de 29 d0 3e
       1.6783545 -1.4644752 -0.30908173 0.40656942
0002b0 40 3c 8f 3f f2 8d b2 bd d2 b1 48 be 07 ec ab 3e
       1.1190262 -0.0871848 -0.19599083 0.33578512
0002c0 8b ee 6f be 7d 08 ec bd 18 66 de 3e 96 87 78 be
       -0.2343084 -0.115250565 0.43437266 -0.24270472
0002d0 0e 9c 2a c0 a3 ea 02 3f e1 5a b3 3d 29 2c 9b c0
       -2.6657748 0.5113928 0.08757568 -4.8491406
0002e0 4f 26 30 bf e9 e8 d6 3e d1 6f 7f bf f6 1c 80 bf
       -0.68808454 0.4197457 -0.99779993 -1.0008838
0002f0 7a 6e c0 be f2 20 a2 bd 69 a9 fc bc 6b c7 1f bd
       -0.37584287 -0.0791644 -0.0308425 -0.03900854
000300 74 a3 58 bd 56 8e 2e bd 31 f3 bd bd 67 3d 8d bf
       -0.052890256 -0.04261621 -0.09274901 -1.1034364
000310 0a f3 96 bf 16 f0 a0 bd bd a4 28 40 3d 7b ab be
       -1.179292 -0.07858293 2.6350548 -0.3349246
000320 b5 11 80 be d9 20 b9 3f a9 e7 08 3f ed d8 ee 3e
       -0.2501351 1.4463149 0.53478485 0.46649876
000330 ca cd 10 3d 94 8d 98 be b0 92 8f 3d ea f5 02 bf
       0.035352506 -0.29795516 0.070104 -0.51156485
000340 e8 fe c0 3d 40 5e 04 3d ab 83 2f c0 40 ce ed 3d
       0.094236195 0.032316446 -2.7424114 0.11611605
000350 c7 68 d5 be 5b 89 13 c0 a7 0d fb 3e f8 ae db 3e
       -0.416815 -2.3052585 0.49033853 0.42906928
000360 4b bb 9c be 3c 30 7e bd ab be 3e 3e 7d ca 2c bd
       -0.30611643 -0.06205772 0.18627422 -0.042185295
000370 62 2f 61 bd 33 79 88 39 73 8a 78 bc 9f cb 99 bd
       -0.05497683 0.00026030242 -0.015169728 -0.07509541
000380 d0 f4 e9 bc 15 91 0e 40 54 96 0d 3e 19 af 48 3e
       -0.028559119 2.227605 0.13826877 0.19598044
000390 95 08 26 40 2a 48 ae bf fa e4 bb be 73 a2 82 3f
       2.5942738 -1.3615773 -0.36698133 1.0205826
0003a0 64 54 dc 3e f6 dd 04 3f e5 32 45 bd 77 92 fd 3b
       0.43033135 0.51901186 -0.04814424 0.0077384072
0003b0 09 eb e7 bc c3 46 90 bd 8d f8 b1 bd cf ca 54 bd
       -0.028310316 -0.07044747 -0.086899854 -0.051951226
0003c0 e4 9f 2c 3b d3 3c cc bf 50 2c e6 3d 8a 5d 90 3f
       0.002634042 -1.5956062 0.11238921 1.1278546
0003d0 e1 f1 53 bf 8d be 15 be 9c 66 be 3e 5d 98 5c 3f
       -0.8279095 -0.1462347 0.3718766 0.8616999
0003e0 55 4c 2f 3d db ee ec 3e f2 3e cf bd 06 9b 0b be
       0.042797405 0.46275982 -0.10119428 -0.13633355
0003f0 c1 05 8a be 25 b1 6f 3d 58 3c d5 bc 05 8e 43 c0
       -0.26957515 0.058518548 -0.02602975 -3.0555432

read_encoder.block1.0.bias f4 [128]
000000 b3 70 ad bf ba 9c 0c bf fe 5c d5 3e f9 4f 4f 3f
       -1.3550018 -0.54926646 0.4167251 0.80981404
000010 26 d5 49 3f c5 68 16 3f ff f0 89 3f ef 02 8a bf
       0.78840864 0.58753616 1.0776671 -1.0782145
000020 5b e6 99 3f 99 3f f5 3d 26 de 10 bf fa b3 de 3e
       1.2023424 0.11975021 -0.5658897 0.43496686
000030 21 a7 a5 be 8f 8d ce 3e 8c 78 b8 bf a0 18 02 3f
       -0.32354072 0.40342376 -1.4411788 0.50818825
000040 92 c5 5f 3f ac 3c c0 bf ab ab 3a 3f b7 60 9b 3f
       0.87410843 -1.5018516 0.72918195 1.213889
000050 30 65 8f 3b ad 24 3b 3f aa a3 57 3f c7 a6 85 bf
       0.004376076 0.7310284 0.84234107 -1.0441521
000060 aa d1 1a 3f b0 2d 2e be a9 4f 79 3e df 7b 8f be
       0.6047617 -0.17009616 0.24346794 -0.28024194
000070 52 0b 88 be 34 70 86 bf d7 41 86 bf 40 02 a1 bf
       -0.26571137 -1.0502992 -1.0488843 -1.2578812
000080 5d f2 27 3f 15 0e f6 3e e1 4c 0f 3f 5c 6b 87 bf
       0.6560419 0.4805762 0.5597668 -1.0579638
000090 ef 18 ab bf 64 8a 02 bf 15 d8 f5 3e 43 a2 1b bf
       -1.3366984 -0.5099242 0.4801642 -0.60794467
0000a0 91 f9 4b 3f 43 18 2c bf 22 58 6d 3e ff 04 a4 bf
       0.79677683 -0.6722452 0.23178151 -1.2814025
0000b0 37 a1 35 bf f6 db cd be f1 77 30 3d be 55 7a be
       -0.7094912 -0.4020688 0.043083135 -0.2444677
0000c0 68 e1 17 3f 8a 36 87 bf a9 0a 20 3f 2c 84 9a bf
       0.5932832 -1.0563519 0.62516266 -1.2071586
0000d0 df 1d 23 3f 90 59 33 bf 22 6f 9d 3e c4 80 e5 3e
       0.63717455 -0.70058537 0.3074885 0.44824803
0000e0 4b 63 15 3f b5 95 fe 3e 7b de b0 be 0e da 13 bf
       0.58354634 0.49723592 -0.3454474 -0.577546
0000f0 65 a6 56 3b 95 f4 4a 3f d6 50 9e 3e 70 73 83 3e
       0.0032752987 0.7927945 0.30921048 0.2567401
000100 31 e5 92 bf bf 5a 58 bf 74 f4 bb 3e 09 11 9b be
       -1.1476194 -0.8451347 0.3670994 -0.30286434
000110 88 9b 40 bf 3b 64 0c 3e 90 b6 09 bf bf 49 9c be
       -0.7523732 0.1371011 -0.53794193 -0.30525014
000120 b9 bd 39 bf 2b ba 75 3e 17 e5 a1 bf ba d5 62 3f
       -0.7255512 0.23996799 -1.2648038 0.8860737
000130 04 5a 86 3e 1b c1 ad be e2 e4 bc bf ce 52 85 3e
       0.2624055 -0.3393639 -1.475735 0.26039737
000140 f0 50 a5 bd ef 6b 09 3f 23 89 8e bd 25 37 23 3f
       -0.08072078 0.5368032 -0.069597505 0.6375602
000150 c4 7b 9e bf 6c 1b 1f 3f ef 4f 27 bf 5a 36 0f 3d
       -1.238152 0.6215122 -0.65356344 0.034963943
000160 57 a7 93 3f 5f 96 46 be a7 26 bb be e0 7d 27 bf
       1.1535443 -0.193933 -0.36552927 -0.65426445
000170 a2 47 f0 3e e9 c3 38 3e fa 4f a0 3d 68 7a bf bf
       0.46929651 0.18043484 0.07827754 -1.495923
000180 f0 42 58 3f 42 5e e5 3e 28 81 09 3f b0 dd a6 3e
       0.8447714 0.44798476 0.537127 0.3259101
000190 7c 3b 45 3f 96 db 51 bf a4 ed dd 3d 90 32 e6 3d
       0.7704389 -0.81975687 0.10836342 0.11240113
0001a0 05 09 87 3f 48 8f 40 3f 1e 7f 00 3e 3e 7e 3d bf
       1.0549628 0.7521863 0.12548491 -0.74020755
0001b0 27 3b d1 3e 64 7f 7c be c0 6d df 3e 8a 16 92 3f
       0.40865442 -0.2465797 0.4363842 1.1413128
0001c0 1d d3 38 3f 28 86 40 3f b2 26 00 be 7d 33 9c be
       0.72197133 0.75204706 -0.12514761 -0.30508032
0001d0 20 82 a7 bf 1e 5a 19 bd db 58 e7 3e 1f 52 49 3f
       -1.3086586 -0.037439458 0.4518498 0.7864093
0001e0 b8 58 42 3f 06 c8 0e 3f 63 57 79 bf 62 f9 05 be
       0.75916624 0.5577396 -0.97398967 -0.13083413
0001f0 19 8a bf be 34 1d dd be 79 35 32 3f de bd 87 3f
       -0.37410048 -0.43186343 0.6961284 1.0604818

read_encoder.block1.1.weight f4 [128]
000000 92 ff 62 3f 59 8b 9c 3f 3b 06 2f 3f ba 4b 1c 40
       0.8867122 1.2230026 0.6836888 2.442122
000010 fd fa 37 40 b9 2a 1c 40 0d 92 72 3f e8 1d cd 3f
       2.874694 2.4401076 0.94754106 1.6024752
000020 24 ba 01 40 4a 83 a2 3f 1d 3d 06 40 79 84 b2 3f
       2.0269861 1.2696316 2.09748 1.3946677
000030 90 1f 7d 3f 62 52 c3 3f 1e 47 ae 3f 93 65 84 3f
       0.98876286 1.5259516 1.3615453 1.0343498
000040 e8 75 c0 3f 74 dd df 3f d7 7c fe 3e fb cf d1 3f
       1.5035982 1.7489457 0.4970462 1.6391596
000050 39 63 60 3f 53 b2 61 3f 96 7c 38 3f d7 dd 58 3f
       0.876514 0.88162726 0.72065103 0.847135
000060 88 04 eb 3f 05 92 e6 3e 9f ca c1 3f 2e fd ac 3f
       1.8360758 0.4503328 1.513996 1.3514764
000070 9f ee e0 3f 53 1e 14 3f 85 3c a5 3f 7e 6e ad 3f
       1.7572821 0.5785877 1.2909094 1.3549345
000080 80 3e 29 40 23 10 0e 3f f2 d3 f8 3f 9e 52 e5 3e
       2.6444397 0.5549337 1.943968 0.44789594
000090 96 6a 91 3f 1c ab 40 3f fe 37 a6 3f 3c a9 19 3f
       1.1360652 0.7526109 1.2985837 0.60023856
0000a0 94 18 00 40 1a 5c 0b 3f 06 4f be 3f f2 45 68 3f
       2.0015001 0.5443741 1.4867866 0.9073173
0000b0 d1 93 95 3f 1d 2b 24 3f 1b c5 50 3f c2 59 70 3f
       1.1685735 0.64128286 0.8155076 0.9388696
0000c0 19 90 5a 3f f1 1d 74 3f 89 8b 22 3f 08 88 9a 3f
       0.85376126 0.95358187 0.63494164 1.2072763
0000d0 f3 42 a1 3f 05 09 84 3f 8c 8e 4b 3f be 16 f4 3f
       1.2598556 1.0315253 0.79514384 1.906944
0000e0 39 3a e4 3f 53 f1 98 3f 09 10 48 3f f0 3d bd 3e
       1.7830268 1.1948646 0.7814947 0.36961317
0000f0 63 40 e3 3e 4a 8e 3a 40 24 d9 a9 3f 29 61 cc 3f
       0.4438506 2.9149346 1.3269391 1.5967151
000100 fa cb b4 3f 1c 88 02 3f 12 c3 f1 3f 87 70 d3 3e
       1.4124749 0.50988936 1.8887656 0.4129679
000110 bc 77 82 3f 02 d7 8a 3f 81 48 81 3f 65 17 cd 3e
       1.019279 1.0846865 1.0100251 0.4005691
000120 54 d8 84 3f 5a 90 9c 3f 15 3f 26 3f c2 33 c9 3f
       1.0378518 1.2231553 0.64940006 1.571892
000130 57 fc 12 3f 7e 16 05 3f 8b 89 44 3f 45 f2 28 3f
       0.5741629 0.51987445 0.76772374 0.65994674
000140 b2 10 b1 3f cc b3 1e 3f fb 27 9e 3f af 99 d9 3f
       1.383322 0.619931 1.2355951 1.7000026
000150 78 c4 a2 3f 98 99 c5 3f be 64 01 3f 7b aa d3 3f
       1.2716208 1.5437498 0.50544345 1.6536402
000160 8e ec dc 3f 6b 3f 5d 3f ed a7 de 3e f3 3f 86 3f
       1.7259691 0.86424893 0.43487492 1.0488266
000170 46 9d 5a 3f 16 17 c0 3e 2c 86 eb 3e 06 1a 46 3f
       0.8539623 0.37517613 0.46000803 0.7738346
000180 0d d5 0b 40 75 85 9a 3f 36 5e 85 3f 58 4c 67 3f
       2.1848786 1.2071978 1.0419376 0.90350866
000190 27 48 a2 3f c4 24 ec 3e 6d 7b fc 3e 17 b4 9c 3f
       1.2678269 0.461218 0.49312916 1.2242459
0001a0 ef b8 80 3f b8 7c c7 3f 03 86 91 3f 97 b7 a2 3f
       1.0056437 1.5584936 1.1369022 1.2712277
0001b0 da a9 09 3f f6 76 79 3f 53 00 86 3f c2 47 53 3f
       0.537748 0.97447145 1.0468849 0.8253137
0001c0 22 28 cf 3f 9a 8d e3 3f 9e e7 df 3f 35 73 aa 3e
       1.6184123 1.7777588 1.7492559 0.3329102
0001d0 c9 b3 2d 3f 9f cc b0 3f dd ee b0 3f bf 7e 46 3f
       0.67852455 1.3812445 1.3822895 0.7753715
0001e0 dd 2a 79 3f 44 55 ab 3f 29 1b 8f 3f c6 b9 e1 3e
       0.9733103 1.3385396 1.1180164 0.44087046
0001f0 56 1f e8 3e bd cc 91 3f 22 a6 1e 40 a0 1d d3 3f
       0.45336407 1.1390606 2.47889 1.6493416

read_encoder.block1.1.bias f4 [128]
000000 36 ab b4 be 9e bb 0b bf 6b 04 be be f0 7b 3f 3d
       -0.35286874 -0.54583156 -0.37112746 0.046749055
000010 11 53 4c 3e 70 64 66 be c5 51 68 be e3 47 cc bd
       0.19953562 -0.22499251 -0.22687443 -0.09974649
000020 2f 69 98 bd c2 c4 15 bf e2 ba 81 be 7a 98 3d bf
       -0.07441937 -0.58503354 -0.25337893 -0.74060786
000030 ce 8d 2f be f8 10 86 be c0 3a 06 be f1 58 53 be
       -0.17143938 -0.2618482 -0.13108349 -0.20639397
000040 a4 93 a9 be f6 22 77 bd c0 85 e9 be 30 f9 0e 3e
       -0.33120453 -0.060336076 -0.45609856 0.13962245
000050 08 b6 7e be 8a 8f 86 be 1d 65 35 bf f5 d2 cf be
       -0.24874127 -0.26281387 -0.7085741 -0.40590635
000060 81 9e 6d bd 98 fa 21 bf bb cf 7b be 98 e2 0b bf
       -0.05801249 -0.63273 -0.24590962 -0.5464263
000070 57 11 d3 be 76 de e2 be 28 f3 f6 bd 7f 95 0a be
       -0.41224167 -0.4431035 -0.12058097 -0.1353359
000080 c7 b2 5f 3d b3 a1 bf be 5a 85 36 be 89 5a f1 be
       0.054613855 -0.37428054 -0.17824307 -0.47139385
000090 5b eb 82 be 01 ef 91 be ec 87 08 bf 88 0d ef be
       -0.25570187 -0.28502658 -0.533324 -0.4669001
0000a0 e9 12 d2 bd 0a 43 e8 be ab 50 08 bf f6 dd 77 be
       -0.10257513 -0.45363647 -0.5324809 -0.24205765
0000b0 e5 f5 f3 be b8 f9 e2 be 77 1b bb be d9 3a 00 bf
       -0.4764854 -0.44331145 -0.36544392 -0.50089794
0000c0 fb 21 be be 0e aa 44 be 3c 57 e2 be 8a 0e c3 bc
       -0.371353 -0.19205496 -0.4420718 -0.023810644
0000d0 8b 73 a0 be 83 63 a0 be ed 7e e9 be 4c 49 32 bd
       -0.31338152 -0.3132592 -0.4560465 -0.043526933
0000e0 f3 aa e0 bd 05 de a1 be d1 8e ee be bb 82 cd be
       -0.10970106 -0.316147 -0.46593335 -0.40138802
0000f0 bb ca 01 bf 74 d5 f9 3d 03 c6 cf be ca 93 2c bf
       -0.5069997 0.12198916 -0.40580758 -0.6741301
000100 d7 61 fd bd 2b 8b 0a bf f4 20 bb bd e2 76 d7 be
       -0.12372177 -0.54118603 -0.09137145 -0.42082888
000110 e5 b0 6a be 6f ea 9f be e9 f3 ad be f9 07 09 bf
       -0.22919042 -0.31233546 -0.3397515 -0.5352779
000120 c8 2a 8e be b9 51 6c be af 23 ab be a2 1c 57 be
       -0.27767015 -0.2307805 -0.33425662 -0.21007016
000130 30 7f c9 be 87 d4 0a bf 00 65 a2 be f7 d7 e1 be
       -0.3935485 -0.5423054 -0.31717682 -0.4411008
000140 b4 94 00 bf 5a 1e 57 be de e0 13 bf 10 60 c6 3d
       -0.502269 -0.21007672 -0.57764995 0.09686291
000150 af ea 0b be cc e0 03 be 60 30 10 bf e6 cd cf be
       -0.13663743 -0.12878722 -0.56323814 -0.40586776
000160 26 80 09 bf 82 26 1d bf 17 e5 06 bf 2e 6a 7a be
       -0.53711164 -0.61386883 -0.52693313 -0.24454567
000170 4b 54 0d bf df e2 e3 be 53 5c 16 bf 06 91 be be
       -0.55206746 -0.44509026 -0.58734626 -0.3722002
000180 b7 40 20 bf 90 32 0d bf 7e 1e d5 be 61 c3 b2 be
       -0.62598747 -0.5515528 -0.41624826 -0.34914687
000190 b8 b5 a1 be 2f 1d 08 bf 49 52 17 bf 05 26 43 bf
       -0.31583953 -0.5316953 -0.5910993 -0.7622989
0001a0 4c b7 5d be 8f 6a 41 be 73 d5 09 bf c9 21 1b bf
       -0.21651953 -0.18888305 -0.5384132 -0.6059843
0001b0 a8 ab 07 bf 32 31 1b bf fa 77 c5 be f5 99 2b be
       -0.529963 -0.6062194 -0.38568097 -0.16757949
0001c0 bf fa 10 be 2a e5 8b be 6e 4e e1 be cb 9f c0 be
       -0.14158152 -0.27323276 -0.4400515 -0.37621912
0001d0 80 93 85 be a2 ac de be f8 e9 12 bf 8d bd cc be
       -0.26089096 -0.43491083 -0.5738826 -0.39988366
0001e0 b1 6b c1 be b0 ce 10 bf e7 b1 ee be 42 5f 03 bf
       -0.37777475 -0.5656538 -0.46620104 -0.51317227
0001f0 c0 6a 1b bf 50 b7 cd be 1a 53 35 be 48 de 89 be
       -0.6070976 -0.4017892 -0.17707482 -0.269274

read_encoder.block2.0.weight f4 [128, 128]
000000 c7 c8 9c 3d d7 18 99 3e 21 84 d7 3c ed ec 0f be
       0.07655483 0.29901764 0.026308121 -0.14055224
000010 8e 25 ed 3d 38 be fe bf e0 d8 a0 be 86 6f 9d 3d
       0.115794286 -1.99018 -0.31415462 0.07687287
000020 56 3b 9d bd 5a 75 30 bd e9 03 70 be 95 09 7c bd
       -0.07677333 -0.043080665 -0.23438992 -0.061532576
000030 dc ff 8a 3e 17 a1 1b 3d 32 23 4d 3e 43 8f a7 3c
       0.2714833 0.037995424 0.20032957 0.020454055
000040 c8 10 99 3d 43 c2 3d be df 79 09 3e 7d 25 8e 3e
       0.07473904 -0.18531136 0.13425396 0.27762976
000050 b5 16 be 3d 98 61 6e 3e 53 ee 9a 3d c4 1e 4a 3e
       0.09281675 0.23279417 0.07564988 0.19738299
000060 94 c6 63 3d a9 a6 13 3e dc 99 8d be 6c e8 d5 3c
       0.0556093 0.14419045 -0.27656448 0.026111804
000070 7f b8 4c 3e 6f 3c 92 3e 15 8e 27 be 91 36 2f be
       0.19992255 0.28561732 -0.16362794 -0.17110659
000080 d4 0a 24 c0 2c 89 98 3e d7 a1 9a 3d 61 f5 4f 3d
       -2.563161 0.29792154 0.075504 0.05077112
000090 31 87 42 3e df c8 17 bb 0f ae bd bd eb b7 e3 3d
       0.18996884 -0.00231605 -0.09261715 0.11119064
0000a0 c4 05 a9 bf bb 3f a1 3e 89 39 0b 3e 36 eb e6 bd
       -1.3204885 0.31493935 0.13596167 -0.11275332
0000b0 3a 90 0c 3e c6 28 84 3e fb 67 09 bd 9c bb 12 3e
       0.13726893 0.25812358 -0.03354643 0.1432938
0000c0 62 21 f2 bc 0c a1 06 3e 3b 7e 10 3e a8 45 4d be
       -0.029556934 0.13147372 0.14110653 -0.20046103
0000d0 81 2f 8e 3e 22 84 bf bc 59 e1 37 3d 23 4b 77 be
       0.27770618 -0.023378436 0.044892643 -0.24149756
0000e0 48 5a 30 bf fd a4 5c be 65 bf eb 3d 61 2c a3 3e
       -0.6888776 -0.21547313 0.11511115 0.31869796
0000f0 b8 28 8e 3d b6 61 c3 bf cb 24 00 3e ae 55 8a 3c
       0.0694136 -1.5264194 0.12514035 0.016886558
000100 35 aa 69 bd 11 27 e7 bd 43 81 8e be f5 fb 6d 3e
       -0.057047088 -0.11286748 -0.27832994 0.23240645
000110 f0 d5 bf bd 1b 29 1f 3e 50 3a fd bd 77 d8 ba 3e
       -0.09366977 0.15543024 -0.12364638 0.36493275
000120 cb d8 2b 3d 81 53 ea 3a 44 ae 39 3e 92 e0 b4 3e
       0.041954797 0.0017877669 0.18132883 0.35327584
000130 f5 3a 21 3e 58 e8 cf 3d 03 43 c6 3e d1 4b 55 bd
       0.15745147 0.10151738 0.38723 -0.052074257
000140 49 9b 0c be 39 10 81 3e 0d c2 69 3e 5f 6f 5a bd
       -0.13731112 0.2520769 0.22827931 -0.053328868
000150 e0 ff 69 be a9 60 8f 3d b8 a8 f3 3d 81 60 11 be
       -0.22851515 0.07000858 0.11897415 -0.1419697
000160 2d 43 a1 bd 0a 21 8d 3c bd fc 43 3e ab f0 8c 3e
       -0.07874141 0.017227668 0.19139381 0.27527365
000170 5e 2a 81 be a4 0e 9d bd 5c 1a 26 3e 37 cd ff 3d
       -0.25227636 -0.07668808 0.16220993 0.124903135
000180 49 fe fa 3e ae a3 05 be 40 37 2f bb 5d e7 03 be
       0.4902213 -0.1305072 -0.0026735812 -0.12881227
000190 2c c2 26 be 79 91 3c 3d 6a 8a a1 bd a5 9e f6 3c
       -0.16285008 0.04603717 -0.078877285 0.030104944
0001a0 91 aa e6 3d ea 0e 84 3c d3 6b 87 3e 3b cc 36 be
       0.11263002 0.016120393 0.2644945 -0.17851345
0001b0 55 01 5e 3e a5 e5 4b 3d c9 af 4e bd 74 c9 a5 3e
       0.21680196 0.049779553 -0.05046061 0.3238026
0001c0 53 de 1a bd bd 54 8e be 08 d7 22 be 0a 41 03 3e
       -0.03780968 -0.27799025 -0.1590234 0.12817779
0001d0 37 bf f3 3b fd 69 f4 be fc 16 4e be 01 71 bf bd
       0.007438566 -0.47737113 -0.20125955 -0.09347726
0001e0 36 e0 5a bd 3a 2e 0d 3e e0 34 0f 3e 8d 7d 5c 3e
       -0.05343648 0.13787165 0.13985014 0.21532269
0001f0 bd 15 ac 3d 20 01 3f be d8 23 1e bf e4 6c c6 be
       0.08402584 -0.18652773 -0.61773443 -0.38754952
000200 c5 af 3b bf c8 97 4c be e7 d4 d8 3e e2 ca d0 be
       -0.7331508 -0.19979775 0.42349932 -0.40779787
000210 a0 68 41 3e 92 b6 1a be 25 d3 b1 bc 11 17 ad 3e
       0.18887568 -0.15108708 -0.021707127 0.3380666
000220 39 50 80 3d 2d 47 f2 bd 54 53 53 3d e3 9d dd 3e
       0.06265301 -0.11829982 0.05159314 0.4328452
000230 db 6e 03 bf c6 8b b9 be 1b e6 56 3e 48 ac eb be
       -0.5134103 -0.3623945 0.20986216 -0.46029878
000240 16 96 09 3e df 10 f1 be c2 5b 14 be 9c b2 ae 3e
       0.1343616 -0.47083184 -0.14488128 0.34120643
000250 1d a3 b8 3e 09 f5 ce be ec ce d5 be 4c 1c b3 be
       0.36061946 -0.40421322 -0.4175943 -0.34982526
000260 fc 77 08 3f 84 b7 4b 3e 9c 63 e8 be 45 d0 42 be
       0.5330808 0.19894224 -0.45388496 -0.19024761
000270 37 ae 25 bf 14 00 c9 3e 4e ba bc 3e 32 4b 13 3f
       -0.64718956 0.39257872 0.3686089 0.57536614
000280 6c 79 1d be e9 dc 08 be fb bf 5f be 86 43 bb 3e
       -0.1537835 -0.1336552 -0.21850578 0.36574954
000290 da 41 ef bd 6a d8 83 3d 17 fc 85 3e 87 ba ba 3e
       -0.11682482 0.06437762 0.26168892 0.36470434
0002a0 f5 32 ae 3d d1 21 08 be b7 a7 b4 3d 2b 50 1c 3e
       0.08505813 -0.1329415 0.088210516 0.15264957
0002b0 71 04 88 be df a2 d3 bd 31 57 f3 be 1f c9 04 3b
       -0.2656589 -0.103337996 -0.4752746 0.002026148
0002c0 67 de 46 be 39 36 90 3e ef f6 77 bf 6b 6a d6 bd
       -0.19420777 0.2816637 -0.96861166 -0.10469516
0002d0 ef 42 32 bd d4 04 86 3e 93 38 13 3e ca 09 44 bf
       -0.043520864 0.2617556 0.1437705 -0.76577437
0002e0 c3 74 39 3e d9 e4 25 be 69 15 03 be 0d cb 8c be
       0.18110947 -0.1620058 -0.12801136 -0.27498665
0002f0 e4 5c 85 3e be c3 e5 bc 6f 07 67 3e 5a 2d f4 3d
       0.26047432 -0.028047439 0.2256143 0.119227126
000300 d0 f8 c5 3e 10 7f 09 3f 49 2a de be 42 0e 80 3e
       0.3866639 0.53709507 -0.43391636 0.25010878
000310 1a 08 60 3e 99 a6 15 bf 50 45 37 3e cb 37 3c bc
       0.2187809 -0.5845733 0.17897534 -0.011487911
000320 7a 0e 1e 3f 68 50 26 3f 09 10 da 3e 80 d1 56 3e
       0.6174084 0.6496644 0.4259036 0.20978355
000330 f8 56 fa 3e f9 e8 b9 bd 3e 6a c1 3e a6 ef e6 be
       0.48894477 -0.09077639 0.3777637 -0.45104712
000340 59 16 b2 be f9 ec de be d4 cb d3 bc 81 a9 f4 3e
       -0.34782675 -0.4354017 -0.025854029 0.4778557
000350 e6 2a ce be bb 64 ef be 18 7c f6 3e 2d c9 02 3f
       -0.40267104 -0.4675654 0.4814155 0.5108822
000360 7f 58 8b bd e1 40 10 3e fd 7a f0 bc 1c 35 d0 3b
       -0.06803989 0.1408725 -0.02935552 0.0063539874
000370 7f f1 be 3e 11 75 67 3e 36 5a e9 3c 7b ec 9b 3e
       0.37293622 0.22603251 0.028485399 0.30453858
000380 fd 1f d7 3e 78 5d 95 3e 81 7e 22 bf d8 5c b1 3e
       0.42016593 0.29172873 -0.6347428 0.34641147
000390 fa 58 57 be 92 43 c1 bd 91 49 29 3d 87 e2 df 3c
       -0.21030036 -0.09436716 0.041329924 0.027329696
0003a0 07 fb 9f be 97 b1 0e 3e 78 41 a1 be 85 45 7b 3e
       -0.31246206 0.13934933 -0.3149526 0.24538238
0003b0 57 28 01 3f 05 8d 28 3e a1 2a 11 3e 8b e7 1c 3e
       0.5045218 0.16460045 0.14176418 0.15322702
0003c0 88 43 c9 bd 19 12 ea be e1 94 5d 3d 50 38 55 3e
       -0.09827334 -0.45716932 0.05409706 0.20822263
0003d0 54 49 79 3d cb b4 af 3d 50 22 2c 3e 8c 04 15 3e
       0.060860947 0.085794054 0.16809964 0.14552516
0003e0 7b d0 a4 3e 27 34 1a 3d 3e 0b 04 3e 34 07 35 be
       0.32190308 0.037647393 0.12894914 -0.17678529
0003f0 aa 42 f3 3e 0a 15 ec 3e 17 a1 77 3e 61 dc 59 3c
       0.47511798 0.46109802 0.24182545 0.013297171

read_encoder.block2.0.bias f4 [128]
000000 75 28 aa 3e 50 21 19 3f 3c 4e e4 3d 5b b1 12 be
       0.3323399 0.59816456 0.111477345 -0.14325468
000010 ef cd 3c be 0d ce bf 3e 22 9f 7c 3e 1f 4f 1a 3c
       -0.18437932 0.37461892 0.2467008 0.009418278
000020 9c b6 44 3e 8d 25 fe 3d b4 58 ab bd 9c 95 16 3f
       0.19210285 0.12409506 -0.08366528 0.58822036
000030 eb 11 60 3d 88 af 0b be f5 66 47 3f 01 f9 9c 3e
       0.054704588 -0.13641179 0.77891475 0.30658725
000040 cc 22 80 be 73 84 43 3f 9f b6 6c be a1 c8 c5 be
       -0.25026548 0.76373976 -0.2311654 -0.3862963
000050 7a ee 30 3e 28 95 46 be 70 fe 94 bd bc 6b c2 3d
       0.17278472 -0.19392836 -0.072750926 0.09493205
000060 f2 15 fb 3a 42 e3 b2 3e 0c 34 0b be af df 26 3f
       0.001915632 0.3493901 -0.13594073 0.65185064
000070 25 71 7c 3f eb 80 8b 3e 95 31 3d 3f 68 c3 89 3e
       0.98610145 0.27246794 0.7390378 0.26906896
000080 db 06 a0 be 06 42 9a bd d6 1e 3d 3f 51 03 88 3e
       -0.3125523 -0.07532124 0.73875177 0.2656503
000090 55 c3 5f 3d ed f8 1b 3e 73 9a 12 3f 91 01 5e 3f
       0.054629643 0.15231676 0.5726692 0.8672114
0000a0 09 96 fc bd 0c d5 3b 3c 8a 2e a3 3e 8b 2c 10 3f
       -0.123333044 0.011464369 0.31871444 0.5631797
0000b0 d5 92 47 be 57 85 ed 3e ce e0 dc 3d ec 82 95 be
       -0.19489606 0.46390793 0.107850656 -0.29201448
0000c0 69 43 2c 3f 8d dd 14 3f 2c bd 2f be 3c 37 62 3e
       0.6729036 0.5815056 -0.17162007 0.22091383
0000d0 f7 3e 50 be 26 44 1c bf c1 7a 20 3f 85 b9 0c 3f
       -0.20336519 -0.61041486 0.6268731 0.5497058
0000e0 31 4f 49 be 96 eb c7 bd 6f 58 7e 3e b8 86 9a bd
       -0.19659115 -0.09761731 0.24838422 -0.07545227
0000f0 a8 a3 5c 3c 5d 51 f3 3c 37 48 41 3d 1d d2 e9 3d
       0.013466753 0.029701883 0.04718801 0.11417029
000100 c2 93 c6 3e 06 49 b3 3d 8e af ce 3e ee c6 27 be
       0.38784605 0.087541625 0.40368313 -0.1638448
000110 54 6a 29 3e d4 55 2a 3f c6 7c e4 bd 90 80 13 3e
       0.16544467 0.66537213 -0.11156611 0.14404511
000120 64 a0 cd 3c b5 9e 93 3e 6f 88 2a 3f 1f 99 db 3e
       0.025100894 0.2883202 0.6661443 0.4289026
000130 1a 11 c2 3d cd cc 5d 3f 19 68 1b 3f 56 0b 12 be
       0.09475918 0.86640626 0.60705715 -0.14262137
000140 6c bc cf bd a0 1f b7 be 03 3c 1d 3f 0f 94 2d be
       -0.101433605 -0.35766315 0.61419696 -0.16951011
000150 07 42 58 3e 8e 6d 82 be e3 89 cd bd ba e5 b1 be
       0.21118937 -0.2547421 -0.100360654 -0.3474558
000160 4b 21 cd be 2e 4c 9d 3e b6 61 8b 3e ab af 34 be
       -0.40064463 0.30722183 0.27222985 -0.17645137
000170 c0 1b 3a 3f 23 71 c3 3d c4 ea 91 3e a4 85 eb 3e
       0.72698593 0.095430635 0.28499424 0.46000397
000180 0e 8d d4 3e eb 81 12 be 92 fd 11 bc 6d 55 a7 be
       0.41513866 -0.14307372 -0.0089105535 -0.32682362
000190 60 f7 25 3e 05 87 13 3f 04 62 3f be 64 95 82 3e
       0.16207647 0.576279 -0.18689734 0.255046
0001a0 2f 11 11 3f 77 d1 0c 3f fa c3 0b be 16 f5 71 3f
       0.56666845 0.5500712 -0.13648978 0.94514596
0001b0 13 a3 65 3f 03 2e 29 3f 20 d9 ef 3e 8f 3e 82 be
       0.89701957 0.66085833 0.4684534 -0.25438353
0001c0 d0 09 41 3e b1 a4 5e 3f 7d 8a d5 bc c2 89 8b 3e
       0.188514 0.8697005 -0.026067013 0.27253538
0001d0 6b a9 42 3d e5 04 fd 3e ce bc 8f 3e 75 62 3e 3f
       0.04752485 0.49417797 0.28073734 0.74368984
0001e0 27 80 23 3f 6e fc 18 be 9d 62 f6 bc fb 56 12 3f
       0.6386742 -0.14940044 -0.03007632 0.5716397
0001f0 7b 57 3c 3f 47 20 87 be 2a ec 8a 3e d6 c5 5e bb
       0.73570985 -0.26391813 0.27133304 -0.003399243

read_encoder.block2.1.weight f4 [128]
000000 7b 6f 7f 3f a6 28 4c 3f 69 67 7e 3f 98 7d b5 3f
       0.9977948 0.79749525 0.9937654 1.4178953
000010 09 67 ab 3f 86 20 83 3f f7 49 8e 3f 18 ca b2 3f
       1.3390819 1.02443 1.1116322 1.3967924
000020 7b cd 84 3f a3 5e 63 3f 2e 7f b4 3f 95 d0 20 3f
       1.0375208 0.8881628 1.4101312 0.6281827
000030 b0 e7 8e 3f ee 0a b3 3f e7 18 00 3f 1e 9b 81 3f
       1.1164455 1.398771 0.50038 1.0125463
000040 ec cd bd 3f 62 98 27 3f 24 44 b7 3f 60 9b cf 3f
       1.4828467 0.6546689 1.431767 1.6219292
000050 bb ea 6d 3f 36 65 af 3f b9 f0 ce 3f bd ba 92 3f
       0.92936295 1.3702762 1.6167213 1.1463238
000060 f0 bc a5 3f bf fe 78 3f 82 60 ae 3f d7 bc 26 3f
       1.2948284 0.9726371 1.3623202 0.65131897
000070 b2 7a 0f 3f 9f aa 2e 3f 29 cc d6 3e 1c fe 91 3f
       0.56046593 0.682291 0.41952637 1.1405673
000080 e2 17 c4 3f c2 c5 9a 3f a7 45 dc 3e ac 0a a9 3f
       1.5319788 1.2091601 0.4302189 1.3206382
000090 6c ac 7e 3f dd 6e a0 3f dc 60 66 3f 33 82 d2 3e
       0.99481845 1.2533833 0.89991546 0.4111496
0000a0 61 36 cb 3f d6 10 85 3f c5 a4 83 3f be fa 82 3f
       1.587597 1.0395763 1.0284659 1.023277
0000b0 a4 20 b0 3f 9f bb 74 3f c2 11 9d 3f 1f 51 b3 3f
       1.3759961 0.9559879 1.2271044 1.4009131
0000c0 e4 0b 40 3f 65 5b 6e 3f 3e df b4 3f 78 85 b7 3f
       0.75018144 0.93108207 1.4130628 1.4337606
0000d0 60 f8 bd 3f 3f da f5 3f 40 28 52 3f 0c f9 8d 3f
       1.4841423 1.9207228 0.82092667 1.1091628
0000e0 68 68 b1 3f 5c bd af 3f a6 ed 4e 3f 3e 4c a0 3f
       1.3859987 1.3729663 0.8083137 1.2523267
0000f0 a1 43 b1 3f ea 9e 93 3f a9 7e 80 3f 88 97 ba 3f
       1.3848764 1.1532872 1.0038654 1.4577494
000100 de 20 33 3f f8 6f 6d 3f 8e 70 52 3f b0 30 a6 3f
       0.69972026 0.92748976 0.82202995 1.2983608
000110 9f 8a 83 3f f6 35 3c 3f f8 03 af 3f ac 9a 83 3f
       1.0276679 0.7351984 1.3673086 1.0281577
000120 70 be 86 3f 8b 58 8b 3f 70 4d 19 3f 2a 1a 3a 3f
       1.0526867 1.0886396 0.59883785 0.72696173
000130 48 47 98 3f f8 06 bc 3e 2f 1e 33 3f 9b 4c b9 3f
       1.1896753 0.36724067 0.6996793 1.4476503
000140 bf 0b c5 3f 73 f0 b3 3f 30 15 2e 3f 8b 43 b4 3f
       1.539421 1.4057754 0.6800108 1.4083112
000150 f4 aa 9b 3f 01 56 fe 3f 5a c1 85 3f a1 87 e0 3f
       1.2161546 1.9869996 1.0449631 1.7541391
000160 50 49 d1 3f 80 f8 90 3f ce 25 80 3f f4 00 9e 3f
       1.6350498 1.1325836 1.0011537 1.2344041
000170 8a 17 1c 3f e3 2f 9f 3f d2 50 8a 3f 7c ca 51 3f
       0.6097342 1.2436489 1.0805914 0.8194959
000180 c3 2a 61 3f 99 62 c7 3f c1 09 ba 3f f3 72 c0 3f
       0.87955874 1.5576965 1.4534227 1.503508
000190 c1 37 85 3f 0d a6 19 3f d1 27 cd 3f ea ef 8f 3f
       1.040764 0.60019 1.6027776 1.1245091
0001a0 58 99 3c 3f 98 18 3e 3f 56 eb b5 3f bd 55 f0 3e
       0.73671484 0.7425628 1.4212444 0.46940413
0001b0 9f cf 08 3f 04 49 11 3f c8 9c 30 3f 3b 75 c5 3f
       0.53441805 0.5675204 0.6898923 1.5426401
0001c0 83 b9 62 3f 3c 7e 02 3f 2c 8b b3 3f fb fd 92 3f
       0.8856432 0.5097387 1.4026847 1.1483759
0001d0 33 e2 c6 3f bc 8e 5f 3f e7 5d 5b 3f d3 4b 11 3f
       1.553778 0.8732717 0.8569016 0.56756324
0001e0 8f c0 30 3f f8 7b be 3f 98 8e b0 3f e7 77 57 3f
       0.6904382 1.4881582 1.3793516 0.8416733
0001f0 39 a2 22 3f d6 99 cb 3f 60 97 6d 3f cd 51 a1 3f
       0.6352878 1.5906322 0.92809105 1.2603089

read_encoder.block2.1.bias f4 [128]
000000 ae a7 dc be 8e 5d 34 bf 5d 70 11 bf 8a f0 1f bf
       -0.4309668 -0.70455253 -0.5681208 -0.6247641
000010 95 4f 1d bf 61 28 45 bf 9c 81 46 bf 65 bb ec be
       -0.6144956 -0.7701474 -0.7754152 -0.4623672
000020 4a 21 3e bf 76 6b 09 bf f6 0c 17 bf 85 e6 2f bf
       -0.74269545 -0.536796 -0.5900415 -0.6871112
000030 bf dd 02 bf 9e ed 03 bf 88 83 cb be 7e 38 33 bf
       -0.5111961 -0.5153445 -0.39748788 -0.70008075
000040 9e 33 0e bf 26 3d d0 be 09 89 21 bf f4 ea 1a bf
       -0.5554751 -0.40671653 -0.63099724 -0.6051476
000050 07 3a 3f bf 9c cc 34 bf 6d 82 0e bf 34 9d 6c bf
       -0.7469792 -0.7062471 -0.55667764 -0.9242737
000060 9b 94 1e bf 13 31 67 bf 5c 27 1c bf 52 97 e2 be
       -0.61945504 -0.90309256 -0.6099756 -0.44256073
000070 05 f4 be be c2 46 14 bf e2 3d d8 be dc ae 7f be
       -0.37295547 -0.5792047 -0.42234713 -0.24969047
000080 17 2b 2f bf af 93 fd be ba d1 a6 be 2d f8 e6 be
       -0.68425125 -0.49526736 -0.32581884 -0.45111218
000090 8b 59 50 bf 9b 0b e5 be c5 6c 18 bf f1 67 d7 be
       -0.8138663 -0.44735417 -0.5954097 -0.42071488
0000a0 de a5 22 bf 89 4b 61 bf c5 fa 22 bf 31 18 14 bf
       -0.63534343 -0.8800588 -0.63663894 -0.57849413
0000b0 78 c0 10 bf f5 8c 10 bf 62 28 5b bf 2a 08 27 bf
       -0.56543684 -0.56465083 -0.85608494 -0.6524683
0000c0 c4 68 e9 be ca 1c 03 bf f7 ca 16 bf a0 06 32 be
       -0.45587742 -0.51215804 -0.5890345 -0.1738534
0000d0 ff 9b 1c bf 68 80 2a bf f5 e9 fa be dd 27 13 bf
       -0.6117553 -0.6660218 -0.4900662 -0.574827
0000e0 1f f1 da be be 7e 18 bf b2 1e fa be 18 c5 16 bf
       -0.42762086 -0.59568393 -0.48851544 -0.5889449
0000f0 f6 99 24 bf 77 8d 11 bf e3 8e c3 be 00 cf 3b bf
       -0.64297426 -0.56856483 -0.3819495 -0.7336273
000100 70 b6 1d bf ba a0 12 bf 5a 15 54 bf 7e d1 ea be
       -0.616065 -0.572765 -0.8284508 -0.45862955
000110 59 0e 15 bf 72 12 21 bf 92 a0 ba be 32 9b 48 bf
       -0.5822502 -0.6291877 -0.3645063 -0.7836181
000120 1f 43 26 bf 0b 7b 00 bf 23 14 1a bf a5 14 28 bf
       -0.6494617 -0.5018775 -0.60186976 -0.656565
000130 d0 7c 26 bf fa 96 6f be ce d1 21 bf 41 3a 36 bf
       -0.650342 -0.23397437 -0.6321076 -0.7118264
000140 63 6b 45 bf 61 35 17 bf c8 63 02 bf bb 27 37 bf
       -0.77116984 -0.59065825 -0.50933504 -0.71545
000150 4e 91 ea be 97 6e cf be 58 4e fe be 9a cd 45 bf
       -0.45813984 -0.4051406 -0.49669147 -0.7726685
000160 29 ba 53 bf f8 3a d9 be 84 58 68 bf 7f 45 fe be
       -0.8270593 -0.42427802 -0.90760064 -0.49662396
000170 31 e9 b7 be 67 94 37 bf 74 3a 14 bf 6c 67 59 bf
       -0.35920098 -0.7171082 -0.5790169 -0.84923434
000180 44 24 fb be e1 d2 01 bf 6c e1 4b bf 07 f0 16 bf
       -0.49051106 -0.507124 -0.7964084 -0.5896
000190 74 98 24 bf 08 ec 1c bf ea d2 02 bf ff 99 25 bf
       -0.64295125 -0.61297655 -0.5110308 -0.64688104
0001a0 b7 6b f6 be 08 57 e3 be f0 d1 30 bf 73 85 b4 be
       -0.48129055 -0.44402337 -0.6907034 -0.35258064
0001b0 11 bd d5 be 2f 91 d1 be 24 4c 21 bf 21 f8 05 bf
       -0.4174581 -0.4093108 -0.63006806 -0.5233174
0001c0 d7 da 48 bf 01 d0 9b be 0a a3 b8 be a1 4a 34 bf
       -0.78458923 -0.30432132 -0.3606189 -0.70426375
0001d0 84 71 1b bf 84 4a 1d bf 4f 57 19 bf 6d 55 1e bf
       -0.60720086 -0.61441827 -0.5989885 -0.618491
0001e0 e6 c0 f9 be 3b c7 64 bf cc 98 d6 be 57 ca 2a bf
       -0.48779982 -0.893665 -0.4191345 -0.66714996
0001f0 71 6f 16 bf a4 84 42 bf 3b 55 39 bf de 43 01 bf
       -0.58763796 -0.75983644 -0.72395676 -0.5049418

read_encoder.block3.0.weight f4 [128, 128]
000000 2c 51 b5 be 72 16 f9 3c c6 90 79 bc 73 79 03 3f
       -0.35413492 0.03040621 -0.015232271 0.5135719
000010 96 a9 f7 3e 79 6f 8a 3d 44 84 af 3e ee 0e 04 bf
       0.4837157 0.06759543 0.34280598 -0.5158528
000020 be 19 ed be d6 f9 11 3e c6 86 a3 3e 5e 5e b3 3d
       -0.46308702 0.14255461 0.3193876 0.087582335
000030 2f a2 4b 3e 92 7d 52 bd b8 2b a3 be 75 7c 4d bc
       0.19886087 -0.051389284 -0.31869292 -0.01254188
000040 9f da 23 3e 10 b9 8b be 00 40 f0 3e a9 9c fa 3e
       0.16001366 -0.2728963 0.46923828 0.48947647
000050 a5 25 09 bf 7c 24 79 3e e3 94 9b 3e 05 e8 c0 bd
       -0.53573066 0.24330324 0.3038703 -0.09419254
000060 9f f2 34 3e c3 11 c2 3e ca e3 0d bd 56 4f 0e be
       0.17670678 0.37904176 -0.034641065 -0.13897452
000070 9e 46 a7 3d aa e9 50 bd 01 f3 2b 3e d6 b8 91 be
       0.08167766 -0.05100409 0.16791917 -0.2846133
000080 a8 48 6c 3d 18 1a ec 3d ae 4a 66 bd e8 2e a4 3e
       0.057686478 0.115284145 -0.056223564 0.32067037
000090 16 25 54 3d 4f 89 e1 3d 87 4c 30 3d 6a dd ac bd
       0.05179318 0.11012518 0.043041732 -0.08440669
0000a0 7b e0 c2 3d ea ff ec 3e 32 8e 78 3d 77 c8 3b be
       0.095154725 0.46288997 0.060682483 -0.1833819
0000b0 86 93 f1 3e 8d 49 7e 3d ae 68 0e 3e c4 e2 6b 3e
       0.47182864 0.062081862 0.1390712 0.23035723
0000c0 f4 45 e0 bd 5d e4 1f be 9a c4 b4 3d a2 a3 b0 3d
       -0.109508425 -0.15614457 0.08826561 0.086249605
0000d0 db da f7 3d 52 30 cf be 15 4f f0 bd 73 7b bd bd
       0.1210229 -0.40466553 -0.11733834 -0.09252062
0000e0 3a 47 36 be a1 dc 02 be f5 5a 23 3c d6 55 12 3e
       -0.17800608 -0.12779476 0.009970416 0.14290556
0000f0 63 b7 6c be 0a 9c 6e be d2 dd 67 be 04 76 ae 3e
       -0.23116831 -0.23301712 -0.22643211 0.34074414
000100 26 85 bc bd 74 7f 14 3e cf fe 93 bc 0c 2d db 3e
       -0.092050835 0.14501745 -0.018065838 0.42807806
000110 61 20 ec 3d 46 1e bf bd 85 45 92 bd c3 fc 97 3e
       0.11529613 -0.09331946 -0.07142166 0.2968503
000120 45 8b b5 3d fa e3 4f be 9c 03 9c 3e 05 e0 5d 3d
       0.08864454 -0.2030181 0.30471504 0.05416872
000130 3e 81 70 3e f7 bb 36 bc 57 e2 8b 3d 67 1a 8b 3e
       0.23486802 -0.011153213 0.0683028 0.2716858
000140 03 c2 56 bc 53 aa a8 3e 39 30 35 be 6f 1c e3 3e
       -0.013107779 0.32942447 -0.17694177 0.4435763
000150 e3 c8 fe bd 52 f9 7a 3b 88 15 ce 3e 23 c8 d2 bd
       -0.1244066 0.003829558 0.40250802 -0.10292079
000160 bc 80 69 be 16 29 74 bd d6 8b f0 3d 8b 71 cd 3b
       -0.22803015 -0.059609495 0.117454216 0.006269639
000170 53 0b 65 3d e6 f7 ce 3d 80 20 91 bd d1 7c 0c be
       0.055919003 0.101058766 -0.07086277 -0.13719489
000180 14 26 dd 3d ef e2 a2 3d c5 1d a6 3d 5c dc 97 3c
       0.107982785 0.079534404 0.08111147 0.018537693
000190 fd f6 2e 3e 93 3f aa 3e a2 f2 64 bf dc fe 3f be
       0.17086406 0.33251628 -0.8943273 -0.18749565
0001a0 71 cd 9a 3e 8e 5f ac 3e 71 e5 fc 3d f5 7c 88 be
       0.30234864 0.33666652 0.1234845 -0.26657835
0001b0 69 73 74 3d 28 c0 05 be f8 26 f5 3d 73 96 e1 3c
       0.059680376 -0.13061583 0.11970323 0.02753756
0001c0 fa 18 08 3e 53 ee 67 3d 9d ab 88 3c 8a 48 b7 be
       0.13290778 0.056623768 0.016683394 -0.3579753
0001d0 a4 04 f6 be 92 4b b2 bc 95 9a 33 bf a7 10 cb 3d
       -0.48050416 -0.02176455 -0.7015775 0.099152856
0001e0 ab 15 0c be 95 bc 94 3d 4b 98 f1 bc 51 f2 10 bd
       -0.1368014 0.07262532 -0.029491564 -0.03538734
0001f0 4e f4 0b 3d 8c b3 a8 be b5 ea 57 3e 2f 62 2b be
       0.034168534 -0.32949483 0.21085627 -0.16736673
000200 59 fa 85 bd 37 dd 50 3c fe 89 f6 3d f1 91 6f 3e
       -0.06541891 0.012748054 0.12038039 0.23395516
000210 20 c6 d3 3e 23 bd 0f 3d d0 06 7b 3e 0a 79 52 3e
       0.41362095 0.035092484 0.24514318 0.20553985
000220 22 0e 42 be 2f 41 82 3c 53 48 fe be fb b2 50 be
       -0.18950704 0.015900223 -0.49664554 -0.20380776
000230 e9 16 a6 3d 8f 9d e4 bd f1 ca 8c bd 69 fa 70 bd
       0.081098385 -0.111628644 -0.068746455 -0.05883256
000240 a9 13 3a 3e 2d 1b 3a 3e 03 be 62 3e ba 64 1a 3f
       0.18171562 0.18174429 0.22142796 0.60309947
000250 84 72 4b be d1 8f 07 3f a9 52 a4 3d e9 62 5f be
       -0.19867903 0.5295382 0.08023579 -0.21815075
000260 8f 41 c2 39 1c e4 d0 3e 5a 0d d5 bc 7b 69 3f 3e
       0.00037051408 0.40799034 -0.026007343 0.18692581
000270 6f 66 3e be 63 5f 0c 3e c6 68 ec 3d 49 b7 c2 be
       -0.18593763 0.13708262 0.115434214 -0.3803046
000280 d7 b5 de 3e 48 6f 90 3e 9c e2 25 3e 76 22 5b bd
       0.43498108 0.282099 0.16199726 -0.05349966
000290 1e 0a 43 bf 4f 39 4b bd 4a 9e 1f bc eb 40 1b bd
       -0.7618731 -0.0496152 -0.009742329 -0.037903707
0002a0 37 da 5e 3e 13 49 db bd 6a 90 6a 3e 95 7e 97 bd
       0.2176293 -0.10707297 0.22906652 -0.073971905
0002b0 45 df dc 3e 7c a2 c7 3d 5b aa 92 be c3 db 8d 3c
       0.4313909 0.09747788 -0.28645596 0.017316705
0002c0 c8 4e 48 be f1 3c 1d bc 44 43 33 3c a1 39 2e bf
       -0.19561303 -0.009597049 0.01094133 -0.68056685
0002d0 48 67 f1 3e 29 61 0b 3e 04 08 90 3e 28 24 75 bd
       0.4714911 0.13611282 0.28131115 -0.059848934
0002e0 1c ef de 3d e4 20 76 3e 01 48 08 3e 03 04 8c 3d
       0.1088545 0.24035984 0.13308717 0.06836703
0002f0 bf 2c 1e 3d 88 7f 62 3e 6b a8 8b be 30 85 46 bc
       0.038616892 0.22118962 -0.2727693 -0.012116715
000300 c5 e5 e9 be ad 5d 3a bd 63 8f 6e 3e 8d c4 2a be
       -0.45683113 -0.045499492 0.23296885 -0.1667654
000310 f9 c0 38 be cd 12 85 3e b1 9c 9e be fc fb 75 3d
       -0.18042363 0.25990906 -0.3097892 0.060054764
000320 cb 17 ed be 41 d3 9b bd 25 fa 9e 3d 84 e0 cc bd
       -0.46307215 -0.07608653 0.07762555 -0.100037605
000330 09 5f b9 bd fc 72 00 3e 7a 06 d2 bc c6 2d b4 bb
       -0.0905133 0.12543863 -0.025637854 -0.0054986207
000340 00 10 47 3e 97 62 04 3f f0 87 12 be 8f 09 b2 3e
       0.19439697 0.51712936 -0.14309669 0.34772918
000350 37 63 44 bd 65 73 68 bf 1b 43 51 3e b8 01 17 3e
       -0.04794618 -0.9080108 0.20435755 0.1474675
000360 6b 4f 34 be 64 d6 17 bd 05 ef b0 bc b7 9e 80 3e
       -0.1760842 -0.037069693 -0.021598348 0.2512109
000370 66 b9 16 3e 2f 34 17 3f 6b cf ba be 58 4c 69 3c
       0.14719161 0.59064 -0.36486372 0.014239393
000380 23 9d b0 3d 0c 87 13 bf 30 31 a3 3e 64 68 e4 bd
       0.086237215 -0.5762794 0.31873465 -0.111527234
000390 49 0a 1f 3e 64 11 46 be 8b 77 46 bf 7f c8 8e bd
       0.15531267 -0.19342571 -0.7752616 -0.06971835
0003a0 cf e6 47 bd b7 7a ff 3c b6 c4 12 3f ba 82 64 3d
       -0.0488041 0.031186445 0.5733141 0.055788733
0003b0 b2 3b 1a 3e 96 0e 11 bd e7 67 2f be ed 80 d4 3e
       0.15061834 -0.0354143 -0.1712948 0.41504613
0003c0 cd 9a 20 be 4d 07 62 be e4 e1 43 bf 29 b3 c6 bd
       -0.15684052 -0.22073098 -0.76516557 -0.09702141
0003d0 93 70 97 be 0d ea 16 3e 05 55 a1 be 07 cd ce bd
       -0.29578075 0.14737721 -0.31510177 -0.100976996
0003e0 1c d8 de 3d 53 3f 8c 3e 57 1f 23 bf 36 40 ad 3d
       0.10881063 0.27392063 -0.63719696 0.08459513
0003f0 1f ae f6 bd fa 0b 0c 3c a5 f0 0d 3e 77 7a 23 3e
       -0.1204493 0.008547777 0.1386133 0.15964685

read_encoder.block3.0.bias f4 [128]
000000 e3 94 22 3f 42 11 bb 3e 9e 36 90 3d 36 97 39 be
       0.63508433 0.36536604 0.070416674 -0.18124089
000010 dd d9 bc be 7a 7c 40 3f 5a 28 1a 3e 64 71 bc 3e
       -0.36884966 0.75189936 0.15054455 0.3680526
000020 28 24 2b 3f 4b b6 ed 3d 1e b2 20 3e 51 1b 06 bd
       0.66852045 0.11607035 0.15692946 -0.032740895
000030 61 1e 9b be 03 66 b5 3d e5 3b ef 3d 80 8e 29 3f
       -0.30296615 0.08857348 0.11681346 0.6623306
000040 34 aa 8a be 98 1b 10 3f 1f ca 94 be ce 66 06 bf
       -0.2708298 0.56292105 -0.29060456 -0.5250062
000050 fb 7c 76 bd 89 fd 9a be 77 53 85 3e 0b 9d e7 be
       -0.060177784 -0.30271557 0.2604024 -0.45237002
000060 82 ea ec 3e d7 c5 6a be fd 75 9d be 6e 47 b2 3e
       0.46272665 -0.22927032 -0.3075408 0.34820122
000070 bb a9 f7 3e 14 4f 10 3f 10 b9 40 3f af 60 71 3e
       0.48371682 0.56370664 0.7528238 0.23572038
000080 2d 82 8d be 39 0f 12 bf b0 a4 f8 3e c5 34 af 3e
       -0.2763838 -0.5705448 0.48563147 0.34219947
000090 19 0f 3c 3e 46 d6 d3 3c ee ec bc 3e 90 96 fc 3e
       0.18365134 0.02585901 0.36899513 0.4933362
0000a0 4e 45 99 be 0f 97 5d bb b6 5c cf 3e 3b ca 46 3e
       -0.29935688 -0.0033811962 0.4050042 0.19413082
0000b0 d1 11 43 bf 4b 99 dd 3e 68 db c6 be 87 60 cb 3d
       -0.7619906 0.43281016 -0.3883927 0.099305205
0000c0 b0 7d cc 3e 3f 30 b4 3e 84 54 c2 3d dc 3a b9 3e
       0.39939642 0.3519306 0.09488776 0.3617772
0000d0 91 7c cf be 42 08 98 3e 72 b8 14 3f d0 de 89 3e
       -0.40524724 0.296938 0.5809394 0.26927805
0000e0 12 31 b0 be e1 3c 75 3e d0 5a ef 3d 05 e9 a3 be
       -0.34412438 0.23949005 0.11687243 -0.32013717
0000f0 56 3f de 3e cb 9d c8 3e 80 cd aa be 3a ab 24 3f
       0.43407696 0.39182886 -0.3335991 0.6432377
000100 b6 80 b4 3e 95 bf 82 3e 2f ff ac be d1 b4 e5 3e
       0.3525445 0.2553679 -0.3378844 0.44864514
000110 8c fb fd 3e 59 90 65 3d d3 48 66 3d 5b d2 8c be
       0.49605978 0.056045864 0.056221794 -0.27504238
000120 de 1d 32 bf 67 b9 b3 3e 0b 7c 47 bd f5 d4 f0 3d
       -0.69576824 0.35102388 -0.04870228 0.11759368
000130 09 1f bf 3e 43 48 3d be 6a a4 d3 3e 1c ac 26 3d
       0.37328365 -0.18484597 0.41336375 0.04069148
000140 6e 3d a2 3d 51 84 c9 be 06 a3 91 3d 1e b5 9b 3e
       0.07921873 -0.39358762 0.071111724 0.3041162
000150 6c a7 a1 3e a4 60 00 bd c7 94 95 3e c4 98 3b 3f
       0.31573045 -0.031342164 0.2921507 0.73279977
000160 c0 6b 16 3f 3d 36 87 3d 5e 10 c1 3e da 15 35 bf
       0.58758163 0.06602142 0.377078 -0.7073647
000170 5a 23 cb 3e fe e7 15 3f e0 1b fd 3e c9 e0 0c 3f
       0.3967541 0.58557117 0.4943533 0.55030495
000180 5b fb a2 3e c6 c5 ff 3e 4d 03 d4 3d 48 4a 8a 3d
       0.31832394 0.49955577 0.10352192 0.06752449
000190 a5 60 7f be 5a af 04 3e de 8f d9 3d 8b 41 23 3f
       -0.2493921 0.12957516 0.106231436 0.63771886
0001a0 14 21 15 3d 4f 5b 2b 3e 47 fc f7 3e a6 59 20 3f
       0.0364085 0.1673405 0.4843466 0.6263679
0001b0 91 e8 16 3f 70 40 08 3e 0a 99 2e 3f cd 7b 8f be
       0.5894862 0.13305831 0.6820227 -0.2802414
0001c0 c5 16 09 be 58 3d 33 3f 84 70 02 3c 55 9a e4 3e
       -0.13387592 0.7001548 0.007961396 0.44648996
0001d0 f4 b6 50 3e a0 de 9e 3e 6d 5b 20 3f b2 fb 04 be
       0.20382291 0.31029224 0.62639505 -0.12986639
0001e0 7e 75 d3 3e 26 f6 91 be 9b 88 e8 3e a1 86 b4 3d
       0.41300577 -0.2850811 0.45416722 0.08814741
0001f0 cf b6 a9 3e 0e 63 f4 3e b6 d5 1d 3f 4b ad 1e 3f
       0.33147284 0.47731823 0.6165422 0.61983174

read_encoder.block3.1.weight f4 [128]
000000 41 c1 53 3f 31 30 77 3f f1 3a 9f 3e 88 c3 91 3f
       0.8271676 0.9655791 0.31099656 1.1387796
000010 e0 34 9c 3f 23 d0 4a 3f 4f 4b 8e 3e 9a a8 b1 3f
       1.2203636 0.7922384 0.2779183 1.3879578
000020 88 a7 4a 3f da d1 ca 3f a2 b5 51 3f 4b 28 75 3e
       0.7916188 1.5845292 0.81917775 0.23941152
000030 fa 54 90 3f 0d 4e b7 3f 4a f1 af 3f 4b fb 2b 3f
       1.1275933 1.4320694 1.374551 0.6718032
000040 dc 29 93 3f c8 4e 6e 3f 5f 1c 8a 3f a2 65 87 3f
       1.149715 0.9308896 1.0789908 1.0577891
000050 78 74 84 3e 4b f1 4c 3f 29 63 46 3f 85 1a a1 3f
       0.2587011 0.80055684 0.77495056 1.2586218
000060 77 fd 38 3f 82 e0 92 3f ea c0 84 3f ad e9 9f 3f
       0.72261757 1.1474764 1.0371373 1.2493187
000070 de 9e 6c 3f 18 64 7e 3f 31 8f 62 3f de 8d 9c 3f
       0.9242991 0.9937148 0.8849974 1.2230794
000080 05 bf 9d 3f d7 1e 93 3f bd af 40 3f 26 16 7a 3f
       1.232392 1.1493787 0.75268155 0.97690046
000090 01 df 0f 3f 32 e2 ef 3f 7d fc 44 3f 94 cf 80 3f
       0.5619965 1.8740904 0.76947767 1.0063348
0000a0 19 ad 98 3f 73 8d f7 3e f2 7f 53 3f f5 ed a6 3f
       1.1927825 0.48350105 0.82617104 1.3041369
0000b0 a0 25 b1 3f d4 94 5f 3f 1b fc 8d 3f 77 08 d0 3f
       1.3839607 0.8733647 1.1092561 1.6252583
0000c0 7e f1 a5 3f 88 48 68 3f da 93 f2 3e c5 fd b0 3f
       1.2964323 0.90735674 0.47378427 1.3827444
0000d0 cb 47 9c 3f 57 e6 a7 3f 85 57 48 3f 31 41 b6 3f
       1.220941 1.3117169 0.78258544 1.4238645
0000e0 77 ee a9 3f e3 27 42 3f 99 4d be 3f dc 0c 7e 3f
       1.3275899 0.7584211 1.4867431 0.9923837
0000f0 4b 01 a0 3f ad f0 0f 3f 21 b7 06 40 fc d8 60 3f
       1.2500395 0.5622662 2.1049273 0.8783109
000100 57 df 51 3f 30 a9 a5 3f 0d 17 89 3f 3e 06 60 3f
       0.81981415 1.2942257 1.071016 0.87509525
000110 47 c8 68 3f e9 98 5c 3f cc ac c0 3f eb f1 5a 3f
       0.909306 0.8617082 1.5052733 0.8552539
000120 cf d5 8f 3f 92 d1 a6 3f 8f c6 00 3f f3 34 2c 3f
       1.1237124 1.3032706 0.50302976 0.67268294
000130 06 24 36 3f ed f0 9f 3f 21 63 50 3f d1 0f 9b 3e
       0.7114872 1.24954 0.8140126 0.30285504
000140 f5 5f b7 3f 6d 3a 9c 3f d1 63 49 3f 2e af 4c 3f
       1.4326159 1.220533 0.7866793 0.79954803
000150 1e 1e a7 3f 43 dd e5 3f 49 9a b6 3f b6 fb 37 3f
       1.3056066 1.7958149 1.4265834 0.71868455
000160 eb e2 35 3f 78 75 c5 3f d0 15 32 3f 1d 85 b1 3f
       0.71049374 1.5426474 0.69564533 1.3868748
000170 e5 06 a7 3f 0b 62 49 3f f0 98 67 3f f7 74 6e 3f
       1.3048979 0.78665227 0.9046774 0.93147224
000180 a2 5f a2 3f 60 f3 3b 3f c8 fe f1 3e 45 4c b5 3f
       1.2685435 0.73418236 0.47264695 1.4163901
000190 ca eb 76 3f e7 30 b6 3e 74 5e cb 3f 0b 3b 53 3f
       0.96453536 0.35584185 1.58882 0.8251197
0001a0 4c 0c b0 3e 0c 9c 02 3f f6 5b 69 3f a3 b7 7f 3f
       0.34384382 0.5101936 0.91155946 0.9988958
0001b0 24 3c 36 3f 67 9d 9b 3f 27 ab 39 3f c1 9f 5c 3f
       0.7118552 1.215741 0.7252678 0.86181265
0001c0 c2 c0 17 3f 30 1e 4d 3f b7 4f e5 3f 2c 35 7a 3f
       0.592785 0.8012419 1.7914952 0.97737384
0001d0 a2 15 a6 3f b2 8a a1 3f f6 a8 73 3f 2f 45 84 3e
       1.2975352 1.2620451 0.9517969 0.25834033
0001e0 f5 f0 f0 3e f0 ea 8e 3f ab 8b 85 3f 9f 5a 54 3e
       0.47058836 1.1165447 1.0433248 0.20737694
0001f0 d7 e0 80 3f 9c af 45 3f 17 1d 5f 3f 80 34 51 3f
       1.0068616 0.77221084 0.8715376 0.81720734
