m6aReplica/2d_66/Models/epoch35_rocauc0.894_valpr0.416_valscore1.310.pth (torch, 150685 bytes, 13 tensors)

read_encoder.block1.0.weight f4 [128, 15]
00000000: 619e 90bc 617e 313f 7dcb 37be 559d 683f
00000010: 134f 953f 20ed 693c c9e2 ffbe 3645 e73e
00000020: d164 943e 44d7 8abd bff5 b73d bcb8 13bc
00000030: 0081 ad3c 47e1 2a3d 2061 85bb cfc5 a53e
00000040: c594 373e 6965 4cbc 3ceb ef3f a055 213e
00000050: 8de6 3cbe 4a08 5d3f 6b71 233f 6854 9c3e
00000060: 72bb 05be 8730 09be c6d7 a0bd b6d0 40be
00000070: 0fa9 25bd 6ce3 97be fa9f 51be 99f4 30bf
00000080: bf44 583e ec7d 8cbf 3ed1 97bf a104 f93d
00000090: ae12 28be 9040 e5bd 658a ebbd 1923 1cbd
000000a0: 9ce0 d33d c20e c4bc 61bd 65bd 2939 233d
000000b0: 1c9c 853c 5b65 bf3e a46d 9e3e 3b12 083e
000000c0: e6a7 533f cc85 5ebf 157c a4be 7ff3 173e
000000d0: 2a47 f2be 1046 893e 2ab4 f1bb fbcd 9b3e
000000e0: 9228 59bc 943b 58bd 8b15 623e c2d0 80bd
000000f0: c2b7 edbc 5727 1abf 98bc 863d d1fc da3d
00000100: 9596 c5be 4f11 1cbe 1daa cd3e a1e6 82be
00000110: 9cb5 85be 1ed8 9bbe da09 113f f5f4 2bbc
00000120: d348 a33e c724 edbd bc5c b7bc 0e73 8f3e
00000130: 2b55 aabc 5cc2 f73d 1566 e03f b94d 6f3d
00000140: 5665 6ebe 455a f93e 9a75 da3e 2503 e1bd
00000150: 4114 5d3e d3f2 2c3c f898 41bc 9306 2bbf
00000160: cb6c 0bbd b02d 83bc 43d3 853f 2ddb c03d
00000170: a02d a53e 2d0e 653e 978c b9be 5822 14be
00000180: a99d 053f 3189 393e 0502 05be 94ec d3bd
00000190: 3124 43be b620 1ebd 0d83 66bd 6885 90be
000001a0: 22ff 16bc 2747 83bf fc09 ffbe 45b7 58be
000001b0: f58b 75bf c900 463e 1ead dd3e d3bd 73be
000001c0: bf3f ecbd f5ca 2ebe c2cf d4bb bbbc 7abd
000001d0: b9cd 10bc 99c5 bebd bb45 03be 164a babc
000001e0: ce79 e53e e196 0abf be36 573d d6e5 d33e
000001f0: 2cd9 bebf d24d 5fbe 78a3 553f 8a17 cdbe
00000200: f506 cc3e 6860 49bd c260 01bd a7da 9bbc
00000210: a73c 0ebe 7002 923d 035e 35bd a6d0 a3be
00000220: ceb2 12bf 357f e5bd 4bb4 9bbe d455 873e
00000230: 7fd1 9d3e 7ee7 44bf b43b 343d d49b 51be
00000240: e31a 0fbe 9508 4c3e b202 9f3d f63c 983e
00000250: 76a2 093e c2ef 853d 352f 433f 1171 d4be
00000260: fbb0 6dbd 0a36 b33f b247 343f e784 6ebe
00000270: f2f3 233e dd44 733d 0b0a c93e 8fac aebd
00000280: 3cff 843d 7714 7cbd 5b73 46bd 475e 9bbe
00000290: 5571 0b3b 501c 133f 7fe1 39be 1bc4 8f3e
000002a0: a0a7 343e 2fbe 18bf 6537 65be 4c1c b13e
000002b0: 13e3 df3e 415b 9cbd 38f4 10be 3375 d13d
000002c0: c8c3 2abe f518 ddbd 744a 5d3e 66b3 2ebe
000002d0: 1da9 88bf 3de0 363d b476 493d 7a66 10c0
000002e0: 193a dcbe e544 943e 0f8e 27bf 30a1 e1be
000002f0: 921d 5dbe 363d 22bd 03a6 393c 6d6d fabc
00000300: 46cc 3bbd 62dc 6cbd 2491 56bd 30ad 75be
00000310: e99d ecbe 7107 24bd ee88 a43f d2d9 5fbd
00000320: 9d18 83be ad96 113f cf3d a93e 5c71 a33e
00000330: 6ea1 243d 2286 4fbe 66a0 e03c 971d dcbe
00000340: caa7 d63c 1a27 ad3d 238c 28bf 5a88 433d
00000350: 4e9f aebe 8369 24bf 64b5 f53e 6886 a43e
00000360: 2cb6 9ebe 670e 78bd ca61 133e 7172 9ebc
00000370: d23b 23bd b903 98ba 59b9 31bc 56c7 88bd
00000380: ddcc debc ca6b 1b3f 96f0 243e 3d55 333e
00000390: 538a 743f b493 59bf 6a27 a1be 4cac 143f
000003a0: e220 943d 7784 a93e 1cc5 1dbd b9be f13c
000003b0: 088e 4ebd c07e edbd cd13 debd cfed 6dbd
000003c0: 8f4a 273e a774 9cbe c2d8 b43d e7e1 aa3e
000003d0: ca67 34bf 2e62 2bbe 1bbb 833e 0b1f aa3e
000003e0: ccd0 3a3c a599 a33e 7f4e 9a3c c321 04be
000003f0: 5f5c 42be 1d20 093d 05b7 b83b cedd 83bf
-0.017653646 0.69333464 -0.17948718 0.9086507 1.1664757 0.014277726 -0.4997771 0.4516999
0.28983167 -0.0677934 0.08982419 -0.009016212 0.021179676 0.041718747 -0.004070416 0.32377478
0.17927845 -0.01247535 1.8743663 0.1575532 -0.18447323 0.86340773 0.6384494 0.30533147
-0.13059786 -0.13397418 -0.078536555 -0.18829617 -0.04044443 -0.29665697 -0.20471182 -0.69123226
0.21119975 -1.0975928 -1.1860731 0.12159086 -0.16413376 -0.11193955 -0.11501006 -0.03811941
0.10345575 -0.023932818 -0.05608881 0.039849434 0.01630979 0.37382016 0.30943024 0.13288204
0.8267807 -0.8692291 -0.32125917 0.1483898 -0.4731992 0.26811266 -0.0073762136 0.30430588
-0.013254302 -0.052791193 0.2207853 -0.062898174 -0.029018287 -0.6021628 0.0657894 0.10692752
-0.38591447 -0.15240978 0.4016885 -0.2556658 -0.2611512 -0.30438322 0.5665566 -0.010495414
0.31891498 -0.1157928 -0.022383086 0.28017467 -0.020792564 0.12097618 1.7531153 0.05842373
-0.23280844 0.48701683 0.42667848 -0.10986928 0.21589758 0.010555941 -0.011816256 -0.66806906
-0.0340393 -0.016012996 1.0455097 0.094168045 0.32261372 0.22368689 -0.36240074 -0.14466226
0.52193695 0.1811874 -0.12989052 -0.10347858 -0.19056775 -0.038605414 -0.056277324 -0.2822678
-0.009216102 -1.0256089 -0.49812305 -0.21163662 -0.9591668 0.19336237 0.4329614 -0.23802881
-0.11535596 -0.1706961 -0.006494493 -0.061215144 -0.008838111 -0.093150325 -0.12819569 -0.022740405
0.44819492 -0.5413647 0.05254244 0.41386288 -1.4910026 -0.2180703 0.8345256 -0.4005702
0.39849058 -0.049164206 -0.031586416 -0.01902516 -0.13890325 0.07129371 -0.04427911 -0.31995124
-0.57304084 -0.112059034 -0.3041099 0.2643267 0.30823895 -0.7691573 0.04400225 -0.204696
-0.139751 0.19925149 0.07764186 0.2973401 0.1344088 0.06539871 0.7624391 -0.41492513
-0.05803011 1.4000866 0.704219 -0.23292886 0.16011027 0.059391845 0.39265475 -0.08529007
0.064939946 -0.061542954 -0.048449855 -0.30345365 0.0021277268 0.57465076 -0.18152426 0.28079304
0.17642069 -0.596652 -0.22384413 0.345919 0.4372793 -0.07634593 -0.14155662 0.10227432
-0.16676247 -0.10795776 0.21610433 -0.17060623 -1.0676609 0.044647444 0.04918547 -2.2562547
-0.43013075 0.28958812 -0.6545114 -0.4406829 -0.21593311 -0.039609157 0.011331084 -0.030569756
-0.045849107 -0.05782736 -0.05238451 -0.23991847 -0.46214226 -0.04004616 1.2854288 -0.05465109
-0.25604716 0.5687054 0.3305497 0.31922424 0.040193014 -0.20266011 0.027420234 -0.42991325
0.026203055 0.08454724 -0.6583883 0.047737457 -0.34105915 -0.642235 0.47989953 0.32133794
-0.3099836 -0.06056061 0.14392772 -0.01934168 -0.03985197 -0.0011597789 -0.010847413 -0.06678645
-0.027197296 0.6071135 0.16107401 0.17512985 0.95523566 -0.84991 -0.31475383 0.58075404
0.072328344 0.33108875 -0.038518056 0.029509889 -0.05042842 -0.11596441 -0.108436204 -0.05808812
0.16337036 -0.3055775 0.08830406 0.33375475 -0.7047087 -0.16736671 0.25728688 0.3322681
0.01140232 0.3195316 0.018836258 -0.12903504 -0.1898055 0.03347789 0.005637052 -1.0302064

read_encoder.block1.0.bias f4 [128]
00000000: 9c54 1dbf 14c8 83be 0beb c13d 939f c53e
00000010: cc0d ea3e 7e61 833e 4c26 193f 665a 0ebf
00000020: c316 333f 98e3 243e 9858 62be 8eff 5d3e
00000030: 7556 c0be b483 703e f0e4 44bf 0420 8e3e
00000040: f7cf 343f a0f2 4fbf 374c 093f b82d 0c3f
00000050: d28a 613d fb3c 943e e189 303f e891 a4be
00000060: 6495 893e 5741 403e d5b6 a13c 0b72 7dbe
00000070: bbbb 3fbc 7d2a d3be 626f 10bf 925a 19bf
00000080: 7b93 9e3e 1bf9 a43e 5be0 093e 7b08 c9be
00000090: b877 2abf f7fd 74be 557e bc3e 185c 3fbe
000000a0: c703 da3e 6983 18be 1308 db3d cdbe 24bf
000000b0: 343a bcbe dc8b 9ebe 87d6 eabd 276b 453e
000000c0: 9750 823e 4db3 d6be ddab 323f 7eef 03bf
000000d0: 18cc e23e bb25 f9be 2af4 883e 430c 453e
000000e0: 6446 483e fbe5 7d3e c305 af3d 17d4 d3ba
000000f0: 2ee6 493e 8d6b e83e 69a9 9b3e 536c 893e
00000100: ba54 fdbe 297d abbe 98cb d63d bbcd 42bd
00000110: db57 86be b451 b83e 4863 94be 3e20 8e3c
00000120: 9f16 57be cd73 603e e6b5 31bf 388b ea3e
00000130: f2ad 333e cc36 0e3e 508e 41bf a756 963e
00000140: c7b6 5bbd b619 bd3e 8724 8d3d 8cdf 803e
00000150: 6ec7 0dbf 6bfe a03e a93e 8ebe 53e9 ac3c
00000160: ec5f 153f 260a 45bd 63e7 8b3d 5c58 9fbe
00000170: c6de 5c3e afe2 683e 1040 163e 2994 4abf
00000180: dc46 0c3f cb9b e93d 1159 193e 477b 7a3e
00000190: cd72 e43e 30fa 8abe c147 d23e 1909 ac3d
000001a0: 2338 183f a260 ea3e d90e b43d fa00 bcbe
000001b0: cd3a bf3e 0046 4c3c 7b38 f23e c083 2f3f
000001c0: 8f53 ed3d adad b03e 7709 fd3c e416 ad3d
000001d0: 94af 1fbf 4238 33be 26fa be3e 364d f33e
000001e0: 9c76 c93e 66dc 823e 53fe 01bf 5a01 5bbc
000001f0: 4666 183c cf5c a1bd a789 8f3e 4ed9 493f
-0.6145723 -0.25738585 0.09468659 0.38598308 0.4571365 0.25660318 0.5982406 -0.5560669
0.69956607 0.16102445 -0.22104108 0.21679518 -0.3756596 0.23487741 -0.7691183 0.277588
0.7062983 -0.8122959 0.5363192 0.5475726 0.05506403 0.28952774 0.68960387 -0.32142568
0.26871789 0.18774925 0.019740501 -0.24750535 -0.011702473 -0.41243353 -0.56419957 -0.59903824
0.30971894 0.32221302 0.13464491 -0.39264283 -0.66588926 -0.23925005 0.36815134 -0.18687475
0.42581007 -0.14893879 0.106948994 -0.6435364 -0.36763155 -0.3096608 -0.11466699 0.19279157
0.2545211 -0.4193367 0.6979349 -0.5153731 0.44296336 -0.486616 0.26748782 0.19242959
0.19558102 0.24794762 0.08546021 -0.001616123 0.19716713 0.45394555 0.30402687 0.26840457
-0.49478704 -0.33493927 0.10488051 -0.04755948 -0.26238903 0.35999835 -0.28981996 0.017349359
-0.21004723 0.21919174 -0.6941818 0.4580934 0.17546824 0.13888091 -0.75607777 0.29362985
-0.053641107 0.36933678 0.06891733 0.25170553 -0.5538243 0.31444106 -0.2778218 0.021107351
0.5834949 -0.04810538 0.06831243 -0.311221 0.21569356 0.22742723 0.14672875 -0.79132324
0.5479562 0.11406668 0.14975382 0.24461089 0.44618836 -0.27144003 0.4107037 0.08400173
0.5946066 0.4577685 0.087918945 -0.36719495 0.3734955 0.012467861 0.47308716 0.6856041
0.11588203 0.34507504 0.030888302 0.08451632 -0.62377286 -0.1750193 0.37300223 0.47519845
0.39348304 0.25558776 -0.5077869 -0.013367021 0.009301728 -0.0787903 0.28034708 0.78847206

read_encoder.block1.1.weight f4 [128]
00000000: 3c7a 5d3f ab26 913f 0c04 343f 26f2 c53f
00000010: 3c2a ec3f 772c dd3f 5504 8c3f 6616 a93f
00000020: f779 bf3f 56fc 8d3f 0d12 a13f 277a 8c3f
00000030: 2105 693f 6070 a83f d1e5 8a3f ba11 813f
00000040: 34e4 9d3f 2cd9 c03f f10b 233f b165 b43f
00000050: f0a7 693f ffb7 7e3f 8c82 553f 2f36 203f
00000060: a88c a13f d85b da3e 8043 a43f b971 a43f
00000070: 5fa0 b13f 4092 0f3f 93cc a23f c52d 9d3f
00000080: 7ab8 0f40 c1c1 2e3f d6ac b03f 6bc8 f13e
00000090: 4a0e 7f3f 24a3 3c3f 63c6 a83f 4d84 1a3f
000000a0: 7756 ae3f 89df 213f bb1d 9b3f b523 6e3f
000000b0: 62fd 843f c3ab 333f 9b42 263f 1e47 723f
000000c0: e170 633f ed13 7f3f d628 2f3f 15f6 a53f
000000d0: 78db 843f 7312 863f f07d 4f3f 7a6c 883f
000000e0: 3810 ab3f 17a6 743f 3a2d 4e3f 78b8 c23e
000000f0: 3d5f 053f 0abb 1c40 0742 9d3f 1fd5 b33f
00000100: d9e9 a63f 3d9c 053f 6381 b23f b15f 0d3f
00000110: 3969 933f aad2 763f 97b1 803f c3c7 d53e
00000120: d13a 543f 243f 973f de97 383f 4966 ae3f
00000130: 184f 363f ccf8 0a3f 170d 5b3f 764e 323f
00000140: 0e67 873f 0815 2c3f 9e43 823f ec0c c23f
00000150: e8c1 923f 4535 9b3f 78df f03e 2235 a83f
00000160: 6eba bf3f 19c3 8d3f 336c d53e 4400 623f
00000170: a3aa 553f 02ec f93e 5d41 f03e ccf7 3f3f
00000180: d287 d63f f021 903f eefb 4c3f 6967 3e3f
00000190: 1314 953f 32c2 e83e 8b93 173f 8c53 773f
000001a0: 3c9e 913f 49e3 963f bd43 8f3f 72bb 863f
000001b0: d007 083f 464a 763f e668 863f 833e 843f
000001c0: e3c0 9d3f 0747 8f3f dee5 ac3f 28c4 8b3e
000001d0: 2055 6a3f 426b 713f 19ac 8c3f 1bcb 413f
000001e0: 73cd 6b3f ce99 9b3f 2f20 963f 1ec9 de3e
000001f0: 5a36 cf3e 8c72 743f 6a93 fc3f ea6c 933f
0.8651464 1.1339926 0.70318675 1.5464523 1.8450389 1.7279195 1.0938822 1.320996
1.4959096 1.1092632 1.2583634 1.0974778 0.9102345 1.3159294 1.0851384 1.0083535
1.2335267 1.5066276 0.63690096 1.4093534 0.9127188 0.99499506 0.83402324 0.6258268
1.262105 0.42648196 1.2833099 1.2847205 1.3877066 0.56082535 1.2718681 1.2279593
2.2456346 0.68264395 1.3802745 0.4722322 0.9963118 0.7368643 1.3185543 0.60358125
1.3620137 0.6323171 1.2118448 0.93023235 1.0389826 0.7018396 0.6494538 0.94639766
0.88844115 0.9963978 0.68421686 1.2965723 1.0379477 1.047438 0.8105154 1.0658104
1.3364325 0.95565933 0.8053776 0.38031363 0.5209845 2.448916 1.2285775 1.4049414
1.3040115 0.52191526 1.3945736 0.5522414 1.1516486 0.964152 1.0054196 0.4175397
0.82902247 1.1816144 0.7210673 1.3624965 0.7121444 0.54285884 0.8556685 0.6965097
1.0578325 0.6721959 1.0176885 1.5160193 1.1465425 1.2125632 0.47045493 1.3141215
1.4978769 1.1075164 0.41684112 0.88281655 0.83463496 0.48812872 0.46924868 0.74987483
1.6760199 1.1260357 0.80071914 0.7437654 1.1646751 0.4546066 0.5920951 0.9661186
1.1376414 1.1788112 1.1192547 1.0525954 0.5313692 0.9620708 1.0500762 1.0331577
1.2324489 1.1193551 1.350765 0.27298093 0.9153614 0.9430429 1.099002 0.7570054
0.92110366 1.2156312 1.1728572 0.43512815 0.40471154 0.95487285 1.9732487 1.1517613

read_encoder.block1.1.bias f4 [128]
00000000: 7b93 8dbe db91 b6be 8b30 bfbe 0b8e 553c
00000010: 0c3d a03d 507a 52be 2736 adbd c200 a1bd
00000020: 5425 b9bd 37d0 cabe e36f 15be 7f26 0abf
00000030: 45a8 54be 7f40 b8bd 2417 adbd dc82 2abe
00000040: c6dd 21be 0c0d 6dbd 3316 c1be 719a 5d3d
00000050: 0a65 8cbe 7a9b 13be e1d7 0abf e5c5 a3be
00000060: 6fe0 22be 417a 20bf 67b9 37be 1ba0 61be
00000070: 4983 58be 9575 b6be a64b 1abd 9e82 ddbd
00000080: 0e6c 0fbd c957 9bbe 5a10 33be 7b04 d7be
00000090: ab75 2bbe 809a 77be e7ed a8be 44ad c7be
000000a0: c410 9dbd 8145 cdbe faa6 d3be 6043 52be
000000b0: cb30 8abe bfd3 dcbe ebc2 ccbe ad88 8fbe
000000c0: 8b6c 93be 468e dfbd a107 e8be 1bd5 3b3c
000000d0: ec3d f3bd 92dc 09be a588 75be 6219 1fbe
000000e0: e43d 9dbd b3ef 43be 093a c2be 2aa6 c4be
000000f0: 8496 f9be 56c1 5dbc 14f6 26be 11e7 bbbe
00000100: 0f9b c3bd 8654 eebe c1e8 9ebd 39f9 ccbe
00000110: 742c c4bd edb8 7dbe 2bf9 0bbe 31a2 0dbf
00000120: 634a 80be 91d7 36be 1b43 6dbe 4bd2 e7bd
00000130: 6b4b 94be 2d54 eabe 6e73 60be 6f22 d7be
00000140: 2abc 6dbe 6ffe 3dbe 550d 99be c741 013d
00000150: 8b63 cbbd 0908 3cbd 9c48 07bf 5ae6 2abe
00000160: 76d7 ffbe 4ec1 98be 1ad1 02bf db96 90be
00000170: 48c4 c4be 6571 c1be ac8d 0abf 7fed 98be
00000180: 2558 b1be 12d9 95be 5ac0 c2be efc5 7abe
00000190: 213a 46be 3cfb 09bf e280 00bf 7a83 e0be
000001a0: 5098 c8bd d050 bebd 1618 54be 6ec6 95be
000001b0: a4d4 d4be b6e1 c2be 1bd7 80be 8a50 d9bd
000001c0: 053c 2fbe a71b 50be 6d41 3dbe 514e fabe
000001d0: 9bfd 27be 245a 5dbe 9147 cbbe 8d5d b0be
000001e0: aa82 8ebe bac8 c2be 5734 57be b1f5 14bf
000001f0: 5d21 1ebf b855 7fbe 51dd 0ebe 75f6 2dbe
-0.2765158 -0.35658154 -0.37341723 0.013034354 0.07824144 -0.20554471 -0.08457594 -0.07861473
-0.09040323 -0.3961198 -0.14593463 -0.5396499 -0.20767315 -0.08996677 -0.08451679 -0.16651481
-0.15807256 -0.05787377 -0.3771225 0.054102365 -0.27420837 -0.14414778 -0.54235655 -0.3198692
-0.15905927 -0.62686545 -0.17941819 -0.22033732 -0.21143831 -0.35636583 -0.0376698 -0.10815929
-0.03501516 -0.30340412 -0.17486706 -0.41995606 -0.16744106 -0.24180031 -0.32994005 -0.3899938
-0.076692134 -0.4009209 -0.4133833 -0.20533514 -0.2699035 -0.431303 -0.3999246 -0.28033963
-0.2879375 -0.109158084 -0.4531832 0.0114643825 -0.11877045 -0.13463047 -0.23977907 -0.15537027
-0.0767782 -0.19134407 -0.37934902 -0.38408023 -0.48747647 -0.013534864 -0.16304809 -0.36699727
-0.095510595 -0.4654886 -0.07759238 -0.40033892 -0.09578791 -0.24777575 -0.13669269 -0.5532561
-0.25056753 -0.1785567 -0.2317013 -0.11319407 -0.2896379 -0.45767346 -0.21919033 -0.42018458
-0.2321631 -0.1855409 -0.29892984 0.03155687 -0.09931096 -0.0459061 -0.5284517 -0.16689435
-0.4996907 -0.2983498 -0.51100314 -0.28240094 -0.38431 -0.37781826 -0.54122424 -0.29868695
-0.3463756 -0.29267174 -0.38037378 -0.24489568 -0.19358112 -0.5389898 -0.5019666 -0.4385031
-0.09794676 -0.092927575 -0.20712313 -0.29252952 -0.41568482 -0.3806283 -0.25164112 -0.10611065
-0.1711274 -0.20323049 -0.18481989 -0.48887876 -0.16405337 -0.21616417 -0.39703038 -0.34446374
-0.27834064 -0.38043767 -0.2101606 -0.58187395 -0.6176966 -0.24935043 -0.13951613 -0.16988547

read_encoder.block2.0.weight f4 [128, 128]
00000000: 00fc aabc 3f06 033e ca94 353d 6936 e53d
00000010: e042 fe3b a65f d4be e220 90be d272 b2bb
00000020: 1ae1 b6bc 85bb 0b3e 4aa5 a0bd bbd4 d8bd
00000030: 7f7b c13d a930 84bd b03e 8fbd a1cb ee3d
00000040: 5b73 5d3e 3e23 1bbe 82e8 063e ea0f ad3d
00000050: 35de fa3d 6158 d93d 339c 0a3d 9315 65bd
00000060: 8caf 2a3d c5b0 393e 519b adbe ce54 f9bc
00000070: 6072 b83c be79 233e 6ff2 60be f755 a83c
00000080: 1940 54bf 3937 813e 5eaa 8c3d 0117 0a3d
00000090: 2135 aa3c e3e1 433d 041e b9ba 1ea7 c6bb
000000a0: c7f3 c1be 18b2 943d 7a93 173e 2510 7ebd
000000b0: 3384 053b 18b0 813e a120 933d 5743 b03d
000000c0: 7cd4 6fbd 6317 7bbc 3942 cbbc a965 b3bd
000000d0: 2741 613e 3a41 f2bc 801c cf3d 5f2d d7bd
000000e0: dbdb 06bf e0bb 3e3b b0ab ef3b 0b64 8c3e
000000f0: 7646 183d cf03 2cbf 76df ab3d f38d 173e
00000100: 7fc0 af3c 5315 633d 74a2 b0be 8fa5 833d
00000110: 67dd 04bd 87df 0b3e db29 babc 3b83 d03d
00000120: 8a88 153e cec1 653e 95dd 0a3e fff0 d03d
00000130: a365 243d a4e8 653d 8824 1e3e 726d afbd
00000140: 31e7 cc3d b151 2d3e 3b7c d13d 7cea 093d
00000150: 498d a6be d08f 08bd b7db 243d 9fe3 c2bd
00000160: f2a9 0ebe 3d03 c5bd 0004 253d 35ca 1f3e
00000170: 6a43 eabd b581 1ebd 7114 7b3d c579 d43d
00000180: d8b0 d73e 67af 533c cd99 2e3c 55d5 18be
00000190: 062d d83d 38d9 803d 0215 793d 518e 3f3d
000001a0: 28b0 403d f9cf 3abc f666 053e 29fa b83d
000001b0: 1900 393e 5b01 05bd e743 a23d deb0 943e
000001c0: 3fb4 6cbd df91 a3bc 6e32 eebd d008 0b3e
000001d0: 0c3e 653c aa51 15be 0cf1 8cbd 2277 823b
000001e0: 5329 ad3d 729f 9a3c c444 adbc 9a4a 0b3e
000001f0: c4f6 943d edbb 1dbd bab2 013e ea21 63be
00000200: 8fa9 963d 1f8e 3dbd 1152 e33d b8e3 84bc
00000210: 6c34 75bd 2f68 4fbe e60d afbd 85f4 8c3e
00000220: 8c06 183e 6f22 27bd e119 e73d 0f2e 6d3e
00000230: 67e7 553d bdae 17be 865f 423e cb07 24be
00000240: a553 0abd a342 6ebc b7e2 ddbd e7a2 973d
00000250: d14b d43d 7228 06be f8a6 74be 41cf 0d3e
00000260: 8d78 4f3e a48e a93d 6917 c4be 6542 693e
00000270: ea61 09be cab4 943e 1584 8a3e 49c1 a23e
00000280: 2b09 2cbe 4769 743d ea54 11bd 3393 593e
00000290: aeca 0b3e 2133 173d 2146 99bc 54b3 5b3e
000002a0: 8bb3 373c 70d0 693b 0b12 1c3e 214a 423e
000002b0: b2e3 88be c32b c43d 4652 963d 35af 9c3d
000002c0: a1fa d7bd 969a 0a3e 810f 73be bbbc 633e
000002d0: fbbc 083e 06fa 953d 95c2 653e 32a0 12be
000002e0: ee59 b9bc 7e8b 90ba 4def 423e 2ded 083e
000002f0: 82d9 793e 6690 8d3c 45f3 79be d2ce 7a3e
00000300: d0b9 d33e 80c8 063e b607 83be 12d4 143d
00000310: 52a7 6e3e b921 22bd e776 f23d 279d b43d
00000320: e544 5b3e 2940 823e fbd2 a93d 0762 013e
00000330: df8b 0a3e 292e c33d 8521 963e 8663 cbbe
00000340: a08d 12bd 7464 943d 054d e03c 47ce 793e
00000350: 74f8 b73b ed10 c8bd 1303 a53e ce6f ad3d
00000360: 97d9 ec3d 7f50 3e3e dc0c a03d 5161 c8bc
00000370: f3fa 363e 2510 df3d 65f7 353e b434 7a3e
00000380: a099 bc3e 108e 983d 0eee 053d 36d1 8c3d
00000390: 6c3f 83be a906 4e3d 3a1e 613d 1ed9 563e
000003a0: e45a 063d 9735 06bb 4b04 9d3d e291 133e
000003b0: 61d9 7a3e f5c3 4b3d 3643 f13c b063 413e
000003c0: 7f98 a5bd dec8 edbd 6cb7 e9bc 57fe c13d
000003d0: 275a 993d 03d5 5cbd f911 65bd ef40 e53c
000003e0: c731 1b3e 9d2c bd3d 421d 59b8 12c1 493d
000003f0: ede1 3e3e 7320 45bd 713a 543e 3d43 263d
-0.020872116 0.12795351 0.04433135 0.111920185 0.007759437 -0.41479224 -0.28150088 -0.0054458166
-0.022324134 0.13645752 -0.078440264 -0.1058745 0.09447383 -0.06454594 -0.069943786 0.11659933
0.21626036 -0.15150163 0.13174632 0.08450301 0.12249414 0.1061256 0.03384037 -0.055928778
0.04167132 0.18133838 -0.3390756 -0.030435946 0.022515476 0.1596441 -0.21967481 0.020548804
-0.82910305 0.25237444 0.068684325 0.033713344 0.020777287 0.047822844 -0.0014123325 -0.0060624024
-0.378813 0.07260531 0.14802352 -0.062027115 0.0020372986 0.2532966 0.07183958 0.08606594
-0.05855225 -0.0153254 -0.02481185 -0.087596245 0.2199751 -0.029572118 0.10112858 -0.10506701
-0.5267922 0.0029103681 0.007314168 0.27420077 0.03717657 -0.6719331 0.08392231 0.14800243
0.021454094 0.05544026 -0.34498942 0.06428062 -0.03243771 0.13659488 -0.022725036 0.1018128
0.14602867 0.22437212 0.1356109 0.10202216 0.04013599 0.056130067 0.15443623 -0.08565797
0.10005034 0.16925694 0.10228773 0.033670887 -0.32529667 -0.033340275 0.0402486 -0.095160715
-0.13932016 -0.09619758 0.040287018 0.1560448 -0.114386395 -0.038697917 0.06129879 0.10374788
0.4212711 0.012920237 0.010656786 -0.1492513 0.105554625 0.06291431 0.06081105 0.046766583
0.047042996 -0.011402124 0.13027558 0.09032089 0.18066444 -0.032471996 0.079231076 0.2904119
-0.057789084 -0.019967018 -0.116307124 0.1357758 0.013991844 -0.14581934 -0.068819135 0.003981487
0.084551476 0.018874858 -0.021150954 0.13602677 0.07273629 -0.038509298 0.12665835 -0.22180906
0.073565595 -0.046278115 0.11099637 -0.016221866 -0.059864447 -0.20254587 -0.08547573 0.27530304
0.14846247 -0.040804323 0.11284233 0.23162101 0.052222636 -0.14812751 0.18981752 -0.16018598
-0.033771176 -0.014542255 -0.10834258 0.07404118 0.10366023 -0.13101366 -0.23891819 0.13848592
0.2026083 0.0827916 -0.3829911 0.22779234 -0.13416258 0.2904418 0.27053896 0.3178809
-0.16800372 0.059670713 -0.03548137 0.21247558 0.13651535 0.036913995 -0.018710198 0.21455127
0.01121224 0.0035677217 0.15241258 0.1897359 -0.26736218 0.095786594 0.07339911 0.076506056
-0.105458505 0.13535532 -0.23736383 0.22239964 0.1335334 0.07323079 0.22437508 -0.14318922
-0.02262589 -0.00110279 0.19036599 0.13371725 0.24399379 0.017280769 -0.24409206 0.24492958
0.413527 0.13162422 -0.2559182 0.03633506 0.23306015 -0.03958294 0.11839085 0.08819037
0.21413 0.25439575 0.082921945 0.1263505 0.13529919 0.09530289 0.29322448 -0.39724368
-0.035779595 0.072457224 0.027380476 0.24395095 0.0056143347 -0.09768853 0.32228908 0.08468591
0.115649395 0.18585394 0.07814953 -0.024460467 0.17869167 0.10891751 0.17770155 0.24434167
0.36835957 0.07448971 0.03269773 0.06875841 -0.25634325 0.05029932 0.054960467 0.20981261
0.032801524 -0.002047872 0.076668344 0.14411119 0.24496986 0.049747426 0.029450994 0.18885684
-0.08085727 -0.11610578 -0.028529845 0.094723396 0.07487898 -0.05391408 -0.055925343 0.027985064
0.15155707 0.09237025 -5.176408e-05 0.04925639 0.18640871 -0.04812665 0.20725419 0.040591467

read_encoder.block2.0.bias f4 [128]
00000000: 20d7 423e c184 af3e fdde b83b 74b1 27be
00000010: ee4a 5fbd caf1 433e fe72 b93d d8c7 aebc
00000020: ec7c fe3d 5b09 7e3d 23f2 343d c8e9 833e
00000030: 8974 3e3c d349 cabc ef11 6f3e d509 fd3d
00000040: 7ffc 08be 0263 b83e 1816 80bd e86a 37be
00000050: f2f6 b63d 3eed 41bd 999a 513d 3cd1 ea3d
00000060: d912 88bc ed0b 773e 1598 90bd fbf8 993e
00000070: 6c63 c13e 0113 043e ffff 863e 16c5 203e
00000080: dda5 eebd c75f 45bd a302 493e 932a 983d
00000090: 30a7 6b3d 0a62 803d 0003 953e 322c 363e
000000a0: 5146 f4bc 170e a9bb 92bf 613e 83ce a23e
000000b0: 8562 57bd d4ac 503e 2073 8d3d c055 95bc
000000c0: 4bfe 8f3e 40b3 8e3e 8014 05be 3998 ad3d
000000d0: cf55 1abd f219 5cbe cb77 733e 24e0 a73e
000000e0: e929 13be 61f9 623c 8c73 e43d 6f8d e23d
000000f0: 82a5 1f3d c50b d2bb 6ac5 1fbc 0203 003e
00000100: 36bb 353e dcc4 183e 69a1 643e 2bf2 babd
00000110: 6758 033e 598a 963e 9870 d6bd 8673 de3d
00000120: e624 ca3d 464e fa3d 6dc1 883e 0a49 4c3e
00000130: 3f26 983d 77f7 983e ee49 7a3e 8de0 ddbc
00000140: 2911 07be fa2c 41be cad6 623e 7963 b5bd
00000150: 33c5 ca3d bce4 7cbd 09d6 d53c 1299 5cbe
00000160: 46bb 26be 3d00 1a3e 74cf f43d 3b4f 1cbe
00000170: d251 813e 33a1 f43d 7a5b 643d afdc 443e
00000180: c109 123e b498 e4bc db34 053c 225e 68bd
00000190: 68bf 6e3d 5b4d 413e 0e92 80bd 58be c33d
000001a0: f52f 023e 7c53 5f3e e312 9fbd 4eb8 883e
000001b0: 4ad7 9a3e 10ec 713e 6642 683e 7354 37be
000001c0: 3110 293e 9322 983e e284 2abb 5f9e 403e
000001d0: f6e0 c4bd 4a38 473e 1f83 363e 207a b53e
000001e0: 6315 5a3e 01f4 93bd 6a57 64bd 1ecd 3a3e
000001f0: d221 803e 89fd 1bbe 3cd8 fc3d 8d8d 3ebb
0.19027376 0.3428097 0.0056418166 -0.16376287 -0.054514818 0.19135204 0.09055136 -0.021335527
0.12426171 0.06202064 0.044176232 0.25764298 0.011624464 -0.024693405 0.23346685 0.12355391
-0.1337757 0.36013037 -0.06254214 -0.17911875 0.0893382 -0.047345392 0.051172826 0.114656895
-0.01661055 0.24125643 -0.07060257 0.3007277 0.37771165 0.12897874 0.26367185 0.15700182
-0.1165273 -0.048187044 0.19629912 0.074299954 0.05753249 0.062686995 0.2910385 0.17790297
-0.029818686 -0.0051591503 0.22045735 0.3179818 -0.05258419 0.20378429 0.06906724 -0.018229365
0.28123698 0.27871132 -0.12996101 0.084763 -0.03767949 -0.21494272 0.23776166 0.32788193
-0.14371456 0.013853402 0.11154851 0.110621326 0.0389762 -0.0064100944 -0.009751657 0.12501147
0.17747197 0.14918846 0.22327198 -0.09128221 0.12826692 0.29402426 -0.10470694 0.10861878
0.09870319 0.12221961 0.26710072 0.19949737 0.0742917 0.298763 0.24442264 -0.027084613
-0.1319014 -0.18864813 0.22152248 -0.088568635 0.09900894 -0.061741576 0.026103036 -0.21542767
-0.16282377 0.15039153 0.11953631 -0.15264599 0.25257736 0.11944809 0.0557513 0.19224809
0.14261533 -0.027904846 0.0081302775 -0.056730397 0.058288008 0.18877165 -0.06277858 0.095577896
0.12713607 0.2180919 -0.07767274 0.26703113 0.30242378 0.23625207 0.22681579 -0.17903309
0.16510083 0.29713878 -0.0026019146 0.18810414 -0.096132204 0.19455066 0.17823456 0.35444736
0.21297221 -0.072242744 -0.055747427 0.18242308 0.25025803 -0.15233435 0.12345931 -0.002907607

read_encoder.block2.1.weight f4 [128]
00000000: af8d 483f df9c 213f 6fe8 5f3f 0c82 983f
00000010: b411 7f3f 5ec8 483f 2b1b 7c3f f7cd 913f
00000020: b419 393f e573 693f c04f 933f 47a5 1e3f
00000030: 6bb5 763f e45c 9c3f c06a 223f a644 6e3f
00000040: 6aa2 a33f 0541 183f 0835 9d3f 5bdd ad3f
00000050: 01db 373f 832c 9b3f 774f a83f 7ac2 653f
00000060: 0029 8c3f 6e8f 413f 78b2 a03f 724f 2a3f
00000070: ec47 303f 0ee2 1f3f 794b e53e 8513 823f
00000080: 3c3a a03f 2143 873f 3053 1f3f 9d01 7f3f
00000090: d33b 343f 6fc4 903f 3dbf 6a3f 6401 303f
000000a0: 94ba a83f b7a7 653f 70ae 523f b13c 443f
000000b0: d48e 8f3f aed9 493f ada0 6c3f a91a 803f
000000c0: 2ce6 4c3f cc6c 563f 6a91 963f db2b 8c3f
000000d0: 7148 963f 7cd9 ba3f f7d7 293f 4560 4f3f
000000e0: 68db 9f3f 723d 953f f205 303f dcbe 7d3f
000000f0: e183 9a3f 9f96 933f 6c03 813f 3897 803f
00000100: 89be 373f 3125 593f 0158 313f 0ac7 9d3f
00000110: 34ab 6b3f d469 2c3f 2084 a83f d3b5 723f
00000120: 66f3 783f 8df4 6d3f db60 183f a6a3 2d3f
00000130: d155 8a3f 49ec 0c3f f08c 213f 8741 9b3f
00000140: 319d ab3f 51f2 963f c8ba 343f 5992 983f
00000150: 55cc 803f 23c2 a53f 127f 7a3f a771 b43f
00000160: 2375 b73f 972b 683f 8638 543f caf8 8d3f
00000170: 4723 4d3f 4dda 723f 15ab 653f 73e1 433f
00000180: 9eb2 533f 9ab0 a83f 370d 903f a8a7 a33f
00000190: 7d1f 893f 1f06 173f aa0f ac3f f34d 533f
000001a0: 6b17 3d3f 8286 513f cf7e 9a3f e094 263f
000001b0: 5811 133f c7f7 353f 21ea 223f 7e81 a83f
000001c0: 806b 1e3f 4632 313f 70b7 a73f 2d04 803f
000001d0: ff1e b33f fb4d 3f3f 14e9 543f ddeb 043f
000001e0: 3b9a 363f 5c3e 8f3f dd43 9d3f 6e8d 2b3f
000001f0: 73db 1b3f cd9e ac3f 0e74 283f 5e69 963f
0.7834119 0.6312999 0.8746404 1.1914687 0.9963639 0.78430736 0.98478955 1.139098
0.72304845 0.91192466 1.1508713 0.61970943 0.9637057 1.2215848 0.6344414 0.930735
1.278394 0.5947421 1.2281809 1.3583177 0.7181855 1.2122959 1.3149251 0.8974987
1.0950012 0.7560948 1.2554464 0.66527474 0.68859744 0.6245431 0.44784144 1.0162207
1.2517772 1.0567361 0.6223631 0.99611837 0.70403785 1.1309947 0.91698056 0.6875212
1.3181939 0.8970904 0.8229742 0.7665511 1.1215463 0.7884778 0.9243267 1.0008136
0.80038714 0.8375976 1.1763127 1.0950884 1.1740857 1.4597621 0.6634516 0.8100627
1.2488832 1.1659377 0.6875907 0.99119353 1.2071496 1.1530341 1.0079169 1.0046148
0.7177511 0.84822375 0.6927491 1.2326367 0.9205811 0.6734898 1.3165321 0.9480869
0.97246397 0.9295128 0.5952279 0.6782783 1.0807439 0.5504804 0.6310568 1.2129372
1.3407346 1.1792699 0.70597506 1.1919662 1.0062357 1.2949871 0.97850144 1.4097184
1.4332622 0.9069151 0.8289875 1.1091549 0.80131954 0.9486435 0.89714175 0.76515883
0.82694423 1.3178895 1.1254033 1.278554 1.0712734 0.58993715 1.344228 0.82540816
0.7386386 0.8184587 1.2069949 0.65070915 0.5744834 0.71081203 0.636385 1.3164518
0.6188278 0.69217336 1.3102856 1.0001274 1.3993834 0.74728364 0.8316815 0.519224
0.71329087 1.1190906 1.2286335 0.6701268 0.6088173 1.3485962 0.65802085 1.1750906

read_encoder.block2.1.bias f4 [128]
00000000: 6346 81be 88ef bbbe 7774 a8be 5d18 81be
00000010: 8122 91be d8b6 bbbe 3771 e1be 4d09 33be
00000020: 4435 c1be 158d 58be 2fbd 95be b527 e1be
00000030: 393b 48be 6f88 06be f70c 8dbe 3214 aebe
00000040: d15c 9abe e670 87be 2116 b8be b8c9 83be
00000050: d097 0abf 5ace adbe fe88 82be 8690 fbbe
00000060: 713a 6fbe 6f25 04bf 462c 77be 4620 87be
00000070: b9f4 93be bb62 85be bb83 bbbe 5a90 d6bd
00000080: 55c2 abbe 0df2 90be f91b 95be 1237 7fbe
00000090: c5bf ddbe b082 24be 1e37 94be 7688 9bbe
000000a0: d3c8 71be ec25 0abf 7417 88be eeeb 99be
000000b0: 6a1e 47be f5d3 aabe 280b ccbe 564a 6abe
000000c0: 5973 6dbe 3631 84be 8408 45be f3ba c7bd
000000d0: eb37 9cbe e86d 9abe 81e2 b1be ded1 52be
000000e0: 5441 1cbe b22b 86be fe16 6bbe ac68 c2be
000000f0: 7fb8 96be 84f9 6ebe fef4 15be b66b c1be
00000100: 1520 99be 1e1a 84be cad1 eabe edf6 4dbe
00000110: 97fb 4abe f10a b9be 5348 4fbe 7423 d2be
00000120: caf7 ccbe 4af0 73be 1117 eabe 690b 9fbe
00000130: 3156 b6be 1783 86be fc66 dcbe cb52 b9be
00000140: 6074 d2be d29e 9abe 575b abbe 5d4a a8be
00000150: 561b 52be 3a6c e7bd f865 59be a0ba f0be
00000160: 0da6 ccbe 0615 14be 1901 1dbf 8399 80be
00000170: 1726 5ebe 2e67 d5be 8465 99be 5e6e cbbe
00000180: 6984 6abe 4f5f 86be 8966 e3be a99d 37be
00000190: 2c66 b3be 177b fcbe 7ce2 16be c7a9 a6be
000001a0: 4b68 97be ed03 9fbe a848 b3be 806a 96be
000001b0: 5ee1 babe a2e6 7cbe 761f f8be 9d18 c0be
000001c0: e3b3 2cbf 9cbb 71be 9814 5cbe e799 82be
000001d0: 8220 a0be 39d4 87be b20b 91be 847b 09bf
000001e0: 6048 c5be 8730 ddbe ca27 91be fe2d fcbe
000001f0: 4692 01bf 2b02 c5be 8fc1 c1be e649 70be
-0.25249013 -0.36706185 -0.32901356 -0.252139 -0.28346637 -0.36662936 -0.4403169 -0.17484017
-0.3773595 -0.21147569 -0.29245898 -0.43975607 -0.19553842 -0.13137983 -0.27548954 -0.33999783
-0.30148938 -0.26453322 -0.35954383 -0.25739837 -0.541379 -0.33946496 -0.25495142 -0.491337
-0.23362137 -0.5161962 -0.24137983 -0.2639181 -0.28897646 -0.26051888 -0.3662394 -0.104767516
-0.335467 -0.2830967 -0.29122904 -0.24923351 -0.4331037 -0.16065478 -0.289483 -0.3037755
-0.23611765 -0.53964114 -0.26580393 -0.30062813 -0.19445196 -0.33364835 -0.39852262 -0.2287992
-0.23188533 -0.25818795 -0.1924153 -0.097524546 -0.30511412 -0.30161977 -0.3474312 -0.2058787
-0.15259296 -0.26205212 -0.2295799 -0.37970483 -0.29437634 -0.2333737 -0.14644238 -0.3777749
-0.2990729 -0.25801176 -0.4586318 -0.20113726 -0.19822536 -0.3614116 -0.20242433 -0.41042674
-0.40032798 -0.23822132 -0.45720723 -0.31063393 -0.35612634 -0.2627189 -0.4304732 -0.3619598
-0.41104412 -0.30199295 -0.33468124 -0.32869235 -0.2051824 -0.112999395 -0.21230304 -0.47017384
-0.39970437 -0.14461145 -0.613298 -0.2511712 -0.21694218 -0.41680282 -0.29960263 -0.3973264
-0.22902073 -0.2624459 -0.44414166 -0.17931236 -0.35038888 -0.4931266 -0.14734834 -0.32551405
-0.29571757 -0.31057683 -0.3501637 -0.29378128 -0.36500067 -0.24697354 -0.48461503 -0.37518778
-0.67461985 -0.23606724 -0.21492231 -0.25508043 -0.31274801 -0.265291 -0.28329235 -0.53704095
-0.3853178 -0.43201086 -0.2835067 -0.4925384 -0.5061382 -0.38478217 -0.37842986 -0.2346569

read_encoder.block3.0.weight f4 [128, 128]
00000000: 7c91 3dbd 2517 16bd 999e ff3d ad00 963e
00000010: 9341 633e a328 53bc 65b2 3f3e c68c 9bbd
00000020: dc51 d0bd 3f5d c2bc b172 9fbc c3cb a83c
00000030: cf3c 423d 1712 6b3d d7f8 86bc 806c 053e
00000040: 12ba 663e ccac fabd 3d92 2a3e 2a21 013f
00000050: 3869 91be b8c5 003e 0101 833e 6301 97bd
00000060: faba 553d 31c2 be3d 71bb 833e a3de d23b
00000070: 0e0b 863d 747f 38bd 34e7 e63c b669 87be
00000080: 712f 58bd bdf3 4d3e 51c6 00be 0349 983d
00000090: 193e b5bd 96a2 153e c31c 83bc 7f70 f73d
000000a0: dc15 b33d abde 3c3e 6f9f f53d 60eb e8bd
000000b0: b400 103e b8a6 8a3d ac2c 8b3d b3dc 383d
000000c0: 48cd a4bd 1051 ba3d 3d54 e43d 08cc 973d
000000d0: e55a 72bd 0a14 c8bd 9b0b 21bd e1ce 4dbd
000000e0: d0a1 293d 4d7e 98bd f7f6 2bbc 0606 b4bd
000000f0: 6b96 5a3e ab57 7bbd c146 bcbc 4949 053e
00000100: 1a31 6e3c a701 873d f761 9e3d 5e92 913e
00000110: be5f c0bd 57e9 85bd 3d30 50bd 56f3 fe3d
00000120: 72ea 4abe 657b c1bb c6b8 8b3e b257 f73c
00000130: 1999 893e 79ff 33bc d03e 5d3e 45a9 b33e
00000140: c648 63bd 1349 863e 8b72 4fbd ee17 b93e
00000150: d6ee 24bd 6ca1 89bd d936 233e 676c e4be
00000160: e24a 3bbe 6c32 9e3c 1bcb d73d 0657 153e
00000170: 14d9 c83d 761a 123e dc7c f8bd 7062 8aba
00000180: 9715 243e d19b 763d 4332 86bd e330 a93d
00000190: 6960 723e 36c3 fc3d 3bbf 11bf b8b3 a23c
000001a0: 9553 e63d bc90 323e cc80 093e 2d3b 9dbc
000001b0: f7ca 043d 752c 5ebd 99ac 0d3e 9d9f 573e
000001c0: b80a 543e 12db 9cbc 9512 2d3e d17f 19bc
000001d0: 657c 5bbd ea9a b23d ce5d 6dbe 54a2 37bb
000001e0: 7657 98bd 8874 35bc 1b48 0dbd d7fb 963d
000001f0: 5064 583d 632d ae3d c81b a63d a266 0bbe
00000200: 727e ea3d 5e0a d8bd 5bbb 9e3d 03b3 f83c
00000210: 17da 5f3e 129e 20bd 1838 073e 7f9c af3d
00000220: 21b0 13b9 486d f43d 2e2a 3abe f19e 21be
00000230: 81a8 503d d5ca 87bc e3c4 a0bd 597d 283d
00000240: 149d 143e 2b5d 8d3d d493 103e 4e8b f43e
00000250: 1580 4cbe a59d 773e 75fa 803e cbfc 4fbd
00000260: 0d0b 843d 3bc6 0b3e 72ea 833e d315 4b3e
00000270: 03a4 edbd 27df cf3c e5fb b93d eba4 debd
00000280: 69b1 003e 0310 f13d 2ee0 aebb 932d a13d
00000290: 5417 17be c78f 503d d6e7 4f3d eb4d 31bc
000002a0: 10c9 363e 6d43 46bd 4e86 b63d 63ad 973a
000002b0: dc8e a23d 3d9f 69bd d1b7 c7bd 62c0 c93d
000002c0: b0eb 353d c486 d63c 1f4c 073e 3476 a3bd
000002d0: 4335 073e 8539 d6bc 8fc9 a63d 9641 f53d
000002e0: d237 a03e d958 253e a542 533d 169d 86bd
000002f0: eb98 55bc 918d cf3d f895 3abd fadf 793d
00000300: 7354 f0bd a220 e93c 07bc 483d 5f36 5d3e
00000310: b851 16be 41a6 2c3d d248 56be ae64 803d
00000320: cc8c 7cbe 47dd 273e 6428 e03d 1e76 023e
00000330: 7863 313e 8bf8 97bd e27f c53c 58c7 953d
00000340: bea6 773d fb2d 223e df18 3ebd 65ae 9e3e
00000350: a47b 86bd 1d45 99be 26f1 a9bc de92 7bbe
00000360: d80c 3bbe 1e9a 5c3d d0a4 e23d e8d9 1f3e
00000370: 0743 473e 5c13 5d3d 6568 f5bc 371a 56bd
00000380: 213b 683c 3352 2abe 420e edba 4685 a1bd
00000390: 0097 533d 5446 38bd fbb6 e2be 9d1a 903d
000003a0: 01e4 0abd fc41 8d3b 229e ba3e f44e d5bb
000003b0: 7db9 e03b 2b6a 353c 2e9b d03d 3329 443e
000003c0: 5791 3f3e 3aa2 66bd fb0b 97be 321f b23c
000003d0: 1800 d4be 09d8 903d 881e c1bd ded3 ec3d
000003e0: e04c ae3d 7c97 a6bd d040 45be cdbf 7ebd
000003f0: 69d1 8db9 1c74 82be 8467 ec3d 6180 ac3e
-0.046281323 -0.036643166 0.12481422 0.2929739 0.22192983 -0.0128881065 0.18720396 -0.0759521
-0.101718634 -0.023726104 -0.019463869 0.020604974 0.047421273 0.0573903 -0.016476078 0.1302967
0.22531918 -0.1223999 0.16657348 0.5044123 -0.28400588 0.12575424 0.25586703 -0.07373311
0.052180268 0.09314383 0.25728944 0.006435232 0.06545077 -0.045043424 0.028186418 -0.2644784
-0.05277962 0.2011251 -0.12575652 0.07435801 -0.08849735 0.14612803 -0.016004926 0.12082004
0.08744404 0.18444316 0.119933 -0.11373019 0.14062768 0.0677008 0.0679563 0.04513235
-0.08046967 0.09097493 0.1114888 0.07411963 -0.059168715 -0.09769447 -0.03931771 -0.050246123
0.041414082 -0.07445965 -0.010495893 -0.087902114 0.21346442 -0.061362904 -0.022982957 0.13016237
0.014538074 0.06592112 0.07733529 0.28431982 -0.093932614 -0.06538647 -0.050827254 0.124487564
-0.19815996 -0.0059046024 0.27289408 0.030193184 0.26874617 -0.010986202 0.21605992 0.3509008
-0.055489324 0.26227626 -0.050646346 0.3615107 -0.040266834 -0.06720242 0.15938891 -0.44613954
-0.18290284 0.019311152 0.10536786 0.14583978 0.09807029 0.14267907 -0.1213319 -0.0010557901
0.16023861 0.06020719 -0.065525554 0.082612775 0.2366959 0.12341921 -0.5693242 0.019861087
0.11246411 0.17438024 0.13428038 -0.019193256 0.032420125 -0.054241616 0.13835372 0.21056981
0.20707214 -0.01914743 0.1690162 -0.009368853 -0.05358543 0.08720954 -0.23180315 -0.002802034
-0.07438557 -0.0110751465 -0.034492593 0.073722534 0.05283004 0.085047506 0.081107676 -0.1361337
0.11449899 -0.105488524 0.07750579 0.030358797 0.21860538 -0.039213248 0.13204992 0.08574771
-0.00014084626 0.11934906 -0.18180153 -0.15783288 0.050941948 -0.01657621 -0.07850053 0.041135166
0.14513046 0.06902536 0.14118892 0.4776253 -0.19970734 0.2418123 0.25191084 -0.05077819
0.0644742 0.13649838 0.25764805 0.19832544 -0.116035484 0.025374962 0.09081248 -0.10871299
0.12567677 0.11770632 -0.005336783 0.07870021 -0.14754993 0.050918367 0.050758205 -0.0108218
0.17850137 -0.048404146 0.08912335 0.0011572059 0.079374045 -0.057036627 -0.09751857 0.09851147
0.044414222 0.026187308 0.13212632 -0.0798153 0.13203911 -0.026150474 0.08143913 0.119754
0.31292588 0.16147174 0.05157723 -0.065729305 -0.013036947 0.101344235 -0.045553178 0.061004616
-0.117348574 0.028457943 0.04900744 0.21602772 -0.1467961 0.04215074 -0.20926216 0.06269203
-0.24663085 0.16393004 0.10945204 0.1274037 0.173231 -0.07420453 0.02410883 0.073134124
0.060461752 0.15837853 -0.046410438 0.30992427 -0.06566551 -0.29935542 -0.020744871 -0.24567744
-0.18266618 0.053857915 0.11066592 0.15610468 0.19459163 0.05397354 -0.029957006 -0.052271094
0.014174254 -0.16632919 -0.0018085914 -0.07886748 0.051657677 -0.044988945 -0.44280228 0.07036326
-0.033908848 0.0043108445 0.3644877 -0.006509656 0.0068580494 0.011072676 0.10185848 0.19156341
0.18707787 -0.056307055 -0.29501328 0.02174339 -0.41406322 0.070724554 -0.094296515 0.11563848
0.085107565 -0.08134362 -0.19263005 -0.062194634 -0.00027049638 -0.2547921 0.115431815 0.33691695

read_encoder.block3.0.bias f4 [128]
00000000: e309 273e 4fee 503d 396e 1a3c 8e44 64bd
00000010: 81dc 09be 0d59 2f3e e9e6 c53d d92d 1a3e
00000020: 0135 973d a29d 553d 3b94 943d edd9 7ebd
00000030: 0735 62bd 0bfe debb 826b 633d 773b eb3d
00000040: b103 14be 4fc6 293e e032 14be 735a 53be
00000050: a216 92bd 869b 11be d7b8 dd3b 7b45 26be
00000060: 6045 b03c 2cb1 36be 8668 29be 1a13 403d
00000070: 3401 2e3e e056 483e 1fa5 3e3e 13e4 953d
00000080: 8a79 02be c744 3cbe 1872 ea3c ec40 1d3e
00000090: e7ae b93d 4821 d23d 7dfc 893c 89e4 663e
000000a0: c86b 73be aef2 0dbd 0dfa ef3d e1b9 b73d
000000b0: 0d88 89be 9812 9e3d 10d2 10be c70e 503b
000000c0: c671 3b3e 8153 263d 463a 2fbc e622 f43d
000000d0: 44cb e0bd 6253 013e e6ef 243d 1411 0e3e
000000e0: a0fc 9abd 5c1f 98bb 0c78 d73c e376 0ebe
000000f0: 7322 3c3e 8f3e b33d a640 3fbd 7cf7 f03d
00000100: dfaf 89bc 24b1 c33c 328a 1abe 2437 79bd
00000110: c8e8 183e 7fcd b7bd 5a65 9f3d 79e9 30be
00000120: 3abb 2dbe bae1 223e b96b d7bd a4fa d0bc
00000130: b62e d73d 8b2e 05be 2e67 7c3d 67a3 9dbc
00000140: 045f 533c 8e22 ebbd b455 b83b e47a 343d
00000150: d820 a83d c9e4 393c 22ed 403e 1406 fb3d
00000160: 4e78 aa3d 83dc 043e e136 b33d 95a0 30be
00000170: f95d 033e 6f97 083e 020d e93d 1f69 0e3e
00000180: e2f9 0e3e 30c6 8e3d 4fb9 04bc 5c68 32bc
00000190: d1f1 84bd 1840 85bd 3404 5d3d 5c8f 7e3e
000001a0: 4431 62bd 4531 983d 07af 9c3c 5252 193e
000001b0: de46 0f3e 2a13 443d c13e c13d 848b 17be
000001c0: 7cb1 eabd b547 da3d 7bd1 0e3d 6941 133e
000001d0: feda 1e3e 60f2 9e3d eef4 8a3e e4e4 8fbd
000001e0: 1d7e 8f3d 921a 10be 16b2 433d c27e ee3c
000001f0: edff fbbc 9b46 f33d 560c be3d b759 eb3d
0.16312365 0.05100852 0.009425693 -0.05572944 -0.13463022 0.17123814 0.09663183 0.15056552
0.073831566 0.052152283 0.07254835 -0.06221955 -0.055226352 -0.0068051866 0.05552245 0.114859514
-0.14454533 0.16579555 -0.14472532 -0.20639972 -0.07133223 -0.14219484 0.0067664194 -0.16237442
0.021517456 -0.17841023 -0.16543779 0.046893217 0.16992646 0.1956439 0.18617676 0.07318892
-0.12741676 -0.18385611 0.028618857 0.15356797 0.09066563 0.10260254 0.016844029 0.22548117
-0.23771584 -0.034655266 0.11717615 0.089710005 -0.2686161 0.0771839 -0.14142632 0.003174709
0.1830512 0.04060698 -0.010695046 0.11920719 -0.1097627 0.12629464 0.040267847 0.13873702
-0.07567716 -0.00464241 0.02630236 -0.13912539 0.18372516 0.087521665 -0.046692513 0.11765954
-0.016807495 0.023888178 -0.1509178 -0.0608436 0.14932549 -0.08974742 0.07783003 -0.17276563
-0.16965953 0.1590642 -0.10518593 -0.02551014 0.10506956 -0.13006036 0.061621837 -0.019242955
0.012901071 -0.114812 0.005625451 0.04406251 0.082093894 0.011346051 0.18840459 0.12257019
0.083237275 0.12974744 0.08750702 -0.17248757 0.12828816 0.13339017 0.11379434 0.13907288
0.1396251 0.06971395 -0.008100822 -0.010889139 -0.06491435 -0.065063655 0.053959087 0.24859375
-0.055222765 0.074312724 0.019126428 0.14972809 0.13991877 0.04786984 0.094357975 -0.14799315
-0.11459634 0.10658208 0.034867745 0.1438042 0.15513226 0.07761073 0.27139992 -0.07026079
0.07006476 -0.14072636 0.047777258 0.029113177 -0.030761683 0.11878701 0.09279697 0.11491721

read_encoder.block3.1.weight f4 [128]
00000000: 02d7 533f be8e 7d3f f962 b63e b7e8 913f
00000010: e544 843f 0886 5a3f e580 b23e ded3 903f
00000020: b638 6d3f 48eb 9f3f fb08 583f 9f5c 193f
00000030: ab06 793f 0135 953f c887 923f 9f83 3b3f
00000040: 68df 883f 3f32 823f 266b 7b3f 18d8 933f
00000050: b247 023f afc1 743f 6967 573f b1f8 963f
00000060: 9bdc 523f 00df 893f b05d 853f 0ef0 8d3f
00000070: b13b 623f c8b6 6c3f 8c1c 683f 9b33 853f
00000080: d3ae 873f 9e63 9d3f b5b3 553f 565c 613f
00000090: 0851 2b3f f868 d63f 3d98 523f 7118 6f3f
000000a0: 1eea 8c3f 7c9f 1e3f eb31 613f 8d37 8f3f
000000b0: 7da4 a83f 509d 643f 1786 8e3f f990 963f
000000c0: eff0 883f e424 653f 6c7f 4e3f b2c8 8a3f
000000d0: dc19 843f e3c4 8a3f 1867 623f 8bc0 953f
000000e0: 2b93 813f 2a01 583f c034 9c3f 5384 5a3f
000000f0: cfc8 893f aec8 323f c944 d73f 6673 6e3f
00000100: 69c0 573f 55c1 8c3f 1c2a 813f 686f 603f
00000110: 7f79 643f b9da 583f 3a92 913f b8b4 503f
00000120: e2ff 7f3f f2ec 853f b6f1 5b3f 21b3 413f
00000130: 4c2e 473f 2d17 8e3f 04e9 683f 4d81 173f
00000140: a371 8a3f dea6 883f 8f8a 4c3f 2b60 533f
00000150: 5f29 8c3f 2e3f 9d3f 6521 983f e44b 523f
00000160: 8b77 683f 3640 aa3f dcdb 423f 15b3 9e3f
00000170: 7666 893f 9cd7 553f c19d 5d3f dfb5 723f
00000180: 7631 823f 533e 523f 5edb 1e3f 1b1b 943f
00000190: 78fd 863f 47c2 443f e697 973f 5600 643f
000001a0: 9f92 0a3f 637c 213f 35d0 643f 999a 713f
000001b0: 2a34 523f ee17 7d3f 3877 553f ff5b 703f
000001c0: 9118 323f 4248 553f bb4a ab3f 4f26 5f3f
000001d0: 8d15 8b3f d2c2 7e3f 58c2 643f 97c1 1a3f
000001e0: 7072 293f 4b31 843f f0b3 4d3f 7953 bd3e
000001f0: 974b 613f 446b 563f 6c21 753f 1dda 623f
0.8274995 0.9904593 0.35622385 1.1399144 1.0333525 0.85360765 0.34863964 1.1314657
0.9266466 1.2493677 0.84388703 0.59906954 0.972758 1.16568 1.1447687 0.7324771
1.0693178 1.0171584 0.9821037 1.1550322 0.5089065 0.9560804 0.84142166 1.1794645
0.8236787 1.0771179 1.0419216 1.1088884 0.8837233 0.924664 0.9066856 1.0406374
1.0600227 1.2296026 0.83477336 0.8803152 0.6692052 1.6750784 0.8226355 0.9339667
1.1008947 0.61962104 0.87966794 1.1188828 1.3175198 0.8930254 1.1134671 1.1762992
1.0698527 0.89509416 0.8066318 1.0842497 1.0320392 1.0841335 0.8843856 1.1699384
1.0123037 0.84376776 1.2203598 0.8535816 1.0764407 0.6983746 1.6817867 0.93144834
0.8427797 1.09965 1.0090976 0.8766999 0.8924789 0.84708744 1.137275 0.81525755
0.9999982 1.0462935 0.85915697 0.75663954 0.7780502 1.1100823 0.90980554 0.5918167
1.0815929 1.0675924 0.79898924 0.82568616 1.0950125 1.2284906 1.1885191 0.8214705
0.9080741 1.3300846 0.7611673 1.2398401 1.0734394 0.8353212 0.8656884 0.94808763
1.0171344 0.8212635 0.6205348 1.1570772 1.0546103 0.76858944 1.1843231 0.8906301
0.54129976 0.63080424 0.893802 0.9437652 0.82110846 0.9886464 0.8338504 0.93890375
0.69568735 0.8331338 1.3382181 0.8716783 1.0865952 0.9951602 0.89359045 0.60451645
0.6619024 1.0327543 0.8035269 0.36977747 0.88005966 0.83757424 0.9575412 0.88614064

read_encoder.block3.1.bias f4 [128]
00000000: a36e 00be cb3b 51be c73c 10bf f3e6 7dbe
00000010: fa5e 1bbe 1c36 0bbe e5bd 09bf c082 8fbd
00000020: 9c58 0cbd e22c 04be b3b6 0ebe 688b a6be
00000030: d0e8 47be 4939 d5bd 31db afbd 204d 06be
00000040: 8cd9 8abe 3f2e 21be a6c1 a3be 7f42 5abe
00000050: dcd8 9abe 2806 6cbe 1181 26be 5feb b0be
00000060: 55f0 02be b214 0cbf cd90 9cbe efaf b7bd
00000070: 2968 97bd 6e01 8ebd ffb3 95bd 9672 96bd
00000080: 22f8 cbbe ed9a 0ebe 5eed c8bd 8b01 54be
00000090: f168 99be 8aa1 63be 3772 18be 4723 95bd
000000a0: 50bf b1be 48bd 3bbf c191 f1bd ba88 c7bd
000000b0: 3c3f afbd ee88 f3bd 87d4 b1be bd3e b4bd
000000c0: 2d7d 8cbd 5e2d acbd 8091 8fbe ce9c a6bd
000000d0: 2277 7abe db9e 01be 3401 0bbe 1a9b 99bd
000000e0: 764a 00be 1ace 4ebe 739f a7bd 09b6 0ebf
000000f0: 9f0d 4dbd 17f3 7ebe 1d0c 8abe 0131 ccbd
00000100: 2981 f0bd 544a 8dbd 9151 9abe 1c33 20be
00000110: 4162 a0bd 49c8 92be de4a 06be 8f07 96be
00000120: 4f90 16be 9670 cbbd 4126 d3be a862 2abe
00000130: aa03 47be 4d86 debe f6fd 25be e89d a1be
00000140: e3cf e0bd e2b4 2fbe c683 62be e2c9 24be
00000150: 60dc b8bd a3ed d1bd 8f08 c1bd 770c 86bd
00000160: a68f 32bd e548 dabd 637f 27be 8df7 37be
00000170: e053 abbd 094b d6bd 79f5 13be 6c3b 4abe
00000180: 9936 bcbd 741f d5bd 26d8 79be 3dd9 c8bd
00000190: d76f 90be 9a37 08bf 70b0 05be c94b e2bd
000001a0: 545c fcbe 671e 91be 457e 9abd c862 8bbd
000001b0: f610 0ebe 3fc0 22be 9daa d3bd fd00 a3be
000001c0: 86a4 b8be 1048 4ebd b1ba 36be 996a 96bd
000001d0: cd81 9abd b6df a8bd 8a5a 47bd 7f8b abbd
000001e0: 93a6 47be e523 89be 5b54 fabd 0d02 01bf
000001f0: b7f9 65be c14b 95bd ae21 59bd 7218 f7bd
-0.12542205 -0.20432965 -0.5634274 -0.24795131 -0.1517295 -0.1359486 -0.5380538 -0.070073605
-0.034264192 -0.12907746 -0.13936882 -0.32528234 -0.19522405 -0.10411317 -0.08586729 -0.13115358
-0.271191 -0.15740298 -0.3198368 -0.21314429 -0.30243576 -0.23049223 -0.16260172 -0.34554574
-0.12786992 -0.5471908 -0.30579224 -0.089691035 -0.07392914 -0.069338664 -0.07309722 -0.07346074
-0.39837748 -0.13926287 -0.09810899 -0.20703714 -0.29962876 -0.22229591 -0.1488732 -0.07282119
-0.34716272 -0.73335695 -0.117953785 -0.097428754 -0.08556983 -0.11891352 -0.34732458 -0.08801029
-0.06859813 -0.084070906 -0.28040695 -0.08135377 -0.24459508 -0.12658255 -0.13574678 -0.075002864
-0.12528405 -0.20195809 -0.081847094 -0.55746514 -0.05006182 -0.24897419 -0.26962367 -0.09970284
-0.11743385 -0.068989426 -0.30140355 -0.15644497 -0.078312404 -0.2866843 -0.13114497 -0.29302642
-0.14703487 -0.099335834 -0.41240123 -0.16639197 -0.19434991 -0.43461838 -0.1621016 -0.31565785
-0.10977151 -0.17158845 -0.2212058 -0.16092637 -0.09026408 -0.10250404 -0.094254605 -0.06545346
-0.043594025 -0.10658435 -0.16357188 -0.17965527 -0.08365607 -0.104635306 -0.14449109 -0.1974923
-0.09190101 -0.1040639 -0.2439886 -0.0980706 -0.28210327 -0.5320984 -0.13055587 -0.11049611
-0.4928919 -0.28343508 -0.07543615 -0.068059504 -0.13873658 -0.15893649 -0.10335276 -0.31836691
-0.3606302 -0.050361693 -0.17844655 -0.07344551 -0.07544289 -0.082457945 -0.04867033 -0.08376216
-0.19497137 -0.26785198 -0.12223121 -0.50393754 -0.2245854 -0.072898395 -0.053010635 -0.120652094

bag_predictor.weight f4 [1, 128]
00000000: d19c 4abd 4457 2cbd cc09 4c3b 69d1 283d
00000010: 0400 963e ea15 64bd 1cea f9bc 0acb 04be
00000020: 03fd 3fbd e180 33be 1086 38bd b590 6cbc
00000030: 4f97 003e f51a 3dbe 90a4 c8bd 0e73 5cbd
00000040: 87c0 083e 5b6e 08bd 8ec2 cd3d f472 793e
00000050: 8ebd 9d3b 257c ab3d d3be 26bd 71bf 0a3e
00000060: c12a 54bd 4a7e 583d a109 383d 8c1e b1bd
00000070: 6857 67bd b283 68bd ee01 5abd 1ebb a7bd
00000080: e7c6 3e3e 6c9a 0c3e 4b31 3fbd 5260 46bd
00000090: f999 aebc 7595 22be 2eb4 51bd df2f 4bbd
000000a0: b4ca e03d 671b 6b3d 504f 30bd 9d2e 94bd
000000b0: 3b13 f43d 31f5 58bd 90f7 5d3e 59a0 1dbe
000000c0: 73d2 a2bd 0572 87bd 5e40 103d f903 95bd
000000d0: c78b 5b3e 6e44 52be 2145 4dbd 6ce9 f4bd
000000e0: 3aeb f73d 3984 1cbd 1e05 2ebe d3de 443e
000000f0: 5ea8 90bd e034 61bd 85ec 97be 9cf0 21bd
00000100: 23e7 27bd 3c9f f8bd 2465 be3d 0b39 40bd
00000110: 22d4 27bd 19d6 20bd b913 71be d93f 213d
00000120: b5ca 4c3e ff40 27be fae8 e83c 0ccc 24bd
00000130: 5322 34bd 8037 a3bd a6fe 2cbd a1af f8bb
00000140: ef9b 01be 7d7f 1e3e a6b7 32bd f2a4 28bd
00000150: 5acc 9abd 2110 24be 3722 0cbe e60e 41bd
00000160: ddd5 2fbd 7405 1bbe 4b71 3abd 25d6 943e
00000170: 0f1d aebd c929 32bd f662 35bd a719 41bd
00000180: acad a2bd a5aa 47bd a288 4c3a c4f2 41be
00000190: b0b6 c53d ee6d 0a3b 6572 45be 7b93 4ebd
000001a0: 2518 6b3c 2cb8 14bd 7f66 29bd bc0c 65bd
000001b0: 113f 55bd fa22 87bd c8e2 3bbd 2d46 1c3e
000001c0: 351d 083d d11c 33bd ccf1 16be 273f 87bd
000001d0: e79a e3bd aadd aebd e307 80bd 640d 39bd
000001e0: a6bc 09bd 6915 403e c936 bbbd 3c77 8d3c
000001f0: 058e 4ebd 5976 32bd a6ec 34bd c8cf 64bd
-0.049465958 -0.04207541 0.003113377 0.041215334 0.29296887 -0.05568496 -0.03050714 -0.12968078
-0.04687215 -0.17529632 -0.045049727 -0.014438798 0.1255772 -0.18467315 -0.09797013 -0.053820662
0.13354693 -0.03330837 0.10046874 0.24360257 0.0048138564 0.08373288 -0.040709328 0.13549592
-0.051798586 0.052854814 0.044931058 -0.086484045 -0.05647984 -0.05676622 -0.053224497 -0.08189987
0.18630563 0.13730782 -0.04667787 -0.048431702 -0.021313654 -0.15877326 -0.051197223 -0.0496062
0.109761626 0.05739918 -0.04304439 -0.07235453 0.119177304 -0.052968208 0.21676469 -0.15393199
-0.07950296 -0.066135444 0.035217635 -0.07276148 0.2144004 -0.20533916 -0.050114755 -0.11958584
0.12105413 -0.038212035 -0.1699414 0.19225626 -0.070633635 -0.054982066 -0.29672638 -0.039536104
-0.040991914 -0.121397465 0.09296635 -0.0469294 -0.04097379 -0.03926668 -0.2354268 0.03936753
0.19999202 -0.16333388 0.028431404 -0.040233657 -0.043978047 -0.0796957 -0.04223504 -0.007589296
-0.1265714 0.1547832 -0.043632172 -0.04117293 -0.07558508 -0.16021778 -0.13684927 -0.04713335
-0.042928565 -0.15138799 -0.0455182 0.2906963 -0.08501636 -0.04349688 -0.04428383 -0.047143605
-0.079432815 -0.048746724 0.00078023423 -0.18940264 0.096539855 0.0021122652 -0.1928192 -0.050433617
0.014349018 -0.036308452 -0.041357514 -0.055920348 -0.052062098 -0.06598468 -0.045870572 0.15261145
0.03323098 -0.043728653 -0.14740676 -0.06603842 -0.1111353 -0.08538373 -0.06251504 -0.045178786
-0.033627175 0.18758167 -0.09141309 0.01726877 -0.05042841 -0.043569896 -0.044170998 -0.05586222
