m6aReplica/2d_66/Models/epoch2_rocauc0.844_valpr0.200_valscore1.043.pth (torch, 150665 bytes, 13 tensors)

read_encoder.block1.0.weight f4 [128, 15]
00000000: 9855 003e a4a3 733e f021 d7bd d6ef 853e
00000010: a87b 193e 1f91 cd3c 10ef 27be 590d 5e3e
00000020: 9c4d 603e 8a0d 35be bd58 773e 9b77 433d
00000030: 1892 493e 84dc 933d 581d ad3d 272d 8dbd
00000040: 23fe 563e d4fc c73c b797 2abd f1db dd3d
00000050: 6e6d 05be a326 99bc c914 9abd 63c6 273e
00000060: a453 04be c749 13be b135 a6bd 90de 03be
00000070: 521c 7d3d ab0f cfbe c23d 543e 99ee 8bbe
00000080: 142e 313e b617 86bd 48ac babe 5346 d83d
00000090: fbde bc3b bb78 c13d 936c 24bd f5ed e9bd
000000a0: efd4 013e a47c 44bd 97c0 bd3d 340a 3a3e
000000b0: 22d3 c73d 8dda a5bd d839 113e 669f 943d
000000c0: 8794 aa3d f430 acbe 900c 7dbe 870e aebd
000000d0: 1ef3 8fbe 5685 5f3e b42c 9b3d 20f2 063e
000000e0: 2462 db3d b160 dcbc 6df0 2f3e 71f8 4bbe
000000f0: 8808 c8bc 81be 12be 4454 d63d e7dc 08be
00000100: ae41 03be a0dd 87bd 1335 813e 9643 62be
00000110: e745 32be 4b53 20be 5656 b23e 7de0 043e
00000120: deaa 933e e091 3cbe 8898 79be 421a 1fbe
00000130: 5090 27be 3fcd 093e d391 893d dcbf 0c3e
00000140: 8ca3 ebbd 1063 28be ed05 fa3d 8004 b3bd
00000150: 1988 ff3d f484 78bd 7e1d 5d3d 942e 80be
00000160: 790f d1bd 66f4 863d acc8 e33d da32 afbc
00000170: 2685 583e 185e 0c3e 4809 83be 8fbe afbd
00000180: abd0 8d3e 885a 7ebd 8706 a2bd 8145 54be
00000190: 2d6a 0abe 3989 473d 025d 57bd 0d72 43be
000001a0: 923e 773d 0ddd 22be 1936 bbbe a449 1dbe
000001b0: c57b 21be 9a24 4f3d 6876 943e ba09 793d
000001c0: 47ee 283e ae2f 4fbe df13 2fbd 42c0 a9bd
000001d0: 7c28 bb39 6a8a 8fbe fd08 85be 0fac 65be
000001e0: 9ce6 8b3c b030 c3bd 2a78 48bb 93d0 2dbe
000001f0: a513 6cbe 8c6f 13be 6fa0 a0bd 5c50 5ebe
00000200: 5f0e 673e 7ced 57bd 3633 2e3e cf0f 813d
00000210: fc80 5dbe 4d93 2b3e 4a91 85bd d8fb bc3b
00000220: 1eb8 1fbe 6d59 22be e737 a03d 7c1c 3abe
00000230: 4dd1 313e 1cb9 1fbe 61a8 493e 412e 0cbe
00000240: ca2f adbd 4f13 183e 73ab 6b3d 9004 7f3e
00000250: 727e 6b3e 7497 11be cf7f d83d 2346 26be
00000260: 144b f0bc 8ade 07be aaff dc3e 6977 1bbe
00000270: 2c9d 283e 0f12 9c3d 6df9 3f3e 8c8b c6bd
00000280: 67ea 313e 663d e8bd 6a6d e8bc 2f6f d2be
00000290: f8cd 2d3e 89b7 34bd 775f fcbd f38a 483e
000002a0: c696 053e 0a1b 15be 46a9 22be 50dc 87bc
000002b0: 4e8d 323e 4cd0 b1bd 12be 08be 6389 03be
000002c0: 6be8 64be ed67 ea3d 01be 723e 4b2d aabe
000002d0: b4f0 563d 5a0a e93d 0f83 1b3d 12f0 06be
000002e0: 8780 5e3d 476f f53d 5de2 a53d cc4f b2bd
000002f0: 456d b4bd 5495 9d3a f37b 5cbd 819e 86bd
00000300: feea 063e 0b61 3a3e ef67 1dbd 6bac 87bd
00000310: e407 95bd b0f4 cebc 9c55 063e 68bc 0b3e
00000320: fcc6 79be 2224 99bd e52c 463e 5238 1f3e
00000330: 731b 653a eea3 41be 1a61 06be d8a9 9abe
00000340: 4403 78be 3acb 3a3e ad08 1a3e a44d fb3d
00000350: 97b0 6dbe f50f 8bbd d977 293e 1cff 883e
00000360: 9940 383d c9d3 3b3c baa1 0a3e 4a7e 9fbd
00000370: 6fcd 1bbe f280 2e3e 4d3e ddbd 2112 c4bd
00000380: 2480 a2be 5e0d 493e cccd 663e 44d6 e53d
00000390: 30b0 44be a84f d2be 3d0c 5cbe 5f8c 4a3e
000003a0: cd7a 113d 8252 603e ceed 5e3d 110d 233e
000003b0: 2e00 7c3d 185d 38be aa9d 4cbe da55 a4be
000003c0: 2953 253e 6f09 42be ccad 013d 74c0 56be
000003d0: b040 a5be a31d 08be 9acf ebbd d206 2f3d
000003e0: e627 d5bc 1535 773e ef6e 623d 6c86 60be
000003f0: 477c 0bbc 4d86 39bd 7f95 c0bd 39c0 59be
0.12532651 0.23792893 -0.1050452 0.26159543 0.14988577 0.025093613 -0.16399789 0.21684779
0.21904606 -0.17680946 0.24154945 0.047721487 0.19684637 0.072197944 0.084528625 -0.06893378
0.20995383 0.02441255 -0.041648593 0.10832966 -0.13030025 -0.018695181 -0.07523496 0.16384272
-0.12922531 -0.14383613 -0.081157096 -0.1287787 0.061794586 -0.4044164 0.20726684 -0.27330473
0.17302734 -0.06547491 -0.36459565 0.10560288 0.005763886 0.09446856 -0.040142607 -0.1142234
0.12678884 -0.04797043 0.09265249 0.18167955 0.09757067 -0.08098326 0.14182222 0.07256965
0.083291106 -0.33631098 -0.24711823 -0.084988646 -0.2811517 0.21828207 0.07576886 0.13178301
0.10712078 -0.026901575 0.17181559 -0.19918992 -0.02441813 -0.14330484 0.10465291 -0.13365518
-0.12818024 -0.066340685 0.25235805 -0.22096094 -0.17409478 -0.15656774 0.34831494 0.1297626
0.288413 -0.18415022 -0.24374592 -0.1553736 -0.16363645 0.13457201 0.06717267 0.13745064
-0.115058035 -0.1644404 0.122081615 -0.08741093 0.124771304 -0.06067367 0.053983204 -0.25035536
-0.10208029 0.06589584 0.111222595 -0.021386553 0.21144542 0.13707769 -0.2559302 -0.08581268
0.27698264 -0.062098056 -0.07911401 -0.20729639 -0.13517065 0.04871485 -0.052578934 -0.19086476
0.060362406 -0.15904637 -0.3656471 -0.15360123 -0.1576987 0.050572015 0.28996587 0.06080029
0.16497146 -0.20233032 -0.04274356 -0.082886234 0.00035697583 -0.2803529 -0.2598342 -0.22428916
0.017077737 -0.09530771 -0.0030589201 -0.16974096 -0.23054369 -0.1439802 -0.078431 -0.21710342
0.22564076 -0.052716717 0.17011723 0.063018434 -0.21631235 0.1675541 -0.06521852 0.005767327
-0.15597579 -0.15854426 0.078231625 -0.18174928 0.17364998 -0.15597957 0.19693138 -0.1368952
-0.08456381 0.14851116 0.057536554 0.24904084 0.22997454 -0.14217931 0.105712526 -0.16237693
-0.029332675 -0.13268486 0.43163806 -0.1518227 0.16466206 0.07620632 0.18747492 -0.09694585
0.17374574 -0.11339836 -0.028372485 -0.4110045 0.16973102 -0.044120345 -0.12322896 0.19584255
0.13045797 -0.14561096 -0.15884885 -0.016584545 0.17436716 -0.086823076 -0.13353756 -0.12845378
-0.22354285 0.114456035 0.23705293 -0.3323768 0.052475646 0.113789275 0.037966784 -0.13177517
0.054321792 0.11984115 0.08099816 -0.08706626 -0.08809904 0.0012022653 -0.053829145 -0.06573201
0.1317558 0.18201081 -0.038429197 -0.06624683 -0.07276896 -0.02526316 0.13118595 0.1364609
-0.24392313 -0.07477595 0.19353063 0.15548828 0.0008739747 -0.1891019 -0.13122979 -0.30207705
-0.24219996 0.18241587 0.15042372 0.12270668 -0.23211895 -0.06790153 0.16549625 0.26757133
0.04498348 0.011464068 0.13538256 -0.077877596 -0.15215085 0.17041376 -0.108028986 -0.0957377
-0.3173839 0.19634005 0.22539443 0.112225085 -0.19207835 -0.41076398 -0.21489044 0.1978011
0.035517503 0.21906474 0.054426007 0.15922953 0.06152361 -0.18004262 -0.19982019 -0.3209675
0.16145004 -0.18948911 0.031659886 -0.20971853 -0.32275915 -0.13292556 -0.11514206 0.042731114
-0.026020002 0.24141343 0.055281576 -0.21926278 -0.008513517 -0.045294095 -0.09403514 -0.21264733

read_encoder.block1.0.bias f4 [128]
00000000: efc6 49be d4bc 56be c731 b8bd 3ca5 1fbd
00000010: 32ea 313e f299 123c 2d67 063e 7614 afbd
00000020: c431 673e 98b1 963e 7a6a 3ebe 71a1 b6bd
00000030: 2bef 6cbe 65c6 0c3e e4e2 60be fa4d d5bd
00000040: 977f a23e 7abc 7dbe 6a88 343e 6ecf 873d
00000050: 8ceb 533e ba24 10be e513 8c3e ac17 dc3c
00000060: 1eaf 1c3e ab5a 143e 0c28 7dbe 4d97 26be
00000070: 1362 8f3e 6dcf 21be ade9 15be dffa d0bc
00000080: ea1f 2bbd fb30 7ebd af42 37be 72e7 063d
00000090: 7ebd 78be bb34 8a3c 6f19 463e 63a4 243d
000000a0: 908e bc3d 0075 f93d 845d 4fbd 35d5 b5bd
000000b0: 277a 33bd de54 3cbe 9c2b 0fbe 8779 893e
000000c0: 8c75 07bd e87c 923d ad26 7e3e 3bbf 143d
000000d0: 4932 1bbd 773e 2dbe 7eeb 96bd b0e0 ef3d
000000e0: 09a0 3fbe a0f4 cebc 525e ae3d f37f 573e
000000f0: 3980 4c3d 6f5b c93d e9df 923e 272d 133e
00000100: bd40 5f3d 54cb cabd 6a74 45be 8b31 3ebd
00000110: f52f cd3c 9024 053e 95be 1d3d 5258 7c3d
00000120: 49dd 3c3e 8cf5 ebbd 7774 8abe 1e3b d0bd
00000130: 9d8c 03be 373c 073e 42fd 67be e8d7 b33c
00000140: 9bf3 81bc b97d 19bd 64dd b23d eb04 a5bd
00000150: 8c2f a0bb dc0b 03be 711d 93bd 1f2c 263d
00000160: 95eb 643d 68f9 c5bd c085 513d cb6e 0b3d
00000170: 08f0 0cbe 194e 30be 3de4 8dbd fadc 9abe
00000180: 8c78 733e 7b01 cdbd 5d8a d6bd 1054 943c
00000190: b081 b13d b454 8cbd ed4c 713e d3b7 23be
000001a0: 621d cf3d 4695 b23c e12e 1abe ee35 f9bd
000001b0: 8cb1 173d a7a4 5b3d a2c5 503e 11df 2f3e
000001c0: 6057 20be 4b5c b2bd c4b7 9dbc 64a7 bdbd
000001d0: 69c4 c9bd 4d40 e2bd ca15 473e a5f4 0f3e
000001e0: e3a7 3fbc 0b76 14be 532e 3abe 9ec1 0cbe
000001f0: a93f c23c c900 013c 4fbd 9e3d 86d2 ae3e
-0.19704793 -0.2097047 -0.08993869 -0.03897594 0.17374495 0.008947836 0.13125296 -0.085488245
0.22577578 0.29432368 -0.18595305 -0.08917511 -0.2313811 0.13747557 -0.21961552 -0.104152635
0.31737968 -0.2477893 0.17630163 0.06631361 0.20695323 -0.1407651 0.27358928 0.026866756
0.15301177 0.14487712 -0.24722308 -0.16268654 0.28004512 -0.15801783 -0.14639921 -0.02551025
-0.041778482 -0.06205843 -0.17896532 0.032935567 -0.24291036 0.016870847 0.1934564 0.040195834
0.09206879 0.12180519 -0.050626293 -0.08878557 -0.043817665 -0.1839175 -0.1398148 0.2685053
-0.033071086 0.0715273 0.24819441 0.036315184 -0.037889753 -0.1691836 -0.07369135 0.117127776
-0.18713392 -0.02526313 0.08514084 0.21044903 0.04992697 0.09831893 0.28686455 0.14372693
0.0545051 -0.09902063 -0.1928269 -0.046433967 0.025047282 0.13002229 0.03851183 0.061607666
0.18443789 -0.11521444 -0.2704198 -0.10167526 -0.12846608 0.13206564 -0.22655204 0.021953538
-0.01586323 -0.037473414 0.08733633 -0.08057579 -0.0048884805 -0.12797493 -0.0718335 0.04056942
0.05588873 -0.09666711 0.051152945 0.034041207 -0.1376344 -0.17217292 -0.069282986 -0.30246717
0.23776454 -0.10010048 -0.104756095 0.01810649 0.08667314 -0.06852093 0.23564501 -0.15988092
0.10113026 0.021799695 -0.15056945 -0.121684894 0.037034556 0.05362382 0.20387891 0.17174937
-0.15658331 -0.0870901 -0.019252665 -0.09260443 -0.098519154 -0.11047421 0.19441906 0.14058168
-0.011697742 -0.14498155 -0.18181734 -0.13745734 0.023711996 0.007873722 0.077509515 0.34144992

read_encoder.block1.1.weight f4 [128]
00000000: 0180 7f3f 0f4f 803f b77f 743f 07e7 843f
00000010: ccbe 8e3f 924f 813f 4989 7b3f 4781 8f3f
00000020: 161c 7e3f 0d29 853f d31a 933f b8c8 813f
00000030: bed9 7a3f d9a9 983f 6882 853f 4de7 833f
00000040: d105 893f fed9 943f 9b32 733f 3bef 8b3f
00000050: e529 803f 3c4e 7b3f bc9b 883f 3111 793f
00000060: f84c 843f 9fa0 783f c4d4 833f d323 983f
00000070: 09ad 973f 9eed 7d3f c8eb 923f a9b3 823f
00000080: 8936 9e3f 5be3 783f 9c80 833f 8f6d 713f
00000090: a0e6 7f3f 1d51 833f 80d6 963f 141a 803f
000000a0: b54d 923f 5ea6 823f ec14 8a3f 76e6 783f
000000b0: a01c 8e3f aa94 7d3f 1f4a 773f 62f7 893f
000000c0: 0d60 823f 33df 823f 7984 813f ee9e 863f
000000d0: fe7b 813f f95d 933f 7277 823f 1d28 883f
000000e0: ac15 993f d280 873f 195e 7e3f f50c 7b3f
000000f0: c9b0 753f 1a38 953f 3d48 8d3f c455 933f
00000100: 72e6 7e3f 2bec 7b3f 14c5 863f 8598 803f
00000110: b65c 923f 271b 7f3f d654 863f 65ed 743f
00000120: b7d7 753f a610 7c3f 0379 783f 975c 883f
00000130: 9e34 7d3f 61b4 7d3f d9ec 783f ad50 863f
00000140: 60c1 913f acfa 773f 847b 843f a8bc 843f
00000150: 0446 803f ce78 7e3f d81f 753f f3ad ab3f
00000160: c7e2 833f ebeb 843f 6cde 7d3f e5be 843f
00000170: 8ad9 773f c05a 813f ef19 823f 0a34 723f
00000180: c346 9f3f 5d5f 983f e381 803f d529 813f
00000190: 8366 813f 0ffa 743f 490a 823f b937 823f
000001a0: 8d1b 823f 37cc 7f3f bae6 923f 15c3 8a3f
000001b0: a3f1 753f aa42 8c3f 45a4 873f 5ac4 7e3f
000001c0: 37e1 803f e26d 853f ca86 903f 0f87 7a3f
000001d0: 4670 833f 5b30 863f ce8e 883f ea1c 753f
000001e0: 8d73 743f 7a21 863f 26c8 8a3f 8641 763f
000001f0: 23b1 723f 0e97 8b3f 9ecd 903f 96f0 823f
0.99804693 1.0024127 0.9550738 1.0383004 1.1151977 1.0102408 0.98256356 1.1211327
0.99261606 1.0403153 1.1492561 1.013938 0.979885 1.1926833 1.0430422 1.0304962
1.07049 1.1629026 0.9499909 1.0932382 1.0012785 0.9816625 1.0672526 0.97291857
1.0335989 0.9712009 1.0299306 1.1885933 1.1849681 0.991907 1.1478205 1.0211078
1.2360393 0.97221917 1.0273623 0.943078 0.9996128 1.0259129 1.178421 1.0007958
1.1429964 1.0207021 1.0787635 0.97226655 1.1102486 0.9905497 0.96597475 1.077862
1.0185562 1.0224365 1.0118552 1.0517251 1.0115964 1.1513053 1.0192702 1.0637242
1.1959739 1.0586188 0.9936233 0.98066646 0.9597288 1.1657746 1.103767 1.1510549
0.9957038 0.9840724 1.0528893 1.0046545 1.1434543 0.99650806 1.049464 0.95674735
0.9603228 0.98462903 0.9705965 1.0653256 0.9890841 0.9910336 0.972364 1.049337
1.1387138 0.9686687 1.0350194 1.0370073 1.0021367 0.99403083 0.95751715 1.341246
1.0303582 1.0384496 0.99167514 1.0370756 0.96816313 1.010582 1.0164164 0.94610655
1.244347 1.1904103 1.0039638 1.0090891 1.0109409 0.9569406 1.0159389 1.0173255
1.0164658 0.9992098 1.1476662 1.0840784 0.96071833 1.0957844 1.0597006 0.9951836
1.006873 1.0424159 1.1291134 0.97862333 1.0268638 1.0483507 1.066858 0.95747244
0.95488816 1.0478966 1.084233 0.9619373 0.9480154 1.0905473 1.1312749 1.0229671

read_encoder.block1.1.bias f4 [128]
00000000: 3dae 08bd 8dfc fcbc 64a1 6cbd 9ca9 0a3c
00000010: d028 90ba cae6 29bc 6750 443c bbb5 4e3c
00000020: d105 11bc 2a5c 0cbd f5ba 7b3c 5814 1fbd
00000030: 54d8 84bc a0f8 553c 6c82 953c b5be 00bd
00000040: 8b52 f23b f4e4 8bbb ebcd 5dbd 31a8 c93c
00000050: af81 b6bc a2f1 9dbc 5cff 50bd e368 a2bc
00000060: f1fc 733c 52cc f5bc c6f0 b8bc 61d9 d53c
00000070: 67ee 24bc 90df 573a bfa0 983c 71ca 45bb
00000080: 8e74 033c 8ae0 11bd 16f3 8ebc 5887 2bbd
00000090: dd1a 5abc c9bb 0dbd d73b 713b 4d7a 3fbb
000000a0: 7326 983c fdd3 97bd 6c05 9dbc 14be 11bd
000000b0: 5582 353c 068a c1bc 584c bebc 03c6 0b3b
000000c0: 58a8 a5bb 5872 28ba 07be 59bd 11c9 263d
000000d0: de0e 98bc d7d9 b63b 2e51 22bb c7d0 1b3b
000000e0: 58f0 babb 0a64 47bb fae0 00bc 6a90 6ebc
000000f0: b237 cbbc 9271 603c f56f 953d 3a36 3e3b
00000100: e0b0 09bd d58a 34bc d21e 66bc 9374 0cbb
00000110: 4cfd 123d bf6a ef3c 32a9 e83c 4dda 41bd
00000120: 782a 66bc 2d60 2bbc 730e c0bc 4d7f 1fbd
00000130: 659a 9dbc 6f94 dabb e0cb 27bd 33ca 2bbc
00000140: efd8 0f3c 48a6 7b3c 4edf c1bc 16d0 093c
00000150: 031f f73b f240 163c 4df2 f2bc f1dd 183b
00000160: 2b86 ffbc d6af f1bb 2722 94bc 9859 1abd
00000170: 0658 9abc 100b f2bb ef9e 80bc 1ea6 64bd
00000180: 8026 c73c e0e8 9e3c 728d 60bc b4c9 dabb
00000190: a477 34bc 466f 23bd a5b4 e9bc 0392 74bc
000001a0: b4d7 41bc cc65 d6bb 81cd 1e3d 53f9 b7bb
000001b0: ff89 50bd 0af3 353c b970 30bd 04c7 c3bc
000001c0: 2ac5 e7bc 8349 85bc 4cbe 093c a84d e03c
000001d0: 0a47 1ebc 209b 6f3d f64f 0d3c df86 52bd
000001e0: 58ad 8bbd 8c92 9dbd e595 7fbb 94b1 2ebd
000001f0: 88bf 3ebd 59b1 edbb 9e09 3c3c c2dd 25ba
-0.03336929 -0.030882144 -0.0577711 0.00846329 -0.0010998491 -0.010369966 0.01198206 0.01261657
-0.008851484 -0.034267582 0.015364398 -0.03883776 -0.016216435 0.013059765 0.018250667 -0.031431872
0.007395094 -0.0042692367 -0.054151457 0.024616333 -0.022278635 -0.019280259 -0.05102478 -0.019825405
0.014891849 -0.030004654 -0.022575747 0.02610463 -0.010066605 0.00082349125 0.018631337 -0.003018048
0.008023394 -0.035614528 -0.017449897 -0.04187712 -0.013312069 -0.034602914 0.003680935 -0.0029217184
0.018573022 -0.074134804 -0.019167624 -0.035581663 0.011078437 -0.023625385 -0.023229763 0.002132774
-0.0050554685 -0.000642573 -0.05315974 0.040719096 -0.018561777 0.0055801678 -0.0024767625 0.0023775564
-0.0057049207 -0.0030424618 -0.007866139 -0.014560798 -0.024806831 0.013698952 0.07296745 0.002902402
-0.033615947 -0.011019428 -0.014045434 -0.0021431788 0.035886094 0.029225705 0.028400991 -0.04732733
-0.014048211 -0.010459942 -0.02344439 -0.038939763 -0.01923866 -0.0066705267 -0.040965915 -0.01048522
0.008779748 0.015359469 -0.02366605 0.008411428 0.0075415387 0.009170758 -0.029656554 0.0023325647
-0.031191906 -0.0073756976 -0.018082691 -0.0376831 -0.018840801 -0.0073865727 -0.015700785 -0.055822484
0.02431035 0.019398153 -0.013705598 -0.006676877 -0.011014853 -0.03990104 -0.02852852 -0.01492739
-0.011831213 -0.006542897 0.038770203 -0.0056144386 -0.050912853 0.011105308 -0.04307625 -0.023898609
-0.028292257 -0.016270405 0.008407187 0.02738078 -0.009660492 0.058497548 0.008625021 -0.051398154
-0.06820172 -0.07693967 -0.0038999256 -0.04264982 -0.046569377 -0.0072538075 0.011476902 -0.0006327295

read_encoder.block2.0.weight f4 [128, 128]
00000000: 1d8c 683d 2df6 133d 96b4 4abc 0472 353d
00000010: a0fe 9c3d 141c 84bd 0d42 a6bd 2550 523d
00000020: 93bf 5c3d b47b 023d c672 85bd a9fe a6bd
00000030: a3e2 043c 7fc5 12bd b900 0c3d 53fb fcba
00000040: 8c84 2a3d c487 c13d 1725 903d e5c4 99bd
00000050: fc83 873d e672 aa3c bcc0 5ebd 0b94 083d
00000060: e767 a9bd 97cc b13d 9025 553c d2e6 72bd
00000070: bfdb 6d3d b9c6 ec3b da93 8ebc 102c a33d
00000080: d248 e1bd fa67 963d 4af5 8dbd 2ae0 32bc
00000090: 0678 f43c d235 a93d be7d 54bd 43db 70bd
000000a0: 1dcd 823c be99 41bd 84e7 763c 8694 cd3b
000000b0: c388 123d 04a7 ac3d 85bd a9bc c25d d53c
000000c0: a30b 933d 32e7 94bb 7ea0 cdbc e7ca 2dbd
000000d0: b844 513d 14d3 08bd 5737 3f3d 9ed6 77bc
000000e0: 2b14 7abd aa1f e93d 7889 8f3a 5299 dc3d
000000f0: 5d65 b0bc 471e ccbd d83b 5e3d bc4e 5b3d
00000100: 4e48 7ebc d3e8 0a3d 0b36 7f3d b380 903d
00000110: 1ed7 123d d77e 313d 6f22 abbc c5ec 193d
00000120: 263b 8b3c 967c 843c 2817 a03d 99e6 1f3d
00000130: 10d3 6a3c 9f25 f53b b533 bb3d cd63 6abd
00000140: 00f0 823d f385 4c3d 588e 353d 6901 da3c
00000150: 8f61 40bd c55a ae3d b869 03bd 3e12 0cbd
00000160: fb7a 2d3d 8892 cbbd bb4c b63b 48be 13bd
00000170: be0d 493d 00f3 96bd 71a9 103d e354 5e3d
00000180: 7f55 993d 071c e33c 0885 753c a32c b0bd
00000190: 66b9 513d f867 843c e546 d4bb d55e 8cbd
000001a0: 46f4 5bbc 7ad9 70bc 214c a23d 5a31 5f3d
000001b0: 5486 b63d 933d ab3d b174 d1bc be13 bdbc
000001c0: 7f31 3cbd 1798 1dbd e58c ad3d 59bd 873c
000001d0: ce14 de3d 16da 1ebd 1ba5 8fbd bece 9dbc
000001e0: 89d0 913d eedd 113d 96d4 783d 1e39 12bc
000001f0: 9642 8cbd bf47 7cbd 0796 f23c d45e 6bbd
00000200: f11a e73c c9ee e13c 2144 f4bc 1fde 593d
00000210: 3097 26bd 1223 55bc e04b 20bd c0e4 60bd
00000220: f5d2 2bbc 97b4 f43c 0c88 adbd 86b7 863d
00000230: f71a 8bbd bc7b 88bc 4e6d 2bbd cf43 1cbd
00000240: f5d0 3dbc f874 0abd 8418 2e3d 1910 993d
00000250: b3b2 1fbc 0cd5 da3b 5149 a13c 268f 993d
00000260: f2c7 193d 50f6 21bd 568e a9bd 5fa2 9e3b
00000270: 7182 a3bc cb09 923d 8d15 0ebd 70c6 893d
00000280: 6b58 1d3d e244 4ebb 1eb6 1bbd cadf aa3c
00000290: 4716 8fbc 3256 9e3d 3954 59bd 9615 5c3d
000002a0: 1218 40bd 5a18 b3bd 5767 433d c9b8 153d
000002b0: 5e50 693b 6941 d63c ed37 443c 2786 16bd
000002c0: bc10 80bc 43e9 58bc 2974 2abc aa68 9a3d
000002d0: 0643 833d 9132 83bd fac1 fbbb 2d26 09bd
000002e0: 1a14 9abb 0dce 9ebd 7fec 903c 3996 96bd
000002f0: e429 b33d 0404 c53d 083b 31bc a6e4 8abd
00000300: a665 71bc da53 8dbc 2fdd 14bc 28ed a7bd
00000310: 2a93 8fb9 0e5f 9abd be37 08bd 7e16 2dbd
00000320: 9748 c23c e69d d5bb 6bf6 afbd aead 46bd
00000330: 96a9 41bd 2121 93bd 811a 973b 891a 973c
00000340: 7b8f 0ebc 9e76 0abd 6a86 debc af78 94bd
00000350: 3130 41bd 8275 5cbd 2e55 b63d 2d63 f2bc
00000360: b819 1f3d b1a4 0ebd 82d4 97bc 5de4 d7bd
00000370: fcb1 953d 1280 a53d 5aaa 77bc 8555 3b3d
00000380: 2c21 b03d ce3e 823d 4927 253d 47b4 a3bd
00000390: cb89 acbd cddd 75bd 74a2 173d c2c4 50bd
000003a0: fe24 82bd 4866 7ebd cf5e 78bd 7c03 063c
000003b0: 3f78 933c ccd7 0e3c 8316 7e3d 30da 51bc
000003c0: b7b0 9f3c 2e2a 8b3d 2109 073c 16c1 cbbb
000003d0: 61c4 95bd da51 54bd 11b9 bb3b e64a 6e3d
000003e0: ea9a 373d 8882 05bd efc7 c0bd 6be7 97bd
000003f0: 0636 b1bc 1391 323d 2efc 28bd b509 86bd
0.056774247 0.036123443 -0.012372157 0.044298187 0.07665753 -0.06450668 -0.08118067 0.051345963
0.053893637 0.031856254 -0.06516032 -0.08154041 0.008110675 -0.03583288 0.034180377 -0.0019300975
0.041630313 0.09449723 0.07038324 -0.07508258 0.06616971 0.020806741 -0.054383025 0.03334431
-0.08271771 0.086816005 0.013009444 -0.05930216 0.058070894 0.007225838 -0.017404485 0.07967389
-0.110002175 0.07344051 -0.06931551 -0.010917703 0.029842388 0.082622185 -0.05187773 -0.058802854
0.015966946 -0.04726576 0.015069846 0.006273809 0.035774957 0.08430293 -0.020720253 0.026045684
0.07179954 -0.004544162 -0.025100943 -0.04242983 0.051090926 -0.033404425 0.046683636 -0.015126852
-0.06105439 0.113829926 0.0010951003 0.10771431 -0.021532709 -0.099667124 0.05425629 0.053541884
-0.0155201685 0.033913445 0.0623074 0.070557974 0.035849683 0.043333855 -0.020890443 0.037579317
0.016995978 0.016172688 0.07816917 0.039038274 0.014332548 0.0074812914 0.09140722 -0.057224084
0.063934326 0.04993243 0.044325203 0.026612 -0.04696804 0.08513407 -0.032083243 -0.034197085
0.04235361 -0.09940058 0.005563346 -0.03607014 0.04908537 -0.07370567 0.035317842 0.054280173
0.0748701 0.027723325 0.01498533 -0.08602264 0.0512022 0.016162857 -0.006478178 -0.06854025
-0.013424939 -0.014700288 0.07924677 0.054490425 0.0891234 0.08361354 -0.025568338 -0.023080703
-0.04594564 -0.038475122 0.08474139 0.01656978 0.10843812 -0.0387822 -0.07013913 -0.019263621
0.07119853 0.03561204 0.060749613 -0.008924751 -0.06848638 -0.06159186 0.029612554 -0.057463482
0.028211089 0.027579682 -0.029817643 0.053190347 -0.040671527 -0.01300885 -0.03913486 -0.054905653
-0.010487308 0.029871268 -0.084732145 0.06577973 -0.067922525 -0.016660564 -0.041852288 -0.038150605
-0.011585464 -0.033802956 0.04250385 0.074737735 -0.009747195 0.006678229 0.01968828 0.074980065
0.0375442 -0.039541543 -0.082791016 0.0048411335 -0.01995966 0.07130774 -0.03468852 0.06727302
0.0384144 -0.0031474163 -0.038015477 0.020858664 -0.017466677 0.07731284 -0.053058837 0.053731523
-0.046897955 -0.08744879 0.047705974 0.036553178 0.003560088 0.026154237 0.011976224 -0.03674903
-0.01563298 -0.013239208 -0.010403671 0.07539494 0.06409268 -0.06406129 -0.007683036 -0.033483673
-0.0047021033 -0.07754145 0.017690895 -0.073528714 0.087482244 0.096199065 -0.010817297 -0.067818925
-0.0147337075 -0.017251898 -0.009085937 -0.08199531 -0.0002738473 -0.075376615 -0.033256285 -0.04225778
0.023716254 -0.006519067 -0.085919224 -0.048505478 -0.04728087 -0.07184053 0.004611314 0.01844527
-0.008701201 -0.03380453 -0.027163703 -0.07249581 -0.0471651 -0.053823 0.089029655 -0.029588306
0.038842887 -0.03482503 -0.018533949 -0.10541604 0.073093385 0.08081068 -0.015116299 0.045735855
0.08600077 0.06359635 0.04032067 -0.079933695 -0.084247194 -0.06002598 0.03702016 -0.050968893
-0.06354712 -0.06210926 -0.06063729 0.008179542 0.018001674 0.008718442 0.062033188 -0.012808368
0.019493444 0.067951545 0.008241923 -0.006218086 -0.07312847 -0.051835872 0.0057288487 0.058176897
0.044825472 -0.032595187 -0.09413134 -0.07417186 -0.021632206 0.043595385 -0.041256122 -0.0654482

read_encoder.block2.0.bias f4 [128]
00000000: 13b7 073a 4dff 603c 7596 6dbd 6efa 78bd
00000010: ae2d d43c dd59 4bbd dfdf af3c bc6d 07bc
00000020: 599c 433d 20f9 ffbb 3409 7c3d ec05 bcbb
00000030: 7632 00bd 4376 f03c bee2 36bd bb67 9a3c
00000040: e4d2 55bd dc60 4d3c 57ca d2bb 09ed e1bc
00000050: 08d2 b4bd 41b0 2ebd 118b a53d 73c1 013d
00000060: b87b fbbc 8aaa 6abb 91aa 533c 6ffd 803d
00000070: 4596 8a3d 46e0 1abd 12be 3ebc b354 a93d
00000080: 94e9 8e3b 1a4e 42bd cbf9 6bbd adc4 06bd
00000090: 39b4 aebd d653 3fbd 6055 b83d 20b9 023b
000000a0: 1e2f 483d 10de a9bd 3060 2d3d d2f3 543d
000000b0: 8a38 80bd 3e1a 80bc 16e3 963c 79a9 6fbd
000000c0: f2be 353d 8364 593d dd44 a1bd 5056 d3bc
000000d0: 2bec 773d 842c 63bc 21f4 61bd 0553 063d
000000e0: f738 a3bd d007 cf3c 1d8f 27bd fe29 023d
000000f0: 350c 26bd 6139 debc e657 0abd bfcc 533d
00000100: 917a a9bd b83f 803d b968 1e3d d13e 5fbd
00000110: 4727 8d3d bdd9 5f3d 4fd0 52bd bc8c 0e3c
00000120: bd37 8a3c 89e6 36bb cfa5 603d 4c66 03bd
00000130: c30a 09bd 8079 0f3d 5d03 883d d664 7f3d
00000140: bc4e b1bd 2ae0 ecbc a618 46bd 23fe fdbc
00000150: 7f6d 8cbc 41e4 e4bc a1ad 33bd f0dc 82bd
00000160: a922 a2bd 71de 413d 7919 473d 46d5 48bd
00000170: f76f c03d b2fb 293d 3912 89bd 0f70 533d
00000180: 15f2 5a3c 9e2a b33d 421a 63bc a9c6 d7bc
00000190: 380f 703d cfa6 a6bd e100 403d af6d 97bd
000001a0: 6ce5 ccbc 2bee 553a cd78 9bbd 3b96 16bd
000001b0: 1b98 2dbd 775e 54bb 20df 5e3c 8c1e 93bd
000001c0: ed7a 813d eace b23c f699 443c cb0b 0d3d
000001d0: 3387 5cbd 1fb9 ca3b 67f0 87bd 7ee5 ac3d
000001e0: 931d 19bd 789b babd 2f60 503c a327 96bd
000001f0: c647 9bbd 6e4f 72bd f9fb 9ebc 7eac 283d
0.00051771215 0.013732743 -0.058004815 -0.060785703 0.025900688 -0.049646247 0.021469055 -0.008265909
0.047756527 -0.0078116804 0.061532214 -0.0057380106 -0.031298123 0.029353267 -0.044649832 0.01884829
-0.052203074 0.0125353 -0.006432812 -0.027578847 -0.08829123 -0.042648558 0.080831654 0.03167863
-0.030698642 -0.0035807216 0.012919084 0.062983386 0.06766943 -0.03781154 -0.011641996 0.08268108
0.004361341 -0.047437765 -0.057611268 -0.03290241 -0.085304685 -0.04671081 0.09000659 0.001994677
0.04887306 -0.08294308 0.04232806 0.051990338 -0.06260784 -0.015637513 0.01841883 -0.05851123
0.044371553 0.05307437 -0.07874463 -0.025797993 0.06052796 -0.013865594 -0.05516446 0.032794017
-0.079698496 0.02527228 -0.040907968 0.031778328 -0.040538985 -0.02712697 -0.033775233 0.051708933
-0.08275331 0.062621534 0.03867409 -0.054503266 0.06892257 0.05465101 -0.05146819 0.008700546
0.016872281 -0.0027908406 0.054845627 -0.03207998 -0.03345753 0.03502798 0.066412665 0.062352024
-0.086575955 -0.028915484 -0.04836335 -0.03100497 -0.017142056 -0.027940871 -0.043866757 -0.06389797
-0.07916767 0.047331277 0.048608277 -0.04903152 0.093963556 0.0414998 -0.06692929 0.05162054
0.013363381 0.08748363 -0.013861241 -0.026339846 0.058608264 -0.08137285 0.04687584 -0.07393967
-0.02501174 0.0008160795 -0.075914 -0.036764365 -0.042381387 -0.0032404938 0.013603002 -0.07183561
0.06322274 0.02182718 0.011999598 0.034435075 -0.053839874 0.006186619 -0.0663765 0.0844221
-0.03738172 -0.091116846 0.012718244 -0.07331779 -0.07582049 -0.05915778 -0.01940726 0.041180126

read_encoder.block2.1.weight f4 [128]
00000000: 0889 813f 2a5c 7c3f 1dae 7c3f c988 793f
00000010: 0054 793f 59a1 753f fb84 773f 216d 883f
00000020: 0b0d 7d3f 50ff 803f 2708 823f 8d8e 7a3f
00000030: e4b5 813f cdab 8f3f 44a0 7d3f d9d1 7d3f
00000040: b3d6 7e3f a206 6b3f e7cf 853f f8e0 853f
00000050: d19b 7c3f b24d 7c3f 6208 813f e894 7c3f
00000060: e249 843f 1e0e 7d3f e90d 863f 458c 803f
00000070: fe3f 803f 7dc6 803f 3564 5c3f 37da 823f
00000080: 2cc7 833f b971 763f 2014 7d3f 6b33 803f
00000090: 447e 7c3f 8b37 813f 2e2c 813f e29b 813f
000000a0: 7a30 823f e427 7f3f a9bc 803f 897b 803f
000000b0: e319 833f 0573 803f d3e6 7d3f 387b 803f
000000c0: f4e8 803f 955e 7f3f 8e1b 833f 2912 803f
000000d0: 8e43 813f bda2 8b3f 5d6b 7c3f d157 803f
000000e0: 9f52 843f 67ed 833f 933f 813f a9c2 7c3f
000000f0: f9d8 963f 4ac5 7c3f 6718 7e3f 6a1e 843f
00000100: a961 7c3f 7ab1 7f3f de19 7b3f 88ac 843f
00000110: 2878 813f 3fea 7c3f a7a6 883f 36bc 893f
00000120: 5d4d 7d3f 97b0 7f3f 062b 7d3f 99f3 7c3f
00000130: 6984 823f 6547 803f 2a06 7a3f 4aab 7d3f
00000140: c59a 843f f81a 813f bd50 7d3f 445b 7e3f
00000150: 1ee0 803f a2f2 893f 179e 7a3f fcd1 893f
00000160: 20c8 963f 401d 823f cfa5 7c3f e6c0 7c3f
00000170: 852f 823f bc43 7d3f ebaf 7e3f 490e 813f
00000180: 6dc9 803f 9a3b 823f 7d75 7b3f 444f 943f
00000190: e04f 7d3f 25eb 7b3f 0dbb 9c3f e54d 7f3f
000001a0: d662 7d3f 0a55 803f e122 813f 45b6 7b3f
000001b0: 2ea5 7d3f 8333 803f a51a 773f 03c8 803f
000001c0: 72cf 7c3f abc6 7f3f b043 833f a3ec 7a3f
000001d0: ce33 823f 7f8f 7f3f a8b9 7d3f 2f86 793f
000001e0: 122f 7d3f 8437 7d3f a456 863f 853b 7c3f
000001f0: 89b4 803f 03a7 883f 0651 7c3f 512f 833f
1.0119944 0.9857813 0.98703176 0.9747434 0.973938 0.9594932 0.9668729 1.0658303
0.98848027 1.0077915 1.0158738 0.97873765 1.0133634 1.1224304 0.9907267 0.9914833
0.99546355 0.91806996 1.0454072 1.045928 0.98675257 0.98556054 1.0080683 0.9866471
1.0335047 0.98849666 1.0472995 1.0042807 1.0019529 1.0060574 0.86090404 1.0222844
1.0295157 0.96267277 0.98858833 1.0015692 0.98630166 1.0095075 1.0091608 1.0125697
1.0171044 0.99670243 1.0057575 1.00377 1.0242275 1.0035101 0.99180335 1.0037603
1.0071092 0.99753696 1.0242784 1.0005542 1.0098741 1.0909039 0.98601323 1.00268
1.0337714 1.0306824 1.0097526 0.9873453 1.1784965 0.9873854 0.99255985 1.0321782
0.9858652 0.9988018 0.98086345 1.0365152 1.0114794 0.9879493 1.0675858 1.0760562
0.9894617 0.9987883 0.98893774 0.988092 1.0196658 1.0021788 0.97665656 0.9908949
1.0359732 1.0086355 0.9895132 0.9935801 1.0068395 1.0777171 0.97897476 1.0767207
1.1779823 1.0165176 0.98690504 0.9873184 1.0170752 0.9893148 0.9948718 1.0082484
1.006147 1.0174439 0.9822615 1.158669 0.98950005 0.9840568 1.2244583 0.9972823
0.98978937 1.0025952 1.0088769 0.98324996 0.9908017 1.001572 0.9652503 1.0061039
0.98754036 0.9991252 1.0255032 0.9801733 1.017206 0.9982833 0.99111414 0.9747037
0.9889995 0.98912835 1.0495191 0.9852832 1.0055095 1.0675968 0.9856113 1.0248815

read_encoder.block2.1.bias f4 [128]
00000000: 46bc f03b 1070 88bc 8430 b4bc 5c3e 1bbd
00000010: 68f5 91bc 89dc a5bc bb96 33bd 568c 7fbc
00000020: be30 28bc 00e2 9c3b 3bfe d4bc c04d 23bd
00000030: f388 713c 3a93 ae39 1b7e e4ba fda7 b7bc
00000040: 816e 15bd b46b 5abd 75dd 263b e740 84b9
00000050: 8383 80bc a590 6dbc 33d5 10bb 0fa1 85bc
00000060: 17b6 b13a db7b 69bc 0d6b 72bb 6054 733b
00000070: 2e1a de3a c80b 763b 3ef2 49bd 5efa dcb9
00000080: 131d 3cbd a890 8fbc 4edc 53bc 817b 493a
00000090: 1b62 67bc 16d3 53ba c8dc f4bb a16b a43b
000000a0: 754f 82bc 1594 31bc 24f6 efba 8384 ae3a
000000b0: 4734 6b3c 8aa3 143b fd87 8fbc 53e9 d33a
000000c0: 0fa9 e93b cb4f 1ebb e77b 2b3c acdb 423b
000000d0: 6f9e 05bc 80c9 8abc b581 78bc 6a26 d33b
000000e0: d271 a8bc 6459 b6bb d26c 9e3b 233c 8bbc
000000f0: 00b8 933c b96a a6bc 7f85 84bb 28fd 32bc
00000100: b39c 1bbc 6f1e 233b 43ee 4cbc b922 043b
00000110: 4df7 903a a638 5ebc 2c5e a8bc 041d 22bc
00000120: 83b5 27bc f0c7 2f3b 06b7 50bc 128e 3bbc
00000130: 408d 12bd 78c0 9b3b 9467 1bbc afab 41bc
00000140: 596b 54bd 76d7 68bb bb1e 3fbc 8aef 3ebc
00000150: 5989 8cbb 6c23 5b3c 2bef 3bbb 6a65 f8bd
00000160: 6578 84bd fc27 c43b 7e2b 74bd aef7 84bc
00000170: 0179 e43b 5da4 0ebc 6b68 40bd 69fd 22bc
00000180: 97de c6ba c95a 713c 4692 3ebc 695c f7bb
00000190: 5f91 5abc 6d7b 80bc 12ba 123c f8c7 beba
000001a0: bfa7 09bc 652f 9b3b df57 febb cde2 5bba
000001b0: 9573 31bc a0eb 013b 0c32 d8bc ac43 80bd
000001c0: aa85 57bc 30ef 143b 0ff4 a3bc d20b 13bc
000001d0: 3a7d 27bd a579 3e3b 9b6f c73a 84d7 12bd
000001e0: 7078 8fbc fac2 3bbc b725 52bd 58c3 68bc
000001f0: 5bb4 80bc 4db1 74bd 0bc0 56bc c7b3 6d3a
0.0073466627 -0.016654998 -0.02199579 -0.037901267 -0.017817214 -0.02024676 -0.04384492 -0.015597424
-0.010265527 0.0047876835 -0.026000133 -0.03986907 0.014742124 0.0003329756 -0.0017432602 -0.02241897
-0.036482338 -0.05332537 0.0025461589 -0.00025225358 -0.01568771 -0.014499818 -0.0022099733 -0.01631215
0.0013558295 -0.014250721 -0.0036990077 0.003712915 0.0016945058 0.0037543643 -0.049303286 -0.00042148208
-0.045926165 -0.017525032 -0.012930943 0.0007685945 -0.014122511 -0.00080804655 -0.0074726082 0.005017713
-0.015907029 -0.010838528 -0.0018307609 0.0013314638 0.014355726 0.0022680485 -0.017520899 0.0016167558
0.007130749 -0.0024156447 0.010466552 0.0029732985 -0.008155449 -0.016941786 -0.015167643 0.0064437883
-0.020562086 -0.0055648554 0.0048347497 -0.016996449 0.018032074 -0.020314561 -0.0040442343 -0.010924615
-0.009497809 0.0024889966 -0.012507978 0.0020162298 0.001106003 -0.013563311 -0.020552717 -0.009894613
-0.010236147 0.0026822053 -0.012738949 -0.011447446 -0.035779238 0.0047531687 -0.009485144 -0.011820718
-0.051860187 -0.0035528815 -0.011665042 -0.01165379 -0.004288834 0.013375144 -0.002867649 -0.12128718
-0.06468276 0.005986212 -0.05961179 -0.016231384 0.0069724326 -0.008706179 -0.04697458 -0.009948113
-0.0015172538 0.0147311175 -0.011631554 -0.007548858 -0.013340323 -0.015683854 0.008955495 -0.0014555445
-0.00840181 0.0047358745 -0.00776194 -0.0008387983 -0.01083078 0.0019824281 -0.026391052 -0.062629074
-0.013154427 0.0022725575 -0.020013837 -0.008974986 -0.04089091 0.0029064205 0.0015215756 -0.035850063
-0.017513484 -0.01146006 -0.0513055 -0.01420673 -0.015711 -0.0597394 -0.01310731 0.00090676214

read_encoder.block3.0.weight f4 [128, 128]
00000000: 243a 57bd 490c 40bc b067 ec3b 1988 d6bb
00000010: a65d a63d 9395 7e3d e877 4f3d 1d7a 58bc
00000020: 56e7 083d 2b44 78bd b7eb 10bd 95c2 853d
00000030: a9e4 cd3c 68fa b83c 9968 eb3d 8ba2 d83d
00000040: b8ae 20bd bcff a43c f8a2 ec3d d4bc f93d
00000050: ecc7 6ebd 6849 17bd e6a6 913d a440 f33c
00000060: 254c 2d3e 9104 a63d f7b6 ee3d 1c79 823d
00000070: b0e9 c53d 07c3 5fbd 01d5 7b3d d2fd 23bd
00000080: 8fbe b2bd 5a22 4e3d 1651 33bd 46e4 aa3c
00000090: 66be 6a3c de13 5e3d c2b1 68bc 296c 8a3d
000000a0: 14b6 8f3d aec1 c03c f242 583d 84ea a8bc
000000b0: 7f22 ec3c 882f 0cbd 5931 24bc 1798 363d
000000c0: e56e 953c a0ea c23d a85b 233d b46c a93d
000000d0: 6548 b03b 5a14 9fbc 88e1 d6b9 bf6d 163c
000000e0: 37ff 05be e46c 093e df8c d93d 5303 a2bc
000000f0: 5a74 b93d 5905 fe3d 944d dc3c 9197 863c
00000100: 0385 2ebd b7a3 4abd 5693 10be 21c2 e93d
00000110: 590f 72bd e3f8 68bd f5d5 bb3a 48eb 71bc
00000120: 86bc 8ebd e871 54bc ae3c 343d 90ef b83a
00000130: 2ed9 373d 2285 2fbd fa32 5e3d 0ccd 043e
00000140: e077 a43c 4a3f f13d 1405 753b a34b e63d
00000150: 6630 8e3d 6b69 93bd a000 843d f3a0 32be
00000160: bc45 963a 6748 8abd f05f 883c 4428 92bd
00000170: 1504 9fbc 2572 f83d e9a4 0bbd 5a9d 5e3d
00000180: 6ac0 a43c fe1b a03d daba d93c 5235 55bd
00000190: fa23 81bd 024e fd3c 7c06 8cbe 412b 78bd
000001a0: d51d 113e 10fb c13d 3f87 a53d 51bd 81bc
000001b0: 264b cf3d 1f70 863c ef93 3fbd 51d3 e13d
000001c0: 78e4 da3d 6248 1f3d fafd 703d 594e d4bc
000001d0: 1dca b43c 1a10 e73d 9b0e 22bd 622f 74bd
000001e0: 0053 ef3c 6142 e93c 3132 6d3d 9511 64bb
000001f0: 1fb7 cd3d ce51 b33d de74 d7bd d2d8 f1bd
00000200: f0b3 853d 7cad 61bd 8b9d 4b3c 6b1f ee3c
00000210: 34be 003d bb19 52bd a684 31bd 0edb c5bd
00000220: 6cc3 cb3c a954 443d 4737 55bd 3b6b a6bd
00000230: 2e33 413d 554f cc3c a110 b8bd dbf6 62bc
00000240: a293 99bc cdf1 9fbc 13cf 9d3c 9bf2 193e
00000250: f155 bebd 28b8 9f3b 0ee3 623d 9b32 f5bc
00000260: 2ed3 c53d cfae a13d 11ed f33c 12cc a73d
00000270: 3b95 053d a300 84bd a8f4 903d ff1e 4ebd
00000280: 6703 1abd a272 afbd d584 24bb 0c93 973d
00000290: 565d 5abd cbb8 803c b986 9a3c 59e5 3d3d
000002a0: e2f6 b73d 0ef5 4c3d 6497 19bd dede a3bb
000002b0: ebdd 80bd a301 95bd 180d 5abd 8a23 383d
000002c0: a8ea 3e3c 2c4d 8dbb 0195 983d 0319 f3bb
000002d0: 6407 a83d c5a4 123d 07ef afbd bfca 8b3d
000002e0: 760c a73d 9942 52bc c4ff b23c c7b1 92bd
000002f0: c2c0 01bd 80a3 f4bc 0b26 71bd 3eb1 fdbb
00000300: a4f8 d0bd 7cf3 9fbc 32d4 293d 3f2a 12bd
00000310: c0e0 25bd 1de6 e4bb 1b95 3dbd 6149 fa3b
00000320: fbff c9bd c8a8 bb3c c5c3 993d a45c 16bc
00000330: 3c87 763d f3fa a3bd 7321 46bd f38c f1bc
00000340: 46e5 8f3d 0cfd a1bd 8617 cdbc 0e10 44bd
00000350: f44e 093b afcd 90bd 5692 95bd 8782 64bd
00000360: cb4f 22bd d5a8 533d c53b 573c 8d53 bcbd
00000370: c5b1 a23d e8b0 c6bb 264b 9d3c 8d42 63bd
00000380: 5024 3cbd e525 80bd bdea a4bd 219a 36bd
00000390: f228 333d b994 25bd 3c40 b3bd 2363 ab3c
000003a0: 9709 a9bc db8c 7fbd 6aee a43d 935a aabd
000003b0: 72cd c5bd 02d3 353d 7e8b 3c3d 1ac8 12bd
000003c0: 20a1 653d edee 7ebd d40b 92bd 4444 95bc
000003d0: ffca 56bd 743f 703d 5943 aabd 9e00 853d
000003e0: a2d4 2a3d 6269 65bd 6b27 a7bd f58a d13b
000003f0: b93c 65bc f13a cabd ebad 803d 88eb 053e
-0.05254568 -0.011721679 0.007214509 -0.006546986 0.08123331 0.062154364 0.05065146 -0.013212708
0.033423744 -0.060611885 -0.035381045 0.06531254 0.025133448 0.02258034 0.1149456 0.105778776
-0.039229125 0.020141475 0.11554521 0.12194219 -0.05829613 -0.03693524 0.071119115 0.029693909
0.16923578 0.0810634 0.116559915 0.06370756 0.09663713 -0.054629352 0.061482433 -0.040036984
-0.087277524 0.05032573 -0.0437785 0.020860802 0.014327621 0.054218166 -0.014202537 0.06758911
0.070171505 0.023529854 0.05279822 -0.020619638 0.028825043 -0.034225017 -0.010021531 0.044578638
0.018241355 0.095174074 0.039882332 0.082726866 0.005379724 -0.019418884 -0.00040985295 0.009181439
-0.13085638 0.13420445 0.10622572 -0.019776976 0.090553954 0.12403364 0.02689246 0.016429694
-0.04260732 -0.049472537 -0.14118704 0.1141398 -0.059096668 -0.056877982 0.0014330732 -0.014765568
-0.06969552 -0.0129666105 0.04400318 0.0014109481 0.044884853 -0.042851575 0.054247834 0.12968844
0.020076692 0.117796496 0.003738706 0.11244895 0.06942825 -0.07197841 0.06445432 -0.1744421
0.0011464874 -0.06752091 0.016647309 -0.07136586 -0.019411126 0.12131146 -0.034092817 0.05434928
0.020111281 0.07817839 0.026578356 -0.052052803 -0.0630569 0.030920986 -0.27348697 -0.060588125
0.14171536 0.094717145 0.08082437 -0.015837343 0.10121755 0.016410885 -0.04677194 0.110266335
0.10688108 0.03888739 0.05883596 -0.025916265 0.022069031 0.11282368 -0.03956471 -0.0596155
0.029214382 0.028474035 0.057909194 -0.0034800519 0.10044693 0.087558374 -0.105203375 -0.11808933
0.06528461 -0.05509709 0.012427698 0.029067716 0.03143139 -0.05129407 -0.043339394 -0.09660922
0.024873458 0.0479323 -0.05205467 -0.08125921 0.04716795 0.024940172 -0.08987547 -0.0138528
-0.018747155 -0.01952448 0.01926378 0.15033953 -0.09293736 0.004874248 0.055392317 -0.029931357
0.0965942 0.0789467 0.029776128 0.0819322 0.03261302 -0.06445434 0.070779145 -0.05032253
-0.0376009 -0.08566786 -0.0025103588 0.07401094 -0.05331167 0.015713116 0.018863069 0.0463613
0.08982636 0.05003839 -0.037497893 -0.005000933 -0.062923275 -0.07275703 -0.053235143 0.044955768
0.011652626 -0.004312178 0.07450295 -0.007418753 0.08204535 0.035801668 -0.08590513 0.0682578
0.081566736 -0.012833261 0.021850474 -0.071628146 -0.03167797 -0.02986312 -0.05887417 -0.007742076
-0.102036744 -0.019525282 0.04146213 -0.03568482 -0.04049754 -0.0069854395 -0.046284776 0.007638142
-0.098632775 0.02290763 0.07508043 -0.009177361 0.060187563 -0.08006849 -0.048371743 -0.029486155
0.07026152 -0.07909593 -0.02503563 -0.047866873 0.00209516 -0.07070481 -0.07303302 -0.055788543
-0.039626878 0.051674683 0.013136809 -0.091956235 0.07944063 -0.0060635693 0.019200873 -0.05548339
-0.045933068 -0.06257228 -0.08052585 -0.044580583 0.04374022 -0.040425036 -0.08752486 0.020921296
-0.020634456 -0.06239019 0.080532864 -0.08318057 -0.09658326 0.044390686 0.046031468 -0.035835363
0.056061864 -0.062239576 -0.07131162 -0.018221028 -0.052439686 0.058654264 -0.08313627 0.06494258
0.04170669 -0.056008704 -0.08161815 0.006394739 -0.013991528 -0.098745234 0.06283172 0.1307813

read_encoder.block3.0.bias f4 [128]
00000000: 4eea 3e3d 1c34 fd3c 385e 1d3c 42be 443b
00000010: eaa9 f13b 1671 0a3d c21e 073d 81c5 8e3d
00000020: 005f 95bd 5081 453d 317f 783d 4060 69bd
00000030: 97ee 8a3c 2c61 79bd 60eb 1cbd 2778 11bd
00000040: 6650 22bd bff7 153d 513c e5bc 6ed8 b83c
00000050: 2a74 00bd 5d93 67bd 6917 a6bd 415d 173d
00000060: db0c 39bd f51e bbbd 7b32 89bd aca7 96bd
00000070: 5662 f3bc 75f0 4d3d a12c b73c 6e40 30bd
00000080: a37b fd3c a647 b13c 8ce8 26bc b6ed b23d
00000090: 9fb2 c83d 5187 8a3d 1c4c 77bd de21 2b3d
000000a0: 8156 a2bd c2a0 8bbd a44c c33d b5c3 3d3b
000000b0: 6dbd c7bd 61ed b3bc 1b17 4e3d 942b 37bd
000000c0: a6b1 993d e720 9ebc f715 833d 9756 853c
000000d0: 969c e43c 773c ad3d 8d00 81bd 1983 9d3d
000000e0: 6caf 02bc ae35 eebc cc85 5abd c8d2 e5bb
000000f0: 5186 523d 20b3 c33d 3970 073d 2fbc 143d
00000100: d180 b3bd 0cc1 92bd 1d8a 38bc 4c89 c4bd
00000110: 52a2 373b 8a17 91bd 9bdb 693d 35e1 b8bd
00000120: 4a84 7fbd e586 893d df24 50bd 1dce 2fbd
00000130: 5458 713d 3f08 3a3d aa06 283c 93d1 82bc
00000140: b2ec 00bd 9592 9cbd a045 d43b 6f91 973c
00000150: 38e4 fa3a 6578 2fbd cd66 bf3d 0b45 88bd
00000160: b51f d3bc 51b6 ba3d b29b f53c 8681 e3bb
00000170: 8b06 643d 5688 ab3c 3521 a03c 82fe e03c
00000180: e029 263d 890b 65bd 7936 0b3d d73a d2bc
00000190: e292 8e3d 0630 283c 8349 1d3d f6c1 b13d
000001a0: 73ba d7bc eeea 9d3d da85 94bd 7f7c 353d
000001b0: 6e68 d13d 5478 6abd 84c6 03bc 2616 063c
000001c0: a823 4abd 6ef0 5ebd 7ac3 6fbd ecc4 75bd
000001d0: 9c7d 2a3d a90c 86bc b0de b13d fca3 9abd
000001e0: d6bb 433d eae8 64bd a4d4 ccbd d276 453d
000001f0: 18c6 4ebd 7dff 37bd ca1c 7cbd 1a98 19bd
0.04661017 0.030908637 0.009604983 0.003002063 0.0073749917 0.033799253 0.032988317 0.06971265
-0.072935104 0.048219025 0.060668174 -0.056976557 0.016959472 -0.060883686 -0.03831041 -0.035514977
-0.039627455 0.036613222 -0.027982863 0.02256414 -0.031360783 -0.05653702 -0.08109934 0.03695417
-0.045178276 -0.09136764 -0.066990815 -0.073561996 -0.029709976 0.050278146 0.022360148 -0.043030195
0.030942744 0.02164061 -0.010187279 0.08736746 0.09799694 0.06764091 -0.060375318 0.041780345
-0.079266556 -0.068177715 0.095361024 0.0028955762 -0.09752927 -0.021963777 0.050315004 -0.044719294
0.07504587 -0.019302798 0.06400674 0.01627664 0.027906697 0.084587984 -0.06298933 0.076910205
-0.007976394 -0.02907833 -0.053350255 -0.0070136525 0.051397625 0.0955565 0.03306601 0.03631228
-0.08764804 -0.07165727 -0.0112633975 -0.095965 0.0028020334 -0.07084568 0.057094198 -0.0902733
-0.06238202 0.06715182 -0.050816413 -0.042921174 0.058922127 0.04541802 0.010255495 -0.015969073
-0.03147573 -0.07645146 0.0064780265 0.018501965 0.0019141501 -0.042839427 0.093457796 -0.06653794
-0.025771955 0.09116805 0.029981468 -0.0069429306 0.055670302 0.020939033 0.019547084 0.027465109
0.04056728 -0.055919204 0.033987496 -0.025662823 0.069616094 0.010265356 0.038400184 0.08679573
-0.026334023 0.07710825 -0.07252093 0.04430818 0.102249965 -0.05724366 -0.008042935 0.008183992
-0.04935041 -0.05442851 -0.05853603 -0.060002252 0.041623697 -0.016363459 0.086850524 -0.07550809
0.047786556 -0.055886187 -0.100014955 0.04820902 -0.050481886 -0.044921387 -0.061550893 -0.03749857

read_encoder.block3.1.weight f4 [128]
00000000: f175 7e3f ce9a 7c3f ed1b 7b3f 1f6f 7c3f
00000010: 528d 7f3f 5777 7c3f 2e97 673f 48ae 803f
00000020: 8355 7b3f 2a78 823f f425 7e3f 006a 7d3f
00000030: 0b07 7b3f 2598 813f fb25 7e3f be52 753f
00000040: 98de 7e3f 985c 7d3f ca49 7d3f 7d4d 7d3f
00000050: 5b54 7a3f 0aa5 7c3f 051e 7e3f 7971 7d3f
00000060: 190a 7e3f e50b 7d3f c431 7d3f 2913 7f3f
00000070: 8832 803f 4c0c 803f 9937 7d3f bfba 803f
00000080: 4bca 7c3f 8f43 7d3f ac6d 7d3f d697 823f
00000090: 5889 793f 3ff2 803f a646 7d3f 8b0f 823f
000000a0: 7244 743f b46d 843f 3a9e 803f 46d6 7e3f
000000b0: ed4a 7e3f 8ca6 813f a951 7d3f 170f 823f
000000c0: e33f 813f d16b 803f 1ac4 763f 392c 803f
000000d0: 91da 7e3f e12b 7c3f 21a0 7c3f aab4 813f
000000e0: f29c 7d3f e6ca 7c3f 302a 813f 1bed 7c3f
000000f0: bef4 863f c807 7a3f 8b5a 853f 95f2 7c3f
00000100: c6bb 793f 8ef0 803f 19b4 7c3f 20f7 7c3f
00000110: a4a8 7e3f ca2e 7c3f 670a 803f cedb 773f
00000120: f73a 7d3f 4b19 803f a5ce 7d3f 3238 7a3f
00000130: 9a3c 7c3f 5af1 813f e7e9 7c3f 25bf 7d3f
00000140: 630b 803f 8a3c 7e3f 3601 7d3f 8458 813f
00000150: 2b8f 803f 82e7 803f 6bf3 7f3f 758e 7d3f
00000160: 1384 803f ad9f 833f 7e8a 763f b717 7d3f
00000170: aa96 813f b707 7f3f c3ac 7e3f 8341 7b3f
00000180: cc5a 7e3f e614 813f fd65 7c3f d891 803f
00000190: c920 7e3f 746b 7c3f 2068 813f c172 823f
000001a0: bda6 7c3f a847 6d3f f8ba 7b3f 6df1 813f
000001b0: d06b 7d3f f62e 813f ec49 813f f8c5 783f
000001c0: 9cc6 7c3f c8e1 7a3f 3972 7d3f 1d56 803f
000001d0: daf0 813f 3a2b 813f f03c 803f 4012 763f
000001e0: bdea 7d3f 75a2 7e3f 4668 7d3f c556 7b3f
000001f0: 5ff0 7c3f 75d4 7f3f 076c 7c3f f56a 823f
0.99398714 0.98673713 0.98089486 0.9860706 0.9982501 0.986196 0.90465057 1.0053186
0.98177356 1.0192921 0.9927666 0.9898987 0.9805762 1.0124556 0.99276704 0.9582938
0.995584 0.9896941 0.9894072 0.9894636 0.97784966 0.9868933 0.99264556 0.9900127
0.9923416 0.98846275 0.9890406 0.9963861 1.0015421 1.0003753 0.9891296 1.005699
0.98746175 0.9893121 0.9899547 1.0202587 0.97475195 1.0073928 0.98935926 1.0160993
0.9541694 1.0345979 1.0048287 0.99545705 0.9933308 1.0128951 0.9895273 1.0160855
1.0097622 1.0032903 0.9639298 1.0013496 0.99552256 0.98504454 0.9868184 1.0133259
0.99067605 0.987471 1.0091 0.98799294 1.0543439 0.97668123 1.0418257 0.9880765
0.97552145 1.0073411 0.9871231 0.9881458 0.99476075 0.98508894 1.0003175 0.9681977
0.989181 1.0007719 0.9914344 0.97742 0.9852997 1.015178 0.98794407 0.9911979
1.0003475 0.99311125 0.9882997 1.0105138 1.0043691 1.007065 0.999808 0.990455
1.0040306 1.0283104 0.9630507 0.9886431 1.0124104 0.99621147 0.99482363 0.9814684
0.99357295 1.0084503 0.9859312 1.0044508 0.99268776 0.9860146 1.0109901 1.019127
0.9869192 0.92687464 0.98332167 1.0151802 0.98992634 1.0092456 1.0100684 0.97177076
0.98740554 0.98000765 0.99002415 1.002628 1.0151627 1.0091317 1.0018597 0.961216
0.9918631 0.9946664 0.98987234 0.98179275 0.9880428 0.9993356 0.98602337 1.0188891

read_encoder.block3.1.bias f4 [128]
00000000: 6841 82b9 4c1b 1fbc c442 ed3a 8b97 80bc
00000010: 52c6 febc f787 71bc e6c3 9cbd bbea c83b
00000020: 4f84 69bc 8e16 7b3c 094b bfb9 e159 a9bb
00000030: 4475 c5bc f59d 0f3c 2f3d d6bb 07ea e7bb
00000040: 3b31 6abc 1f41 20bc bddf 45bc 9184 74bc
00000050: 7603 483c 982c 4fbc e1db 89bb 7657 7fbc
00000060: 1adf 33ba 2a05 58bc f7d3 84bc 8eca 32b9
00000070: 099a 993b 1761 ed3b 9052 1cbc 0e58 c53a
00000080: 0ee2 31bc c31c 57bc 3233 1bbc aad5 94bc
00000090: 3545 7b3b c204 0e3c 13e4 96bb 1cb7 a23b
000000a0: bab4 ac3a ea1c 92bd 9b5d b43b 0a0f 4f3b
000000b0: fdc2 7abc 4c3f 963a ee7b 54bc be08 4a3c
000000c0: cc23 173c a39f 163c c95e 9e3b 1608 c43b
000000d0: e526 8fbc efa5 27ba 0791 5cbc 5148 233c
000000e0: 381a 56bc 6959 61bc 47d7 a33b 0477 6cbc
000000f0: 98a5 6d3c b778 1bbc 7378 a13b eb8f 61bc
00000100: 548b 30bc 30c2 003c bce5 81bc bfdd 84bc
00000110: eac7 8c3b a7ce 45bc 98f6 b33b db3a 9dbc
00000120: e4fb 5cbc 3654 bc3b 7204 2dbc a82b 3f3c
00000130: 4340 c8bb df06 e9bc 475e 62bc 705c cb3b
00000140: e5a1 bb3b 4e30 61bc f6a7 4cbc b60d 9cbb
00000150: 18b0 cc3b f2ee a03b 4437 113c b810 2cbc
00000160: 91eb 113c 50b5 373b 7830 97bc a99e 61bc
00000170: 26e3 103c 21d9 323b b482 4dbb 8538 1bbd
00000180: 8aa2 9e3b 7887 e83b 0c18 013c 86cb f03b
00000190: f657 34bc 2b66 8abc 6a4a 183c 9cd3 8c3b
000001a0: 912d 3fbc d45d 48bd ba22 70bb 88a5 843b
000001b0: 1f1d ebba 1f17 98bc 85d2 ae3b 6e07 15bd
000001c0: bb79 29bc b312 c43c 0b89 3abc 5e93 fd3b
000001d0: 415d fa3b 442b cc3b ef90 e83b 1e6f 98bc
000001e0: 4c78 69bc d648 6bbc 27c1 5bbc 007b 093c
000001f0: a6a6 8abc 38bc d43b 5d88 84bc 5a78 27bb
-0.00024844264 -0.009711098 0.0018101563 -0.015697261 -0.031100426 -0.014741889 -0.07654552 0.0061314977
-0.014252736 0.015325202 -0.00036486264 -0.005168185 -0.024103768 0.008765687 -0.0065380554 -0.007077459
-0.014293964 -0.009781151 -0.012077269 -0.014924184 0.012207856 -0.012644909 -0.00420712 -0.015584817
-0.0006861553 -0.013184825 -0.016214354 -0.0001705086 0.004687552 0.00724424 -0.009541169 0.001505615
-0.010857118 -0.013129416 -0.009472655 -0.01816829 0.003834081 0.008668127 -0.0046048253 0.004965676
0.0013176419 -0.07134421 0.0055043227 0.0031594657 -0.015305278 0.0011462956 -0.012969 0.012331186
0.009224843 0.009193334 0.0048330766 0.005982409 -0.017474601 -0.00063952705 -0.013462312 0.009965972
-0.0130677745 -0.013754227 0.0050000283 -0.014432672 0.014504813 -0.00948923 0.0049276887 -0.013767223
-0.010775406 0.007858798 -0.015856616 -0.016219018 0.0042962926 -0.012073196 0.0054920428 -0.019193104
-0.01348779 0.0057473434 -0.010560142 0.011668123 -0.006111176 -0.02844566 -0.013816423 0.006206088
0.0057260864 -0.013744427 -0.012491217 -0.0047623767 0.006246578 0.004911297 0.008863274 -0.010502033
0.008906261 0.0028031655 -0.018455729 -0.013770738 0.008843219 0.0027290063 -0.0031358423 -0.037895698
0.0048411535 0.0070962273 0.007879268 0.0073484806 -0.0110073 -0.01689442 0.009295085 0.0042976867
-0.011668579 -0.048917606 -0.0036641792 0.004048053 -0.0017937756 -0.018565712 0.0053351545 -0.03638404
-0.010343964 0.023934698 -0.011385213 0.007738515 0.0076405113 0.0062307436 0.0070973556 -0.018607672
-0.014249872 -0.014360627 -0.01341275 0.008391142 -0.016925167 0.006492164 -0.016178304 -0.0025553913

bag_predictor.weight f4 [1, 128]
00000000: 5709 e0bc 3a2a 6a3c a3e3 813c 3c82 503d
00000010: fc04 923d 70e5 823a 3c95 a839 78b8 c0bd
00000020: 6095 1a3d f27c 8bbd 6391 cdbc 8034 56bc
00000030: 45d3 6c3d 0f91 d5bd 6701 33bd 0837 923c
00000040: 69de 243d a43f bebb c946 293d 164e 913d
00000050: 178b 583d ec75 8d3d 60f2 073a a879 933d
00000060: e2ab 63bc 95ef 4e3d abb1 703d 9fa5 1bbd
00000070: a33d 05bd 8964 a4bd 55ba edbb d3e1 12bd
00000080: 994c 4e3d a1e1 383d 3aa8 6c3d d2aa 10bd
00000090: 0049 e93c 049b 3dbd c0e4 c7bc cfec 60bd
000000a0: 17ad f43d ac67 373c 51bf dabc f14c 40bd
000000b0: cf89 723d 1e2b 6bbc ff09 1d3d 3b0a a3bd
000000c0: b16c a5bd f139 03bd ed27 b83d 0a18 bebd
000000d0: 612d 443d 8182 6dbd 0dc8 363c 452c 9dbd
000000e0: 27a9 a23d b399 d03a 545e 9ebd bef8 763d
000000f0: 84b4 22bd abac 37bc 29dd d6bd f9f7 863c
00000100: 6fa6 d93b 94b8 81bd eba7 813d 87f6 483c
00000110: 7958 12bd 6d6a 063d e3dc 18bd d36a 5a3c
00000120: d499 1e3d 10e7 b5bd b98e 533d e5eb 483d
00000130: ceaa aebb 4cb7 a1bd 094a 033c 92c9 5e3d
00000140: 38f4 9abd 95bc c53d c6d1 0abb c10f a8bc
00000150: 03c2 84bd ef79 cabd 6d93 87bd 5e5b 9cba
00000160: 64f1 57bd d392 9ebd 5a25 20bc afa2 6c3d
00000170: a7c9 bebd 05c3 cebc 0866 bbbc 3bc8 26bb
00000180: 9826 8dbd 82bc b6bc 2c97 893d 1502 95bd
00000190: 650a a53d 8fca 203d 179f ebbd b31f 89bc
000001a0: d80f 393d 4722 c7bb 9f30 fbbc 0e21 85bd
000001b0: a279 b8bc 2d2a 86bd 8e7e 8cbc 80f8 223d
000001c0: 402b eb3c 1822 d7bc 2bb9 2c3b a7b5 30bd
000001d0: edc1 70bd ff78 7bbd 6905 62bd d23e ac3b
000001e0: 8f83 153d d762 8a3d d0b5 5c3c 1312 2c3d
000001f0: c8e0 423c c20d 06bd 83da 1e3d e447 86bc
-0.027348204 0.014292294 0.015855616 0.05090545 0.07129857 0.0009986591 0.00032154645 -0.094101846
0.03774011 -0.06810941 -0.02509374 -0.01307404 0.05781867 -0.10428058 -0.04370251 0.017848507
0.04025117 -0.0058059264 0.04132727 0.07094972 0.05286702 0.069072574 0.0005185958 0.072009385
-0.0138959605 0.050521452 0.058763187 -0.037999745 -0.032529484 -0.08026988 -0.0072548785 -0.035859894
0.050366018 0.04513705 0.05777762 -0.035319157 0.028477192 -0.046290413 -0.024401069 -0.05491334
0.11947077 0.011194151 -0.026702555 -0.046948377 0.059213456 -0.014353542 0.03833961 -0.07960936
-0.08077372 -0.03203768 0.0899199 -0.09281929 0.04789484 -0.057985786 0.011156094 -0.07674459
0.079424195 0.0015914947 -0.077328354 0.060295813 -0.039722934 -0.011210601 -0.10491402 0.016475664
0.006642155 -0.063340336 0.06330856 0.012265808 -0.035728905 0.03281634 -0.03732003 0.013331133
0.03872092 -0.08881962 0.051649783 0.04905309 -0.00533042 -0.07896289 0.008013257 0.05439145
-0.07566112 0.0965511 -0.0021182164 -0.020515325 -0.06482317 -0.09886538 -0.06619916 -0.0011929085
-0.052720442 -0.07742848 -0.00977453 0.057772335 -0.09315806 -0.025239477 -0.0228758 -0.0025448937
-0.06892127 -0.022306684 0.06718287 -0.07275788 0.08058623 0.039255675 -0.11504953 -0.016738748
0.045181125 -0.006077084 -0.030662833 -0.06500445 -0.022518937 -0.06551013 -0.01715019 0.03978777
0.028707147 -0.026261374 0.0026355486 -0.043141987 -0.058778692 -0.061394688 -0.05518094 0.005256512
0.036502417 0.067571335 0.013471082 0.042009424 0.011894412 -0.032727964 0.038782608 -0.016391702
