m6aReplica/3d_432_with_delta/Models/epoch48_rocauc0.899_valpr0.408_valscore1.307.pth (torch, 155293 bytes, 13 tensors)

read_encoder.block1.0.weight f4 [128, 24]
0.34955674 0.40962625 0.0465601 1.464055 0.11333157 0.13767971 -0.1522763 0.12568311
0.34252095 2.473373 -3.4704916 -0.4050875 -0.19761692 -0.09815157 0.2989484 -0.10141735
-0.061969794 -0.12984984 0.012707944 0.15698385 0.027134778 -0.046089854 -0.09823843 -0.0061160796
-0.19864939 0.4732869 0.049487546 -0.23179269 0.6115891 -0.08264784 -0.24857092 0.50174403
0.35302517 0.2403004 -1.6507947 0.049935192 -0.28424254 0.249302 0.22259629 -0.0014784279
0.076236464 -0.12545903 0.05788108 0.3441011 0.1082916 -0.013229578 0.1243855 -0.0008546511
-0.08731851 -0.65384394 -0.11220703 0.16317698 -0.8060283 0.24187471 0.89152074 -0.4807406
0.20393787 1.328458 1.6001089 -0.23022836 0.44547534 -0.2394839 0.18598332 -0.043739956
-0.13676523 -0.1319295 0.27338588 -0.105794355 0.050840702 -0.05975924 0.14875154 -0.09556543
-0.59504366 -0.7705894 -0.11815804 0.63608944 -0.55307543 0.1659562 0.9953545 -0.4887213
-0.009731263 4.160457 0.36642984 0.12232715 -0.1397335 -0.18341835 0.07268941 -0.2142849
-0.21204795 0.5007975 0.16362877 0.02438348 0.3497855 0.54946446 -0.06833717 -0.2653326
0.89321965 -0.14445052 -0.034305662 1.7468804 -0.3650188 0.09865965 0.35801128 0.2343893
0.21684422 3.025732 -4.8906574 -0.23995271 1.0101014 -0.058607597 0.9075694 0.07076274
-0.032592632 -0.37147385 -0.084005035 -0.08885523 0.014363287 -0.08251547 0.10768332 -0.013983517
0.017337555 0.09061219 0.15832914 0.46698877 -0.21325065 0.048794456 -0.38903582 -0.43160042
0.38896224 1.4821278 -2.473129 -0.41349414 -0.59653676 0.086562835 -0.030116562 -0.12554425
-0.06304102 -0.25163272 0.15001811 0.064392634 0.10644161 -0.17986703 0.1302244 -0.1569006
0.8207741 0.7328779 0.084563375 0.8256851 0.8071001 -0.16517992 0.1271068 0.87351984
0.022235703 -0.6228207 -1.4689312 -0.050595142 0.47163278 0.28740254 0.23588929 0.14131172
0.0705618 -0.2109025 -0.10768593 -0.32410845 -0.0088783465 0.015392694 -0.23119104 0.14031562
-0.05239775 0.023461781 0.07254769 -0.30585468 -0.46560907 0.11226783 0.37146315 -1.0048275
0.0074008224 -0.72852695 2.4463367 -1.7546024 -0.30643743 -0.057376556 -0.13117024 -0.13032378
0.010185404 0.3261537 0.15703967 -0.14445749 -0.052981213 0.05628541 -0.04281385 -0.081835076
-0.49934995 0.81308246 0.053332146 -1.9958614 0.6113558 0.0800543 -1.5704379 0.81319356
-0.19621578 -4.0367613 1.1839086 0.15780061 -0.27646872 0.034108583 -0.48937464 -0.020957649
0.09393416 -0.05408285 0.020794239 0.335591 -0.008653762 -0.08482348 0.040203784 -0.052329272
0.32268426 -0.34879327 0.11214142 0.17410038 -0.5435854 0.13875367 -0.9681089 -0.16701892
-0.213353 0.118357606 -2.117685 -0.14509812 0.6503287 -0.5786562 -0.15409274 0.24318686
0.055634703 0.4390975 0.12907651 0.137697 -0.12981321 -0.57952964 -0.29586583 -0.12000964
0.19516854 0.15214188 0.073148414 0.005669594 -0.2523641 -0.049071014 0.262433 -0.7941163
-0.011281479 -0.058671784 0.99632066 -1.0188931 -0.43788454 -0.30267638 -0.29807776 -0.04177057
00000000: 1af9 b23e 88ba d13e ceb5 3e3d 2766 bb3f
00000010: 621a e83d e9fb 0c3e 52ee 1bbe 13b3 003e
00000020: e85e af3e be4b 1e40 891c 5ec0 a167 cfbe
00000030: 175c 4abe b103 c9bd c40f 993e e6b3 cfbd
00000040: 0ad4 7dbd 5bf7 04be fb34 503c 60c0 203e
00000050: c149 de3c b7c8 3cbd 3b31 c9bd 6569 c8bb
00000060: bf6a 4bbe a952 f23e 74b3 4a3d 105b 6dbe
00000070: 1a91 1c3f 4543 a9bd 6089 7ebe 4c72 003f
00000080: b7bf b43e 4f11 763e 3e4d d3bf d888 4c3d
00000090: 3d88 91be 0649 7f3e 48f0 633e cfc7 c1ba
000000a0: dd21 9c3d 5578 00be b614 6d3d 052e b03e
000000b0: fdc7 dd3d dfc0 58bc d3bd fe3d aa0a 60ba
000000c0: 0cd4 b2bd 5162 27bf cdcc e5bd de17 273e
000000d0: df57 4ebf 01ae 773e b43a 643f a223 f6be
000000e0: 17d5 503e e90a aa3f 5ed0 cc3f fcc0 6bbe
000000f0: 5815 e43e 443b 75be 6972 3e3e ab28 33bd
00000100: 2f0c 0cbe 8718 07be 3cf9 8b3e b6aa d8bd
00000110: 573e 503d 1bc6 74bd 5352 183e cfb7 c3bd
00000120: c854 18bf 5945 45bf d8fc f1bd c2d6 223f
00000130: 5a96 0dbf 6cf0 293e 8dcf 7e3f ae39 fabe
00000140: e06f 1fbc 7722 8540 b19c bb3e a886 fa3d
00000150: 4c16 0fbe 05d2 3bbe 2fde 943d 806d 5bbe
00000160: 1923 59be 4434 003f 4d8e 273e ddbf c73c
00000170: 1617 b33e b4a9 0c3f 5cf4 8bbd add9 87be
00000180: 0baa 643f d6ea 13be 1884 0cbd c799 df3f
00000190: bfe3 babe 120e ca3d 414d b73e c003 703e
000001a0: 690c 5e3e 98a5 4140 4480 9cc0 2ab6 75be
000001b0: 014b 813f 850e 70bd 7856 683f 0eec 903d
000001c0: da7f 05bd d231 bebe d50a acbd bbf9 b5bd
000001d0: fe53 6b3c dffd a8bd 1389 dc3d 1f1b 65bc
000001e0: 7d07 8e3c e292 b93d 0921 223e 2719 ef3e
000001f0: 615e 5abe b2dc 473d b42f c7be bbfa dcbe
00000200: 0f26 c73e 5db6 bd3f bf47 1ec0 81b5 d3be
00000210: a2b6 18bf db47 b13d 02b7 f6bc ac8e 00be
00000220: a61b 81bd 01d6 80be 599e 193e 49e0 833d
00000230: 0ffe d93d 102f 38be 8c59 053e 8daa 20be
00000240: 401e 523f e39d 3b3f 902f ad3d 1960 533f
00000250: 1d9e 4e3f ed24 29be 4928 023e ff9e 5f3f
00000260: a627 b63c 2d71 1fbf f005 bcbf da3c 4fbd
00000270: da79 f13e 6d26 933e f68c 713e 05b4 103e
00000280: b482 903d d3f6 57be 718a dcbd 8bf1 a5be
00000290: 7c76 11bc a331 7c3c 58bd 6cbe e6ae 0f3e
000002a0: 069f 56bd ec32 c03c e293 943d fc98 9cbe
000002b0: 5064 eebe adec e53d 6b30 be3e 309e 80bf
000002c0: 9982 f23b be80 3abf c890 1c40 d096 e0bf
000002d0: 5ee5 9cbe ae03 6bbd 7e51 06be 9973 05be
000002e0: aee0 263c 9efd a63e 02cf 203e aaec 13be
000002f0: d402 59bd 888b 663d 935d 2fbd 2699 a7bd
00000300: ccaa ffbe 2c26 503f cf72 5a3d 6378 ffbf
00000310: d081 1c3f 82f3 a33d 1c04 c9bf 742d 503f
00000320: caec 48be 262d 81c0 518a 973f 7c96 213e
00000330: 4f8d 8dbe 71b5 0b3d 508f fabe 60af abbc
00000340: 8e60 c03d fb85 5dbd ae58 aa3c 95d2 ab3e
00000350: 82c8 0dbc efb7 adbd b9ac 243d 3857 56bd
00000360: df36 a53e 0895 b2be 67aa e53d 5f47 323e
00000370: 6a28 0bbf 7115 0e3e fcd5 77bf 0207 2bbe
00000380: 3579 5abe 7965 f23d 2788 07c0 9a94 14be
00000390: f17b 263f d022 14bf 7dca 1dbe fa05 793e
000003a0: 37e1 633d 63d1 e03e a22c 043e 7100 0d3e
000003b0: c1ed 04be 0e5c 14bf ba7b 97be 9dc7 f5bd
000003c0: 43da 473e 15cb 1b3e d6ce 953d 00c8 b93b
000003d0: de35 81be b0fe 48bd 9e5d 863e 354b 4bbf
000003e0: f4d5 38bc d351 70bd df0e 7f3f 176b 82bf
000003f0: 6732 e0be 66f8 9abe a69d 98be 9e17 2bbd

read_encoder.block1.0.bias f4 [128]
-0.2251051 -0.15144172 0.24300162 0.2061234 0.2516748 -0.074474715 0.023703853 0.14245592
-0.31894147 0.32357472 0.08195163 -0.2617447 0.18888542 -0.41762352 0.5506395 -0.04805148
-0.096199654 -0.079625264 0.30062494 -0.17033252 0.103562295 0.3941764 -0.053826433 -0.13646434
0.21530561 0.0151967015 -0.49430707 -0.36257896 -0.25301445 0.1502058 -0.08012447 -0.39920244
0.38887313 -0.07974261 -0.34444952 0.39109918 -0.27118245 0.38137427 -0.13596621 0.18774672
-0.30523115 0.6141501 -0.13916138 0.1672399 -0.23055118 -0.007339394 0.2274759 0.2715801
-0.5490211 -0.27148464 0.24089544 -0.18134703 0.21752559 -0.3152976 -0.2418122 0.059072502
0.55209655 0.23497786 -0.25134325 0.24348941 0.3371289 -0.38348368 0.4047981 -0.46879697
-0.26872995 -0.21132822 -0.14424881 0.32325158 0.17618953 0.17528191 -0.3817685 -0.23543186
-0.073241554 0.17135969 0.4271073 -0.45770118 -0.103463225 -0.3722168 0.06860301 -0.26151586
-0.6016073 0.47143164 -0.05355817 -0.1713249 0.09641219 0.26690838 0.49850637 -0.2951322
-0.3845048 -0.13179082 -0.42640394 0.41998816 0.27928886 0.044775657 0.054244578 0.23983487
0.034814026 -0.025216782 -0.30671197 0.45980152 0.50747925 0.18696271 0.029291641 -0.52938896
0.40077105 -0.29263952 0.10324566 -0.24812175 -0.554284 0.2672468 -0.11153616 0.40518793
-0.011054842 -0.34817067 0.077036366 0.38292855 0.3824357 -0.11055152 -0.14251834 0.48912412
0.10612783 -0.3254344 -0.51508236 0.23357643 -0.23957928 0.044517294 0.32876402 -0.3683172
00000000: f481 66be 8a13 1bbe 6bd5 783e 0312 533e
00000010: 85db 803e 3386 98bd 952e c23c f7df 113e
00000020: 4c4c a3be 96ab a53e 42d6 a73d 6703 86be
00000030: 2e6b 413e c0d2 d5be b6f6 0c3f a1d1 44bd
00000040: 5304 c5bd 9212 a3bd 83eb 993e a66b 2ebe
00000050: 7818 d43d 7dd1 c93e 1b79 5cbd 4fbd 0bbe
00000060: 1379 5c3e 96fb 783c d115 fdbe f3a3 b9be
00000070: 1c8b 81be 8dcf 193e 4c18 a4bd 4364 ccbe
00000080: 611a c73e 1850 a3bd b05b b0be 273e c83e
00000090: 6dd8 8abe 7d43 c33e ba3a 0bbe ad40 403e
000000a0: 4247 9cbe f138 1d3f 5280 0ebe f040 2b3e
000000b0: 9c15 6cbe 4d7f f0bb 71ef 683e 8c0c 8b3e
000000c0: a68c 0cbf 0900 8bbe 4bad 763e 09b3 39be
000000d0: 07bf 5e3e b06e a1be 9e9d 77be 02f6 713d
000000e0: 3356 0d3f 099e 703e 10b0 80be 4a55 793e
000000f0: 299c ac3e f957 c4be b241 cf3e 2806 f0be
00000100: f996 89be 6d66 58be f6b5 13be 3b81 a53e
00000110: 076b 343e 1a7d 333e 2977 c3be 0d15 71be
00000120: abff 95bd ea78 2f3e cfad da3e cf57 eabe
00000130: 87e4 d3bd 3393 bebe bc7f 8c3d 68e5 85be
00000140: f002 1abf 7d5f f13e d05f 5bbd cb6f 2fbe
00000150: c173 c53d 37a8 883e 3a3c ff3e 911b 97be
00000160: d0dd c4be 2cf4 06be 9e51 dabe b008 d73e
00000170: f3fe 8e3e ae66 373d 902f 5e3d 4697 753e
00000180: 2799 0e3d 6d93 cebc 5a09 9dbe 1b6b eb3e
00000190: 29ea 013f 2773 3f3e 06f5 ef3c 0986 07bf
000001a0: dd31 cd3e d9d4 95be 7672 d33d a113 7ebe
000001b0: 8ee5 0dbf 93d4 883e 126d e4bd cb74 cf3e
000001c0: 5e1f 35bc 6d43 b2be 3ec5 9d3d 360f c43e
000001d0: 9dce c33e d668 e2bd 54f0 11be 7a6e fa3e
000001e0: 8c59 d93d 569f a6be 70dc 03bf a92e 6f3e
000001f0: 4554 75be c457 363d c253 a83e 1294 bcbe

read_encoder.block1.1.weight f4 [128]
0.44755602 0.8598476 0.4805422 1.2758827 1.6504266 0.32139748 1.5087477 0.58145183
1.5139229 1.2067752 1.147402 1.5362806 1.4339817 0.5705219 2.0721164 1.5614322
1.2479988 0.72482336 1.1098027 0.667452 1.3971634 1.490445 1.0484092 0.6581903
1.1666491 0.8477173 0.77418435 0.8742975 0.9459454 1.1750805 1.2226425 0.43174833
1.2720294 0.4469003 0.47995037 1.5089561 0.89297146 1.6031902 0.69474673 2.246846
0.99320835 1.2638028 0.9204922 1.1098969 0.3228246 1.7043346 1.0611054 1.6079762
0.92439526 0.49035856 0.7594964 0.45576575 1.6336231 0.6349669 1.3350344 0.6110104
1.5425729 1.4853395 0.45016858 0.9584521 1.7853042 0.4217062 1.2395661 0.7518416
0.56458855 0.63973945 0.40685055 1.9067677 1.061402 1.1212955 0.9291204 0.44153556
1.2258385 1.9197608 1.1121452 0.535794 0.40813482 0.50717974 1.258829 0.6042557
0.9172069 1.5266223 0.49539953 1.3053755 1.600895 0.6125643 1.6106352 0.5500782
0.5658982 0.7864981 0.76687115 1.9396831 1.127799 0.5073314 1.565237 1.2633256
1.0697806 1.2517734 1.0360678 1.1624713 1.1818004 1.6545298 1.1163929 1.4098763
1.5623089 0.63237464 0.7297708 0.6305694 0.9331173 1.146182 0.4362938 1.2511218
0.37079844 0.51871306 1.0803374 1.2024294 1.5985265 0.63353765 1.7028934 0.88375884
1.36795 1.172741 0.8673972 1.1906546 0.64929473 1.4074901 0.66449094 0.7931302
00000000: 1026 e53e f91e 5c3f a109 f63e 2050 a33f
00000010: 2e41 d33f 368e a43e a51e c13f 07da 143f
00000020: 3ac8 c13f 9c77 9a3f 12de 923f d8a4 c43f
00000030: b68c b73f b90d 123f 8e9d 0440 03dd c73f
00000040: 6dbe 9f3f 068e 393f 040e 8e3f 22de 2a3f
00000050: 40d6 b23f e7c6 be3f 4632 863f 297f 283f
00000060: c254 953f 0004 593f f230 463f f6d1 5f3f
00000070: 7a29 723f 0a69 963f 8d7f 9c3f 1e0e dd3e
00000080: dcd1 a23f 1ed0 e43e 0ebc f53e 7925 c13f
00000090: c799 643f 5635 cd3f ecda 313f 53cc 0f40
000000a0: e742 7e3f 4ac4 a13f 60a5 6b3f 1a11 8e3f
000000b0: 4449 a53e a327 da3f 4dd2 873f 2ad2 cd3f
000000c0: 2ba5 6c3f 4710 fb3e 5b6e 423f 215a e93e
000000d0: 901a d13f 318d 223f 68e2 aa3f 2d6b 1c3f
000000e0: 0773 c53f 9b1f be3f 7f7c e63e 1e5d 753f
000000f0: d984 e43f e0e9 d73e 1aaa 9e3f b178 403f
00000100: e088 103f f7c5 233f b74e d03e f710 f43f
00000110: 05dc 873f 9c86 8f3f d6da 6d3f f310 e23e
00000120: 47e8 9c3f b9ba f53f c65a 8e3f cc29 093f
00000130: 0cf7 d03e 88d6 013f 4f21 a13f 80b0 1a3f
00000140: 12ce 6a3f 5c68 c33f 02a5 fd3e 8b16 a73f
00000150: 21ea cc3f 04d1 1c3f 4b29 ce3f edd1 0c3f
00000160: b4de 103f f157 493f ab51 443f 8947 f83f
00000170: b85b 903f 78e0 013f b059 c83f a7b4 a13f
00000180: 92ee 883f 1c3a a03f df9d 843f dccb 943f
00000190: 3c45 973f a2c7 d33f f6e5 8e3f d476 b43f
000001a0: bdf9 c73f 4ee3 213f 42d2 3a3f ff6c 213f
000001b0: c6e0 6e3f 17b6 923f e761 df3e c224 a03f
000001c0: 4bd9 bd3e 61ca 043f 7f48 8a3f 35e9 993f
000001d0: 849c cc3f 862f 223f 69f8 d93f 053e 623f
000001e0: fc18 af3f 611c 963f be0d 5e3f 5f67 983f
000001f0: 2e38 263f a328 b43f 141c 2a3f 950a 4b3f

read_encoder.block1.1.bias f4 [128]
-0.5324364 -0.15032765 -0.16821885 -0.059010983 -0.06224689 -0.5738807 -0.3458174 -0.44623795
-0.1212999 -0.07188039 -0.2905942 -0.07867674 -0.27416196 -0.42691594 -0.11921611 -0.095704935
-0.2020916 -0.3676711 -0.10433245 -0.31609118 0.0068800612 -0.16233821 -0.32613775 -0.44362077
-0.15366735 -0.07249858 -0.47109404 -0.340732 -0.3349482 -0.14820023 -0.23175289 -0.5496218
-0.07616234 -0.5466923 -0.4091013 -0.19703974 -0.27151078 -0.050668344 -0.37865284 0.050629318
-0.18046935 -0.28245586 -0.1510711 -0.3658139 -0.48173457 -0.08402528 -0.32334656 -0.29534814
-0.36642388 -0.4841085 -0.23027538 -0.42508388 -0.07571212 -0.40525055 -0.2306046 -0.42374626
-0.09363628 -0.14160457 -0.40911263 -0.3496967 -0.48026398 -0.58534265 -0.33527136 -0.25884992
-0.36207345 -0.29644272 -0.56300807 -0.15121515 -0.4463938 -0.12667298 -0.3623894 -0.53550875
-0.18769427 -0.014850746 -0.13177316 -0.41121355 -0.5078702 -0.50610214 -0.29996985 -0.31611997
-0.25828144 -0.17805777 -0.50669754 -0.15669039 -0.117230505 -0.39018562 -0.13548441 -0.5067487
-0.44141486 -0.25348422 -0.31501803 -0.12344599 -0.16426715 -0.5304103 -0.08638924 -0.42782527
-0.29839143 -0.19733407 -0.2546676 -0.080235645 -0.014172896 -0.1614801 -0.26941404 -0.13887048
0.071124196 -0.22892834 -0.21319774 -0.39623466 -0.26237753 -0.4871416 -0.5499704 -0.07143734
-0.48935226 -0.5086826 -0.31251776 -0.356094 -0.25129235 -0.3908928 -0.03571249 -0.38811728
-0.0397359 -0.19044839 -0.29529905 -0.32448548 -0.40133563 -0.1751727 -0.39682546 -0.33418536
00000000: c04d 08bf 7eef 19be 9041 2cbe 80b5 71bd
00000010: 98f6 7ebd d8e9 12bf fa0e b1be 4d79 e4be
00000020: 156c f8bd 0736 93bd c3c8 94be 4521 a1bd
00000030: f55e 8cbe ba94 dabe 9327 f4bd f300 c4bd
00000040: 1af1 4ebe 633f bcbe 40ac d5bd b4d6 a1be
00000050: 2372 e13b fd3b 26be 87fb a6be 4322 e3be
00000060: f95a 1dbe 237a 94bd 3d33 f1be 6d74 aebe
00000070: 557e abbe cdc1 17be a150 6dbe 04b4 0cbf
00000080: 00fb 9bbd 07f4 0bbf ba75 d1be c9c4 49be
00000090: 7603 8bbe 9c89 4fbd c9de c1be b060 4f3d
000000a0: f5cc 38be 0e9e 90be 62b2 1abe f64b bbbe
000000b0: eaa5 f6be 7215 acbd ae8d a5be df37 97be
000000c0: e99b bbbe 12dd f7be 4fcd 6bbe 98a4 d9be
000000d0: f50e 9bbd 007d cfbe 9d23 6cbe 45f5 d8be
000000e0: 61c4 bfbd ca00 11be 3677 d1be 720b b3be
000000f0: 29e5 f5be 04d9 15bf b0a8 abbe fa87 84be
00000100: b161 b9be 57c7 97be 4c21 10bf 25d8 1abe
00000110: ba8d e4be 90b6 01be 1a8b b9be 1a17 09bf
00000120: ed32 40be 8b50 73bc 8bef 06be 958a d2be
00000130: c803 02bf e98f 01bf a695 99be 7ada a1be
00000140: 773d 84be c754 36be eeb6 01bf 7273 20be
00000150: 8c16 f0bd 69c6 c7be 6dbc 0abe 48ba 01bf
00000160: 2101 e2be afc8 81be 0b4a a1be 40d1 fcbd
00000170: a635 28be f8c8 07bf d8ec b0bd ea0b dbbe
00000180: c3c6 98be f111 4abe cb63 82be 9652 a4bd
00000190: 6f35 68bc 0a5b 25be a3f0 89be 1034 0ebe
000001a0: 90a9 913d 316c 6abe 8250 5abe 45df cabe
000001b0: 5956 86be a06a f9be dcca 0cbf bd4d 92bd
000001c0: 618c fabe 0639 02bf 5402 a0be f451 b6be
000001d0: 64a9 80be 1a23 c8be 4347 12bd 4fb7 c6be
000001e0: 1cc2 22bd e704 43be 7031 97be f622 a6be
000001f0: dd7b cdbe 7960 33be b52c cbbe 581a abbe

read_encoder.block2.0.weight f4 [128, 128]
-0.09368971 0.051409308 -0.026342904 0.24966957 -0.09611138 0.13493769 0.0025789877 0.12482391
0.12453867 -0.08844972 0.16688482 -0.35485262 0.48998767 -0.055517446 0.41500214 0.28846085
-0.26163724 -0.06834879 -0.05374163 0.024684394 -0.035949435 -0.090317965 0.13117659 -0.13062023
0.09194886 -0.17520313 -0.278639 0.10679922 -0.046982817 0.1895475 0.18206999 0.013063595
-0.023952436 0.021195058 -0.04075827 0.2677766 0.0198352 0.26915467 -0.11328827 -0.24193855
0.014054388 0.13512479 0.004254726 0.05983289 0.20144753 0.2512067 0.08999295 0.3073706
-0.11558034 0.059983972 0.123316705 -0.09751036 0.09674048 0.14413899 0.048896514 0.012957459
0.33917367 -0.547892 0.03250747 0.05443104 -0.14935859 0.07700817 0.27813417 -0.19869047
-0.1494366 0.036568332 0.14308295 0.116791256 0.089248754 0.14100596 0.012932543 0.03514209
-0.01988647 -0.01725217 0.07579023 -0.047155663 -0.0709202 -0.09225148 -0.117600955 0.17206691
0.036011524 0.252995 0.06264531 0.03212772 -0.15268238 0.14113212 0.24555267 0.10433878
-0.17570314 -0.027935972 0.08703981 0.4966158 0.16013971 0.19833331 0.3927146 0.19570026
0.18378846 0.13342664 -0.53440154 0.10414738 0.34942004 -0.1596255 0.26867494 0.11663134
0.08168495 0.14949623 -0.06088637 0.06619972 -0.11768623 -0.14383915 0.14457744 0.20339857
0.021820769 -0.09418454 -0.1355562 0.033695783 -0.033058215 0.0045640417 -0.6677088 -0.15791354
-0.032285955 -0.4344033 -0.50338227 -0.14703494 -0.10086875 0.16922985 -0.040294986 -0.06617001
0.017476192 -0.22443348 -0.101553604 0.1012528 0.02056832 0.08617393 -0.029931119 -0.036332637
0.35145584 -0.06365157 0.060947794 0.19412452 0.2540557 0.12460334 0.09316324 -0.42755362
0.26114884 0.17903244 0.25165775 -0.049678445 0.23359072 0.39529625 0.19332375 -0.126195
0.039383665 -0.0050348085 0.2794887 -0.01135359 0.1839091 -0.11437617 0.08746391 0.13717991
-0.38992018 0.03177493 0.09080222 0.06679517 -0.31793284 0.15801203 0.20501375 -0.00966413
-0.07205357 0.089514114 0.21058545 0.45249593 0.002254919 -0.2121338 -0.025263848 0.2766
-0.028884452 0.13758904 0.111281484 -0.000980128 0.17267278 0.23139529 0.11319736 0.07312241
0.33240142 0.12332205 0.04580056 0.14407592 -0.21450354 -0.080369085 0.1977411 0.08208248
0.00594784 0.19936222 0.14646712 -0.31337246 0.048542097 -0.10636368 0.1622271 0.20616531
0.15498348 -0.12999463 0.08781209 0.060796477 0.23928095 0.053502776 0.14278835 0.010466091
0.12273046 0.21740088 -0.16071463 -0.086715125 -0.049397767 -0.17651024 -0.16024052 0.108156934
-0.013146263 -0.044253014 0.08208231 0.69297177 0.17538702 0.1287963 0.07412329 -0.46379244
0.05877617 0.15685302 -0.022080477 -0.026833586 0.24622963 -0.0815176 -0.21577518 0.44920528
0.05427613 0.08357376 0.22818503 0.009474452 0.075795054 0.058762703 0.06923605 -0.17743582
0.017030468 0.12848365 -0.47071558 -0.05418593 -0.1428003 0.0013312979 0.3508226 0.3358839
-0.04150436 0.005084501 0.26352224 0.023389833 0.031877983 0.22094087 0.08373919 -0.21340537
00000000: 64e0 bfbd 9192 523d 13cd d7bc 61a9 7f3e
00000010: 0bd6 c4bd 1b2d 0a3e 3c04 293b aea3 ff3d
00000020: 210e ff3d 2025 b5bd dbe3 2a3e 3eaf b5be
00000030: aadf fa3e 4366 63bd 297b d43e 24b1 933e
00000040: 51f5 85be 73fa 8bbd 2f20 5cbd ed36 ca3c
00000050: b73f 13bd a0f8 b8bd 2853 063e 4fc1 05be
00000060: af4f bc3d 7368 33be c5a9 8ebe 8db9 da3d
00000070: 0e71 40bd bd18 423e 8e70 3a3e b008 563c
00000080: e637 c4bc 42a1 ad3c 25f2 26bd 041a 893e
00000090: 6e7d a23c a4ce 893e ae03 e8bd bdbe 77be
000000a0: 6044 663c 275e 0a3e 3b6b 8b3b 5513 753d
000000b0: 4348 4e3e 2a9e 803e 394e b83d ae5f 9d3e
000000c0: 63b5 ecbd c1b1 753d 788d fc3d 83b3 c7bd
000000d0: df1f c63d 2c99 133e b647 483d 864b 543c
000000e0: 2ca8 ad3e a642 0cbf 8e26 053d 15f3 5e3d
000000f0: 75f1 18be 76b6 9d3d 9a67 8e3e 8475 4bbe
00000100: e805 19be adc8 153d 5684 123e 4130 ef3d
00000110: 0dc8 b63d de63 103e 04e3 533c 27f1 0f3d
00000120: f3e8 a2bc 6c54 8dbc e837 9b3d 4c26 41bd
00000130: 9c3e 91bd 58ee bcbd c5d8 f0bd 4f32 303e
00000140: d280 133d 9088 813e 2f4c 803d 5b98 033d
00000150: c558 1cbe f084 103e 2972 7b3e 92af d53d
00000160: 86eb 33be fbd9 e4bc ee41 b23d 6d44 fe3e
00000170: aafb 233e e317 4b3e e311 c93e a665 483e
00000180: 0b33 3c3e fea0 083e 8ace 08bf 394b d53d
00000190: 2fe7 b23e de74 23be c38f 893e 69dc ee3d
000001a0: 704a a73d 8a15 193e fc63 79bd b893 873d
000001b0: 7a05 f1bd 924a 13be 1c0c 143e b747 503e
000001c0: 78c1 b23c d3e3 c0bd 3fcf 0abe 9704 0a3d
000001d0: 0d68 07bd f58d 953b f7ee 2abf 16b4 21be
000001e0: 473e 04bd 1c6a debe a9dd 00bf 5490 16be
000001f0: 4694 cebd 974a 2d3e 5b0c 25bd 2484 87bd
00000200: 3b2a 8f3c e4d1 65be 56fb cfbd a15d cf3d
00000210: e57e a83c f57b b03d 1b32 f5bc 88d1 14bd
00000220: 05f2 b33e c15b 82bd 65a4 793d 94c8 463e
00000230: 9713 823e 0930 ff3d 5ecc be3d 4fe8 dabe
00000240: 4db5 853e 4854 373e 49d9 803e a07b 4bbd
00000250: 6832 6f3e 4564 ca3e a9f6 453e 4339 01be
00000260: c450 213d 09fb a4bb 2519 8f3e 6804 3abc
00000270: ab52 3c3e 0e3e eabd 4720 b33d e478 0c3e
00000280: 9ea3 c7be 6e26 023d 84f6 b93d e8cb 883d
00000290: 18c8 a2be e8cd 213e 20ef 513e 4d56 1ebc
000002a0: d290 93bd 2d53 b73d b6a3 573e 8cad e73e
000002b0: 43c7 133b 9a39 59be 21f6 cebc 849e 8d3e
000002c0: 169f ecbc 24e4 0c3e 8ce7 e33d a377 80ba
000002d0: 22d1 303e e3f2 6c3e 04d4 e73d 34c1 953d
000002e0: 8530 aa3e 4590 fc3d 5e99 3b3d a388 133e
000002f0: d1a6 5bbe 8c98 a4bd a57c 4a3e dc1a a83d
00000300: 19e6 c23b 9c25 4c3e 7afb 153e 5b72 a0be
00000310: 14d4 463d 33d5 d9bd dc1e 263e 001d 533e
00000320: fdb3 1e3e 501d 05be d3d6 b33d ba05 793d
00000330: 1106 753e ba25 5b3d 1c37 123e f879 2b3c
00000340: 1b5a fb3d 569e 5e3e 6092 24be b397 b1bd
00000350: 5055 4abd 1abf 34be 1716 24be 6281 dd3d
00000360: 6c63 57bc a642 35bd c51a a83d 9966 313f
00000370: a898 333e 2de3 033e f4cd 973d 3476 edbe
00000380: 48bf 703d 149e 203e 1ee2 b4bc 1cd2 dbbc
00000390: 9f23 7c3e b3f2 a6bd 2bf4 5cbe 3cfe e53e
000003a0: a650 5e3d b828 ab3d 56a9 693e bb3a 1b3c
000003b0: 703a 9b3d 29b1 703d a1cb 8d3d bcb1 35be
000003c0: 7b83 8b3c 3891 033e a201 f1be 11f2 5dbd
000003d0: 3e3a 12be f27e ae3a 059f b33e f9f8 ab3e
000003e0: 7a00 2abd e39b a63b 63ec 863e 099c bf3c
000003f0: 7d92 023d 533e 623e 747f ab3d f086 5abe

read_encoder.block2.0.bias f4 [128]
0.12764525 0.34300023 0.19625273 0.22475556 -0.04548015 -0.07735844 -0.09706803 0.033150494
0.07925565 -0.078357995 -0.06966136 0.055044115 0.035514697 0.06745744 0.17914145 -0.29082224
0.21026812 0.1035942 -0.056588937 0.38531825 0.048543517 -0.1270282 -0.10994993 0.1780408
-0.040888637 0.17169183 0.2831346 0.13660587 -0.15224043 -0.1642196 -0.25455523 0.06769693
-0.021326315 0.09762968 0.27626908 -0.005339124 0.10023715 -0.056511972 0.25947416 -0.0177701
0.18949477 -0.08367006 0.3746719 -0.044216864 -0.008811962 0.0098078735 0.12147347 0.28906518
-0.046036623 0.26981878 0.14320011 0.3126499 0.22672111 -0.18364434 -0.043316912 -0.14247514
0.025352433 -0.010049715 0.15858926 0.40588495 0.14909682 0.3338331 0.12035425 0.064222746
0.19663635 0.09233481 0.32132804 0.1423659 0.07572298 -0.058231097 -0.05148963 0.2616827
-0.0398714 -0.01985192 -0.01814234 0.04798516 0.34569538 0.2832829 -0.091294274 -0.016641082
0.31601703 0.1138824 0.26523012 -0.22982731 0.055235934 0.27865335 0.22562833 0.12362537
0.17418957 -0.09334817 -0.021197041 -0.28492114 -0.04302773 0.08937815 0.31791803 -0.17131887
0.3667498 0.04113718 -0.018956516 -0.10810593 0.11363365 0.30570364 0.14639439 -0.057876483
-0.030163037 -0.13888241 0.28654352 0.52128965 0.09305777 0.39382455 0.3335095 0.16181238
-0.090231515 0.38233927 0.14418136 0.42060146 0.32203293 0.1045353 -0.04493976 -0.015469871
0.0019116668 0.18288474 0.14829972 -0.008525755 0.26301977 -0.07591322 0.033699162 0.08638427
00000000: 70b5 023e ba9d af3e 7af6 483e 5226 663e
00000010: 6549 3abd 1a6e 9ebd 9acb c6bd d0c8 073d
00000020: c950 a23d 287a a0bd 9daa 8ebd f075 613d
00000030: dc77 113d 2027 8a3d db70 373e a7e6 94be
00000040: 8750 573e 3229 d43d cdc9 67bd 6f48 c53e
00000050: 91d5 463d ae13 02be 6e2d e1bd 5450 363e
00000060: d87a 27bd fccf 2f3e 05f7 903e 69e2 0b3e
00000070: eae4 1bbe 2f29 28be 1055 82be b0a4 8a3d
00000080: 86b4 aebc 12f2 c73d 2473 8d3e d1f3 aebb
00000090: 2349 cd3d 1979 67bd ccd9 843e 9a92 91bc
000000a0: eb0a 423e 355b abbd ffd4 bf3e be1c 35bd
000000b0: 0c60 10bc 34b1 203c 15c7 f83d 5a00 943e
000000c0: e690 3cbd b025 8a3e 0da3 123e a613 a03e
000000d0: 9429 683e 430d 3cbe 136d 31bd 01e5 11be
000000e0: e8af cf3c 8fa7 24bc 3965 223e 27d0 cf3e
000000f0: d6ac 183e 2cec aa3e 4a7c f63d 3787 833d
00000100: 0a5b 493e 081a bd3d 1c85 a43e 5ec8 113e
00000110: a614 9b3d bb83 6ebd cae6 52bd 46fb 853e
00000120: 3150 23bd 7ea0 a2bc 3f9f 94bc 168c 443d
00000130: fcfe b03e 750a 913e 7ef8 babd e152 88bc
00000140: fccc a13e 2d3b e93d 3ecc 873e da57 6bbe
00000150: 133f 623d a7ab 8e3e 1d0b 673e 4c2f fd3d
00000160: c05e 323e 532d bfbd 6ba5 adbc 2fe1 91be
00000170: d83d 30bd e40b b73d 27c6 a23e 376e 2fbe
00000180: a1c6 bb3e 767f 283d b24a 9bbc a466 ddbd
00000190: c2b8 e83d 3085 9c3e 69e8 153e e40f 6dbd
000001a0: 7918 f7bc 3137 0ebe d5b5 923e 3d73 053f
000001b0: 1295 be3d 5fa3 c93e c2c1 aa3e 25b2 253e
000001c0: 4dcb b8bd f9c1 c33e 47a4 133e 1359 d73e
000001d0: 80e1 a43e 9a16 d63d c112 38bd 5875 7dbc
000001e0: e590 fa3a 2346 3b3e e2db 173e 9caf 0bbc
000001f0: 87aa 863e 6478 9bbd 2208 0a3d 3cea b03d

read_encoder.block2.1.weight f4 [128]
0.9301326 0.675583 0.69390345 1.0055339 1.066266 1.0427959 1.2291595 1.2091025
1.4117832 1.0936502 1.3194568 0.9402593 1.1784618 0.96581537 0.64615655 1.6751076
0.70071965 0.8767949 0.96264035 0.6363469 0.98178387 1.386227 1.2802278 0.7520639
1.2611978 0.8323977 0.66154855 0.6874514 1.1777965 1.2566942 1.1402575 0.759091
1.1826228 0.9960841 0.78196657 1.0825495 1.0997055 1.239551 0.8012154 1.2294747
0.7288678 1.0447156 0.782977 1.1420152 1.224736 1.1059045 1.0455773 0.6820042
1.1318833 0.6997335 0.8032255 0.65755504 0.7267948 1.3000714 1.220747 1.1878594
1.1560004 1.233574 0.90748286 0.7076084 1.1446124 0.48905694 1.0036083 1.0188003
0.93012744 1.1467297 0.74073696 1.0533973 0.86019176 1.2053616 1.1776081 0.7474746
1.2737079 1.0019857 1.2131625 1.0354415 0.62881356 0.6994696 1.2369347 1.1619735
0.68131715 0.9756036 0.79722285 1.4394962 0.8248886 0.75333065 0.8820727 1.1509554
0.8062416 1.190194 1.1416897 1.6022981 1.1124526 0.890038 0.66883034 1.5211349
0.6978057 1.0345678 1.1810297 1.1429096 0.83002585 0.65459067 1.0342597 1.1858859
1.1420344 1.3018034 0.62024575 0.5985214 1.1014745 0.6450109 0.6088625 0.8079025
1.3113835 0.66626996 0.90826225 0.68219006 0.72206074 0.9208789 0.91810584 1.169332
0.8970607 0.9909737 0.95530766 1.0966861 0.7020526 1.2424829 1.0631304 0.86105484
00000000: 2c1d 6e3f 02f3 2c3f a8a3 313f 56b5 803f
00000010: 677b 883f 567a 853f 1955 9d3f dfc3 9a3f
00000020: 50b5 b43f bbfc 8b3f f6e3 a83f d5b4 703f
00000030: d6d7 963f ad3f 773f 846a 253f ed69 d63f
00000040: 5d62 333f a175 603f 996f 763f a1e7 223f
00000050: 3056 7b3f e36f b13f 81de a33f 4287 403f
00000060: ee6e a13f 0418 553f 3f5b 293f d1fc 2f3f
00000070: 09c2 963f 5bdb a03f f5f3 913f ca53 423f
00000080: 2f60 973f 5eff 7e3f f62e 483f fb90 8a3f
00000090: 26c3 8c3f 9ba9 9e3f 741c 4d3f 6d5f 9d3f
000000a0: 1597 3a3f 3eb9 853f 2e71 483f 8e2d 923f
000000b0: 26c4 9c3f 478e 8d3f 7ad5 853f d497 2e3f
000000c0: 8de1 903f bc21 333f 30a0 4d3f 8755 283f
000000d0: 390f 3a3f bd68 a63f 7041 9c3f c70b 983f
000000e0: d2f7 933f c1e5 9d3f cc50 683f d325 353f
000000f0: a982 923f ac65 fa3e 3d76 803f 0c68 823f
00000100: d51c 6e3f 0ac8 923f f0a0 3d3f b9d5 863f
00000110: 8735 5c3f 4a49 9a3f ddbb 963f 7f5a 3f3f
00000120: dc08 a33f 1141 803f e948 9b3f 5989 843f
00000130: edf9 203f 7110 333f e053 9e3f 8cbb 943f
00000140: cd6a 2e3f 28c1 793f cc16 4c3f 6941 b83f
00000150: e62b 533f 47da 403f 84cf 613f 8252 933f
00000160: d965 4e3f 4758 983f e322 923f 1b18 cd3f
00000170: d964 8e3f 88d9 633f 7738 2b3f 8cb4 c23f
00000180: 65a3 323f b86c 843f fb2b 973f dd4a 923f
00000190: 937c 543f 4193 273f 9f62 843f 1ccb 973f
000001a0: 2f2e 923f 7ea1 a63f 6dc8 1e3f b338 193f
000001b0: 1efd 8c3f 6f1f 253f 6ade 1b3f b3d2 4e3f
000001c0: 6adb a73f ab90 2a3f e083 683f 02a4 2e3f
000001d0: f9d8 383f b8be 6b3f fc08 6b3f acac 953f
000001e0: c5a5 653f 74b0 7d3f 0b8f 743f 3660 8c3f
000001f0: b8b9 333f ae09 9f3f a814 883f 176e 5c3f

read_encoder.block2.1.bias f4 [128]
-0.37216663 -0.42715257 -0.2558343 -0.36557066 -0.3465627 -0.4268018 -0.35543102 -0.46116012
-0.56183136 -0.3160981 -0.40066478 -0.55096596 -0.3294102 -0.25771153 -0.38401705 -0.27724218
-0.34556362 -0.27377236 -0.37217024 -0.3892926 -0.5303149 -0.3219229 -0.343101 -0.5624619
-0.3606414 -0.250573 -0.35299343 -0.34142533 -0.37630868 -0.352483 -0.40003923 -0.32972354
-0.3535102 -0.5475827 -0.23434895 -0.3241339 -0.54539526 -0.34555328 -0.5324676 -0.2539091
-0.2530947 -0.42098504 -0.24298403 -0.44279101 -0.37193412 -0.25510538 -0.45918635 -0.3087765
-0.3954142 -0.19779201 -0.24795221 -0.27408192 -0.37831402 -0.34228086 -0.26459885 -0.2855905
-0.36566317 -0.3130227 -0.22093181 -0.2828418 -0.19309652 -0.5677221 -0.27016607 -0.25668755
-0.46889764 -0.2907936 -0.49890566 -0.29645512 -0.39297342 -0.26139864 -0.47256276 -0.472238
-0.48839787 -0.30182356 -0.3244972 -0.52361894 -0.46703538 -0.28482506 -0.45147073 -0.28808758
-0.3745772 -0.3043665 -0.41314808 -0.26909146 -0.48290956 -0.28706363 -0.45094064 -0.53454286
-0.7799575 -0.27947873 -0.31542677 -0.41920638 -0.3104657 -0.6673721 -0.3624888 -0.5572963
-0.36161333 -0.3869876 -0.36976156 -0.34290776 -0.4639756 -0.32223278 -0.29691252 -0.33035553
-0.311813 -0.31536046 -0.40360692 -0.39607456 -0.45220992 -0.3579955 -0.3699512 -0.39009187
-0.5040124 -0.41887414 -0.4518002 -0.2865901 -0.37734473 -0.2610822 -0.3296842 -0.42566118
-0.39556602 -0.36750644 -0.23337467 -0.39541492 -0.46868676 -0.24623199 -0.31556943 -0.40926012
00000000: a08c bebe beb3 dabe b7fc 82be 142c bbbe
00000010: ab70 b1be c485 dabe 0efb b5be 2e1d ecbe
00000020: 2ed4 0fbf 9cd7 a1be ef23 cdbe 1b0c 0dbf
00000030: 74a8 a8be c4f2 83be e29d c4be b0f2 8dbe
00000040: b7ed b0be e42b 8cbe 198d bebe 5c51 c7be
00000050: b8c2 07bf 14d3 a4be efaa afbe 81fd 0fbf
00000060: fda5 b8be 1b4b 80be 8ebb b4be 4dcf aebe
00000070: 88ab c0be a778 b4be f1d1 ccbe 86d1 a8be
00000080: 4aff b4be 612e 0cbf 2cf9 6fbe e1f4 a5be
00000090: 069f 0bbf 5cec b0be cc4f 08bf 6000 82be
000000a0: a195 81be 5a8b d7be ced0 78be 81b5 e2be
000000b0: 266e bebe 2c9d 82be 791a ebbe f417 9ebe
000000c0: bb73 cabe fd89 4abe 2fe7 7dbe 7754 8cbe
000000d0: 60b2 c1be 703f afbe 8079 87be eb38 92be
000000e0: 3438 bbbe 8344 a0be f33b 62be a4d0 90be
000000f0: 18bb 45be 3c56 11bf 3553 8abe 8d6c 83be
00000100: 5a13 f0be e6e2 94be 9070 ffbe f7c8 97be
00000110: d033 c9be 0bd6 85be bff3 f1be 2ec9 f1be
00000120: 490f fabe 9e88 9abe 7f24 a6be e40b 06bf
00000130: 431f efbe 97d4 91be 2c27 e7be 3780 93be
00000140: 95c8 bfbe edd5 9bbe 2588 d3be 5bc6 89be
00000150: ec3f f7be 01fa 92be b1e1 e6be cdd7 08bf
00000160: 4bab 47bf d617 8fbe 9e7f a1be 38a2 d6be
00000170: 5cf5 9ebe e6d8 2abf 2298 b9be f8aa 0ebf
00000180: 6225 b9be 3d23 c6be 6351 bdbe 9b91 afbe
00000190: 368e edbe b2fb a4be eb04 98be 5c24 a9be
000001a0: f4a5 9fbe ed76 a1be 91a5 cebe 49ca cabe
000001b0: 0f88 e7be 304b b7be 3e6a bdbe 1fba c7be
000001c0: f506 01bf ac76 d6be 5b52 e7be f0bb 92be
000001d0: 5433 c1be 91ac 85be 5ecc a8be 43f0 d9be
000001e0: a187 cabe ce29 bcbe c5f9 6ebe d373 cabe
000001f0: b6f7 efbe 3d24 7cbe 5192 a1be 8b8a d1be

read_encoder.block3.0.weight f4 [128, 128]
-0.14258714 -0.14898205 -0.038810614 -0.09303666 -0.035951197 0.03762487 0.07259035 0.040945843
-0.45975298 0.02940416 -0.28048408 0.21108653 -0.23498908 -0.23702791 -0.13674366 -0.35733044
0.11420523 -0.14994366 -0.06495328 -0.1057038 0.34580895 0.16418383 -0.11439058 0.15170184
-0.0031513863 0.087410934 -0.034279294 -0.0021555969 -0.19313279 0.16559575 -0.16045718 -0.008303656
-0.15923405 -0.046125855 0.07385734 0.3959849 0.11098021 0.31672207 -0.2845987 -0.11147975
0.024727182 -0.29017913 -0.06233864 0.082284205 0.022328302 -0.053889688 0.017585376 -0.028792648
-0.13853888 -0.006000374 0.21082857 -0.17095616 -0.013153692 -0.22853447 0.14079857 -0.18104242
-0.25454417 0.20306541 -0.19938485 0.027855998 -0.031839564 0.05077626 0.101973675 -0.21146895
-0.23547411 -0.22087991 0.040871724 -0.16635466 0.09431508 0.31181645 -0.13121973 -0.006254492
0.20952083 -0.16573133 0.076375045 0.108086884 0.07079824 0.030200956 -0.14363982 -0.15441346
-0.045136195 0.23499979 -0.06467248 -0.19081406 0.3747371 0.14185433 -0.6804358 -0.16878437
-0.19262768 -0.6158282 -0.1921965 0.10450227 -0.27196437 -0.2309824 0.091075 -0.25970992
-0.20273972 0.09905901 0.056232557 0.37549937 -0.04279074 0.13311511 -0.18889564 0.1529867
-0.5037093 -0.09930126 0.036198147 -0.015335321 -0.13521746 0.097511955 0.0696334 0.05464128
-0.014474408 -0.1108088 -0.18926886 -0.030940572 0.025620686 0.04774746 0.10062443 0.082577065
0.12253464 0.09194201 -0.054028004 0.19335823 -0.033149034 0.28728193 -0.1676636 0.05237777
0.041723344 -0.12665637 -0.05753655 0.031471323 -0.57607156 -0.034504995 -0.54583627 -0.018693084
-0.19229023 0.3225049 -0.2363023 -0.18694419 0.07110945 0.0717951 0.14203493 -0.45925254
-0.100804046 0.09104105 0.11457937 -0.063271634 0.15989868 -0.35404077 0.12426976 -0.016872343
0.131695 -0.26624402 0.33585307 -0.00948107 0.10700259 0.5009815 -0.10096503 -0.017525516
0.40734404 0.16183975 -0.07056925 0.1517744 0.16738911 0.17079052 0.2722572 0.050422937
-0.122191645 0.07959614 0.13950405 -0.036081422 0.08976448 -0.15286562 0.12183356 -0.39095718
-0.3345755 0.08618465 -0.056713898 0.07648269 0.0046846224 -0.32009903 -0.5426203 0.063703045
0.29263645 -0.25194982 0.15996738 -0.02274021 -0.051125757 0.25195202 -0.033687573 -0.2167984
-0.021821154 0.0072492897 0.08558185 -0.038816992 0.091546215 0.11057055 0.18351814 -0.25186244
-0.36299688 0.10979916 0.3782108 -0.005275399 0.12722188 0.13107327 0.17652676 -0.15543565
-0.024366975 0.0008187922 0.0050744987 -0.51988935 -0.14076091 0.13734496 0.09035948 -0.15242465
0.124311775 -0.074904926 -0.09314589 -0.6112013 0.4060471 0.0560413 -0.16097307 0.057271935
0.014870866 0.19139212 -0.11677674 0.2992089 0.109451294 0.103653066 0.16603039 -0.08482928
0.21361972 -0.33781186 -0.055983834 0.0058272653 0.0060619605 0.063886404 -0.008154366 -0.27074096
0.2632591 0.0012981604 -0.14670116 0.22234756 0.04019288 0.11957107 -0.2842829 0.048642084
-0.11134656 0.01781121 -0.12930419 -0.23404256 -0.17088424 0.060505334 0.08416755 -0.37930816
00000000: 5d02 12be c08e 18be e1f7 1ebd 018a bebd
00000010: 9041 13bd 891c 1a3d 40aa 943d d4b6 273d
00000020: be64 ebbe fee0 f03c 9c9b 8fbe 1127 583e
00000030: faa0 70be 72b7 72be 8806 0cbe 04f4 b6be
00000040: 6ee4 e93d d58a 19be 3a06 85bd 3c7b d8bd
00000050: df0d b13e ce1f 283e 9c45 eabd ba57 1b3e
00000060: 7d87 4ebb 8104 b33d 7268 0cbd ea44 0dbb
00000070: 9ac4 45be ef91 293e e34e 24be 0f0c 08bc
00000080: 400e 23be 77ee 3cbd 8442 973d 88be ca3e
00000090: 9849 e33d 6529 a23e ecb6 91be 7f4f e4bd
000000a0: a990 ca3c 5c92 94be cd56 7fbd 9f84 a83d
000000b0: d8e9 b63c 6fbb 5cbd 350f 903c 8fde ebbc
000000c0: 23dd 0dbe c99e c4bb 72e3 573e 220f 2fbe
000000d0: 9582 57bc f104 6abe 802d 103e 2f63 39be
000000e0: 9d53 82be 61f0 4f3e 8b2b 4cbe 4332 e43c
000000f0: 346a 02bd c5fa 4f3d 93d7 d03d 518b 58be
00000100: 2020 71be 582e 62be 1c69 273d e058 2abe
00000110: 4428 c13d 68a6 9f3e 775e 06be 7bf2 ccbb
00000120: a18c 563e 79b5 29be 856a 9c3d a85c dd3d
00000130: abfe 903d ff67 f73c 5116 13be 901e 1ebe
00000140: bbe0 38bd c9a3 703e 0173 84bd c364 43be
00000150: 8bdd bf3e 4342 113e 0a31 2ebf cfd5 2cbe
00000160: 3140 45be eba6 1dbf 29cf 44be 4905 d63d
00000170: ea3e 8bbe a686 6cbe 8885 ba3d b3f8 84be
00000180: 009b 4fbe 73df ca3d 1c54 663d 7441 c03e
00000190: 5845 2fbd 544f 083e dc6d 41be 8ca8 1c3e
000001a0: 18f3 00bf 765e cbbd 8244 143d 0041 7bbc
000001b0: 7276 0abe 59b4 c73d f59b 8e3d 89cf 5f3d
000001c0: 1126 6dbc b9ef e2bd b2cf 41be 1577 fdbc
000001d0: 79e2 d13c d792 433d 2e14 ce3d 2a1e a93d
000001e0: 71f3 fa3d 184c bc3d 784c 5dbd b3ff 453e
000001f0: 48c7 07bd 9e16 933e 02b0 2bbe 138a 563d
00000200: 19e6 2a3d 35b2 01be 72ab 6bbd 13e8 003d
00000210: 6d79 13bf 1c55 0dbd edbb 0bbf 3d22 99bc
00000220: bbe7 44be 5d1f a53e 3bf9 71be 4c6e 3fbe
00000230: d5a1 913d 4f09 933d 9b71 113e 2623 ebbe
00000240: 5a72 cebd bb73 ba3d 97a8 ea3d 8f94 81bd
00000250: 7bbc 233e d544 b5be 2581 fe3d de37 8abc
00000260: 0edb 063e 2351 88be eff4 ab3e 7d56 1bbc
00000270: 2d24 db3d 5340 003f c1c6 cebd ac91 8fbc
00000280: 668f d03e 52b9 253e 9c86 90bd c06a 1b3e
00000290: 0d68 2b3e b6e3 2e3e 4c65 8b3e 4888 4e3d
000002a0: 9d3f fabd 4d03 a33d 26da 0e3e 1dca 13bd
000002b0: 71d6 b73d ce88 1cbe e083 f93d 8a2b c8be
000002c0: 7b4d abbe 9481 b03d d54c 68bd f5a2 9c3d
000002d0: 7681 993b 05e4 a3be 2ae9 0abf be76 823d
000002e0: 72d4 953e 91ff 80be 7dce 233e ad49 babc
000002f0: 3e69 51bd dbff 803e fbfb 09bd 6600 5ebe
00000300: 47c2 b2bc 738b ed3b 8945 af3d 91fe 1ebd
00000310: 957c bb3d d072 e23d 2eec 3b3e 1df4 80be
00000320: bada b9be 62de e03d d9a4 c13e 41dd acbb
00000330: 7446 023e 1238 063e 6ec3 343e 862a 1fbe
00000340: 409d c7bc 37a4 563a fb47 a63b 7817 05bf
00000350: a123 10be 28a4 0c3e 640e b93d 3515 1cbe
00000360: 2c97 fe3d c167 99bd 46c3 bebd b077 1cbf
00000370: 68e5 cf3e 908b 653d 20d6 24be fa95 6a3d
00000380: efa4 733c 4cfc 433e a528 efbd e931 993e
00000390: 0028 e03d 0f48 d43d df03 2a3e f9ba adbd
000003a0: 21bf 5a3e adf5 acbe 4e4f 65bd a5f2 be3b
000003b0: 69a3 c63b e0d6 823d e499 05bc 8f9e 8abe
000003c0: e6c9 863e 0927 aa3a d438 16be 14af 633e
000003d0: 4aa1 243d ade1 f43d 878d 91be ec3c 473d
000003e0: aa09 e4bd d1e8 913c 5168 04be daa8 6fbe
000003f0: 47fc 2ebe 71d4 773d 0960 ac3d ae34 c2be

read_encoder.block3.0.bias f4 [128]
-0.08671693 0.20090501 0.16850778 -0.14032292 0.2820782 -0.2605142 0.1152295 -0.052115545
0.28438178 -0.2990357 0.2456827 -0.0083632795 0.30858085 0.1972886 0.28900918 -0.01995263
0.1779078 0.24155468 -0.21249954 -0.006503258 0.25024542 0.115784794 -0.05608701 -0.16825083
0.15641211 0.24788366 -0.034287978 0.08504865 -0.18779156 -0.34693298 -0.07766296 0.20007157
-0.07967589 0.21391761 0.18228747 -0.0608596 0.0475712 -0.047937114 0.21804759 0.14966288
0.12788707 -0.30969834 0.25568122 0.22649515 -0.083525196 0.18208355 0.18516506 0.22437482
-0.13432206 0.18148547 -0.035943106 0.25044644 0.14520729 0.24005194 0.25116754 0.1917242
0.22618945 -0.03257458 0.19117647 0.11320649 0.15902798 0.15329303 -0.12850104 0.2258078
0.07824717 -0.10539776 0.0050957394 0.18927182 0.26270285 -0.06517388 -0.105784304 -0.045572694
0.14456755 -0.036635272 -0.2512371 0.2346628 -0.09327319 0.17314878 -0.24820866 0.17188707
-0.09681827 0.18448702 -0.03460483 -0.0036707732 0.044051584 0.20560052 0.31721696 -0.16862483
-0.02979582 0.008689078 0.20626149 -0.115696244 -0.24362466 0.24020368 0.09175699 0.1034829
-0.13336489 -0.049802396 0.24905355 -0.20948115 -0.06294988 0.25436702 0.09622202 0.07494203
-0.123717494 -0.06181169 0.12140829 0.06709115 -0.022278393 0.14805895 0.204872 0.21746174
-0.20234147 -0.11924818 -0.025519641 0.28518268 0.20400348 0.124170616 -0.15742035 0.14825825
-0.0645818 0.009862536 0.27119544 0.13213834 -0.087927625 -0.24106765 0.24927215 0.13634096
00000000: a598 b1bd 0bba 4d3e 4e8d 2c3e d0b0 0fbe
00000010: 8e6c 903e 1e62 85be 72fd eb3d 1c77 55bd
00000020: 7d9a 913e 351b 99be 3f94 7b3e 2306 09bc
00000030: 4ffe 9d3e 0606 4a3e 03f9 933e b373 a3bc
00000040: 762d 363e 1c5a 773e 7b99 59be 4819 d5bb
00000050: 2b20 803e 9420 ed3d 7ebb 65bd f249 2cbe
00000060: 7f2a 203e 37d5 7d3e 8d71 0cbd fd2d ae3d
00000070: 6e4c 40be 33a1 b1be c20d 9fbd 90df 4c3e
00000080: 1d2d a3bd 380d 5b3e 91a9 3a3e ea47 79bd
00000090: 05da 423d b559 44bd de47 5f3e 3a41 193e
000000a0: d4f4 023e c890 9ebe a6e8 823e 58ee 673e
000000b0: 420f abbd 1c74 3a3e e99b 3d3e 83c2 653e
000000c0: b98b 09be 54d7 393e 1439 13bd 843a 803e
000000d0: 38b1 143e 2dd0 753e 0899 803e 5953 443e
000000e0: 359e 673e ec6c 05bd c4c3 433e ced8 e73d
000000f0: 3bd8 223e d9f8 1c3e c795 03be 293a 673e
00000100: 0d40 a03d c8da d7bd 29fa a63b 79d0 413e
00000110: fd80 863e e279 85bd 71a5 d8bd 6faa 3abd
00000120: 8409 143e de0e 16bd 26a2 80be 724b 703e
00000130: 0406 bfbd ea4d 313e 692a 7ebe 2a03 303e
00000140: a848 c6bd 2aea 3c3e cbbd 0dbd 5b91 70bb
00000150: 6f6f 343d f188 523e 436a a23e fdab 2cbe
00000160: 5d16 f4bc a25c 0e3c 3636 533e 27f2 ecbd
00000170: be78 79be f4f7 753e 17eb bb3d d8ee d33d
00000180: ce90 08be 99fd 4bbd e507 7f3e 3a82 56be
00000190: deeb 80bd 653c 823e 0d10 c53d 357b 993d
000001a0: 995f fdbd 412e 7dbd e9a4 f83d 1667 893d
000001b0: 2d81 b6bc c49c 173e f7c9 513e 4aae 5e3e
000001c0: 9a32 4fbe 6438 f4bd 910e d1bc 7703 923e
000001d0: 4ae6 503e 2a4d fe3d cd32 21be 03d1 173e
000001e0: 7643 84bd 7996 213c 21da 8a3e 464f 073e
000001f0: 6613 b4bd 70da 76be 3341 7f3e f79c 0b3e

read_encoder.block3.1.weight f4 [128]
1.0879579 0.93717927 1.040266 0.8665681 0.87830776 1.063687 0.8954947 0.6747032
0.75179785 1.4083531 0.85688394 0.6596535 0.83684325 1.066736 0.749624 1.1840895
1.0280783 0.9226143 1.2270415 0.42693287 0.8341835 1.0585965 0.64675754 1.0406324
0.8620646 0.9608389 0.8878933 0.268445 1.1544784 1.3057775 0.94357157 0.8331399
0.9072188 0.81202465 0.9770469 0.8131521 0.52777314 0.71299046 0.7740704 1.0131488
1.133504 1.1617686 0.9392429 0.87392837 0.86195 1.1356428 0.8701147 0.8572579
0.9339777 1.1924095 1.7915595 0.9559624 0.9083335 1.1207354 0.9173924 1.1903833
0.7945531 0.6923128 1.0920973 0.8746373 1.1325688 0.31792685 1.9157236 1.0092102
0.82615346 1.6104612 0.29481348 1.0661597 0.8337046 0.67478186 0.75227064 0.515912
1.2224691 0.65991855 1.0982785 0.8590069 0.6763885 1.0165548 1.0100162 0.89727974
0.5144155 1.0383524 0.39456087 1.1938726 0.3509089 0.8927873 0.91668826 0.93460435
0.5251172 1.315345 0.89712286 1.6427892 1.0733174 0.8432818 0.6561239 1.0011148
0.5931202 0.16378044 0.8544067 1.000173 0.7615672 0.8597081 0.9397636 1.1041288
0.8483564 1.7147135 0.7799611 0.89530987 0.76786184 0.8475577 0.86260134 0.79039454
1.0160887 0.82340556 0.5407196 0.87772894 0.7912528 1.133054 0.74343586 0.7416387
0.947188 0.7084654 1.0326766 0.82253534 0.7629547 1.062768 0.9977758 0.8786931
00000000: 3442 8b3f fbea 6f3f 7027 853f 68d7 5d3f
00000010: c7d8 603f e526 883f 243f 653f 59b9 2c3f
00000020: d375 403f ea44 b43f bf5c 5b3f 0ddf 283f
00000030: 5c3b 563f ce8a 883f 5ce7 3f3f 3f90 973f
00000040: 1298 833f 7330 6c3f b20f 9d3f f296 da3e
00000050: 0d8d 553f 1780 873f e791 253f 7133 853f
00000060: 44b0 5c3f 8af9 753f fa4c 633f 9f71 893e
00000070: f3c5 933f b823 a73f e88d 713f a848 553f
00000080: 7e3f 683f d9e0 4f3f bf1f 7a3f bc2a 503f
00000090: 241c 073f 8b86 363f 7a29 463f dcae 813f
000000a0: a916 913f d5b4 943f 3972 703f c5b9 5f3f
000000b0: c1a8 5c3f be5c 913f d6bf 5e3f 4175 5b3f
000000c0: 2a19 6f3f e0a0 983f d251 e53f f4b9 743f
000000d0: 8b88 683f 4274 8f3f 3ada 6a3f 7b5e 983f
000000e0: d567 4b3f 693b 313f d8c9 8b3f 3be8 5f3f
000000f0: 04f8 903f 4fc7 a23e 6e36 f53f cd2d 813f
00000100: cb7e 533f 9823 ce3f cbf1 963e ec77 883f
00000110: aa6d 553f 81be 2c3f cf94 403f cf12 043f
00000120: de79 9c3f 6cf0 283f 6494 8c3f e0e7 5b3f
00000130: cc27 2d3f 781e 823f 3648 813f 20b4 653f
00000140: bcb0 033f bbe8 843f e203 ca3e d1d0 983f
00000150: 55aa b33e b58d 643f 15ac 6a3f 3b42 6f3f
00000160: 156e 063f 3a5d a83f d8a9 653f eb46 d23f
00000170: 7762 893f 51e1 573f bcf7 273f 8824 803f
00000180: bad6 173f 0fb6 273e 66ba 5a3f ab05 803f
00000190: 11f6 423f d415 5c3f 5994 703f 1854 8d3f
000001a0: e32d 593f bb7b db3f 88ab 473f 0733 653f
000001b0: 9892 443f 8bf9 583f 71d3 5c3f 4c57 4a3f
000001c0: 320f 823f b5ca 523f 9a6c 0a3f d8b2 603f
000001d0: 8b8f 4a3f ea07 913f d051 3e3f 09dc 3d3f
000001e0: ea7a 723f fd5d 353f bf2e 843f ad91 523f
000001f0: 0051 433f c808 883f 3c6e 7f3f 08f2 603f

read_encoder.block3.1.bias f4 [128]
-0.27314138 -0.27434206 -0.14483161 -0.2547894 -0.12457123 -0.13939367 -0.09043716 -0.50840324
-0.15795663 -0.09433695 -0.09510407 -0.3921329 -0.109331205 -0.13049036 -0.124772094 -0.27589875
-0.15141186 -0.07437268 -0.17602736 -0.50710845 -0.12694502 -0.12757872 -0.39671066 -0.40965772
-0.13007154 -0.107723646 -0.24762434 -0.7054297 -0.20824085 -0.13067254 -0.25705713 -0.15459347
-0.35952187 -0.115080416 -0.07664718 -0.35241145 -0.53661853 -0.2510165 -0.03338812 -0.11611051
-0.13210243 -0.14539169 -0.077748284 -0.14743644 -0.5339025 -0.14027369 -0.09672624 -0.24872765
-0.29828486 -0.13626674 -0.41374797 -0.13215859 -0.16596389 -0.120182365 -0.070154555 -0.15078743
-0.1466754 -0.24325657 -0.09480428 -0.08840944 -0.1071524 -0.7421364 -0.28967094 -0.10772485
-0.18290202 -0.5335142 -0.6333411 -0.10920216 -0.10724094 -0.39319652 -0.37412322 -0.5810053
-0.21951239 -0.2602504 -0.17476532 -0.13408646 -0.53423625 -0.11103031 -0.2092571 -0.14002186
-0.60813683 -0.1704085 -0.5266172 -0.202677 -0.54012567 -0.09654912 -0.12250916 -0.21055022
-0.7131489 -0.4391474 -0.08580799 -0.4057086 -0.22114481 -0.12376981 -0.34732652 -0.13272691
-0.63193655 -0.905606 -0.113115415 -0.11568632 -0.74888617 -0.09786317 -0.18503259 -0.13809653
-0.30203134 -0.3395893 -0.24359028 -0.2316621 -0.26293248 -0.15146454 -0.29832336 -0.15272744
-0.4024043 -0.39104506 -0.46067584 -0.08440031 -0.16415876 -0.15703128 -0.30043918 -0.22047147
-0.27514383 -0.14233138 -0.12891926 -0.10916235 -0.5150376 -0.31727302 -0.06975354 -0.110555686
00000000: 30d9 8bbe 9076 8cbe bd4e 14be c273 82be
00000010: 331f ffbd 37bd 0ebe 1e37 b9bd b726 02bf
00000020: 62bf 21be bb33 c1bd ecc5 c2bd a5c5 c8be
00000030: 0ae9 dfbd 449f 05be 8388 ffbd 9a42 8dbe
00000040: b60b 1bbe b450 98bd 8440 34be dcd1 01bf
00000050: e0fd 01be ffa3 02be a91d cbbe a8be d1be
00000060: 7931 05be 379e dcbd 3c91 7dbe 0a97 34bf
00000070: 173d 55be 06cf 05be fe9c 83be c04d 1ebe
00000080: 4013 b8be 48af ebbd 32f9 9cbd 466f b4be
00000090: d55f 09bf 3c85 80be fbc1 08bd 59cb edbd
000000a0: dc45 07be 8fe1 14be 7e3a 9fbd 94f9 16be
000000b0: d6ad 08bf e8a3 0fbe 6818 c6bd 76b2 7ebe
000000c0: cbb8 98be 8289 0bbe c6d6 d3be 9554 07be
000000d0: 70f2 29be 2c22 f6bd 31ad 8fbd 0568 1abe
000000e0: 1332 16be 4018 79be bf28 c2bd 0210 b5bd
000000f0: b872 dbbd a7fc 3dbf c04f 94be d99e dcbd
00000100: ab4a 3bbe 6394 08bf a422 22bf 62a5 dfbd
00000110: 23a1 dbbd 0e51 c9be 148d bfbe c3bc 14bf
00000120: dbc7 60be 8a3f 85be aef5 32be f64d 09be
00000130: b5c3 08bf dc63 e3bd 7e47 56be e461 0fbe
00000140: dbae 1bbf 917f 2ebe 63d0 06bf 8f8a 4fbe
00000150: ad45 0abf 8cbb c5bd 15e6 fabd 7a9a 57be
00000160: ed90 36bf eed7 e0be 19bc afbd 0ab9 cfbe
00000170: c973 62be 077b fdbd c8d4 b1be 90e9 07be
00000180: 98c6 21bf cbd5 67bf 0ea9 e7bd f3ec ecbd
00000190: 01b7 3fbf 7c6c c8bd 2f79 3dbe 2d69 0dbe
000001a0: daa3 9abe a6de adbe bb6f 79be d438 6dbe
000001b0: 169f 86be 8519 1bbe d7bd 98be 9564 1cbe
000001c0: f007 cebe 0f37 c8be b4dd ebbe 12da acbd
000001d0: 3c19 28be cfcc 20be 2ad3 99be 46c3 61be
000001e0: a7df 8cbe 51bf 11be 6903 04be 8390 dfbd
000001f0: 81d9 03bf 9c71 a2be f2da 8ebd 056b e2bd

bag_predictor.weight f4 [1, 128]
0.088122584 -0.049744043 -0.067923054 0.07706672 -0.053336173 0.24433683 -0.041649718 0.030710435
-0.06235305 0.2350086 -0.07810834 0.012732748 -0.06525292 -0.11742722 -0.06816626 -0.4099401
-0.08696442 -0.07605693 0.25050995 0.002573584 -0.06355715 -0.110970244 0.037231565 0.11667172
-0.063201286 -0.06747002 -0.041135035 0.08937083 0.23566124 0.21518561 0.05818085 -0.058930278
0.07511802 -0.06775469 -0.06477063 0.010366998 0.025243677 -0.03436191 -0.052142736 -0.11695066
-0.13844538 0.24295598 -0.070762314 -0.08192586 0.026449664 -0.14529787 -0.09118836 -0.05508753
0.13622262 -0.11985624 -0.34118113 -0.07188145 -0.062038627 -0.15051568 -0.048733607 -0.15880899
-0.05524451 -0.013986665 -0.09094037 -0.05657422 -0.1606253 0.045477804 -0.37217462 -0.110846974
-0.06673568 -0.2483425 0.04718527 -0.13026203 -0.061187115 -0.0008927149 0.03173469 0.066855595
-0.18880983 -0.013078217 0.21133924 -0.06748853 0.047233608 -0.0962033 0.17648545 -0.06508417
0.047071144 -0.129739 0.006236441 -0.1873881 0.005338669 -0.063476086 -0.0627148 0.112747975
0.066557944 -0.14747488 -0.06467552 -0.62333727 0.1248554 -0.061484933 -0.045022342 -0.15179145
0.02160603 0.053147744 -0.05800362 0.13709259 0.009264035 -0.07002975 -0.046792362 -0.11672909
0.10422105 -0.3266897 -0.05674472 -0.04590301 -0.044929065 -0.05959128 -0.057229627 -0.057164323
0.10791429 0.028890146 0.08309571 -0.076439016 -0.0629263 -0.1540268 0.07383452 -0.054464642
0.09445894 -0.046529017 -0.083912626 -0.057221867 0.12460441 0.22561154 -0.07508391 -0.045043487
00000000: 9d79 b43d 69c0 4bbd 3e1b 8bbd 28d5 9d3d
00000010: 0877 5abd 6f33 7a3e e598 2abd 7394 fb3c
00000020: e965 7fbd 18a6 703e 44f7 9fbd 049d 503c
00000030: 53a3 85bd af7d f0bd c19a 8bbd abe3 d1be
00000040: 671a b2bd bcc3 9bbd d742 803e 93a9 283b
00000050: 402a 82bd 5e44 e3bd 2080 183d 95f1 ee3d
00000060: ad6f 81bd b92d 8abd 367d 28bd 0e08 b73d
00000070: 2e51 713e 9e59 5c3e 0b4f 6e3d e060 71bd
00000080: 7ad7 993d f9c2 8abd 77a6 84bd 57da 293c
00000090: d4cb ce3c 13bf 0cbd 9f93 55bd d483 efbd
000000a0: a0c4 0dbe 74c9 783e d5eb 90bd bfc8 a7bd
000000b0: f7ac d83c f7c8 14be f6c0 babd 76a3 61bd
000000c0: f17d 0b3e 3077 f5bd 4baf aebe 9536 93bd
000000d0: 371c 7ebd c820 1abe e49c 47bd d39e 22be
000000e0: 1148 62bd 5328 65bc f23e babd 5fba 67bd
000000f0: f57a 24be ef46 3a3d ac8d bebe bd03 e3bd
00000100: b7ac 88bd 7f4d 7ebe 5745 413d 6963 05be
00000110: 579f 7abd 1505 6aba 3cfc 013d 96eb 883d
00000120: 5d57 41be 0546 56bc 5069 583e 6d37 8abd
00000130: 0778 413d 3c06 c5bd 9ab8 343e d94a 85bd
00000140: accd 403d 4dda 04be 0f5b cc3b abe2 3fbe
00000150: 00f0 ae3b c0ff 81bd 9e70 80bd 69e8 e63d
00000160: 884f 883d a803 17be 9974 84bd 0893 1fbf
00000170: 30b4 ff3d a0d7 7bbd 5969 38bd 386f 1bbe
00000180: 21ff b03c 73b1 593d 3495 6dbd 0062 0c3e
00000190: 2ec8 173c c26b 8fbd 59a9 3fbd a90f efbd
000001a0: d971 d53d df43 a7be 276d 68bd cb04 3cbd
000001b0: 8a07 38bd fc15 74bd 9d69 6abd 2325 6abd
000001c0: 2b02 dd3d 07ab ec3c 152e aa3d 0f8c 9cbd
000001d0: 81df 80bd 34b9 1dbe 8e36 973d 5116 5fbd
000001e0: b073 c13d 3695 3ebd 62da abbd 7a61 6abd
000001f0: 9930 ff3d b606 673e 98c5 99bd 857f 38bd
