m6aReplica/3d_432_with_delta/Models/epoch10_rocauc0.882_valpr0.406_valscore1.288.pth (torch, 155293 bytes, 13 tensors)

read_encoder.block1.0.weight f4 [128, 24]
00000000: 55b1 863e 74c2 683e 1fa6 bcbc 3ddd 1e3f
00000010: ef4a c8bd 88b7 633d 044f b4bc 1e67 af3d
00000020: 7b87 583e 5214 1b3f 6e04 4ebf ac25 a2be
00000030: e19f 733e 4689 15be 2daa 0f3e 9f07 87bd
00000040: 2cfb ceb9 4289 083d 6e29 39bd 8e43 5f3d
00000050: 0665 afbc a1f8 55bd 9f26 b2bd 52e4 ea3d
00000060: 4704 b0bd 2879 863e 63da 1f3d b6db be3e
00000070: ce01 c73e c781 ddbd 3d55 ec3d c9ab 563e
00000080: 09ee 943e 7452 b63f afd3 0fc0 665f 9e3d
00000090: d419 5cbe 7ddc d93d 6da7 c23d 9cae 42bc
000000a0: 5a88 963d 7388 bfbd 802d 523d 2880 a63e
000000b0: 4136 cc3d 2d9c 97bc 9cb2 563e 333b 813b
000000c0: 58b0 1c3d 86d7 d7be df2f 41be 13c8 15bd
000000d0: 90f8 d9be acb7 353e fd78 883e c9ce edbd
000000e0: 351a ba3d b2e6 e73e fc10 393f baf8 a4bc
000000f0: 7d0f ac3e e345 1dbe 64a3 d13d 9551 273c
00000100: fd84 46bd 0950 fcbc 1071 2d3e cc8a 1fbe
00000110: 258c 9fbd 4eba 83bc 6421 4b3e 2493 dc3c
00000120: 0f17 f23d 1452 c1be feac f0bd 26f5 583c
00000130: c497 cebe ebdd 243e a2ed e83e d803 10be
00000140: 6d1f dfbc 07cc 3a3f 8a34 343f 426f 8ebe
00000150: f494 d73d 8acd 87be e354 1e3d 06d3 c8bd
00000160: 7dde fcbd f43f aa3e 4a3b f93d baee 11be
00000170: 0aa7 7e3e f795 a53e f31d 70bd 849b 17be
00000180: 3360 043f ff3f f7bd 1f15 60bd a3f9 023f
00000190: 14c3 14be b971 9f3d 24cf 023e 45c1 0ebe
000001a0: 11e3 da3d d6d9 953f 478b 13c0 af6e ab3b
000001b0: d650 c0bd e096 54bd 1f39 123f 632f b23c
000001c0: e150 183e d9e3 6cbe 33fb 26be f4d8 40be
000001d0: befd b8bc 576a 95bd fc65 5fbd de20 86bc
000001e0: 9914 333e caaf 3c3d 0862 9b3d b9d2 563d
000001f0: d23a 31be 0896 2bbd 9dce 22bd dfef 3ebe
00000200: bade 823e 4a40 64bd d588 8abe 8708 8bbe
00000210: f323 1dbe 175b 3d3d d450 debd 332f 87bd
00000220: cb7a e6bd 64b4 cbbd 88fb 5f3d 615d 9ebd
00000230: 06a8 8a3d 60d1 1abe 21a1 4f3e 2a57 48bd
00000240: cc68 413e d76b 0c3e 9aa7 bd3d 7815 c73e
00000250: 2d04 c63e 989a 25be 3bdc 973d 1b0b 9a3e
00000260: 490d 89bc 9042 fbbd 4e6a 09bf 3da7 4e3e
00000270: cfa2 a03e a3a9 843e acb5 ba3d 666f b4bc
00000280: 15f7 bf3d 2e38 aabd 0cff 6fbc 2231 9fbe
00000290: 245e a4bc 759f a23c c930 71be a4e3 653e
000002a0: 2525 f83d eddf 2ebe 3197 2bbb 7767 18be
000002b0: 809f abbd f8e0 1e3d 6241 c23d 12a0 adbe
000002c0: 104f a4bd b84b 44bf 5baa c13f 5a24 2bbf
000002d0: 3262 f53b 5fd6 90bc b40d ebbd 754a 91bd
000002e0: d205 313d 3290 9e3e cdc7 a33c a29c 3dbe
000002f0: 3c7a c3bd f3c8 913d ce6e a63c bef6 c3bc
00000300: 4d79 a53d 12cf 043f ce9c 263d 72db 61be
00000310: 9f41 d43e e013 873d 8f69 35be 302d e93e
00000320: 128d 23be 9e25 08bf 3c09 6cbd 1679 913e
00000330: 50f5 b0be eff0 443c f71f b1be af19 10bc
00000340: 45ec 243d 2694 4b3d d332 8a3d 2737 423e
00000350: 5b87 a6bd e5a9 9fbd 0c4f 7cbd 2cf2 4c3d
00000360: 7974 d63c 39b9 68be 23ff ad3d 3092 423e
00000370: 3968 b4be fac6 083e 74a8 243d 6a39 7dbd
00000380: 181a 63be b841 493f 334b f5bd a75d f4bd
00000390: 8c81 c13e aa87 d8be f646 23be 95e2 cf3d
000003a0: de27 c53c ea94 913e 3b86 e13d c7b3 8f3d
000003b0: 3977 34bd b9cc 90be 57d1 30be 7fde c1bd
000003c0: 6fd2 2e3e e6b6 593d e428 4e3d 5574 e4bd
000003d0: 5e6e afbd a57e 6cbd 77f1 ae3d b5a4 25be
000003e0: fd3e 9cbb 56c8 57be cf29 453f d444 19bf
000003f0: 5765 27be 7845 4fbe 819c 7dbe 26db aabc
0.2630717 0.22730428 -0.023028431 0.6205633 -0.097799174 0.05559495 -0.022010334 0.0856459
0.21145432 0.6057788 -0.8047551 -0.31669366 0.23791458 -0.14603147 0.1402976 -0.065932505
-0.0003947852 0.033334024 -0.045205526 0.054507785 -0.021410476 -0.052239064 -0.08698773 0.1146933
-0.08594566 0.2626431 0.03902663 0.37277 0.38868564 -0.10815769 0.115396954 0.20963968
0.29087856 1.4243913 -2.2472951 0.077330396 -0.21494228 0.10637758 0.0950459 -0.01188245
0.07350226 -0.093521975 0.051312923 0.3251965 0.099712856 -0.018507088 0.20966572 0.0039438247
0.038254112 -0.4215662 -0.18865918 -0.03656776 -0.4257245 0.17745847 0.26654807 -0.11611707
0.0908703 0.45293194 0.7229154 -0.020138133 0.33605567 -0.15358691 0.102362424 0.010212322
-0.04846667 -0.030799882 0.16937661 -0.1558029 -0.07790402 -0.016080048 0.19836956 0.02692563
0.11820804 -0.37757933 -0.11751746 0.013242042 -0.40350163 0.1610028 0.454938 -0.14063966
-0.027236665 0.7296757 0.7039267 -0.27819258 0.105264574 -0.26524 0.038655173 -0.098058745
-0.12347124 0.33251917 0.121695116 -0.14251223 0.24868408 0.32340977 -0.05862231 -0.14805418
0.5170929 -0.12072753 -0.054707643 0.51162165 -0.14527541 0.07785363 0.1277433 -0.13940914
0.10687841 1.1707103 -2.3053758 0.0052317004 -0.09390418 -0.051901698 0.5711841 0.021751111
0.14874603 -0.23133792 -0.16306762 -0.18832761 -0.022581931 -0.07295673 -0.05454062 -0.016373094
0.17488326 0.046066083 0.07587057 0.052447055 -0.17307594 -0.041891128 -0.039747823 -0.18646191
0.25560552 -0.055725373 -0.2705752 -0.27154943 -0.15345745 0.04622945 -0.108552605 -0.066007994
-0.1125389 -0.09946516 0.05468324 -0.07732654 0.06770329 -0.15118933 0.2027631 -0.04891125
0.18887633 0.13713013 0.09260483 0.38883567 0.3867506 -0.16172254 0.074150525 0.30086598
-0.016729968 -0.12268555 -0.53677833 0.20180984 0.31374213 0.25910673 0.091166824 -0.022025775
0.09373299 -0.08311497 -0.01464821 -0.31092173 -0.020064421 0.019851426 -0.23553766 0.2245012
0.1211646 -0.17077608 -0.0026182646 -0.14883219 -0.083800316 0.038788766 0.09485127 -0.33911186
-0.080228925 -0.7667804 1.5130113 -0.66852343 0.0074885124 -0.017680345 -0.11477223 -0.0709428
0.04321844 0.30969387 0.019992733 -0.18516782 -0.09544799 0.07118406 0.020316508 -0.023921367
0.08079777 0.51878464 0.040676884 -0.22056368 0.41456315 0.06595588 -0.17716049 0.45542288
-0.15971783 -0.531824 -0.057625994 0.28412694 -0.3456216 0.012020334 -0.345947 -0.008795186
0.040264387 0.049701832 0.06747975 0.18966351 -0.08131286 -0.07796077 -0.061598822 0.05003564
0.026178585 -0.22726907 0.08495929 0.19001079 -0.35235766 0.13357154 0.040199712 -0.061822332
-0.22177923 0.78615904 -0.11977234 -0.11931925 0.3779415 -0.42291003 -0.15945038 0.10150639
0.024066862 0.28433925 0.110119306 0.07016712 -0.044059012 -0.2828119 -0.17267357 -0.09466266
0.17072462 0.05315294 0.050331965 -0.11155001 -0.08565973 -0.057737965 0.085421495 -0.16176112
-0.004768251 -0.21072516 0.7701692 -0.5987065 -0.16347252 -0.20241344 -0.24766733 -0.020856451

read_encoder.block1.0.bias f4 [128]
00000000: 06ad 79bd f7f1 6a3d 70d5 563d 9e44 af3b
00000010: ae70 c73d 6cb1 0e3e 9e98 6bbc b556 7c3d
00000020: b5ea 9fbd 7f67 163e 2cc5 803d 85fe 15be
00000030: fc04 083d 7449 12be 4c70 873e 1b90 073d
00000040: da83 923d 0aef 2f3c ce6c 513e 5ce0 a0bd
00000050: a5c1 503a 2fe7 783e adc5 0d3e 4961 04bd
00000060: 4931 9c3c 219e 3c3e b34f 54be 0625 84bd
00000070: 48e0 5db9 39a2 173e 09ca f2bd 007f 48be
00000080: 6e63 5c3e 6c6e 183e 47aa 0fbe 0957 9e3e
00000090: e56c 95bd c727 7c3c c4fb b2bd fb0d 963d
000000a0: 1487 89bd c966 8d3e 2609 59bd 502d b33d
000000b0: 4653 7ebd 71fb 083e e909 663d 815b 293d
000000c0: 17e1 46be cc49 dabd 3ac7 0f3e 83be 0abd
000000d0: e3ae 353e 9913 e0bd 1c3b 0bbe 75bd 993d
000000e0: 1147 433e c802 533e d9dc 8fbd ad02 773e
000000f0: b2a9 923e f253 51be 8ae5 3b3e 1685 58be
00000100: 1a4c 3dbc 4328 b3bd 88bb c5ba 87d9 263e
00000110: 8e4a 5b3c bba5 ae3c d708 8ebe ced5 12be
00000120: c10b e83c 64c7 413d d5c0 8e3e 7b4e 86be
00000130: 431e 183b 1d7a 3ebe a9df d13d 4215 d8bc
00000140: 6e8e 95be b520 af3e edeb 803d 4533 9c3d
00000150: 5d3a 0e3d 6ec2 2f3e 8aa2 a23e 5677 10be
00000160: 33bf 1bbe ca5b b43d 5e6d 77be aa36 8e3e
00000170: 40e8 5cbc b236 213e f2a7 afbd 6d4e d03d
00000180: 5d5a 183e d56e 4abd 97dd bc3c fdf2 843e
00000190: e8a3 ad3e 4d52 f8bc 2748 c33c 9a44 67be
000001a0: 06b4 133e 1d70 47be 8e9d fe3d cd8c 89bd
000001b0: 1698 80be 67ff c3bc 9530 813d 0b04 083e
000001c0: ac42 283e 159b b3bd 1bdc c73d cae1 453e
000001d0: d541 173e e081 2dbd 0ea7 fcbd 9901 b23e
000001e0: dc58 d8bb 7c02 5bbc ee4a 5bbe 3f6e a33e
000001f0: 6549 92bc 6bf7 4dbd e0c3 753e 8fd8 02be
-0.060956024 0.057359662 0.052449644 0.005348756 0.09738289 0.13934869 -0.0143796485 0.061606128
-0.07808439 0.14687918 0.062876076 -0.14647873 0.03320788 -0.14285833 0.26452863 0.033096414
0.07154055 0.010738144 0.20451662 -0.07855293 0.00079634256 0.2430694 0.13844939 -0.03231934
0.01906647 0.18419696 -0.20733528 -0.06452374 -0.00021159754 0.14807977 -0.118549414 -0.19579697
0.21522304 0.14885873 -0.140298 0.30925778 -0.072961606 0.015390343 -0.08739427 0.07326885
-0.06715217 0.2761748 -0.05298724 0.08748877 -0.062091134 0.13377167 0.056161795 0.04134703
-0.19421802 -0.10658607 0.14040843 -0.033873092 0.17742495 -0.10941238 -0.13596767 0.07506839
0.19070078 0.2060653 -0.07024545 0.24122114 0.28645092 -0.20442179 0.18349281 -0.21144518
-0.011553789 -0.08747914 -0.0015085796 0.16293918 0.013384474 0.02131926 -0.2774112 -0.14339373
0.028325917 0.047309294 0.27881494 -0.2623175 0.0023211397 -0.1860127 0.10247738 -0.026377324
-0.29210228 0.3420464 0.06294999 0.076269664 0.03472363 0.17164013 0.31764632 -0.14108023
-0.15209655 0.0880657 -0.24162814 0.2777608 -0.013483107 0.15743521 -0.08576955 0.101712085
0.14878221 -0.049422104 0.023054881 0.25966635 0.33914113 -0.030312682 0.023838116 -0.22584763
0.14424142 -0.19476362 0.12432395 -0.06716309 -0.25116032 -0.023925496 0.063080944 0.13282792
0.16431683 -0.08769814 0.09758779 0.19324413 0.14771207 -0.042360187 -0.12336551 0.34766844
-0.0066023897 -0.013367292 -0.21415302 0.3192005 -0.017857263 -0.050284784 0.24000502 -0.12777923

read_encoder.block1.1.weight f4 [128]
00000000: 8810 243f 3134 973f c1cc 6d3f 5992 8a3f
00000010: b407 b93f 92e9 dc3e f26b a23f 32ce 3a3f
00000020: fe9a 8e3f 65ea 823f c44f 8f3f 9739 ac3f
00000030: 75a8 8e3f 6cc8 563f 3fd2 a13f b505 b63f
00000040: 4645 893f 7cae 513f a561 7b3f 619c 4b3f
00000050: f13f 9e3f 6a75 973f 8187 773f c578 5a3f
00000060: 8bf3 7b3f bfe5 773f e101 693f 81f9 743f
00000070: ab4f 853f d23d 8a3f 32b1 823f 8453 363f
00000080: 38ce 8c3f d9f3 473f 0aaa 3a3f 0028 943f
00000090: 714c 8a3f 6bc0 9a3f 9308 5d3f 0aec b93f
000000a0: a5d9 a63f d7a9 833f 5113 813f 65a2 803f
000000b0: bfe2 123f 6643 9d3f 6773 793f b766 933f
000000c0: d7c5 6e3f ebdc 493f 51c2 643f 9f0c 453f
000000d0: 101a 973f 47a6 343f d3be 8f3f dcc5 5d3f
000000e0: 7c71 9f3f 9da4 aa3f 98c2 483f 0ebd 693f
000000f0: e898 a33f 58e9 2a3f 667e 823f 5ee0 7e3f
00000100: 5e2b 493f 7430 623f e175 1e3f c605 ab3f
00000110: 3974 883f ceb4 863f c7f4 663f 58d6 353f
00000120: 4485 8f3f 5d54 9b3f 9d68 853f 9c38 3d3f
00000130: 5de3 2d3f 25a7 3c3f 0719 823f c255 623f
00000140: 3378 863f 607b a23f 0bd1 313f b950 9d3f
00000150: 3268 a03f 92ca 693f e20c 863f 38ee 463f
00000160: 5840 553f 55ce 703f 56e5 6f3f c484 c03f
00000170: 54a1 823f 2953 3f3f 1034 893f 8857 813f
00000180: 532e 843f e794 703f 7b59 863f 3d17 813f
00000190: 527d 823f 12a1 9b3f 2646 7e3f 8d22 ac3f
000001a0: b6a6 973f 94fb 643f 9f58 7a3f 8964 403f
000001b0: 00d4 853f ecce 7b3f ef51 2b3f 7571 8b3f
000001c0: 6d4e 313f a04b 4b3f 6e45 843f 805d 853f
000001d0: 6e55 833f 3efd 633f 9df5 a03f d881 563f
000001e0: 1a7f 943f ffcc a83f a392 743f 7949 8b3f
000001f0: 91ee 5a3f 01c3 9c3f ed7c 5b3f 4d48 703f
0.64087725 1.1812803 0.92890555 1.0825912 1.4455476 0.4314695 1.2689192 0.7297088
1.114105 1.0227782 1.1196218 1.3455075 1.1145159 0.8389957 1.2642287 1.4220492
1.0724266 0.8190687 0.9819587 0.7953549 1.2363263 1.1832707 0.9669114 0.8534053
0.9841849 0.9683494 0.9101849 0.9569321 1.0414938 1.0800116 1.0210326 0.71221185
1.1000433 0.78106457 0.7291571 1.1574707 1.0804578 1.2089971 0.8634121 1.4525158
1.303517 1.0286206 1.008402 1.0049559 0.5737724 1.2286193 0.97441715 1.1515721
0.9327063 0.7885272 0.89359003 0.76972383 1.1804829 0.7056622 1.123011 0.86630034
1.2456508 1.3331486 0.78421926 0.913041 1.2781038 0.66762304 1.0194824 0.9956111
0.785818 0.88355184 0.6189862 1.3361137 1.0660468 1.0523927 0.9021725 0.7103019
1.1212544 1.2135121 1.042255 0.73914504 0.67925054 0.7369254 1.0163888 0.88412106
1.0505432 1.2693901 0.694596 1.229026 1.2531798 0.9132472 1.0472682 0.7770724
0.83301306 0.9406484 0.93709314 1.5040517 1.0205483 0.7473627 1.0719013 1.0104837
1.0326637 0.93977207 1.0496057 1.0085217 1.0194495 1.215853 0.9932579 1.3448044
1.1847751 0.8944638 0.97791475 0.75153404 1.0455322 0.9836261 0.66921896 1.0893999
0.69260293 0.7941227 1.0333688 1.0419159 1.0260446 0.8905829 1.2574955 0.83791876
1.1601288 1.318756 0.9553625 1.0881797 0.85520273 1.224701 0.85737497 0.9386032

read_encoder.block1.1.bias f4 [128]
00000000: a44c a9be 67b6 363d f1f1 6ebd 3ac4 67bb
00000010: 570d 88bc 67a8 c6be d5b5 eabd 008b 98be
00000020: e65a 06bd 2375 a1bc 1dbd 6ebd e3db 53bc
00000030: 0f95 97be 4b86 1ebe d848 13bc df59 3ebd
00000040: b7ac 45bd eeea 19be a6ad 90bd 5d2c 0dbe
00000050: 30e7 543a 9d5b 95bd f11b 04be 18a6 50be
00000060: 3d3d d7bd 9b32 b63d 1719 57be 14c5 02be
00000070: 26f2 f5bd 37d3 b9bd aaf4 c6bd 2da7 90be
00000080: 4864 efbc 3933 72be e7ed 32be c6cd 8cbd
00000090: 02e2 6cbd 703a 89bc 2610 43be 55f1 adbb
000000a0: aa76 09bd b615 2abe de8b 29bd 9606 8cbe
000000b0: 83ce 9fbe 954e 1f3b 0387 02be e6d6 72be
000000c0: 3f31 1abe da44 66be 9459 01bd 20ee 33be
000000d0: 82e8 b7bb 37ff 6ebe d837 4ebd ed23 9cbe
000000e0: 58c7 1fbd e0df d1bc f317 20be 361a 36be
000000f0: cd1e 8cbe e235 acbe 9302 54be cd0c b1bd
00000100: 134e 18be 0ee4 cdbd ee55 acbe c6b9 65bd
00000110: 241f 79be 9dce 21bd 2404 4fbe fba9 a6be
00000120: 7619 36bd be7b b6bc 4483 fdbc 6688 42be
00000130: 07e6 97be 880a 83be b30b 3abe 01d9 e9bd
00000140: bf74 a6bd 3679 27be 40f6 97be 5418 02bd
00000150: 8207 b2bd 8476 27be 0775 73bd 75f1 88be
00000160: 6181 46be c065 a1bd cc90 e3bd 92d7 75bd
00000170: 9a04 7bbd 0c7e 99be 0c21 99bd 4a1a 36be
00000180: c24a e3bd 0ddd f8bd fd08 c4bd b165 18bd
00000190: f8c1 e73c 620f c2bd 11c9 86bd bc1d 0abd
000001a0: 2057 e83c 2256 9dbd eb0c e6bd 874a 47be
000001b0: 5290 c6bd d548 a6be e376 9ebe d6a2 99bd
000001c0: 640f 96be f889 6abe 32f4 cdbd 61b7 5cbe
000001d0: 337f 37be 36af 01be 1cb9 9dbc 7458 84be
000001e0: f6b4 e9bc 7be7 5fbd 3dbd 04be 7f46 31be
000001f0: 35ad 4dbe cf04 6dbd 021c 60be 3a9a f8bd
-0.33066285 0.044607546 -0.058336202 -0.0035364763 -0.016607923 -0.38800356 -0.11460463 -0.2979355
-0.03280153 -0.019709175 -0.05828582 -0.012930843 -0.2960591 -0.15480916 -0.008989535 -0.046472427
-0.048260417 -0.15031025 -0.07064371 -0.13786454 0.0008121608 -0.072928645 -0.12901284 -0.2037586
-0.10509727 0.08896371 -0.21005665 -0.12770492 -0.12009077 -0.09073489 -0.09714635 -0.28252545
-0.029222623 -0.23652352 -0.17473565 -0.06875186 -0.057832725 -0.016751498 -0.19049129 -0.00530831
-0.033560432 -0.16609845 -0.041393153 -0.27348775 -0.31212243 0.0024308313 -0.12746815 -0.2371479
-0.15057848 -0.22487202 -0.03157957 -0.17571306 -0.005612434 -0.23339544 -0.050346226 -0.3049616
-0.03900847 -0.025619447 -0.15634136 -0.17783436 -0.2736725 -0.3363486 -0.20704107 -0.0864502
-0.14873533 -0.100532636 -0.3365931 -0.05608537 -0.24328285 -0.039503682 -0.20216423 -0.3255156
-0.044457875 -0.022275802 -0.030946381 -0.18997344 -0.29667684 -0.25593972 -0.18168525 -0.11418343
-0.08127736 -0.16354832 -0.2968006 -0.031761482 -0.08692838 -0.16353804 -0.059437778 -0.26746717
-0.19385292 -0.078807354 -0.11111602 -0.060020037 -0.061283685 -0.2997898 -0.07477006 -0.17783466
-0.11098243 -0.12151537 -0.09572027 -0.037206355 0.028290734 -0.0947559 -0.06581319 -0.033719763
0.028361857 -0.07682444 -0.11232933 -0.19462024 -0.09695496 -0.3247744 -0.30950078 -0.075017616
-0.29308617 -0.22904193 -0.10056342 -0.21554329 -0.17919616 -0.12664494 -0.019253306 -0.25848734
-0.028528672 -0.054664116 -0.12962814 -0.17312048 -0.20085604 -0.057865914 -0.21885684 -0.121387914

read_encoder.block2.0.weight f4 [128, 128]
00000000: ca4e 85bd e532 483a 27f2 313c 2cbb 003e
00000010: 5f63 77be b876 d43d 9a3a 4b3c fbee a53d
00000020: 76f9 933d a900 823d 36e5 843d 4a1c 61be
00000030: 5dda f03d d674 babb 0368 953e 4b58 443e
00000040: 7c6c d2bd 4c62 6c3d 0159 203d 5f7d 083d
00000050: 7190 5b3d 3043 12be 3410 803d 6894 a2bd
00000060: 4f77 953d 97cd fbbd 51e9 3cbe 1f96 c33d
00000070: d4a3 91bd 5f3b ba3d 0c65 6f3d 8b87 69bd
00000080: 4191 943d e5cd 8b3d a453 43bd 4eba 763e
00000090: be7d b4bc 1c6b 8b3e 0427 70bd e01b 96bd
000000a0: 36d8 12be f784 133d 3803 3fbd 9e9c b53c
000000b0: 237e fe3d eb0e 073e f2f0 9e3c 9311 953d
000000c0: ff54 d13b 1fa1 a83c d1ae b43d 4de7 243c
000000d0: 31aa 673d 73bc 3c3e 1ca0 e8bc 0d11 6c3d
000000e0: 36b9 683e 7c9e d0be 934e 5a3a 91fb c13c
000000f0: 0d62 4d3c c563 8abc 6d83 373e de64 efbd
00000100: 4a61 85bd c902 5cbc afb2 1b3d 731e fb3d
00000110: 8d5b 473c 027d 603e b205 ebbd 6f51 63bc
00000120: f41d 04be 9630 9abd 5501 bcbd d94a 81bd
00000130: e3b1 a0bd a045 203d ad77 8bbb 59cc 923d
00000140: fb9e f2bc d738 623d 7606 923c f40b 4f3c
00000150: 63b4 e7bd 3da3 d73c a779 a53d dfad 3a3d
00000160: ab5d 2b3c 2254 5f3d e8df 04bb c843 ffbd
00000170: 97b5 f63d 77d6 8e3d 05df c03d 464f 273e
00000180: 71a3 663d 54a0 d63d aff9 74be ae45 3a3d
00000190: 4270 823e f5aa 99bc 2ec6 133e 2297 a0bc
000001a0: 75b6 9cbd 4c1d 593d 461d e6bc 4079 6d3d
000001b0: 01bf 153d 1a2f 2abd c9ba 443d 7f54 a73d
000001c0: 5b98 173d 6f94 e1bc cc42 97bd e77f 27bd
000001d0: a093 c73d cab2 9e3d 3713 96be bdb7 bfbd
000001e0: d21a 6f3d 7f59 b0be 9407 2abe 709c 70bd
000001f0: 3f48 25bd 77a8 2cbb 23b4 85bc 5760 49bd
00000200: 4a3e d73d 189d 1cbe 37cd 433c 7a16 273c
00000210: 577d a63d fc88 d53b 986d 03be 51ae 19bd
00000220: 3c72 763d 07b7 cebb 52ed 5e3c f3eb 563d
00000230: 354d 923d d05d 243d 88a7 183d 5c74 6fbe
00000240: 2ad9 b43c f6ea 873d 5ccc 8a3d 839b 113c
00000250: 339c 573d 7c21 513a ad46 983d e0f4 fe3c
00000260: 4bcf b43d 57b2 04bc ea4c 86bd bbe2 843d
00000270: bd52 ae3c 3af6 25bd 08c1 34bd 9891 21bd
00000280: b7f0 45bd 4a79 04bd a884 073d 2026 5abc
00000290: 1624 2ebe 5767 d5bc 6a61 9a3d b052 02be
000002a0: 364b a2bd 29ff 063d 73ad b83d 2753 413d
000002b0: e2c2 4b3d ef17 00be 4c43 e8bc 600c 0b3e
000002c0: b256 96bd 55a1 f73d 05a7 8d3d 2b71 32bd
000002d0: fcb2 8b3e bcd5 3d3d 76cf 9abd 60f8 6c3d
000002e0: 7935 0c3d 1ffa 5fbd 41a0 e93c 7364 76bc
000002f0: ecca 92bd b79f 4bbd d65e 963d e842 f5bc
00000300: 3766 893c ba33 ea3c 3269 213d 38aa 01bd
00000310: 3d9e 4e3d fe57 fabd 0885 8e3d 0b02 a43d
00000320: f511 9abd e8e0 78bc f6ea fb3d 0075 63bd
00000330: 415a f33c cc16 703c 9e49 b03d ff12 473c
00000340: d321 563d a485 023d b44d f43c cddc 71bc
00000350: 0334 673d 79a7 52bd 50b1 e0bc ac9e 8b3c
00000360: 0991 9e3b 3697 06be 3ad2 77bb 356d 983d
00000370: 25d3 dd3d bf05 da3d f277 0cbc dd7e 0abd
00000380: b35e 49bd 7bf1 8a3b 3911 44bd e236 8dbd
00000390: 3fd5 a53d a5e2 c3bd 7d18 59bd e7ac e2ba
000003a0: 3c59 69bc 3446 eb3b 286c b03d 8adf 0ebd
000003b0: fb73 a03d 1c84 c33c d3c5 2abd 8cca 2abc
000003c0: f1b0 f93b 5baf 79bd aa2f 19be d45d b8bc
000003d0: c471 8fbb 004a 2f3d 7388 273e 1c21 183e
000003e0: 544d 67be 2b59 05be 7adc bb3d 678d 71bb
000003f0: 4a25 a6bc cc3f b53d c647 91bd 4841 17bc
-0.065091684 0.00076369784 0.010860956 0.125714 -0.24159001 0.10374206 0.012404108 0.081022225
0.07225315 0.06347782 0.06489031 -0.21983448 0.117603995 -0.0056901975 0.29180917 0.19174306
-0.10274598 0.05771093 0.03914738 0.03332269 0.053604547 -0.14283442 0.062530905 -0.079384625
0.07298147 -0.122950725 -0.18448378 0.09550118 -0.07111326 0.090933554 0.058445975 -0.05701403
0.072542675 0.06826381 -0.047687188 0.24094507 -0.022032615 0.27230155 -0.05863096 -0.073295355
-0.1434029 0.036015477 -0.04663393 0.022169407 0.124264024 0.13189285 0.019402001 0.07278743
0.006388306 0.020584641 0.08822406 0.010064912 0.05655879 0.18431263 -0.028396659 0.05763345
0.22726902 -0.40745914 0.00083277485 0.023679527 0.012535584 -0.016893277 0.17921229 -0.11689161
-0.06512697 -0.013428398 0.038012203 0.12261667 0.0121678235 0.21922687 -0.11475696 -0.013874396
-0.12902051 -0.07528798 -0.091799416 -0.06313104 -0.07846429 0.0391289 -0.00425621 0.071678825
-0.029616823 0.055229988 0.017825346 0.012637127 -0.11313703 0.026322955 0.08079844 0.045575973
0.010459344 0.054523595 -0.002027506 -0.124641 0.12046354 0.069745 0.094175376 0.16338834
0.056308214 0.10479799 -0.23923372 0.045476608 0.2547627 -0.018758276 0.14431068 -0.019603316
-0.076519884 0.053006455 -0.02809013 0.05797696 0.03655911 -0.041548826 0.048029695 0.08170413
0.037010532 -0.027536599 -0.07385787 -0.04089346 0.09744954 0.07748945 -0.29311535 -0.09361217
0.058375187 -0.3444328 -0.16604453 -0.05874294 -0.040352102 -0.002634553 -0.016321247 -0.049164142
0.105099276 -0.15294302 0.0119507825 0.01019823 0.081293754 0.006516574 -0.12834775 -0.037519757
0.060167536 -0.0063084397 0.013606386 0.052471112 0.07143632 0.04012853 0.037269145 -0.23384231
0.022076208 0.06636612 0.0677726 0.008887175 0.052639198 0.0007977707 0.07435355 0.031122625
0.088286005 -0.00809916 -0.06557639 0.06488558 0.021279687 -0.040518023 -0.0441294 -0.03944549
-0.048325267 -0.032342233 0.033085495 -0.013314754 -0.17005953 -0.026050253 0.075381115 -0.12726855
-0.079245016 0.032958183 0.09017458 0.04719844 0.0497464 -0.1250913 -0.028352402 0.1357894
-0.073407546 0.120913185 0.06916622 -0.043564957 0.27284992 0.04634641 -0.07559101 0.057854056
0.034230683 -0.054681893 0.028518798 -0.015038597 -0.071676105 -0.049712863 0.07342307 -0.02993913
0.016772373 0.028589118 0.039406963 -0.031656474 0.050443877 -0.122238144 0.069589674 0.08008202
-0.07522956 -0.015190341 0.123006746 -0.0555315 0.029706122 0.014653873 0.08607791 0.012150525
0.05227835 0.03186573 0.029822208 -0.014762116 0.056446087 -0.051429246 -0.0274283 0.017043434
0.004839067 -0.1314362 -0.0037814514 0.074427046 0.10831288 0.10645627 -0.008573519 -0.033812393
-0.049162578 0.0042402125 -0.047867987 -0.06895234 0.08097314 -0.095647134 -0.05300187 -0.001729396
-0.014242467 0.0071799997 0.08614379 -0.034881152 0.078346215 0.023866706 -0.041692566 -0.0104242675
0.00761997 -0.060958248 -0.14959589 -0.022505678 -0.0043775756 0.04279518 0.16360645 0.1485638
-0.22588092 -0.13022296 0.09172912 -0.0036857964 -0.020281453 0.08850059 -0.07093768 -0.009231873

read_encoder.block2.0.bias f4 [128]
00000000: a18f 553d 3725 803d a922 893d 2bd0 8a3d
00000010: 7093 e73c 1375 88bd a8e0 0c3d b961 0dbd
00000020: f0d2 f23d b803 8dbd bec8 0ebd d9f5 413d
00000030: a9de 6fbb 1781 943d c057 37bd e2b4 04bc
00000040: d349 ae3d b5aa 8a3d 86a2 a8bd 4809 d13c
00000050: 3652 0abc 911c cfbb 991c f2bd 1d41 28bd
00000060: 6526 b1bc b6e3 b13d b431 81bd ea0c 81bd
00000070: 10dd c4bd 682d 8fbc a8a9 e8bd ada2 56bd
00000080: 52cb 6bbc 1819 2dbd 4e87 4e3d dcd5 33bc
00000090: a15d c63d db81 54bd 8770 97bd 1274 37bc
000000a0: b54e 6b3c 69b8 5ebd bf3f e23d 6465 53bd
000000b0: c780 a2bd 0bf3 493d a558 c8bc 5b69 bd3d
000000c0: 942e 0fb9 5c26 7e3d f764 a43d e6ed b33b
000000d0: 73b4 3cbc 6a99 c9bc f5ca 43bc d543 40bd
000000e0: 087e 703d 03dd b13c c532 5d38 d8c5 cf3d
000000f0: 180a 813d a8fc 4e3d 9fa1 9e3d 2537 163d
00000100: 1104 943c e528 a03d 514c 573d 4588 a33d
00000110: 944c 643d 31ab 88bd 0251 81bd aa0f 913d
00000120: 1cc4 c939 c9e3 ddbc aab7 65bd 4754 74bd
00000130: 3781 353d 7e04 923d b132 76bd 9a02 c0bc
00000140: 9cb9 643d f17e 593d b5c1 843d 8eb2 39bc
00000150: a533 83bc 3887 9f3d 62a2 983d 5e83 543c
00000160: e7c5 8e3d 3228 90bd 35f3 473d cbf2 773c
00000170: fafd be3c e167 5cbc 2d3c 0d3c 79be 9dbd
00000180: 445a 9e3d 16b3 333c 3bc2 953d 7f1a 07bb
00000190: e1f3 60bd 3523 683d 551b a33d 6e24 cbbc
000001a0: 9c4e 45bc 4693 23bd fef3 afbc 1064 0c3d
000001b0: 44b6 90bd f9c3 8d3d 1015 30bd a3ee 5d3c
000001c0: ee57 52bd 9f48 003d 2aa5 873d 6cbb b4bc
000001d0: dc9b 143b 0e96 203c cd3a 91bd d240 aabd
000001e0: da17 63bd 60fa ac3a f855 e63d 0344 303d
000001f0: 7447 ed3d 80b0 c1bd 799a 34bc 8cfd 033d
0.05213893 0.06257098 0.06696064 0.06777986 0.028268546 -0.06662955 0.034393936 -0.034517024
0.118566394 -0.06885475 -0.03485941 0.0473536 -0.0036601222 0.072511844 -0.04476142 -0.008099766
0.085101746 0.06770841 -0.08234124 0.025517121 -0.008442452 -0.006320544 -0.11821861 -0.041077722
-0.021624753 0.086860105 -0.06308308 -0.06301291 -0.09612477 -0.017477706 -0.11360484 -0.052401233
-0.014391737 -0.04226026 0.050422005 -0.010976281 0.09685827 -0.051881652 -0.0739451 -0.011197107
0.014362027 -0.054375086 0.11047315 -0.051610366 -0.079347186 0.04930405 -0.024456332 0.092486106
-0.00013654894 0.0620483 0.0802707 0.005491006 -0.011517632 -0.024609286 -0.011950244 -0.04693969
0.058713943 0.021711832 5.273779e-05 0.101451576 0.06300753 0.05053392 0.077456705 0.036673684
0.018068345 0.078203 0.052563015 0.07984976 0.055737093 -0.06673277 -0.06314279 0.07083066
0.0003848382 -0.027086155 -0.05608336 -0.059650686 0.044312682 0.07129763 -0.060106937 -0.02343874
0.055841073 0.053099576 0.06482259 -0.011334075 -0.016015837 0.07789463 0.07452847 0.0129707735
0.069713406 -0.07038917 0.048815925 0.01513357 0.023314465 -0.013452501 0.008620304 -0.077023454
0.077320606 0.01096799 0.07312437 -0.0020615158 -0.05492008 0.0566742 0.079641975 -0.024797644
-0.012042668 -0.039935373 -0.02147865 0.034275115 -0.070660144 0.069221444 -0.042988837 0.013545665
-0.051353388 0.031319257 0.066232994 -0.022062026 0.0022675907 0.009801401 -0.070912935 -0.08313145
-0.05544267 0.0013197176 0.11246866 0.04303361 0.11585894 -0.09457493 -0.011023157 0.032224223

read_encoder.block2.1.weight f4 [128]
00000000: 68a9 803f fb57 553f c56f 773f b981 753f
00000010: 5c05 803f c3bd 7c3f 26d3 883f 1960 773f
00000020: 497e 933f 1153 853f a54f 803f c67f 6e3f
00000030: 7b9d 8a3f e710 823f 3f47 513f 3f8b ac3f
00000040: 6a7a 733f 76ef 7d3f 6564 773f efca 6c3f
00000050: 48a4 653f 3465 9b3f defc 863f c080 673f
00000060: cb4d 7d3f 22fd 793f 7f6b 613f 4c59 663f
00000070: f094 8a3f 927d 863f e796 6f3f 06b0 703f
00000080: 8654 793f b7b0 5b3f 9d94 753f 755c 873f
00000090: d1a5 5e3f 4f1d 893f 4f62 583f 453a 943f
000000a0: 47bc 753f 6e99 813f 5913 743f 21dd 603f
000000b0: 549f 803f 7fe1 923f 17fe 743f be87 4f3f
000000c0: 6d55 793f 0a09 723f aa51 7e3f 4a2d 753f
000000d0: df56 6a3f 7a14 973f ab93 853f 5c3f 8c3f
000000e0: 1d50 8b3f 97d3 883f 8511 753f 4500 613f
000000f0: 0832 813f d636 473f fe49 7c3f 4c3b 833f
00000100: 8aed 743f eb0a 873f 6835 633f 87e5 713f
00000110: 51d3 683f d5d1 883f 4912 8d3f 3441 783f
00000120: fc38 8c3f 07f0 903f c0c9 753f fa27 7f3f
00000130: 1222 693f 7c37 693f c616 743f dd1e 953f
00000140: 8882 5a3f e593 683f 82ed 603f 37c8 993f
00000150: 55f5 6f3f d9e9 743f 6253 6a3f e3c4 823f
00000160: befa 5f3f 440c 843f 3ba1 8b3f 0dbc 993f
00000170: 7593 853f fe9f 613f 49aa 743f a6b8 8d3f
00000180: 6e47 5c3f c6fd 863f ec9e 883f 06ff 843f
00000190: a829 6e3f d8de 583f f2c1 7a3f 9504 833f
000001a0: 3a16 843f 4b9a 9c3f bce2 4b3f 5562 5f3f
000001b0: 69d5 7f3f d52b 643f 9cf2 613f 320b 583f
000001c0: 8474 893f 066d 7c3f 0852 703f 82b7 713f
000001d0: 7642 5e3f de06 803f b857 883f 1b59 803f
000001e0: 2567 723f a4dc 843f 4b3f 863f 3a4b 7c3f
000001f0: 8b6c 503f 107d 823f d246 7e3f 8b42 743f
1.0051699 0.8333737 0.9665492 0.95901066 1.0001636 0.98727053 1.0689437 0.9663101
1.1522914 1.0415975 1.0024306 0.93163717 1.0829309 1.0161408 0.8174934 1.3479995
0.95108664 0.99193513 0.96637565 0.9249715 0.897038 1.214026 1.0545919 0.9043083
0.9894683 0.97651875 0.8805465 0.89980006 1.0826702 1.0507071 0.93589634 0.9401859
0.973946 0.8581652 0.9592989 1.0575091 0.86971766 1.0712069 0.84525007 1.1580282
0.95990413 1.0124948 0.9534202 0.87837416 1.0048623 1.1475066 0.9570021 0.810665
0.97395974 0.9454504 0.9934336 0.9577223 0.91538805 1.1803124 1.043569 1.0956836
1.0883824 1.0689572 0.9572986 0.87891036 1.0093393 0.7781805 0.98550403 1.0252471
0.95674956 1.0550207 0.88753366 0.94490856 0.90947443 1.0689036 1.1021205 0.9697449
1.095489 1.132325 0.9601097 0.99670374 0.9106761 0.9110029 0.9534725 1.1650044
0.85355425 0.9085067 0.8786241 1.2014226 0.9373372 0.95669323 0.9153348 1.0216335
0.8749198 1.0316243 1.0908579 1.2010514 1.0435625 0.88134754 0.95572335 1.1071975
0.86046493 1.0546196 1.0673499 1.0390327 0.9303231 0.8471503 0.9795219 1.0235773
1.0319283 1.2234586 0.79642844 0.8725942 0.99935013 0.8912938 0.8826082 0.8439208
1.0738683 0.98603857 0.9387517 0.94420636 0.8682016 1.0002096 1.065177 1.0027193
0.94688636 1.0379834 1.0488065 0.98552287 0.81415623 1.0194416 0.99326813 0.95414037

read_encoder.block2.1.bias f4 [128]
00000000: e21b f9bd f587 47be 4e43 04bd 13a4 b6bd
00000010: 275e 62bd 29af ffbd 6df9 04be 8bee 5dbe
00000020: c888 60be aff9 52bd f3ab 84bd 5867 06be
00000030: cfd8 c3bd 777d d1bc 1726 0ebe 7b09 ddbd
00000040: 4c5d 98bd f274 53bd cfb5 8abd 38b1 0abe
00000050: 809c febd 295e 47bd c154 06be 03c5 e7bd
00000060: 2a18 10be 32a5 37bd 8ab2 16be 8510 b2bd
00000070: da4f ffbd f5ce 95bd 3223 d3bd 3376 87bd
00000080: 1b9d 9bbd 654c 2bbe 358f 66bd e4e6 d6bc
00000090: 885d 2cbe 4344 91bd db2b 7ebe e500 d8bc
000000a0: 3927 0fbd 6b0b d9bd 7e2f 23bd 20e5 dbbd
000000b0: 3bea 5cbd db68 5bbd 657a ebbd 1fb4 0bbe
000000c0: c5c5 27be be61 20bd afa6 64bd c687 62bd
000000d0: ec29 b8bd 4b64 01be fbbe 67bd 30b3 74bd
000000e0: 20e7 bbbd 5415 fabd 053a 41bd c729 b1bd
000000f0: 6211 e4bc 5b40 91be 59de 3fbd 98ef f8bc
00000100: d584 37be 2aa9 3ebd 4018 96be 4347 4abd
00000110: b4b8 e0bd 7440 68bd 344c e3bd dc9e 19be
00000120: e65d 72be ef03 d6bc e479 99bd d17f 51be
00000130: ba88 1cbe 166c 98bd bdf5 31be b78b 20bd
00000140: bc19 2fbe 23f2 a8bd 3ed4 0ebe fe6b 94bd
00000150: 0806 00be 7d36 11bd 2b5e 32be d03b ccbd
00000160: 9ac1 3ebe a01d 66bd 9eb6 a5bd 9757 24be
00000170: 9b86 88bd 6f14 65be 7c97 d2bd 3d62 66be
00000180: 9c3f 17be cb5c 79bd 01f0 01be 9017 82bd
00000190: a7bf c6bd 318a d8bd 3b5a 8abd e81c 38bd
000001a0: 906d 90bd b58c a3bd c3d1 4cbe d4c7 29be
000001b0: 23e9 12be c3b9 dabd 0c15 e4bd 7f97 12be
000001c0: 150b 19be 17ab b6bd f25c e7bd 2bce 88bd
000001d0: e224 0fbe e765 1ebd 5102 27bd adaf 94bd
000001e0: 9614 8cbd 0db9 c4bd a20e 0dbd db33 babd
000001f0: 07f4 42be 9998 cabd 3fa4 66bd 86ee eabd
-0.12163521 -0.19485457 -0.03229075 -0.089180134 -0.055265572 -0.12484581 -0.12985773 -0.21673028
-0.21927178 -0.051507648 -0.06478109 -0.1312536 -0.09562837 -0.025572522 -0.13881718 -0.10792824
-0.0743967 -0.0516252 -0.067729585 -0.13544166 -0.12432194 -0.048673782 -0.13118269 -0.11316874
-0.14071718 -0.044835277 -0.14716545 -0.08694557 -0.12466402 -0.073148645 -0.10309447 -0.066143416
-0.07598325 -0.16728361 -0.056288917 -0.026233144 -0.16832554 -0.07093098 -0.24821417 -0.026367614
-0.034949515 -0.10597881 -0.039840214 -0.107370615 -0.053934317 -0.053566795 -0.11497954 -0.1364293
-0.16384037 -0.039155714 -0.055823024 -0.055305265 -0.08992371 -0.12635915 -0.056578618 -0.0597412
-0.09174943 -0.12211099 -0.047174472 -0.086505465 -0.02784032 -0.28369412 -0.046842907 -0.030387685
-0.17921765 -0.046548046 -0.29315376 -0.049384367 -0.10972729 -0.056702092 -0.11098519 -0.15002006
-0.23668632 -0.026124923 -0.07493952 -0.20458914 -0.15286532 -0.07442491 -0.17378898 -0.039195742
-0.1709966 -0.08249309 -0.13948151 -0.072471604 -0.125023 -0.035452355 -0.17418735 -0.09972346
-0.1862854 -0.056180596 -0.08091472 -0.16049038 -0.06666299 -0.22371076 -0.102827996 -0.22498412
-0.14770359 -0.06087951 -0.1268921 -0.063521504 -0.097045235 -0.10573233 -0.06755491 -0.044949442
-0.070521474 -0.07985822 -0.20001893 -0.16580135 -0.14346747 -0.106799625 -0.11136827 -0.14315604
-0.14945634 -0.089193515 -0.11297025 -0.066799484 -0.13978913 -0.0386714 -0.040773693 -0.0726007
-0.06839864 -0.09605608 -0.034437783 -0.09091922 -0.19038402 -0.09892387 -0.05630898 -0.11471276

read_encoder.block3.0.weight f4 [128, 128]
00000000: d4e8 88bd 7612 27bd 6c20 be3c c1c7 e8bd
00000010: 29a2 0abe 907d a93d 182f 4eba e3d3 073b
00000020: 19c9 bdbd 8f84 d23d 6398 febd b146 fcbc
00000030: 6e37 da3c 4b5e a0bd d384 6cbd f008 74be
00000040: 95e7 bf3b bcab 7dbd 7fb8 2cbd 973d 483d
00000050: 6831 df3c e219 a73d 5d47 6ebd 5928 fd3c
00000060: fab3 13be d9b6 5c3d d052 63bb bfc5 e9bb
00000070: d534 2cbe a963 593d 907c 07bd b333 ecbc
00000080: a777 37bc 6411 92bd e04e f63c cf83 373e
00000090: e691 893b 6dcf 023e 4a87 b3bb dda0 ddbc
000000a0: 875d 083d 698e 14be a68d 07bd 83d7 f9bd
000000b0: a4eb fc3c 4de0 6abd 7822 91bd 3eae 60bd
000000c0: f2d8 94bd 6a3c 52bc 208c 263e df12 fbbd
000000d0: 3d03 a7bc baf4 353c 0091 ad3c 1852 243d
000000e0: 742c 13be 024f 9c3d 8558 70bd e013 8a3c
000000f0: 1c62 93bd a84e d6bc 2dbc 7a3d fbfc f0bd
00000100: b9ee e0bd d5d2 97bd a2c5 003d e61c 91bd
00000110: f371 443d 4aa3 853b 2ad9 703b 0593 773c
00000120: 66fc 613d f60b e13c dc08 d1bc 79d9 e83b
00000130: f62a 103d 7685 85bd 4129 65bd caef b6bd
00000140: dbf6 413c ff65 763c 0d91 87bd 3711 14be
00000150: b204 7d3d 140e 313d cc6b a8bd da97 86bd
00000160: 8eb1 8a3d 3d03 3cbe b8c1 8abd 4429 80bd
00000170: a56a 69bd f3d5 a0bd 2a0f ca3d 967e 83bd
00000180: 0eaf 823c 2c07 df3d 41c8 32bc c6d1 223e
00000190: 5b40 3abd 2be0 9e3c ca22 63bd b735 7dbd
000001a0: 32db 7ebe 8e12 c5bb cc5d 873d 585b 743d
000001b0: 2b1c a3bd 529d 663c eae7 3dbc b6e3 913d
000001c0: bd70 183d 9a1f b2bd 2e07 4bbd acd4 b13d
000001d0: 2fc8 063d 9e1b e5bc 04a8 24bd 4fb7 babc
000001e0: c092 013e c5ae 953d 42d5 2cbd c2a2 073e
000001f0: fc79 20b9 d908 e53c b8fd c4bd 2007 9b3d
00000200: 6830 76bd 16a3 c6bd ff9e e83c e863 44bd
00000210: 968d d83c 1561 383d 82a9 d6bd 7d07 e8bd
00000220: bffb 3dbd 25df 373e ef68 613d 6bb6 8cbd
00000230: 3519 183d 9c54 f63c d08f 463d 338f a4bd
00000240: 8987 633d 16fd 083d b610 0f3d 1ebe af3b
00000250: f5e1 523d a6a6 e5bd c89c 97bc 42d7 1fbd
00000260: ed7b 5f3c 7f3b 403d 4226 7a3d 9ec6 773d
00000270: d7d3 aa3d 2271 803d b462 423d d290 b6bc
00000280: 3901 f6bc 72ad 173d ed57 ddbc e500 b83c
00000290: 9e40 fb3a 9e69 f43d 1a2c 923d 7a14 47bd
000002a0: 57c8 27bd e2d2 443d 8411 813d 8b16 333d
000002b0: 4606 e6bc ee77 ecbd 4bd8 0ebd 0e8c bebd
000002c0: 0c77 f3bd 47f1 9cbc caf1 4a3c 3806 74bc
000002d0: 64b1 f43c 5ff6 13bd 5afd 00be d58e 743b
000002e0: 3482 093e 51d8 c7bd 36aa 3a3d 4815 913c
000002f0: 18dd 5cbd 86bd 4b3c bd09 383a 193c 5f3c
00000300: ace8 6dbd 141b 293c dd9c e3bc dfb3 74bd
00000310: 7952 d83a ee3d 8f3d 0338 76bb b8b8 86bc
00000320: 8ab4 1c3d 7b6a 663d 5629 393d 68d3 7fbd
00000330: 0a60 d63c 30f3 403d a658 a13d 90ff bbbd
00000340: ac58 aebc 8fe8 913c ac4a 85bd 390b 1fbe
00000350: 66b2 933d 24af 01bb f0d9 613d 0602 b5bd
00000360: 2567 7a3d 1eed e83c 4c7c 593c e667 5abd
00000370: a970 df3c 465a c53c e854 bbbd 1525 0cbd
00000380: e179 533d 210a cf3d 5ec7 10bb dfd9 bebc
00000390: 4f36 a9bd fe5a 233d e959 1e3d 2655 213d
000003a0: 9d8b 393e f602 9ebb 368a 20bd 01ae d0bd
000003b0: f9c7 b1bc 3f11 4c3d 3ee8 373c a481 933c
000003c0: e074 13bd 69c3 e33c b9b4 0dbc 4da1 663c
000003d0: c724 1cbd 8689 303d b82a 4e3d e6f5 8e3d
000003e0: aa12 993c 94e2 54bc 8701 2abd a898 09bd
000003f0: 9bf6 473d e6b7 293d 106c 6d3d 6bf7 c2bd
-0.066850334 -0.04078909 0.02320882 -0.11366225 -0.13538422 0.08275902 -0.0007865294 0.002072566
-0.09266872 0.1027919 -0.12431409 -0.030795427 0.026637759 -0.07830485 -0.05774386 -0.23831534
0.005856464 -0.061931357 -0.042168137 0.04888686 0.027245238 0.08159234 -0.058173526 0.030903028
-0.14424124 0.053885315 -0.0034686811 -0.007134169 -0.16817029 0.05307356 -0.033077776 -0.028833246
-0.011197961 -0.07132223 0.030066907 0.17921375 0.0041983007 0.12774439 -0.005478774 -0.027054245
0.03329232 -0.1450745 -0.03309407 -0.12199309 0.030874081 -0.057342816 -0.070866525 -0.05485367
-0.072679415 -0.012831787 0.16264391 -0.12259459 -0.020387286 0.011105711 0.021187305 0.040117353
-0.14372426 0.07632257 -0.05867817 0.01685518 -0.07196447 -0.026160553 0.061214615 -0.11767002
-0.10983033 -0.0741326 0.031438477 -0.0708559 0.047960233 0.0040783035 0.0036750534 0.015110736
0.055172347 0.027471524 -0.02551692 0.007106003 0.03519722 -0.06519596 -0.055947546 -0.08932455
0.01183864 0.015038966 -0.06619463 -0.14459692 0.061772056 0.043226317 -0.082236856 -0.06571932
0.06772147 -0.1836061 -0.0677523 -0.06257871 -0.05698647 -0.078533076 0.098661736 -0.06420629
0.015952613 0.1089004 -0.010912002 0.15900335 -0.04547153 0.019394001 -0.0554531 -0.061818805
-0.24888304 -0.006014175 0.06609687 0.059657425 -0.07964357 0.014075594 -0.011590937 0.071235105
0.03721689 -0.08697434 -0.049567394 0.08683142 0.032905754 -0.02796727 -0.040199295 -0.022792486
0.12653637 0.07308725 -0.042195566 0.13245681 -0.00015304232 0.02795832 -0.096187055 0.07569718
-0.060104758 -0.09699075 0.028396128 -0.04794684 0.026434701 0.04501446 -0.1048155 -0.11329553
-0.046382662 0.17956217 0.055031713 -0.06870731 0.037133414 0.030069642 0.048476994 -0.080351256
0.05554918 0.033444487 0.034928046 0.00536324 0.05148502 -0.11213426 -0.018507376 -0.039023645
0.013640386 0.04693174 0.06107164 0.06049215 0.083411865 0.06271578 0.047457412 -0.022285853
-0.03002988 0.037030645 -0.027019465 0.022461364 0.0019169038 0.119342074 0.07137318 -0.048603512
-0.040962543 0.048052676 0.06302169 0.04372267 -0.028079163 -0.11546312 -0.03487424 -0.09304057
-0.11887941 -0.019158019 0.012386749 -0.014894061 0.029869743 -0.03612363 -0.12596646 0.003731658
0.13428575 -0.09758056 0.045572482 0.017710343 -0.05392179 0.012435323 0.0007020494 0.013625168
-0.05808322 0.010321397 -0.02778476 -0.05974185 0.0016504071 0.06994234 -0.0037570007 -0.016445503
0.038258113 0.05625389 0.045205437 -0.062457472 0.026168842 0.04710692 0.078782365 -0.09179604
-0.021282516 0.017811088 -0.06508383 -0.15531625 0.07211761 -0.001978823 0.055139482 -0.088382766
0.061133523 0.028433379 0.013274264 -0.05332174 0.0272754 0.024090897 -0.09147054 -0.03421505
0.051629905 0.10109354 -0.0022091488 -0.023297248 -0.08262312 0.0398817 0.038659964 0.039387845
0.18119664 -0.0048221303 -0.03919431 -0.101894386 -0.0217018 0.049821135 0.011224804 0.018006153
-0.036000133 0.02780314 -0.008649045 0.014076543 -0.03812101 0.043099903 0.05033371 0.06980495
0.018685658 -0.012993474 -0.041505363 -0.03359285 0.048819166 0.041435145 0.057964385 -0.095198475

read_encoder.block3.0.bias f4 [128]
00000000: e1c1 533d 8d0d 823d 9bd2 dfbc 6a32 ffbc
00000010: e49c a13d 6ec7 fcbb 69a4 f3b9 1222 4d3d
00000020: 6f34 8c3d c109 89bd 419b bc3c 3a5f 613d
00000030: 037d 8e3d 1ecd 7c3d 21a7 663d b386 89bd
00000040: 2bbe 173d 1f6f 253d c64d 193d 63fc f43b
00000050: 2a27 d03d d549 0fbd 4e21 76bc 9bd5 86bd
00000060: 7b4f 8bbd efed 4a3d f65f 68bd a786 473d
00000070: 211a 93bc d584 84bd 4eb8 b4bc bbeb ba3d
00000080: df4b 193d d566 e4bc e75f b33a 29c6 323c
00000090: efa8 7c3d 760e 85bd e379 943d 0ead 98bc
000000a0: d8e7 87bc 046f 2abd a04c 6d3d 7165 213b
000000b0: 166d a93b 82b1 823d 1552 86bd 7783 bb3c
000000c0: 2621 29bd a048 803b 1afd a4bc 19c1 4c3d
000000d0: 9445 043c 75f6 f43d 20ee 553d 5663 b53d
000000e0: 49cc 2f3d 0a97 38bd 89a6 2abc 8f45 0fbd
000000f0: a820 ae3c 6a05 c23d f4cb 573c 648e ab3d
00000100: 9749 adbd 516a d2bc ea66 f43c 0f15 803d
00000110: ed97 a73b 1378 31bd 970d debc bb1c 82bc
00000120: 85ad 37bc bc10 b23b fc50 48bd 6f8f cdbc
00000130: b1b0 3ebd 037e 5aba 218e 61bd 0e17 853d
00000140: 01b3 4fbd d327 083d bf75 f2bc a776 83bd
00000150: 1b85 0c3d fe35 2cbd 71ab 963d 5430 6bbd
00000160: 45dd 2b3c 75cc 3cbd 0c14 18bc c53c a0bd
00000170: c746 dbbd 2730 c93d ad24 93bc 9eab 87bd
00000180: 9a66 bbbd 1f65 49bd f2ce 873c eae6 8639
00000190: 8ab8 48bc 51ed 673c 83a2 adbd c5cf 4bbd
000001a0: be32 363c ea99 17bd c59e 6a3c e34a b8bd
000001b0: e916 5fbd 5fdd 0abc 6a0c df3c 877d 853d
000001c0: 151f a0bd 90c7 b5bc 8720 a3bb f281 093d
000001d0: b0db 173d 550e 233c 5ec7 4bbd a104 47bd
000001e0: 3c2c 453d b540 1bbd d7b1 883d 85bf 3ebd
000001f0: 717d 93bc 209b a5bd b9a8 813d bfdd 94bc
0.05169857 0.06350241 -0.027322104 -0.031151969 0.07891253 -0.0077142036 -0.00046471067 0.05008132
0.068459384 -0.066913135 0.02302325 0.055022456 0.06957438 0.061719052 0.05631173 -0.06715145
0.037046593 0.040389176 0.037427686 0.007476376 0.1016372 -0.03498252 -0.015022589 -0.06583711
-0.06802269 0.049543317 -0.05673214 0.0487124 -0.017956795 -0.06470648 -0.02206054 0.09126993
0.037425872 -0.027881065 0.0013685197 0.010911503 0.061684545 -0.06496899 0.072498105 -0.018637206
-0.016590044 -0.04160978 0.057934403 0.0024627114 0.0051704748 0.06381513 -0.06558625 0.022889836
-0.04129138 0.0039149076 -0.02014022 0.04998884 0.008073229 0.119610704 0.052229047 0.088568375
0.04291943 -0.045065917 -0.010415682 -0.034978446 0.021255806 0.09473689 0.013171185 0.08376768
-0.08461302 -0.025685461 0.02983423 0.062540166 0.0051145465 -0.043327402 -0.02710609 -0.01588284
-0.011210804 0.005434124 -0.048905358 -0.025092809 -0.046555225 -0.0008334817 -0.055067185 0.06498538
-0.05070782 0.033241104 -0.029597161 -0.064191155 0.034306627 -0.04204368 0.073569186 -0.057419136
0.0104897665 -0.046093423 -0.009282123 -0.07824091 -0.10706859 0.098236375 -0.017961824 -0.0662453
-0.09150429 -0.049168702 0.016578171 0.00025730516 -0.012251029 0.014155702 -0.08478262 -0.04975869
0.011120496 -0.03701202 0.01432008 -0.089986585 -0.05446521 -0.008475631 0.0272276 0.06518083
-0.078184284 -0.022189885 -0.004978243 0.03357119 0.037074745 0.0099521475 -0.04975068 -0.0485884
0.04813789 -0.037903506 0.06674545 -0.046569366 -0.018004151 -0.08086228 0.063310094 -0.018172143

read_encoder.block3.1.weight f4 [128]
00000000: 0138 753f b4a5 723f d7dd 743f 08ae 743f
00000010: eec7 733f bcc8 843f ce98 723f d3fd 6c3f
00000020: 2338 5c3f fa21 833f cec7 773f 41fd 793f
00000030: 3cb4 6e3f 6eee 7c3f ed18 693f 8b1a 813f
00000040: fd8c 7a3f 8dc4 793f 98ce 8d3f 8417 6b3f
00000050: acd8 733f 4cc3 7c3f 9795 713f bf35 7e3f
00000060: 03a0 7a3f be90 733f b87a 753f d204 543f
00000070: bd91 843f 582d 843f 3f9d 723f 8ad4 6c3f
00000080: 4451 7d3f 8321 703f 20d6 7d3f 2611 7b3f
00000090: 60f3 773f 4e43 6d3f 83b5 5f3f 38c2 7b3f
000000a0: 3221 843f 7481 833f e479 763f 0943 6b3f
000000b0: a9d9 7c3f d0f2 833f 735b 783f 1fa4 703f
000000c0: fa9c 773f eff0 843f 5692 9a3f eabb 743f
000000d0: dfe5 6e3f a82d 873f 94ba 6f3f 9c69 873f
000000e0: b169 723f 46c5 753f 6d35 833f fbd0 743f
000000f0: 37fe 853f ef51 4c3f 46e9 b63f 6809 743f
00000100: adf3 653f b03c 933f 6f1d 653f 3157 843f
00000110: 22e6 6e3f ff35 723f 5ba7 603f d41c 733f
00000120: e7e5 743f 9e8e 713f a76c 843f 0eeb 7a3f
00000130: 62da 743f 4b7a 783f 0622 813f 9a80 6f3f
00000140: 385b 7a3f 1254 7a3f b966 573f 02c5 893f
00000150: b5b1 683f ed4c 793f 9efe 7b3f b2a4 7e3f
00000160: 2a03 773f 1a7a 813f cfaf 743f 15db 803f
00000170: 6b0a 773f 6897 763f edca 523f 7a08 793f
00000180: 2f3e 7b3f 1940 663f 542d 723f 6d93 833f
00000190: 45ad 813f 5a43 763f afdd 6a3f f0e1 813f
000001a0: f52d 753f 9da8 b23f b64d 603f fe48 7c3f
000001b0: b21c 633f 6045 743f adf2 773f 2734 6a3f
000001c0: cbc5 783f ffbc 7b3f 131b 6b3f 2eb5 773f
000001d0: 6ced 653f b2ca 803f db0f 6f3f caea 623f
000001e0: 8b87 743f dffc 783f 9c75 733f 4f71 6b3f
000001f0: 9615 733f 04b2 7e3f 06da 7d3f 2cec 6c3f
0.9578858 0.9478409 0.95651 0.9557805 0.95226943 1.0373759 0.9476441 0.92574805
0.8602316 1.0244744 0.9678925 0.9765206 0.93243766 0.98801315 0.9105366 1.0086225
0.9787138 0.9756554 1.1078672 0.91832757 0.9525249 0.987355 0.9436888 0.9930076
0.9790041 0.95142734 0.9589038 0.82819855 1.0356976 1.0326338 0.9477119 0.9251181
0.98952127 0.93801135 0.99154854 0.9807304 0.96855736 0.92680824 0.8738634 0.9834323
1.032263 1.0273881 0.9627974 0.9189916 0.98769623 1.0308475 0.9701454 0.9400043
0.967239 1.0386027 1.2075908 0.95599234 0.93319505 1.0560808 0.9364407 1.0579104
0.9469252 0.9600414 1.0250679 0.9563138 1.0468205 0.7981252 1.4289939 0.9532685
0.89824945 1.1502895 0.8949804 1.0339109 0.93319905 0.9461364 0.87755364 0.94965863
0.95663303 0.9435824 1.0345658 0.98014915 0.95645726 0.97061604 1.0088508 0.93555605
0.9779544 0.9778453 0.8414112 1.0763247 0.9089616 0.97383004 0.9843539 0.99470055
0.964892 1.0115387 0.9558076 1.0066859 0.9650027 0.9632478 0.8234089 0.9727856
0.9814176 0.89941555 0.94600415 1.0279366 1.0131003 0.9619652 0.9174451 1.0147076
0.9577325 1.3957707 0.8761858 0.9854888 0.8871566 0.9541836 0.9685467 0.9148583
0.9717681 0.9833526 0.91838187 0.96760833 0.898154 1.0061858 0.9338357 0.8863951
0.9551932 0.9726085 0.9510133 0.9196977 0.9495481 0.9949038 0.991608 0.9254787

read_encoder.block3.1.bias f4 [128]
00000000: a628 72bd 428d e1bd dbd9 00bd 41b5 d2bc
00000010: 45e9 64bd 0f93 72bd 0c61 32bd c9d7 febd
00000020: 6e0b d6bd 2318 92bd ff1f 81bc e064 e9bd
00000030: c9e9 39bd 1dc1 f2bc b788 8fbd 28bb 2abd
00000040: 27e7 27bd 5c21 8cbc 88c9 60bd 4900 b1bd
00000050: 95b0 43bd 869a dabc 752d 5abd 72cc b0bd
00000060: d0ab 5ebd 2110 a9bc 5e2a a13c fe84 c8bd
00000070: b7bb fabd cd65 91bd c23e cebd fd7f 82bd
00000080: 1449 a2bd 39e6 69bd 29e8 a8bc d58a 56bd
00000090: b788 73bd 4f48 92bd f4db c0bc 4b90 bfbc
000000a0: d065 99bc 7548 11bd a814 89bc d0ae a2bd
000000b0: 4df7 77bd 7647 ecbc 35b4 11bd 2190 c3bd
000000c0: 28f0 91bd 1c33 a2bc 1542 75bd c566 1ebd
000000d0: 47e8 b8bd cc49 4fbc 0129 02bd 6da4 04bd
000000e0: 834b 68bd 54a1 4ebd 1835 d6bc ce28 fcbc
000000f0: fc1e 82bc b3e6 3bbe 223f 94bd 4836 d2bc
00000100: d414 f1bd 4b70 cebd e983 bfbd 4c36 80bc
00000110: 2fdd 80bd 3d8a 3dbd 9cb8 ddbd 6bbc a2bd
00000120: 4ed7 fbbc 5f12 19bd 916d c6bd 8061 6fbd
00000130: d6f2 4ebd a52e 56bc 2e4d 8abd 6c4e 3cbd
00000140: 264e f1bd 3b8f 02bd acb8 13be 5b4e 25bd
00000150: dd5c b1bd 13c4 debc d1c3 40bd 10cb 2dbd
00000160: 4585 adbd a9b5 35be d01e f8bc 6c1d 37bd
00000170: cde5 8fbd a705 25bd a302 24be 815d dabc
00000180: 1168 b3bd e825 0dbe 632e 32bd 756c 5abc
00000190: 45ec 20be 2f04 fcbc 7330 e2bc d338 b8bc
000001a0: 6dea 61bd b513 e0bd e24f f6bd 310a a4bd
000001b0: abd0 afbd 6de1 87bd 7b36 b0bd 53c5 a4bd
000001c0: 4e9e 54bd 0eaa 42bd 479c 1abd 987c 93bc
000001d0: bc4c c0bd 6efd cfbc bd6a 31bd 0d52 83bd
000001e0: 5698 85bd d6e7 dabd 89cd f7bc 20c2 5ebd
000001f0: 3bda ccbd d654 b9bd 93db dfbc f0d8 74bd
-0.059120797 -0.11013271 -0.031457763 -0.025721194 -0.055886526 -0.059222277 -0.043549582 -0.124435015
-0.10451399 -0.0713351 -0.015762327 -0.113961935 -0.04538897 -0.0296331 -0.07008498 -0.041682392
-0.04099193 -0.01710575 -0.054879695 -0.086426325 -0.047775824 -0.02668501 -0.053266007 -0.08632745
-0.054363072 -0.020637574 0.019673523 -0.09790991 -0.12242835 -0.07099495 -0.10070564 -0.06372068
-0.07924095 -0.057104323 -0.020618515 -0.052378494 -0.059456553 -0.07142698 -0.023542382 -0.023384234
-0.018725306 -0.03546949 -0.016733482 -0.07943499 -0.06053858 -0.028842669 -0.03557225 -0.09548975
-0.07125884 -0.019799761 -0.059877474 -0.038672227 -0.090286784 -0.012651872 -0.031777386 -0.03238337
-0.05671264 -0.050446823 -0.026148364 -0.030781176 -0.015883915 -0.18349724 -0.07238604 -0.025660649
-0.11771551 -0.10080012 -0.09351332 -0.01565089 -0.062921874 -0.046274412 -0.10826227 -0.07946094
-0.030742314 -0.037371036 -0.09688867 -0.058442593 -0.050524555 -0.013072644 -0.06753002 -0.045973226
-0.11782484 -0.031874876 -0.14425915 -0.04035793 -0.086602904 -0.027193105 -0.047061745 -0.042429984
-0.08472685 -0.17745079 -0.03028813 -0.044705793 -0.07026253 -0.040288594 -0.16016631 -0.026655914
-0.087600835 -0.13783991 -0.04350127 -0.013331522 -0.1571513 -0.030763714 -0.027610993 -0.022488033
-0.055155206 -0.10941259 -0.12026955 -0.08009756 -0.08584722 -0.066347934 -0.08604141 -0.08045449
-0.051908784 -0.047525458 -0.037746694 -0.018003747 -0.09389636 -0.0253894 -0.043314684 -0.06412134
-0.065231964 -0.106887504 -0.030249374 -0.05438435 -0.10002562 -0.09049384 -0.02732638 -0.0597772

bag_predictor.weight f4 [1, 128]
00000000: a7cd 613d d350 10bc 6b2f 48bd 8b2a 6e3d
00000010: a910 cabc 31d2 983d e5c9 d5bc 0153 143c
00000020: 8a42 debc 75f0 b03d da8d 2abd 312a ad3c
00000030: e03d 03bd 1ad8 a7bd 1fca 9ebc 72dc 8dbe
00000040: 321c 25bd 003f 80bd 0d53 c53d 4e0f 463c
00000050: 6323 dfbc de0c b3bd e443 273d bccf 1f3d
00000060: 3576 d0bc 0f3c 97bd dc0c c1bc e4ad 1cbc
00000070: 5d24 b83d 0d1e b13d 62f7 363d e2f9 a6bc
00000080: 20c8 6e3d d9a3 bcbc 9f31 35bd 5365 7b3d
00000090: fa26 a73c 4ec8 063d f405 44bc 8097 89bd
000000a0: 49b1 aabd 6654 953d 7bbd 23bd 5fe7 debc
000000b0: b862 a93c 05bf 09be 5bdd 48ba 38ed 94bc
000000c0: 0d3b e23c c52b 8dbd 566d eebd 0cdd 1dbd
000000d0: 7de8 e3bc 7223 ebbd b734 0bbd 6f0b d0bd
000000e0: 8369 c0bc 6de4 cf3c c4b0 6ebd 7263 f8bc
000000f0: 1a3a cdbd 00f7 00bc 9bab 0abe 9719 afbd
00000100: 4661 9ebc 6cb1 dfbd f838 c63b be1d 84bd
00000110: 3cc2 aebc f6da 1b3d bf83 683d 48a9 493c
00000120: e98d 5bbd 6634 33bc 9a11 8c3d 5fcf aabc
00000130: 1ae3 e23c 3e6d 60bd 75cb 443d 20fd 1bbd
00000140: 9417 ca3b 55b2 73bd 9e97 66bc 0a37 15be
00000150: 4584 6a3c df92 7cbd 036f a7bc 2a69 853d
00000160: 712a 453c 85f5 58bd ba7a 25bd 474a 25be
00000170: 6654 ee3d f0cf d9bc 6059 17bc 362d 91bd
00000180: bacd 233c dc10 d03b 7a66 04bd a243 c43d
00000190: da72 d43c a8c1 03bd f934 03bd 1878 87bd
000001a0: 890b 8d3d d260 29be 413c a3bc e5ca 36bc
000001b0: 9587 fc3a 0545 d4bc 304c 63bb 5fc7 5dbc
000001c0: 31d0 373d 6dd8 2e3d adc0 da3c 44c8 10bd
000001d0: 1a9a b9bc 4089 b8bd 6523 2d3d 6ddd 68bc
000001e0: 7a4a 1e3d 7ae3 0d3b b744 a9bd 9ee1 acbc
000001f0: 6c5f b93b 82d8 ae3d ee85 44bd c50f bfbc
0.055127766 -0.0088083325 -0.048873346 0.05814604 -0.024666147 0.07461966 -0.026097247 0.009052993
-0.027131338 0.086396135 -0.041639186 0.021138282 -0.03204143 -0.08195515 -0.019383488 -0.2770725
-0.040310092 -0.06262016 0.09634981 0.01208861 -0.027238553 -0.087426886 0.04083623 0.03901647
-0.02544699 -0.07384502 -0.023565702 -0.009562943 0.08991311 0.0864831 0.044669516 -0.020382825
0.058296323 -0.023027347 -0.044236775 0.061375927 0.020404328 0.03290587 -0.01196431 -0.067183495
-0.08334596 0.07291488 -0.039975625 -0.027209936 0.020676956 -0.13451774 -0.0007662379 -0.018179521
0.027616048 -0.06893114 -0.11641948 -0.038540885 -0.02782082 -0.1148137 -0.03398582 -0.10158431
-0.023487812 0.025377477 -0.058274046 -0.030320857 -0.100208476 -0.007871389 -0.13542025 -0.08549803
-0.019333493 -0.109225124 0.0060492717 -0.06450985 -0.021332853 0.038050614 0.056766268 0.012308426
-0.053602133 -0.010937786 0.06839295 -0.020850835 0.027696181 -0.05479168 0.048045594 -0.038083196
0.0061673615 -0.059496243 -0.014074234 -0.14571777 0.014313762 -0.061663505 -0.020438677 0.06514199
0.012034045 -0.05296852 -0.040400244 -0.16141616 0.116371915 -0.02658841 -0.009237617 -0.070887014
0.0099977795 0.006349666 -0.03232429 0.095832124 0.025933672 -0.032167107 -0.03203294 -0.06614703
0.06886966 -0.1654084 -0.019926192 -0.011156772 0.0019266481 -0.025911817 -0.0034682862 -0.013536303
0.04487628 0.04268687 0.026703203 -0.03534724 -0.02265649 -0.09010553 0.042270083 -0.014212948
0.038645245 0.002165048 -0.082650594 -0.021103676 0.005657127 0.08537389 -0.047979288 -0.02332295
