m6aReplica/3d_432_with_delta/Models/epoch5_rocauc0.872_valpr0.381_valscore1.254.pth (torch, 155273 bytes, 13 tensors)

read_encoder.block1.0.weight f4 [128, 24]
00000000: dbb3 423e 7802 2e3e 088d 43bd 1f10 ac3e
00000010: 5435 05be fadf 033d 7e98 6cbd 5698 3a3d
00000020: ed1b 363e e048 973d e356 d3bd 749d 84be
00000030: 64d2 773e a786 03be 2dda fe3d 6e9e 38bd
00000040: c829 8e3d 36b7 923d e9a7 87bd c959 183d
00000050: d49e 77bd 0340 61bd 6cc2 96bd 38b4 193e
00000060: 12ea 70bd 859d 413e e431 143d 68f7 813e
00000070: 881b 973e acee ecbd 624e 433e 3501 b13d
00000080: 442f 8e3e 154d 723f 9598 c3bf 76c6 773d
00000090: 89aa 4abe 145f 733d 7202 9c3d f738 8fbc
000000a0: 02e9 9f3d 7c08 93bd c315 7a3d adf9 9e3e
000000b0: 89fd c73d fb81 a3bc 9f3a 773e e442 2f3c
000000c0: d54e 9d3d 8b9d 92be 13a4 42be 61b1 32bd
000000d0: fe51 9bbe 9ac4 343e f489 153e 191e 42bd
000000e0: 976a b23d dc9d 9c3e f56a b03e 8250 3ebd
000000f0: e602 173e 1ec4 18be f093 c43d 9ecb 803c
00000100: 8d76 f7ba 1fc9 06bd 7432 383e e991 13be
00000110: d83b c5bd 3994 63bd 6246 493e e2d7 473d
00000120: be88 3f3e 94f9 96be 0e29 f1bd 954c 24bc
00000130: 69c1 a8be 38a5 203e 4f87 b13e 1341 29bc
00000140: d34e febc 7e2e e23e 1dc0 ea3e be2f 93be
00000150: 7a19 6c3e 893f b5be 04c4 313d 5ac4 06be
00000160: dee8 d4bd 1761 9a3e 2358 de3d efc5 1dbe
00000170: 8ae0 713e 876d 8e3e d182 95bd b857 11be
00000180: 1bb1 bb3e 463b 0abe 6fff 7bbd 66ea 3f3e
00000190: 831c e6bd bd41 8f3d 6fb0 623d 199c 2dbe
000001a0: 7ede ab3d f668 1d3f 40da b3bf d3dc 9a3d
000001b0: e33d 74be 9281 6cbd a6cf fd3e 1fdb 3a3d
000001c0: 77c8 0e3e b74c 54be 3863 1bbe 2f2c 59be
000001d0: 87f0 33bd f1d9 98bd 4536 81bd d13e 4ebd
000001e0: dbe3 ba3d 48b1 8f3c 05b3 fd3c 8fa5 8cbd
000001f0: 5965 1ebe 0bcf a7bd c7de e4bc 674e 1abe
00000200: c612 543e 8b8a 01be 8b55 9a3d e893 39be
00000210: b11f 0bbe 12ea ba3d ce30 cdbd 74b3 44bc
00000220: ea96 b8bd 5b43 dcbd e57f 433d 0ef7 84bd
00000230: 24ac 663d 5038 33be 45e9 613e a856 0dbd
00000240: da7e a03d 6c47 b93d dc05 c93d b26d 963e
00000250: 358a ad3e 0817 21be 792b 633d 326c 4b3e
00000260: 6ab9 1cbc fdf6 69bd 31c2 9ebe 2fd6 3b3e
00000270: 45f8 633e c082 7d3e 7536 c33d 5d2d 083b
00000280: 8008 053e 8c2c a7bd d243 91bc 559e 9fbe
00000290: 2733 e2bb c317 a13c 8653 63be 177e 4d3e
000002a0: 7d9b e73d 5847 11be d3af 7bbc 1001 abbd
000002b0: 51f1 b2bc 7087 f13c 2bd0 363d d6fe 66be
000002c0: 620c b0bd 438c 06bf df15 8d3f 2656 0fbf
000002d0: 8147 b53d 47ff ff3c 8553 bebd e036 7ebd
000002e0: b61e ae3d e86b 883e d35b ed3a f680 1ebe
000002f0: 273d ccbd e947 aa3d 9928 cc3c bbae c3bb
00000300: 50d6 253e e52e e23e b8ab 163d 8bbb 73bd
00000310: 026c ad3e fecf 7a3d 6f90 e1bc d629 c63e
00000320: 93a9 1cbe ec63 71be 608c d5bd 0c6a 803e
00000330: 0531 8dbe 5adc f2b7 3a70 a0be c14f 5bbd
00000340: 0665 c23c 8b76 963d b230 7e3d 2a40 2d3e
00000350: 659a f1bd bdcc 44bd bc59 65bd 857f bb3d
00000360: 7f3c 88bb 3324 54be bab6 af3d 046a 533d
00000370: 569e a3be 177c 0e3e 0a13 ad3c 24ae d2bd
00000380: a026 5bbe bf9c 083f 56e1 503e 1450 c0bd
00000390: f41f 653e 9b27 c3be 6ed2 22be 8487 db3d
000003a0: 0338 283d 87e8 803e 9dea cc3d e901 463d
000003b0: 455c 29bc 6340 72be e76e 4abe 9af1 08be
000003c0: 6ec9 1f3e fb06 d83b 8a21 493d 595c dfbd
000003d0: 7a1d bebd 41e9 63bd 8af4 1d3d acaa 93bd
000003e0: 4d41 373a cdc9 17be 331c 163f 499c 01bf
000003f0: 9653 8ebd cb31 31be 301a 77be 4929 80bd
0.19013922 0.16993129 -0.04774192 0.3360605 -0.13008624 0.032196023 -0.057762615 0.045555435
0.1778409 0.07386947 -0.10319307 -0.25901377 0.24201351 -0.12844335 0.124439575 -0.045072965
0.06941563 0.07163851 -0.06623823 0.037195 -0.060454205 -0.054992687 -0.07361302 0.15010154
-0.058816977 0.18907745 0.036180392 0.25384068 0.29513192 -0.115689605 0.1907287 0.08642808
0.27770436 0.9464887 -1.5280939 0.060492 -0.19791616 0.059416845 0.07617654 -0.017483218
0.078081146 -0.07179353 0.06105591 0.31049863 0.09765155 -0.01995944 0.24143456 0.0106971
0.07681052 -0.2863582 -0.19007902 -0.043626193 -0.30335993 0.17653123 0.14603406 -0.047391985
0.08711737 0.30589187 0.34456602 -0.046463497 0.147472 -0.14918563 0.09598529 0.015722092
-0.0018879935 -0.032906648 0.17987996 -0.14411129 -0.09630555 -0.055561278 0.19655755 0.048789866
0.18704507 -0.29487288 -0.11775409 -0.010028024 -0.3296006 0.15688026 0.34673545 -0.010330456
-0.031043446 0.44176096 0.45849696 -0.28747362 0.23056594 -0.35400036 0.043399826 -0.1316084
-0.103959784 0.301522 0.108566545 -0.15407537 0.23620811 0.27817938 -0.07300342 -0.14193618
0.36658558 -0.13499174 -0.061522897 0.1874176 -0.11235907 0.069949605 0.05534404 -0.16954078
0.083920464 0.6148828 -1.405098 0.0756165 -0.23851733 -0.057740755 0.49572486 0.045619126
0.13943659 -0.2073239 -0.15174568 -0.21208261 -0.043930557 -0.07463444 -0.06309179 -0.050352875
0.09125491 0.017540589 0.030969152 -0.06867515 -0.15468349 -0.08193787 -0.02793826 -0.1506897
0.20710286 -0.12650506 0.07535847 -0.18122828 -0.13586308 0.091266766 -0.100190744 -0.012005676
-0.090131596 -0.107550345 0.04772939 -0.064924344 0.05631651 -0.1750195 0.22061642 -0.03450647
0.07836695 0.09046826 0.09815571 0.29380566 0.33894506 -0.15731442 0.05546138 0.19865492
-0.0095656905 -0.057120312 -0.3100753 0.18343423 0.22262676 0.24756908 0.09531871 0.0020778992
0.12991524 -0.081627935 -0.017732535 -0.31175485 -0.0069030705 0.01966465 -0.2219983 0.2006763
0.11308954 -0.14187372 -0.015361744 -0.08349812 -0.021843584 0.029483527 0.04463212 -0.2255815
-0.08596112 -0.5255777 1.10223 -0.5599083 0.08851529 0.031249655 -0.09293274 -0.06206405
0.085019514 0.26644826 0.0018109031 -0.15478882 -0.099726014 0.08314497 0.024921702 -0.005971757
0.16195035 0.44176403 0.036784858 -0.059505027 0.33871466 0.061233513 -0.027534692 0.38703793
-0.15299062 -0.23573273 -0.10427165 0.25080907 -0.2757646 -2.8951257e-05 -0.31335622 -0.053542856
0.023729812 0.07346829 0.06205816 0.16919008 -0.117970265 -0.048046816 -0.05599378 0.09155182
-0.0041576023 -0.20716934 0.08579774 0.051614776 -0.31956738 0.13914524 0.021127243 -0.10287121
-0.21401453 0.53364176 0.20398459 -0.09390274 0.2237547 -0.38116154 -0.15900585 0.10719207
0.041069042 0.25177404 0.100056864 0.048341665 -0.01033694 -0.23657374 -0.19768868 -0.13373414
0.15604183 0.006592629 0.04910425 -0.10906286 -0.09282966 -0.05564237 0.03856329 -0.072102875
0.00069906266 -0.14823075 0.5863678 -0.506291 -0.069495365 -0.17304151 -0.24131083 -0.062578745

read_encoder.block1.0.bias f4 [128]
00000000: ac13 46bd e5e5 c23d 0420 373c 71a6 35bd
00000010: 72a7 973d cd2d 063e 8f5b 4abc 917a 463c
00000020: ec86 c1bc 5a09 b73d 94de 583d 9782 06be
00000030: 8101 72bc c77c b1bd 5b65 533e b941 b63d
00000040: 7a8d b03d 1281 193d 9165 2c3e d77e 9bbd
00000050: 676e e3bc 4a0c 733e 0ec5 243e b75d 76bb
00000060: 72a5 06bd db42 543e 3dcd 30be 3d1a 7cb9
00000070: b5d9 0a3d 26cb 153e 3d41 12be 1b4f 19be
00000080: f61d 2f3e 5383 303e 4cd8 c6bd 7d11 8e3e
00000090: 958d 1abd 7693 35bd 91af acbd 6745 283d
000000a0: aa47 f4bc cc8b 563e 4942 87bd ad85 1b3d
000000b0: 0c1f f0bd 62cf 293e 5b1b 883c 500d 72bc
000000c0: fd58 ffbd 40bb 86bd 58ec e93d 745e b9bc
000000d0: 089a 1f3e 80dc 8bbd 1681 b9bd e65b 1a3d
000000e0: 9dfa 0c3e 372d 5c3e 6b3d 0cbd bf00 623e
000000f0: 27e0 773e cd5c 32be d590 f93d 4feb 22be
00000100: d37b 143d 65c1 9bbd d969 813c 4561 013e
00000110: c7b0 1abd e65e 12bd c73f 7bbe ef49 16be
00000120: c07f 823d 5926 bb3c 189c 6f3e d76d 6fbe
00000130: a0a7 8dbc fd5f 28be 58b7 c53d feeb 1a3c
00000140: 70df 6fbe 61fc 983e 1dbb e53c eb4f 053e
00000150: babf f83c 70cc 0b3e a6de 833e 9c0c cabd
00000160: 1930 e1bd 278c 043e d732 55be cf16 803e
00000170: 2755 8ebd fd4d 283e b711 e6bd cdd3 4e3d
00000180: 9d2e 203e 9669 8fbd ab68 aa3d 1c7e 5e3e
00000190: cc6b 983e 72eb 9bbd 85eb a23c 52e6 1bbe
000001a0: 6974 be3d 5c7e 2fbe 32f2 df3d af7e 05bd
000001b0: 7961 40be bfb9 c4bd 8505 b03d d53a 973d
000001c0: 8f06 213e f956 abbc 8aac af3d b49f db3d
000001d0: 1c45 c33d c2c7 42bd d285 f5bd 0c4c 903e
000001e0: 85b9 38bd 1239 3e3d 322a 1dbe 7318 8f3e
000001f0: c4f6 503d 0c29 a2bd 936a 453e 4931 95bd
-0.048358604 0.09516505 0.011177067 -0.044348184 0.074049845 0.13103409 -0.012350931 0.012114183
-0.023623906 0.089373305 0.052946642 -0.13135754 -0.014770866 -0.086663775 0.20644133 0.08899254
0.086207345 0.037476607 0.1683562 -0.07592552 -0.027762605 0.23735157 0.16090795 -0.003759248
-0.032872625 0.20728628 -0.17265792 -0.00024042367 0.033899028 0.14628276 -0.14282699 -0.14971583
0.17101273 0.17237596 -0.09709224 0.27747717 -0.03773268 -0.044330083 -0.08431924 0.041081812
-0.029819328 0.20951766 -0.0660444 0.03796928 -0.11724672 0.16583017 0.016614607 -0.014773682
-0.12468145 -0.06578684 0.11422032 -0.022628047 0.15586102 -0.068291664 -0.09057824 0.037685297
0.13767476 0.21501623 -0.03423826 0.22070597 0.24206601 -0.17418213 0.12185828 -0.15910076
0.0362509 -0.076052465 0.015797542 0.12634762 -0.037766244 -0.035735033 -0.24536048 -0.14676641
0.06372023 0.022845434 0.23399389 -0.23381744 -0.017291844 -0.16442867 0.09654111 0.009455679
-0.23425078 0.2988005 0.028043324 0.13018768 0.03036486 0.13652205 0.25755805 -0.09865686
-0.10995502 0.12944089 -0.20820175 0.25017402 -0.06949835 0.16436 -0.112338476 0.050494958
0.15642782 -0.07002561 0.08320745 0.21727794 0.29769742 -0.07613267 0.019887695 -0.15224579
0.09299547 -0.17138046 0.10934867 -0.032591518 -0.18787183 -0.09605741 0.08594803 0.07384268
0.15725158 -0.020915495 0.08577831 0.1072382 0.09534666 -0.047553785 -0.11988415 0.2818302
-0.0450988 0.046441145 -0.15348127 0.2794834 0.051016584 -0.07917985 0.19278936 -0.07284791

read_encoder.block1.1.weight f4 [128]
00000000: a5f8 593f 856e 9c3f ef80 773f 03ae 893f
00000010: c6c5 b23f 8840 3b3f 9c38 9e3f fcc5 583f
00000020: c6e8 873f 9009 833f 3c53 8c3f c786 9c3f
00000030: e40a 893f d0e0 723f 9fb5 8d3f 293a b33f
00000040: e175 8c3f c618 723f 2b57 723f b23a 693f
00000050: 5a34 8f3f 5c7c 973f b451 7e3f 6fa1 733f
00000060: 410b 803f ed31 803f d4b3 7c3f 5e11 7c3f
00000070: c46f 893f 9510 883f 98ab 843f 6142 633f
00000080: 7ab5 8b3f bd71 6f3f aa2e 5d3f 97a1 903f
00000090: 05c6 8d3f 44a8 953f 3140 753f f130 a23f
000000a0: 18cc a63f 324d 823f e148 843f 9db1 833f
000000b0: d2b6 6d3f ab22 943f 8830 803f c21e 893f
000000c0: e734 7b3f 2f59 6c3f c04e 7d3f 8637 703f
000000d0: 4f34 8b3f 4e4a 563f ff79 963f dec7 813f
000000e0: 1e74 9a3f b315 9d3f fdc4 683f bf1e 703f
000000f0: 23e5 903f 8ee7 603f a9ec 803f eb04 823f
00000100: 426f 633f ad00 773f 12a5 5f3f 2658 a03f
00000110: a612 853f d505 853f 1852 753f 7014 663f
00000120: c4b2 8d3f 9a36 903f 5b4c 853f 5ae2 673f
00000130: 6f1b 6b3f 4bc7 683f b305 7d3f 58df 723f
00000140: 0ad7 873f 23e7 8b3f a792 653f 6b6e 9f3f
00000150: 9a15 a23f 70d8 7c3f 9d98 873f d88f 6e3f
00000160: 2676 6f3f e5bb 763f 3500 793f 5f98 a63f
00000170: ccbc 833f 6eb4 6a3f 5f48 833f 78f7 813f
00000180: ddf2 813f 7465 793f d9aa 873f 11bc 803f
00000190: b258 823f e9df 953f 4538 833f 8d6b a53f
000001a0: 65f6 8c3f 2f71 773f 72ac 853f 455a 563f
000001b0: 7c65 873f ade2 873f 4275 603f 1040 863f
000001c0: 2949 6c3f 9396 6f3f de79 843f 3060 833f
000001d0: 0f18 833f 0559 763f b499 913f 9750 703f
000001e0: 82b0 893f fdf3 a23f 85cb 7d3f a653 893f
000001f0: b6e6 6c3f f1ef 933f bd4d 6b3f 664c 7c3f
0.85145026 1.2221228 0.9668111 1.0756229 1.3966606 0.7314534 1.2361026 0.846771
1.0617912 1.0237293 1.0962901 1.2228631 1.0706449 0.94874287 1.1071051 1.4002124
1.0973474 0.9456905 0.9466426 0.91105187 1.1187851 1.1834826 0.9934342 0.95168203
1.0003434 1.0015236 0.98711896 0.98464 1.0737233 1.063006 1.0364866 0.8877316
1.0914757 0.93532926 0.8639933 1.1299313 1.1076056 1.1691976 0.95801073 1.2671186
1.3031034 1.0179808 1.0334741 1.0288578 0.92857087 1.157308 1.001481 1.0712512
0.981276 0.92323583 0.9894829 0.9383472 1.0875338 0.8370713 1.175598 1.013912
1.2066686 1.2272247 0.9092558 0.93796915 1.1319927 0.87853324 1.0072223 1.0157751
0.8884164 0.96485406 0.8736125 1.2526901 1.0396316 1.0392405 0.9582839 0.89874935
1.107018 1.1266663 1.0413927 0.9057976 0.91838735 0.90929097 0.9883682 0.94872046
1.06125 1.0929912 0.896769 1.2455572 1.2662842 0.9876776 1.0593449 0.9318824
0.93539655 0.96380454 0.9726594 1.301525 1.0291991 0.91681564 1.0256461 1.0153646
1.0152241 0.9742043 1.0599014 1.0057393 1.0183318 1.1708957 1.0251547 1.2923447
1.1012694 0.9665708 1.0443251 0.8373149 1.0577846 1.0616051 0.8767892 1.04883
0.92299134 0.93589133 1.0349691 1.0263729 1.0241717 0.96229583 1.1375031 0.9387297
1.0756991 1.2730709 0.9913867 1.0728652 0.92539537 1.1557599 0.91915494 0.98554075

read_encoder.block1.1.bias f4 [128]
00000000: 9160 fabd ced4 ac3d 3f2e 76bc 68c4 603c
00000010: 0497 0abb a60e fdbd c8bd 28bd 0341 35be
00000020: 0498 a73a d23b febb 7c0b 80bb 1ef2 623a
00000030: 8595 85be ee63 73bd ecbc 513c bf90 adbc
00000040: 31ac 1bbc fd82 05bd fae2 55bd ab99 59bd
00000050: 6a2b e839 1e0e 41bb 8f7c 2abd 7417 70bd
00000060: 846b 83bd 69c8 dc3d 2612 9dbd 41c4 7fbd
00000070: ec1d 2bbd 59f6 58bd 8735 25bd 3aca e6bd
00000080: 7536 9bbc 3c07 7bbd f794 90bd d5b8 24bd
00000090: 2eb1 82bc b1f1 243b d7f0 a3bd 48ed e0bb
000000a0: 1116 65bb e589 d6bd 86a4 26bc 7b46 52be
000000b0: 510e b0bd 91c3 a03c d538 47bd 6633 3cbe
000000c0: bfd2 97bd 3268 adbd f4e6 773c bb1d 3ebd
000000d0: cabc fe3b b329 dfbd 6768 82ba 3d55 27be
000000e0: ea19 7cba b23c 033c b9b6 64bd 2b5c d6bd
000000f0: 6709 06be 86dc 09be fa2e c8bd f43d 22bd
00000100: bf31 7cbd 6109 11bd b8fe febd a5fc 96bc
00000110: 2764 01be 30cb a7bc 5ba4 aabd 707b ffbd
00000120: 0366 e23b 700a 56bc 9fd2 58bc 353c 8ebd
00000130: c95c a7bd c499 b0bd 922e c5bd f880 68bd
00000140: 6da0 08bd b1c8 febd 010a e1bd d9c4 5f3b
00000150: f658 b9bc 21f5 11bd e380 e2bc 12d0 afbd
00000160: ee64 89bd a7ef 9cbc e521 39bd 41ff 17bd
00000170: 500b bebc b4f4 e9bd 861b 2ebd c3ab cebd
00000180: beb9 2abd a398 68bd 6bbf 51bd 4a34 82bc
00000190: 96c7 243d a7b8 64bd e605 a8bc ce29 063c
000001a0: af7e 353c 62a7 d5bc 946d 88bd 8c92 dcbd
000001b0: 049c 38bd eaa4 5abe d2ee 01be 2d15 8abd
000001c0: 7028 a1bd 71db 7dbd 055f 10bd 1ee3 eebd
000001d0: 6e47 00be d863 1cbd e8a2 433c c4d2 2bbe
000001e0: b88c bfbc bf10 83bc 9a45 85bd 1cf4 edbd
000001f0: 39e1 cfbd 31cf b9bc bf35 ffbd 51af 6ebd
-0.1222545 0.08439027 -0.015025674 0.013718702 -0.0021147141 -0.123563096 -0.041196615 -0.17700581
0.0012786393 -0.007758596 -0.003907619 0.0008657294 -0.26090637 -0.059421472 0.01280139 -0.021187184
-0.009501503 -0.032595623 -0.052218415 -0.053125065 0.00044282834 -0.0029457877 -0.041622695 -0.058616117
-0.06416991 0.10780413 -0.07669477 -0.06244302 -0.041776583 -0.05296931 -0.04033425 -0.112690404
-0.018946866 -0.061286196 -0.07059663 -0.040215332 -0.015953626 0.0025168473 -0.08004921 -0.0068642236
-0.003495578 -0.1047552 -0.010171061 -0.20534699 -0.08596481 0.019624503 -0.048638184 -0.18378982
-0.074132435 -0.08467139 0.015130747 -0.046415072 0.0077739703 -0.10896625 -0.0009949327 -0.1634111
-0.00096168986 0.008010076 -0.05583832 -0.104667984 -0.13089524 -0.1346303 -0.09774585 -0.039609864
-0.06157088 -0.035409335 -0.124509275 -0.018431017 -0.12635861 -0.02048263 -0.083321296 -0.12474716
0.0069091334 -0.013064012 -0.01323381 -0.06945077 -0.08171994 -0.086230785 -0.09628023 -0.05676362
-0.03335612 -0.124406226 -0.10988236 0.003414443 -0.022625428 -0.035634164 -0.027649349 -0.08584608
-0.06708704 -0.019157244 -0.04519834 -0.037108663 -0.023198754 -0.114236265 -0.042506717 -0.10091355
-0.041681044 -0.05678619 -0.05120794 -0.015894074 0.040229402 -0.05584016 -0.020510625 0.008188678
0.011077567 -0.02608079 -0.06661525 -0.10770139 -0.045070663 -0.21351972 -0.12688759 -0.0674232
-0.07869041 -0.061976854 -0.035246868 -0.11664413 -0.12527248 -0.038181156 0.011940695 -0.1677962
-0.02338253 -0.015999196 -0.06507416 -0.11618826 -0.1015038 -0.022681804 -0.12461423 -0.058272664

read_encoder.block2.0.weight f4 [128, 128]
00000000: 3d09 85bd 8048 bdbc 7d64 053d 851e 083e
00000010: 5509 75be eaf2 df3d 9f3b 81bb 835f b93d
00000020: 21df 1a3d d461 733d 59f4 573d 29a0 adbd
00000030: b586 083d 64e2 68bc 0603 4d3e 3daa 813d
00000040: f19f 74bd bd7e 3c3d c394 a83b d300 4f3c
00000050: 5161 bf3c b888 37be 275b 873d 029c bebd
00000060: 4f98 483d 5374 0abe cff5 2dbe 6ba7 d03d
00000070: 94e6 8bbd b405 8e3d ae5d bd3c 6722 42bd
00000080: ccb5 443d b90e 963d 90ef 22bd 54ae 3d3e
00000090: 2400 1bbd cce7 673e 3569 93bd fc1d a3bd
000000a0: 567f 2fbe 19be e8ba aa9e 4cbc 9058 c73c
000000b0: e5d2 ec3d 94a4 903d 6d04 883c fac1 50bd
000000c0: a6fd 1b3c c594 0f3c 48a4 be3c 9d64 213c
000000d0: 3506 833d 7f61 0c3e 72f9 93bd f0c6 ac3d
000000e0: ff1a 313e f45c a6be cda0 26bc af2b 4e3b
000000f0: 90a1 043d 7c84 c3bc 9840 cf3d 8d7d fabd
00000100: 7015 5dbd 7ab1 d6bc f497 9a3c cbef d03d
00000110: 5982 f2bb 0bad 293e fc23 febd f3dc 0aba
00000120: 4bbc d6bd 4ee0 aebd 43c1 bfbd 7f6e 9bbd
00000130: 26ae a7bd 21c2 4d3d adde 9fbc 1747 553d
00000140: c079 d7bc d71b 6c3d d39f d33c c1a2 1fbd
00000150: 2c1b f4bd e7db 3e3c ccdd 913d 5ebf 333d
00000160: 794f c73c fddf 8a3d 7d7f 1fbc 4968 e6bd
00000170: d7e3 e33d 92ea 6e3d 87ea 483d 652b b13d
00000180: 86c9 313c 8241 963d 54c3 2cbe 953f ec3c
00000190: 303d 2b3e 0bea e3bc e1ea d83d 34ed 1abd
000001a0: 23bd c9bd fb23 083d 33c6 93bd 5c33 483d
000001b0: c062 d13c f985 9fbc c37b 533d 5aab c03c
000001c0: 16ac 563d 9082 a6bc 129f 57bc 3cc9 0ebd
000001d0: 4303 b23d 3162 923d f1e9 54be da9e acbd
000001e0: 4fbd 7a3d 3df3 81be 8ce7 0cbe 1924 8fbd
000001f0: ff3d 16bd 3590 ecbd 6f81 87bd 6b8d 48bd
00000200: eaf9 c43d 6491 c4bd b721 6f3d ecc3 95bc
00000210: bd82 933c f93c a6bc b229 93bd 8c5d d33c
00000220: 562f 3c3d 50e2 a2bd 1619 b13c e990 303d
00000230: ba36 4a3d 5bc5 5d3c 50ff 463d 9bcb 0abe
00000240: ea2f e9bc 80e3 0a3d 5b8e e13c 3def 20bd
00000250: 658e 073d 3016 e8bb de5f a43d 3d8e e83c
00000260: 9c75 793d e7cb 663c 6bce 7fbd 5708 5e3d
00000270: 4ca7 3f3d 4914 ca3c 8a75 833d bf1d 08bd
00000280: 61e6 163d 301f 71bd 7cd2 243d b3a1 d63c
00000290: e07d d6bd e76f 7d3b ca9d e63b a941 e13c
000002a0: 7d8e c9bb d086 3e3d 4ba7 f73c f0dc edbc
000002b0: 7b3d aebc 6998 96bd 46c7 973c 4aaf 073e
000002c0: fae8 1ebd 16bf a73d 3460 033d 20dc 9ebc
000002d0: f2bf 003e c46f 063d 3147 0bbd ded0 3abc
000002e0: 7914 e6bc 0604 acbd 249f 0d3c 0a44 143c
000002f0: 537d a2bd 8153 51bd 1de1 5e3d 3493 20bd
00000300: 316d d1bb add9 3a3c e42f e93c 89b6 313d
00000310: 7811 013d 63e4 65bc 3542 2d3d 3af9 7f3d
00000320: b64d 41bd 9e43 a73b fbce ed3d c7c7 63bd
00000330: 9fdc 6f3d 977a 763d b219 dd3c 3ef5 28bd
00000340: 8b7c 823b 583d 22bd 3b3a a5bb dfb2 0b3d
00000350: fcf8 f8bc 14de 04bd 6d6f cbbb cfde 633c
00000360: 71ce 0c3c 62f4 7cbd a851 91bc ac95 cbbc
00000370: 7586 ed3d 5421 ae3d b7d2 753c 5653 ad3c
00000380: b4cc 913d 4547 80bd d401 8e3c 2429 c9bc
00000390: d632 cb3d 0fb7 cdbd e895 edbc d485 95bc
000003a0: 5ddb 443d c85e dd3c eb9b 973d 3348 53bd
000003b0: 90e4 903d 5462 dd3c 2d83 56bd 4138 3c3d
000003c0: 0bec e1bb a620 8dbd d6b1 b8bd 2ed2 6338
000003d0: 5290 2fbd 2cf3 9c3d 2b80 d43d 677e bf3d
000003e0: 13bf 05be 44bf 90bd 03b4 bc3d 4d17 13bd
000003f0: 9e12 d1bc 9aca 28bd f64a 47bd f865 4e3c
-0.06495903 -0.02310586 0.032566536 0.13292892 -0.23929341 0.10935004 -0.003943875 0.090514205
0.03781045 0.059419468 0.052723262 -0.08477814 0.03333159 -0.014214132 0.20020685 0.063312985
-0.059722845 0.046019305 0.005144687 0.012634474 0.023361834 -0.17923248 0.06609183 -0.093071
0.048973378 -0.13520937 -0.169883 0.101881824 -0.06831089 0.069346815 0.023115959 -0.04739609
0.048024938 0.07327027 -0.039779246 0.18523532 -0.03784193 0.22647017 -0.07197801 -0.079647034
-0.17138419 -0.0017756849 -0.012489 0.024334222 0.115636624 0.07062641 0.016603673 -0.05096624
0.009520924 0.008763497 0.023271695 0.009850648 0.06397668 0.13709067 -0.07225312 0.08436382
0.17295454 -0.32492793 -0.010170174 0.0031459143 0.03238064 -0.023866884 0.10119742 -0.12230978
-0.053975523 -0.026207674 0.018871285 0.10201987 -0.0074007926 0.16569917 -0.12409207 -0.0005297206
-0.10485133 -0.085388765 -0.093630336 -0.07589435 -0.08187513 0.050233964 -0.01951536 0.05206975
-0.026303172 0.057643738 0.025833046 -0.038973574 -0.11919245 0.0116491085 0.071223825 0.043883674
0.024329888 0.067810036 -0.009734985 -0.112503596 0.111274414 0.058329172 0.049051788 0.08650855
0.01085127 0.073367134 -0.16871387 0.028838912 0.1672256 -0.027821561 0.105916746 -0.03782387
-0.09850528 0.03323744 -0.07215538 0.048877105 0.025559783 -0.019473063 0.0516317 0.023519207
0.052410208 -0.020325929 -0.013160484 -0.03485988 0.086920284 0.07147635 -0.20792367 -0.08428736
0.061215695 -0.2538089 -0.13760203 -0.06989307 -0.036680218 -0.11550943 -0.066164844 -0.04896299
0.0961798 -0.095980436 0.058381762 -0.0182819 0.018006677 -0.020292746 -0.07185687 0.025801443
0.04594358 -0.07953322 0.021618407 0.043106947 0.049368598 0.013535823 0.04858333 -0.13554232
-0.02846523 0.033908367 0.0275337 -0.039290655 0.033094782 -0.007082723 0.08026098 0.028388137
0.060903177 0.0140867 -0.062452715 0.054207172 0.046790406 0.024667876 0.06418903 -0.033231493
0.0368408 -0.058867633 0.040239796 0.026200151 -0.104732275 0.0038671435 0.007037853 0.02749713
-0.006151019 0.046515286 0.030231139 -0.029036015 -0.02126955 -0.07353289 0.018527638 0.13250461
-0.038796403 0.081907436 0.03207417 -0.019392073 0.12573221 0.03282143 -0.03400344 -0.011402337
-0.028085934 -0.08399205 0.008643899 0.009049425 -0.0793406 -0.051105026 0.054413904 -0.039202884
-0.0063911905 0.011404437 0.028465219 0.04338697 0.0315108 -0.014031502 0.042299468 0.06249354
-0.04719325 0.005104496 0.11611744 -0.055610444 0.05856001 0.060175505 0.026989792 -0.041249506
0.003982132 -0.039609283 -0.005042342 0.03410613 -0.030392163 -0.032438353 -0.0062083513 0.013908102
0.008594141 -0.0617565 -0.017739132 -0.024851643 0.11597911 0.085024506 0.015003852 0.021157902
0.07119122 -0.062635936 0.017334856 -0.02455575 0.099218056 -0.10044681 -0.029002145 -0.01825229
0.048060764 0.027022734 0.07402786 -0.051582526 0.07074845 0.027024426 -0.052371193 0.045952085
-0.0068945936 -0.06890993 -0.090182945 5.4316763e-05 -0.042862244 0.07663569 0.103760086 0.09350281
-0.1306117 -0.07067731 0.09214022 -0.035910893 -0.025521573 -0.04120884 -0.048655473 0.012597553

read_encoder.block2.0.bias f4 [128]
00000000: 37a5 4c3d 725f 663d caf1 513d 3813 893d
00000010: 5388 c53c 429f 51bd 005d 1f3d 4818 a6bc
00000020: b3e2 ea3d 7236 81bd 128c 2fbd e3b9 503d
00000030: c146 cdbc 3e86 733d 64fe 72bd 528c b13c
00000040: f21a a53d 8034 613d 9feb 93bd e828 cd3c
00000050: f879 37ba 0695 8d3b 699a ccbd 0a6a 36bd
00000060: 3a84 89bc 81a1 933d 51a4 88bd 262e 7abd
00000070: f310 a9bd f53d 503b 42b2 c9bd 783b 8bbd
00000080: f7c4 1fbb e03d 43bd 0722 0c3d 81c9 d1bb
00000090: d77c bf3d bdb5 11bd 80f5 98bd d87a e0bc
000000a0: 1f2b ef3b e548 34bd e9ce d13d 986d 84bd
000000b0: a1b2 a1bd def9 4a3d a956 f5bc 167c 883d
000000c0: 677a bc3b f84d 2e3d 227e a23d 47b0 61ba
000000d0: 1dcc babc 3eab d1bc 94f8 86bc 76bf 72bd
000000e0: b357 8b3d b0eb 053d b61a 72bc 9739 ab3d
000000f0: 6fa3 3b3d a523 283d 0f42 873d accc de3c
00000100: 94fb b43b 7c66 893d 00a5 193d cf66 963d
00000110: 0e97 553d 5b3f 8dbd d3fb 2abd 6cc6 8a3d
00000120: 71d6 14bb 9aaf e7bc f230 45bd e496 91bd
00000130: 0adc 3b3d 7a53 653d 3880 62bd 55ce 2fbd
00000140: 1e63 133d cc81 0f3d df1b 703d f069 41ba
00000150: cc4e 91bc 3e91 823d e393 923d af60 f13c
00000160: ff3d 953d a804 96bd e492 373d 97e2 123d
00000170: 0f16 083d c6e8 acbc bd37 293c 6fe0 a1bd
00000180: 4bf5 963d 7e92 3b3c d27e 8a3d 7629 883c
00000190: 987e 4ebd 704f 683d 0b26 973d 3a6c f4bc
000001a0: e8e7 26bc 655d 26bd a0e4 2ebd 2503 d73c
000001b0: 60c7 adbd 3887 163d 0db2 18bd cdc4 42ba
000001c0: 3685 30bd bee9 0d3d 4600 8d3d d9fd 43bd
000001d0: 1c37 e2bb 1357 55bb acd7 8cbd 0c8f adbd
000001e0: a7ce 52bd 280a 31bc 9419 cb3d 3543 123d
000001f0: 60dd bd3d b81c b4bd eec1 15bd 6b0b 3f3c
0.04996225 0.056243367 0.05125598 0.06693119 0.024112856 -0.05117727 0.03890705 -0.02027525
0.11469021 -0.06309213 -0.04285819 0.050958525 -0.025058152 0.059454195 -0.059324637 0.021673355
0.0806178 0.05498171 -0.072226755 0.02504392 -0.0006999071 0.0043207435 -0.09990389 -0.04453472
-0.016786683 0.07208539 -0.06671966 -0.061079167 -0.08255186 0.003177521 -0.09848453 -0.06798452
-0.0024378875 -0.04766643 0.03421214 -0.006402195 0.09349983 -0.03557371 -0.074687004 -0.027402326
0.0072988416 -0.04401483 0.10244543 -0.06466216 -0.07895399 0.0495547 -0.02994855 0.066642925
0.005751896 0.042554826 0.07934214 -0.0008609336 -0.022802407 -0.02559435 -0.016475953 -0.059264623
0.06803837 0.032695472 -0.014776876 0.08360594 0.04581016 0.04104962 0.066043966 0.027197205
0.0055231545 0.067090005 0.037510872 0.07343828 0.05214601 -0.0689685 -0.041744065 0.06776127
-0.0022710825 -0.028281976 -0.04814238 -0.07108858 0.045864142 0.055987813 -0.05529806 -0.042921383
0.035983197 0.035035893 0.05862033 -0.00073781516 -0.017737769 0.06375359 0.071571134 0.029465048
0.072872154 -0.07325107 0.04481782 0.035860624 0.03322416 -0.021107089 0.01032823 -0.079041354
0.07371005 0.011448501 0.0676247 0.016621333 -0.050413698 0.056716383 0.07380303 -0.029836763
-0.010187127 -0.04061641 -0.042698503 0.026246617 -0.084852934 0.03675005 -0.037279177 -0.00074298383
-0.04309579 0.034646742 0.06884818 -0.04784951 -0.006903542 -0.003255312 -0.06877074 -0.0847455
-0.05146661 -0.010805644 0.09916988 0.035708625 0.092707396 -0.0879454 -0.0365619 0.011660437

read_encoder.block2.1.weight f4 [128]
00000000: 5f98 823f cc40 6b3f 542a 7d3f 270b 7a3f
00000010: 2b46 813f a1a3 7f3f 9efa 833f 9302 773f
00000020: 8065 893f f7d3 833f 383f 7f3f ad30 7b3f
00000030: e19e 853f 2aa3 813f b9fe 6c3f 57dc 963f
00000040: 718a 7a3f 580e 803f 1c73 7b3f 1202 7a3f
00000050: 4b32 7b3f 6f7b 933f 62ee 7e3f 4f0b 7b3f
00000060: 9b0d 7e3f 6dfa 7b3f e5b7 763f c7e5 733f
00000070: dc39 843f ec22 853f b38c 713f 0838 7c3f
00000080: 0164 753f 8167 683f 4ab3 793f 5f7f 843f
00000090: 4ac6 653f 11c6 863f cef4 7b3f b82b 913f
000000a0: adab 7d3f e7cd 803f 8ef8 7c3f 1ef6 763f
000000b0: ca8d 783f 10c3 903f 7345 7c3f 8202 663f
000000c0: da13 7c3f e959 7a3f f4b0 813f cd92 7d3f
000000d0: 75a6 7b3f 062a 923f 0f8b 833f 27b6 893f
000000e0: 2373 873f 465d 843f a54d 7e3f 7154 733f
000000f0: e88e 803f 4cac 783f ea4d 7f3f 4b47 833f
00000100: 8ff4 793f af87 843f e06b 6b3f 31fc 7c3f
00000110: e92c 753f bc1f 7e3f 7626 8e3f 4ae9 7f3f
00000120: 5d19 843f c6ae 8a3f d92b 7e3f bd16 833f
00000130: d144 7a3f 49bc 743f 2b42 793f 8254 933f
00000140: a969 6e3f 286f 6b3f 2241 753f ab8c 8d3f
00000150: 142d 7d3f 9d9a 7e3f 4b49 7a3f aa90 833f
00000160: 546d 783f fb05 823f a8cb 843f f5e5 8d3f
00000170: 408f 833f 88f5 813f 8f70 7c3f 81b1 823f
00000180: 84bf 763f 6527 873f cef8 833f ee37 833f
00000190: e83b 7b3f 1842 6f3f f5db 7d3f 49a1 813f
000001a0: 35a3 813f 7351 973f adf7 5b3f 61be 773f
000001b0: 180b 7e3f f402 773f 6e2a 6f3f 20e2 723f
000001c0: 9e2f 813f ec7a 7c3f d49a 7c3f dbee 7c3f
000001d0: 604a 763f 9ebb 7d3f 634a 863f b727 7f3f
000001e0: 76f8 7c3f fba0 863f ff41 853f 1240 7e3f
000001f0: 82db 613f eb3b 813f 6655 803f 45a2 7e3f
1.020275 0.9189575 0.9889271 0.9767327 1.0099539 0.9985905 1.0310857 0.964883
1.07341 1.0299062 0.9970584 0.9812115 1.0439111 1.0127919 0.92576176 1.1785992
0.97867495 1.0004377 0.9822252 0.9765941 0.98123616 1.1522044 0.99582493 0.9806413
0.9923951 0.98428994 0.9637435 0.9527249 1.0330157 1.0401282 0.94355315 0.98522997
0.9585572 0.90782934 0.975392 1.035137 0.8975569 1.0529195 0.9842042 1.1341467
0.9909008 1.0062836 0.98816764 0.96469295 0.9709135 1.1309528 0.9854347 0.89847577
0.9846779 0.9779344 1.0132127 0.99052125 0.9830087 1.1419075 1.0276812 1.0758713
1.0582012 1.0340965 0.99337226 0.9505072 1.0043612 0.97137904 0.9972826 1.0256132
0.9763879 1.0353907 0.9196148 0.98822314 0.9577165 0.9926717 1.1105487 0.99965346
1.032024 1.0834587 0.99285656 1.0241314 0.97761256 0.955998 0.9736659 1.1510165
0.93129975 0.91966486 0.9580251 1.1058553 0.9889691 0.9945467 0.97768086 1.0278523
0.9704182 1.0158075 1.0374651 1.1085802 1.0278091 1.0153055 0.9860925 1.021042
0.9638598 1.0558897 1.0310304 1.0251443 0.98138285 0.93460226 0.9916375 1.0127345
1.0127932 1.1821731 0.859248 0.9677487 0.9923568 0.9648888 0.9342412 0.9487629
1.0092657 0.98625064 0.9867375 0.98801965 0.9620724 0.99114406 1.0491451 0.99669975
0.9881662 1.0517877 1.0410765 0.99316514 0.8822557 1.009641 1.0026062 0.99466354

read_encoder.block2.1.bias f4 [128]
00000000: 7bb6 61bd 9e76 d5bd 180f 91bb cf32 08bd
00000010: 00cd a1bc da79 7dbd 96db 9dbd 83d8 f7bd
00000020: 7936 03be f1c2 bbbc 9e45 38bc 108b e2bc
00000030: 4b64 4bbd 3f72 d3bb b6f9 1dbd 4b64 aabd
00000040: d5d9 d1bc c969 91bc 9d8d febc 2ea7 febc
00000050: 9718 d9bc e889 66bc 4e4c a1bd f5e9 bdbc
00000060: fd59 9cbd 38dd 98bc 3981 2bbd f2ee d9bc
00000070: 1227 96bd dc85 18bd 4e13 54bd 9f95 66bc
00000080: 11fc 3cbd 1be1 57bd 67ae 4bbc e359 c8ba
00000090: 09db acbd 79f8 abbc fa70 adbd 6220 11bc
000000a0: 1316 dbbb c0cf 45bd 73d4 f8ba c655 2dbd
000000b0: 8750 50bc c5ee afbc 9d4a cfbc 9342 6dbd
000000c0: a61e b2bd 8b7c 1abc 9039 a6bc 895a 38bc
000000d0: 5353 6fbc b7db bdbd 6dad aabc 5801 19bd
000000e0: ac32 75bd 6905 5abd 20ba 0ebc f7e1 fcbc
000000f0: 32d9 98bb 5a08 9cbd 2964 3ebc 79be 93bb
00000100: 1e26 afbd b284 96bc ceeb 33be 4f1e a7bb
00000110: 9807 04bd 5c42 22bd e900 2dbd da2b 6abd
00000120: ec17 22be 2502 31bb 5a14 04bd 1305 b2bd
00000130: cdc1 d4bc 88f3 fabc 217e cabd 63a2 34bc
00000140: 5139 abbd 94cf 0dbd c539 44bd 7ed8 24bd
00000150: 748b 04bd f0a0 09bc 5e13 7ebd b4b9 24bd
00000160: 38f6 3fbd af7a a7bc bd81 16bd 9f80 e5bd
00000170: 1a90 23bd 0391 96bd 7fee b6bc e936 06be
00000180: 7fd6 64bd aea9 d1bc 909a 86bd 35ed 01bd
00000190: c5f8 dcbc 28e2 94bc 5e7a b3bc 0920 0fbc
000001a0: d38b 57bd 92d9 34bd 5dd9 f2bd b431 29bd
000001b0: ed30 7cbd 9cf8 1cbd 9f51 26bd ae99 50bd
000001c0: 7726 aebd 278c a9bc 2267 24bd 9715 9ebc
000001d0: 0460 20bd 1796 fbbb b332 07bc 5113 b4bc
000001e0: 3e58 c9bc 7771 8cbc 51c3 8dbb 6506 d9bc
000001f0: 24c4 dabd 26e6 56bd a8a7 aebc ee5f 53bd
-0.055105668 -0.10423015 -0.004426848 -0.03325158 -0.019751072 -0.061883785 -0.07707898 -0.12101843
-0.12813748 -0.022920104 -0.011247067 -0.0276542 -0.049656194 -0.006452828 -0.03856822 -0.083199106
-0.025616566 -0.017750638 -0.031073386 -0.031085577 -0.026500983 -0.014070965 -0.07875882 -0.023182848
-0.076343514 -0.018660173 -0.041871283 -0.026603196 -0.07331671 -0.037237033 -0.051776223 -0.014073758
-0.046138827 -0.05270491 -0.0124317175 -0.0015285577 -0.08440215 -0.020992504 -0.08468814 -0.008857818
-0.006685981 -0.04829383 -0.0018984213 -0.042318128 -0.012714512 -0.021476159 -0.025304133 -0.05792482
-0.08697252 -0.009429107 -0.02029112 -0.011252054 -0.014607268 -0.09270423 -0.020834649 -0.037354797
-0.059862778 -0.053227816 -0.008711368 -0.030869467 -0.0046645636 -0.076187804 -0.01162056 -0.00450879
-0.08552192 -0.01837382 -0.17570421 -0.0051000486 -0.032233804 -0.039614066 -0.042237196 -0.057170726
-0.15829438 -0.0027009335 -0.03224597 -0.08692374 -0.025971318 -0.030633703 -0.098873384 -0.011025044
-0.083605416 -0.03462179 -0.047906656 -0.040245526 -0.032359555 -0.008400187 -0.06203019 -0.040216163
-0.046865672 -0.020444242 -0.03674482 -0.11206173 -0.039932348 -0.073518775 -0.02233052 -0.13106884
-0.055868622 -0.025593605 -0.06572449 -0.03172036 -0.026974091 -0.018174246 -0.021908935 -0.008735665
-0.05262358 -0.044152804 -0.11857865 -0.041307166 -0.061570097 -0.03832303 -0.040605184 -0.05092781
-0.0850343 -0.020696713 -0.040137418 -0.019297404 -0.039154068 -0.007677804 -0.008251834 -0.021981867
-0.02457821 -0.017143948 -0.004326262 -0.026492307 -0.10681942 -0.05246558 -0.02132018 -0.051605158

read_encoder.block3.0.weight f4 [128, 128]
00000000: bbef 8dbd d51f 8d3c 7f0b ff3b 9382 d5bd
00000010: 4876 e0bd 2a6e 833d 86b8 b13c 0116 69bc
00000020: 8444 84bd 36ae 883d 28bc 1bbd f65d 5ebd
00000030: 1ef1 1c3d fb89 58bd b036 84bd 9874 f8bd
00000040: 132b 5bbb 58d2 18bd a3ee 39bd 059a 393d
00000050: 0fc3 de3b 8449 bb3d 4cab 11bd 3d8f 203d
00000060: 0052 0dbe 4f6a 4e3d e532 5c3c 81b6 263a
00000070: e56d c5bd d9ae 353d 1677 2fbd 7c4e 13bd
00000080: afda 69bc 8ec4 5ebd aa04 b03c 667e c73d
00000090: a4f6 57bc 6e39 013e fd14 713c adc8 2fbd
000000a0: c8b8 4c3d 21bf b5bd 10e3 45bd ab9f 83bd
000000b0: 2eec 9fbc 435b 69bd 1cc3 c1bd aabd 84bd
000000c0: 0658 75bd 2d91 efbb 5277 173e 4c50 ccbd
000000d0: 3d8b 37bc 89b7 5b3d d00c 923c c5b6 143d
000000e0: c892 c6bd b5f6 3b3d c316 2fbd 9c74 dd3c
000000f0: 66de 84bd 4532 aebc 02a1 4e3d 593b b4bd
00000100: 697b bdbd 0dd0 0dbd 4e95 0d3d b89e 6dbd
00000110: fa4a 6abc dfa3 27bd 8c41 c53c 0369 203c
00000120: 3fc7 573d eb38 febc 800b 8fbd aeb3 223c
00000130: 1ad4 283d ff0b 6bbd e028 bd3c 9716 9bbd
00000140: c8e7 683c 9661 283d ff33 c2bd 0b83 ddbd
00000150: a7d2 363d 6376 2d3d 241b 68bc bb78 8bbd
00000160: f4e5 863d 1501 11be 8aca ccbc 83b4 46bd
00000170: 2393 7abd bb62 69bd e89e a33d 0df7 8fbd
00000180: 2c54 0f3d f9be b13d 22b4 00bd 9712 283d
00000190: d762 3ebd 908c 30bd f624 96bd 1833 60bd
000001a0: be0b 3abe 2110 6bbb 9c50 803d f1dd 2a3d
000001b0: 63ba e7bd a180 193c c352 27bc 3f86 803c
000001c0: fd2b 063d 1491 afbd 0874 3bbd ac8f 9b3d
000001d0: 5324 633c c736 0dbd 4a1a 79bd bd16 8fbc
000001e0: a4bd fdba 96d1 0b3d 7371 0bbd ba86 cc3d
000001f0: cafe a43b 25fd 583c ae46 a6bd 0c0b 8f3d
00000200: a695 96bd 7174 b7bd 1025 153d ba4e 36bd
00000210: 951d 3f3d 767d 013d 22f6 c2bd c156 a4bd
00000220: d2fb 55bd 9e58 123e a8f0 043d 4744 86bd
00000230: 4e39 863d 01cb dc3c d5c4 723d 390d 8cbc
00000240: 0596 4e3d 8722 2c3d bde9 083d dc5c 613c
00000250: ee62 393d 1f63 93bd c193 c4bc c040 32bd
00000260: 92bb 6abc 537c 6c3d 2387 543d 8b6e 823d
00000270: 4464 983d c1ea 973d 3ba8 7b3d 58c6 aabc
00000280: f571 5cbd 89f3 0b3d e1d5 05bd 1144 52bc
00000290: e92a 0a3d 60de e63d 33f7 653d 560e 45bd
000002a0: 216f 39bd 101c 923d fd6a 5b3d 4f04 853c
000002b0: 0965 44bd 3a9f c6bd 9b62 22bd c601 a3bd
000002c0: f683 d0bd 4f76 c5bc 7450 c73c 03c9 88bc
000002d0: ce28 073d 1e20 f8bc 9e6d dabd bb82 dc3c
000002e0: c9ff d63d 7b0d 58bd dfea 0b3d aaa5 c53c
000002f0: 5083 82bd cbc0 1e3c c24a 16bd f94a b23c
00000300: 3d3e 9dbd 9ee1 92ba 2734 0bbd f822 8cbd
00000310: 5f9b 80bb 0593 063d 0dcb b3bb 4f71 12bc
00000320: 5bad 993d 253a 213c 685d 153d 5309 7ebd
00000330: 3bae ef3c 35d5 203d 9207 9c3d e270 8bbd
00000340: 7227 17bc 37b7 b63b 7619 9cbd be19 21be
00000350: 2174 933d dd11 cdbb 3074 383d fdc4 babd
00000360: 988d 693d a7bc 123d 6bbc fd3c 87fc e43c
00000370: e276 053c 3ff6 393c cc5f b7bd d81f 51bb
00000380: 2fe2 713d 1294 903d 80fe a93c be04 efbc
00000390: 49d3 aebd f2ce 673c 098c 4e3d 5495 543d
000003a0: 0569 1c3e 4c64 063c 9368 b2bc 9994 cfbd
000003b0: c3d0 e5bc 7b04 563d 12a1 493c 535f babc
000003c0: f6a8 4dbd 1bba 033d 9f26 8ebb 8b4f fd3b
000003d0: c7da 12bd 59ce 2a3d 864f ce3c 25b6 813d
000003e0: c2e3 773c d131 21bc f00b e7bc 1ebd f1bc
000003f0: 4986 4b3d a4ea 2b3c 1b1b 833d 0f0b c8bd
-0.069304906 0.017227093 0.007783353 -0.10425296 -0.1096006 0.064174965 0.021694433 -0.014226438
-0.06458381 0.06673853 -0.038021237 -0.054288827 0.038315885 -0.052865963 -0.06455743 -0.121316135
-0.0033442422 -0.037309974 -0.045393597 0.0453129 0.006798155 0.09144881 -0.035563752 0.039199103
-0.13800812 0.050394353 0.013439869 0.00063595927 -0.09640101 0.0443562 -0.04283818 -0.03596352
-0.01427333 -0.054386668 0.021486599 0.097409055 -0.013181362 0.12619564 0.014714477 -0.04291599
0.04998091 -0.088743456 -0.048312247 -0.064269386 -0.019521799 -0.0569718 -0.09461042 -0.06481488
-0.0598984 -0.0073110075 0.14791611 -0.09976253 -0.011202631 0.05364183 0.017828375 0.036307115
-0.09695965 0.045889575 -0.042746317 0.027033143 -0.06487732 -0.021264205 0.050446518 -0.08800382
-0.09252054 -0.03462224 0.034566216 -0.058012694 -0.014300102 -0.040927764 0.024079107 0.009790662
0.05268025 -0.031033 -0.06984615 0.009930534 0.0412179 -0.057384487 0.02309078 -0.07572668
0.014215417 0.04110869 -0.09482574 -0.1081601 0.044634487 0.04234923 -0.014166627 -0.06810137
0.06586829 -0.14160569 -0.024998922 -0.048511993 -0.061175477 -0.056978922 0.07989293 -0.07029543
0.034992382 0.08679003 -0.031421788 0.041033354 -0.04648098 -0.0431028 -0.073312685 -0.054736227
-0.18168542 -0.0035867768 0.06265375 0.041715566 -0.11314847 0.009369046 -0.010212603 0.015689014
0.032756794 -0.08572593 -0.045764953 0.075957626 0.013863641 -0.034476068 -0.060816087 -0.017466897
-0.0019358885 0.034135424 -0.03404374 0.099866346 0.005035256 0.013243948 -0.0811895 0.06984529
-0.07352762 -0.08957756 0.0364123 -0.044508673 0.04665907 0.03161379 -0.09519602 -0.080243595
-0.052242108 0.14291617 0.03245607 -0.065559916 0.06553899 0.026952269 0.059269745 -0.017096149
0.05043604 0.042025115 0.033426035 0.01375505 0.045260362 -0.0719664 -0.023996236 -0.04351878
-0.014326947 0.057735752 0.05188669 0.06368741 0.07440999 0.07417823 0.061439734 -0.02084653
-0.053819615 0.0341678 -0.032674674 -0.012833611 0.03373233 0.112728834 0.05614395 -0.048109375
-0.045271996 0.07134259 0.05356883 0.016237406 -0.047947917 -0.09698339 -0.03964482 -0.07959323
-0.101814196 -0.024104265 0.024330355 -0.016697412 0.0329979 -0.030288752 -0.10665439 0.026917806
0.10498006 -0.05274723 0.034159537 0.024126846 -0.06372702 0.00968952 -0.03669239 0.021764265
-0.07677887 -0.0011206155 -0.033985283 -0.06842607 -0.0039247717 0.032855053 -0.005486852 -0.008938148
0.07503768 0.009840523 0.036466032 -0.06202061 0.029257884 0.03926583 0.076186314 -0.0680864
-0.009225713 0.00557604 -0.07622044 -0.15732476 0.07199884 -0.006258233 0.04503268 -0.09119604
0.0570198 0.035824444 0.030973634 0.027952446 0.00814602 0.011350214 -0.08953819 -0.003190985
0.059053596 0.07059492 0.020751238 -0.029177066 -0.08536393 0.014148461 0.050426517 0.051900223
0.15274437 0.008202624 -0.02177838 -0.10135765 -0.028053647 0.052250367 0.012306469 -0.022750532
-0.05020996 0.032159906 -0.0043381 0.0077304295 -0.035853174 0.041700695 0.025184404 0.063335694
0.015129985 -0.009838537 -0.028203934 -0.029509123 0.04968861 0.010492954 0.06401654 -0.09767734

read_encoder.block3.0.bias f4 [128]
00000000: 6f83 5f3d 2263 8c3d 195b 2fbd 740f 0dbd
00000010: bcdf a03d d122 d3b9 1c60 6bbc b726 743d
00000020: 3f88 3c3d ab2e 6dbd e474 aa3b 4889 843d
00000030: 255d 563d 120c 713d 5df7 613d 0da9 83bd
00000040: f45d f03c 9566 e83c b691 593d 1561 7e3c
00000050: df36 be3d f9d9 21bd 556a 31bc 42b5 73bd
00000060: 8e7f 99bd 2470 3c3d 14b5 63bd c7f0 d63c
00000070: 1b8c d7bb 3be8 4ebd f231 79bc 31c9 a93d
00000080: 6d31 173d e258 29bd 5c14 54bc 4597 a13c
00000090: 92a0 763d d617 61bd f988 7a3d d7f2 f1bc
000000a0: 2147 a9bc 4fc1 12bd 8968 583d b33b 82bb
000000b0: 07c4 8b3c 6033 683d 1b0e 69bd d514 a03c
000000c0: 8d62 f3bc 470b 14bb 776d c4bc 88bb 423d
000000d0: dd13 9e3b d2ed d33d 325c 393d 1cde a83d
000000e0: b2e2 c23c 6107 1bbd e583 79bc dad3 e4bc
000000f0: 7da9 843c f56a b03d 9055 313b 88fa a13d
00000100: 8678 afbd 0e1a 08bd 1e04 013d 2d37 3a3d
00000110: 46d4 59bb 0497 14bd 2315 b5bc b2b8 9dbc
00000120: 88ab aabc d203 d33b bd77 21bd 8c69 03bd
00000130: d843 47bd 28d1 b4bb 6521 33bd 8814 893d
00000140: 91a6 2fbd 9421 263d bc44 f3bc 5ccd 87bd
00000150: 6281 153d 353f 74bd a832 843d 8d9b 49bd
00000160: d5d9 b73c b197 48bd 879e c9bb 12ac 94bd
00000170: fe68 bfbd bef8 aa3d 08a5 bebc c478 8abd
00000180: 69cb b2bd 672b 2bbd 09f7 233c 0d84 073c
00000190: f109 88bb ac43 abbb ccdb a2bd b57c 87bd
000001a0: 36e6 963c d591 fcbc c460 da3b 2747 babd
000001b0: 50ec 52bd 7dd4 3c3c 16e0 bb3c a345 7f3d
000001c0: f69d 89bd cb24 52bc f23f b8bb e5b8 ad3c
000001d0: 96e3 d13c 1313 5c3b 6514 29bd b32b 54bd
000001e0: c670 6a3d 5126 d8bc d135 833d 44cd 80bd
000001f0: 8fc5 54bc a7fc 96bd 7866 8d3d e2c5 f1bc
0.054568704 0.068548456 -0.042811487 -0.034438565 0.07855174 -0.00040270996 -0.014366176 0.059607234
0.046028372 -0.057905834 0.0052019227 0.06471497 0.052334923 0.0588494 0.055167545 -0.06428728
0.029341675 0.028369227 0.053117476 0.015526076 0.092878096 -0.039514516 -0.010828574 -0.059499033
-0.07495032 0.046005383 -0.05559261 0.026237858 -0.006577981 -0.05051444 -0.015209662 0.08290327
0.03691237 -0.04134453 -0.012944307 0.019725451 0.060211726 -0.054954372 0.061165784 -0.02953474
-0.0206638 -0.035828885 0.052834067 -0.003974402 0.017061247 0.05668962 -0.056898218 0.019541183
-0.029710079 -0.002258973 -0.023977978 0.047542125 0.004824145 0.10348095 0.04525394 0.08245489
0.023789737 -0.037848834 -0.0152292 -0.02793305 0.0161941 0.086141504 0.0027059056 0.07909113
-0.0856791 -0.033227973 0.031498067 0.045462776 -0.0033238097 -0.036276832 -0.022104805 -0.019253109
-0.020833746 0.0064396644 -0.039420832 -0.03208308 -0.048648685 -0.0055180974 -0.04373302 0.06693369
-0.04288346 0.040559366 -0.029695861 -0.06630966 0.036500342 -0.05963059 0.064549744 -0.04922061
0.022442738 -0.04897279 -0.006152931 -0.07259382 -0.093461975 0.08348225 -0.023272052 -0.067613155
-0.08730204 -0.04178944 0.010007628 0.008271229 -0.0041515757 -0.005226573 -0.07952079 -0.06615583
0.01842032 -0.030831257 0.0066643674 -0.090956025 -0.051494896 0.0115252705 0.022934001 0.06232227
-0.06719582 -0.012826155 -0.0056228573 0.021206329 0.025621217 0.0033580705 -0.041279215 -0.051799487
0.057236455 -0.026385458 0.06406749 -0.06289151 -0.012986555 -0.07372408 0.0690431 -0.029513303

read_encoder.block3.1.weight f4 [128]
00000000: 7a5a 7b3f 449a 7a3f 1e22 7a3f 1975 783f
00000010: 2460 7d3f 0ac5 7e3f cda7 7a3f 2a0c 793f
00000020: fa5f 6b3f b0b5 7f3f d19f 7e3f 7504 7f3f
00000030: fb89 7a3f 00a1 7c3f 63b4 783f a552 7f3f
00000040: c17f 7b3f aea1 7d3f 5398 813f c9c2 753f
00000050: 2ffa 7b3f 9bb3 7d3f 98d8 783f e0cc 7c3f
00000060: 6eac 7e3f bd12 7b3f 20f5 7d3f c48d 6c3f
00000070: 5ca3 7d3f 747b 803f 7c69 783f e467 763f
00000080: 998a 803f 86ca 7d3f 8f44 823f 70b0 7d3f
00000090: a05b 7e3f facd 763f 8fd7 723f 57ca 7d3f
000000a0: 8373 813f 9c51 803f 2948 7c3f 81cd 763f
000000b0: 14f4 7d3f b606 813f f6f7 7a3f 81e0 713f
000000c0: a411 7d3f eef8 823f 77ff 8b3f 34ae 7a3f
000000d0: 0483 763f 57f6 833f 634d 783f 761c 833f
000000e0: ab9e 7c3f 4649 7c3f 7f23 813f b25f 7d3f
000000f0: 802e 833f 7ba4 743f 0236 953f 29df 7b3f
00000100: 915c 783f 7e48 843f 62b9 783f 4e7a 833f
00000110: 1c02 7d3f a65a 763f 32da 6e3f fe48 803f
00000120: 4816 7f3f 79cb 7a3f 4e64 7d3f bc2b 823f
00000130: 83ac 7a3f 0513 7d3f 033f 7e3f 4ed6 783f
00000140: e723 803f 1357 7f3f e05a 793f 0278 833f
00000150: c111 793f 06d4 7a3f 0abc 7d3f bff4 7f3f
00000160: 33c8 7c3f 8248 833f 6cd3 7d3f 741e 7f3f
00000170: d531 773f 75cf 7e3f b825 6d3f 584e 7e3f
00000180: 560e 7b3f af21 753f 0e83 783f e678 7d3f
00000190: 02eb 793f dfd1 7e3f e54b 763f a44a 803f
000001a0: 4749 783f 8d1e 9d3f 71b6 6c3f 5ba1 7b3f
000001b0: b9bb 753f 828a 7d3f 9e79 7c3f 4827 793f
000001c0: d259 7d3f 7c99 7d3f 2778 713f 1115 7d3f
000001d0: 500a 763f 013c 7e3f d070 773f 98b7 713f
000001e0: 09c6 7a3f 5486 7d3f a456 783f 869b 773f
000001f0: 04bc 7f3f bfe1 773f 360e 803f 1594 763f
0.9818493 0.9789164 0.9770831 0.97053677 0.98974824 0.9951941 0.97912294 0.97284186
0.91943324 0.9988661 0.9946261 0.99616176 0.9786679 0.98683167 0.9715025 0.9973548
0.9824181 0.9907483 1.0124611 0.96000344 0.98428625 0.9910218 0.97205496 0.98750114
0.99481857 0.9807547 0.99202156 0.9240382 0.9907739 1.0037675 0.97035956 0.96252275
1.0042297 0.9913715 1.0177172 0.9909735 0.9935856 0.96408045 0.94860166 0.9913687
1.0113376 1.0024905 0.9854761 0.96407324 0.9920056 1.0080173 0.9803461 0.9448319
0.9885504 1.0232217 1.0937337 0.9792206 0.96293664 1.0309552 0.9699308 1.024306
0.9867961 0.98549306 1.0088958 0.98974144 1.0248566 0.9556348 1.1657107 0.9838739
0.97016245 1.0334623 0.9715787 1.02717 0.98831344 0.9623207 0.9330169 1.0022275
0.99643373 0.97966725 0.9898118 1.0169597 0.9791948 0.98857147 0.993149 0.97202003
1.0010957 0.9974224 0.9740429 1.0270998 0.97292715 0.9797977 0.9911505 0.9998283
0.9874298 1.0256503 0.9915073 0.9965584 0.9656041 0.99535304 0.9263568 0.99338293
0.9806875 0.9575452 0.97074974 0.990126 0.9762422 0.9953899 0.96209556 1.0022779
0.9698681 1.2274948 0.92465883 0.98293084 0.9598957 0.9903947 0.98623073 0.97325563
0.9896518 0.99062324 0.9432396 0.9886027 0.96109486 0.9931031 0.96656513 0.94420767
0.9795843 0.99033093 0.97007203 0.96721685 0.99896264 0.96828836 1.0004337 0.96319705

read_encoder.block3.1.bias f4 [128]
00000000: cc25 d0bc 82d1 dbbc 54c2 1cbc 9a98 8a3b
00000010: 9c73 5fbc 6c12 24bd 6a4d 65bc 57f7 74bd
00000020: 3ce3 82bd c29e c0bc b8ba d6ba f4cf 2dbd
00000030: 0464 1cbc 01e2 11bc f008 b0bc 5b52 31bc
00000040: 40b6 6dbc 8969 a4bb c379 d7bc 27b8 e3bc
00000050: c97b 4cbc 26bc cebb cf7f 76bc 723c e1bc
00000060: dd30 d3bc ec43 16ba 08f3 8d3c 42e5 02bd
00000070: 6432 48bd d7ad e9bc 9d86 02bd 9417 e4bc
00000080: bd13 28bd d6ad b0bc b102 16bb 116f a0bc
00000090: 6951 99bc 1a9d f6bc 9405 82bb 88a1 c5bb
000000a0: 13a9 20bb d036 c6bc 22eb e5ba c6a3 1ebd
000000b0: 660a bdbc e4a4 3fbc fcfb 93bc f274 1cbd
000000c0: fc98 cfbc 5447 91ba f7ad 0ebd 029b 6bbc
000000d0: 8adf 56bd dd30 09ba 14b1 f3bb c3a7 1ebc
000000e0: 3c50 a6bc fe9d 8ebc aaa1 13bc 9b18 83bb
000000f0: 7f31 27b9 aa1f 15bd 6ebc 4abd 5a16 bdbb
00000100: 3c35 3fbd fa0c 52bd c686 abbc 885b ceba
00000110: 8b8a a5bc 95dd 32bc b571 34bd 019f a5bc
00000120: 6f88 4dbb ab35 8ebb ea1e 01bd 535c 93bc
00000130: bde7 a0bc 2151 403b 6a3c fbbc db0e 99bc
00000140: aa20 16bd 7be5 81ba de31 a6bd 915f 8cbc
00000150: 14b5 84bc 977a 3abc 6e23 9dbc 2c95 5cbc
00000160: 521e ecbc 8f75 cdbd 8f2c 3fbb 59e6 cebb
00000170: e20e 25bd f71b 53bc 95d2 87bd ee8e fcb8
00000180: c433 d1bc 0ebd 3bbd 8e6f 8abc 0bdc 1dbc
00000190: c206 60bd 62aa c2bb 9338 d33b 506a e3bb
000001a0: a7b8 cbbc feaf 9abd 4b8f 91bd 2065 e2bc
000001b0: 1bff d3bc 749c e8bc e7d1 bebc 810a dcbc
000001c0: 6a16 81bc ecea adbc 28c2 08bc 1ecd 56bb
000001d0: 3d8e 68bd 7b2c 08bc 7b7c 13bc 8238 38bc
000001e0: ba50 dbbc 9249 bcbc edfd 2bbc 86b8 94bc
000001f0: ee67 04bd 9283 12bd 20c3 89bb 0844 bfbc
-0.025408648 -0.0268333 -0.009567816 0.0042296173 -0.013638403 -0.04005663 -0.013995508 -0.059806194
-0.06390998 -0.023513202 -0.0016382551 -0.042434648 -0.00954533 -0.008903981 -0.021488637 -0.010822858
-0.014508784 -0.0050174636 -0.026303178 -0.027797772 -0.012480685 -0.00630905 -0.01504512 -0.027494643
-0.025780136 -0.0005732167 0.0173278 -0.03195692 -0.04887618 -0.028525276 -0.03186666 -0.027843274
-0.04103445 -0.021567266 -0.0022889788 -0.01958421 -0.018715577 -0.030104209 -0.00396795 -0.006031219
-0.0024514839 -0.024196059 -0.0017541389 -0.038730405 -0.023076247 -0.011697028 -0.018064491 -0.038197465
-0.025341503 -0.001108388 -0.034833875 -0.014380218 -0.052459277 -0.00052334165 -0.007436881 -0.009683552
-0.02030193 -0.01740932 -0.009010712 -0.004000736 -0.000159448 -0.03640715 -0.049496107 -0.005770487
-0.046681628 -0.051281907 -0.020938288 -0.0015743831 -0.020207664 -0.010917087 -0.044053752 -0.02021742
-0.0031361838 -0.004339894 -0.031523623 -0.01798836 -0.019641751 0.0029345232 -0.030668456 -0.018683841
-0.036652245 -0.000991031 -0.0811498 -0.017135413 -0.016199626 -0.011381767 -0.019181933 -0.0134633
-0.028823052 -0.10032188 -0.0029170846 -0.0063140807 -0.040297396 -0.012885085 -0.06631962 -0.00012042919
-0.02553738 -0.045834593 -0.016898897 -0.009634982 -0.054693945 -0.0059407214 0.006445953 -0.0069401637
-0.024868323 -0.07553099 -0.07107409 -0.02763611 -0.02587848 -0.028394915 -0.023293449 -0.026860477
-0.015757758 -0.021230184 -0.008347072 -0.0032776068 -0.056776274 -0.008311386 -0.009001846 -0.011243941
-0.026771892 -0.0229843 -0.010497552 -0.018154394 -0.032325678 -0.035770006 -0.004204169 -0.02334787

bag_predictor.weight f4 [1, 128]
00000000: cc8a 5a3d 5f4b c33b b0bc 63bd 42dd 8b3d
00000010: 7a7f a9bc b844 ad3d d2bf c8bc 6d9c 563c
00000020: 14fc 9dbc 4ffa b73d b2c2 1fbd 9717 c83c
00000030: 8675 f6bc 9844 9cbd bf6f d33b 6ab2 45be
00000040: ca4c 33bd 370b 80bd b5ba 933d 5b13 e53c
00000050: e5ca b8bc aead 98bd a847 383d 6bd4 353d
00000060: 585a b1bc 238d 9abd 4c1b 5abc 6d27 bfbb
00000070: 6cd4 973d ae5c ad3d 8a7f 433d 001c 9dbc
00000080: a93f 793d 1eca 8bbc 1073 4abd 42c3 9b3d
00000090: da8f e53c b1f7 333d ab25 a9b9 fc53 86bd
000000a0: f1cb b3bd d4b0 833d 697a 41bd f1f5 2fbc
000000b0: 5754 2a3d 1077 fabd 520a 843c 92d7 593c
000000c0: 7069 123d 7ffc 87bd c176 c8bd 49d3 1bbd
000000d0: a4b1 cdbc a7be c8bd d165 11bd 360c b0bd
000000e0: f15a a8bc 5fe5 1d3d 5c1b 6cbd 6262 17bd
000000f0: 8393 b5bd 4434 05bb eb0c a5bd e9a7 aebd
00000100: b4a5 fabb 7b6b bdbd 449b 773c f865 54bd
00000110: 322b c43a 74fc 453d 25e3 5e3d 3aca 9c3c
00000120: 1273 63bd cb20 92bc 07dc 9a3d 2aa4 30bc
00000130: 4e36 2f3d 74e1 80bd 0b58 233d 45aa 19bd
00000140: 7ce0 7d3c 69be 72bd 5c92 8d3a 38cf e0bd
00000150: 1d05 973c cb55 90bd 49e3 a1bb d635 943d
00000160: 4780 ce3c 8f81 5fbd 00f7 12bd ee1a c7bd
00000170: f02c d43d 83e2 b7bc 11b8 2f3c 9090 7abd
00000180: 1bb9 a03c 749b 693c 6c94 eebc 2c24 ad3d
00000190: 152f 1e3d 20dd debc 2bd0 cdbc e5a6 89bd
000001a0: 7e22 7b3d d282 f2bd 8299 36bc eb6d 493c
000001b0: 209b 843c 0ac2 03bd b4be ff3b 3a6a 24bb
000001c0: 795c 623d d501 703d bd84 503d f783 24bd
000001d0: 533d 30bc 79d1 a8bd ae3e 3c3d 29e6 893c
000001e0: d169 4f3d 0caf b03b 2f3d 9bbd b6fc b2bc
000001f0: 7d68 613c 6034 a33d dea7 2ebd 6b78 8bbc
0.053355023 0.0059599127 -0.05559987 0.06829311 -0.020690668 0.08460373 -0.02450553 0.013098818
-0.01928524 0.089832895 -0.039004035 0.024425311 -0.030085336 -0.07630271 0.00645253 -0.19306341
-0.043774404 -0.06252139 0.07213346 0.027963331 -0.022557685 -0.07455002 0.04499021 0.04439203
-0.021649525 -0.07546451 -0.013312172 -0.0058335573 0.07413563 0.08464943 0.047729053 -0.01917839
0.060851727 -0.01706415 -0.04942614 0.07605602 0.028022695 0.04393739 -0.00032262257 -0.065589875
-0.08779133 0.06430212 -0.04723588 -0.010739789 0.04158434 -0.122297406 0.016118202 0.013296025
0.035745084 -0.06639957 -0.097882755 -0.038043294 -0.02510912 -0.09801989 -0.03549749 -0.08596079
-0.020551177 0.038548823 -0.05764328 -0.03695906 -0.08866026 -0.0020325342 -0.080591045 -0.0852812
-0.007649148 -0.09249016 0.015112702 -0.051855057 0.0014966486 0.04833646 0.05441584 0.019139398
-0.05552966 -0.017837903 0.07561498 -0.010781327 0.0427764 -0.06293002 0.039878886 -0.037515897
0.015495416 -0.05926362 0.0010801065 -0.10977024 0.018435055 -0.07047614 -0.0049404246 0.07236831
0.025207652 -0.054566916 -0.03588009 -0.09721933 0.10360134 -0.022446876 0.010725037 -0.06117302
0.019619515 0.014258254 -0.029123507 0.08454165 0.03861912 -0.02720505 -0.025123676 -0.06721286
0.06131219 -0.11841358 -0.011144998 0.012294273 0.01618725 -0.032167472 0.007804716 -0.002508773
0.05526397 0.058595497 0.05090784 -0.040164914 -0.010756808 -0.08243079 0.045958214 0.016833382
0.050638024 0.005391961 -0.07580029 -0.021849018 0.013757822 0.07968974 -0.04264056 -0.017025193
