m6aReplica/3d_432_with_delta/Models/epoch52_rocauc0.900_valpr0.406_valscore1.305.pth (torch, 155293 bytes, 13 tensors)

read_encoder.block1.0.weight f4 [128, 24]
000000 9d e9 a7 3e e1 74 db 3e 8e b8 45 3d 38 11 bb 3f
       0.3279542 0.4286261 0.04827171 1.461463
000010 c0 54 fe 3d 50 a3 0f 3e 86 10 2a be b5 f8 0b 3e
       0.124185085 0.14027143 -0.16607866 0.13669093
000020 c3 f2 b2 3e 28 5d 21 40 c7 de 5f c0 d5 d9 da be
       0.34950837 2.5213108 -3.4979722 -0.42744318
000030 7d 73 51 be 9c f4 bd bd 49 85 a1 3e 40 6b b0 bd
       -0.20454212 -0.09275171 0.31547 -0.08614206
000040 46 67 7b bd 5a 49 0e be d9 84 a4 3c ef 08 26 3e
       -0.061377786 -0.13895169 0.020082878 0.16214345
000050 fc 25 08 3d 08 f1 51 bd 55 1c d8 bd 02 bc a4 bc
       0.03323935 -0.051255256 -0.10552279 -0.02010918
000060 65 f0 53 be c5 f0 01 3f 98 b7 6b 3d 99 4a a8 be
       -0.20697172 0.5075801 0.057548136 -0.32869413
000070 b5 78 23 3f 96 52 95 bd ad 54 92 be 70 75 09 3f
       0.6385606 -0.07291143 -0.28580227 0.5369482
000080 8e 47 bb 3e 4c 4d 29 3d a5 57 bf bf 31 20 e8 3c
       0.3657803 0.04133348 -1.4948622 0.028335663
000090 98 3c 96 be 77 99 85 3e bb 85 66 3e 64 55 df 3a
       -0.29343104 0.26093647 0.22511952 0.0017038998
0000a0 2f 3c 99 3d 72 31 fe bd 93 b5 49 3d 65 95 ac 3e
       0.07482182 -0.12411775 0.04924543 0.3370773
0000b0 88 c4 da 3d 47 53 da bb fb 96 e3 3d 93 31 c9 3b
       0.106820166 -0.0066627595 0.111127816 0.006139943
0000c0 82 93 0d be db c9 2b bf c9 02 c2 bd e4 3e 14 3e
       -0.13825801 -0.6710488 -0.094731875 0.14477116
0000d0 de d2 5b bf b8 10 84 3e 23 e6 6b 3f 02 18 04 bf
       -0.8586863 0.25794005 0.92148036 -0.51599133
0000e0 85 e6 67 3e 19 cd b2 3f 54 a6 d8 3f c6 15 8f be
       0.2264653 1.3968841 1.6925759 -0.279463
0000f0 95 ba ff 3e d1 67 82 be 1e d6 46 3e 49 4c 36 bd
       0.49947038 -0.2546983 0.19417617 -0.044506345
000100 77 94 d0 bd cc 80 35 be 03 03 92 3e 26 08 c2 bd
       -0.101845674 -0.17724913 0.28517923 -0.094742104
000110 d3 b4 91 3d 05 45 7a bd bb 4e 0c 3e 2d 53 fb bd
       0.071145676 -0.06110098 0.13701908 -0.12271724
000120 7d bf 26 bf 9a 83 4b bf fa 97 fb bd e5 f2 34 3f
       -0.6513594 -0.79497683 -0.122848466 0.7068313
000130 a9 03 10 bf df d4 27 3e db af 83 3f e0 8f 03 bf
       -0.56255585 0.16389798 1.0288042 -0.5139141
000140 e3 86 b5 bb f2 53 8e 40 f3 0f 87 3e 95 49 0c 3e
       -0.0055397614 4.447747 0.26379356 0.13699944
000150 bc 1a 1c be 5a 43 0e be 68 72 be 3d b1 d9 6e be
       -0.15244573 -0.1389288 0.09299165 -0.2332523
000160 63 64 5c be 3d 37 05 3f f5 de 39 3e 3d cf db 3c
       -0.2152267 0.5203741 0.18151458 0.026832217
000170 6a 4f ac 3e ce 76 11 3f ad d5 8c bd 75 c7 87 be
       0.33654338 0.56821907 -0.06876693 -0.2651936
000180 7a df 5e 3f a0 c5 38 be bf 46 33 bd 3b 33 df 3f
       0.8705975 -0.18044138 -0.04376864 1.7437509
000190 49 a2 cc be 02 c4 b6 3d b5 ab 9e 3e 2b 7a 89 3e
       -0.39967564 0.08924104 0.30990377 0.2685102
0001a0 9c f6 5b 3e 93 75 44 40 a0 a6 9f c0 4f b1 5b be
       0.21480793 3.0696762 -4.98909 -0.21454357
0001b0 55 7b 92 3f ba 81 61 bd d6 3b 73 3f 96 8d 6a 3d
       1.1443888 -0.055055358 0.9501318 0.057263933
0001c0 94 c4 d6 bc 32 f4 ce be e1 54 90 bd 42 ff a2 bd
       -0.026216783 -0.4042068 -0.07047439 -0.07958843
0001d0 26 9c db ba f6 a5 a6 bd 36 ea d4 3d 29 e8 44 bd
       -0.001675491 -0.08137123 0.10396235 -0.048072968
0001e0 44 16 08 bd c8 75 9e 3d 7a 52 26 3e d2 21 e5 3e
       -0.03322436 0.07737309 0.162424 0.44752365
0001f0 2d a9 68 be 08 39 5b 3d d8 8b db be 46 6e df be
       -0.22720785 0.053521186 -0.4288013 -0.4363882
000200 bd 58 cb 3e 40 b2 c7 3f 5b 28 21 c0 30 f8 d0 be
       0.3971614 1.5601273 -2.518088 -0.40814352
000210 18 81 12 bf 01 75 b9 3d b3 b8 b4 bc 3f ab 15 be
       -0.5722823 0.0905552 -0.022060728 -0.14616106
000220 38 0d 49 bd 62 18 8d be 85 f3 16 3e b1 e2 9e 3d
       -0.049084872 -0.27557665 0.14741333 0.07758082
000230 9a 87 d6 3d bf ca 2e be 3e a6 f7 3d 6d 31 33 be
       0.10475083 -0.17069529 0.12092255 -0.17499323
000240 0f 52 62 3f dd ac 4a 3f 81 ff a5 3d 6f 37 5a 3f
       0.8840646 0.7917002 0.08105374 0.85240835
000250 9b 0d 62 3f e3 25 2e be 27 a0 ef 3d 86 bc 67 3f
       0.8830201 -0.1700664 0.117004685 0.9052204
000260 f9 76 8b 3c b6 7e 34 bf 91 f7 c5 bf 63 d8 fe bb
       0.017024504 -0.70505846 -1.5466176 -0.00777726
000270 af 16 c0 3e 4e fc 8b 3e d4 53 74 3e 98 a6 21 3e
       0.37517306 0.2734093 0.23860103 0.15786207
000280 f9 90 bf 3d bb b3 5d be 07 bc f8 bd a7 d3 a6 be
       0.09353823 -0.21650593 -0.12145238 -0.32583353
000290 08 78 55 bc 67 bd b8 3c fd 5c 62 be aa 38 0c 3e
       -0.013029106 0.022551252 -0.22105785 0.1369349
0002a0 e8 01 e5 bd eb d3 74 3d 71 93 a4 3d 5a e8 a1 be
       -0.11182004 0.059772413 0.08035935 -0.31622583
0002b0 22 89 f5 be de ea f4 3d 25 db ce 3e c5 a1 84 bf
       -0.47956187 0.1195886 0.4040157 -1.0361868
0002c0 c8 c9 80 3c e3 aa 23 bf 8a 84 21 40 60 5e eb bf
       0.015721217 -0.6393263 2.5237145 -1.8388176
0002d0 57 91 a8 be 01 8d 7f bd fa 64 09 be bb 05 d5 bd
       -0.32923386 -0.06239033 -0.13417426 -0.104014836
0002e0 c8 9d b0 3a 37 39 a3 3e 02 0f 1a 3e c6 f0 09 be
       0.0013474757 0.3187959 0.15044788 -0.13470754
0002f0 97 eb 73 bd 19 fa 83 3d 87 26 81 bd e2 0d 99 bd
       -0.059550848 0.06444187 -0.06306177 -0.07473351
000300 22 07 11 bf ea 94 51 3f 7f b5 5e 3d c1 9d 0a c0
       -0.5665151 0.8186785 0.054372307 -2.1658785
000310 44 a6 1e 3f c6 71 a7 3d da 7a d9 bf 6e f2 54 3f
       0.6197245 0.081759974 -1.6990616 0.8318242
000320 d8 a7 4a be b5 13 8a c0 c0 04 a7 3f 73 f9 2a 3e
       -0.1979059 -4.3149056 1.3048325 0.1669672
000330 e0 c4 89 be 1d 3e 2c 3d c8 c9 ff be 48 04 56 bc
       -0.26908016 0.042051423 -0.49958634 -0.013062544
000340 17 a4 db 3d f4 52 3c bd 35 47 8c 3c 4f ea b0 3e
       0.10724657 -0.045977548 0.017123798 0.34553763
000350 23 0d 84 bc 96 8f be bd 94 3d 55 3d 22 28 55 bd
       -0.016119545 -0.093047306 0.05206068 -0.052040227
000360 b6 e4 aa 3e c6 b2 b0 be 98 50 e3 3d 0a 55 2f 3e
       0.33377618 -0.34511393 0.110993564 0.17122284
000370 6f 82 0d bf 23 51 0c 3e 51 73 8f bf 8b 34 3f be
       -0.5527715 0.13702826 -1.1207067 -0.18672387
000380 89 fc 5c be e4 7e ba 3d de fa 18 c0 d6 97 2b be
       -0.2158071 0.09106234 -2.3903117 -0.1675714
000390 d0 0b 23 3f 37 d7 14 bf cc 0a 1e be 1f 1a 81 3e
       0.636899 -0.5814089 -0.15433806 0.2521524
0003a0 d9 79 49 3d 01 14 e5 3e 73 1c ea 3d 9f e7 18 3e
       0.04918847 0.44741824 0.114312075 0.14932106
0003b0 8d c3 f2 bd b2 85 1e bf 27 13 9b be 01 07 f9 bd
       -0.118537046 -0.6192275 -0.3028805 -0.12159539
0003c0 e1 e9 1a 3e 2f 0b 36 3e 95 4b 9f 3d 44 6a 2e 3d
       0.1512828 0.17777704 0.07778088 0.04258181
0003d0 a1 36 8b be c5 c3 39 bd 17 33 89 3e 7b bc 5f bf
       -0.27190116 -0.045352716 0.2679679 -0.87396973
0003e0 88 46 04 bc d5 cd be 3d d8 3e 6f 3f eb 58 8b bf
       -0.008073457 0.09316603 0.93455267 -1.0886511
0003f0 89 94 f2 be e0 21 9e be a8 1d 9b be 56 b2 92 bd
       -0.47378948 -0.3088522 -0.30296063 -0.07162921

read_encoder.block1.0.bias f4 [128]
000000 80 61 7b be 11 46 26 be 9c 90 83 3e b7 79 63 3e
       -0.24548912 -0.16237666 0.25696266 0.222144
000010 0e 31 81 3e 0c 3e ca bd 66 ec af 3c 1e ab 16 3e
       0.25232738 -0.09875116 0.021475028 0.14713714
000020 ae f1 ad be 91 bb a7 3e d0 b1 b5 3d 08 4a 8a be
       -0.3397345 0.3276029 0.08871806 -0.27009606
000030 28 0d 55 3e f4 17 e7 be 4e bc 12 3f e0 a3 48 bd
       0.208058 -0.45135462 0.5731858 -0.04898441
000040 5e 3f e5 bd 9f de c9 bd 7e be 9b 3e 49 14 38 be
       -0.11193727 -0.09856915 0.30418772 -0.17976488
000050 61 06 e8 3d a3 bc d4 3e 95 51 99 bd d7 f0 15 be
       0.11329342 0.41550168 -0.07486264 -0.14642654
000060 39 6a 6e 3e 32 8b ce 3a c6 be 03 bf 75 ea c6 be
       0.23282708 0.0015758036 -0.5146297 -0.38850752
000070 b9 48 8f be 53 0e 1b 3e d0 36 85 bd 6d 52 d6 be
       -0.2798517 0.15142183 -0.06504595 -0.4185976
000080 a9 4f cb 3e e7 ad c4 bd 7f e5 b9 be f4 65 c9 3e
       0.39709213 -0.09603482 -0.36307904 0.39335597
000090 73 0d 92 be 4a 5e d5 3e 6d e6 14 be 22 b8 47 3e
       -0.28525886 0.416735 -0.14541025 0.19503835
0000a0 07 6e a4 be 33 d1 23 3f f7 c2 1f be 57 f6 31 3e
       -0.32115194 0.6399109 -0.15601717 0.17379127
0000b0 06 b2 7f be d6 f8 99 bc 4a c9 6c 3e 16 c2 94 3e
       -0.24970254 -0.018795412 0.2312366 0.29054326
0000c0 29 8b 12 bf 82 7d 93 be 4b 56 7f 3e 09 b8 4c be
       -0.5724359 -0.28806692 0.24935262 -0.19992079
0000d0 ac bb 57 3e 3f a6 ae be 1f 25 82 be 52 fd 38 3d
       0.21067685 -0.3411121 -0.25418946 0.04516346
0000e0 75 c6 16 3f d4 39 71 3e 03 56 85 be 72 fa 81 3e
       0.5889657 0.23557216 -0.26042184 0.25386387
0000f0 77 32 a9 3e 7d 60 ce be e1 e4 d4 3e fd fd fd be
       0.33046314 -0.4030799 0.4158087 -0.4960784
000100 a0 4d 94 be a8 6e 62 be f6 cb 26 be 12 97 ac 3e
       -0.28965473 -0.22112525 -0.16288742 0.33709008
000110 ec 2a 46 3e a3 48 3a 3e 10 56 c9 be a0 01 80 be
       0.19352311 0.18191771 -0.39323473 -0.2500124
000120 cd 4e 98 bd 77 14 39 3e 23 9e e3 3e f0 fd f2 be
       -0.07436905 0.18074213 0.44456586 -0.47459364
000130 6d bb e8 bd f0 51 c7 be 16 66 8a 3d 03 c8 90 be
       -0.11363874 -0.389297 0.067577526 -0.28277597
000140 78 df 1f bf c0 e6 f7 3e cc 9f 93 bd 62 a9 48 be
       -0.6245036 0.48418236 -0.07208213 -0.19595864
000150 f6 34 cc 3d 0b 8a 82 3e a4 9a 03 3f a6 67 9c be
       0.09971039 0.25495943 0.5140784 -0.30547827
000160 fd 16 ce be 7f c6 15 be 55 51 df be 2e 47 db 3e
       -0.40251914 -0.14626502 -0.4361674 0.42827743
000170 59 61 97 3e 2f 25 cc 3c df a5 80 3d 62 68 83 3e
       0.29566458 0.024920074 0.062816374 0.25665575
000180 47 14 04 3c 32 0e e4 bc bf 8f a9 be fb 3f f3 3e
       0.008061475 -0.0278388 -0.33117482 0.4750975
000190 09 f4 04 3f 0a 92 4d 3e 66 8d 0a 3d 9f 43 0c bf
       0.5193487 0.2007524 0.033826254 -0.5479068
0001a0 00 c6 d6 3e 98 30 98 be b1 61 c1 3d 39 e0 85 be
       0.41947937 -0.29724574 0.09442461 -0.2614763
0001b0 e8 b9 15 bf f3 66 93 3e 54 8c 02 be 1f 38 e2 3e
       -0.58486795 0.28789482 -0.12748843 0.44183442
0001c0 e2 a9 06 bd 7e c8 bf be 9c 0a 9c 3d c3 aa c7 3e
       -0.032876857 -0.3745765 0.07619211 0.38997468
0001d0 0d 06 ce 3e 5d ad fb bd 8f 11 19 be 1b 04 f9 3e
       0.4023899 -0.12288926 -0.14948104 0.48635945
0001e0 1d ff e5 3d c0 51 b3 be b2 a7 09 bf 4d 8f 66 3e
       0.112302996 -0.35023308 -0.5377151 0.22515602
0001f0 11 7c 85 be dc 6a 4e 3d 40 3e a0 3e 7c ac c7 be
       -0.26071218 0.050394878 0.31297493 -0.38998783

read_encoder.block1.1.weight f4 [128]
000000 53 da e2 3e 7e c5 54 3f ef bb f5 3e 1c 15 a6 3f
       0.44307193 0.8311385 0.47994944 1.2975192
000010 4a ed d7 3f 2e cf a7 3e ce 66 c4 3f d4 d1 12 3f
       1.686929 0.32775253 1.5343874 0.5735142
000020 0f ea c2 3f 88 63 9b 3f 08 a6 95 3f 41 3f c5 3f
       1.5227679 1.213975 1.1691294 1.5409929
000030 a9 2c bc 3f 52 b2 0d 3f 29 38 08 40 49 8a cc 3f
       1.4701129 0.5535022 2.1284277 1.5979701
000040 92 f0 a4 3f 9d da 39 3f 61 b6 8f 3f d7 8e 2a 3f
       1.2885916 0.725992 1.1227533 0.66624206
000050 f4 ed b1 3f 3b 87 bf 3f 2a 32 8a 3f 6b 6a 2a 3f
       1.3900743 1.4963144 1.0796559 0.6656863
000060 97 b1 98 3f 60 f2 56 3f da 74 46 3f 25 90 5f 3f
       1.1929196 0.83963585 0.7752205 0.8732932
000070 47 92 74 3f d0 7b 96 3f 76 01 9e 3f 6b 7e d9 3e
       0.955357 1.1756535 1.2344196 0.42479262
000080 33 f7 a2 3f a8 c0 ed 3e 22 ef f3 3e ff 79 c1 3f
       1.2731689 0.46436048 0.4764338 1.5115355
000090 c4 c5 63 3f 32 27 d1 3f e3 bb 34 3f 01 49 13 40
       0.8897364 1.6340086 0.7059919 2.3013308
0000a0 3a d7 75 3f d3 07 a2 3f 39 1b 67 3f 8b b3 8f 3f
       0.96031535 1.2658638 0.90275913 1.1226667
0000b0 5c 15 a8 3e 19 cc df 3f 73 ee 86 3f 46 cf d0 3f
       0.32828796 1.7484161 1.0541519 1.6313255
0000c0 ed 6d 70 3f ca 16 fb 3e 2b c8 45 3f 89 f3 ea 3e
       0.93917733 0.49040824 0.7725856 0.45888928
0000d0 41 3e d3 3f 58 97 1d 3f 20 2d ad 3f 2c e2 1e 3f
       1.6503373 0.6155906 1.3529396 0.6206386
0000e0 97 41 c7 3f b2 89 c0 3f 07 22 e7 3e 9a c4 7d 3f
       1.5566891 1.5042021 0.45143148 0.99128115
0000f0 2f 3a ed 3f 98 32 da 3e f1 50 9e 3f a2 27 3a 3f
       1.8533381 0.42616725 1.2368451 0.72716725
000100 49 4f 0f 3f 17 21 21 3f b4 e8 ce 3e 7e 8f fa 3f
       0.55980355 0.62941116 0.40411913 1.957504
000110 e3 ed 87 3f 3f 16 92 3f ec 2a 72 3f 47 6d e0 3e
       1.0619472 1.1413039 0.94596744 0.43833372
000120 c0 be 9b 3f aa 3c fc 3f f2 5c 8e 3f fa 3c 08 3f
       1.2167587 1.9706013 1.1122115 0.5321804
000130 39 95 d0 3e 0c 4e 02 3f bd bd a0 3f 00 1a 18 3f
       0.40738848 0.5090034 1.2557904 0.5941467
000140 34 be 6a 3f fc 1a c4 3f 19 6d fa 3e 6e c7 a7 3f
       0.91696477 1.5320735 0.4891136 1.3107736
000150 16 e3 cc 3f 82 bc 18 3f e8 52 d0 3f 9a 88 0d 3f
       1.6006801 0.5966264 1.6275301 0.5528656
000160 62 e2 0f 3f 5f 68 4a 3f af 04 42 3f 10 7b fb 3f
       0.5620481 0.7906551 0.75788397 1.9646931
000170 7e cf 92 3f 43 0a ff 3e 96 e4 cc 3f d0 b9 a8 3f
       1.1469572 0.49812517 1.6007259 1.3181705
000180 c3 82 8b 3f 60 22 a4 3f 13 7a 83 3f 13 04 98 3f
       1.089928 1.282299 1.0271629 1.1876243
000190 22 fe 99 3f 41 85 da 3f f1 e7 8d 3f c3 c2 b3 3f
       1.203068 1.7071916 1.1086408 1.4043812
0001a0 b7 33 cc 3f 3a 39 23 3f f3 20 39 3f 84 7e 20 3f
       1.5953282 0.63759196 0.723159 0.6269305
0001b0 62 df 6c 3f b2 80 96 3f 3f 3e de 3e b4 bb a4 3f
       0.92528355 1.1758025 0.43406865 1.2869782
0001c0 a4 04 be 3e ca e1 03 3f ca ed 8d 3f f5 b6 a3 3f
       0.37112916 0.515164 1.1088192 1.2790209
0001d0 f7 b4 d6 3f 78 bd 25 3f 82 45 dd 3f 77 18 66 3f
       1.6773976 0.6474223 1.7286837 0.8988108
0001e0 f5 6c b6 3f f1 45 94 3f 86 80 5e 3f 6a 45 9a 3f
       1.4252001 1.1583844 0.8691486 1.2052433
0001f0 04 de 25 3f b4 37 b4 3f f7 ff 26 3f 78 01 48 3f
       0.64791894 1.4079499 0.6523432 0.7812724

read_encoder.block1.1.bias f4 [128]
000000 69 52 09 bf c8 e9 1e be 19 e7 29 be b8 f5 8a bd
       -0.5364137 -0.15518868 -0.16592063 -0.067851484
000010 94 f7 8a bd 61 e7 11 bf 09 e1 ba be 55 a1 e6 be
       -0.06785503 -0.5699368 -0.36499813 -0.45044962
000020 db 1b 05 be 93 02 a2 bd ff 4b 98 be 16 1c ab bd
       -0.12998907 -0.07910647 -0.2974548 -0.08354966
000030 e0 24 89 be 56 fc e4 be 98 7d 05 be 55 c0 c9 bd
       -0.26785946 -0.44723767 -0.13036191 -0.098511375
000040 ac 48 5d be 48 c8 c3 be 06 d6 e6 bd ea 9b a4 be
       -0.21609753 -0.3823874 -0.112712905 -0.32150203
000050 00 8c 25 3c 30 41 20 be 2e db a8 be 7e 65 e9 be
       0.010104179 -0.15649867 -0.3297972 -0.45585245
000060 3f e5 19 be d7 2b a2 bd 67 68 f0 be 84 36 b4 be
       -0.15028857 -0.07918518 -0.46954653 -0.35197842
000070 61 d0 af be 46 06 1d be c8 47 5f be 44 b5 0d bf
       -0.34338668 -0.15334424 -0.21804726 -0.55354714
000080 0b e3 b6 bd d0 38 08 bf bc 1b d6 be 61 6f 59 be
       -0.08930024 -0.5321169 -0.41818035 -0.21233894
000090 02 c5 90 be 5f ef 58 bd 00 15 bf be 10 1c 5d 3d
       -0.28275305 -0.052962657 -0.3732071 0.05398184
0000a0 cb 88 41 be ff 27 97 be 3c 75 2d be cf 4d bc be
       -0.18899839 -0.29522702 -0.16939253 -0.36778113
0000b0 8c f0 f1 be dc 49 a3 bd 8f ec a7 be 96 f5 98 be
       -0.47253835 -0.07973072 -0.32797667 -0.29874867
0000c0 4b de bf be 6c d6 f9 be ba 55 6d be 5b 23 db be
       -0.37474284 -0.48796403 -0.23177233 -0.42800412
0000d0 f1 e3 b9 bd 0b a9 d7 be 03 49 77 be b8 11 d7 be
       -0.090766795 -0.42121157 -0.24148946 -0.42005706
0000e0 31 ac bd bd f9 66 1b be d0 8a ce be f4 42 b4 be
       -0.092613585 -0.15176 -0.4034028 -0.3520733
0000f0 3b 19 00 bf 20 31 15 bf d8 a7 b2 be fa 0a 8f be
       -0.500385 -0.58278084 -0.3489368 -0.27938062
000100 d3 c3 bd be 20 91 9a be 6f 11 11 bf e0 54 22 be
       -0.37063465 -0.30188847 -0.56667227 -0.1585269
000110 45 51 eb be 4c 20 05 be e9 24 ba be d0 68 09 bf
       -0.4596044 -0.13000602 -0.36356285 -0.53675556
000120 07 a9 46 be 38 31 6f bc d7 7e 06 be 1e 74 d3 be
       -0.19400416 -0.014599137 -0.13134323 -0.41299528
000130 3f 5c 01 bf a2 8e 01 bf 60 2e 9d be f6 ad a6 be
       -0.5053138 -0.50608265 -0.30699444 -0.32554597
000140 55 3f 87 be 57 08 34 be 42 8c 03 bf 49 c2 2d be
       -0.26415506 -0.17581306 -0.5138589 -0.16968645
000150 b5 48 f2 bd 23 f0 cd be 55 5f 0d be 32 3a ff be
       -0.11830274 -0.40222272 -0.13805898 -0.49849087
000160 e7 6b e1 be e2 4e 85 be 9b 3e a4 be f1 8f 09 be
       -0.44027635 -0.26036745 -0.32079014 -0.13433816
000170 84 c6 2a be 6a 43 0a bf af c1 ab bd da cb e0 be
       -0.1667729 -0.54009116 -0.083865516 -0.43905526
000180 c2 e1 a4 be 2b e8 59 be 40 2c 87 be 6e 74 b3 bd
       -0.3220349 -0.21279971 -0.26400948 -0.087624416
000190 43 fd b7 bc bb 08 2c be a0 b5 8d be ec bb 12 be
       -0.022459632 -0.16800205 -0.2767763 -0.14329499
0001a0 9d 45 8c 3d c8 a7 6a be 31 4c 5e be ee 7f cf be
       0.06849215 -0.22915566 -0.21708752 -0.4052729
0001b0 48 0a 8d be b7 3a fb be a1 86 0c bf 75 93 88 bd
       -0.27546906 -0.49068233 -0.5489293 -0.0666875
0001c0 9b 64 f5 be e7 10 04 bf a1 9c a2 be 05 73 bb be
       -0.47928318 -0.5158829 -0.31760123 -0.3661119
0001d0 0b ea 83 be 9c 7f cb be d7 4d 20 bd 1b 50 d0 be
       -0.25764498 -0.39745796 -0.039136734 -0.40686116
0001e0 96 f0 37 bd 9a 71 4b be 4e 92 99 be 15 74 a5 be
       -0.044907175 -0.19867554 -0.29994434 -0.32315126
0001f0 b8 3d d0 be d3 46 40 be 66 e6 d4 be 86 0c b2 be
       -0.40672088 -0.18777017 -0.4158203 -0.3477518

read_encoder.block2.0.weight f4 [128, 128]
000000 b5 79 a5 bd e0 7d 9e 3d 30 e1 d4 bc d7 f0 6d 3e
       -0.080798544 0.077388525 -0.025986284 0.23236404
000010 30 5f 82 bd 61 88 0a 3e 46 82 0d 3c 8b cc d5 3d
       -0.06365812 0.13528587 0.008637017 0.10439404
000020 ac 8f 33 3e cf 03 a4 bd 74 4d 36 3e 0a 34 b6 be
       0.17535275 -0.08008539 0.17802984 -0.35586578
000030 4c d5 fb 3e 91 55 75 bd 3d 61 dd 3e 30 2c 84 3e
       0.4918617 -0.059896056 0.4323825 0.25814962
000040 eb c1 7a be f4 55 c5 bd 22 48 97 bd 70 2f a1 3d
       -0.24488036 -0.09635535 -0.07386805 0.07870376
000050 e6 3f b5 3c 4f f0 a7 bd 88 30 14 3e 7a eb 45 be
       0.022125196 -0.08200132 0.14471638 -0.19328108
000060 97 56 bf 3d 8b e9 28 be 1b d1 89 be 26 eb a9 3d
       0.093426876 -0.1649534 -0.26917347 0.08296804
000070 6c fe a7 bd cc 63 49 3e a3 09 51 3e ff 27 a6 bb
       -0.08202824 0.19666976 0.20413832 -0.005070686
000080 1b a7 85 bd 27 a4 f7 3b d5 30 da bc 10 1c 84 3e
       -0.065260135 0.0075574103 -0.026634613 0.2580266
000090 f4 f5 ec 3c 30 fd 8e 3e 9b 57 e6 bd ca a6 8a be
       0.028925873 0.27927542 -0.11247178 -0.27080375
0000a0 05 93 27 3b dc db e6 3d 8f 88 35 bb 10 2c 6d 3d
       0.0025569808 0.112724036 -0.0027699803 0.05790335
0000b0 49 32 42 3e 33 91 7d 3e ad 28 02 3e 90 f0 99 3e
       0.18964495 0.2476242 0.12710829 0.30066347
0000c0 8e 96 07 be 7a 6b d2 3d 2e 08 e0 3d 63 aa ec bd
       -0.13241026 0.10274406 0.1093906 -0.11555936
0000d0 84 b1 c3 3d 8d 1f 15 3e 35 1b 8e 3d 82 77 2c 3b
       0.09555343 0.14562817 0.06938783 0.002631635
0000e0 a0 dc b7 3e 52 3d 04 bf df fd 64 3d d4 03 be 3d
       0.3591051 -0.5165607 0.055906173 0.09278074
0000f0 54 2e 15 be f6 db be 3d fd 45 8f 3e de 99 3e be
       -0.14568454 0.09319298 0.27983084 -0.18613383
000100 7a 3f 14 be 44 4f 7f 3d 50 f8 11 3e 20 1a f8 3d
       -0.1447734 0.062331453 0.1425488 0.12114358
000110 4e 03 a2 3d 63 15 24 3e b7 75 7a bc 1c 8b 0b 3d
       0.079107866 0.16023783 -0.0152868545 0.034068212
000120 94 16 b7 ba cb f9 e8 bc 66 d7 91 3d fa 63 00 bd
       -0.0013968521 -0.028439423 0.07121162 -0.031345345
000130 4c 0d 8d bd fe 70 a6 bd 4e c9 07 be 60 79 4f 3e
       -0.06887302 -0.0812702 -0.13260385 0.20261145
000140 58 c8 e9 3c 6e 1f 8d 3e 67 65 8a 3d 01 bd 63 3d
       0.028537914 0.2756304 0.06757622 0.05560017
000150 ad 87 f3 bd 0b 4d fa 3d 5b 70 95 3e 83 f8 ee 3d
       -0.118911125 0.12221726 0.29187283 0.116684936
000160 d3 c1 16 be 06 6a cd bc 23 2d 05 3e 3a c9 0c 3f
       -0.14722376 -0.02507497 0.130055 0.5499455
000170 94 2e 0c 3e 21 42 50 3e 75 85 e3 3e e9 96 40 3e
       0.13689643 0.20337726 0.44437757 0.18807568
000180 df f9 56 3e 5d 08 13 3e 9d 9e 09 bf 97 90 a2 3d
       0.20993756 0.14358659 -0.5375765 0.079377346
000190 77 2c b3 3e a0 66 0d be d1 f8 8a 3e 3c a9 25 3e
       0.3499486 -0.1380868 0.27142957 0.16177839
0001a0 68 b9 ac 3d 35 65 37 3e 03 a6 5d bd 81 a4 d5 3d
       0.08433801 0.17909701 -0.0541134 0.10431767
0001b0 15 da 36 be d7 ef 35 be 5a be 21 3e 18 e7 4b 3e
       -0.17856629 -0.17767273 0.1579527 0.19912374
0001c0 4c 9f be 3c 5d e5 cc bd 57 6c 1b be 37 61 56 bc
       0.023269318 -0.10004685 -0.15178047 -0.013084701
0001d0 8a 83 40 bd 64 9e c9 3c 23 7b 33 bf 0e ac 47 be
       -0.047000445 0.02461166 -0.70109767 -0.19499227
0001e0 11 0d 88 bc ff a4 d8 be 7b 4e 06 bf 95 2d eb bd
       -0.016607793 -0.42313382 -0.524635 -0.114833035
0001f0 9c f2 0a be de 7d 36 3e c3 5b 29 bd 88 ae a7 bd
       -0.1356911 0.17821452 -0.041347276 -0.08187586
000200 af 64 5f 3d 08 36 55 be b8 22 03 be 35 5c 7d 3d
       0.05453938 -0.20821393 -0.12806213 0.061855514
000210 c0 92 25 3d dd e9 a9 3d 39 62 a2 bc e6 5c ab bd
       0.040423155 0.08296559 -0.019822227 -0.08367328
000220 c8 c2 c1 3e 2c c4 f5 bc de 90 e4 3c 6c ca 37 3e
       0.3784392 -0.030000769 0.02790111 0.17948312
000230 98 30 52 3e 1d 89 04 3e 3a 14 85 3d 74 6e e5 be
       0.2052635 0.1294293 0.064979985 -0.44810832
000240 21 ba 88 3e 75 b9 24 3e 80 22 9b 3e 4b 47 60 bc
       0.26704505 0.16086371 0.3029976 -0.013688873
000250 e2 d5 81 3e a9 3f c9 3e 61 6c 45 3e b4 f4 1f be
       0.25358492 0.3930638 0.19279625 -0.1562069
000260 aa 5f 7e 3d 40 4d 91 3c 4d 08 a1 3e 4d 08 b0 3c
       0.06210295 0.017737031 0.31451645 0.021488333
000270 39 4a 34 3e 94 2b 72 bd 0b dd 95 3d ce a6 1d 3e
       0.17606439 -0.05912359 0.07317551 0.15395662
000280 70 3b bd be 17 87 8c 3d 01 4f af 3d 7d 1d b0 3d
       -0.3695941 0.06861704 0.08559991 0.085993744
000290 12 c1 93 be 6e c7 30 3e c7 3c 71 3e 02 13 94 bd
       -0.28858238 0.17263576 0.23558341 -0.07230188
0002a0 d1 a9 4b bd 5f 4b bd 3d 3e 2e 4b 3e 1d 37 f2 3e
       -0.049722496 0.092428915 0.19841859 0.47307673
0002b0 93 34 7b bc be 6d 44 be 35 cb dd bc 0f 3e 7f 3e
       -0.015332359 -0.19182488 -0.027074436 0.24926017
0002c0 fd 3a 19 bc 74 aa 0b 3e af c7 1d 3e 6c 7d 0c ba
       -0.009352443 0.13639241 0.15408204 -0.00053592655
0002d0 13 07 5c 3e 33 d4 61 3e 15 e5 f0 3d 97 66 36 3d
       0.21487074 0.22053604 0.11762444 0.04453143
0002e0 9a ff aa 3e 00 e4 be 3d ce da 3e 3d f1 e8 ff 3d
       0.33398134 0.09320831 0.046595387 0.12495602
0002f0 c0 59 6e be 23 81 c2 bd 5e f4 65 3e 84 8f fb 3d
       -0.23276424 -0.09497287 0.224565 0.12283233
000300 82 67 90 3c 50 fd 3a 3e 84 11 fe 3d a6 05 99 be
       0.017627481 0.18260694 0.124056846 -0.29887122
000310 37 82 1c bb 97 83 9d bd d7 d1 fd 3d b1 75 33 3e
       -0.0023881325 -0.076911144 0.123935394 0.17525364
000320 0d 5d 3e 3e 5c 3d 1b be 26 78 1f 3d 5f 93 dd 3d
       0.18590184 -0.15160125 0.03893294 0.108191244
000330 b1 35 89 3e 37 bd d4 3d bb ac 6c 3e 60 f2 85 bb
       0.26798776 0.10387652 0.23112766 -0.0040877312
000340 38 52 01 3e eb 13 69 3e 7c 84 18 be d2 b5 a1 bd
       0.1262902 0.22761504 -0.14894289 -0.078960076
000350 2e f4 8d bd ce 60 3d be 49 fc 1b be 4a a7 fb 3d
       -0.06931339 -0.1849396 -0.15232958 0.12287767
000360 e2 0e 88 3c 5c 99 0c bd bc 04 bd 3d 05 dd 3f 3f
       0.01660866 -0.034325942 0.09229419 0.74946624
000370 94 fb 6d 3e 4e f2 fa 3d 60 dc 00 3e 17 d0 09 bf
       0.232405 0.12253247 0.12584066 -0.53833145
000380 31 dd 27 3e db 12 0e 3e 07 2f 31 3c d3 e6 fe bc
       0.16392972 0.1387438 0.010814435 -0.031115925
000390 64 d1 6c 3e 71 16 dd bd 73 ab 81 be fe 15 f1 3e
       0.23126751 -0.10795296 -0.25326118 0.4708709
0003a0 c5 3a 02 3d 97 2d fb 3d 24 1e 76 3e 00 4a a1 bb
       0.03179433 0.12264555 0.24034935 -0.0049221516
0003b0 c7 20 c9 3d 71 92 91 3d 8d 34 a7 3c 65 8b 3e be
       0.09820705 0.071080096 0.0204108 -0.18607862
0003c0 63 32 c4 ba 4b 03 ca 3d 51 88 01 bf db 59 ce bd
       -0.001496863 0.09863909 -0.5059863 -0.10075732
0003d0 05 29 2c be 12 ff 88 3b 60 a4 b7 3e c0 c2 c9 3e
       -0.16812523 0.0041807974 0.35867596 0.39406395
0003e0 86 16 b4 39 39 92 b8 3c 94 ea 8f 3e f9 65 94 3c
       0.00034349057 0.022530662 0.28108656 0.01811503
0003f0 ec 1f aa 3c de 79 6b 3e 12 b2 d8 3d dd 60 53 be
       0.020767175 0.22995707 0.10580839 -0.20642419

read_encoder.block2.0.bias f4 [128]
000000 40 8e 16 3e 01 4c c2 3e 88 cc 60 3e 61 9b 5b 3e
       0.14702702 0.3794861 0.21953022 0.21445991
000010 b8 9a 32 bd 12 d9 bc bd e9 c1 e0 bd 43 31 46 3d
       -0.043604583 -0.092210904 -0.109744854 0.048386823
000020 d2 77 b3 3d 86 a4 c7 bd 39 5a 88 bd f7 a9 59 3d
       0.08763088 -0.09748177 -0.066578336 0.053140607
000030 ae 04 bb 3c 4b 86 90 3d 25 d5 5d 3e a3 51 a2 be
       0.02282938 0.07056864 0.2166334 -0.3170291
000040 0c 45 70 3e 9e d4 b6 3d be 0b 73 bd 52 ac df 3e
       0.2346384 0.08927272 -0.05933737 0.43686157
000050 f1 66 60 3d 1f c2 09 be fe b5 dd bd 6a dd 53 3e
       0.054785673 -0.13452958 -0.10825728 0.20689932
000060 5a 88 71 bd 6c 2c 32 3e d8 6e a1 3e 6d 0b 25 3e
       -0.058967926 0.17399758 0.3152988 0.1611764
000070 e8 3d 19 be 12 c6 24 be ff 5c 83 be 34 7c a8 3d
       -0.14965022 -0.16091183 -0.25656888 0.08226815
000080 c0 30 b5 bc 6d 52 a6 3d 39 82 95 3e 5a 90 31 39
       -0.022117972 0.0812119 0.29200915 0.0001693381
000090 a9 ee da 3d ed 7e 27 bd cc 6c 83 3e c2 5c ee bc
       0.10690052 -0.04089253 0.25668943 -0.029096965
0000a0 b8 9a 49 3e 2e 11 bd bd d4 3f c3 3e 9f 35 5a bd
       0.19687927 -0.092317924 0.38134634 -0.053273793
0000b0 d0 6e 4a bc fe 11 96 3c 31 36 14 3e 2d ef 99 3e
       -0.012355521 0.018319126 0.14473797 0.3006529
0000c0 e6 7e 6b bd 5d c3 95 3e 6a 8e 1e 3e 8d 0a aa 3e
       -0.057494067 0.29250613 0.15484014 0.33211175
0000d0 65 c1 81 3e 89 04 38 be 5e 5a 12 bd 97 90 15 be
       0.2534286 -0.1797048 -0.035730712 -0.14605938
0000e0 82 ba d3 3c cf d9 95 bc fd 73 19 3e 67 b3 d8 3e
       0.02584577 -0.018292336 0.14985652 0.42324373
0000f0 96 1d 1e 3e 21 81 b9 3e 55 2a 0a 3e c3 42 87 3d
       0.15440974 0.3623133 0.13492711 0.06604531
000100 35 13 4d 3e 42 e0 cd 3d dc 7e ac 3e 81 58 0a 3e
       0.20026858 0.100525394 0.33690536 0.13510324
000110 fa 8b 92 3d fc ca a0 bd e3 21 79 bd 88 83 8f 3e
       0.07155605 -0.07851216 -0.060823333 0.28030038
000120 c7 18 51 bd e5 08 86 bc 99 4e ef bc 19 5d 0d 3d
       -0.05104902 -0.016361663 -0.029212283 0.034512613
000130 a5 ca c5 3e cf c7 98 3e 00 85 aa bd 55 01 27 bd
       0.38631168 0.29839942 -0.08326149 -0.040772755
000140 64 bb b2 3e 26 66 07 3e 9d 66 99 3e 44 75 7c be
       0.34908593 0.1322256 0.299611 -0.24654108
000150 65 6b 8e 3d 14 47 9a 3e 96 ab 6c 3e 66 5b 0b 3e
       0.06954078 0.30132353 0.2311233 0.13609084
000160 d3 f9 34 3e 0e 4b c0 bd 57 d9 9a bc 69 ca 9a be
       0.17673425 -0.093893155 -0.018902464 -0.30232552
000170 99 44 4c bd 0a 13 03 3e 73 ce a8 3e a2 a1 3a be
       -0.049870107 0.12800232 0.32970008 -0.1822572
000180 f8 d4 be 3e aa 8c f4 3c 7b 65 bc bc 91 d0 ee bd
       0.37271857 0.02985223 -0.022997608 -0.11660875
000190 02 28 09 3e a2 18 ab 3e a4 c3 27 3e d2 42 93 bd
       0.13394168 0.3341723 0.16383225 -0.07190479
0001a0 1b 9a 1b bd e5 a4 11 be c8 64 a6 3e 41 97 07 3f
       -0.037988763 -0.14223059 0.32498765 0.5296517
0001b0 53 0f f1 3d d8 0a d6 3e 15 b5 c2 3e b2 c6 31 3e
       0.11770501 0.41805148 0.3802878 0.17360952
0001c0 d0 20 cb bd d5 c3 dd 3e 04 79 0d 3e 8c cc f9 3e
       -0.09918368 0.4331347 0.13815695 0.4878887
0001d0 c1 cd a8 3e 5c 5f b7 3d 34 90 22 bd 5d 59 ae bc
       0.32969478 0.08953735 -0.039688304 -0.021282846
0001e0 e8 aa e1 3a 87 70 50 3e 54 b6 23 3e fd 43 c8 ba
       0.0017217072 0.20355426 0.15987521 -0.0015279051
0001f0 2a fb 86 3e 66 6d 98 bd ae 48 03 3d 08 8e d5 3d
       0.26363498 -0.07442741 0.032051735 0.10427481

read_encoder.block2.1.weight f4 [128]
000000 8e 37 6d 3f 28 2f 2d 3f c1 25 32 3f e4 c9 7b 3f
       0.92662895 0.6765008 0.6958886 0.98354936
000010 58 07 8c 3f d6 07 87 3f 4a f0 9d 3f 1b 45 9b 3f
       1.0939741 1.0549266 1.2338955 1.2130464
000020 81 ee b4 3f c7 2a 8d 3f fb 30 ab 3f c4 15 74 3f
       1.4135286 1.102868 1.3374323 0.9534571
000030 9d c6 96 3f be 9e 79 3f 9c 3f 29 3f 99 98 dd 3f
       1.1779362 0.97507846 0.66112685 1.7312194
000040 5a 71 38 3f 80 7a 5c 3f be 33 77 3f bc 02 23 3f
       0.7204796 0.8612442 0.9656333 0.6367605
000050 70 f0 7b 3f aa 23 b0 3f 93 24 a3 3f d8 e7 41 3f
       0.98413754 1.3760884 1.2745537 0.7574439
000060 53 4f a2 3f 1f b8 54 3f 21 25 2d 3f ff 8c 32 3f
       1.2680458 0.83093446 0.6763478 0.6974639
000070 f9 0d 9a 3f b2 74 a4 3f 36 61 95 3f f1 19 46 3f
       1.2035514 1.2848113 1.1670291 0.77383333
000080 58 69 9b 3f 44 dd 80 3f 5a 35 46 3f 49 c9 8c 3f
       1.2141523 1.0067525 0.7742516 1.0998927
000090 9d 85 92 3f b8 26 9f 3f 0a 18 50 3f 19 a8 9e 3f
       1.1447026 1.2433691 0.8128668 1.2395049
0000a0 a8 6f 36 3f c0 41 86 3f 69 3e 43 3f 96 09 94 3f
       0.71264124 1.0488815 0.76267105 1.1565425
0000b0 a8 aa 9e 3f b1 89 8d 3f 3d b7 88 3f e1 82 30 3f
       1.239583 1.1057645 1.068092 0.68949705
0000c0 5c fe 90 3f 88 57 2c 3f 59 c2 49 3f 42 35 24 3f
       1.1327624 0.6732106 0.78812176 0.64143765
0000d0 c4 8f 3a 3f 08 21 a9 3f e7 e4 9c 3f 1d a8 99 3f
       0.7287562 1.3213205 1.2257355 1.2004429
0000e0 a6 c7 94 3f 55 6f 9f 3f 84 80 65 3f 92 a3 30 3f
       1.1623428 1.2455851 0.89649224 0.6899959
0000f0 a8 14 93 3f 6e 35 ff 3e e4 0a 85 3f 91 a1 84 3f
       1.1490679 0.4984545 1.0393949 1.0361806
000100 88 e1 77 3f f2 20 97 3f 78 46 3c 3f f0 2f 89 3f
       0.9682851 1.1806929 0.73545027 1.0717754
000110 18 c8 54 3f 8c 6c 9c 3f ab ca 99 3f 82 14 44 3f
       0.8311782 1.2220626 1.2014974 0.7659379
000120 bc f5 a4 3f de ae 83 3f a3 67 99 3f 9f 0a 84 3f
       1.2887492 1.028774 1.1984752 1.0315741
000130 e7 5a 1d 3f e9 99 2a 3f 36 8d a2 3f b5 b4 94 3f
       0.6146683 0.666411 1.2699344 1.1617647
000140 79 75 2d 3f a9 f1 7f 3f 73 6a 53 3f 0b cc b8 3f
       0.67757374 0.9997812 0.82584304 1.4437269
000150 74 ee 55 3f 7f e4 3d 3f eb b2 64 3f 33 b1 95 3f
       0.83566976 0.7417678 0.8933551 1.1694702
000160 93 e8 4d 3f 38 8f 98 3f dd d4 92 3f 20 92 cd 3f
       0.80433005 1.1918707 1.1471211 1.6060219
000170 65 69 90 3f 1c c0 6d 3f a8 b7 24 3f 30 32 c8 3f
       1.1282164 0.9287126 0.6434274 1.5640316
000180 3f 7e 2f 3f 9f 09 84 3f 59 95 97 3f 1d a7 93 3f
       0.6855201 1.0315436 1.1842452 1.1535374
000190 db 4a 62 3f fc bd 2a 3f 19 aa 86 3f 41 b2 9a 3f
       0.8839547 0.66696143 1.052066 1.2085649
0001a0 ab a4 8f 3f 05 a8 a4 3f c7 9f 20 3f 02 41 15 3f
       1.1222128 1.2863775 0.627438 0.5830232
0001b0 26 6d 8f 3f 0e a6 22 3f 15 66 1a 3f 62 58 4b 3f
       1.1205184 0.6353463 0.60312015 0.79431736
0001c0 a3 3b a8 3f e0 fc 28 3f 0f f2 6b 3f f6 77 32 3f
       1.31432 0.66010857 0.9216623 0.69714296
0001d0 35 41 38 3f 0f 43 69 3f 62 63 70 3f 04 f7 95 3f
       0.719745 0.9111795 0.93901646 1.1716008
0001e0 ee c1 64 3f a7 b0 78 3f 4d da 71 3f 63 d5 8f 3f
       0.89358413 0.9714455 0.94473726 1.1236995
0001f0 64 7b 33 3f b8 3f 9f 3f e8 59 89 3f 6b 3d 5c 3f
       0.70110154 1.244132 1.0730562 0.86031216

read_encoder.block2.1.bias f4 [128]
000000 12 a0 c2 be 07 b4 dc be 81 72 83 be 57 0e d2 be
       -0.3801275 -0.431061 -0.25673297 -0.41026565
000010 61 bb b8 be 54 28 e7 be ed 9c c0 be 57 8e ef be
       -0.3608046 -0.45147955 -0.37619725 -0.46788284
000020 6e ea 16 bf 01 7b b8 be 43 7f d8 be 44 b8 10 bf
       -0.5895146 -0.36031345 -0.42284593 -0.5653117
000030 fd b7 b6 be 57 52 8c be d4 9e bc be d2 43 96 be
       -0.35687247 -0.2740657 -0.36839926 -0.29348618
000040 ab 61 b0 be 5b 5e 98 be 4c 9e ce be 87 5b c6 be
       -0.34449515 -0.29759488 -0.40355146 -0.38741705
000050 92 62 0e bf ea c3 b3 be 84 96 b6 be 03 10 13 bf
       -0.55619156 -0.35110408 -0.3566171 -0.57446307
000060 dd 55 cd be a1 d0 88 be 9f 90 b1 be b2 15 b3 be
       -0.4010457 -0.2672167 -0.3468065 -0.3497749
000070 df 63 c7 be 35 0b bd be f3 11 cf be 40 61 b1 be
       -0.38943383 -0.36922613 -0.40443382 -0.34644508
000080 53 67 c2 be f6 83 15 bf 0d da 76 be b4 1e b1 be
       -0.37969455 -0.5840448 -0.24106617 -0.34593737
000090 94 bd 10 bf 36 af b6 be 38 e9 0c bf c0 ec 90 be
       -0.56539273 -0.3568055 -0.55043364 -0.28305626
0000a0 93 d5 89 be b0 f3 e7 be 55 f1 82 be 97 1a f0 be
       -0.26920757 -0.45303106 -0.25574747 -0.46895286
0000b0 1b 50 cb be a7 69 86 be f2 8b eb be af 1b a4 be
       -0.39709553 -0.2625248 -0.46005207 -0.3205237
0000c0 9a 9b d4 be 05 70 4b be 0a 19 82 be b3 3c 90 be
       -0.41524965 -0.19866951 -0.25409728 -0.2817131
0000d0 e1 45 cd be 70 8f b3 be 73 7b 93 be a9 9a 9b be
       -0.40092376 -0.35070372 -0.28805122 -0.30391434
0000e0 20 03 c5 be f9 43 b0 be bb 41 77 be a4 be 94 be
       -0.38478947 -0.3442686 -0.24146168 -0.29051697
0000f0 e3 cd 48 be 81 3d 10 bf 21 2a 8c be a1 3e 8e be
       -0.1960979 -0.5634385 -0.27375892 -0.27782157
000100 c6 24 00 bf f3 26 99 be e5 27 01 bf a5 c5 a0 be
       -0.5005611 -0.29912528 -0.504515 -0.3140079
000110 36 60 db be e1 78 99 be ba 19 04 bf 26 07 ff be
       -0.4284684 -0.29975036 -0.51601756 -0.4981014
000120 2c 93 03 bf 77 36 a6 be 45 f2 b8 be d4 5b 0e bf
       -0.5139644 -0.32463428 -0.36122337 -0.5560887
000130 5d 08 f3 be c4 dd 94 be 50 3a ed be 00 5b a7 be
       -0.47467318 -0.29075444 -0.4633355 -0.32686615
000140 c2 64 c1 be d6 42 9f be 71 3d d2 be ab 8d 92 be
       -0.37772185 -0.3110568 -0.410625 -0.2862371
000150 c0 82 fb be 98 14 98 be 52 9e eb be 91 8e 0e bf
       -0.49123192 -0.29703212 -0.46019226 -0.5568629
000160 95 b6 51 bf 86 03 97 be 4f c0 a9 be 13 7e df be
       -0.81919223 -0.29494876 -0.33154532 -0.43650874
000170 cc cb ab be 8b dc 27 bf 08 3d c7 be 9d c8 11 bf
       -0.33553922 -0.65570897 -0.3891375 -0.56946737
000180 24 60 c1 be 84 21 d8 be 51 a6 c5 be 55 ea bd be
       -0.37768662 -0.4221307 -0.38603452 -0.37092844
000190 31 48 e7 be a0 e5 a4 be a6 62 99 be 61 ef bb be
       -0.45172265 -0.3220644 -0.29958075 -0.3670607
0001a0 f1 8a ab be 4a cb ad be 49 cb cf be 95 8e d2 be
       -0.3350444 -0.3394416 -0.40584782 -0.41124406
0001b0 c4 65 ef be d8 32 be be 67 91 c0 be c6 6b d3 be
       -0.4675733 -0.37148166 -0.37610933 -0.41293162
0001c0 a4 d4 08 bf d1 16 d8 be 59 77 f1 be 40 1c 8e be
       -0.53449464 -0.42204908 -0.47161368 -0.27755928
0001d0 da 65 c7 be 60 91 93 be 8c 66 b6 be bc 62 e1 be
       -0.38944894 -0.2882185 -0.35625112 -0.4402064
0001e0 48 8a d3 be c2 03 c2 be 65 57 72 be 7a 22 d0 be
       -0.41316438 -0.37893492 -0.23666151 -0.40651304
0001f0 b1 8e 01 bf b9 c7 85 be e0 4a ab be c4 26 dd be
       -0.50608355 -0.2612894 -0.33455563 -0.43193638

read_encoder.block3.0.weight f4 [128, 128]
000000 c8 f7 20 be d2 de 13 be 5f fc 37 bd d7 4e a6 bd
       -0.15719521 -0.14440468 -0.044918414 -0.08120506
000010 66 2a 22 bd 32 b8 fa 3c d3 79 7e 3d fb 9b 81 bc
       -0.039591216 0.03060541 0.0621279 -0.015821448
000020 33 da f3 be 1d 63 10 3d 4e 05 7e be a2 bf 55 3e
       -0.4762741 0.03525077 -0.24806711 0.20873883
000030 40 37 50 be f0 33 88 be 17 d4 f7 bd e6 63 ac be
       -0.20333576 -0.26602125 -0.12101 -0.33669966
000040 a5 cd 10 3e 87 0f 28 be 67 9a 18 bd ca 2b d1 bd
       0.14140947 -0.16412173 -0.037256625 -0.1021343
000050 1e 4f be 3e 77 82 1a 3e 1b 21 e6 bd 5a a8 22 3e
       0.37169737 0.15088831 -0.11236783 0.15884534
000060 20 68 60 3b 93 71 cb 3d 17 ec 65 bd aa 0e 4d bd
       0.003424175 0.09933772 -0.056133356 -0.050062813
000070 9a c8 30 be 54 f1 3f 3e 31 45 2d be 37 db b1 3a
       -0.17264023 0.18744403 -0.16920926 0.001356936
000080 bd 38 20 be db 94 b7 bc d7 a2 be 3d 42 95 cb 3e
       -0.15646644 -0.022409847 0.09308403 0.39762312
000090 7a c4 e6 3d 05 22 b0 3e 9f 4d a5 be 59 87 b3 bd
       0.11267944 0.34400955 -0.32285783 -0.0876605
0000a0 5d 64 dc 3c 40 b6 96 be 66 e3 47 bd 04 62 0c 3e
       0.026903326 -0.2943592 -0.04880085 0.13709265
0000b0 09 01 0a bc e2 7f 50 bd ae 94 df bc 4b 30 d6 bc
       -0.008423098 -0.05090321 -0.027292576 -0.026146075
0000c0 a5 1a 0e be 2f b3 b2 3b 84 93 44 3e 87 02 2c be
       -0.13877352 0.0054534893 0.19196898 -0.16797839
0000d0 21 55 35 bd a3 e9 7f be 83 c2 0f 3e 3f e5 65 be
       -0.04427064 -0.24991469 0.14039044 -0.22450732
0000e0 d7 91 82 be 02 e5 43 3e 23 4f 4b be bc a2 13 3d
       -0.25501892 0.19130328 -0.19854407 0.036043867
0000f0 94 4e 49 bb a0 0b 90 3d 95 a7 d7 3d 65 43 67 be
       -0.0030717002 0.07033467 0.105300106 -0.22584303
000100 a7 6f 69 be 6c 2b 62 be 34 06 4c 3d 38 8b 21 be
       -0.22796498 -0.22086877 0.049810603 -0.15775764
000110 07 1e f3 3d 9f 97 93 3e d1 8b 31 be 1f 05 a7 bb
       0.11870962 0.28826615 -0.17338492 -0.005097046
000120 1a e1 66 3e 80 98 5e be 29 0e 99 3d 1e 5e 07 3e
       0.22546807 -0.21737862 0.07473404 0.13219497
000130 41 b2 9b 3d 29 4f fa 3c 9a 72 27 be ac 04 f9 bd
       0.076023586 0.030555325 -0.16352311 -0.12159094
000140 39 7c 0c bd 65 61 7c 3e 1a 0e 80 bd ca 75 52 be
       -0.034298155 0.24646528 -0.0625269 -0.20552745
000150 1a 14 d1 3e c3 da fc 3d fe 60 30 bf 5c 20 41 be
       0.4083565 0.12346413 -0.68898 -0.1886
000160 92 bc 76 be 20 1b 2d bf ea a6 3a be 81 de fb 3d
       -0.24095371 -0.67619514 -0.18227735 0.122982986
000170 63 f6 9a be b0 9f 4f be b9 b0 99 3d b3 35 83 be
       -0.30266103 -0.2027576 0.0750441 -0.25626907
000180 e3 a5 42 be 9f 99 ff 3d 69 ff 49 3d 60 e2 c4 3e
       -0.19008593 0.12480473 0.049315844 0.3845396
000190 7c 32 47 bd 6f 00 f4 3d a4 cb 2b be 01 e1 2e 3e
       -0.04863213 0.11914145 -0.16776901 0.1707802
0001a0 25 a6 fb be 3b b2 f5 bd 5e 71 3e 3c cb d1 30 3c
       -0.49150196 -0.119968854 0.0116237085 0.010792206
0001b0 8d 21 12 be 6b 6f a9 3d 47 7c a0 3d 6a 6d e7 3c
       -0.14270611 0.082732044 0.07836204 0.028250415
0001c0 a6 73 ea bb 7f aa f1 bd cb 2e 53 be fc 95 3d bb
       -0.0071548996 -0.11800098 -0.20623319 -0.002892851
0001d0 ca cd 3d 3d ba 58 56 3d 07 54 b7 3d d2 e1 04 3e
       0.046338834 0.05233071 0.08951574 0.12976769
0001e0 d9 b2 20 3e 3e 70 9d 3d 09 44 55 bd 4a 75 53 3e
       0.15693225 0.07687424 -0.052066837 0.20650211
0001f0 d1 80 91 bd 00 eb 91 3e dd dc 07 be 5f 83 16 3d
       -0.07104648 0.28499603 -0.13267846 0.03674638
000200 b6 d4 01 3d b2 45 14 be 42 ee fa bc d6 68 16 bd
       0.031696998 -0.14479712 -0.030631188 -0.036721073
000210 71 b6 18 bf 30 9f 60 bd e3 9b 19 bf 89 00 cd 3c
       -0.59653383 -0.054839313 -0.6000349 0.02502467
000220 db 45 2b be 2b 5b b8 3e 04 a5 6b be 30 01 65 be
       -0.16725866 0.36007056 -0.23012167 -0.22363734
000230 eb e8 c9 3d a8 9d 84 3d 5f 4b d0 3d 92 eb 02 bf
       0.09858879 0.06475383 0.10170626 -0.511407
000240 e1 6a 3d be 03 d1 c0 3d c0 9d 09 3e 5f d8 5d bd
       -0.18497802 0.09414866 0.13439083 -0.054161426
000250 63 d2 19 3e ee f8 b8 be af 68 e7 3d 85 db 0f bd
       0.15021662 -0.36127418 0.11299264 -0.03512146
000260 8a 93 f8 3d e0 7c 77 be 6d 49 bc 3e 51 db 01 bd
       0.12137516 -0.2416873 0.3677477 -0.031703297
000270 d2 4d e2 3d 7d c5 0c 3f 9c 6a a3 bd da 8f 02 bd
       0.11049999 0.54988843 -0.079793185 -0.03187547
000280 e5 8a da 3e 52 ae fc 3d 39 d0 a7 bd 04 88 29 3e
       0.42684093 0.123379365 -0.08194012 0.16555792
000290 3b 40 50 3e f1 74 26 3e a2 90 80 3e 97 ef 44 3d
       0.20337002 0.16255547 0.25110346 0.048080053
0002a0 8f 17 00 be 2a 75 92 3d 72 ad 03 3e 2e 4c b0 bd
       -0.12508987 0.071512535 0.12859133 -0.0860828
0002b0 31 8a ae 3d 76 2c d6 bd 45 54 14 3e 0a 21 d8 be
       0.08522452 -0.10457699 0.14485271 -0.42212707
0002c0 59 f5 a6 be 6e 5f c3 3d 15 89 c5 bd 04 cc c5 3d
       -0.3260906 0.09539686 -0.09645287 0.096580535
0002d0 06 8b 34 3c 57 ae bf be cc ed 11 bf 82 ad c8 3d
       0.011019474 -0.37437698 -0.57003474 0.09798719
0002e0 0f 20 98 3e 0b 05 99 be 25 25 4d 3e c2 99 44 bd
       0.2971196 -0.2988666 0.20033701 -0.047998197
0002f0 ba 6f f0 bd 94 b0 89 3e c7 e9 7d bd 3c e5 77 be
       -0.1174006 0.2689253 -0.061990526 -0.2420854
000300 08 17 63 bd 2c 15 73 3d a5 e3 87 3d 1e 60 81 bd
       -0.055441886 0.059346363 0.066352166 -0.06317161
000310 fd e9 bf 3d 25 16 c0 3d fc 0c 4d 3e 44 94 85 be
       0.093708016 0.09379224 0.20024484 -0.2608968
000320 fb 69 c6 be 08 8e f5 3d 28 a5 a2 3e 6a c6 8c bc
       -0.38752732 0.11989981 0.3176663 -0.017184455
000330 3d 4e 24 3e ed bb 00 3e 31 60 3c 3e 32 3c 1d be
       0.1604547 0.12571688 0.18396069 -0.15354994
000340 1b 89 69 bd 63 56 96 bd ce 2d f4 bb 3f 05 f4 be
       -0.05701552 -0.07340696 -0.0074517494 -0.47660252
000350 4c 0c 17 be d4 4e 0c 3e 18 7d 08 3d c0 50 e3 bd
       -0.14750785 0.13701946 0.033322424 -0.11099386
000360 1f 95 ce 3d 37 91 e3 bd c7 86 2c be ab 82 32 bf
       0.10087036 -0.11111682 -0.16848288 -0.69730633
000370 63 e8 eb 3e 3a 41 a6 3d 7d 59 16 be 8e d7 dc 3d
       0.46075734 0.0811791 -0.14682575 0.10783301
000380 f0 5e 10 bd 2c fe 4e 3e 62 b3 6b bd 17 64 a0 3e
       -0.03524679 0.20214146 -0.05754412 0.31326362
000390 45 49 60 3e b1 d3 3c 3e eb 21 1f 3e e5 c0 c4 bd
       0.2190295 0.18440129 0.15540282 -0.09607104
0003a0 fa 65 3a 3e c7 df b6 be 9a e6 98 bd b3 a0 89 bc
       0.18202963 -0.35717604 -0.07465859 -0.01680026
0003b0 77 87 9b ba 59 52 a0 3d 81 4d b5 3b 21 d5 90 be
       -0.0011865933 0.078282066 0.005532921 -0.28287604
0003c0 58 56 91 3e e5 16 a4 3b c2 09 0c be cc 86 89 3e
       0.28386188 0.005007612 -0.13675597 0.26860654
0003d0 99 83 bb 3d 5c 4e 0e 3e 26 ca a3 be 1a 9d 39 bc
       0.0915596 0.13897079 -0.31990165 -0.01132896
0003e0 82 08 22 be 48 1f b5 3d 19 2b be bd a2 1a 89 be
       -0.15823558 0.08843857 -0.09285564 -0.26778132
0003f0 31 4b 24 be 6c b6 5b bc 02 93 4f 3d 58 35 d1 be
       -0.16044308 -0.013410192 0.050677307 -0.4086101

read_encoder.block3.0.bias f4 [128]
000000 59 fc ce bd 68 42 7a 3e 8e da 50 3e 37 75 1b be
       -0.10106725 0.24439394 0.20395872 -0.15181433
000010 6e f1 a0 3e 48 93 9b be 2e ee f2 3d b2 7b 7f bd
       0.31434196 -0.30385804 0.118618354 -0.062373824
000020 a1 99 9f 3e 76 0c a8 be 54 76 88 3e a2 b2 df bb
       0.31171897 -0.32822007 0.26652777 -0.0068267146
000030 64 ab 9f 3e 58 13 57 3e ab bf a6 3e cd 23 a2 bc
       0.31185448 0.21003473 0.32568106 -0.019792462
000040 41 fb 45 3e 61 07 8f 3e d0 56 83 be c6 57 b8 bb
       0.19334127 0.27935317 -0.2565217 -0.005625698
000050 4e 37 b0 3e da 6c 0e 3e a8 b6 86 bd b7 92 3a be
       0.34417194 0.13908711 -0.06577808 -0.1822003
000060 24 e1 2d 3e 72 62 88 3e d7 ac 0c bd 16 6b b1 3d
       0.16980416 0.26637608 -0.03434452 0.08663003
000070 b2 6b 59 be 3a bc bf be 76 1d b5 bd 71 c2 5f 3e
       -0.21232489 -0.37448293 -0.0884351 0.21851517
000080 e7 c8 b4 bd a3 7d 88 3e 3f 9d 57 3e c5 e8 74 bd
       -0.088273816 0.26658353 0.21056078 -0.0597923
000090 f8 30 3f 3d e5 3a 23 bd 58 99 9a 3e 3c 86 25 3e
       0.04667756 -0.039851088 0.30195117 0.16164488
0000a0 1f c0 18 3e 00 35 b2 be 34 0e 89 3e 0a 47 81 3e
       0.14917038 -0.3480606 0.2676865 0.2524951
0000b0 eb 7b b3 bd cc 3f 3e 3e a5 38 5c 3e 8f 94 8e 3e
       -0.0876387 0.18579024 0.21505983 0.27847716
0000c0 a9 03 18 be 90 da 3c 3e 9e 24 10 bd c8 b8 83 3e
       -0.14845146 0.1844275 -0.03519117 0.25726914
0000d0 90 ac 28 3e 99 88 7f 3e 0e eb 9b 3e bb 97 51 3e
       0.16472077 0.24954452 0.3045277 0.20468037
0000e0 51 d9 6d 3e d4 48 f6 bc 1e e5 49 3e 59 d2 09 3e
       0.23227431 -0.030064024 0.19716308 0.13459148
0000f0 39 bc 35 3e 19 a7 21 3e 4d 41 12 be 8d fe 73 3e
       0.17747582 0.15786399 -0.14282723 0.23827572
000100 68 86 fa 3d 61 6e e5 bd d7 11 ac bb 8c 2e 4a 3e
       0.12232667 -0.11202694 -0.00525115 0.19744319
000110 30 06 86 3e a9 7a 84 bd dd 36 da bd b1 f1 3e bd
       0.26176596 -0.06468708 -0.106549956 -0.046617214
000120 86 1a 15 3e 7d b5 04 bd 40 2d 93 be 44 55 83 3e
       0.14560899 -0.032399643 -0.2874546 0.2565099
000130 4e 8c c4 bd 86 0b 49 3e 0f 3c 8c be 9a dc 46 3e
       -0.095970735 0.19633302 -0.2738957 0.1942009
000140 c3 52 cd bd 2d c8 46 3e 50 37 0d bd 0a f7 95 3c
       -0.10025551 0.19412299 -0.03447658 0.018306274
000150 68 13 41 3d c8 60 73 3e 44 7f b6 3e aa 33 3d be
       0.047137648 0.23767388 0.3564397 -0.1847674
000160 42 fb 01 bd 88 43 9b 3c e1 8f 6c 3e d0 dd 00 be
       -0.03173376 0.0189531 0.2310176 -0.12584615
000170 ba 2d 7f be a6 32 9d 3e 94 76 ff 3d c6 4f dc 3d
       -0.24919787 0.30702704 0.12473789 0.10757403
000180 20 1a 11 be 84 b5 34 bd c7 fe 86 3e 65 ad 75 be
       -0.14170122 -0.04411842 0.26366255 -0.23991926
000190 81 cd 5e bd 78 05 99 3e 86 ad 96 3d c6 ba d4 3d
       -0.054395203 0.29886985 0.07357316 0.10387187
0001a0 e2 1c 00 be d7 76 4e bd 08 9e 27 3e 20 e1 c4 3d
       -0.12511018 -0.050406303 0.16368878 0.09613252
0001b0 74 fc 1c bc 48 98 47 3e 9f 16 53 3e 37 2e 87 3e
       -0.009581674 0.19491684 0.20614098 0.26402447
0001c0 47 b4 58 be d8 0c 05 be 14 dd e3 bc e9 78 8f 3e
       -0.2116252 -0.12993181 -0.02781538 0.28021935
0001d0 70 ca 65 3e ad de 15 3e cb e8 2a be 88 81 4d 3e
       0.22440505 0.14635725 -0.16690366 0.20068944
0001e0 f6 ed b8 bd a9 49 be 3c 4f ed 94 3e 60 c5 2e 3e
       -0.090297624 0.023228483 0.29087302 0.1706748
0001f0 33 3c ce bd dc 14 84 be 6e e0 8d 3e cf a4 37 3e
       -0.10070076 -0.25797164 0.2771029 0.17933963

read_encoder.block3.1.weight f4 [128]
000000 80 dd 89 3f 7b db 6e 3f 63 c4 86 3f 35 59 5d 3f
       1.0770721 0.9330365 1.0528682 0.86464244
000010 f9 07 61 3f ae 70 87 3f 14 00 67 3f 30 0e 25 3f
       0.8790279 1.0581262 0.90234494 0.64474773
000020 b9 6e 41 3f 34 b8 b6 3f 68 b9 5a 3f 48 1a 26 3f
       0.75559574 1.4274964 0.8543916 0.6488385
000030 f5 fd 55 3f 88 0e 8a 3f dc 2d 3e 3f 34 3c 9a 3f
       0.8359063 1.0785685 0.74288726 1.2049623
000040 50 db 88 3f 98 9f 6f 3f 96 66 9e 3f c0 0d c4 3e
       1.0691929 0.93602896 1.2375057 0.3829174
000050 12 a1 55 3f 90 99 8a 3f be b1 21 3f 53 7b 82 3f
       0.834489 1.0828114 0.6316184 1.0193886
000060 b2 79 5d 3f cb 0b 7a 3f 78 02 67 3f 1a 71 8a 3e
       0.8651382 0.97674245 0.9023814 0.27039415
000070 4c 92 94 3f 58 5a a5 3f f9 5a 6d 3f cd a1 54 3f
       1.1607146 1.2918196 0.9271694 0.8305939
000080 60 af 66 3f bd be 4d 3f a8 fd 79 3f 00 1d 4b 3f
       0.9011135 0.8036917 0.97652674 0.79341125
000090 39 ea 01 3f 48 26 34 3f 61 53 4b 3f ff bf 83 3f
       0.5074802 0.7037091 0.794241 1.0292968
0000a0 8d d3 93 3f 2e 81 95 3f 2b b8 6e 3f 0b 59 5f 3f
       1.1548935 1.1680048 0.9324977 0.87245244
0000b0 59 42 58 3f 6c 68 93 3f 01 b2 5d 3f bb e2 57 3f
       0.8447624 1.1516242 0.8659974 0.8433034
0000c0 59 5e 6d 3f dd 82 9b 3f ec 4a e5 3f 80 74 7a 3f
       0.9272209 1.2149311 1.7913489 0.97834015
0000d0 c8 ed 68 3f f5 05 91 3f d1 a7 6e 3f 2f 3c 9a 3f
       0.90987825 1.1329943 0.9322482 1.2049617
0000e0 1a 69 4a 3f 20 1c 2b 3f 54 89 8c 3f 10 7a 5e 3f
       0.7906662 0.6683979 1.0979409 0.86905
0000f0 33 6a 93 3f fb 4a ab 3e 37 da f9 3f 66 6a 83 3f
       1.1516784 0.33455643 1.9519719 1.0266845
000100 66 c1 52 3f 6a 8e d0 3f 45 dd 8f 3e 75 bd 89 3f
       0.8232635 1.6293461 0.28098503 1.0760943
000110 3a 12 54 3f 39 18 20 3f 41 7c 40 3f 49 51 03 3f
       0.8284031 0.6253696 0.75189596 0.51295906
000120 ec 9b a0 3f 12 7d 2a 3f c6 66 8d 3f 1a 8e 5b 3f
       1.2547584 0.6659709 1.1046989 0.85763705
000130 0b 1f 2a 3f 79 24 84 3f 2d 7c 81 3f 9b eb 66 3f
       0.6645362 1.032363 1.011602 0.90203255
000140 a5 2d fc 3e 29 e0 87 3f 07 26 b2 3e ac 54 9c 3f
       0.49253574 1.0615283 0.34794638 1.221334
000150 78 0f bd 3e 6e 21 66 3f 6a c1 6c 3f e6 5f 6d 3f
       0.36925864 0.8989476 0.92482626 0.92724454
000160 3a 5f 02 3f e8 8f ad 3f 60 f1 66 3f 35 e2 d5 3f
       0.50926554 1.3559542 0.9021206 1.6709658
000170 f0 74 8a 3f 96 19 58 3f 8f e5 25 3f 54 18 81 3f
       1.0816936 0.8441404 0.64803404 1.0085549
000180 a4 d4 0c 3f 0e e3 26 3e 5f eb 5b 3f 64 4f 7b 3f
       0.55011964 0.16297552 0.8590602 0.98168015
000190 ff a4 44 3f 61 2f 5d 3f 67 96 74 3f 37 18 90 3f
       0.76814264 0.8640042 0.95541996 1.125739
0001a0 28 82 58 3f 59 12 e1 3f 25 4c 46 3f 29 89 66 3f
       0.845736 1.7583724 0.7745994 0.9005304
0001b0 7d 5c 43 3f 22 11 58 3f 52 e4 54 3f 34 51 4c 3f
       0.76313 0.8440114 0.8316089 0.79811406
0001c0 09 65 84 3f 80 ad 4d 3f 7b 0b 06 3f 5d 4e 5d 3f
       1.0343333 0.80342865 0.5236127 0.864477
0001d0 d4 ee 4a 3f 73 cd 93 3f 17 0a 3e 3f 6f 3d 3a 3f
       0.7927067 1.1547073 0.74234146 0.7274999
0001e0 68 b4 6e 3f ec 8e 35 3f 61 97 87 3f 6f 63 54 3f
       0.9324403 0.70921206 1.0593072 0.82964224
0001f0 7f d0 40 3f c9 4a 88 3f 27 df 80 3f 63 85 63 3f
       0.7531814 1.0647823 1.0068101 0.88875407
