m6aReplica/3d_66/Models/epoch34_rocauc0.890_valpr0.400_valscore1.290.pth (torch, 152221 bytes, 13 tensors)

read_encoder.block1.0.weight f4 [128, 18]
0.41229364 0.40850136 -0.052793697 0.7633687 -0.7100038 0.034053855 0.3121941 0.09362003
0.37019548 -0.25069863 0.18097499 -0.08786301 -0.021048864 -0.20994288 -0.051640257 0.16955182
0.1964624 -0.003197994 -0.39577782 0.10098614 -0.13237916 -1.0355351 0.15674359 0.28584385
-0.6969603 0.13483284 -0.0553483 -0.049896374 0.17085904 -0.2502822 0.34660292 -0.111006804
0.38005507 -0.01974611 -0.29871523 0.12480122 0.44446495 -0.046973508 0.029744348 1.1753364
0.33454624 -0.1603634 0.48501796 0.14355531 0.17560068 -0.13759148 0.2338366 0.0073205535
0.025268637 -0.14432183 -0.45763326 -0.020219391 -0.37785527 0.25063032 0.7009973 0.15060058
0.11550712 0.96641403 0.16436541 -0.22820379 1.0895355 0.046160962 0.18451665 -0.117256254
0.34460166 -0.097451724 -0.040815707 -0.19397792 -0.294137 0.023932084 0.352376 0.09789107
-0.2311052 -0.40941554 -0.14365765 -1.4527515 -0.52501667 0.35967112 -0.27093974 0.22680263
-0.030147487 -0.09065194 -0.009320063 -0.038416933 0.013404652 0.0052311267 -0.013620748 0.008140867
-0.04171832 -0.0017431455 0.48992363 0.19352885 0.25844005 1.0870696 -0.70238435 -0.16320282
0.61247736 -0.10706168 -0.06379772 -0.163585 0.012685189 0.20887189 -0.10412222 -0.12696034
-0.05003465 -0.030365238 -0.10934434 -0.062210992 0.5989509 0.06833114 0.33366236 1.3055483
0.09706107 -0.30121687 -0.16738126 0.181977 0.06517249 -0.14126574 -0.16965504 -0.07852768
-0.080352955 0.007360324 0.08983929 -0.020469204 -0.22212498 -0.20784631 -0.5403866 -0.22861868
0.26105762 -0.60835195 0.26871702 0.21209887 -0.79913896 0.037788942 -0.01681763 -0.055306774
-0.3225672 -0.22311448 -0.00821294 -0.022070149 0.0107718995 0.018336708 0.18931535 0.002350748
0.7756743 0.09169734 0.15844557 0.44188982 0.1293485 -0.26667973 0.59582263 -0.0066568814
0.053766828 -0.16108388 0.54248965 -0.05257366 0.041073147 0.31511617 -0.0318207 0.16413145
0.44759846 -0.011697172 -0.51609206 -0.63319993 0.08079604 -1.5686817 -0.7838935 0.34450895
-0.36986667 -0.5946242 -0.18552455 -0.11909878 0.02267615 -0.06989219 -0.07805314 -0.061091624
-0.0437938 0.04478568 0.06198258 -0.04919126 -0.7598387 0.3418225 0.014131119 -1.5192704
0.41278037 0.24716815 -0.7425134 -0.03622011 -0.14808327 -0.01836179 -0.13740456 -0.06603739
0.06519693 0.06406463 0.04159601 0.0041678804 -0.025159506 0.050500926 -0.06035117 0.5009077
-0.1553156 -0.6124618 -0.111871004 0.12566483 -0.16160728 -0.86958206 -0.047220703 -0.1687257
0.0174347 0.42607784 0.007871451 0.0458178 -0.20468213 -0.07858562 0.1582147 0.4355683
-0.30755806 0.06406522 0.1582415 -1.291499 -1.388089 0.21091594 0.4896139 -0.56785333
-0.312771 0.045696624 0.12809725 -0.043343585 -0.17475684 -0.33466953 0.08273984 0.04355956
-0.06551537 0.028953431 0.98649853 0.43206948 0.21976714 0.493612 -0.72906935 -0.20549904
0.37610143 -0.19931957 0.12740445 -0.14136648 -0.027826857 -0.04397719 -0.018394632 0.15759496
-0.10319416 -0.005758052 -0.37004808 -0.09748791 0.9812684 -0.025399389 -0.014215449 -0.792837
00000000: 2718 d33e 1727 d13e 343e 58bd 226c 433f
00000010: cfc2 35bf 0e7c 0b3d e8d7 9f3e dcbb bf3d
00000020: 438a bd3e 925b 80be 8251 393e 86f1 b3bd
00000030: ab6e acbc 44fb 56be bc84 53bd fe9e 2d3e
00000040: 702d 493e 7095 51bb 64a3 cabe d2d1 ce3d
00000050: 678e 07be 6a8c 84bf 6481 203e 205a 923e
00000060: fd6b 32bf 9f11 0a3e e6b4 62bd 2460 4cbd
00000070: acf5 2e3e fd24 80be f075 b13e 8957 e3bd
00000080: 9496 c23e 98c2 a1bc 34f1 98be c897 ff3d
00000090: e990 e33e 4b67 40bd 6baa f33c 6c71 963f
000000a0: a549 ab3e 4e36 24be 4654 f83e 2a00 133e
000000b0: aad0 333e c8e4 0cbe dd72 6f3e 41e1 ef3b
000000c0: 2c00 cf3c 1ac9 13be e84e eabe 23a3 a5bc
000000d0: 3f76 c1be 9e52 803e 8f74 333f 0a37 1a3e
000000e0: ff8e ec3d e966 773f 684f 283e 41ae 69be
000000f0: e675 8b3f 4713 3d3d eff1 3c3e 0c24 f0bd
00000100: a16f b03e c594 c7bd 5f2e 27bd 26a2 46be
00000110: 2099 96be 380d c43c a16a b43e 1d7b c83d
00000120: d7a6 6cbe ea9e d1be fe1a 13be c3f3 b9bf
00000130: 7e67 06bf d026 b83e 9db8 8abe f33e 683e
00000140: ddf7 f6bc b9a7 b9bd 2db3 18bc 135b 1dbd
00000150: 2f9f 5b3c df69 ab3b 8f29 5fbc 4561 053c
00000160: d4e0 2abd 427a e4ba 45d7 fa3e 6d2c 463e
00000170: 4152 843e 1925 8b3f 76cf 33bf a41e 27be
00000180: 51cb 1c3f 2743 dbbd 61a8 82bd d482 27be
00000190: 8ad5 4f3c 83e2 553e 083e d5bd e401 02be
000001a0: 22f1 4cbd 85c0 f8bc edef dfbd f4d0 7ebd
000001b0: d954 193f 32f1 8b3d cbd5 aa3e 351c a73f
000001c0: f4c7 c63d 1939 9abe fe65 2bbe 2e58 3a3e
000001d0: 2879 853d f7a7 10be 0dba 2dbe 1fd3 a0bd
000001e0: 1790 a4bd df2e f13b a9fd b73d 08af a7bc
000001f0: bb74 63be aad5 54be c756 0abf 041b 6abe
00000200: 58a9 853e f4bc 1bbf 4795 893e 7230 593e
00000210: 5f94 4cbf 94c8 1a3d 20c5 89bc 5b89 62bd
00000220: 8727 a5be 1f78 64be 918f 06bc 75cc b4bc
00000230: 9f7c 303c dd36 963c e2db 413e 020f 1a3b
00000240: 9792 463f d1cb bb3d 8e3f 223e 623f e23e
00000250: ef73 043e 3f8a 88be d587 183f f821 dabb
00000260: 9b3a 5c3d 2cf3 24be 9ae0 0a3f 7a57 57bd
00000270: 513c 283d e856 a13e 6c56 02bd 1312 283e
00000280: a02b e53e 7fa5 3fbc 9c1e 04bf 6419 22bf
00000290: 6578 a53d 90ca c8bf 3fad 48bf 7a63 b03e
000002a0: 2a5f bdbe 4b39 18bf 26fa 3dbe 10ea f3bd
000002b0: 55c3 b93c a323 8fbd 53da 9fbd 363b 7abd
000002c0: 2161 33bd 3071 373d 72e1 7d3d c67c 49bd
000002d0: ca84 42bf 5c03 af3e 3586 673c 7477 c2bf
000002e0: f357 d33e a619 7d3e 5c15 3ebf 8a5b 14bd
000002f0: 24a3 17be 776b 96bc c8b3 0cbe 9c3e 87bd
00000300: f885 853d 5134 833d 9460 2a3d b792 883b
00000310: 4f1b cebc 0fda 4e3d ca32 77bd 7d3b 003f
00000320: 0d0b 1fbe 4cca 1cbf a01c e5bd 48ae 003e
00000330: 617c 25be ee9c 5ebf 7f6a 41bd 6ec6 2cbe
00000340: 37d3 8e3c e026 da3e 42f7 003c 72ab 3b3d
00000350: 3198 51be 7ff1 a0bd 0903 223e cf02 df3e
00000360: 4078 9dbe a034 833d 0f0a 223e d74f a5bf
00000370: e6ac b1bf 59fa 573e acae fa3e d65e 11bf
00000380: 8523 a0be 622c 3b3d ed2b 033e 0b89 31bd
00000390: 75f3 32be ce59 abbe 8173 a93d 826b 323d
000003a0: ec2c 86bd bf2f ed3c 2b8b 7c3f 3638 dd3e
000003b0: a30a 613e b6ba fc3e 4aa4 3abf 576e 52be
000003c0: 5e90 c03e 6e1a 4cbe 5076 023e 60c2 10be
000003d0: 26f5 e3bc 6d21 34bd 57b0 96bc 9360 213e
000003e0: 7657 d3bd 0bae bcbb f176 bdbe bea7 c7bd
000003f0: 6834 7b3f 6112 d0bc eae7 68bc 5ef7 4abf

read_encoder.block1.0.bias f4 [128]
0.011585111 -0.36071965 -0.09845882 0.06953035 -0.18282543 0.62960434 0.36143547 -0.34575087
0.45103332 -0.05644981 -0.41772166 0.002915034 0.16893423 0.3648629 0.37437683 -0.11130009
0.4747685 -0.60657763 0.5266499 0.24744482 0.29824972 -0.28480327 0.095033586 0.542743
0.047928333 0.096921906 0.2926456 -0.3900535 -0.47063142 -0.23315036 -0.25950134 0.28939578
0.23099884 -0.37343025 0.26744416 0.22450185 0.31502017 -0.1335558 0.14978704 -0.42697215
0.25164074 -0.4211395 0.513645 -0.13747191 0.2406039 0.1861869 0.14664568 0.2707801
0.53337955 0.5210256 -0.25883964 -0.30537656 0.54349667 0.12840916 -0.37007385 0.47747856
0.33685893 -0.0056234547 0.5558497 -0.5358527 0.122318104 -0.26744643 0.4276008 0.41709808
-0.56806004 -0.35132673 0.53048575 0.32603458 0.19672418 0.30714875 -0.47552893 0.022147337
0.02754337 0.31619868 -0.3930638 -0.39333567 0.15829237 -0.043652292 -0.069372274 0.07831735
0.16013183 0.037137676 0.14210951 -0.63787484 -0.38809368 0.32080626 -0.58482265 -0.5338261
-0.61314857 0.049966298 -0.07327474 -0.13284934 0.5916064 0.089778885 -0.33147648 -0.37246588
0.04488618 -0.6631043 -0.45571935 0.21593866 0.29238907 -0.17937508 0.3197989 -0.086047694
0.1677873 0.07772042 -0.33019337 0.53681743 0.37704906 -0.64552146 0.08517404 -0.11129293
-0.21937336 -0.17782912 -0.53221965 -0.25846753 -0.6616197 -0.37886396 -0.033107247 0.5557168
-0.13596556 0.7092702 0.43223077 -0.23916976 -0.37218484 -0.23257053 -0.32383737 -0.12979023
00000000: 7acf 3d3c 3fb0 b8be c7a4 c9bd ee65 8e3d
00000010: 9736 3bbe c02d 213f 120e b93e 4206 b1be
00000020: d7ed e63e ea37 67bd 9ddf d5be 280a 3f3b
00000030: 18fd 2c3e 4fcf ba3e 52ae bf3e 4df1 e3bd
00000040: db14 f33e ac48 1bbf 87d2 063f 2d62 7d3e
00000050: 30b4 983e bcd1 91be f8a0 c23d 35f1 0a3f
00000060: 8050 443d fe7e c63d a5d5 953e 18b5 c7be
00000070: 9af6 f0be f8be 6ebe 5cdd 84be af2b 943e
00000080: f68a 6c3e 4032 bfbe 71ee 883e d0e3 653e
00000090: 534a a13e dac2 08be c661 193e 189c dabe
000000a0: 0ed7 803e 999f d7be 3d7e 033f 70c5 0cbe
000000b0: de60 763e c7a7 3e3e 492a 163e b0a3 8a3e
000000c0: 908b 083f ef61 053f a186 84be 515a 9cbe
000000d0: 9922 0b3f b17d 033e 527a bdbe 1278 f43e
000000e0: c678 ac3e f544 b8bb 2a4c 0e3f a42d 09bf
000000f0: ea81 fa3d bdee 88be 7eee da3e e18d d53e
00000100: 626c 11bf 19e1 b3be eacd 073f 01ee a63e
00000110: 1072 493e 9a42 9d3e 8778 f3be 556e b53c
00000120: a2a2 e13c cbe4 a13e a93f c9be 4b63 c9be
00000130: 6517 223e bfcc 32bd 0d13 8ebd d964 a03d
00000140: 99f9 233e ad1d 183d 2885 113e c44b 23bf
00000150: 37b4 c6be b840 a43e f0b6 15bf d4a8 08bf
00000160: 4ef7 1cbf 76a9 4c3d 1111 96bd a809 08be
00000170: 8473 173f fedd b73d 49b7 a9be d9b3 bebe
00000180: 92da 373d 34c1 29bf 0c54 e9be 061f 5d3e
00000190: 05b4 953e 1aae 37be aebc a33e c639 b0bd
000001a0: 6fd0 2b3e e22b 9f3d 1b0f a9be de6c 093f
000001b0: 930c c13e e540 25bf ba6f ae3d 8ced e3bd
000001c0: 69a3 60be d618 36be 8c3f 08bf db55 84be
000001d0: e95f 29bf 75fa c1be 779b 07bd 7543 0e3f
000001e0: 8e3a 0bbe bb92 353f 5a4d dd3e ebe8 74be
000001f0: 038f bebe f826 6ebe 03ce a5be bbe7 04be

read_encoder.block1.1.weight f4 [128]
0.7594086 1.0564617 1.1013672 1.1227534 0.96776986 1.0432956 1.1161492 0.3563458
1.6200197 0.8074458 0.7751341 1.1040568 1.0423844 1.1099269 1.4151053 0.90816945
1.3986732 1.0692143 0.9452761 0.9468464 0.5384786 0.7715614 0.89093137 1.3620154
1.5691837 1.1325833 1.2819918 0.37883797 0.4997222 0.504137 1.0116405 1.2370751
0.7711178 1.0149498 1.0784899 1.5008255 0.6699932 0.7201612 1.3113368 0.4246057
0.8784783 0.5037791 1.194207 0.5165831 1.0486485 0.9959492 1.4585772 1.2203087
1.3595287 1.1984389 0.49259335 0.91675305 1.1384252 0.45806202 0.32850584 1.3852599
1.0539045 1.07731 1.4024043 0.8053487 1.0988967 1.1921355 1.4545684 1.0745896
0.89390135 0.89326006 0.9284768 1.4263974 1.1267588 0.9469268 1.1152862 1.0616928
1.2449684 1.4960799 0.46212682 0.5890392 1.0899724 0.9065303 1.0204524 0.89019173
1.0678158 1.0179913 0.6486025 1.3816335 0.72759193 1.293801 0.87509173 0.57067716
0.6520803 1.1761127 0.74635273 0.8512813 1.6647372 0.88559234 1.2199556 1.4389234
1.3614985 0.7201632 0.81233394 0.64507246 1.0137223 1.0569247 0.99225974 0.84888816
0.94368005 1.0864395 0.74633807 1.180314 1.0838244 0.77912825 0.8622767 0.4671126
1.1582288 1.2093138 1.312636 0.8775107 0.5461669 0.78979796 0.76871175 1.0394629
0.7123161 1.453521 1.0984787 0.80396944 0.6810457 0.9768451 1.096043 0.9843244
00000000: 9a68 423f 233a 873f 9af9 8c3f 62b6 8f3f
00000010: c4bf 773f b68a 853f fadd 8e3f f572 b63e
00000020: ce5c cf3f c5b4 4e3f 306f 463f bc51 8d3f
00000030: da6c 853f 1612 8e3f 2c22 b53f cb7d 683f
00000040: b907 b33f 04dc 883f 9dfd 713f 8764 723f
00000050: bcd9 093f 0c85 453f 1414 643f 8556 ae3f
00000060: 03db c83f 7df8 903f 4f18 a43f 0df7 c13e
00000070: 97db ff3e 1f0f 013f 707d 813f 7a58 9e3f
00000080: fa67 453f e0e9 813f f50b 8a3f 0d1b c03f
00000090: ad84 2b3f 7c5c 383f e2d9 a73f eb65 d93e
000000a0: f4e3 603f abf7 003f c6db 983f ca3e 043f
000000b0: 1d3a 863f 87f6 7e3f a8b2 ba3f 1333 9c3f
000000c0: 0905 ae3f 7266 993f 3235 fc3e 54b0 6a3f
000000d0: ebb7 913f 1b87 ea3e eb31 a83e 3250 b13f
000000e0: 58e6 863f 4be5 893f fc81 b33f 552b 4e3f
000000f0: a6a8 8c3f e597 983f 4c2f ba3f 278c 893f
00000100: b8d6 643f b1ac 643f a8b0 6d3f 3194 b63f
00000110: a239 903f cb69 723f b3c1 8e3f 8de5 873f
00000120: 205b 9f3f 8c7f bf3f e39b ec3e 46cb 163f
00000130: 3784 8b3f 5f12 683f 2f9e 823f 9be3 633f
00000140: 30ae 883f 8a4d 823f d00a 263f 5ed9 b03f
00000150: 7743 3a3f 459b a53f 0306 603f e617 123f
00000160: bcee 263f dc8a 963f f910 3f3f 92ed 593f
00000170: 1c16 d53f 2eb6 623f 8127 9c3f a42e b83f
00000180: 9545 ae3f 9e5c 383f 1ef5 4f3f 7823 253f
00000190: a7c1 813f 4f49 873f bc04 7e3f bc50 593f
000001a0: 0495 713f 7310 8b3f 0310 3f3f 8714 973f
000001b0: c2ba 8a3f f374 473f 2abe 5c3f 6229 ef3e
000001c0: d740 943f cbca 9a3f 7504 a83f 8ba4 603f
000001d0: 98d1 0b3f 3330 4a3f 4bca 443f 1f0d 853f
000001e0: 595a 363f fa0c ba3f f39a 8c3f f1d0 4d3f
000001f0: 0359 2e3f 8512 7a3f 234b 8c3f affc 7b3f

read_encoder.block1.1.bias f4 [128]
-0.5243938 -0.28636456 -0.21317543 -0.001249647 -0.3685485 0.023789547 -0.0422968 -0.6578028
0.061598063 -0.37760887 -0.31383735 -0.05055039 -0.14943868 0.029568125 0.02579076 -0.20973349
-0.02599675 -0.24071765 -0.4829706 -0.35498482 -0.49782225 -0.4043345 -0.24460629 -0.022921223
-0.13239652 -0.28634477 -0.025253173 -0.68703157 -0.56728524 -0.57854533 -0.22833122 -0.2509932
-0.379875 -0.28136542 -0.11251058 -0.120668255 -0.3421263 -0.39394 -0.024709933 -0.52662295
-0.3261863 -0.5433713 0.0037595837 -0.5532017 -0.041015975 -0.09581685 -0.19731903 -0.113836944
0.08145377 -0.03865369 -0.5358617 -0.2726236 -0.031157687 -0.5430943 -0.7602066 -0.051931255
-0.0031842287 -0.13720553 -0.06002133 -0.287397 -0.20614474 -0.25907016 0.027549913 -0.12946416
-0.18454921 -0.33089122 -0.34432137 -0.024828332 0.015113765 -0.03581652 -0.15726236 -0.14494477
-0.12177561 0.04164948 -0.54502875 -0.35427496 0.0623701 -0.2661747 -0.17850037 -0.16759612
-0.6505382 -0.16552486 -0.41378084 -0.16686174 -0.30272332 -0.3444582 -0.22341853 -0.41264996
-0.34841475 -0.08774936 -0.24585022 -0.3111672 0.074849024 -0.23731561 -0.13377985 -0.10451699
0.012426682 -0.33986154 -0.24341515 -0.31208992 -0.13338266 -0.2274953 -0.17137353 -0.27292576
-0.18455945 -0.5170761 -0.6189499 0.07792444 -0.34857604 -0.3669648 -0.19449073 -0.51245743
-0.24210285 -0.14401785 -0.12884197 -0.23607098 -0.45708174 -0.32871687 -0.28336915 0.053496003
-0.3545049 -0.03543373 -0.090506986 -0.2747029 -0.4062295 -0.20172042 -0.18365309 -0.1785117
00000000: ac3e 06bf 609e 92be a94a 5abe 32cb a3ba
00000010: 64b2 bcbe 4ce2 c23c 693f 2dbd c465 28bf
00000020: 404e 7c3d f355 c1be 4aaf a0be ed0d 4fbd
00000030: 7406 19be da38 f23c 2547 d33c 60c4 56be
00000040: 23f7 d4bc b07e 76be ec47 f7be 92c0 b5be
00000050: 8fe2 febe ee04 cfbe 127a 7abe 4ac5 bbbc
00000060: f492 07be c89b 92be bedf cebc 4de1 2fbf
00000070: 9b39 11bf 8c1b 14bf a9cf 69be 2e82 80be
00000080: fa7e c2be 210f 90be f26b e6bd eb20 f7bd
00000090: 2e2b afbe 81b2 c9be 7c6c cabc c3d0 06bf
000000a0: e401 a7be 621a 0bbf 5963 763b a09e 0dbf
000000b0: 5e00 28bd a03b c4bd 000e 4abe 5823 e9bd
000000c0: 3cd1 a63d 5553 1ebd 3b2e 09bf 5295 8bbe
000000d0: 683e ffbc 3a08 0bbf e69c 42bf deb5 54bd
000000e0: 7eae 50bb 9b7f 0cbe edd8 75bd b325 93be
000000f0: 9b17 53be d8a4 84be 5bb0 e13c 4192 04be
00000100: 78fa 3cbe 936a a9be e44a b0be c964 cbbc
00000110: ba9f 773c 58b4 12bd 6209 21be 676c 14be
00000120: 7e65 f9bd a598 2a3d 0187 0bbf 8763 b5be
00000130: ca77 7f3d 0d48 88be cdc8 36be 519e 2bbe
00000140: ac89 26bf 597f 29be 15db d3be cedd 2abe
00000150: 8dfe 9abe d35c b0be d4c7 64be db46 d3be
00000160: 6b63 b2be f0b5 b3bd 29c0 7bbe 4f51 9fbe
00000170: 724a 993d dd02 73be 96fd 08be 010d d6bd
00000180: 4899 4b3c 5502 aebe d241 79be 40ca 9fbe
00000190: 7795 08be 87f4 68be 8b7c 2fbe edbc 8bbe
000001a0: 27fd 3cbe 195f 04bf 8073 1ebf d996 9f3d
000001b0: 8f78 b2be cfe2 bbbe 9428 47be 6930 03bf
000001c0: cfe9 77be 6a79 13be 26ef 03be 97bc 71be
000001d0: 9e06 eabe 944d a8be c315 91be a01e 5b3d
000001e0: ab81 b5be f522 11bd ba5b b9bd dca5 8cbe
000001f0: 50fd cfbe cc8f 4ebe 8e0f 3cbe c5cb 36be

read_encoder.block2.0.weight f4 [128, 128]
-0.20274928 0.047225025 -0.24818607 0.16057184 -0.09233377 0.022334117 0.08010773 0.08238787
0.031970583 0.14680195 0.21949139 0.16590387 0.29219502 0.020779043 0.17390363 -0.054642275
-0.052918073 -0.08225176 -0.049656015 -0.078253224 0.06260063 0.11904357 -0.12580727 -0.015424763
0.36450988 0.0826544 -0.056588713 0.07870558 0.086098395 0.11274795 0.046469405 -0.15540817
0.2219052 0.20798364 0.07693256 -0.09860466 0.028236108 0.13655141 -0.023147715 0.13368823
0.18674192 0.087934524 0.023804769 0.010507062 -0.011127438 0.050154693 -0.10278882 0.104273446
0.09967443 -0.0036180902 0.10347284 0.08692016 0.1522749 0.074357405 -0.022927614 0.17819215
0.21327034 0.0120249465 0.2614671 0.10756948 0.0032547724 -0.17779773 -0.051018365 0.015920222
0.08405322 0.015190415 0.09803221 -0.029021358 0.17386176 -0.040302288 -0.08558232 -0.04718474
0.13721137 0.11339854 0.0371683 0.10973876 0.004793718 0.06420781 -0.14184314 0.0057786647
0.037714846 -0.05821672 0.2287856 -0.3273909 -0.03641827 -0.04711469 0.2801129 0.12307261
0.025967045 0.018706303 -0.039666343 -0.024018744 0.17233753 0.12669225 0.20904557 -0.011249706
0.11828114 0.12970889 0.203956 0.03090791 -0.13775879 -0.008593465 0.10195173 -0.05023864
-0.0997711 0.023356387 0.2446933 -0.05874684 0.09314233 0.11403913 -0.0025887045 0.27790105
-0.07335233 0.31018686 -0.034815885 -0.09679966 0.0048368145 0.16481201 0.20712043 -0.027586043
0.17263882 -0.085410595 -0.13777062 0.024435489 0.015769757 0.019010426 0.088346064 -0.11685499
-0.04756045 -0.026281022 -0.018478267 -0.0048943763 0.06698742 0.03526285 0.054226633 0.24632613
-0.049564622 0.07793003 0.05694983 0.20742479 -0.12502697 0.097105905 -0.12309448 0.049575523
-0.037104294 0.14136842 0.03732976 -0.13731176 -0.02871349 0.110267244 0.051079128 0.05364667
0.33424225 0.14145672 -0.4977776 0.04939297 0.022283567 0.07973447 0.27018794 -0.08335154
0.11274627 0.34967756 -0.32685724 0.07977668 0.24011801 0.013426155 0.04976607 0.13074945
-0.08663032 0.06537505 -0.026123596 0.027093759 -0.26275608 0.17654316 -0.2603808 -0.04282751
-0.06600087 -0.015779253 0.08943285 -0.04033666 0.1502037 -0.029856892 -0.0073896125 0.13114454
0.14949542 0.020520514 0.2773166 -0.12875228 0.04100349 0.0067922478 0.023858035 -0.07460163
0.09010238 0.26916212 0.014180364 0.13855205 -0.1350206 0.014047877 0.4009596 -0.012411895
-0.10835304 -0.08271585 0.030274613 0.17360242 0.14199448 -0.10913407 -0.21295914 0.020758508
-0.17529474 -0.04241696 0.17251407 0.23231088 0.05832559 -0.08214468 0.23607996 0.093421645
0.06325799 -0.012249153 0.08359456 -0.0074709454 0.26144025 0.100405805 -0.018906498 0.2874473
0.13117161 0.034675986 0.15993555 -0.029646596 0.09561865 -0.03429222 -0.3354794 -0.18457289
0.123460345 -0.20301893 0.09729336 0.021087583 -0.010871338 0.020935478 -0.05032299 0.17904785
-0.22913232 0.37202376 0.074232586 0.14718221 0.06532627 0.049925756 -0.07692907 -0.30814597
0.24606296 -0.09845087 -0.19629827 0.05016679 0.11707455 0.04402014 -0.012455593 0.21904616
00000000: 829d 4fbe 076f 413d 7d24 7ebe f26c 243e
00000010: 7d19 bdbd 0af6 b63c 860f a43d f9ba a83d
00000020: 96f3 023d 4053 163e 5ac2 603e b4e2 293e
00000030: 969a 953e d038 aa3c cb13 323e 94d0 5fbd
00000040: 9fc0 58bd 9c73 a8bd 1b64 4bbd 3a43 a0bd
00000050: c234 803d 1dcd f33d 9fd3 00be 25b8 7cbc
00000060: 0aa1 ba3e b646 a93d 91c9 67bd 6430 a13d
00000070: 5b54 b03d 66e8 e63d b456 3e3d 5223 1fbe
00000080: 1e3b 633e aaf9 543e d18e 9d3d 3df1 c9bd
00000090: 694f e73c 22d4 0b3e 47a0 bdbc 91e5 083e
000000a0: 4639 3f3e 0417 b43d 3802 c33c d025 2c3c
000000b0: dc4f 36bc 026f 4d3d f282 d2bd 518d d53d
000000c0: 1c22 cc3d 7b1d 6dbb 91e9 d33d 3203 b23d
000000d0: f4ed 1b3e b248 983d b1d2 bbbc 0178 363e
000000e0: 8a63 5a3e 4804 453c 04df 853e 634d dc3d
000000f0: 054e 553b 9c10 36be a2f8 50bd 206b 823c
00000100: 1824 ac3d 38e1 783c 1cc5 c83d 33be edbc
00000110: d108 323e 0314 25bd c945 afbd c944 41bd
00000120: 2381 0c3e 7e3d e83d ca3d 183d b7be e03d
00000130: 9f14 9d3b 627f 833d 543f 11be f45a bd3b
00000140: e27a 1a3d a874 6ebd c646 6a3e c89f a7be
00000150: 532b 15bd 55fb 40bd f56a 8f3e 7e0d fc3d
00000160: d7b8 d43c f63d 993c 2d79 22bd f5c2 c4bc
00000170: 4079 303e 9dbb 013e 0b10 563e b050 38bc
00000180: 623d f23d 68d2 043e d7d9 503e 9632 fd3c
00000190: a410 0dbe 9bcb 0cbc 12cc d03d 08c7 4dbd
000001a0: ca54 ccbd e555 bf3c e190 7a3e 87a0 70bd
000001b0: 68c1 be3d 598d e93d 41a7 29bb 0c49 8e3e
000001c0: bf39 96bd d0d0 9e3e 1a9b 0ebd e63e c6bd
000001d0: 247e 9e3b 7bc4 283e 6117 543e 20fc e1bc
000001e0: 3bc8 303e c0eb aebd be13 0dbe ef2c c83c
000001f0: 942f 813c c1bb 9b3c c8ee b43d ab51 efbd
00000200: bfce 42bd 4c4b d7bc bc5f 97bc 0161 a0bb
00000210: b330 893d c76f 103d bf1c 5e3d eb3c 7c3e
00000220: 4604 4bbd c899 9f3d 3a44 693d 2a67 543e
00000230: 1207 00be 76df c63d f518 fcbd b40f 4b3d
00000240: acfa 17bd e2c2 103e 17e7 183d 749b 0cbe
00000250: 8e38 ebbc cbd3 e13d 5938 513d 9cbc 5b3d
00000260: cd21 ab3e 08da 103e b5dc febe 4850 4a3d
00000270: 078c b63c d34b a33d 1356 8a3e 36b4 aabd
00000280: 84e7 e63d f008 b33e d559 a7be f561 a33d
00000290: 7fe1 753e 60f9 5b3c 82d7 4b3d 2fe3 053e
000002a0: 3d6b b1bd 5be3 853d 2701 d6bc bbf3 dd3c
000002b0: f787 86be bbc7 343e a250 85be e66b 2fbd
000002c0: 772b 87bd 7e43 81bc 9228 b73d 0e38 25bd
000002d0: 00cf 193e 7196 f4bc 9024 f2bb c14a 063e
000002e0: 5415 193e a31a a83c 71fc 8d3e a3d7 03be
000002f0: 47f3 273d 8191 de3b ed71 c33c bdc8 98bd
00000300: 9987 b83d 9ecf 893e c254 683c 97e0 0d3e
00000310: d742 0abe 1129 663c 944a cd3e 435b 4bbc
00000320: 33e8 ddbd ed66 a9bd 7702 f83c d5c4 313e
00000330: 0067 113e af81 dfbd f611 5abe bf0d aa3c
00000340: 7780 33be 68bd 2dbd 87a7 303e e7e2 6d3e
00000350: d0e6 6e3d 783b a8bd f2be 713e d953 bf3d
00000360: 688d 813d acb0 48bc a033 ab3d d5ce f4bb
00000370: 7fdb 853e 8fa1 cd3d cde1 9abc 4b2c 933e
00000380: da51 063e 6808 0e3d 25c6 233e 6bdd f2bc
00000390: b6d3 c33d 0076 0cbd f5c3 abbe ad00 3dbe
000003a0: c7d8 fc3d 32e4 4fbe be41 c73d debf ac3c
000003b0: b21d 32bc e180 ab3c 7b1f 4ebd 5258 373e
000003c0: aaa1 6abe e679 be3e 4107 983d efb6 163e
000003d0: c8c9 853d f37e 4c3d fd8c 9dbd 4fc5 9dbe
000003e0: eef7 7b3e 9ca0 c9bd 6a02 49be b17b 4d3d
000003f0: c8c4 ef3d 764e 343d 8b12 4cbc a34d 603e

read_encoder.block2.0.bias f4 [128]
0.20810744 0.12122723 -0.09749571 0.054077 -0.07134747 -0.02492024 0.041224953 -0.019429555
-0.14820343 0.030969795 -0.0009799043 -0.057200894 0.13458405 0.24830009 -0.007358234 -0.036818087
0.06556867 -0.024559468 0.15503879 -0.11306431 -0.1313732 0.19934314 0.044798184 -0.021511318
0.12913793 0.17490746 0.030584974 0.1467691 0.16177519 0.1799734 0.03443037 0.15354122
0.08340099 0.21062893 0.04103286 -0.029643683 0.16752435 0.0936191 0.15367994 -0.11943706
0.2822571 -0.053144883 0.1725782 0.16543813 0.27046898 -0.031485822 -0.1114996 0.12684353
0.09120061 -0.08002242 -0.025287151 0.28838393 0.14625113 0.31420645 0.21813281 0.18027
0.21098499 0.17958042 0.034755882 -0.056129485 0.12991033 -0.08708678 0.037528712 0.046047587
0.040224805 0.17275375 -0.01324874 0.019146824 0.21909104 0.07877573 -0.14371233 0.25882664
0.24627003 -0.112859845 0.23732165 0.1488784 -0.0008889747 0.20375535 0.2286556 -0.044364456
-0.016202992 0.058532443 0.08446522 0.011283829 0.045169204 0.013156965 -0.0149476165 0.17029712
-0.015102714 0.21558174 -0.031713795 0.17268513 -0.124772176 0.005196993 -0.084917866 0.008680393
0.08866749 0.066887714 -0.15084648 0.078087054 0.148294 -0.06200233 0.13157673 0.10331606
0.09344738 0.033112813 0.07610288 -0.033177976 0.17817377 0.12428167 0.13123666 0.18552317
0.09353968 0.13917121 0.100519724 0.10045933 0.008646361 0.009173191 0.11093637 -0.06589564
-0.11669581 0.014211404 0.17364787 -0.06844189 0.044121962 0.02978378 -0.07603935 -0.0057590976
00000000: 1e1a 553e fb45 f83d d5ab c7bd d87f 5d3d
00000010: 9f1e 92bd 8825 ccbc 7fdb 283d bb2a 9fbc
00000020: a4c2 17be 5eb4 fd3c 2270 80ba 7c4b 6abd
00000030: 67d0 093e 6142 7e3e 571d f1bb 90ce 16bd
00000040: de48 863d f030 c9bc 7dc2 1e3e 438e e7bd
00000050: b286 06be 9c20 4c3e 4d7e 373d 8138 b0bc
00000060: bc3c 043e f11a 333e 578d fa3c a44a 163e
00000070: 65a8 253e f24a 383e dc06 0d3d e939 1d3e
00000080: 23ce aa3d 1caf 573e 1212 283d 4fd7 f2bc
00000090: 818b 2b3e 5fbb bf3d 465e 1d3e 6b9b f4bd
000000a0: 0184 903e 73ae 59bd 57b8 303e 9d68 293e
000000b0: e97a 8a3e 47f7 00bd e759 e4bd 45e3 013e
000000c0: 63c7 ba3d cbe2 a3bd 0027 cfbc 0fa7 933e
000000d0: dbc2 153e abdf a03e 355e 5f3e b398 383e
000000e0: 730c 583e eee3 373e 2f5c 0e3d 08e8 65bd
000000f0: 3707 053e 8e5a b2bd b5b7 193d 659c 3c3d
00000100: c4c2 243d 5ce6 303e 3e11 59bc cdd9 9c3c
00000110: 6759 603e 2c55 a13d 5329 13be ed84 843e
00000120: 362e 7c3e 1023 e7bd 7204 733e 9473 183e
00000130: 150a 69ba 3ea5 503e b224 6a3e 81b7 35bd
00000140: 23bc 84bc b7bf 6f3d 1afc ac3d cfdf 383c
00000150: 5803 393d 5090 573c d9e6 74bc 5e62 2e3e
00000160: 6071 77bc 76c1 5c3e 53e6 01bd 5fd4 303e
00000170: 8e88 ffbd 894b aa3b 6be9 adbd 3538 0e3c
00000180: 4d97 b53d 6dfc 883d 8077 1abe 1bec 9f3d
00000190: 62da 173e 28f6 7dbd 0dbc 063e 5f97 d33d
000001a0: 5761 bf3d 4da1 073d d4db 9b3d a1e5 07bd
000001b0: 2f73 363e 6387 fe3d e762 063e c9f9 3d3e
000001c0: bb91 bf3d e682 0e3e 49dd cd3d 9fbd cd3d
000001d0: 77a9 0d3c 274b 163c 9c32 e33d 4bf4 86bd
000001e0: 36fe eebd f3d6 683c bfd0 313e 432b 8cbd
000001f0: 3bb9 343d 1dfd f33c 85ba 9bbd d0b6 bcbb

read_encoder.block2.1.weight f4 [128]
0.6218395 0.5742489 1.1961657 0.659761 1.1754426 1.1257969 1.047244 1.2080008
1.4964502 0.82892007 0.8692962 1.1169459 0.9225072 0.6691099 1.0770581 1.2046314
0.83673203 0.9144915 0.8544895 1.2216616 1.070721 0.7885922 1.072089 1.1383117
0.7680558 0.8073199 0.9674222 0.9396557 0.6940187 0.6709162 0.97772235 0.93564
1.0925918 0.7324414 1.119109 1.184158 0.55826694 0.92036384 0.5811688 1.1966165
0.70057654 1.2543525 0.6204385 0.76124334 0.73679656 0.9959784 1.1604286 1.1761148
1.1424531 1.1038249 1.1764905 0.8869057 0.8662674 0.6511502 0.7578374 0.53856814
0.57101375 0.7734055 0.7895994 1.096451 0.65308 1.0635556 1.2224051 1.2915672
1.0229385 0.8239708 1.047061 1.0954511 0.8547276 1.0093831 1.3509878 0.6213941
0.47208065 1.3235165 0.50417805 0.85101986 1.0411172 0.6010459 0.5234805 1.1495547
1.2630203 0.86274 1.0118489 1.0521437 1.2296509 0.8506682 1.1838905 0.69398403
1.0713897 0.59161884 1.0507041 0.8760992 1.0503691 1.1297483 1.1814599 1.0339202
0.97159815 0.64263934 1.1637025 0.97946113 0.8624185 1.200269 1.0366919 0.91285944
0.67182964 0.9966982 0.910133 1.1873903 0.6056933 0.7513933 0.8308563 0.73544735
0.79748344 0.6074656 0.6015381 0.63215953 1.0256976 1.0896997 0.7344611 1.2486438
1.2417091 0.99192774 0.801573 1.1332392 0.92645884 1.1485988 1.2161664 1.2134683
00000000: e030 1f3f fa01 133f f51b 993f 19e6 283f
00000010: e774 963f 1d1a 903f 170c 863f c59f 9a3f
00000020: ae8b bf3f 1b34 543f 328a 5e3f 15f8 8e3f
00000030: 6f29 6c3f c94a 2b3f 0add 893f 5d31 9a3f
00000040: 1234 563f 1d1c 6a3f d3bf 5a3f 685f 9c3f
00000050: 630d 893f 2ee1 493f 363a 893f 33b4 913f
00000060: 4e9f 443f 84ac 4e3f fba8 773f 478d 703f
00000070: 36ab 313f 2ac1 2b3f 034c 7a3f 1a86 6f3f
00000080: 0cda 8b3f 4881 3b3f f73e 8f3f 7d92 973f
00000090: 95ea 0e3f f79c 6b3f 7ac7 143f bb2a 993f
000000a0: fc58 333f 9f8e a03f 0fd5 1e3f d8e0 423f
000000b0: b39e 3c3f 71f8 7e3f ed88 943f ee8a 963f
000000c0: e73b 923f 224a 8d3f 3e97 963f 410c 633f
000000d0: b3c3 5d3f c8b1 263f a201 423f 9adf 093f
000000e0: f52d 123f e7fd 453f 3023 4a3f 8258 8c3f
000000f0: 4030 273f 9722 883f c577 9c3f 1352 a53f
00000100: a6ef 823f c0ef 523f 1806 863f be37 8c3f
00000110: 6ecf 5a3f 7733 813f 2bed ac3f af13 1f3f
00000120: 8eb4 f13e fd68 a93f d011 013f 70dc 593f
00000130: 5443 853f 25de 193f d102 063f 9c24 933f
00000140: a6aa a13f 87dc 5c3f 4484 813f a5ac 863f
00000150: 3365 9d3f 64c5 593f b989 973f f0a8 313f
00000160: 4c23 893f 5574 173f 797d 863f 0a48 603f
00000170: 7f72 863f 989b 903f 143a 973f 7f57 843f
00000180: a8ba 783f 0384 243f 34f4 943f f7bd 7a3f
00000190: 75c7 5c3f 6aa2 993f 52b2 843f 28b1 693f
000001a0: 07fd 2b3f 9d27 7f3f 7afe 683f 68fc 973f
000001b0: b70e 1b3f 505b 403f 00b3 543f 4746 3c3f
000001c0: e027 4c3f de82 1b3f 67fe 193f 35d5 213f
000001d0: 0f4a 833f 487b 8b3f a505 3c3f 8fd3 9f3f
000001e0: 53f0 9e3f faee 7d3f e333 4d3f fb0d 913f
000001f0: 682c 6d3f 4905 933f 57ab 9b3f ee52 9b3f

read_encoder.block2.1.bias f4 [128]
-0.44446555 -0.46141723 -0.17239292 -0.5077538 -0.12896352 -0.30058384 -0.29964337 -0.1831503
-0.2953239 -0.29397717 -0.43099 -0.17230982 -0.49171627 -0.41385615 -0.36874416 -0.19711852
-0.3230624 -0.30798227 -0.32948676 -0.24275854 -0.1793953 -0.38449374 -0.27213955 -0.20816138
-0.28897542 -0.38130623 -0.27457368 -0.343638 -0.31815332 -0.44486213 -0.3072364 -0.34868142
-0.3672291 -0.3299718 -0.19150554 -0.21038745 -0.58798325 -0.21285358 -0.39379022 -0.27865788
-0.3618008 -0.24284258 -0.41566947 -0.36472902 -0.13483271 -0.3445583 -0.17395274 -0.1672044
-0.18623704 -0.34884572 -0.28566924 -0.18300779 -0.13899207 -0.35931522 -0.39137614 -0.5286872
-0.41562623 -0.19616532 -0.4359721 -0.4001426 -0.42085415 -0.38375053 -0.24789792 -0.24922255
-0.14531992 -0.30406198 -0.21137783 -0.36155793 -0.37718126 -0.28953442 -0.3752844 -0.2913786
-0.5226482 -0.24829887 -0.49852985 -0.16959172 -0.10910544 -0.41825807 -0.42053083 -0.3203062
-0.23941249 -0.40019545 -0.35708544 -0.23254094 -0.17046101 -0.39099348 -0.18726659 -0.4834394
-0.23413227 -0.33972922 -0.23751883 -0.15739371 -0.20177026 -0.17367862 -0.1490415 -0.365809
-0.26722997 -0.71409434 -0.15185423 -0.20204544 -0.3605357 -0.18747874 -0.39347547 -0.3851228
-0.3120587 -0.25787967 -0.2450314 -0.2502157 -0.33075702 -0.39264563 -0.35436797 -0.35239244
-0.29539433 -0.2921098 -0.3381823 -0.40281853 -0.378418 -0.25451237 -0.49962234 -0.219831
-0.13040501 -0.22623669 -0.14158325 -0.3180647 -0.4314401 -0.28603753 -0.15986578 -0.31243926
00000000: fd90 e3be e13e ecbe c587 30be 27fc 01bf
00000010: 030f 04be 20e6 99be db6a 99be c18b 3bbe
00000020: b234 97be 2d84 96be b9aa dcbe fc71 30be
00000030: 3cc2 fbbe f4e4 d3be 09cc bcbe 70d9 49be
00000040: 6f68 a5be daaf 9dbe 7db2 a8be b295 78be
00000050: 67b3 37be 5ddc c4be e055 8bbe 4228 55be
00000060: 96f4 93be 923a c3be ec94 8cbe 52f1 afbe
00000070: fee4 a2be f8c4 e3be 174e 9dbe 5f86 b2be
00000080: 7405 bcbe 10f2 a8be 071a 44be cf6f 57be
00000090: 1286 16bf 4af6 59be df9e c9be 3fac 8ebe
000000a0: f43d b9be baab 78be a1d2 d4be c3bd babe
000000b0: 9611 0abe f269 b0be ab20 32be a137 2bbe
000000c0: ecb4 3ebe e89b b2be 3d43 92be 6566 3bbe
000000d0: f053 0ebe 2af8 b7be 7462 c8be 0b58 07bf
000000e0: f6cc d4be 90df 48be bc37 dfbe 7edf ccbe
000000f0: 327a d7be f37a c4be f4d8 7dbe 3234 7fbe
00000100: bfce 14be 03ae 9bbe 6e73 58be 1f1e b9be
00000110: e71d c1be db3d 94be 4725 c0be 932f 95be
00000120: 46cc 05bf 0f42 7ebe 4e3f ffbe 74a9 2dbe
00000130: ac72 dfbd ec25 d6be d14f d7be 2dff a3be
00000140: 8c28 75be 6be6 ccbe e7d3 b6be 361f 6ebe
00000150: 558d 2ebe 4c30 c8be d0c2 3fbe 5e85 f7be
00000160: 5fc0 6fbe fdf0 adbe 2338 73be d12b 21be
00000170: dd9c 4ebe cfd8 31be 569e 18be 514b bbbe
00000180: 5ed2 88be e3ce 36bf ad7f 1bbe 00e5 4ebe
00000190: 2398 b8be 6dfa 3fbe 9e75 c9be d12e c5be
000001a0: 28c6 9fbe ce08 84be 83e9 7abe 461c 80be
000001b0: fc58 a9be d908 c9be b86f b5be c86c b4be
000001c0: ed3d 97be 6a8f 95be 3b26 adbe 3b3e cebe
000001d0: 01c0 c1be 724f 82be 80ce ffbe 611b 61be
000001e0: e488 05be 97aa 67be 33fb 10be 60d9 a2be
000001f0: b7e5 dcbe 8373 92be dbb3 23be 0af8 9fbe

read_encoder.block3.0.weight f4 [128, 128]
-0.08555379 -0.22408122 -0.05385029 0.056135602 0.0042166733 0.11204358 0.12640679 -0.078754336
0.0155756865 0.08738334 -0.05712404 0.23117076 0.23048799 0.12768644 -0.023570618 -0.06817204
0.07451208 0.008736514 0.16631864 0.18167883 -0.20639262 0.13336128 0.16651343 0.11681438
-0.05706478 -0.0334084 0.08521026 0.006867588 0.09141984 0.096099705 0.03763347 0.14097151
0.16690241 0.1279346 0.038304094 -0.30942744 0.052542098 0.079670995 -0.032619014 0.023735026
-0.015884379 -0.0851985 0.16613436 0.0036344058 0.16483945 0.048320908 0.052002013 -0.008606745
0.12897146 0.06935858 -0.0057452987 0.22711238 0.15441948 0.14333183 0.10555343 0.15528825
0.07685821 0.023207128 -0.10060538 -0.25407386 0.038681943 0.19121937 0.2322772 0.32859173
0.07052268 0.018461654 0.031014603 0.089178234 0.0509196 0.09889484 -0.17161447 -0.021630146
0.052320976 0.33703956 -0.012660777 0.10418549 0.031895332 0.11008188 -0.049749468 0.121690065
-0.21431357 -0.11509587 0.0749438 -0.08759734 -0.0006343351 -0.106554635 -0.1533438 0.018493136
-0.11730263 0.023923319 -0.153066 0.09975221 0.1292155 0.10436375 -0.21511081 -0.014831463
0.098232 0.0022487957 -0.0707034 0.06596419 0.115844995 0.12816942 0.21268521 0.17194462
0.013780845 -0.0011798594 0.24387568 0.22620484 -0.098505765 -0.008115979 -0.0024504124 0.037055217
-0.02860752 0.05222982 0.13099775 0.16932458 0.035656616 0.066818915 0.18358754 0.29941475
0.0021417013 0.019082965 0.14805847 0.08231234 0.022542894 -0.11199666 -0.050663978 -0.2990321
0.21084633 0.06618787 0.03594223 -0.1429985 -0.039553676 0.045449264 0.08570626 0.15805237
-0.007974047 0.045220602 0.12788375 -0.27335212 -0.12225735 0.3310553 -0.13528684 0.12986028
0.34780872 -0.15880209 -0.021540763 0.5147904 -0.3004554 0.11983231 -0.14262559 0.14765112
0.15938847 0.11100715 -0.10733946 0.025669262 0.085022636 0.00996282 -0.269015 0.10780372
0.22011302 0.06863198 0.026144095 -0.0025407684 0.09171625 0.085000806 0.08674162 -0.36663175
0.33665493 0.034376696 0.17590015 0.29436362 -0.06645778 -0.022125648 -0.7567777 0.27842772
-0.23020662 -0.08001499 -0.17244454 -0.20152505 0.07188667 0.22781436 0.090260506 -0.10883923
-0.1615651 0.09257942 0.047934864 0.10619696 0.28729045 -0.30896264 0.06617451 0.29746553
-0.18136153 0.059382755 -0.4389923 0.25200257 0.32825914 -0.07758818 -0.13803405 0.20871772
0.18026988 0.3114725 0.21356851 0.1266805 -0.21924275 -0.28160873 0.0635826 0.16419375
0.08010978 0.22993885 0.29385287 -0.20497447 0.11953324 0.033749554 0.13751313 0.3740276
0.10722137 0.16330136 0.04224205 -0.15489079 0.5880895 -0.3758895 -0.30123836 0.3537085
-0.074061505 0.18308313 -0.41741428 -0.09334786 -0.054045934 -0.055118915 -0.026320085 0.23515107
-0.17411669 -0.05283079 0.20064147 0.35328498 0.38508263 -0.0535857 0.27142394 0.22759292
-0.0886251 0.1478143 -0.088167734 -0.055350088 0.22748893 -0.3650986 -0.10602122 0.15935057
-0.15380165 0.06288837 0.2273234 -0.056679726 -0.13624965 0.06642896 -0.271611 0.14537987
00000000: d336 afbd 8c75 65be 1f92 5cbd 72ee 653d
00000010: 052c 8a3b 1b77 e53d c870 013e f449 a1bd
00000020: 2a31 7f3c 09f6 b23d e6fa 69bd 07b8 6c3e
00000030: 0b05 6c3e 3cc0 023e 2b17 c1bc c89d 8bbd
00000040: ca99 983d 9823 0f3c 6f4f 2a3e 040a 3a3e
00000050: 9658 53be dc8f 083e 7f82 2a3e 613c ef3d
00000060: c2bc 69bd 3fd7 08bd b782 ae3d 8109 e13b
00000070: 533a bb3d eccf c43d 8e25 1a3d d65a 103e
00000080: 77e8 2a3e 4a01 033e c1e4 1c3d 466d 9ebe
00000090: 6236 573d 8c2a a33d 849b 05bd f56f c23c
000000a0: f51f 82bc 8d7c aebd 201f 2a3e 362f 6e3b
000000b0: accb 283e 25ec 453d 1000 553d 4e03 0dbc
000000c0: 1811 043e df0b 8e3d 0f43 bcbb 2690 683e
000000d0: 2420 1e3e 94c5 123e 662c d83d e203 1f3e
000000e0: d667 9d3d e01c be3c 320a cebd f815 82be
000000f0: f570 1e3d 03cf 433e 13da 6d3e 2d3d a83e
00000100: 326e 903d e53c 973c 5612 fe3c 14a3 b63d
00000110: 1291 503d 6189 ca3d b4bb 2fbe b431 b1bc
00000120: 854e 563d 7390 ac3e 266f 4fbc 345f d53d
00000130: aea4 023d 9c72 e13d 19c6 4bbd a438 f93d
00000140: 0475 5bbe 62b7 ebbd 237c 993d 3c66 b3bd
00000150: 8249 26ba 5139 dabd 2806 1dbe eb7e 973c
00000160: 5c3c f0bd d6fa c33c 55bd 1cbe e34a cc3d
00000170: 1151 043e a9bc d53d 0246 5cbe aaff 72bc
00000180: dc2d c93d 8860 133b f2cc 90bd 3c18 873d
00000190: 2440 ed3d d83e 033e 27ca 593e 4012 303e
000001a0: 0ec9 613c 83a5 9aba 8cba 793e 3ea2 673e
000001b0: 64bd c9bd e2f8 04bc 1997 20bb 36c7 173d
000001c0: 515a eabc f0ee 553d 4624 063e 6c63 2d3e
000001d0: ac0c 123d 5bd8 883d 5ffe 3b3e e44c 993e
000001e0: c95b 0c3b e153 9c3c a49c 173e 5f93 a83d
000001f0: e0ab b83c 815e e5bd 0885 4fbd bc1a 99be
00000200: 1ae8 573e 828d 873d 2938 133d 336e 12be
00000210: 0903 22bd 0229 3a3d c386 af3d 7bd8 213e
00000220: 94a5 02bc 3d39 393d f5f3 023e cff4 8bbe
00000230: 1062 fabd 1580 a93e a288 0abe 18fa 043e
00000240: fc13 b23e 049d 22be 4176 b0bc 4ec9 033f
00000250: 4ad5 99be a46a f53d 710c 12be db31 173e
00000260: bb36 233e b757 e33d cad4 dbbd 5848 d23c
00000270: 5920 ae3d 193b 233c 56bc 89be 32c8 dc3d
00000280: 4f65 613e ec8e 8c3d 242c d63c 0583 26bb
00000290: bbd5 bb3d e714 ae3d 97a5 b13d 28b7 bbbe
000002a0: 095e ac3e 94ce 0c3d 2b1f 343e d4b6 963e
000002b0: 041b 88bd d940 b5bc 2fbc 41bf 148e 8e3e
000002c0: 49bb 6bbe e6de a3bd 4d95 30be 955c 4ebe
000002d0: 5239 933d 2b48 693e 80da b83d 1ae7 debd
000002e0: 5271 25be 479a bd3d 5957 443d cb7d d93d
000002f0: bc17 933e 5a30 9ebe 8086 873d 674d 983e
00000300: d6b6 39be 553b 733d 99c3 e0be 7b06 813e
00000310: 9511 a83e 8de6 9ebd cc58 0dbe 19ba 553e
00000320: ab98 383e 5379 9f3e b4b1 5a3e 88b8 013e
00000330: 2c81 60be 052f 90be 9837 823d 6822 283e
00000340: 9910 a43d 1775 6b3e e273 963e d4e4 51be
00000350: d8cd f43d f93c 0a3d 3ed0 0c3e 8c80 bf3e
00000360: e196 db3d 7938 273e 0006 2d3d b19b 1ebe
00000370: 098d 163f 9774 c0be ea3b 9abe 4819 b53e
00000380: 8fad 97bd 257a 3b3e 53b7 d5be 2a2d bfbd
00000390: 455f 5dbd 5fc4 61bd 389d d7bc 71cb 703e
000003a0: a54b 32be 1965 58bd f574 4d3e c5e1 b43e
000003b0: 8d29 c53e ae7c 5bbd 14f8 8a3e 1e0e 693e
000003c0: 1481 b5bd a25c 173e 4991 b4bd c6b6 62bd
000003d0: dcf2 683e 34ee babe a721 d9bd cc2c 233e
000003e0: 2e7e 1dbe 9ecb 803d 77c7 683e 0029 68bd
000003f0: 0785 0bbe e80b 883d 9910 8bbe 76de 143e

read_encoder.block3.0.bias f4 [128]
0.030458024 0.16643414 -0.08368008 0.118956156 -0.14856775 -0.0847938 0.1605202 0.12099925
0.031120729 0.008078022 -0.01923492 -0.14370985 0.16855778 0.18291155 -0.10214618 0.089083366
0.074509755 0.17020458 0.15741305 -0.013899468 0.22743484 0.08688804 0.06337845 -0.009446031
0.18665317 0.13451909 0.0136140715 0.18073454 0.07236437 0.08401342 0.1830528 0.19053945
0.15441576 -0.006265447 -0.010432372 0.014613892 0.02566702 0.08296337 0.041744653 0.10140322
0.07837801 0.0048046145 0.030093376 -0.0955895 -0.054994512 0.15610994 0.075624906 0.018244097
0.08429768 -0.080400005 0.08060007 0.053237468 -0.025719646 0.048316725 0.175527 0.11865391
0.18967932 0.1073282 -0.044358104 0.06410271 0.022928094 -0.09877697 0.075951554 0.14412716
0.08322816 0.17143062 0.18308449 0.012333832 0.115034655 0.20474835 0.1535041 0.13379319
-0.01828594 0.024836149 0.14217839 -0.08302098 0.025405193 0.0012507546 0.006581223 -0.086384974
-0.0686219 0.08989488 0.07802395 0.051553942 0.010509935 0.05742491 0.121009365 0.11070782
-0.023456708 0.1325448 0.16471636 -0.0019081983 -0.0925079 -0.008092332 0.00570451 0.022967877
0.08668871 0.041212242 -0.00800685 0.031958837 0.18940401 -0.23413391 0.17935453 0.04373764
-0.0010322897 -0.047604155 0.07071812 -0.21619935 0.03825184 0.08635635 0.166429 0.087968126
0.089472435 0.036904655 0.032038335 0.16823341 0.04832955 0.11500091 -0.023694463 0.14106944
-0.055420242 -0.1520872 -0.092615165 -0.09881881 -0.004573626 -0.053750753 0.22007227 0.13543968
00000000: 1b83 f93c b66d 2a3e 7660 abbd 499f f33d
00000010: 2522 18be 5fa8 adbd 685f 243e 74ce f73d
00000020: e6f0 fe3c ae59 043c 8d92 9dbc ad28 13be
00000030: 699a 2c3e 2a4d 3b3e 0432 d1bd 5771 b63d
00000040: 9298 983d 1c4a 2e3e e330 213e 98ba 63bc
00000050: aee4 683e 5bf2 b13d 90cc 813d 87c3 1abc
00000060: 0222 3f3e 5fbf 093e 8e0d 5f3c 7a12 393e
00000070: c533 943d 3a0f ac3d 3172 3b3e c61c 433e
00000080: 2a1f 1e3e 614e cdbb 8aec 2abc 1b6f 6f3c
00000090: a443 d23c b3e8 a93d 71fc 2a3d 7eac cf3d
000000a0: a684 a03d 0770 9d3b 6286 f63c 6ec4 c3bd
000000b0: ed41 61bd 49db 1f3e 3be1 9a3d a574 953c
000000c0: 43a4 ac3d c2a8 a4bd a611 a53d 880f 5a3d
000000d0: 02b2 d2bc c2e7 453d 5abd 333e d200 f33d
000000e0: 4c3b 423e e3ce db3d d8b0 35bd 4848 833d
000000f0: b3d3 bb3c 944b cabd 7d8c 9b3d 1296 133e
00000100: 8773 aa3d 828b 2f3e 807a 3b3e d713 4a3c
00000110: 4a97 eb3d 8da9 513e 2e30 1d3e 1501 093e
00000120: 65cc 95bc 2e75 cb3c 3697 113e e706 aabd
00000130: 8d1e d03c 5cf0 a33a 4da7 d73b 9bea b0bd
00000140: a489 8cbd cf1a b83d 05cb 9f3d 3a2a 533d
00000150: dd31 2c3c 6236 6b3d c2d3 f73d c8ba e23d
00000160: 4828 c0bc d3b9 073e 68ab 283e 831c faba
00000170: c874 bdbd b395 04bc e6ec ba3b 2127 bc3c
00000180: da89 b13d 2bce 283d 2a2f 03bc 45e7 023d
00000190: 20f3 413e cdc0 6fbe b7a8 373e 3d26 333d
000001a0: e54d 87ba 93fc 42bd a9d4 903d 5d63 5dbe
000001b0: f6ad 1c3d 99db b03d 5d6c 2a3e a228 b43d
000001c0: 533d b73d 5629 173d a13a 033d 6145 2c3e
000001d0: 35f5 453d 9985 eb3d e41a c2bc 8274 103e
000001e0: 5600 63bd bfbc 1bbe 05ad bdbd 8461 cabd
000001f0: 5bde 95bb c029 5cbd a05a 613e b3b0 0a3e

read_encoder.block3.1.weight f4 [128]
0.6708016 0.86310977 1.5457125 0.47222114 1.0264056 0.9525761 0.8626938 1.0041192
1.1769491 0.80891556 1.1193544 1.0767691 0.83601433 0.6536226 0.82849 0.93745196
0.807403 0.69521266 0.8254225 0.8239502 0.85446405 0.841797 0.4825457 1.1453713
0.89266175 0.93073225 0.8012304 0.8293189 1.0652312 0.8430006 0.8406829 0.8364616
0.8891255 1.3044626 0.8337704 1.2414751 0.5429867 1.140232 0.48826915 0.9198839
0.78573555 1.1777079 0.83298767 0.9113303 1.5017643 0.9831788 0.89400584 1.2092408
1.154347 1.1326253 0.86416006 1.1396706 1.3531318 0.74201787 0.7656154 0.7175292
0.7758854 1.219 0.52298343 0.7431758 0.78259975 1.0569237 0.91760135 0.8929068
1.150208 0.83460283 0.9981853 0.7205507 0.79345816 0.829402 1.0409913 0.7130563
0.7662378 0.827436 0.83596927 1.5377145 1.2953728 0.47816697 0.7316595 1.1552004
1.5957483 0.84481 0.62048936 1.0028342 1.036737 0.8301803 1.2440922 0.7429415
1.3105828 0.8298401 0.9570989 1.1562513 1.2825627 1.1809715 0.8766853 0.5838888
0.8106817 0.7059417 1.2552888 0.56561315 0.8435989 1.3274391 0.96194166 0.7652293
0.8564298 0.8800438 1.0981687 1.0995454 0.86303896 0.50905335 0.7276802 0.8592699
0.82194537 0.78241426 0.5712258 0.8245586 0.8704677 0.9551307 0.93408114 0.8315656
1.6630982 1.2056946 1.4513566 1.0671515 0.67294383 1.3325878 0.82759136 0.83880275
00000000: a7b9 2b3f c3f4 5c3f e8d9 c53f f8c6 f13e
00000010: 4261 833f 07dc 733f 80d9 5c3f fa86 803f
00000020: 45a6 963f 1715 4f3f 0147 8f3f 92d3 893f
00000030: 0905 563f d053 273f ec17 543f dafc 6f3f
00000040: f7b1 4e3f 75f9 313f e44e 533f 66ee 523f
00000050: 28be 5a3f 0280 573f 3b10 f73e 879b 923f
00000060: 7b85 643f 7844 6e3f 6f1d 4d3f 3e4e 543f
00000070: 7f59 883f e3ce 573f ff36 573f 5922 563f
00000080: bb9d 633f a1f8 a63f fa71 553f a8e8 9e3f
00000090: 2d01 0b3f 1ff3 913f 6afe f93e 837d 6b3f
000000a0: f725 493f 22bf 963f ae3e 553f f14c 693f
000000b0: d039 c03f 9bb1 7b3f 91dd 643f 67c8 9a3f
000000c0: a4c1 933f def9 903f 9839 5d3f bae0 913f
000000d0: 6c33 ad3f e2f4 3d3f 5fff 433f feaf 373f
000000e0: 6da0 463f 3108 9c3f 3ee2 053f c540 3e3f
000000f0: 7558 483f 4749 873f ece7 6a3f 8a95 643f
00000100: 043a 933f 88a8 553f 1289 7f3f 0376 383f
00000110: 1320 4b3f b153 543f 343f 853f dc8a 363f
00000120: 2928 443f d8d2 533f 1502 563f d4d3 c43f
00000130: c7ce a53f 4dd2 f43e 094e 3b3f 9bdd 933f
00000140: 7b41 cc3f 7845 583f 64d8 1e3f df5c 803f
00000150: ccb3 843f b286 543f 6a3e 9f3f 6a31 3e3f
00000160: 2dc1 a73f 6770 543f 6f04 753f 0b00 943f
00000170: 042b a43f 132a 973f 736e 603f bd79 153f
00000180: d688 4f3f 98b8 343f 4ead a03f 06cc 103f
00000190: 19f6 573f 86e9 a93f cf41 763f 11e6 433f
000001a0: fc3e 5b3f 8d4a 613f cb90 8c3f e7bd 8c3f
000001b0: 1ff0 5c3f 5251 023f 4049 3a3f 1df9 5b3f
000001c0: 036b 523f 4d4c 483f db3b 123f 4616 533f
000001d0: f9d6 5e3f 7283 743f f11f 6f3f 7ce1 543f
000001e0: 67e0 d43f 3354 9a3f 0ec6 b93f 6c98 883f
000001f0: 0c46 2c3f 3d92 aa3f 07dd 533f c7bb 563f

read_encoder.block3.1.bias f4 [128]
-0.3595936 -0.26295587 -0.18667969 -0.5290709 -0.22574353 -0.22855 -0.09719759 -0.08684847
-0.09767971 -0.17646359 -0.53620565 -0.17438735 -0.1434211 -0.26844484 -0.2894928 -0.11814374
-0.12091709 -0.1876227 -0.108796425 -0.2430754 -0.12177787 -0.12959093 -0.36279467 -0.04017845
-0.07744407 -0.1286861 -0.27795434 -0.104780905 -0.10212841 -0.12835567 -0.059010077 -0.12238268
-0.11464571 -0.2352107 -0.27780205 -0.16395096 -0.6131214 -0.104556784 -0.011295913 -0.099724606
-0.14229184 -0.15696664 -0.12802218 -0.29638523 -0.116421185 -0.04864146 -0.07790971 -0.07689138
-0.074445345 -0.1894162 -0.10177656 -0.0916207 -0.15722017 -0.16911069 -0.16201755 -0.20100464
-0.21597093 -0.12209297 -0.46456254 -0.19319123 -0.25769073 -0.29211822 -0.27756494 -0.12708534
-0.11893332 -0.102867745 -0.051521946 -0.32716838 -0.15114246 -0.12617779 -0.045784254 -0.31705907
-0.4158365 -0.2913853 -0.18654813 -0.19673118 -0.07219876 -0.4217971 -0.22479288 -0.26699606
-0.30317718 -0.13904206 -0.37407452 -0.055123694 -0.1236164 -0.114086665 -0.1572208 -0.20393093
-0.10833177 -0.13612732 -0.095187694 -0.083948895 -0.1743007 -0.0929418 -0.12484128 -0.3365061
-0.14494555 -0.40211505 -0.046616264 -0.3649824 -0.18240248 -0.37598503 -0.09793706 -0.20543683
-0.32195652 -0.38578218 -0.09740941 -0.37770846 -0.1129439 -0.2970551 -0.18339267 -0.086439
-0.12482218 -0.15555969 -0.21723887 -0.20476697 -0.5159418 -0.08018241 -0.38565844 -0.19375926
-0.39355987 -0.09396141 -0.19179028 -0.16568647 -0.24187315 -0.07608252 -0.14098075 -0.102025755
00000000: a71c b8be 27a2 86be f628 3fbe 3171 07bf
00000010: 5029 67be 0309 6abe 880f c7bd 9cdd b1bd
00000020: 4d0c c8bd dfb2 34be c644 09bf 9992 32be
00000030: fbdc 12be 9a71 89be 6638 94be 58f5 f1bd
00000040: 61a3 f7bd 2a20 40be a9d0 debd c2e8 78be
00000050: ad66 f9bd 7cb3 04be 39c0 b9be 2992 24bd
00000060: ff9a 9ebd 4ac6 03be 0850 8ebe 5f97 d6bd
00000070: b328 d1bd ab6f 03be 8db4 71bd c5a3 fabd
00000080: 5fcb eabd 13db 70be 123c 8ebe c3e2 27be
00000090: 86f5 1cbf de21 d6bd 7e12 39bc 6a3c ccbd
000000a0: f4b4 11be ddbb 20be 3f18 03be cebf 97be
000000b0: 3b6e eebd 443c 47bd 208f 9fbd 3a79 9dbd
000000c0: cd76 98bd 52f6 41be 3b70 d0bd a2a3 bbbd
000000d0: 53fe 20be 5a2b 2dbe eee7 25be 29d4 4dbe
000000e0: 7c27 5dbe e10b fabd 24db edbe ecd3 45be
000000f0: 0af0 83be 8590 95be fe1c 8ebe a922 02be
00000100: 5093 f3bd 53ac d2bd ad08 53bd 9d82 a7be
00000110: 17c5 1abe c034 01be 4588 3bbd 9155 a2be
00000120: 86e8 d4be 7430 95be 7906 3fbe e673 49be
00000130: f2dc 93bd caf5 d7be 1b30 66be b5b3 88be
00000140: 0a3a 9bbe 0b61 0ebe b286 bfbe 62c9 61bd
00000150: 982a fdbd 45a6 e9bd 7dfe 20be 45d3 50be
00000160: 0cdd ddbd f664 0bbe c4f1 c2bd 66ed abbd
00000170: e27b 32be 4558 bebd c9ac ffbd 874a acbe
00000180: 9b6c 14be 06e2 cdbe b2f0 3ebd f9de babe
00000190: b7c7 3abe 1c81 c0be 3a93 c8bd 085e 52be
000001a0: 7cd7 a4be 3e85 c5be 967e c7bd 0163 c1be
000001b0: 224f e7bd 9b17 98be 4acb 3bbe ee06 b1bd
000001c0: c5a2 ffbd 0a4b 1fbe de73 5ebe 6fae 51be
000001d0: c314 04bf ad36 a4bd 0675 c5be d468 46be
000001e0: ae80 c9be d76e c0bd ac64 44be b7a9 29be
000001f0: 98ad 77be 27d1 9bbd 425d 10be e1f2 d0bd

bag_predictor.weight f4 [1, 128]
-0.030915242 -0.03018858 -0.17452128 0.0055117807 0.15947373 0.056956314 -0.055591095 -0.10318449
-0.21408899 -0.034664955 0.069839776 0.14671631 -0.03965238 -0.033115968 0.09527779 -0.08882779
-0.05164831 -0.029695796 -0.044551533 0.048253715 -0.048873845 -0.03884407 -0.020281246 -0.13399574
-0.062636755 -0.042001206 0.0624227 -0.051296428 -0.07241004 -0.041331872 -0.044666514 -0.042043556
-0.051563576 -0.11543307 0.14764816 -0.20201941 0.010774412 -0.10694739 -0.05438435 -0.03744546
-0.047625497 -0.13202746 -0.03441664 0.059107397 -0.15485427 -0.053199623 -0.044727635 -0.20543362
-0.14142948 0.16130759 -0.05013987 -0.105448164 -0.18215197 -0.057402402 -0.04161894 -0.04604475
-0.051507752 -0.13824412 0.11817138 -0.043927282 -0.043213684 0.16904674 -0.02287866 -0.038543094
-0.15877034 -0.050412014 -0.034827393 0.088617876 -0.051177796 -0.042404216 -0.028799895 -0.0056537134
0.0889167 0.12783918 -0.05088069 -0.21597984 -0.16297778 -0.020091191 -0.051941335 0.045419004
-0.19692619 -0.04615189 -0.002132129 -0.03791788 -0.13309284 -0.04096817 -0.11657839 -0.036916487
-0.14072846 -0.043550964 -0.05535046 -0.11284132 0.25502166 -0.15465888 -0.033034384 0.01826304
-0.056154203 0.069190495 -0.12131525 -0.016511275 -0.03178552 0.28644943 -0.070698746 -0.039385375
0.013962846 0.0482435 -0.103008695 0.19784166 -0.039567214 -0.012589663 -0.043422986 -0.057235233
-0.042683743 -0.02988912 -0.0035711378 -0.041583877 0.025629353 -0.034112576 0.10618064 -0.042620372
-0.30390114 0.25816908 -0.19160567 0.22550537 -0.01900938 -0.16805214 -0.05619185 -0.044344313
00000000: f641 fdbc 0a4e f7bc b5b5 32be 2b9c b43b
00000010: 154d 233e 064b 693d 7db3 63bd 6452 d3bd
00000020: 253a 5bbe d7fc 0dbd 2808 8f3d cd3c 163e
00000030: 896a 22bd 9ca4 07bd 0121 c33d 58eb b5bd
00000040: 2e8d 53bd 9944 f3bc ab7b 36bd b0a5 453d
00000050: f12f 48bd f61a 1fbd db24 a6bc 2e36 09be
00000060: b347 80bd 7509 2cbd f2ae 7f3d 341c 52bd
00000070: b74b 94bd 9c4b 29bd 3cf4 36bd dd35 2cbd
00000080: 5434 53bd 2c68 ecbd 1431 173e 2dde 4ebe
00000090: 2987 303c 3c07 dbbd 20c2 5ebd 6960 19bd
000000a0: f412 43bd 3532 07be 76f8 0cbd 991a 723d
000000b0: 1e92 1ebe d9e7 59bd 5334 37bd 315d 52be
000000c0: e4d2 10be d12d 253e 775f 4dbd 35f5 d7bd
000000d0: 0c86 3abe c81e 6bbd 9f78 2abd 6b99 3cbd
000000e0: cbf9 52bd de8f 0dbe d603 f23d 18ed 33bd
000000f0: d500 31bd 971a 2d3e 076c bbbc 5ddf 1dbd
00000100: b194 22be d47c 4ebd 2ba7 0ebd 4a7d b53d
00000110: cf9f 51bd 0bb0 2dbd c2ed ebbc c942 b9bb
00000120: f519 b63d 46e8 023e 4568 50bd d229 5dbe
00000130: a6e3 26be 4896 a4bc 70c0 54bd 4709 3a3d
00000140: 05a7 49be c409 3dbd 30bb 0bbb c74f 1bbd
00000150: 7d49 08be 3dce 27bd a7c0 eebd be35 17bd
00000160: 1f1b 10be 7f62 32bd 2ab7 62bd 5a19 e7bd
00000170: 3392 823e e65e 1ebe 104f 07bd 5f9c 953c
00000180: f301 66bd bfb3 8d3d 2174 f8bd a742 87bc
00000190: 8931 02bd 80a9 923e 81ca 90bd 8f52 21bd
000001a0: 6cc4 643c fa9a 453d 39f6 d2bd 0197 4a3e
000001b0: 3b11 22bd e044 4ebc 4ddc 31bd 7e6f 6abd
000001c0: 26d5 2ebd 07da f4bc c009 6abb db53 2abd
000001d0: a6f4 d13c a1b9 0bbd 3c75 d93d b392 2ebd
000001e0: ee98 9bbe bd2e 843e 4734 44be e1ea 663e
000001f0: 8fb9 9bbc dc15 2cbe 6d29 66bd 62a2 35bd
