m6aReplica/3d_66/Models/epoch60_rocauc0.900_valpr0.400_valscore1.299.pth (torch, 152221 bytes, 13 tensors)

read_encoder.block1.0.weight f4 [128, 18]
0.36651084 0.74224216 -0.08653189 1.3319643 -1.138563 0.020061785 0.83299875 0.26140618
0.45773402 -0.21383321 0.09915231 -0.15077206 -0.09417795 -0.1995869 -0.14079937 0.15313557
0.13277596 -0.028187023 -0.62846243 0.3285554 -0.15315397 -1.3817976 0.08401232 0.33277854
-1.0965768 0.3670171 -0.09182366 -0.048194632 0.13365659 -0.28528255 0.31538054 -0.11717012
0.4483693 -0.08090513 -0.31469876 0.18065399 0.7960082 -0.22147028 0.035363667 1.6997313
0.40723816 -0.1861369 0.8386996 0.1310767 0.21955752 -0.1594519 0.35001543 0.07820225
0.062267747 -0.23939644 -0.53173274 -0.042296812 -0.44925106 0.23613687 1.0846606 0.10000425
0.14198704 1.1947138 0.16630392 -0.25203377 1.4764692 -0.04559933 0.17682038 -0.13612387
0.43399137 -0.082916826 -0.046262976 -0.22880943 -0.35418049 0.04569999 0.41459605 0.12634106
-0.77919346 -0.5266665 -0.15276414 -2.4384236 -0.58671784 0.42356753 -0.87564397 0.2748225
-0.046846963 -0.12980588 -0.06315398 -0.08240592 0.00498124 -0.020753188 0.008503254 0.024667392
-0.038336936 0.03879869 0.6786591 0.36760846 0.2813095 1.8472173 -0.6811462 -0.17063093
0.63375336 -0.18254073 -0.058274 -0.21625808 0.0026382837 0.22213052 -0.11791234 -0.19900738
-0.09740812 -0.059322923 -0.085327 -0.06488666 1.1245563 0.092766754 0.3859543 1.9548641
0.14237975 -0.31412077 -0.21691994 0.16593303 0.07846717 -0.1606005 -0.24618518 -0.13396057
-0.09717495 -0.011478996 0.07721251 -0.05096181 -0.15097845 -0.18857159 -0.76499504 -0.3252421
0.28502408 -0.71824634 0.4073474 0.23211579 -1.3053644 0.069335885 -9.3535935e-05 -0.07515704
-0.36672422 -0.24480712 -0.08936507 -0.08679275 0.023411049 -0.028980572 0.086492546 0.055382986
1.1761444 0.05870773 0.17020123 0.47704294 0.0868329 -0.2929977 0.81639946 -0.010408718
0.038998004 -0.20259753 0.6232972 -0.07681183 0.020252442 0.39378875 -0.044648413 0.18686248
0.48630106 -0.0063536232 -0.90231776 -0.94625854 0.08872469 -2.1560388 -0.9312432 0.39009315
-0.59766865 -0.8865724 -0.22032176 -0.14615975 0.0044220504 -0.07062625 -0.10535273 -0.045237478
0.0100934515 0.055458926 0.002865919 -0.0325868 -1.3282696 0.52716494 0.03577246 -2.825866
0.52089727 0.30768272 -1.2121441 -0.07200105 -0.18666333 -0.04132125 -0.16252002 -0.09006289
0.032368522 0.05052948 0.039997634 0.0022718399 -0.04890491 0.03833329 -0.3109728 0.66668266
-0.17300044 -1.0128434 -0.33124745 0.12155871 -0.2340961 -1.4294289 -0.031055689 -0.16454652
0.02014284 0.50409687 -0.003717033 0.0005062285 -0.16823618 -0.03718193 0.15401365 0.5236453
-0.32829916 0.24096157 0.16493987 -1.5200741 -1.8091298 0.25616577 0.9953438 -0.8013637
-0.37114808 0.0072861672 0.15777907 -0.021503981 -0.18427183 -0.368948 0.06265757 0.061360747
-0.04862041 0.029268024 1.4133441 0.66560495 0.23148607 0.78898066 -1.0721096 -0.21675317
0.49013475 -0.13858706 0.15318139 -0.14515805 -0.056860942 -0.07870797 0.01769524 0.06468992
-0.104142256 -0.007097584 -0.41786075 -0.10372069 1.4701083 -0.034273025 -0.008076276 -1.3530198
00000000: 4fa7 bb3e 9503 3e3f a237 b1bd ce7d aa3f
00000010: 6fbc 91bf 9d58 a43c 683f 553f 08d7 853e
00000020: 1d5c ea3e 18f7 5abe 5e10 cb3d fe63 1abe
00000030: 5ee0 c0bd 8260 4cbe b62d 10be 92cf 1c3e
00000040: 6cf6 073e 79e8 e6bc eae2 20bf 6a38 a83e
00000050: 65d4 1cbe bede b0bf a70e ac3d f361 aa3e
00000060: a15c 8cbf aae9 bb3e 0b0e bcbd bc67 45bd
00000070: 46dd 083e 8e10 92be 8f79 a13e e3f6 efbd
00000080: a990 e53e 97b1 a5bd 3220 a1be 5cfd 383e
00000090: 32c7 4b3f 1bc9 62be 7ed9 103d cc90 d93f
000000a0: 8581 d03e ac9a 3ebe 04b5 563f f838 063e
000000b0: b0d3 603e 5c47 23be 3935 b33e 8028 a03d
000000c0: 770c 7f3d 5724 75be a31f 08bf 6c3f 2dbd
000000d0: 3c04 e6be ddcd 713e 29d6 8a3f 07cf cc3d
000000e0: 0d65 113e 62ec 983f 934b 2a3e 920a 81be
000000f0: f1fc bc3f 5dc6 3abd 6710 353e 0e64 0bbe
00000100: 1e34 de3e 4cd0 a9bd 3f7e 3dbd 054d 6abe
00000110: 2557 b5be ea2f 3b3d ef45 d43e 8d5f 013e
00000120: 3979 47bf 9ed3 06bf 346e 1cbe 220f 1cc0
00000130: 2433 16bf d8dd d83e 342a 60bf 89b5 8c3e
00000140: 9ae2 3fbd d5eb 04be e056 81bd 6fc4 a8bd
00000150: ab39 a33b 9702 aabc 3b51 0b3c 4513 ca3c
00000160: 3107 1dbd 60eb 1e3d 9abc 2d3f 2d37 bc3e
00000170: cc07 903e 9e71 ec3f 995f 2ebf e0b9 2ebe
00000180: a93d 223f f5eb 3abe b8b0 6ebd c272 5dbe
00000190: 0ee7 2c3b 2f76 633e 067c f1bd 97c8 4bbe
000001a0: e97d c7bd 98fc 72bd ecbf aebd 4ce3 84bd
000001b0: 76f1 8f3f 7ffc bd3d cd9b c53e fd38 fa3f
000001c0: ffcb 113e 70d4 a0be 4320 5ebe 59ea 293e
000001d0: 65b3 a03d 7574 24be f817 7cbe f62c 09be
000001e0: a903 c7bd 6612 3cbc 9821 9e3d 55bd 50bd
000001f0: 189a 1abe e918 41be b7d6 43bf 2286 a6be
00000200: adee 913e fede 37bf d78f d03e c3af 6d3e
00000210: 2e16 a7bf f9ff 8d3d b928 c4b8 efeb 99bd
00000220: 47c3 bbbe b8ae 7abe 0905 b7bd 66c0 b1bd
00000230: 87c8 bf3c aa68 edbc 0123 b13d 45d9 623d
00000240: e68b 963f 8477 703d 3b49 2e3e f93e f43e
00000250: 73d5 b13d cb03 96be 8eff 503f 5489 2abc
00000260: 5fbc 1f3d ba75 4fbe 6890 1f3f 854f 9dbd
00000270: 73e8 a53c ae9e c93e 41e1 36bd e158 3f3e
00000280: 74fc f83e 0e32 d0bb 4cfe 66bf 003e 72bf
00000290: 4ab5 b53d 8afc 09c0 f465 6ebf 4aba c73e
000002a0: d000 19bf 69f6 62bf 079c 61be e7aa 15be
000002b0: d9e6 903b 7fa4 90bd 2cc3 d7bd ef4a 39bd
000002c0: 015f 253c e628 633d 24d2 3b3b bd79 05bd
000002d0: bd04 aabf 48f4 063f 2586 123d fdda 34c0
000002e0: 8659 053f 9788 9d3e 8a27 9bbf 4975 93bd
000002f0: ac24 3fbe 7940 29bd a66b 26be e472 b8bd
00000300: db94 043d 00f8 4e3d 8fd4 233d 26e3 143b
00000310: 8450 48bd 5e03 1d3d d437 9fbe b7ab 2a3f
00000320: 0727 31be daa4 81bf 4499 a9be c6f3 f83d
00000330: e3b6 6fbe 87f7 b6bf 8068 febc e27e 28be
00000340: 9902 a53c 7e0c 013f 7799 73bb 6bb4 043a
00000350: 1b46 2cbe 144c 18bd c1b5 1d3e 9e0d 063f
00000360: d416 a8be a1be 763e ffe5 283e ca91 c2bf
00000370: 9191 e7bf 2928 833e dace 7e3f 2c26 4dbf
00000380: 1f07 bebe cdc0 ee3b d690 213e 1e29 b0bc
00000390: c1b1 3cbe c1e6 bcbe 9d52 803d 6855 7b3d
000003a0: 3226 47bd 7fc3 ef3c 76e8 b43f 1665 2a3f
000003b0: af0a 6d3e a3fa 493f e33a 89bf 8bf4 5dbe
000003c0: f1f2 fa3e c4e9 0dbe 95db 1c3e 50a4 14be
000003d0: 05e7 68bd a531 a1bd 9cf5 903c 267c 843d
000003e0: 8948 d5bd da92 e8bb d8f1 d5be 836b d4bd
000003f0: 822c bc3f df61 0cbd 5b52 04bc c12f adbf

read_encoder.block1.0.bias f4 [128]
-0.051819123 -0.4072566 -0.04143161 0.14803803 -0.3619406 0.713519 0.44940132 -0.6497189
0.6647151 -0.081065476 -0.60542357 0.06813535 0.3253364 0.43826753 0.54853946 -0.14811178
0.6373625 -0.82448363 0.57108337 0.20210768 0.21090616 -0.4034888 0.044925403 0.67743474
0.11910719 0.17044029 0.4406833 -0.70859075 -0.7640703 -0.4583996 -0.47774315 0.43205613
0.088471316 -0.52543014 0.30319256 0.31600463 0.16241458 -0.20262663 0.23397721 -0.66453475
0.31593597 -0.68496037 0.68750274 -0.43482867 0.31504235 0.28928092 0.2944597 0.409421
0.63145864 0.60675514 -0.4634971 -0.4752559 0.6758834 -0.080991775 -0.69543034 0.68754077
0.372303 0.052630197 0.80724543 -0.78380555 0.17775264 -0.48688126 0.61738765 0.45954788
-0.7774996 -0.610418 0.58753717 0.4071258 0.24232464 0.37156567 -0.67561126 0.03863222
0.16892397 0.45820832 -0.6480147 -0.6223619 0.24778803 -0.05825672 -0.10146047 0.10268466
0.13222837 -0.07229892 0.13542554 -0.85292125 -0.58952975 0.49303365 -0.8014762 -0.8245124
-0.85355526 0.07520464 -0.1486965 -0.2724006 0.7936655 -0.013995429 -0.38132593 -0.5576145
0.20117362 -0.90204227 -0.58407784 0.15349963 0.38607812 -0.26690066 0.47358906 -0.06859192
0.2664145 0.02528311 -0.55842495 0.7567232 0.47873357 -0.93500406 0.090344 -0.37216437
-0.25375274 -0.30776536 -0.72287124 -0.4727319 -0.93791133 -0.5796099 -0.050682425 0.7340375
-0.30746272 0.91712207 0.59057134 -0.4202717 -0.56374377 -0.28600216 -0.43588522 -0.07930845
00000000: 4a40 54bd f083 d0be 31b4 29bd 4897 173e
00000010: 4750 b9be 2ea9 363f ee17 e63e fa53 26bf
00000020: c52a 2a3f a805 a6bd 0afd 1abf 8c8a 8b3d
00000030: 7e92 a63e 9a64 e03e 156d 0c3f 9daa 17be
00000040: 302a 233f 5c11 53bf 8532 123f 51f5 4e3e
00000050: c9f7 573e 1696 cebe b303 383d 5d6c 2d3f
00000060: 78ee f33d e687 2e3e 3ea1 e13e 3466 35bf
00000070: 1c9a 43bf 5ab3 eabe c09a f4be 7636 dd3e
00000080: 7330 b53d 9782 06bf 0e3c 9b3e 5ccb a13e
00000090: 0250 263e 5b7d 4fbe b997 6f3e f31e 2abf
000000a0: 5cc2 a13e 9059 2fbf 2e00 303f dda1 debe
000000b0: 3b4d a13e a11c 943e 6cc3 963e a19f d13e
000000c0: 46a7 213f 4e54 1b3f 7e4f edbe be54 f3be
000000d0: b206 2d3f 04df a5bd b907 32bf ac02 303f
000000e0: 809e be3e c392 573d a3a7 4e3f 7ba7 48bf
000000f0: ca04 363e 8048 f9be 1e0d 1e3f dc49 eb3e
00000100: 370a 47bf 5b44 1cbf d668 163f cb72 d03e
00000110: f323 783e db3d be3e dcf4 2cbf d23c 1e3d
00000120: 68fa 2c3e 489a ea3e 4be4 25bf 1c53 1fbf
00000130: 25bc 7d3e 999e 6ebd 82ca cfbd 564c d23d
00000140: e066 073e 7511 94bd feac 0a3e 0c59 5abf
00000150: 6ceb 16bf e86e fc3e 8b2d 4dbf 3f13 53bf
00000160: 9982 5abf e404 9a3d e543 18be 1778 8bbe
00000170: aa2d 4b3f 154d 65bc 273d c3be d3bf 0ebf
00000180: 7500 4e3e 3eec 66bf 2086 15bf 022f 1d3e
00000190: 08ac c53e 34a7 88be 447a f23e ec79 8cbd
000001a0: 7b67 883e 861e cf3c f0f4 0ebf 9db8 413f
000001b0: 911c f53e 6d5c 6fbf 4606 b93d 548c bebe
000001c0: e1eb 81be 6c93 9dbe 170e 39bf ea09 f2be
000001d0: f51a 70bf 5061 14bf 6098 4fbd e2e9 3b3f
000001e0: c16b 9dbe 83c8 6a3f af2f 173f da2d d7be
000001f0: 8351 10bf e06e 92be 592c dfbe 786c a2bd

read_encoder.block1.1.weight f4 [128]
0.811783 1.0954993 1.2524993 1.1010128 0.994255 0.7758463 1.0083749 0.3864923
1.671789 0.86763716 0.7341874 1.3010883 1.2871919 0.9970417 1.6127582 0.8171633
1.8025031 1.0108546 1.028278 0.94279134 0.45176888 0.7993864 0.8281801 1.5188212
1.9194379 1.3108215 1.2703027 0.416874 0.48118842 0.5186094 0.9967069 1.4245017
0.77950215 1.0340722 1.0445837 1.7433103 0.6235742 0.7588213 1.5067294 0.42969045
0.9334076 0.4679468 1.440294 0.48350692 1.134412 1.1014988 1.5788943 1.4609774
1.3706828 1.3192792 0.45925176 0.932295 1.1239463 0.44145018 0.3903714 1.6930088
1.318134 1.1384017 1.5387127 0.7461012 1.1988653 1.2169709 2.0175786 0.98049194
0.80721104 0.8287944 0.89022225 1.7120606 1.0232455 0.73727787 1.1527785 1.0017983
1.4869972 1.6740758 0.4608844 0.5545339 1.0601501 0.9030091 0.9804957 0.9157197
1.0884589 1.0105743 0.6872927 1.5139132 0.63001096 1.4696984 0.7529212 0.504892
0.5323128 1.2893041 0.7279863 0.85697246 2.6360087 0.8911908 1.352729 1.8779416
1.3282253 0.6699456 0.7576408 0.5838681 1.1259414 1.2572212 1.3375174 0.85665196
1.0050329 1.1478587 0.76993436 1.3042188 1.1832594 0.72458684 0.76234245 0.46394286
1.1108723 1.2014353 1.3339466 0.863089 0.50874996 0.7986876 0.76477545 1.1823101
0.7089728 1.648953 1.3629551 0.7936951 0.68226635 1.077609 1.1849328 1.0006632
00000000: 03d1 4f3f 5239 8c3f e651 a03f fded 8c3f
00000010: 7f87 7e3f dd9d 463f 6e12 813f 52e2 c53e
00000020: 2ffd d53f 781d 5e3f b5f3 3b3f 108a a63f
00000030: b4c2 a43f 203e 7f3f dc6e ce3f 9d31 513f
00000040: 6cb8 e63f af63 813f 9d9e 833f c65a 713f
00000050: 404e e73e 96a4 4c3f 9c03 543f bc68 c23f
00000060: 24b0 f53f 00c9 a73f 4799 a23f 8270 d53e
00000070: 545e f63e 96c3 043f 2f28 7f3f 1256 b63f
00000080: 748d 473f 7a5c 843f ebb4 853f cb24 df3f
00000090: 8fa2 1f3f 1d42 423f 82dc c03f 6300 dc3e
000000a0: cdf3 6e3f b996 ef3e 8e5b b83f 388e f73e
000000b0: 6a34 913f eafd 8c3f 3519 ca3f 4f01 bb3f
000000c0: 8972 af3f 24de a83f 0c23 eb3e e3aa 6e3f
000000d0: 79dd 8f3f c205 e23e c3de c73e 83b4 d83f
000000e0: 9db8 a83f 26b7 913f 8af4 c43f 7d00 3f3f
000000f0: 6b74 993f b4c5 9b3f 0220 0140 8501 7b3f
00000100: 62a5 4e3f df2b 543f 9be5 633f cd24 db3f
00000110: b5f9 823f 3ebe 3c3f 3f8e 933f ed3a 803f
00000120: ed55 be3f 1e48 d63f 0af9 eb3e eff5 0d3f
00000130: 00b3 873f 9b2b 673f c401 7b3f 9b6c 6a3f
00000140: 9f52 8b3f 805a 813f 6af2 2f3f e8c7 c13f
00000150: 6648 213f 141f bc3f 72bf 403f 9a40 013f
00000160: a745 083f eb07 a53f 4f5d 3a3f 8c62 5b3f
00000170: 5eb4 2840 1525 643f 3926 ad3f 6460 f03f
00000180: 4903 aa3f 8e81 2b3f bff4 413f 6178 153f
00000190: d91e 903f a0ec a03f c533 ab3f 8b4d 5b3f
000001a0: eba4 803f 09ed 923f 6b1a 453f a4f0 a63f
000001b0: 0b75 973f 867e 393f e028 433f eb89 ed3e
000001c0: 1031 8e3f a2c8 993f c3be aa3f 67f3 5c3f
000001d0: 703d 023f ca76 4c3f 53c8 433f f055 973f
000001e0: 3e7f 353f e410 d33f 5075 ae3f 9a2f 4b3f
000001f0: 02a9 2e3f 17ef 893f e1ab 973f bb15 803f

read_encoder.block1.1.bias f4 [128]
-0.6062494 -0.3338123 -0.31763846 -0.0988628 -0.3935947 -0.026542732 -0.05886476 -0.6753141
0.099653065 -0.38875154 -0.37044385 -0.081375495 -0.113739714 -0.025756672 0.031144124 -0.27789748
-0.018264236 -0.2992576 -0.5618914 -0.43615082 -0.5152464 -0.42675138 -0.30063862 0.0005143063
-0.23488832 -0.32930464 -0.02039069 -0.7122208 -0.6317619 -0.6148934 -0.29232413 -0.27301905
-0.44469973 -0.32197008 -0.21083589 -0.21875596 -0.4352398 -0.4233472 -0.08146388 -0.540339
-0.36348653 -0.5930256 0.059327662 -0.6170313 -0.095635876 -0.17267267 -0.25277773 -0.1269373
0.04933102 -0.09518637 -0.5700811 -0.3470669 -0.06175892 -0.577249 -0.75667936 -0.047139753
-0.102347724 -0.21992299 -0.013324001 -0.3615211 -0.20136854 -0.3012944 0.06738556 -0.18941428
-0.2430772 -0.41739622 -0.43706447 -0.07589272 -0.04758618 -0.10389283 -0.20593326 -0.23111425
-0.13759574 0.064459346 -0.5794965 -0.42450142 0.027819298 -0.3600992 -0.22457711 -0.19087213
-0.7415483 -0.21294563 -0.40795726 -0.21805874 -0.3637138 -0.50633717 -0.29958948 -0.4938949
-0.43879947 -0.14474992 -0.29499722 -0.41363102 0.10446577 -0.26809445 -0.17458405 -0.17243494
-0.0009150415 -0.409179 -0.28000724 -0.3682197 -0.18171935 -0.26915768 -0.13443676 -0.2923409
-0.29454535 -0.620438 -0.65685743 0.06656262 -0.37713102 -0.45576337 -0.27295634 -0.56143665
-0.34144637 -0.16508627 -0.16383219 -0.30272788 -0.50977814 -0.40473288 -0.30233726 0.013589183
-0.42784262 0.019770473 -0.1334722 -0.3171327 -0.45512894 -0.27134404 -0.22895914 -0.26983672
00000000: 2933 1bbf 72e9 aabe 82a1 a2be 9478 cabd
00000010: 3f85 c9be 2570 d9bc 2d1c 71bd 63e1 2cbf
00000020: e816 cc3d 710a c7be d1aa bdbe 32a8 a6bd
00000030: 5ef0 e8bd a8ff d2bc f621 ff3c 9448 8ebe
00000040: e19e 95bc 4b38 99be 1dd8 0fbf 294f dfbe
00000050: 30e7 03bf 287f dabe 4eed 99be 83d2 063a
00000060: 9086 70be 9e9a a8be 600a a7bc 1a54 36bf
00000070: 26bb 21bf a769 1dbf 82ab 95be 27c9 8bbe
00000080: afaf e3be 43d9 a4be 5de5 57be 9001 60be
00000090: c0d7 debe f7c0 d8be 89d6 a6bd a853 0abf
000000a0: e81a babe 87d0 17bf 9001 733d c3f5 1dbf
000000b0: bedc c3bd 1bd1 30be 156c 81be dafb 01be
000000c0: 530f 4a3d 12f1 c2bd d6f0 11bf c1b2 b1be
000000d0: ecf6 7cbd 97c6 13bf bdb5 41bf 9d15 41bd
000000e0: af9b d1bd 7e33 61be e94c 5abc 4b19 b9be
000000f0: 8e33 4ebe 4243 9abe 7101 8a3d d1f5 41be
00000100: 3be9 78be f5b4 d5be eac6 dfbe a46d 9bbd
00000110: bae9 42bd c4c5 d4bd 2be0 52be 37a9 6cbe
00000120: e6e5 0cbe 4303 843d e259 14bf 4058 d9be
00000130: 4ce5 e33c ec5e b8be 8bf7 65be fc73 43be
00000140: 1cd6 3dbf 6b0e 5abe c6df d0be ca4a 5fbe
00000150: b238 babe 509f 01bf cb63 99be cbdf fcbe
00000160: 53aa e0be 5339 14be e009 97be 72c7 d3be
00000170: 26f2 d53d ad43 89be 29c6 32be c992 30be
00000180: 65df 6fba e97f d1be 1c5d 8fbe 4b87 bcbe
00000190: a314 3abe 09cf 89be caa9 09be b5ad 95be
000001a0: a6ce 96be 06d5 1ebf cf27 28bf fc51 883d
000001b0: 5117 c1be d159 e9be efc0 8bbe 50ba 0fbf
000001c0: 0fd2 aebe 600c 29be a0c3 27be 26ff 9abe
000001d0: d280 02bf 2639 cfbe f3cb 9abe 2aa5 5e3c
000001e0: 300e dbbe b0f5 a13c f0ac 08be 385f a2be
000001f0: a906 e9be 9bed 8abe 4474 6abe 0a28 8abe

read_encoder.block2.0.weight f4 [128, 128]
-0.32278672 0.15832496 -0.29398444 -0.015323342 -0.027288366 -0.0227795 0.046223763 0.06427113
0.038663354 0.229611 0.31666973 0.2661041 0.20428753 -0.025489016 0.28307897 -0.0306681
-0.3031592 -0.06966897 0.13753429 -0.06803659 0.061216775 0.1982314 -0.22518328 -0.1091375
0.45777526 0.021150274 -0.19480036 0.248035 0.17507511 0.26554668 0.048106637 -0.34702614
0.103175685 0.30443627 0.00974883 -0.103654236 0.08472705 0.26532516 0.031676017 0.27680847
0.22803864 0.099270925 0.043674435 0.111264296 -0.110561535 -0.050134417 -0.16334942 0.053808544
0.07807037 0.11170624 0.20072423 0.10589601 0.075766824 0.0807281 0.061612293 0.23663186
0.18521811 0.03623492 0.44920692 0.1935538 0.06074255 -0.051589597 0.1714659 -0.016950518
0.19544356 -0.016895825 0.08309333 -0.051381037 0.17837332 0.025387112 -0.089194514 -0.007685457
0.20976377 0.2986581 0.20806919 0.14769734 -0.10977599 0.011537727 -0.17382799 -0.004801332
0.0813938 -0.15292984 0.34711117 -0.4994694 0.02933233 -0.19300774 0.30049834 0.22024925
0.13499363 0.09311008 -0.14673164 -0.15822521 0.49112582 0.10659265 0.30431274 -0.14195254
0.07533654 0.22583182 0.38362253 0.11650288 -0.12639116 0.087851204 -0.03788341 -0.10931397
-0.05748177 -0.009745384 0.2861998 -0.20233954 0.07171099 0.18914181 0.03552052 0.4189568
-0.28929436 0.3874847 0.10470293 -0.04929048 0.15543605 0.21335152 0.15560122 -0.028358547
0.08210147 -0.3167185 -0.19121914 0.11203424 0.17572929 0.048681773 0.22597851 -0.22875696
-0.07795181 -0.081871375 -0.01773459 -0.043203954 0.12672307 0.046289343 0.076514944 0.43985212
-0.10816399 0.34380314 0.023901919 0.37365106 -0.19053666 0.08952699 -0.24593408 0.044272203
0.13762593 0.23289336 0.12305531 -0.2376336 0.08537955 0.1558069 0.08840931 -0.0075604105
0.43021843 -0.015610257 -0.62421227 0.0027353887 0.085599385 0.045476634 0.29769984 -0.25117525
0.004891584 0.37297624 -0.5245557 0.066304706 0.27351475 -0.033130124 0.41025007 -0.019085618
-0.031564895 0.2653442 0.10137352 0.011445856 -0.02232888 0.16475134 -0.52802694 -0.1508839
-0.0966276 0.10818381 0.10225996 -0.01408806 0.17942579 0.11051327 0.119145595 0.06822571
0.34356323 0.14426231 0.45502448 -0.011547286 0.08282361 0.032087896 0.10902574 -0.1292214
0.11184791 0.42996666 0.0008407706 0.3600956 -0.18407981 0.16620088 0.3572599 0.037920464
-0.16980408 0.01349521 0.051456384 0.22110093 0.22513972 -0.11352703 0.04053531 0.16026494
-0.22015502 0.106358804 0.20108485 0.13982613 0.15784077 -0.105175704 0.32911122 0.13473742
0.052733883 0.121696055 0.20328818 0.09922958 0.055553142 0.19735241 -0.3031772 0.35485262
0.20107892 -0.17183521 0.25840142 0.046294082 0.10596935 0.040424503 -0.3541994 -0.22764958
0.26549155 -0.11265773 -0.055163674 0.019239785 -0.1057342 0.08568391 -0.049435396 0.23427871
-0.4256261 0.400441 0.003574885 0.19249701 0.14611629 0.10154491 -0.16842118 -0.48039398
0.35711592 0.022728197 -0.14700146 0.015896378 0.21111296 0.066243395 0.05284498 0.21639153
00000000: 4d44 a5be f01f 223e 2185 96be c10e 7bbc
00000010: da8b dfbc 139c babc 2155 3d3d 95a0 833d
00000020: 775d 1e3d 251f 6b3e 8922 a23e cc3e 883e
00000030: c030 513e 57ce d0bc baef 903e ab3b fbbc
00000040: af37 9bbe 9bae 8ebd cad5 0c3e c556 8bbd
00000050: 71be 7a3d 2cfd 4a3e 7296 66be 7b83 dfbd
00000060: 8561 ea3e 5743 ad3c bf79 47be e3fc 7d3e
00000070: e446 333e bcf5 873e 770b 453d 69ad b1be
00000080: c64d d33d 12df 9b3e 8fb9 1f3c ac48 d4bd
00000090: 6085 ad3d b3d8 873e b6be 013d d7b9 8d3e
000000a0: f682 693e 8e4e cb3d f7e3 323d 89de e33d
000000b0: 166e e2bd bf59 4dbd 1245 27be 5966 5c3d
000000c0: 5ce3 9f3d 3ec6 e43d a78a 4d3e 02e0 d83d
000000d0: a32b 9b3d c654 a53d 2c5d 7c3d 9f4f 723e
000000e0: d1a9 3d3e 116b 143d 73fe e53e f832 463e
000000f0: 2ecd 783d 9d4f 53bd c294 2f3e d0db 8abc
00000100: 5b22 483e 1d69 8abc d62c aa3d ec74 52bd
00000110: 7fa7 363e a2f8 cf3c 9dab b6bd 49d6 fbbb
00000120: 50cc 563e b7e9 983e 1710 553e f93d 173e
00000130: 3cd2 e0bd bc08 3d3c f7ff 31be 7e54 9dbb
00000140: cbb1 a63d a499 1cbe 8eb8 b13e 74ba ffbe
00000150: 5b4a f03c d2a3 45be ebda 993e 0589 613e
00000160: c53b 0a3e 7fb0 be3d d240 16be ca05 22be
00000170: d874 fb3e 3f4d da3d e1ce 9b3e 025c 11be
00000180: 0b4a 9a3d 7540 673e 2c6a c43e 1099 ee3d
00000190: af6c 01be 55eb b33d a22b 1bbd 01e0 dfbd
000001a0: 0172 6bbd 1aab 1fbc c888 923e 1932 4fbe
000001b0: 36dd 923d 64ae 413e f77d 113d 8181 d63e
000001c0: 641e 94be 6564 c63e 7d6e d63d d0e4 49bd
000001d0: a12a 1f3e d278 5a3e ed55 1f3e 2f50 e8bc
000001e0: d124 a83d ed28 a2be f3ce 43be 3572 e53d
000001f0: 61f2 333e 8a66 473d e966 673e 443f 6abe
00000200: 33a5 9fbd 2eac a7bd 2248 91bc a1f6 30bd
00000210: b1c3 013e e599 3d3d deb3 9c3d 4c34 e13e
00000220: 1585 ddbd f706 b03e f5cd c33c 314f bf3e
00000230: 0b1c 43be ed59 b73d 25d6 7bbe c556 353d
00000240: d0ed 0c3e 997b 6e3e 6c04 fc3d 3956 73be
00000250: 79db ae3d d88b 1f3e f10f b53d 52bd f7bb
00000260: 9745 dc3e 2ac2 7fbc 60cc 1fbf 3544 333b
00000270: bb4e af3d b545 3a3d 1d6c 983e 0b9a 80be
00000280: 9549 a03b bef6 be3e 4849 06bf c3ca 873d
00000290: 200a 8c3e 74b3 07bd 4c0c d23e 7159 9cbc
000002a0: 314a 01bd 32db 873e ec9c cf3d 6687 3b3c
000002b0: 0eeb b6bc 93b4 283e c62c 07bf 4f81 1abe
000002c0: b1e4 c5bd 798f dd3d ab6d d13d 9bd1 66bc
000002d0: 65bb 373e c854 e23d 9b02 f43d ecb9 8b3d
000002e0: 85e7 af3e 80b9 133e f8f8 e83e d430 3dbc
000002f0: 6d9f a93d 996e 033d e348 df3d 9d52 04be
00000300: 8410 e53d 9724 dc3e 2967 5c3a 735e b83e
00000310: 6b7f 3cbe 9030 2a3e c5ea b63e 7d52 1b3d
00000320: 1fe1 2dbe 031b 5d3c eec3 523d 4868 623e
00000330: 078b 663e dc80 e8bd 5a08 263d 7e1c 243e
00000340: 5170 61be a5d2 d93d 30e9 4d3e 952e 0f3e
00000350: 03a1 213e 5c66 d7bd 4481 a83e 9bf8 093e
00000360: 7cff 573d c83b f93d c72a 503e e138 cb3d
00000370: b18b 633d c016 4a3e 0b3a 9bbe 3eaf b53e
00000380: a2e7 4d3e 92f5 2fbe 314d 843e dd9e 3d3d
00000390: 7506 d93d 2a94 253d a059 b5be f91c 69be
000003a0: 82ee 873e 19b9 e6bd 4ef3 61bd c19c 9d3c
000003b0: 2c8b d8bd 0c7b af3d c57c 4abd c2e6 6f3e
000003c0: aaeb d9be 9a06 cd3e 9e48 6a3b f01d 453e
000003d0: 829f 153e c7f6 cf3d 9a76 2cbe 33f6 f5be
000003e0: e6d7 b63e 7c30 ba3c 8d87 16be 1f39 823c
000003f0: ff2d 583e 9eaa 873d fa73 583d be95 5d3e

read_encoder.block2.0.bias f4 [128]
0.404643 0.18548353 -0.1311158 0.11937361 -0.19797756 -0.06697037 -0.08010333 -0.15709113
-0.1984181 0.07166285 0.05155149 -0.06981535 0.19526033 0.46367642 0.06809477 -0.09301487
0.04573141 0.0025550453 0.21576475 -0.116641596 -0.14894329 0.31141677 0.086171165 -0.023005614
0.26275545 0.24165967 0.07046096 0.118005395 0.29503292 0.37650055 0.063136525 0.17736492
0.031079289 0.38846892 -0.06029375 -0.05177004 0.2947708 0.16477668 0.29363006 -0.16287579
0.50149524 -0.11389884 0.26751232 0.3423111 0.47911364 -0.1014434 -0.14246283 0.25728598
0.112502046 -0.1303981 -0.06868044 0.4391067 0.24651119 0.54696804 0.31152683 0.28717217
0.40756434 0.3173615 0.030502496 0.008632544 0.32781938 -0.085300535 0.038644925 0.050675746
0.1114245 0.18989462 -0.006117917 0.0225069 0.38277248 0.12305257 -0.20700742 0.4721631
0.40523005 -0.21795774 0.5848259 0.18394607 0.053246018 0.33840615 0.49236667 -0.08963893
-0.08731425 0.1526148 0.06264378 -0.04991318 0.02977109 0.014345581 0.0017307617 0.29374015
0.0066371644 0.45911434 -0.050802957 0.25022003 -0.2602959 -0.020513073 -0.15464029 0.027164996
0.17167196 0.10199553 -0.17003633 0.18026954 0.24210745 -0.10938615 0.09939184 0.17775588
0.21425122 0.028677188 0.21508193 -0.06826052 0.47636178 0.264588 0.11965228 0.47550768
0.22507285 0.3647784 0.23126855 0.19187382 0.027949048 -0.011696408 0.1107076 -0.11262775
-0.15458812 0.005706225 0.34176448 -0.09394546 0.11062616 0.0269093 -0.13216093 -0.049048837
00000000: 5e2d cf3e 65ef 3d3e 3843 06be 277a f43d
00000010: a1ba 4abe c327 89bd 370d a4bd 7fdc 20be
00000020: 1d2e 4bbe f9c3 923d a827 533d 5afb 8ebd
00000030: 53f2 473e ff66 ed3e 4575 8b3d 957e bebd
00000040: dc50 3b3d 8c72 273b 6ff1 5c3e cae1 eebd
00000050: 9784 18be 0572 9f3e 827a b03d 4576 bcbc
00000060: e287 863e a275 773e d64d 903d d0ac f13d
00000070: 8e0e 973e aec4 c03e b94d 813d 269f 353e
00000080: fe99 fe3c 66e5 c63e 94f6 76bd d20c 54bd
00000090: 33ec 963e 38bb 283e ae56 963e e9c8 26be
000000a0: fe61 003f cc43 e9bd 60f7 883e 6743 af3e
000000b0: 624e f53e 8fc1 cfbd c7e1 11be fdba 833e
000000c0: 7967 e63d 1487 05be 55a8 8cbd 98d2 e03e
000000d0: 6e6d 7c3e 1906 0c3f 7280 9f3e 3b08 933e
000000e0: 46ac d03e 357d a23e 5fe0 f93c 846f 0d3c
000000f0: f1d7 a73e 0cb2 aebd 244a 1e3d 5f91 4f3d
00000100: 8732 e43d bc73 423e cf78 c8bb 6460 b83c
00000110: c1fa c33e fc02 fc3d c1f9 53be 5dbf f13e
00000120: 507a cf3e 5030 5fbe 26b7 153f 5c5c 3c3e
00000130: 7f18 5a3d 9243 ad3e 7c17 fc3e 9e94 b7bd
00000140: d0d1 b2bd 0e47 1c3e 624b 803d c371 4cbd
00000150: 80e2 f33c ba09 6b3c bada e23a 1c65 963e
00000160: 927c d93b 0911 eb3e c316 50bd d71c 803e
00000170: 8145 85be 080b a8bc 065a 1ebe 2089 de3c
00000180: c6ca 2f3e 08e3 d03d 011e 2ebe 9498 383e
00000190: 04eb 773e d905 e0bd f38d cb3d a305 363e
000001a0: ac64 5b3e 6cec ea3c 703e 5c3e 2ccc 8bbd
000001b0: b1e5 f33e 1478 873e 410c f53d be75 f33e
000001c0: 7f79 663e 3cc4 ba3e aad1 6c3e 927a 443e
000001d0: 67f5 e43c 4aa2 3fbc abba e23d 61a9 e6bd
000001e0: 594c 1ebe 49fb ba3b c1fb ae3e 7a66 c0bd
000001f0: f88f e23d e470 dc3c 3255 07be 6fe7 48bd

read_encoder.block2.1.weight f4 [128]
0.5828166 0.59601057 1.3564976 0.7734942 1.2798446 1.2859 1.2448913 1.5007765
1.6681291 0.9436913 0.9028181 1.1900139 1.0220029 0.5953033 1.1351979 1.2384071
1.0559998 0.891269 0.8062481 1.2310872 1.117059 0.96362764 1.2137024 1.1869344
0.62598884 0.85601985 1.1518093 0.9420754 0.65304947 0.6818715 0.9823651 1.0189306
1.1624167 0.766635 1.3206302 1.382662 0.6445926 0.8697603 0.586342 1.3260442
0.69539535 1.3153311 0.6564893 0.72939223 0.65491164 1.184199 1.1621996 1.3168286
1.2370145 1.2230895 1.2631966 0.9411115 0.8526054 0.6032375 0.7886657 0.5632956
0.57555014 0.73376954 0.80728644 1.1907238 0.7315921 1.0918983 1.335831 1.3576292
1.0693161 0.84899694 1.0622319 1.0728565 0.8739005 0.9919977 1.5002507 0.5622289
0.51009434 1.4530386 0.49394125 0.88405776 1.0396003 0.7163659 0.5087624 1.3320005
1.3948331 0.9988207 1.1699282 1.265991 1.3190242 0.9566826 1.2500376 0.8240831
1.3178893 0.5753864 1.0847858 0.74103975 1.1827714 1.1793238 1.2361435 1.1246831
1.0626585 0.8332132 1.1585302 0.99739724 0.90008473 1.339029 1.2213315 1.0651679
0.67151403 1.0890808 0.9815559 1.2923825 0.61044496 0.6904992 0.879657 0.7112939
0.74330014 0.5819422 0.6089281 0.7619296 1.0979896 1.218304 0.86785865 1.3747313
1.2406198 1.007955 0.8018956 1.2009858 1.1298088 1.2618141 1.212361 1.3366158
00000000: 7833 153f 2694 183f b7a1 ad3f b703 463f
00000010: f3d1 a33f 5f98 a43f 9958 9f3f 7219 c03f
00000020: 4185 d53f c195 713f 161f 673f 6052 983f
00000030: fed0 823f cc65 183f 2a4e 913f 2084 9e3f
00000040: 002b 873f 352a 643f 4766 4e3f 4494 9d3f
00000050: cafb 8e3f 4db0 763f 9a5a 9b3f 77ed 973f
00000060: ce40 203f 1e24 5b3f 7d6e 933f da2b 713f
00000070: 402e 273f 218f 2e3f 477c 7b3f 516c 823f
00000080: 12ca 943f 3142 443f 690a a93f 12fb b03f
00000090: 0504 253f 9ca8 5e3f 821a 163f d1bb a93f
000000a0: 6e05 323f c55c a83f af0f 283f 73b9 3a3f
000000b0: 4aa8 273f d593 973f f5c2 943f d78d a83f
000000c0: 7e56 9e3f 328e 9c3f 6db0 a13f afec 703f
000000d0: 5944 5a3f c66d 1a3f ffe5 493f 2434 103f
000000e0: 4157 133f 52d8 3b3f 53aa 4e3f a369 983f
000000f0: 9f49 3b3f 53c3 8b3f 83fc aa3f cbc6 ad3f
00000100: 5adf 883f dd57 593f 37f7 873f 5d53 893f
00000110: f1b7 5f3f 90f3 7d3f 3708 c03f 3cee 0f3f
00000120: 8b95 023f 2bfd b93f dee5 fc3e 9c51 623f
00000130: 9f11 853f c163 373f 413e 023f fe7e aa3f
00000140: e489 b23f b7b2 7f3f 35c0 953f fe0b a23f
00000150: c9d5 a83f 27e9 743f 3b01 a03f 1cf7 523f
00000160: 99b0 a83f 864c 133f 43da 8a3f c8b4 3d3f
00000170: 0e65 973f 15f4 963f f339 9e3f 9ef5 8f3f
00000180: 3205 883f 764d 553f b84a 943f 6d55 7f3f
00000190: f46b 663f 4d65 ab3f 9754 9c3f 6c57 883f
000001a0: 58e8 2b3f 0067 8b3f 3f47 7b3f ca6c a53f
000001b0: 1f46 1c3f 8ec4 303f 3331 613f 5b17 363f
000001c0: eb48 3e3f 2afa 143f b6e2 1b3f d10d 433f
000001d0: ec8a 8c3f 63f1 9b3f fc2b 5e3f 32f7 af3f
000001e0: a1cc 9e3f ab04 813f 0849 4d3f e7b9 993f
000001f0: 939d 903f 2083 a13f a52e 9b3f 3a16 ab3f

read_encoder.block2.1.bias f4 [128]
-0.5528751 -0.58070624 -0.26371637 -0.6868204 -0.2159727 -0.46763295 -0.4873589 -0.4227445
-0.45310438 -0.45088947 -0.6112189 -0.3250488 -0.6902793 -0.4234424 -0.49117965 -0.36712366
-0.38326192 -0.44536057 -0.45499682 -0.3770252 -0.27162275 -0.5091107 -0.34889627 -0.29818246
-0.43920308 -0.4889315 -0.41387865 -0.47010958 -0.4276198 -0.52195233 -0.45372283 -0.48705956
-0.5403365 -0.38236433 -0.30234754 -0.34386495 -0.70721906 -0.34638458 -0.41007608 -0.45160162
-0.45932734 -0.4655776 -0.47577193 -0.47630215 -0.16546136 -0.4852382 -0.29793915 -0.31065828
-0.35727665 -0.49085677 -0.40150213 -0.26754346 -0.23430908 -0.39752075 -0.53141695 -0.60147494
-0.43481526 -0.3115307 -0.57498014 -0.53647214 -0.5302662 -0.49266163 -0.37498868 -0.39889765
-0.2727162 -0.4774639 -0.37201947 -0.47067934 -0.43955958 -0.3725539 -0.54374397 -0.34708822
-0.63733196 -0.34573856 -0.48280612 -0.31299067 -0.2122236 -0.5497214 -0.41181457 -0.46617445
-0.37691694 -0.504721 -0.42052045 -0.39559215 -0.32191312 -0.5165228 -0.39559314 -0.5857139
-0.35680264 -0.36514625 -0.34951636 -0.30759016 -0.33412156 -0.35780984 -0.27843738 -0.5485153
-0.37389594 -0.8313503 -0.27648577 -0.33033642 -0.5434334 -0.31041175 -0.6028439 -0.5281991
-0.36836988 -0.36593974 -0.4320752 -0.4180963 -0.33654356 -0.51846683 -0.47472313 -0.43767107
-0.43264863 -0.32349533 -0.41415557 -0.6027722 -0.4501687 -0.38807985 -0.62096596 -0.31058896
-0.23904799 -0.34606558 -0.22297691 -0.37689513 -0.51164055 -0.40515894 -0.26803532 -0.4721181
00000000: 3989 0dbf 2aa9 14bf d505 87be 76d3 2fbf
00000010: f327 5dbe 966d efbe 1b87 f9be f871 d8be
00000020: 4cfd e7be fcda e6be d878 1cbf cc6c a6be
00000030: 25b6 30bf 71cd d8be e67b fbbe a2f7 bbbe
00000040: e83a c4be 4d06 e4be 58f5 e8be 7209 c1be
00000050: 2312 8bbe 1455 02bf 88a2 b2be 5fab 98be
00000060: 3adf e0be 3b55 fabe e7e7 d3be 34b2 f0be
00000070: fcf0 dabe ab9e 05bf 5c4e e8be df5f f9be
00000080: 7e53 0abf 42c5 c3be 4ccd 9abe 110f b0be
00000090: 4f0c 35bf 5259 b1be 7ef5 d1be 5438 e7be
000000a0: f42c ebbe 3060 eebe 6198 f3be e0dd f3be
000000b0: b46e 29be 2471 f8be 7b8b 98be 9a0e 9fbe
000000c0: f7ec b6be 9451 fbbe b091 cdbe 75fb 88be
000000d0: b8ee 6fbe d787 cbbe f10a 08bf 43fa 19bf
000000e0: 1ba0 debe f480 9fbe e631 13bf 3d56 09bf
000000f0: 87bf 07bf 253e fcbe 84fe bfbe 503c ccbe
00000100: 75a1 8bbe 2676 f4be 5679 bebe e2fc f0be
00000110: f40d e1be 63bf bebe ce32 0bbf 8cb5 b1be
00000120: 3028 23bf a504 b1be 5d32 f7be 5040 a0be
00000130: 2551 59be 8bba 0cbf 5cd9 d2be 6bae eebe
00000140: 42fb c0be 6535 01bf 754e d7be 0e8b cabe
00000150: ccd1 a4be d73a 04bf 2f8b cabe 59f1 15bf
00000160: d6ae b6be 73f4 babe cff3 b2be 757c 9dbe
00000170: fb11 abbe da32 b7be 588f 8ebe 806b 0cbf
00000180: 4a6f bfbe 60d3 54bf 8b8f 8dbe db21 a9be
00000190: 741e 0bbf 4aee 9ebe fa53 1abf 0e38 07bf
000001a0: fa9a bcbe 745c bbbe f638 ddbe b810 d6be
000001b0: 704f acbe 3eba 04bf e90e f3be 6c16 e0be
000001c0: 1f84 ddbe 2ea1 a5be 330c d4be 474f 1abf
000001d0: 837c e6be 67b2 c6be a0f7 1ebf 8405 9fbe
000001e0: ffc8 74be 822f b1be 0f54 64be 66f8 c0be
000001f0: e0fa 02bf fe70 cfbe ed3b 89be 77b9 f1be

read_encoder.block3.0.weight f4 [128, 128]
-0.13113226 -0.27058348 -0.03634497 -0.0320367 0.0426765 0.15702385 0.16142316 -0.26879317
-0.043232154 0.13596337 -0.11470275 0.34654558 0.32907414 0.2128101 -0.02352337 -0.07567927
0.029760629 0.02480496 0.23690155 0.18387276 -0.2627774 0.22792335 0.24722753 0.06282612
-0.11214467 0.0575688 0.06975908 0.08788169 0.1551237 0.11698031 0.06517118 0.24312532
0.222576 0.18244535 -0.015010143 -0.28146106 0.12705623 0.02936896 -0.092950754 0.06106566
0.027147802 -0.15253977 0.2103552 -0.11610611 0.26427028 0.12460609 0.14287362 -0.07182757
0.14129871 0.086471856 -0.0228653 0.33763772 0.19355825 0.17278916 0.2053479 0.18966994
0.13717616 -0.054509353 -0.1856541 -0.2947042 0.044357456 0.14470458 0.34663224 0.3010905
0.0720165 0.11831055 0.047399525 0.06015232 0.05002911 0.16234551 -0.27975047 0.08641797
0.01222857 0.5077208 0.07386685 0.13811556 0.059394643 0.16141713 -0.011939974 0.18084092
-0.083776526 -0.15898976 0.023203634 -0.11942887 -0.023919841 -0.29324076 -0.2045657 0.051535398
-0.18477014 0.0067284782 -0.25874165 0.25860462 0.06837287 0.18501723 -0.24038236 -0.0831949
0.06986713 0.06897433 -0.05812731 -0.0075746235 0.23862183 0.10841101 0.29025128 0.3162132
0.015726345 0.08365561 0.32548454 0.2002281 -0.13743414 -0.016360685 0.0903596 0.11281591
0.011161884 0.06262293 0.2588376 0.2591094 0.097589985 0.06496878 0.35877308 0.32101807
-0.036866736 -0.1180015 0.14300424 0.13633426 0.08676021 -0.19946551 -0.1619221 -0.38576213
0.3850644 0.10423426 -0.017185647 -0.24420427 -0.15141417 0.0047832886 0.06587095 0.14320026
0.021602046 0.021270677 0.044788532 -0.24152285 -0.1757509 0.31533188 -0.0887631 0.033341117
0.33533585 -0.19292346 -0.031460498 0.5145092 -0.3921636 0.17725569 -0.14309953 0.10177467
0.18072511 0.14815515 -0.047121443 -0.21560289 0.057444558 -0.029962495 -0.2218776 0.15894392
0.29962423 0.040295668 -0.06197392 -0.10251444 0.015543395 0.017029054 -0.035601184 -0.47329947
0.47864604 0.12076355 0.20038718 0.3519117 -0.042059958 0.09809327 -1.0226135 0.3113297
-0.44172367 0.11624871 -0.3835255 -0.21115927 0.0071589877 0.29672956 0.06549812 -0.14927812
-0.18424569 0.06393048 0.11752496 0.09456427 0.31669658 -0.35425135 0.056755662 0.39383745
-0.25320503 0.18185073 -0.58465904 0.34395808 0.24820063 -0.061193205 -0.079078 0.22873536
0.21841393 0.29661554 0.30083153 0.084406726 -0.19828846 -0.41011888 0.11925173 0.08635472
0.061729785 0.42411867 0.41999948 -0.08028475 0.17133833 -0.12965906 0.19726554 0.54651374
0.23749757 0.26772302 -0.050327003 -0.16303225 0.6209378 -0.6181567 -0.38087693 0.30388996
-0.1328171 0.108375825 -0.6158739 -0.27821594 -0.10073839 -0.041830778 0.011651958 0.3215676
-0.24326897 0.10158262 0.3792191 0.39680156 0.40616772 -0.16678469 0.2717216 0.30542594
-0.0990645 0.14543855 -0.1446512 -0.11586078 0.31610554 -0.58708674 -0.15725796 0.13140844
-0.322645 0.024120845 0.30430394 0.09630164 -0.1657211 0.033466604 -0.36571202 0.16704018
00000000: 8947 06be eb89 8abe 77de 14bd ea38 03bd
00000010: 8ecd 2e3d dcca 203e 1d4c 253e 429f 89be
00000020: 3314 31bd fb39 0b3e 47e9 eabd 6c6e b13e
00000030: 687c a83e e4ea 593e 15b4 c0bc bcfd 9abd
00000040: 90cc f33c c533 cb3c 5296 723e 2449 3c3e
00000050: c28a 86be bd64 693e 3729 7d3e fbaa 803d
00000060: 1bac e5bd 43cd 6b3d d9dd 8e3d 51fb b33d
00000070: bfd8 1e3e 5f93 ef3d 7878 853d d8f5 783e
00000080: f7ea 633e f4d2 3a3e 1aed 75bc aa1b 90be
00000090: 071b 023e 2c97 f03c f75c bebd fc1f 7a3d
000000a0: 1165 de3c 6333 1cbe 5b67 573e 0ac9 edbd
000000b0: 6f4e 873e 7a31 ff3d 764d 123e 551a 93bd
000000c0: 9cb0 103e 2818 b13d 0250 bbbc dade ac3e
000000d0: 2234 463e a4ef 303e b846 523e d638 423e
000000e0: e877 0c3e 3345 5fbd 1c1c 3ebe 78e3 96be
000000f0: 2ab0 353d 702d 143e c879 b13e 8928 9a3e
00000100: 637d 933d cd4c f23d 0126 423d 4762 763d
00000110: 53eb 4c3d e73d 263e 743b 8fbe e8fb b03d
00000120: 575a 483c fef9 013f 8147 973d 2a6e 0d3e
00000130: cc47 733d 884a 253e e19f 43bc 5d2e 393e
00000140: 0793 abbd 36ce 22be 8c15 be3c 2097 f4bd
00000150: 8bf3 c3bc a723 96be ac79 51be c816 533d
00000160: 6234 3dbe 917a dc3b c979 84be d367 843e
00000170: 1307 8c3d 2875 3d3e cb26 76be 1662 aabd
00000180: 7f16 8f3d 6a42 8d3d e716 6ebd 8c34 f8bb
00000190: 4859 743e 9706 de3d d19b 943e b2e6 a13e
000001a0: 89d4 803c a253 ab3d e9a5 a63e 9808 4d3e
000001b0: 89bb 0cbe d806 86bc 740e b93d 070c e73d
000001c0: 56e0 363c 7340 803d 5d86 843e fda9 843e
000001d0: 42dd c73d 5a0e 853d 1bb1 b73e 7b5c a43e
000001e0: 9301 17bd c5aa f1bd b46f 123e 359b 0b3e
000001f0: 56af b13d b040 4cbe e8ce 25be 9d82 c5be
00000200: 2927 c53e c678 d53d eac8 8cbc af10 7abe
00000210: 510c 1bbe 22bd 9c3b 59e7 863d 17a3 123e
00000220: c6f6 b03c d83f ae3c 2e74 373d c451 77be
00000230: 0bf8 33be 2e73 a13e 6ec9 b5bd b290 083d
00000240: 24b1 ab3e ba8d 45be b9dc 00bd e0b6 033f
00000250: abc9 c8be 8482 353e af88 12be 3d6f d03d
00000260: 0110 393e fcb5 173e 6a02 41bd 01c7 5cbe
00000270: fc4a 6b3d e873 f5bc e233 63be 32c2 223e
00000280: 5968 993e 120d 253d 5dd8 7dbd 17f3 d1bd
00000290: b9a9 7e3c 8480 8b3c 8cd2 11bd 4f54 f2be
000002a0: 1811 f53e e152 f73d 4c32 4d3e c52d b43e
000002b0: 1047 2cbd 20e5 c83d 00e5 82bf 9b66 9f3e
000002c0: 9b29 e2be ce13 ee3d 745d c4be 233a 58be
000002d0: f195 ea3b f0ec 973e e123 863d 5ddc 18be
000002e0: e7aa 3cbe fced 823d edb0 f03d e9aa c13d
000002f0: 0e26 a23e 6f60 b5be a078 683d 10a5 c93e
00000300: 17a4 81be 1437 3a3e 37ac 15bf 461b b03e
00000310: 4e28 7e3e baa5 7abd a5f3 a1bd 9a39 6a3e
00000320: e7a7 5f3e fedd 973e 9706 9a3e 6fdd ac3d
00000330: 210c 4bbe 1afb d1be 403a f43d beda b03d
00000340: 5fd8 7c3d 1526 d93e 2c0a d73e 556c a4bd
00000350: 5173 2f3e 58c5 04be faff 493e 53e8 0b3f
00000360: 9032 733e fe12 893e b023 4ebd edf1 26be
00000370: c8f5 1e3f 843f 1ebf 4d02 c3be 7797 9b3e
00000380: 3501 08be 25f4 dd3d e9a9 1dbf 5272 8ebe
00000390: ee4f cebd c056 2bbd dbe7 3e3c 82a4 a43e
000003a0: 801b 79be 8c0a d03d 0229 c23e 9329 cb3e
000003b0: 37f5 cf3e 9bc9 2abe 181f 8b3e ca60 9c3e
000003c0: 54e2 cabd d8ed 143e 721f 14be 6b48 edbd
000003d0: 96d8 a13e 514b 16bf 3b08 21be ef8f 063e
000003e0: ba31 a5be 1499 c53c bacd 9b3e cb39 c53d
000003f0: cbb2 29be 4714 093d 9b3e bbbe 950c 2b3e

read_encoder.block3.0.bias f4 [128]
0.09403781 0.2106584 -0.13167053 0.17422622 -0.3268978 -0.2219296 0.35856605 0.21530503
0.08299922 0.042239062 -0.09118254 -0.23472093 0.3380719 0.2743981 -0.12350163 0.16958946
0.32896474 0.19347228 0.3019712 0.023369981 0.36733285 0.16831973 0.13103546 0.061675284
0.3807518 0.26080877 0.048125774 0.3835426 0.15587525 0.18698837 0.27452943 0.3515748
0.3413542 -0.02581268 -0.055869028 -0.027865827 0.011035279 0.15157928 0.13439626 0.17582032
0.23833156 0.0026072736 0.11415097 -0.12836614 -0.102989525 0.36702955 0.2851449 0.033077005
0.12153915 -0.20394276 0.18311097 0.15718038 -0.10717749 0.2667271 0.36659434 0.3332788
0.4110862 0.120890684 -0.042838708 0.14611156 0.15172274 -0.14779815 0.18790784 0.32873186
0.17878906 0.36109617 0.4164756 -0.0016032117 0.2605343 0.37127352 0.23181082 0.18529004
-0.21551366 -0.021348726 0.36088562 -0.18565126 0.030961636 0.04280885 0.10294934 -0.09750402
-0.17529742 0.16066784 0.14736287 0.24311902 0.07073917 0.1506091 0.08671632 0.2232788
0.008119803 0.21435952 0.37782893 0.07762414 -0.25386468 0.057561938 0.04845703 0.037120335
0.18616737 0.052497026 0.06411215 0.10056144 0.29678404 -0.439 0.28539312 0.22665343
-0.022835301 -0.04220872 0.13393322 -0.43134364 0.24108002 0.06208316 0.24219164 0.28705266
0.08505718 0.15198407 0.06614957 0.26693696 0.08589234 0.30360514 -0.037927583 0.3493143
-0.1636083 -0.3103567 -0.19275945 -0.23625807 0.10307184 -0.010213988 0.4402093 0.24716689
00000000: e596 c03d d6b6 573e a4d4 06be 5c68 323e
00000010: 265f a7be 8341 63be f895 b73e ec78 5c3e
00000020: 7ffb a93d de02 2d3d e9bd babd af5a 70be
00000030: c317 ad3e e87d 8c3e 6cee fcbd dca8 2d3e
00000040: 116e a83e 991d 463e f89b 9a3e 6772 bf3c
00000050: 0d13 bc3e 025c 2c3e 292e 063e 399f 7c3d
00000060: e6f1 c23e ba88 853e 881f 453d b25f c43e
00000070: c39d 1f3e e179 3f3e 1f8f 8c3e 9d01 b43e
00000080: fac5 ae3e 1d75 d3bc ecd6 64bd e046 e4bc
00000090: 51cd 343c 9937 1b3e 2c9f 093e 3e0a 343e
000000a0: 300d 743e cbde 2a3b fcc7 e93d 6a72 03be
000000b0: 2cec d2bd 4ceb bb3e 83fe 913e c17b 073d
000000c0: 85e9 f83d 5fd6 50be 7181 3b3e e5f3 203e
000000d0: df7f dbbd 7490 883e 41b2 bb3e 85a3 aa3e
000000e0: e479 d23e 8995 f73d a477 2fbd 459e 153e
000000f0: 355d 1b3e 6658 17be ea6a 403e 8b4f a83e
00000100: 7b14 373e 99e1 b83e 4a3c d53e dc22 d2ba
00000110: c064 853e 9017 be3e d15f 6d3e acbc 3d3e
00000120: 9daf 5cbe 86e3 aebc 00c6 b83e 5d1b 3ebe
00000130: 42a3 fd3c 5558 2f3d 1bd7 d23d 30b0 c7bd
00000140: 2b81 33be 1c86 243e 4be6 163e 31f4 783e
00000150: b3df 903d 4639 1a3e 5398 b13d 33a3 643e
00000160: ec08 053c 1081 5b3e cb72 c13e 68f9 9e3d
00000170: 8dfa 81be 11c6 6b3d e17a 463d 7e0b 183d
00000180: a9a2 3e3e 1f07 573d 3b4d 833d 28f3 cd3d
00000190: 14f4 973e 9cc4 e0be 0c1f 923e d617 683e
000001a0: 1911 bbbc 0de3 2cbd ca25 093e 13d9 dcbe
000001b0: aedd 763e e94a 7e3d 1601 783e 91f8 923e
000001c0: 7532 ae3d b6a1 1b3e 6d79 873d f6ab 883e
000001d0: 53e8 af3d 2272 9b3e f459 1bbd 53d9 b23e
000001e0: ef88 27be 13e7 9ebe bc62 45be a3ed 71be
000001f0: 5417 d33d 9258 27bc 1d63 e13e 5119 7d3e

read_encoder.block3.1.weight f4 [128]
0.63807815 0.72583014 1.6875004 0.4727109 1.2391217 1.0803766 0.8283695 1.0598294
1.232 0.7518644 1.233416 1.1048487 0.79979384 0.5384344 0.85390586 1.0704031
0.74879724 0.54493153 0.78254753 0.7138814 0.8529953 0.7789849 0.34963363 1.2329202
0.8614769 1.0152256 0.76464355 0.79174423 1.2195755 0.76206803 0.78289545 0.7918636
0.88542265 1.3847005 0.8599975 1.405154 0.47549924 1.297177 0.44304237 0.904715
0.71680176 1.4384419 0.8476882 0.89285433 1.7024475 0.97306234 0.9755339 1.2914579
1.269882 1.0980237 0.81012267 1.284443 1.5077554 0.68934494 0.6935067 0.6909987
0.72942805 1.3606938 0.52033263 0.7241699 0.7563464 1.1497003 0.8619331 0.887097
1.2470598 0.7960552 1.0519696 0.690781 0.77325875 0.841899 1.0680285 0.37966675
0.81277734 0.82749295 0.7973962 1.6264474 1.4428277 0.29792124 0.6965662 1.2192965
1.8143145 0.7792164 0.430744 1.0272145 1.1488369 0.8078599 1.4679484 0.64869386
1.3879844 0.81049573 0.95384526 1.2939631 1.3237329 1.265971 0.88816005 0.47926426
0.7739712 0.5970926 1.380047 0.30625778 0.75130224 1.2977494 1.0000014 0.688275
0.8261567 0.7441672 1.2134215 1.1883782 0.8120027 0.30110636 0.70793486 0.83143556
0.78092366 0.6634744 0.36323258 0.8449209 0.7681232 0.9281369 0.94668084 0.77279246
1.789151 1.3356376 1.6421751 1.0653429 0.5387435 1.4250379 0.8694048 0.8270303
00000000: 1759 233f 01d0 393f 0300 d83f 2a07 f23e
00000010: 8a9b 9e3f c849 8a3f 0610 543f 7da8 873f
00000020: 2db2 9d3f 2f7a 403f 93e0 9d3f af6b 8d3f
00000030: 4abf 4c3f d6d6 093f 9399 5a3f f802 893f
00000040: 2db1 3f3f a280 0b3f 0955 483f eec0 363f
00000050: e65d 5a3f 8e6b 473f 2e03 b33e 54d0 9d3f
00000060: c089 5c3f eaf2 813f aebf 433f c0af 4a3f
00000070: 0d1b 9c3f e416 433f d66b 483f 93b7 4a3f
00000080: 0fab 623f de3d b13f cc28 5c3f 16dc b33f
00000090: a374 f33e e509 a63f 73d6 e23e 679b 673f
000000a0: 5280 373f dd1e b83f 1802 593f 1a92 643f
000000b0: cde9 d93f 9d1a 793f 97bc 793f 7e4e a53f
000000c0: 7e8b a23f 0a8c 8c3f 3364 4f3f a168 a43f
000000d0: 21fe c03f e978 303f a889 313f 4ae5 303f
000000e0: ccbb 3a3f 372b ae3f 8534 053f 3363 393f
000000f0: eb9f 413f 6129 933f a6a7 5c3f ca18 633f
00000100: a89f 9f3f 46ca 4b3f f1a6 863f 06d7 303f
00000110: 49f4 453f b186 573f 28b5 883f ae63 c23e
00000120: 2d12 503f 94d6 533f 2822 4c3f 6e2f d03f
00000130: 94ae b83f 2289 983e 2a52 323f e811 9c3f
00000140: 753b e83f ba7a 473f 7a8a dc3e c47b 833f
00000150: 160d 933f e8cf 4e3f bce5 bb3f cd10 263f
00000160: 79a9 b13f a67c 4f3f 342f 743f 95a0 a53f
00000170: 1470 a93f 560b a23f 755e 633f 2062 f53e
00000180: fa22 463f 10db 183f 61a5 b03f d2cd 9c3e
00000190: 5855 403f a71c a63f 0c00 803f ca32 303f
000001a0: 017f 533f be81 3e3f 6551 9b3f c71c 983f
000001b0: 69df 4f3f 9d2a 9a3e 383b 353f f6d8 543f
000001c0: 9dea 473f 75d9 293f 9ff9 b93e bc4c 583f
000001d0: b9a3 443f 619a 6d3f ad59 723f bad5 453f
000001e0: e602 e53f 2cf6 aa3f cb32 d23f 285d 883f
000001f0: 18eb 093f a467 b63f 5091 5e3f 42b8 533f

read_encoder.block3.1.bias f4 [128]
-0.35612726 -0.36185145 -0.33984447 -0.6077193 -0.14436117 -0.25003472 -0.12717868 -0.15665507
-0.20226538 -0.22388877 -0.6636389 -0.28579837 -0.17707235 -0.316799 -0.46450308 -0.1855962
-0.13329367 -0.27555096 -0.114990145 -0.4424437 -0.1423129 -0.15630756 -0.39440307 -0.11813299
-0.11000227 -0.12859295 -0.5170337 -0.11284609 -0.1737838 -0.15646061 -0.07679295 -0.14315963
-0.12717445 -0.39596307 -0.44142574 -0.35643545 -0.769178 -0.1992018 0.022207722 -0.1395439
-0.1814118 -0.30998293 -0.14887877 -0.48608372 -0.28380996 -0.088809595 -0.08975975 -0.20735787
-0.1878646 -0.3232133 -0.13962805 -0.16746655 -0.3409635 -0.1758314 -0.19044736 -0.19304125
-0.21902284 -0.24368548 -0.5694635 -0.2252926 -0.25227234 -0.36686644 -0.3254078 -0.14178781
-0.2042353 -0.11334001 -0.072459 -0.4758434 -0.17616038 -0.13252911 -0.06245342 -0.5890323
-0.56270057 -0.4590864 -0.20158781 -0.30034637 -0.22438385 -0.6496621 -0.28328305 -0.3449804
-0.5436768 -0.18892157 -0.442697 -0.11921212 -0.20552866 -0.14074846 -0.32305416 -0.2647219
-0.23265833 -0.16384815 -0.13788371 -0.18616205 -0.24202241 -0.19265953 -0.1484846 -0.5133163
-0.1981702 -0.55076677 -0.12212291 -0.5528113 -0.22940253 -0.4613066 -0.1873517 -0.22031091
-0.5437578 -0.5788577 -0.20287876 -0.42744452 -0.15075727 -0.5136185 -0.19190547 -0.1343497
-0.1480857 -0.22152409 -0.23937963 -0.20266645 -0.80519015 -0.10732932 -0.52168894 -0.20622757
-0.64705724 -0.13521926 -0.44576028 -0.25319505 -0.22377996 -0.19159575 -0.16105099 -0.10827578
00000000: 5056 b6be 9844 b9be 1800 aebe 7e93 1bbf
00000010: 6ad3 13be 8d04 80be 213b 02be 306a 20be
00000020: a81e 4fbe 1943 65be 3de4 29bf 2a54 92be
00000030: 7452 35be 7b33 a2be 59d3 edbe ee0c 3ebe
00000040: 237e 08be 0415 8dbe f47f ebbd fb87 e2be
00000050: 79ba 11be 170f 20be 33ef c9be b6ef f1bd
00000060: df48 e1bd dfad 03be 525c 04bf da1b e7bd
00000070: 61f4 31be 3637 20be 9f45 9dbd 7098 12be
00000080: 053a 02be acbb cabe 8e02 e2be b57e b6be
00000090: d9e8 44bf 8ffb 4bbe f8ec b53c 99e4 0ebe
000000a0: 04c4 39be 15b6 9ebe ad73 18be f7df f8be
000000b0: 8a4f 91be cee1 b5bd f6d3 b7bd 9f55 54be
000000c0: 945f 40be 377c a5be a8fa 0ebe 5a7c 2bbe
000000d0: c592 aebe 260d 34be a204 43be 9bac 45be
000000e0: 8647 60be b088 79be 5cc8 11bf 1ab3 66be
000000f0: d729 81be ebd5 bbbe da9b a6be d330 11be
00000100: 0f23 51be cf1e e8bd 6265 94bd bfa1 f3be
00000110: 6363 34be b6b5 07be 28cf 7fbd d2ca 16bf
00000120: 250d 10bf 5f0d ebbe 096d 4ebe 00c7 99be
00000130: e1c4 65be 4150 26bf 7a0a 91be 45a1 b0be
00000140: 672e 0bbf a874 41be 2ea9 e2be 7c25 f4bd
00000150: 1b76 52be 5d20 10be 5b67 a5be a189 87be
00000160: fc3d 6ebe cfc7 27be 6331 0dbe 44a1 3ebe
00000170: b9d4 77be 8a48 45be 590c 18be b268 03bf
00000180: 21ed 4abe 0dff 0cbf 941b fabd 0b85 0dbf
00000190: 7fe8 6abe 6130 ecbe 20d9 3fbe 2f99 61be
000001a0: b633 0bbf 0530 14bf 73bf 4fbe 02da dabe
000001b0: 1d60 1abe 817c 03bf de82 44be f892 09be
000001c0: c7a3 17be 36d7 62be ef1f 75be cb87 4fbe
000001d0: f120 4ebf 79cf dbbd 688d 05bf 522d 53be
000001e0: 8ba5 25bf eb76 0abe b13a e4be c8a2 81be
000001f0: 9326 65be ad31 44be 8dea 24be b1bf ddbd

bag_predictor.weight f4 [1, 128]
-0.022726394 -0.02409898 -0.2304313 0.040178802 0.26295528 0.1016583 -0.07201782 -0.122074395
-0.26536253 -0.046709567 0.16067241 0.12628855 -0.056078333 -0.038224384 0.095062464 -0.10439604
-0.068343796 -0.019285515 -0.045644525 0.048019256 -0.05653547 -0.05245437 -0.019603968 -0.16533616
-0.057502016 -0.036345277 0.015199633 -0.05576137 -0.16033576 -0.056582876 -0.039626025 -0.054255553
-0.04655562 -0.1777831 0.15932228 -0.3044762 0.07306188 -0.19276346 -0.061514158 -0.038769502
-0.070249125 -0.18186997 -0.036012363 0.14754046 -0.2471144 -0.060036365 -0.042498656 -0.26643035
-0.20115675 0.18872929 -0.04999745 -0.16592722 -0.31625086 -0.0745683 -0.051732518 -0.06527738
-0.06674464 -0.24022125 0.24069911 -0.04972872 -0.04933864 0.2731448 -0.041970935 -0.07476371
-0.16503026 -0.05820422 -0.050560568 0.118343174 -0.06092889 -0.056571756 -0.045218617 0.007950707
0.22158621 0.17771792 -0.060079545 -0.2749399 -0.20480141 0.024031304 -0.034374423 0.07805315
-0.30352384 -0.050728705 -0.035696797 -0.062230427 -0.17911996 -0.037274152 -0.18650849 -0.04975272
-0.18341042 -0.04326577 -0.06848047 -0.13065027 0.3412756 -0.16791816 -0.021323252 0.122878216
-0.06825984 0.15738802 -0.14103314 -0.005814634 -0.043245625 0.32254323 -0.10901558 -0.054106366
0.07960854 0.110764086 -0.18139574 0.26465937 -0.067594625 0.065258846 -0.044717193 -0.076310426
-0.02924085 -0.048844066 0.001200547 -0.037205055 0.06911385 -0.04288779 0.16253188 -0.06987992
-0.36935827 0.33427617 -0.29478124 0.2914061 -0.060798943 -0.19988978 -0.054723293 -0.039425798
00000000: b42c babc 396b c5bc 2ff6 6bbe 8792 243d
00000010: 13a2 863e 3a32 d03d 147e 93bd 2402 fabd
00000020: 99dd 87be 8852 3fbd 4f87 243e c951 013e
00000030: 65b2 65bd 2c91 1cbd 1cb0 c23d 97cd d5bd
00000040: d5f7 8bbd a8fc 9dbc c1f5 3abd d7af 443d
00000050: bd91 67bd 65da 56bd 8098 a0bc e24d 29be
00000060: 3c87 6bbd c9de 14bd e207 793c 0966 64bd
00000070: 0f2f 24be 72c3 67bd e64e 22bd 123b 5ebd
00000080: 1bb1 3ebd c60c 36be 6125 233e 4ee4 9bbe
00000090: 78a1 953d c963 45be 45f6 7bbd c5cc 1ebd
000000a0: c6de 8fbd 1f3c 3abe b381 13bd d914 173e
000000b0: 8f0b 7dbe b1e8 75bd 1213 2ebd 8f69 88be
000000c0: 09fc 4dbe 4042 413e 20ca 4cbd d3e8 29be
000000d0: a2eb a1be 44b7 98bd 7ae5 53bd 26b0 85bd
000000e0: 6ab1 88bd 8ffc 75be d479 763e 58b0 4bbd
000000f0: 5017 4abd a3d9 8b3e b7e9 2bbd b71d 99bd
00000100: b1fd 28be 8c67 6ebd 9918 4fbd e85d f23d
00000110: 9290 79bd c9b7 67bd 2837 39bd af43 023c
00000120: 7fe7 623e b0fb 353e f815 76bd ecc4 8cbe
00000130: 76b7 51be 4cdd c43c 32cc 0cbd 54da 9f3d
00000140: 7a67 9bbe e7c8 4fbd ce36 12bd 55e5 7ebd
00000150: 396b 37be c8ac 18bd 15fc 3ebe 82c9 4bbd
00000160: f1cf 3bbe 7337 31bd 7d3f 8cbd 2fc9 05be
00000170: adbb ae3e bdf2 2bbe 1aae aebc 93a7 fb3d
00000180: d1cb 8bbd 532a 213e fe6a 10be af88 bebb
00000190: 5322 31bd 6324 a53e 8f43 dfbd a39e 5dbd
000001a0: cd09 a33d 48d8 e23d cebf 39be 6f81 873e
000001b0: 0d6f 8abd 6ea6 853d 6029 37bd a448 9cbd
000001c0: 828a efbc b710 48bd ac5b 9d3a 5464 18bd
000001d0: 908b 8d3d 1bab 2fbd c26e 263e 341d 8fbd
000001e0: 871c bdbe 3f26 ab3e 91ed 96be 2e33 953e
000001f0: 5008 79bd e8af 4cbe 8825 60bd f27c 21bd
