m6aReplica/3d_66/Models/epoch30_rocauc0.895_valpr0.394_valscore1.290.pth (torch, 152221 bytes, 13 tensors)

read_encoder.block1.0.weight f4 [128, 18]
0.4028106 0.3419334 -0.049161702 0.69750434 -0.6219817 0.032719955 0.24717368 0.07793466
0.35257763 -0.26996732 0.21664833 -0.07379348 -0.0169747 -0.20985943 0.0045266803 0.14368123
0.17066793 0.021091929 -0.37320954 0.040240884 -0.13758242 -0.9579791 0.19131213 0.27156448
-0.6572124 0.08311682 -0.053624325 -0.061869133 0.16375482 -0.24542563 0.34172878 -0.12189795
0.37483114 -0.028609747 -0.2959753 0.097717084 0.4066588 -0.0065813344 0.0376194 1.05195
0.31185085 -0.14560002 0.4278806 0.1744687 0.18094875 -0.100488044 0.21892682 0.00548881
0.009511737 -0.11374157 -0.46042797 -0.005278613 -0.36973882 0.2536674 0.6551058 0.15627053
0.11146125 0.89841723 0.17305824 -0.22437933 0.9799514 0.055313583 0.18096209 -0.11536919
0.32912245 -0.098400995 -0.048043218 -0.19009037 -0.29675958 0.015220506 0.33956924 0.07657988
-0.17304568 -0.3884483 -0.14113249 -1.300342 -0.50297123 0.3461369 -0.19032623 0.225274
-0.027519258 -0.08451219 0.00018900076 -0.022701234 0.022668373 -0.0029425647 -0.0080565335 0.009898218
-0.04417682 0.00040264818 0.44465196 0.16284657 0.25801095 0.967382 -0.6857263 -0.15895705
0.5952659 -0.10684604 -0.062369294 -0.15676917 0.022967584 0.20286322 -0.10509798 -0.11233971
-0.06748843 -0.022621902 -0.10278415 -0.054889336 0.5154047 0.074684925 0.32922807 1.1595547
0.103194594 -0.29776466 -0.15091333 0.16059217 0.06488951 -0.1350893 -0.14333628 -0.06779877
-0.08721918 0.0020642313 0.095609754 -0.02905586 -0.23800181 -0.2076321 -0.52723646 -0.23038143
0.25725618 -0.5914187 0.23249277 0.20491648 -0.7265722 0.0411603 -0.023881126 -0.046059765
-0.31236845 -0.22232288 0.0075440085 -0.016459828 -0.0021271363 0.0042229085 0.17516978 0.0065807514
0.7122872 0.08884177 0.15679024 0.43508667 0.144291 -0.2610994 0.5664619 0.0065225754
0.055117983 -0.14231883 0.51753706 -0.05849021 0.02240485 0.3032964 -0.0337351 0.16620103
0.4596289 -0.016051818 -0.50513273 -0.5912091 0.070953645 -1.480603 -0.75306094 0.3258815
-0.34559184 -0.5530318 -0.1886609 -0.11801853 0.010321768 -0.07358151 -0.07817898 -0.08172739
-0.06874381 0.04287024 0.05648051 -0.05632972 -0.69639975 0.30862713 0.017453074 -1.3181813
0.39854032 0.24146044 -0.65726364 -0.023554543 -0.13644591 -0.012080911 -0.12197202 -0.070234135
0.06394509 0.09516434 0.04170176 -0.01012471 -0.013467759 0.044490024 -0.034345724 0.46105093
-0.15729786 -0.54530936 -0.06346962 0.12584299 -0.14483814 -0.7953924 -0.05372382 -0.16415775
0.005288096 0.41149694 0.022614952 0.042432904 -0.23312761 -0.07212118 0.14668126 0.41736045
-0.32020962 0.022816112 0.15841506 -1.198294 -1.2646537 0.20592175 0.44008866 -0.51172686
-0.30151263 0.05172877 0.13155398 -0.04620043 -0.17244053 -0.31215435 0.07232172 0.038089015
-0.06482718 0.039496657 0.9001668 0.3950607 0.21277991 0.43704957 -0.68020487 -0.20535634
0.36411515 -0.20887506 0.11746362 -0.13939717 -0.0024819819 -0.039251152 -0.039136842 0.17966454
-0.10125716 0.0008862261 -0.3243273 -0.08608312 0.9228425 -0.034341745 -0.011751859 -0.7245459
00000000: 313d ce3e e511 af3e c85d 49bd a58f 323f
00000010: 313a 1fbf 5c05 063d 191b 7d3e 359c 9f3d
00000020: 0e85 b43e 2839 8abe 0fd9 5d3e 0921 97bd
00000030: 870e 8bbc 64e5 56be 8c54 943b 2c21 133e
00000040: 93c3 2e3e fbc8 ac3c 5215 bfbe a0d3 243d
00000050: 68e2 0cbe 1e3e 75bf 54e7 433e 800a 8b3e
00000060: 123f 28bf 2739 aa3d 2ea5 5bbd 7d6a 7dbd
00000070: 58af 273e db50 7bbe 13f7 ae3e a2a5 f9bd
00000080: dee9 bf3e fd5e eabc 138a 97be e51f c83d
00000090: 9535 d03e 3ca8 d7bb cd16 1a3d 4ca6 863f
000000a0: eaaa 9f3e 2c18 15be 2a13 db3e eca7 323e
000000b0: a14a 393e adcc cdbd 5a2e 603e 7adb b33b
000000c0: 1ed7 1b3c 57f1 e8bd 37bd ebbe 37f8 acbb
000000d0: 684e bdbe b2e0 813e 04b5 273f 6205 203e
000000e0: cc45 e43d acfe 653f 2e36 313e b2c3 65be
000000f0: 18de 7a3f 7f90 623d 204e 393e af46 ecbd
00000100: bd82 a83e 7686 c9bd f7c8 44bd 0da7 42be
00000110: dff0 97be 6e5f 793c 05dc ad3e ead5 9c3d
00000120: e332 31be b2e2 c6be 0985 10be 9b71 a6bf
00000130: b9c2 00bf db38 b13e e1e4 42be 3aae 663e
00000140: 1170 e1bc ba14 adbd 812e 4639 f0f7 b9bc
00000150: 06b3 b93c 0bd8 40bb 8dff 03bc 232c 223c
00000160: c1f2 34bd 861a d339 6ca9 e33e 40c1 263e
00000170: 031a 843e 59a6 773f c28b 2fbf a3c5 22be
00000180: 5963 183f 19d2 dabd f276 7fbd 1988 20be
00000190: 8426 bc3c 60bb 4f3e 9c3d d7bd 5d12 e6bd
000001a0: 6037 8abd 9151 b9bc 7f80 d2bd a4d3 60bd
000001b0: 90f1 033f 69f4 983d 9590 a83e 4a6c 943f
000001c0: b057 d33d 9c74 98be 0689 1abe 4672 243e
000001d0: cbe4 843d d954 0abe bfc6 12be 15da 8abd
000001e0: f89f b2bd 0e48 073b 0ccf c33d 8e06 eebc
000001f0: bfb6 73be 829d 54be f8f8 06bf 1ce9 6bbe
00000200: 15b7 833e 3767 17bf 9612 6e3e a0d5 513e
00000210: a300 3abf b497 283d 5aa2 c3bc 2aa9 3cbd
00000220: c2ee 9fbe 9ca8 63be bb33 f73b c3d6 86bc
00000230: 6d67 0bbb 5360 8a3b b55f 333e 58a3 d73b
00000240: 7458 363f adf2 b53d 9f8d 203e aec3 de3e
00000250: 05c1 133e d2ae 85be a603 113f 54bb d53b
00000260: 65c3 613d 07bc 11be 4f7d 043f 6e93 6fbd
00000270: 608a b73c aa49 9b3e d12d 0abd 9a30 2a3e
00000280: 7b54 eb3e 1a7f 83bc 6150 01bf 7b59 17bf
00000290: 2550 913d 6684 bdbf 9ac8 40bf f1d9 a63e
000002a0: 6af1 b0be 7e93 0dbf 5330 41be b3b3 f1bd
000002b0: a21c 293c e7b1 96bd 4d1c a0bd b160 a7bd
000002c0: 8ec9 8cbd b498 2f3d 1b58 673d feb9 66bd
000002d0: 4147 32bf 6004 9e3e c0f9 8e3c 2aba a8bf
000002e0: 7a0d cc3e 6841 773e 6e42 28bf 75f5 c0bc
000002f0: 7ab8 0bbe 03ef 45bc 77cc f9bd ead6 8fbd
00000300: a5f5 823d 86e5 c23d 77cf 2a3d 1de2 25bc
00000310: e0a7 5cbc 2c3b 363d 1aae 0cbd de0e ec3e
00000320: b112 21be 6599 0bbf 5cfc 81bd fcdc 003e
00000330: 7350 14be d69e 4bbf 820d 5cbd f818 28be
00000340: c447 ad3b baaf d23e fe42 b93c 20ce 2d3d
00000350: 01b9 6ebe 45b4 93bd 9d33 163e 45b0 d53e
00000360: 84f2 a3be dbe8 ba3c 8f37 223e b361 99bf
00000370: 2ce0 a1bf 27dd 523e 4d53 e13e 8800 03bf
00000380: dd5f 9abe 8ce1 533d 16b6 063e a93c 3dbd
00000390: 4094 30be b2d2 9fbe 691d 943d 3a03 1c3d
000003a0: 1dc4 84bd 3fc7 213d 5571 663f 6545 ca3e
000003b0: fae2 593e f6c4 df3e e821 2ebf ef48 52be
000003c0: 4d6d ba3e 58e3 55be c490 f03d 22be 0ebe
000003d0: bfa8 22bb d1c5 20bd f44d 20bd fbf9 373e
000003e0: ea5f cfbd a051 683a 3a0e a6be 594c b0bd
000003f0: 683f 6c3f eea9 0cbd df8a 40bc d77b 39bf

read_encoder.block1.0.bias f4 [128]
0.024898311 -0.3627191 -0.09634355 0.04796215 -0.15747443 0.6069972 0.34066784 -0.29817456
0.41453776 -0.06297794 -0.3804942 -0.010338914 0.14230886 0.33749267 0.34588248 -0.10344247
0.44779456 -0.5634721 0.5190568 0.2618849 0.30459478 -0.2641683 0.09941473 0.5181382
0.022206131 0.08948934 0.26512244 -0.33562186 -0.41454113 -0.1883888 -0.21367334 0.26736543
0.25280365 -0.3441153 0.2527107 0.21023214 0.32036763 -0.124861516 0.12968011 -0.39505765
0.2308608 -0.3746983 0.48163673 -0.09071632 0.21760978 0.16625805 0.12365627 0.23969465
0.5023753 0.49361002 -0.22802687 -0.27628088 0.52704674 0.15453772 -0.31456676 0.44168797
0.31741685 -0.011348078 0.51196164 -0.48905697 0.121967524 -0.23073256 0.39136386 0.39781055
-0.53118974 -0.3063204 0.51819164 0.30455476 0.17527908 0.28264531 -0.43890095 0.015259162
0.011268895 0.2942925 -0.35000026 -0.36074963 0.12963593 -0.044113263 -0.07632912 0.0644346
0.16652557 0.061381508 0.14747545 -0.5978415 -0.3482115 0.28435257 -0.5433712 -0.4842519
-0.56678724 0.03596315 -0.06447123 -0.12135105 0.55363166 0.10453342 -0.31038237 -0.34110987
0.01787422 -0.61906487 -0.4301658 0.21716717 0.2842488 -0.1596957 0.29245254 -0.10048026
0.1476415 0.08748891 -0.28830102 0.49123803 0.36804387 -0.59861517 0.07680556 -0.07379008
-0.21513951 -0.1510636 -0.4958063 -0.213726 -0.61092097 -0.34042332 -0.035025306 0.523696
-0.108121395 0.67245615 0.4032881 -0.21139045 -0.33840105 -0.22513497 -0.30238438 -0.13569926
00000000: 8bf7 cb3c 51b6 b9be c44f c5bd f673 443d
00000010: fa40 21be 2b64 1b3f 046c ae3e 56aa 98be
00000020: 4b3e d43e 94fa 80bd 23d0 c2be 8c64 29bc
00000030: 6ab9 113e d7cb ac3e 8217 b13e a5d9 d3bd
00000040: 5445 e53e b53f 10bf e8e0 043f c715 863e
00000050: d9f3 9b3e 1141 87be f399 cb3d b4a4 043f
00000060: a2e9 b53c 3046 b73d 21be 873e a1d6 abbe
00000070: bc3e d4be fee8 40be 2fcd 5abe 1fe4 883e
00000080: 7b6f 813e e12f b0be 4c63 813e 1847 573e
00000090: 3a07 a43e 65b7 ffbd ddca 043e ff44 cabe
000000a0: c666 6c3e 75d8 bfbe 1799 f63e 7ac9 b9bd
000000b0: 19d5 5e3e 8d3f 2a3e 803f fd3d 8472 753e
000000c0: ab9b 003f 74ba fc3e e07f 69be b074 8dbe
000000d0: 89ec 063f 233f 1e3e e50e a1be ed24 e23e
000000e0: 7684 a23e 4aed 39bc eb0f 033f ad65 fabe
000000f0: 1cca f93d 2845 6cbe d860 c83e d3ad cb3e
00000100: 0dfc 07bf 07d6 9cbe 35a8 043f 9aee 9b3e
00000110: 5c7c 333e e3b6 903e a0b7 e0be 9001 7a3c
00000120: 2ca1 383c 82ad 963e 3c33 b3be 2db4 b8be
00000130: 48bf 043e 1cb0 34bd 7152 9cbd 4af6 833d
00000140: ae85 2a3e 2d6b 7b3d ce03 173e 240c 19bf
00000150: c748 b2be a996 913e 601a 0bbf ddef f7be
00000160: f818 11bf 194e 133d 7e09 84bd e686 f8bd
00000170: ceba 0d3f 9e15 d63d 70ea 9ebe f4a5 aebe
00000180: f56c 923c 097b 1ebf b13e dcbe 1261 5e3e
00000190: 0f89 913e 4587 23be 57bc 953e 98c8 cdbd
000001a0: 552f 173e 632d b33d 319c 93be 8d83 fb3e
000001b0: 3f70 bc3e d83e 19bf 3c4c 9d3d 411f 97bd
000001c0: 884d 5cbe 6bb0 1abe 53da fdbe fdda 5abe
000001d0: 5165 1cbf f74b aebe b276 0fbd f110 063f
000001e0: c06e ddbd 1626 2c3f c77b ce3e bd76 58be
000001f0: e742 adbe c889 66be 20d2 9abe bff4 0abe

read_encoder.block1.1.weight f4 [128]
0.75517833 1.054918 1.0572283 1.1360118 0.95203656 1.070049 1.1444242 0.35764018
1.597007 0.79177886 0.80320776 1.0897045 0.9903356 1.1089258 1.3788021 0.9351587
1.3430898 1.0745815 0.9477685 0.9629009 0.549113 0.7771272 0.8908936 1.3248993
1.5079294 1.0816141 1.282121 0.37476915 0.51342136 0.51447827 1.0131755 1.218875
0.7651254 0.99720806 1.083125 1.4690188 0.67824584 0.7085241 1.2902654 0.42592424
0.8619247 0.519283 1.1509469 0.5297827 1.0391015 0.99046254 1.4215779 1.1728207
1.3419201 1.1809162 0.50106466 0.92208064 1.1659459 0.45470643 0.32045484 1.3562127
1.0110663 1.0713441 1.3583797 0.8136534 1.0810074 1.1775888 1.3710849 1.1094921
0.910763 0.9015064 0.9513976 1.3641177 1.1404375 0.96221423 1.1212946 1.0633614
1.222124 1.4820707 0.46717238 0.604745 1.0826511 0.9065244 1.0067756 0.90060335
1.0724828 1.0243858 0.64217883 1.3780785 0.75314546 1.2660505 0.91357386 0.5973499
0.6903702 1.1612079 0.77493054 0.853182 1.5861393 0.88599485 1.202137 1.3493792
1.3730057 0.744808 0.8288123 0.689755 0.9940612 1.0136572 0.9506885 0.84526885
0.9250689 1.0789411 0.7391228 1.1595552 1.0598042 0.788204 0.8837974 0.466734
1.1630282 1.2075938 1.3151317 0.88407314 0.5606196 0.79479545 0.7761319 1.0441018
0.7199899 1.4021983 1.0558033 0.80016875 0.6925292 0.98955756 1.0826751 0.988107
00000000: 5e53 413f 8e07 873f 4253 873f d668 913f
00000010: abb8 733f 5ef7 883f 7e7c 923f 9d1c b73e
00000020: ba6a cc3f 05b2 4a3f 069f 4d3f 707b 8b3f
00000030: a286 7d3f 48f1 8d3f 967c b03f 9066 6f3f
00000040: 5eea ab3f e38b 893f f5a0 723f ac80 763f
00000050: ab92 0c3f cff1 463f 9a11 643f 4d96 a93f
00000060: d503 c13f 5572 8a3f 8a1c a43f bee1 bf3e
00000070: 956f 033f d9b4 033f bcaf 813f 1904 9c3f
00000080: 42df 433f 0749 7f3f d7a3 8a3f cf08 bc3f
00000090: 85a1 2d3f d661 353f 6b27 a53f be12 da3e
000000a0: 19a7 5c3f bbef 043f 3a52 933f d79f 073f
000000b0: 4701 853f f48e 7d3f 44f6 b53f fd1e 963f
000000c0: 0ac4 ab3f 4328 973f c645 003f 7a0d 6c3f
000000d0: b73d 953f 48cf e83e a812 a43e 6198 ad3f
000000e0: 9f6a 813f ce21 893f 63df ad3f 974b 503f
000000f0: 735e 8a3f 3bbb 963f b67f af3f d603 8e3f
00000100: c427 693f 20c9 663f cb8e 733f 699b ae3f
00000110: dbf9 913f ac53 763f 9586 8f3f 3a1c 883f
00000120: 8f6e 9c3f 7eb4 bd3f 3831 ef3e 91d0 1a3f
00000130: 5094 8a3f fc11 683f 06de 803f f18d 663f
00000140: 1e47 893f 131f 833f d565 243f e064 b03f
00000150: 24ce 403f f10d a23f fadf 693f eceb 183f
00000160: 1abc 303f 76a2 943f d961 463f 236a 5a3f
00000170: 9d06 cb3f 8fd0 623f a0df 993f 75b8 ac3f
00000180: a7be af3f bdab 3e3f 0b2d 543f c993 303f
00000190: cb7a 7e3f 85bf 813f 5260 733f 8a63 583f
000001a0: 51d1 6c3f be1a 8a3f 2737 3d3f 4e6c 943f
000001b0: aaa7 873f bdc7 493f 8c40 623f c2f7 ee3e
000001c0: 1cde 943f 6f92 9a3f 3c56 a83f 9e52 623f
000001d0: c484 0f3f b777 4b3f 95b0 463f 21a5 853f
000001e0: 4251 383f 3c7b b33f 9024 873f dcd7 4c3f
000001f0: 9849 313f a553 7d3f 1995 8a3f 95f4 7c3f

read_encoder.block1.1.bias f4 [128]
-0.505492 -0.27723798 -0.18273702 0.0051137935 -0.3637291 0.025851978 -0.042641215 -0.6508438
0.055733655 -0.38216257 -0.29273587 -0.04398193 -0.15253535 0.023601552 0.024631543 -0.19028221
-0.02759775 -0.22365016 -0.4666188 -0.33019984 -0.49323308 -0.39301145 -0.23175502 -0.027956877
-0.12278576 -0.26872763 -0.023327202 -0.67960924 -0.54429716 -0.56101614 -0.2057537 -0.24556564
-0.36965925 -0.26541793 -0.104041114 -0.101814464 -0.3302121 -0.39034855 -0.016269198 -0.5243656
-0.32264465 -0.52316064 -0.007152832 -0.53536934 -0.03920573 -0.08814285 -0.18599018 -0.10891553
0.07587462 -0.038508266 -0.52508265 -0.26004216 -0.020806652 -0.54099256 -0.7566858 -0.05445761
0.0026086743 -0.11931612 -0.065354414 -0.2706448 -0.19915974 -0.25005105 0.022356631 -0.131396
-0.17192778 -0.31601104 -0.32506043 -0.020213118 0.013114712 -0.028741723 -0.14682022 -0.12857231
-0.109087296 0.04016468 -0.53387094 -0.33937046 0.057721484 -0.24591528 -0.18116748 -0.16455218
-0.6326815 -0.1489147 -0.40747333 -0.15384747 -0.28345367 -0.3168909 -0.2021821 -0.39110675
-0.31793648 -0.07819122 -0.23006794 -0.29831988 0.0682979 -0.23443504 -0.1165396 -0.09200726
0.012085706 -0.31716788 -0.23088892 -0.28518924 -0.11883608 -0.21969458 -0.17469695 -0.27715114
-0.17142704 -0.4954742 -0.605954 0.07238197 -0.329251 -0.35150525 -0.17690489 -0.5103869
-0.22425826 -0.1335802 -0.11979754 -0.21326727 -0.43781608 -0.31168607 -0.2775217 0.054806035
-0.33744386 -0.044508874 -0.080207326 -0.2661663 -0.3883647 -0.1886085 -0.17253025 -0.15263785
00000000: ec67 01bf 23f2 8dbe 6a1f 3bbe 9c91 a73b
00000010: b33a babe 87c7 d33c 8ea8 2ebd b39d 26bf
00000020: f948 643d d0aa c3be 7ae1 95be 6526 34bd
00000030: 3a32 1cbe 0b58 c13c 17c8 c93c 57d9 42be
00000040: ad14 e2bc 8c04 65be a9e8 eebe f40f a9be
00000050: 0c89 fcbe cc38 c9be 3051 6dbe d205 e5bc
00000060: 1a77 fbbd ab96 89be b018 bfbc dffa 2dbf
00000070: 0f57 0bbf c19e 0fbf 19b1 52be 8f75 7bbe
00000080: fa43 bdbe dce4 87be 8213 d5bd 1a84 d0bd
00000090: 8f11 a9be c4db c7be fb46 85bc d33c 06bf
000000a0: ae31 a5be dbed 05bf 4e62 eabb f70d 09bf
000000b0: 3096 20bd 3d84 b4bd 3674 3ebe 1b0f dfbd
000000c0: 2764 9b3d d8ba 1dbd d16b 06bf 3f24 85be
000000d0: b672 aabc 7d7e 0abf 29b6 41bf f10e 5fbd
000000e0: 4bf6 2a3b 035c f4bd 89d8 85bd f591 8abe
000000f0: 88f0 4bbe b106 80be 4125 b73c ac8c 06be
00000100: d60d 30be 33cc a1be 526e a6be fb95 a5bc
00000110: 17df 563c c373 ebbc 0a58 16be 76a8 03be
00000120: 2969 dfbd b883 243d c4ab 08bf f7c1 adbe
00000130: 5d6d 6c3d 37d1 7bbe f883 39be 5e80 28be
00000140: 6af7 21bf 187d 18be 58a0 d0be 318a 1dbe
00000150: d720 91be 863f a2be d308 4fbe 253f c8be
00000160: 92c8 a2be b822 a0bd ee96 6bbe 62bd 98be
00000170: c5df 8b3d bd0f 70be 50ac eebd 4d6e bcbd
00000180: 2003 463c d463 a2be 256e 6cbe 5304 92be
00000190: 5560 f3bd 9ef7 60be c2e3 32be c1e6 8dbe
000001a0: 928a 2fbe cbae fdbe cd1f 1bbf 003d 943d
000001b0: 9693 a8be 7ff8 b3be 8e26 35be b7a8 02bf
000001c0: f5a3 65be 3fc9 08be 6a58 f5bd bc62 5abe
000001d0: 6e29 e0be 5195 9fbe 5317 8ebe 4b7c 603d
000001e0: 71c5 acbe f04e 36bd bd43 a4bd f346 88be
000001f0: bdd7 c6be 9622 41be c5ab 30be 194d 1cbe

read_encoder.block2.0.weight f4 [128, 128]
-0.21447627 0.03262261 -0.24495885 0.123935945 -0.090848915 0.01875051 0.043523923 0.06416225
0.01570059 0.106001444 0.21837924 0.16870463 0.28925756 -0.018763792 0.14361675 -0.02185117
-0.012071804 -0.051515754 -0.07653925 -0.071778886 0.059580564 0.098644525 -0.1372296 -0.025670566
0.3257838 0.12065541 -0.036619816 0.06725628 0.06341036 0.08671455 0.049849343 -0.15079032
0.19181626 0.20661448 0.11391966 -0.068848096 0.069210306 0.13259909 0.019216863 0.11762764
0.1804334 0.06674258 -0.023286974 -0.0008625504 -0.013818351 0.014158842 -0.12032263 0.06723258
0.09233698 -0.038563427 0.10035856 0.041392032 0.14663973 0.045390595 -0.045917124 0.14242311
0.1786226 0.008637034 0.24391142 0.107025966 -0.016815629 -0.21082811 -0.054021526 0.00093921914
0.06420572 0.0034129366 0.0830127 -0.027285974 0.15059382 -0.023187045 -0.045379695 -0.053920053
0.18635567 0.09106957 -0.006064447 0.10414723 -0.005459411 -0.018267216 -0.16055724 0.008164869
0.025279922 -0.05542118 0.19530484 -0.23966706 -0.021003826 -0.030279214 0.29175898 0.11839887
0.041589823 -0.029613193 -0.010830395 -0.031711068 0.168736 0.10190447 0.1606088 -0.0025472583
0.117840804 0.1190666 0.15372226 -0.007586067 -0.11674597 -0.024607316 0.12803021 0.01069707
-0.06566078 0.00061086944 0.19730991 -0.040324867 0.051333256 0.09315792 -0.010820668 0.2570007
-0.032551434 0.34456974 -0.0401479 -0.07942532 -0.033414274 0.13843273 0.19624567 -0.033634916
0.15448149 -0.041269857 -0.089825876 -0.010627071 -0.00096911815 0.047037967 0.09203009 -0.077960216
-0.05102818 0.00031666414 -0.045209114 0.02701698 0.035362747 0.001986915 0.05560649 0.20252134
-0.04386888 0.024124116 0.07572915 0.21017526 -0.077305555 0.091648035 -0.17795062 0.02648807
-0.032428615 0.13635975 -0.010908147 -0.11861405 -0.07430084 0.12918349 0.04432201 0.033318892
0.3074649 0.18083218 -0.4211038 0.061158538 0.005516104 0.07418205 0.249241 -0.034385093
0.12364219 0.29758468 -0.30473894 0.07942542 0.23453322 0.009168397 0.09354838 0.123453505
-0.05044948 0.030000832 -0.0496262 0.03688949 -0.2486779 0.15987146 -0.24870189 -0.03423354
-0.078097135 -0.004475586 0.08388933 -0.03259352 0.15400685 -0.046978198 0.000488812 0.076613404
0.108380884 0.0012835496 0.26131085 -0.15516813 -0.013793316 -0.026108809 0.019942092 -0.0586388
0.071658134 0.25029856 0.005685049 0.10233307 -0.10452873 -0.0067234114 0.41607764 -0.008382018
-0.09388312 -0.11282102 0.015513062 0.15298423 0.10101565 -0.12305932 -0.2636322 0.022250624
-0.13846499 -0.07530069 0.14181742 0.24048118 0.035879463 -0.053325698 0.22305305 0.08841492
0.059658155 -0.056538507 0.06959754 -0.025383603 0.2772956 0.0764504 0.00080207834 0.2512847
0.12709637 0.048891883 0.12669565 -0.019558586 0.07648199 -0.04384983 -0.29207677 -0.17188463
0.0923056 -0.21690758 0.10405729 0.040442217 -0.027752703 0.013054078 -0.0699059 0.15411924
-0.23528011 0.36220944 0.09117655 0.14679623 0.04963724 0.04655363 -0.060437594 -0.28685582
0.21239847 -0.12845786 -0.1695337 0.025627434 0.08340195 0.07350748 0.025740681 0.22385105
00000000: ab9f 5bbe 499f 053d 7ed6 7abe 21d2 fd3d
00000010: ff0e babd ab9a 993c 2446 323d 7f67 833d
00000020: 869e 803c 4917 d93d cf9e 5f3e e8c0 2c3e
00000030: 9119 943e 86b6 99bc 4510 133e 3a01 b3bc
00000040: d1c8 45bc 2f02 53bd 9cc0 9cbd cf00 93bd
00000050: c00a 743d 2406 ca3d eb85 0cbe 144b d2bc
00000060: 22cd a63e 2f1a f73d a9fe 15bd a9bd 893d
00000070: 4add 813d 6697 b13d d32e 4c3d c768 1abe
00000080: 7b6b 443e bf92 533e b64e e93d 3b00 8dbd
00000090: 22be 8d3d 0ec8 073e af6c 9d3c c3e6 f03d
000000a0: 89c3 383e 55b0 883d 53c4 bebc c71c 62ba
000000b0: 5d66 62bc 7dfa 673c b66b f6bd 3cb1 893d
000000c0: 2c1b bd3d aff4 1dbd ca88 cd3d b18a 293d
000000d0: ba28 163e 7deb 393d 9813 3cbd 5dd7 113e
000000e0: d8e8 363e 5982 0d3c eac3 793e 6e30 db3d
000000f0: eec0 89bc 53e3 57be ad45 5dbd ee35 763a
00000100: 4a7e 833d 93ab 5f3b 9002 aa3d d686 dfbc
00000110: 4435 1a3e c2f2 bdbc 0fe0 39bd 46db 5cbd
00000120: 05d4 3e3e af82 ba3d 45b8 c6bb 254b d53d
00000130: dce4 b2bb 21a5 95bc 1e69 24be f1c5 053c
00000140: d717 cf3c 5201 63bd fefd 473e 486b 75be
00000150: 3710 acbc 1d0c f8bc 6f61 953e 1b7b f23d
00000160: 175a 2a3d 5e97 f2bc f871 31bc 77e3 01bd
00000170: 21c9 2c3e 4ab3 d03d a276 243e e7ef 26bb
00000180: 8556 f13d 31d9 f33d 5e69 1d3e 8b94 f8bb
00000190: 8318 efbd 4895 c9bc 5a1a 033e c342 2f3c
000001a0: 2979 86bd c122 203a 9c0b 4a3e b02b 25bd
000001b0: d242 523d 94c9 be3d 2c49 31bc 9995 833e
000001c0: a754 05bd 726b b03e 2072 24bd bea9 a2bd
000001d0: 68dd 08bd 4fc1 0d3e a0f4 483e c4c4 09bd
000001e0: 6530 1e3e 950a 29bd a1f6 b7bd 2b1d 2ebc
000001f0: 6b0c 7eba e2aa 403d 467a bc3d 9ba9 9fbd
00000200: ed02 51bd f105 a639 312d 39bd b752 dd3c
00000210: 87d8 103d e736 023b a1c3 633d c161 4f3e
00000220: dbaf 33bd f09f c53c e217 9b3d 2f38 573e
00000230: 6052 9ebd f7b1 bb3d b038 36be 82fd d83c
00000240: ded3 04bd e4a1 0b3e 16b8 32bc eceb f2bd
00000250: 0a2b 98bd ad48 043e ff8a 353d 6479 083d
00000260: 0a6c 9d3e 122c 393e eb9a d7be 6081 7a3d
00000270: 6fc0 b43b c2ec 973d 0839 7f3e 62d7 0cbd
00000280: 1e38 fd3d 055d 983e be06 9cbe cba9 a23d
00000290: 7a29 703e 0b37 163c 4b96 bf3d 31d5 fc3d
000002a0: 1da4 4ebd 4ec4 f53c d844 4bbd 6f19 173d
000002b0: 6ba5 7ebe 58b5 233e b5ab 7ebe 7838 0cbd
000002c0: 64f1 9fbd f0a7 92bb 2bce ab3d c880 05bd
000002d0: f9b3 1d3e 366c 40bd 9e23 003a 7de7 9c3d
000002e0: ccf6 dd3d c73c a83a 89ca 853e 65e4 1ebe
000002f0: 5cfd 61bc 24e2 d5bc 995d a33c 3d2f 70bd
00000300: 80c1 923d 2227 803e a649 ba3b 0094 d13d
00000310: 2913 d6bd 1050 dcbb 2108 d53e bb54 09bc
00000320: cb45 c0bd b50e e7bd 7f2a 7e3c e6a7 1c3e
00000330: 4be1 ce3d 8606 fcbd cdfa 86be f146 b63c
00000340: c4c9 0dbe 4037 9abd 9638 113e b340 763e
00000350: 58f6 123d 0c6c 5abd 0568 643e e212 b53d
00000360: 1c5c 743d ec94 67bd 2889 8e3d 46f1 cfbc
00000370: b0f9 8d3e 0792 9c3d 9142 523a 63a8 803e
00000380: 8d25 023e db42 483d 81bc 013e 5439 a0bc
00000390: 97a2 9c3d e19b 33bd 168b 95be 8602 30be
000003a0: b80a bd3d 051d 5ebe fd1b d53d bda6 253d
000003b0: a359 e3bc c6e0 553c d32a 8fbd 6fd1 1d3e
000003c0: 45ed 70be 8473 b93e c5ba ba3d c051 163e
000003d0: 6b50 4b3d 05af 3e3d 698d 77bd c4de 92be
000003e0: fc7e 593e 758a 03be 3e9a 2dbe a0f0 d13c
000003f0: a4ce aa3d 178b 963d 1fde d23c 3639 653e

read_encoder.block2.0.bias f4 [128]
0.18096508 0.108610995 -0.09333516 0.04790696 -0.06529847 -0.015587719 0.05027516 -0.0025873643
-0.1438173 0.020200487 -0.0025621764 -0.05049591 0.11295804 0.19758756 -0.0039705588 -0.038347095
0.060917586 -0.049571842 0.16293374 -0.10923474 -0.12334503 0.17029299 0.039552614 -0.022287237
0.10452041 0.14667603 0.03663289 0.10007806 0.136522 0.1462205 0.03352348 0.14289062
0.09388265 0.16080001 0.052882582 -0.014897924 0.14060685 0.075251006 0.13706338 -0.10982271
0.2313166 -0.036090385 0.13078423 0.15411606 0.22783571 -0.0076002544 -0.10618445 0.11007315
0.077167444 -0.07132119 -0.028351631 0.23759204 0.1238979 0.24618822 0.19563743 0.15375991
0.16484979 0.15925619 0.028563041 -0.06486432 0.101143554 -0.082018554 0.029406324 0.05774124
0.038673658 0.15246588 -0.010199513 0.020836294 0.16394846 0.09133473 -0.113542184 0.20514984
0.21850578 -0.094694525 0.17348902 0.1449498 -0.0045186453 0.13428321 0.18627185 -0.02904737
-0.002678975 0.055079736 0.08129896 0.027945688 0.06268194 0.004671121 -0.010434157 0.1672683
-0.0067416686 0.19133173 -0.03389181 0.13213986 -0.11125615 0.010884239 -0.06682264 0.014374813
0.07843004 0.06598224 -0.14368784 0.06774905 0.13485348 -0.06933922 0.1062981 0.0831884
0.049839113 0.028760633 0.04435094 -0.010441997 0.15155427 0.09294408 0.12039738 0.14108016
0.073160246 0.12436447 0.08745128 0.07800423 -0.0018114678 0.017964628 0.1057058 -0.044802923
-0.11434373 0.0051954393 0.15912741 -0.06403285 0.017180832 0.021119464 -0.06711981 0.0010438111
00000000: e94e 393e 716f de3d 8126 bfbd 173a 443d
00000010: 34bb 85bd a263 7fbc 54ed 4d3d c590 29bb
00000020: d844 13be 7e7b a53c 30ea 27bb cdd4 4ebd
00000030: 8b56 e73d 6554 4a3e 761b 82bb d811 1dbd
00000040: b884 793d d80b 4bbd 1ad8 263e 77b6 dfbd
00000050: 529c fcbd 4961 2e3e ec01 223d b993 b6bc
00000060: cc0e d63d 3e32 163e 5f0c 163d baf5 cc3d
00000070: 6ccc 0b3e d4ba 153e eb4f 093d eb51 123e
00000080: 8c45 c03d c2a8 243e 689b 583d 6c16 74bc
00000090: 3efb 0f3e 331d 9a3d 585a 0c3e bbea e0bd
000000a0: 42de 6c3e 83d3 13bd 4dec 053e 9ad0 1d3e
000000b0: c44d 693e 8e0b f9bb 3c77 d9bd 086e e13d
000000c0: f709 9e3d d810 92bd ae41 e8bc 544b 733e
000000d0: 2fbe fd3d c418 7c3e 2e55 483e 3d73 1d3e
000000e0: 62ce 283e 0e14 233e 0afd e93c 96d7 84bd
000000f0: 5a24 cf3d 58f9 a7bd 88e5 f03c 1482 6c3d
00000100: 4568 1e3d 0420 1c3e dc1b 27bc e0b0 aa3c
00000110: 1be2 273e b40d bb3d ce88 e8bd cd12 523e
00000120: fbbf 5f3e 34ef c1bd 1ba7 313e b86d 143e
00000130: 2511 94bb 8a81 093e 0cbe 3e3e c0f4 edbc
00000140: be91 2fbb 4a9b 613d 1280 a63d 5bee e43c
00000150: 645f 803d 3410 993b 07f4 2abc 6248 2b3e
00000160: 37e9 dcbb 77ec 433e 23d2 0abd ac4f 073e
00000170: 44da e3bd cf53 323c 4fda 88bd 5684 6b3c
00000180: ee9f a03d b221 873d e822 13be 04c0 8a3d
00000190: 0817 0a3e b901 8ebd d1b2 d93d ae5e aa3d
000001a0: 1924 4c3d 6b9b eb3c 55a9 353d e914 2bbc
000001b0: 0b31 1b3e 7759 be3d e792 f63d 5177 103e
000001c0: 0ad5 953d cdb2 fe3d a819 b33d afc0 9f3d
000001d0: c66e edba 8e2a 933c 487c d83d 4583 37bd
000001e0: 0c2d eabd 813e aa3b 4cf2 223e a823 83bd
000001f0: d1be 8c3c ba02 ad3c 1c76 89bd 7dd0 883a

read_encoder.block2.1.weight f4 [128]
0.6555343 0.58226776 1.16796 0.69621265 1.1551664 1.0982902 1.0003337 1.1506262
1.4665474 0.8574643 0.84298134 1.1099089 0.9098873 0.67721325 1.0679082 1.1932513
0.8538166 0.88133216 0.8885176 1.2175592 1.0751555 0.8064251 1.0363376 1.1414425
0.7942457 0.80173993 0.9509796 0.924676 0.70693564 0.6878718 0.97296166 0.91257274
1.0998049 0.73687565 1.1119231 1.1600094 0.5657385 0.9141045 0.5980909 1.1383381
0.74312526 1.2661179 0.61817026 0.7982849 0.75117207 0.97042936 1.1475682 1.1509957
1.139206 1.0928745 1.1655202 0.8717028 0.8794028 0.66282886 0.7616353 0.56173176
0.5787104 0.7954574 0.76651853 1.1077013 0.67461985 1.0726154 1.1874315 1.2852131
1.0396504 0.8149273 1.0418253 1.0722677 0.8501421 1.0288696 1.30886 0.6338227
0.4743025 1.2802746 0.51110005 0.84294635 1.0375924 0.5657188 0.5435726 1.1319689
1.2479194 0.86101013 0.9699999 1.0569277 1.2167202 0.82584924 1.1825788 0.68847805
1.0674151 0.61553824 1.045544 0.885866 1.051298 1.0978526 1.1905608 1.0027031
0.9606153 0.6268565 1.1830379 1.0003927 0.8475736 1.1739644 1.0043974 0.914155
0.65674895 0.97154045 0.8963778 1.1584731 0.6250992 0.77276886 0.84177905 0.7485138
0.8264642 0.6248326 0.6060925 0.657869 0.9784772 1.0454565 0.73295736 1.197087
1.2501866 0.9704228 0.8257388 1.1345818 0.91199124 1.1316046 1.2342726 1.2092369
00000000: 19d1 273f 800f 153f b77f 953f fe3a 323f
00000010: 7edc 933f c694 8c3f ef0a 803f b847 933f
00000020: d3b7 bb3f c882 5b3f a0cd 573f 7f11 8e3f
00000030: 60ee 683f d95d 2d3f 37b1 883f 75bc 983f
00000040: ba93 5a3f fc9e 613f e475 633f fbd8 9b3f
00000050: b29e 893f e071 4e3f b6a6 843f ca1a 923f
00000060: b053 4b3f d43e 4d3f 6673 733f 91b7 6c3f
00000070: bcf9 343f 5e18 303f 0414 793f 5e9e 693f
00000080: 68c6 8c3f e2a3 3c3f 7f53 8e3f 307b 943f
00000090: 3dd4 103f c102 6a3f 7c1c 193f 10b5 913f
000000a0: 753d 3e3f 2710 a23f 6840 1e3f 665c 4c3f
000000b0: d04c 403f 0f6e 783f 84e3 923f d453 933f
000000c0: 81d1 913f 50e3 8b3f c42f 953f ea27 5f3f
000000d0: 8b20 613f 27af 293f 88fa 423f a7cd 0f3f
000000e0: 5d26 143f 19a3 4b3f 8f3a 443f 28c9 8d3f
000000f0: e3b3 2c3f 764b 893f c1fd 973f dd81 a43f
00000100: 4413 853f 139f 503f 885a 853f 1140 893f
00000110: eaa2 593f 00b2 833f b988 a73f 3442 223f
00000120: c7d7 f23e 0ae0 a33f 74d7 023f 55cb 573f
00000130: d4cf 843f f3d2 103f 9327 0b3f 5be4 903f
00000140: d3bb 9f3f 296b 5c3f ea51 783f 6849 873f
00000150: 7dbd 9b3f db6a 533f be5e 973f 1940 303f
00000160: 0fa1 883f ea93 1d3f 63d4 853f 1dc8 623f
00000170: ef90 863f 6f86 8c3f 4c64 983f 9358 803f
00000180: e2ea 753f ab79 203f c96d 973f de0c 803f
00000190: 95fa 583f 7744 963f 1890 803f 1006 6a3f
000001a0: b320 283f e0b6 783f 0479 653f d948 943f
000001b0: 8006 203f 2ed4 453f d57e 573f 9a9e 3f3f
000001c0: 2893 533f 07f5 1f3f e128 1b3f 1a6a 283f
000001d0: 7b7d 7a3f 85d1 853f 18a3 3b3f 263a 993f
000001e0: 1d06 a03f a16d 783f 9e63 533f fa39 913f
000001f0: 4278 693f 6bd8 903f a5fc 9d3f 46c8 9a3f

read_encoder.block2.1.bias f4 [128]
-0.41502926 -0.43585286 -0.15733464 -0.4566233 -0.11544483 -0.2724574 -0.27805644 -0.15486726
-0.27241173 -0.26343372 -0.39299527 -0.14904594 -0.4635182 -0.40493068 -0.33070436 -0.18168698
-0.29132602 -0.29783845 -0.2898751 -0.2182028 -0.15899883 -0.35376245 -0.25513065 -0.19497366
-0.25973982 -0.3593856 -0.22609472 -0.34091377 -0.2906933 -0.42627624 -0.2826934 -0.32338437
-0.32487026 -0.3134642 -0.16825245 -0.1813426 -0.5567615 -0.19421144 -0.37832925 -0.24814956
-0.33723137 -0.19969936 -0.40540406 -0.33122462 -0.12730166 -0.302273 -0.1555171 -0.13608287
-0.16535686 -0.31161448 -0.27465945 -0.18465048 -0.1237721 -0.3547937 -0.3660592 -0.50167274
-0.41018403 -0.1728257 -0.4117644 -0.36891323 -0.3814357 -0.35028225 -0.22675623 -0.21688183
-0.12229471 -0.29183146 -0.19203874 -0.34810942 -0.3774957 -0.2632225 -0.33230057 -0.2836351
-0.5123291 -0.23875138 -0.4954214 -0.14718802 -0.09744092 -0.4192452 -0.40474424 -0.2830915
-0.220418 -0.35992026 -0.3339726 -0.1938572 -0.1358453 -0.38053766 -0.14637199 -0.44836798
-0.2017648 -0.31936818 -0.22506328 -0.15166932 -0.18222433 -0.1461303 -0.1288357 -0.33289206
-0.24413858 -0.6832085 -0.13298286 -0.16872081 -0.33296084 -0.17111303 -0.37133616 -0.37309033
-0.29360095 -0.24346928 -0.21995103 -0.2134346 -0.31662682 -0.36741844 -0.3274655 -0.32653677
-0.26428393 -0.2743898 -0.31872422 -0.37199795 -0.36148626 -0.22780555 -0.4571179 -0.19596563
-0.11665449 -0.21927743 -0.120552346 -0.3028434 -0.40067276 -0.2673432 -0.14395663 -0.28362453
00000000: b77e d4be 1b28 dfbe 551c 21be 87ca e9be
00000010: 576e ecbd 897f 8bbe 6a5d 8ebe 8695 1ebe
00000020: 8d79 8bbe c9e0 86be ad36 c9be 809f 18be
00000030: 4252 edbe 1353 cfbe 1552 a9be 270c 3abe
00000040: af28 95be 487e 98be 826a 94be 8e70 5fbe
00000050: 97d0 22be 5a20 b5be 7ca0 82be 2da7 47be
00000060: 9efc 84be 6401 b8be 6085 67be 408c aebe
00000070: c1d5 94be e140 dabe 30bd 90be a392 a5be
00000080: 6555 a6be 617e a0be 5f4a 2cbe e0b1 39be
00000090: ec87 0ebf 5ddf 46be 5fb4 c1be eb1a 7ebe
000000a0: 97a9 acbe fd7d 4cbe 1f91 cfbe 4696 a9be
000000b0: 5e5b 02be 87c3 9abe e03f 1fbe 4f59 0bbe
000000c0: 4f53 29be ef8b 9fbe 2aa0 8cbe 0415 3dbe
000000d0: 3a7c fdbd 85a7 b5be 1d6c bbbe a06d 00bf
000000e0: a403 d2be 38f9 30be c9d2 d2be 32e2 bcbe
000000f0: 8a4b c3be 3258 b3be c932 68be 4516 5ebe
00000100: a675 fabd ef6a 95be cea5 44be 663b b2be
00000110: 1e47 c1be 19c5 86be 4d23 aabe 9f38 91be
00000120: 0028 03bf 3e7b 74be e0a7 fdbe 75b8 16be
00000130: 1b8f c7bd 4fa7 d6be a33a cfbe 5ef1 90be
00000140: 42b5 61be 7847 b8be 75fe aabe 8082 46be
00000150: 081b 0bbe d5d5 c2be 8ae2 15be 7d90 e5be
00000160: 6f9b 4ebe 3a84 a3be fd76 66be 344f 1bbe
00000170: 0499 3abe 2ea3 15be 81ed 03be d470 aabe
00000180: 77ff 79be c1e6 2ebf a92c 08be 26c5 2cbe
00000190: d879 aabe 4138 2fbe c61f bebe b205 bfbe
000001a0: dd52 96be 0350 79be d83a 61be 9a8e 5abe
000001b0: e91c a2be 451e bcbe 8fa9 a7be d42f a7be
000001c0: 3950 87be d27c 8cbe d22f a3be 8476 bebe
000001d0: ba14 b9be dc45 69be 5b0b eabe 37ab 48be
000001e0: 8de8 eebd 438a 60be 26e4 f6bd 4a0e 9bbe
000001f0: fb24 cdbe 35e1 88be 5e69 13be 3c37 91be

read_encoder.block3.0.weight f4 [128, 128]
-0.092253245 -0.21030165 -0.035167925 0.07325597 -0.0044512646 0.118017375 0.11643964 -0.07114338
0.0063316505 0.07734073 -0.03929011 0.24779013 0.19627044 0.10183195 -0.058101993 -0.05464716
0.09870273 0.013369959 0.1459293 0.16185814 -0.19618191 0.120816104 0.15137915 0.11869494
-0.043189194 -0.04740694 0.09288908 0.015458262 0.083616845 0.076818526 0.03678806 0.12960796
0.18136099 0.111550584 0.018509863 -0.29737177 0.034508515 0.08683556 -0.02576025 0.02802469
-0.029371936 -0.090431385 0.14310831 0.012969903 0.15358832 0.036838785 0.051495615 -0.010357419
0.12629469 0.060153622 -0.012027657 0.20872393 0.15128414 0.13187215 0.08889113 0.11721497
0.050471533 0.0016043603 -0.07836517 -0.23682895 0.026471473 0.19173893 0.20706935 0.32406428
0.056975797 -0.012503751 0.05031199 0.09555293 0.04792164 0.08566894 -0.17004468 -0.052043147
0.024796091 0.30465636 -0.02707196 0.11550992 0.012416795 0.08016443 -0.052853696 0.12082761
-0.22534505 -0.09179986 0.09373609 -0.111519784 -0.018200902 -0.06651798 -0.15416081 0.021709474
-0.13452746 0.039249506 -0.14814289 0.09929727 0.15327226 0.09809374 -0.22035594 -0.031113174
0.11435824 -0.011671771 -0.07170031 0.06390164 0.07910555 0.13694498 0.19488747 0.15880665
0.00024450294 -0.0228154 0.22774231 0.22110048 -0.10599502 -0.0018525062 -0.010860138 0.017145485
-0.030987592 0.0583437 0.13324456 0.14022578 -0.0011642224 0.05229525 0.16862845 0.26054993
0.008548953 0.013846258 0.13665473 0.06784304 0.01624936 -0.12730306 -0.049562547 -0.2863682
0.19555156 0.061283104 0.01684968 -0.14735202 -0.043266557 0.08508198 0.097766206 0.13412908
0.0013858926 0.07537905 0.13829261 -0.22802788 -0.11399199 0.30484495 -0.14589624 0.1430267
0.35558608 -0.15348302 -0.030911494 0.48093298 -0.26523644 0.15921491 -0.123777606 0.13141544
0.13862248 0.049775906 -0.107283436 0.04002837 0.08205436 0.002548689 -0.28733048 0.10052082
0.2202668 0.093905576 0.061587572 -0.008457146 0.10113794 0.073745675 0.085632674 -0.33099476
0.28540626 0.029917838 0.14780971 0.26805064 -0.044728447 -0.014157348 -0.68416584 0.25602183
-0.21005677 -0.07050115 -0.14777975 -0.1568985 0.05439058 0.23636308 0.10843301 -0.08572728
-0.18400122 0.09989362 0.050089236 0.0570695 0.29873812 -0.29339728 0.07443287 0.27470234
-0.18026721 0.034872714 -0.4029283 0.20948088 0.34388202 -0.089837275 -0.1281253 0.19328806
0.12643331 0.30992308 0.20547706 0.13582811 -0.22272412 -0.2875198 0.0844555 0.15580273
0.06725188 0.16855572 0.3123641 -0.21710204 0.11213688 0.0015253127 0.12352006 0.35673788
0.10150088 0.15618718 0.015812716 -0.13851732 0.57938254 -0.3503735 -0.27420685 0.34730607
-0.045561306 0.17883112 -0.3824794 -0.07275086 -0.06876123 -0.042181104 0.0051478227 0.24402693
-0.1363037 -0.07820581 0.18299438 0.3956137 0.39991274 -0.073901266 0.25518835 0.2299742
-0.07959138 0.15527634 -0.083013125 -0.0709057 0.16723871 -0.34506127 -0.08882392 0.15669851
-0.11704504 0.06924614 0.24543229 -0.09493537 -0.15577342 0.065617025 -0.25620523 0.13730982
00000000: 45ef bcbd 5159 57be 3e0c 10bd 3a07 963d
00000010: eadb 91bb 18b3 f13d e877 ee3d 9fb3 91bd
00000020: bc79 cf3b d164 9e3d abee 20bd b2bc 7d3e
00000030: 1efb 483e 458d d03d 5bfc 6dbd b3d5 5fbd
00000040: a824 ca3d ac0d 5b3c 7e6e 153e 24be 253e
00000050: e9e3 48be 6f6e f73d 2303 1b3e 5516 f33d
00000060: 27e7 30bd c82d 42bd a13c be3d a644 7d3c
00000070: 4f3f ab3d 0853 9d3d 14af 163d f3b7 043e
00000080: b2b6 393e a274 e43d ffa1 973c 1d41 98be
00000090: cd58 0d3d d8d6 b13d 2907 d3bc 0994 e53c
000000a0: 6a9d f0bc 1734 b9bd fc8a 123e b77f 543c
000000b0: 4246 1d3e 44e4 163d 11ed 523d 2ab2 29bc
000000c0: 6553 013e a563 763d a60f 45bc babb 553e
000000d0: 3bea 1a3e 7e09 073e 8e0c b63d 670e f03d
000000e0: 3dbb 4e3d 6649 d23a eb7d a0bd 4a83 72be
000000f0: b4da d83c 3657 443e fd09 543e c1eb a53e
00000100: 745f 693d 88dc 4cbc f213 4e3d 41b1 c33d
00000110: 7b49 443d 3273 af3d 3120 2ebe 322b 55bd
00000120: 2c21 cb3c ebfb 9b3e 04c6 ddbc 7790 ec3d
00000130: d06f 4b3c 402d a43d 1e7d 58bd 7774 f73d
00000140: dac0 66be 9101 bcbd b5f8 bf3d 7c64 e4bd
00000150: 0f1a 95bc 943a 88bd 55dc 1dbe 11d8 b13c
00000160: 91c1 09be 17c4 203d c5b2 17be 5e5c cb3d
00000170: 67f3 1c3e 5fe5 c83d fda4 61be 0ee1 febc
00000180: a734 ea3d f53a 3fbc 9dd7 92bd ddde 823d
00000190: 1702 a23d 4e3b 0c3e 9590 473e 369e 223e
000001a0: a130 8039 5de7 babc 4835 693e 2a68 623e
000001b0: eb13 d9bd cbcf f2ba b8ee 31bc b074 8c3c
000001c0: b1d9 fdbc cef9 6e3d 4371 083e 5997 0f3e
000001d0: d298 98ba 8b33 563d f0ac 2c3e cd66 853e
000001e0: e810 0c3c 6adb 623c 38ef 0b3e 4bf1 8a3d
000001f0: 611d 853c bc5b 02be 1902 4bbd da9e 92be
00000200: ab3e 483e fe03 7b3d 5708 8a3c 73e3 16be
00000210: 4638 31bd 763f ae3d a639 c83d 2259 093e
00000220: d7a6 b53a 5560 9a3d 949c 0d3e 2480 69be
00000230: a274 e9bd a314 9c3e d365 15be 9775 123e
00000240: 610f b63e a72a 1dbe 1a3a fdbc d93c f63e
00000250: 12cd 87be 3c09 233e 1d7f fdbd c591 063e
00000260: 0df3 0d3e d2e1 4b3d 6bb7 dbbd caf4 233d
00000270: 1e0c a83d e807 273b fb1c 93be dcdd cd3d
00000280: 9f8d 613e 9151 c03d 4043 7c3d d78f 0abc
00000290: 6921 cf3d f907 973d 2f60 af3d 2578 a9be
000002a0: c520 923e 4116 f53c 6e5b 173e ef3d 893e
000002b0: 2d35 37bd 39f4 67bc 7e25 2fbf 4b15 833e
000002c0: 1f19 57be e862 90bd 9353 17be 00aa 20be
000002d0: a8c8 5e3d 2a09 723e 2012 de3d c991 afbd
000002e0: d16a 3cbe 0795 cc3d 5f2a 4d3d b5c1 693d
000002f0: 34f4 983e 2b38 96be 4370 983d c9a5 8c3e
00000300: f897 38be b1d6 0e3d 9e4c cebe 2882 563e
00000310: 4e11 b03e 9bfc b7bd 4733 03be 4eed 453e
00000320: bc77 013e 3dae 9e3e 9468 523e 8616 0b3e
00000330: cb11 64be cc35 93be 01f7 ac3d c08a 1f3e
00000340: 5bbb 893d df99 2c3e 30ee 9f3e ff4f 5ebe
00000350: 05a8 e53d 00ed c73a 16f8 fc3d 59a6 b63e
00000360: b2df cf3d 88ef 1f3e ab89 813c 7cd7 0dbe
00000370: 6a52 143f 2864 b3be d764 8cbe 1ad2 b13e
00000380: 7e9e 3abd 811f 373e 57d4 c3be 67fe 94bd
00000390: b0d2 8cbd 18c6 2cbd 11af a83b 32e2 793e
000003a0: 3293 0bbe 5e2a a0bd e162 3b3e e18d ca3e
000003b0: 5dc1 cc3e 8c59 97bd 0ca8 823e 5b7e 6b3e
000003c0: ce00 a3bd c300 1f3e c902 aabd 0237 91bd
000003d0: a040 2b3e dfab b0be 51e9 b5bd 9375 203e
000003e0: 4fb5 efbd ecd0 8d3d 9a52 7b3e 7a6d c2bd
000003f0: 1183 1fbe 3862 863d 552d 83be f29a 0c3e

read_encoder.block3.0.bias f4 [128]
0.021668522 0.15888707 -0.055197548 0.104956605 -0.11540134 -0.061400328 0.09966195 0.085750274
0.029709548 0.0052937004 -0.02355851 -0.12119404 0.14479947 0.17340592 -0.09672772 0.08252654
0.032896347 0.1808693 0.13116844 -0.022347327 0.19269487 0.06926024 0.052979298 -0.018074404
0.13779779 0.12508717 0.017947892 0.18449597 0.0684173 0.077856004 0.16671756 0.17448948
0.122321025 0.014711938 0.011944916 0.021603983 0.028402334 0.07840542 0.0294131 0.054611363
0.030182377 -0.0053014737 0.0018635021 -0.09102637 -0.057404 0.13355204 0.06573312 0.01722174
0.07405725 -0.046523362 0.04898267 0.04915126 -0.034706607 0.035333417 0.14271525 0.09887258
0.15684891 0.100654416 -0.044835165 0.048602376 -0.015445938 -0.08749028 0.06411195 0.14000376
0.072003074 0.15485649 0.16849598 0.017330544 0.044638824 0.16399218 0.13088213 0.12605941
0.010169251 0.035887133 0.09406084 -0.063178785 0.030141992 -0.0064896704 -0.019955032 -0.08042633
-0.04390596 0.07843773 0.07218732 0.04529492 0.009402352 0.014693358 0.12200187 0.0970171
-0.036963552 0.10024014 0.16210574 -0.014176901 -0.06078414 -0.0084386645 0.0004572636 0.014716353
0.049437523 0.034701355 -0.010756353 0.024030983 0.15119429 -0.19741373 0.15751253 0.033763874
-0.0016587415 -0.06028393 0.06961348 -0.18197304 0.013134062 0.08780304 0.16539024 0.08854805
0.074813224 0.029143253 0.028565843 0.13214305 0.041474283 0.09281731 -0.020152144 0.10612963
-0.034675345 -0.13936846 -0.08611677 -0.08572284 -0.016177155 -0.056337133 0.22289477 0.08394875
00000000: 2f82 b13c 4bb3 223e d316 62bd 7df3 d63d
00000010: 8a57 ecbd e97e 7bbd 901b cc3d d79d af3d
00000020: 7061 f33c c776 ad3b c7fd c0bc 9534 f8bd
00000030: 5046 143e 5291 313e 2f19 c6bd ad03 a93d
00000040: 52be 063d cd35 393e 0551 063e be11 b7bc
00000050: ce51 453e 50d8 8d3d d200 593d c610 94bc
00000060: dd1a 0d3e da16 003e 7507 933c 83ec 3c3e
00000070: 5f1e 8c3d f872 9f3d 02b8 2a3e 5fad 323e
00000080: 7283 fa3d 570a 713c 9cb4 433c d6fa b03c
00000090: 03ac e83c 0593 a03d bef3 f03c 2ab0 5f3d
000000a0: 0841 f73c fcb7 adbb c140 f43a 096c babd
000000b0: 7520 6bbd dec1 083e 169f 863d 9b14 8d3c
000000c0: 54ab 973d 488f 3ebd 0da2 483d d552 493d
000000d0: 8428 0ebd c6b9 103d f223 123e b57d ca3d
000000e0: 009d 203e e723 ce3d 14a5 37bd 4913 473d
000000f0: f610 7dbc 1b2e b3bd 204d 833d 255d 0f3e
00000100: 5976 933d b392 1e3e 368a 2c3e c9f8 8d3c
00000110: 33d7 363d 91ed 273e f705 063e b815 013e
00000120: ee9c 263c 63fe 123d f8a2 c03d e163 81bd
00000130: 57ec f63c 4da7 d4bb bc78 a3bc 8fb6 a4bd
00000140: bcd6 33bd f6a3 a03d f2d6 933d 2b87 393d
00000150: 530c 1a3c 69bc 703c 1edc f93d e7b0 c63d
00000160: 1867 17bd b44a cd3d 0cff 253e 3c46 68bc
00000170: caf8 78bd 5342 0abc e2bc ef39 dc1c 713c
00000180: 007f 4a3d 0223 0e3d 6a3b 30bc a0dc c43c
00000190: add2 1a3e d326 4abe f74a 213e fd4b 0a3d
000001a0: 216a d9ba 48ec 76bd 8391 8e3d 2457 3abe
000001b0: 4030 573c 15d2 b33d 0f5c 293e ae58 b53d
000001c0: ad37 993d d5bd ee3c ea02 ea3c 8250 073e
000001d0: f0e0 293d 0017 be3d 1c16 a5bc 7e5a d93d
000001e0: bc07 0ebd 9bb6 0ebe fd5d b0bd 758f afbd
000001f0: f485 84bc c4c1 66bd 873e 643e 52ed ab3d

read_encoder.block3.1.weight f4 [128]
0.6791842 0.8836859 1.5265131 0.4956783 1.0198826 0.95960647 0.8774317 0.99137616
1.172572 0.82367057 1.093257 1.0536258 0.85789376 0.68441063 0.8312779 0.9196124
0.8109025 0.7249387 0.835269 0.8350756 0.8539066 0.8503531 0.5176647 1.1345875
0.8905155 0.9126855 0.8123317 0.8483274 1.0505817 0.8539358 0.85724014 0.85427827
0.9044015 1.2710993 0.83020335 1.2151933 0.5903455 1.1173362 0.49936235 0.9205699
0.7949299 1.139567 0.8359015 0.9184673 1.4716487 0.9914071 0.87966657 1.199943
1.137053 1.1124363 0.87554216 1.1101578 1.3217916 0.74772394 0.77956855 0.72138023
0.77711403 1.1958772 0.5323287 0.73930764 0.7740413 1.0272263 0.9112544 0.9012489
1.142915 0.8505982 0.98955125 0.74245495 0.802875 0.8381056 1.0345534 0.7644013
0.7710005 0.8316717 0.8399081 1.5099126 1.2838396 0.49376118 0.7388298 1.1364079
1.5517008 0.8635238 0.7157339 1.0058217 1.0193453 0.8402234 1.2012062 0.7691634
1.2901287 0.8361057 0.9689395 1.1416724 1.2362778 1.1704789 0.8672502 0.61547786
0.8177825 0.71422994 1.2487056 0.59564555 0.8541153 1.3149214 0.9616903 0.77049226
0.88182575 0.8905439 1.0783958 1.0870068 0.8634231 0.5467316 0.73632526 0.88123864
0.82720774 0.80959034 0.6329005 0.8193784 0.89625263 0.9715666 0.928872 0.84604454
1.6323829 1.1803038 1.4005576 1.0673257 0.6915275 1.3243259 0.82020324 0.83665824
00000000: 04df 2d3f 3d39 623f c864 c33f 8cc9 fd3e
00000010: 838b 823f c5a8 753f 5d9f 603f d4ca 7d3f
00000020: d716 963f 13dc 523f d8ef 8b3f 36dd 863f
00000030: ed9e 5b3f 8935 2f3f a1ce 543f b86b 6b3f
00000040: 4e97 4f3f 9595 393f 30d4 553f 84c7 553f
00000050: 9f99 5a3f beb0 593f ac85 043f 2a3a 913f
00000060: d3f8 633f c2a5 693f f8f4 4f3f fc2b 593f
00000070: 7679 863f 899b 5a3f 1774 5b3f fbb1 5a3f
00000080: db86 673f 62b3 a23f 3588 543f 748b 9b3f
00000090: e220 173f df04 8f3f 6cac ff3e 78aa 6b3f
000000a0: 8780 4b3f 55dd 913f a4fd 553f ac20 6b3f
000000b0: fc5e bc3f dbcc 7d3f d431 613f bb97 993f
000000c0: f48a 913f 5064 8e3f 8823 603f a719 8e3f
000000d0: 7830 a93f d66a 3f3f ce91 473f 60ac 383f
000000e0: f2f0 463f 8112 993f b246 083f 4443 3d3f
000000f0: 9227 463f 277c 833f f847 693f 3fb8 663f
00000100: 0a4b 923f cec0 593f 3b53 7d3f 8711 3e3f
00000110: 3789 4d3f 178e 563f 3f6c 843f ceaf 433f
00000120: 4a60 453f 70e8 543f 3804 573f d144 c13f
00000130: db54 a43f 44ce fc3e f323 3d3f d075 913f
00000140: 229e c63f e50f 5d3f 563a 373f c4be 803f
00000150: e879 823f e118 573f 20c1 993f e5e7 443f
00000160: f022 a53f 060b 563f 6b0c 783f 5222 923f
00000170: 5a3e 9e3f 41d2 953f 1c04 5e3f f58f 1d3f
00000180: 325a 513f c6d7 363f 96d5 9f3f 3a7c 183f
00000190: 4da7 5a3f 584f a83f 5631 763f fb3e 453f
000001a0: 55bf 613f affa 633f e008 8a3f 0a23 8b3f
000001b0: 4c09 5d3f 9af6 0b3f d07f 3c3f db98 613f
000001c0: e3c3 533f 5041 4f3f c405 223f c8c2 513f
000001d0: d070 653f 97b8 783f 8eca 6d3f 6096 583f
000001e0: ecf1 d03f 3214 973f 7945 b33f 219e 883f
000001f0: f207 313f 8383 a93f d7f8 513f 3c2f 563f

read_encoder.block3.1.bias f4 [128]
-0.35598934 -0.2452433 -0.13917938 -0.50535107 -0.21476652 -0.20021927 -0.09010873 -0.08258392
-0.08142932 -0.16678509 -0.51030326 -0.15140776 -0.13235159 -0.25204116 -0.25571746 -0.11184476
-0.119422175 -0.16770151 -0.10622378 -0.22241272 -0.11703549 -0.12930897 -0.35722262 -0.028976407
-0.06733117 -0.1246215 -0.24098574 -0.09271449 -0.086175956 -0.1263179 -0.047099333 -0.115133
-0.105010636 -0.20336166 -0.24095684 -0.13815963 -0.5670513 -0.07945977 -0.01601941 -0.098500416
-0.14087497 -0.13724063 -0.12658161 -0.25974727 -0.084433585 -0.039137635 -0.06966841 -0.058480203
-0.063494086 -0.1661349 -0.092707045 -0.07118782 -0.14524744 -0.1630614 -0.15530837 -0.19680975
-0.2143906 -0.10672015 -0.44476008 -0.19286071 -0.26977858 -0.2660722 -0.27125785 -0.1199222
-0.10268377 -0.09739334 -0.04007303 -0.2925915 -0.15701135 -0.12621848 -0.048381556 -0.29734656
-0.3870874 -0.24942064 -0.18377027 -0.16262195 -0.044658285 -0.40774587 -0.2129212 -0.2391778
-0.2462671 -0.1266456 -0.2936378 -0.037519325 -0.109846465 -0.10890664 -0.13288732 -0.19032602
-0.093313575 -0.13668613 -0.07904241 -0.07126778 -0.1581959 -0.07495071 -0.11997653 -0.30695236
-0.13900265 -0.377382 -0.028628986 -0.35090137 -0.18228754 -0.35927486 -0.08398085 -0.2044307
-0.2888784 -0.3594656 -0.0776109 -0.36471406 -0.103878886 -0.26702398 -0.17888138 -0.06976095
-0.120807655 -0.13534112 -0.19737674 -0.20641102 -0.45700416 -0.07018194 -0.35847104 -0.1889893
-0.3382384 -0.09338313 -0.15416743 -0.15898737 -0.24627659 -0.05808506 -0.12878878 -0.10298698
00000000: 3c44 b6be 0f21 7bbe 0a85 0ebe b05e 01bf
00000010: c1eb 5bbe 4806 4dbe ed8a b8bd c221 a9bd
00000020: 6ac4 a6bd b6c9 2abe 3ca3 02bf a30a 1bbe
00000030: 2d87 07be 8a0b 81be 66ed 82be de0e e5bd
00000040: 9d93 f4bd f2b9 2bbe da8b d9bd 29c0 63be
00000050: 4eb0 efbd 9269 04be e2e5 b6be ee5f edbc
00000060: ede4 89bd 8f39 ffbd f7c4 76be 18e1 bdbd
00000070: 057d b0bd 7b59 01be 3beb 40bd daca ebbd
00000080: d10f d7bd 0a3e 50be 64bd 76be b879 0dbe
00000090: 462a 11bf cebb a2bd 233b 83bc 96ba c9bd
000000a0: 8741 10be cf88 0cbe 9c9e 01be 98fd 84be
000000b0: 84eb acbd c94e 20bd 50ae 8ebd f088 6fbd
000000c0: 3009 82bd 441f 2abe 31dd bdbd ebca 91bd
000000d0: bfbb 14be 91f9 26be 2809 1fbe 7f88 49be
000000e0: 3689 5bbe 1890 dabd 98b7 e3be 477d 45be
000000f0: 6b20 8abe 9e3a 88be 4fe2 8abe c599 f5bd
00000100: de4b d2bd 2976 c7bd 9e23 24bd 8ece 95be
00000110: 95c7 20be 6b3f 01be bd2b 46bd cf3d 98be
00000120: 5230 c6be 2068 7fbe 462e 3cbe 5e86 26be
00000130: 9beb 36bd 11c4 d0be 0408 5abe 06eb 74be
00000140: 712d 7cbe 62af 01be b257 96be ddad 19bd
00000150: 2ff7 e0bd 720a dfbd 9d13 08be d3e4 42be
00000160: 301b bfbd 73f7 0bbe fde0 a1bd d8f4 91bd
00000170: 1bfe 21be c27f 99bd 41b6 f5bd dc28 9dbe
00000180: b656 0ebe 3738 c1be 5687 eabc 58a9 b3be
00000190: 96a9 3abe e0f2 b7be 27fe abbd 4856 51be
000001a0: dfe7 93be e00b b8be 77f2 9ebd cdbb babe
000001b0: 74be d4bd 5eb7 88be ae2c 37be d4de 8ebd
000001c0: 016a f7bd dd96 0abe 211d 4abe 695d 53be
000001d0: 73fc e9be 8dbb 8fbd 8489 b7be 6986 41be
000001e0: 952d adbe a83f bfbd 11de 1dbe 96cd 22be
000001f0: ee2f 7cbe 9aea 6dbd 35e1 03be d6ea d2bd

bag_predictor.weight f4 [1, 128]
-0.034333285 -0.032831185 -0.16894345 0.0033541522 0.16951837 0.052768175 -0.047744792 -0.091610946
-0.2005994 -0.03371397 0.06891106 0.14414714 -0.044174727 -0.030135525 0.08044688 -0.084652744
-0.03661458 -0.03264061 -0.04666223 0.059316937 -0.04497018 -0.03774362 -0.011044837 -0.13860077
-0.050772555 -0.035242982 0.06782398 -0.042829603 -0.06935521 -0.038139213 -0.044885434 -0.045988627
-0.04464665 -0.09999818 0.14721097 -0.18775645 -0.010315165 -0.08955038 -0.05007035 -0.032662366
-0.044534747 -0.14013353 -0.03547977 0.03518913 -0.14220983 -0.060093477 -0.04187946 -0.19472688
-0.13819875 0.14879562 -0.050400745 -0.090775535 -0.15947513 -0.05154229 -0.039941736 -0.04951023
-0.043616425 -0.120273806 0.079176456 -0.040975496 -0.04180871 0.16250637 -0.020366132 -0.038986515
-0.16192792 -0.04778715 -0.03826251 0.07853984 -0.0465002 -0.04222148 -0.028052699 -0.007481048
0.05060566 0.11651738 -0.042859018 -0.19365078 -0.16443823 -0.023779472 -0.054236803 0.048569724
-0.1833295 -0.039149165 0.00043160285 -0.041110918 -0.1298075 -0.035889544 -0.11229495 -0.043538373
-0.13973477 -0.04052067 -0.060638975 -0.105979815 0.22949915 -0.15121618 -0.030648796 -0.0032472762
-0.040084288 0.043025263 -0.12666655 -0.026010865 -0.0292878 0.26555043 -0.06308388 -0.0263285
0.017892404 0.028871216 -0.09123176 0.1822662 -0.03127732 -0.025227228 -0.040823285 -0.062111124
-0.040041596 -0.034920715 -0.008811241 -0.035821967 0.0005639844 -0.031690396 0.076197885 -0.044555116
-0.2850214 0.2515805 -0.16660635 0.21146806 -0.0002677757 -0.17291541 -0.054292537 -0.03344867
00000000: 0fa1 0cbd fe79 06bd 83ff 2cbe 56d1 5b3b
00000010: 3996 2d3e 7123 583d 0b90 43bd 859e bbbd
00000020: ee69 4dbe a917 0abd 3e21 8d3d 4f9b 133e
00000030: 8ff0 34bd c7de f6bc 55c1 a43d 6b5e adbd
00000040: 2bf9 15bd 29b2 05bd e520 3fbd 51f6 723d
00000050: a732 38bd 0e99 1abd 67f5 34bc 5ced 0dbe
00000060: e2f6 4fbd f25a 10bd 4ce7 8a3d 186e 2fbd
00000070: 1b0a 8ebd dd37 1cbd cad9 37bd 925e 3cbd
00000080: 68df 36bd d9cb ccbd 79be 163e 3a43 40be
00000090: f000 29bc 3166 b7bd 9116 4dbd f9c8 05bd
000000a0: 116a 36bd 2a7f 0fbe 3c53 11bd 7a22 103d
000000b0: 749f 11be 9424 76bd cc89 2bbd 7c66 47be
000000c0: f983 0dbe e15d 183e 0371 4ebd 86e8 b9bd
000000d0: 734d 23be 021e 53bd f299 23bd 3dcb 4abd
000000e0: 23a7 32bd 1d52 f6bd 4427 a23d ecd5 27bd
000000f0: 9c3f 2bbd 1268 263e e0d6 a6bc 53b0 1fbd
00000100: 6fd0 25be 75bc 43bd 26b9 1cbd 7fd9 a03d
00000110: fe76 3ebd 6ef0 2cbd c6ce e5bc 9423 f5bb
00000120: e147 4f3d aaa0 ee3d f08c 2fbd 644c 46be
00000130: 7f62 28be 2bcd c2bc 6927 5ebd 0cf1 463d
00000140: baba 3bbe e05a 20bd c148 e239 ec63 28bd
00000150: 42ec 04be ea00 13bd e5fa e5bd 4b55 32bd
00000160: a216 0fbe 01f9 25bd 9360 78bd f20b d9bd
00000170: d301 6b3e 6ad8 1abe 2f13 fbbc 41d0 54bb
00000180: 6c2f 24bd 423b 303d e0b4 01be bd14 d5bc
00000190: f8ec efbc 3af6 873e 1f32 81bd deae d7bc
000001a0: 1793 923c 5483 ec3c b8d7 babd fea3 3a3e
000001b0: a61c 00bd 55a9 cebc 5136 27bd 3c68 7ebd
000001c0: a802 24bd 0609 0fbd 065d 10bc 0eba 12bd
000001d0: 5ad8 133a cacd 01bd a30d 9c3d 6d7f 36bd
000001e0: 53ee 91be 29cf 803e db9a 2abe 158b 583e
000001f0: 3f64 8cb9 bd10 31be da61 5ebd 7901 09bd
