m6aReplica/3d_66/Models/epoch86_rocauc0.903_valpr0.401_valscore1.304.pth (torch, 152221 bytes, 13 tensors)

read_encoder.block1.0.weight f4 [128, 18]
000000 a5 27 8b 3e 38 88 5b 3f 79 6e e8 bd f8 4b d2 3f
       0.27178684 0.8575473 -0.11349196 1.6429434
000010 e5 d2 bb bf 9b 97 7a 3c 00 28 93 3f 3c c2 ef 3e
       -1.4673735 0.015294935 1.1496582 0.46827877
000020 05 6b 08 3f 5d d0 31 be eb d5 76 3d d9 95 39 be
       0.532883 -0.1736464 0.0602626 -0.18123569
000030 7f 66 ad bd f4 1b 34 be c0 b7 0c be 47 7d d0 3d
       -0.08466815 -0.17588788 -0.1374197 0.10180145
000040 ad 28 53 3d 7e ea 0f 3b 0b 0e 60 bf 88 a5 f1 3e
       0.051552463 0.0021959837 -0.8752143 0.47196603
000050 fc a9 25 be 29 92 bc bf 63 c6 82 3d 06 0f c8 3e
       -0.16178125 -1.4732105 0.063854955 0.39073962
000060 e9 43 ae bf ba f6 18 3f ab 8c de bd 0c 81 53 bd
       -1.3614475 0.59751475 -0.10866674 -0.05163674
000070 a5 21 fc 3d 83 5c 96 be 17 e3 a1 3e e1 6d d0 bd
       0.12311105 -0.29367456 0.31618568 -0.10177208
000080 24 ae 05 3f 02 c5 da bd 1d 5c a9 be 52 ee 45 3e
       0.5221884 -0.106821075 -0.3307809 0.19329193
000090 59 4c 80 3f fb f0 82 be b2 3d b3 3b 87 57 f9 3f
       1.00233 -0.25574479 0.005470001 1.9479836
0000a0 40 61 f6 3e 89 5e 5e be 7f 86 99 3f 87 8e 1c 3e
       0.4812107 -0.2171575 1.199417 0.15288745
0000b0 87 cc 80 3e 20 39 0b be c9 c9 c5 3e c5 db 7e 3d
       0.25156042 -0.1359601 0.38630512 0.062221307
0000c0 eb b1 a1 3d 6a 85 8b be 68 a4 17 bf d8 eb ba bd
       0.07895263 -0.27250224 -0.5923524 -0.09127015
0000d0 4c 9a 03 bf e7 3c 8b 3e 82 46 d2 3f 8b 49 4a 3e
       -0.51407313 0.27194902 1.6427767 0.19754617
0000e0 7e ea 3b 3e b2 1b 8f 3f a3 4d 35 3e 4a d1 8b be
       0.1835117 1.1180327 0.17705397 -0.27308112
0000f0 8d 0b d4 3f 52 eb 91 bd d2 33 31 3e 89 80 20 be
       1.6566025 -0.07124962 0.17304924 -0.15674032
000100 87 c3 ee 3e 38 16 0c be b5 af bc bd fa 06 45 be
       0.4663355 -0.13680351 -0.09213201 -0.19240943
000110 6d b9 db be 88 4c de 3d 1e c2 04 3f 10 8b 19 3e
       -0.42914906 0.10854441 0.518587 0.14994454
000120 11 e9 a3 bf 37 8f 1b bf 4f 32 1f be 98 f3 55 c0
       -1.2805501 -0.60765404 -0.15546535 -3.3429928
000130 ff 0f 27 bf 4c 5b f4 3e c8 3a be bf 39 98 a8 3e
       -0.65258783 0.47725904 -1.4861689 0.32928637
000140 ba 10 71 bd 4e 10 19 be 53 1a da bd 11 dc b9 bd
       -0.058853842 -0.14947626 -0.10649552 -0.090751775
000150 5a 89 2f bd 99 8b e2 bc 2d 08 1d 3d 86 4d 28 3d
       -0.042855598 -0.027654456 0.038337875 0.041089557
000160 d9 58 bb bc 26 ca 21 3d 94 05 98 3e 87 3f 03 3f
       -0.022869514 0.039499424 0.29691756 0.5126881
000170 66 75 a3 3e e9 90 13 40 ef 60 2f bf 0b 7c 2b be
       0.31925505 2.3057196 -0.68507284 -0.16746537
000180 66 30 08 3f 8e 63 94 be 6a 2d 1e bd 42 89 8a be
       0.5319885 -0.28982204 -0.03861753 -0.27057844
000190 22 2b 5f bd f9 25 60 3e 49 ee 0e be e2 f3 99 be
       -0.054484494 0.21889485 -0.13958086 -0.3006888
0001a0 91 63 88 bd 2d 3d bf bd f3 45 a2 bd 73 f7 e2 bd
       -0.06659616 -0.0933784 -0.07923498 -0.110823534
0001b0 a3 50 a6 3f e8 d7 1f 3e 6c c4 dc 3e 84 a8 16 40
       1.2993358 0.15609705 0.43118608 2.3540354
0001c0 f0 23 09 3e c5 6e b0 be d2 b0 09 bd f2 42 4d 3e
       0.13392615 -0.3445951 -0.033615895 0.20045069
0001d0 14 89 aa 3d cc b9 28 be 82 6f b7 be a8 01 1f be
       0.08326927 -0.16477126 -0.3582726 -0.15527976
0001e0 58 fb 34 be 5e 28 90 bd 13 96 91 3d a9 43 0b bd
       -0.17674005 -0.070389494 0.071087025 -0.034000073
0001f0 79 9f 02 be 6a 51 2e be da 3b 91 bf 23 9b c5 be
       -0.12756146 -0.17023245 -1.134639 -0.38594922
000200 1b e2 9c 3e 52 5d 2d bf a2 fb e5 3e 0a 14 76 3e
       0.30641255 -0.6772052 0.44918543 0.24031082
000210 3b 94 d6 bf ce 95 f9 3d 82 cd 3b 3c bc 79 b0 bd
       -1.6763986 0.12186776 0.011462571 -0.08616969
000220 98 0f eb be d3 34 7d be d3 f5 ba bd cc 24 ef bd
       -0.45910335 -0.24727182 -0.091289185 -0.1167694
000230 df 1d 80 3d 50 99 42 bd c7 e3 2f 3d 24 3e a6 3d
       0.062556975 -0.04750949 0.042941835 0.08117321
000240 69 ba cf 3f 9a e3 79 3b 91 eb 3c 3e 88 82 c5 3e
       1.6228763 0.0038130046 0.18449236 0.3857615
000250 44 18 c5 3d 63 ef a0 be 97 0f 82 3f fa 06 62 3b
       0.09623769 -0.31432638 1.0161008 0.0034489022
000260 1c e9 03 3d 06 f7 61 be 5b 33 2b 3f 49 d1 e8 bd
       0.032204732 -0.22066888 0.6687524 -0.11368043
000270 e0 40 58 3c 36 ec e6 3e 77 4e 9d bd 78 ee 41 3e
       0.013199061 0.4510209 -0.076809816 0.18938625
000280 f0 ed 0b 3f 83 4d d9 3c a2 bf b1 bf 5c 75 9a bf
       0.5465994 0.026526218 -1.3886607 -1.2067065
000290 1d 45 de 3d 80 27 1d c0 4d 52 79 bf 8e e1 dd 3e
       0.10853026 -2.455536 -0.97391206 0.43336147
0002a0 aa c4 4b bf 2b da 9a bf ce 58 75 be 49 07 40 be
       -0.7959696 -1.209783 -0.23959658 -0.18752779
0002b0 22 10 32 bb 11 55 95 bd 7a 54 06 be db 7d 42 bd
       -0.002717026 -0.07291616 -0.13118163 -0.047483306
0002c0 46 02 01 3d 13 61 8d 3d db fb a6 bc b1 b1 4d bd
       0.03149631 0.06903281 -0.020383766 -0.050218288
0002d0 72 af 00 c0 2b ca 2a 3f 51 61 4f 3d e7 c4 7b c0
       -2.0107083 0.66714734 0.050629918 -3.933893
0002e0 15 2f 1b 3f 2a 28 b4 3e 14 15 b9 bf 89 4d 10 be
       0.60618716 0.35186893 -1.4459558 -0.14092077
0002f0 6c 9d 69 be e1 21 6f bd b3 53 59 be 63 79 fb bd
       -0.22813958 -0.05838192 -0.21223335 -0.12279012
000300 34 1d b5 bb f8 57 0a 3d c8 00 1f 3d 98 11 ab 3c
       -0.005527163 0.0337753 0.038819104 0.020882413
000310 a7 87 ea bd 16 93 5d 3d 63 b0 16 bf 3c 33 53 3f
       -0.11451655 0.05409535 -0.58862895 0.8250005
000320 3c 8e 3b be 7b 32 c3 bf 2e 53 da be 3d 01 01 3e
       -0.18315977 -1.524978 -0.42641586 0.12598129
000330 61 4a 2d be e9 a4 01 c0 72 40 8a bc cf 22 0a be
       -0.16922905 -2.0256903 -0.016876433 -0.13489841
000340 05 da 70 3c 9e d9 11 3f 1b 17 94 bc b6 62 b2 bc
       0.014700417 0.5697268 -0.018077424 -0.021775585
000350 dd bd 0b be 30 80 aa bc 71 8f d0 3d 08 11 10 3f
       -0.13646646 -0.020813078 0.10183609 0.5627599
000360 db 65 eb be b4 ba ac 3e ac f4 21 3e 2a 9c c3 bf
       -0.45976147 0.33736193 0.15815991 -1.5282032
000370 7d 35 00 c0 5e 57 97 3e 8f 48 ca 3f b5 4a 6d bf
       -2.0032647 0.29558843 1.5803393 -0.9269212
000380 71 24 db be 20 e0 8f 3b b8 d2 49 3e 24 1a 40 bc
       -0.4280124 0.0043907315 0.19709289 -0.011724982
000390 29 3b 5f be 57 43 d3 be 29 f6 05 3d fc 66 81 3d
       -0.21799912 -0.41262314 0.03270546 0.06318471
0003a0 d0 c1 95 bd 70 c6 1f 3d 43 98 cd 3f 4b 04 45 3f
       -0.073123574 0.039007604 1.6062092 0.76959676
0003b0 46 e8 86 3e ee af 61 3f 87 ac b1 bf 1a 15 5d be
       0.26349086 0.8815907 -1.3880776 -0.21590081
0003c0 0b 21 14 3f 35 6d 8c bc 32 16 55 3e 41 1c 2c be
       0.5786292 -0.017141918 0.20809248 -0.16807653
0003d0 70 98 f3 bd 7d f0 2d be c7 b3 23 3d fb ef 6d 3d
       -0.118943095 -0.1698627 0.03996637 0.05809019
0003e0 be cd b3 bd 85 e1 bb bc 4b 97 d3 be bf a3 09 be
       -0.087794766 -0.022934685 -0.41326365 -0.1344137
0003f0 c0 1b f3 3f 93 df 19 be 92 f9 25 3b 69 21 f3 bf
       1.8992844 -0.15026693 0.0025325757 -1.8994571

read_encoder.block1.0.bias f4 [128]
000000 cb 39 eb bd 56 d1 e5 be 67 d2 35 bd af 32 29 3e
       -0.114856325 -0.44886273 -0.04439011 0.1652324
000010 ec 01 0a bf 40 e8 38 3f ca 9e e0 3e 64 23 65 bf
       -0.5390918 0.72229385 0.43871146 -0.89507127
000020 ae b8 56 3f 72 2f a8 bd dc 1d 43 bf 5c 80 02 3e
       0.8387555 -0.082121745 -0.76217437 0.12744278
000030 10 9b db 3e 25 a7 f3 3e c1 25 2f 3f 52 ed 44 be
       0.4289174 0.4758846 0.6841698 -0.19231156
000040 d5 78 40 3f 55 e9 7c bf 64 cc 13 3f c5 dc de 3d
       0.75184375 -0.98793536 0.5773375 0.10881952
000050 9e 90 39 3e 3c dc 05 bf 9b 04 43 bc b8 8d 47 3f
       0.18121573 -0.52289176 -0.0119029535 0.7795062
000060 65 fb 13 3e d2 2b 6b 3e aa 67 05 3f cb 61 78 bf
       0.14451368 0.22965935 0.52111304 -0.9702422
000070 d4 57 81 bf 13 c3 25 bf eb 84 26 bf d5 eb 03 3f
       -1.0104928 -0.64750785 -0.65046567 0.51531726
000080 89 b9 cb bc 51 4c 21 bf b0 d6 98 3e b3 a6 b5 3e
       -0.024868743 -0.63007075 0.29851294 0.35478744
000090 db 0b ab 3c 10 c9 8d be 98 45 8b 3e dc 1f 50 bf
       0.020879677 -0.2769246 0.27201533 -0.81298614
0000a0 f1 c9 b5 3e c7 45 6c bf 97 54 53 3f 62 76 2f bf
       0.35505632 -0.9229397 0.8255095 -0.6854001
0000b0 6e c2 91 3e 13 d3 b6 3e cf 52 ca 3e a2 7a 02 3f
       0.2846865 0.35707912 0.39516303 0.5096837
0000c0 4c b7 2a 3f cb 86 21 3f 9e cd 1d bf 75 04 18 bf
       0.6668594 0.630963 -0.6164187 -0.593818
0000d0 0e e3 3e 3f 58 c9 64 be 49 bf 78 bf 3c a3 60 3f
       0.7456521 -0.22342432 -0.9716688 0.87749076
0000e0 d7 cb c6 3e 44 53 5f 3d 98 a4 82 3f 70 d2 78 bf
       0.38827392 0.054522768 1.020648 -0.971961
0000f0 95 47 6b 3e 99 3e 29 bf 45 65 45 3f e6 f6 f0 3e
       0.22976525 -0.6611114 0.7710765 0.4706337
000100 98 5e 6b bf e1 a9 4e bf 68 74 13 3f 47 a8 ed 3e
       -0.91941214 -0.80727965 0.57599497 0.46417448
000110 67 f7 7e 3e e9 8e c8 3e 77 8c 53 bf 5b 9c 07 3c
       0.24899064 0.39171532 -0.8263621 0.008277024
000120 cf cd 8f 3e d4 f5 16 3f 44 e9 59 bf 5d 68 4a bf
       0.28086707 0.58968854 -0.8512156 -0.79065496
000130 7b 30 8d 3e 7d 9e ae bd ff 7c 11 be 69 74 90 3d
       0.2757605 -0.08526323 -0.14207838 0.070534535
000140 39 f7 02 3e ed 24 38 be 14 c9 07 3e 44 56 81 bf
       0.1278962 -0.17982836 0.13260299 -1.0104451
000150 50 b3 3b bf 62 7b 00 3f 6d 36 78 bf 92 f6 85 bf
       -0.73320484 0.5018827 -0.9695805 -1.0465872
000160 8a 7b 88 bf 7a 81 86 3d ee f3 64 be 05 54 c5 be
       -1.0662701 0.065676644 -0.22358677 -0.38540664
000170 42 3f 6e 3f 21 c4 09 be 56 b3 b7 be 41 5c 36 bf
       0.93065274 -0.13453723 -0.3587901 -0.7123452
000180 29 bb 91 3e d4 22 8e bf 6a 5b 2f bf 5b b8 60 3d
       0.28463104 -1.1104379 -0.6849886 0.054863315
000190 a5 47 e2 3e e6 18 a3 be 39 bb 16 3f 91 ba de bd
       0.44195285 -0.31854934 0.5887943 -0.108754285
0001a0 f0 05 a9 3e 94 5c 01 bd e9 1c 3b bf 28 b5 6c 3f
       0.33012342 -0.03158243 -0.7309099 0.9246392
0001b0 8b 43 0e 3f ec 56 95 bf f1 d9 39 3c 62 94 0f bf
       0.5557181 -1.1667151 0.011343465 -0.5608579
0001c0 99 bc 93 be 25 5d d8 be 95 2c 59 bf fd fc 22 bf
       -0.28854826 -0.42258564 -0.8483365 -0.6366728
0001d0 06 a4 94 bf 90 19 3c bf 95 b3 61 bd 61 53 5a 3f
       -1.1612556 -0.73476505 -0.055102903 0.85283476
0001e0 ba 74 e2 be 84 6e 8c 3f 45 5b 28 3f c2 ff 19 bf
       -0.4422968 1.0971227 0.65764266 -0.6015588
0001f0 9f d4 33 bf 34 55 ad be ea 75 0a bf 2a 7b 14 bd
       -0.7024631 -0.33854067 -0.5408617 -0.03625027

read_encoder.block1.1.weight f4 [128]
000000 c7 bb 5d 3f 8a f3 97 3f 62 20 ab 3f a7 94 8b 3f
       0.8661465 1.1871197 1.3369257 1.090474
000010 19 30 7e 3f e4 54 20 3f 3f 9c 79 3f 12 ba d2 3e
       0.9929214 0.6262953 0.9750404 0.41157585
000020 30 1e c8 3f e6 31 72 3f b5 fb 40 3f d0 86 c0 3f
       1.5634212 0.9460739 0.75384074 1.5041142
000030 f5 ae be 3f 85 8f 6f 3f 1b 3e fc 3f af fe 2e 3f
       1.4897143 0.9357837 1.9706453 0.68357366
000040 67 82 07 40 65 bd 74 3f 6b 93 8f 3f cb 38 79 3f
       2.1173341 0.95601493 1.1216863 0.97352284
000050 ff 7d e4 3e 75 84 4f 3f af 10 57 3f d9 2c c8 3f
       0.44627377 0.8106149 0.8400983 1.5638686
000060 2e fc 0d 40 a8 a1 b1 3f ce a1 a7 3f e6 c9 e1 3e
       2.2185168 1.3877459 1.3096254 0.4409935
000070 26 c2 f8 3e e5 e6 09 3f d7 1e 74 3f 57 62 c8 3f
       0.48585624 0.5386794 0.9535956 1.5655011
000080 c2 81 4f 3f af b9 7b 3f a8 99 7a 3f dc fb f8 3f
       0.8105737 0.98330206 0.9789071 1.9451861
000090 c7 3a 1e 3f 3b b9 46 3f fe d9 d5 3f 94 1f df 3e
       0.6180844 0.7762639 1.6707151 0.4357878
0000a0 d3 2b 79 3f fd 5a ec 3e 57 90 ca 3f b0 a3 fb 3e
       0.97332495 0.4616317 1.5825299 0.4914832
0000b0 e1 c4 a5 3f 1b d0 9e 3f d6 ff d8 3f 98 83 cf 3f
       1.2950708 1.2407259 1.6953075 1.6212034
0000c0 90 d5 b9 3f 74 13 ae 3f 07 4c ec 3e 51 5b 7c 3f
       1.4518299 1.3599687 0.46151754 0.9857684
0000d0 65 02 8e 3f a4 f7 ef 3e 2d 1d d8 3e e3 ca 0e 40
       1.1094481 0.46868622 0.4220976 2.2311332
0000e0 57 e4 bc 3f 81 77 92 3f 75 4f c2 3f 36 16 34 3f
       1.4757184 1.144272 1.5180498 0.7034639
0000f0 e4 3a ac 3f bd c5 a1 3f 6a fb 1b 40 1e c8 81 3f
       1.3455472 1.263847 2.43722 1.0139196
000100 12 48 46 3f 2f c5 4a 3f fe 08 6b 3f 91 2a f4 3f
       0.7745372 0.7920713 0.91810596 1.907549
000110 5f b1 70 3f c6 d8 33 3f 71 5c 98 3f 20 f1 81 3f
       0.94020647 0.70252645 1.1903211 1.015171
000120 e3 22 dd 3f 68 b6 f0 3f 7d 9b f3 3e 55 e7 0a 3f
       1.7276272 1.8805666 0.47579566 0.54259235
000130 e3 e4 81 3f 18 ab 7e 3f ff e8 73 3f 1b 92 78 3f
       1.0147976 0.9947982 0.952774 0.9709794
000140 a5 90 8f 3f b0 b6 81 3f a1 4a 35 3f 5a d0 d1 3f
       1.1216017 1.0133877 0.70817 1.6391709
000150 c1 a3 17 3f 2e 3b db 3f f9 9b 31 3f 5d 35 fe 3e
       0.59234244 1.7127435 0.6937862 0.49650088
000160 bd da 00 3f e1 d9 b2 3f 61 ac 3f 3f 8f 24 60 3f
       0.5033377 1.3972741 0.74872404 0.87555784
000170 ed 4d 61 40 7b 6d 67 3f 6b c5 bf 3f 1b 92 0b 40
       3.5203812 0.9040143 1.4982122 2.1807926
000180 09 50 a2 3f 1f 66 29 3f f6 72 42 3f de 7f 12 3f
       1.2680675 0.6617145 0.75956666 0.5722636
000190 a6 b3 95 3f b8 76 ad 3f ab ab e3 3f b9 32 5e 3f
       1.1695449 1.3551855 1.7786764 0.86796147
0001a0 07 99 8b 3f 5f 98 9a 3f 1b 24 48 3f fd d9 ad 3f
       1.0906075 1.207775 0.7818009 1.358215
0001b0 7c 38 9e 3f 57 5b 31 3f 10 f5 3d 3f bb 29 fb 3e
       1.2360988 0.6928 0.7420206 0.49055275
0001c0 78 1e 91 3f 00 24 97 3f 02 15 b6 3f ae 48 5a 3f
       1.1337423 1.1807861 1.4225161 0.8526715
0001d0 79 f9 f8 3e c7 b6 50 3f 8d b7 46 3f e2 38 ab 3f
       0.48627833 0.81528896 0.77623826 1.3376734
0001e0 bf 27 37 3f 0c 26 ee 3f df 19 be 3f 4e 2b 4a 3f
       0.7154502 1.8605361 1.4851645 0.7897233
0001f0 f2 43 30 3f b2 51 95 3f c8 c5 a3 3f fa a6 85 3f
       0.68853676 1.1665556 1.2794733 1.0441582

read_encoder.block1.1.bias f4 [128]
000000 9f f8 24 bf f6 3b ba be 32 43 cc be f6 e1 53 be
       -0.64441866 -0.36373872 -0.39895016 -0.20691666
000010 a9 ce d4 be d9 7b a0 bd 84 06 e7 bd 47 3d 2f bf
       -0.4156392 -0.07836122 -0.1128054 -0.68452877
000020 86 55 00 3e 8a a3 c3 be d2 d9 c9 be d2 40 a4 bd
       0.12532625 -0.38210708 -0.39423996 -0.08020176
000030 49 24 c6 bd be b3 94 bd a9 79 e7 3c 93 59 b3 be
       -0.096748896 -0.072608456 0.028256254 -0.35029277
000040 1c 0c 92 bc 60 8a ad be 93 42 26 bf ca b5 10 bf
       -0.01782804 -0.33894634 -0.64945334 -0.5652739
000050 43 55 01 bf 14 77 e2 be 8f 81 a2 be c4 a7 bd bb
       -0.50520724 -0.44231474 -0.3173947 -0.0057878215
000060 db cc a2 be a8 12 bd be c5 56 0e bd cd ba 3c bf
       -0.31796917 -0.36928296 -0.03475072 -0.73722535
000070 15 a9 2c bf 6d 30 24 bf 4b e2 ae be 0a d5 98 be
       -0.674455 -0.6413639 -0.34157023 -0.29850036
000080 e7 33 f6 be 2c 44 b2 be 00 d5 9e be c8 d7 a1 be
       -0.48086473 -0.34817636 -0.3102188 -0.3160994
000090 55 ab f6 be c5 6a de be 8d 37 2d be e3 27 06 bf
       -0.4817759 -0.43440834 -0.16915722 -0.5240461
0000a0 90 7d c3 be 02 c1 1f bf cd 36 b5 3d 6b c3 27 bf
       -0.38181734 -0.6240388 0.08848343 -0.6553256
0000b0 cb bf 39 be 8e 17 75 be a6 a5 a3 be a5 6e 09 be
       -0.1813957 -0.23934767 -0.31962317 -0.13421114
0000c0 8e a4 6f 3c 7e 54 29 be 8c 09 10 bf d0 67 c8 be
       0.014626635 -0.16536137 -0.5626457 -0.39141703
0000d0 d1 85 e3 bd 58 32 11 bf c3 1b 48 bf 12 3e dc bc
       -0.11109508 -0.56717443 -0.7816736 -0.026885066
0000e0 89 07 4e be 3a e6 a1 be 2f ff d0 3c 7b 9b d4 be
       -0.20120062 -0.3162096 0.025512306 -0.41524872
0000f0 4c 17 53 be f8 0f a4 be a1 32 c7 3d 98 a5 84 be
       -0.20614356 -0.32043433 0.097264536 -0.25907588
000100 bd 30 86 be b4 82 f2 be 29 5e 07 bf 6d ba 08 be
       -0.2620906 -0.47365344 -0.5287805 -0.13352366
000110 00 ae c9 bd bd 2d 1a be 2f f6 69 be 2e d0 a6 be
       -0.09847641 -0.1505651 -0.22847818 -0.32580703
000120 f3 96 24 be 06 4d b4 3d 44 bc 1a bf b4 23 e9 be
       -0.16073208 0.088037536 -0.6044352 -0.45535052
000130 d6 a9 07 bd 91 d7 dd be 57 f4 86 be 61 70 72 be
       -0.033120953 -0.43328527 -0.26358292 -0.23675682
000140 c8 8d 4f bf ff 8e 82 be 44 15 ce be 25 53 71 be
       -0.81075716 -0.25499722 -0.402506 -0.23566873
000150 fa 68 ce be ff c2 31 bf 7d 60 b0 be c5 e7 06 bf
       -0.40314466 -0.69438165 -0.34448615 -0.526974
000160 fd ce f4 be 70 51 4e be 53 54 a8 be 8d b2 f4 be
       -0.4781417 -0.20148253 -0.32876834 -0.47792473
000170 c6 61 16 3e 46 f2 9f be 7d 44 44 be a2 19 68 be
       0.14685735 -0.31239527 -0.19166751 -0.22666028
000180 3e 3b 2f bd 15 63 e0 be 44 ab 99 be 2a ef cc be
       -0.042781107 -0.43825594 -0.30013478 -0.40026218
000190 ab d5 62 be 12 27 8c be 29 48 d3 bd 5d a4 ad be
       -0.2215182 -0.27373558 -0.10316498 -0.33914462
0001a0 85 ca c0 be cb c5 38 bf a2 25 30 bf 1f fc 88 3d
       -0.3765451 -0.7217681 -0.68807423 0.06688713
0001b0 6b 75 d0 be 7e 59 02 bf ac 66 b7 be be da 14 bf
       -0.40714583 -0.50917804 -0.3582052 -0.58146274
0001c0 da 61 e8 be 9f f9 39 be b1 ea 31 be 95 27 b1 be
       -0.45387155 -0.18161629 -0.17374684 -0.3460051
0001d0 15 2f 0a bf 00 3b e8 be 15 12 9d be a4 97 d5 bc
       -0.5397809 -0.45357513 -0.30677858 -0.026073284
0001e0 20 b3 ef be b9 e4 94 3d b9 37 31 be 06 dc b6 be
       -0.4681635 0.07270188 -0.17306413 -0.3571474
0001f0 43 60 f6 be a5 ef 9f be 54 fa 83 be aa 48 b9 be
       -0.48120317 -0.31237522 -0.25776923 -0.3618825

read_encoder.block2.0.weight f4 [128, 128]
000000 c9 98 17 bf 22 ab 6d 3e a9 32 85 be bb f5 4f be
       -0.59217507 0.23209813 -0.26015213 -0.20308582
000010 c9 66 a2 3d 6c e6 54 3d 63 ae 42 bb df 5b e7 bd
       0.07929761 0.05197756 -0.0029705993 -0.1129682
000020 77 8f e8 3c e7 30 98 3e 10 04 f6 3e 88 50 0b 3e
       0.028388722 0.2972481 0.48049974 0.13604939
000030 f9 67 61 3e 22 f4 30 3d 5d e2 9f 3e 50 1c a2 bd
       0.22012319 0.043201573 0.3122739 -0.079155564
000040 b5 15 22 bf 96 1d 24 be fe 1f dc 3d 32 99 40 be
       -0.6331437 -0.16026911 0.107482895 -0.1880844
000050 84 5d 45 3d d4 b8 91 3e a0 c7 a0 be 63 29 4a bd
       0.048184887 0.28461325 -0.31402302 -0.049355876
000060 b7 ca 0a 3f d2 7c 10 bb d2 4f 7d bd b9 b8 d7 3e
       0.5421557 -0.0022047055 -0.0618437 0.4213312
000070 53 d0 1a 3e 47 10 bd 3e 70 af de 3d 5a d7 cf be
       0.15118532 0.3692648 0.10873306 -0.40593988
000080 9a 8e 3a bc 25 9b 5d 3e 5c 72 b3 bd d3 1f a6 3d
       -0.011386538 0.21641214 -0.08762047 0.08111539
000090 b6 2f e0 3d 41 28 ad 3e 11 c1 12 bc 2d ab a5 3e
       0.109466 0.33819774 -0.008957163 0.3235716
0000a0 f6 f4 82 3e 63 c9 24 bd b4 08 0e be 5a fc 84 3e
       0.25577515 -0.04023112 -0.13870507 0.2597378
0000b0 89 ab ca 3a e4 3c 11 be b4 1b fc bd 7a db ea 3d
       0.0015462498 -0.14183384 -0.123099715 0.11467643
0000c0 8c ce 6f 3d 36 c9 32 3e e4 91 9a 3e b0 44 ae 3d
       0.058546588 0.17459568 0.3018943 0.08509195
0000d0 70 aa 7b 3d de 38 ee 3d 73 ca 00 3e 2c 8b 25 3e
       0.06144184 0.1163194 0.12577228 0.16166371
0000e0 cb 51 5e 3e 03 0f cb bc 96 04 0c 3f b4 4b 61 3e
       0.21710889 -0.024787432 0.546945 0.22001535
0000f0 91 3d d6 3d 7e 7b bb bd 60 db 42 3e 01 f7 0f bd
       0.104609616 -0.09154414 0.19028997 -0.03514767
000100 96 98 a2 3e 32 86 cd bc 9f 2a 97 3d 0f 28 ba 3d
       0.3175704 -0.025088403 0.07381176 0.09089672
000110 18 77 62 3e 58 91 8a 3d 64 86 05 be 24 d7 04 3d
       0.22115743 0.06766003 -0.13039547 0.032431737
000120 cd 02 27 3e 88 18 98 3e b7 86 85 3e 8e 5f 75 3e
       0.16309662 0.29706216 0.26079342 0.23962232
000130 36 16 78 be 83 4c 2a 3d 52 5a d0 bd 6e ae ca 3d
       -0.24227223 0.041576874 -0.10173477 0.09896551
000140 63 74 fd 3c ea 80 56 be e8 3d f7 3e 3b f9 0e bf
       0.030939287 -0.20947614 0.48289418 -0.55849046
000150 f7 ea 39 3c 36 8d 8a be 2a 55 1d 3e 0b 52 77 3e
       0.011347524 -0.2706086 0.15364519 0.2415239
000160 d0 b8 92 3c a7 d8 9c 3d 6b 6b 83 be fd b3 85 be
       0.017910391 0.07658511 -0.2566789 -0.26113883
000170 75 44 2f 3f 3b 4a 15 3e 75 57 8b 3e d8 9f 98 be
       0.6846383 0.14579098 0.27215162 -0.2980945
000180 f1 c5 87 3d bb 29 bc 3e 5f 83 ba 3e ba c7 3e 3e
       0.06629551 0.36750588 0.36428353 0.18630877
000190 f2 eb 55 3d 5a 70 f8 3c 9e 28 67 be 41 d7 07 3d
       0.052226968 0.03032701 -0.22574088 0.033164266
0001a0 79 b6 28 be d8 69 4e be a7 dc c5 3e b8 38 9c be
       -0.16475858 -0.20157564 0.38644907 -0.30512023
0001b0 23 62 4b 3d f3 30 12 3e e4 3d 27 3e 02 b7 03 3f
       0.049654137 0.14276485 0.16332203 0.5145112
0001c0 1a 49 cd be ed a6 c1 3e b7 3e 84 3d 1d fc 1a be
       -0.40094835 0.37822667 0.064572744 -0.15135236
0001d0 88 48 e8 3d f1 3b 36 3e d1 e1 62 3e 85 14 ab 3c
       0.11341959 0.17796303 0.22156455 0.020883808
0001e0 75 5b 84 bd 0e 7b 32 bf 89 b9 63 be 87 35 20 3e
       -0.064627565 -0.69719017 -0.22238745 0.15645419
0001f0 5a ac 1e 3e 21 5b 82 3d 51 89 da 3e e7 0d 94 be
       0.15495434 0.06365038 0.4268289 -0.28916857
000200 d1 3a 17 be aa 3c 90 be a7 35 5a 3c bc a8 7b 3d
       -0.1476853 -0.28171283 0.013318456 0.061440215
000210 76 89 9a 3d 5c a3 c1 3d 32 54 50 3d 9f 76 0a 3f
       0.0754575 0.094549865 0.050861545 0.5408725
000220 6b 24 cc bd fa c9 d8 3e ec ad b7 3d 90 bb 1b 3f
       -0.09967884 0.42341596 0.0896872 0.6083307
000230 46 6a 8e be 6a 18 8a 3c df d2 a1 be 84 d3 90 3d
       -0.27815455 0.016857345 -0.31606194 0.070715934
000240 38 47 49 3e 80 4c 89 3e da b8 61 3d 04 83 fb bd
       0.19656074 0.26816177 0.05510793 -0.122808486
000250 e8 04 eb 3d c4 52 f6 3d 2b b7 1f 3e 81 1e 30 be
       0.11475545 0.12027505 0.15597217 -0.17199136
000260 67 50 e5 3e 4f 2a cc be 92 d9 35 bf b3 0a 50 bd
       0.44787905 -0.3987603 -0.7103511 -0.050791454
000270 8e af f4 3d 0f 01 66 3d fb 51 96 3e 89 50 4b be
       0.11947547 0.056153353 0.2935942 -0.1985494
000280 55 1d 12 bc 9c 66 cb 3e d7 74 fe be fe 9a 03 3d
       -0.008918126 0.39726722 -0.49698517 0.032130234
000290 cc 76 2c 3e 06 0d b3 bd 3e 7d fd 3e ba 99 62 bd
       0.16842192 -0.087427184 0.49509615 -0.055322386
0002a0 46 00 22 3d 26 f8 0f 3f 92 f2 ae 3d 93 ff a1 bc
       0.039551042 0.5623802 0.0854236 -0.019775188
0002b0 d1 91 ab bd 55 10 25 3e 41 87 66 bf ac fb 06 bc
       -0.08377422 0.16119511 -0.9005013 -0.008238714
0002c0 7a db cf bd ce 98 d5 3c 42 79 bb 3d 45 c4 00 3e
       -0.10149284 0.02607384 0.091539875 0.12574871
0002d0 69 3c 62 3e 8d 92 89 3e 4b 4f 85 3d f4 ba d6 3b
       0.22093357 0.26869622 0.065092646 0.0065530483
0002e0 31 89 b6 3e 1b b2 97 3e e6 6e 15 3f 24 19 72 3d
       0.35651544 0.2962807 0.5837234 0.059106007
0002f0 e5 b2 ec bc 3b be 2b 3d 26 17 1a 3e 09 ad 98 bd
       -0.028893897 0.041929465 0.15047893 -0.07454879
000300 31 25 c7 3d 9c 29 e0 3e 7c aa 45 bb 8d 23 e0 3e
       0.097238906 0.43781745 -0.003016143 0.43777123
000310 65 db 9c be 64 36 5e 3e 17 0b 8a 3e cd dd 19 3e
       -0.30636135 0.21700436 0.26961586 0.15026017
000320 6a e8 92 be 1c 15 f9 bc 78 60 ed 3d 4e e3 82 3e
       -0.28692943 -0.030405574 0.115906656 0.25564045
000330 eb b4 d0 3e 90 f3 fd bd 9c db 79 3e 3a 21 b9 3d
       0.4076303 -0.123999715 0.2440018 0.090395406
000340 2e c3 a3 be ae ba bd 3d ca a6 3f 3e 8f 3c b2 3d
       -0.31984848 0.09264122 0.18715969 0.08702957
000350 1d 5a ed 3d 8f 90 16 be 32 9f c7 3e e5 23 91 3e
       0.11589453 -0.14703582 0.38988644 0.28347698
000360 6c b9 41 3d ee f7 13 3a a0 45 a7 3e da c0 3d 3e
       0.047295973 0.00056445494 0.32670307 0.18530598
000370 7b 9d b0 bc ee ef 72 3e f2 17 f5 be 40 65 ce 3e
       -0.021559468 0.23724338 -0.4786983 0.40311623
000380 0d 3f 6d 3e 00 f3 8c be 55 69 9e 3e 97 3a 2d 3e
       0.23168583 -0.27529144 0.30939737 0.16916882
000390 13 cc e2 3d b2 26 12 3e 93 d1 c5 be b9 d7 4b bd
       0.1107408 0.14272574 -0.38636455 -0.049766276
0003a0 6d 04 1a 3e 99 40 81 bd 7e 1b f8 bd ca 7e 03 bd
       0.15040751 -0.06311149 -0.12114619 -0.032103337
0003b0 13 11 74 be 46 90 64 3d c1 3c 24 3d 85 aa ab 3e
       -0.23834638 0.055801652 0.040097002 0.33528534
0003c0 97 85 e7 be e8 71 cc 3e 7b 7b aa 3b 1b a0 38 3e
       -0.45219108 0.39930654 0.0052027083 0.18029825
0003d0 f6 8a 68 3e 16 f3 18 3e 07 2d 87 bd cf 15 e0 be
       0.2270926 0.1493648 -0.06600385 -0.4376664
0003e0 ac 47 e2 3e 06 82 0f 3e 78 c9 51 be d4 06 91 bd
       0.44195306 0.14014444 -0.2048701 -0.070813805
0003f0 cc 6b a6 3e 11 ed ca 3c bc 71 81 3e e4 b3 a4 3d
       0.32504117 0.024771245 0.25282085 0.08042124

read_encoder.block2.0.bias f4 [128]
000000 08 80 04 3f e6 00 80 3e 61 63 14 be 38 2a 08 3e
       0.5175786 0.25000685 -0.14491035 0.13297355
000010 00 07 90 be c2 18 b3 bd 94 02 28 be 7a 97 94 be
       -0.2813034 -0.087449566 -0.16407233 -0.29021817
000020 66 11 7a be 69 7c 65 3d ab 6f 20 3e 93 60 c4 bd
       -0.244207 0.05602685 0.15667598 -0.095887326
000030 a6 f3 92 3e 2f ad 29 3f 6e b7 90 3d 42 af cc bd
       0.28701514 0.6627988 0.070662364 -0.09994365
000040 e7 33 9e 3c 9e a3 89 3d fb 4a 8f 3e 85 73 f7 bd
       0.019311858 0.067206606 0.27986893 -0.120825805
000050 b2 d8 3e be 80 95 90 3e 97 79 a8 3d 19 ce 19 bc
       -0.1863735 0.2823906 0.082263164 -0.009387516
000060 31 1b d8 3e 88 36 8b 3e 67 80 8a bb d7 78 e0 3d
       0.42208245 0.27190042 -0.0042267325 0.10960548
000070 45 ba d7 3e 45 bf ec 3e 97 f5 32 3d 1b 17 44 3e
       0.421343 0.46239677 0.043691244 0.19149439
000080 e7 d6 0f bd 62 91 fc 3e 40 fe 42 be 8b 3e dc bd
       -0.035117056 0.49329668 -0.19042301 -0.107541166
000090 de cf d4 3e 37 14 75 3e 08 7d b9 3e 37 61 29 be
       0.4156484 0.23933493 0.36228204 -0.16540991
0000a0 8e 6a 28 3f 0d 5b 10 be 52 e4 8e 3e 09 51 e8 3e
       0.6578759 -0.14097233 0.2790857 0.45374325
0000b0 60 23 24 3f 9f 2f 59 be 97 f4 09 be 84 76 9f 3e
       0.6411648 -0.21209572 -0.1347221 0.31145108
0000c0 38 d8 d5 3d 02 cd 28 be 34 83 b2 bd 71 23 0a 3f
       0.10441631 -0.16484454 -0.08716431 0.5396033
0000d0 d6 40 9b 3e 00 50 3b 3f d4 be a3 3e c3 24 b7 3e
       0.30322903 0.73168945 0.31981528 0.35770234
0000e0 2c 81 00 3f 83 f0 d9 3e ae c7 ff 3c 4b 6a 7f 3a
       0.501971 0.42566308 0.031223144 0.0009743317
0000f0 10 4d d8 3e 78 8b f8 bc a7 03 8d 3b 83 b0 c5 3d
       0.42246294 -0.030339941 0.004303414 0.096528076
000100 de 27 3c 3e 6b a2 8e 3e f2 6e 27 3d ba a1 92 3c
       0.18374583 0.2785829 0.04087729 0.017899383
000110 30 4a e9 3e ce ac e4 3d 5c 05 6d be 1d c4 1a 3f
       0.45564413 0.111657724 -0.23146576 0.60455495
000120 64 05 05 3f 53 66 94 be 98 c3 4f 3f 16 92 70 3e
       0.5196135 -0.28984317 0.8115783 0.23493227
000130 1a dc 9c 3d eb d1 d5 3e 77 dc 33 3f 90 48 07 be
       0.076591685 0.41761717 0.7025828 -0.13211274
000140 dc fe 10 be d9 fb 42 3e 1c 8d 1f b9 07 ea 02 be
       -0.14159721 0.19041385 -0.00015215989 -0.12784587
000150 da a0 a8 3c 8b ec 44 3d 40 1a c5 bb 96 84 b9 3e
       0.020584513 0.048077147 -0.006015092 0.36233968
000160 62 b5 af bc 64 34 14 3f ed 40 b9 bc 56 48 8b 3e
       -0.021448795 0.5789244 -0.022613967 0.27203625
000170 8f c8 a5 be 72 19 4d bd 8c c1 21 be dd 24 0f 3d
       -0.32379577 -0.050073095 -0.15796489 0.034947265
000180 53 a0 49 3e 62 f6 51 3d d7 d2 35 be f5 fa 84 3e
       0.19690065 0.05126036 -0.1775621 0.25972715
000190 2f f3 9c 3e 0b f7 ed bd b4 31 6d 3d 87 7d 5b 3e
       0.30654284 -0.11619385 0.05790873 0.21434604
0001a0 6d e3 92 3e 1b e5 04 3d 88 fd 84 3e f0 ec 8b bd
       0.28689137 0.032445055 0.2597468 -0.068323016
0001b0 7f ff 2d 3f 7f c7 b4 3e 67 af 0c 3e c0 86 26 3f
       0.6796798 0.35308453 0.13738786 0.6504936
0001c0 4c 46 a0 3e fa 79 05 3f 1d 99 a1 3e fa b7 56 3e
       0.31303632 0.52139246 0.3156213 0.20968619
0001d0 75 7c 20 3d 60 cc f7 bc 39 03 19 3e 77 24 d3 bd
       0.03918119 -0.03024882 0.14942636 -0.103096895
0001e0 ca 62 2f be b1 6b 14 3d bd 4c ee 3e a5 33 e6 bd
       -0.17127529 0.036235515 0.46542922 -0.11240319
0001f0 94 18 c5 3d be 6d 96 bb c9 30 15 be eb 67 03 be
       0.096238285 -0.004590719 -0.14569391 -0.1283261

read_encoder.block2.1.weight f4 [128]
000000 73 9e 1d 3f 7c 8f 2a 3f 0e ea b7 3f b6 b0 69 3f
       0.615699 0.6662519 1.4368303 0.91285264
000010 34 af a7 3f 0d af ad 3f d2 66 a9 3f a8 f8 d1 3f
       1.3100343 1.3569046 1.3234503 1.6404009
000020 c3 7b e6 3f 5d ea 83 3f e1 64 67 3f ef 07 a1 3f
       1.8006519 1.0305897 0.90388304 1.2580546
000030 c8 d0 88 3f c7 92 16 3f 4a 89 9d 3f ee ab a4 3f
       1.0688715 0.58817714 1.2307522 1.2864969
000040 03 5c 8f 3f 26 3a 69 3f 7a 24 46 3f 17 b0 aa 3f
       1.1199955 0.9110435 0.7739941 1.3334988
000050 e8 11 9b 3f f2 d5 8f 3f 64 d3 a9 3f 7a 43 9b 3f
       1.211484 1.1237166 1.3267636 1.2129967
000060 bb 3f 14 3f e9 8f 65 3f e9 9c a4 3f 59 8f 6f 3f
       0.57909745 0.89672714 1.2860385 0.93578106
000070 b8 21 2e 3f 02 19 3d 3f c9 a7 84 3f 82 dc 8f 3f
       0.680202 0.73866284 1.0363704 1.1239169
000080 d1 ff 97 3f fa 98 55 3f f7 76 c2 3f 1a c5 bb 3f
       1.1874944 0.8343655 1.5192555 1.4669526
000090 32 71 3d 3f ad bf 6d 3f 34 4b 30 3f d3 5c b4 3f
       0.7400085 0.928706 0.6886475 1.4090828
0000a0 a0 dc 38 3f b8 27 ac 3f 67 c6 39 3f 69 09 38 3f
       0.7221165 1.3449621 0.7256836 0.7188936
0000b0 35 92 2c 3f fa 40 b0 3f 67 0e 98 3f c5 de b6 3f
       0.67410594 1.3769829 1.1879395 1.4286734
0000c0 2d c1 a9 3f 02 a2 ac 3f 8c 98 b7 3f 04 e9 81 3f
       1.3262078 1.3486941 1.4343429 1.0149236
0000d0 75 f9 58 3f 66 8e 19 3f 4a f1 5b 3f c6 95 27 3f
       0.8475564 0.5998291 0.8591505 0.6546291
0000e0 be 94 05 3f 31 fd 3d 3f 89 79 5f 3f 6d 3e a2 3f
       0.5218009 0.74214464 0.8729482 1.2675301
0000f0 a0 68 4e 3f 92 da 92 3f 20 a6 af 3f 9b df b2 3f
       0.80628395 1.1472952 1.3722572 1.3974489
000100 40 cb 93 3f d7 15 70 3f f0 87 94 3f 9b 93 8c 3f
       1.1546402 0.93783325 1.1603985 1.0982546
000110 f1 97 58 3f be 54 83 3f a9 7b cb 3f 38 6a 08 3f
       0.84606844 1.0260236 1.5897113 0.53287077
000120 ae cd 0c 3f f1 e9 c6 3f 9b 06 f0 3e 57 8a 71 3f
       0.5500134 1.5540143 0.4688004 0.94351715
000130 29 2d 87 3f 26 c6 42 3f fd 2d f2 3e c5 7a b1 3f
       1.0560657 0.760836 0.4730071 1.3865591
000140 b1 b1 bb 3f fd ad 8e 3f 7a a9 a7 3f ee a1 be 3f
       1.4663602 1.1146847 1.3098595 1.4893167
000150 17 12 ad 3f 57 37 8d 3f 10 bd a9 3f d2 12 65 3f
       1.3521146 1.1032513 1.3260822 0.8948184
000160 52 89 bc 3f 87 7d 15 3f 89 cf 90 3f 61 0a 48 3f
       1.4729407 0.58394665 1.1313335 0.78140837
000170 83 55 9e 3f da 1e 9b 3f 87 85 ad 3f fd a8 97 3f
       1.2369846 1.211879 1.3556374 1.1848446
000180 16 43 92 3f 15 4f 64 3f f6 9b a1 3f 41 d2 81 3f
       1.1426723 0.8918317 1.262572 1.0142289
000190 2f 84 83 3f 4b 25 ba 3f d7 35 a8 3f 12 a4 91 3f
       1.0274714 1.4542631 1.3141431 1.1378195
0001a0 58 e2 2c 3f cc c5 8f 3f 6b e7 83 3f aa 26 ad 3f
       0.67532873 1.1232238 1.0304998 1.3527424
0001b0 68 68 1e 3f d4 9f 48 3f ce dd 67 3f 51 44 35 3f
       0.6187806 0.7836888 0.9057282 0.7080737
0001c0 68 02 3b 3f 15 cc 0a 3f ad c4 25 3f 54 c5 60 3f
       0.73050547 0.54217654 0.6475323 0.878011
0001d0 3f 3e 8c 3f 53 b8 a5 3f 9e ae 62 3f cc e4 b6 3f
       1.0956496 1.2946876 0.88547695 1.4288573
0001e0 ca 07 a3 3f 08 5d 8f 3f 39 f6 57 3f 31 d2 a3 3f
       1.2736752 1.1200266 0.8436008 1.279852
0001f0 ca 40 9e 3f 6f aa af 3f cc 1d a7 3f 21 ae ba 3f
       1.2363522 1.3723887 1.3055968 1.458439

read_encoder.block2.1.bias f4 [128]
000000 d2 32 22 bf b0 3a 20 bf 2d eb ca be a3 c7 5c bf
       -0.63358796 -0.6258955 -0.3963255 -0.8624212
000010 b2 16 80 be b3 c8 19 bf ca cc 26 bf 02 14 18 bf
       -0.25017315 -0.6007187 -0.65156233 -0.5940553
000020 a2 cb 26 bf 35 bf 21 bf 76 3e 37 bf 2f cd f2 be
       -0.6515447 -0.63182384 -0.7157968 -0.47422168
000030 83 b2 57 bf 47 83 d1 be 96 a5 1f bf af cc f6 be
       -0.8425676 -0.4092047 -0.6236204 -0.48203036
000040 79 34 ef be 56 9d 06 bf 0a f3 04 bf b9 4a fe be
       -0.4671972 -0.52583826 -0.5193335 -0.49666384
000050 50 2d bd be ba d3 2d bf 49 67 eb be 37 ad cd be
       -0.36948633 -0.67901194 -0.45977238 -0.40171215
000060 61 e8 ed be 74 e6 17 bf 0e 70 10 bf a1 6c 18 bf
       -0.46466354 -0.5933602 -0.5642098 -0.59540755
000070 7d f5 e6 be 6f 37 1f bf 23 f4 26 bf bd b0 1e bf
       -0.45109168 -0.6219396 -0.65216273 -0.6198843
000080 af f6 32 bf 95 ed ee be c1 ca b6 be 13 ec 05 bf
       -0.6990766 -0.46665636 -0.35701564 -0.52313346
000090 ad ed 50 bf 44 a0 eb be 02 99 ec be b2 4c 06 bf
       -0.81612664 -0.4602071 -0.46210486 -0.5246078
0000a0 da 64 06 bf 07 45 20 bf 89 ba 0c bf ac aa 0b bf
       -0.5249764 -0.6260533 -0.5497213 -0.545573
0000b0 ea 9a 51 be e6 2a 21 bf 87 52 d4 be 9e 9c c2 be
       -0.20469251 -0.6295608 -0.41469213 -0.38010114
0000c0 a0 9f fd be d6 e6 1b bf 7e b1 fa be de 0e c6 be
       -0.49535847 -0.608991 -0.4896354 -0.38683218
0000d0 62 3f b2 be a7 23 c9 be 7a e0 29 bf 47 43 2a bf
       -0.34813982 -0.39285013 -0.6635815 -0.6650891
0000e0 13 9f fb be de 4d cd be 7c 92 32 bf b6 28 2c bf
       -0.49144801 -0.4009847 -0.6975477 -0.6724962
0000f0 c2 ec 2c bf a6 b9 0a bf ff ed fb be 1a 9b f4 be
       -0.67548764 -0.5418953 -0.49205014 -0.47774583
000100 7c e6 c9 be 93 f3 1c bf 95 a1 f0 be bc 75 15 bf
       -0.39433658 -0.61309165 -0.46998277 -0.58382773
000110 2c e8 06 bf d4 96 03 bf 0f 40 28 bf 25 fb b9 be
       -0.52698016 -0.5140202 -0.65722746 -0.3632442
000120 23 4e 3c bf 87 1b de be a3 6f f8 be ed 09 db be
       -0.7355673 -0.43380377 -0.48522672 -0.4278101
000130 27 c3 b3 be 57 7a 23 bf b3 d0 da be a3 d6 16 bf
       -0.35109827 -0.6385855 -0.4273735 -0.5892126
000140 34 ee 03 bf 64 07 1a bf 93 5e f9 be 25 a7 03 bf
       -0.51535344 -0.6016753 -0.48704967 -0.5142692
000150 a2 bc df be f8 d5 1d bf 60 14 19 bf 9e c1 2b bf
       -0.43698603 -0.61654615 -0.59796715 -0.6709231
000160 8c ca ff be 53 6c df be 1c a5 d7 be ef 8d db be
       -0.49959219 -0.43637332 -0.42118156 -0.42881724
000170 a8 58 c7 be 1f 40 00 bf 42 94 b8 be d6 65 32 bf
       -0.38934827 -0.5009784 -0.36050612 -0.6968664
000180 20 fa 05 bf aa 48 74 bf ed 99 bf be 2e f9 cf be
       -0.52334785 -0.95423377 -0.37422124 -0.40619797
000190 e1 f6 29 bf 0b 23 c3 be ae 77 34 bf 6e 84 2f bf
       -0.6639233 -0.38112673 -0.70495117 -0.68561447
0001a0 f8 e3 c5 be 1e 07 e3 be 81 82 1b bf 38 d8 10 bf
       -0.3865049 -0.44341367 -0.6074601 -0.56579924
0001b0 8a 7b b7 be 82 01 17 bf 48 b2 1f bf df 7f 02 bf
       -0.3583644 -0.58986676 -0.6238141 -0.50976366
0001c0 a9 da 0a bf 64 90 b8 be 43 19 10 bf 3b 5b 3e bf
       -0.542399 -0.3604766 -0.56288546 -0.74357957
0001d0 61 72 06 bf 03 ad 04 bf 10 33 32 bf 04 a7 b1 be
       -0.5251828 -0.51826495 -0.69609165 -0.34697735
0001e0 4b ca aa be f7 2a e0 be 4c e8 89 be a5 7c db be
       -0.33357462 -0.4378278 -0.2693504 -0.42868534
0001f0 aa 76 1c bf 08 61 19 bf 77 31 af be 6c 31 27 bf
       -0.61118567 -0.5991368 -0.34217426 -0.65309787

read_encoder.block3.0.weight f4 [128, 128]
000000 d6 0a d8 bd a8 24 81 be 9f 92 46 3c a5 af df bc
       -0.10548942 -0.2522328 0.012119918 -0.027305434
000010 81 3f d3 3d c2 78 19 3e 2f e2 32 3e fb d3 f7 be
       0.10314847 0.14987472 0.17469095 -0.48403916
000020 b3 8f 3c be 65 08 5f 3e f2 88 6a be d3 08 e7 3e
       -0.18414192 0.21780546 -0.22903803 0.4512392
000030 dc e3 8b 3e 76 4b 7e 3e 0d b3 35 3d 37 df f3 bd
       0.2732228 0.24833474 0.04436021 -0.11907809
000040 34 f5 2a 3d cd 43 00 bd f0 26 88 3e e8 2d 32 3e
       0.04173775 -0.03131466 0.26592207 0.17400324
000050 77 54 bf be 2e 22 ae 3e 17 2c 86 3e 7e 45 13 3e
       -0.3736913 0.34010452 0.26205513 0.14381978
000060 19 7c aa bd 25 1d ae 3d 6a 7f 57 3d c1 08 55 3e
       -0.08324451 0.08501653 0.052611746 0.2080412
000070 50 48 81 3e b7 66 a3 3d f2 8f 14 3e a9 2a aa 3e
       0.25250483 0.07978576 0.14508036 0.33235672
000080 50 fc 3a 3e 35 79 47 3e e0 a9 0f 3e a3 07 8c be
       0.18260312 0.1947983 0.14029646 -0.27349576
000090 41 fd 36 3e 72 f4 40 3d 4b c6 0a be 4f c5 0e 3e
       0.17870046 0.04710812 -0.13552205 0.13942455
0000a0 e6 54 86 bb a7 4a 85 be d4 b7 93 3e 10 2b 46 be
       -0.004099476 -0.26033518 0.28851187 -0.19352365
0000b0 d5 7d 9b 3e be 32 12 3e 9f 32 84 3e 98 61 89 bd
       0.3036944 0.14277169 0.2581987 -0.06708068
0000c0 41 1e 42 3e 13 7a 94 3d 21 59 04 be a9 91 cb 3e
       0.18956853 0.07249846 -0.12924625 0.39759567
0000d0 9d bb 84 3e da a9 4d 3e f6 98 6f 3e cb 9e 51 3e
       0.25924388 0.20084324 0.23398194 0.20470731
0000e0 e9 6b 2c 3e e8 e7 90 bc b8 d4 46 be 65 ba 19 be
       0.1683804 -0.017688707 -0.19417083 -0.1501251
0000f0 5e ba 79 3d d3 51 cc 3d 28 58 b3 3e 79 cf b2 3e
       0.06096875 0.09976544 0.35028195 0.34923914
000100 4a d9 e3 3d a6 77 fc 3d 8c 77 98 3d 3a 1b ac 3d
       0.11125429 0.12327509 0.07444677 0.084036306
000110 40 cd 69 3d ff 84 29 3e 91 bf 8a be 07 e7 13 3e
       0.057080507 0.1655464 -0.2709928 0.14443599
000120 44 da 5e bd 44 1c 08 3f 82 37 01 3e 89 15 03 3e
       -0.054407373 0.5316813 0.12618831 0.12801184
000130 63 d8 f9 3d d5 e8 46 3e ae 9b 5b bb 74 01 41 3e
       0.121994756 0.19424756 -0.003350954 0.1884821
000140 bf bd 47 3d a3 a6 4e be 8a 40 1a bc ee f1 01 be
       0.04876494 -0.20180754 -0.009414801 -0.12689945
000150 ba fc 86 bd 11 7f f3 be d2 dd 87 be 94 21 af 3d
       -0.065911725 -0.4755788 -0.26536423 0.085513264
000160 0f ed b9 be b2 9c 16 bd 76 69 bd be d2 5e ca 3e
       -0.36313674 -0.03677053 -0.36994523 0.39525467
000170 7e b8 be 3b a8 27 91 3e 16 d8 b4 be 18 51 72 be
       0.005820333 0.28350568 -0.3532111 -0.23663747
000180 e7 f0 e6 3d 73 bd 29 3e f8 06 67 bd 66 ae 8d bd
       0.11276417 0.16576175 -0.05640313 -0.069180295
000190 95 bb 8e 3e f5 19 bb 3d 49 26 bf 3e 17 e9 ba 3e
       0.2787749 0.0913581 0.37333897 0.36505958
0001a0 60 7b 11 bd 16 b0 06 bc e6 02 c1 3e 68 b8 26 3e
       -0.03551805 -0.008220693 0.37697524 0.16281283
0001b0 c3 d2 22 be 42 86 3c 3b ef 15 01 3e 7d 7c 44 3e
       -0.15900712 0.0028766547 0.12606023 0.19188114
0001c0 cd 31 eb bb 3e ce 2d 3d fa 54 98 3e b8 5e a2 3e
       -0.0071775676 0.042433016 0.29752332 0.3171289
0001d0 41 28 29 3d 16 46 07 3e 28 7c d3 3e 5f 9f ac 3e
       0.041298155 0.1321033 0.4130566 0.3371534
0001e0 5b 76 59 bd 2c 62 17 be 7e 6f 4b 3e 59 b2 51 3e
       -0.05309139 -0.14783543 0.1986675 0.2047819
0001f0 9c 25 11 3e 40 7f 5b be 1e 99 9d be 7c b2 b2 be
       0.14174503 -0.21435261 -0.30780882 -0.34901798
000200 c9 8e 0b 3f 5c 7d ba 3d 60 15 2e bd 45 31 df be
       0.5451475 0.09105942 -0.042500854 -0.43592277
000210 36 b0 a4 be 18 62 5e bd 28 ee 3b 3d 36 14 c0 3d
       -0.32165688 -0.05429277 0.04588142 0.09378855
000220 59 ad 69 3b 9e aa 5e bd 80 10 5c 3d 12 90 88 be
       0.0035656302 -0.054361932 0.053726673 -0.26672417
000230 57 78 7f bd 81 41 8c 3e f9 ee a2 bd 75 9f 63 bd
       -0.062370624 0.27393726 -0.07955737 -0.055571992
000240 86 89 b3 3e bf c7 8a be c0 4a 96 bd b7 b3 f8 3e
       0.3506586 -0.2710552 -0.07338476 0.48574612
000250 10 04 e5 be 81 9f ac 3e 8b 4a db bb 34 b6 c0 3d
       -0.44729662 0.33715442 -0.006692236 0.094097525
000260 2f f7 49 3e e8 66 3a 3e ea 8f 85 bd ea 04 a5 be
       0.197232 0.18203318 -0.0652159 -0.32230312
000270 26 8e 1a 3e 66 b0 8d bd 1c 7a 97 be 00 44 a0 3e
       0.15093288 -0.06918411 -0.2958535 0.3130188
000280 6d e2 a2 3e 49 f9 e0 3d f6 a4 49 be e7 c9 3b be
       0.31813374 0.10985047 -0.19691834 -0.18338738
000290 d1 1e c0 3d 8a 28 4e 3d 31 66 7f 3c c7 83 0b bf
       0.09380878 0.05033163 0.015588329 -0.5449795
0002a0 33 02 09 3f cc 3b 6e 3d be 0e 3b 3e 0a 0b a4 3e
       0.5351898 0.058162495 0.18267342 0.32039672
0002b0 40 96 e2 3c 15 6b 07 3e 30 ea 9f bf c2 98 b1 3e
       0.027659535 0.13224442 -1.2493343 0.34686857
0002c0 4b 85 29 bf 55 6a 48 3e 82 07 04 bf e5 09 7f be
       -0.66219014 0.19571812 -0.51573956 -0.24906118
0002d0 38 d1 7c 3d 8c 27 b6 3e b6 1f ab 3d ab b8 3a be
       0.061722964 0.35577047 0.08355658 -0.18234508
0002e0 92 9e 9b be a3 f6 1a 3d 23 c0 14 3e c3 5f 1a 3d
       -0.30394417 0.037832867 0.1452642 0.03768898
0002f0 56 2a 8c 3e b4 38 83 be e9 9e 86 3d 85 21 ad 3e
       0.2737605 -0.256292 0.065732785 0.33814636
000300 6a 34 c3 be 4e 03 c2 3e 02 64 37 bf cd 65 d6 3e
       -0.38125926 0.37893146 -0.71636975 0.41874543
000310 c4 02 80 3e 29 4c 5b 3d 5c fa 40 bd 1e fc 2c 3e
       0.2500211 0.05353943 -0.04711376 0.1689305
000320 29 11 7c 3e e1 91 89 3e 59 d1 85 3e 6e aa 43 3d
       0.24615921 0.2686911 0.26136282 0.047769956
000330 e6 49 4d be 63 80 e4 be b5 77 43 3e cb 66 b7 3c
       -0.20047721 -0.446292 0.19088633 0.022387883
000340 ab 2b 2d 3e 11 2a 0e 3f 19 63 05 3f 3b 10 1f bd
       0.1691119 0.5553294 0.52104336 -0.038833838
000350 db f7 f9 3d 76 c1 5a be cb e8 17 3e b3 10 32 3f
       0.12205478 -0.21362862 0.14834897 0.6955673
000360 55 0d 89 3e 88 14 bb 3e b8 4b 1b be 5e e9 63 be
       0.26767984 0.36539102 -0.15165603 -0.22256991
000370 fb 53 1a 3f 6f b4 3f bf bc 39 02 bf fe 4e 90 3e
       0.60284394 -0.74884695 -0.50869346 0.28185266
000380 a9 00 6e 3d 81 a2 22 3d 41 ce 37 bf f5 e1 55 be
       0.0581061 0.039705757 -0.71799093 -0.20886977
000390 34 2a 50 be 90 1f 0b 3e 4b 34 0d 3e d3 30 db 3e
       -0.20328599 0.13586259 0.1378948 0.42810687
0003a0 96 29 7c be a4 79 b1 3d 8b 31 1c 3f 6c d3 c8 3e
       -0.24625239 0.08665779 0.61013097 0.39223802
0003b0 7b 7c b7 3e dd 02 5a be c3 27 83 3e 4b 17 af 3e
       0.3583716 -0.21290155 0.25616273 0.3419746
0003c0 1b d1 92 bd f7 42 23 3e 4a 2e 9d be f5 ae 7a be
       -0.0716879 0.15943514 -0.30699378 -0.24480803
0003d0 0e f0 9e 3e 81 2b 2d bf 7f bc 02 be b4 96 b1 3d
       0.31042522 -0.67644507 -0.12767218 0.086713225
0003e0 a2 ba be be 40 f1 37 3d 33 ed c5 3e cc 27 31 3d
       -0.37251765 0.04490781 0.3865753 0.043250844
0003f0 61 97 b2 be be 36 05 3d f0 12 e3 be 95 d2 85 3e
       -0.34881118 0.03252291 -0.44350386 0.26137224

read_encoder.block3.0.bias f4 [128]
000000 47 43 09 3e ea ad 81 3e 6d 94 42 be 58 e8 47 3e
       0.1340457 0.25327998 -0.19001932 0.19522226
000010 96 c1 ff be a1 97 cd be 62 f3 03 3f 5d e9 b1 3e
       -0.49952382 -0.40154746 0.5154325 0.34748355
000020 3a 8c 0b 3e 04 1b 85 3c 72 f9 01 be cb 46 97 be
       0.13627711 0.016248234 -0.12692812 -0.29546198
000030 d7 b7 f1 3e 4e 3c aa 3e 0f 72 eb bd 6b 12 6a 3e
       0.4721057 0.33249134 -0.11496364 0.22858588
000040 46 f8 06 3f 27 65 65 3e 80 a8 db 3e 03 66 a7 3c
       0.52722585 0.22401868 0.42901993 0.020434385
000050 f0 8b 0b 3f b6 e1 93 3e 59 f5 31 3e 4b 52 3c 3e
       0.545104 0.2888314 0.17378749 0.18390767
000060 79 78 0c 3f e1 4b bd 3e b0 0e a8 3d 55 74 18 3f
       0.54871327 0.36971954 0.082059264 0.5955251
000070 17 ea 27 3e 69 27 c1 3e b1 e7 e6 3e 65 20 02 3f
       0.16397892 0.3772538 0.45098642 0.5083068
000080 42 b5 0f 3f 68 43 5d bc ea 55 66 bd d1 2b cb bc
       0.5613595 -0.01350484 -0.056234278 -0.024801167
000090 07 42 69 bc 48 70 11 3e 96 87 45 3e 16 89 7e 3e
       -0.014236934 0.14202988 0.19290003 0.24856982
0000a0 8e b4 d7 3e 8e 51 96 bc d7 e0 54 3e 8a 67 39 be
       0.4212994 -0.018349435 0.20788895 -0.18105903
0000b0 1f 92 6b be be 06 0a 3f 8e 75 f0 3e d5 b2 c1 3d
       -0.2300496 0.5391654 0.46964687 0.09457938
0000c0 9e f9 28 3e d3 97 92 be 5d 5f a4 3e 1a 77 65 3e
       0.16501471 -0.28631458 0.32104006 0.22408715
0000d0 8c 5e 20 be 33 40 fa 3e 7c 1f 03 3f b5 70 01 3f
       -0.15661067 0.48877105 0.51219916 0.505626
0000e0 91 d2 2d 3f 85 5d 06 3e d7 39 3f bd de c4 7f 3e
       0.67899424 0.13121612 -0.04668602 0.24977443
0000f0 1d da 81 3e 53 84 83 be 99 9d af 3e c9 42 dc 3e
       0.2536172 -0.25686893 0.34299925 0.43019703
000100 fe 26 7e 3e 7d aa e3 3e 3a 0b 1a 3f d3 2d e8 bc
       0.24819562 0.4446601 0.6017338 -0.028342163
000110 65 57 e7 3e b7 61 08 3f 4e 3c d0 3e 38 b0 57 3e
       0.45183864 0.532741 0.4067101 0.21063316
000120 3c 53 ac be 1f fa 80 bd 25 cd f9 3e 7d 9f af be
       -0.33657253 -0.06297707 0.48789325 -0.34301367
000130 4a 1f 8a 3d 73 48 92 3d b8 82 18 3e bd 9c 37 be
       0.06744249 0.07142725 0.14893615 -0.17930885
000140 ca 79 88 be 4d b4 9f 3e 94 6a 54 3e dd 27 d1 3e
       -0.26655418 0.31192246 0.20743781 0.40850726
000150 67 dc 10 3e a5 a7 96 3e fe 38 d4 3d 10 42 98 3e
       0.14146577 0.29424778 0.10362433 0.29737902
000160 3a 9c 11 3d 6c e0 b3 3e 60 e8 08 3f 29 b3 2b 3e
       0.03554938 0.35132158 0.53479576 0.16767563
000170 4d 03 c6 be af 10 03 3e 2c b4 e7 3d 51 af f8 3c
       -0.38674393 0.12799333 0.11313662 0.030357035
000180 a4 0e b4 3e e8 29 9d 3d f0 d3 e7 3d f7 42 23 3e
       0.3516742 0.076740086 0.11319721 0.15943514
000190 d2 d7 d0 3e 58 04 12 bf 81 9b b7 3e 93 bd ca 3e
       0.40789658 -0.5703788 0.35860828 0.3959776
0001a0 62 69 81 bc 2e ef ff bc eb 6f 0b 3e d8 e4 17 bf
       -0.01579732 -0.03124198 0.13616912 -0.5933356
0001b0 8a c6 cb 3e 10 52 17 3d 1c ef b4 3e 7a d9 f5 3e
       0.3979991 0.036943495 0.35338676 0.48017484
0001c0 8f 27 d0 3d f5 5a 6c 3e 89 1a 97 3d 59 5d bd 3e
       0.10163795 0.23081572 0.07378108 0.3698528
0001d0 d9 24 d6 3d cb d9 fd 3e 0e 78 8a bd 27 2a 0c 3f
       0.10456247 0.49580225 -0.0676118 0.5475182
0001e0 f6 d9 73 be 9a 3c dc be ff b9 9e be 2e 09 98 be
       -0.23813614 -0.43014985 -0.3100128 -0.29694504
0001f0 91 c7 89 3e a3 65 ed 3c d8 2a 1f 3f 6e 42 ab 3e
       0.2691007 0.028979128 0.6217475 0.3344912

read_encoder.block3.1.weight f4 [128]
000000 10 ec fb 3e f8 e1 1e 3f 7a 79 eb 3f 64 c0 e5 3e
       0.4920354 0.6206355 1.8396447 0.44873345
000010 6b 4d ad 3f c8 0f a3 3f 47 0b 5e 3f 2e d8 92 3f
       1.3539251 1.2739191 0.8673596 1.1472223
000020 83 db a3 3f 91 aa 46 3f d0 48 a1 3f cd 5d 91 3f
       1.2801365 0.77604014 1.2600346 1.1356751
000030 d3 c6 45 3f 8f ed d5 3e 9c de 5f 3f e1 9b 98 3f
       0.77256507 0.41782805 0.8744905 1.192257
000040 34 d7 38 3f 57 75 d5 3e 45 f5 38 3f 82 fe 27 3f
       0.72203374 0.41691086 0.7224925 0.65622723
000050 61 4d 62 3f 0a 7a 3f 3f 35 7e 88 3e 9b d7 ae 3f
       0.8839932 0.7479559 0.26658788 1.3659548
000060 a8 6b 63 3f 49 a0 8a 3f 7e 72 33 3f 7e 7f 52 3f
       0.88836145 1.0830165 0.70096576 0.8222579
000070 89 a6 a2 3f a0 cf 30 3f 8e e8 46 3f 7d be 4c 3f
       1.2707072 0.6906681 0.776986 0.7997816
000080 24 e5 63 3f ba 51 b5 3f eb ac 5f 3f c3 b9 bd 3f
       0.89021516 1.4165566 0.87373227 1.4822315
000090 ce 3f e0 3e f2 06 b0 3f 6e 58 bf 3e 33 d5 6d 3f
       0.4379868 1.375212 0.37372154 0.9290344
0000a0 cd 16 30 3f f5 93 c8 3f 6d 96 63 3f 2a 26 6a 3f
       0.6878479 1.5670153 0.88901407 0.91464484
0000b0 5f b2 e7 3f 6e 52 7c 3f 5b a5 7f 3f 6e f9 af 3f
       1.810131 0.9856328 0.9986169 1.3747995
0000c0 69 14 ab 3f 52 ab 8e 3f 0c 1f 4e 3f 43 c6 b3 3f
       1.3365604 1.1146033 0.80516124 1.404488
0000d0 b6 d4 d3 3f 2d e9 34 3f fe b3 25 3f 32 b1 2e 3f
       1.6549289 0.706683 0.6472777 0.6823913
0000e0 23 b5 34 3f 7d 0d b7 3f 1a 44 07 3f 1b 5f 39 3f
       0.7058889 1.4300991 0.5283829 0.72410744
0000f0 84 bd 40 3f fd b4 91 3f 95 62 51 3f 92 ca 6b 3f
       0.7528918 1.1383358 0.8179105 0.9210597
000100 f3 45 a8 3f f7 46 47 3f e3 70 8b 3f f5 6e 2e 3f
       1.3146347 0.7784266 1.0893825 0.68138057
000110 2c 74 49 3f 06 0f 6b 3f f8 97 88 3f b4 d1 bb 3e
       0.7869289 0.918198 1.0671377 0.36683428
000120 68 97 58 3f 73 6e 66 3f 2b 1c 4b 3f 40 65 e3 3f
       0.8460603 0.9001228 0.79339856 1.7765274
000130 23 33 c6 3f 69 68 79 3e b2 30 1e 3f 5c c0 9e 3f
       1.5484356 0.24356236 0.61793053 1.2402453
000140 b5 bf f1 3f ec 59 46 3f 4d da bb 3e fe 07 89 3f
       1.8886629 0.7748096 0.36689988 1.0705564
000150 cc f1 9d 3f 46 70 50 3f a8 6d d0 3f 9b b2 15 3f
       1.2339416 0.81421316 1.6283464 0.58475655
000160 14 16 bc 3f a9 82 51 3f a1 32 7e 3f 58 cd b3 3f
       1.4694238 0.81839997 0.99296004 1.4047041
000170 40 a0 ad 3f c1 29 ad 3f 7f 93 61 3f 0c 28 e3 3e
       1.356453 1.3528367 0.88115686 0.4436649
000180 b9 88 4c 3f ac b7 09 3f 28 bb b7 3f a4 30 62 3e
       0.7989612 0.53795886 1.435399 0.22088867
000190 96 cd 2c 3f 27 39 a3 3f 36 35 8a 3f e6 67 29 3f
       0.675012 1.2751817 1.0797489 0.6617416
0001a0 fd af 56 3f 1b 48 34 3f 1a 08 a4 3f 8d 53 a0 3f
       0.83862287 0.70422524 1.2814972 1.2525498
0001b0 62 1d 5a 3f f0 8f a6 3e e7 c3 38 3f 75 10 51 3f
       0.85201085 0.3253169 0.72173923 0.81665736
0001c0 ba 0d 35 3f ba 3b 19 3f 88 9c 9b 3e e1 78 61 3f
       0.7072407 0.5985676 0.3039286 0.8807507
0001d0 90 ac 4d 3f b4 3d 6c 3f 13 fe 7e 3f bd 4c 4d 3f
       0.80341434 0.9228165 0.99606436 0.8019522
0001e0 b0 89 f4 3f 5d 1a ad 3f 2c 47 dd 3f 36 d6 8a 3f
       1.9104519 1.352367 1.7287345 1.0846622
0001f0 06 5a eb 3e ee 69 bb 3f 6d 31 74 3f 9a 56 54 3f
       0.4596712 1.4641702 0.9538792 0.82944643
