m6aReplica/3d_66/Models/epoch22_rocauc0.882_valpr0.382_valscore1.264.pth (torch, 152221 bytes, 13 tensors)

read_encoder.block1.0.weight f4 [128, 18]
0.399179 0.23742594 -0.05673803 0.47704247 -0.3555121 0.01422666 0.11163513 0.014339668
0.30026475 -0.23469286 0.24663045 -0.06115775 0.03977729 -0.17276293 0.06321118 0.11409196
0.21607369 0.04402803 -0.29484692 -0.020014448 -0.1271634 -0.70294976 0.28053337 0.26432538
-0.5294882 -0.0018717384 -0.029428141 -0.04428533 0.16737546 -0.23625572 0.31392437 -0.15783006
0.35476568 0.00097482087 -0.29326442 0.07763757 0.28302503 0.049089905 0.03134608 0.76062155
0.2713145 -0.14226379 0.30774927 0.24357386 0.16794862 -0.11792855 0.16782396 -0.0036317506
0.02240703 -0.092244565 -0.434628 -0.0064680274 -0.33274758 0.28264517 0.55245036 0.13988319
0.10788848 0.74681795 0.2034967 -0.21453619 0.75537217 0.06303466 0.17763123 -0.1036268
0.31814647 -0.094943 -0.010595457 -0.16202171 -0.28021064 0.019624155 0.34378585 0.067988805
-0.024410097 -0.33240318 -0.1377178 -0.9758207 -0.4521042 0.31542042 -0.07083427 0.2461551
-0.024374766 -0.0839369 0.04871045 -0.015283121 0.08877422 0.01996418 -0.0018679951 0.019215558
-0.017248599 -0.02671657 0.3539815 0.1026812 0.25668693 0.70336425 -0.6510603 -0.14864168
0.5235852 -0.09832264 -0.057012424 -0.14827639 0.015825357 0.18189782 -0.116566144 -0.09505704
-0.05291703 -0.021771697 -0.08555838 -0.06065336 0.33938894 0.07355623 0.32451928 0.8760129
0.079998694 -0.2823769 -0.11752838 0.1104896 0.07030848 -0.1536118 -0.12408038 -0.07085132
-0.10916143 -0.009487093 0.07734961 0.005326538 -0.23762734 -0.19601426 -0.3962739 -0.23297867
0.2556916 -0.5757903 0.143642 0.1924834 -0.55246353 0.027379612 -0.028034607 -0.036533363
-0.2709461 -0.21305929 0.020893974 0.02080529 -0.00041077373 -0.039897118 0.20333184 -0.018990828
0.56032693 0.08235818 0.15219635 0.434219 0.18952829 -0.2506384 0.48198926 0.00770162
0.0536089 -0.1202229 0.47859016 -0.069946505 0.04739256 0.2711264 -0.03911812 0.13926618
0.46509916 -0.009153231 -0.36557984 -0.48604658 0.07120633 -1.1676708 -0.6431973 0.3032372
-0.25667405 -0.4594209 -0.17490418 -0.08698174 0.042227115 -0.058938783 -0.082778364 -0.09473195
-0.084373616 0.034010537 0.086561605 -0.08419881 -0.5206192 0.24887682 0.010666843 -0.9292829
0.34059054 0.22081831 -0.4704224 -0.02502424 -0.12484744 -0.0054091467 -0.11769708 -0.05846131
0.07651339 0.11240986 0.02908227 -0.0036852383 -0.009758092 0.043512296 0.05068655 0.3476773
-0.15450615 -0.41691366 0.020963522 0.12601179 -0.111849084 -0.6390611 -0.063416176 -0.18834327
-0.019505268 0.3799159 0.0038471865 0.058192816 -0.27874458 -0.08633496 0.14745173 0.38817525
-0.275791 -0.050329134 0.14107774 -0.8903217 -0.99084926 0.18287991 0.32122386 -0.39348254
-0.28970376 0.07251362 0.149781 -0.030267077 -0.18124905 -0.2836593 0.039509963 -0.00708346
-0.047567487 0.04894324 0.72698253 0.3003827 0.20645267 0.27062798 -0.6129092 -0.19629729
0.3583882 -0.21492712 0.11087363 -0.1443659 0.009216411 -0.017281767 -0.06369501 0.16422816
-0.09505685 0.024191005 -0.32615548 -0.07833398 0.73491997 -0.061238293 -0.020749832 -0.59081304
00000000: 3161 cc3e c91f 733e 2366 68bd e93e f43e
00000010: af05 b6be f016 693c f6a0 e43d edf0 6a3c
00000020: 4dbc 993e 5353 70be b18c 7c3e 8d80 7abd
00000030: 83ed 223d c4e8 30be dd74 813d 0ca9 e93d
00000040: 6c42 5d3e bc56 343d 2df6 96be 57f5 a3bc
00000050: 1f37 02be 84f4 33bf 12a2 8f3e a855 873e
00000060: 8a8c 07bf 1e55 f5ba 4913 f1bc 8964 35bd
00000070: 7964 2b3e 05ed 71be b2ba a03e 349e 21be
00000080: d9a3 b53e 1f8b 7f3a c126 96be 7200 9f3d
00000090: a8e8 903e 7f12 493d bf64 003d 18b8 423f
000000a0: bce9 8a3e 99ad 11be 5091 9d3e 6d6b 793e
000000b0: b9fa 2b3e 8684 f1bd 0bda 2b3e aa02 6ebb
000000c0: f38e b73c b8ea bcbd 9087 debe bff1 d3bb
000000d0: e45d aabe deb6 903e 636d 0d3f 8a3d 0f3e
000000e0: a3f4 dc3d 762f 3f3f 7061 503e 60af 5bbe
000000f0: 1260 413f 5118 813d f6e4 353e 4a3a d4bd
00000100: 18e4 a23e 7a71 c2bd 9198 2dbc 05e9 25be
00000110: c577 8fbe d6c2 a03c b304 b03e b73d 8b3d
00000120: aff7 c7bc c030 aabe e505 0dbe 63cf 79bf
00000130: 347a e7be c97e a13e 8f11 91bd 1510 7c3e
00000140: 97ad c7bc 1ce7 abbd 9c84 473d 0e66 7abc
00000150: 42cf b53d ec8b a33c 84d7 f4ba f269 9d3c
00000160: ef4c 8dbc b5dc dabc 103d b53e 854a d23d
00000170: 786c 833e ae0f 343f e3ab 26bf 8635 18be
00000180: ae09 063f 615d c9bd dc85 69bd c4d5 17be
00000190: 2ea4 813c 6c43 3a3e 3bba eebd 44ad c2bd
000001a0: 87bf 58bd 8f5a b2bc 3b39 afbd a86f 78bd
000001b0: 63c4 ad3e a6a4 963d 6427 a63e 6242 603f
000001c0: 5bd6 a33d b493 90be b8b2 f0bd 5f48 e23d
000001d0: e4fd 8f3d 694c 1dbe db1d febd 7f1a 91bd
000001e0: 0790 dfbd c16f 1bbc 7969 9e3d 3d8a ae3b
000001f0: 9554 73be f6b7 48be 6ae4 cabe f691 6ebe
00000200: 02ea 823e fe66 13bf e316 133e 5e1a 453e
00000210: 406e 0dbf 354b e03c d5a8 e5bc 02a4 15bd
00000220: 72b9 8abe 372c 5abe d729 ab3c db6f aa3c
00000230: 1e5d d7b9 296b 23bd 3936 503e a792 9bbc
00000240: 9671 0f3f 68ab a83d 5cd9 1b3e f451 de3e
00000250: b413 423e ad53 80be 4cc7 f63e df5d fc3b
00000260: 0295 5b3d 6c37 f6bd c509 f53e 1d40 8fbd
00000270: b31e 423d 14d1 8a3e 523a 20bd cb9b 0e3e
00000280: 7a21 ee3e 6ff7 15bc 482d bbbe 19db f8be
00000290: a0d4 913d 3d76 95bf 94a8 24bf e841 9b3e
000002a0: c86a 83be 3739 ebbe 151a 33be 7c23 b2bd
000002b0: 57f6 2c3d cb69 71bd b487 a9bd d302 c2bd
000002c0: 13cc acbd a24e 0b3d 3647 b13d 6d70 acbd
000002d0: 4d47 05bf 91d9 7e3e fbc3 2e3c 7ce5 6dbf
000002e0: e261 ae3e 321e 623e 34db f0be a3ff ccbc
000002f0: 04b0 ffbd 363f b1bb 2b0b f1bd 2075 6fbd
00000300: 0db3 9c3d 2437 e63d f13d ee3c 0a84 71bb
00000310: 68e0 1fbc f339 323d b39c 4f3d c202 b23e
00000320: dc36 1ebe b575 d5be b1bb ab3c 3c09 013e
00000330: 2211 e5bd 8299 23bf 57e0 81bd 0fdd 40be
00000340: 83c9 9fbc 5684 c23e 1421 7c3b 975b 6e3d
00000350: 9cb7 8ebe 62d0 b0bd 96fd 163e e8be c63e
00000360: 7a34 8dbe ec25 4ebd af76 103e 1fec 63bf
00000370: 4ca8 7dbf df44 3b3e 7477 a43e 8b76 c9be
00000380: 0d54 94be 0582 943d 3160 193e a9f2 f7bc
00000390: 5a99 39be cb3b 91be 33d5 213d 5f1c e8bb
000003a0: 20d6 42bd b578 483d 871b 3a3f c3cb 993e
000003b0: 5468 533e c08f 8a3e 9ee7 1cbf 2802 49be
000003c0: a87e b73e db15 5cbe b711 e33d a8d4 13be
000003d0: 6e00 173c 7e92 8dbc 8872 82bd 6d2b 283e
000003e0: 2aad c2bd 372c c63c dafd a6be 916d a0bd
000003f0: b723 3c3f 01d5 7abd 8dfb a9bc 863f 17bf

read_encoder.block1.0.bias f4 [128]
0.021768654 -0.34576023 -0.12844303 0.008616354 -0.103749454 0.5503233 0.29515812 -0.19241148
0.33533725 -0.040073402 -0.3058145 -0.037078045 0.07214714 0.28595796 0.26742098 -0.1175358
0.37777236 -0.47052875 0.48438278 0.2657015 0.31921196 -0.21078841 0.07606549 0.4629704
-0.03615855 0.06379913 0.19396314 -0.2304922 -0.3152702 -0.09584911 -0.13388425 0.21512285
0.29486698 -0.2686118 0.21704008 0.16940285 0.32868308 -0.10643453 0.08369923 -0.3115641
0.19820468 -0.27724943 0.4105493 -0.0001339619 0.1696419 0.13105649 0.079451345 0.1796798
0.4324377 0.44540578 -0.16801126 -0.20346427 0.46626374 0.23367271 -0.2123522 0.37041607
0.2599112 -0.044151 0.41757032 -0.38898274 0.1216097 -0.14212865 0.32063603 0.37200078
-0.4429817 -0.20572661 0.47085553 0.26097363 0.117683604 0.21114276 -0.3551216 -0.0029695928
-0.036847994 0.24616802 -0.25869748 -0.2932685 0.07898692 -0.04958797 -0.085505955 0.025631584
0.17449024 0.095061705 0.16953437 -0.50931054 -0.26728013 0.19623452 -0.45631808 -0.37360948
-0.47488818 0.007143545 -0.072470166 -0.10025536 0.47921515 0.12670991 -0.27156162 -0.2792289
-0.037385974 -0.5286909 -0.36673233 0.22722341 0.25244662 -0.12275831 0.23543164 -0.10383001
0.10167559 0.11403345 -0.20041898 0.39786282 0.34205028 -0.48956662 0.049412105 0.013139283
-0.211822 -0.0843424 -0.40767783 -0.12397693 -0.5144179 -0.26995847 -0.031246128 0.4479809
-0.048969556 0.5955012 0.3260856 -0.14497706 -0.25484917 -0.19598593 -0.25502217 -0.15017283
00000000: 2d54 b23c 7c07 b1be 9286 03be 9c2b 0d3c
00000010: 987a d4bd fde1 0c3f f71e 973e 8407 45be
00000020: 53b1 ab3e 0224 24bd b893 9cbe 26df 17bd
00000030: e1c1 933d 1569 923e 67eb 883e 9cb6 f0bd
00000040: 616b c13e 25e9 f0be 0501 f83e 070a 883e
00000050: c06f a33e ebd8 57be 39c8 9b3d 750a ed3e
00000060: fd1a 14bd 1ea9 823d 469e 463e 2606 6cbe
00000070: 186b a1be 8a4c c4bd f418 09be 2a49 5c3e
00000080: cef8 963e 7c87 89be c13f 5e3e f177 2d3e
00000090: 2649 a83e 59fa d9bd 806a ab3d 5485 9fbe
000000a0: 2bf6 4a3e a3f3 8dbe 8533 d23e 2078 0cb9
000000b0: 9bb6 2d3e ac33 063e 63b7 a23d fbfd 373e
000000c0: 7968 dd3e 3a0c e43e 250b 2cbe f058 50be
000000d0: 1fba ee3e e647 6f3e db72 59be 2da7 bd3e
000000e0: 1513 853e aed7 34bd c7cb d53e bf28 c7be
000000f0: 820e f93d 2c8a 11be 682a a43e e376 be3e
00000100: 7fce e2be ffa9 52be fa13 f13e 569e 853e
00000110: 1a04 f13d cf35 583e 80d2 b5be 809d 42bb
00000120: eced 16bd 7813 7c3e ff73 84be 4a27 96be
00000130: e5c3 a13d c11c 4bbd bf1d afbd 54f9 d13c
00000140: 92ad 323e b6af c23d 6b9a 2d3e 2d62 02bf
00000150: f1d8 88be b4f1 483e 86a2 e9be be49 bfbe
00000160: 8b24 f3be 6614 ea3b 3d6b 94bd af52 cdbd
00000170: b05b f53e 3ec0 013e 200a 8bbe 17f7 8ebe
00000180: 0922 19bd 4958 07bf 57c4 bbbe 41ad 683e
00000190: af40 813e b568 fbbd fe14 713e d4a4 d4bd
000001a0: 4b3b d03d 5f8a e93d a23a 4dbe adb4 cb3e
000001b0: 3721 af3e 7aa8 fabe 5964 4a3d 2646 573c
000001c0: dee7 58be b5bb acbd 26bb d0be 9ee7 fdbd
000001d0: e4b0 03bf ff37 8abe e1f7 ffbc c15d e53e
000001e0: 4d94 48bd c472 183f b1f4 a63e de74 14be
000001f0: 977b 82be 89b0 48be 4492 82be e8c6 19be

read_encoder.block1.1.weight f4 [128]
0.75327516 1.0752997 1.0508995 1.1622083 0.91900307 1.1038102 1.172117 0.38224784
1.5146219 0.76386476 0.85001314 1.0659435 0.8910188 1.1372883 1.3235834 0.9592799
1.2382052 1.0649192 0.9361323 0.9196126 0.61241186 0.7757524 0.91463095 1.2517676
1.4183897 1.0254039 1.2533559 0.40371394 0.5428842 0.5679057 0.99511105 1.1581192
0.7529956 0.9714015 1.0684117 1.4142318 0.7504527 0.70268536 1.2289472 0.47778985
0.8663835 0.5735712 1.049729 0.60203665 1.0151227 0.9649162 1.281617 1.095736
1.3002403 1.1450582 0.56489563 0.9534821 1.1711626 0.48477712 0.3298067 1.2801342
0.97903717 1.0469421 1.2540487 0.8495184 1.0646408 1.1360008 1.1809067 1.1204714
0.9638262 0.93299323 0.9490416 1.2395369 1.1391096 0.99615127 1.123227 1.131949
1.1340733 1.448762 0.4969444 0.6562657 1.1100305 0.8950722 0.9571459 0.92266905
1.1228452 1.050062 0.63023514 1.3510487 0.8046958 1.216386 1.0077325 0.6774247
0.76667655 1.1157188 0.8290004 0.8565596 1.4727346 0.8934406 1.2368003 1.2109513
1.373958 0.8022177 0.8455587 0.8073926 0.98869115 0.9659908 0.90890825 0.84877497
0.90049803 1.1035874 0.71774226 1.1191471 1.0163583 0.8313192 0.90722024 0.51066655
1.1778902 1.224438 1.3119314 0.8963607 0.6217962 0.8105145 0.8093823 1.0525029
0.7410223 1.3153503 0.9763093 0.80100846 0.7182412 0.9842664 1.0304742 0.9508596
00000000: a4d6 403f 6ca3 893f e083 863f 3ec3 943f
00000010: c943 6b3f a749 8d3f ee07 963f fdb5 c33e
00000020: 21df c13f a48c 433f 769a 593f d670 883f
00000030: cf19 643f aa92 913f 2e6b a93f 5e93 753f
00000040: 827d 9e3f 464f 883f 5ea6 6f3f bb6b 6b3f
00000050: 06c7 1c3f b697 463f 4125 6a3f ec39 a03f
00000060: cb8d b53f 6f40 833f f76d a03f 98b3 ce3e
00000070: 75fa 0a3f 4562 113f 99bf 7e3f 403d 943f
00000080: 52c4 403f c5ad 783f b7c1 883f 8c05 b53f
00000090: ab1d 403f 30e3 333f 244e 9d3f dfa0 f43e
000000a0: 4fcb 5d3f 90d5 123f 855d 863f 131f 1a3f
000000b0: 8aef 813f c004 773f 070c a43f 1441 8c3f
000000c0: 466e a63f 4491 923f 009d 103f 6717 743f
000000d0: a8e8 953f b534 f83e 6cdc a83e 70db a33f
000000e0: 2ea2 7a3f 3302 863f ab84 a03f 0a7a 593f
000000f0: 2646 883f 7968 913f f327 973f 9b6b 8f3f
00000100: 50bd 763f a5d8 6e3f 64f4 723f 25a9 9e3f
00000110: 58ce 913f c503 7f3f e7c5 8f3f b4e3 903f
00000120: 5029 913f 0971 b93f 7f6f fe3e 0701 283f
00000130: 7b15 8e3f 7423 653f 8407 753f 0a34 6c3f
00000140: 64b9 8f3f 6e68 863f 1757 213f 2aef ac3f
00000150: 8b00 4e3f 89b2 9b3f 61fd 803f b56b 2d3f
00000160: ea44 443f e0cf 8e3f 5f39 543f 7d47 5b3f
00000170: 9182 bc3f 86b8 643f 794f 9e3f 7400 9b3f
00000180: dbdd af3f 245e 4d3f 8976 583f 48b1 4e3f
00000190: dd1a 7d3f 2c4b 773f 36ae 683f 5149 593f
000001a0: 0a87 663f 5a42 8d3f f5bd 373f 3640 8f3f
000001b0: 0718 823f 56d1 543f 963f 683f 0bbb 023f
000001c0: 1bc5 963f 62ba 9c3f 5eed a73f e577 653f
000001d0: 092e 1f3f e17d 4f3f ae33 4f3f 6ab8 863f
000001e0: a3b3 3d3f 665d a83f 68ef 793f e40e 4d3f
000001f0: a8de 373f e2f8 7b3f 94e6 833f 896b 733f

read_encoder.block1.1.bias f4 [128]
-0.45447233 -0.22947434 -0.13705286 0.017896669 -0.35654524 0.032882556 -0.03407276 -0.60484445
0.037716728 -0.36665213 -0.24822588 -0.026423985 -0.17155823 0.02774115 0.010427322 -0.16373558
-0.039545376 -0.18583423 -0.44393253 -0.30838242 -0.45516518 -0.36185467 -0.20653757 -0.042296093
-0.0884007 -0.2412111 -0.029461699 -0.6210207 -0.4980523 -0.47938067 -0.17578876 -0.2386699
-0.33130693 -0.22401346 -0.08646598 -0.07962363 -0.280904 -0.3636784 -0.009060367 -0.47531018
-0.2978389 -0.45945224 -0.02781937 -0.4773167 -0.030559255 -0.06845536 -0.14847495 -0.10650751
0.06942352 -0.025614696 -0.46295387 -0.22376916 -0.020981943 -0.49298078 -0.7200926 -0.053758595
0.00028377367 -0.090015024 -0.07933201 -0.23043466 -0.19059284 -0.21892804 0.0127637815 -0.1172203
-0.13462798 -0.2672557 -0.30102196 -0.016298616 0.014492483 -0.023858806 -0.11387592 -0.09946551
-0.08841192 0.03203452 -0.49206525 -0.28507164 0.049842037 -0.21544968 -0.17221141 -0.15385349
-0.58831424 -0.11829432 -0.3872763 -0.12214547 -0.24293949 -0.2784711 -0.15780094 -0.31724858
-0.2561796 -0.056551423 -0.20208359 -0.262479 0.059688535 -0.21821927 -0.08251875 -0.071330786
0.010991036 -0.26873374 -0.20301867 -0.21333294 -0.097044386 -0.19137092 -0.18137707 -0.25812224
-0.13775657 -0.42859998 -0.5803832 0.06540042 -0.29651603 -0.2972242 -0.14255616 -0.45649606
-0.18339498 -0.106834434 -0.08667122 -0.17392342 -0.3835907 -0.27277333 -0.25600123 0.048649196
-0.29697752 -0.06116468 -0.06268826 -0.23687507 -0.33799088 -0.15011117 -0.1503931 -0.11065233
00000000: 99b0 e8be 52fb 6abe 9657 0cbe 099c 923c
00000010: 198d b6be dcaf 063d e18f 0bbd 16d7 1abf
00000020: db7c 1a3d d4b9 bbbe ed2e 7ebe 1d77 d8bc
00000030: f6ac 2fbe 6941 e33c 5cd7 2a3c 4daa 27be
00000040: 55fa 21bd 544b 3ebe 204b e3be 4de4 9dbe
00000050: 690b e9be 0445 b9be 967e 53be ab3e 2dbd
00000060: 6d0b b5bd 0b00 77be a959 f1bc 36fb 1ebf
00000070: b600 ffbe 6271 f5be f801 34be e265 74be
00000080: 10a1 a9be c963 65be 1315 b1bd b711 a3bd
00000090: a6d2 8fbe 0e34 babe ef71 14bc db5b f3be
000000a0: 577e 98be 533d ebbe 73e5 e3bc db62 f4be
000000b0: 6757 fabc 5332 8cbd d109 18be 9c20 dabd
000000c0: eb2d 8e3d e9d5 d1bc 4a08 edbe be23 65be
000000d0: 53e2 abbc fa67 fcbe fd57 38bf f931 5cbd
000000e0: 75c7 9439 cc59 b8bd d278 a2bd 10f7 6bbe
000000f0: c52a 43be ac2e 60be 2e1f 513c 3211 f0bd
00000100: ebdb 09be bdd5 88be 8d1f 9abe ad84 85bc
00000110: e171 6d3c 8b73 c3bc c737 e9bd 93b4 cbbd
00000120: 4f11 b5bd a136 033d faef fbbe e9f4 91be
00000130: 2a27 4c3d d79e 5cbe 3058 30be c58b 1dbe
00000140: c39b 16bf 4b44 f2bd 1449 c6be 6727 fabd
00000150: 21c5 78be c493 8ebe 9296 21be 686e a2be
00000160: f929 83be 77a2 67bd 00ef 4ebe a663 86be
00000170: f77b 743d df74 5fbe 97ff a8bd e015 92bd
00000180: bf13 343c 7897 89be 20e4 4fbe f373 5abe
00000190: 35bf c6bd bdf6 43be e9ba 39be 9928 84be
000001a0: 0f10 0dbe 7571 dbbe fe93 14bf a8f0 853d
000001b0: f3d0 97be c52d 98be 3efa 11be dab9 e9be
000001c0: e5cb 3bbe 03cc dabd ae80 b1bd fb18 32be
000001d0: 0066 c4be f2a8 8bbe 9812 83be 6144 473d
000001e0: 700d 98be d187 7abd b462 80bd 618f 72be
000001f0: 240d adbe beb6 19be a600 1abe b09d e2bd

read_encoder.block2.0.weight f4 [128, 128]
-0.18884441 0.08688947 -0.16111036 0.14557305 -0.11428967 0.05904155 0.0102521805 -0.0035823649
-0.026311591 0.07832677 0.1469054 0.1283037 0.22633897 -0.02306453 0.067670755 0.04111908
0.022893839 -0.061879955 -0.104805075 0.0150738675 0.07304141 0.080058135 -0.12033455 -0.032242008
0.24090031 0.10167615 -0.08341016 0.004164238 0.019491343 0.05332328 0.068678945 -0.02157671
0.1140656 0.16398771 0.110241465 -0.06285888 0.08511624 0.07730724 -0.01697939 0.0032053462
0.09275607 0.04913187 -0.013917115 -0.045691166 0.033546172 0.087451614 -0.08977707 -0.0025654712
0.0029865203 -0.040386125 0.09527211 -0.00398891 0.12367641 0.031087006 -0.03257365 0.05813323
0.18377143 -0.004936512 0.20950723 0.056847878 0.038453486 -0.18612267 -0.027952325 0.0069535156
0.024621947 -0.002875568 0.032726195 -0.07685278 0.10628174 -0.018172935 -0.03460243 -0.10637358
0.035730883 0.06316444 -0.050700765 0.084158145 0.05245203 -0.037914537 -0.15769197 0.036383003
-0.021743447 -0.035510283 0.12325079 -0.1392378 -0.018645199 0.024897829 0.23615731 0.055205896
0.037648413 -0.024405513 -0.033253364 -0.03609752 0.15629451 0.08210865 0.13291515 -0.041609347
0.14366329 0.072574735 0.10136021 0.0063176537 -0.10944767 -0.020159135 0.14203267 -0.019236822
-0.0055874404 0.014765137 0.13162617 0.015239184 0.04259754 0.040524386 -0.00081454887 0.1770973
-0.041696046 0.36245948 -0.048593313 -0.08271596 -0.07104393 0.06167298 0.15637384 -0.028612914
0.13129205 -0.07315885 0.025885569 -0.029017167 -0.03534052 0.023599667 0.07500993 -0.09519117
-0.10777315 -0.008149985 0.013101973 0.027718427 -0.006620466 0.011384871 0.034002133 0.14141391
-0.1076458 -0.0055695293 0.09150281 0.18644315 0.0032287727 0.07367299 -0.16097455 -0.012178262
-0.028335534 0.075698726 -0.09638298 -0.066659495 -0.059661545 0.052566838 0.06891921 0.021610266
0.24430415 0.18697424 -0.30656245 0.032914132 -0.002051326 0.059640735 0.15132272 0.018624255
0.087695815 0.22280575 -0.2556575 0.059493657 0.17938595 0.05818393 0.065214686 0.04802325
-0.035595205 -0.00012747635 -0.06900459 0.012920234 -0.1467701 0.16386259 -0.14886852 0.012617401
-0.1484931 -0.048783854 0.06017893 -0.04693904 0.14735378 -0.069060214 -0.020559724 0.07547205
0.08710987 -0.021420004 0.21921621 -0.119334154 -0.028339045 -0.043367565 -0.014192102 -0.028280396
0.06210934 0.17673314 -0.025938347 0.034949783 -0.1072815 -0.07063048 0.32548043 -0.09253533
-0.050323393 -0.13110091 -0.049214683 0.11895814 0.08348253 -0.0354772 -0.22460102 0.0050257933
-0.08092907 -0.104027234 0.06613429 0.22479445 0.007091417 0.017460233 0.16540043 0.054710507
0.07396626 -0.11612688 0.025774054 -0.03648361 0.24063222 0.07212901 0.09479395 0.16042885
0.15931144 0.011478224 0.10807251 -0.029131053 0.012102054 -0.004120268 -0.17314197 -0.19523925
0.08084048 -0.18042132 0.07068488 0.08731399 -0.007934932 -0.02572976 -0.048346017 0.14894709
-0.23081909 0.36529517 0.09424358 0.10500178 0.046082027 0.00471667 0.01076678 -0.28991947
0.14835894 -0.14209165 -0.091693655 0.046086837 0.0067507164 0.08989271 0.035064965 0.1885768
00000000: 6e60 41be 1bf3 b13d 1dfa 24be 1a11 153e
00000010: b410 eabd 8dd5 713d c3f8 273c 1cc6 6abb
00000020: 688b d7bc c969 a03d 5f6e 163e 0c62 033e
00000030: 67c5 673e d3f1 bcbc f796 8a3d 7b6c 283d
00000040: dc8b bb3c d675 7dbd 0ba4 d6bd 62f8 763c
00000050: bc96 953d 85f5 a33d f671 f6bd 3210 04bd
00000060: 92ae 763e 963b d03d f2d2 aabd 2974 883b
00000070: 4fac 9f3c 8369 5a3d 8ca7 8c3d a4c1 b0bc
00000080: 3a9b e93d 65ec 273e 47c6 e13d 28bc 80bd
00000090: 6c51 ae3d 4253 9e3d 5d18 8bbc c910 523b
000000a0: e5f6 bd3d 803e 493d 9c04 64bc a926 3bbd
000000b0: b667 093d d519 b33d 0add b7bd 7721 28bb
000000c0: 7fb9 433b ec6b 25bd 061e c33d 67b5 82bb
000000d0: 0f4a fd3d 2daa fe3c f36b 05bd 1c1d 6e3d
000000e0: 942e 3c3e 77c2 a1bb 1089 563e 52d9 683d
000000f0: 6781 1d3d f196 3ebe 46fc e4bc 51da e33b
00000100: f7b3 c93c 0774 3cbb e70b 063d fe64 9dbd
00000110: 3eaa d93d 68df 94bc 47bb 0dbd 64da d9bd
00000120: 8c5a 123d 5c5c 813d 9bab 4fbd 1b5b ac3d
00000130: f1d7 563d 464c 1bbd 017a 21be 5806 153d
00000140: 501f b2bc 3b73 11bd e96a fc3d 5b94 0ebe
00000150: d1bd 98bc 88f6 cb3c 39d3 713e 941f 623d
00000160: 3935 1a3d 12ee c7bc ae34 08bd feda 13bd
00000170: ab0b 203e 9428 a83d e91a 083e 906e 2abd
00000180: 781c 133e 10a2 943d f195 cf3d 5204 cf3b
00000190: 1a26 e0bd c524 a5bc 0371 113e 8a96 9dbc
000001a0: d916 b7bb 79e9 713c 03c9 063e c5ad 793c
000001b0: c27a 2e3d e6fc 253d 7387 55ba ff58 353e
000001c0: 79c9 2abd 4a94 b93e c809 47bd fc66 a9bd
000001d0: 7b7f 91bd cf9c 7c3d 7720 203e a165 eabc
000001e0: 6c71 063e 4fd4 95bd f90d d43c 69b5 edbc
000001f0: 39c1 10bd 1754 c13c ce9e 993d 97f3 c2bd
00000200: 2bb8 dcbd 8487 05bc a8a9 563c c111 e33c
00000210: 7ef0 d8bb 9c87 3a3c d245 0b3d cfce 103e
00000220: 6775 dcbd 9980 b6bb d365 bb3d f4ea 3e3e
00000230: d199 533b dde1 963d 83d6 24be 5587 47bc
00000240: ec1f e8bc ef07 9b3d 7164 c5bd c684 88bd
00000250: aa5f 74bd 5350 573d 8425 8d3d 0308 b13c
00000260: de2a 7a3e 2d76 3f3e c1f5 9cbe f8d0 063d
00000270: 8a6f 06bb d849 743d 58f4 1a3e e591 983c
00000280: dd99 b33d 3127 643e 8ae5 82be 9faf 733d
00000290: f3b0 373e 4652 6e3d 478f 853d 07b4 443d
000002a0: 47cc 11bd 2cab 05b9 4752 8dbd 64af 533c
000002b0: e74a 16be 98cb 273e fd70 18be 37b9 4e3c
000002c0: 930e 18be 94d1 47bd 2f7e 763d 2743 40bd
000002d0: e9e3 163e 716f 8dbd de6c a8bc 1791 9a3d
000002e0: a966 b23d 0179 afbc 377a 603e 7765 f4bd
000002f0: 4927 e8bc 30a2 31bd fd85 68bc 4aac e7bc
00000300: 5d66 7e3d 88f9 343e a87c d4bc 8127 0f3d
00000310: 67b6 dbbd b7a6 90bd 5fa5 a63e 2a83 bdbd
00000320: e71f 4ebd 513f 06be 5695 49bd 53a0 f33d
00000330: e4f8 aa3d 8a50 11bd cffd 65be 69af a43b
00000340: 24be a5bd 3b0c d5bd 6a71 873d 8430 663e
00000350: 1e5f e83b c308 8f3c bb5e 293e 2018 603d
00000360: 9f7b 973d eed3 edbd 1c24 d33c d66f 15bd
00000370: 4b68 763e 60b8 933d 5523 c23d 7647 243e
00000380: 8a22 233e 290f 3c3c 1f55 dd3d 3fa4 eebc
00000390: b247 463c 5003 87bb 214c 31be ccec 47be
000003a0: b28f a53d 5ec0 38be 3cc3 903d add1 b23d
000003b0: 8401 02bc 38c7 d2bc 7906 46bd 9685 183e
000003c0: d75b 6cbe f807 bb3e c702 c13d 2c0b d73d
000003d0: 82c0 3c3d 4c8e 9a3b 2667 303c 5370 94be
000003e0: 68eb 173e 7980 11be e2c9 bbbd 8dc5 3c3d
000003f0: 1d35 dd3b ab19 b83d 48a0 0f3d 471a 413e

read_encoder.block2.0.bias f4 [128]
0.12555644 0.08168439 -0.06591844 -0.011869968 -0.051882382 0.004908443 0.08241289 0.034701753
-0.11742557 -0.015137461 -0.026895793 -0.05026619 0.07249226 0.12705721 -0.039181005 -0.0051789894
0.0051607667 -0.04197457 0.13119023 -0.08324858 -0.11220794 0.104024 0.018071463 -0.023849241
0.065835044 0.12132019 0.013943238 0.12561996 0.059247755 0.06314231 0.044284426 0.117725134
0.09000344 0.12027429 0.07513302 0.01928439 0.067313 0.07552234 0.059735127 -0.091615185
0.12128698 -0.01079881 0.07452701 0.106415 0.16461505 0.050420232 -0.079250164 0.08936455
0.05645749 -0.05840247 0.0047106687 0.19182041 0.022997854 0.12272092 0.14490049 0.10069055
0.109795906 0.09661603 0.03787387 -0.08080391 0.03675791 -0.095979534 0.00597986 0.05819869
0.026248738 0.14916746 0.00241183 0.034011606 0.10690449 0.095589735 -0.090884976 0.123126835
0.15713483 -0.05705102 0.09491201 0.111981496 -0.00908574 0.038635176 0.07047577 -0.031867195
0.008987346 0.026731467 0.030396348 0.05228615 0.07155921 -0.008578383 -0.017980268 0.099112436
-0.0008174097 0.082920834 -0.020363068 0.112562716 -0.088333495 -0.0007901074 -0.03548606 0.0006041098
0.047001865 0.013284057 -0.1154163 0.017055351 0.111100435 -0.0596807 0.089375176 0.070042744
-0.0005495667 0.03636639 0.005444654 0.010338739 0.06595587 0.05173176 0.09074789 0.042449888
0.03191865 0.035566352 0.022648746 0.007266745 -0.02795858 0.030735837 0.07393944 -0.041066837
-0.09744846 0.019026427 0.08609282 -0.065066874 -0.046796635 0.021508645 -0.039333187 0.02512141
00000000: de91 003e 254a a73d 3f00 87bd 417a 42bc
00000010: 9f82 54bd 01d7 a03b 17c8 a83d 6d23 0e3d
00000020: d17c f0bd 1d03 78bc 9154 dcbc ece3 4dbd
00000030: d276 943d 491b 023e 437c 20bd 83b4 a9bb
00000040: a61b a93b 87ed 2bbd bb56 063e 3b7e aabd
00000050: 47cd e5bd 890a d53d 9b0a 943c 7c5f c3bc
00000060: 86d4 863d b876 f83d 2e72 643c 85a2 003e
00000070: c6ad 723d c150 813d 9663 353d e019 f13d
00000080: b953 b83d 5e52 f63d 57df 993d 4cfa 9d3c
00000090: 66db 893d 75ab 9a3d d2ac 743d bea0 bbbd
000000a0: 4f65 f83d 7eed 30bc 9ea1 983d 1cf0 d93d
000000b0: d990 283e 7285 4e3d e94d a2bd c304 b73d
000000c0: f83f 673d 6e37 6fbd f45b 9a3b 926c 443e
000000d0: ff65 bc3c 1b55 fb3d cb60 143e d936 ce3d
000000e0: addc e03d a0de c53d a221 1b3d 857c a5bd
000000f0: 768f 163d eb90 c4bd b4f2 c33b c061 6e3d
00000100: 9807 d73c 5bbf 183e cb0f 1e3b c14f 0b3d
00000110: bef0 da3d 8dc4 c33d e721 babd ec29 fc3d
00000120: f4e7 203e 55ae 69bd 3a61 c23d 8e56 e53d
00000130: 5bdc 14bc eb3f 1e3d 9a55 903d 2d87 02bd
00000140: a93f 133c f3fb da3c c301 f93c 012a 563d
00000150: a38d 923d 598c 0cbc 5b4b 93bc 76fb ca3d
00000160: 7047 56ba 66d2 a93d 73d0 a6bc 4887 e63d
00000170: 31e8 b4bd 361f 4fba d559 11bd 1f5d 1e3a
00000180: 0785 403d 60a5 593c 625f ecbd aab7 8b3c
00000190: a088 e33d c073 74bd 550a b73d 9272 8f3d
000001a0: cc10 10ba ecf4 143d 1169 b23b d063 293c
000001b0: df13 873d afe4 533d 08da b93d efdf 2d3d
000001c0: 21bd 023d 06ae 113d dd89 b93c e01d ee3b
000001d0: 6409 e5bc b9c9 fb3c 906d 973d b335 28bd
000001e0: 0f93 c7bd 4fdd 9b3c 6f51 b03d c841 85bd
000001f0: d4ad 3fbd e632 b03c d61b 21bd 6acb cd3c

read_encoder.block2.1.weight f4 [128]
0.724173 0.5900811 1.1231272 0.7199402 1.0770597 1.0458995 0.9300923 1.0657754
1.364413 0.85419 0.81798875 1.0874118 0.8831083 0.701675 1.023447 1.1442106
0.8312452 0.8888745 0.88258785 1.2098545 1.0748224 0.8175262 0.9639788 1.1206133
0.8136452 0.8044323 0.93318343 0.9592068 0.7605949 0.6948657 0.98130655 0.91346717
1.042724 0.7894066 1.0671585 1.1454295 0.59372735 0.92523766 0.6277357 1.0400628
0.78479075 1.2590353 0.6351103 0.80343217 0.8158184 0.9018514 1.131083 1.1120845
1.1168607 1.0545704 1.1308173 0.88438994 0.88065225 0.69191444 0.7895889 0.58623093
0.6255663 0.7881489 0.76456875 1.085317 0.7009476 1.0655295 1.1182898 1.2586234
1.0540729 0.8250145 1.0435092 1.0499701 0.8885936 1.0441515 1.2477343 0.68769187
0.50386524 1.2283978 0.5306974 0.8348718 1.0588797 0.5588649 0.5801551 1.0692872
1.236606 0.86758286 0.92000395 0.9994868 1.171908 0.783162 1.168452 0.6434015
1.0831714 0.63834274 1.0278603 0.91429204 1.0178111 1.0766008 1.204479 0.9598781
0.96317005 0.6064535 1.1774551 0.9819632 0.87088406 1.1505474 0.9740239 0.8997234
0.75419855 0.93282294 0.9320375 1.1346723 0.6319557 0.81007534 0.8661484 0.76669604
0.8780266 0.61001205 0.6400348 0.718028 0.94063205 1.0281502 0.7721105 1.1164457
1.2533691 0.95830864 0.8732557 1.1005019 0.89178795 1.0945507 1.2715057 1.1858692
00000000: 6763 393f 8e0f 173f a2c2 8f3f 004e 383f
00000010: 18dd 893f 09e0 853f 871a 6e3f 546b 883f
00000020: 16a5 ae3f 32ac 5a3f b667 513f 4f30 8b3f
00000030: 6313 623f f9a0 333f 5000 833f 7e75 923f
00000040: 7ccc 543f 478d 633f 47f1 613f 83dc 9a3f
00000050: c893 893f 6649 513f 51c7 763f 4270 8f3f
00000060: 0d4b 503f 46ef 4d3f 1ce5 6e3f 948e 753f
00000070: 59b6 423f b8e2 313f e836 7b3f fcd8 693f
00000080: fb77 853f 8d16 4a3f a698 883f 6f9d 923f
00000090: 84fe 173f 60dc 6c3f 49b3 203f c720 853f
000000a0: 0ce8 483f 1228 a13f 9796 223f bbad 4d3f
000000b0: 7ad9 503f bcdf 663f 54c7 903f c958 8e3f
000000c0: 4bf5 8e3f 2afc 863f 9fbe 903f 6167 623f
000000d0: 6d72 613f 4e21 313f 8022 4a3f 3b13 163f
000000e0: 1d25 203f 20c4 493f c7ba 433f abeb 8a3f
000000f0: 4d71 333f 4563 883f 1f24 8f3f 921a a13f
00000100: dceb 863f 2634 533f b691 853f 6c65 863f
00000110: df7a 633f c2a6 853f c2b5 9f3f 930c 303f
00000120: 50fd 003f 243c 9d3f c9db 073f 29ba 553f
00000130: 5f89 873f c511 0f3f 0b85 143f 67de 883f
00000140: 1b49 9e3f e919 5e3f 6185 6b3f 5ede 7f3f
00000150: 1501 963f 4e7d 483f d68f 953f f6b5 243f
00000160: 5ca5 8a3f 6e6a 233f ed90 833f 0b0f 6a3f
00000170: a247 823f 0ece 893f 5e2c 9a3f 92ba 753f
00000180: 5092 763f 8940 1b3f d9b6 963f f161 7b3f
00000190: 42f2 5e3f 2345 933f a159 793f 4654 663f
000001a0: 2813 413f 7ccd 6e3f 029a 6e3f f13c 913f
000001b0: d9c7 213f 1961 4f3f e7bb 5d3f 3146 443f
000001c0: 5ac6 603f c029 1c3f 52d9 233f afd0 373f
000001d0: 43cd 703f 6d9a 833f 09a9 453f b1e7 8e3f
000001e0: 666e a03f b753 753f b08d 5f3f 3fdd 8c3f
000001f0: 374c 643f 3d1a 8c3f b3c0 a23f 90ca 973f

read_encoder.block2.1.bias f4 [128]
-0.34665492 -0.39985877 -0.11065404 -0.41317964 -0.08745544 -0.20548773 -0.21832836 -0.092471495
-0.21536909 -0.2114187 -0.32195622 -0.10915275 -0.3993082 -0.37187585 -0.28859755 -0.12305986
-0.24604563 -0.23136967 -0.25771827 -0.15413107 -0.12394385 -0.30262026 -0.20099823 -0.15656626
-0.20238723 -0.28629273 -0.15272143 -0.25257996 -0.24348623 -0.37879723 -0.21161361 -0.25799066
-0.24725668 -0.25799924 -0.120218284 -0.11922316 -0.4750163 -0.13119249 -0.36666954 -0.18039708
-0.28568652 -0.1189301 -0.37524724 -0.27104396 -0.09793941 -0.19577993 -0.110795215 -0.08096778
-0.120771036 -0.23332565 -0.21636434 -0.12577355 -0.11047447 -0.31989303 -0.30006567 -0.46252427
-0.37210238 -0.14459571 -0.3479751 -0.30474064 -0.32902086 -0.2979262 -0.18508416 -0.16868132
-0.08352096 -0.23148036 -0.12439509 -0.31418976 -0.31869775 -0.21386874 -0.24841486 -0.23618382
-0.47829202 -0.2061763 -0.4762519 -0.11607638 -0.054169115 -0.38724303 -0.39107257 -0.22176172
-0.18082236 -0.31479427 -0.29699275 -0.12998025 -0.09288933 -0.3399623 -0.08122168 -0.41859573
-0.14156199 -0.2944615 -0.18495604 -0.103609644 -0.14300889 -0.09289442 -0.0871321 -0.27988163
-0.17078722 -0.6574253 -0.08943309 -0.110578425 -0.2542542 -0.13248132 -0.27465898 -0.3216214
-0.1877673 -0.19508088 -0.15112613 -0.15524535 -0.30632374 -0.29525107 -0.2753001 -0.26250604
-0.20891058 -0.28873092 -0.29626784 -0.29499477 -0.3215747 -0.14251766 -0.3874704 -0.15754671
-0.08180841 -0.17426799 -0.09733034 -0.28351375 -0.3289555 -0.20903087 -0.102430746 -0.20155127
00000000: c17c b1be 4aba ccbe 969e e2bd 488c d3be
00000010: d61b b3bd 606b 52be 7891 5fbe b261 bdbd
00000020: b789 5cbe 257e 58be 72d7 a4be 7a8b dfbd
00000030: 2072 ccbe 8366 bebe 0fc3 93be cf06 fcbd
00000040: 63f3 7bbe 2cec 6cbe a6f3 83be 89d4 1dbe
00000050: 46d6 fdbd 0bf1 9abe 7bd2 4dbe e852 20be
00000060: 993e 4fbe f694 92be 0263 1cbe 2952 81be
00000070: 7454 79be b6f1 c1be 3db1 58be 5a17 84be
00000080: db30 7dbe 7a18 84be 0135 f6bd 462b f4bd
00000090: 5635 f3be 5357 06be 1cbc bbbe 03ba 38be
000000a0: 8145 92be a091 f3bd 6820 c0be 46c6 8abe
000000b0: 7594 c8bd 897a 48be 9ae8 e2bd 6fd2 a5bd
000000c0: ce56 f7bd ebec 6ebe 9d8e 5dbe c8ca 00be
000000d0: 7040 e2bd 05c9 a3be 35a2 99be fbcf ecbe
000000e0: 3484 bebe e610 14be cb29 b2be f706 9cbe
000000f0: 6c75 a8be c889 98be b486 3dbe ccba 2cbe
00000100: 090d abbd 3009 6dbe dac2 febd 7bdd a0be
00000110: 5a2c a3be 6800 5bbe 7760 7ebe 2cda 71be
00000120: b1e2 f4be e11f 53be 4ad7 f3be 74b9 edbd
00000130: 6fe0 5dbd b844 c6be aa3a c8be 8115 63be
00000140: 7f29 39be b72c a1be 6f0f 98be 8b19 05be
00000150: c33c bebd 8a0f aebe 8d57 a6bd 2e52 d6be
00000160: a0f5 10be a8c3 96be 1e65 3dbe 4b31 d4bd
00000170: ec70 12be 6e3f bebd 5072 b2bd a54c 8fbe
00000180: d8e2 2ebe 064d 28bf b228 b7bd f176 e2bd
00000190: 9b2d 82be 2fa9 07be 1aa0 8cbe 8fab a4be
000001a0: 1246 40be 48c3 47be cfc0 1abe a3f8 1ebe
000001b0: 77d6 9cbe 262b 97be 22f4 8cbe 3167 86be
000001c0: a8ec 55be 8ad4 93be 6bb0 97be 8e09 97be
000001d0: 70a5 a4be 26f0 11be 8562 c6be ed53 21be
000001e0: 2b8b a7bd 4f73 32be 2155 c7bd b728 91be
000001f0: db6c a8be 300c 56be 36c7 d1bd 7563 4ebe

read_encoder.block3.0.weight f4 [128, 128]
-0.06530967 -0.1830278 0.021828676 0.0723548 -0.04370774 0.11930602 0.085546836 -0.0239595
-0.006742978 0.03732642 -0.052100256 0.24171677 0.13855995 0.058094654 -0.07609751 -0.031026885
0.081076674 0.025291182 0.10517358 0.11927003 -0.16743088 0.13628517 0.12114087 0.1249473
-0.028050411 -0.038159 0.09585082 -0.005190116 0.067465454 0.08437025 0.019077681 0.12320053
0.114897326 0.09505366 0.02157207 -0.25849065 0.02230774 0.10119979 -0.022355681 0.035895776
-0.042517807 -0.06279262 0.111544 0.02156611 0.12672381 0.0457098 0.016009789 0.002093226
0.10369936 0.04973824 -0.017420795 0.17567888 0.10383992 0.111128174 0.08782147 0.09209219
0.016455436 0.00073512935 -0.047674756 -0.20399752 0.022429673 0.15378594 0.14801864 0.28364682
0.04366054 -0.0383875 0.051387746 0.10291668 0.06482956 0.07437551 -0.17769329 -0.06292366
0.036572866 0.25287104 -0.039778147 0.112112604 0.012779542 0.035042867 -0.05646445 0.07748716
-0.21292326 -0.10086206 0.06983297 -0.10853438 0.0046061506 -0.0038306974 -0.15056732 -0.0056378883
-0.11531404 0.037923127 -0.111626334 0.07873444 0.16220675 0.07538228 -0.23097593 -0.038534064
0.111832984 -0.015927395 -0.064652726 0.07340511 0.0039288416 0.09828185 0.16735463 0.10829769
-0.010873251 -0.09165204 0.20372978 0.2340648 -0.10706088 -0.015622512 -0.019452484 -0.014561502
-0.033696268 0.06139855 0.1056375 0.10092725 -0.047548942 0.037066866 0.13218985 0.2411273
0.018268904 0.027033238 0.11914236 0.05740194 -0.021791266 -0.118359625 -0.049424652 -0.2334011
0.0982179 -0.00699816 0.027928751 -0.13213381 0.0135105755 0.09913238 0.037495404 0.083491065
-0.011576109 0.0407577 0.08029687 -0.042203456 -0.060455974 0.2220759 -0.15221244 0.12988165
0.30273417 -0.1658229 -0.07217447 0.46073264 -0.20183416 0.14936857 -0.08715516 0.1357986
0.032452155 0.055361446 -0.06926654 0.059101865 0.052011095 -0.03703814 -0.25148627 0.05246239
0.19001646 0.054298744 0.07161705 -0.01174005 0.14722894 0.046601303 0.1515855 -0.23298582
0.14685856 -0.0005556366 0.11282356 0.20720813 -0.021697003 -0.03744511 -0.49633765 0.18158007
-0.17062475 -0.025588233 -0.08338208 -0.19021536 0.014100306 0.18989421 0.10623579 -0.0044976766
-0.17035322 0.073588364 0.0218407 0.028130546 0.29439187 -0.2220013 0.070961386 0.24299951
-0.1637483 -0.05968139 -0.29354393 0.16184403 0.30069226 -0.05967017 -0.12081279 0.15360992
0.10849307 0.33829233 0.13915393 0.12226698 -0.2110054 -0.22804919 0.06668316 0.1676189
0.07865675 0.11037413 0.16461621 -0.21064365 0.05853334 -0.011530924 0.07508637 0.26920798
0.031016665 0.082677335 0.014903812 -0.12358213 0.47312334 -0.2542558 -0.2015085 0.26583415
0.06256631 0.13203911 -0.28017136 -0.04343626 -0.057139613 -0.030570816 -0.056073755 0.23662081
-0.06126332 -0.08519472 0.16524626 0.29123414 0.30965766 -0.06992364 0.24103124 0.12146827
-0.056004785 0.06014985 -0.018142998 -0.096198216 0.12401981 -0.25235066 -0.060347136 0.13886523
-0.0974627 0.08193629 0.22841863 -0.10572867 -0.023824174 0.071497 -0.19817798 0.13651335
00000000: 14c1 85bd a46b 3bbe 0dd2 b23c c12e 943d
00000010: e306 33bd b756 f43d 2e33 af3d b746 c4bc
00000020: 33f4 dcbb 97e3 183d 1467 55bd 9a84 773e
00000030: a9e2 0d3e a9f4 6d3d 03d9 9bbd 182c febc
00000040: 870b a63d 742f cf3c 3f65 d73d d843 f43d
00000050: 0073 2bbe 578e 0b3e b418 f83d 5fe4 ff3d
00000060: fac9 e5bc 9d4c 1cbd 6f4d c43d d911 aabb
00000070: 542b 8a3d 4fca ac3d cc48 9c3c 8f50 fc3d
00000080: 4a4f eb3d 7eab c23d e9b7 b03c e358 84be
00000090: b9be b63c d641 cf3d 4323 b7bc 7307 133d
000000a0: 2727 2ebd 6b99 80bd 2e71 e43d 69ab b03c
000000b0: e3c3 013e 333a 3b3d f626 833c 812e 093b
000000c0: 5460 d43d 53ba 4b3d 0eb6 8ebc 2ae5 333e
000000d0: 06aa d43d 2b97 e33d bedb b33d d59a bc3d
000000e0: 8dcd 863c b2b5 403a 9b46 43bd bae4 50be
000000f0: 6fbe b73c 107a 1d3e 3392 173e 283a 913e
00000100: 65d5 323d 363c 1dbd f57b 523d fbc5 d23d
00000110: 5cc5 843d 3052 983d 3bf5 35be 1fde 80bd
00000120: 6ecd 153d 5078 813e 69ee 22bd 4b9b e53d
00000130: 4961 513c 1c89 0f3d 4447 67bd 97b1 9e3d
00000140: 8e08 5abe c590 cebd 9704 8f3d 4647 debd
00000150: 31ef 963b 700c 7bbb 522e 1abe 09be b8bb
00000160: c429 ecbd 4855 1b3d 599c e4bd 863f a13d
00000170: 8719 263e 0662 9a3d f484 6cbe e5d5 1dbd
00000180: b108 e53d 2b7a 82bc a668 84bd 6b55 963d
00000190: 83bd 803b ff47 c93d 035f 2b3e 2ecb dd3d
000001a0: b825 32bc 11b4 bbbd 8a9e 503e afae 6f3e
000001b0: bc42 dbbd 91f5 7fbc d15a 9fbc 5e93 6ebc
000001c0: 1905 0abd 0c7d 7b3d 7958 d83d f2b2 ce3d
000001d0: aec2 42bd 6dd3 173d c75c 073e 13ea 763e
000001e0: aba8 953c cf74 dd3c e900 f43d 4c1e 6b3d
000001f0: 9983 b2bc 8866 f2bd 8171 4abd b300 6fbe
00000200: 7726 c93d d250 e5bb d6ca e43c 164e 07be
00000210: 765b 5d3c eb05 cb3d c894 193d 5dfd aa3d
00000220: b8a9 3dbc 8cf1 263d af72 a43d 88dd 2cbd
00000230: afa0 77bd dd67 633e 94dd 1bbe b2ff 043e
00000240: f9ff 9a3e 7acd 29be 35d0 93bd 26e5 eb3e
00000250: 9dad 4ebe 13f4 183e 687e b2bd ca0e 0b3e
00000260: 8dec 043d afc2 623d 9edb 8dbd cc14 723d
00000270: 9609 553d 4eb5 17bd cfc2 80be cee2 563d
00000280: ad93 423e 5c68 5e3d f6ab 923d 5759 40bc
00000290: 2fc3 163e 02e1 3e3d 3b39 1b3e d693 6ebe
000002a0: 1762 163e 24a8 11ba 0a10 e73d 5e2e 543e
000002b0: eabd b1bc 0b60 19bd f81f febe 20f0 393e
000002c0: 41b8 2ebe 6a9e d1bc 39c4 aabd d1c7 42be
000002d0: f804 673c a173 423e 2692 d93d 3f61 93bb
000002e0: 1371 2ebe 7fb5 963d 45eb b23c 0872 e63c
000002f0: 88ba 963e 4f54 63be 3454 913d ddd4 783e
00000300: a2ad 27be 7974 74bd 644b 96be 71ba 253e
00000310: 56f4 993e b568 74bd b26c f7bd eb4b 1d3e
00000320: 9d31 de3d a734 ad3e 5e7e 0e3e 1c67 fa3d
00000330: cd11 58be ba85 69be 2e91 883d 4aa4 2b3e
00000340: ca16 a13d d50b e23d 2791 283e f8b2 57be
00000350: a8c0 6f3d 33ec 3cbc e2c6 993d a1d5 893e
00000360: a916 fe3c bc52 a93d 1e2f 743c a118 fdbd
00000370: 393d f23e d12d 82be 3f58 4ebe 6a1b 883e
00000380: c422 803d 4335 073e 9f72 8fbe 38ea 31bd
00000390: 3a0b 6abd a66f fabc 98ad 65bd ba4c 723e
000003a0: 3fef 7abd 927a aebd 5136 293e a41c 953e
000003b0: 738b 9e3e 2034 8fbd e5d0 763e 5bc4 f83d
000003c0: 4665 65bd b05f 763d a0a0 94bc 9203 c5bd
000003d0: 19fe fd3d 1b34 81be 8f2e 77bd b032 0e3e
000003e0: 869a c7bd 37ce a73d 93e6 693e 4688 d8bd
000003f0: ea2a c3bc 056d 923d 2bef 4abe 28ca 0b3e

read_encoder.block3.0.bias f4 [128]
0.009664424 0.10429241 -0.017955715 0.077732615 -0.07036601 -0.03197998 0.09057579 0.090938784
0.032650407 0.031201946 -0.0074936077 -0.11204623 0.105522625 0.14356056 -0.10412665 0.067271896
-0.011177591 0.17154159 0.112825304 -0.015355902 0.17588289 0.053329866 0.031816885 -0.05258224
0.09595603 0.08458704 0.016275913 0.1427346 0.028229536 0.08992807 0.11151352 0.1390952
0.07825286 -0.025675148 0.030877559 0.039280914 0.008982257 0.078045145 -0.030377882 0.048308622
0.05622412 -0.0019076185 -0.03395969 -0.087265454 -0.04847339 0.12276745 0.025785035 0.012675769
0.06995097 -0.043849986 0.020958588 0.005842704 -0.011682871 -0.017770568 0.10295 0.08156733
0.10664083 0.09157528 -0.048040938 0.010681858 -0.0475669 -0.087039575 0.025739465 0.04775075
0.0844653 0.16131845 0.13478199 0.018750481 0.018256288 0.13067384 0.13376585 0.08913255
0.039974086 0.05626441 0.049978923 -0.03537799 0.025440091 -0.014561993 -0.018366918 -0.07509181
-0.030890582 0.04300636 0.07041055 0.011880606 0.0021319445 -0.024568865 0.12130078 0.034313746
-0.03210655 0.06638858 0.121546015 -0.030793214 -0.026124172 -0.009456514 -0.029904068 -0.0021148853
0.04332774 0.01496616 -0.007985715 0.012325769 0.12134285 -0.10423935 0.100039884 0.019671382
0.013217234 -0.073614664 0.050964016 -0.121965796 -0.028206399 0.07539394 0.1406413 0.06680551
0.10374953 -0.02223613 0.011713596 0.10921937 0.022299428 0.06241119 -0.010076 0.08075816
-0.028632298 -0.12541866 -0.06441356 -0.0637419 -0.03426755 -0.053109534 0.15451139 0.059794866
00000000: 8857 1e3c 4297 d53d dd17 93bc 4732 9f3d
00000010: 0e1c 90bd 71fd 02bd cd7f b93d 1d3e ba3d
00000020: 6fbc 053d 399b ff3c f08c f5bb 7e78 e5bd
00000030: 3f1c d83d 8a01 133e 5a40 d5bd d9c5 893d
00000040: 3722 37bc 99a8 2f3e f410 e73d 5297 7bbc
00000050: a51a 343e 6b70 5a3d 6c52 023d 7a60 57bd
00000060: 9884 c43d f83b ad3d 1055 853c 0529 123e
00000070: a141 e73c 352c b83d 3361 e43d f96e 0e3e
00000080: 0943 a03d b054 d2bc eff2 fc3c 06e5 203d
00000090: 512a 133c 22d6 9f3d 09db f8bc 43df 453d
000000a0: 434b 663d 0e09 faba 5119 0bbd 3bb8 b2bd
000000b0: 098c 46bd 806d fb3d 233b d33c 07ae 4f3c
000000c0: 7442 8f3d 0b9c 33bd 58b1 ab3c 2774 bf3b
000000d0: 8369 3fbc 9593 91bc 73d7 d23d c60c a73d
000000e0: 8266 da3d d28b bb3d 93c6 44bd f602 2f3c
000000f0: 82d5 42bd ce41 b2bd 92db d23c 4a96 433d
00000100: 25fc ac3d aa30 253e 4a04 0a3e 9c9a 993c
00000110: 368e 953c 5dcf 053e eaf9 083e 208b b63d
00000120: debb 233d 8375 663d b3b6 4c3d 83e8 10bd
00000130: bd67 d03c 6d95 6ebc 3876 96bc bcc9 99bd
00000140: 3f0e fdbc 7027 303d 6833 903d e0a6 423c
00000150: 18b8 0b3b a544 c9bc 8b6c f83d 928c 0c3d
00000160: 2882 03bd bcf6 873d 1eed f83d 0d42 fcbc
00000170: 5c02 d6bc 7fef 1abc 60f9 f4bc e399 0abb
00000180: 6e78 313d a034 753c 84d6 02bc 06f2 493c
00000190: 9a82 f83d 717b d5bd b6e1 cc3d e125 a13c
000001a0: 198d 583c 49c3 96bd a5bf 503d 34c9 f9bd
000001b0: 1b11 e7bc 2368 9a3d 4604 103e 54d1 883d
000001c0: a27a d43d 8b28 b6bc 62ea 3f3c 68ae df3d
000001d0: 4aad b63c e0a2 7f3d cf15 25bc 8964 a53d
000001e0: 488e eabc c06d 00be 42eb 83bd 1d8b 82bd
000001f0: 215c 0cbd 6289 59bd 3c38 1e3e 76eb 743d

read_encoder.block3.1.weight f4 [128]
0.71520096 0.92458063 1.470284 0.6185626 1.0209475 0.97319007 0.9044554 0.98868954
1.1377456 0.8589304 1.122687 1.0347357 0.8774529 0.731129 0.8515184 0.88668305
0.8683975 0.7701858 0.8566296 0.88542485 0.8748558 0.8834036 0.6396563 1.0989891
0.92200243 0.9131674 0.8068587 0.86833733 1.012702 0.89075357 0.8732089 0.8779244
0.930071 1.2010555 0.84250444 1.1625508 0.68131274 1.07873 0.5333333 0.92939204
0.8347256 1.0394201 0.86161166 0.9773838 1.370417 0.99741787 0.85129 1.1719548
1.1095469 1.082829 0.898524 1.0478209 1.2670857 0.800413 0.81756777 0.74327755
0.80508506 1.1277114 0.579919 0.74889046 0.7824921 1.0209922 0.8888127 0.9091963
1.1056826 0.86684465 0.97147727 0.7924576 0.8383841 0.8626183 1.0243989 0.93303335
0.770466 0.8231655 0.8749121 1.4595205 1.275502 0.52323925 0.7627852 1.1261656
1.4216207 0.8977805 0.83774275 1.0030279 0.98515785 0.87360185 1.1356401 0.8077433
1.2455553 0.86029714 0.9838355 1.1039659 1.1490229 1.1286066 0.8500444 0.7287041
0.8627737 0.75752485 1.2265981 0.65410614 0.8833197 1.150314 0.9713353 0.8159595
0.9356888 0.9636438 1.0357195 0.9617951 0.93241054 0.61009806 0.7529975 0.89788055
0.8612174 0.8606673 0.77852356 0.83390194 0.99078083 0.9719912 0.94237477 0.86622614
1.5415328 1.0589286 1.2931341 1.0641844 0.7931093 1.2861245 0.80905926 0.8376639
00000000: 6917 373f 51b1 6c3f 4432 bc3f 1e5a 1e3f
00000010: 68ae 823f fc22 793f 648a 673f c21a 7d3f
00000020: a6a1 913f dde2 5b3f 35b4 8f3f 3872 843f
00000030: c1a0 603f 452b 3b3f 1cfd 593f a9fd 623f
00000040: 4c4f 5e3f e62a 453f 144c 5b3f 34ab 623f
00000050: 8df6 5f3f bd26 623f 84c0 233f adab 8c3f
00000060: 5a08 6c3f 57c5 693f 4b8e 4e3f 5b4b 5e3f
00000070: 38a0 813f 6d08 643f 9e8a 5f3f a7bf 603f
00000080: 2219 6e3f 30bc 993f 5fae 573f 77ce 943f
00000090: 836a 2e3f d313 8a3f 8888 083f a3ec 6d3f
000000a0: 94b0 553f b80b 853f 9592 5c3f d335 7a3f
000000b0: d369 af3f c756 7f3f 24ee 593f 9d02 963f
000000c0: a205 8e3f 249a 8a3f ab05 663f ff1e 863f
000000d0: dd2f a23f dee7 4c3f 1f4c 513f 7047 3e3f
000000e0: 0e1a 4e3f d958 903f 9275 143f 49b7 3f3f
000000f0: 6751 483f dfaf 823f 3b89 633f 17c1 683f
00000100: 0287 8d3f 88e9 5d3f bcb2 783f 80de 4a3f
00000110: 57a0 563f 8ed4 5c3f 811f 833f 46db 6e3f
00000120: 433d 453f f9ba 523f 3dfa 5f3f 91d1 ba3f
00000130: a643 a33f 02f3 053f e445 433f 3226 903f
00000140: abf7 b53f f1d4 653f 4f76 563f 3863 803f
00000150: 4e33 7c3f 5fa4 5f3f a85c 913f 44c8 4e3f
00000160: 5b6e 9f3f 6f3c 5c3f a5dc 7b3f c14e 8d3f
00000170: 2f13 933f 2e76 903f 839c 593f 5a8c 3a3f
00000180: bdde 5c3f 26ed 413f 2b01 9d3f 8073 273f
00000190: 3d21 623f 7d3d 933f 6ea9 783f b9e2 503f
000001a0: 4d89 6f3f 5cb1 763f 7592 843f 3438 763f
000001b0: 75b2 6e3f 632f 1c3f 72c4 403f 80db 653f
000001c0: be78 5c3f b154 5c3f 524d 473f 997a 553f
000001d0: d0a3 7d3f 6ad4 783f 793f 713f ffc0 5d3f
000001e0: f250 c53f f98a 873f 6b85 a53f 3237 883f
000001f0: 3609 4b3f ba9f a43f 821e 4f3f 2471 563f

read_encoder.block3.1.bias f4 [128]
-0.3360208 -0.21069166 -0.06711688 -0.38164595 -0.18759447 -0.1193262 -0.06700368 -0.04916708
-0.045259412 -0.13987948 -0.3641576 -0.11206499 -0.11637722 -0.22222155 -0.19449961 -0.09757232
-0.10497828 -0.14225847 -0.10028481 -0.14480855 -0.10279332 -0.118415006 -0.28387824 -0.017629074
-0.046985913 -0.122715205 -0.1852417 -0.0858841 -0.06908375 -0.111612946 -0.0448314 -0.10435437
-0.09730835 -0.17915799 -0.19324063 -0.09522399 -0.46575794 -0.038548436 -0.031363904 -0.08511626
-0.11342585 -0.09403871 -0.11629812 -0.17862964 -0.02966251 -0.021353148 -0.07027038 -0.020702368
-0.034268886 -0.13894372 -0.07587249 -0.05234314 -0.100963704 -0.15199105 -0.12709363 -0.18627398
-0.20545769 -0.07598698 -0.38065946 -0.18979076 -0.27669412 -0.23088183 -0.25607997 -0.12133158
-0.053957496 -0.09130172 -0.032940768 -0.22312379 -0.14736976 -0.119571276 -0.046298884 -0.2069495
-0.32291254 -0.17589281 -0.169103 -0.09714893 -0.0073609855 -0.38551718 -0.17777304 -0.1970955
-0.15351243 -0.109692335 -0.1562602 -0.017603947 -0.08863447 -0.090497196 -0.09188703 -0.15997349
-0.04806914 -0.12194699 -0.05924529 -0.04393182 -0.16299765 -0.045264937 -0.11923259 -0.22028424
-0.11403056 -0.2919078 0.00028966984 -0.3177903 -0.15933587 -0.26380965 -0.06275923 -0.19434562
-0.16533497 -0.24482934 -0.065211624 -0.31637707 -0.07044026 -0.21787494 -0.17258497 -0.053498972
-0.10225222 -0.10117624 -0.1640692 -0.19838905 -0.27330676 -0.062112022 -0.2910138 -0.17431298
-0.2419591 -0.107117936 -0.09010422 -0.1185283 -0.17192692 -0.030157706 -0.1256611 -0.0990686
00000000: eb0a acbe 8ebf 57be 9374 89bd 1967 c3be
00000010: c418 40be 4b61 f4bd 3a39 89bd 6c63 49bd
00000020: ef61 39bd 913c 0fbe dd72 babe 5482 e5bd
00000030: 2e57 eebd 0c8e 63be e82a 47be ffd3 c7bd
00000040: dafe d6bd 34ac 11be 1f62 cdbd b148 14be
00000050: 4e85 d2bd 9183 f2bd 7d58 91be d96a 90bc
00000060: 4d74 40bd 1c52 fbbd 00b0 3dbe 01e4 afbd
00000070: c87b 8dbd 5495 e4bd 21a1 37bd beb7 d5bd
00000080: 9a49 c7bd 3175 37be dfe0 45be cc04 c3bd
00000090: d377 eebe f7e4 1dbd 7077 00bd 6f51 aebd
000000a0: d04b e8bd 5e97 c0bd b52d eebd b0ea 36be
000000b0: cbfe f2bc ccec aebc ebe9 8fbd 0398 a9bc
000000c0: 885d 0cbd 4347 0ebe 0963 9bbd c365 56bd
000000d0: 0fc6 cebd 8ba3 1bbe d524 02be 9bbe 3ebe
000000e0: 8063 52be 109f 9bbd cce5 c2be 8258 42be
000000f0: daaa 8dbe 496c 6cbe ea1c 83be b17c f8bd
00000100: 8902 5dbd 65fc babd e6ec 06bd 907a 64be
00000110: 19e8 16be c9e1 f4bd e6a3 3dbd 92ea 53be
00000120: cb54 a5be 3f1d 34be 5629 2dbe 05f6 c6bd
00000130: 6c34 f1bb 8262 c5be 230a 36be 67d3 49be
00000140: 5d32 1dbe 60a6 e0bd ad02 20be 2736 90bc
00000150: fd85 b5bd 9856 b9bd 442f bcbd 17d0 23be
00000160: 26e4 44bd 58bf f9bd 30ab 72bd daf1 33bd
00000170: dbe8 26be ba67 39bd 3730 f4bd 3192 61be
00000180: db88 e9bd f074 95be d4de 9739 69b5 a2be
00000190: f128 23be 0f12 87be e987 80bd 8a02 47be
000001a0: 924d 29be 8bb4 7abe ac8d 85bd 2dfc a1be
000001b0: fc42 90bd 9c1a 5fbe 1dba 30be bd21 5bbd
000001c0: 9d69 d1bd 7d35 cfbd c201 28be 8026 4bbe
000001d0: ddee 8bbe 2d69 7ebd c3ff 94be 1a7f 32be
000001e0: 20c4 77be a660 dbbd 9088 b8bd f7be f2bd
000001f0: 9c0d 30be 4b0d f7bc 4ead 00be 7ae4 cabd

bag_predictor.weight f4 [1, 128]
-0.02310282 -0.02076072 -0.1506151 0.005836139 0.11168315 0.05858265 -0.04176337 -0.071743965
-0.16684063 -0.029204514 0.041282747 0.13414021 -0.030787515 -0.020397518 0.06527285 -0.0664092
-0.03965061 -0.0262826 -0.042641144 0.06568607 -0.043936342 -0.032283902 -0.0016694856 -0.120524645
-0.0431479 -0.027852263 0.07200071 -0.036637913 -0.05428059 -0.03578538 -0.037865043 -0.035644054
-0.034933917 -0.05743583 0.12168178 -0.1847975 -0.010542875 -0.0785104 -0.036823 -0.028679853
-0.036307827 -0.115825996 -0.036977194 0.02746471 -0.10598255 -0.061956994 -0.051943682 -0.16722502
-0.12754978 0.10957389 -0.041473396 -0.07672582 -0.12244659 -0.04336813 -0.03074512 -0.041173875
-0.03839374 -0.083284 0.023961674 -0.033437643 -0.027185034 0.1288016 -0.009638457 -0.021178786
-0.15841635 -0.0442779 -0.036279235 0.054273974 -0.03271001 -0.037320916 -0.03428279 0.0033660505
0.014292265 0.10970108 -0.03489506 -0.15585937 -0.16650212 -0.026905626 -0.04656474 0.04243979
-0.15182424 -0.032920115 0.009862499 -0.036222287 -0.102455854 -0.03363118 -0.103054516 -0.024470827
-0.13523456 -0.032257132 -0.047715347 -0.09104842 0.16905345 -0.13339444 -0.030895263 -0.012911787
-0.038251285 0.012148433 -0.11914842 -0.023562469 -0.023451667 0.106517024 -0.048532348 -0.027805746
0.017044045 0.02820501 -0.067186326 0.14405118 -0.030133132 -0.022736197 -0.029052628 -0.048967227
-0.044580776 -0.023168683 -0.00198801 -0.029986948 0.0065753157 -0.035001647 0.05991707 -0.0197729
-0.23525631 0.18020055 -0.120718166 0.16037366 0.009467179 -0.1575726 -0.050405134 -0.03322193
00000000: 2042 bdbc 6312 aabc d83a 1abe 153d bf3b
00000010: 23ba e43d 5cf4 6f3d 1110 2bbd 80ee 92bd
00000020: 45d8 2abe 4e3e efbc 1918 293d 0d5c 093e
00000030: 1936 fcbc b218 a7bc c6ad 853d 8c01 88bd
00000040: ae68 22bd 9b4e d7bc 7ba8 2ebd 6b86 863d
00000050: 98f6 33bd 203c 04bd a4d2 daba a0d5 f6bd
00000060: dabb 30bd 6e2a e4bc 1c75 933d a311 16bd
00000070: 5355 5ebd b193 12bd 6018 1bbd 80ff 11bd
00000080: de16 0fbd d541 6bbd 4c34 f93d 8e3b 3dbe
00000090: 06bc 2cbc 10ca a0bd b7d3 16bd 03f2 eabc
000000a0: 84b7 14bd 2e36 edbd 6675 17bd acfd e03c
000000b0: 610d d9bd 9ec6 7dbd e6c2 54bd 093d 2bbe
000000c0: 699c 02be 4768 e03d 02e0 29bd 6d22 9dbd
000000d0: 47c5 fabd c8a2 31bd 31dd fbbc f0a5 28bd
000000e0: c142 1dbd cd90 aabd 464b c43c e9f5 08bd
000000f0: 26b3 debc 91e4 033e 9eea 1dbc 227f adbc
00000100: e537 22be be5c 35bd 8999 14bd 634e 5e3d
00000110: eefa 05bd d1dd 18bd 1c6c 0cbd f598 5c3b
00000120: 1b2a 6a3c f6aa e03d 1fee 0ebd 9999 1fbe
00000130: 887f 2abe 3069 dcbc abba 3ebd 58d5 2d3d
00000140: d077 1bbe 3ed7 06bd 5296 213c d25d 14bd
00000150: 60d4 d1bd d9c0 09bd 3f0e d3bd 0b77 c8bc
00000160: ee7a 0abe 0e20 04bd 2b71 43bd 9877 babd
00000170: 591c 2d3e 8d98 08be 1018 fdbc f68b 53bc
00000180: 61ad 1cbd 390a 473c 1604 f4bd 1406 c1bc
00000190: b61d c0bc 9925 da3d dbc9 46bd e0c8 e3bc
000001a0: f49f 8b3c 310e e73c fc98 89bd 2782 133e
000001b0: c2d9 f6bc 4341 babc c7ff edbc dc91 48bd
000001c0: 559a 36bd 40cc bdbc 4649 02bb 30a7 f5bc
000001d0: bf75 d73b e35d 0fbd 9a6b 753d c7fa a1bc
000001e0: 08e7 70be 7e86 383e 163b f7bd fe38 243e
000001f0: 3a1c 1b3c b65a 21be 9d75 4ebd b813 08bd
