m6aReplica/3d_66/Models/epoch12_rocauc0.885_valpr0.340_valscore1.225.pth (torch, 152221 bytes, 13 tensors)

read_encoder.block1.0.weight f4 [128, 18]
00000000: 73ad bb3e 1e49 583e 2bec 87bd f53f e53e
00000010: af1f 01be bc18 b2bb 6e70 d0bc 7362 f73c
00000020: d0b1 7b3e 574c 32be 79c4 853e eab4 0fbc
00000030: 2c8a a73d 5b29 a1bd 06ca cb3d 501f e53d
00000040: f837 793e 15cf 533d cd43 2bbe d64c 33bd
00000050: a038 fabd cdc6 acbe 02c5 8e3e 230b 783e
00000060: 93ca c7be 7715 a6bd d3a0 b7bc 7e84 2bbd
00000070: fd24 163e 584d 85be 5417 8c3e 9c39 1abe
00000080: 0e5b a13e da70 b8bb c1aa 8fbe ed29 cf3d
00000090: 68f9 153e 116e 2a3e 038b ac3c 75d0 c83e
000000a0: d2b0 4d3e fa94 01be 1465 1b3e 6f17 983e
000000b0: 62c6 1e3e 71c1 08be b1e7 203e 9c2d c0ba
000000c0: 3459 b43c eb4d 93bd 6a70 cabe 58d6 71bc
000000d0: 8b81 a4be 958e a93e e7ad b43e 9c1c 063e
000000e0: 1d51 cb3d 14f1 043f bc17 673e d6f0 51be
000000f0: 3ed8 ec3e 5c20 fb3c 3055 243e a516 96bd
00000100: 86d5 9a3e 5e9a 8dbd 3847 3bbc 0e28 09be
00000110: 1566 79be b5da b83c c0db c13e 6db7 313d
00000120: e40e 643e b78b 68be 2582 01be 6e7b 12bf
00000130: acbc a5be 55d2 883e 7bbf 443d f627 783e
00000140: e063 91bc ffdc d1bd c836 ff3d 925d 23bc
00000150: 4507 e73d 2525 f33c 7c62 103d b309 833c
00000160: 51a0 72bd 0480 bdbc 69a5 493e 3105 223d
00000170: 02db 7a3e 417a e43e 328d 17bf 58a7 05be
00000180: 84dc e73e b5ad cbbd 27b0 4bbd d733 12be
00000190: 5fa8 eabb 6c32 233e cb7a efbd 50a0 b6bd
000001a0: 44d3 e2bc 4297 f8bc d92c a7bd 3bf4 7bbd
000001b0: 75fc 943d 41d8 593b 426d 9b3e d319 063f
000001c0: 22af 4c3d 4e0a 85be 0ad3 a4bd 7ecb 243d
000001d0: 10fc 933d 934e 59be ad6e ecbd 700c debd
000001e0: 9c7e bebd 65a1 58bc 6100 aa3d 8628 9eba
000001f0: 1f25 49be e1e8 62be 5151 67be 05d6 9abe
00000200: bb0a 613e 1d2b ddbe 1704 b5bb 5d3b 033e
00000210: dfa6 c5be b6b2 d1bc 9cea 6abd 1b4d a5bc
00000220: bb70 7bbe 3f0e 6ebe bc0d 1f3d fcd4 053d
00000230: 6885 0b3d 17dd aabd 4034 683e 4bb1 0bbd
00000240: 5468 a53e 71eb 893d 1cb9 1c3e 5991 d23e
00000250: 5cf6 793e cef5 67be a470 d13e 9ce2 5e3c
00000260: 0095 543d 238f c4bd 7069 ce3e 4c0a b3bd
00000270: 864d e83c 32ba 5f3e dd5f 35bd a696 fe3d
00000280: c76b f33e 360c 573c ac3a 01be 3d8c bbbe
00000290: f27c 9c3d c859 36bf a97b f3be a7f2 843e
000002a0: c90b f7bd 97e4 b0be 0125 23be bb3f 84bd
000002b0: 0ebd 3b3d f264 b2bd 2852 82bd dbe6 f6bd
000002c0: 0291 05be 1320 803d 5e31 de3d 3a71 11be
000002d0: 98d6 79be c935 3a3e f5dd 4d3c 41e8 f5be
000002e0: 390e 9d3e f31b 3f3e ddc5 65be f449 00bc
000002f0: 0c00 ddbd e68d 933c 72aa c4bd b298 62bd
00000300: b268 e23d 2ed5 053e b757 c43c f785 09bc
00000310: 8dfc b8bc 9de7 113d f021 dc3d d44f 6d3e
00000320: b685 21be f81f 8ebe 2b4d e33d 84d6 023e
00000330: f3e9 83bd 0dfc e4be 978a a1bd 7437 5abe
00000340: b9b9 51bd a011 ac3e d831 1e3d 4c72 b63d
00000350: efe5 9abe f01f d7bd fa09 fd3d 21a7 ad3e
00000360: 07c5 0bbe 1e35 cebd 09d6 f23d 392c cebe
00000370: d8c8 24bf 1ddc 213e 8bf0 403e 08ac 41be
00000380: 46ca 8abe 70df bc3d d8e6 1f3e a24e 2b3c
00000390: 8e64 0abe 59bb aabe dfdf a7bd 12c8 38bc
000003a0: e0e4 49bd f021 b53d 8f92 fa3e f847 573e
000003b0: 8169 433e fc29 a53d dea8 0abf caa3 35be
000003c0: 1def c03e ecc8 1ebe f453 cd3d a91f 08be
000003d0: a48c 3c3d 85f7 143c 7ebd d6bd 94d3 463e
000003e0: b65b a2bd c222 753d f2e8 7abe b8ab a2bd
000003f0: fa48 f63e 89a8 fbbd 9d8f 7dbc ec03 d6be
0.3665577 0.21121642 -0.06636842 0.44775358 -0.12609743 -0.0054350775 -0.025444236 0.030198311
0.24579549 -0.17411934 0.2612646 -0.008771161 0.08180651 -0.07869216 0.09950642 0.11187613
0.24337757 0.05171116 -0.16725083 -0.04377445 -0.122178316 -0.33745423 0.2788468 0.24222998
-0.3902174 -0.08109563 -0.022415554 -0.0418744 0.14662547 -0.2603557 0.27361548 -0.15061039
0.31514782 -0.0056286873 -0.28059962 0.101154186 0.14645922 0.1664355 0.02106238 0.3922154
0.20086983 -0.12654486 0.15175277 0.29705378 0.15505365 -0.13355042 0.15713383 -0.001466203
0.022015192 -0.07192596 -0.3953889 -0.014760576 -0.32130083 0.33116594 0.35288927 0.13096851
0.099275805 0.51930356 0.22567648 -0.20502028 0.4625873 0.030655079 0.16048121 -0.07328538
0.3024103 -0.06914209 -0.011430554 -0.13394186 -0.24355347 0.022565225 0.37862968 0.04338782
0.22271305 -0.22709547 -0.12647302 -0.5721959 -0.32370508 0.2672297 0.048034173 0.24233994
-0.01774782 -0.1024723 0.124616206 -0.009971039 0.112806834 0.029680798 0.035250172 0.015995836
-0.05923492 -0.023132332 0.19692005 0.039555732 0.24497607 0.44624522 -0.5919982 -0.13052118
0.45285428 -0.09945241 -0.04972854 -0.14277588 -0.0071611847 0.15937203 -0.11693343 -0.08917296
-0.02768863 -0.030345563 -0.08162851 -0.061512213 0.07274715 0.003324047 0.30356795 0.52383155
0.049971707 -0.25984424 -0.08048065 0.040233128 0.072258115 -0.2122138 -0.11544547 -0.10842216
-0.093014926 -0.013222073 0.083008535 -0.001206652 -0.19643067 -0.22159149 -0.22589613 -0.3024141
0.2197675 -0.43196955 -0.005524169 0.12815614 -0.38603875 -0.025597911 -0.057352647 -0.020178368
-0.24554722 -0.23247622 0.038831457 0.03267382 0.034062773 -0.08342951 0.22676182 -0.034104627
0.3230616 0.0673436 0.15304989 0.41126516 0.24410385 -0.22652361 0.4090625 0.013603833
0.05189991 -0.09597614 0.40314817 -0.08742198 0.028357279 0.21848372 -0.044280875 0.12431078
0.47543165 0.01312547 -0.12620038 -0.3663043 0.07641019 -0.71230745 -0.47555283 0.2596638
-0.12062795 -0.345494 -0.15932085 -0.06457468 0.045834593 -0.0871066 -0.06363326 -0.12055751
-0.13043597 0.06256118 0.1084926 -0.14203349 -0.24398267 0.1818458 0.012565126 -0.48028758
0.30674914 0.18663006 -0.2243876 -0.007830132 -0.107910246 0.018011998 -0.09602822 -0.055321403
0.11055125 0.13069603 0.023967607 -0.008393756 -0.022581363 0.035621274 0.107486606 0.23174983
-0.15773663 -0.27758765 0.11098703 0.12777144 -0.06441107 -0.4472355 -0.07887762 -0.21310216
-0.05120251 0.33607197 0.038621753 0.08908519 -0.3025355 -0.105041385 0.123554185 0.33916572
-0.13649379 -0.10068725 0.1185723 -0.40268114 -0.64368963 0.15806623 0.1884176 -0.18913281
-0.27107447 0.09222305 0.15615404 0.010455759 -0.13514921 -0.3334606 -0.08196997 -0.011278169
-0.049290538 0.08844364 0.4893994 0.21023548 0.19083215 0.080646485 -0.5416392 -0.17738262
0.3768243 -0.15506333 0.100257784 -0.13293327 0.046032563 0.009092216 -0.104853615 0.19416648
-0.07927649 0.0598476 -0.24502924 -0.07942909 0.48102552 -0.12288005 -0.015476135 -0.41799867

read_encoder.block1.0.bias f4 [128]
00000000: 0bda 153d 2e2c 96be 9a5a 2ebe 006f 60bd
00000010: 5df8 9cbc 1c18 e63e d129 593e c0da b3bd
00000020: 9fb1 6b3e c8dc a83c c2cb 3dbe a10a a5bd
00000030: 3c22 4dbc 311d 3b3e 2695 3a3e 9b6a 27be
00000040: ccbd 8c3e 2dd6 aabe 3c1e e73e 2844 903e
00000050: 87fe a23e e750 03be 1853 ea3c 9f05 be3e
00000060: 5e6d bebd 1ffc d43c 7049 da3d 1b7d 0fbe
00000070: 6ffe 3ebe 9106 3cba 5453 87bb e39c fe3d
00000080: b841 9e3e 4470 1abe b42f 243e 61fc d13d
00000090: 3b9d 983e 2350 86bd 9729 ff3b 75f8 61be
000000a0: 6794 203e 4f80 0bbe 53b5 963e bdb0 613d
000000b0: fa2b 873d 85cf 613d 214d 733c b49b cd3d
000000c0: bfd6 9d3e d714 b43e 040e c4bd d47b c0bd
000000d0: c3b0 c33e e3ee 923e 2010 f5bd 7290 923e
000000e0: bf84 2f3e a953 b4bd 5caf 913e df46 7ebe
000000f0: ad5f 2b3e a98b 09bc 2af5 553e 28be af3e
00000100: 1c47 a4be 205c 87bd add7 d13e f3ef 403e
00000110: 8625 383c 9700 cd3d 3300 6fbe 0696 323b
00000120: ee6a cbbd c966 3b3e 4a47 06be 271d 4cbe
00000130: 1680 8c3b f2e2 44bd 642f bdbd 4d58 14bd
00000140: 6357 1f3e 0d5e 0b3e 1389 553e 6148 c4be
00000150: 630e 0fbe e1c4 8a3d 316e acbe c27e 67be
00000160: 68d0 b3be 33e1 64bd 0553 0ebe bedb b1bd
00000170: c09b be3e 33a1 0d3e 8859 41be 70a6 48be
00000180: abc4 d1bd 9cc9 cabe 39fc 90be f4f6 4c3e
00000190: 4de7 423e df2c a9bd 2cf6 363e 6a72 e9bd
000001a0: fd5f d23c a38d 0d3e b382 afbd 9cf9 8f3e
000001b0: d347 a43e f4cc b0be 9182 a7bc a923 da3d
000001c0: 31ca 4ebe 158a e93c 300c 8fbe 9f12 313a
000001d0: d7b0 c3be 65bc 42be d535 53bc 5c3e ac3e
000001e0: de07 2d3d 6ed1 f73e 2d9d 633e 2a66 44bd
000001f0: e13f 10be dfa7 1ebe d5ca 26be 2958 45be
0.036584895 -0.2933058 -0.17026749 -0.054793358 -0.019161398 0.4494027 0.21207358 -0.087819576
0.23016976 0.02061309 -0.18534759 -0.08058668 -0.012520369 0.18272854 0.18220958 -0.1634926
0.27488554 -0.33366528 0.45140254 0.28177 0.31834814 -0.1282383 0.028604075 0.37113664
-0.09298204 0.025999127 0.10658538 -0.14012568 -0.18651746 -0.00071726093 -0.0041298065 0.124322675
0.30909514 -0.15081888 0.16033822 0.102532156 0.29807457 -0.065582536 0.0077869403 -0.22067435
0.15681611 -0.13623165 0.29435214 0.05510019 0.06600185 0.055129547 0.014849932 0.10039464
0.308279 0.3517215 -0.09572986 -0.09398618 0.38220796 0.2869788 -0.11965966 0.28625828
0.17140482 -0.088050194 0.284541 -0.24831723 0.16735716 -0.008395114 0.20894304 0.34324765
-0.32085502 -0.06609368 0.4098486 0.18841533 0.011239415 0.10009878 -0.2333992 0.0027250065
-0.099325046 0.18300928 -0.13113132 -0.19932996 0.00428773 -0.048067994 -0.09237555 -0.036217023
0.15560679 0.13610096 0.20853071 -0.3833647 -0.13970332 0.06775833 -0.3367782 -0.22606948
-0.3511994 -0.05587883 -0.13898857 -0.086844906 0.37228203 0.13831024 -0.1888181 -0.19594741
-0.102425896 -0.3960694 -0.2831743 0.2001608 0.19033547 -0.082605116 0.17867345 -0.11398776
0.025680536 0.13823561 -0.08569851 0.28120124 0.32086048 -0.34531367 -0.020448001 0.10651333
-0.20194317 0.028508225 -0.27938986 0.0006754789 -0.38220856 -0.1901718 -0.0128912525 0.33641326
0.04224383 0.4840197 0.22227927 -0.047948994 -0.14086868 -0.15493725 -0.16288312 -0.19271912

read_encoder.block1.1.weight f4 [128]
00000000: b0e1 583f 8900 8c3f 98f8 883f c328 9d3f
00000010: a1b3 643f 5fc5 8b3f 4612 953f 8e39 1a3f
00000020: 5b10 b03f 2f5b 4b3f 1377 6e3f 7c02 863f
00000030: f043 5c3f a686 8f3f cf04 a63f 51eb 7a3f
00000040: 9d1b 923f 5ab9 823f d4a0 753f 5bf2 633f
00000050: 614e 3e3f e165 503f 6b50 743f ca78 903f
00000060: a5c6 aa3f b93b 813f a987 973f e276 273f
00000070: cd26 293f 174f 3d3f 8886 7b3f f297 883f
00000080: a375 493f 14e5 753f df2a 873f d3df b03f
00000090: d9d8 583f d3d0 433f 0dea 903f c722 3a3f
000000a0: 1049 673f 607b 3c3f dde3 733f d024 4b3f
000000b0: 5f63 813f 671a 733f 2e70 9e3f f158 883f
000000c0: 64ce 983f eaa7 8a3f 51a3 363f 5d68 7f3f
000000d0: 4cee 9a3f 77b1 413f 7136 143f f498 9e3f
000000e0: d0ed 7d3f c713 843f ee31 8b3f 3c17 633f
000000f0: 3845 843f a7bc 853f 156b 853f 315f 913f
00000100: 5f05 7e3f c13f 763f 027b 743f 7dbf 8f3f
00000110: 8f92 8c3f 4528 813f 9b73 8c3f a69a 9c3f
00000120: 9a8c 883f e3fb ad3f 948e 163f bcd9 4a3f
00000130: af37 933f 8491 6c3f a9b8 653f c7a2 6e3f
00000140: aa0c 913f 9db1 8a3f e614 313f 2510 a63f
00000150: 43f8 633f 5f1d 923f e06b 933f cada 4e3f
00000160: 5426 603f 50be 893f 49a5 663f c861 6c3f
00000170: caae a83f e7cd 693f 376e 9d3f f836 8f3f
00000180: 1f64 b23f 3cb9 603f 4764 6c3f 7322 733f
00000190: c0f6 803f ad7f 7c3f 4ac3 6d3f ccb6 5b3f
000001a0: e69c 633f 4c53 933f 19ff 593f 0600 8e3f
000001b0: 430d 7c3f 8d9d 5d3f e50d 6e3f cf7d 343f
000001c0: f605 983f cf42 983f ef1c a03f 7bed 6e3f
000001d0: 19ec 423f 38e4 603f a09a 613f d900 853f
000001e0: 35e4 533f c7c0 973f 9a18 703f 949a 4e3f
000001f0: c351 513f 825f 843f 0a7a 803f 10e7 7d3f
0.8471937 1.0937663 1.0700865 1.2278064 0.8933659 1.0919608 1.1646202 0.6024407
1.3754991 0.7943601 0.9315044 1.0469508 0.86041164 1.1212966 1.2970217 0.98015314
1.1414677 1.0212815 0.9594853 0.8904168 0.74338347 0.81405455 0.9543521 1.1286862
1.3341872 1.0096351 1.1838275 0.65415776 0.6607483 0.73948807 0.98252153 1.067137
0.78695124 0.9605267 1.0559958 1.3818306 0.84705883 0.76490515 1.1321427 0.72709316
0.9034586 0.73625755 0.95269567 0.79353046 1.0108451 0.9496216 1.2377985 1.0652143
1.1937985 1.0832493 0.7134295 0.9976862 1.2103972 0.75661415 0.5789557 1.2390428
0.99191 1.0318536 1.0874612 0.8870733 1.0333624 1.0448197 1.0423304 1.1357175
0.99226946 0.9619103 0.95500195 1.1230313 1.0982226 1.0090414 1.097278 1.2234695
1.0667908 1.3592495 0.58811307 0.79238486 1.1501368 0.9240954 0.89734894 0.9321713
1.133199 1.0835453 0.69172513 1.2973677 0.8905069 1.1415213 1.1517296 0.80802596
0.87558484 1.0761204 0.90095955 0.923367 1.3178341 0.9132981 1.229926 1.118865
1.3936805 0.87782645 0.9234051 0.9497444 1.0075302 0.9863232 0.9287611 0.858258
0.88911283 1.1509795 0.85154873 1.1093757 0.98457736 0.8656853 0.9298995 0.7050447
1.1876819 1.1895388 1.250883 0.93331116 0.76141506 0.87848234 0.88126564 1.0390884
0.8277009 1.1855706 0.9378754 0.8070462 0.81765383 1.0341647 1.0037243 0.991807

read_encoder.block1.1.bias f4 [128]
00000000: 1125 8bbe ad23 0bbe 60e9 a7bd e148 9a3c
00000010: 15c1 94be 030d d23c ee45 08bd 1170 c4be
00000020: f6f9 9f3c 1300 89be 8cf2 15be 7dc1 7bbb
00000030: 49b0 18be 7e0f 0a3c 6d30 e93b 8b13 ffbd
00000040: d514 62bd 5ff3 f8bd 060e b4be df75 6bbe
00000050: 020d 99be 4083 81be f139 03be d00b 88bd
00000060: 3b57 24bd 1ca4 4ebe e631 ffbc 2fe0 b5be
00000070: 9ab8 b6be ee01 88be 9898 d6bd 927a 68be
00000080: f84a 83be 490d 04be 8490 71bd 6f62 9cbd
00000090: adcd 3ebe 3a64 82be fc3a fabb 67de 6ebe
000000a0: 357f 5ebe 3077 8ebe 85a5 3bbd c171 a5be
000000b0: cd9e 0cbd 6cde 71bd 521a c1bd 9c13 bbbd
000000c0: ff35 203d dd9c debc d4b3 9abe 2b76 09be
000000d0: 9e60 c2bc fea7 8dbe 1b80 e1be 9dd8 32bd
000000e0: f99c 57bb db25 5abd 82af c4bd 3ce3 1abe
000000f0: 54df 0bbe 402e 1cbe 5c98 24bc 9f0e a3bd
00000100: 0c12 9bbd fa3a 39be 86d4 66be 013c b3bc
00000110: d65d b3bb 9628 8dbc ba19 6bbd 4e3e 2ebd
00000120: 493c 3fbd 77b3 eb3c 6bbb c0be 0568 22be
00000130: 0403 cf3c 2eb7 05be 18b3 f5bd 9809 0abe
00000140: 0706 f9be 2479 87bd c550 95be 2b80 89bd
00000150: c087 1abe 1bbd 58be 1230 a0bd cdce 3dbe
00000160: 2ef6 14be 0335 09bd 4a61 16be ddb7 30be
00000170: fa65 213d 8851 31be 4823 9abc e01c f8bc
00000180: e961 243c d2e3 33be 4035 f7bd 7edb debd
00000190: a867 86bd 580d f8bd 1d00 15be c02b 53be
000001a0: 8a31 abbd 3564 9ebe 8b6a e0be fe15 683d
000001b0: 9bee 53be b3e1 52be bfdb dfbd 7a9a 86be
000001c0: 7d68 e7bd c075 81bd fc62 0bbd 3efd bbbd
000001d0: 260c 80be 6bc3 3fbe d03e 36be 80ff 123d
000001e0: 3f16 48be 0c8e aabd e77a 31bd babf 1cbe
000001f0: 7090 60be c40d 7bbd 3538 b7bd e366 35bd
-0.27176717 -0.13587828 -0.081988096 0.01883358 -0.2905356 0.02564097 -0.033269815 -0.3836675
0.01952837 -0.2675787 -0.14643306 -0.0038414889 -0.14910997 0.008426545 0.0071163685 -0.124548994
-0.05519565 -0.12155794 -0.3516695 -0.22994183 -0.29892737 -0.25295448 -0.12815072 -0.06642878
-0.040122252 -0.2017979 -0.031151723 -0.355226 -0.35687715 -0.26563972 -0.10478324 -0.22703007
-0.25643134 -0.12895693 -0.05897571 -0.07635962 -0.18633147 -0.25467092 -0.007636426 -0.23327027
-0.21728213 -0.27825308 -0.04581215 -0.3231335 -0.03433113 -0.05905001 -0.09428848 -0.091345996
0.039113995 -0.027174408 -0.30215323 -0.13423984 -0.023727711 -0.2766723 -0.4404305 -0.04366361
-0.003289996 -0.053258758 -0.09603788 -0.15125746 -0.13659412 -0.15252018 -0.010046091 -0.07961773
-0.075718015 -0.18088904 -0.22542009 -0.021879198 -0.0054738326 -0.017231267 -0.05739758 -0.042539887
-0.04668835 0.028772099 -0.3764299 -0.15859993 0.025269993 -0.13058159 -0.1199705 -0.13480222
-0.4863741 -0.066149026 -0.29163185 -0.06713899 -0.15090847 -0.21165888 -0.07821669 -0.1853592
-0.14547035 -0.03349782 -0.1468555 -0.17257638 0.039403893 -0.17316258 -0.018815652 -0.030287206
0.010033109 -0.17567375 -0.120707035 -0.108817086 -0.065627396 -0.1211192 -0.14550824 -0.20622158
-0.08359058 -0.30935827 -0.43831286 0.0566616 -0.2069649 -0.2059391 -0.10930585 -0.2628973
-0.112992264 -0.06321287 -0.034029946 -0.091791615 -0.2500927 -0.1872689 -0.17797399 0.035888195
-0.19539736 -0.083278745 -0.0433301 -0.15307513 -0.21930099 -0.061292425 -0.089462675 -0.044287574

read_encoder.block2.0.weight f4 [128, 128]
00000000: 7534 f1bd 3b5d ba3d c160 e8bd 1102 263d
00000010: 4e1d 81bd d9fc f03b 5bfb 4dbd de70 0bbd
00000020: f9c5 03bd 2d07 21bc e1ef 993d babb 6b3d
00000030: 3d91 ce3d bdde 9dbd 813b f83c f863 323d
00000040: 4875 a53c bc2e 0bbd 8cf5 62bd 99fe 943d
00000050: 0d28 5f3d 4572 ee3c 255b 88bd e7c1 42bd
00000060: ec2d bd3d 5401 133d 476a 1abd a04c 5bbd
00000070: e2a1 433d d718 843c db36 653d 34cc 8a3d
00000080: c280 443d 0d88 ad3d f4b0 ca3d 44d4 23bd
00000090: b8c0 853d 1719 bdbc 21ee 883c 8bc4 89bd
000000a0: 974e c5bb 72d9 ea3c b23c 2bbd f09d 7fbd
000000b0: 95e9 a13d 5b4f eb3d 8f82 68bd 380b a9bd
000000c0: 89f7 50bb 1f04 47bd 56d7 663d 471f 1dbd
000000d0: c62e 4f3d 1eaa 71bc 2155 34bd 1efb 7c3d
000000e0: aee3 fd3d ab00 1fbd 6d6a e43c 74ef 593d
000000f0: 0837 8d3c fa79 85bd 85cb 81bd 78b2 b33c
00000100: d3f6 2c3d 4971 863c ff5e 843b d37d 5cbd
00000110: 42d4 5f3d 110c 05bd 349f 0cbc bb80 36be
00000120: 6431 5abd bc68 213d d0d2 e1bd ba7e 9d3c
00000130: 74f6 12bc 8461 42bd dcba 0ebe 8e57 5a3d
00000140: 6638 95bb 776b a83a 82f3 8d3d b43c 09bd
00000150: 21a2 cfbc a805 8e3d ccbf 493e 84a0 a53c
00000160: 7e23 633d 09fb 71bd 14fe 8cbd 1a4e ee3c
00000170: 5050 eb3d f5ca 8b3d b496 aebc 2c92 9cbd
00000180: ec62 143e c522 a93d bf09 023d 574b c4bc
00000190: 2152 10bd 16c5 9b3a 228f 903d 1fb7 5ebd
000001a0: 959c c9bb def3 523d ec82 2e3d 484b a23d
000001b0: 8482 f13c 6c57 3d3d 06c7 40bd 016c ce3d
000001c0: b870 20bc 8272 843e 7640 29bd ab5f 4dbd
000001d0: 9494 bbbd 21f7 003d 0f0a bb3d 399d cdbb
000001e0: fd6a ae3d 7f2e 0abe 936a 843d 41fd 01bd
000001f0: e995 78bc a5da 85bb 250c f53c 1848 60bd
00000200: e9cc b5bd ecaa b63c 1952 243d 6a99 10bd
00000210: c93f cabc f952 c83c 9b4a bebc c3e5 e93d
00000220: ae2e 68bd 1e8d d6bb dfc9 8c3d 8983 093e
00000230: f793 703c 0e7b 023d 05aa adbd 7c44 82bd
00000240: fd00 203c f6f9 c9bc 9967 e4bd d01d 37bd
00000250: e897 94bd 0bb1 883c da6e 9c3d 657e 91bd
00000260: 4cce 0f3e f5fc b03d bf6b 02be 7245 3a3d
00000270: eb60 13bc ccae 223d c791 383c bc18 853d
00000280: 990c 833d 305c 123e c4ff aabd 3d3e 7d3d
00000290: 3ca3 223e 39b6 c23d db8a d63d 3e49 1a3c
000002a0: 9d82 30bd 9f26 4dbc 5a55 323c 30cc 763b
000002b0: 4dba 6ebd 7ba8 213e a2ca c8bd d909 143d
000002c0: c6ec babd fdb2 74bd b95c a93d 3c1f b3bd
000002d0: a783 eb3d ae81 36bd 228c 25bb b262 083d
000002e0: 54cc 4a3d e095 a1bc a43d 313e 4c72 e6bd
000002f0: db68 14bd 2b65 1dbd b050 7fbd fa8c 5f3c
00000300: d113 423c 58d0 cc3d b779 85bd ea55 debc
00000310: 44aa 31bd 7d39 c1bd 859d 823e b7b0 31be
00000320: 37e5 b43c 5177 1cbd 0c67 65bd 39ef 243d
00000330: 3fd2 663d 5541 96bc b3c8 01be 6b07 7d3c
00000340: 89ad 81bd a75e c8bd 0171 af3d e50f 313e
00000350: 9b19 5fbc 6290 8f3d 1609 883d 2cc8 aa3c
00000360: a640 883d 56c2 cdbd e1f6 d1bc 0823 9abb
00000370: e231 493e 1aef 5fbc 3d32 373d 34ce 473c
00000380: 0e18 243e 051c d5ba fe63 7f3d 12b1 0abb
00000390: 1e94 99bd 913e 06bd d0d3 b5bd 722b 24be
000003a0: a2e0 063d 160e fcbd 22bc 4ebd bfb8 0f3e
000003b0: 3adb f3bc 976b 4ebd 50e1 313c b3f1 bb3d
000003c0: c5e9 d1bd d82f 8d3e d9a5 323d d2d4 333d
000003d0: ef44 e03b 8dde b4bd 5a4b 833d 204e 61be
000003e0: e787 a83d ea04 b3bd 75d2 063d 9e1c 1e3d
000003f0: c264 02bd 461f e83d de7a eabc 4d4c fe3d
-0.117775835 0.090998136 -0.11346579 0.040529314 -0.063044176 0.0073543605 -0.05028854 -0.034043185
-0.032171223 -0.009828371 0.075164564 0.057552077 0.10086296 -0.077084996 0.030301811 0.04355237
0.020197526 -0.033980116 -0.055409953 0.07275123 0.054481555 0.029107222 -0.066580094 -0.0475482
0.092372745 0.03588994 -0.03769901 -0.053539872 0.047761805 0.016125126 0.055960517 0.0677723
0.047974356 0.08473215 0.098970324 -0.039997354 0.06530899 -0.023083253 0.016715111 -0.06726941
-0.0060213315 0.02866814 -0.04180593 -0.06240648 0.0790588 0.11489745 -0.056765135 -0.08254093
-0.0031885824 -0.048587915 0.056357704 -0.038359907 0.050581716 -0.014750032 -0.044026498 0.06176292
0.12396942 -0.038818996 0.027882779 0.053206876 0.017238155 -0.06517406 -0.063376464 0.021935686
0.042227577 0.01641144 0.0040396447 -0.053830933 0.054645784 -0.03248221 -0.008582879 -0.17822544
-0.05326976 0.039406523 -0.110265374 0.019225467 -0.008969892 -0.04745628 -0.13938469 0.053306155
-0.0045538424 0.001284941 0.06931211 -0.033505157 -0.025345864 0.069346726 0.19702071 0.020218141
0.05545377 -0.059077296 -0.06884399 0.029089976 0.11489928 0.0682582 -0.021312095 -0.076450676
0.1449086 0.08258585 0.031747576 -0.023961706 -0.035234574 0.0011884298 0.070585504 -0.054373857
-0.0061526992 0.0515021 0.042605326 0.07924515 0.02948118 0.04622595 -0.047064804 0.10079194
-0.009792499 0.25868613 -0.04132124 -0.050140064 -0.091591984 0.03148568 0.09132778 -0.006274846
0.085165 -0.134943 0.0646564 -0.031735662 -0.01517246 -0.0040849023 0.029913018 -0.054756254
-0.08876974 0.022298299 0.040117357 -0.035302557 -0.024688618 0.024453627 -0.023228934 0.11420777
-0.056685142 -0.006547584 0.06874441 0.13429083 0.014683715 0.031855635 -0.08479694 -0.063607186
0.009765861 -0.024655323 -0.11152572 -0.044706166 -0.07255536 0.016685983 0.07638331 -0.07104186
0.1404354 0.08641998 -0.12736414 0.045476384 -0.008995275 0.03971748 0.011265225 0.06498858
0.06398887 0.14292979 -0.08349565 0.061826933 0.15882581 0.095074125 0.10475703 0.009416876
-0.043093313 -0.012521415 0.010884607 0.0037658326 -0.05828314 0.15786926 -0.09804274 0.036142204
-0.09127192 -0.05974101 0.082696386 -0.08746192 0.1149972 -0.044557266 -0.0025260528 0.03329725
0.04951127 -0.019724786 0.1730867 -0.11252269 -0.03623281 -0.03842656 -0.06233281 0.013644451
0.011845545 0.10000676 -0.06517356 -0.027140576 -0.04337527 -0.09434793 0.25510803 -0.17352568
0.022081954 -0.038199726 -0.056006476 0.040267203 0.05635285 -0.0183417 -0.12674217 0.015443663
-0.06331927 -0.097836785 0.08566476 0.1729122 -0.013616945 0.07009961 0.06642358 0.020847403
0.06652956 -0.10046832 -0.025630416 -0.004703883 0.19647935 -0.013667846 0.044725645 0.012195159
0.16024801 -0.0016258961 0.06235122 -0.002116267 -0.07498954 -0.03277451 -0.08878291 -0.16032198
0.03292907 -0.12307374 -0.050472386 0.14035319 -0.029767621 -0.050395574 0.010856941 0.0917696
-0.10249666 0.27575564 0.043615196 0.043904133 0.006844155 -0.08831511 0.064108565 -0.22002459
0.08229046 -0.08741172 0.03291555 0.03860151 -0.03183437 0.1133409 -0.02862304 0.12416897

read_encoder.block2.0.bias f4 [128]
00000000: ec33 8d3d d34c 7a3d 222b 78bd f99f 24bd
00000010: 3437 e7bc 297b 513c 080c b43d 1296 963c
00000020: fd81 e2bd d25b 55bd 4309 62bd 6ab1 45bd
00000030: 6da7 323d 3d4d 363d 95a5 87bd e11b 913c
00000040: 9479 60bd 0abe 25bd fe59 983d 1b4f 78bd
00000050: aa8f cbbd 4f2e 693d 8397 b3bb 1f2f 33bd
00000060: 0079 013d b8c3 593d 9411 3cbc 8d96 d93d
00000070: 1fae aa3b c44f 89bc dba0 863d 510e bd3d
00000080: 839f a93d 0a1b 7e3d c763 853d 81d6 003d
00000090: 7849 76bc c812 1c3d 670b 70bc c262 aebd
000000a0: ed81 8a3d a18b 773c c301 d9bc 1260 c03d
000000b0: 800e ab3d 374e 193d b4d4 25bd 183c 6a3d
000000c0: d10f a73c d9fc 42bd 97ea 543c d294 c63d
000000d0: 994e 25bd 7a68 84bc 2be8 bc3d 49a1 d13c
000000e0: 6715 543d c229 5d3b a8c5 4e3d f650 95bd
000000f0: 3264 28bd a803 d2bd 98ad 14bd c798 9b3d
00000100: e239 3a3d 903a 063e 2226 273d cdd8 173d
00000110: 51e1 833d 5486 a63d 80e0 6ebd 7d97 553d
00000120: 3ebb a83d 0bea 13bb 480f ab3c 1e4a b83d
00000130: 7745 a63b 27cf c1bc 2d92 babc 5f66 7bbc
00000140: d29e ba3c b819 9f3c 7394 0dbc 702f 763d
00000150: ef1b a63d 7af3 3fbc 7a15 423a 1668 073d
00000160: 50a3 453a f68d 04bd 7dc0 3ebb b132 9d3d
00000170: eb11 c3bd 609c 173c 1a7e 753b 35d3 50bc
00000180: 8066 c63b 8585 14bd 7bb1 c7bd ede5 12bd
00000190: 06df 453d b33b 0dbd 697d ed3c 4afe 333c
000001a0: 5832 69bd dcc2 66bc 7b98 50bd e79d 9b3c
000001b0: 19b8 b2bc d7f7 25bc 6546 753d f50c 12bd
000001c0: c997 753a 6849 bcbc 59a3 d8bc d2ff 51bd
000001d0: 71e7 91bd b94d 8e3d 7742 493d cd0a 15bd
000001e0: d706 98bd 8edd 153d e471 66bb 2659 a7bd
000001f0: 05be aebd 13cf 1c3d 5c4f 5a3a 1d80 963d
0.06894669 0.06110842 -0.06058801 -0.040191624 -0.028224565 0.012785711 0.08791357 0.018382106
-0.110599495 -0.05208952 -0.055184614 -0.0482649 0.0436167 0.044507254 -0.06623379 0.017713489
-0.054803446 -0.04046444 0.0743904 -0.060622316 -0.09939511 0.05692893 -0.005480708 -0.04374611
0.031609535 0.053165168 -0.0114788 0.106244184 0.005208745 -0.016761668 0.065736495 0.09231246
0.082823776 0.062037505 0.06513172 0.031454567 -0.015032165 0.03810385 -0.014651156 -0.0851493
0.067630626 0.015108974 -0.026490098 0.09393324 0.08352375 0.037428107 -0.040486053 0.057186216
0.020393284 -0.047604416 0.012995384 0.09696354 -0.04035816 -0.0161631 0.0922397 0.025589602
0.051778223 0.0033746813 0.05048147 -0.07290833 -0.04111118 -0.102546036 -0.036298364 0.07597499
0.045465358 0.13108277 0.04080785 0.03707199 0.0643946 0.0813109 -0.05831957 0.052146424
0.082388386 -0.002256992 0.02088131 0.08998512 0.005074199 -0.023658348 -0.02277478 -0.015344231
0.02278081 0.019421443 -0.00864135 0.060103834 0.08110797 -0.011715764 0.0007403713 0.03305825
0.0007539289 -0.032361947 -0.0029106431 0.07675684 -0.09524902 0.009253591 0.0037459196 -0.012745668
0.0060546994 -0.036260147 -0.097506486 -0.035863806 0.048308395 -0.03448076 0.028990464 0.01098592
-0.056932777 -0.014084544 -0.050926667 0.018996192 -0.0218163 -0.01012989 0.059881587 -0.035656888
0.0009368626 -0.022984222 -0.026445078 -0.05126936 -0.07124222 0.06948418 0.04913565 -0.036387254
-0.074231796 0.036588244 -0.00351631 -0.081713006 -0.08532337 0.03828342 0.00083278655 0.073486544

read_encoder.block2.1.weight f4 [128]
00000000: 3a4b 613f dd94 453f e83e 8f3f 3af4 543f
00000010: 13f3 7f3f 6d00 803f e8b5 6c3f ae15 853f
00000020: 19ba 9d3f 02f5 663f 6809 643f d755 863f
00000030: a03d 623f f8c2 4a3f d6a8 7a3f 8d98 8c3f
00000040: 8a20 693f d1d9 6a3f 7e0b 623f 6eac 8f3f
00000050: fb52 883f 8256 643f e75e 713f d5a1 8d3f
00000060: 99f0 683f 4fbf 643f f979 743f 9268 7d3f
00000070: 46d3 643f 9888 4b3f 25d4 7d3f d315 723f
00000080: b12a 873f e1e8 603f c31f 803f 1336 8f3f
00000090: fd5d 2d3f 5812 733f f77f 3b3f 105c 7a3f
000000a0: 1403 643f 47aa 9d3f 5942 363f 1136 663f
000000b0: 987b 6e3f 4a30 6f3f 7069 8d3f 43aa 893f
000000c0: 1457 893f 6197 803f 3e37 893f c82d 6d3f
000000d0: 3c05 743f 9c41 593f 7679 643f d039 2f3f
000000e0: 54c2 493f 4e04 583f 7b14 5c3f 57ba 833f
000000f0: 2c89 493f 11d8 833f 1b34 813f 2de4 943f
00000100: c852 893f 3c5e 593f 6a3e 823f df36 7e3f
00000110: 8823 753f 59f7 7d3f ca5b 953f 1420 6c3f
00000120: e81c 253f 202f 8d3f 87cc 203f 6c46 6a3f
00000130: e299 873f 7f3d 293f 5303 3c3f 1101 823f
00000140: 6cb8 9d3f e058 673f fb41 643f 2a04 793f
00000150: 36e2 923f ef5b 4f3f 8949 8f3f 019e 363f
00000160: c778 8a3f c46a 413f 19fb 7e3f f727 783f
00000170: 6829 7f3f f269 853f 3166 983f 4659 693f
00000180: 1a59 733f 284c 463f 85ef 913f dbd2 803f
00000190: 80a1 713f 97bb 883f b7b9 7f3f 6cb5 783f
000001a0: d75b 643f 77c9 673f e899 713f 759b 853f
000001b0: 6cee 423f 86bd 653f 59a8 643f 06ea 603f
000001c0: a67c 703f 4db4 433f 452f 5b3f 6ac9 593f
000001d0: b28a 6d3f 226e 863f 9eaf 5f3f 7771 823f
000001e0: a52e 9c3f 9565 6b3f 192e 6d3f 6c32 783f
000001f0: 3faa 763f 4c80 8a3f 4898 a33f 57d9 953f
0.8800541 0.7718027 1.1191072 0.8318516 0.99980277 1.000013 0.92465067 1.0397241
1.2322417 0.902176 0.8907685 1.0494946 0.8837528 0.7920375 0.97913873 1.0984055
0.91065276 0.9173861 0.88298786 1.1224496 1.0650324 0.891945 0.94285434 1.1065012
0.9099212 0.89354414 0.95498616 0.98987687 0.8938488 0.795053 0.9915183 0.9456455
1.0559903 0.87855345 1.0009693 1.1188377 0.6772154 0.94949865 0.73242134 0.97796726
0.89067197 1.231759 0.7119499 0.8992625 0.9315734 0.9343306 1.1047802 1.0755085
1.0729699 1.0046197 1.0719984 0.9264798 0.9532049 0.84865737 0.89247835 0.6844759
0.78812146 0.8438157 0.8596875 1.0291241 0.7872493 1.0300313 1.0094026 1.1632134
1.0728388 0.84909415 1.0175297 0.99302477 0.9575734 0.9920555 1.1668637 0.9223645
0.6449723 1.1030006 0.62812084 0.91513705 1.0593836 0.6610946 0.7344257 1.0156575
1.2321906 0.9036999 0.8916318 0.9727198 1.1475284 0.80999655 1.1194316 0.71334845
1.0818108 0.75553536 0.99601895 0.9693598 0.99672556 1.0422957 1.1906186 0.91151845
0.95057833 0.77459955 1.140122 1.0064348 0.94387054 1.0682248 0.99892753 0.9715183
0.89202636 0.90541786 0.9437547 1.0438067 0.7614505 0.89742315 0.8931938 0.8785709
0.939402 0.7644699 0.85619 0.8507296 0.9278976 1.050236 0.87377346 1.0190877
1.2201735 0.91951877 0.92648464 0.9695194 0.96353525 1.0820403 1.2780848 1.1706952

read_encoder.block2.1.bias f4 [128]
00000000: d49b 38be 04e8 6abe 4641 60bd 58a0 84be
00000010: 7bcb 34bd 5559 0ebe 19e9 fbbd f9ca 23bd
00000020: fd60 1ebe d9a6 f2bd ab35 25be 0521 80bd
00000030: f30a 94be 704e 90be 95a8 52be cefd 7dbd
00000040: 0121 f8bd 1801 12be fa60 47be 13f2 bfbd
00000050: e1d3 acbd 3c4c 45be f38a eabd c807 d3bd
00000060: 31ed b0bd 6fec 34be 739c d1bd 0554 10be
00000070: 02ee f4bd c8d7 83be d7aa f5bd 36c2 18be
00000080: 4fbf 0abe c40d 1abe 9c4e c9bd f35e 82bd
00000090: 719e b0be 9219 62bd 9d5d 87be 231f abbd
000000a0: 28ff 1fbe 670b 41bd 748e 90be 6587 0abe
000000b0: 451b 19bd 777a a0bd 4e03 7fbd 7166 44bd
000000c0: ec2d 82bd c1f5 05be 6d6d 14be 4f17 86bd
000000d0: b1d5 52bd 5078 3ebe 7026 2bbe ff83 a8be
000000e0: ab60 75be 2252 b0bd ec89 2ebe b689 57be
000000f0: a89f 5bbe 4385 3ebe 10a1 e2bd a103 d2bd
00000100: 734a 06bd 0500 31be e673 25bd b8da 84be
00000110: 897d 52be 6deb 17be f067 0dbe fef2 e9bd
00000120: 37bb a7be 438a 07be 84a8 c4be b1e3 68bd
00000130: 63dc 34bc be21 8fbe 7b8a 89be 6632 05be
00000140: cfb4 e2bd a13d 6abe 3a3d 27be 1594 7cbd
00000150: 738c 38bd 8324 6dbe c983 6cbc 3cc9 98be
00000160: 3263 8ebd bb4b 4fbe 9eca e6bd 8831 4abd
00000170: 3872 debd e20c 52bd 1d93 3cbd adac 4cbe
00000180: 155b 8fbd 10c4 eabe e92b 6cbd 2743 78bd
00000190: 9a8d 0fbe 3463 9dbd 4e07 08be 407f 61be
000001a0: e598 99bd 1330 13be f1ad bbbd 89ab e6bd
000001b0: 8a8b 48be ae56 34be 5b63 43be 5f2d 04be
000001c0: 0368 05be bb19 46be 1e47 1dbe bb7a 24be
000001d0: 688e 72be acac 28bd cad9 4dbe a3a3 f7bd
000001e0: 2dab 49bd 419f efbd b3da 8abd 0997 88be
000001f0: 69f7 2ebe d01a 08be f7cf 6ebd 2b8f cebd
-0.18028194 -0.2294007 -0.05474975 -0.25903583 -0.044139367 -0.13901265 -0.12300319 -0.03998849
-0.15466686 -0.1184823 -0.16133754 -0.06256298 -0.28914604 -0.28184843 -0.20572121 -0.062009625
-0.1211567 -0.1425823 -0.19470587 -0.09372344 -0.0843885 -0.19267362 -0.11452284 -0.103042185
-0.08638991 -0.17668317 -0.102349184 -0.14094551 -0.11959459 -0.25750566 -0.11995476 -0.14917836
-0.13549541 -0.15044314 -0.09829447 -0.063657664 -0.3449588 -0.055200167 -0.2643861 -0.08355548
-0.15624678 -0.047130015 -0.28233683 -0.13528211 -0.037379522 -0.07835858 -0.06225901 -0.04794926
-0.06356415 -0.13082029 -0.14494868 -0.065474145 -0.051473323 -0.18600583 -0.16713881 -0.32913205
-0.23962657 -0.086094156 -0.170448 -0.21048626 -0.21447623 -0.18605523 -0.110658765 -0.102545984
-0.032785844 -0.17285164 -0.040393732 -0.2594812 -0.205557 -0.14835902 -0.1380918 -0.114233
-0.3276002 -0.13236336 -0.38409817 -0.05685777 -0.011038872 -0.2795543 -0.26863465 -0.13007507
-0.11069643 -0.22875072 -0.1633195 -0.06166466 -0.045055818 -0.2315846 -0.014435717 -0.2984103
-0.06952514 -0.20243733 -0.11269115 -0.049363643 -0.10861629 -0.051281817 -0.046038736 -0.19987746
-0.069997944 -0.4585271 -0.057659063 -0.060610916 -0.1401886 -0.07684937 -0.13284037 -0.22021198
-0.074998654 -0.14373808 -0.09164036 -0.112631865 -0.1958448 -0.1761119 -0.1908087 -0.12907933
-0.13027959 -0.19345753 -0.1535916 -0.16062443 -0.23687136 -0.041180298 -0.20102611 -0.12091758
-0.04923551 -0.11700297 -0.06779995 -0.2667773 -0.17086567 -0.13291478 -0.0583038 -0.10085901

read_encoder.block3.0.weight f4 [128, 128]
00000000: c87f 54bd b96c b5bd ae6f 693d d132 7c3d
00000010: 54ad 18bd cae2 6d3d 7273 503d d2ed 27bd
00000020: f3c9 2cbd 43dc 9a3b f228 05bd 945c 393e
00000030: 5847 973d 5305 f33c c7e8 99bd 27ee ccbc
00000040: 646d 3d3d 2d94 1a3d 49ae a73d f0a6 143c
00000050: 4fa3 0cbe 84ce d33d 94e2 d43d e9af d93d
00000060: f352 40bd 7167 e0bc e3ac 903d 49e6 0dbd
00000070: e3a0 263d bfbe 863d 2b19 ab3c 355f e13d
00000080: 4701 3a3d 9219 993d c52c 073c 26a6 2dbe
00000090: 0fa7 17bc ddb2 813d 9d58 83bd 6ec4 353d
000000a0: e706 1fbd 352a 1dbd b16b 7e3d ed77 353d
000000b0: e8c0 8d3d ee80 bd3c c4a2 c9b9 f9a0 843c
000000c0: 21ea c03d a5e5 893d 9195 0bbc 3d7e ff3d
000000d0: 022a 923d 4447 ba3d e742 a23d bd95 3b3d
000000e0: 0ae2 ccbc afad 8cbc 0c8e c4bc 0db7 d4bd
000000f0: ed0a 1bbc f9b9 ba3d b939 d03d 2b56 5a3e
00000100: 5237 c03c df02 72bd c0ed 163d f299 063e
00000110: f04f 033d 07fc d63c 2237 bcbd f8d3 aebd
00000120: 9493 a13c 126f 0f3e 4e3a 78bd 7e5d b23d
00000130: 9564 d1bb 4226 f3bb 6ab8 3cbd efa9 163b
00000140: 0536 1cbe 2292 dabd bb2b 003d 5aa0 fcbd
00000150: 8ab6 353c 5001 803d 8b2c d8bd 8fed e9bc
00000160: 1912 a0bd cab2 ecb9 271c 7dbd ac3f 593d
00000170: 0c0b 0a3e bd94 0f3d f1b5 67be 87d5 6fbd
00000180: b3ed 903d 2fda 523b 4982 7abd 18d8 3a3d
00000190: 46b1 44bc 532b 463c 0fc3 0d3e 5563 5c3d
000001a0: d547 29bd d226 09be 8765 173e a3ea 1f3e
000001b0: 47e3 fabd 160e 1cbc a015 22bd 6b95 01bd
000001c0: 2e55 06bd b04b 993d ad10 8e3d 6df2 413d
000001d0: f4b5 b2bd 432c 0e3d a825 d63d 59e4 393e
000001e0: ca60 f03c 128f c6bc 956b 3c3d c197 713d
000001f0: 5143 70bd 78d4 a0bd 95d7 1ebd 65a7 29be
00000200: d6d6 6f3d 7a97 f4bd f8c4 deb9 9900 a9bd
00000210: 0abc c73d 560c a53d d11c 273d 8361 1d3d
00000220: c9b7 c5bc de40 5b3d 470a 2e3d a6fa 853c
00000230: b0d2 93bd 321e 0b3e d196 19be 1935 163e
00000240: 67a0 813e 8d31 09be 83ad 36bd 98c6 983e
00000250: fb86 1dbe b3bf d73d 46d5 23bd f1e7 ee3d
00000260: 4dc3 dc3b bea1 4b3d 5958 34bc c00a 113c
00000270: 7fcf dabc e32d 8fbd c5b5 53be 6be6 03bd
00000280: 3ae5 463e 4baf b7b9 f239 633d 5bbb f43c
00000290: e104 a83d 8c3a 823c 6ee1 a53d 1712 9dbd
000002a0: 2a5e ab3d 9da8 e6bc 2fd5 d73c c8d2 143e
000002b0: 4646 1dbd 300d 77bd 58df 8abe 73a4 733d
000002c0: 7c6a 18be d5cf 9d3d 35f8 60bd 86ff 2fbe
000002d0: 133b c4bc d0a7 9e3d 6280 be3d e49d 673d
000002e0: a195 04be 3f35 003d 5142 383d 99d9 263d
000002f0: ea27 3c3e 0136 c0bd b070 fe3c 2885 283e
00000300: 2d43 1fbe f43c 80bd 68e2 1ebe 307b 763d
00000310: 4857 623e 638e 96bc 2fad 76bd e828 073e
00000320: db2f b93d d577 653e a87c 213d c4cd d43d
00000330: f7e0 42be e0cd 07be fbe9 a43c e6c6 033e
00000340: 867f f73d 78f3 e03c 26d9 3e3d 2f8f c0bd
00000350: 62cb 45bc 513b 1abd 125c 173d 7616 303e
00000360: 32dc 8abc c9b5 96bc 6d69 3bbd 3b77 b5bd
00000370: d9ae 913e e027 a9bd 5977 dbbd a2a0 143e
00000380: acab ca3d 5436 8a3d a2ea f6bd f4e6 f13c
00000390: 6c51 f03c d8c0 dcbb e6e5 cabd 2fa2 1d3e
000003a0: b3c6 0a3c 9f4a b0bd 6e28 b63d 0d2e 2c3e
000003b0: 50c5 5a3e 4e08 debd 72f3 0f3e a189 3a3d
000003c0: a4fb 5ebb e063 85bd 3de1 663c 4283 90bd
000003d0: 888d 9d3c 650a 1ebe 7f98 bfbd 397e 8f3c
000003e0: cb38 4abd 5abb 313d bba2 143e 8850 98bd
000003f0: f9d5 d63c 56fa 8a3d 2e19 bfbd 4fd6 fa3d
-0.051879674 -0.08858628 0.05699127 0.0615719 -0.037274674 0.05807761 0.050891347 -0.040998287
-0.04218478 0.0047259643 -0.03250975 0.18101722 0.073866546 0.029665625 -0.07515102 -0.025015904
0.0462469 0.037738968 0.08187539 0.009073004 -0.13734172 0.10342124 0.10394779 0.10629255
-0.046954107 -0.027393075 0.070642255 -0.034643445 0.040680777 0.06579351 0.020886024 0.110044874
0.045411374 0.0747558 0.00825042 -0.16957912 -0.0092561385 0.063329436 -0.06413386 0.044376783
-0.038824942 -0.03837033 0.06211442 0.044303823 0.069215596 0.023132768 -0.00038458977 0.016190039
0.094196565 0.06733254 -0.008519546 0.1247525 0.071369186 0.09095624 0.07922917 0.0457971
-0.025010128 -0.017172663 -0.023993514 -0.10386477 -0.009463054 0.09117503 0.1016726 0.21321933
0.023463879 -0.05908477 0.03684783 0.13144663 0.032058656 0.026243223 -0.09190203 -0.085365236
0.019723691 0.14007214 -0.06060248 0.087092385 -0.006390164 -0.007420332 -0.04607431 0.0022989472
-0.15254982 -0.10672404 0.031291705 -0.12335272 0.011090884 0.0625025 -0.10555371 -0.02855566
-0.07815952 -0.00045146636 -0.061794426 0.053039238 0.13480777 0.035053957 -0.22627999 -0.058553245
0.070765875 0.0032173505 -0.061159406 0.04561624 -0.012005156 0.01209529 0.1384394 0.053805668
-0.04132827 -0.13393715 0.14784823 0.1561685 -0.12250381 -0.009524843 -0.039571404 -0.031636637
-0.032796077 0.07485139 0.069367744 0.047350336 -0.08726111 0.03471018 0.10456401 0.18153514
0.029343028 -0.024238143 0.046001036 0.058982614 -0.058657948 -0.07853025 -0.038779814 -0.16567762
0.058554493 -0.11942954 -0.00042489893 -0.08252067 0.097526625 0.080589935 0.040798966 0.038423073
-0.024135487 0.05352866 0.04249027 0.01635487 -0.0721792 0.13585737 -0.14998938 0.14668693
0.2531769 -0.13397808 -0.044599067 0.29839015 -0.15383522 0.105346106 -0.039998315 0.11665333
0.006737149 0.049714796 -0.011007392 0.008852661 -0.02671027 -0.06991174 -0.20674808 -0.032202166
0.1942338 -0.00035035083 0.055475183 0.029874494 0.082040556 0.015897058 0.08099638 -0.07669466
0.0836757 -0.028156573 0.026346771 0.14533532 -0.038397096 -0.06031531 -0.27123523 0.059483003
-0.1488437 0.077056564 -0.05492421 -0.17187318 -0.02395395 0.077468514 0.09301831 0.05654706
-0.12947704 0.03130078 0.04498512 0.04073486 0.18374601 -0.093853004 0.031059593 0.16457045
-0.1555297 -0.06261626 -0.15516055 0.060176075 0.22103608 -0.018378442 -0.060223754 0.13199198
0.09042331 0.22408994 0.039425522 0.10390809 -0.1903113 -0.13262129 0.020131102 0.12868842
0.1208487 0.027459845 0.046593808 -0.0940231 -0.012072416 -0.037654225 0.03695304 0.17196068
-0.0169507 -0.018397229 -0.04575484 -0.08860632 0.2845371 -0.08259559 -0.10716123 0.14514402
0.09896025 0.067486435 -0.120564714 0.029529072 0.0293357 -0.006736856 -0.09907131 0.153939
0.008470225 -0.08607983 0.0889443 0.16814442 0.21364331 -0.10841428 0.14057711 0.04554141
-0.0034024501 -0.0651319 0.014091787 -0.070562854 0.019232526 -0.15433653 -0.09355258 0.017516242
-0.04937057 0.043391563 0.14515202 -0.07437235 0.026225077 0.06786029 -0.093309745 0.12247907

read_encoder.block3.0.bias f4 [128]
00000000: aa4c 2abc 8d2a 6d3d d997 703a c244 553d
00000010: 6e8a 82bc 3e37 973c 7f49 533d 6228 893d
00000020: 940d 103d 8435 0aba 7366 713c 53f0 89bd
00000030: 8313 903d 4828 c83d 7094 b8bd c37d 083d
00000040: ef2c 15bd e9e3 1d3e 8fa7 8a3d d44c 5a3b
00000050: 0a0d fb3d 60a2 913d 1525 b73b 329a 89bd
00000060: e486 573d 742f 863d ffc4 033d f8dd e83d
00000070: d0a4 aabb d3a7 3c3d 8cd6 dd3d 5fa6 fc3d
00000080: 0f5c 6c3d 82bc d9bc 03f2 8e3d 83af 1d3d
00000090: b504 433b ee3e ac3d b007 4ebd f1d9 163d
000000a0: e3a7 a03c 1d03 0fbb bb52 57bd e20b 8abd
000000b0: a418 62bd 7f3d aa3d 3a59 1dbc ae3e 843c
000000c0: caf4 973d 588e 233c 0aeb 3ebd 6c9c a13c
000000d0: 18c6 7fbc fca9 33bd 7394 523d f4d8 083d
000000e0: 8ced b83d d03c 773d 337f 78bd fb83 5fbc
000000f0: 3d8d 8bbd 79cd 54bd 6eab 453c dfbf 653d
00000100: fa4e a33d 629e 113e bbac ba3d fc2e 183d
00000110: 897e c139 e259 ed3d 67e6 a53d 89bd 803d
00000120: ca35 6f3d 6404 873d bfdc 053d 18f2 a4bb
00000130: 531b a93c 02d6 12bd 2b3f cfbc 3f51 44bd
00000140: d941 4c3c 5a2b 163d 612f 9e3d e407 41bd
00000150: 27af 94bc f4ad 03bd 1f10 c13d 0f6e c2bc
00000160: addc 0cbd 56fb 643d 43da c13d 6558 98bc
00000170: 1300 4f3d 07a8 53bc 3894 8ebd 3617 aebc
00000180: f1c7 d23c ace1 f1ba 3bd7 92bc 33a2 7ebc
00000190: 7be3 bc3d 31ec 7bbd 2e93 bf3d 0e63 d0bb
000001a0: f27b d43c 692f acbd 3dd0 443d 1ec8 7cbd
000001b0: 98d2 83bd fcc2 643d 0cfb c53d 4d57 293c
000001c0: 4e45 623d b915 8fbd 9990 7abb 0217 a23d
000001d0: 0549 9c3c e5bf f13c 4a6f 963c 0190 843d
000001e0: 28a5 2f3c 0f80 b0bd 8027 07bd d750 3ebc
000001f0: 126d 18bd 16f8 5cbd fa6e ce3d 3f46 333c
-0.010394255 0.057901908 0.00091779005 0.052067526 -0.015935149 0.018458959 0.051583763 0.066971555
0.0351692 -0.00052722567 0.014733898 -0.06735291 0.070349716 0.09773308 -0.09012687 0.03332306
-0.036419805 0.15418972 0.067702405 0.0033309953 0.122583464 0.07111049 0.0055891373 -0.067188635
0.052618876 0.0655202 0.032170292 0.11370462 -0.0052076355 0.046058487 0.10831937 0.1233642
0.05770498 -0.026579145 0.06979754 0.03849746 0.0029757444 0.084104404 -0.0503003 0.03682894
0.019611305 -0.0021821924 -0.052569132 -0.06740548 -0.05519928 0.08312511 -0.009603793 0.01614317
0.07419737 0.009982668 -0.04661087 0.019727908 -0.015611194 -0.04386328 0.051411103 0.033410028
0.090296835 0.06036073 -0.06066818 -0.013642306 -0.068140484 -0.051953766 0.012064798 0.056091186
0.07974048 0.14220574 0.09114977 0.037154183 0.00036906105 0.115894094 0.081005864 0.06286151
0.058400907 0.06592634 0.032681223 -0.0050337426 0.020642912 -0.035848625 -0.025298676 -0.047929045
0.012466871 0.036662437 0.077238806 -0.047126666 -0.018149925 -0.032148317 0.09426903 -0.02373412
-0.03439014 0.055903755 0.09465458 -0.018596837 0.05053718 -0.012918479 -0.06961864 -0.021251302
0.025730105 -0.0018454096 -0.017924896 -0.015541601 0.09223076 -0.061504547 0.09354244 -0.0063594645
0.025938008 -0.0840748 0.048050154 -0.061714284 -0.06436652 0.055850014 0.09667024 0.010335756
0.055241875 -0.06986565 -0.003823316 0.07914545 0.019077787 0.029510448 0.018363614 0.06472779
0.010720529 -0.08618175 -0.032996655 -0.011615953 -0.037213393 -0.05394753 0.10079761 0.010942041

read_encoder.block3.1.weight f4 [128]
00000000: 9c12 5a3f 62bf 803f c2f9 b13f ec21 673f
00000010: 9c01 843f d386 783f c129 723f fc91 7b3f
00000020: 5224 8b3f eb42 6d3f bc9c 8b3f 9632 823f
00000030: a869 703f 1760 543f 92eb 713f 7957 653f
00000040: aa58 6b3f 6351 5c3f eee8 653f 2e93 713f
00000050: 22c3 6f3f 43ab 6f3f cfee 633f 8fc2 863f
00000060: 50f7 783f 0ed1 713f dcb5 5b3f 6b77 6c3f
00000070: 5fa8 7b3f 2106 723f 0acf 6a3f 4a22 6c3f
00000080: e4fd 743f d23a 933f 781c 683f 2dff 8c3f
00000090: e646 7b3f 6193 873f c506 1f3f bdc3 753f
000000a0: da5b 643f a96e 783f 8d0b 6c3f 8353 813f
000000b0: 62ef 9d3f 4154 7d3f 5317 653f 3626 913f
000000c0: 9bd3 8a3f f5a0 853f 59ab 703f 5611 843f
000000d0: b982 9d3f a390 6a3f 4d6a 673f fe4b 473f
000000e0: 4493 5b3f 55d6 8a3f d08b 5a3f 0b8e 4f3f
000000f0: 7901 593f 3b4d 843f fdf0 6d3f 6234 733f
00000100: d50d 873f 1d37 693f edee 7d3f 5385 653f
00000110: a70d 683f 05da 693f 9e04 7b3f b1cf 823f
00000120: 7901 6d3f a740 5d3f cf93 733f dea3 b03f
00000130: b7d2 9e3f 0536 183f 8837 5a3f 8e3e 8b3f
00000140: 8a50 973f df91 723f 161e 6e3f 044a 7d3f
00000150: c685 6e3f bab4 6c3f b625 883f e647 653f
00000160: bb8e 933f ae66 6c3f 8512 833f be6e 893f
00000170: 9719 843f be4d 8b3f 68dc 5c3f d4e6 663f
00000180: f67a 683f bf28 5a3f 6644 983f ab9b 3d3f
00000190: 0c34 753f 5a21 7e3f 7031 7d3f 6c93 663f
000001a0: 4b50 753f d88d 823f b465 813f c2e6 7f3f
000001b0: 3763 883f 0c5f 3e3f 96ba 523f a1b4 733f
000001c0: 0875 6b3f 4bc0 723f 397e 6f3f 4355 5e3f
000001d0: 4a49 863f 9be1 793f 5484 7d3f ad14 6f3f
000001e0: 2156 ad3f 893a 803f e8c2 963f 4dcb 863f
000001f0: 50cf 663f 652c 9f3f 64dc 543f 600f 613f
0.85184646 1.0058405 1.3904345 0.90286136 1.0312991 0.97080725 0.9459496 0.9826963
1.0870459 0.92680234 1.0907207 1.0171688 0.9391122 0.8295912 0.94500077 0.895866
0.91932166 0.86061686 0.8980855 0.94365203 0.93657124 0.936207 0.8903627 1.0528125
0.9725237 0.9445962 0.8582437 0.9236972 0.9830379 0.945406 0.91722167 0.9223982
0.95699906 1.1502326 0.9066844 1.1015373 0.9815506 1.0591851 0.62119704 0.960018
0.89202654 0.97043854 0.92205125 1.0103611 1.2338679 0.98956686 0.89488715 1.1339786
1.0845827 1.0439745 0.94011456 1.031779 1.2305518 0.9162695 0.9039658 0.7785033
0.85771585 1.0846659 0.85369587 0.81076115 0.8476787 1.0336069 0.92945844 0.95001805
1.0551096 0.9109972 0.99192697 0.8965656 0.9064583 0.91348296 0.9805392 1.0219632
0.9258037 0.86426777 0.95147413 1.3800008 1.2408055 0.5945743 0.85240984 1.0878465
1.1821454 0.9475383 0.9301466 0.98941064 0.9317287 0.92463267 1.0636508 0.89562833
1.1527933 0.92344177 1.0240027 1.0736921 1.0320309 1.08831 0.86273813 0.90195966
0.90812624 0.85218424 1.1895874 0.74065655 0.9578254 0.9926964 0.9890356 0.900687
0.9582564 1.0199537 1.0109162 0.99961483 1.0655278 0.7436378 0.8231596 0.9519749
0.9197545 0.94824666 0.93551975 0.8684885 1.0491116 0.9760987 0.9903004 0.93390924
1.354191 1.0017864 1.1778231 1.0530792 0.90160084 1.2435423 0.8314879 0.87914085

read_encoder.block3.1.bias f4 [128]
00000000: c1f9 5dbe 9897 f9bd f98d 97bc 44c8 0abe
00000010: 68a7 e4bd 46c0 66bd 5d15 0bbd cd3f f6bc
00000020: c584 d6bc 7e21 c6bd 5c11 2cbe fc9c 4dbd
00000030: b25e 87bd 0eda 1ebe 2af3 a5bd dc6f 81bd
00000040: bd14 88bd d0fa 9abd cbe1 9dbd a662 7ebd
00000050: 13e6 6ebd aed4 96bd 3532 f6bd 389f 20bc
00000060: a574 91bc 67f2 bfbd f370 cebd 0192 53bd
00000070: 281f 3bbd 92f1 a2bd 6dce ccbc 60e7 80bd
00000080: 8db7 9bbd 8b36 dcbd d13d f1bd 897f 3ebd
00000090: fdfc 08be 24c2 1ebc 5a1f 93bc 973b 51bd
000000a0: e619 91bd 4d94 1cbd d00e 8fbd 653a 9cbd
000000b0: 12d7 b0bb 2dac 45bc b2e6 1dbd 7d79 e73b
000000c0: ece9 8cbc 72c3 88bd 9ef9 2bbd 72e2 a0bc
000000d0: 3af3 8fbd 9658 cbbd 9ba0 a0bd fa76 29be
000000e0: aaab 30be 0d8e 15bd 7f69 17be d79d 14be
000000f0: cdff 44be 8dae 02be e43d fabd 1fab 89bd
00000100: 0f10 b1bc b523 88bd 6270 8abc 86c6 dbbd
00000110: 1539 d0bd e658 aebd 2f44 39bd 958f c0bd
00000120: c9c6 24be 6315 c6bd 2653 debd fa4d 07bd
00000130: 2603 913b 79d7 a9be dadf 03be 2fab ebbd
00000140: e829 a2bd 0e3e 8bbd 0aa2 59bd 4ac0 69bc
00000150: 9b54 97bd 9864 4abd 93fe 31bd 751d a4bd
00000160: a2eb 93bc 2f35 91bd 31c9 febc 6175 a2bc
00000170: 190a 0dbe f5ef ccbc 26bd bebd 4a21 8abd
00000180: dc57 99bd 4489 26be b70b d33a 09ec 81be
00000190: a359 f2bd 49a1 02be 69db 06bd d0c9 18be
000001a0: 6dd7 93bd 499a f5bd 5b48 42bd e32a 37be
000001b0: d39d a9bd 832c f7bd 0bca 09be 3cc1 dfbc
000001c0: 5692 8dbd 8126 0fbd 55f1 a3bd 65eb 2bbe
000001d0: 56b4 00be 30be 1cbd 1805 3cbe 1218 d9bd
000001e0: 091d 00be 37cc 94bd 111f 03bd 6900 46bd
000001f0: 926b 9fbd 2514 b0bc 960d ccbd cb39 8fbd
-0.21677305 -0.12187117 -0.018500315 -0.13552958 -0.11164743 -0.05633571 -0.03395592 -0.03005972
-0.026186356 -0.09674357 -0.16803497 -0.05019854 -0.066098586 -0.15512869 -0.081030205 -0.063201636
-0.066445805 -0.0756737 -0.07709082 -0.062105797 -0.058324885 -0.07364784 -0.12021295 -0.009803586
-0.017755816 -0.093724065 -0.10080137 -0.051652912 -0.04568401 -0.07956232 -0.025000775 -0.06294131
-0.07603369 -0.10752591 -0.11779369 -0.046508346 -0.13377757 -0.009689841 -0.017959286 -0.05108222
-0.07085018 -0.03822737 -0.06985247 -0.076283254 -0.005396732 -0.012064976 -0.038550086 0.007064043
-0.017201386 -0.06677903 -0.0419861 -0.019639228 -0.07028814 -0.09929006 -0.07843133 -0.16549292
-0.17252985 -0.036512423 -0.14786337 -0.14513336 -0.19238205 -0.12761898 -0.12218836 -0.06722092
-0.021614103 -0.066474356 -0.016899291 -0.10731225 -0.101671375 -0.0851305 -0.04523104 -0.09402386
-0.16091456 -0.09672048 -0.10855703 -0.03303335 0.004425424 -0.33172205 -0.12878361 -0.1150726
-0.07918149 -0.06798945 -0.053133048 -0.014267037 -0.07389184 -0.04941234 -0.04345567 -0.08013431
-0.018056694 -0.07090222 -0.031101795 -0.019831361 -0.13773383 -0.025016764 -0.09313421 -0.06744631
-0.07487461 -0.162633 0.0016101514 -0.25375393 -0.11833503 -0.12756838 -0.03292409 -0.14920735
-0.072188236 -0.11992318 -0.047432285 -0.17887454 -0.08282056 -0.12069037 -0.1345598 -0.027313821
-0.06912677 -0.03494883 -0.08005015 -0.16789015 -0.12568793 -0.038267314 -0.18361318 -0.10600294
-0.12511076 -0.072655134 -0.03201205 -0.048340235 -0.07784189 -0.02149398 -0.09963529 -0.06993445

bag_predictor.weight f4 [1, 128]
00000000: 7b28 8dbb 1941 49bc 88c3 11be 1e19 9c3b
00000010: 2eda c33d 1e70 263d e80f 14bd 98d5 4cbd
00000020: ccf7 f8bd 08d4 8dbc 86d9 1e3d 5a61 ea3d
00000030: 642c 94bc 4378 25bc fdce 133d 2b0f 3cbd
00000040: 32fd 1dbc 8c4d 91bc ca57 eabc af3b 8b3d
00000050: a087 e6bc 6024 b8bc 762a 3e3c af3d c9bd
00000060: 23ba 15bd a3c2 a1bc 3688 863d 7924 dabc
00000070: 99aa 48bd 8bb1 c5bc 22b8 0abd 11c1 d8bc
00000080: 1b32 96bc 2e49 1fbd 45a0 b63d a6e7 35be
00000090: b719 053c e01a 87bd 02ea 9fbc b3de c0bc
000000a0: 7475 abbc 1ef5 b1bd c4d9 babc 424c a03c
000000b0: 4b4f b2bd 9d83 6cbd 37da 61bd 7465 05be
000000c0: 3115 c7bd 4bfd ab3d 3949 d9bc 7b1e 8cbd
000000d0: 2a24 bdbd f610 42bc a140 acbc 4fee aabc
000000e0: 51a3 95bc 4727 9cbd e3f6 a0bb 326f abbc
000000f0: e797 a4bb 1126 9e3d 8861 533b 4138 8abc
00000100: 1a92 09be e201 05bd 9b35 46bd 78dd 123d
00000110: 1711 a4bc 41d6 d8bc 2b74 48bd 0150 ef3c
00000120: 4c88 063c c3ef b63d 7a55 90bc 286c 09be
00000130: 1217 23be 6264 a4bc 7a1b 34bc f50a b23c
00000140: 23c7 e8bd 826e c1bc 71ba f43c 5824 6abd
00000150: 91e1 94bd 2b0f b6bc 4765 b4bd d5e9 8ebc
00000160: 5b58 ccbd ad19 c6bc 3414 0fbd 03f3 9fbd
00000170: 8ee6 fc3d eaa8 d7bd 8fc4 0bbd 6748 f83b
00000180: 3403 c0bc 5e02 b43c 2b71 bfbd e5e6 60bc
00000190: ad8c 22bc d27a b23d 7f2c 3cbd 6eb6 4abc
000001a0: 45c5 953c 7b99 9a3c 6372 47bd e802 b43d
000001b0: d3da 783b dfc5 13bc fc29 dbbc 130f 03bd
000001c0: 48a4 07bd 01f2 94bc 9e7a 3c3c 63cb 4cbc
000001d0: 5916 6b3c 2268 29bd cd4a 273d d2bd 6dbc
000001e0: f112 21be 77c6 fd3d 8d4d b6bd 652b aa3d
000001f0: ec20 353d 2cd2 0cbe 9a9a 38bd 0811 d7bc
-0.004307804 -0.012283587 -0.14234746 0.0047637364 0.09563099 0.040634267 -0.036147982 -0.050008386
-0.121566385 -0.017313018 0.038781665 0.114443496 -0.018087573 -0.010099473 0.03608607 -0.045912903
-0.009642886 -0.017737173 -0.028606314 0.06798493 -0.028140843 -0.022478282 0.011606803 -0.09826218
-0.036554467 -0.01974613 0.06568949 -0.02662872 -0.04899082 -0.02413251 -0.03386701 -0.026459249
-0.018334439 -0.03888815 0.08917288 -0.17764148 0.008123807 -0.06596923 -0.019520763 -0.023543691
-0.02093003 -0.086893305 -0.022808917 0.019567613 -0.0870653 -0.057742704 -0.055139747 -0.13026983
-0.09720839 0.08397921 -0.026524173 -0.06841751 -0.09235413 -0.011844864 -0.021026911 -0.020865588
-0.018266352 -0.07624679 -0.0049122437 -0.020927045 -0.005022991 0.07722104 0.0032254178 -0.016872527
-0.1343464 -0.0324725 -0.048390966 0.03585574 -0.02002768 -0.026469352 -0.04893891 0.029212954
0.008211207 0.0893245 -0.017618883 -0.13420165 -0.1592677 -0.020067398 -0.010992879 0.02173374
-0.11366107 -0.023612265 0.029874058 -0.057163566 -0.07269586 -0.02222403 -0.088083796 -0.017445484
-0.0997779 -0.024182165 -0.034931377 -0.07810023 0.12348662 -0.10530265 -0.034123 0.0075769904
-0.023439027 0.021973785 -0.09347757 -0.013726925 -0.009921235 0.08714832 -0.045940872 -0.012372596
0.018282542 0.018872013 -0.048693072 0.08789617 0.0037972226 -0.009019344 -0.026753418 -0.031996798
-0.033115655 -0.018181803 0.011503844 -0.012499663 0.01434859 -0.041359074 0.04084282 -0.014510589
-0.15729882 0.1239137 -0.089015104 0.08309058 0.04422085 -0.13752049 -0.045069315 -0.026253238
