m6aReplica/2d_66_with_delta/Models/epoch3_rocauc0.875_valpr0.345_valscore1.219.pth (torch, 153737 bytes, 13 tensors)

read_encoder.block1.0.weight f4 [128, 21]
000000 8e 55 60 3e 6e 78 13 3e a7 a2 5f bd f5 5a ea 3e
       0.21907637 0.14401409 -0.054598477 0.4577252
000010 7a 39 aa 3d aa e8 1a 3d 7b 8a 94 bd b7 d0 6d 3e
       0.08311744 0.037819542 -0.072529756 0.2322415
000020 da ea 66 3e 1c 81 0f 3f fb 1f 22 bf 47 86 b4 3e
       0.22550526 0.5605638 -0.6333005 0.35258695
000030 a8 4e 8c 3c 4b 9a d1 3c 43 35 91 3e 79 0f 01 bd
       0.01712735 0.025586268 0.28360948 -0.031508896
000040 7c 4e 9c 3d 39 c3 64 3c 04 ca 84 bd 64 9f 06 3d
       0.07632157 0.01396256 -0.06483844 0.03286685
000050 d9 d2 76 bd e9 d6 d1 3d a5 70 2e be 48 2a 5d 3e
       -0.060259674 0.10246069 -0.17035158 0.2159816
000060 e9 35 6d bd 30 e4 be be 07 75 fa bb a4 bd 9b 3c
       -0.05791274 -0.37283468 -0.0076433453 0.019011326
000070 e8 16 45 be 91 38 1e be c0 88 bb 3d 9d 02 b9 bd
       -0.1924702 -0.15451266 0.09156942 -0.090337016
000080 ea 96 d7 be 7c f7 ab 3e b0 07 b6 be cc a0 bc 3d
       -0.42107326 0.33587253 -0.3555274 0.09210357
000090 1d 92 fd 3c ae c0 50 3e 13 c0 5c bd 99 c8 ff bd
       0.030953461 0.20386001 -0.053894114 -0.12489433
0000a0 96 95 ff 3d 2d c9 cb 3c 04 de a3 3d 43 cb 2a 3e
       0.12479703 0.024876202 0.080013305 0.166791
0000b0 07 3f 0f 3e d7 99 76 be 10 5d f5 3c 16 8d 3e 3d
       0.13988887 -0.24082123 0.029951602 0.04652127
0000c0 55 5f 9f 3d fd d9 71 be 8a 8b 5e be d9 e8 41 bf
       0.07781855 -0.23618312 -0.21732917 -0.7574592
0000d0 76 0a c5 3e 0d 8a 68 bd e3 aa 0c 3e 1d bc 31 3c
       0.38484544 -0.05677228 0.13737063 0.010848072
0000e0 50 99 e0 3c 5a a1 4e bc 40 82 41 3e 1d 91 29 be
       0.027416855 -0.012611711 0.18897343 -0.16559263
0000f0 32 40 9a bc 3b d8 f3 bd c2 bb 88 3d 65 92 67 3d
       -0.018829439 -0.11906477 0.06676437 0.056536097
000100 32 ba 56 3d b5 15 86 bb 15 4c da 3e 17 5a df bd
       0.052423663 -0.004091943 0.4263617 -0.10905855
000110 31 08 e0 bd 4f 1d 1b bd 88 cc 89 3e 85 5a 08 3e
       -0.109390624 -0.037869748 0.26913857 0.1331578
000120 9e bc 16 3f 69 b5 50 bf 72 fc 49 be d6 c1 cd bd
       0.58881557 -0.8152681 -0.19725206 -0.10046737
000130 8d 22 bb be 4f 24 85 3e a0 c2 a1 bc d8 ff 7c 3d
       -0.36549798 0.26004264 -0.019746125 0.06176743
000140 7b 84 ff bd ad 67 29 be a5 9f e9 3d c8 f2 9a bd
       -0.124764405 -0.16543455 0.11407403 -0.07565838
000150 cf dd 0a 3e 24 26 27 be 8f f8 d5 3d 5c 5f 84 be
       0.13561176 -0.16323143 0.104477994 -0.25854003
000160 b4 fe ac be f3 4c e6 3c fd 28 eb 3c d4 87 8c be
       -0.33788073 0.028112864 0.028706068 -0.2744738
000170 1b ad b3 3d b8 4d 72 be d1 45 17 3e 66 71 d7 be
       0.087732516 -0.2366246 0.14772727 -0.42078704
000180 39 51 c8 3e 9e 59 9e be ee 5e 4d bd 7e c6 4d be
       0.39124468 -0.30927747 -0.05013936 -0.2009525
000190 12 f3 ac bd 44 38 6d 3d 52 3a c5 bd 3e 0d 43 be
       -0.084447995 0.057914987 -0.09630264 -0.1904802
0001a0 29 28 30 3a bd ac 0f be 14 9e 82 bd f6 78 00 be
       0.00067198515 -0.14030738 -0.06377807 -0.12546143
0001b0 b2 da 81 be c9 6c 1c 3e c6 a6 7a 3e ba 22 9f bc
       -0.25362164 0.15275873 0.24477682 -0.019425739
0001c0 0d c7 87 3e cd f5 52 be ab 07 df be 5d 83 80 bd
       0.2651905 -0.20601578 -0.43560538 -0.062750556
0001d0 bc ff 0b 3f c4 c7 0f bf e1 86 bd 3e d2 0c 6e be
       0.54687095 -0.56164193 0.37016967 -0.23247078
0001e0 ff 49 68 3d f5 9d 79 bd 06 af f8 ba f0 42 c4 bd
       0.056711193 -0.060941655 -0.001897306 -0.0958308
0001f0 d7 4e 1b be 9f 7f c8 bd 7e 9e b6 bd e8 cc 83 be
       -0.15166794 -0.09789967 -0.08916949 -0.2574227
000200 b3 a9 32 3e 09 ee d8 bd 9d 56 60 3c f6 45 4b 3d
       0.17447548 -0.105922766 0.013692525 0.049627267
000210 c8 f0 3c be 37 58 88 3b f0 8e ad bd 89 9e bc be
       -0.18451226 0.0041609067 -0.08474529 -0.36839703
000220 ef 4f 05 3e 09 88 0d bf 57 71 83 3e 22 1f 47 be
       0.13018773 -0.552857 0.2567241 -0.1944547
000230 05 71 a2 3d 00 75 06 be 93 75 51 3e 45 55 0f be
       0.07931713 -0.1313057 0.20455007 -0.13997371
000240 c9 29 1f bd 4d a2 13 3d 2c 18 e8 3d b0 e7 93 3e
       -0.03885821 0.036043454 0.113327354 0.288877
000250 5b d9 8f 3e 87 b3 b8 bd 19 f0 f8 3d ec 40 92 bd
       0.28095517 -0.09018617 0.1215517 -0.07141289
000260 42 68 22 3d 29 b9 2a bd 2b 1c 97 3e 90 e8 ed bd
       0.03965021 -0.04168049 0.29513678 -0.116166234
000270 f7 db 16 be c2 36 6e 3e 1e 58 01 be 05 2c 71 bc
       -0.14732347 0.23263076 -0.1263127 -0.014719968
000280 83 71 88 bc 7e a5 8f bd bd 4b f4 3c f5 97 79 be
       -0.01665569 -0.07013987 0.029821271 -0.24374373
000290 f6 e3 67 3b 71 9b ba bd 24 27 f4 bd 99 31 8a 3e
       0.0035383678 -0.09111679 -0.11921528 0.26990965
0002a0 a7 ef 02 3e 7d ca ba bd c0 c6 b6 bc 36 0b 06 3d
       0.12786733 -0.09120653 -0.022311568 0.032725535
0002b0 6e 3f cf 3d 9d 1d f5 3c 15 06 6d bd 5f 87 6c bd
       0.1011952 0.029921347 -0.05786713 -0.057746287
0002c0 8e 1a c1 bd f7 1f 55 be 3a 82 8f 3e b8 80 dc be
       -0.09428893 -0.20812975 0.28029042 -0.43066955
0002d0 24 cf 00 3e 5f 21 4f 3d 94 bb cb bd 37 5e 7d bb
       0.12579018 0.050568935 -0.09947887 -0.0038660893
0002e0 08 f5 1d 3e f1 03 73 3d 11 0f 67 bd 5c 07 dc 3c
       0.15425503 0.05932993 -0.056410853 0.026858978
0002f0 d6 01 2b 3a db f0 91 3d ce 06 f7 bd 47 60 56 bd
       0.0006523406 0.07126018 -0.12061845 -0.05233791
000300 87 c8 54 3e 65 8b 6c 3e 9f ba e6 bb 20 70 08 bd
       0.2077962 0.2310005 -0.00704129 -0.033310056
000310 bf f0 49 3d 79 13 ce 3c 96 c8 24 3e 65 02 33 be
       0.04930186 0.02515577 0.16092142 -0.17481382
000320 03 5a eb 3d 73 39 ed bd bf 5d 42 3e 77 f5 2b 3e
       0.11491778 -0.11583223 0.18981074 0.16792856
000330 e9 fb d1 3c 4d c4 bf bd c2 40 e1 bd 37 8a 8f be
       0.025632815 -0.09363613 -0.1099868 -0.28035137
000340 41 c6 68 be 3c 53 89 3d f7 4f a1 3d b3 92 22 3e
       -0.22731878 0.06705329 0.0787658 0.15876274
000350 a0 44 68 be ef 95 69 be 1d 1d b2 3d 11 30 41 3e
       -0.22682428 -0.22811101 0.08696959 0.18865992
000360 83 e7 24 bd 7c 94 6e 3c 3b 30 77 3d 09 af 1d be
       -0.04025985 0.014561769 0.06034873 -0.15398802
000370 a0 42 34 bd 5c 53 da 3e ea d6 8d be 94 c4 47 3e
       -0.04400885 0.42641723 -0.2770303 0.19508582
000380 b4 99 5c be 16 71 87 3d 6b 84 be 3d 09 ed d0 3d
       -0.21543008 0.06613366 0.093026005 0.10201461
000390 9c 5e 18 be 4d 93 75 be d7 83 56 be 48 f4 02 3e
       -0.1487984 -0.23981972 -0.2094873 0.12788498
0003a0 f0 49 e8 3c 99 f7 43 3e 93 ad 84 bd 33 ed a5 bd
       0.028355569 0.1913742 -0.06478419 -0.08101883
0003b0 73 3a 97 bb 2a 99 42 be 50 03 b8 be 16 d6 6c be
       -0.004615122 -0.1900374 -0.35940027 -0.23128542
0003c0 88 ec d3 be 40 52 0c 3f d3 40 e8 bd f9 f5 95 bd
       -0.41391397 0.54813004 -0.11340489 -0.07322306
0003d0 82 74 cb bd 5f 02 81 be b7 1a c7 bd d8 32 09 3e
       -0.099343315 -0.25197122 -0.09721892 0.13398302
0003e0 4f 36 84 bd 95 ff bd 3d 0f 48 78 bd 14 49 ae bd
       -0.06455671 0.09277264 -0.060615595 -0.08510032
0003f0 2f 3a b0 3c 0e be 47 3c 91 1c 84 bd 17 78 69 be
       0.02151212 0.012191309 -0.06450761 -0.22799717

read_encoder.block1.0.bias f4 [128]
000000 06 41 23 be f6 85 4b 3e 75 cd 58 3e 5b 69 84 3e
       -0.15942773 0.19875321 0.21172126 0.2586163
000010 0f 0b 2d 3d c8 c3 25 be 47 df 6e 3e ec a8 db 3d
       0.042246874 -0.16187966 0.23327361 0.10725579
000020 fd 3a 82 3e e4 bd bc bd e9 4d 2a be 61 4a 1d be
       0.2543563 -0.09215906 -0.16631283 -0.15360405
000030 35 97 53 3e 27 5c bc 3d 53 8c 68 bd 64 de 13 3d
       0.2066315 0.09197264 -0.05677445 0.03610076
000040 e0 89 a7 bd 70 db 93 3d b3 92 d7 3d 4a 70 19 be
       -0.081805944 0.07219589 0.105260275 -0.14984241
000050 68 ff 3c 3b c0 37 8a bd 94 77 b9 3c b9 67 66 be
       0.0028838757 -0.06748915 0.022640027 -0.22500505
000060 a2 9a cb 3d fa 63 67 3e ef 43 26 3e 5b 07 45 3e
       0.09941603 0.22596732 0.16236852 0.19241087
000070 db 09 14 3e 3d 7a 9e 3e a9 d5 1b 3e c7 82 9b 3d
       0.14456885 0.30952635 0.15218224 0.07593303
000080 85 95 c2 bb e2 9f 43 3e ac 40 54 3e 0a bb b9 bd
       -0.0059382343 0.19103959 0.20727795 -0.09068878
000090 8b 5e 0a 3e bf aa 26 3b 2f 97 a5 3d a3 f2 2e be
       0.13512628 0.0025431362 0.080854766 -0.17084746
0000a0 c3 f7 2b 3e 67 15 f9 bd df 3d e3 3c 24 31 2c 3c
       0.16793732 -0.12162285 0.027739463 0.010509763
0000b0 ed e0 8e 3c 32 84 24 3e e7 0f 0d 3d 5d 1d 1c be
       0.017441237 0.16066054 0.034438994 -0.15245576
0000c0 17 db 85 3e 6b 35 91 3e c5 24 ca 3d af c0 2c 3d
       0.26143715 0.28361067 0.098702945 0.042175945
0000d0 b8 f3 d8 bb b7 d9 21 be 5d 55 52 bc 3e 0d c1 3d
       -0.0066208504 -0.15805708 -0.012837735 0.09426354
0000e0 9c 38 ca 3d f5 3c 95 3d 1c 59 dc bd 2d 08 77 3e
       0.09874079 0.07287017 -0.10759184 0.24124213
0000f0 c1 f2 41 be 01 15 28 3e 42 c8 81 3e 4c 43 66 3e
       -0.1894026 0.16414262 0.25348097 0.22486609
000100 a9 06 7b 3e 5e 40 47 3e c7 ae 43 3e 6f 6b 1e bd
       0.2451426 0.19458148 0.19109641 -0.038676675
000110 70 f8 45 3e f2 66 d5 3c ff f3 df 3d a6 bf 47 3d
       0.19333053 0.026050065 0.109352104 0.048766755
000120 9a e8 1f 3e 45 bc 72 3e 9d 8b 34 be d1 1c 44 3e
       0.15616074 0.23704632 -0.17631383 0.19151618
000130 5e af 29 be 96 b7 61 be bc 19 f9 bd 8f ae 2d 3e
       -0.16570804 -0.22042689 -0.121631116 0.1696112
000140 1b bd 15 be 95 af 16 be 7f dd 55 3d f9 18 1d 3d
       -0.1462292 -0.14715417 0.05221319 0.038353894
000150 43 03 53 be b2 3d b1 bd 22 eb c9 bb d5 cb 95 3d
       -0.20606713 -0.086543456 -0.006162063 0.073142685
000160 a4 e7 ee bd b0 00 d2 3d 3a ed d4 bd 7c ba 93 bd
       -0.11665276 0.102540374 -0.1039681 -0.072133034
000170 e0 20 87 3c 95 11 f5 bd 27 be b7 3d b0 79 41 be
       0.016495168 -0.11966244 0.089718156 -0.18894076
000180 5f e9 73 3b cc 84 d0 3d 11 69 45 be 1d 1a 10 3e
       0.0037217957 0.10181579 -0.19278361 0.14072461
000190 95 90 39 bd fd b2 b6 bd df 0c b1 bd bc a1 09 be
       -0.0453039 -0.08920858 -0.08645033 -0.13440603
0001a0 d6 7a e4 3c 24 21 58 be 84 41 92 3d dd 21 90 3d
       0.027890604 -0.21106392 0.07141402 0.07037709
0001b0 49 4f 39 3e 63 d1 42 3e 18 ba 96 3e 35 5c 94 3d
       0.18096651 0.19025187 0.29438853 0.072441496
0001c0 de c2 98 3d 44 a7 2a 3e 1e 94 8b 3e 33 f0 e5 bd
       0.07459043 0.1666537 0.27261442 -0.11227455
0001d0 1c b7 37 bd 43 e0 98 be 5c 0e db 3d 4a a1 92 3c
       -0.04485236 -0.29858598 0.10696098 0.017899174
0001e0 7e 2e 09 3e d5 d2 a7 3d bd ed 34 bd 66 8f 13 be
       0.13396642 0.0819451 -0.044172037 -0.14410171
0001f0 20 50 27 be 23 f3 56 3d 87 8f 95 bd 41 d3 ad bc
       -0.16339159 0.052477967 -0.07302766 -0.021218898

read_encoder.block1.1.weight f4 [128]
000000 c7 5c 81 3f e7 33 92 3f 74 8e 79 3f ad 8a 91 3f
       1.0106438 1.1422089 0.9748299 1.1370445
000010 9f 0b 76 3f 8d f3 9d 3f 14 72 77 3f c7 1c 8d 3f
       0.9611148 1.2339951 0.96658444 1.1024407
000020 be 95 85 3f 13 ee 91 3f 74 b8 7d 3f fa be 7b 3f
       1.0436323 1.140078 0.9910958 0.9833828
000030 9c 47 9c 3f 19 57 86 3f 7e 39 87 3f 95 c9 76 3f
       1.2209353 1.049533 1.056442 0.9640134
000040 1b c4 80 3f 0f 9e 85 3f 26 ae 75 3f 55 12 88 3f
       1.0059847 1.0438861 0.95968854 1.0630594
000050 58 84 92 3f 2e 5f 97 3f 2b e4 75 3f de 69 83 3f
       1.1446638 1.1825922 0.9605128 1.0266683
000060 e0 6b 93 3f 51 ad 7c 3f 96 0d 72 3f 4a e6 95 3f
       1.1517296 0.9870196 0.9455198 1.1710904
000070 b0 ea 7a 3f d0 53 90 3f ed 05 84 3f bc bb 7b 3f
       0.98014355 1.1275578 1.0314308 0.98333335
000080 db 16 8b 3f cd 88 87 3f 87 62 76 3f a7 43 80 3f
       1.086635 1.0588623 0.9624409 1.0020646
000090 5b 72 87 3f 48 b0 85 3f 20 69 7b 3f 89 a7 7d 3f
       1.0581774 1.0444422 0.98207283 0.99083763
0000a0 5e 15 7d 3f 51 40 86 3f 4f ae 72 3f b6 eb 7d 3f
       0.9886073 1.0488378 0.94797224 0.9918779
0000b0 96 c2 82 3f fd 78 8c 3f 72 65 77 3f 0f 31 8f 3f
       1.0215633 1.0974423 0.9663917 1.1186846
0000c0 7b 2d 87 3f 40 f9 70 3f 01 d8 8f 3f cc 0f 89 3f
       1.0560755 0.94130325 1.1237794 1.0707946
0000d0 5a 70 7a 3f ca 56 7c 3f 62 0e 99 3f f1 aa 68 3f
       0.97827685 0.9856993 1.1957514 0.90885836
0000e0 21 7a 72 3f b3 0e 80 3f b9 5e 9a 3f 38 86 84 3f
       0.94717604 1.0004486 1.2060157 1.035346
0000f0 af 20 8e 3f 12 7b 81 3f 93 94 86 3f ea f3 78 3f
       1.1103724 1.0115683 1.0514091 0.97247183
000100 95 23 8d 3f d6 ee 90 3f e6 dc 7b 3f f3 17 85 3f
       1.1026484 1.1322887 0.9838394 1.0397934
000110 35 67 6c 3f 69 30 87 3f 45 45 84 3f 84 50 78 3f
       0.9234498 1.0561649 1.0333639 0.9699786
000120 a3 f8 73 3f b3 7e 90 3f 72 fc a2 3f 99 17 89 3f
       0.95301265 1.1288666 1.273329 1.0710326
000130 82 48 92 3f f6 42 81 3f 07 1c 7f 3f d6 17 8a 3f
       1.1428378 1.009856 0.9965214 1.0788524
000140 d5 d9 7e 3f 30 f9 78 3f c9 6a 80 3f 03 e0 69 3f
       0.99551135 0.9725523 1.0032588 0.9135744
000150 05 a7 73 3f 37 7d 76 3f f9 55 6f 3f f6 81 7b 3f
       0.95176727 0.9628481 0.9349056 0.9824518
000160 b1 c7 71 3f 1e 42 8a 3f 64 78 85 3f ab 94 85 3f
       0.9444533 1.0801427 1.0427365 1.0435995
000170 b1 c6 7e 3f 12 7b 7d 3f 3e e8 7b 3f cd 2d 8b 3f
       0.9952193 0.99015915 0.9840125 1.0873352
000180 f1 de 9a 3f 61 db 98 3f d3 19 6a 3f 1f 78 94 3f
       1.2099286 1.1941949 0.91445655 1.1599158
000190 e5 7f 80 3f ab be 6c 3f 72 c0 92 3f 25 f4 7f 3f
       1.003903 0.92478436 1.146498 0.9998191
0001a0 c6 5b 86 3f 1d b3 78 3f 7d cd 80 3f 6a c8 83 3f
       1.0496757 0.97148305 1.006271 1.0295537
0001b0 26 7c 83 3f a1 8f 80 3f 09 b3 82 3f be 3d 7a 3f
       1.0272262 1.0043832 1.0210887 0.9775046
0001c0 8c 10 81 3f f0 bc 8b 3f eb a6 91 3f 04 b5 80 3f
       1.0083175 1.0917034 1.1379064 1.0055242
0001d0 0d 96 69 3f 64 68 86 3f bf 10 89 3f 96 f1 88 3f
       0.91244584 1.0500607 1.0708236 1.0698726
0001e0 d7 01 7f 3f be f9 78 3f 8a 36 77 3f e0 a5 5b 3f
       0.9961218 0.97256076 0.96567595 0.8579998
0001f0 01 10 85 3f db d0 71 3f 9f 7b 7d 3f 98 d9 95 3f
       1.0395509 0.94459313 0.99016756 1.1707029

read_encoder.block1.1.bias f4 [128]
000000 44 a5 63 bc b3 27 37 bc b5 f0 e2 bc 94 1a 91 3b
       -0.013894383 -0.011178899 -0.027702669 0.004428217
000010 b9 be a3 bd b3 30 7b b9 1e 52 31 bd a9 ae 88 bd
       -0.07995362 -0.00023955367 -0.043291204 -0.06673939
000020 83 f6 8b bd cc bf 43 3c e2 cc dd bc 58 c3 60 bd
       -0.06834128 0.011947583 -0.027075235 -0.054873794
000030 f0 05 2e 3c 31 cb 5f bc 70 3f c1 bd 68 bc 0e bd
       0.010621533 -0.013659284 -0.09435928 -0.034847647
000040 01 3d 23 3d 3d f6 2e bc 0f 21 4d bd 76 83 03 bc
       0.0398531 -0.010678825 -0.050080355 -0.008026948
000050 c2 26 0e bc 2d 6a a4 3c 4a a6 1c bd 44 a9 34 bc
       -0.008676233 0.02007016 -0.038244523 -0.011026684
000060 92 2d be bd d8 02 eb bc e2 0c 2e bd ac 70 ac bd
       -0.092860356 -0.02868788 -0.042492755 -0.08419928
000070 a4 22 d1 bc 0e ea 50 bd d8 bd a4 bb bc c8 a4 bd
       -0.025529213 -0.051004462 -0.005027514 -0.080460995
000080 05 9a d3 3a 29 ae c4 bc ee 46 0d bd a7 86 1d bd
       0.0016143924 -0.024008827 -0.034491472 -0.038458493
000090 89 e6 00 be ce e6 ac 3c 73 02 ab bc 38 77 9a bd
       -0.12587942 0.02110615 -0.020875191 -0.075422704
0000a0 60 63 10 bd fa 8e 8d bc 7e 5e 6a bd 12 ef 4a bd
       -0.03525102 -0.01728009 -0.05721902 -0.0495444
0000b0 e9 fa f3 bc af ab 60 3c eb fe 00 bd 0f bc 2b bc
       -0.02978273 0.013712808 -0.03149311 -0.010481848
0000c0 46 28 73 bc ba 64 b6 bd 67 fe 11 bc 2e b7 ce bc
       -0.014841145 -0.08905931 -0.008910752 -0.025233831
0000d0 f7 bf 14 bd 61 49 ac bb 50 78 8c 3c c1 d7 df bd
       -0.036315884 -0.005257771 0.017147213 -0.10929824
0000e0 e2 5c 59 bd 2b 8a 58 3b 22 be 8a bc 7d 11 38 bd
       -0.053067096 0.003304134 -0.016936366 -0.044938553
0000f0 ed 86 21 bd 2d 47 a4 bc 5d 73 47 3d 15 7f e0 bd
       -0.039435316 -0.02005347 0.048694003 -0.10961739
000100 32 f5 1c bb a2 dc 36 bc ad 0e c9 bc b7 84 6c bc
       -0.0023949859 -0.011161001 -0.02454313 -0.014435939
000110 76 1d 93 bd 74 85 8f bc 00 62 b8 bc 4e 89 15 bd
       -0.071833536 -0.01751969 -0.022507668 -0.036507897
000120 90 d9 78 bd 6a 35 6a 3c a2 5f 81 3c 9c 29 7f bc
       -0.06075436 0.0142949615 0.015792672 -0.015573885
000130 9f 67 bd 3b 80 17 86 bd 79 4f c1 bc 5a 99 bb 3c
       0.005780175 -0.06547451 -0.023597466 0.022900272
000140 48 b1 d0 bc 20 04 33 bd 8a ad d9 bd a7 ec 80 bd
       -0.02547516 -0.043705106 -0.10628803 -0.06295138
000150 0f 66 07 bd f8 61 1a bd 3b 50 59 bd 64 de f1 bc
       -0.033056315 -0.037691087 -0.05305503 -0.02952499
000160 3e 53 d0 bc f6 ae 28 bc 60 1b fb bd 5b 56 8f bd
       -0.025430318 -0.01029562 -0.12261081 -0.06998893
000170 39 86 81 bc c9 9e 8c bc 07 5a bd bc 7a 47 86 bc
       -0.015811073 -0.017165558 -0.023114217 -0.016391505
000180 72 f2 a6 3c c2 9f d7 bc 98 2c f1 bd ab 86 a6 bc
       0.020379279 -0.026321296 -0.11776084 -0.020327887
000190 9d 41 37 bd 8d 99 97 bd 03 65 a8 3c 33 b5 5a bc
       -0.044740308 -0.07402334 0.020555979 -0.013348865
0001a0 fd 25 9a bd 39 c1 ef bc 72 5b 62 bd 2c 8c 1c ba
       -0.07526777 -0.02926694 -0.05526299 -0.0005971815
0001b0 e1 21 e6 bb 72 dd cb bc ff 84 9c bd e2 45 cd bc
       -0.0070230816 -0.024885867 -0.076425545 -0.025057737
0001c0 0c eb f2 3b 48 16 2f 3c 74 de e3 3b 00 c9 21 bd
       0.0074132737 0.010686465 0.0069540087 -0.03949833
0001d0 5e 61 bb bd ad 41 e4 bc 44 48 c4 bd 76 7d 8f bd
       -0.09149431 -0.027863348 -0.09584096 -0.07006352
0001e0 ce d3 1b bd db fb 55 bd d9 7d cc bc 4d 10 b0 bd
       -0.03804379 -0.05224214 -0.024962353 -0.08596859
0001f0 7b 6d f1 bc 19 16 55 bd bb e0 a8 bc 3a 50 c0 3c
       -0.02947115 -0.052023027 -0.020614972 0.023475755

read_encoder.block2.0.weight f4 [128, 128]
000000 f2 54 85 3d 92 b1 cc bd af 9c 4e bd 67 c2 a8 3d
       0.06510343 -0.09994806 -0.050442394 0.08240204
000010 7c 2c 11 3d 60 b7 f7 3c 0e e4 dc 3c 5b cd e4 3c
       0.035442814 0.030238807 0.026964214 0.027929952
000020 cb df b4 bd 2f 34 06 3d e9 f6 31 3c f3 d1 31 bc
       -0.088317476 0.03276461 0.010862091 -0.010853278
000030 e5 b1 20 3e 67 d5 2c bd 32 72 98 3d f2 c2 67 bd
       0.15692861 -0.042195704 0.07443656 -0.0565824
000040 54 9c 06 bd da c7 73 3d bc fb 70 bd bd 1b 09 3d
       -0.03286393 0.059516765 -0.058833823 0.03347372
000050 09 a1 41 3d ed a6 03 be 13 63 8e bd 6e 6f 36 3d
       0.047272716 -0.12856646 -0.06952491 0.04453986
000060 ef 0b 9e 3d 4c 00 3d bc e6 ac 62 3d 64 71 81 3c
       0.0771712 -0.011535715 0.05534067 0.01580114
000070 c8 b3 8b 3c 7c 80 40 bd 77 20 c0 3d 18 8f 4c 3d
       0.0170535 -0.046997532 0.09381192 0.049941152
000080 f3 33 a9 3c bd 90 df 3d be 4c a4 bd f0 d9 03 3d
       0.020654654 0.109162785 -0.0802245 0.032190263
000090 a9 8c 3e bd 68 0c b6 3b 99 25 84 3c 9b 1f 1f 3d
       -0.046520863 0.005555678 0.01613121 0.0388485
0000a0 30 4a 84 3b d0 4e 2e bd 14 bd 44 bd 4e 7e 44 3c
       0.004037164 -0.04255563 -0.04803188 0.011993004
0000b0 ab 5d e1 bc 69 be 81 bd e2 47 af 3d 46 6a 22 3d
       -0.027510485 -0.06335146 0.085586324 0.03965213
0000c0 f2 29 da bd 6b 4c 4d 3d 53 05 48 3d fb 8d a5 bd
       -0.10652532 0.050121706 0.048833203 -0.08083721
0000d0 f8 5a 31 3d 87 93 2a bd 46 6a f7 bc 98 f9 a7 3d
       0.043299645 -0.0416446 -0.030202042 0.08201903
0000e0 11 21 5b 3d 82 ed 7f 3d 5c 1d 21 bd f7 75 94 3c
       0.05349833 0.062482364 -0.03933464 0.018122656
0000f0 7d 07 8f 3d e0 27 3f 3d e1 96 f9 bc 8b 98 77 3c
       0.0698385 0.046668887 -0.030467452 0.015112053
000100 a2 d4 76 bd 13 f3 c2 bd c5 67 97 bd 42 33 3a bd
       -0.060261376 -0.09519019 -0.07392839 -0.04545904
000110 53 ec 52 bd 2b 5d 00 3e c7 df ff 3b 01 fc 87 bd
       -0.051494908 0.12535541 0.0078086588 -0.06639863
000120 0f 03 3b bd 2e 66 52 3d c4 1e 63 3c bd 14 c0 bb
       -0.045657214 0.051366977 0.013862316 -0.005861847
000130 1a d2 65 3c 24 68 ec bb ad 51 a7 3b 9f 4a 8b bc
       0.014027143 -0.007214563 0.005106172 -0.017003356
000140 af 66 73 3d 20 0b 62 3d 5d b2 9e 3d 5a f8 04 bb
       0.0594241 0.05518639 0.07748864 -0.002028963
000150 a5 e8 21 bd 10 72 ea 3b 4b f2 1a bd 72 7a b1 3c
       -0.039528508 0.0071547106 -0.037828725 0.021664832
000160 b3 35 80 bc 10 4b d6 bc e1 86 96 bd 21 87 f1 3c
       -0.015650606 -0.02615884 -0.07349945 0.02948338
000170 09 ea a7 3d 4f c6 98 3d 62 2e b8 bc 82 5c 6b 3d
       0.081989355 0.07459699 -0.022483055 0.05746127
000180 bc d6 0c 3d 86 f1 4e bd 84 16 49 bd 13 c1 8b 3d
       0.034384474 -0.050523303 -0.04909374 0.06823935
000190 74 b5 7d bd 7e 27 68 3d 18 14 12 3d 19 0c 2a 3d
       -0.061940625 0.056678288 0.035663694 0.041515443
0001a0 ae 60 8e 3d e5 0d 03 3d 68 01 54 3d bd 1e 29 3d
       0.06952034 0.031995673 0.051759154 0.04128908
0001b0 82 3a 5c bd 12 e2 9e bd 9b a2 84 bb 49 e6 3e 3d
       -0.053766735 -0.07757963 -0.0040477044 0.046606336
0001c0 fc 0b 89 3d f0 83 ab 3d 9d de b2 bd 46 22 74 bc
       0.06691739 0.083747745 -0.08733866 -0.01490075
0001d0 63 25 7d bd 58 b3 8a 3d 94 6a 54 bd 4b 25 e6 bc
       -0.061803233 0.06772488 -0.051859453 -0.028093955
0001e0 62 2f a5 3d 9e ee 55 3c 90 46 13 bd cb 08 81 bd
       0.08065678 0.013057379 -0.035955966 -0.06300505
0001f0 b2 69 3c bd dd 6a 9e 3d ea b7 99 bd 23 82 80 3d
       -0.045999236 0.07735226 -0.07505782 0.062748216
000200 c4 84 ae 3d 77 86 33 3b f8 6e 6c 3c 09 8d b0 3d
       0.08521417 0.002739338 0.014430754 0.0862065
000210 53 74 22 3d 21 e4 b6 3d 9c af 96 3d 9f a8 82 bd
       0.039661717 0.08930231 0.073577136 -0.06379818
000220 0f 01 31 3d 19 a9 2b 3d 0f ca 34 bd 2f 59 34 3d
       0.0432139 0.04190931 -0.04413801 0.044030365
000230 5a cf d4 bc 8d e9 b6 bc 01 13 2d 39 24 76 ac bb
       -0.02597778 -0.022328163 0.00016505645 -0.005263107
000240 d3 ab 80 bb 5c 24 5c bd c2 da 43 3d 83 87 bd 3d
       -0.003926733 -0.053745613 0.047816046 0.092543624
000250 cc 8d ba bc 80 95 47 bd 4c ce 36 3b 24 da 90 bd
       -0.022772692 -0.04872656 0.0027893959 -0.07072857
000260 c3 ba 75 bd a4 77 f4 bc a0 25 64 3d fd 47 8f bd
       -0.059992563 -0.029842205 0.055699944 -0.069961525
000270 60 6e 93 bc 7f 4e 51 bd 2f 65 a4 bd e2 3a a1 bb
       -0.017996967 -0.05110025 -0.08027112 -0.0049203495
000280 6f 23 f6 bc 14 03 74 3c 1c e5 77 3d 68 2d 2d 3d
       -0.030046193 0.014893312 0.06052123 0.04227963
000290 5f ee 25 3d 37 20 34 3d e2 28 b3 3b 8f 83 54 3d
       0.04051053 0.043976035 0.00546752 0.051883277
0002a0 b7 a3 1b bd 6c 7a 7b 3d 04 e4 29 3d 45 40 f2 bc
       -0.037997928 0.061396047 0.04147722 -0.029571662
0002b0 f1 c0 68 bb f1 ce 9c bd f6 f8 8a bd ea d2 d6 3c
       -0.0035515393 -0.076566584 -0.06785767 0.026223619
0002c0 06 01 8d 3c 67 76 f2 bc 13 02 1f 3d 88 c6 84 bd
       0.017212402 -0.029597474 0.038820338 -0.06483179
0002d0 7e ee 2d bd 2f f0 a3 3d 47 77 95 bd 7d 27 5e 3c
       -0.042463772 0.08004796 -0.07298141 0.013559219
0002e0 d2 db 96 3d 6d db b3 3d 38 c5 9c 3c 40 47 8e bd
       0.07366146 0.087820865 0.01913701 -0.069471836
0002f0 9d e0 25 3d 32 50 9b bc 4b b2 0d bd 12 10 84 3d
       0.04049741 -0.018959139 -0.03459386 0.06448378
000300 fe 55 94 bd 73 f6 bf bd 0b b4 83 bd 96 e3 8f 3d
       -0.07242964 -0.09373178 -0.06430825 0.070258304
000310 dd 89 9b 3b 22 85 00 3e 7d 5c 88 3c 48 8c a0 bd
       0.004746659 0.12550786 0.016645664 -0.078392565
000320 1b c3 d6 3c 5d da 49 3d 22 9d 6a 3d 85 0a 12 3d
       0.02621608 0.049280513 0.05727876 0.035654563
000330 96 0d 19 bd 5b c6 3f bd a4 31 81 3d e9 b0 3a bd
       -0.037366472 -0.046820026 0.06308296 -0.04557887
000340 84 15 be 3c ef 81 f9 bb bd f3 80 3c d7 a4 6c 3c
       0.023203619 -0.0076143662 0.015741223 0.014443598
000350 2e b3 8b bd 75 b7 f4 bc a4 4e dd 3d 41 b1 3c 3c
       -0.06821285 -0.029872635 0.10806015 0.01151687
000360 a3 64 26 3d 2e ab b9 bd 13 4b 72 3d 8c 20 ee bc
       0.04062332 -0.09065853 0.059153628 -0.029068254
000370 b5 19 49 bc 60 16 fc 3c 84 78 56 bc e0 83 28 bc
       -0.012274195 0.030772388 -0.013090257 -0.010285348
000380 ca d5 71 bb 2e 3f 1f bd d6 c5 02 bd 02 3a 66 3d
       -0.003690111 -0.038878612 -0.031926952 0.056207664
000390 f6 a4 83 bd 04 e3 55 3d 61 eb a6 3d ce 98 f7 3c
       -0.06427948 0.052218452 0.08150364 0.03022423
0003a0 a5 34 de bc 79 9a a4 bd 42 ae 6d 3d 70 d5 bc 3d
       -0.027124712 -0.08037276 0.058027513 0.092203975
0003b0 42 cf 70 3d 3b 51 26 bb cf 7a e8 3c f3 da b2 3d
       0.058791406 -0.0025378007 0.028378872 0.087331675
0003c0 b0 80 4c 3d ea e9 51 bd ee 5f 53 be c4 93 19 3d
       0.049927413 -0.05124847 -0.20642063 0.037494436
0003d0 3b 11 21 3d f1 4e 9e 3d 85 7e 64 bd 07 fe 82 3c
       0.039323073 0.07729901 -0.05578472 0.01599027
0003e0 97 4b 9e bc de e7 8f bc 68 61 42 3d 14 69 af bd
       -0.019323153 -0.017566618 0.047456175 -0.08564964
0003f0 63 03 9a 3d 58 71 40 3d 4f 24 38 bd 78 f6 37 3d
       0.07520177 0.046983093 -0.0449565 0.044912785

read_encoder.block2.0.bias f4 [128]
000000 04 5b 9a 3d 7c 89 7b bd 1a 4b 3a 3d 8d a1 32 3d
       0.07536891 -0.061410412 0.04548178 0.043611098
000010 3f a5 7d 3d de c2 d8 bb 1f 56 4b bd 38 fa df 3b
       0.06192517 -0.006615027 -0.04964268 0.0068352483
000020 ae 4e b4 bc 6f 39 39 3d bc ce 64 bd 76 a0 ad 3d
       -0.022010174 0.04522079 -0.05586122 0.08477871
000030 00 42 35 bc 50 a6 3e 3d ee 46 e9 bc bd 68 87 bc
       -0.011063099 0.046545327 -0.028476205 -0.016529435
000040 8a 73 d5 3c ea a8 98 bd f6 2c 2d 3d b2 22 b5 3d
       0.02605607 -0.07454093 0.042279206 0.08844508
000050 02 da 6a bd fc 6f c1 3c d7 ec 7a bd 82 e0 da 3b
       -0.057336815 0.023612969 -0.061261024 0.0066795954
000060 b5 da 23 bd ed 9c 77 bd 91 c5 80 3d bf f1 80 3d
       -0.040003497 -0.06045239 0.06287683 0.062961094
000070 42 27 96 3c 23 f4 05 3d ae ba 34 bd 92 30 85 3d
       0.018329266 0.03270353 -0.044123344 0.06503405
000080 5c d6 9d bd f7 96 a3 bc 60 16 9b bc 0d 81 15 bd
       -0.077069014 -0.019969447 -0.018931568 -0.036500026
000090 bc 67 81 3d 53 23 88 3d 3c d2 1a 3d 15 e0 0b bd
       0.06318614 0.066473626 0.03779815 -0.03414925
0000a0 ef f0 6d bd 50 e1 c0 bc 43 b7 a5 bc 37 58 5c 3c
       -0.0580911 -0.023544937 -0.020228988 0.013448766
0000b0 ac c9 0a 3d 18 d5 b2 3d 73 9b 9a 3d d1 98 95 bd
       0.033883736 0.08732051 0.07549181 -0.07304538
0000c0 cf fb 82 3d c4 25 ac bd 2b d3 61 3c 0e 1e 2b 3c
       0.06395685 -0.08405641 0.0137832565 0.010444177
0000d0 f2 80 4f bc 0a e3 ab bc 25 ba 0c bd 80 57 53 3d
       -0.01266502 -0.020982284 -0.03435721 0.05159712
0000e0 81 ec 5c bd ba 5e 03 3d 41 64 34 3d 1c 34 bd 3d
       -0.053936485 0.03207276 0.044040922 0.09238455
0000f0 fa bf 3c 3c d4 0d 96 3d 8c f4 6d bd 83 9e 00 bd
       0.01152038 0.07326856 -0.058094546 -0.03140117
000100 12 14 98 bd df 04 ac b6 3a 70 0d bd 74 c6 4c 3d
       -0.07425703 -5.1265665e-06 -0.034530856 0.049993947
000110 ad eb 28 bd 4c d7 29 bb c6 c3 9f 3d f6 c7 b7 bd
       -0.041240383 -0.002591568 0.07801013 -0.089736864
000120 c7 23 0b 3d 41 6b 75 bd bb a0 3c 3d f0 f1 f5 bc
       0.033969667 -0.05991674 0.046051722 -0.030022591
000130 2b 46 45 bd e6 9a b1 3c e8 76 ea 3b c2 a8 b7 3c
       -0.04816262 0.021680307 0.007155288 0.022419337
000140 99 d3 3c 3d 4a 66 38 3b 0e d2 f5 bc 75 f9 a5 3d
       0.046100233 0.002813714 -0.030007388 0.08104221
000150 ab 03 0d bb 62 54 90 3d 3d e9 4d 3d 28 a2 bd bd
       -0.002151708 0.07047345 0.05027126 -0.092594445
000160 a2 30 c5 bc dd 55 38 3b 35 4c ac bd a2 ec e4 3c
       -0.024071041 0.002812735 -0.08412973 0.027944867
000170 1c 3d 20 bd 98 c1 16 bd 8f ed 8a 3d 20 52 2c 3d
       -0.03912078 -0.03680572 0.06783592 0.042070508
000180 99 be d1 3d c9 c4 41 bb 6e f6 c9 bc 47 eb 77 bd
       0.10241432 -0.0029566756 -0.02465364 -0.060527112
000190 63 b9 e2 3c 25 ee 9d 3d 13 12 25 bc 43 4c b8 bc
       0.02767629 0.07711438 -0.01007511 -0.022497302
0001a0 b7 fc 93 3d fd 62 0f 3c 23 29 ab 3b d2 a1 9c 3d
       0.07225936 0.008751628 0.0052234097 0.07648052
0001b0 d7 5c b6 3d a2 84 98 3d 3c 78 c5 bd 0c d8 e4 3c
       0.089044265 0.07447173 -0.096420735 0.02793505
0001c0 41 e6 8d 3d 76 d7 a5 3d c6 3b ad bd 54 1e 9a 3d
       0.06928683 0.080977365 -0.084586665 0.07525316
0001d0 fc bf f0 bb 86 d7 1c bd 43 15 58 bd 66 91 3b bd
       -0.007347105 -0.038291477 -0.05275465 -0.04579296
0001e0 ca d7 fd ba b8 ca 5b 3c fc e5 4b bc 95 09 85 3d
       -0.0019366678 0.013415031 -0.012444969 0.06495968
0001f0 cf c2 61 bd 8e 8b 9b 3d e9 3b b2 bd 3e 04 14 3d
       -0.055117425 0.07594977 -0.08702833 0.03613686

read_encoder.block2.1.weight f4 [128]
000000 61 2b 7f 3f 37 ea 7d 3f 6f fd 7e 3f 8b f6 7f 3f
       0.99675566 0.9918551 0.9960546 0.9998557
000010 46 fd 77 3f ac b1 82 3f 62 1b 7e 3f e5 c0 7d 3f
       0.9687084 1.0210471 0.9926053 0.9912246
000020 67 e0 82 3f 53 98 7d 3f 73 64 86 3f d2 2d 7a 3f
       1.0224732 0.99060553 1.0499405 0.97726166
000030 3a d8 86 3f 0f a2 87 3f c9 38 7a 3f bf 80 7c 3f
       1.0534737 1.0596331 0.977429 0.9863395
000040 e0 6e 91 3f 65 45 7c 3f af f3 6e 3f 3e ea 7c 3f
       1.1361961 0.9854339 0.9334058 0.98794925
000050 bc 08 80 3f f5 fc 7a 3f de de 7d 3f b6 8c 79 3f
       1.0002666 0.9804223 0.99168193 0.9748033
000060 b4 63 82 3f 00 41 83 3f b5 0c 79 3f 44 00 8a 3f
       1.0186677 1.0254211 0.97285014 1.0781331
000070 c3 61 7d 3f 7f bb 7b 3f ae ca 70 3f d9 b8 82 3f
       0.989773 0.9833297 0.94059265 1.0212661
000080 81 2a 89 3f fd 03 7c 3f 8d 1f 7a 3f a4 b1 72 3f
       1.0716096 0.98443586 0.9770439 0.9480231
000090 84 75 79 3f b9 d8 7f 3f 3f 0e 8a 3f b2 71 79 3f
       0.9744494 0.9994007 1.0785598 0.9743911
0000a0 ad 0e 7e 3f 8b bf 80 3f 04 11 7d 3f 0e 42 79 3f
       0.99241143 1.0058454 0.9885409 0.97366416
0000b0 6c 37 85 3f 63 8a 89 3f 78 32 7d 3f 5e 88 77 3f
       1.0407538 1.0745357 0.98905134 0.96692455
0000c0 1b 4a 7a 3f 8f 8a 7c 3f d2 fe 7d 3f 96 b2 7a 3f
       0.97769326 0.98648924 0.9921695 0.9792875
0000d0 cd 8c 84 3f 0b 85 84 3f 5f a2 76 3f 93 b1 76 3f
       1.0355469 1.0353101 0.9634151 0.96364707
0000e0 35 a1 7b 3f 69 ca 6d 3f 25 f8 80 3f 4f f1 7a 3f
       0.9829286 0.9288698 1.0075728 0.9802446
0000f0 d0 87 76 3f d6 c2 7a 3f 70 52 96 3f de e1 66 3f
       0.96300983 0.97953546 1.1743908 0.90188396
000100 6f 1e 99 3f 98 01 77 3f 86 0f 86 3f 53 69 83 3f
       1.1962413 0.96486807 1.0473487 1.0266517
000110 d8 f4 7a 3f df ae 8e 3f bf 23 7e 3f 08 1c 85 3f
       0.9802985 1.1147116 0.99273294 1.039918
000120 0d c0 7f 3f 00 c4 88 3f fa 27 82 3f 70 fd 91 3f
       0.9990242 1.0684814 1.016845 1.1405468
000130 3f b8 8f 3f 84 70 7c 3f 2a 37 80 3f da 91 7c 3f
       1.1228102 0.98609185 1.0016835 0.9866005
000140 97 3e 81 3f 06 c6 70 3f ee d3 6f 3f e7 6b 86 3f
       1.0097226 0.9405216 0.93682754 1.0501679
000150 1c 94 80 3f 77 be 72 3f f6 34 7b 3f f8 b8 7c 3f
       1.0045199 0.94821876 0.98127687 0.9871974
000160 17 8e 80 3f ff 9c 78 3f f2 3b 7e 3f 3b cf 7d 3f
       1.0043362 0.9711456 0.9931022 0.99144334
000170 4b 81 7d 3f 59 3b 83 3f a1 1c 76 3f d3 0c 7c 3f
       0.9902541 1.0252486 0.96137434 0.9845707
000180 85 72 81 3f 69 9a 88 3f 50 ff 7b 3f a7 46 83 3f
       1.0113074 1.0672122 0.9843645 1.0255936
000190 86 ad 96 3f f3 08 86 3f 85 83 7b 3f 62 88 8a 3f
       1.1771705 1.0471481 0.9824756 1.0822871
0001a0 53 88 81 3f a0 05 7f 3f 3c 83 7e 3f a8 18 88 3f
       1.0119728 0.9961796 0.99419 1.0632524
0001b0 f7 b2 7d 3f 2a 65 7c 3f 4f 75 89 3f b6 06 7b 3f
       0.99101204 0.98591864 1.0738925 0.98057115
0001c0 ea f3 92 3f 53 72 79 3f 63 39 7c 3f 40 7a 79 3f
       1.1480687 0.9744007 0.98525065 0.97452164
0001d0 f2 c8 78 3f b9 d1 7d 3f cb 9d 7a 3f f2 37 83 3f
       0.9718162 0.99148136 0.9789702 1.0251448
0001e0 46 7e 82 3f 89 a2 75 3f 58 6d 99 3f 1c a2 79 3f
       1.0194786 0.95951134 1.1986494 0.97512984
0001f0 1a 0c 85 3f 97 73 7b 3f f8 55 86 3f b1 ec 80 3f
       1.0394318 0.9822325 1.0494986 1.0072232

read_encoder.block2.1.bias f4 [128]
000000 0b 4d 95 bb 63 b3 b1 bb b5 d9 30 bd ff 15 fa bc
       -0.0045563034 -0.005422996 -0.04317637 -0.030528067
000010 51 07 70 bd 03 87 99 bc 1d a0 41 bd 64 e2 02 bd
       -0.058600727 -0.018741136 -0.047271837 -0.031954184
000020 3a 6c 63 bc f6 06 af 3a 34 e7 80 bc 30 5d a7 bc
       -0.013880784 0.0013353515 -0.015735246 -0.020430177
000030 1c f5 8e bb c6 c6 66 bd 42 07 e4 bc c2 0c 82 bc
       -0.0043627154 -0.05634191 -0.027835492 -0.015875224
000040 9b 2a dc bc dc e9 57 bc b7 11 7e bd d1 b7 e0 bb
       -0.026875785 -0.013178315 -0.062028613 -0.00685785
000050 50 30 54 bc 5d fa e4 bc 19 b9 0c bd 24 4b 0a bd
       -0.012950972 -0.027951414 -0.03435621 -0.033763066
000060 07 5c 03 bd 86 fc d0 bc 6a 54 64 bd 9a 0a ee bc
       -0.032070186 -0.025511038 -0.055744566 -0.02905779
000070 3b dc be b9 5f f5 97 bc 84 46 81 bd cb 7b 5f bd
       -0.00036403709 -0.01854962 -0.06312278 -0.054561418
000080 32 0e 31 bc f9 f1 a6 bc f3 7c 4a bc a0 56 4d bd
       -0.010806607 -0.020379053 -0.012358892 -0.05013144
000090 6d 98 1c bd 1b 9c e0 bc 21 56 e0 bc 7f dc de bc
       -0.038231302 -0.027418187 -0.02738482 -0.02720475
0000a0 4d 58 56 bc ed e2 7c bd 68 88 88 bb 92 0c ff bc
       -0.013082576 -0.06173985 -0.0041666515 -0.031133924
0000b0 8a e2 dc bc aa 42 32 bc 33 a0 d0 ba e7 93 24 bd
       -0.026963491 -0.010880152 -0.0015916884 -0.040180113
0000c0 59 45 ca bc 0f 07 95 bc 63 8d e0 bb da 2f f1 bc
       -0.02469127 -0.018191842 -0.006852792 -0.029441763
0000d0 e6 cf 74 bc 90 c0 a1 bc 9f 1d 80 bd 49 a6 10 bd
       -0.014942145 -0.019745141 -0.0625565 -0.035314832
0000e0 09 8c f6 bc db d9 70 bd 94 a6 07 bd e2 76 01 bd
       -0.03009607 -0.058801513 -0.033117846 -0.031607516
0000f0 10 82 fa bc 95 a8 b5 bc 21 8e a1 3c 4e ad 4b bd
       -0.030579597 -0.022175113 0.019721093 -0.049725823
000100 d3 eb 19 bb d8 86 f0 bd 0d a3 77 bd be d2 17 bd
       -0.002348651 -0.117444694 -0.06045823 -0.037066214
000110 75 2a dd bc cb 51 0e bd 38 35 32 bc 55 6d 24 bd
       -0.026997784 -0.034745973 -0.010876946 -0.04014333
000120 a7 b0 81 bc be fc 0c bd 55 a8 09 bc e0 6e ab bc
       -0.015831305 -0.03442072 -0.00840195 -0.020926893
000130 cf 5a 89 bb fa 1b eb bb 5a 03 13 bc 60 cc b7 bc
       -0.0041917334 -0.007174966 -0.008972967 -0.02243632
000140 8a eb a8 bc 15 c1 94 bd 55 19 3a bd 68 db 36 bd
       -0.020620126 -0.0726339 -0.045434315 -0.044642836
000150 23 c7 54 bd ad 37 f0 bd 08 c7 c7 bc 5e 7b a0 bc
       -0.051947724 -0.11729369 -0.024386898 -0.019590076
000160 a3 ae ef bb ee b2 24 bd 49 70 8a bd 1f 06 33 bc
       -0.0073145195 -0.040209703 -0.06759698 -0.010926752
000170 9c 45 d5 bc 68 dd 1d bd 26 1b 0d bd 02 3f 1d bc
       -0.026034169 -0.038541228 -0.03444972 -0.009597542
000180 a8 e6 89 bc cd f4 4c bc 46 a9 aa bc d1 5b 89 bc
       -0.016833618 -0.012509537 -0.020832669 -0.016767414
000190 e0 57 f6 3b 11 8e bf bc bd 7c 93 bc a5 4c 81 3b
       0.0075177997 -0.023383172 -0.018003816 0.0039459043
0001a0 4d 2d 32 bd 01 3c cd bb f3 1c a5 bc 39 5c 92 bd
       -0.043500233 -0.0062632565 -0.020155406 -0.07146496
0001b0 9a 02 cd bb b4 4b be bc b4 dd 90 bd da c1 0b bc
       -0.0062564136 -0.023229457 -0.070735365 -0.0085301045
0001c0 aa 54 e2 ba 09 98 fb bc ee d4 0c bd 2d b1 32 bc
       -0.0017267663 -0.030712144 -0.034382753 -0.0109065
0001d0 36 32 17 bd a3 44 02 bd 7c 49 b9 bc f7 aa 38 bd
       -0.03691312 -0.03180374 -0.022618048 -0.04508492
0001e0 b4 0f 43 bc f8 de 8d bd fd 3b d5 bb 85 50 b7 bb
       -0.011905599 -0.069272935 -0.0065073953 -0.0055943155
0001f0 dd fd 9d bd c2 83 01 bd 81 07 33 bd fa e1 cc bc
       -0.07714436 -0.031619795 -0.04370833 -0.025010098

read_encoder.block3.0.weight f4 [128, 128]
000000 e1 59 87 bd e1 ed f8 bc 24 e3 d9 3d 23 4e e6 bd
       -0.0660894 -0.030386867 0.10639027 -0.11245372
000010 33 7d f5 bc bd 27 a4 bd cc 7c 2a bd 7d 1f d4 bc
       -0.029966926 -0.08015392 -0.04162292 -0.025893921
000020 7f 98 4b 3d 94 a7 80 3b 9d b7 a7 bd cf 15 94 3d
       0.04970598 0.003926227 -0.08189318 0.07230722
000030 18 33 4b 3d 77 a3 80 3e 0d 96 61 3d e0 b3 25 3c
       0.049609274 0.25124714 0.05507474 0.010113686
000040 bd 96 dd bd ce e2 64 bd 11 56 88 3d 8a 12 86 3b
       -0.10819767 -0.05588036 0.06657041 0.0040915655
000050 16 1b a6 3c 50 4d af 3d fd e9 29 3d 98 fc 85 bd
       0.020276587 0.08559668 0.041482914 -0.06542319
000060 6e 48 f5 3c e0 bf b9 3b 33 db f3 b8 c5 81 5a bb
       0.029941764 0.0056686252 -0.00011627972 -0.0033341509
000070 bb a8 56 3d f2 3d 16 3e 3c ec ff bc cd 0d ab bd
       0.052407008 0.14672068 -0.031240575 -0.08352242
000080 d5 b6 58 bd 8b 89 1a 3d 9c 50 84 bd 34 f7 21 bd
       -0.052908737 0.037728827 -0.064606875 -0.039542392
000090 0d ad 4a bd bd 18 00 bd d0 3f 96 3d 0c aa d6 3b
       -0.04948144 -0.031273592 0.0733639 0.006551033
0000a0 18 09 b9 3c 07 9c 9e bd c5 07 d0 bc fc 59 06 bd
       0.022587344 -0.077446036 -0.02539433 -0.03280066
0000b0 f3 78 e5 bd d4 b3 a2 3c 76 36 28 bd 4b 5b 13 3d
       -0.1120471 0.01986114 -0.041067563 0.035975736
0000c0 38 56 87 bd 0b 10 39 3c 3d ea 96 3d f7 65 bd bc
       -0.06608242 0.011295329 0.07368896 -0.02311991
0000d0 78 01 94 ba da 47 c7 bd a6 da 94 ba 7f 1b ad 3d
       -0.0011291942 -0.097305015 -0.0011356666 0.0845251
0000e0 7c 88 62 3c b9 05 ef 3d ba e7 2b 3d 8c 96 02 bc
       0.013826486 0.116710134 0.04196904 -0.0079704635
0000f0 0e 7d 03 be 5e a1 cb 3d 62 6d 98 3d 51 69 34 bd
       -0.12840673 0.09942888 0.07442738 -0.04404575
000100 d3 8d fe bd d4 85 d9 3d 76 75 1a bc ae 1a e8 3c
       -0.124293946 0.10621229 -0.009427419 0.028333034
000110 a1 ba 50 bd a5 1a 95 3c 1f 22 71 37 12 14 c9 3d
       -0.050959233 0.018201182 1.4372664e-05 0.09818281
000120 7f 25 b9 3d 43 f6 32 bc 7f ab cb bd 4a fb 1d bc
       0.09040355 -0.010922971 -0.0994482 -0.0096424315
000130 b3 f5 8a bd 7e 7c fe bd 6a c7 9d 3d 89 63 c3 3c
       -0.06785145 -0.12426089 0.07704051 0.023851173
000140 5d bb c8 3d e5 45 01 3a 61 50 76 bd a2 44 9d bd
       0.09801362 0.00049313746 -0.06013525 -0.07679106
000150 d9 bf 61 3d cc 23 ab bd 5e 3a 36 bc 64 9e 91 3c
       0.0551146 -0.08356437 -0.011122314 0.017775722
000160 76 47 92 bd 65 e3 ca 3d 85 39 99 bd b9 fc ac 3c
       -0.07142536 0.09906653 -0.07481674 0.021116601
000170 18 32 27 bd 99 25 65 3d 78 63 fe bc b8 86 03 3d
       -0.040819257 0.05594406 -0.03105329 0.0321109
000180 19 23 6b 3d 63 3c be 3d 9c f0 a8 3d 65 8c 90 3c
       0.05740652 0.092888616 0.082490176 0.01764507
000190 e9 df 03 be 53 b6 7d 3c bb 75 6e 3d d3 8e c9 bd
       -0.12878384 0.015485364 0.058217745 -0.09841695
0001a0 35 16 24 be a7 1b 59 3d d4 46 95 3c 4d 4c 50 3e
       -0.16024096 0.053004887 0.01822225 0.20341606
0001b0 7f 46 28 bc 5a 1d 9a bd 6b d4 f5 bc ed 3d b3 bd
       -0.010270714 -0.075251296 -0.030008515 -0.08752046
0001c0 fc 42 db bd 82 b5 f0 bc d6 27 1c 3e e8 56 7c 3d
       -0.10706136 -0.029383425 0.15249571 0.061606318
0001d0 b3 77 14 3d a4 6d 0e bd 3b 96 64 ba c9 a4 10 3d
       0.036246967 -0.03477253 -0.0008719896 0.0353134
0001e0 c7 62 67 bd 1b 8c cb 3d f4 3a 47 3c 65 81 75 bd
       -0.056490686 0.09938832 0.012160052 -0.059937853
0001f0 bd 6b 3f bd 74 02 86 bd 62 e6 19 3c f2 54 a5 bd
       -0.046733607 -0.06543437 0.009393306 -0.08072843
000200 86 b0 00 3d 3c d2 d8 3b 79 5d 85 3c 79 00 8a bd
       0.031418346 0.0066168588 0.016279923 -0.067383714
000210 e3 ea a7 bb 5f 50 55 3d ac 2a 89 3c b4 6e bb 3b
       -0.005124436 0.0520786 0.01674398 0.005719984
000220 8a db 23 bd 38 3f 30 bd eb e6 fc bc 92 81 2b 3d
       -0.04000429 -0.04302904 -0.030871829 0.041871615
000230 76 6a 0b bd 48 39 e0 3c 1a 9f 84 3d f4 44 9c bd
       -0.034037076 0.027371064 0.06475659 -0.07630339
000240 c7 f8 96 3d f0 17 c8 3c d2 57 54 3d b9 f4 2f bd
       0.07371669 0.024425477 0.051841564 -0.042957995
000250 a4 7b 92 3d 1f bb 34 bd ac a2 06 bd 61 ca 2e 3d
       0.07152489 -0.044123765 -0.03286998 0.042673472
000260 8c 11 1f bd 43 d1 87 3d 54 e7 13 ba e6 d5 02 bd
       -0.038835093 0.066317104 -0.00056420756 -0.03194227
000270 dc bd 91 bd da 21 0d 3d 0d f8 95 bd 90 6a 5c 3d
       -0.07116291 0.03445611 -0.073227026 0.053812563
000280 72 60 df 3d d5 b6 7b 3d 9e e4 72 bd 62 61 38 bc
       0.10907067 0.06145366 -0.059300058 -0.011253687
000290 5a 8a 9f 3d 6d a4 43 bc 8a d6 c2 3c d8 0a c0 3b
       0.0779006 -0.011941058 0.02378394 0.0058606677
0002a0 23 f2 80 bc 86 f4 56 bd ee ba 6a 3d 3c a1 c7 b8
       -0.01574046 -0.05247929 0.057307176 -9.519092e-05
0002b0 7d c9 8b bc bd 0d 6f 3d cd e5 3e bd 4c a5 6c ba
       -0.01706385 0.05836271 -0.046605874 -0.00090273167
0002c0 a1 d6 a9 3d 0d b0 92 3c ac 60 36 3d 9a 43 10 bd
       0.0829289 0.017906213 0.044525787 -0.03522072
0002d0 8c fc 3d 3d 36 e2 c2 bc 77 36 a9 3d b1 33 6f bc
       0.046383426 -0.023789506 0.082623415 -0.014599727
0002e0 55 ad 50 bd de 36 5a bb 8a cf ab 3d 31 da 9a 3d
       -0.050946552 -0.0033296864 0.08389194 0.07561148
0002f0 f5 8b 1c 3d 74 ee 98 3d 0c 13 87 bb f8 fa ee bb
       0.03821941 0.07467356 -0.0041221436 -0.0072931014
000300 0d b4 e9 3d b3 c3 d3 bc dc 4b a9 3c e7 24 04 3b
       0.11411295 -0.025850153 0.020666055 0.0020163597
000310 16 ba 82 3c 8f ce fc bc 88 1f 19 3c 06 7d 78 bc
       0.015957873 -0.030860214 0.009345897 -0.015166527
000320 b8 be 68 3a 82 07 0d 3e 9a d1 5f 3d a6 ea a2 bc
       0.0008878517 0.13772395 0.05464325 -0.01988728
000330 7a 84 de 3c 82 1a 7c bb 49 43 83 3d e8 6a 75 bc
       0.02716278 -0.0038467948 0.06409318 -0.014979102
000340 6f 28 97 bc e7 3a 1d bc 81 e8 1d bd bd f1 72 bd
       -0.018451897 -0.009596563 -0.03855181 -0.05931257
000350 8a 6f 92 bd f8 21 c6 3c 6a 15 57 3d b0 3f 09 3c
       -0.07150181 0.02418612 0.052510656 0.008377001
000360 33 1c 9d 3d d5 08 bf bc 00 64 7e 3d 3e 1f b2 bc
       0.07671394 -0.023319641 0.062107086 -0.021743413
000370 7e d3 dc bb 51 f4 e2 3b a8 86 ac bd c5 eb 0f 3d
       -0.006739079 0.0069260974 -0.08424121 0.035136957
000380 94 dd 0e bc d5 15 7a 3d 43 32 4f 3d 53 d1 a2 3d
       -0.0087198205 0.061055977 0.050585043 0.07950082
000390 00 31 29 bd 00 8e a1 bd 07 24 51 3c bd ff 3f bc
       -0.041306496 -0.078884125 0.012764937 -0.011718688
0003a0 f5 69 b4 3c 09 93 9f 3d fc f7 df 3c 66 f9 c2 bb
       0.02202318 0.077917166 0.027339928 -0.0059501408
0003b0 d5 e1 8e bd 51 4c 89 3c dd 30 ca bd 17 47 87 bc
       -0.06976668 0.016760023 -0.09872601 -0.01651339
0003c0 26 c7 d5 3d 9f cb 8d 3c 4e 86 54 3d 7f 10 13 3d
       0.10438375 0.017309008 0.051885895 0.035904404
0003d0 d5 80 8c 3d da a7 40 3d d7 68 2d bd 9c 28 7a bc
       0.0686051 0.047035076 -0.04233631 -0.015268471
0003e0 1c 47 54 3c 61 18 3a bd 9d 47 56 bd 26 ad 47 bd
       0.012956407 -0.045433406 -0.05231439 -0.04874911
0003f0 fe 8b 6e 3d 78 0f da bc 0c dd f1 3a e7 34 4d 3d
       0.058238976 -0.026618704 0.0018452718 0.05009928

read_encoder.block3.0.bias f4 [128]
000000 1d f2 5e bd af 12 35 3d 2c 79 27 bd 83 bc fb bc
       -0.054430116 0.04420727 -0.040887043 -0.030729538
000010 d4 a7 88 bd 54 f8 82 bd 1c bd 91 bd 21 99 aa bd
       -0.06672636 -0.06395021 -0.07116148 -0.08329988
000020 d0 9b f1 bc 6f 6d 46 bc a9 9f d1 3c f6 cf 4b 3d
       -0.029493243 -0.012111052 0.025588827 0.049758874
000030 0a 5b 8d 3d 6f bb f2 ba c1 f9 c4 3d 22 73 00 3d
       0.0690213 -0.0018518994 0.09617949 0.0313598
000040 72 92 77 3d 82 42 6d 3d 40 a0 9b 3d a0 8e 80 bd
       0.060442396 0.057924755 0.07598925 -0.062772036
000050 9c c4 a0 3d 41 92 a5 bc 10 cf e4 3a 50 46 9a 3d
       0.0785 -0.02021134 0.0017456729 0.07532942
000060 86 ce 21 3d 8b d6 22 bc ce cc 9a bd ec b4 82 3d
       0.039503597 -0.009938846 -0.07558595 0.06382164
000070 dc 7b b1 3b 8f 51 f0 bc 83 6a 45 bd 33 26 94 bd
       0.0054163765 -0.029335765 -0.04819728 -0.072338484
000080 05 84 9c 3d 15 00 f0 bc 5f cd 7c bc 8e 0f ad 3d
       0.07642368 -0.029296914 -0.015429824 0.084502324
000090 42 2e 3d bd 87 b6 93 bd ff 82 84 bd 86 47 4b bd
       -0.046186693 -0.07212549 -0.06470298 -0.049628757
0000a0 81 ea 19 3d 5e 77 99 3d 25 82 79 bd f0 90 c0 bc
       0.037577156 0.074934706 -0.06091513 -0.023506612
0000b0 c6 7e 5f 3d b7 f1 aa 3d fb 5e 94 bc 06 70 b2 bd
       0.05456426 0.08346885 -0.018111696 -0.08712773
0000c0 51 c0 e1 b9 00 1f ae bd 95 5a 11 3d 6e 19 44 bd
       -0.0004305863 -0.085020065 0.035486776 -0.047875814
0000d0 88 12 c5 bc 51 70 a8 3d 90 7a a1 3c 46 b3 73 bc
       -0.024056688 0.08224548 0.019711763 -0.014874285
0000e0 4b 56 cf bc f1 61 3f 3d fb 11 c3 3c b1 cd 1b bc
       -0.025309702 0.046724264 0.023812285 -0.00950949
0000f0 41 79 d5 bc 9a 24 50 bd a9 01 56 3d 72 4a 1f 3c
       -0.026058795 -0.050816156 0.052247677 0.009722339
000100 86 a5 a4 3d 0d 42 d3 3d e6 a9 90 3d 5a 0b a8 bc
       0.080393836 0.103153326 0.070636556 -0.020513225
000110 e7 5e 79 3c 79 6e 85 3d 11 df 63 3d 3b ae ae 3c
       0.01522038 0.065152116 0.055632655 0.021323314
000120 d6 f5 77 3d 5d c2 7d 3d 0a 35 5b bd ea d7 aa bd
       0.06053718 0.061952937 -0.05351738 -0.083419636
000130 6b 9d af 3d 4b 7b 3a 3d de b7 a2 bd cc ed 2b bc
       0.08574947 0.045527738 -0.07945226 -0.010493707
000140 1b 4a 57 3d 2d 77 25 3d e1 29 08 bd 19 07 a0 bd
       0.052560907 0.040396858 -0.033243064 -0.07813854
000150 df e1 fb bc 23 b7 66 3d 6b 91 c1 bb f8 a3 0b bc
       -0.030747352 0.056326997 -0.0059072278 -0.00852298
000160 38 cc db 3c 18 17 b4 bc a4 99 45 bc a1 24 0b bd
       0.026830778 -0.021983668 -0.012060557 -0.03397048
000170 a6 b7 8b bd db c2 7c 3d 52 96 1a bd 65 94 fb 3c
       -0.068221375 0.061709266 -0.037741013 0.030710408
000180 65 d8 28 3c f5 05 fc bc 0f 92 06 bd 5b f3 83 3d
       0.010305499 -0.03076456 -0.032854136 0.06442901
000190 1c 7c 82 bd 10 37 a8 3d 4e f4 f9 3c a4 aa 06 3d
       -0.06371328 0.08213627 0.030512001 0.03287758
0001a0 44 30 66 bd a0 09 6d 3d 95 96 be bb ef c3 94 bc
       -0.056198373 0.057870507 -0.0058162906 -0.018159835
0001b0 89 7c 56 bd e9 fe 33 bd e9 73 e4 3c ec 59 3f 3d
       -0.05236486 -0.043944273 0.027887302 0.046716616
0001c0 50 59 81 bd 9b 74 85 3d ec 1c fb 3c 71 31 34 bd
       -0.06315863 0.06516381 0.03065344 -0.043992463
0001d0 c0 77 20 bd 88 9d 30 3d 7c f1 e8 bd cf b3 8f bb
       -0.039176702 0.043118984 -0.113741845 -0.0043854485
0001e0 0e ef 7b 3d b8 d4 b0 bd b1 c1 a1 bd 7d 56 c3 bc
       0.061507277 -0.08634323 -0.07898272 -0.023844952
0001f0 be a3 b2 3d 60 ed 31 3d 69 2e 39 3d 58 03 50 3a
       0.087226376 0.04343927 0.045210276 0.00079350686

read_encoder.block3.1.weight f4 [128]
000000 ad 4d 86 3f 38 d3 80 3f 96 c1 7e 3f bb 25 7e 3f
       1.0492455 1.0064459 0.9951414 0.9927632
000010 f3 d5 7b 3f 0f b8 7b 3f 18 d9 83 3f 3c 0e 81 3f
       0.98373336 0.98327726 1.0300627 1.0082469
000020 be ac 80 3f 18 67 80 3f a7 c0 7d 3f 6e da 80 3f
       1.0052717 1.0031462 0.9912209 1.006666
000030 81 c4 77 3f e7 a5 7b 3f cb a7 78 3f 92 4c 80 3f
       0.96784216 0.9830002 0.9713103 1.0023367
000040 02 33 7f 3f c6 df 7d 3f 35 2c 73 3f 43 f7 80 3f
       0.99687207 0.99169576 0.9498933 1.0075458
000050 d8 36 7e 3f 55 48 80 3f 90 2a 7e 3f ab be 7d 3f
       0.99302435 1.0022074 0.99283695 0.9911906
000060 1f f5 78 3f 7f d5 82 3f 4b 7a 84 3f 82 17 80 3f
       0.97249025 1.0221404 1.0349821 1.0007174
000070 0c 56 80 3f 10 ac 7b 3f b1 02 76 3f dd bc 7b 3f
       1.002626 0.9830942 0.96097857 0.9833506
000080 9f 2d 79 3f 86 96 86 3f f1 18 7c 3f ed 5b 81 3f
       0.9733524 1.0514686 0.9847556 1.0106179
000090 20 26 7d 3f c2 0b 83 3f ad c1 84 3f 13 03 7f 3f
       0.988863 1.0237963 1.0371605 0.99614066
0000a0 ad 3d 7d 3f 55 6b 6e 3f d1 a7 7e 3f 1c 81 7b 3f
       0.98922235 0.93132526 0.9947482 0.9824388
0000b0 72 aa 7d 3f 7d 25 8a 3f 44 b0 7c 3f d1 ef 7d 3f
       0.99088204 1.079269 0.9870646 0.99194056
0000c0 06 27 7e 3f 46 d2 7f 3f c6 a5 7a 3f f6 f6 77 3f
       0.99278295 0.99930227 0.979092 0.9686121
0000d0 bd 85 92 3f 0b c3 7e 3f e6 33 81 3f b8 14 7d 3f
       1.1447064 0.9951636 1.0093963 0.9885974
0000e0 7a a0 76 3f 17 d3 7a 3f b0 9a 50 3f aa fd 7e 3f
       0.9633862 0.9797835 0.81486034 0.9960581
0000f0 cb f5 7d 3f 61 13 7e 3f 29 c4 7c 3f 29 97 87 3f
       0.99203175 0.9924832 0.98736817 1.0593005
000100 d4 61 7c 3f b8 19 74 3f 22 a9 7c 3f 85 70 7d 3f
       0.98586774 0.95351744 0.98695576 0.98999816
000110 e8 89 70 3f b0 99 75 3f dd b8 7a 3f 86 95 7f 3f
       0.9396043 0.95937634 0.9793833 0.9983753
000120 ee 40 84 3f 62 bd 81 3f c1 2b 86 3f 34 93 84 3f
       1.0332315 1.013592 1.0482103 1.0357423
000130 40 a8 7c 3f b7 0d 82 3f 59 26 7f 3f c4 42 7d 3f
       0.9869423 1.0160435 0.9966789 0.9893
000140 c6 6b 7b 3f 4c 54 79 3f 40 f0 7c 3f 5a 78 7e 3f
       0.98211324 0.9739425 0.9880409 0.9940239
000150 ee 28 82 3f f9 cf 7d 3f 35 52 81 3f 13 ca 7d 3f
       1.0168741 0.99145466 1.0103213 0.99136466
000160 f0 07 81 3f dd 84 7f 3f 45 40 7e 3f f5 12 7e 3f
       1.0080547 0.9981211 0.9931682 0.99247676
000170 e4 37 86 3f 51 58 7e 3f a7 37 7a 3f c6 71 86 3f
       1.0485806 0.9935351 0.9774117 1.0503471
000180 10 1b 7e 3f d9 b8 7e 3f 3b 42 7f 3f e0 19 80 3f
       0.99260044 0.99500805 0.99710435 1.0007896
000190 b8 98 7a 3f 53 eb 7e 3f 5b 04 81 3f 37 c5 84 3f
       0.9788928 0.99577826 1.0079454 1.0372685
0001a0 e0 24 75 3f 93 8f 88 3f 75 b5 7d 3f b3 63 7a 3f
       0.9575939 1.0668815 0.99105006 0.9780838
0001b0 9f 4c 81 3f 41 f3 7f 3f 5c c3 7d 3f 19 d8 80 3f
       1.0101508 0.9998055 0.9912622 1.0065948
0001c0 94 62 7e 3f a7 09 7c 3f 43 d7 7d 3f fa 29 7d 3f
       0.9936917 0.9845223 0.9915659 0.98892176
0001d0 42 f5 7d 3f cd 43 74 3f 2f af 83 3f ec 72 71 3f
       0.9920236 0.95415956 1.0287837 0.9431598
0001e0 e1 01 82 3f 33 e5 78 3f 62 97 80 3f fa af 7e 3f
       1.0156823 0.9722473 1.0046198 0.9948727
0001f0 1e a8 7d 3f aa 74 81 3f 48 7a 80 3f 85 f5 74 3f
       0.9908465 1.0113728 1.0037317 0.95687133
