m6aReplica/2d_66_with_delta/Models/epoch39_rocauc0.891_valpr0.388_valscore1.279.pth (torch, 153757 bytes, 13 tensors)

read_encoder.block1.0.weight f4 [128, 21]
0.53864795 0.7379973 -0.076646775 1.6973505 1.080372 0.017383693 -0.055045776 1.4310503
0.24501136 3.1751423 -4.7263217 0.5494469 -0.2114699 0.052582238 0.5297423 0.016160699
-0.04172504 -0.024964675 -0.030435998 0.051404342 0.0034500733 0.3421196 -0.5556529 0.21502781
0.7303798 -0.69342834 -0.028707305 0.103416756 -0.44060737 -0.19318391 1.1866888 -1.7381124
-0.30673486 0.6476323 -0.67850214 0.065266624 -0.063380085 0.3679249 0.083949946 -0.20456865
0.1474125 0.037549604 0.052638594 -0.06336282 0.19296356 -0.37455976 -0.14555007 0.103822224
0.49287847 -0.3882361 -0.21392828 -1.2327142 1.8087996 0.14498404 0.28010496 0.017132077
-0.21257761 -0.04775232 0.1583221 -0.19270827 -0.20901968 -0.36347932 0.09855481 0.5906346
0.038058028 -0.015622915 1.7704755 0.46997765 -0.08052531 -0.32663444 1.3923724 0.3013811
2.7344286 -5.648126 0.3306613 0.70419395 -0.12337541 1.0166724 0.0073984023 -0.06647378
-0.055250455 -0.019302158 -0.045945823 -0.045367036 1.0266755 -0.4389975 0.10655671 -0.5914266
-1.0093176 0.030536933 0.062555246 -0.66950923 0.07048603 -3.4469123 1.2182908 -1.1122628
1.1354895 -0.32536435 -0.10781247 -0.092961736 -0.21905592 0.0214573 -0.11707664 -0.047581136
-0.008913832 -0.6658365 0.16215155 -0.13918993 -1.8322402 0.43661845 0.24691139 -0.3565175
0.546463 -0.2237363 -3.4670022 3.7160091 0.8255011 -0.8116743 0.6651627 -0.28065807
0.0483325 -0.051168706 -0.020589279 -0.027935384 -0.15790442 -0.043532703 0.39625257 -0.41524383
0.20097771 0.19081238 -0.32463834 0.066018 -0.11177592 -0.29776916 -0.0696035 -1.3066882
-0.18816598 -0.90994555 0.5457759 -0.2990971 0.061187644 0.02049848 0.29480693 -0.09669384
-0.106286384 0.15100569 0.055521578 0.5871577 0.32047817 -0.07805004 0.40615842 -0.15754844
0.014239996 0.6363819 0.31666216 -0.16786525 -0.2627514 1.0629494 -0.34394217 0.21385369
-0.48896027 -0.105382025 -0.038224574 -0.058517378 -0.0041473843 -0.120437846 -0.118727416 0.533382
-0.44336933 -0.10909669 0.1626517 -0.15790245 0.3497652 0.17296982 -0.6361435 -0.15737417
0.010442426 0.647706 -0.490475 0.14151667 -0.42496556 -0.38115346 -0.34808493 -0.10351169
0.08261636 -0.057915173 -0.061854623 0.036958832 -0.06290401 -0.33777845 -0.32997757 -0.07637495
1.1732545 -0.06641758 0.020267926 0.6799404 -0.09608672 0.07213153 3.4809232 -0.8545286
0.02499789 0.26559564 0.5478616 0.21522251 -0.07705217 -0.05374173 -0.06779773 -0.37777355
-0.42112854 -0.08677429 -0.88010085 -0.027690902 -0.20862834 -1.5673059 0.15178989 0.22620241
-0.24569312 -0.20421262 0.12563765 -0.88729304 2.8228438 1.0149701 -0.73007965 0.5227821
-0.18364348 0.047543555 0.101039395 0.10012422 -0.13581127 -0.30788872 -0.23569603 -0.06310653
-0.12665384 0.23342654 -0.57519627 -0.25281307 -0.00030206423 -0.08585774 -1.3904209 -0.3071435
-1.3039944 2.4863749 -0.06772873 -0.88776714 -0.3845006 -0.56271267 -0.06464106 0.020640675
-0.022664988 -0.05510356 -0.019633379 -0.101164356 0.06517397 0.44339195 -0.09270908 -0.7009901
00000000: d5e4 093f 64ed 3c3f fcf8 9cbd c842 d93f
00000010: a149 8a3f 3f68 8e3c ae77 61bd a82c b73f
00000020: 42e4 7a3e 8835 4b40 073e 97c0 8da8 0c3f
00000030: 918b 58be 7960 573d 319d 073f 7163 843c
00000040: e0e7 2abd b882 ccbc ea54 f9bc 5c8d 523d
00000050: a01a 623b 4d2a af3e 453f 0ebf 4030 5c3e
00000060: 2cfa 3a3f 8584 31bf 952b ebbc 2acc d33d
00000070: 4a97 e1be 01d2 45be 6be5 973f 787a debf
00000080: 5a0c 9dbe 3bcb 253f 51b2 2dbf 82aa 853d
00000090: 6bcd 81bd a760 bc3e f3ed ab3d 727a 51be
000000a0: 4df3 163e 9dcd 193d 919b 573d 5ec4 81bd
000000b0: 3d98 453e 4cc6 bfbe 140b 15be bfa0 d43d
000000c0: 915a fc3e e2c6 c6be 0410 5bbe 94c9 9dbf
000000d0: bf86 e73f b276 143e eb69 8f3e 9258 8c3c
000000e0: f2ad 59be f097 43bd 301f 223e 5155 45be
000000f0: 4109 56be f619 babe 1bd7 c93d d433 173f
00000100: bce2 1b3d 41f7 7fbc f19e e23f e9a0 f03e
00000110: 74ea a4bd a13c a7be 4239 b23f a04e 9a3e
00000120: e100 2f40 73bd b4c0 704c a93e 0e46 343f
00000130: 3fac fcbd 5222 823f 4c6e f23b 6823 88bd
00000140: 4d4e 62bd 8f1f 9ebc b031 3cbd c9d2 39bd
00000150: 1a6a 833f 48c4 e0be 683a da3d bc67 17bf
00000160: 5231 81bf 9728 fa3c f71c 803d f564 2bbf
00000170: fb5a 903d 369a 5cc0 f4f0 9b3f a15e 8ebf
00000180: b857 913f 2896 a6be c9cc dcbd b962 bebd
00000190: 3250 60be 38c7 af3c e1c5 efbd 70e4 42bd
000001a0: 520b 12bc 4374 2abf 0e0b 263e ce87 0ebe
000001b0: d986 eabf 748c df3e 57d6 7c3e 7689 b6be
000001c0: 00e5 0b3f 211b 65be 5de3 5dc0 18d3 6d40
000001d0: 0a54 533f e3c9 4fbf 1a48 2a3f 6ab2 8fbe
000001e0: 4df8 453d 4796 51bd d9aa a8bc bfd8 e4bc
000001f0: b2b1 21be 594f 32bd 9ee1 ca3e d79a d4be
00000200: 1acd 4d3e 5264 433e ff36 a6be 7234 873d
00000210: c6ea e4bd 3375 98be 488c 8ebd 8f41 a7bf
00000220: 95ae 40be 31f2 68bf f8b7 0b3f 4123 99be
00000230: e59f 7a3d 6eec a73c eff0 963e 6c07 c6bd
00000240: adac d9bd 3ca1 1a3e 986a 633d f84f 163f
00000250: b715 a43e b3d8 9fbd fff3 cf3e 6154 21be
00000260: df4e 693c ede9 223f 8b21 a23e dee4 2bbe
00000270: 5a87 86be ba0e 883f 3019 b0be 76fc 5a3e
00000280: 0059 fabe 88d2 d7bd 5f91 1cbd ebaf 6fbd
00000290: c8e6 87bb 1ea8 f6bd 5c27 f3bd b98b 083f
000002a0: 4e01 e3be 166e dfbd 2b8e 263e 2eb1 21be
000002b0: 6d14 b33e 001f 313e 4dda 22bf b226 21be
000002c0: b616 2b3c 0fd0 253f 8a1f fbbe bfe9 103e
000002d0: 1695 d9be 8c26 c3be 3038 b2be f0fd d3bd
000002e0: c432 a93d 7638 6dbd 465b 7dbd 2562 173d
000002f0: d1d3 80bd 4cf1 acbe d2f2 a8be 786a 9cbd
00000300: 342d 963f f105 88bd ec08 a63c 9310 2e3f
00000310: 1dc9 c4bd b2b9 933d 72c7 5e40 63c2 5abf
00000320: 60c8 cc3c 27fc 873e a840 0c3f 4a63 5c3e
00000330: 87cd 9dbd 4a20 5cbd 89d9 8abd 896b c1be
00000340: 299e d7be b8b6 b1bd 4a4e 61bf 08d8 e2bc
00000350: aba2 55be 7b9d c8bf cf6e 1b3e 9ba1 673e
00000360: fa96 7bbe 1d1d 51be 28a7 003e a325 63bf
00000370: 79a9 3440 8aea 813f 80e6 3abf 0cd5 053f
00000380: 090d 3cbe 08bd 423d beed ce3d ed0d cd3d
00000390: 1c12 0bbe 97a3 9dbe 4d5a 71be ff3d 81bd
000003a0: 8bb1 01be 5e07 6f3e 1040 13bf b770 81be
000003b0: 605e 9eb9 2fd6 afbd 50f9 b1bf ea41 9dbe
000003c0: 4ae9 a6bf c420 1f40 5cb5 8abd b544 63bf
000003d0: 43dd c4be f00d 10bf 8862 84bd a216 a93c
000003e0: edab b9bc 45b4 61bd 2ed6 a0bc 422f cfbd
000003f0: ee79 853d 4504 e33e 42de bdbd 1674 33bf

read_encoder.block1.0.bias f4 [128]
-0.60034955 0.62236524 0.4058502 0.20489502 0.4531096 -0.6227647 0.5638787 0.3555734
0.15746458 -0.15345535 -0.44153708 0.27411503 -0.088844284 0.5554958 0.3156888 0.12136442
-0.5982688 0.42950624 0.53588426 -0.6763936 -0.61432725 0.27566665 -0.14917566 -0.3026347
0.36567622 0.3739201 -0.0899298 0.2056163 0.18517181 0.8015118 0.6366541 0.15128715
-0.34430948 -0.08067659 0.18744056 -0.25927815 0.56880796 0.122734405 0.03509522 0.25466403
0.47339058 -0.677093 -0.47231975 -0.39408904 0.35823897 0.093481116 -0.17215647 0.054786906
0.6430914 0.6127731 -0.32978582 0.5008648 -0.5640346 -0.80364144 0.30603233 -0.11162608
0.45855075 -0.5065325 0.31390548 0.71129173 -0.7967713 -0.15630442 0.16010389 0.5756873
0.41141295 0.4373694 0.57933843 0.27811056 0.15360124 -0.20222954 0.2744451 0.46281606
0.30240077 0.016690431 -0.47605944 0.16517767 -0.59043825 -0.7129119 0.31324205 0.57210374
0.19701928 -0.7258243 -0.045545064 -0.15015031 -0.017624626 0.21142094 -0.17717195 0.48135325
-0.23862624 0.11016161 0.1479114 0.044725426 0.23690797 -0.4704683 -0.38680047 -0.4771649
-0.04192516 0.09208721 -0.29343107 -0.15740967 -0.24794531 0.023331545 -0.27810648 -0.59481025
0.41397625 -0.3217249 0.36702704 0.5072709 -0.21492215 0.536258 0.5768627 0.3054965
-0.5204228 -0.4171958 0.77698 0.2917463 -0.006049149 -0.7894737 0.05362471 0.20193318
-0.15778697 0.5363284 -0.51288426 -0.13635969 -0.2854869 0.11552642 0.4497775 0.21591759
00000000: 82b0 19bf 5453 1f3f 99cb cf3e 00d0 513e
00000010: fbfd e73e 826d 1fbf 5b5a 103f b70d b63e
00000020: 653e 213e 6623 1dbe 2611 e2be ce58 8c3e
00000030: fef3 b5bd f934 0e3f f6a1 a13e e98d f83d
00000040: 2528 19bf 3ee8 db3e b62f 093f 2228 2dbf
00000050: 8d44 1dbf 2e24 8d3e 81c1 18be eff2 9abe
00000060: ea39 bb3e 7572 bf3e 1d2d b8bd 148d 523e
00000070: ae9d 3d3e e12f 4d3f c3fb 223f 05eb 1a3e
00000080: 5549 b0be c539 a5bd 6bf0 3f3e 1bc0 84be
00000090: 669d 113f 2d5c fb3d 01c0 0f3d 5363 823e
000000a0: 4060 f23e f855 2dbf e5d3 f1be 0ac6 c9be
000000b0: 196b b73e 0773 bf3d c949 30be 3c68 603d
000000c0: a3a1 243f b3de 1c3f b0d9 a8be ad38 003f
000000d0: 9264 10bf 72bb 4dbf 45b0 9c3e 379c e4bd
000000e0: 2ac7 ea3e 1dac 01bf 38b8 a03e 3717 363f
000000f0: 34f9 4bbf 440e 20be 46f2 233e 3e60 133f
00000100: b8a4 d23e e2ee df3e 864f 143f 8264 8e3e
00000110: a549 1d3e 4315 4fbe 1184 8c3e 3af6 ec3e
00000120: 46d4 9a3e 5fba 883c 10be f3be 5624 293e
00000130: f626 17bf 6581 36bf 4361 a03e 6475 123f
00000140: 6cbf 493e 9fcf 39bf 768d 3abd 01c1 19be
00000150: 8561 90bc bb7e 583e 906c 35be ef73 f63e
00000160: 705a 74be 699c e13d 1676 173e 0232 373d
00000170: 0198 723e 39e1 f0be b60a c6be f54e f4be
00000180: b7b9 2bbd 3898 bc3d 993c 96be 0030 21be
00000190: 60e5 7dbe cc21 bf3c f963 8ebe 7c45 18bf
000001a0: b2f4 d33e 20b9 a4be f8ea bb3e 81dc 013f
000001b0: 8d14 5cbe 3448 093f 46ad 133f 0a6a 9c3e
000001c0: 6e3a 05bf b09a d5be 29e8 463f c55f 953e
000001d0: f137 c6bb f31a 4abf 95a5 5b3d 92c7 4e3e
000001e0: e892 21be d14c 093f 624c 03bf e0a1 0bbe
000001f0: 572b 92be 1e99 ec3d 3d49 e63e 8019 5d3e

read_encoder.block1.1.weight f4 [128]
1.26785 1.2963417 0.6788686 1.6783255 0.7687083 1.1750922 0.5961393 1.4892408
0.41029903 1.4393281 0.82331413 1.1731248 1.4164194 1.3196013 1.4426725 0.5497988
1.0021954 1.2068762 0.5522697 1.2415639 1.099809 1.6357585 0.39976856 0.9395622
1.316363 0.6904104 0.45484158 1.3136736 0.7853556 1.4239616 1.3352101 0.576392
1.226718 1.1580899 0.52007586 1.1829249 0.7108195 1.1557033 0.5407586 0.95477825
1.353846 1.2345968 0.8513479 1.0273153 1.0490264 1.4622678 0.48944017 1.4294997
1.3660122 0.9227065 1.2450752 1.7110987 0.709029 0.9435926 1.7090306 0.54769677
0.66541463 0.9325386 1.7429447 1.3002536 1.144305 1.307195 0.8392843 0.85316455
1.5757724 2.0427947 0.68761086 0.9448092 0.44891953 1.305538 1.0189741 0.88594204
0.468264 1.3969691 1.2413356 1.0856634 1.3250166 0.8468057 0.6774379 1.3386159
1.0872852 0.6532261 0.3678238 0.39464945 0.995094 0.7760525 0.55954 0.89677846
0.6348313 1.2841557 1.0630996 0.76291823 0.7789076 0.91660666 0.70148355 1.4599236
1.4020493 1.4148867 0.5446369 1.2098446 0.81162435 0.675595 1.5313777 0.7920582
1.1713461 0.8063351 0.8762053 1.3422784 1.2202244 1.0382313 1.2826531 0.7665564
0.98762465 1.0410581 1.1559943 1.202505 0.43837842 1.0054247 0.48503888 1.2678845
0.7553599 0.8455962 0.7526136 0.4745873 1.1290756 0.50056374 1.1880296 1.465852
00000000: e948 a23f 86ee a53f 55ca 2d3f 5fd3 d63f
00000010: 11ca 443f 6c69 963f 969c 183f 719f be3f
00000020: b712 d23e e73b b83f b7c4 523f f428 963f
00000030: 3b4d b53f b2e8 a83f 7ea9 b83f 9dbf 0c3f
00000040: f047 803f eb7a 9a3f 8c61 0d3f 91eb 9e3f
00000050: 8bc6 8c3f 8960 d13f 77ae cc3e 2687 703f
00000060: 957e a83f bcbe 303f ffe0 e83e 7526 a83f
00000070: 110d 493f 6044 b63f 2ae8 aa3f 6d8e 133f
00000080: 1805 9d3f 4a3c 943f b123 053f 156a 973f
00000090: 44f8 353f 16ee 933f 286f 0a3f 596c 743f
000000a0: d34a ad3f 4507 9e3f f0f1 593f 117f 833f
000000b0: 7f46 863f 972b bb3f e797 fa3e d9f9 b63f
000000c0: 7dd9 ae3f 7e36 6c3f a05e 9f3f 4805 db3f
000000d0: ed82 353f 498f 713f 84c1 da3f db35 0c3f
000000e0: 9d58 2a3f daba 6e3f d018 df3f b66e a63f
000000f0: 9678 923f 2a52 a73f 56db 563f fe68 5a3f
00000100: e9b2 c93f 26bd 0240 4407 303f 04df 713f
00000110: c8d8 e53e df1b a73f be6d 823f 19cd 623f
00000120: 4dc0 ef3e e2cf b23f 16e4 9e3f 05f7 8a3f
00000130: 259a a93f 42c8 583f 926c 2d3f c457 ab3f
00000140: 292c 8b3f d339 273f 6753 bc3e 7e0f ca3e
00000150: 7bbe 7e3f 60ab 463f 033e 0f3f 4693 653f
00000160: 4e84 223f 375f a43f a613 883f 9c4e 433f
00000170: 7d66 473f bca6 6a3f 6d94 333f c7de ba3f
00000180: 5a76 b33f 021b b53f 536d 0b3f 30dc 9a3f
00000190: 9dc6 4f3f cbf3 2c3f 2f04 c43f 54c4 4a3f
000001a0: abee 953f fa6b 4e3f fe4e 603f c7cf ab3f
000001b0: 5030 9c3f c3e4 843f fa2d a43f 0a3d 443f
000001c0: f8d4 7c3f 6441 853f 9ff7 933f afeb 993f
000001d0: 2373 e03e c2b1 803f 0457 f83e 0a4a a23f
000001e0: 445f 413f fe78 583f 49ab 403f 1bfd f23e
000001f0: 8d85 903f f224 003f 5b11 983f 0aa1 bb3f

read_encoder.block1.1.bias f4 [128]
-0.15544668 -0.019555453 -0.41651282 -0.079107866 -0.40931934 -0.09137672 -0.35434866 -0.21298917
-0.67152536 -0.20671336 -0.36586288 -0.14146945 -0.10075213 -0.14690398 -0.3794934 -0.40202892
-0.21906939 -0.13638422 -0.34809992 -0.19243127 -0.11936047 0.07789323 -0.52775574 -0.1461179
-0.3197932 -0.2678371 -0.52866083 -0.5657566 -0.36628407 -0.17214088 -0.06968726 -0.58484524
-0.13481867 -0.28107253 -0.513558 -0.19455625 -0.581177 -0.32612765 -0.43080378 -0.25146303
-0.108669385 -0.23700477 -0.2975503 -0.24352708 -0.36846253 -0.28482655 -0.43575552 -0.19461119
-0.04128174 -0.30786017 -0.122338146 -0.07611703 -0.29749113 -0.159721 -0.0073859785 -0.5671274
-0.357641 -0.16049428 0.046270467 -0.093542635 -0.15635246 -0.22304621 -0.1839833 -0.63925916
-0.18492265 0.030922147 -0.2805721 -0.33829957 -0.58303696 -0.22047247 -0.30976826 -0.34667447
-0.50654685 -0.117392555 -0.13837264 -0.21082935 -0.15294544 -0.34938163 -0.18220697 -0.048873942
-0.10527939 -0.3550091 -0.74225074 -0.51695 -0.2593774 -0.38414666 -0.4063908 -0.24666283
-0.43082345 -0.1885603 -0.75794584 -0.51038754 -0.49790728 -0.1936298 -0.29328895 -0.22434318
-0.10232685 -0.14550534 -0.5202945 -0.24661973 -0.30198866 -0.46919978 -0.107324935 -0.23401165
-0.39032334 -0.31490242 -0.40431598 -0.060211495 -0.21673886 -0.26715833 -0.3954167 -0.47007194
-0.11627426 -0.12275418 -0.059111435 -0.20796475 -0.56394696 -0.18145554 -0.6798329 -0.44455752
-0.29925722 -0.20707662 -0.26550308 -0.55409455 -0.31291673 -0.4425979 -0.07489753 -0.014609771
00000000: 6a2d 1fbe c232 a0bc 2b41 d5be 4e03 a2bd
00000010: 4e92 d1be b823 bbbd 306d b5be d519 5abe
00000020: 16e9 2bbf abac 53be 6152 bbbe 5edd 10be
00000030: 2257 cebd ff6d 16be f54c c2be bcd6 cdbe
00000040: ba53 60be 4ea8 0bbe 273a b2be b40c 45be
00000050: 4373 f4bd 7c86 9f3d 001b 07bf ee9f 15be
00000060: efbb a3be f221 89be 5156 07bf 6dd5 10bf
00000070: 9689 bbbe b345 30be 32b8 8ebd 6bb8 15bf
00000080: e80d 0abe bde8 8fbe 8978 03bf c139 47be
00000090: 04c8 14bf 34fa a6be 5092 dcbe c3bf 80be
000000a0: 0e8e debd 61b1 72be 8358 98be 2a5f 79be
000000b0: 1fa7 bcbe c9d4 91be 591b dfbe 2848 47be
000000c0: 0b17 29bd d99f 9dbe 6c8c fabd 3fe3 9bbd
000000d0: c250 98be e78d 23be 1406 f2bb 432f 11bf
000000e0: b91c b7be 9d58 24be 1a86 3d3d 4893 bfbd
000000f0: dc1a 20be 3a66 64be 1e66 3cbe 7da6 23bf
00000100: 5d5c 3dbe 7150 fd3c 25a7 8fbe 9a35 adbe
00000110: e941 15bf 89c3 61be f299 9ebe 517f b1be
00000120: 0ead 01bf 826b f0bd 8fb1 0dbe a6e3 57be
00000130: bb9d 1cbe 26e2 b2be 7794 3abe 0b30 48bd
00000140: b99c d7bd c1c3 b5be 2504 3ebf d656 04bf
00000150: 1dcd 84be dfae c4be 7412 d0be 2e95 7cbe
00000160: e494 dcbe f415 41be bd08 42bf c2a8 02bf
00000170: b4ed febe e446 46be f829 96be 38ba 65be
00000180: bd90 d1bd 5aff 14be 0532 05bf e289 7cbe
00000190: 429e 9abe f43a f0be 2dcd dbbd c0a0 6fbe
000001a0: 76d8 c7be e43a a1be 8102 cfbe 54a0 76bd
000001b0: cbf0 5dbe fac8 88be 0f74 cabe 45ad f0be
000001c0: 3321 eebd 8b66 fbbd d51e 72bd b6f4 54be
000001d0: d45e 10bf 7bcf 39be 8709 2ebf 0b9d e3be
000001e0: 3e38 99be e50b 54be 05f0 87be 24d9 0dbf
000001f0: 9f36 a0be 319c e2be e063 99bd d25d 6fbc

read_encoder.block2.0.weight f4 [128, 128]
0.11934364 -0.1201682 -0.044258434 -0.037164807 -0.030749623 -0.0846499 -0.06517193 -0.022061076
0.04113754 -0.07795702 -0.017966537 -0.03920913 0.3224255 0.30872092 0.012116344 -0.010973411
-0.05084661 0.00331619 -0.085837394 0.094514824 -0.0009395427 -0.41398257 0.03507557 0.03542304
0.101276256 0.025381561 0.10045753 -0.07478016 -0.011704752 -0.07817531 0.051016916 0.16383341
0.12933825 0.052379046 -0.04767191 -0.120160714 -0.073312946 0.10927095 0.020300927 -0.042474892
-0.24572995 0.08513004 0.08975147 0.022529462 -0.06478193 -0.10030644 0.13861375 -0.1774211
-0.38565186 0.09778867 0.10639511 -0.34536818 0.09827102 0.069534875 -0.4628062 0.15418093
0.10941493 0.12420154 -0.0878523 -0.19833541 0.021448012 0.23461056 -0.109698474 -0.15813662
-0.04987457 -0.89301795 -0.09883384 -0.050476123 0.025441704 0.1697294 -0.13903241 -0.023420155
-0.024460612 -0.024652865 0.056111615 -0.115662985 0.04057677 0.054139514 0.00046185867 0.081138566
0.15469536 0.21084373 0.14785601 0.10165508 0.007775834 0.01737801 0.09686318 -0.049760528
0.07027576 -0.057929832 -0.18446653 -0.0044987006 0.09530688 0.108960785 0.1044494 0.10005167
-0.19433576 -0.29672083 -0.0027481238 0.06638514 -0.035684768 0.025810104 -0.092874855 0.052557267
0.23181838 -0.0028716773 0.08245471 0.13931967 0.10259767 -0.2575987 0.21734104 0.11103806
0.15273623 0.14442146 -0.009354427 -0.0076175323 0.039041314 0.026840892 0.039152935 -0.058046676
0.13899328 -0.028941497 0.09302065 0.050755695 -0.033512913 0.13553607 -0.0671516 0.02669545
-0.20360349 0.044040985 -0.40144068 -0.5307201 0.30459505 0.08168567 0.15514615 -0.59429455
0.26622874 0.3777286 -0.34953046 0.25801915 0.10968344 -0.273071 0.2261401 0.116695456
0.07499645 -0.3287201 0.14949201 0.059093785 0.056296673 0.03387353 0.059342027 -0.2944708
-0.02291981 -0.21595696 -0.11875574 0.11539178 -0.0928479 0.16012493 0.14859778 -0.15114358
-0.14146137 -0.044266727 0.14233997 -0.37424278 -0.06428916 0.09597162 -0.1530421 0.35836434
-0.2752737 0.2738923 0.14605437 -0.29289213 -0.35007414 0.06713878 -0.21394761 -0.16015105
0.008369438 0.20742595 0.05017832 -0.115674205 -0.044970777 0.04703452 -0.19407508 0.053505022
-0.025436314 0.11881188 0.21615797 -0.04838497 0.29761848 -0.3765481 -0.003962368 -0.12337037
0.0073490376 -0.7068063 -0.07787809 0.13300695 0.0753492 -0.08465224 0.121380925 -0.12169588
0.045217566 -0.49458757 0.050275136 -0.05932245 0.10276955 -0.086791866 -0.035602428 0.06381703
0.17610887 0.051970262 0.26721093 -0.033825997 0.057197217 -0.030057076 0.24916525 0.033880096
0.13603635 -0.56298286 -0.1681018 -0.067198746 -0.10270926 -0.2949342 -0.01968166 -0.015416454
0.5547401 -0.9722921 -0.13588423 0.008015147 -0.1865776 0.1347237 -0.28848276 0.048708353
-0.12421937 -0.2649368 -0.14934833 -0.01761379 0.2315947 -0.089310594 -0.117321365 -0.18900509
0.05689871 -0.009674839 0.19593358 0.15913308 0.03182136 0.25223568 -0.05130955 -0.061768014
-0.31022128 0.12971678 0.09288882 -0.2848115 0.08959983 -0.03875355 0.18579613 0.41515234
00000000: 706a f43d bf1a f6bd 5548 35bd 203a 18bd
00000010: a2e6 fbbc ed5c adbd dc78 85bd 6eb9 b4bc
00000020: d67f 283d eea7 9fbd 8f2e 93bc c199 20bd
00000030: f514 a53e ab10 9e3e a183 463c d2c9 33bc
00000040: 8944 50bd 7054 593b 84cb afbd fd90 c13d
00000050: a54b 76ba 86f5 d3be 67ab 0f3d c017 113d
00000060: ed69 cf3d feec cf3c adbc cd3d 5726 99bd
00000070: 4ac5 3fbc 601a a0bd 1df7 503d f2c3 273e
00000080: 3f71 043e 698b 563d 9f43 43bd d216 f6bd
00000090: 1925 96bd 73c9 df3d 214e a63c 27fa 2dbd
000000a0: a2a0 7bbe a958 ae3d 9ecf b73d b58f b83c
000000b0: 63ac 84bd 766d cdbd c3f0 0d3e e0ad 35be
000000c0: 2974 c5be 6d45 c83d aee5 d93d 19d4 b0be
000000d0: 5142 c93d 4d68 8e3d eff4 ecbe 9be1 1d3e
000000e0: ef14 e03d 615d fe3d e8eb b3bd 7018 4bbe
000000f0: beb3 af3c c03d 703e 98a9 e0bd 91ee 21be
00000100: 4749 4cbd d39c 64bf 6569 cabd 0dc0 4ebd
00000110: 1f6b d03c 8bcd 2d3e 835e 0ebe a0db bfbc
00000120: 9f61 c8bc cef4 c9bc 4bd5 653d b7e0 ecbd
00000130: d433 263d 65c1 5d3d 9f25 f239 fa2b a63d
00000140: 7668 1e3e 6be7 573e 9167 173e 8a30 d03d
00000150: 6ccc fe3b 545c 8e3c 3460 c63d b2d1 4bbd
00000160: bdec 8f3d d547 6dbd cbe4 3cbe d669 93bb
00000170: 4130 c33d d526 df3d 91e9 d53d e4e7 cc3d
00000180: f4ff 46be cbeb 97be de19 34bb eff4 873d
00000190: 312a 12bd b66f d33c 2c35 bebd 4a46 573d
000001a0: cc61 6d3e c032 3cbb 04de a83d d1a9 0e3e
000001b0: ba1e d23d fae3 83be a68e 5e3e ec67 e33d
000001c0: e366 1c3e 38e3 133e 5043 19bc 7e9c f9bb
000001d0: c9e9 1f3d 6ee1 db3c d45e 203d 5ac2 6dbd
000001e0: 4154 0e3e b816 edbc 9c81 be3d 34e5 4f3d
000001f0: d644 09bd f8c9 0a3e c786 89bd 6bb0 da3c
00000200: 6f7d 50be 5264 343d a289 cdbe 46dd 07bf
00000210: e2f3 9b3e d14a a73d a2de 1e3e b023 18bf
00000220: 224f 883e a565 c13e a8f5 b2be 161b 843e
00000230: b6a1 e03d f6cf 8bbe 4591 673e 07fe ee3d
00000240: bd97 993d 004e a8be 6f14 193e 530c 723d
00000250: 5797 663d f8be 0a3d a010 733d e0c4 96be
00000260: 53c2 bbbc d223 5dbe 3636 f3bd 8752 ec3d
00000270: 0a27 bebd caf7 233e 042a 183e 62c5 1abe
00000280: 40db 10be 0751 35bd 92c1 113e c09c bfbe
00000290: 09aa 83bd c58c c43d 11b7 1cbe 887b b73e
000002a0: adf0 8cbe 9d3b 8c3e 478f 153e f5f5 95be
000002b0: eb3c b3be 0f80 893d 1515 5bbe a3fe 23be
000002c0: f81f 093c 7867 543e c887 4d3d 99e6 ecbd
000002d0: 4733 38bd 45a7 403d 9ebb 46be 1528 5b3d
000002e0: d15f d0bc a553 f33d 8458 5d3e 512f 46bd
000002f0: 7361 983e eaca c0be c0d6 81bb 9ba9 fcbd
00000300: 32d0 f03b 42f1 34bf 8c7e 9fbd f932 083e
00000310: ae50 9a3d 275e adbd 9096 f83d b13b f9bd
00000320: 0e36 393d 953a fdbe 4ded 4d3d 19fc 72bd
00000330: d878 d23d efbf b1bd dad3 11bd 81b2 823d
00000340: e255 343e c5de 543d dfcf 883e 218d 0abd
00000350: a147 6a3d 423a f6bc 2d25 7f3e dbc5 0a3d
00000360: 1d4d 0b3e a51f 10bf e122 2cbe 7f9f 89bd
00000370: 3c59 d2bd 9e01 97be 6f3b a1bc 4b95 7cbc
00000380: 7203 0e3f 23e8 78bf 3c25 0bbe f751 033c
00000390: 330e 3fbe 02f5 093e 03b4 93be 6982 473d
000003a0: ba66 febd cca5 87be c5ee 18be cc4a 90bc
000003b0: 2927 6d3e 79e8 b6bd 2f46 f0bd 8d8a 41be
000003c0: 9f0e 693d 3783 1ebc d0a2 483e c8f3 223e
000003d0: 1d57 023d 0925 813e f629 52bd 7500 7dbd
000003e0: 53d5 9ebe 7ad4 043e 7e3c be3d d0d2 91be
000003f0: 1e80 b73d 0bbc 1ebd 5741 3e3e d98e d43e

read_encoder.block2.0.bias f4 [128]
0.17864837 -0.10741434 0.3080335 -0.013454304 0.27215245 0.179239 -0.06557063 -0.035101607
-0.024230197 0.2930465 0.089568906 0.18462566 -0.18113843 0.06053635 0.43840042 0.3276644
-0.010461827 0.18529896 0.48907202 0.30619 -0.12643863 -0.036343765 0.33627447 0.33868253
0.06723013 0.050450355 0.5770846 -0.11322445 0.3114632 0.13534671 0.13009445 -0.0074328044
-0.10498448 0.15536252 0.32407704 0.23762654 0.41268358 0.2644234 0.023232475 0.35826087
0.06938938 0.049346995 0.18169783 0.055925377 0.054663613 -0.20053999 0.29989338 0.09278345
0.2883246 0.026834574 0.31244808 0.07666403 0.06187404 0.012645867 -0.15712729 0.43234587
0.41660354 0.23280254 -0.0291897 0.21137093 0.027537163 0.31801662 -0.04350391 0.32761696
-0.12954068 -0.15529028 0.07531934 -0.08202139 0.31598747 -0.03530071 0.19343448 -0.15099207
0.13225101 -0.21122514 -0.031750422 -0.09066433 -0.037314445 0.2908289 0.18362007 -0.050962657
-0.017979776 0.40662184 0.33125362 0.034122206 -0.04144663 0.3539589 0.061821397 0.11798138
0.13681306 0.15967982 -0.1498347 0.18884689 -0.057826355 -0.03482853 0.35161924 0.19518754
0.08082538 -0.029236425 0.14309679 -0.110097855 -0.017025007 0.1319751 -0.075423494 -0.031471416
0.12074236 0.08770993 0.03598795 -0.048458893 0.22893067 0.08047606 -0.18465596 0.24685219
-0.046135023 0.095939904 -0.03662269 0.38533503 0.1841913 0.06504443 0.1204964 -0.21515217
-0.048304666 0.06936418 -0.032127313 0.28868854 -0.06999602 0.38014397 -0.26478148 0.1761619
00000000: 99ef 363e 0dfc dbbd 91b6 9d3e 716f 5cbc
00000010: 9157 8b3e 6e8a 373e e549 86bd b4c6 0fbd
00000020: 687e c6bc 310a 963e e76f b73d 820e 3d3e
00000030: 5a7c 39be f7f4 773d 0576 e03e a1c3 a73e
00000040: 1568 2bbc 03bf 3d3e a667 fa3e f0c4 9c3e
00000050: 2179 01be 33dd 14bd 2b2c ac3e cc67 ad3e
00000060: f3af 893d 08a5 4e3d d1bb 133f 38e2 e7bd
00000070: 1b78 9f3e 5498 0a3e 7b37 053e e28e f3bb
00000080: 1a02 d7bd 5a17 1f3e 6ded a53e 5f54 733e
00000090: 434b d33e 8162 873e 0852 be3c f86d b73e
000000a0: 051c 8e3d 1320 4a3d ff0e 3a3e 0212 653d
000000b0: f4e6 5f3d 5b5a 4dbe a08b 993e 4005 be3d
000000c0: 489f 933e 2ed4 db3c 32f9 9f3e 0802 9d3d
000000d0: a26f 7d3d 9c30 4f3c fae5 20be 705c dd3e
000000e0: 0f4d d53e ca63 6e3e 3d1f efbc 9f71 583e
000000f0: 9e95 e13c 13d3 a23e 2831 32bd 69bd a73e
00000100: 50a6 04be 6a04 1fbe 0741 9a3d d5fa a7bd
00000110: 1cc9 a13e 7a97 10bd b013 463e aa9d 1abe
00000120: cf6c 073e 674b 58be bb0c 02bd 38ae b9bd
00000130: 08d7 18bd 87e7 943e e606 3c3e 38be 50bd
00000140: 534a 93bc bd30 d03e 139a a93e bac3 0b3d
00000150: f1c3 29bd 1a3a b53e 6f38 7d3d 39a0 f13d
00000160: b918 0c3e 1b83 233e 456e 19be 1461 413e
00000170: 54db 6cbd 5ca8 0ebd 7007 b43e 3edf 473e
00000180: c787 a53d 3a81 efbc f787 123e fc7a e1bd
00000190: 0778 8bbc 7b24 073e a277 9abd 2ce8 00bd
000001a0: c547 f73d 44a1 b33d 1a68 133d d57c 46bd
000001b0: cd6c 6a3e a2d0 a43d 7416 3dbe d2c6 7c3e
000001c0: 14f8 3cbd 247c c43d ac01 16bd a24a c53e
000001d0: a59c 3c3e 0436 853d d1c6 f63d da50 5cbe
000001e0: 1ddb 45bd cf0e 8e3d ee97 03bd fcce 933e
000001f0: 135a 8fbd 3ba2 c23e 7091 87be c963 343e

read_encoder.block2.1.weight f4 [128]
0.7489936 1.3467479 0.94624275 1.0354114 0.58488655 0.91703075 1.2107649 1.2063718
1.1658449 0.75818264 1.1481901 0.8378149 1.5121461 1.4654042 0.67500055 0.6189926
1.1968797 0.8733616 0.59151137 0.67756504 1.2112294 0.99474627 0.6782585 0.72783244
1.1612722 1.2204857 0.5801051 1.3806436 0.78650236 0.9505933 0.63064104 1.227471
1.1266446 0.6839254 0.7510149 0.5778278 0.61200327 0.8193895 1.2335858 0.59756416
1.0051398 0.9339864 1.0154407 0.8578456 1.0607786 1.6122339 0.986682 0.76816434
0.6214194 0.9542314 0.75107056 0.98171777 1.0182112 0.9918549 1.0248529 0.6095443
0.6134046 0.847361 0.9540693 0.93921596 0.9372479 0.7354086 1.280132 0.5970457
1.2078097 1.2425207 0.8513957 1.2701298 0.5472138 1.2180755 0.9471038 1.223487
0.78512985 1.58626 1.2181467 1.1497512 1.193745 0.8305085 0.8879731 1.1535015
1.2291105 0.64830446 0.59153 1.1886357 1.3839222 0.4674195 1.0256983 0.8387212
1.0431074 0.7346494 1.1949171 0.9814763 1.1265472 1.2099433 0.60645753 0.88712853
1.264516 1.1899048 0.79197174 1.464576 1.2400776 1.1841155 1.0518658 1.1442486
1.0735543 1.0715811 1.05803 1.1888485 0.81319815 1.0243696 1.1466384 0.9366218
1.2552181 0.9023285 1.1485516 0.8111622 1.067245 1.0578512 0.93382317 1.1914907
1.1233875 1.257388 1.2385955 1.0412091 1.2512301 0.64705914 1.3339992 1.0791986
00000000: 0bbe 3f3f 3c62 ac3f f73c 723f 5c88 843f
00000010: 20bb 153f 87c2 6a3f 58fa 9a3f 646a 9a3f
00000020: 683a 953f 4218 423f e5f7 923f 0a7b 563f
00000030: 018e c13f 5d92 bb3f d6cc 2c3f 4d76 1e3f
00000040: 5b33 993f a094 5f3f 4a6d 173f e774 2d3f
00000050: 9109 9b3f b1a7 7e3f 59a2 2d3f 3a53 3a3f
00000060: 91a4 943f e038 9c3f c581 143f eeb8 b03f
00000070: 3858 493f 155a 733f b171 213f c51d 9d3f
00000080: e435 903f bc15 2f3f 8342 403f 86ec 133f
00000090: 3fac 1c3f 83c3 513f 24e6 9d3f f7f9 183f
000000a0: 6ca8 803f bc19 6f3f f6f9 813f c59b 5b3f
000000b0: 98c7 873f ae5d ce3f 3197 7c3f 6ba6 443f
000000c0: 5815 1f3f 8248 743f 2946 403f db51 7b3f
000000d0: bf54 823f 34ea 7d3f 612e 833f 180b 1c3f
000000e0: 1508 1d3f a7ec 583f e33d 743f 7570 703f
000000f0: 7aef 6f3f bd43 3c3f 5edb a33f fdd7 183f
00000100: 8299 9a3f eb0a 9f3f 12f5 593f 9d93 a23f
00000110: 3416 0c3f e6e9 9b3f 6575 723f 399b 9c3f
00000120: 45fe 483f 910a cb3f 3bec 9b3f 0c2b 933f
00000130: a3cc 983f 349c 543f 3552 633f f0a5 933f
00000140: 7e53 9d3f 48f7 253f 836e 173f 3725 983f
00000150: 5d24 b13f 9c51 ef3e 154a 833f 6fb6 563f
00000160: 8b84 853f fc11 3c3f 0bf3 983f 0842 7b3f
00000170: b332 903f 6cdf 9a3f cd40 1b3f db1a 633f
00000180: a9db a13f cd4e 983f a9be 4a3f 3a77 bb3f
00000190: ddba 9e3f 1991 973f 8aa3 863f bd76 923f
000001a0: 3a6a 893f 9229 893f 876d 873f 302c 983f
000001b0: c12d 503f 8b1e 833f 0cc5 923f 72c6 6f3f
000001c0: fdaa a03f 00ff 663f bd03 933f 53a8 4f3f
000001d0: 7c9b 883f ab67 873f 090f 6f3f c482 983f
000001e0: 29cb 8f3f 17f2 a03f 4c8a 9e3f 5746 853f
000001f0: 4f28 a03f aba5 253f 7cc0 aa3f 2e23 8a3f

read_encoder.block2.1.bias f4 [128]
-0.22144519 -0.3962136 -0.35480237 -0.4365865 -0.5511471 -0.40032688 -0.51635534 -0.36727318
-0.39988172 -0.18520635 -0.25989 -0.36677858 -0.21940774 -0.38154927 -0.2665795 -0.38310292
-0.2816914 -0.27519915 -0.4204088 -0.30119917 -0.27367356 -0.33819064 -0.3565281 -0.31796446
-0.31376877 -0.23188715 -0.3510695 -0.31229827 -0.2672119 -0.46093634 -0.5129949 -0.26121205
-0.19950448 -0.29905993 -0.30304426 -0.49099827 -0.3617724 -0.33880243 -0.22313735 -0.40598845
-0.27342704 -0.42686778 -0.27605394 -0.3859254 -0.25026423 -0.35082445 -0.27655894 -0.3588225
-0.31685105 -0.3708682 -0.26404482 -0.43464828 -0.251304 -0.25684816 -0.33682758 -0.40827262
-0.35526463 -0.3330623 -0.37589827 -0.285436 -0.33381248 -0.39487177 -0.13198085 -0.24749564
-0.19744289 -0.42957047 -0.4661403 -0.41357726 -0.431468 -0.23093562 -0.27886632 -0.3245517
-0.47204664 -0.3533668 -0.23560981 -0.22903894 -0.18945232 -0.28903642 -0.30257753 -0.30444935
-0.26827973 -0.5148983 -0.3945033 -0.4043952 -0.4383811 -0.5544259 -0.40206948 -0.43221202
-0.23608536 -0.44434556 -0.27607298 -0.34468314 -0.31766617 -0.27828258 -0.44839993 -0.2465798
-0.28157368 -0.26772627 -0.4126057 -0.37798572 -0.19034529 -0.310643 -0.38159648 -0.2269469
-0.44623983 -0.20127326 -0.26487795 -0.29687706 -0.32039475 -0.3560399 -0.4107324 -0.28600395
-0.21597202 -0.41341418 -0.42400706 -0.30111828 -0.40798786 -0.25680834 -0.4337498 -0.2964133
-0.34335896 -0.3670471 -0.18469942 -0.22893953 -0.3687184 -0.44155 -0.2634284 -0.31653294
00000000: 87c2 62be 82dc cabe a8a8 b5be 4488 dfbe
00000010: fa17 0dbf a5f7 ccbe dd2f 04bf 3b0b bcbe
00000020: 4cbd ccbe bca6 3dbe 4d10 85be 67ca bbbe
00000030: 6cac 60be 6d5a c3be 1c7d 88be 1126 c4be
00000040: db39 90be e7e6 8cbe d23f d7be c736 9abe
00000050: f11e 8cbe 5327 adbe da8a b6be 3dcc a2be
00000060: 4da6 a0be d373 6dbe 62bf b3be 8fe5 9fbe
00000070: 00d0 88be d9ff ebbe a253 03bf 96bd 85be
00000080: e74a 4cbe 621e 99be 9e28 9bbe 2064 fbbe
00000090: 3b3a b9be 8377 adbe 1e7e 64be b8dd cfbe
000000a0: a1fe 8bbe 6a8e dabe f156 8dbe 0498 c5be
000000b0: a222 80be 439f b3be 2299 8dbe 95b7 b7be
000000c0: 4d3a a2be 70e2 bdbe e230 87be 388a debe
000000d0: ebaa 80be 9a81 83be aa74 acbe 1c09 d1be
000000e0: 3fe5 b5be 2487 aabe bd75 c0be ab24 92be
000000f0: 78e9 aabe a22c cabe fd25 07be 7f6f 7dbe
00000100: 782e 4abe a9f0 dbbe f1a9 eebe 66c0 d3be
00000110: 60e9 dcbe 637a 6cbe 91c7 8ebe a42b a6be
00000120: 19b0 f1be 7eec b4be b343 71be 2f89 6abe
00000130: caff 41be 95fc 93be 71eb 9abe c9e0 9bbe
00000140: f65b 89be 60d0 03bf 56fc c9be e30c cfbe
00000150: 7d73 e0be dbee 0dbf 0ddc cdbe e54a ddbe
00000160: 5cc0 71be 4381 e3be 7059 8dbe 4f7a b0be
00000170: 24a5 a2be 0e7b 8ebe ad94 e5be 6a7f 7cbe
00000180: 6d2a 90be 6b13 89be 0e41 d3be 5887 c1be
00000190: e0e9 42be 990c 9fbe 9d60 c3be c564 68be
000001a0: 8c79 e4be 941a 4ebe 159e 87be 4500 98be
000001b0: c80a a4be dd4a b6be 844b d2be 1c6f 92be
000001c0: c527 5dbe 06ab d3be 7417 d9be 2d2c 9abe
000001d0: c9e3 d0be 627c 83be 7414 debe 7cc3 97be
000001e0: bfcc afbe 99ed bbbe d821 3dbe 206f 6abe
000001f0: a8c8 bcbe d712 e2be 16e0 86be 9b10 a2be

read_encoder.block3.0.weight f4 [128, 128]
-0.09128517 0.0978355 0.12734957 -0.40625802 0.019253805 -0.044786707 0.38111094 0.0045942366
0.28359523 0.03404519 -0.04106617 -0.0067547183 0.10104128 -0.024959093 -0.053006787 -0.11322192
-0.090324305 -0.0034712616 0.059406582 -0.05927235 -0.24694547 0.2063126 -0.14144728 -0.1383855
-0.06786662 -0.00028395836 -0.08421766 -0.1040621 -0.24192323 0.26494786 -0.0582878 0.072349854
0.12376619 -0.006660467 -0.16753936 -0.16437301 -0.07833751 -0.36689115 0.08719256 0.053290892
-0.09769456 -0.010257272 -0.14933519 0.13391986 -0.40914342 0.47719505 -0.19118229 0.043053236
-0.10259205 0.10247942 0.1423833 -0.10502716 -0.16046666 0.09241386 0.56748235 0.12423307
-0.13663389 0.045616746 -0.46425 -0.24539109 0.0209653 0.14538677 0.004062778 -0.16957839
0.35293368 -0.62528807 0.09399559 -0.23367348 -0.2053976 0.34697938 -0.14521736 0.1431058
0.2586511 -0.027756752 0.139464 -0.24873099 -0.2704407 -0.33089826 0.19974387 -0.16494648
0.07939022 -0.16421103 -0.2104456 -0.4330186 -0.080427356 -0.12588014 0.12910825 0.17259955
0.16193241 0.14855921 0.0335113 0.10017226 0.19351886 0.118559964 -0.0509767 -0.027178878
0.123490304 0.09813103 -0.041649085 -0.15102357 -0.059776746 -0.064308815 0.24011956 -0.2932403
-0.3117591 0.19674186 0.25065666 0.3355169 -0.04843622 -0.23923507 -0.19044945 -0.21440835
0.16426122 -0.13356142 0.32549074 0.027722333 0.07715391 0.07919216 0.18800177 0.2857281
0.106189944 0.36391005 -0.10796022 -0.08662444 -0.1979856 -0.048761122 -0.34942603 -0.33590177
0.00050402037 -0.13553162 0.059335735 -0.05642667 -0.01745437 0.004194085 0.14545402 0.19215707
-0.030013412 -0.25863132 0.008400829 0.09138236 -0.15335865 -0.11358968 0.097510144 -0.040236637
0.029271286 -0.043821543 0.08922747 -0.13262145 0.05916553 0.20389451 0.055091716 0.019335618
-0.0040889084 0.065354556 -0.043538883 -0.1562505 -0.008909901 0.07323212 -0.04286331 0.2366758
0.17675135 0.013071849 -0.15349954 -0.12725733 0.101581655 -0.009511599 -0.0072538117 0.006053481
0.25931388 0.12548807 0.07366334 0.039602842 -0.025920907 -0.046169586 0.015096156 0.015202444
0.32398877 0.18009876 -0.046859026 0.09249378 0.22684541 -0.14296772 0.15620247 -0.009883328
-0.069563314 -0.0225596 0.3831075 0.013227806 0.08387674 0.06391407 0.0679823 0.053209923
0.12157926 0.10093642 0.059483863 0.050417397 0.07005548 0.052749265 -0.15686898 0.0039874977
0.06448822 0.12823728 -0.28426242 -0.33582014 -0.17646222 0.001166194 -0.017785726 0.15672109
0.0445548 -0.02799417 -0.037567835 0.08788165 -0.059559382 0.114890486 0.30053568 -0.001381235
-0.011515863 0.053451393 0.21940264 0.022249993 0.12816371 0.087257646 -0.004668913 -0.0907864
-0.21725298 -0.027471574 0.10836983 -0.12351572 -0.04930957 -0.12529293 -0.006458113 -0.15172105
0.15278201 0.013621184 0.109146796 0.050392114 -0.007877159 0.14451116 0.08790258 0.04614171
0.05845448 0.15276936 0.06155242 0.1314914 0.05521875 -0.0069093355 0.078951515 -0.06918662
0.15239051 0.06975366 0.032761656 0.01651299 0.05438415 0.017244717 -0.07376475 0.27494654
00000000: b8f3 babd fb5d c83d ed67 023e 0d01 d0be
00000010: 28ba 9d3c 4472 37bd f920 c33e 408b 963b
00000020: 6533 913e f872 0b3d 0035 28bd af56 ddbb
00000030: bbee ce3d 0377 ccbc a51d 59bd e5e0 e7bd
00000040: f3fb b8bd 1b7e 63bb 5154 733d 90c7 72bd
00000050: 46df 7cbe 9c43 533e 8ed7 10be eeb4 0dbe
00000060: a8fd 8abd 3fe0 94b9 4f7a acbd 831e d5bd
00000070: b9ba 77be 3fa7 873e 30bf 6ebd 292c 943d
00000080: 2179 fd3d 0c40 dabb 708f 2bbe 6651 28be
00000090: 6b6f a0bd 28d9 bbbe 0392 b23d 8d47 5a3d
000000a0: 1614 c8bd 1e0e 28bc 53eb 18be 4a22 093e
000000b0: 3f7b d1be e952 f43e 4ac5 43be 9758 303d
000000c0: c81b d2bd bbe0 d13d eecc 113e 7b18 d7bd
000000d0: 5f51 24be 7a43 bd3d 8646 113f e86d fe3d
000000e0: c1e9 0bbe a0d8 3a3d 2db2 edbe cd47 7bbe
000000f0: 6cbf ab3c 45e0 143e 0d21 853b f5a5 2dbe
00000100: b9b3 b43e e112 20bf c380 c03d 1a48 6fbe
00000110: c053 52be 48a7 b13e dcb3 14be 548a 123e
00000120: eb6d 843e 2162 e3bc a7cf 0e3e 56b3 7ebe
00000130: 3477 8abe 7f6b a9be a889 4c3e bbe7 28be
00000140: 5797 a23d f026 28be 0d7f 57be 9db4 ddbe
00000150: 19b7 a4bd b9e6 00be f434 043e f0bd 303e
00000160: 9cd1 253e e81f 183e 2543 093d 1d27 cd3d
00000170: cf29 463e 91cf f23d f2cc 50bd 3da6 debc
00000180: 7ce8 fc3d ecf8 c83d 3b98 2abd eca5 1abe
00000190: 76d8 74bd 57b4 83bd e7e1 753e 9823 96be
000001a0: e49e 9fbe b376 493e 1256 803e dfc8 ab3e
000001b0: 0f65 46bd 0afa 74be 2e05 43be dd8d 5bbe
000001c0: 1834 283e 53c4 08be b9a6 a63e f219 e33c
000001d0: df02 9e3d 802f a23d 8983 403e f44a 923e
000001e0: 1d7a d93d 6b52 ba3e 3f1a ddbd 2868 b1bd
000001f0: bdbc 4abe beb9 47bd f8e7 b2be 51fb abbe
00000200: 3c20 043a cdc8 0abe 070a 733d a71f 67bd
00000210: 78fc 8ebc 896e 893b e6f1 143e d3c4 443e
00000220: b0de f5bc 536b 84be a1a3 093c ad26 bb3d
00000230: 0d0a 1dbe b5a1 e8bd 66b3 c73d 2ccf 24bd
00000240: 56ca ef3c 387e 33bd e4bc b63d ebcd 07be
00000250: 8e57 723d b9c9 503e daa7 613d bb65 9e3c
00000260: 40fc 85bb 9cd8 853d d455 32bd 2200 20be
00000270: d5fa 11bc b9fa 953d 7091 2fbd 245b 723e
00000280: 4efe 343e 4f2b 563c fc2e 1dbe bf4f 02be
00000290: 0b0a d03d 8ad6 1bbc 62b1 edbb 475c c63b
000002a0: cac4 843e f27f 003e cedc 963d 9736 223d
000002b0: 1558 d4bc 521c 3dbd de55 773c ac13 793c
000002c0: dbe1 a53e cf6b 383e 40ef 3fbd 616d bd3d
000002d0: 2a4a 683e 2166 12be 8af3 1f3e afed 21bc
000002e0: 3677 8ebd e9ce b8bc ab26 c43e 71b9 583c
000002f0: 91c7 ab3d 61e5 823d 4e3a 8b3d a6f2 593d
00000300: 8cfe f83d c1b7 ce3d 5aa5 733d 7982 4e3d
00000310: 3f79 8f3d 9d0f 583d 43a2 20be 8ea9 823b
00000320: 6612 843d a250 033e d88a 91be 9ef0 abbe
00000330: 83b2 34be fada 983a 5fb3 91bc 7e7b 203e
00000340: 187f 363d 0854 e5bc bbe0 19bd 4bfb b33d
00000350: 8af4 73bd b44b eb3d d0df 993e 8e0a b5ba
00000360: 08ad 3cbc d9ef 5a3d 16ab 603e 9e45 b63c
00000370: 593d 033e 23b4 b23d aefd 98bb 38ee b9bd
00000380: 9177 5ebe 110c e1bc 00f1 dd3d cff5 fcbd
00000390: d5f8 49bd ca4c 00be 949e d3bb c35c 1bbe
000003a0: e372 1c3e 632b 5f3c 5b88 df3d f667 4e3d
000003b0: 330f 01bc bcfa 133e 4506 b43d 17ff 3c3d
000003c0: f76d 6f3d 926f 1c3e 641e 7c3d aea5 063e
000003d0: 0e2d 623d b567 e2bb 55b1 a13d b7b1 8dbd
000003e0: 420c 1c3e 02db 8e3d 1631 063d 4046 873c
000003f0: eac1 5e3d cb44 8d3c f911 97bd cbc5 8c3e

read_encoder.block3.0.bias f4 [128]
-0.014331076 0.25434375 -0.11140619 0.135756 -0.042771496 0.04112976 -0.26586115 -0.043314267
0.108404435 0.14137964 0.22584891 0.18532248 0.1946756 0.16598472 0.19560228 -0.08408669
0.21795602 0.17972015 0.07640409 0.1084822 0.25888863 -0.10591373 0.101475686 0.1526542
0.07280626 0.1520764 0.09821583 0.104296625 0.20179164 -0.07017645 -0.01863738 -0.20017551
0.1186462 0.13802567 -0.076932855 0.0063146744 -0.10753141 -0.08349575 0.13048288 -0.07008927
-0.022325585 0.07853252 0.15705521 0.048709694 0.23817304 0.14475037 0.1347162 -0.1640544
-0.043256585 -0.23517619 0.17670447 -0.036831208 0.03929219 0.26592556 -0.16481668 -0.009636896
-0.035482172 0.049929842 0.02835391 0.18864365 -0.06413487 -0.13565491 0.23015204 0.16527276
0.16844153 0.027941179 0.1648184 -0.07854241 -0.08840185 0.29216146 0.25453737 -0.24669808
-0.15275802 -0.05980397 0.034856904 -0.19258237 0.18662576 0.1263023 0.11355141 -0.2520158
-0.10250765 -0.0014429487 0.13694948 -0.26099473 0.1712386 0.03876567 -0.20999797 -0.13301879
0.18665293 -0.13739741 -0.17935874 -0.094476625 -0.28130567 0.2239804 -0.12240766 0.14834715
0.20664132 0.0971741 -0.17264588 0.25125954 0.14479409 0.25130075 0.16222927 0.104746364
0.04018877 0.086737804 -0.30797085 -0.28752908 0.104371026 -0.31530887 -0.20370997 0.25263792
0.121753186 0.09913977 -0.023470284 0.00064555235 0.14774586 0.15499999 -0.29160684 0.009369247
0.24513003 -0.1740372 0.028497519 0.17023228 0.28586152 0.052616637 -0.10039379 -0.00093903154
00000000: e4cc 6abc 5839 823e ee28 e4bd 9f03 0b3e
00000010: 2a31 2fbd ae77 283d f41e 88be 4d6a 31bd
00000020: 2503 de3d d3c5 103e f044 673e 2dc5 3d3e
00000030: 0a59 473e e6f7 293e f74b 483e a435 acbd
00000040: dd2f 5f3e 8f08 383e bf79 9c3d ea2b de3d
00000050: 0d8d 843e 4ce9 d8bd 7cd2 cf3d 6251 1c3e
00000060: 731b 953d eab9 1b3e 6225 c93d 7899 d53d
00000070: 78a2 4e3e acb8 8fbd 6bad 98bc cffa 4cbe
00000080: c7fc f23d 9a56 0d3e f98e 9dbd 54eb ce3b
00000090: 6e39 dcbd d2ff aabd 4e9d 053e f78a 8fbd
000000a0: 25e4 b6bc a8d5 a03d 15d3 203e d183 473d
000000b0: a2e3 733e 7139 143e 0bf3 093e e0fd 27be
000000c0: d12d 31bd 07d2 70be 04f2 343e 52dc 16bd
000000d0: d9f0 203d 6527 883e b4c5 28be 12e4 1dbc
000000e0: c155 11bd 3c83 4c3d 7646 e83c cd2b 413e
000000f0: 2559 83bd 1fe9 0abe faac 6b3e 433d 293e
00000100: f07b 2c3e e6e4 e43c 28c6 283e d8da a0bd
00000110: 070c b5bd 3096 953e b952 823e 6c9e 7cbe
00000120: 996c 1cbe 02f5 74bd 1dc6 0e3d 5034 45be
00000130: d31a 3f3e 6455 013e a48d e83d 3708 81be
00000140: 88ef d1bd 5321 bdba 7c3c 0c3e 1aa1 85be
00000150: 2c59 2f3e c0c8 1e3d b509 57be 1436 08be
00000160: f221 3f3e e8b1 0cbe d1a9 37be f67c c1bd
00000170: 4c07 90be 1e5b 653e deb0 fabd 51e8 173e
00000180: c899 533e 3703 c73d 15ca 30be 17a5 803e
00000190: e744 143e 7eaa 803e 6e1f 263e 4385 d63d
000001a0: fb9c 243d 97a3 b13d 5bae 9dbe 0337 93be
000001b0: 7ac0 d53d 2a70 a1be 5999 50be c259 813e
000001c0: bc59 f93d cb09 cb3d c144 c0bc 493a 293a
000001d0: b14a 173e 51b8 1e3e 7e4d 95be 7881 193c
000001e0: 5e03 7b3e cf36 32be a173 e93c 5f51 2e3e
000001f0: 715c 923e 8b84 573d 429b cdbd 5729 76ba

read_encoder.block3.1.weight f4 [128]
1.2867527 0.88077366 0.5573844 0.97561336 0.6572393 0.885023 1.0406556 0.5072731
1.1618435 1.0934142 0.97304344 0.9183298 0.88734454 1.0854349 0.84245634 0.4708816
1.0435724 0.89836395 0.72047323 0.935446 0.91243535 1.0327407 0.8941931 0.8755456
0.82217246 1.1728992 1.1783987 0.88335055 0.94767517 0.55262595 0.78852713 0.79561406
1.2163658 1.2204865 0.67905 0.62405 0.6117395 0.39651403 1.066747 0.9469514
1.0333451 0.70567906 0.93641895 0.897888 1.0165423 1.2929581 0.8969442 0.7883742
0.912416 1.2152526 0.8648408 0.69575 1.3315732 1.0154934 1.0577874 0.20709935
0.7228247 0.79601395 0.49052963 1.0139163 0.65370136 0.8516401 1.0022345 1.3501146
1.1938473 0.42679197 0.91404074 0.6767184 0.31234288 0.89326656 0.9573608 1.249257
1.0565463 1.465563 1.2851218 1.6208408 0.9178348 0.8769795 0.9549355 1.4360539
1.0882905 0.7775058 0.89911854 1.0561906 1.0485984 0.75127405 1.0727382 1.2046467
0.9851369 0.7452231 1.030762 0.9818902 1.2025981 1.0042684 0.53595316 1.1937888
0.984417 1.2332565 1.1288253 0.96621823 0.9632009 0.9403657 1.0047926 1.2899665
0.81337327 1.4363555 1.4062165 1.2411265 1.0346376 1.1179413 1.270694 0.96028453
1.0690031 0.9304782 0.4555649 0.84520465 0.9182727 0.87623084 1.1325449 0.6928824
0.9424712 0.6967473 1.2812344 0.92991817 0.96076596 0.6012576 1.2719141 0.6589731
00000000: 50b4 a43f 627a 613f beb0 0e3f ccc1 793f
00000010: d640 283f de90 623f 3434 853f a6dc 013f
00000020: 4ab7 943f fff4 8b3f 6019 793f a917 6b3f
00000030: 0329 633f 88ef 8a3f 38ab 573f 6517 f13e
00000040: c893 853f 2efb 653f ef70 383f 6479 6f3f
00000050: 5d95 693f d930 843f d7e9 643f c223 603f
00000060: e579 523f 9021 963f c5d5 963f 4323 623f
00000070: d79a 723f e578 0d3f eadc 493f 5dad 4b3f
00000080: e0b1 9b3f e738 9c3f 39d6 2d3f bec1 1f3f
00000090: f69a 1c3f e303 cb3e 2a8b 883f 686b 723f
000000a0: a744 843f 62a7 343f 27b9 6f3f fddb 653f
000000b0: 0f1e 823f a77f a53f 239e 653f e4d2 493f
000000c0: 1894 693f 668d 9b3f 3566 5d3f ac1c 323f
000000d0: fe70 aa3f b0fb 813f 9465 873f da11 543e
000000e0: 0a0b 393f 92c7 4b3f b326 fb3e 02c8 813f
000000f0: f958 273f 1605 5a3f 3849 803f 8ed0 ac3f
00000100: fdcf 983f 7a84 da3e 93fe 693f 6b3d 2d3f
00000110: 68eb 9f3e 1ead 643f 9915 753f a7e7 9f3f
00000120: e93c 873f 9297 bb3f df7e a43f b677 cf3f
00000130: 39f7 6a3f ba81 603f a776 743f 9dd0 b73f
00000140: 1a4d 8b3f 9f0a 473f a22c 663f 4131 873f
00000150: 7938 863f 7f53 403f 7c4f 893f dd31 9a3f
00000160: ef31 7c3f f1c6 3e3f 02f0 833f 285d 7b3f
00000170: bcee 993f de8b 803f 3a34 093f 12ce 983f
00000180: c102 7c3f 59db 9d3f 597d 903f 145a 773f
00000190: 5694 763f cebb 703f 0b9d 803f 9f1d a53f
000001a0: 3b39 503f 7fda b73f e7fe b33f 3cdd 9e3f
000001b0: 016f 843f b318 8f3f 1aa6 a23f 35d5 753f
000001c0: 18d5 883f d233 6e3f cd3f e93e 555f 583f
000001d0: eb13 6b3f aa50 603f 3bf7 903f be60 313f
000001e0: cb45 713f 085e 323f 7dff a33f 1e0f 6e3f
000001f0: c2f4 753f 05ec 193f 15ce a23f 76b2 283f

read_encoder.block3.1.bias f4 [128]
-0.40541258 -0.08533879 -0.72186136 -0.060137138 -0.4817148 -0.12736426 -0.0514782 -0.6902992
-0.14414518 -0.11215363 -0.08734416 -0.16066661 -0.11237281 -0.11545687 -0.18251802 -0.28721887
-0.13037117 -0.079082176 -0.25913164 -0.063885905 -0.08895943 -0.3992863 -0.119640954 -0.11890864
-0.12167822 -0.17825095 -0.1621046 -0.123237625 -0.059400816 -0.36413237 -0.18102828 -0.2753794
-0.31564984 -0.2682277 -0.03650776 -0.4841427 -0.40540424 -0.668848 -0.22519816 -0.06299487
-0.1979048 -0.24813083 -0.08839505 -0.1484417 -0.093969576 -0.21121861 -0.11943117 -0.35745823
-0.22778413 -0.3921901 -0.08759578 -0.3047434 -0.20631416 -0.067265704 -0.28958118 -0.91936076
-0.2631113 -0.219471 -0.63514596 -0.061633762 -0.31317863 -0.3603848 -0.1274033 -0.3173767
-0.1794662 -0.4965554 -0.093486205 -0.27504468 0.031840667 -0.05630981 -0.11732347 -0.10647558
-0.028829714 -0.60350114 -0.20285593 -0.4349667 -0.106608704 -0.12843286 -0.07784088 -0.10077586
-0.27660173 -0.2534683 -0.11412116 -0.08906336 -0.08732064 -0.33134747 -0.016918246 -0.37866184
-0.08515126 -0.31542343 -0.26807857 -0.42650807 -0.05686072 -0.14344011 -0.47091624 -0.17351425
-0.06892526 -0.19899736 -0.16748577 -0.09210552 -0.09183116 -0.08165133 -0.087591685 -0.40663537
-0.13248087 -0.3087099 -0.19257376 -0.1943665 -0.12756203 -0.11991441 -0.03594266 -0.06509877
-0.11786193 -0.15442589 -0.51137596 -0.1273275 -0.10693328 -0.115318105 -0.078930005 -0.12896791
-0.078413785 -0.57156366 -0.20658487 -0.055213325 -0.13719256 -0.50615895 -0.33586264 -0.33501747
00000000: 3d92 cfbe 1bc6 aebd e8cb 38bf 5c52 76bd
00000010: 52a3 f6be c76b 02be ceda 52bd 73b7 30bf
00000020: cb9a 13be cdb0 e5bd 7fe1 b2bd ca85 24be
00000030: b723 e6bd a774 ecbd 01e6 3abe 5a0e 93be
00000040: 0580 05be d6f5 a1bd e7ac 84be 9dd6 82bd
00000050: 5d30 b6bd 416f ccbe 5106 f5bd 6086 f3bd
00000060: 6e32 f9bd 6b87 36be c0fe 25be 0264 fcbd
00000070: 454e 73bd 8f6f babe 7a5f 39be 87fe 8cbe
00000080: db9c a1be 2455 89be 2989 15bd 8de1 f7be
00000090: 2591 cfbe 9f39 2bbf 599a 66be 7403 81bd
000000a0: 8ea7 4abe 0216 7ebe 7708 b5bd 1a01 18be
000000b0: 1f73 c0bd b149 58be 5498 f4bd c404 b7be
000000c0: 3e40 69be 24cd c8be 6b65 b3bd 5407 9cbe
000000d0: 0544 53be 9ac2 89bd fc43 94be 3a5b 6bbf
000000e0: 86b6 86be 01bd 60be ed98 22bf af73 7cbd
000000f0: f358 a0be 5b84 b8be 0376 02be 337f a2be
00000100: fdc5 37be 823c febe b275 bfbd a8d2 8cbe
00000110: 5c6b 023d 1ea5 66bd 4a47 f0bd de0f dabd
00000120: 4b2c ecbc 0d7f 1abf 77b9 4fbe f5b3 debe
00000130: aa55 dabd e783 03be 0a6b 9fbd 9363 cebd
00000140: be9e 8dbe 99c6 81be 5bb8 e9bd da66 b6bd
00000150: 2ad5 b2bd 60a6 a9be 2298 8abc f7df c1be
00000160: c963 aebd 2e7f a1be 9841 89be 445f dabe
00000170: c9e6 68bd f7e1 12be ef1b f1be b8ad 31be
00000180: b028 8dbd f7c5 4bbe 6481 2bbe d2a1 bcbd
00000190: fa11 bcbd d038 a7bd 4563 b3bd 8332 d0be
000001a0: 11a9 07be 390f 9ebe 0e32 45be 0308 47be
000001b0: 9f9f 02be b095 f5bd 9c38 13bd 8152 85bd
000001c0: 9861 f1bd d221 1ebe 89e9 02bf 2462 02be
000001d0: d6ff dabd e62b ecbd 0ea6 a1bd 2a10 04be
000001e0: 6897 a0bd ff51 12bf fc8a 53be 5e27 62bd
000001f0: 357c 0cbe a293 01bf 30f6 abbe 6987 abbe

bag_predictor.weight f4 [1, 128]
-0.1508267 -0.07926162 0.010777595 -0.06569783 -0.042362597 -0.06925589 0.10869962 0.0017914094
-0.14494729 -0.12737295 -0.06666266 -0.07209996 -0.062360007 -0.06667665 -0.060272783 0.009807765
-0.12675568 -0.04947733 -0.060122963 -0.053613618 -0.053554695 0.08131371 -0.058758058 -0.05156049
-0.053408638 -0.16401409 -0.09460642 -0.047489874 -0.073705316 -0.025502821 -0.04956417 0.10349551
-0.18518077 -0.12018245 -0.02487866 0.08650663 -0.017335791 -0.0030638492 -0.09597599 -0.051530465
-0.033503924 -0.052283466 -0.097147636 -0.043655485 -0.12082644 -0.22566529 -0.08479338 0.06474461
-0.033877306 0.14882734 -0.062832616 -0.05903734 -0.17507645 -0.06615793 0.26852074 0.038775273
-0.058954667 -0.05473528 -0.021487871 -0.09420715 0.021303747 0.076738395 -0.11993667 -0.17548291
-0.20236292 0.061414465 -0.055761326 0.042864073 -0.010608763 -0.1028147 -0.06910332 0.25950658
0.11565709 -0.34417382 -0.24503122 -0.40094134 -0.044994723 -0.05574669 -0.06800932 0.10780215
0.08306064 -0.053279907 -0.0596801 0.115562804 -0.089795515 -0.036366895 0.11225944 0.11966993
-0.10735072 0.13266987 0.27191237 -0.04441506 0.21801099 -0.16989028 0.089327395 -0.17692679
-0.10921262 -0.16543774 0.15436059 -0.15495566 -0.1235684 -0.09320195 -0.05782142 -0.095290735
-0.059530098 -0.2244226 0.2457088 0.1951768 -0.10138112 0.11881727 0.36398408 -0.08564325
-0.10869596 -0.042195827 -0.006628624 -0.049756303 -0.0759968 -0.06092427 0.1784587 -0.046696194
-0.067434646 -0.0027161825 -0.18754995 -0.074202836 -0.0791966 -0.020784453 0.2651729 -0.03308643
00000000: 5072 1abe eb53 a2bd 8394 303c 958c 86bd
00000010: 6784 2dbd 08d6 8dbd e89d de3d bacd ea3a
00000020: 106d 14be 0e6e 02be 6f86 88bd 25a9 93bd
00000030: 356d 7fbd c48d 88bd 98e0 76bd bfb0 203c
00000040: 3ecc 01be bea8 4abd 7f43 76bd f499 5bbd
00000050: 2b5c 5bbd cd87 a63d 4aac 70bd 1831 53bd
00000060: 04c3 5abd 4ff3 27be 03c1 c1bd be84 42bd
00000070: d0f2 96bd 4beb d0bc cd03 4bbd 74f5 d33d
00000080: 07a0 3dbe 3722 f6bd 55ce cbbc 632a b13d
00000090: ca03 8ebc dcca 48bb 0f8f c4bd 9c11 53bd
000000a0: 693b 09bd 3027 56bd 57f5 c6bd 18d0 32bd
000000b0: da73 f7bd cd14 67be 27a8 adbd d298 843d
000000c0: eec2 0abd 3266 183e 63ae 80bd 23d1 71bd
000000d0: 3e47 33be cf7d 87bd 8d7b 893e d2d2 1e3d
000000e0: 737a 71bd 1a32 60bd 5507 b0bc aeef c0bd
000000f0: 3285 ae3c 0529 9d3d 5ba1 f5bd cbb1 33be
00000100: 3a38 4fbe bc8d 7b3d fd65 64bd 3d92 2f3d
00000110: 61d0 2dbc 8390 d2bd 0b86 8dbd 0cde 843e
00000120: a0dd ec3d 8d37 b0be 77e9 7abe 2f48 cdbe
00000130: 634c 38bd a456 64bd 7848 8bbd 60c7 dc3d
00000140: b21b aa3d 083c 5abd 1f73 74bd 31ac ec3d
00000150: b6e6 b7bd 74f5 14bd 47e8 e53d 8215 f53d
00000160: b2da dbbd 9cda 073e 1938 8b3e 91ec 35bd
00000170: 463e 5f3e b8f7 2dbe 48f1 b63d 4c2c 35be
00000180: deaa dfbd 8368 29be b410 1e3e b2ac 1ebe
00000190: 6e11 fdbd aae0 bebd 27d6 6cbd ca27 c3bd
000001a0: d5d5 73bd 0acf 65be 169b 7b3e 6ddc 473e
000001b0: e8a0 cfbd 7856 f33d 1f5c ba3e ba65 afbd
000001c0: fd9b debd 88d5 2cbd ee34 d9bb 44cd 4bbd
000001d0: 36a4 9bbd ba8b 79bd e1bd 363e 8244 3fbd
000001e0: 2d1b 8abd fb01 32bb 180d 40be a8f7 97bd
000001f0: d431 a2bd 2844 aabc bec4 873e a385 07bd
