m6aReplica/2d_66_with_delta/Models/epoch13_rocauc0.881_valpr0.349_valscore1.230.pth (torch, 153757 bytes, 13 tensors)

read_encoder.block1.0.weight f4 [128, 21]
00000000: aea6 dc3e 43e1 a43e 5c3c 59bd 8c8a 983f
00000010: 7a46 e23e 51dd 113d c04b 8a3d 4cf4 2e3f
00000020: 9174 813e a21b 0440 d9e9 2ac0 4c35 ef3e
00000030: b6f9 74bd e933 33bb 07a6 ec3e f76f 663c
00000040: d060 833b 7f0f ba3a 16c9 15bd 7007 083d
00000050: f73e 0abb f99e 703e 650e 91be a983 613e
00000060: a90d d93d 76d3 02bf 81c1 84bc 87e4 3f3e
00000070: bc0f bdbe 4a02 2cbe 1e5b 093e 5b2c e6bd
00000080: 2425 00bf ab64 aa3e d547 15bf 3d4d b53d
00000090: fbb8 9cb8 9000 703e 273f d3bc 9588 1fbe
000000a0: 9743 053e bc84 963c e3fd 6cbc 9919 993d
000000b0: 21b9 293e ca19 18bf 87ae dabd 8778 953d
000000c0: 0245 18bd 85aa e7be d14c 5bbe 03df bdbf
000000d0: af85 9c3f d817 5abd 2701 c93d 3980 31bb
000000e0: d102 c6bd 996e 7fbb d870 5d3e 4e14 10be
000000f0: d47d b1bd 17ce 39be 6481 f53d d5a3 bd3e
00000100: 02d8 b63d 20be 8cbb 8161 9d3f 2641 603b
00000110: 454e d4bd f633 cf3d 3d39 173f 7fb6 4e3e
00000120: 239e fa3f 3c10 42c0 3923 1fbe 10bb 783e
00000130: 7eea a9be 8f50 143f accb 30bd f3d8 8e39
00000140: 3f7a b7bd fda9 fcbd 75c4 433c 270b 353b
00000150: e519 d13e bd7a 72be 5e27 c43d 8886 b9be
00000160: c523 01bf d128 583c ccd4 d83a a7d3 c8be
00000170: 09d2 8e3d 00cf acbf 97b4 d03e 47d2 30bf
00000180: a5d6 193f f538 d4be 2b27 30bd 09e0 f5bd
00000190: 1729 09be 8bab 573c 7fe6 fabd 9023 16be
000001a0: 7768 3aba 9b96 9dbe 48f8 e13d 656b 0dbe
000001b0: 5102 3dbf 1b0c 943e 17ea 753e ba2c 36be
000001c0: 2a3b d33e 83ff 60be 007a b5bf ac0e 893f
000001d0: 1563 0e3f 7257 29bf 5f79 013f 1ae9 7ebe
000001e0: 22cf 5a3d 1d0f 90bd c4f8 89bb 23c8 96bc
000001f0: 160c 06be db3b 83bd c4ce 0d3c b3b1 acbe
00000200: 2d14 2f3e dd3c 73be a804 1abe edc7 2a3d
00000210: 7638 45be 4880 2bbe c60a cbbd bfb0 94bf
00000220: a088 153f 2b71 44bf 0e1b b53e 5e35 83be
00000230: c833 8e3d 02d1 52bd ef30 533e 043c dabd
00000240: 172f d5bc 9dc0 893d 71dd aa3d 369b bb3e
00000250: a9b6 ac3e 3706 afbd 7b90 493e 1190 f5bd
00000260: db08 f73c d4fa 7c3e 992a b63e 5250 11be
00000270: d8a6 3bbe 98eb 403f a92f a8be a1be 5b3e
00000280: d3e7 1dbe bb4c cdbd 45c9 c53c 09bf 63be
00000290: a92a 203b 5380 1dbe 67e0 0cbe 9bc1 ae3e
000002a0: 0556 cdbd 517b 86be a10a b63d 5f9a 8c3d
000002b0: 9337 0b3e 1478 f53d aae6 c7bd ef4b 3dbe
000002c0: 73c3 12bd ad3b b93e 0c90 f13d 3f70 adbb
000002d0: 1a71 ebbd 38cb 0abe ff9e 8dbe dd95 1dbd
000002e0: 16d0 0b3e 364a 36bd b7cb 5abd b6c0 843d
000002f0: 95d2 2ebd fb62 c2bc 1cb9 61be 6798 95bd
00000300: 94d5 fa3e 1c50 063e 13c1 f13a 9602 ef3d
00000310: 4cab e53c 58d5 563d 45f5 923f 0569 0ebf
00000320: 7b10 1d3e 8c0a 753d 71f3 c83e a2d8 6a3e
00000330: e9e9 65bd d993 61bd 3ba0 78bd 491e b7be
00000340: 6dcb bebe 6e81 1fbd 0b82 82be 7e8c 423e
00000350: b874 64be 2e54 17bf b353 013e b7ea 4c3e
00000360: a9a9 33be 5880 90bc ebb7 ae3d d70f 2fbe
00000370: 4582 2c3f 8583 eb3e feb8 e3be 6c4a a43e
00000380: a980 47be d4aa 1d3d 5aa4 d93d 1068 4f3d
00000390: 5268 0cbe 3557 5dbe ac78 2abe bd9d 853d
000003a0: d67b bbbd a9ce 593e 4b3a c4be dae7 05be
000003b0: 6b5f 5a3b b012 38be 7ad3 32bf dd08 84be
000003c0: 0a04 94bf f261 dd3f dcb1 ab3d 8de3 f5be
000003d0: 25c2 5bbe 1569 c8be 3d76 bebd 347d 8f3d
000003e0: 2706 04bd cc47 1e3c 8626 a9bc 2a4f 80bd
000003f0: b092 173d 7767 5b3e 91a0 8ebd 4d70 d4be
0.43095917 0.3220311 -0.05303608 1.1917281 0.44194394 0.035611454 0.067527294 0.6834152
0.25284246 2.0641866 -2.670523 0.4672035 -0.059808455 -0.0027344173 0.4622042 0.01406478
0.0040093437 0.0014195292 -0.036568724 0.033210218 -0.002109466 0.23498143 -0.28331295 0.2202288
0.105983086 -0.51103914 -0.016205551 0.1873952 -0.36926067 -0.16797748 0.13413665 -0.11238929
-0.5005667 0.3327993 -0.5831273 0.08852623 -7.473115e-05 0.23437715 -0.02578695 -0.15579446
0.13014065 0.01837384 -0.014464828 0.074755855 0.16574527 -0.5941435 -0.1067782 0.072983794
-0.037175186 -0.45247284 -0.21416022 -1.4833683 1.2228297 -0.053245395 0.09814673 -0.0027084483
-0.09668506 -0.0038975833 0.21625078 -0.14070246 -0.08666578 -0.18145023 0.1198757 0.37039056
0.08927919 -0.0042951256 1.2295381 0.003421852 -0.10366491 0.10117333 0.59071714 0.20186804
1.957951 -3.0322409 -0.1554078 0.24290109 -0.33186716 0.5793542 -0.043162987 0.0002724599
-0.089588635 -0.1233711 0.0119486945 0.0027625056 0.40840068 -0.23679633 0.09577821 -0.36235452
-0.50445205 0.013193325 0.0016542911 -0.39223978 0.06973655 -1.3500671 0.4076278 -0.6907086
0.60093147 -0.41449705 -0.043006103 -0.12005622 -0.13394581 0.013163458 -0.12250995 -0.14662004
-0.00071109034 -0.30778965 0.11033684 -0.13810499 -0.7383166 0.28915486 0.2401508 -0.177905
0.41256076 -0.2197247 -1.4177856 1.0707603 0.5561994 -0.66149056 0.5057582 -0.24893609
0.053420193 -0.07034133 -0.0042105634 -0.01840598 -0.13090548 -0.06407901 0.008655254 -0.33729324
0.1709754 -0.23753686 -0.15040839 0.04169457 -0.1925982 -0.16748154 -0.09914164 -1.1616439
0.584116 -0.7673518 0.35372204 -0.25626653 0.0694347 -0.051468857 0.20624135 -0.10655978
-0.02602343 0.06726191 0.08343018 0.36641854 0.3373311 -0.08546107 0.19684021 -0.11990369
0.03015559 0.24705058 0.35579374 -0.14190796 -0.18325365 0.7535949 -0.32848862 0.21459438
-0.15420465 -0.10024401 0.024143824 -0.22240843 0.002443949 -0.15380983 -0.13757478 0.34132084
-0.100261725 -0.26265958 0.08888746 0.068653814 0.13595419 0.11985794 -0.097607926 -0.18485998
-0.035830926 0.36178342 0.11795053 -0.005292922 -0.11496182 -0.13554084 -0.27660367 -0.038473
0.13653597 -0.044504367 -0.053416934 0.06482069 -0.042681295 -0.023728838 -0.2204327 -0.07304459
0.48991072 0.13116497 0.0018444381 0.11670415 0.028035782 0.052449554 1.14811 -0.55629
0.15338318 0.05982451 0.3924823 0.22934201 -0.056131277 -0.05507264 -0.060699683 -0.35765293
-0.37264577 -0.038941793 -0.2548984 0.18998906 -0.2231015 -0.59112823 0.12629585 0.20011412
-0.17545189 -0.017639324 0.08531173 -0.17095886 0.67386276 0.4599878 -0.44477075 0.3208803
-0.19482674 0.038492993 0.10627051 0.05063635 -0.1371167 -0.21615298 -0.16647595 0.06524227
-0.09154479 0.21270241 -0.38325724 -0.13076726 0.0033321034 -0.17975879 -0.6985394 -0.25788012
-1.1563733 1.7295516 0.08383533 -0.4802517 -0.21460779 -0.3914267 -0.09299896 0.070063025
-0.03223243 0.009660672 -0.020648252 -0.06265099 0.037005126 0.21426187 -0.06964219 -0.4149193

read_encoder.block1.0.bias f4 [128]
00000000: a469 86be a807 c33e a09b a23e 443a 913e
00000010: b21a 303e 0eeb adbe ef4d b53e 4a19 3f3e
00000020: c43a b23e f37c e8bd 6632 8abe 15d6 23bb
00000030: 03dd ce3d 0795 7d3e 025d ae3d 73f6 163e
00000040: 8636 77be bfb4 2a3e 9376 863e 2b58 a7be
00000050: b219 46be 800f f83c 0152 443c 6f3f 74be
00000060: 71a2 303e ad8d 933e 5bf7 153e fd08 413e
00000070: 80b1 173e 5833 013f 9e1d 9d3e 17c9 0b3e
00000080: 4d78 0ebe deff d13d a563 8b3e 55a8 dbbd
00000090: 366a a33e 6199 e93d 39f7 a63d 65a0 47bb
000000a0: a9e1 963e 2b81 9bbe 06a6 01be e302 aebd
000000b0: d06a 223e 1539 193e 3172 cfbb 0b8d a1bd
000000c0: a201 c23e 654f ca3e 4f3f 3fbd e0e8 493e
000000d0: a774 3dbe 3d02 bebe f572 b03d d5dc 213e
000000e0: 1c33 423e 94fe dfbd bedc 493d bf84 c13e
000000f0: 29ef c6be 1643 513d 1d16 843e 3b1e ce3e
00000100: 6408 a03e 3df7 853e e365 b23e 880c c63d
00000110: 3237 603e b60d 9abd 5dd8 163e 2f18 753e
00000120: 8567 843e 1e09 3b3e ca66 91be f1f8 363e
00000130: 831a 9dbe c157 b8be 2f3a dd3c b5d1 a73e
00000140: 9e14 5ebd 9659 a4be 6f22 383e 197a 783d
00000150: d4b6 37be 75e1 0dbc 9e08 1ebd df77 643e
00000160: 937c 12be 1b99 be3d 0cdb cc3c 38f8 ed3b
00000170: a018 df3d 0542 40be a2c9 26bd efd5 9bbe
00000180: 6eed 39bd 5c51 a63d 8e88 61be 9daf a83c
00000190: 66e3 6cbd e9ed 98bd ebb2 a1bd 3ec3 87be
000001a0: 231b 1b3e 2237 46be 90a6 423e 5229 633e
000001b0: 8a45 843d c038 983e 961f d93e 1256 1d3e
000001c0: 87ca d7bd c6f8 1dbd 6af6 d83e 9e7d ab3c
000001d0: ac4b 1f3d 3399 f3be 0397 3e3e 5feb f23d
000001e0: 62d6 a93d 4b22 823e 563f 0abe ad72 a1bd
000001f0: 53d4 44be e4e7 093e cf25 993d 39f0 b03c
-0.26252472 0.3809178 0.31759357 0.28364766 0.17197683 -0.33968395 0.3541102 0.18661991
0.3481046 -0.11351957 -0.26991576 -0.002499943 0.101007484 0.2476388 0.085138336 0.1474245
-0.24141893 0.16670512 0.2626234 -0.32684454 -0.1934574 0.030280828 0.011982442 -0.23852323
0.17249466 0.28819028 0.1464514 0.18851085 0.14813805 0.5046897 0.3068666 0.13650928
-0.13913079 0.10253881 0.2722446 -0.10725466 0.3191697 0.11406208 0.08152623 -0.0030460593
0.2946904 -0.30371985 -0.12660989 -0.08496644 0.15861058 0.14963181 -0.0063307513 -0.0788823
0.3789187 0.39513698 -0.046691235 0.19717741 -0.1850153 -0.37111083 0.08615676 0.15806897
0.18964809 -0.10937229 0.04928278 0.3779659 -0.3885434 0.05108937 0.2579812 0.4025744
0.31256402 0.2616519 0.34843358 0.09670359 0.21896055 -0.075221464 0.14730974 0.23935007
0.2586023 0.18265197 -0.28398734 0.17868401 -0.3068429 -0.3600445 0.027005283 0.3277718
-0.05421888 -0.320996 0.17981885 0.060663316 -0.17940837 -0.00865971 -0.038582437 0.22311352
-0.14305334 0.09306546 0.025006793 0.007262256 0.10893369 -0.18775184 -0.040719636 -0.30436656
-0.045392446 0.08120987 -0.22024748 0.020591551 -0.05783405 -0.07467253 -0.07895454 -0.26516145
0.1514707 -0.19356969 0.19008851 0.22183731 0.06458576 0.29730797 0.4240691 0.15364864
-0.10536676 -0.038567327 0.423755 0.020933922 0.038890526 -0.4757782 0.18612294 0.118613
0.082928434 0.25416788 -0.13500723 -0.07883201 -0.1922162 0.13467366 0.074779145 0.021598922

read_encoder.block1.1.weight f4 [128]
00000000: d5ef 873f 674e 9c3f 7d4a 523f 075a a23f
00000010: 1178 5b3f dd89 9c3f 5436 543f 53fd a03f
00000020: fcce 113f 1a40 b23f 4691 583f 57ba 833f
00000030: 2dc8 9f3f 1c07 983f abf6 8c3f 014a 4c3f
00000040: 5d73 703f c565 853f ac2a 503f d000 953f
00000050: 4047 8f3f a6bb ad3f 8ad5 233f e26d 863f
00000060: 8779 a13f b1a5 6b3f f5a5 293f 8244 a13f
00000070: aaad 583f 8d88 b43f da98 853f 200a 503f
00000080: 1b8d 8a3f 5d0f 8a3f 4957 343f b14b 873f
00000090: a69c 413f 15e9 7b3f e151 513f 4af7 7a3f
000000a0: 7c3c 8e3f 9a66 8b3f 210a 613f 1bcc 743f
000000b0: f8c5 843f 3ea2 9a3f 41aa 363f 3ef6 a03f
000000c0: fa14 8c3f d003 4d3f 3f91 943f 1e5b 9d3f
000000d0: 89e8 5a3f b4ac 7b3f 7195 aa3f 4fe9 333f
000000e0: 8331 443f 3027 7d3f 4b0b ae3f 20df 8c3f
000000f0: 420e 903f 8d61 823f e4d2 853f ab37 513f
00000100: 8566 b13f 7d85 a83f 1b57 603f 5d27 853f
00000110: cc7b 1d3f f882 883f 1ac5 853f 4251 5b3f
00000120: 04fd 413f f0be 9d3f afcd a23f 62f2 873f
00000130: 33c2 a03f 95ff 6b3f 2537 6c3f bef8 953f
00000140: 1d9c 7c3f 59c4 553f f352 e23e 8952 1a3f
00000150: 13c8 6f3f 15d3 4c3f 6fce 3b3f dd0a 733f
00000160: 0a29 453f 638b 973f c507 813f d327 743f
00000170: 0338 5d3f 9517 763f 3632 5b3f 8558 a03f
00000180: 485b af3f 6338 a73f 88ad 323f 803f 993f
00000190: cc77 7a3f 3f34 413f 3611 933f c3ee 6f3f
000001a0: 653f 943f 48aa 6b3f 0173 693f e275 8a3f
000001b0: 6699 923f 2cf2 7c3f 659f 7f3f beb1 313f
000001c0: 979b 7d3f c9f5 8a3f 3a5b 953f 2bbe 883f
000001d0: fc0a 273f 0af9 833f 14e2 313f 4fea 863f
000001e0: f19b 723f 4b94 743f 537c 513f b398 053f
000001f0: 4996 8e3f 9614 403f c204 7f3f 3e86 a23f
1.0620066 1.2211426 0.8214491 1.2683724 0.8573008 1.2229573 0.828954 1.2577308
0.5695646 1.3925812 0.8459667 1.0291241 1.2482964 1.187717 1.1012777 0.7980042
0.9392603 1.0421683 0.8131511 1.1640873 1.1193619 1.3572891 0.6399771 1.0502284
1.2615212 0.920497 0.66268855 1.2599032 0.8463999 1.4104172 1.0437272 0.8126545
1.0824312 1.0785939 0.70445687 1.0569974 0.7562965 0.9840253 0.8176556 0.98033583
1.1112208 1.0890687 0.8790608 0.9562394 1.0372915 1.2080762 0.71353537 1.2575147
1.0943902 0.8008394 1.1606826 1.2293432 0.8551107 0.983104 1.3326856 0.70277876
0.7663805 0.9888792 1.3597196 1.1005592 1.1254351 1.018602 1.0454984 0.8172557
1.3859411 1.3165737 0.8763291 1.0402638 0.61517024 1.0664968 1.0450776 0.85670865
0.75776696 1.2323895 1.271902 1.0620844 1.2559265 0.9218686 0.92271644 1.1716535
0.9867571 0.8350273 0.4420391 0.6028219 0.93664664 0.80009586 0.7336187 0.9493845
0.77015746 1.1839412 1.0080496 0.95373267 0.8641359 0.96129733 0.8562349 1.2527014
1.3699732 1.3064083 0.6979604 1.1972504 0.97839046 0.75470346 1.1489627 0.93723696
1.1581846 0.92056704 0.9119111 1.0817225 1.1453063 0.98807025 0.9985259 0.6941184
0.99065536 1.0856258 1.1668465 1.0683035 0.65251136 1.0310376 0.6948559 1.0540255
0.947692 0.9553878 0.8183033 0.52186126 1.1139613 0.7503141 0.99616635 1.2697217

read_encoder.block1.1.bias f4 [128]
00000000: a3a0 86bd 93d6 d6bc 47ce 55be cbac 23bd
00000010: 741a 61be fde0 05bd 99ac 39be 5145 31be
00000020: 4796 06bf ff29 74bd 89b9 21be 42b6 0bbe
00000030: d4d0 dfbc 9ce2 95bd 55e9 84be 5093 5bbe
00000040: 0d27 a6bd 75ef 83bd 99f1 52be 0373 97bd
00000050: 61a1 55bd 1cb1 c83b b194 a8be c8ce 5dbd
00000060: 4609 72be 5e2f 0bbe 3a76 a6be 2358 a2be
00000070: cb8d 52be dcc4 05be 6cf9 84bd f25b aebe
00000080: fa75 eebc 5f1e 02be 71c0 9bbe db88 ccbd
00000090: 4054 01bf f8ae febd 4c54 50be 8796 29be
000000a0: 8c33 c2bd e796 e8bd 4db8 3dbe e29b 0ebe
000000b0: 1e72 39be 4dd9 54bd 7fad 72be 7bbb adbd
000000c0: 669f 62bd 9e11 97be 365a 78bd 5ef0 9dbd
000000d0: fc1f 17be 4e92 a3bd 1fcb b5bb 89b8 c1be
000000e0: 808d 7cbe fb78 80bd 68ac 67bc 2c94 d3bd
000000f0: 97ae b2bd b440 d2bd 9c4b 24bc dd78 f3be
00000100: 45c3 90bd 9edb 9bbc 138e ebbd 3e01 e8bd
00000110: 0035 d8be cc63 dbbd 7a47 23be 4e12 47be
00000120: c878 9ebe 2077 8fbc 522f 91bc 6666 5ebd
00000130: 8766 62bd 6711 48be 9dd0 d7bd ad28 b53b
00000140: 7c84 c6bd beea 4fbe 5c71 28bf e037 b1be
00000150: fdb0 3ebe f93f 7abe 9228 7cbe 66e7 edbd
00000160: c0ef 8bbe 9062 89bd 6f96 02bf 747c 91be
00000170: ee15 86be c0cf d0bd a751 01be 3c60 d4bd
00000180: 1b07 92bc 7f92 9abd f468 b6be 10e2 d7bd
00000190: ba78 2cbe a446 9bbe 2c41 523b 07b0 a5bd
000001a0: e2c8 9abe 9919 37be 5697 85be 87dd 24bd
000001b0: f246 d6bd 9d8b 17be cd3d 80be 8209 a4be
000001c0: 923d 20bd 847b 18bd 1663 08bd f45c 12be
000001d0: 55d1 c7be fcfa c4bd 358e f8be cf2e 89be
000001e0: 7d17 1bbe 0657 f2bd c3f9 fdbd a193 e0be
000001f0: 23c8 1bbe c0ad 81be a71b b5bd d1c0 1fbd
-0.06573608 -0.026225364 -0.2087947 -0.03995971 -0.21982747 -0.03268527 -0.18132247 -0.17311598
-0.52573055 -0.059610363 -0.15793432 -0.13643745 -0.027321257 -0.07318613 -0.25959268 -0.21442914
-0.08112917 -0.06442157 -0.20599975 -0.073949836 -0.052155856 0.0061246287 -0.32925943 -0.05415228
-0.2363635 -0.13592288 -0.32512075 -0.31707868 -0.20561902 -0.13063377 -0.06492886 -0.34054524
-0.02910899 -0.12706898 -0.3042026 -0.099870406 -0.5051918 -0.124357164 -0.20344657 -0.16561328
-0.09482488 -0.11356907 -0.18527336 -0.13926652 -0.18109939 -0.051965047 -0.23698996 -0.08483025
-0.055327795 -0.29505628 -0.060632907 -0.07711862 -0.14758295 -0.0798689 -0.0055478956 -0.37836102
-0.24663353 -0.06273075 -0.014140226 -0.10330996 -0.087247066 -0.102662474 -0.010027792 -0.4755315
-0.07068495 -0.01902562 -0.11501708 -0.11328362 -0.42227936 -0.10712394 -0.15945235 -0.19440576
-0.30951524 -0.017512858 -0.01772276 -0.054296874 -0.05527356 -0.19537888 -0.10537837 0.0055285306
-0.09693238 -0.20304391 -0.6579797 -0.34612942 -0.18622203 -0.24438466 -0.24624851 -0.116164014
-0.27331352 -0.067082524 -0.51010793 -0.28415263 -0.26188606 -0.10195875 -0.12628804 -0.10369918
-0.017825654 -0.07547473 -0.35626948 -0.10541165 -0.16842929 -0.30327332 0.0032082302 -0.08090215
-0.30231386 -0.17880858 -0.26092023 -0.040250327 -0.104627505 -0.14799352 -0.2504715 -0.32038504
-0.039121218 -0.03722717 -0.03329762 -0.14293271 -0.39026895 -0.09618184 -0.48545995 -0.26793525
-0.15145679 -0.11833005 -0.12401154 -0.43862632 -0.15213065 -0.25327873 -0.08843165 -0.039002243

read_encoder.block2.0.weight f4 [128, 128]
00000000: c7b0 f33d 6f68 33be 39c4 8abd af2d aa3d
00000010: 4e54 943c c598 643d 3cee 823c 1251 bc3d
00000020: f8f3 44bd ebf6 6c39 b9dd ecbc b9ec 12bd
00000030: f5ab 563e 89fb 6e3d deb8 ce3d 85f2 1abd
00000040: 0fa4 59bd 4eed 263d 69cb c1bd 4c26 163d
00000050: ecb9 a23d acea 64be 0ac5 8bbd 27f9 5a3d
00000060: 8934 933d c4aa 63bb d115 2a3d 4d1b e8bc
00000070: c9a1 51bc 28cd 11be fe76 663d a8c4 db3d
00000080: 3722 8e3d 589d 4d3e 6807 9dbd dedd 893d
00000090: 37f0 95bd 5b1d 803d 9961 d93c bd2d 213b
000000a0: dd3e b7bd 5282 c4b9 f183 933a acdf 9f3c
000000b0: 6e05 1bbe c875 0fbe 5190 663d 0b1c 8f3c
000000c0: a25c 4dbe 820d 113d a59d 8a3d ec56 40be
000000d0: a5ad e83c 444b c3bb 2983 25be d826 a13d
000000e0: 5132 0a3d 5d26 d33d 4a98 8cbd ead1 3bbc
000000f0: f62f dc3d 0a97 a13d fa0a 99bd 2fb4 8dbd
00000100: c1c9 a0bd 8f3a 46be 6332 e7bd f886 debc
00000110: 466c 3dbd 1740 133e 713d a2bc 7b1e a3bd
00000120: f588 22bd 78ba 153d 4851 df3c 51ee 4abd
00000130: 41cc 2b3d cfbf 06bc c534 5a3b 3b8e e13c
00000140: 782b 4d3d 44c8 903d a1a5 8f3d f50f fc3b
00000150: 0d37 c1bc 4fe8 ce3b 0794 ffbc 4533 483c
00000160: cec0 2cbd dc19 3ebd b949 9dbd 9bd1 91bd
00000170: b380 da3d 6f9b 7b3d 97a5 82bc e8cb 073e
00000180: ce97 973c 688a 3fbe 6954 b1bd b834 2d3d
00000190: 1754 5fbd cf39 243d 92d4 6bbb ef5f 8d3d
000001a0: a2e0 d73d 2ef0 0b3c d276 813d 1cb6 7e3d
000001b0: 1223 2f3c d346 33be b9c3 0e3d 2975 4a3c
000001c0: 9b34 9b3d dcce d03d af8d f4bd 2d62 8cbc
000001d0: 2f65 95bd 1b10 9f3d eb9b 70bd 572a 493d
000001e0: d017 943d 6783 0dbd eeb5 05bd 4e35 97bd
000001f0: 9e4b 5ebd 07d2 883d 1a1d f0bd fe5c 393d
00000200: 4e6b 653d 761a f53c 5b0d d5bd 75df e5bb
00000210: b98a c4ba d670 c1ba 9484 2e3d fca9 5abe
00000220: efb0 563e 509a a6bc 2612 f8bd a9cc de3d
00000230: afd7 94bd d77a 973c 91ae d53c 804c e53c
00000240: 1648 54bc d4fc 56be 5503 863d 4c69 e1bb
00000250: e6dc 233d af67 02bb 6f58 9c3d 1cfd 47be
00000260: 0e47 54bd 8fe6 ccbc 9666 683d 0a03 8abd
00000270: 4983 16bd df5c 40bd 0a0d 7cbd 5db9 88bd
00000280: c24b 69bc 68bd 91bc daba 8a3d 090a 3cbd
00000290: c69a ab3c 3edc 673c c631 883b 0154 9f3d
000002a0: c438 81bc e7c1 023e d19f bb3d 5b1d 8fbd
000002b0: 6ec1 053a df5b 21be e9d8 67bd 4aa5 38bc
000002c0: 9a88 6b3d 2752 1c3d 0511 513c b11a debd
000002d0: 0b03 cebc 053e 003e a87d 70bd eae3 233d
000002e0: 23c1 b23d 9da5 043e 9caf 2ebd 9947 acbc
000002f0: 79cb 203e 9126 d5bc 0cfa c4bd b4e5 d4bb
00000300: 9049 28be 2fac efbd 797c 05be e312 a93d
00000310: 2d4a f53b cbe0 113e 1adb dd3d c255 dbbd
00000320: 6822 3d3d aba3 96be 6675 2cbd e3e3 80bd
00000330: d686 1dbd 563d 67bd 0218 853d 3acb 19bd
00000340: bfe6 e23d ec8b 023d f7fe 463e 314e 953c
00000350: e98b 243c 364a d2bc 8829 0c3e 11c0 3f38
00000360: 76e9 913d 9834 b9be 62fc ecbd 0149 61bd
00000370: 8024 13be 709f 79bb 1f65 3ebc 1a2d 2fbe
00000380: 84ba d53c c90c d3be ad6d 76bd 7d06 40bd
00000390: dcd7 a53d 3606 963d ee2c 21bd f13f 063d
000003a0: 06a9 e0bd 27fd b5bd 39c3 473c 5d7f babb
000003b0: 5834 343e 0614 f7bc 2928 8dbd 1cd6 a23d
000003c0: c4c6 303d a2cf ff39 a8d7 d1bd d546 bd3d
000003d0: f57c 0b3d c23f 5b3e b6f0 b0bd 00be b0bd
000003e0: 5d7d b7bd 2871 413c ffa4 7f3c e9fa c1bd
000003f0: 3146 d7bb f0aa 363d 8d48 193d 3291 6c3e
0.11898952 -0.17520307 -0.06775708 0.08309495 0.018106606 0.055809755 0.01598274 0.091951504
-0.04808423 0.00022598698 -0.02891432 -0.035870288 0.20964034 0.05834535 0.10093854 -0.03782894
-0.053134974 0.040753655 -0.094626255 0.036657616 0.07945618 -0.22355145 -0.068246916 0.053460266
0.07187755 -0.0034739235 0.041524712 -0.02833333 -0.01279492 -0.14238417 0.056265824 0.107308686
0.0694012 0.20079553 -0.07667428 0.06731771 -0.07321208 0.06255599 0.026535796 0.0024593913
-0.08947537 -0.0003748113 0.0011254532 0.019515835 -0.1513879 -0.14009774 0.056289975 0.017469427
-0.20054868 0.035413273 0.067683496 -0.18783158 0.028403113 -0.0059599 -0.16163315 0.07868737
0.03373939 0.103100516 -0.06864984 -0.011463622 0.10751335 0.078901365 -0.07472797 -0.06919133
-0.078509815 -0.19358276 -0.112889074 -0.027163967 -0.046245836 0.14379917 -0.019804688 -0.07964798
-0.039681394 0.036554784 0.027260438 -0.049543682 0.04194284 -0.008224442 0.0033295613 0.027533641
0.050090283 0.07069448 0.07014013 0.007692332 -0.02358582 0.0063143144 -0.031198515 0.012219255
-0.04217606 -0.04641138 -0.07680077 -0.07120057 0.10669079 0.06142753 -0.0159481 0.13261378
0.018505003 -0.18705142 -0.08658678 0.042286605 -0.054523554 0.040094193 -0.0035984856 0.069030635
0.10540892 0.00854115 0.06321491 0.06218539 0.010689514 -0.17507486 0.034854624 0.012357035
0.07578393 0.10195705 -0.119410865 -0.017136658 -0.0729469 0.07766744 -0.058742445 0.049112644
0.072311044 -0.034549143 -0.032644205 -0.07383214 -0.054271333 0.066806845 -0.11724301 0.0452547
0.056010537 0.029919844 -0.10402938 -0.0070151635 -0.0014994956 -0.0014758359 0.042606905 -0.21353906
0.20965932 -0.020337254 -0.121128365 0.108788796 -0.07267701 0.018491192 0.026084216 0.02799058
-0.01295664 -0.20994884 0.06543604 -0.0068790074 0.040005587 -0.0019898226 0.07634055 -0.19530147
-0.051825576 -0.025012283 0.05673846 -0.06738861 -0.036746297 -0.04696357 -0.061535873 -0.0667598
-0.0142392535 -0.017790511 0.0677392 -0.045908008 0.020947825 0.014151631 0.004156324 0.07779694
-0.015774138 0.1276928 0.09161342 -0.06988021 0.00051023706 -0.15757702 -0.056603346 -0.011269877
0.05750332 0.038164284 0.012760405 -0.10844935 -0.025147935 0.12523659 -0.058713585 0.040012278
0.08728244 0.12953801 -0.042647943 -0.021030234 0.15702619 -0.026019366 -0.09618005 -0.0064971093
-0.16434312 -0.11702763 -0.13035764 0.082555555 0.007485649 0.14245908 0.10832806 -0.107097164
0.04617539 -0.29421744 -0.042104147 -0.06293466 -0.038458668 -0.05645498 0.0649872 -0.037547328
0.110791676 0.03187172 0.19433199 0.018225761 0.010043123 -0.025670152 0.13687718 4.5716824e-05
0.07124607 -0.36172938 -0.11571576 -0.055001263 -0.14369392 -0.0038089417 -0.011620789 -0.17107049
0.026089914 -0.41220692 -0.06016319 -0.046881188 0.080978125 0.073254034 -0.03934949 0.032775823
-0.10969739 -0.088861756 0.012192541 -0.0056914524 0.17598093 -0.030160915 -0.068924256 0.07950994
0.043158308 0.0004879209 -0.10246211 0.09242026 0.034054715 0.2141104 -0.08639662 -0.086299896
-0.08959458 0.011806764 0.015603303 -0.094716854 -0.0065696468 0.044596612 0.037422705 0.23102263

read_encoder.block2.0.bias f4 [128]
00000000: 2352 af3d 398d 0abd 7e20 ad3d e997 443d
00000010: b5e5 bd3d 91aa 113b a187 31bd d530 a03b
00000020: 80dc 82bc 3e36 4f3d 3547 96bc 019a ed3d
00000030: 5de7 62bd 4627 2b3d e6cc ba3c 8d17 dd3b
00000040: e8ed 8c3c 74e2 f8bc ea63 c53d 1b2a d83d
00000050: 1d27 26bd 97ab 013c e147 83bc 2618 733d
00000060: bb36 a3bc 33a4 82bc 6ce7 0a3e 4fcb 2f3d
00000070: 2b94 493d fdf9 843c 8088 31ba e328 383d
00000080: 8e9a c5bd 540a cd3c 8040 ed3c 67ab 063d
00000090: 46ca 923d 87e9 893d 2da3 0d3d 1284 113c
000000a0: c39c ffbc f7da babb 83c2 0d3d 2623 353d
000000b0: 1489 653d 729e ce3c 2e40 eb3d d710 d6bc
000000c0: 01d3 a73d 750d b9bd 7662 8b3d 266e db3c
000000d0: 8bd4 5338 0db6 dfbc 11f7 73bd d5f0 da3d
000000e0: cf16 d03c bee3 af3d 962a 083d c1bf 073e
000000f0: 64f1 b53c 68d0 d13d b762 84bd b4cd 993c
00000100: 5c64 bcbd ee5e 77bb 4c14 9dbc 8820 073c
00000110: a2f0 9a3b dae0 ddbc 9480 da3d 3bb4 f7bd
00000120: 2816 283d ca34 84bd d277 3f3d f435 39bd
00000130: a0cd 2bbd b5ce 4b3d 7a4c 273d 40e1 c03b
00000140: 43b6 ef3c 4adf 8a3d 251f 273c dd45 993d
00000150: 0be2 373c 0976 f23d 4ab3 233d e3d3 64bd
00000160: 7469 053b 56cf 813c f18e c5bd 135e 3f3d
00000170: 844c 44bd 4b98 96bc 9cc4 f33d d41e b63d
00000180: edba d83d f8df a4bb 324d efbc c4c0 86bd
00000190: 6896 d23c 8994 ce3d 6f78 153c 9397 13bd
000001a0: 3ff5 ba3d 90ef 243d 627f 783c 26a8 fe3c
000001b0: dc0d ef3d 2571 433d f3d8 07be 890f 813d
000001c0: e9d8 453d 90ca b73d ccff 87bd a572 f03d
000001d0: 7fb2 5a3d b249 543c 0da7 d33b 73a1 8cbd
000001e0: a647 3e3c 7e62 de3c 2857 423c 06ed c53d
000001f0: effc 88bd 2564 0c3e ecaa 0ebe 4f47 9f3d
0.08560588 -0.033826087 0.08453463 0.047996435 0.09272329 0.002222691 -0.043342236 0.0048886337
-0.015974283 0.05058884 -0.018344501 0.116016395 -0.055396426 0.0417855 0.022802781 0.0067471922
0.017203286 -0.030381419 0.09638198 0.10554906 -0.040564645 0.007914445 -0.016025485 0.0593492
-0.019923558 -0.015947437 0.13564843 0.0429185 0.04921357 0.016232485 -0.0006772354 0.044960868
-0.096486196 0.025029339 0.02896142 0.032878306 0.07167487 0.06733995 0.034579445 0.008881586
-0.03120268 -0.005702372 0.03460933 0.044222973 0.05603893 0.025222037 0.11486851 -0.026131077
0.08194543 -0.0903577 0.06805889 0.026785921 5.0504266e-05 -0.027308488 -0.059561793 0.10690466
0.025401501 0.0858836 0.033243738 0.13256742 0.02220983 0.102448285 -0.06464141 0.018774845
-0.091988295 -0.0037745791 -0.019174717 0.008247502 0.0047283927 -0.027084757 0.106690556 -0.12094923
0.041036755 -0.06455381 0.04674513 -0.04521747 -0.041944146 0.049757678 0.040844418 0.005886227
0.029261714 0.0678087 0.0102002965 0.074840285 0.011223326 0.1183892 0.039965905 -0.055866133
0.0020357044 0.015845936 -0.096464045 0.046720576 -0.047924533 -0.018383166 0.11902735 0.08892599
0.10582528 -0.005031582 -0.029211614 -0.06579736 0.025706485 0.100869246 0.009122952 -0.036033224
0.09128808 0.040267527 0.015167089 0.031086039 0.11672565 0.047715325 -0.13266353 0.06301791
0.048302565 0.089741826 -0.06640586 0.11740617 0.053392883 0.012957023 0.006459123 -0.068667315
0.011613762 0.027146574 0.0118616 0.09664349 -0.06688868 0.13710077 -0.13932389 0.07777273

read_encoder.block2.1.weight f4 [128]
00000000: e7d0 663f 6608 793f 2408 793f 7e13 843f
00000010: 150a 393f e9ce 6e3f db79 773f 2eec 753f
00000020: 906d 863f f4f7 673f b432 883f a5bb 633f
00000030: 4c17 a63f efa8 953f 8023 4a3f 0cdb 5f3f
00000040: bd37 943f d963 673f b389 363f 1fb9 5e3f
00000050: 5e0b 833f e113 6e3f fbd3 5b3f a1c5 593f
00000060: b089 853f b49f 8d3f 39d9 463f 0159 923f
00000070: 0265 6f3f 1ae9 5c3f c297 393f 34a6 863f
00000080: 935e 8c3f 2ed5 603f 3c90 5b3f e4ec 233f
00000090: 2019 563f 2f60 6c3f c822 9c3f 7e9f 4a3f
000000a0: 1391 753f 1cb8 753f 68ea 633f 0025 583f
000000b0: 086b 883f 186c a53f ad16 6f3f 82f4 593f
000000c0: e12b 5f3f f2cf 663f 37bb 5f3f 4399 5c3f
000000d0: e6ed 853f bd2b 743f eac9 653f 2d07 463f
000000e0: 7a07 453f b0b7 663f cde0 6f3f ab3e 783f
000000f0: ee87 5e3f 6161 583f fdd9 9c3f c369 3f3f
00000100: ed55 993f 5b6a 8f3f 5342 613f 5fb4 8d3f
00000110: 5676 453f 1c27 9b3f 0426 683f 8b2f 873f
00000120: 0ab5 6b3f fb33 a33f 44d9 823f 1b65 933f
00000130: 1506 953f 1f37 6e3f 42d0 813f 5e80 7b3f
00000140: f191 853f ae6d 323f 8e05 433f 4bbe 873f
00000150: d541 8f3f 9fed 163f 42a2 6f3f 6cd9 613f
00000160: e100 803f 0cf2 403f 3279 8a3f d057 6f3f
00000170: 0125 673f 6051 8f3f 4f3b 453f 4e7f 703f
00000180: 0138 873f b30b 8b3f fbc6 653f 84ac 943f
00000190: 91eb 9b3f ae04 873f 9e71 663f d7a7 8b3f
000001a0: da12 7b3f 0d2a 7e3f b641 803f fb40 8c3f
000001b0: 4c64 743f 8df1 793f 0fd2 8c3f e610 653f
000001c0: f24d 973f 57ab 5f3f 2ae5 743f b662 5c3f
000001d0: ae10 6f3f f2aa 803f ecf7 6c3f 5f24 8b3f
000001e0: 325e 813f 787f 793f 4e0a 9b3f b255 6c3f
000001f0: 5680 8d3f d536 4b3f 3dda 983f fd88 813f
0.9016251 0.9727844 0.97278047 1.0318449 0.7228101 0.9328447 0.9667031 0.96063507
1.0502186 0.9061272 1.0640473 0.889582 1.297586 1.169218 0.7896042 0.87443614
1.157951 0.9038673 0.7130386 0.8700122 1.0237844 0.9299908 0.8587033 0.8506718
1.0432644 1.1064363 0.77675205 1.1433412 0.935135 0.86293185 0.7249719 1.0519471
1.0966362 0.87825286 0.8576696 0.6403334 0.8363209 0.92334265 1.2198114 0.79149616
0.9592449 0.95984054 0.8902955 0.8443146 1.0657663 1.2923613 0.93393975 0.85138714
0.8717633 0.9016105 0.8739504 0.8617136 1.0463226 0.9537924 0.8976122 0.773547
0.76964533 0.90124035 0.93702394 0.96970624 0.8692616 0.8452359 1.2254025 0.74770755
1.1979347 1.1204332 0.8799183 1.107067 0.7713369 1.212131 0.9068301 1.0561384
0.9207312 1.2750238 1.0222554 1.151523 1.1642481 0.9305286 1.014168 0.9824275
1.0435163 0.6969861 0.7618035 1.0604948 1.1191965 0.5895633 0.9360696 0.88222384
1.0000268 0.75369334 1.0818236 0.93493366 0.9029084 1.1196709 0.7704362 0.9394425
1.0563966 1.0862945 0.89756745 1.1615148 1.2181264 1.0548303 0.90017116 1.0910596
0.9807564 0.99282914 1.0020053 1.095733 0.9546554 0.976342 1.1001605 0.8947891
1.1820662 0.8737082 0.95662177 0.8608812 0.93384826 1.0052168 0.925658 1.0870475
1.0106871 0.97460127 1.211252 0.9231826 1.105479 0.7938054 1.1941601 1.011993

read_encoder.block2.1.bias f4 [128]
00000000: 1d8c 92bd efd6 d6bd 5d78 33be 05fd 10be
00000010: c480 bcbe 7604 3dbe 785e 93be d76f eebd
00000020: 8090 02be f68c 86bd 96d5 a5bd e6e0 21be
00000030: 1135 99bd 1501 71be 9e73 41be c276 2bbe
00000040: ab4a b2bd a72c e0bd 9b4c 9abe 3d0e 0abe
00000050: bd9b cbbd caed 06be 4db0 3abe 6498 31be
00000060: b649 26be c8e8 afbd 9541 56be fe19 a7bd
00000070: f9ed d2bd c830 74be f7bb 9dbe da06 10be
00000080: e8cb 8abd 1f93 06be f8c0 15be 5a50 9cbe
00000090: a301 5abe 6d36 04be 7e63 9ebd 1531 83be
000000a0: 45d4 bbbd faa9 58be 14c6 b7bd bc29 3ebe
000000b0: 608f b3bd 4cdb c4bd 783a eabd e71e 34be
000000c0: 944f 1abe 0158 36be e542 fcbd 91c8 70be
000000d0: 0554 b8bd b09c ccbd d4f5 33be 90df 78be
000000e0: 7a9e 81be 211f 43be d7b1 24be 9ffa e4bd
000000f0: 6698 1fbe a8e6 64be ed3e 40bc 55ec 3fbe
00000100: 0b89 6ebd b6f7 88be 5005 7fbe 5ee5 1cbe
00000110: ef34 8cbe 042e c4bd 0218 d4bd 4526 1ebe
00000120: d4bd 15be 3229 00be f403 7bbd 0715 9ebd
00000130: 6a26 15bd b705 10be 4799 afbd 5b22 f6bd
00000140: 67a6 99bd 5b79 aebe 6870 61be e2a1 4cbe
00000150: 7547 39be cb39 eebe 7f68 09be b393 3fbe
00000160: 7cd1 9cbd 04f3 75be 3ac9 59be 36fe d8bd
00000170: 3b3c 04be a26d d4bd b1e9 74be 5979 a8bd
00000180: 5c18 e5bd d529 8abd 2b08 25be ca73 06be
00000190: b3e6 dcbc a4dc debd cca8 ffbd 7849 79bd
000001a0: 0e60 46be d7f0 96bd 716a efbd b11d 17be
000001b0: 6676 d5bd d1ca 1ebe 891f 54be 02c8 07be
000001c0: 98d3 64bd 086e 49be ce4b 28be 2cb8 0ebe
000001d0: b06e 2abe 8a86 f2bd 16f5 2dbe 5af6 fabd
000001e0: 2640 babd fe9c 37be ac6b c1bc 2a70 bbbd
000001f0: 5caf 3dbe 2d91 7bbe 294f 07be 3f98 0bbe
-0.07155631 -0.10490214 -0.17526384 -0.1415902 -0.3681699 -0.18458733 -0.2878301 -0.116424255
-0.12750435 -0.06569855 -0.08097379 -0.15808448 -0.07480825 -0.23535569 -0.1889176 -0.16744521
-0.08705648 -0.10946017 -0.3013657 -0.13481994 -0.09941814 -0.13176647 -0.18231316 -0.17343289
-0.16239056 -0.085893214 -0.20923455 -0.081592545 -0.10299296 -0.23846734 -0.30807468 -0.14065114
-0.06777173 -0.1314206 -0.14624393 -0.30530053 -0.21289687 -0.12911387 -0.077338204 -0.25623384
-0.091713466 -0.21158591 -0.08973327 -0.18570608 -0.08767581 -0.0961214 -0.11436933 -0.17589913
-0.15069419 -0.17807008 -0.123174466 -0.2351401 -0.090004005 -0.09990823 -0.17574245 -0.24304032
-0.2531622 -0.19054843 -0.16083466 -0.11180615 -0.15585479 -0.22353613 -0.011733753 -0.18742497
-0.058236163 -0.26751488 -0.2490437 -0.15321872 -0.27384135 -0.09579089 -0.103561416 -0.15444286
-0.14623195 -0.12515715 -0.061283067 -0.077188544 -0.036413588 -0.1406468 -0.08574157 -0.120182715
-0.07502442 -0.34076962 -0.22015536 -0.19983628 -0.18093665 -0.46528468 -0.13418768 -0.18708687
-0.076571435 -0.24018484 -0.21268168 -0.10595362 -0.12913601 -0.10372473 -0.23917271 -0.0822627
-0.11186287 -0.0674626 -0.16116397 -0.13130108 -0.026965475 -0.108819276 -0.12483367 -0.06086108
-0.1937258 -0.07370155 -0.11690224 -0.1475742 -0.10422973 -0.15507056 -0.20715155 -0.1325989
-0.055865854 -0.1967088 -0.16435167 -0.13937443 -0.16643786 -0.118420675 -0.16988024 -0.12254019
-0.090942666 -0.17930982 -0.023610912 -0.09152253 -0.18523926 -0.24567099 -0.13213791 -0.13632296

read_encoder.block3.0.weight f4 [128, 128]
00000000: 7af5 19be 27ea a03c 6774 323e 4d13 16be
00000010: cd52 bdbc f3ce bdbd 6562 9ebb f379 85bd
00000020: 3098 e83d 5154 01bd 33d3 a8bd f7eb 573d
00000030: ffb8 1f3e 9d63 6b3e 8459 f53c be22 aebc
00000040: 1781 37be 98c6 483c fbd9 473d 4db1 80bd
00000050: f9e1 7a3c fabb d43c 903f 6cbc 3617 d6bd
00000060: f4e2 84bd 5f5a 9dbb 4ea2 85bd b3da 17bd
00000070: 9858 e6bc 467a 743e 2212 90bd 9d62 e9bd
00000080: 8d09 0c3d 6637 f1bc da59 ddbd 9111 01be
00000090: 6c2f 48bc 132d b0bd 78d7 173e 25de 273d
000000a0: 668c cd3c 28c1 dfbd 3b67 7abd 08da c4bd
000000b0: acae 6cbe 85e1 373e 8778 a7bd ccd2 80bc
000000c0: 4bd7 173d 5c49 acbc d0de 2e3d bb59 0ebd
000000d0: 5d1f 90bd 4d27 b3bd 5c61 cd3d c6cb 983d
000000e0: be05 debc 4161 043e 4429 f2bd 1107 ffbc
000000f0: 847d 8dbd c1d8 363e 1d4b 3a3d dcfa f1bd
00000100: 15ed 0a3d e985 26bd 4320 71bb 2c2f 38be
00000110: bbca 97bd 3632 833e 513e 423d 7bdd 0a3e
00000120: b4de 053e c89f 983c 5c68 5fbd 3bfc 3fbd
00000130: 6ca3 2abe fca1 49be 892b ac3d 0f90 7f3d
00000140: fad4 843d daa2 fe3c 8912 afbd 7c23 06be
00000150: 2ca3 c13c c496 a0bc 1d67 4a3b cd30 a73d
00000160: d587 06bc 4154 d73d 131f 8f3c 4a9f fc3c
00000170: b19a 973d c70b 7bbc 92b2 2ebd d18b 15bd
00000180: b435 063e 309b f63d dc98 283d ed02 8fbd
00000190: d01f e5bd 3719 d7bb dca6 a23d 72d3 08be
000001a0: 7c9f 67be 462c b0ba 7e8b 443c 9b3e 523e
000001b0: d5f4 27be 1711 8dbd 1429 20be c205 c9bd
000001c0: f9a8 30bd 3307 543c 4fe0 7a3e dffe e93d
000001d0: a6d3 a63c 2ef3 093e 543a f63d c51d ec3d
000001e0: 1aae 89bd b2de f83d 2d8f 24ba 8bb2 99bd
000001f0: 17d7 29be d267 a5bd c476 32be fc67 e0bd
00000200: b4ca c83c a409 813c a959 ae3d 9971 97bd
00000210: a03a e4bb d30d 483d 5b1d 3f3d 627d bebb
00000220: 19b8 9dbc f623 78bd de07 54bd 946c 633d
00000230: 1b60 c8bd 165c bd3c 0eea c93d beae 26bd
00000240: ab9f 893d 3300 ff3c de6c a43d b8ea 3cbd
00000250: 7841 bf3d ee91 143d a0c7 9b3a 9276 b23d
00000260: 3a9d abbc 8df5 3c3d 9032 673d cec5 bdbd
00000270: ba4c 9ebd 0eba 0e3d e2cf 94bd 0376 733d
00000280: 4f7e f93c 30a4 5e3d 4398 5bbd 81fd 92bb
00000290: 7fba be3d 8523 7ebb 79e4 a83d 9f1e 333d
000002a0: 2082 0c3e 0737 933c e646 4c3d e5ac 9e3c
000002b0: cb16 333d a445 b4bc 8acd b6bc a1e5 da3d
000002c0: 70e6 123e f538 8d3d dc46 203d 233d b2bc
000002d0: 35dc 9a3d 5dc4 50bd 71d1 3f3b 9ea2 223c
000002e0: 79f3 67bc 7151 b33d 1615 fe3d f425 ab3d
000002f0: 4695 d13d 9151 993d 01f5 923d c6d0 beba
00000300: afed 183e df61 3cbd a2d4 df3c df5e 153d
00000310: c24c 9e3c 8ec6 b33c e90b c9bd f8c4 babd
00000320: 2c78 153d 6174 003e 452c 5bbd 0004 24be
00000330: 5e1a 253d f98d 91b8 082e c23c 1dda c83c
00000340: b55d 1a3d 5cd6 cb3c d5b6 2fbc e343 24bc
00000350: ba19 0ebd 1b01 833c f0c5 ca3d 4e88 4a3d
00000360: c4f6 db3c ae42 9abd 38f2 373d 98eb 43bd
00000370: 8eb4 153d 0e40 48bd 5a1a bebd dfd9 183d
00000380: 309a f6bd 9241 a13d 3603 b83d c72d 893d
00000390: 03d1 84bd a846 cdbd 54e7 643d 0e14 8abd
000003a0: 83ef 093e 574f 2d3d 149c 8b3d a004 39bb
000003b0: 5d33 5ebd 412e fb3c 64ad 15be d5dd 12bc
000003c0: 299b 8a3d 8033 e33b c344 a83d d20f 053d
000003d0: 3536 c43d 7049 033d 0e32 e93c 91d9 9dbd
000003e0: 28e5 753d c3f9 03bd 22d2 3cbd 9556 23bd
000003f0: 6e36 853d 84f7 c13a 5d1a 6dbd 2995 f33d
-0.15035048 0.019642903 0.17427216 -0.146558 -0.023110772 -0.09267988 -0.004833507 -0.065174006
0.113571525 -0.03157455 -0.08243408 0.052715268 0.15597914 0.22987218 0.029949911 -0.0212568
-0.17920338 0.01225438 0.048791867 -0.062838174 0.015312665 0.02596854 -0.014419451 -0.10453646
-0.064886004 -0.004802033 -0.06525098 -0.037073802 -0.028118417 0.23874769 -0.070347086 -0.11395762
0.034188796 -0.029445361 -0.108081535 -0.12604357 -0.0122183375 -0.08602347 0.14828289 0.040983338
0.025091361 -0.109255135 -0.061133604 -0.09611899 -0.23113507 0.17957123 -0.08177286 -0.015725516
0.037070554 -0.021031074 0.04269296 -0.034753542 -0.07037232 -0.087477304 0.100283355 0.07460742
-0.027102347 0.12927724 -0.11824277 -0.0311313 -0.06908706 0.17856123 0.04548179 -0.11815426
0.033917505 -0.04065505 -0.003679291 -0.17986745 -0.07411715 0.25624245 0.04742271 0.1356105
0.13073236 0.018630877 -0.054542884 -0.046871405 -0.16663903 -0.19690698 0.08406741 0.062393244
0.064859346 0.031083513 -0.08548457 -0.13099474 0.023637377 -0.01960314 0.0030884214 0.08163605
-0.008211096 0.10514117 0.017470872 0.030837674 0.07402552 -0.015322632 -0.042650767 -0.036510292
0.13106424 0.120413184 0.041161403 -0.0698298 -0.111877084 -0.006564285 0.07941982 -0.1336191
-0.22619432 -0.0013440929 0.011996148 0.20531695 -0.1640199 -0.06888025 -0.1564067 -0.09815551
-0.043129895 0.01294117 0.2449963 0.11425566 0.020364594 0.13471672 0.12022844 0.115291156
-0.0672266 0.12151851 -0.00062774384 -0.075047575 -0.16585957 -0.08076443 -0.17428118 -0.109573334
0.024510719 0.015751667 0.08513195 -0.07394714 -0.0069649965 0.04884131 0.046658855 -0.0058132866
-0.019252824 -0.06058117 -0.051765315 0.05552347 -0.09783956 0.023115199 0.098590955 -0.04069399
0.067199074 0.031128025 0.08028577 -0.046122283 0.09338659 0.036271982 0.0011885054 0.08714022
-0.020948995 0.046132613 0.056444705 -0.09266244 -0.07729478 0.034845404 -0.07266213 0.059438717
0.030455736 0.0543558 -0.053612005 -0.0044857864 0.09312915 -0.0038778496 0.08246703 0.043730374
0.13721514 0.017970575 0.0498723 0.019369552 0.04372291 -0.022005863 -0.022314806 0.106883295
0.14345717 0.06895629 0.039130077 -0.021757668 0.075615324 -0.050968517 0.0029269124 0.009926466
-0.0141571695 0.08755768 0.124063656 0.08356848 0.1023355 0.07486261 0.07175637 -0.0014558069
0.14934419 -0.045991775 0.02732307 0.03646743 0.01932371 0.021945264 -0.09816725 -0.091196
0.036491558 0.12544395 -0.053509016 -0.16017151 0.04030835 -6.940583e-05 0.02370359 0.024518067
0.037687022 0.024882488 -0.010724743 -0.010025951 -0.034692504 0.015991738 0.09901035 0.049446397
0.026851065 -0.075322494 0.044908732 -0.0478321 0.036549143 -0.048889212 -0.0928237 0.037317153
-0.12041128 0.07873835 0.089849874 0.066981845 -0.06485178 -0.10023242 0.055884674 -0.067421064
0.13470273 0.042311992 0.06816879 -0.0028231516 -0.054248203 0.030661704 -0.14616925 -0.008964022
0.06767876 0.0069336295 0.0821624 0.03248579 0.09580652 0.032052457 0.02846625 -0.07707513
0.060032994 -0.032220613 -0.046098836 -0.039877493 0.06504522 0.0014798497 -0.05788647 0.118936844

read_encoder.block3.0.bias f4 [128]
00000000: 2d1c 5fbd f2d3 993d b108 70bd f4dd ddba
00000010: 746e 81bd 5c88 30bd 3ee9 c2bd dfce 9abd
00000020: ae6b 47bc 6adf b83c e783 293d b81b 4e3d
00000030: e77c 063e ab3e 6cbc e7cf d43d 04dd 8bba
00000040: e151 ad3d c2e2 ae3d 8572 a83d 3ea7 b5bc
00000050: f2e3 d33d 340d 27bd c322 773c 3991 b13d
00000060: a80a 693d e2ff 6c3b 26a8 29bd 90fd e23d
00000070: c6ec 043d 68fb 3cbd f4ab 12bd ca07 bdbd
00000080: 083c 9b3d 42c8 1bbc faa5 2dbd 956c 963d
00000090: c2b3 8dbd e1c6 b4bd 8490 5cbd 9b2f aabd
000000a0: 8730 903b 2583 b23d 3f2d 33bd df7f 75ba
000000b0: 3ca0 a23d 1f28 bf3d 8dd7 bf3c cfab cbbd
000000c0: 2177 babc 8de6 fbbd e309 333d ca4e 38bd
000000d0: 7d22 0abc bc6e da3d 08f4 6bbc 474f ccbc
000000e0: b9f7 5ebc a979 1a3d fe57 123d 31cd 9f3c
000000f0: 4af0 28bd 226b 84bd 1472 8c3d e793 da3c
00000100: e844 da3d 3f0c b83d 48e8 f53d 8f3d 13bd
00000110: 48f3 0ebc 13ea e33d 5231 b73d d2cd 33bc
00000120: bf30 623c 3214 823c a9a2 04bd 33eb 0ebe
00000130: 6fea d73d 49a1 593d 2ff9 81bd b44b 28bd
00000140: d8ab bb3c a68b 163d 5787 a2bc 5c06 cfbd
00000150: 1ea0 0cbb d2ba 473d f88b 30bd be9f 03bd
00000160: 3408 323d 2bd5 2bbd 4497 15bd 9b6b 54bd
00000170: fcff e2bd d89c a93d fcfb 54bd 0d65 3b3d
00000180: aad2 203d ccf7 17bc 461d 5ebd 25ad bf3d
00000190: a149 07bd dff6 e43d ecf9 5c3d f3ea 293d
000001a0: 00b9 fabc ca16 473d 9719 21bd bd1c 7cbd
000001b0: 6ba5 89bc 7a3a a5bd 3303 c4ba ce82 843d
000001c0: 8706 26bd 708f 603d b12d 573c 43bf 02bd
000001d0: ebf5 d13b 2eb2 a13d f24c 1fbe 6528 68bc
000001e0: c781 983d 8d4b e5bd 75fc 77bd b26a 313c
000001f0: c37a f23d 80f1 593d 0f7d 7f3c 01c2 d33b
-0.05447023 0.075111285 -0.05860204 -0.0016927109 -0.063198954 -0.043098792 -0.09517144 -0.07558989
-0.012171669 0.02256747 0.041385558 0.050319403 0.13133584 -0.014419238 0.10391217 -0.0010670726
0.08462883 0.08539344 0.08224968 -0.022174474 0.103462115 -0.040784076 0.015083971 0.08670277
0.05689493 0.003616326 -0.041420124 0.110835195 0.032452367 -0.046138197 -0.03580852 -0.09230001
0.075798094 -0.009508194 -0.042394616 0.07344929 -0.06919052 -0.08826996 -0.05384876 -0.08309861
0.004400316 0.0871642 -0.043744322 -0.00093650626 0.079407185 0.09333824 0.023418212 -0.09944879
-0.022761883 -0.122998334 0.0437106 -0.044997014 -0.008431074 0.10665652 -0.014401443 -0.024940146
-0.013608866 0.03771368 0.035728447 0.019507023 -0.041244783 -0.064657465 0.06857696 0.026681853
0.10657674 0.08986711 0.12007195 -0.03594738 -0.008724995 0.111286305 0.08944954 -0.010974364
0.013805567 0.01587877 -0.032381687 -0.13956909 0.105427615 0.05313233 -0.06346356 -0.04108782
0.02290909 0.036754273 -0.019839926 -0.10108635 -0.0021457742 0.04876215 -0.043102235 -0.032134764
0.043464854 -0.04195134 -0.03652121 -0.051860433 -0.110839814 0.08281869 -0.051998124 0.045750666
0.039263405 -0.009275388 -0.054227136 0.093591966 -0.033029202 0.111798994 0.05394928 0.04148383
-0.030605793 0.048605718 -0.039331045 -0.061550844 -0.01680251 -0.08067794 -0.0014954567 0.064702615
-0.04053357 0.054824293 0.013133452 -0.031920683 0.0064074895 0.07895313 -0.15556696 -0.014169787
0.07446628 -0.11196051 -0.060543496 0.010828661 0.11839821 0.053208828 0.015593781 0.006462336

read_encoder.block3.1.weight f4 [128]
00000000: bcc9 8e3f ac0a 7d3f f27c 823f beae 753f
00000010: a7e1 4a3f 5543 763f 4cf3 863f f449 613f
00000020: e8a6 843f d369 823f 3716 743f 749a 783f
00000030: 2efc 633f 9057 763f 535a 673f a987 713f
00000040: 3e82 7c3f 0492 733f 76de 453f 683d 793f
00000050: 155e 723f a379 863f 7fdc 723f bf0a 6f3f
00000060: 789d 673f 86b8 833f 3980 853f 22f5 733f
00000070: aa78 7f3f e042 653f 3608 603f 46f1 713f
00000080: 3998 883f d0a3 8d3f 8091 613f 3989 783f
00000090: e11b 6f3f 9279 723f f133 803f 6abd 803f
000000a0: 9938 7c3f fa03 4e3f fc44 753f a04e 6d3f
000000b0: 87cb 733f cb35 8f3f ad89 723f b9b4 7a3f
000000c0: faca 753f 9327 903f 4ad1 713f c355 563f
000000d0: 4ca9 963f 7905 7d3f d31c 833f f0b1 643f
000000e0: 3bf6 373f bb0f 613f 0729 173f 7999 773f
000000f0: fcd2 733f c282 7c3f 6cdd 713f 1fce 8d3f
00000100: efbb 823f d28c 5f3f 8f53 713f b308 6f3f
00000110: 3946 223f 4637 603f bb7a 743f 353a 8d3f
00000120: 8848 8e3f 74ee 8c3f 02dd 903f c629 a73f
00000130: f659 693f 0af4 733f e3b6 763f 26ea ab3f
00000140: 5d00 713f 662c 643f b13e 723f 7e86 843f
00000150: d7e8 7e3f 5800 5d3f 6d20 8e3f f75e 813f
00000160: 764d 743f 6690 713f 3697 803f 5e3a 7d3f
00000170: 84b3 983f 6796 753f 7d4a 4a3f 3348 893f
00000180: 4d6d 723f 6887 7b3f 5d65 843f 803b 743f
00000190: 41a4 6e3f c939 713f 6543 7f3f d90f 913f
000001a0: 89ea 633f 4003 9e3f 302d 8f3f 5a8b 883f
000001b0: c59a 7f3f 648f 8c3f 92b6 873f b540 7a3f
000001c0: 9a9e 7f3f f1d0 6d3f 6ad5 743f 9333 6e3f
000001d0: df18 733f 0582 683f 9986 913f e13d 393f
000001e0: e3c4 773f d893 803f 703c 8e3f af30 753f
000001f0: 17c0 6b3f b731 5a3f 03f6 883f 5816 533f
1.1155314 0.9884441 1.019438 0.9596976 0.7925057 0.9619649 1.0542998 0.8800347
1.0363436 1.0188545 0.953464 0.97110677 0.8905667 0.9622736 0.903722 0.94347626
0.98636234 0.9514468 0.77292573 0.97359324 0.9467481 1.050587 0.948677 0.9337577
0.90474653 1.0290687 1.0429755 0.9529592 0.99793494 0.8955517 0.8751253 0.9450878
1.0671455 1.1065617 0.8811264 0.97084385 0.93401915 0.9471675 1.0015851 1.0057805
0.9852386 0.8047482 0.95808387 0.926981 0.95232433 1.1188291 0.94741327 0.9793201
0.9601284 1.1262077 0.94459975 0.8372461 1.1770415 0.98836476 1.0243171 0.8933401
0.7186009 0.8791463 0.5904698 0.96718556 0.9524381 0.9863702 0.9447849 1.1078528
1.0213603 0.8732425 0.94268125 0.9337265 0.633884 0.8758434 0.9549977 1.1033388
1.1115885 1.101027 1.1317446 1.3059623 0.91152894 0.9529425 0.96372813 1.3430831
0.9414118 0.89130247 0.9462691 1.0353544 0.99574035 0.8632865 1.1103646 1.0107106
0.95430696 0.9436096 1.0046146 0.98917186 1.1929784 0.9593262 0.7901991 1.0725158
0.9469803 0.9825349 1.0343434 0.9540329 0.9321938 0.942288 0.9971221 1.1332961
0.8902975 1.2344742 1.1185665 1.0667527 0.99845535 1.0981259 1.0602591 0.97754985
0.9985138 0.92896944 0.95638144 0.93047446 0.94959825 0.90823394 1.1369201 0.72360045
0.967848 1.0045118 1.1112194 0.9577741 0.9208998 0.8523211 1.0700077 0.8245597

read_encoder.block3.1.bias f4 [128]
00000000: 4b4c 7fbe 3c8e ffbc 2665 ecbd 6550 fdbc
00000010: 540d 98be 2b92 40bd 415e 15bc f072 9ebe
00000020: 62a4 4dbd 93cc 03bd 9d7a 59bd a949 aebd
00000030: ab1c 89bd 8994 bdbd edb8 d3bd fa08 b7b9
00000040: 1a9c 5cbd 0c06 15bd 9780 4fbe 526c acbc
00000050: c425 26bd 1ca3 16be acd9 81bd c361 71bd
00000060: 70ec a3bd 81b8 4ebd 0f8f 65bd eb35 90bd
00000070: 8ef8 9ebc 76cb 9dbd eefd f4bd 4d2c 80bd
00000080: 06a6 e7bd e402 0cbe 1102 913d 2c9b 0abe
00000090: 8cb0 9ebd fff1 ffbd d41b 07be 9944 aebd
000000a0: 18e3 e0bd 3100 27be a2e5 08bd 2839 a6bd
000000b0: 9617 35bd 4365 9cbd 9d0e 2cbd 0365 d5bd
000000c0: 32c7 a3bd bd1a 46be 225d 69bc 9327 0fbe
000000d0: 301c a4bd 0b23 0dbd 6307 05be ed5e 80be
000000e0: e1ae 62be 3cce 09be a578 e9be 1ce2 cbbc
000000f0: 750b aebd ba2b b0bd f70d 59bd 5c7e fbbd
00000100: 1deb 6cbd ae02 04be f9cd 1fbd facc aabd
00000110: a332 6cbc b110 1abd 7e6f 33bd 2e41 8dbd
00000120: ef71 73bb 8626 7abe 17ec 83bd d8cb 04be
00000130: d03d 95bd ad54 92bd 0d70 03bd 7a77 60bd
00000140: 8ca6 e8bd 39a7 f2bd 60fc 62bd 5576 41bd
00000150: bb8c 0fbd 45ae 36be cbcd a83c f437 9abd
00000160: 8b77 0fbd 8044 8cbd a400 d0bd 07a6 febd
00000170: 8bcb 36bc 8f8b 3ebd 9ef9 4cbe 7285 13bd
00000180: 0474 08bd 325f a7bd db33 ebbc a263 d5bc
00000190: 2cd0 23bd 83e1 ebbc 8ae4 13bd c972 73be
000001a0: cc0e c4bd 7225 d9bd 0472 d0bd 2e43 2cbe
000001b0: f9be 4ebd fc03 8abd 297f b2bd 5fed e7bc
000001c0: a7d9 2cbd 9ef7 18be ad4e 95bd c260 82bd
000001d0: 5c28 49bd a087 85bd 03f3 aabc ee73 06be
000001e0: 5c49 09bd 4e30 47be d4b9 75bd 6099 c6bc
000001f0: 1edd 95bd 98c4 7ebe b7cf d2bd 7a43 24be
-0.24931447 -0.031195752 -0.1154273 -0.030922124 -0.2969767 -0.047014397 -0.00911671 -0.30947065
-0.050205596 -0.03217752 -0.05309545 -0.08510143 -0.06694921 -0.092568465 -0.10338006 -0.00034911168
-0.053859808 -0.03638272 -0.20263897 -0.021047745 -0.04056336 -0.14710659 -0.06340346 -0.058931123
-0.08004081 -0.050468925 -0.056044634 -0.07041534 -0.01940563 -0.07704823 -0.11962496 -0.0625845
-0.11310963 -0.13672978 0.07080472 -0.13535756 -0.077485174 -0.12497329 -0.1319421 -0.08509178
-0.10980815 -0.16308667 -0.03342212 -0.081163704 -0.044211946 -0.07636502 -0.042006124 -0.10419657
-0.07996978 -0.19346137 -0.014243396 -0.1397994 -0.08013189 -0.034457248 -0.12991099 -0.25072423
-0.22137024 -0.13457578 -0.45599857 -0.02488809 -0.08498279 -0.0860209 -0.052991834 -0.122799605
-0.05784141 -0.12891647 -0.03901479 -0.083398774 -0.01441637 -0.037613574 -0.0438075 -0.06897198
-0.0037146767 -0.24428758 -0.06441515 -0.12968385 -0.072871804 -0.07145057 -0.03208928 -0.05480144
-0.11359891 -0.118483014 -0.055416465 -0.04723199 -0.03504632 -0.17839916 0.020605942 -0.075302035
-0.035026114 -0.06849003 -0.10156372 -0.12434011 -0.011156927 -0.046519812 -0.20017096 -0.036015935
-0.033313766 -0.08172454 -0.02871125 -0.026048485 -0.03999345 -0.028794056 -0.036106624 -0.23774256
-0.09573135 -0.10602845 -0.10177997 -0.16822502 -0.050475094 -0.06739041 -0.0871566 -0.02831143
-0.042199757 -0.14938208 -0.07290397 -0.06366111 -0.049110755 -0.06520009 -0.02086783 -0.13130161
-0.033517227 -0.1945202 -0.059991673 -0.024243057 -0.073175654 -0.24879682 -0.10293525 -0.16041365

bag_predictor.weight f4 [1, 128]
00000000: 291e b9bd bf6b 26bd 9658 0c3d aced 6cbd
00000010: 6689 34bc 4a7d eebc 0d62 173d 4ad1 4eb9
00000020: 768d 8bbd f590 aebd 3dd3 8dbd a6d8 ecbc
00000030: 043c 53bd f354 8ebb 6af4 f3bc 4454 7b3b
00000040: 1750 b2bd 7660 12bd e665 b6bc ac47 21bd
00000050: 54b2 28bd 1bb6 2f3d 9558 15bd a034 07bd
00000060: 96f5 05bd 3e9c c7bd 0eed 2fbd e998 22bd
00000070: 1b1d 46bd 8bcb 2a3d 91f8 debc 7018 933d
00000080: 98b1 11be fcd0 4ebd 141e acbc cd18 b23c
00000090: a2a4 0b3d afa0 683c b6d7 c4bd 1ceb 1c3c
000000a0: 315c 433c 51cb dbbc 9c63 40bd 324a 01bd
000000b0: 2e16 97bd 7260 32be f2a6 23bd 1530 333c
000000c0: d20e 863c 511f 443d a5ba e7bc 616e 88bc
000000d0: 36f2 b1bd 9bfb 4abd 7142 023e 1bed b73a
000000e0: de17 2fbc aff9 b3bc 9bc4 2abc 6245 7abd
000000f0: 37fb 633c c67d 013d 69e2 f5bd f19d 94bd
00000100: 4962 cebd 2b60 1fbc 0c89 23bd 0029 fa3c
00000110: 2acd 84bc 3ab7 85bd 1419 23bd d57f d73d
00000120: f24a 293d 605c fcbd 26a7 10be fe01 74be
00000130: 0a1e 15bd 8169 e6bc a0df 7dbd 9d99 893d
00000140: bcbe a83d 60b7 adbc 03ef 17bd 785c 7a3d
00000150: 10df 86bd caec c2bb c3a1 883d 48a4 043d
00000160: b3c1 9ebd 9d35 1c3d 63c6 b83d c6a6 613b
00000170: d307 bd3d f966 d7bd b00d f73a e673 b7bd
00000180: 0bda 8ebd 5135 9ebd de61 813d 1d3e b9bd
00000190: f7b2 a8bd 9223 71bd c695 36bd 928c 73bd
000001a0: 1ebf 0cbd 4cc4 e4bd 365d 483d fc58 093e
000001b0: b1e0 65bd bca3 573d 6160 173e 8019 51bd
000001c0: cabe a2bd 1a20 6fbc 6332 f03c db31 00bd
000001d0: a03f 14bd ca67 1dbd 901b b73d b837 53bb
000001e0: 45e2 4fbd d9e6 363c 4d24 f9bd 5bc4 41bd
000001f0: 38ca 4fbd 4bc1 41bc 18ea d93d 4433 99bc
-0.09038956 -0.0406301 0.03426417 -0.05784385 -0.011019086 -0.029112477 0.036958743 -0.00019723657
-0.06814091 -0.08523742 -0.06925056 -0.0289119 -0.051570907 -0.004343623 -0.029779632 0.0038349787
-0.08706682 -0.035736524 -0.022265386 -0.039374992 -0.041185692 0.04289828 -0.03646143 -0.03300917
-0.032704912 -0.09746598 -0.042950682 -0.039696608 -0.0483676 0.04169802 -0.027218135 0.071823955
-0.14227903 -0.05049227 -0.021010436 0.021740342 0.034092553 0.014198466 -0.09611456 0.009577539
0.011923836 -0.026830347 -0.046969995 -0.0315649 -0.07377277 -0.17419603 -0.039954133 0.010936757
0.016364489 0.04788143 -0.028287241 -0.016654195 -0.08688776 -0.049556356 0.12720658 0.0014032455
-0.010686843 -0.021969644 -0.010422851 -0.061101325 0.013914875 0.031614088 -0.12006075 -0.072566874
-0.1007734 -0.009727518 -0.03992562 0.030537128 -0.016211111 -0.06529088 -0.03981884 0.10522429
0.04133124 -0.12322307 -0.14126262 -0.23828885 -0.0364056 -0.02812648 -0.061980844 0.067187525
0.08239505 -0.021205604 -0.037093174 0.06112334 -0.065855145 -0.0059486376 0.066714786 0.032383233
-0.07751789 0.038137067 0.09022214 0.003443168 0.09230008 -0.10517687 0.0018848684 -0.08957653
-0.06975182 -0.07725013 0.06317495 -0.0904505 -0.0823726 -0.058871813 -0.04457643 -0.05946023
-0.03436195 -0.11170253 0.048917018 0.13412851 -0.056122486 0.052646384 0.1478286 -0.05104971
-0.079465464 -0.014595056 0.029320901 -0.031297546 -0.03619349 -0.03842906 0.08940804 -0.0032229256
-0.050752897 0.011163437 -0.12165127 -0.0473064 -0.05072996 -0.01182587 0.10640353 -0.018701203
