m6aReplica/2d_66_with_delta/Models/epoch23_rocauc0.880_valpr0.381_valscore1.261.pth (torch, 153757 bytes, 13 tensors)

read_encoder.block1.0.weight f4 [128, 21]
0	0x3f024500	0.50886536
1	0x3f0a5398	0.54033804
2	0xbd852ff0	-0.06503284
3	0x3fc31ca4	1.5243115
4	0x3f3b7e98	0.7324004
5	0x3cbd0045	0.023071418
6	0x3ddd3114	0.108003765
7	0x3f814a6b	1.0100836
8	0x3e7e9b5b	0.24863951
9	0x4033c917	2.8091486
10	0xc06c1e52	-3.6893506
11	0x3eefe1b9	0.468519
12	0xbe28246b	-0.16420142
13	0xbb9d584f	-0.004801787
14	0x3f0397c9	0.5140348
15	0x3c87d0f1	0.016579123
16	0xbcecc7d4	-0.02890388
17	0xbcaca3d4	-0.021074213
18	0xbd29c84b	-0.04145078
19	0x3cf65e68	0.030074313
20	0x3bd10b0c	0.0063794907
21	0x3ea956b6	0.33073968
22	0xbec79265	-0.38978878
23	0x3e6196e6	0.2203022
24	0x3ec491e3	0.38392553
25	0xbf173380	-0.5906296
26	0xbc8ec3d2	-0.017427359
27	0x3e668d9a	0.22514954
28	0xbec71c2b	-0.38888678
29	0xbe36c1ac	-0.17847317
30	0x3f04c243	0.5185892
31	0xbf375e17	-0.71627945
32	0xbede0e70	-0.4337039
33	0x3efe3a85	0.49654022
34	0xbf1b124a	-0.6057478
35	0x3d865ff8	0.06561273
36	0xbcbd88da	-0.023136545
37	0x3e86d656	0.263354
38	0x3d0cc1d5	0.03436454
39	0xbe32e802	-0.17471316
40	0x3e1dfb63	0.15427928
41	0x3cba9781	0.02277732
42	0xbd37c41a	-0.04486475
43	0xbd1aaeba	-0.03776429
44	0x3e2d4a4b	0.16922872
45	0xbf2257f0	-0.6341543
46	0xbe0a7357	-0.13520561
47	0x3da18329	0.07886345
48	0x3c303a95	0.010756155
49	0xbf00a8ba	-0.50257456
50	0xbe62c5c7	-0.22145759
51	0xbfc27911	-1.5193197
52	0x3fb79390	1.4341908
53	0x3dedeff1	0.11618031
54	0x3db20887	0.08693033
55	0x3c5d4919	0.013506197
56	0xbe11e9ba	-0.14249316
57	0xbd251834	-0.040306285
58	0x3e72a311	0.23695017
59	0xbe0b2307	-0.1358758
60	0xbdf3df21	-0.11907793
61	0xbe8110f4	-0.25208247
62	0x3dfc804b	0.123291574
63	0x3f0ec5ef	0.5577077
64	0x3e0a7ac6	0.13523397
65	0xbbf23e75	-0.0073926994
66	0x3fe1442f	1.7598933
67	0x3e8b55e4	0.27213967
68	0xbdb828d5	-0.08992163
69	0x3dffda20	0.12492776
70	0x3f74586b	0.95447415
71	0x3e84b8bf	0.259222
72	0x40326ea9	2.7880042
73	0xc091491d	-4.540175
74	0x3ccd3ddc	0.02505391
75	0x3ea3913f	0.3194675
76	0xbe61381e	-0.21994063
77	0x3f4beaf8	0.7965541
78	0xbcaa8f53	-0.020820295
79	0xbd3e3e48	-0.046446115
80	0xbd8cf349	-0.068823405
81	0xbd48331b	-0.048876863
82	0xbc53ea32	-0.0129342545
83	0xbc84cfad	-0.016212309
84	0x3f30c426	0.690493
85	0xbea96a27	-0.330888
86	0x3dc78d42	0.0974374
87	0xbf066397	-0.5249571
88	0xbf34423f	-0.70413584
89	0x3c997108	0.018730655
90	0xbc58b0bc	-0.0132257305
91	0xbf022aad	-0.5084637
92	0x3d9019b9	0.07036156
93	0xc02050d9	-2.5049345
94	0x3f5c5ef2	0.86082375
95	0xbf646be4	-0.8922713
96	0x3f558a07	0.8341374
97	0xbeb6d9c9	-0.35713032
98	0xbd7c2a12	-0.06156356
99	0xbda19822	-0.07890345
100	0xbe2967d1	-0.16543509
101	0x3c984765	0.018588731
102	0xbded1f55	-0.11578242
103	0xbd9b0670	-0.07569587
104	0x3b5b0ac1	0.0033423158
105	0xbeefd8ea	-0.4684518
106	0x3e2ec01b	0.1706547
107	0xbe0b4954	-0.13602191
108	0xbfa41add	-1.2820698
109	0x3ebc0c97	0.36728355
110	0x3e79baef	0.24387716
111	0xbe914986	-0.28376406
112	0x3ef1ea4a	0.4724906
113	0xbe62a330	-0.22132564
114	0xc01ff105	-2.4990857
115	0x401a68c8	2.4126453
116	0x3f267ad7	0.6503119
117	0xbf409509	-0.7522741
118	0x3f09953c	0.5374334
119	0xbe879932	-0.26484066
120	0x3d336d26	0.043805264
121	0xbd8e11a1	-0.06936956
122	0xbbdb12af	-0.006685577
123	0xbcd90641	-0.02649224
124	0xbe0db0a6	-0.13836917
125	0xbd6fa520	-0.058507085
126	0x3e17320b	0.14765184
127	0xbebe04ce	-0.3711304
128	0x3e3d2cd0	0.18474126
129	0xbe83147f	-0.25601575
130	0xbe8d78c1	-0.2763119
131	0x3d6c5a84	0.05770351
132	0xbe171ca8	-0.14757025
133	0xbe79d5b9	-0.24397935
134	0xbda36fa7	-0.0798028
135	0xbfd61226	-1.6724288
136	0x3f5134b6	0.81721056
137	0xbf6a68e4	-0.915663
138	0x3f07e427	0.5308251
139	0xbe6d3311	-0.23164012
140	0x3d82b653	0.06382432
141	0xbc05124e	-0.00812204
142	0x3e5c45ec	0.21511048
143	0xbdcb3e66	-0.09924011
144	0xbd8aba01	-0.06773759
145	0x3dc0be8c	0.09411344
146	0x3d747f66	0.05969181
147	0x3ed9d884	0.42548
148	0x3ebaf3ab	0.3651403
149	0xbdac3330	-0.08408201
150	0x3e94bac6	0.29048747
151	0xbe13dd4c	-0.14439887
152	0x3c9b8c36	0.018987756
153	0x3eebb0a2	0.46033198
154	0x3eb44181	0.35206226
155	0xbe22d960	-0.15903234
156	0xbe00e6da	-0.12588063
157	0x3f7dc170	0.9912329
158	0xbedae72b	-0.42754492
159	0x3e86c0a4	0.26318848
160	0xbe9ada47	-0.30244657
161	0xbdd11830	-0.102096915
162	0xbbcf30aa	-0.00632294
163	0xbe2042fe	-0.15650555
164	0xbcc739c3	-0.024319535
165	0xbdf876a2	-0.121320024
166	0xbe079607	-0.13240825
167	0x3ed766bf	0.42070577
168	0xbe9f7306	-0.31142443
169	0xbe56c8cb	-0.20975034
170	0x3e0d520f	0.13800834
171	0xbd848919	-0.06471462
172	0x3e812ec5	0.25230995
173	0x3e23af44	0.15984827
174	0xbeab1bab	-0.33419546
175	0xbe62e999	-0.22159423
176	0xbadb2d34	-0.0016721846
177	0x3f0dc6e5	0.55381614
178	0xbdb7c75f	-0.08973574
179	0x3e09eb29	0.13468613
180	0xbeb1d200	-0.3473053
181	0xbe6c7ac5	-0.23093708
182	0xbeaa7ebe	-0.33299822
183	0xbdbc7504	-0.092020065
184	0x3e14f861	0.14547874
185	0xbd8336a0	-0.06406903
186	0xbd8fe380	-0.07025814
187	0x3d1f56ea	0.038901247
188	0xbd9ecac8	-0.07753521
189	0xbdd9764d	-0.10618267
190	0xbe9320e9	-0.28736046
191	0xbd9b4b5a	-0.075827315
192	0x3f456427	0.77105945
193	0x3c8e8897	0.017399115
194	0x3c337a25	0.0109544145
195	0x3e9cdb16	0.306359
196	0xbd9c4478	-0.07630247
197	0x3d8c6d50	0.06856787
198	0x4001b97c	2.026946
199	0xbf479b06	-0.7797092
200	0x3dbb8525	0.09156255
201	0x3e06da6a	0.13169256
202	0x3ef403d9	0.47659186
203	0x3e765bfe	0.2405853
204	0xbdb0f479	-0.086403795
205	0xbcfe8442	-0.031068925
206	0xbd8a7a06	-0.067615554
207	0xbebf573e	-0.37371248
208	0xbed4c736	-0.41558236
209	0xbd992eaf	-0.07479607
210	0xbf0a057e	-0.5391463
211	0x3dbf0763	0.09327581
212	0xbe5fa53a	-0.21840373
213	0xbf7deb35	-0.9918702
214	0x3e214a12	0.15750912
215	0x3e558757	0.2085241
216	0xbe94f62a	-0.29094058
217	0xbdfa6406	-0.12226109
218	0x3dc0dbe6	0.09416942
219	0xbec96e38	-0.39341903
220	0x3fb5c540	1.4200821
221	0x3f44df5a	0.7690331
222	0xbf2735cb	-0.65316457
223	0x3ec3c42f	0.38235614
224	0xbe4e132d	-0.20124502
225	0x3d0e4a92	0.034739085
226	0x3e00930f	0.12556098
227	0x3db3d53e	0.08780907
228	0xbe07a2a7	-0.1324564
229	0xbe7b5d4c	-0.24547309
230	0xbe30e6e7	-0.17275582
231	0xbc39c41d	-0.011338261
232	0xbe0de509	-0.13856901
233	0x3e5ff6a7	0.21871434
234	0xbf0af759	-0.5428367
235	0xbe302c81	-0.17204477
236	0xbaf1178c	-0.0018393858
237	0xbe39514e	-0.18097422
238	0xbf7667cd	-0.9625214
239	0xbe91da08	-0.28486657
240	0xbfacc044	-1.3496175
241	0x400da329	2.2130835
242	0x3dd1e99a	0.10249634
243	0xbf28ddab	-0.6596324
244	0xbe973ac2	-0.29537016
245	0xbef1330e	-0.47109264
246	0xbdaed371	-0.08536423
247	0x3d11a733	0.035559844
248	0xbd114f58	-0.03547606
249	0xbcc30055	-0.02380387
250	0xbd0de7ff	-0.034645077
251	0xbd97875f	-0.07398867
252	0x3d8cbaa9	0.0687154
253	0x3ea9f60e	0.33195537
254	0xbda9882d	-0.082779266
255	0xbf114d07	-0.5675816

read_encoder.block1.0.bias f4 [128]
0	0xbecd8af1	-0.40145066
1	0x3f01d152	0.5071002
2	0x3eb9dee3	0.36302862
3	0x3e8e2bb5	0.2776772
4	0x3e9a1aee	0.3009867
5	0xbeeff818	-0.46868968
6	0x3ef7e923	0.48420057
7	0x3e7f9fee	0.24963352
8	0x3ea5172c	0.3224424
9	0xbdf67799	-0.1203453
10	0xbead3a81	-0.33833697
11	0x3dea337c	0.11435601
12	0x3c8e2280	0.017350435
13	0x3ebe4460	0.3716154
14	0x3e41aff0	0.18914771
15	0x3e3e6d3e	0.1859636
16	0xbec0c418	-0.37649608
17	0x3e8875ee	0.26652473
18	0x3ec5950c	0.38590276
19	0xbef3bdd0	-0.47605753
20	0xbebd7427	-0.3700268
21	0x3e051597	0.12996517
22	0xbcee0f5f	-0.029060064
23	0xbe8c702e	-0.27429336
24	0x3e83dd46	0.25754756
25	0x3ea8653a	0.3288973
26	0x3dabb243	0.0838361
27	0x3e3a9c1c	0.18223614
28	0x3e210dfb	0.1572799
29	0x3f21fde6	0.63278043
30	0x3ee71906	0.4513628
31	0x3e20850c	0.15675753
32	0xbe77b8cc	-0.24191588
33	0x3c7bc857	0.015367589
34	0x3e8aebaa	0.27132922
35	0xbe22d13d	-0.1590013
36	0x3edc030c	0.42971075
37	0x3e10be43	0.14135079
38	0x3dca5606	0.09879689
39	0x3df43517	0.119241886
40	0x3ebd454a	0.36966926
41	0xbeef910d	-0.46790352
42	0xbe8c62fc	-0.2741927
43	0xbe569022	-0.2095342
44	0x3e7f3098	0.24920881
45	0x3df6ea49	0.12056405
46	0xbd8716c6	-0.065961406
47	0xbcb05439	-0.021524535
48	0x3efdb14a	0.49549323
49	0x3efac7c0	0.48980522
50	0xbe224d17	-0.1584972
51	0x3eab665c	0.33476532
52	0xbeafc71f	-0.34331605
53	0xbf0c4c27	-0.548037
54	0x3e34d5e3	0.17659716
55	0x3d9a5492	0.07535662
56	0x3e9dc23e	0.30812258
57	0xbe8d4273	-0.2758976
58	0x3e2982b9	0.16553773
59	0x3f00ad32	0.50264275
60	0xbf0f8162	-0.560568
61	0xbd1cd7f2	-0.03829188
62	0x3e6be1b7	0.23035322
63	0x3ef00687	0.4687998
64	0x3eb5a398	0.35476375
65	0x3ea8b718	0.3295219
66	0x3eed37ee	0.46331733
67	0x3e3d73d3	0.18501215
68	0x3e53c1a6	0.2067934
69	0xbe032c01	-0.12809755
70	0x3e47c661	0.1950927
71	0x3eb6e74d	0.35723343
72	0x3ea176dd	0.31535998
73	0x3decc7dd	0.115615584
74	0xbebb3782	-0.36565787
75	0x3e24d2cb	0.16096036
76	0xbed7ac6d	-0.42123738
77	0xbefdf15e	-0.4959821
78	0x3e1a69eb	0.15079467
79	0x3ee245e7	0.44193956
80	0x3d501d11	0.05080897
81	0xbef5418d	-0.47901574
82	0x3e0331e3	0.12811999
83	0x3c649f09	0.013953933
84	0xbe0622c0	-0.13099194
85	0x3d869d41	0.065729626
86	0xbd8638e3	-0.06553819
87	0x3eaf288e	0.34210628
88	0xbe422f69	-0.18963398
89	0x3dd7cacb	0.105367266
90	0x3d85548c	0.06510267
91	0x3cf1baec	0.029508077
92	0x3e14cc1c	0.14530987
93	0xbe9746dc	-0.2954625
94	0xbe2caa59	-0.16861857
95	0xbec4c1d7	-0.38429138
96	0xbd3cfd2f	-0.046139892
97	0x3da5d89d	0.08097956
98	0xbe81f30f	-0.25380751
99	0xbd86d915	-0.06584374
100	0xbdf96501	-0.12177468
101	0xbcf97514	-0.030451335
102	0xbe1e09c0	-0.15433407
103	0xbec55919	-0.3854454
104	0x3e8240ae	0.25439972
105	0xbe80fc07	-0.25192282
106	0x3e8d615f	0.2761335
107	0x3eb2f04e	0.34948963
108	0xbd5ff7dd	-0.05467974
109	0x3ec8a0dc	0.39185226
110	0x3f005e92	0.501443
111	0x3e5fb5bb	0.21846668
112	0xbe89ce46	-0.26915187
113	0xbe4c05c1	-0.1992407
114	0x3f12247a	0.5708691
115	0x3e01d73b	0.1267976
116	0x3d70afad	0.058761287
117	0xbf1cbc11	-0.61224467
118	0x3e3385be	0.17531487
119	0x3e19f345	0.15034206
120	0xbb9e64e9	-0.004833807
121	0x3ec23c91	0.37936834
122	0xbe8d6341	-0.27614787
123	0xbd97857b	-0.07398506
124	0xbe60ce6e	-0.21953747
125	0x3e241c75	0.1602648
126	0x3e66cad0	0.22538304
127	0x3dcffdfb	0.10155865

read_encoder.block1.1.weight f4 [128]
0	0x3f906ca9	1.128316
1	0x3f98da40	1.1941605
2	0x3f38c8b1	0.7218123
3	0x3fb7d439	1.436164
4	0x3f47b304	0.7800753
5	0x3f97c94b	1.1858305
6	0x3f33952e	0.70149505
7	0x3fabca8f	1.3421191
8	0x3ed5034f	0.41604087
9	0x3fbacc62	1.4593623
10	0x3f51f764	0.82018113
11	0x3f8c30fd	1.095245
12	0x3fa7808d	1.3086106
13	0x3f9f167b	1.2428735
14	0x3f98065c	1.1876941
15	0x3f1e9b38	0.61955595
16	0x3f744149	0.9541212
17	0x3f8b897e	1.0901334
18	0x3f2d0f0e	0.67601097
19	0x3f95156c	1.1647162
20	0x3f8d3e0c	1.103456
21	0x3fbfad60	1.4974785
22	0x3eea3eec	0.4575113
23	0x3f849e09	1.0360729
24	0x3fa90bfc	1.3206782
25	0x3f54966b	0.8304202
26	0x3ef1ca87	0.4722483
27	0x3f9ae62f	1.2101496
28	0x3f49c36f	0.78813833
29	0x3fb6a4be	1.4269025
30	0x3f9047d1	1.1271917
31	0x3f292b7a	0.66081965
32	0x3f92ebe6	1.147824
33	0x3f8e000e	1.1093767
34	0x3f12cd0a	0.57344115
35	0x3f8c29d0	1.095026
36	0x3f33aa94	0.70182157
37	0x3f89c0e5	1.0761992
38	0x3f2442b0	0.6416426
39	0x3f7524e7	0.95759434
40	0x3f9ee4e6	1.2413604
41	0x3f9591eb	1.1685156
42	0x3f5d60bf	0.8647575
43	0x3f7ed037	0.9953646
44	0x3f8141c8	1.00982
45	0x3fabdb7a	1.3426354
46	0x3f0d8e57	0.5529532
47	0x3fac5595	1.3463618
48	0x3f9b388f	1.2126635
49	0x3f5aa301	0.85404974
50	0x3f9a26e9	1.2043124
51	0x3fb60bef	1.4222392
52	0x3f421d35	0.75825816
53	0x3f784ef8	0.96995497
54	0x3fbcad86	1.4740455
55	0x3f119a68	0.5687623
56	0x3f30c262	0.69046605
57	0x3f712abe	0.94205844
58	0x3fc29eef	1.5204753
59	0x3f94d5b3	1.1627716
60	0x3f91310b	1.1343092
61	0x3f8a5809	1.0808116
62	0x3f7fcd6b	0.9992282
63	0x3f4ee5ec	0.8081958
64	0x3fbf16e9	1.4928867
65	0x3fca7786	1.5817726
66	0x3f45f562	0.7732755
67	0x3f82fe6f	1.0233897
68	0x3efda42a	0.4953931
69	0x3f928791	1.1447622
70	0x3f858a02	1.0432742
71	0x3f60403f	0.8759803
72	0x3f10551f	0.56379884
73	0x3fa6b0f0	1.3022747
74	0x3f9c3b25	1.220555
75	0x3f852479	1.0401756
76	0x3fa1653c	1.2609019
77	0x3f62be05	0.88571197
78	0x3f494242	0.78616726
79	0x3f9dd59b	1.2330812
80	0x3f86ea20	1.0540199
81	0x3f39f2b6	0.7263597
82	0x3eb04cb9	0.34433535
83	0x3ed6ad45	0.4192907
84	0x3f7aa3a4	0.97905946
85	0x3f44e500	0.76911926
86	0x3f1bfbae	0.6093091
87	0x3f633dbe	0.88766086
88	0x3f3255e0	0.69662285
89	0x3f9d3a35	1.2283388
90	0x3f7d045d	0.9883478
91	0x3f5c2a24	0.860018
92	0x3f4a31ab	0.7898204
93	0x3f780867	0.9688782
94	0x3f3d92f2	0.74052346
95	0x3fab57a0	1.3386116
96	0x3faff9a9	1.3748065
97	0x3fabbb11	1.3416463
98	0x3f14545f	0.5794124
99	0x3f98a1ef	1.1924418
100	0x3f631eee	0.8871907
101	0x3f33b2c5	0.70194656
102	0x3fa2f1a2	1.272999
103	0x3f5deb35	0.8668702
104	0x3f95f6de	1.1715963
105	0x3f5f5652	0.8724109
106	0x3f5c848b	0.86139745
107	0x3f998208	1.1992807
108	0x3f9e578a	1.2370465
109	0x3f7e2602	0.99276745
110	0x3f8939dc	1.0720782
111	0x3f293e33	0.66110533
112	0x3f7b1feb	0.9809558
113	0x3f82d475	1.0221087
114	0x3f98a161	1.1924249
115	0x3f8df568	1.1090517
116	0x3efe143f	0.49624822
117	0x3f801185	1.0005347
118	0x3ef718af	0.4826102
119	0x3f8b1a3d	1.0867382
120	0x3f5a4343	0.85258883
121	0x3f63731d	0.88847524
122	0x3f452314	0.7700665
123	0x3eef7799	0.46770933
124	0x3f8dcbb6	1.1077793
125	0x3f1eadd3	0.61983985
126	0x3f87cc11	1.0609151
127	0x3fad61bc	1.3545451

read_encoder.block1.1.bias f4 [128]
0	0xbdd1c26c	-0.10242161
1	0xbcbc16dc	-0.022960119
2	0xbea8152e	-0.3282866
3	0xbd6f95dc	-0.058492526
4	0xbe9e4826	-0.3091442
5	0xbd616db0	-0.055036247
6	0xbe8c3209	-0.27381924
7	0xbe50095a	-0.20316067
8	0xbf2afdfe	-0.6679381
9	0xbdf2b8d6	-0.11851661
10	0xbe91405a	-0.2836941
11	0xbe22b169	-0.15887989
12	0xbd71619a	-0.05893097
13	0xbddbc48b	-0.10730847
14	0xbeb0e112	-0.34546715
15	0xbeaaf783	-0.3339196
16	0xbe197864	-0.14987332
17	0xbdd7d2a6	-0.10538225
18	0xbe9dbe25	-0.3080913
19	0xbe04d564	-0.12972027
20	0xbda8cd4e	-0.08242284
21	0x3cd4af25	0.025962422
22	0xbefb0926	-0.49030417
23	0xbdb825dc	-0.08991596
24	0xbe88be87	-0.2670786
25	0xbe50db39	-0.20396127
26	0xbefcaa5f	-0.49348733
27	0xbedea153	-0.43482456
28	0xbe9a4f87	-0.301388
29	0xbe17d1c7	-0.14826117
30	0xbd94d0e8	-0.07266408
31	0xbf02d1b5	-0.5110124
32	0xbd70f8dd	-0.058831085
33	0xbe45143e	-0.19246003
34	0xbee668f6	-0.45001954
35	0xbe11a4d9	-0.1422304
36	0xbf131976	-0.57460725
37	0xbe8062e6	-0.25075454
38	0xbeaae8e6	-0.33380812
39	0xbe57cc62	-0.2107406
40	0xbddaf909	-0.10692031
41	0xbe3180a4	-0.17334229
42	0xbe812907	-0.25226614
43	0xbe479c9e	-0.19493338
44	0xbe86ea07	-0.26350424
45	0xbe14a5e9	-0.14516415
46	0xbec05b84	-0.3756982
47	0xbe10af86	-0.14129457
48	0xbd422ad2	-0.047404118
49	0xbe9ea6d9	-0.3098667
50	0xbdb3d93e	-0.0878167
51	0xbda5c97b	-0.0809507
52	0xbe6e44b5	-0.23268397
53	0xbe028447	-0.12745772
54	0xbc46881d	-0.012117413
55	0xbf0533f0	-0.52032375
56	0xbea7faa6	-0.32808417
57	0xbdfa5437	-0.12223094
58	0x3bf89040	0.0075855553
59	0xbde2a3af	-0.110663764
60	0xbdfb8fcc	-0.122832865
61	0xbe24950a	-0.16072479
62	0xbdadc8ec	-0.084855884
63	0xbf10cf49	-0.5656629
64	0xbe0510ef	-0.12994741
65	0x3a704ce5	0.00091667316
66	0xbe3f59f9	-0.18686666
67	0xbe5ed24f	-0.21759914
68	0xbf0d7aac	-0.5526531
69	0xbe14f4d0	-0.14546514
70	0xbe6dbd28	-0.23216689
71	0xbe8b2c48	-0.2718222
72	0xbeecefe6	-0.46276778
73	0xbd711253	-0.058855366
74	0xbd728015	-0.05920418
75	0xbdeec3da	-0.116584495
76	0xbdba91e1	-0.091098554
77	0xbe8cfd72	-0.27537113
78	0xbe1aa92c	-0.15103596
79	0xbc5016cd	-0.012700749
80	0xbdefb1cf	-0.11703836
81	0xbe92e836	-0.28692788
82	0xbf4365a0	-0.7632694
83	0xbf00fe31	-0.50387865
84	0xbe779704	-0.24178702
85	0xbeb0ef41	-0.34557536
86	0xbead7493	-0.33878002
87	0xbe32280e	-0.17398092
88	0xbec5480e	-0.38531536
89	0xbdea41b2	-0.11438312
90	0xbf24f48f	-0.64435667
91	0xbed69f39	-0.41918352
92	0xbece4f8b	-0.4029506
93	0xbe131882	-0.14364818
94	0xbe62ebe0	-0.22160292
95	0xbe24367b	-0.16036408
96	0xbd64a9f8	-0.055826157
97	0xbddca166	-0.10772972
98	0xbeeffda0	-0.46873188
99	0xbe2c9d02	-0.16856769
100	0xbe73760a	-0.23775497
101	0xbec434ac	-0.38321435
102	0xbd5e0031	-0.0541994
103	0xbe1d3179	-0.15350904
104	0xbeba259b	-0.36356816
105	0xbe88c61d	-0.26713648
106	0xbeb3fbdd	-0.35153094
107	0xbd67ab78	-0.05656001
108	0xbe301bef	-0.17198156
109	0xbe51d060	-0.20489645
110	0xbea5d511	-0.3238912
111	0xbedd8997	-0.43269035
112	0xbd99bf05	-0.07507137
113	0xbd98bdf7	-0.07458108
114	0xbd3d2069	-0.046173487
115	0xbe3e797a	-0.18601027
116	0xbf080769	-0.53136307
117	0xbe0d818a	-0.13818946
118	0xbf29ac95	-0.66278964
119	0xbeb9be15	-0.36277834
120	0xbe65815c	-0.22412628
121	0xbe26ec46	-0.16301069
122	0xbe48b1d2	-0.19599083
123	0xbf0904ff	-0.5352325
124	0xbe632c81	-0.22184946
125	0xbebf6004	-0.37377942
126	0xbdc7debd	-0.09759281
127	0xbce256c2	-0.02762926

read_encoder.block2.0.weight f4 [128, 128]
0	0x3de6d4c4	0.112710506
1	0xbe119f80	-0.14221
2	0xbcf69f80	-0.030105352
3	0x3dcdaf6f	0.10043227
4	0x3c1d0bac	0.009585302
5	0x3bd42dfc	0.0064752083
6	0x3b2126db	0.002458981
7	0x3ddc2ece	0.10751115
8	0xbbf43cd8	-0.007453542
9	0xbd3e10e3	-0.046402823
10	0xbc7b642e	-0.015343709
11	0xbc37e785	-0.011224632
12	0x3e745b0f	0.23862861
13	0x3e37b4a9	0.1794001
14	0x3d5ff526	0.05467715
15	0xbc270a2a	-0.010195294
16	0xbd8cd894	-0.068772465
17	0xbbc1e724	-0.0059174467
18	0xbdf671d9	-0.120334335
19	0x3dba81b1	0.09106768
20	0x3d88977b	0.066695176
21	0xbe853b8c	-0.26021993
22	0xbd599521	-0.053120736
23	0x3cd6dd61	0.026228609
24	0x3dc2060a	0.09473808
25	0xbb5ee229	-0.0034009314
26	0x3cd87fce	0.02642813
27	0xbd5929a3	-0.053018223
28	0xb9641185	-0.00021750301
29	0xbdd9644b	-0.106148325
30	0x3d4e0b5f	0.050303813
31	0x3e0e9ee9	0.13927807
32	0x3e0047f4	0.12527448
33	0x3e3aad6a	0.18230215
34	0xbdc589b3	-0.09645405
35	0xbd06d61f	-0.032919046
36	0xbd419c3b	-0.047268134
37	0x3d9726e2	0.07380463
38	0x3c1f1f7e	0.009712098
39	0xbc0d28a8	-0.00861565
40	0xbe42db0b	-0.19028871
41	0x3d48328a	0.048876323
42	0x3d133c83	0.03594638
43	0x3cef63d1	0.0292224
44	0xbe0c9049	-0.13726915
45	0xbe0f2465	-0.13978727
46	0x3d8111ca	0.06302221
47	0xbde0d302	-0.109777465
48	0xbea0e58c	-0.3142513
49	0x3d4d29df	0.05008876
50	0x3d9e1f8f	0.07720863
51	0xbe85986f	-0.2609286
52	0x3d2789be	0.040902846
53	0x3cd3dd42	0.02586234
54	0xbe929048	-0.28625703
55	0x3da303c1	0.079597004
56	0x3cf4dbf3	0.029890036
57	0x3ddf1cb7	0.10894149
58	0xbd8e151d	-0.06937621
59	0xbdbd3d18	-0.09240168
60	0x3dca765c	0.098858565
61	0x3e26dd4c	0.16295356
62	0xbe077319	-0.132275
63	0xbe0bedf4	-0.1366499
64	0xbd92a7a9	-0.07160885
65	0xbedab2c7	-0.4271452
66	0xbe1310f4	-0.14361936
67	0xbd760ff2	-0.0600738
68	0xbcf31a01	-0.029675486
69	0x3e1a425b	0.15064375
70	0xbc8e7562	-0.017389957
71	0xbdafeeb3	-0.0859045
72	0xbd53c872	-0.05170483
73	0x3bdbf09f	0.006712034
74	0x3d274488	0.04083684
75	0xbdb725e5	-0.08942775
76	0x3d97636c	0.0739201
77	0x3d57e14f	0.052705105
78	0x3c4c3c52	0.012465553
79	0x3daaa025	0.083313264
80	0x3daab686	0.08335595
81	0x3e06feae	0.1318309
82	0x3deb14f8	0.11478609
83	0x3cb5a615	0.02217392
84	0x3ba1c4b2	0.004936778
85	0x3acaba48	0.0015466893
86	0xbc0aa2dc	-0.00846168
87	0xbb9b963a	-0.004748133
88	0xbd423f72	-0.047423787
89	0xbd99352b	-0.07480844
90	0xbd90441d	-0.070442416
91	0xbd7d1bf2	-0.06179423
92	0x3de0e86d	0.10981832
93	0x3d8649ab	0.0655702
94	0x3d1d61fa	0.038423516
95	0x3e1d4fde	0.15362498
96	0xbd834370	-0.06409347
97	0xbe553b5f	-0.2082343
98	0xbd9d264f	-0.076733224
99	0x3d2365f9	0.03989217
100	0xbd435989	-0.04769281
101	0x3cc247b4	0.023715831
102	0x3d295cfc	0.041348442
103	0x3dbe0270	0.09277809
104	0x3e28f7a1	0.16500713
105	0xbd0f02e9	-0.034914885
106	0x3da1a980	0.07893658
107	0x3e025be2	0.12730363
108	0x3d94b2a7	0.07260638
109	0xbe6dab21	-0.23209812
110	0x3e0c4f9b	0.13702242
111	0x3d0621f0	0.03274721
112	0x3de42ac8	0.111409724
113	0x3dee39be	0.11632107
114	0xbd451874	-0.048119023
115	0xbd37669c	-0.04477559
116	0xbd79a758	-0.060950607
117	0x3d15f826	0.036613606
118	0xbc5916be	-0.013250051
119	0x3d3de645	0.04636218
120	0x3dbc1779	0.091841646
121	0xbd31b708	-0.043387443
122	0x3b85a415	0.004078398
123	0xbd6a3133	-0.057175826
124	0xbd96edbd	-0.07369564
125	0x3d67f7ff	0.056632992
126	0xbd95f7ee	-0.073226795
127	0x3d2efb18	0.04271993
128	0x3d0cf925	0.03441729
129	0x3d964c8c	0.07338819
130	0xbe8fc37e	-0.28078836
131	0xbded3c8a	-0.115838125
132	0x3d63547a	0.055500485
133	0x3be6de01	0.007045508
134	0x3dd41ba2	0.10356833
135	0xbe59ab21	-0.21256687
136	0x3e6bbda1	0.23021556
137	0x3e4dbe60	0.20092154
138	0xbe8a296c	-0.26984727
139	0x3e10e20e	0.14148733
140	0xbca1b34f	-0.019738821
141	0xbd567fc9	-0.05236796
142	0x3decdc73	0.11565485
143	0x3db1289b	0.08650323
144	0x3d9140e8	0.07092458
145	0xbe853058	-0.26013446
146	0x3dd79ae9	0.10527594
147	0xbd1292fb	-0.035784703
148	0x3d6bc80c	0.057563826
149	0xbd5397d3	-0.051658463
150	0x3dec5049	0.11538751
151	0xbe9dd2a8	-0.3082478
152	0xbce42720	-0.027850688
153	0xbda542e5	-0.080694
154	0x3c44a18a	0.012001405
155	0xbd474734	-0.04865189
156	0xbdb91c14	-0.090385586
157	0x3daab948	0.08336121
158	0x3bfc13a2	0.00769277
159	0xbdbefdc7	-0.09325748
160	0xbd3674ab	-0.044544857
161	0xbbded943	-0.006800802
162	0x3e007a46	0.12546644
163	0xbe80dac0	-0.25166893
164	0xbb307506	-0.002692522
165	0x3e0b7674	0.13619405
166	0xbd736b0e	-0.059428267
167	0x3e63e9ca	0.22257152
168	0xbe1b3d39	-0.15160073
169	0x3e4d838b	0.20069711
170	0x3e2f89e9	0.17142452
171	0xbdeb7cc9	-0.1149841
172	0xbe256bde	-0.1615443
173	0xbe04b9d1	-0.12961508
174	0xbdf1ffce	-0.11816369
175	0x3d004b87	0.03132203
176	0xbc476d45	-0.012172048
177	0x3dc4bdbe	0.09606503
178	0x3cd0d06c	0.025490008
179	0xbe37ba35	-0.17942126
180	0x3d1715b9	0.03688595
181	0x3d95cab0	0.0731405
182	0xbdb5948a	-0.08866222
183	0x3dcd3684	0.10020164
184	0x3c49348a	0.012280593
185	0x3e0601a4	0.13086563
186	0x3d84860e	0.064708814
187	0xbdfda41a	-0.123848155
188	0x3e914db6	0.283796
189	0xbe505fa1	-0.2034898
190	0x3d7b9871	0.061424676
191	0xbe0007e8	-0.12503016
192	0xbd2ac896	-0.0416952
193	0xbe907c8d	-0.28220025
194	0xbe13dedc	-0.14440483
195	0x3db64212	0.08899321
196	0x3d384115	0.044983942
197	0x3dc010fa	0.09378238
198	0x3d698e0a	0.057020225
199	0xbdc9cfc6	-0.09854083
200	0x3d35d102	0.04438878
201	0xbec57d38	-0.38572097
202	0x3c89562e	0.016764726
203	0xbd7eafbf	-0.062179323
204	0x3d30e518	0.04318723
205	0xbe04d850	-0.12973142
206	0xba889e3d	-0.0010423135
207	0xbd83e40a	-0.064399794
208	0x3e06a3e3	0.13148455
209	0x3c97fa5b	0.018551996
210	0x3e78e4b8	0.24306
211	0x3c8ea025	0.017410347
212	0xbc99ae54	-0.018759884
213	0xbd5f9eb8	-0.054594725
214	0x3e48dbc1	0.1961508
215	0xbd1f58db	-0.0389031
216	0x3def6b80	0.11690426
217	0xbef14556	-0.47123212
218	0xbe71d2e1	-0.236156
219	0xbe07b9d3	-0.1325448
220	0xbe2883ee	-0.16456577
221	0xbdaaaeb9	-0.08334107
222	0x3c6844c3	0.01417655
223	0xbe28b81d	-0.16476484
224	0x3e6f1442	0.23347571
225	0xbf248361	-0.6426297
226	0xbdebaf40	-0.11508036
227	0xbd516637	-0.05112287
228	0x3c68e798	0.0142153725
229	0x3dbf832b	0.0935119
230	0xbd89af37	-0.06722873
231	0x3d5a2da3	0.05326618
232	0xbd70b3cd	-0.05876522
233	0xbe33e66d	-0.17568369
234	0xbd708c66	-0.058727644
235	0xbdee1bbe	-0.11626385
236	0x3e969e35	0.29417577
237	0xbd4d34b0	-0.050099075
238	0xbdfe7693	-0.1242496
239	0xbd818e17	-0.063259296
240	0x3d23a127	0.03994861
241	0x3b1a0811	0.0023503343
242	0x3ce289b5	0.027653554
243	0x3c88f565	0.016718576
244	0x3d5dc26d	0.054140497
245	0x3e8fb85c	0.28070343
246	0xbdccbf03	-0.0999737
247	0xbd65b97c	-0.056085095
248	0xbe653566	-0.22383651
249	0x3d977fbe	0.07397412
250	0x3df3741b	0.1188738
251	0xbe045587	-0.12923251
252	0x3e489a4a	0.19590107
253	0xbc0ec339	-0.008713537
254	0x3ceb9bb8	0.028760776
255	0x3ec5a3fe	0.3860168

read_encoder.block2.0.bias f4 [128]
0	0x3dd41637	0.103558
1	0x38a29314	7.7521574e-05
2	0x3e34e800	0.17666626
3	0x3c997886	0.018734228
4	0x3e18ee78	0.14934719
5	0x3d79c15d	0.06097542
6	0xbd190b34	-0.0373642
7	0xbc9593ed	-0.018259013
8	0xbd09fa2a	-0.03368584
9	0x3e037a5c	0.12839645
10	0x3c375c60	0.0111914575
11	0x3e15c27b	0.1462497
12	0xbe07ba37	-0.13254629
13	0x3d831a4d	0.06401501
14	0x3e3c7a79	0.18406095
15	0x3dea5d23	0.11443546
16	0x3d3de14c	0.046357438
17	0x3d9b8ca4	0.075951844
18	0x3e763566	0.24043807
19	0x3e38f505	0.18062218
20	0xbd72da17	-0.059290018
21	0xbbb90589	-0.005646412
22	0x3dc74611	0.09730161
23	0x3e2d68bd	0.16934486
24	0x3b651488	0.0034954865
25	0x3cac6f05	0.021049032
26	0x3e8a32b4	0.26991808
27	0xbbc805fb	-0.0061042286
28	0x3e114d9c	0.14189762
29	0x3d06b6af	0.032889064
30	0x3d43f02b	0.047836464
31	0x3cb91089	0.022590892
32	0xbde10546	-0.10987334
33	0x3d3c4309	0.045962367
34	0x3e0689e5	0.1313854
35	0x3e1100e3	0.14160495
36	0x3e2569b0	0.16153598
37	0x3df172b6	0.117894575
38	0x3c8796d3	0.01655141
39	0x3e007f6c	0.12548608
40	0x3d042115	0.032258112
41	0x3a4b5594	0.00077565876
42	0x3dc95353	0.09830346
43	0x3d7acd5a	0.061230995
44	0x3d42c1d9	0.04754815
45	0xbda26a14	-0.07930389
46	0x3e41c19c	0.18921512
47	0x3c673339	0.0141113335
48	0x3e349586	0.17635164
49	0xbd5a1e44	-0.05325152
50	0x3e2b1645	0.16707714
51	0x3d4e8d9f	0.05042803
52	0x3d017c6a	0.03161279
53	0xbc0041f6	-0.007828226
54	0xbdaf3887	-0.085557036
55	0x3e72895f	0.23685215
56	0x3e331575	0.17488654
57	0x3e1879fe	0.14890286
58	0x3b550fa0	0.0032510534
59	0x3e27e97f	0.16397665
60	0x3cbb7d08	0.022886768
61	0x3e2c684f	0.16836666
62	0xbd5eac8e	-0.05436378
63	0x3e0ee94c	0.13956183
64	0xbdef1897	-0.11674612
65	0xbd82b49d	-0.063821055
66	0x3ce72a5d	0.028218443
67	0xbd1af011	-0.0378266
68	0x3de6b7dd	0.11265538
69	0xbd57352a	-0.052540936
70	0x3df75a51	0.12077773
71	0xbe002c1a	-0.12516823
72	0x3d92c95e	0.07167314
73	0xbdd944fe	-0.10608862
74	0x3c9042e4	0.017610021
75	0xbd83aa55	-0.06428973
76	0xbcb9f0f7	-0.022697909
77	0x3e14368c	0.14473933
78	0x3dcea57b	0.10090157
79	0xbc513158	-0.012768112
80	0xbc231040	-0.009952605
81	0x3e3f1819	0.18661536
82	0x3df88b48	0.12135941
83	0x3d777450	0.06041366
84	0x3b83a39c	0.0040173065
85	0x3e4b8271	0.19873978
86	0x3d288ea7	0.04115167
87	0x3c92f220	0.01793772
88	0x3d27c83d	0.040962446
89	0x3d9258e7	0.07145863
90	0xbdd14bb1	-0.10219515
91	0x3ddca75f	0.10774111
92	0xbd2eb2b9	-0.042650912
93	0xbc89c366	-0.016816806
94	0x3e513f27	0.20434247
95	0x3dd1a2f9	0.10236163
96	0x3dbbafbc	0.09164378
97	0x3c360ffd	0.01111221
98	0x3bd27b5a	0.006423396
99	0xbd6dc776	-0.05805155
100	0x3c128447	0.00894267
101	0x3da54773	0.080702685
102	0x3c5bea72	0.013422595
103	0xbd29c91c	-0.04145156
104	0x3e158f2a	0.14605394
105	0x3d84fa14	0.06493011
106	0x3c45947a	0.012059325
107	0x3beac5b0	0.0071646795
108	0x3e0d9c74	0.13829213
109	0x3d44a80a	0.048011817
110	0xbe1aa41c	-0.15101665
111	0x3e125eeb	0.14294021
112	0x3b913e54	0.004432479
113	0x3dd009ee	0.10158144
114	0xbd2899b2	-0.0411622
115	0x3e66f39c	0.22553867
116	0x3dc13559	0.094340034
117	0x3c2266a5	0.009912168
118	0x3d8f0e78	0.069851816
119	0xbe00bfd5	-0.12573178
120	0xbc1ef002	-0.009700777
121	0x3d872001	0.06597901
122	0x3ace697e	0.0015747992
123	0x3e2c8531	0.16847683
124	0xbd5b20d9	-0.053498123
125	0x3e6e6532	0.2328079
126	0xbe4ea1b1	-0.20178868
127	0x3e09c4c9	0.13453974

read_encoder.block2.1.weight f4 [128]
0	0x3f54778a	0.829949
1	0x3f8486e9	1.0353671
2	0x3f771595	0.96517307
3	0x3f844f9f	1.0336798
4	0x3f1a7452	0.6033374
5	0x3f666542	0.8999826
6	0x3f84448b	1.0333418
7	0x3f7873e1	0.9705182
8	0x3f8a2bcc	1.0794616
9	0x3f4ac247	0.79202694
10	0x3f879d01	1.0594789
11	0x3f4fb428	0.8113427
12	0x3faf987c	1.371841
13	0x3fa39eb7	1.2782811
14	0x3f3571f3	0.70877
15	0x3f42d12a	0.7610041
16	0x3f97eb33	1.1868652
17	0x3f59c174	0.8506081
18	0x3f2399f7	0.63906807
19	0x3f40b6a1	0.7527867
20	0x3f8aee21	1.0853921
21	0x3f78ce2d	0.971896
22	0x3f45256c	0.77010226
23	0x3f4b443c	0.7940099
24	0x3f8b4112	1.0879233
25	0x3f916477	1.1358784
26	0x3f2a918b	0.6662833
27	0x3f992dd6	1.1967113
28	0x3f56242d	0.8364895
29	0x3f5d6123	0.86476344
30	0x3f1c4d75	0.6105569
31	0x3f8fac35	1.1224428
32	0x3f8a0610	1.07831
33	0x3f472f39	0.7780643
34	0x3f4d5b05	0.8021701
35	0x3f1a6c35	0.6032136
36	0x3f2eb0dd	0.6823862
37	0x3f50cf44	0.8156626
38	0x3f9e53c7	1.2369317
39	0x3f2b60bc	0.6694448
40	0x3f78b8cc	0.9715698
41	0x3f78048d	0.96881944
42	0x3f6d23d4	0.92632794
43	0x3f53fb51	0.82805353
44	0x3f861d6a	1.0477726
45	0x3fb723c3	1.4307789
46	0x3f6f8627	0.93564075
47	0x3f516cf9	0.81806904
48	0x3f3b7e8b	0.73239964
49	0x3f656622	0.8960897
50	0x3f43dfaa	0.7651316
51	0x3f6ed567	0.93294376
52	0x3f855ae4	1.0418363
53	0x3f72ef5c	0.94896483
54	0x3f715d7c	0.9428327
55	0x3f310642	0.69150174
56	0x3f2cc33c	0.67485404
57	0x3f639201	0.8889466
58	0x3f6908cf	0.91029066
59	0x3f744552	0.95418274
60	0x3f62373c	0.8836553
61	0x3f47724c	0.7790878
62	0x3fa2ed8d	1.2728745
63	0x3f297f66	0.6621002
64	0x3f9756a8	1.182332
65	0x3f97c540	1.1857071
66	0x3f59e45a	0.8511406
67	0x3f95dd83	1.1708225
68	0x3f2319fd	0.6371153
69	0x3f9ba499	1.2159606
70	0x3f64b0fc	0.89332557
71	0x3f8ee9d3	1.1165107
72	0x3f4e21ee	0.8052052
73	0x3fb3a0be	1.403343
74	0x3f8a7e40	1.0819778
75	0x3f91ece1	1.1400415
76	0x3f98d90a	1.1941235
77	0x3f5c8c77	0.8615183
78	0x3f7596e5	0.9593337
79	0x3f86fccc	1.0545897
80	0x3f8ff984	1.1248021
81	0x3f20b3e1	0.62774473
82	0x3f2885d4	0.65829206
83	0x3f8b3c6c	1.0877814
84	0x3fa171cd	1.2612854
85	0x3ef9507c	0.48694217
86	0x3f729ebe	0.9477347
87	0x3f59a8c1	0.85023123
88	0x3f79767e	0.9744643
89	0x3f3ea7cb	0.7447478
90	0x3f9bb1a4	1.2163587
91	0x3f62987a	0.8851391
92	0x3f806669	1.0031253
93	0x3f945d2b	1.1590933
94	0x3f28d8a8	0.6595559
95	0x3f5f9145	0.8733104
96	0x3f9353ce	1.150995
97	0x3f91a966	1.1379821
98	0x3f53eab5	0.8278001
99	0x3fa91ed1	1.321253
100	0x3f9c757b	1.2223352
101	0x3f866961	1.0500909
102	0x3f5333e9	0.82501084
103	0x3f8b3dc0	1.087822
104	0x3f84d250	1.0376682
105	0x3f82c621	1.0216714
106	0x3f854657	1.0412091
107	0x3f8d989c	1.1062198
108	0x3f56c8eb	0.83900326
109	0x3f803c3a	1.001838
110	0x3f9276a3	1.1442455
111	0x3f5ee291	0.8706446
112	0x3f972e71	1.1811048
113	0x3f5d9f38	0.86571074
114	0x3f7bfd5b	0.98433465
115	0x3f523b6e	0.8212193
116	0x3f7d390a	0.9891516
117	0x3f82cb84	1.0218358
118	0x3f69fce3	0.914015
119	0x3f8e7596	1.1129634
120	0x3f7c61e2	0.9858686
121	0x3f896599	1.073413
122	0x3f9e63b8	1.2374182
123	0x3f74fca6	0.9569801
124	0x3f961641	1.1725541
125	0x3f3629ed	0.71157724
126	0x3fa3f1d9	1.2808181
127	0x3f85b3e2	1.0445521

read_encoder.block2.1.bias f4 [128]
0	0xbe0aba49	-0.13547625
1	0xbe479c10	-0.19493127
2	0xbe8f58b8	-0.27997375
3	0xbe884755	-0.26616922
4	0xbf01f721	-0.50767714
5	0xbea309ae	-0.31843323
6	0xbec714e4	-0.38883126
7	0xbe6f58e6	-0.23373756
8	0xbe82f3c8	-0.25576615
9	0xbe03567f	-0.12825964
10	0xbe203562	-0.15645364
11	0xbe81f3ce	-0.2538132
12	0xbe19d1f5	-0.15021499
13	0xbe9c832d	-0.3056883
14	0xbe781bfc	-0.24229425
15	0xbe9b6a5a	-0.30354577
16	0xbe10d91d	-0.14145322
17	0xbe42e78b	-0.19033639
18	0xbec26084	-0.3796426
19	0xbe6a09cf	-0.22855304
20	0xbe314634	-0.17311937
21	0xbe646419	-0.22303809
22	0xbe8de806	-0.27716082
23	0xbe81b48c	-0.2533306
24	0xbe750f93	-0.23931722
25	0xbe04dd3e	-0.12975022
26	0xbe991add	-0.29903308
27	0xbe1b91a4	-0.15192276
28	0xbe44da2b	-0.1922385
29	0xbeb98723	-0.36235914
30	0xbedf1d5a	-0.4357708
31	0xbe51d52f	-0.2049148
32	0xbde608ff	-0.112321846
33	0xbe5c5ad5	-0.21519025
34	0xbe6cb35b	-0.23115294
35	0xbec5822a	-0.3857587
36	0xbead8fad	-0.33898678
37	0xbe84fedb	-0.2597569
38	0xbe0b657f	-0.13612936
39	0xbeaf2607	-0.342087
40	0xbe2d1339	-0.16901864
41	0xbea1c017	-0.31591865
42	0xbe34769b	-0.1762337
43	0xbe89aad8	-0.26888156
44	0xbe1185fc	-0.14211267
45	0xbe47b0b0	-0.19500995
46	0xbe499690	-0.19686341
47	0xbe8cbcbe	-0.2748775
48	0xbe79a578	-0.24379528
49	0xbe8b9dbb	-0.27268776
50	0xbe53b21d	-0.20673414
51	0xbeac58ca	-0.3366149
52	0xbe1757bd	-0.14779563
53	0xbe1aa023	-0.1510015
54	0xbe7059d9	-0.23471774
55	0xbea973f1	-0.3309627
56	0xbea7ce15	-0.32774416
57	0xbe872f4a	-0.26403266
58	0xbe8b5ef4	-0.2722088
59	0xbe431f00	-0.19054794
60	0xbe7373e8	-0.23774683
61	0xbea471f6	-0.32118195
62	0xbd343143	-0.043992292
63	0xbe62759e	-0.2211518
64	0xbddb3725	-0.10703877
65	0xbeb289c8	-0.34870744
66	0xbeb078b8	-0.344671
67	0xbe88d235	-0.26722875
68	0xbec24dce	-0.37949985
69	0xbe1cc947	-0.15311156
70	0xbe4aa72f	-0.19790338
71	0xbe6359a0	-0.22202158
72	0xbe9ed17d	-0.31019202
73	0xbe5a2804	-0.21304327
74	0xbdf213df	-0.11820196
75	0xbdffec2f	-0.1249622
76	0xbdacd8bd	-0.08439777
77	0xbe59ad09	-0.21257414
78	0xbe3802fa	-0.17969885
79	0xbe5162db	-0.20447867
80	0xbe1acd32	-0.15117338
81	0xbee089ad	-0.43855038
82	0xbea5a8aa	-0.32355243
83	0xbe9b5c74	-0.30343974
84	0xbe91fcf9	-0.28513315
85	0xbf0dbcae	-0.5536603
86	0xbe71e28f	-0.23621581
87	0xbe9d5a39	-0.30732897
88	0xbe0aaa04	-0.13541418
89	0xbeaa10b8	-0.3321588
90	0xbe63fa24	-0.2226339
91	0xbe6d9c12	-0.23204067
92	0xbe5ba3e5	-0.2144924
93	0xbe237935	-0.15964206
94	0xbeb5925a	-0.3546322
95	0xbe30c5e2	-0.17262986
96	0xbe34fb61	-0.17674018
97	0xbe008ce7	-0.1255375
98	0xbe9fb946	-0.3119604
99	0xbe4debc8	-0.20109475
100	0xbda1102c	-0.07864413
101	0xbe54fa59	-0.20798625
102	0xbe72a28a	-0.23694816
103	0xbdffc972	-0.124895945
104	0xbe97962d	-0.29606763
105	0xbdfc3b1f	-0.12315964
106	0xbe5a0f01	-0.21294786
107	0xbe4ec07d	-0.20190616
108	0xbe6d628d	-0.23182125
109	0xbe75e215	-0.24012025
110	0xbe94147f	-0.28921887
111	0xbe505139	-0.20343484
112	0xbdf45894	-0.119309574
113	0xbe91f413	-0.28506526
114	0xbe8f6e2a	-0.28013736
115	0xbe61a3d1	-0.22035147
116	0xbe9627ed	-0.29327336
117	0xbe3d8790	-0.18508744
118	0xbe9adb24	-0.30245316
119	0xbe44ac4c	-0.19206351
120	0xbe4d0229	-0.20020355
121	0xbe7d1195	-0.24713738
122	0xbd9c1ff7	-0.07623284
123	0xbe28a61a	-0.16469613
124	0xbe8a2e82	-0.26988608
125	0xbeb7215e	-0.35767645
126	0xbe4126c0	-0.18862438
127	0xbe5ea102	-0.21741107

read_encoder.block3.0.weight f4 [128, 128]
0	0xbdd108d3	-0.10206761
1	0xbba6fd63	-0.005096124
2	0x3e16189b	0.14657824
3	0xbe1b2a2a	-0.15152803
4	0x3c17cf10	0.009265676
5	0xbe217d2e	-0.15770409
6	0x3d64bb20	0.05584252
7	0xbd8c12ec	-0.068395466
8	0x3e4b7870	0.19870162
9	0x3d0145ee	0.03156083
10	0xbd16a707	-0.036780383
11	0x3da4f085	0.08053688
12	0x3e091bd0	0.13389516
13	0x3d9b50a6	0.07583742
14	0x3c782afc	0.015146967
15	0xbd6da332	-0.058016963
16	0xbdfcd66e	-0.12345587
17	0x3cfc46bd	0.03079545
18	0x3d04eaed	0.032450605
19	0xbe1537c1	-0.1457205
20	0xbde1994e	-0.11015569
21	0x3da4df44	0.08050397
22	0xbd90977e	-0.07060145
23	0xbe06e1e9	-0.13172115
24	0xbdc9805f	-0.09838938
25	0xbc902e9d	-0.017600352
26	0xbde1a3f4	-0.110176
27	0xbd96c79c	-0.07362291
28	0xbdb3857c	-0.087656945
29	0x3e81833e	0.25295442
30	0xbcc20dc1	-0.023688199
31	0xbe224514	-0.15846664
32	0x3e08fb45	0.13377102
33	0x3ce2fcce	0.027708437
34	0xbe516cc1	-0.20451643
35	0xbe0a7faf	-0.1352527
36	0xbc4305c5	-0.011903231
37	0xbe5a673a	-0.2132844
38	0x3e16693e	0.14688584
39	0x3ca3cee7	0.01999612
40	0xbd52a250	-0.051424325
41	0xbdfc40d4	-0.123170525
42	0xbde8a2e7	-0.11359196
43	0x3d64ccb2	0.055859275
44	0xbe90cc66	-0.28280944
45	0x3ec2cce9	0.3804696
46	0xbdbb9abc	-0.091603726
47	0xbd44344f	-0.047901448
48	0x3cb2ace6	0.02181096
49	0xbbca5e1e	-0.0061757704
50	0x3d047396	0.032336794
51	0xbd8e4c3d	-0.06948135
52	0xbdaf7480	-0.085671425
53	0xbd047733	-0.03234024
54	0x3eb315cc	0.34977567
55	0x3d4d37dc	0.0501021
56	0xbda79745	-0.08183149
57	0x3dc552b9	0.09634919
58	0xbe9278cd	-0.2860779
59	0xbe1e310d	-0.15448399
60	0xbcaee858	-0.021351025
61	0x3e102fe2	0.14080766
62	0x3ce92998	0.028462216
63	0xbd627b1f	-0.0552932
64	0x3e1c3016	0.15252718
65	0xbe4443bd	-0.19166465
66	0x3cae1b07	0.021253122
67	0xbe70931c	-0.23493618
68	0xbe049957	-0.1294912
69	0x3ead2903	0.33820352
70	0x3c9312d2	0.01795331
71	0x3e471aca	0.19443813
72	0x3e1e0c87	0.15434466
73	0x3cc42ff9	0.023948656
74	0x3cc7c86c	0.02438756
75	0xbe1216bd	-0.14266486
76	0xbe978caf	-0.2959952
77	0xbe931178	-0.28724265
78	0x3dd31a4c	0.1030775
79	0xbded31fa	-0.11581798
80	0x3db4b090	0.08822739
81	0xbd779935	-0.060448844
82	0xbe263ace	-0.1623337
83	0xbe81ef80	-0.25378036
84	0xbcccc7fe	-0.024997707
85	0xbc9ce109	-0.019150274
86	0x3c64c9f9	0.01396417
87	0x3dba0cc0	0.09084463
88	0x3d864783	0.065566085
89	0x3dbeddb9	0.09319634
90	0x3ddffeaf	0.10937249
91	0xb7ffd94d	-3.0499557e-05
92	0x3e1d70c0	0.15375042
93	0x3d2473d0	0.04014951
94	0xbd81b63b	-0.06333586
95	0x3c40e593	0.011773485
96	0x3e7529ba	0.23941699
97	0x3e089f9b	0.13342135
98	0x3d8a6e1a	0.067592815
99	0xbd3aadf8	-0.045576066
100	0xbdd7733b	-0.10520025
101	0xbcde75b9	-0.027155744
102	0x3e483c2b	0.19554202
103	0xbe2b727b	-0.1674289
104	0xbe69f322	-0.22846654
105	0x3db1db05	0.08684353
106	0x3de00c4c	0.109398454
107	0x3e888fea	0.26672298
108	0xbde853ca	-0.113441065
109	0xbd1cd245	-0.038286466
110	0xbe36d1fa	-0.17853537
111	0xbe27f832	-0.16403273
112	0x3c5c3473	0.013440239
113	0xbc62cf52	-0.013843374
114	0x3e9a1179	0.30091456
115	0x3d977887	0.07396036
116	0x3d26138f	0.040545996
117	0x3df7a101	0.12091256
118	0x3e1edbde	0.1551356
119	0x3e707c7f	0.23484991
120	0x3bc7efe1	0.006101594
121	0x3e506ba5	0.20353563
122	0xbd209764	-0.039206877
123	0xbe1e48fe	-0.15457532
124	0xbe46207f	-0.19348334
125	0xbde34982	-0.11098005
126	0xbe8780ab	-0.26465353
127	0xbe332405	-0.17494209
128	0xbb0d244d	-0.002153653
129	0x3bf9ba19	0.0076210615
130	0x3db84b25	0.08998708
131	0xbd7ebe63	-0.062193286
132	0xbc5bcf42	-0.013416113
133	0x3d957f58	0.072996795
134	0x3ddb4b62	0.107077375
135	0xbb3bef01	-0.0028676393
136	0xbd85184d	-0.06498776
137	0xbe1ba9d1	-0.15201499
138	0x3cf6125a	0.030038048
139	0x3deabf97	0.11462324
140	0xbe32f10b	-0.17474763
141	0xbd1f0747	-0.0388253
142	0x3ddc77e8	0.10765058
143	0xbc8b1744	-0.016978867
144	0xbbe99f27	-0.007129568
145	0xbcb139b8	-0.021633968
146	0x3de8bb33	0.113638304
147	0xbda79c5e	-0.081841215
148	0xbd1ff99a	-0.039056398
149	0x3e30323d	0.17206664
150	0x3dd5a39f	0.10431599
151	0x3d9fa9e7	0.07796078
152	0x3d10d818	0.035362333
153	0x3d530d00	0.05152607
154	0x3d71edaa	0.059064545
155	0xbe2a5e86	-0.1663762
156	0xbd23e8d5	-0.040016968
157	0x3a7a3067	0.00095439557
158	0xbcf039ea	-0.02932449
159	0x3d219f38	0.039458483
160	0x3db79c30	0.08965337
161	0x3c6a5332	0.014302062
162	0xbd81c6ee	-0.06336771
163	0xbdf19880	-0.11796665
164	0x3e2c2b71	0.16813447
165	0x3c6f8fd8	0.014621697
166	0x3d96e2a0	0.07367444
167	0x3d1bc95a	0.03803382
168	0x3e4bf7cc	0.19918746
169	0x3e178e28	0.14800322
170	0x3d9fa335	0.07794801
171	0xbd06baef	-0.032893118
172	0xbd1a5d3a	-0.037686564
173	0xbdc2a04a	-0.09503229
174	0x3c9e7fc7	0.019348038
175	0x3d27703a	0.040878512
176	0x3e82f022	0.25573832
177	0x3e582db7	0.21111189
178	0x3dacc97a	0.08436866
179	0x3cef2725	0.02919347
180	0x3dace9dc	0.08443043
181	0xbe11329e	-0.14179465
182	0x3d9ece9c	0.07754251
183	0x3d13f0ec	0.036118433
184	0x3c113d28	0.008864678
185	0x3da0d0e0	0.0785234
186	0x3e46ea62	0.19425347
187	0x3db3beea	0.08776648
188	0x3db72f80	0.08944607
189	0x3cdac754	0.026706375
190	0x3cc023d3	0.023454582
191	0x3d208074	0.039185002
192	0x3e0553d1	0.13020255
193	0xbd3edf86	-0.046599887
194	0xbbfd33f6	-0.0077271415
195	0x3dd58c93	0.10427203
196	0x3d5d2fb8	0.054000586
197	0x3d86acb9	0.06575913
198	0xbd638230	-0.05554408
199	0x3d8b8ad1	0.068135865
200	0x3d2dab30	0.042399585
201	0x3dab040b	0.083503805
202	0xbe419074	-0.1890276
203	0xbe35ac80	-0.17741585
204	0xbdea8a55	-0.11452166
205	0xbc953c55	-0.018217245
206	0xbc83f515	-0.016108075
207	0x3e1da396	0.15394434
208	0x3d394d9d	0.045240033
209	0x3d81b7fe	0.06333922
210	0x3c72d93e	0.014822302
211	0x3dc54c0e	0.09633647
212	0xbd6b7f21	-0.057494286
213	0x3dd3df58	0.10345334
214	0x3e34cec7	0.17657004
215	0xbd4b4439	-0.04962561
216	0x3d508825	0.050911088
217	0xbd9c6538	-0.076364934
218	0x3da0be15	0.07848755
219	0x3cb96e06	0.022635471
220	0x3dba661e	0.091015086
221	0x3d01c5fa	0.031682946
222	0xbd5c58fe	-0.053795807
223	0xbbaf4968	-0.005349327
224	0xbe0b77fe	-0.13619992
225	0x3c1b1b35	0.009466936
226	0x3e80e2d3	0.25173053
227	0xbcbb2785	-0.022845993
228	0xbe03c311	-0.1286738
229	0xbe16e14a	-0.14734378
230	0x3cb1ef8d	0.021720672
231	0xbe455a70	-0.1927278
232	0x3e5ac062	0.2136245
233	0xbcd0b3f1	-0.025476428
234	0x3d87b871	0.06626976
235	0x3dc40b95	0.095725216
236	0xbd1ed629	-0.038778458
237	0x3d36e6d9	0.044653747
238	0xbd6c39c6	-0.057672285
239	0x3d017684	0.031607166
240	0x3c8210e8	0.015877202
241	0xbc804a7c	-0.015660517
242	0x3d0a361c	0.03374301
243	0xbcf45079	-0.029823529
244	0x3e2397b7	0.15975843
245	0xbcbf815c	-0.023377113
246	0x3e2a656e	0.16640255
247	0xbd723782	-0.059134968
248	0x3d8f04b4	0.06983319
249	0xbcec932d	-0.028878773
250	0xbd72b1b3	-0.0592515
251	0x3d03838f	0.032107886
252	0x3dc2c6b6	0.09510557
253	0x3d8a9364	0.06766394
254	0xbc94cd27	-0.01816423
255	0x3e348e47	0.176324

read_encoder.block3.0.bias f4 [128]
0	0xbd3daf90	-0.046310008
1	0x3e28731e	0.16450164
2	0xbdbff587	-0.093730025
3	0x3d7dc533	0.061955642
4	0xbd686d1d	-0.056744684
5	0x3b8b45f6	0.0042502834
6	0xbe15fc63	-0.14647059
7	0xbd7253bf	-0.059161898
8	0x3cbf700d	0.02336886
9	0x3d503838	0.050834864
10	0x3dd279f8	0.1027717
11	0x3e0ad2a8	0.13556921
12	0x3e317a20	0.17331743
13	0x3cc4755e	0.023981746
14	0x3de74119	0.11291713
15	0xbd13cf92	-0.036086626
16	0x3e00485e	0.12527606
17	0x3e043b11	0.12913157
18	0x3daee556	0.08539836
19	0x3b825e38	0.003978517
20	0x3e3149d4	0.1731332
21	0xbd8e8469	-0.06958849
22	0x3d9fb613	0.077984
23	0x3dca224f	0.09869825
24	0x3d3c2641	0.04593492
25	0x3d39a26c	0.045320913
26	0xbc2fd873	-0.010732758
27	0x3de70508	0.112802565
28	0x3dcea9b8	0.10090965
29	0xbd854c09	-0.06508643
30	0xbc8bfe76	-0.01708911
31	0xbe0bdd91	-0.1365874
32	0x3db69023	0.08914211
33	0x3d3b8e99	0.04579029
34	0xbd9feb0b	-0.07808503
35	0x3d518e1b	0.051160913
36	0xbdc08bbd	-0.09401653
37	0xbdb49709	-0.0881787
38	0x3b923295	0.0044615963
39	0xbdf40c6f	-0.11916434
40	0xbcc4ad47	-0.024008406
41	0x3dc1a4c7	0.09455257
42	0xba569475	-0.0008185574
43	0x3c9f9f0f	0.019485025
44	0x3e0cca15	0.13748963
45	0x3de1592e	0.11003338
46	0x3d8893cd	0.06668816
47	0xbdfe463e	-0.124157414
48	0xbd121b22	-0.035670407
49	0xbe2a9ff6	-0.16662583
50	0x3db6bd18	0.089227855
51	0xbd170def	-0.036878522
52	0x3c7d17cd	0.015447569
53	0x3e184036	0.14868245
54	0xbdad0091	-0.08447374
55	0xbca356fa	-0.019938935
56	0xbd101762	-0.03517855
57	0x3d11ee85	0.03562786
58	0x3cee6611	0.029101403
59	0x3d9e55d2	0.07731213
60	0xbd45d8fb	-0.04830263
61	0xbdd2a297	-0.10284918
62	0x3e036eb4	0.12835199
63	0x3d9f4e23	0.07778575
64	0x3e0c44b0	0.13698077
65	0x3d71bf75	0.05902048
66	0x3e037a98	0.12839735
67	0xbd6b1798	-0.057395548
68	0xbd1e1399	-0.03859291
69	0x3e4102c4	0.18848711
70	0x3e1ab025	0.15106256
71	0xbda72d63	-0.08162954
72	0xbd17d7f9	-0.037071202
73	0xbce131b5	-0.027489522
74	0xbc070fee	-0.008243544
75	0xbe2378f8	-0.15964115
76	0x3e3c6fcc	0.18402022
77	0x3d7ef9a8	0.06224981
78	0xbca151dc	-0.019692354
79	0xbe01d413	-0.12678556
80	0xbcc8ef7b	-0.024528256
81	0x3c0805b2	0.008302139
82	0x3d54985e	0.05190312
83	0xbe10ee40	-0.14153385
84	0x3d5beb4e	0.0536912
85	0x3d880ef2	0.066434756
86	0xbdc77e9c	-0.09740946
87	0xbd9cb498	-0.07651633
88	0x3dbf3559	0.09336347
89	0xbda4ab86	-0.08040528
90	0xbdda1a5b	-0.10649558
91	0xbda2f42c	-0.07956728
92	0xbe1bfed0	-0.15233922
93	0x3e110763	0.14162974
94	0xbda20b3e	-0.079123005
95	0x3d9d9dbb	0.076961
96	0x3dc7c63d	0.09754608
97	0x3ccd940d	0.02509501
98	0xbdbce529	-0.09223396
99	0x3e20cc6d	0.15702982
100	0x3d0110ea	0.03151027
101	0x3e166a16	0.14688906
102	0x3dd90d3b	0.10598227
103	0x3d82f3c5	0.063941516
104	0xbcb44e82	-0.022010092
105	0x3d912c71	0.07088555
106	0xbe139314	-0.14411575
107	0xbe2604b6	-0.16212735
108	0x3cb79ed6	0.022414606
109	0xbe1f113f	-0.15533923
110	0xbd40bc1a	-0.047054388
111	0x3df259bf	0.11833524
112	0x3c590f5f	0.013248294
113	0x3d9388f6	0.072038576
114	0xbc1e6b91	-0.0096692005
115	0xbccf6be8	-0.025320008
116	0x3d6b731e	0.05748283
117	0x3d911c23	0.07085445
118	0xbe4117ec	-0.18856782
119	0xba8b6ae8	-0.0010636719
120	0x3de521c3	0.1118808
121	0xbe1322d5	-0.14368756
122	0xbcf9da52	-0.030499611
123	0x3d899306	0.067174956
124	0x3e1e47b8	0.15457046
125	0x3d71dcff	0.05904865
126	0xbcfaf69d	-0.030635173
127	0x3b83ebe0	0.004025921

read_encoder.block3.1.weight f4 [128]
0	0x3f975ed3	1.1825813
1	0x3f72bbaa	0.948176
2	0x3f6a0321	0.91411024
3	0x3f75a188	0.959496
4	0x3f361d4e	0.71138465
5	0x3f7003d3	0.93755835
6	0x3f88ae59	1.0678207
7	0x3f26f2a5	0.65213996
8	0x3f87f085	1.0620276
9	0x3f84fb22	1.038914
10	0x3f733654	0.95004773
11	0x3f7163cc	0.942929
12	0x3f6160e4	0.8803847
13	0x3f814b22	1.0101054
14	0x3f6219f6	0.88320863
15	0x3f34affd	0.70581037
16	0x3f819105	1.0122381
17	0x3f704481	0.9385453
18	0x3f3f848a	0.74811614
19	0x3f74adac	0.955775
20	0x3f6d909e	0.92798793
21	0x3f844fa4	1.0336804
22	0x3f6c071e	0.9219836
23	0x3f66faa1	0.9022618
24	0x3f5c3d8e	0.86031425
25	0x3f8a9bf0	1.0828838
26	0x3f87e528	1.0616808
27	0x3f6b3c7b	0.9188916
28	0x3f792566	0.9732269
29	0x3f499949	0.7874952
30	0x3f57559a	0.8411499
31	0x3f59d489	0.8508993
32	0x3f93fb79	1.1561118
33	0x3f904a7e	1.1272733
34	0x3f4e7ea4	0.8066199
35	0x3f4d7139	0.8025089
36	0x3f411727	0.7542595
37	0x3f388cf0	0.72090054
38	0x3f833274	1.0249772
39	0x3f79e83d	0.9761999
40	0x3f6b645e	0.91950023
41	0x3f439872	0.7640449
42	0x3f6a0b3f	0.9142341
43	0x3f644edc	0.8918283
44	0x3f76278e	0.96154106
45	0x3f9689bf	1.1760787
46	0x3f6781b3	0.9043228
47	0x3f648ecf	0.8928041
48	0x3f661a44	0.8988383
49	0x3f9540b8	1.1660376
50	0x3f6782b1	0.90433794
51	0x3f481c85	0.7816852
52	0x3f9f0a7a	1.2425072
53	0x3f7eca93	0.99527854
54	0x3f875c42	1.057503
55	0x3eeaa69e	0.45830244
56	0x3f3650e2	0.7121717
57	0x3f586b20	0.8453846
58	0x3f0812d5	0.53153735
59	0x3f792d27	0.9733452
60	0x3f607a28	0.87686396
61	0x3f68118e	0.90651786
62	0x3f73ffcc	0.9531219
63	0x3f94c8f8	1.1623831
64	0x3f8c4ee6	1.0961578
65	0x3f1cef14	0.61302304
66	0x3f69d71f	0.91343874
67	0x3f51d81d	0.8197039
68	0x3f0a2725	0.5396598
69	0x3f5dc27e	0.86624897
70	0x3f72b7bb	0.948116
71	0x3f9bc0f0	1.2168255
72	0x3f8e185d	1.1101185
73	0x3fa105ff	1.2579955
74	0x3f9a5f88	1.2060404
75	0x3fb8dbe4	1.4442105
76	0x3f66fba7	0.9022774
77	0x3f6d5e1d	0.9272173
78	0x3f74fd05	0.9569858
79	0x3fb9e061	1.45216
80	0x3f7ba0b9	0.9829212
81	0x3f54d394	0.8313534
82	0x3f6a78f5	0.91590816
83	0x3f826c05	1.0189215
84	0x3f7f3945	0.9969676
85	0x3f52940f	0.8225717
86	0x3f904a73	1.127272
87	0x3f8cd7ed	1.1003395
88	0x3f713faa	0.9423777
89	0x3f4d1b11	0.80119425
90	0x3f7dcc0b	0.9913947
91	0x3f613624	0.8797324
92	0x3f9b4aa0	1.2132149
93	0x3f78b9b9	0.9715839
94	0x3f09667c	0.53672004
95	0x3f8e5de5	1.1122404
96	0x3f70e44e	0.94098365
97	0x3f8519db	1.0398515
98	0x3f872795	1.0558954
99	0x3f72e19b	0.94875497
100	0x3f6f5477	0.9348826
101	0x3f6d9f4e	0.92821205
102	0x3f7a2402	0.97711194
103	0x3f9a8bb7	1.2073888
104	0x3f5bbab9	0.8583179
105	0x3faefbd9	1.3670608
106	0x3faa3a02	1.3298953
107	0x3f9d0f1c	1.2270236
108	0x3f7a6761	0.97813994
109	0x3f913b3f	1.1346205
110	0x3f9c2f09	1.2201854
111	0x3f764b28	0.9620843
112	0x3f819a39	1.012519
113	0x3f73592e	0.9505795
114	0x3f49dab5	0.78849345
115	0x3f6585b8	0.89657164
116	0x3f6cd581	0.9251328
117	0x3f61840c	0.8809211
118	0x3f9605a2	1.1720469
119	0x3f3616f3	0.7112877
120	0x3f6e6a2a	0.93130744
121	0x3f707114	0.93922544
122	0x3f950d88	1.1644754
123	0x3f6e7a1c	0.93155074
124	0x3f681a18	0.90664816
125	0x3f3a602a	0.72802985
126	0x3f98c0a6	1.1933792
127	0x3f3d90bc	0.7404897

read_encoder.block3.1.bias f4 [128]
0	0xbea6efe4	-0.32604897
1	0xbd52851c	-0.051396474
2	0xbe916fd7	-0.2840564
3	0xbd28dcb4	-0.041226104
4	0xbecc8133	-0.3994232
5	0xbd9d1478	-0.0766992
6	0xbb7466bd	-0.0037292682
7	0xbf0c9b65	-0.54924613
8	0xbdb17b38	-0.0866608
9	0xbd905517	-0.070474796
10	0xbd99b49d	-0.075051524
11	0xbde6c4c8	-0.11268002
12	0xbdaac387	-0.08338075
13	0xbdc64f65	-0.09683112
14	0xbe14fbbf	-0.14549159
15	0xbdc67a7e	-0.09691332
16	0xbdb4a1e8	-0.08819944
17	0xbd66cad0	-0.05634576
18	0xbe69ffc3	-0.22851472
19	0xbd33ebf4	-0.043926194
20	0xbd811141	-0.06302119
21	0xbe8bc017	-0.2729499
22	0xbdb7bb01	-0.08971215
23	0xbdbd52d1	-0.092443116
24	0xbddcc682	-0.1078005
25	0xbdd71f26	-0.10503988
26	0xbdd0284b	-0.10163935
27	0xbdcb7c27	-0.099357896
28	0xbd0c8602	-0.034307487
29	0xbe2e38fd	-0.17013927
30	0xbe17d52d	-0.14827414
31	0xbe1e0ea5	-0.15435274
32	0xbe46ed4d	-0.1942646
33	0xbe4c9bf8	-0.19981372
34	0x3cf64b4d	0.030065203
35	0xbea15a8c	-0.31514394
36	0xbe5de921	-0.21670963
37	0xbeaf4b8a	-0.3423732
38	0xbe405067	-0.18780671
39	0xbe1f9657	-0.15584694
40	0xbe60fcf9	-0.21971501
41	0xbe49a0d3	-0.19690256
42	0xbd8aeac1	-0.06783057
43	0xbdfccbf1	-0.12343586
44	0xbd87a49a	-0.06623192
45	0xbdff5b10	-0.12468541
46	0xbd941b51	-0.07231773
47	0xbe59bc83	-0.21263318
48	0xbe3573df	-0.17719983
49	0xbe9a8104	-0.30176556
50	0xbd170622	-0.036871083
51	0xbe609782	-0.21932796
52	0xbde55521	-0.11197878
53	0xbd5f574f	-0.054526623
54	0xbe507e79	-0.20360745
55	0xbf34900f	-0.70532316
56	0xbe846c22	-0.2586375
57	0xbe3a837d	-0.18214221
58	0xbf0f6b92	-0.56023514
59	0xbd1ff65d	-0.03905331
60	0xbe216025	-0.15759332
61	0xbe6335db	-0.22188513
62	0xbdadf6e6	-0.08494358
63	0xbe4fd7fa	-0.20297232
64	0xbdc8e754	-0.09809747
65	0xbeb70cd0	-0.35751963
66	0xbd862f04	-0.06551936
67	0xbe363eb3	-0.17797355
68	0x3d2ed075	0.04267927
69	0xbd2d4525	-0.04230227
70	0xbd9b2954	-0.07576242
71	0xbdab5959	-0.08366651
72	0x3c92d5b3	0.017924165
73	0xbece1bca	-0.40255576
74	0xbdf179de	-0.117908224
75	0xbe836ae0	-0.25667477
76	0xbdbbb942	-0.091661945
77	0xbdd57069	-0.10421831
78	0xbd66279c	-0.05619012
79	0xbdcf44c0	-0.10120535
80	0xbe509b58	-0.20371759
81	0xbe426cc4	-0.18986803
82	0xbda5722f	-0.080784194
83	0xbd56271c	-0.05228339
84	0xbd6015f0	-0.05470842
85	0xbe789198	-0.2427429
86	0x3d42133e	0.047381632
87	0xbe850cb9	-0.2598627
88	0xbd6acd36	-0.05732461
89	0xbe3665dd	-0.17812295
90	0xbe4cf5c0	-0.20015621
91	0xbec509ce	-0.38484043
92	0xbc95668a	-0.018237371
93	0xbda68092	-0.081299916
94	0xbec45e17	-0.38353035
95	0xbdaf4006	-0.085571334
96	0xbd52c1c8	-0.051454335
97	0xbe043503	-0.12910847
98	0xbd8ead40	-0.069666386
99	0xbd3b5282	-0.045732982
100	0xbd704f99	-0.05866966
101	0xbd413001	-0.04716492
102	0xbd6bd859	-0.057579372
103	0xbea2dec9	-0.31810597
104	0xbdeec32d	-0.116583206
105	0xbe3dea8e	-0.18546507
106	0xbe2b102b	-0.16705386
107	0xbe6eb5fd	-0.2331161
108	0xbdb109f5	-0.08644477
109	0xbd8f0406	-0.06983189
110	0xbd2b996d	-0.041894365
111	0xbd3dfc14	-0.04638298
112	0xbd8d4cf1	-0.06899441
113	0xbe16786d	-0.14694376
114	0xbe5bfff6	-0.2148436
115	0xbdc00334	-0.09375611
116	0xbd99a30e	-0.07501803
117	0xbdc73c54	-0.097283036
118	0xbce9ba7f	-0.028531311
119	0xbe0fc8f7	-0.14041506
120	0xbd7d49a3	-0.061837804
121	0xbec0d9c6	-0.37666148
122	0xbdf84cae	-0.121240005
123	0xbd198491	-0.03747994
124	0xbdd6795e	-0.10472368
125	0xbeb86c1f	-0.3601999
126	0xbe567a13	-0.20945005
127	0xbe7b1a39	-0.24521722
