m6aReplica/2d_66_with_delta/Models/epoch29_rocauc0.893_valpr0.382_valscore1.275.pth (torch, 153757 bytes, 13 tensors)

read_encoder.block1.0.weight f4 [128, 21]
0	0x3f031eac	0.51218677
1	0x3f1c150a	0.60969603
2	0xbd97338b	-0.07382878
3	0x3fcd8119	1.6055022
4	0x3f5f43ab	0.8721263
5	0x3c84f61d	0.016230637
6	0x3d99a5b5	0.07502309
7	0x3f962be0	1.173214
8	0x3e78c4e3	0.24293856
9	0x4041623a	3.0216203
10	0xc081efe3	-4.060533
11	0x3f060cc4	0.5236323
12	0xbe45d587	-0.19319735
13	0x3c86482a	0.016391832
14	0x3f06b929	0.5262628
15	0x3bd8ce62	0.0066163996
16	0xbcabc7ef	-0.02096936
17	0xbcbca902	-0.023029808
18	0xbd1dcf00	-0.03852749
19	0x3d3a8d84	0.045545116
20	0x3c23aea4	0.009990368
21	0x3ea56a31	0.3230758
22	0xbee94163	-0.455577
23	0x3e5b262d	0.21401282
24	0x3f068d15	0.52559024
25	0xbf23feb2	-0.6406051
26	0xbcd1589d	-0.02555495
27	0x3e5b1f82	0.21398738
28	0xbed6da1d	-0.41963282
29	0xbe3f98d0	-0.18710637
30	0x3f534de7	0.82540745
31	0xbf87a807	-1.0598153
32	0xbecbcb3b	-0.3980349
33	0x3f103654	0.563329
34	0xbf21497e	-0.63002765
35	0x3d92fb2c	0.071768135
36	0xbd371833	-0.044700813
37	0x3e92dada	0.28682595
38	0x3d59a860	0.05313909
39	0xbe38cd70	-0.18047118
40	0x3e1cca9b	0.15311663
41	0x3d156d45	0.03648116
42	0xbc8e06da	-0.017337251
43	0xbd96e442	-0.073677555
44	0x3e34bc53	0.17649965
45	0xbf0b17fb	-0.54333466
46	0xbe191ccb	-0.1495239
47	0x3db95d7b	0.09051033
48	0x3e418a05	0.18900307
49	0xbef4c6f7	-0.47808048
50	0xbe5d7555	-0.2162679
51	0xbfb3b5cf	-1.4039859
52	0x3fcb7b31	1.589697
53	0x3e2220e7	0.15832864
54	0x3e1b2f18	0.15154684
55	0x3d50e435	0.050998885
56	0xbe2ef018	-0.17083776
57	0xbd2832a4	-0.04106392
58	0x3e4aaf67	0.19793473
59	0xbe2cf1b0	-0.16889071
60	0xbe2d53df	-0.16926526
61	0xbea09f07	-0.31371328
62	0x3dfb083b	0.12257429
63	0x3f15c551	0.58504206
64	0x3d815431	0.06314886
65	0xbc8e0097	-0.017334266
66	0x3fe98768	1.8244448
67	0x3eb6f9d9	0.35737494
68	0xbdc0099c	-0.09376833
69	0xbd011029	-0.031509552
70	0x3f9232db	1.142177
71	0x3e8cdc78	0.27511954
72	0x4036ca1c	2.8560858
73	0xc0a2d283	-5.088197
74	0x3e50af99	0.20379485
75	0x3efc1278	0.4923284
76	0xbe38db62	-0.18052438
77	0x3f6d59a0	0.9271488
78	0xbb431b79	-0.0029771014
79	0xbd719cd5	-0.058987457
80	0xbd6e4dc0	-0.058179617
81	0xbcfe1c73	-0.031019425
82	0xbd02b3e5	-0.031909842
83	0xbd3819c3	-0.044946443
84	0x3f517cab	0.81830853
85	0xbebe4260	-0.37160015
86	0x3dcc10d2	0.09964146
87	0xbf0bcfa9	-0.5461374
88	0xbf50c586	-0.81551397
89	0x3cba0020	0.022705138
90	0xbb843fb5	-0.004035915
91	0xbf16a38e	-0.58843315
92	0x3d90126b	0.07034763
93	0xc037e768	-2.873499
94	0x3f71ef3d	0.94505674
95	0xbf7c3966	-0.98525083
96	0x3f66b251	0.9011584
97	0xbeac0ce9	-0.336036
98	0xbd9dc529	-0.07703621
99	0xbdbdf9d6	-0.09276168
100	0xbe45b271	-0.19306351
101	0x3d17179e	0.036887757
102	0xbe0f6fa9	-0.14007439
103	0xbd48d788	-0.04903367
104	0xbb9c5515	-0.0047708848
105	0xbf09401d	-0.53613454
106	0x3e360f2a	0.17779222
107	0xbe08e8bf	-0.13370036
108	0xbfc56083	-1.5420078
109	0x3ec8d184	0.39222348
110	0x3e7d9999	0.24765624
111	0xbea2950f	-0.31754348
112	0x3f0281b6	0.50979173
113	0xbe5f9d00	-0.21837234
114	0xc041bd1d	-3.0271676
115	0x404219ac	3.032817
116	0x3f3280d0	0.697278
117	0xbf43a85a	-0.7642876
118	0x3f11c181	0.5693589
119	0xbe8a8098	-0.27051234
120	0x3d776c07	0.060405757
121	0xbd6dda0f	-0.058069285
122	0xbca96c80	-0.02068162
123	0xbca089a7	-0.019596888
124	0xbe26a0ca	-0.16272274
125	0xbd69c674	-0.057074025
126	0x3e7785ae	0.24172089
127	0xbec1e7bf	-0.3787212
128	0x3e3c44ca	0.18385616
129	0xbd98c183	-0.074587844
130	0xbe9c4a20	-0.30525303
131	0x3d5889bb	0.052865725
132	0xbe0e6ac6	-0.13907918
133	0xbe8cc356	-0.2749278
134	0xbdab8932	-0.08375777
135	0xbfbefa49	-1.4920131
136	0x3eb9c986	0.36286563
137	0xbf738368	-0.95122385
138	0x3f0a75c5	0.5408595
139	0xbe89d71e	-0.26921934
140	0x3d9091d9	0.07059068
141	0xbc216544	-0.009850804
142	0x3e84a7fd	0.25909415
143	0xbdb6c57d	-0.08924387
144	0xbdca0c71	-0.09865654
145	0x3df088e2	0.11744858
146	0x3d89fc44	0.06737569
147	0x3efed601	0.49772647
148	0x3ebba207	0.36647055
149	0xbdb01a86	-0.08598809
150	0x3ea981e5	0.33106914
151	0xbe19954c	-0.14998358
152	0x3c5ba306	0.013405567
153	0x3f05b750	0.5223284
154	0x3ea94115	0.33057466
155	0xbe290ff1	-0.16509987
156	0xbe5b992d	-0.2144515
157	0x3f827a85	1.019364
158	0xbee2afea	-0.44274837
159	0x3e68ad24	0.22722298
160	0xbeb53ac7	-0.35396406
161	0xbdc7b128	-0.09750587
162	0xbd15c26c	-0.03656237
163	0xbe0b8519	-0.13624991
164	0xbc6a7299	-0.014309549
165	0xbe01e0a9	-0.12683357
166	0xbdf314c1	-0.11869193
167	0x3ee99b00	0.45626068
168	0xbeb7ea4d	-0.35920945
169	0xbe0833e4	-0.13301045
170	0x3e285760	0.16439581
171	0xbdeedbc2	-0.11663009
172	0x3ea13192	0.31483132
173	0x3e39fbc9	0.18162455
174	0xbf01327e	-0.5046767
175	0xbe497452	-0.19673279
176	0x3cb326cd	0.021869088
177	0x3f0d03fc	0.55084205
178	0xbea2839c	-0.31741035
179	0x3e01058b	0.1259977
180	0xbed4e039	-0.41577318
181	0xbe9425dd	-0.28935137
182	0xbeb280db	-0.34863934
183	0xbdedbf2d	-0.116087295
184	0x3e006dab	0.12541835
185	0xbd3c9400	-0.04603958
186	0xbdc88713	-0.09791388
187	0x3d07c329	0.033145104
188	0xbd76ff3b	-0.060302
189	0xbe395d07	-0.18101893
190	0xbe9ca7ec	-0.30596864
191	0xbd9d08ab	-0.07667669
192	0x3f659577	0.8968119
193	0xbb59e0b2	-0.00332455
194	0x3c8c5015	0.01712803
195	0x3eeff793	0.46868572
196	0xbdbb2ff7	-0.09140008
197	0x3d93580e	0.071945295
198	0x401e7532	2.475903
199	0xbf32f2cf	-0.69901747
200	0x3dbd68e7	0.09248524
201	0x3e18f3c0	0.14936733
202	0x3f06df96	0.52684915
203	0x3e684c84	0.22685438
204	0xbd8d489e	-0.06898616
205	0xbd7bd487	-0.06148198
206	0xbd8a7061	-0.06759716
207	0xbec22cd4	-0.37924826
208	0xbed9054f	-0.42386863
209	0xbd59635d	-0.053073276
210	0xbf2ad637	-0.66733116
211	0x3d11dd6c	0.035611555
212	0xbe533652	-0.2062619
213	0xbf9aa246	-1.2080772
214	0x3e21c16d	0.15796442
215	0x3e661c16	0.22471651
216	0xbe87d899	-0.26532438
217	0xbe1ed2ca	-0.15510097
218	0x3df1581f	0.11784386
219	0xbf144d6d	-0.5793064
220	0x3ffb0aff	1.9612731
221	0x3f6345db	0.88778466
222	0xbf3044cf	-0.68854994
223	0x3ee9eafa	0.45687085
224	0xbe4a399b	-0.19748537
225	0x3d093b11	0.033503596
226	0x3e016e3c	0.12639707
227	0x3da1087b	0.07862946
228	0xbe0efaed	-0.13962908
229	0xbe89151b	-0.26773915
230	0xbe550dbd	-0.20806022
231	0xbd1ae21b	-0.037813287
232	0xbdfda726	-0.12385397
233	0x3e6a9c08	0.22911084
234	0xbf1468b9	-0.57972294
235	0xbe4c3639	-0.1994256
236	0x3baaa95f	0.005208179
237	0xbe1d68cb	-0.15372007
238	0xbf8e2c48	-1.1107264
239	0xbe942efc	-0.28942096
240	0xbfae7d24	-1.363194
241	0x4017621a	2.3653626
242	0x3c8b4b8d	0.017003799
243	0xbf3ddaad	-0.741618
244	0xbea5c749	-0.32378605
245	0xbf063c8c	-0.5243614
246	0xbd8a30a8	-0.06747562
247	0x3d4b79dc	0.04967676
248	0xbd29e81c	-0.041481122
249	0xbd7a24d7	-0.06107029
250	0xbd27abec	-0.04093544
251	0xbdba093b	-0.09083792
252	0x3da94366	0.08264808
253	0x3ec631a9	0.38709763
254	0xbdac0e8f	-0.08401214
255	0xbf1e1cde	-0.617628

read_encoder.block1.0.bias f4 [128]
0	0xbef5def1	-0.48021653
1	0x3f0d2bbe	0.5514487
2	0x3ec36ead	0.38170376
3	0x3e7dbaec	0.24778336
4	0x3eb63cf4	0.3559338
5	0xbf08bf3a	-0.5341679
6	0x3f051b4f	0.51994795
7	0x3e9240e1	0.28565124
8	0x3e8bb370	0.27285337
9	0xbe0340f1	-0.12817742
10	0xbebcdd4a	-0.3688758
11	0x3e3f3c66	0.18675384
12	0xbcb3bbb7	-0.021940095
13	0x3ee06185	0.43824401
14	0x3e768a24	0.24076134
15	0x3e26dc0a	0.16294876
16	0xbeee15c1	-0.46500972
17	0x3ea68889	0.32526043
18	0x3ee0d599	0.43912962
19	0xbf0d1e27	-0.55124134
20	0xbeec385b	-0.46136746
21	0x3e402771	0.18765046
22	0xbd8522e8	-0.065007985
23	0xbe91e80b	-0.28497347
24	0x3e9a58f6	0.30145997
25	0x3eb36612	0.3503881
26	0x3ce83bc6	0.028348815
27	0x3e1ef61b	0.1552357
28	0x3e369f92	0.17834309
29	0x3f317cac	0.6933086
30	0x3f079270	0.5295782
31	0x3e369111	0.17828776
32	0xbe952918	-0.29132915
33	0xbce13002	-0.027488712
34	0x3e810bf2	0.25204426
35	0xbe479d52	-0.19493607
36	0x3ef662ab	0.48122153
37	0x3e0217e0	0.1270442
38	0x3db64fc4	0.08901933
39	0x3e2c436d	0.16822596
40	0x3ed1c4f8	0.40970588
41	0xbf0db878	-0.553596
42	0xbeb1401e	-0.3461923
43	0xbe8e522e	-0.27797073
44	0x3e98a050	0.2980981
45	0x3dc8d48b	0.09806164
46	0xbdd5a6d5	-0.10432211
47	0x3bd78b27	0.0065778675
48	0x3f0d5429	0.55206543
49	0x3f08b002	0.53393567
50	0xbe6bb64c	-0.2301876
51	0x3ecf75b3	0.40519485
52	0xbedabaf5	-0.42720762
53	0xbf25b33d	-0.6472662
54	0x3e6a9fa2	0.22912458
55	0x3c9fca16	0.019505542
56	0x3ebd47ec	0.36968935
57	0xbeb9fd81	-0.3632622
58	0x3e6366e9	0.22207226
59	0x3f14d091	0.5813075
60	0xbf2750b4	-0.6535752
61	0xbdbbdaf5	-0.09172622
62	0x3e4dbcde	0.20091578
63	0x3f02850b	0.5098426
64	0x3ec0dd6a	0.37668926
65	0x3ec0a085	0.37622467
66	0x3f015820	0.50525093
67	0x3e60b38e	0.21943495
68	0x3e44e90e	0.19229528
69	0xbe30ff25	-0.1728483
70	0x3e674b15	0.22587235
71	0x3ed1f301	0.4100571
72	0x3ea116ec	0.314628
73	0x3da09296	0.07840459
74	0xbed0450d	-0.40677682
75	0x3e23aa04	0.15982825
76	0xbef70764	-0.48247826
77	0xbf140693	-0.5782253
78	0x3e5d3260	0.21601248
79	0x3efef1c7	0.49793836
80	0x3de3c419	0.11121387
81	0xbf1227a3	-0.5709173
82	0x3d88fec4	0.06689218
83	0xbcf44cee	-0.02982184
84	0xbdc64335	-0.096807875
85	0x3ded5ea9	0.115903206
86	0xbdbb138f	-0.0913459
87	0x3ed17556	0.40909833
88	0xbe5a98f9	-0.21347417
89	0x3de7c86e	0.11317526
90	0x3dd1b81f	0.102401964
91	0x3d4e5427	0.050373223
92	0x3e29aa08	0.16568768
93	0xbeb92816	-0.36163396
94	0xbe7de533	-0.24794464
95	0xbed6f38b	-0.41982684
96	0xbd626512	-0.05527217
97	0x3da986a2	0.08277632
98	0xbe8981bb	-0.2685679
99	0xbdcbb9a4	-0.099475175
100	0xbe2965c1	-0.16542722
101	0xbc55e66e	-0.013055427
102	0xbe50cc16	-0.20390353
103	0xbeeacbce	-0.45858616
104	0x3e9eff5f	0.31054208
105	0xbe919477	-0.28433582
106	0x3ea06c6a	0.31332713
107	0x3ed6586e	0.41864341
108	0xbde54642	-0.11195041
109	0x3ee5413b	0.4477633
110	0x3f09e014	0.5385754
111	0x3e79f823	0.24411063
112	0xbeb862c0	-0.3601284
113	0xbe90e59e	-0.28300184
114	0x3f26680b	0.65002507
115	0x3e4116c8	0.18856347
116	0x3d34ba70	0.044123113
117	0xbf2f9ce8	-0.68598795
118	0x3e121776	0.14266762
119	0x3e2c9971	0.16855408
120	0xbd810c83	-0.063012145
121	0x3ee7aa2a	0.45247012
122	0xbeb7b3af	-0.35879275
123	0xbdb5eba3	-0.08882835
124	0xbe80b198	-0.25135493
125	0x3e196155	0.14978535
126	0x3e9eeed3	0.31041583
127	0x3e0d6886	0.13809404

read_encoder.block1.1.weight f4 [128]
0	0x3f96b96a	1.1775334
1	0x3f98f8f8	1.1950979
2	0x3f3550ad	0.70826226
3	0x3fcb59c6	1.5886772
4	0x3f46a6da	0.77598345
5	0x3f941a09	1.1570445
6	0x3f283a49	0.65713936
7	0x3fb0f83a	1.3825753
8	0x3ed30bf5	0.4122006
9	0x3fbba700	1.4660339
10	0x3f53659a	0.82576907
11	0x3f8fefa0	1.1245003
12	0x3fac7c90	1.3475513
13	0x3fa1c2bd	1.2637554
14	0x3fa27b16	1.2693813
15	0x3f10ed49	0.5661207
16	0x3f754ed8	0.9582343
17	0x3f8f6531	1.1202756
18	0x3f1af6fc	0.6053312
19	0x3f9704e6	1.179837
20	0x3f8b5a0e	1.0886858
21	0x3fc6fdd6	1.5546215
22	0x3ed54be9	0.41659477
23	0x3f7bec19	0.9840713
24	0x3fa95011	1.3227559
25	0x3f433220	0.7624836
26	0x3ee1cd84	0.44102108
27	0x3f9d6175	1.2295367
28	0x3f4938c4	0.7860224
29	0x3fb5d677	1.4206074
30	0x3f9bb460	1.2164421
31	0x3f20f740	0.62877274
32	0x3f96cb17	1.1780728
33	0x3f8e8f1d	1.1137425
34	0x3f0a6e2b	0.5407435
35	0x3f8fc224	1.1231122
36	0x3f338df8	0.701385
37	0x3f8cf5ca	1.1012509
38	0x3f17546d	0.591132
39	0x3f72d870	0.9486151
40	0x3fa5190b	1.2898268
41	0x3f9a0184	1.2031713
42	0x3f5d846c	0.86530185
43	0x3f81acf0	1.0130901
44	0x3f8218b1	1.0163785
45	0x3fae8ae3	1.3636135
46	0x3f04a212	0.518098
47	0x3fadfaf3	1.3592209
48	0x3fa08c3b	1.2542795
49	0x3f61f03f	0.8825721
50	0x3f9dbe2f	1.2323664
51	0x3fc1bdcc	1.5136046
52	0x3f3d0e3d	0.7384985
53	0x3f76831a	0.96293795
54	0x3fc62c45	1.548226
55	0x3f0e8b71	0.5568152
56	0x3f2c6fad	0.67357904
57	0x3f6fb7b1	0.93639666
58	0x3fccd9a4	1.6003919
59	0x3f993470	1.1969128
60	0x3f9130b9	1.1342994
61	0x3f93d637	1.1549748
62	0x3f709353	0.939748
63	0x3f530939	0.8243595
64	0x3fc46db8	1.5345984
65	0x3fe31bba	1.7742836
66	0x3f3ab7ad	0.72936517
67	0x3f792d9b	0.97335213
68	0x3eef1bda	0.46700937
69	0x3f99787e	1.1989896
70	0x3f85d269	1.0454837
71	0x3f5e9086	0.86939275
72	0x3effc06c	0.49951494
73	0x3fab5efe	1.3388364
74	0x3f9ec0d8	1.2402601
75	0x3f8a58d6	1.080836
76	0x3fa3c62a	1.279485
77	0x3f5f9a6b	0.87345
78	0x3f3c7303	0.73612994
79	0x3fa272e3	1.2691311
80	0x3f8b4a59	1.0882064
81	0x3f319314	0.6936505
82	0x3eb4a9c9	0.35285786
83	0x3ece9f6f	0.40356013
84	0x3f7d212c	0.9887874
85	0x3f43bfda	0.7646462
86	0x3f181812	0.5941173
87	0x3f69c19b	0.91311044
88	0x3f271800	0.65270996
89	0x3fa087f1	1.2541486
90	0x3f812bc1	1.0091478
91	0x3f50b16c	0.81520724
92	0x3f44c620	0.76864815
93	0x3f6cefff	0.92553705
94	0x3f362e4f	0.7116441
95	0x3fb113f7	1.3834218
96	0x3fb0d9cc	1.3816466
97	0x3fad35a6	1.3531997
98	0x3f0fbaf0	0.5614462
99	0x3f98a715	1.1925989
100	0x3f59e6be	0.8511771
101	0x3f30d365	0.6907256
102	0x3fb1fdf1	1.3905622
103	0x3f54ba24	0.8309653
104	0x3f95bb04	1.1697698
105	0x3f530e9d	0.82444173
106	0x3f5a1c0b	0.8519904
107	0x3fa07482	1.2535555
108	0x3fa214ac	1.2662559
109	0x3f8183f9	1.01184
110	0x3f8f8a0f	1.1214007
111	0x3f2e0744	0.67979836
112	0x3f786b6b	0.97038907
113	0x3f8362e6	1.0264556
114	0x3f98354e	1.1891267
115	0x3f964ecc	1.1742797
116	0x3ee788bb	0.45221505
117	0x3f7ddb17	0.9916243
118	0x3eef9b36	0.46798104
119	0x3f91d39f	1.1392707
120	0x3f4e7cc4	0.8065913
121	0x3f59dbf2	0.85101235
122	0x3f4311b2	0.76198876
123	0x3eed17a8	0.4630711
124	0x3f8cf493	1.1012138
125	0x3f0cba81	0.5497208
126	0x3f8d52a3	1.1040844
127	0x3fb57b3b	1.4178232

read_encoder.block1.1.bias f4 [128]
0	0xbe01dbff	-0.12681578
1	0xbd03a8df	-0.03214347
2	0xbebcf1b6	-0.3690316
3	0xbd8e77a8	-0.06956416
4	0xbeb4a2d8	-0.3528049
5	0xbd8703b5	-0.06592504
6	0xbea22342	-0.31667525
7	0xbe5a56a7	-0.21322118
8	0xbf2c0d4b	-0.67207783
9	0xbe1c9887	-0.1529256
10	0xbea15f17	-0.3151786
11	0xbe1b6fd7	-0.15179382
12	0xbd971f18	-0.073789775
13	0xbe089b43	-0.13340478
14	0xbec14f53	-0.37755832
15	0xbec25b6c	-0.37960374
16	0xbe3b9057	-0.1831678
17	0xbdf60c51	-0.12014068
18	0xbeae6021	-0.34057716
19	0xbe1ae3b8	-0.1512593
20	0xbdbe70ef	-0.09298884
21	0x3d36c2fa	0.044619538
22	0xbf0486d3	-0.51768225
23	0xbde0bacd	-0.109731294
24	0xbe949f2c	-0.29027689
25	0xbe72c9b6	-0.23709759
26	0xbf03c05f	-0.5146541
27	0xbf00ba28	-0.5028405
28	0xbea47498	-0.32120204
29	0xbe29ce30	-0.1658256
30	0xbd863f7b	-0.06555077
31	0xbf08e893	-0.5347988
32	0xbdb1b39a	-0.086768344
33	0xbe69d7eb	-0.22836272
34	0xbef9d727	-0.4879696
35	0xbe254ccb	-0.16142575
36	0xbf15cdd0	-0.5851717
37	0xbe992cfc	-0.29917133
38	0xbec7f709	-0.3905566
39	0xbe750846	-0.23928937
40	0xbdded04c	-0.10879573
41	0xbe49f72f	-0.197232
42	0xbe8b856f	-0.2725024
43	0xbe58062e	-0.21096107
44	0xbe9a7bbf	-0.30172536
45	0xbe56885b	-0.20950453
46	0xbed10ea1	-0.40831473
47	0xbe2a074b	-0.16604345
48	0xbd4f55c6	-0.05061891
49	0xbe9ff12a	-0.3123868
50	0xbdd0a4eb	-0.101877056
51	0xbda8f197	-0.082492046
52	0xbe8507b7	-0.25982448
53	0xbe10b72b	-0.14132373
54	0xbc41da54	-0.011831839
55	0xbf0b083a	-0.5430943
56	0xbeb21fde	-0.34789938
57	0xbe081e12	-0.13292721
58	0x3cb08fa3	0.021552866
59	0xbddb2dfd	-0.10702131
60	0xbe08c631	-0.13356854
61	0xbe466367	-0.19373856
62	0xbe11cd9c	-0.1423859
63	0xbf17f2cb	-0.5935485
64	0xbe1fe91f	-0.15616272
65	0x3c6892f6	0.0141951945
66	0xbe7627ca	-0.24038616
67	0xbe8ca67f	-0.27470776
68	0xbf13ded8	-0.5776191
69	0xbe3f200b	-0.18664567
70	0xbe84e80d	-0.2595829
71	0xbe9bfd18	-0.30466533
72	0xbf0167c4	-0.5054896
73	0xbda65a89	-0.08122737
74	0xbdb15dbe	-0.08660458
75	0xbe1a47ca	-0.15066448
76	0xbde5677f	-0.11201381
77	0xbe9a4108	-0.3012774
78	0xbe28e246	-0.16492566
79	0xbcd47bf6	-0.025938015
80	0xbde78c24	-0.113060266
81	0xbea15798	-0.3151214
82	0xbf415d0a	-0.7553259
83	0xbf0303c9	-0.5117765
84	0xbe822acd	-0.2542328
85	0xbebcfdce	-0.36912388
86	0xbebd17b2	-0.3693214
87	0xbe4ef1e7	-0.20209466
88	0xbed8bf9f	-0.42333695
89	0xbe0f6739	-0.1400422
90	0xbf2e9fa5	-0.6821235
91	0xbeebbac0	-0.46040916
92	0xbeeb58e5	-0.4596626
93	0xbe2e067e	-0.16994664
94	0xbe82f4c0	-0.25577354
95	0xbe3345f1	-0.1750715
96	0xbdad8e95	-0.08474461
97	0xbe014122	-0.12622502
98	0xbefc9a88	-0.49336648
99	0xbe4c9338	-0.19978034
100	0xbe88bec1	-0.26708034
101	0xbed7c0a8	-0.42139173
102	0xbd9ffc55	-0.078118004
103	0xbe3ce49f	-0.18446587
104	0xbec2a673	-0.38017616
105	0xbe97157a	-0.29508573
106	0xbec5a9f3	-0.38606223
107	0xbd668edc	-0.056288585
108	0xbe416cc0	-0.18889141
109	0xbe676d15	-0.22600205
110	0xbeb106f6	-0.34575623
111	0xbeed0417	-0.46292183
112	0xbdb3f334	-0.08786622
113	0xbdb55f42	-0.088560596
114	0xbd63e610	-0.055639327
115	0xbe50689e	-0.20352408
116	0xbf10072f	-0.5626096
117	0xbe1e7f92	-0.15478352
118	0xbf2dcfc0	-0.67895126
119	0xbecbf7f4	-0.3983761
120	0xbe8604b4	-0.26175463
121	0xbe395a3c	-0.18100828
122	0xbe66d22c	-0.22541112
123	0xbf0c1998	-0.5472655
124	0xbe885c14	-0.2663275
125	0xbed693c3	-0.41909608
126	0xbdb9e632	-0.090771094
127	0xbcbd827a	-0.023133505

read_encoder.block2.0.weight f4 [128, 128]
0	0x3df89e6e	0.12139593
1	0xbdee871e	-0.11646865
2	0xbd7eba4d	-0.06218939
3	0x3d8fb877	0.07017606
4	0x3cb8d7f5	0.022563914
5	0xbcec8d62	-0.02887601
6	0xbc26d777	-0.010183207
7	0x3d5e5928	0.054284245
8	0x3c1f8a2b	0.009737532
9	0xbda5d898	-0.080979526
10	0xbcb4a016	-0.022048991
11	0xbcf497bc	-0.029857509
12	0x3e8e08ad	0.27740994
13	0x3e4cc478	0.19996822
14	0x3ce76a51	0.028248938
15	0xbc7a5173	-0.015278208
16	0xbd855cde	-0.06511854
17	0xbc28cb4a	-0.010302374
18	0xbde65ff0	-0.112487674
19	0x3da3e480	0.08002567
20	0x3d1784de	0.036991946
21	0xbe95d86a	-0.29266673
22	0xbc529511	-0.012852923
23	0x3be62e38	0.0070245527
24	0x3ddf3622	0.10898997
25	0x3b807d83	0.003921212
26	0x3d5116bb	0.051047068
27	0xbd5c9639	-0.0538542
28	0xb9ab4d24	-0.00032673136
29	0xbe09c0ec	-0.134525
30	0x3cdf64eb	0.027269801
31	0x3dfa344e	0.122170076
32	0x3e02b5ae	0.12764618
33	0x3dc4a139	0.09601063
34	0xbd834634	-0.064098746
35	0xbd6c0bd0	-0.057628453
36	0xbdad4d69	-0.084620304
37	0x3d857153	0.065157555
38	0xbb54fdc9	-0.00324999
39	0x3b93342e	0.0044923043
40	0xbe60faf9	-0.21970738
41	0x3d962ea8	0.07333118
42	0x3db38728	0.087660134
43	0x3d745d95	0.05965956
44	0xbe15417f	-0.14575766
45	0xbdb05d68	-0.08611566
46	0x3db33fbc	0.08752391
47	0xbe397a91	-0.18113162
48	0xbea7f73f	-0.3280582
49	0x3da27faa	0.07934506
50	0x3dceddb9	0.10100884
51	0xbe9c4b6f	-0.305263
52	0x3d5e8da8	0.054334313
53	0x3d31912b	0.043351334
54	0xbea4ff20	-0.32225895
55	0x3e170b21	0.14750339
56	0x3d6e0d22	0.058117993
57	0x3de866c6	0.113477275
58	0xbda08154	-0.078371674
59	0xbe2aaa50	-0.16666532
60	0x3d5ba2d4	0.053622082
61	0x3e5b58bf	0.21420573
62	0xbe07aaa8	-0.13248694
63	0xbe0dc616	-0.13845095
64	0xbdaf4f0a	-0.085599974
65	0xbf17664d	-0.59140474
66	0xbe06ef9f	-0.13177346
67	0xbda9f8c2	-0.082994
68	0x3bd3e9d5	0.006467084
69	0x3e157350	0.1459477
70	0xbd9d84a4	-0.07691315
71	0xbd4ad787	-0.04952195
72	0xbd64f6ff	-0.055899616
73	0xbc6a3f82	-0.014297368
74	0x3d42bf4b	0.047545712
75	0xbe0eeae7	-0.13956796
76	0x3d6dd588	0.058064967
77	0x3cb080d5	0.021545807
78	0x3d21dd57	0.039517727
79	0x3dbbee6a	0.09176333
80	0x3daec9ea	0.08534606
81	0x3e1b84ba	0.1518735
82	0x3e0d5bc5	0.13804539
83	0x3d158ef6	0.03651329
84	0xbb5c01ae	-0.0033570337
85	0x3c321fb5	0.010871817
86	0x3cbb58ab	0.022869429
87	0xbd0d3140	-0.034470797
88	0x3d17c46c	0.037052557
89	0xbd9ec1f8	-0.0775184
90	0xbdc82273	-0.09772196
91	0xbd25447f	-0.040348526
92	0x3db9becc	0.09069595
93	0x3dbbfdf4	0.09179297
94	0x3dc6f606	0.09714894
95	0x3df7e610	0.12104428
96	0xbdc7c79f	-0.097548716
97	0xbe8142b0	-0.2524619
98	0xbd7a192e	-0.06105917
99	0x3cabafb4	0.020957805
100	0xbd004806	-0.031318687
101	0x3c76f314	0.015072603
102	0x3d0031e2	0.031297572
103	0x3da4a1fd	0.08038709
104	0x3e20cd8e	0.15703413
105	0xbb7905f6	-0.0037997938
106	0x3d5c628b	0.053804915
107	0x3e0df2a0	0.13862085
108	0x3ddefb79	0.10887808
109	0xbe960972	-0.2930408
110	0x3e2f69fa	0.1713027
111	0x3d7b060b	0.06128506
112	0x3e122c8e	0.14274809
113	0x3de4381f	0.11143517
114	0xbc1c2acc	-0.009531688
115	0xbd5460fa	-0.051850297
116	0x3b44b7bb	0.0030016738
117	0x3cb96711	0.022632154
118	0x3d06a6a2	0.032873757
119	0x3d3e549c	0.04646741
120	0x3df102c7	0.11768108
121	0xbc838c53	-0.016058123
122	0x3d5937da	0.05303178
123	0xbc9da51b	-0.019243767
124	0xbd8be2a1	-0.068303354
125	0x3dd35bef	0.10320269
126	0xbda4b773	-0.08042803
127	0x3d47ad85	0.048749465
128	0xbd278c77	-0.040905442
129	0x3d77e8aa	0.06052462
130	0xbec637bc	-0.38714397
131	0xbe9b16cf	-0.3029084
132	0x3e356b68	0.17716753
133	0x3d621f93	0.055205893
134	0x3dd936a2	0.106061235
135	0xbedd997c	-0.43281162
136	0x3e78cf22	0.24297765
137	0x3e969038	0.29406905
138	0xbe9b1117	-0.30286476
139	0x3e3678f5	0.17819579
140	0x3d52dbdc	0.051479205
141	0xbe22d502	-0.15901569
142	0x3e076568	0.13222277
143	0x3d9d502e	0.07681309
144	0x3db582d9	0.08862848
145	0xbe9a26d8	-0.3010776
146	0x3dd616a4	0.10453537
147	0x3d32b164	0.043626204
148	0x3cf5e67a	0.030017126
149	0xbb40059c	-0.0029300218
150	0x3d9b5268	0.07584077
151	0xbea5d9fb	-0.32392868
152	0x3c886555	0.016649881
153	0xbe1a497e	-0.15067098
154	0xbd90c201	-0.07068253
155	0x3d358d73	0.04432435
156	0xbe15cead	-0.14629622
157	0x3d936f25	0.071989335
158	0x3de600b6	0.11230604
159	0xbe18486f	-0.14871381
160	0xbd7e7059	-0.06211886
161	0xbc588fad	-0.013217849
162	0x3e0670c1	0.1312895
163	0xbeaec2a2	-0.34132868
164	0xbd762f53	-0.060103726
165	0x3e2a5c35	0.16636737
166	0xbe2315dd	-0.15926309
167	0x3eae6c45	0.34066978
168	0xbe3b6182	-0.18298915
169	0x3e7c9fc4	0.24670321
170	0x3e19d7f3	0.15023784
171	0xbe362425	-0.17787226
172	0xbe5dd17d	-0.21661945
173	0x3bc8a9d2	0.00612376
174	0xbe33e155	-0.17566426
175	0xbdd252d5	-0.10269705
176	0x3d348eab	0.04408137
177	0x3e229c81	0.15880014
178	0x3d5a988f	0.053368147
179	0xbe20154d	-0.15633126
180	0xbd073b35	-0.03301545
181	0x3d651b83	0.05593444
182	0xbd5ba4b1	-0.05362386
183	0x3dce8281	0.100834854
184	0xbd0b32cb	-0.033983987
185	0x3dd0c574	0.10193911
186	0x3dc43e67	0.09582215
187	0xbdf89a9f	-0.12138867
188	0x3e99bace	0.30025333
189	0xbe9d1185	-0.3067743
190	0x3dab14fc	0.08353612
191	0xbddce42c	-0.10785708
192	0xbd68c197	-0.056825247
193	0xbee0442e	-0.43802017
194	0xbe1942a9	-0.14966835
195	0x3dfdd09a	0.12393303
196	0x3d4e9769	0.050437365
197	0xbbbdc8e3	-0.00579177
198	0x3ddc49e9	0.10756285
199	0xbdf93c34	-0.12169686
200	0x3cbc363f	0.022975085
201	0xbed93924	-0.42426407
202	0x3d1d3a8b	0.03838591
203	0xbd841940	-0.064501286
204	0x3de04dc4	0.109523326
205	0xbe20b0ef	-0.15692495
206	0xbb501a39	-0.0031753911
207	0xbccac404	-0.02475167
208	0x3e380510	0.17970681
209	0x3ca919a2	0.020642105
210	0x3e6974f4	0.2279852
211	0xbc16f21a	-0.009212995
212	0xbd2d2f74	-0.042281583
213	0xbcda4409	-0.02664377
214	0x3e608b07	0.21928035
215	0x3b09578c	0.0020956723
216	0x3e19ec34	0.1503151
217	0xbef49e4c	-0.4777702
218	0xbe5c65bf	-0.21523188
219	0xbd841068	-0.06448442
220	0xbe4828f7	-0.19546877
221	0xbdfb0059	-0.12255926
222	0x3c057069	0.008144476
223	0xbd8b6fb8	-0.06808418
224	0x3ec353d7	0.38149902
225	0xbf406720	-0.75157356
226	0xbe1e1f51	-0.15441634
227	0xbc3f7468	-0.011685468
228	0xbd92c3d9	-0.07166261
229	0x3e00fc6b	0.1259629
230	0xbdf8ed06	-0.12154584
231	0x3d47d7d4	0.048789814
232	0xbd295962	-0.041345008
233	0xbe6154ab	-0.22004955
234	0xbdffff69	-0.124998875
235	0xbe0937b1	-0.13400151
236	0x3e91a178	0.28443503
237	0xbd58a5b6	-0.05289241
238	0xbdbd847d	-0.09253786
239	0xbe346a78	-0.1761874
240	0x3d501968	0.05080548
241	0xbc5903ce	-0.013245536
242	0x3e1a7d24	0.150868
243	0x3dd232f0	0.10263622
244	0x3cbfef0e	0.02342942
245	0x3e7e4ec5	0.24834736
246	0xbdf85426	-0.12125425
247	0xbcc973ff	-0.024591444
248	0xbe78cf07	-0.24297725
249	0x3e12557e	0.14290425
250	0x3e072d99	0.13200988
251	0xbe80f7cb	-0.2518905
252	0x3e571666	0.21004638
253	0xbd5dc337	-0.05414125
254	0x3cfc8fa0	0.030830204
255	0x3edb759c	0.42863166

read_encoder.block2.0.bias f4 [128]
0	0x3df9ecd8	0.122033775
1	0xbd2754d6	-0.04085239
2	0x3e730284	0.23731428
3	0xbb44a2ba	-0.003000422
4	0x3e42728e	0.18989012
5	0x3ddabdb0	0.10680711
6	0xbd1c73c1	-0.03819633
7	0xbcc4bdc3	-0.024016267
8	0xbd25772c	-0.040396854
9	0x3e414bb3	0.18876533
10	0x3db8c995	0.09022824
11	0x3e12904d	0.14312859
12	0xbe1c0acd	-0.15238495
13	0x3d986117	0.074403934
14	0x3e93d39d	0.28872386
15	0x3e46560e	0.19368765
16	0x3cd84d68	0.026404098
17	0x3e0109f4	0.12601453
18	0x3eae07a4	0.33990204
19	0x3e675bd4	0.22593623
20	0xbda11544	-0.07865384
21	0xbc9f35b1	-0.019434782
22	0x3e47a3f3	0.19496135
23	0x3e7153cf	0.23567127
24	0x3cfbfed3	0.030761158
25	0x3d39b324	0.045336857
26	0x3ec87792	0.39153725
27	0xbd7167ce	-0.058936886
28	0x3e59b7db	0.21261542
29	0x3d7cef97	0.06175193
30	0x3dafb1f7	0.08578866
31	0x3bd1dffb	0.0064048744
32	0xbddaea06	-0.10689168
33	0x3d89d286	0.06729607
34	0x3e508b43	0.20365624
35	0x3e35deae	0.17760727
36	0x3e8b8e4c	0.27257
37	0x3e36e6bf	0.1786146
38	0x3c6f5d14	0.014609594
39	0x3e5b5d11	0.21422221
40	0x3cd04250	0.025422245
41	0x3bfa62f2	0.0076411897
42	0x3e080a1a	0.13285103
43	0x3d082423	0.033237588
44	0x3d25197f	0.040307518
45	0xbe059fec	-0.13049287
46	0x3e6a47f2	0.22879007
47	0x3cebd526	0.02878816
48	0x3e67931d	0.22614713
49	0xbc4da2b2	-0.012550997
50	0x3e655e4a	0.2239925
51	0x3d93f991	0.072253354
52	0x3d4b9d01	0.049710277
53	0x3bdcc78c	0.006737655
54	0xbdcf2945	-0.101152934
55	0x3e97f4ec	0.29679048
56	0x3e89455c	0.2681073
57	0x3e458d2e	0.19292137
58	0xbc09f403	-0.008419993
59	0x3e407c2e	0.18797371
60	0x3ce67802	0.028133396
61	0x3e52bd5e	0.2058005
62	0xbd5a5bf4	-0.05331035
63	0x3e5ad7a8	0.21371329
64	0xbddfc566	-0.10926323
65	0xbdd4e84c	-0.103958696
66	0x3d11a090	0.035553515
67	0xbd2d68e0	-0.042336345
68	0x3e3c2cd2	0.18376473
69	0xbd216acf	-0.0394085
70	0x3e2392b9	0.15973939
71	0xbe167c08	-0.14695752
72	0x3db0ade9	0.08626921
73	0xbe1a2f3d	-0.15057082
74	0xbca2ccad	-0.019872988
75	0xbd9718d8	-0.073777854
76	0xbcbabb91	-0.022794517
77	0x3e3cd0dc	0.18439049
78	0x3e0f396f	0.13986753
79	0xbc8968a0	-0.016773522
80	0xbca4bf71	-0.020110818
81	0x3e853a29	0.26020935
82	0x3e562878	0.20913875
83	0x3d86eb52	0.065878525
84	0xbd0dd8a5	-0.034630436
85	0x3e838f44	0.2569524
86	0x3d74f7ea	0.05980674
87	0x3d75b5b4	0.05998774
88	0x3d9b7ee3	0.07592561
89	0x3dd0bc77	0.10192197
90	0xbe04a3d6	-0.12953123
91	0x3e0d9665	0.13826902
92	0xbd6641b8	-0.056215018
93	0xbcca6201	-0.024704935
94	0x3e90621f	0.2819986
95	0x3e10b677	0.14132105
96	0x3dbc26c7	0.09187084
97	0xbc1ade1f	-0.009452372
98	0x3d8743ff	0.06604766
99	0xbd99d859	-0.07511968
100	0xbb4b7bea	-0.00310492
101	0x3df60674	0.120129496
102	0xbd26d6ae	-0.04073208
103	0xbd363e4b	-0.044493
104	0x3e08f98e	0.13376448
105	0x3da0d9d1	0.07854045
106	0x3cb3d3d5	0.021951595
107	0xbca7ceb4	-0.020484306
108	0x3e2d46da	0.16921559
109	0x3d349af8	0.044093102
110	0xbe1fa479	-0.15590085
111	0x3e4162c6	0.18885335
112	0xbbdfc415	-0.0068287947
113	0x3dd19902	0.10234262
114	0xbd2b72d2	-0.041857548
115	0x3e949b6b	0.29024825
116	0x3e12ea9a	0.14347306
117	0x3d1a00be	0.037598364
118	0x3dbb35f4	0.0914115
119	0xbe16037c	-0.14649767
120	0xbcd8b56a	-0.026453692
121	0x3d5f97d5	0.054588158
122	0xbbeff8f6	-0.0073233796
123	0x3e6ad5cd	0.22933121
124	0xbd899458	-0.067177474
125	0x3e8efe44	0.27928364
126	0xbe683eb6	-0.22680172
127	0x3e1a0f52	0.15044907

read_encoder.block2.1.weight f4 [128]
0	0x3f4c55ea	0.79818594
1	0x3f94218e	1.157274
2	0x3f730b5a	0.94939196
3	0x3f8232ab	1.0171713
4	0x3f175813	0.59118766
5	0x3f6649be	0.8995627
6	0x3f90fb1b	1.1326631
7	0x3f86ae48	1.0521936
8	0x3f8fcedc	1.1235003
9	0x3f450f5a	0.7697655
10	0x3f8d16b0	1.1022549
11	0x3f48ecbc	0.7848623
12	0x3fb760c4	1.4326406
13	0x3fadffc5	1.359368
14	0x3f2ffee3	0.687483
15	0x3f3879c0	0.72060776
16	0x3f9540c6	1.1660392
17	0x3f5b8922	0.85756123
18	0x3f1dad1f	0.61592287
19	0x3f3a733f	0.728321
20	0x3f9272ee	1.1441324
21	0x3f810880	1.0080719
22	0x3f3cc3ba	0.73736155
23	0x3f47e9bd	0.7809103
24	0x3f902405	1.1260992
25	0x3f9305dc	1.1486163
26	0x3f21205d	0.6294001
27	0x3fa30587	1.2736062
28	0x3f4dc29a	0.80375063
29	0x3f6b9a9e	0.920328
30	0x3f1d2fa2	0.61400807
31	0x3f96c842	1.1779864
32	0x3f8b82b2	1.089926
33	0x3f354847	0.7081341
34	0x3f475d49	0.77876717
35	0x3f19848f	0.59967893
36	0x3f2632e3	0.64921397
37	0x3f54a4e8	0.83064127
38	0x3f9d4901	1.2287904
39	0x3f246a3c	0.642246
40	0x3f6fe00d	0.9370125
41	0x3f70a965	0.94008476
42	0x3f72ff0f	0.9492044
43	0x3f592c19	0.8483291
44	0x3f848d3d	1.0355603
45	0x3fc0dec6	1.5067985
46	0x3f71ab89	0.94402367
47	0x3f4769f0	0.7789602
48	0x3f2d1afc	0.676193
49	0x3f6d51d5	0.9270299
50	0x3f3bfc0c	0.7343147
51	0x3f717e6d	0.94333535
52	0x3f86967b	1.0514673
53	0x3f767a2e	0.9628018
54	0x3f7c26a8	0.98496485
55	0x3f271ace	0.65275276
56	0x3f237e8f	0.6386499
57	0x3f6031fc	0.8757627
58	0x3f6837ed	0.90710336
59	0x3f72b5a1	0.94808394
60	0x3f668a05	0.9005435
61	0x3f41d347	0.7571301
62	0x3fa84547	1.3146142
63	0x3f1f9ce0	0.6234875
64	0x3f968e61	1.17622
65	0x3f9c3739	1.2204353
66	0x3f577be6	0.8417343
67	0x3f9bceb7	1.2172459
68	0x3f182116	0.59425485
69	0x3f9bd7d5	1.2175242
70	0x3f6b1e81	0.9184342
71	0x3f911bc7	1.1336602
72	0x3f417482	0.755684
73	0x3fbb114a	1.4614651
74	0x3f901d8c	1.1259017
75	0x3f912c9f	1.1341742
76	0x3f9a6811	1.2063009
77	0x3f5a0a07	0.8517155
78	0x3f6f2ba7	0.93425983
79	0x3f8cf8a8	1.1013384
80	0x3f96a953	1.1770424
81	0x3f1feaf5	0.6246789
82	0x3f21375c	0.62975097
83	0x3f9395c1	1.1530076
84	0x3fa69a86	1.3015907
85	0x3ef5ba76	0.4799382
86	0x3f748846	0.95520437
87	0x3f5acdb5	0.85470134
88	0x3f79f77f	0.97643274
89	0x3f3d5d4d	0.7397049
90	0x3f9b17b4	1.2116609
91	0x3f6abfff	0.9169921
92	0x3f862be6	1.0482147
93	0x3f9660f6	1.174834
94	0x3f2315cc	0.63705134
95	0x3f60e5cb	0.87850636
96	0x3f9accd7	1.2093762
97	0x3f95b233	1.1695007
98	0x3f54e605	0.8316348
99	0x3fb218f4	1.3913865
100	0x3f9b2133	1.2119507
101	0x3f8b2989	1.087205
102	0x3f57282d	0.8404568
103	0x3f8b5892	1.0886405
104	0x3f8767c2	1.0578539
105	0x3f85424c	1.0410857
106	0x3f845823	1.0339397
107	0x3f8e37c2	1.1110766
108	0x3f513372	0.81719124
109	0x3f7f8b62	0.99822056
110	0x3f930779	1.1486655
111	0x3f605e57	0.8764395
112	0x3f98f09c	1.1948428
113	0x3f5cf319	0.8630844
114	0x3f840745	1.0314718
115	0x3f5077e5	0.81432945
116	0x3f81cdf3	1.0140976
117	0x3f8529c2	1.0403368
118	0x3f6bd87d	0.9212721
119	0x3f90e50f	1.1319903
120	0x3f84d1e7	1.0376557
121	0x3f91e1f6	1.1397083
122	0x3fa24ff6	1.2680652
123	0x3f7a826d	0.97855264
124	0x3f9a257c	1.2042689
125	0x3f2ff335	0.6873048
126	0x3fa7bef7	1.3105153
127	0x3f897759	1.0739547

read_encoder.block2.1.bias f4 [128]
0	0xbe325980	-0.17416954
1	0xbe8be7dd	-0.27325335
2	0xbea0c32e	-0.3139891
3	0xbeaec327	-0.34133264
4	0xbf087ac3	-0.5331232
5	0xbeb6d2d8	-0.35707736
6	0xbede307c	-0.43396366
7	0xbe8b84e9	-0.2724984
8	0xbea51d3c	-0.32248867
9	0xbe1bafb8	-0.1520375
10	0xbe334939	-0.17508401
11	0xbe9eab85	-0.30990234
12	0xbe2cab54	-0.16862231
13	0xbea56fa4	-0.32311738
14	0xbe816334	-0.25270998
15	0xbeae2eaa	-0.34019977
16	0xbe4b46c3	-0.19851212
17	0xbe60c750	-0.21951032
18	0xbecc0852	-0.39850098
19	0xbe83487c	-0.2564124
20	0xbe4d34c6	-0.20039663
21	0xbe8a2643	-0.26982316
22	0xbe9cb718	-0.3060844
23	0xbe8e6aa5	-0.27815738
24	0xbe8d19c6	-0.27558726
25	0xbe20d9c7	-0.15708075
26	0xbea2cd63	-0.31797323
27	0xbe54dbd1	-0.20786978
28	0xbe67a5bb	-0.22621815
29	0xbece8780	-0.40337753
30	0xbeebdf71	-0.4606891
31	0xbe69991a	-0.2281231
32	0xbe0f5b29	-0.13999619
33	0xbe838c5c	-0.25693023
34	0xbe86a43c	-0.26297176
35	0xbed991e3	-0.42494115
36	0xbeb4dd64	-0.35325158
37	0xbe92a054	-0.28637946
38	0xbe3035fb	-0.17208092
39	0xbeba3f56	-0.36376446
40	0xbe64e6ea	-0.22353712
41	0xbebff222	-0.3748942
42	0xbe5a1c20	-0.21299791
43	0xbea05690	-0.31316042
44	0xbe3cd4e9	-0.18440594
45	0xbe8306f0	-0.2559123
46	0xbe69690c	-0.22793978
47	0xbea611fe	-0.32435602
48	0xbe889ffb	-0.26684555
49	0xbea0f082	-0.31433493
50	0xbe780866	-0.24221954
51	0xbec010a6	-0.37512702
52	0xbe360e40	-0.17778873
53	0xbe3f849a	-0.18702927
54	0xbe879c2d	-0.2648634
55	0xbebf8853	-0.37408695
56	0xbeb08523	-0.34476575
57	0xbe931d7b	-0.2873343
58	0xbea2bb43	-0.31783494
59	0xbe6484af	-0.2231624
60	0xbe861723	-0.26189527
61	0xbeb79995	-0.3585936
62	0xbd9778df	-0.07396101
63	0xbe6eac10	-0.23307824
64	0xbe098d9e	-0.13432929
65	0xbec50f64	-0.38488305
66	0xbecbd13f	-0.3980808
67	0xbe9f27d9	-0.3108509
68	0xbed27e02	-0.4111176
69	0xbe394df1	-0.18096139
70	0xbe6a93d5	-0.22907956
71	0xbe8fcba5	-0.28085056
72	0xbec4bccd	-0.38425294
73	0xbe8ac8aa	-0.2710622
74	0xbe2a6887	-0.16641437
75	0xbe26bb20	-0.1628232
76	0xbdf94086	-0.1217051
77	0xbe81bf5d	-0.2534131
78	0xbe5ff98c	-0.21872538
79	0xbe706dfe	-0.23479459
80	0xbe45dabe	-0.19321725
81	0xbef3aff0	-0.47595167
82	0xbeb497fb	-0.35272202
83	0xbea9a690	-0.3313489
84	0xbebabc87	-0.3647196
85	0xbf0e0701	-0.5547944
86	0xbe96a386	-0.29421633
87	0xbeb5e664	-0.35527337
88	0xbe3053f0	-0.1721952
89	0xbec09b26	-0.3761837
90	0xbe7c6971	-0.24649598
91	0xbe92991f	-0.28632447
92	0xbe85e25b	-0.26149258
93	0xbe557b23	-0.20847754
94	0xbec4e7e4	-0.38458169
95	0xbe51865c	-0.2046141
96	0xbe55e545	-0.2088824
97	0xbe3a90d7	-0.18219315
98	0xbeb51db3	-0.3537422
99	0xbe8a994c	-0.2707008
100	0xbdf4fa18	-0.11961764
101	0xbe717b4d	-0.23582192
102	0xbe9e5e3a	-0.30931264
103	0xbe32e9e3	-0.17472033
104	0xbeb777d2	-0.35833603
105	0xbe189842	-0.14901832
106	0xbe6b154c	-0.22957343
107	0xbe7ab890	-0.24484468
108	0xbe8ff558	-0.2811687
109	0xbe9840ab	-0.29736838
110	0xbeac6d73	-0.33677253
111	0xbe65c54f	-0.22438549
112	0xbe19f1fb	-0.15033714
113	0xbea4e864	-0.3220855
114	0xbeaed058	-0.3414333
115	0xbe804b66	-0.25057524
116	0xbea82219	-0.32838514
117	0xbe50e378	-0.20399272
118	0xbeb48c6f	-0.35263392
119	0xbe61f53e	-0.22066209
120	0xbe806d05	-0.25083175
121	0xbe9d1c7e	-0.306858
122	0xbde029a5	-0.10945443
123	0xbe3eacd9	-0.18620624
124	0xbea1c9a8	-0.31599164
125	0xbec8c0ea	-0.39209682
126	0xbe59283d	-0.21206756
127	0xbe80c1f4	-0.25147974

read_encoder.block3.0.weight f4 [128, 128]
0	0xbda9d9d6	-0.08293502
1	0xbc4a50ad	-0.012348336
2	0x3df9014d	0.12158451
3	0xbe8df97b	-0.277294
4	0x3befe80e	0.0073213642
5	0xbde63614	-0.11240783
6	0x3e5c99a9	0.21542992
7	0xbd0dc56b	-0.0346121
8	0x3e7a94dd	0.2447085
9	0x3d791d89	0.060819183
10	0xbd1db88d	-0.03850608
11	0x3d70b414	0.058765486
12	0x3dea7c3b	0.11449476
13	0x3bb9af4a	0.005666648
14	0x3cc8fe2b	0.02453526
15	0xbda6913e	-0.081331715
16	0xbdf5dc1d	-0.12004874
17	0x3c9255bd	0.017863149
18	0x3ce5f13d	0.028069133
19	0xbe1a7797	-0.15084682
20	0xbe5c7054	-0.21527225
21	0x3da97878	0.08274931
22	0xbe025706	-0.1272851
23	0xbe2a1738	-0.1661042
24	0xbdacfbab	-0.08446439
25	0x3ce7d4ee	0.028299775
26	0xbdd262b6	-0.10272734
27	0xbdf043c3	-0.117316745
28	0xbe121f0c	-0.14269656
29	0x3e83936e	0.25698417
30	0xbd0afd85	-0.03393318
31	0xbdc0d55c	-0.09415695
32	0x3e1352b2	0.14387015
33	0x3ce6df38	0.02818261
34	0xbe55dd79	-0.20885266
35	0xbe2dcc4d	-0.16972466
36	0xbc31ec4e	-0.010859562
37	0xbe9b39b5	-0.30317464
38	0x3e051c32	0.12999037
39	0x3cb47a95	0.022031108
40	0xbde0cb6a	-0.10976298
41	0xbe01a351	-0.12659957
42	0xbdcc95a4	-0.09989479
43	0x3df3d8ae	0.11906563
44	0xbea478ae	-0.3212332
45	0x3ecf3b1d	0.40474787
46	0xbdf4b19d	-0.119479395
47	0xbd2cb7c1	-0.04216743
48	0xbd7ed13e	-0.062211268
49	0xbc8bb836	-0.017055612
50	0x3d9c2175	0.07623569
51	0xbd92d557	-0.071695976
52	0xbde4c8b8	-0.111710966
53	0x3d02cf1d	0.0319358
54	0x3eebac8d	0.46030083
55	0x3d715892	0.058922358
56	0xbd8e7e65	-0.069577016
57	0x3d9dd27c	0.07706162
58	0xbea59fba	-0.32348424
59	0xbe3cc286	-0.1843358
60	0x3c0b60b1	0.00850694
61	0x3e370595	0.17873223
62	0x3bf3f160	0.0074445456
63	0xbd881eca	-0.066464975
64	0x3e41fb84	0.18943602
65	0xbeab6bc2	-0.3348065
66	0x3d51b183	0.05119468
67	0xbe8a62de	-0.27028555
68	0xbe22f7c0	-0.15914822
69	0x3ec07e89	0.3759654
70	0xbc3d89c2	-0.011568489
71	0x3e26566c	0.16243905
72	0x3e36bcda	0.17845479
73	0xbbc582de	-0.0060275635
74	0x3da0874e	0.07838307
75	0xbe40edc4	-0.188407
76	0xbe8e7d6f	-0.27830073
77	0xbe9038b9	-0.28168276
78	0x3e072c7a	0.1320056
79	0xbdd8d2bd	-0.1058707
80	0x3d99e1f8	0.07513803
81	0xbdb5d400	-0.088783264
82	0xbe24ad46	-0.16081724
83	0xbeb307f3	-0.34967002
84	0xbcf2f445	-0.029657492
85	0xbd652348	-0.05594185
86	0x3d3a92ad	0.045550037
87	0x3e0411ec	0.12897462
88	0x3e2de68b	0.16982476
89	0x3dff4957	0.1246516
90	0x3d85603f	0.06512498
91	0x3d233e6f	0.039854463
92	0x3e70f2b9	0.23530091
93	0x3db89694	0.090130955
94	0xbd43ed86	-0.047833942
95	0xbbb8077f	-0.005616128
96	0x3e4af21f	0.19818924
97	0x3df5e5b6	0.120067045
98	0x3d4b3301	0.049609188
99	0xbde2ad38	-0.11068195
100	0xbd690fdc	-0.05689989
101	0x3c8811a7	0.01660998
102	0x3e496113	0.19665937
103	0xbe636d9b	-0.2220978
104	0xbe84db14	-0.25948393
105	0x3e1c3e5b	0.15258162
106	0x3e2851f5	0.16437514
107	0x3e9a57c4	0.30145085
108	0xbd9f8d64	-0.0779064
109	0xbddb19c3	-0.10698273
110	0xbe4800f5	-0.19531615
111	0xbe46aceb	-0.194019
112	0x3d9d7410	0.07688153
113	0xbdc7fcb5	-0.09764997
114	0x3e9dceaa	0.30821735
115	0x3df9020c	0.121585935
116	0x3c664aae	0.014055891
117	0x3dd4528c	0.10367307
118	0x3e326bc7	0.17423926
119	0x3e811751	0.25213102
120	0x3cd39552	0.025828037
121	0x3e7d9099	0.24762191
122	0xbd8019dc	-0.06254932
123	0xbdd385ea	-0.103282765
124	0xbe604d4d	-0.21904488
125	0xbdd31e7d	-0.103085496
126	0xbe93fca1	-0.28903678
127	0xbe8308f9	-0.25592783
128	0x3b3be05e	0.0028667669
129	0xbd4be8d8	-0.049782604
130	0x3d92231e	0.07135604
131	0xbdd0d258	-0.1019637
132	0x3d256a00	0.040384293
133	0x3cb84300	0.022492886
134	0x3deaf3e9	0.114723034
135	0x3e1ba716	0.15200457
136	0xbc95d533	-0.018290138
137	0xbe1c2f3b	-0.15252392
138	0x3d00dd15	0.03146084
139	0x3dfcefd7	0.12350433
140	0xbdee97b6	-0.1165003
141	0xbd1ef8af	-0.038811382
142	0x3de1ccbd	0.11025379
143	0xbcfc3573	-0.030787205
144	0x3c885f51	0.016647013
145	0xbd4f77e8	-0.05065146
146	0x3d7bd217	0.061479654
147	0xbe3891fa	-0.18024436
148	0xbdc609d8	-0.09669846
149	0x3e3718a3	0.17880492
150	0x3d41d066	0.047317885
151	0x3d7e7536	0.0621235
152	0x3d2f74be	0.042835943
153	0x3bed981f	0.0072508003
154	0x3cd92f3a	0.026511777
155	0xbe12c3cc	-0.14332503
156	0xbd08d544	-0.03340651
157	0x3daa607a	0.08319183
158	0xbdb0aef0	-0.08627117
159	0x3ddb2bc6	0.107017085
160	0x3df61b59	0.12016935
161	0xbc857e7f	-0.01629567
162	0xbd987f22	-0.07446124
163	0xbe19d87c	-0.15023988
164	0x3dd72982	0.10505964
165	0x3c099490	0.0083972365
166	0xbc5137ed	-0.012769681
167	0x3c505e50	0.012717798
168	0x3e5962fc	0.21229166
169	0x3e1c1a1b	0.15244333
170	0x3d65a3dc	0.05606447
171	0x3be1c543	0.0068899705
172	0x3d2961a1	0.04135287
173	0xbd803fa4	-0.062621385
174	0x393a26f3	0.00017752852
175	0xbb88810b	-0.0041657737
176	0x3e8b633c	0.27224147
177	0x3e564a76	0.20926842
178	0x3cace473	0.021105027
179	0x3d63eb18	0.055644125
180	0x3df0abf4	0.117515475
181	0xbe39ff2e	-0.1816375
182	0x3dd2d601	0.10294724
183	0x3b06ce19	0.002056962
184	0xbd2752c8	-0.04085043
185	0x3ca27d9c	0.019835286
186	0x3e78200a	0.24230972
187	0x3c2ee028	0.01067356
188	0x3d617f18	0.055052847
189	0x3bbfbc18	0.00585128
190	0x3c8484b2	0.016176555
191	0x3d80953d	0.06278465
192	0x3e0e9d3c	0.13927168
193	0xb8990005	-7.295612e-05
194	0x3d17f8b6	0.037102424
195	0x3d8f2eef	0.06991374
196	0x3d21d07d	0.03950547
197	0x3db849ce	0.08998452
198	0xbdd522e1	-0.10407043
199	0x3d6d9a8b	0.05800871
200	0x3bbbb71a	0.0057286145
201	0x3d742a4a	0.059610642
202	0xbe364fc3	-0.17803864
203	0xbe7d97a5	-0.24764879
204	0xbe07790c	-0.1322977
205	0x3ca14e86	0.019690763
206	0xbcd9d0a3	-0.026588744
207	0x3e42cbd2	0.19023064
208	0x3cc34f28	0.023841456
209	0x3cbd379e	0.02309781
210	0xbd896a95	-0.06709782
211	0x3ddfa052	0.109192505
212	0xbda6e485	-0.081490554
213	0x3cea366a	0.0285904
214	0x3e52a8f2	0.2057226
215	0xbd9565a4	-0.07294777
216	0x3b8fc12f	0.004387043
217	0x3b2cce3d	0.0026368045
218	0x3d6c0c44	0.057628885
219	0x3d8c0e6c	0.06838688
220	0x3df6601e	0.12030052
221	0x3ad304f6	0.0016099501
222	0xbdd37763	-0.103255056
223	0xbd0f833a	-0.035037257
224	0xbe20cab1	-0.1570232
225	0xb99a4299	-0.00029422788
226	0x3e15b5f9	0.14620198
227	0xbda6ca4b	-0.08144053
228	0xbe2049c4	-0.1565314
229	0xbe10dc64	-0.14146572
230	0xbc2cf337	-0.010556034
231	0xbe393271	-0.18085648
232	0x3e5e2da9	0.21697105
233	0xbc27859e	-0.010224728
234	0x3dd2359e	0.10264133
235	0x3df28969	0.11842615
236	0xbd79402a	-0.060852207
237	0x3deae621	0.11469675
238	0x3ce9bc14	0.028532065
239	0x3d1eb3d0	0.0387457
240	0xbc85e6b4	-0.01634536
241	0x3d28c44c	0.04120283
242	0x3d72a2d6	0.059237324
243	0x3d40c29e	0.0470606
244	0x3dd66c62	0.10469891
245	0xbd5a1863	-0.053245913
246	0x3e040eb5	0.12896235
247	0xbd6e6b1a	-0.05820761
248	0x3dd209b2	0.102557555
249	0x3c06eb07	0.008234746
250	0x3b9ba416	0.004749785
251	0x3bf2a268	0.0074046142
252	0x3db50283	0.0883837
253	0x3d0a4130	0.033753574
254	0xbd3f2e4d	-0.046675015
255	0x3e6031d6	0.21894011

read_encoder.block3.0.bias f4 [128]
0	0xbcfb81fe	-0.030701634
1	0x3e38d1bd	0.18048759
2	0xbddadc60	-0.106865644
3	0x3dd63abc	0.104604214
4	0xbd532f97	-0.051559057
5	0x3cc2ce7e	0.023780104
6	0xbe490a62	-0.19632867
7	0xbd54b391	-0.05192906
8	0x3d66f410	0.0563851
9	0x3da7c3a9	0.08191616
10	0x3e2796c6	0.16366109
11	0x3e1bdcb4	0.1522091
12	0x3e4bbc20	0.19895983
13	0x3d5c9a9c	0.053858384
14	0x3e1e332c	0.15449208
15	0xbd7854df	-0.060627814
16	0x3e323d51	0.17406203
17	0x3e214f26	0.15752849
18	0x3d8b8a64	0.06813505
19	0x3cfa26f7	0.030536158
20	0x3e82f1cd	0.25575104
21	0xbdae2707	-0.085035376
22	0x3dd3b507	0.103372626
23	0x3de8ee66	0.11373596
24	0x3d3f562c	0.04671304
25	0x3daa264d	0.083080865
26	0x3ca40e12	0.02002624
27	0x3dee859b	0.11646577
28	0x3e0ddabd	0.13852973
29	0xbd909269	-0.070591755
30	0xbcfde66c	-0.030993663
31	0xbe2398a3	-0.15976195
32	0x3de39f96	0.11114423
33	0x3d9defed	0.07711778
34	0xbdbb3358	-0.091406524
35	0x3d216230	0.03940028
36	0xbdd02cc1	-0.10164786
37	0xbdb5843e	-0.08863114
38	0x3d4860df	0.04892051
39	0xbdedae36	-0.11605494
40	0xbd107c62	-0.03527487
41	0x3db589b8	0.088641584
42	0x3d81eb5b	0.063437186
43	0x3ca15111	0.019691976
44	0x3e358435	0.17726214
45	0x3dee9893	0.11650195
46	0x3dd38c2f	0.10329472
47	0xbe0f3a10	-0.13986993
48	0xbd36f030	-0.044662654
49	0xbe4951d6	-0.19660124
50	0x3e0e2fef	0.13885473
51	0xbd17d785	-0.03707077
52	0x3cd6f624	0.026240416
53	0x3e483570	0.19551635
54	0xbdf15f3b	-0.11785742
55	0xbc8bd8aa	-0.017071087
56	0xbd1734e2	-0.036915667
57	0x3d152022	0.036407597
58	0x3cde058f	0.02710226
59	0x3dd71f29	0.1050399
60	0xbd5c70bc	-0.05381845
61	0xbdf7f781	-0.121077545
62	0x3e23ee07	0.16008769
63	0x3debb92c	0.11509928
64	0x3e1ef621	0.15523578
65	0x3d396043	0.045257818
66	0x3e22a042	0.15881446
67	0xbd80aea0	-0.06283307
68	0xbd8bad31	-0.06820143
69	0x3e6915fc	0.22762293
70	0x3e4db872	0.20089892
71	0xbe0c7460	-0.13716269
72	0xbdc92a66	-0.0982254
73	0xbcbce0dc	-0.02305644
74	0x3c6e3a8d	0.014540327
75	0xbe2d2c55	-0.16911443
76	0x3e21920f	0.15778373
77	0x3dc5b057	0.09652775
78	0x3cd6cbfe	0.026220318
79	0xbe31fc29	-0.17381348
80	0xbd80bf47	-0.06286483
81	0x3b4b870d	0.0031055838
82	0x3da301c3	0.079593204
83	0xbe38f3b6	-0.18061718
84	0x3d997aa9	0.07494099
85	0x3d856787	0.06513887
86	0xbe1edb33	-0.15513305
87	0xbdc757ad	-0.0973352
88	0x3e0eebb5	0.13957103
89	0xbdd78ee0	-0.10525298
90	0xbe0fe345	-0.1405154
91	0xbdb89211	-0.09012235
92	0xbe572a4c	-0.21012229
93	0x3e38fc07	0.18064891
94	0xbdc7a53c	-0.09748313
95	0x3dd54b94	0.10414806
96	0x3e03b21b	0.1286091
97	0x3d6a957c	0.057271466
98	0xbdf1b3b9	-0.118018575
99	0x3e4d6e74	0.20061666
100	0x3d9b7488	0.07590586
101	0x3e43c767	0.19119035
102	0x3e267e17	0.16259037
103	0x3dcb6578	0.09931463
104	0x3d3b0a55	0.04566415
105	0x3d9db243	0.07700016
106	0xbe5527fc	-0.20816034
107	0xbe5fa64d	-0.21840782
108	0x3d32282b	0.04349534
109	0xbe6084ba	-0.21925631
110	0xbddfbff9	-0.10925288
111	0x3e31917f	0.17340659
112	0x3d629286	0.055315517
113	0x3dae9984	0.085253745
114	0xbc8e8d83	-0.017401462
115	0x3be18735	0.006882573
116	0x3dbadce0	0.0912416
117	0x3db2dfe2	0.087341085
118	0xbe711e77	-0.23546778
119	0xbc857b43	-0.016294127
120	0x3e120bbd	0.1426229
121	0xbe25c3cf	-0.16187976
122	0xbbd8e243	-0.0066187694
123	0x3da46287	0.08026605
124	0x3e66bf35	0.22533877
125	0x3d676705	0.05649473
126	0xbd394e53	-0.04524071
127	0xbaa63ed2	-0.0012683517

read_encoder.block3.1.weight f4 [128]
0	0x3f9c5617	1.2213773
1	0x3f6aa0b1	0.91651446
2	0x3f538cc5	0.8263667
3	0x3f76aa2a	0.963534
4	0x3f30ccbb	0.69062394
5	0x3f69ef7f	0.9138107
6	0x3f87ed39	1.061927
7	0x3f10de6b	0.5658938
8	0x3f8c7149	1.0972072
9	0x3f878ca7	1.0589799
10	0x3f73a1b8	0.9516864
11	0x3f6d6540	0.9273262
12	0x3f5ff7f6	0.87487733
13	0x3f847fae	1.0351465
14	0x3f5e5639	0.86850315
15	0x3f1de104	0.6167147
16	0x3f83dbaa	1.0301411
17	0x3f6d686f	0.9273748
18	0x3f3b4451	0.7315112
19	0x3f736dfb	0.9508969
20	0x3f6e79bb	0.93154496
21	0x3f84f779	1.0388023
22	0x3f675bf0	0.9037466
23	0x3f641523	0.8909475
24	0x3f5849f5	0.8448785
25	0x3f8e67c0	1.1125412
26	0x3f8cd4f3	1.1002487
27	0x3f66b68a	0.9012228
28	0x3f76f0e9	0.9646135
29	0x3f30a1dc	0.6899698
30	0x3f509506	0.8147739
31	0x3f4e87f3	0.8067619
32	0x3f97231a	1.1807587
33	0x3f945db4	1.1591096
34	0x3f413cdb	0.75483483
35	0x3f394620	0.7237263
36	0x3f29ffb5	0.664058
37	0x3f11d4bb	0.56965226
38	0x3f84ba13	1.0369285
39	0x3f7d5eb4	0.9897263
40	0x3f77f35f	0.9685573
41	0x3f3e6e18	0.7438674
42	0x3f69bcd7	0.9130377
43	0x3f638485	0.88874084
44	0x3f7b8cb4	0.9826157
45	0x3f9bb442	1.2164385
46	0x3f658738	0.8965945
47	0x3f55764b	0.83383626
48	0x3f69a757	0.91270965
49	0x3f944943	1.1584858
50	0x3f642949	0.89125496
51	0x3f418962	0.75600255
52	0x3fa35c09	1.2762462
53	0x3f804366	1.0020568
54	0x3f8954e5	1.0729033
55	0x3e978621	0.2959452
56	0x3f38be11	0.7216502
57	0x3f55ceed	0.8351887
58	0x3f001196	0.50026834
59	0x3f7c0762	0.98448765
60	0x3f451c0a	0.7699591
61	0x3f5edef6	0.8705896
62	0x3f75d34c	0.9602554
63	0x3fa07d4e	1.253824
64	0x3f91da8c	1.139482
65	0x3f04417b	0.51662415
66	0x3f6b4ccc	0.9191406
67	0x3f443b85	0.7665332
68	0x3ee7aa10	0.45246935
69	0x3f604c53	0.8761646
70	0x3f72c27e	0.9482802
71	0x3f9fc0f2	1.2480757
72	0x3f8bd5d3	1.0924629
73	0x3fad57c1	1.3542405
74	0x3f9fc80b	1.2482923
75	0x3fc41a79	1.5320579
76	0x3f696615	0.9117139
77	0x3f6773c7	0.9041104
78	0x3f72597e	0.94667804
79	0x3fb784b9	1.4337379
80	0x3f83c888	1.0295572
81	0x3f4eb16b	0.8073947
82	0x3f6986ba	0.912212
83	0x3f86f6aa	1.0544026
84	0x3f807570	1.0035839
85	0x3f4d2b31	0.8014403
86	0x3f8db458	1.1070662
87	0x3f9235b4	1.1422639
88	0x3f7513fd	0.95733625
89	0x3f431c0a	0.7621466
90	0x3f80d7fe	1.0065916
91	0x3f719a36	0.9437593
92	0x3f9afd72	1.2108595
93	0x3f7c529a	0.9856354
94	0x3f09ef2e	0.53880584
95	0x3f92b419	1.1461211
96	0x3f736fd8	0.95092535
97	0x3f8dfb09	1.1092235
98	0x3f8935ca	1.071954
99	0x3f76cb9e	0.96404445
100	0x3f71abe6	0.9440292
101	0x3f6cf024	0.92553926
102	0x3f7befa7	0.98412555
103	0x3f9ff366	1.2496154
104	0x3f594491	0.8487025
105	0x3fb33819	1.4001495
106	0x3fb250c6	1.39309
107	0x3f9d8e24	1.2309003
108	0x3f7d7faf	0.99022955
109	0x3f9026a8	1.1261797
110	0x3f9ec105	1.2402655
111	0x3f76414b	0.9619338
112	0x3f851e34	1.0399842
113	0x3f718ce3	0.943556
114	0x3f244d73	0.6418068
115	0x3f6165a2	0.88045704
116	0x3f695d36	0.91157854
117	0x3f5f3c00	0.8720093
118	0x3f93bbd1	1.1541692
119	0x3f34eeb3	0.70676726
120	0x3f6e0ab6	0.92985094
121	0x3f534423	0.82525843
122	0x3f9ab278	1.2085714
123	0x3f6c878f	0.92394346
124	0x3f69add4	0.91280866
125	0x3f32f3e8	0.6990342
126	0x3f9f70cc	1.2456298
127	0x3f343f0e	0.70408714

read_encoder.block3.1.bias f4 [128]
0	0xbeb736b5	-0.35783926
1	0xbd897adb	-0.06712886
2	0xbed44988	-0.4146235
3	0xbd440bb9	-0.047862742
4	0xbede3044	-0.433962
5	0xbdc30c01	-0.09523774
6	0xbcdeb019	-0.02718358
7	0xbf204faf	-0.6262159
8	0xbde1c206	-0.11023335
9	0xbdc2aa86	-0.09505181
10	0xbd9ad19a	-0.075595096
11	0xbe04cb7d	-0.1296825
12	0xbdbad8d6	-0.091233894
13	0xbdcd5f11	-0.10027898
14	0xbe214e6d	-0.15752573
15	0xbe22793f	-0.15866564
16	0xbdc66ac5	-0.096883334
17	0xbd8614f2	-0.06546964
18	0xbe7ddac0	-0.24790478
19	0xbd56e90b	-0.05246834
20	0xbd7f0c8f	-0.062267836
21	0xbea8daf3	-0.32979545
22	0xbdc859d3	-0.097827576
23	0xbdd72a0e	-0.10506068
24	0xbde869a5	-0.11348275
25	0xbe098fea	-0.13433805
26	0xbdfc5ac7	-0.12322002
27	0xbdd9d477	-0.106362276
28	0xbd2e5070	-0.04255718
29	0xbe8794ba	-0.26480657
30	0xbe2ae117	-0.16687427
31	0xbe4cbcfd	-0.19993968
32	0xbe74408c	-0.23852748
33	0xbe6b847c	-0.22999758
34	0xbc67926b	-0.01413403
35	0xbec177d0	-0.37786722
36	0xbea7bbd5	-0.32760492
37	0xbef5ae29	-0.47984436
38	0xbe506ed3	-0.20354776
39	0xbd9e8d19	-0.07741756
40	0xbe74b8fd	-0.23898692
41	0xbe600e41	-0.21880437
42	0xbd9d9921	-0.07695223
43	0xbe0d408d	-0.13794155
44	0xbd9d1a9c	-0.07671091
45	0xbe260f1d	-0.16216703
46	0xbdb0ec1d	-0.08638785
47	0xbe8c0025	-0.2734386
48	0xbe508420	-0.20362902
49	0xbea73f10	-0.326653
50	0xbd4a47e3	-0.049384963
51	0xbe7b223a	-0.24524775
52	0xbe1641c3	-0.14673524
53	0xbd650044	-0.055908456
54	0xbe6c4b8e	-0.23075697
55	0xbf603fea	-0.87597525
56	0xbe8367e0	-0.25665188
57	0xbe477c74	-0.19481069
58	0xbf1bb7bb	-0.60827225
59	0xbd4cb27c	-0.049974903
60	0xbe6c9982	-0.23105434
61	0xbe946e8c	-0.2899059
62	0xbddd89b6	-0.10817282
63	0xbe7a2d22	-0.2443128
64	0xbe040c54	-0.12895328
65	0xbedab5ed	-0.42716923
66	0xbd9163aa	-0.070990875
67	0xbe5698db	-0.20956747
68	0x3d461b27	0.04836574
69	0xbd3db11f	-0.046311494
70	0xbdb16b12	-0.08663
71	0xbd9bb32a	-0.07602532
72	0xbb955ec4	-0.004558416
73	0xbef4371d	-0.47698298
74	0xbe192fce	-0.14959642
75	0xbea34375	-0.31887403
76	0xbdc9d985	-0.09855942
77	0xbde8c755	-0.113661446
78	0xbd92b1b8	-0.071628034
79	0xbd9aeef9	-0.07565112
80	0xbe73e17a	-0.23816481
81	0xbe5c8d0a	-0.21538177
82	0xbdb5706c	-0.088593334
83	0xbd3e49d6	-0.046457134
84	0xbd8f61d8	-0.07001084
85	0xbe88e168	-0.2673447
86	0x3cae3368	0.021264747
87	0xbea15f1c	-0.31517875
88	0xbd8458bd	-0.06462238
89	0xbe75f0e6	-0.24017677
90	0xbe6f9c81	-0.23399545
91	0xbed50f9b	-0.4161347
92	0xbd2865b6	-0.041112624
93	0xbdcdca02	-0.100482956
94	0xbed3be0d	-0.41355935
95	0xbdecb73c	-0.11558387
96	0xbd7edf7b	-0.062224846
97	0xbe1da3cb	-0.15394513
98	0xbdc6e861	-0.097122915
99	0xbd694234	-0.0569479
100	0xbd8b6f1d	-0.068083026
101	0xbd719067	-0.058975603
102	0xbd8243bd	-0.06360576
103	0xbeb0cbc3	-0.34530458
104	0xbdee1884	-0.1162577
105	0xbe6f3e26	-0.23363551
106	0xbe2e56b2	-0.17025259
107	0xbe597e24	-0.21239525
108	0xbdd661ce	-0.104678735
109	0xbda516bc	-0.08060977
110	0xbcf549cc	-0.029942416
111	0xbd535c50	-0.051601708
112	0xbda7f993	-0.082018994
113	0xbe163872	-0.1466997
114	0xbeb73c3d	-0.35788146
115	0xbdd228d8	-0.102616966
116	0xbdb17b4b	-0.086660944
117	0xbde1fc16	-0.1103441
118	0xbd3e7436	-0.046497546
119	0xbe103c29	-0.1408545
120	0xbd93131d	-0.0718138
121	0xbf00ba01	-0.5028382
122	0xbe2580d3	-0.16162424
123	0xbd47c06b	-0.04876749
124	0xbdf3edba	-0.11910577
125	0xbecff357	-0.4061534
126	0xbe7c6e2a	-0.24651399
127	0xbe9398fd	-0.28827658
